models/eeg_only/s_01.pt (torch, 561186 bytes, 37 tensors)

band_attn.fc1.weight f4 [8, 5]
000000 29 95 c1 3e bb b8 05 3f 5b ae 60 3e 02 78 e7 3e
       0.37809113 0.52235 0.21941511 0.45208746
000010 6d 86 39 be 3c d0 29 3e 8d 10 f0 be 9f ea fd 3e
       -0.18117686 0.16583341 -0.46887627 0.49593064
000020 64 53 19 3f 7d 7a 58 be 57 5e c5 3e 4c 4d 54 3e
       0.5989287 -0.21140476 0.38548538 0.20732611
000030 9a 79 fd 3e 80 c5 a9 3e 40 7b db 3e 36 76 69 be
       0.49506837 0.33158493 0.4286747 -0.22799
000040 47 ea cf 3e 76 8d a8 3d c3 79 33 be 62 f5 86 3d
       0.40608427 0.082301065 -0.17526917 0.06589772
000050 6f 64 91 be ca 51 15 be b8 9a 8c be c3 f4 e9 3d
       -0.28396937 -0.14581981 -0.2746179 0.11423638
000060 12 38 01 bf cf 04 b7 be 7a 7c 83 3c e4 2f 02 bf
       -0.5047618 -0.35745856 0.016050566 -0.50854325
000070 0c d7 7c be d3 a9 35 bf 92 a7 fe 3e f7 0e bd be
       -0.24691409 -0.70962256 0.4973722 -0.3692548
000080 d1 f4 e6 3e cd 92 af 3e 8f 4b 1f 3e f0 91 ca 3e
       0.45108655 0.34291688 0.15556167 0.39564466
000090 2b 59 5b bd 19 86 ed 3e 90 10 f7 3d c7 1a 7c bd
       -0.053551834 0.4639137 0.12063706 -0.061548974

band_attn.fc1.bias f4 [8]
000000 e5 f5 c3 3e e3 43 d1 3d 4b 4e cd 3e 12 a6 c9 3e
       0.3827354 0.102180265 0.40098795 0.39384514
000010 20 26 ba 3e 60 52 37 be 4f 8a b2 3e 45 b4 0c 3e
       0.36357212 -0.17902517 0.34871146 0.13740642

band_attn.fc2.weight f4 [5, 8]
000000 8a f0 da 3d cd 70 64 be 97 28 ce be b0 6e 10 be
       0.106904104 -0.22308655 -0.40265343 -0.14104724
000010 50 4c 87 be 51 32 99 3e 08 99 83 3d 4f b0 25 3e
       -0.2642541 0.299212 0.06425673 0.16180538
000020 d9 94 40 3e 02 06 52 3c 9d 89 93 3e c8 59 ec bd
       0.18806781 0.012818815 0.28815928 -0.11540562
000030 9c 16 48 bc ab 52 d4 be 30 ea db 3d 2f a0 02 be
       -0.012212422 -0.4146932 0.10738027 -0.12756418
000040 30 51 07 3e 3b e7 ba 3d f0 09 c7 3e 36 5b 9c be
       0.13214564 0.09126135 0.3887477 -0.30538338
000050 5b 20 c0 be 91 3c cd be f9 b3 eb 3e af e9 30 3e
       -0.37524685 -0.4008527 0.46035746 0.17276643
000060 67 e5 4e 3e a5 0e 13 bf a2 90 fe be 91 4e b7 be
       0.20204698 -0.5744422 -0.4971972 -0.3580213
000070 55 46 6b be 5e 0f 12 3e c0 e4 9a 3c ff 95 bd 3e
       -0.22976048 0.14263675 0.018907905 0.370285
000080 02 26 12 bf ab bf 3a bf a4 ad 1a be 01 9c 82 be
       -0.57089245 -0.7294871 -0.15105301 -0.25509647
000090 28 1f b6 3e 41 e7 12 3e 5b b2 5b be 75 33 1c bf
       0.35570645 0.14346029 -0.21454756 -0.6101602

band_attn.fc2.bias f4 [5]
000000 b6 9b 86 be fa ba 6e 3e 15 b5 f2 3b fd 5e 9f bd
       -0.26290673 0.23313513 0.0074068406 -0.077817895
000010 f3 8d 1d 3e
       0.1538618

feat_proj.weight f4 [128, 21]
000000 f2 3b 87 3e 84 54 a3 be 3a 8e bc bc d0 b3 83 bd
       0.26412922 -0.31900418 -0.023017038 -0.06430781
000010 43 36 39 be fb 04 b2 bd 06 49 82 be d2 72 20 be
       -0.18087105 -0.08692356 -0.25446337 -0.156688
000020 f7 9f 53 3d ee 7f 2d bd 4c 3a 30 be fe 3b 9d 3d
       0.051666226 -0.04235833 -0.17209738 0.07677458
000030 05 10 00 be 93 be 1a be 21 e6 76 bd ea fe 02 be
       -0.12506111 -0.15111761 -0.06027806 -0.12792554
000040 93 6d e9 bd 4a 95 6f 3e f6 65 49 3d da 4a 9e 3d
       -0.11397853 0.23396793 0.049169503 0.077291206
000050 3a 48 67 be 7a b2 43 bd 4a 10 28 be ab 2d 92 bc
       -0.22586146 -0.04777763 -0.16412464 -0.017844042
000060 bd 63 77 be b5 ae 16 3c 4d d6 04 be c1 d9 ba bd
       -0.24159141 0.009196927 -0.12972374 -0.091235645
000070 36 fc b0 bd 54 0f fe bc 06 3a 14 be fa 0b 37 be
       -0.086418554 -0.031013168 -0.14475259 -0.17875662
000080 5f 49 22 bc c1 f6 93 bd 36 fb 1f be 4d f3 51 3e
       -0.009905188 -0.07224799 -0.15623173 0.20502968
000090 1f f8 eb 3b 14 eb 23 3e 40 c2 04 3d 1b d6 66 be
       0.007201209 0.16007644 0.032411814 -0.22542612
0000a0 29 cf cd 3d 1e 73 19 be 7a f4 e9 bd d0 85 5d be
       0.10049278 -0.1498532 -0.11423583 -0.21633077
0000b0 a7 d1 94 be f0 ea 02 bd bf ea ef bd e3 bf 75 3d
       -0.29066202 -0.031962335 -0.11714696 0.05999745
0000c0 1a 5a 3d be 54 e8 ee 3d 44 a1 d1 bd 9b 0e ae bd
       -0.18491402 0.11665407 -0.10235837 -0.084988795
0000d0 a1 cb 47 3d 0a 1f eb 3d 17 15 09 3e 89 2b 53 3e
       0.04877818 0.114805296 0.13386951 0.20622076
0000e0 61 f0 25 be 17 08 1d 3d 7e 25 79 bd a4 31 2a bc
       -0.16204979 0.038337793 -0.06082677 -0.010387812
0000f0 f9 44 0e be 73 49 6c 3e ec 07 3e bd df 8c 60 3e
       -0.13893498 0.23074894 -0.046394274 0.21928738
000100 96 d4 8e bd e0 4e b6 3d 37 d2 92 be 2b 25 70 3e
       -0.06974141 0.08901763 -0.28676006 0.23451678
000110 5e 93 09 3d 01 e5 a7 ba 45 e0 24 be 3c 46 d0 3d
       0.033587806 -0.0012809337 -0.16101177 0.10169646
000120 b6 21 5c bd 6a 1e c0 bd d8 6d 6e 3e 07 98 93 3d
       -0.053743087 -0.09380801 0.2328409 0.07206731
000130 34 19 1f be 71 fd 83 bd 8b ff 84 bc 1e d0 16 3e
       -0.15536958 -0.064448245 -0.016235134 0.14727828
000140 65 59 dd bc 3d 5e f3 bd d2 e2 44 bd 63 4a 4e be
       -0.027020166 -0.11883209 -0.048067875 -0.20145564
000150 53 e8 ab 3d 4d e1 83 3e 7c d7 ac be 5e 6c 99 3e
       0.08393922 0.25757828 -0.33758152 0.2996549
000160 45 e6 84 3e 30 a4 3b 3d 5f 80 69 bd 08 50 f1 3d
       0.25956932 0.04581088 -0.05700719 0.11782843
000170 aa 98 17 3e 50 fe f8 3d bb 21 69 3c 6b 61 bb bd
       0.1480433 0.12157881 0.014229233 -0.091494404
000180 2b 3a 80 bc 44 44 a7 bd 90 9b 8e bc 31 df 38 3e
       -0.015652737 -0.081673175 -0.017408162 0.18053891
000190 b3 f0 24 3e 94 e1 ec bc 5e 9a 64 bd 6d 3b ad 3c
       0.16107444 -0.028916158 -0.05581128 0.0211465
0001a0 64 69 fc bd af 1c 6d bd 77 f1 32 3e 4b 8b 26 be
       -0.12324789 -0.057888683 0.17474924 -0.16264074
0001b0 5b 17 0d be 94 ea c0 3d cb 01 bd 3d e3 ca fc 3c
       -0.1377844 0.09419742 0.092288576 0.030858463
0001c0 af 7c df bd 8e 83 ea bd 88 e9 68 be 47 e6 94 bd
       -0.109124534 -0.11450873 -0.22745335 -0.072704844
0001d0 bf 1b f6 bb 75 ae c5 3d f2 ab a2 3d cf 1c 6b be
       -0.007510632 0.09652416 0.07942952 -0.22960208
0001e0 03 30 12 be 86 e0 a7 bb f3 95 7a 3e ad 43 93 3d
       -0.14276128 -0.005123201 0.24471264 0.071906425
0001f0 c6 5b 5e bc 2e d9 15 3e 65 16 21 3e 76 46 84 be
       -0.013571685 0.14633629 0.15731199 -0.25835007
000200 ef e4 44 3e bc f8 15 be 10 7e 1a bc 9a 71 64 be
       0.19227956 -0.14645666 -0.00942947 -0.2230896
000210 ef 96 44 3e 7f 26 18 3e 3b 9e 7f 3d e8 89 e4 bd
       0.19198202 0.14858435 0.06240676 -0.11159116
000220 b7 a4 6d be 0a 28 2f be 31 e4 05 3e 78 ac 18 3e
       -0.23207365 -0.17105117 0.1307533 0.14909542
000230 fa 8d 50 3e 8f 1f cc 3d c2 dd 0f 3d 25 fa 86 bd
       0.2036666 0.09966957 0.035123594 -0.0659068
000240 87 26 50 be 63 ae 5c be 3c 7c ef bd 42 e5 99 3d
       -0.20327197 -0.21550898 -0.11693618 0.075144306
000250 b3 3c 20 be 15 b1 07 be 96 21 9e 3c 7b ca b1 3d
       -0.15648155 -0.13251145 0.019303124 0.08681198
000260 a5 6b 30 be 48 aa 18 be b7 28 b3 3d 4e e3 0c bd
       -0.17228563 -0.14908707 0.08748 -0.034396462
000270 26 4b 02 3e f2 41 2c bc 05 38 3a be 34 3e a5 bc
       0.1272398 -0.010513769 -0.18185432 -0.020171262
000280 a6 00 40 bd f7 be 00 bd cc 88 5c be 14 0d 08 3e
       -0.04687562 -0.03143212 -0.21536559 0.13286239
000290 b6 56 ec bd 22 9f 1b 3e fb bf 19 3e 0d 3b 08 3e
       -0.11539976 0.15197423 0.15014641 0.13303776
0002a0 33 e1 20 be d2 5a 8b 3d 76 24 6d bd 81 05 8a bd
       -0.15710907 0.06804432 -0.0578961 -0.06739331
0002b0 dd 1e 0b 3e 77 2d 61 bd 72 61 2f 3c e7 f8 8f bd
       0.13585992 -0.054975 0.010704385 -0.07029896
0002c0 79 07 0f be 3e 35 80 3d f9 20 73 be a8 27 6d 3d
       -0.13967694 0.06260155 -0.23743047 0.057899147
0002d0 ad 1c e3 3d 09 12 65 3e ff 9b 06 bc 21 04 f3 bd
       0.11089454 0.22370161 -0.008215903 -0.11866022
0002e0 de 97 be 3d b5 08 1d 3e bc 9f 23 be f2 a5 45 3c
       0.0930631 0.15335353 -0.15978903 0.01206349
0002f0 8c d7 86 3c 03 af af 3d 58 b8 42 be 33 1b 10 bd
       0.016460203 0.08578303 -0.19015634 -0.03518219
000300 99 95 82 be f8 62 5a be 07 7d 4a 3e 2c b2 4b 3e
       -0.2550476 -0.21326816 0.19774257 0.19892186
000310 70 dc 15 bd 25 40 f6 bc 9a 57 e2 bd 71 31 50 be
       -0.03658718 -0.030059883 -0.11051865 -0.2033136
000320 c5 95 6f be c6 85 1e 3e f4 2e b8 bd 67 fa 1c be
       -0.23396976 0.15480718 -0.089933306 -0.15329896
000330 f7 b0 df bc ec 7f 40 bd 74 12 3c bd 07 12 0f 3c
       -0.027306063 -0.046996996 -0.045916036 0.008732325
000340 21 a8 42 bd 5f 22 3e 3d af e2 83 bd 62 2f 9a be
       -0.04752362 0.046419498 -0.06439721 -0.30114275
000350 9a 07 9b 3e ad 79 81 be 41 ba dd bd aa b2 30 bd
       0.30279237 -0.25288144 -0.10826541 -0.043139137
000360 1a 9e b6 bc 00 0f 5e 3e 4e e9 9e 3d bf d3 31 be
       -0.022292186 0.2168541 0.07759343 -0.17365931
000370 27 09 a4 3d c4 8f 13 3e 2b 3f a9 3c 4f 9a 2e 3e
       0.08009558 0.14410311 0.020660004 0.17051052
000380 49 13 73 3e 4c 21 a6 bb 41 58 53 3d 4b 13 23 be
       0.23737825 -0.0050698873 0.051597837 -0.15925328
000390 2c 96 48 bd 41 20 15 3e e7 eb e8 3a aa 9f 5a be
       -0.04897134 0.14563085 0.00177705 -0.2134997
0003a0 6b 88 fa 3c e0 d2 0c be 28 ce 98 be dc 4b 7c be
       0.030582627 -0.13752317 -0.29844785 -0.24638313
0003b0 1a 8d 3f bd 02 2d 1f 3e a7 03 94 3c 36 8c 34 be
       -0.046765424 0.15544513 0.018068148 -0.17631611
0003c0 53 89 2e be d4 20 98 3d f9 f2 2c be 4f ae a6 3b
       -0.17044573 0.074281365 -0.16889562 0.005086697
0003d0 ff 2a b9 3d 9b 30 3a be c5 bb 96 3c 1b b7 c0 3a
       0.09041404 -0.18182604 0.018400082 0.0014703007
0003e0 e2 a4 07 bd 04 39 c3 bd 3d fe 4f be 47 23 20 bd
       -0.03311623 -0.09532359 -0.20311828 -0.039096143
0003f0 39 b2 ac bd 31 9c 71 3e 5b 4e 06 be ff 0e 66 be
       -0.08432431 0.23594739 -0.13115828 -0.22466658

feat_proj.bias f4 [128]
000000 8c e0 e3 bd 01 f1 c0 3d f6 59 01 be 5c b3 93 bb
       -0.11126813 0.09420968 -0.12631974 -0.0045074653
000010 5e eb ae 3d 61 13 18 be 98 bb 00 3e 22 be 8b bd
       0.085409865 -0.14851142 0.12571561 -0.06823374
000020 de 69 20 3b 20 f7 06 be 09 71 b0 bd a0 5b 86 bd
       0.0024477164 -0.13180208 -0.0861531 -0.06560445
000030 33 3b 30 be 1f 23 5f 3d 6f d4 b8 3c 6c 99 43 3e
       -0.17210083 0.054476853 0.022562234 0.19101495
000040 4c 21 02 3e 2d 9a 0e 3e 3d 80 2f 3d 01 00 03 3e
       0.12708014 0.13926001 0.042846907 0.1279297
000050 68 af 37 3e 24 76 14 3e 21 9c f8 bd a9 fe d1 bc
       0.17938006 0.14498192 -0.12139154 -0.025634127
000060 26 d9 47 be 2d 39 68 3c 88 3b 28 bd 30 0c 47 3e
       -0.1951643 0.014173788 -0.0410724 0.19438243
000070 84 8d bb 3c 57 da 2c 3c c4 db 16 be 1d 86 1d be
       0.022894628 0.010550103 -0.14732271 -0.15383191
000080 ba 56 81 3d 82 6b b1 bd 05 db 88 bd 84 ce ef 3d
       0.0631537 -0.086630836 -0.066824 0.117093116
000090 d1 84 e0 bd 44 08 ac bd 92 3a 44 3e d0 8b c6 3d
       -0.10962833 -0.08400014 0.19162968 0.09694636
0000a0 c1 5e ed bd 86 23 8e 3d 8c 3f a0 3d 1e e7 1f be
       -0.115903385 0.06940369 0.078246206 -0.15615508
0000b0 3f 79 db 3c cc 43 3c 3d cf 46 e5 3b 29 08 12 3e
       0.026791213 0.045963094 0.0069969664 0.14260925
0000c0 77 98 07 be 08 b7 f0 3d 4a fb 29 be 24 00 28 be
       -0.13241754 0.117536604 -0.16599765 -0.16406304
0000d0 8e 08 06 3e 74 a2 76 bd d9 92 b5 3c 11 e5 79 3d
       0.13089201 -0.06021352 0.022164749 0.06100947
0000e0 17 b9 22 be 25 f8 23 be 8a ec 45 3d 1b 73 4a 3e
       -0.15890919 -0.16012628 0.048321284 0.19770472
0000f0 94 7d 24 bd 3f 45 12 3e a4 a3 43 3d 3f 23 b1 3c
       -0.040158823 0.14284228 0.04776348 0.021623252
000100 09 99 20 be d7 c7 37 3e 98 40 8f 3d 61 f6 f0 3c
       -0.15683378 0.17947327 0.06994742 0.029414358
000110 30 94 0d 3e 0f 91 23 be 6d 3c 92 3d 66 6e ac bd
       0.1382606 -0.15973304 0.071404316 -0.08419494
000120 7e 67 6f bc a6 0e 95 3d 37 a7 d1 3d 21 3b 71 3c
       -0.014612077 0.072781846 0.10236972 0.01472357
000130 1e a2 0f be e4 23 d0 bd 94 12 92 bc 41 6a 04 bd
       -0.14026687 -0.101630956 -0.017831124 -0.032327894
000140 19 3d 2d be 86 2c 3b 3e 1d 02 29 3d 72 39 28 be
       -0.16917838 0.18278703 0.04126178 -0.16428164
000150 ca 61 b2 3d 8e 0a d4 3d fd e0 d4 bd 3d 37 cc 3d
       0.08710058 0.10353576 -0.103944756 0.09971473
000160 f1 1c 0d be 0c 21 15 3d 32 aa 1e 3e 69 79 e8 3d
       -0.13780572 0.03640847 0.15494612 0.11351282
000170 19 2e ea 3d 4c 52 3b bd 13 40 00 3d e1 31 4d 3d
       0.11434574 -0.04573278 0.031311106 0.050096396
000180 6c c1 53 3d 01 57 dc bc 5d 99 cd 3c 50 07 8d bd
       0.051698133 -0.026896955 0.025097543 -0.068861604
000190 5a 0e e4 bd 38 d9 2c be 46 d8 12 be cd e2 0b be
       -0.1113555 -0.16879737 -0.14340314 -0.13660736
0001a0 e9 fb 41 3e b7 eb 55 3d d7 99 13 be cd 41 d9 bd
       0.18943752 0.05222675 -0.14414154 -0.10608254
0001b0 db e7 50 3d 4e 64 22 bd 7a ec 1b bd 64 2b 4d bd
       0.051002365 -0.03964644 -0.03806732 -0.05009021
0001c0 58 2f 2f bd 7e 2b 34 3c 3c f3 4f 3d 63 cf 00 3e
       -0.04276976 0.0109966975 0.050769076 0.12579112
0001d0 ec b7 14 3e 3c fc 0a 3e 28 0b 3a bc 8c cc 87 bd
       0.14523286 0.13572782 -0.011355199 -0.06630811
0001e0 3c d6 ae bc b0 77 e3 bd 4e 40 c9 3d 37 38 9d bc
       -0.02134239 -0.11106813 0.09826718 -0.019191844
0001f0 4f 28 a8 bd b4 50 47 be 31 3b b5 3d 9f 3e 09 3e
       -0.08210813 -0.1946438 0.088491805 0.13402794

local1.conv.bias f4 [128]
000000 42 ab 23 bc ac ff cf bc 2f 68 84 3b d6 66 0b bc
       -0.0099895615 -0.025390469 0.00404074 -0.008508405
000010 77 db 32 bc 3b b0 30 3c 2b 21 a5 bb c6 3e ed 3c
       -0.010916582 0.010784204 -0.0050393543 0.028960597
000020 9f b6 d2 bb 93 50 0b ba 13 af 1f bd 6d 20 9c 3c
       -0.0064304615 -0.00053144357 -0.038985323 0.01905843
000030 35 64 67 bc e5 70 e7 bb 12 7d 04 3d ab d4 cc bc
       -0.014123012 -0.0070630186 0.03234584 -0.025003752
000040 7d 55 59 3c a5 d3 5a 3d 9a c0 8a bc d5 d6 82 b9
       0.013265011 0.053424496 -0.016937543 -0.00024955595
000050 7f 7a f7 3c 0d 81 40 3c 7c a2 ac 3c fb 61 cc 3b
       0.030209778 0.011749518 0.021073572 0.006237266
000060 50 f9 8b 3a 48 67 f9 bc dd 42 c7 3c af 94 84 3c
       0.0010679159 -0.030444756 0.024323875 0.01618418
000070 e6 32 a7 3c bd e9 8f bc 57 6f c1 3c 53 b1 52 bc
       0.020410012 -0.01756751 0.023612661 -0.01285966
000080 9c 5e 0d bc da 53 51 3c 69 90 f8 3c 30 25 86 3c
       -0.008628514 0.012776339 0.030342298 0.016375154
000090 df c3 70 bc f7 5f 24 bc 06 3f 8f 3c d8 d5 4f 3c
       -0.014695137 -0.010032645 0.017486107 0.012685262
0000a0 f8 9d 07 3c 20 63 43 3b c6 c5 91 bc a8 ac b4 bc
       0.008277409 0.0029813722 -0.017794501 -0.022054985
0000b0 48 1e 0a bd 1d 39 58 bc 2a 96 84 3c 2d 0e ee bb
       -0.033720285 -0.013197211 0.016184885 -0.0072648735
0000c0 b4 da 9d ba 74 4a 62 bc 85 32 be 3c 56 05 fe bc
       -0.0012043328 -0.013811696 0.023217449 -0.031008404
0000d0 2d 90 40 bd 07 a5 90 3c 18 40 4a 3c c0 d2 21 3d
       -0.047012497 0.017656816 0.012344383 0.039507627
0000e0 af 72 db 3c ab 9d 08 bd 5a 1f e2 3b bc 99 6c bc
       0.026788084 -0.03335349 0.00690071 -0.01444095
0000f0 b4 bc 12 bd b7 b0 16 3d 40 f7 c2 3c f6 14 d4 3c
       -0.035824493 0.036789622 0.023799539 0.025888901
000100 25 10 45 3c 56 c8 22 bb d3 15 75 3c d4 30 32 bb
       0.012027775 -0.0024838648 0.014958817 -0.0027189748
000110 0d dd c4 38 7d 58 90 bb a7 de dd 3c 4b 64 80 3c
       9.387182e-05 -0.00440508 0.027083708 0.015672823
000120 4e 22 12 bc d3 fe 31 3d 24 66 ee 3c a6 4a 6a bb
       -0.008919312 0.04345591 0.029101439 -0.003575006
000130 db 74 7e bc 7b 30 23 3a 94 b0 49 3d 6d 05 f8 bc
       -0.01553079 0.00062251807 0.049240664 -0.030276025
000140 c9 70 80 bb ec 81 96 3c 53 e2 4d 3c 81 9d 34 bc
       -0.003919695 0.018372498 0.012566167 -0.01102388
000150 22 27 39 bc 27 67 73 3c ae 8a 33 3c db ed 96 bc
       -0.011300834 0.014856136 0.010958357 -0.018423965
000160 dc 9f d6 bb 76 4b 3f 3b 2c fa 93 3c c1 d9 ea ba
       -0.0065498184 0.0029189265 0.018063627 -0.0017917679
000170 1c 3f ab 3c 70 2d 7d 3c 90 c5 22 3b 42 29 28 bc
       0.020904116 0.015452728 0.0024836995 -0.010263743
000180 4a 68 0b bd 9d ce 04 bd 09 5c 86 b9 8f f8 47 bb
       -0.034035005 -0.032423604 -0.00025627043 -0.0030513143
000190 3d bf 08 3d 9a a5 97 3c 75 37 04 bd d0 0e 21 3c
       0.033385504 0.018511582 -0.03227945 0.009830192
0001a0 f4 3a 39 bb 5e 37 d5 ba 15 b6 5a 3c ea b9 21 bc
       -0.0028263899 -0.0016267111 0.013349076 -0.0098709855
0001b0 84 07 d2 bc 6d bc 8b bb af 52 a9 3c c4 b0 81 3c
       -0.02563835 -0.0042644055 0.02066931 0.015831359
0001c0 c1 71 6d ba 9a 21 13 3d 61 c7 51 3b ad eb b2 3c
       -0.0009057783 0.035920717 0.0032009708 0.021840895
0001d0 b0 a4 76 3c cd d0 67 3c 3b 91 2d bd c8 27 62 bd
       0.015053913 0.014148903 -0.04237483 -0.05521372
0001e0 96 52 81 3c 84 fd 43 bd 2f f3 8f 3c 11 87 d0 bc
       0.01578645 -0.047849193 0.017572014 -0.02545503
0001f0 4e 71 04 3d 72 54 ae 3c 89 1e ce 3c 05 8b 97 bb
       0.03233462 0.021280501 0.025161045 -0.0046247267

local1.conv.lin.weight f4 [128, 128]
000000 21 67 2e be 4c 11 75 3d 61 35 99 3d 5b 48 c2 3d
       -0.17031528 0.05983095 0.07480884 0.09486457
000010 17 ee 9e 3c b3 c9 43 bd d5 8f 9c bd 11 05 8d bc
       0.01940064 -0.047799777 -0.07644621 -0.01721433
000020 9b aa d7 3d 99 70 8d bc a2 e4 ff bc 37 8e 0d 3e
       0.10530587 -0.017265605 -0.03123695 0.13823782
000030 f2 51 a7 3d d3 0e ca bc 2d 49 6f 3e d1 42 24 3e
       0.08169927 -0.024665272 0.23367758 0.16041113
000040 a0 1c 15 3e 3a 6a f5 bd 43 68 e3 bb b9 63 d9 3d
       0.14561701 -0.11983152 -0.006939919 0.10614724
000050 04 85 2a 3e 0b 27 15 be fc 6d 1e 3e 1f fe f3 bc
       0.16652304 -0.14565675 0.15471643 -0.02978426
000060 93 37 bf bd 58 05 f4 bd 85 ac 31 bd 9d ba 39 3d
       -0.09336772 -0.11915082 -0.043377418 0.045343984
000070 27 50 8c bd 1e d1 03 be 51 20 a2 3d 7f e4 42 bd
       -0.06851225 -0.1287274 0.0791632 -0.047581192
000080 26 99 29 3e 84 97 00 be d4 28 f5 3d 68 a9 f8 bd
       0.16562328 -0.12557799 0.11970678 -0.12141687
000090 da e3 a2 3b f9 35 aa 3d 3d 33 0f bd a5 4b 1d be
       0.0049710097 0.08311076 -0.034960974 -0.15360887
0000a0 cb 8f a0 bd f0 ca 25 be a8 a2 c8 bd 01 2d a3 3d
       -0.07839926 -0.16190696 -0.09796649 0.07967568
0000b0 8f ee a1 bc f5 1b 6b bd 94 f7 e4 3d cb c5 68 3d
       -0.019767074 -0.05739971 0.11180034 0.056829255
0000c0 1e 90 af 3c 8f 22 41 3d 04 7d 3d bc be d5 dd bc
       0.021431025 0.0471521 -0.011565451 -0.02707946
0000d0 70 03 be 3c 08 36 5d 3e 4f ba 0a 3e 2e 70 1c 3e
       0.023194999 0.21602643 0.13547634 0.15277168
0000e0 e0 7d 40 3e 6c 7b 7b bd 4c 64 2b be ad b3 ec 3d
       0.18798018 -0.061397 -0.16737479 0.11557708
0000f0 a3 cb 16 bd f4 75 0c 3d 00 af 3e be 5e f8 95 3d
       -0.036815297 0.034292176 -0.18621445 0.07322763
000100 82 73 72 3c c0 bc df bd 3a 04 bf bc 33 89 d6 bd
       0.014798047 -0.10924673 -0.023317445 -0.104753874
000110 87 5e d8 3d 9a 00 1b be 8f 73 a8 bd 23 76 92 bd
       0.10564905 -0.15136948 -0.08225166 -0.07151439
000120 a7 4a 43 be bf b8 8e 3d a2 72 1c bd 11 23 1e 3e
       -0.19071446 0.06968831 -0.03819526 0.15443064
000130 d0 c8 4a bd 77 26 b1 bb 1f 2c 9b bd c1 fd ae 3b
       -0.049507916 -0.0054061967 -0.07576775 0.0053403084
000140 f4 03 75 3d c6 fd fa bd 2e 64 89 3d b0 e7 3c be
       0.059818223 -0.12255435 0.06708561 -0.18447757
000150 43 c1 11 3c 80 0a 3b 3e cc a9 89 bc 27 35 11 3d
       0.008896175 0.18265724 -0.016804598 0.03545108
000160 a3 35 16 be 82 f4 04 bd 69 a5 da 3d 3a 84 27 3d
       -0.14668898 -0.032459743 0.10676081 0.040897585
000170 f6 75 20 3c 7c 90 11 3d 0d 57 d4 bb d1 31 28 be
       0.009793749 0.03553818 -0.006480104 -0.16425253
000180 6a 36 4b 3e c0 34 1d bd 49 ef bb 3b 41 29 ed bd
       0.19844976 -0.038380384 0.005735312 -0.11580134
000190 42 80 68 3e 2f 08 46 bc 12 81 7d bd ef bf a5 bd
       0.22705176 -0.012086912 -0.06189067 -0.08093249
0001a0 a8 ba ff 3c 9c 29 17 be 9e 7a 0a 3e ab 33 cf 3d
       0.031216934 -0.14761966 0.13523337 0.10117277
0001b0 0f 1c 99 bd 14 16 21 be b3 3a 0f 3b f7 31 04 be
       -0.07476055 -0.15731078 0.0021855056 -0.12909685
0001c0 35 6e b4 bd 56 df 80 3d 5e 0f fc bc 44 65 2c 3d
       -0.08810083 0.06292598 -0.030769046 0.042088762
0001d0 10 f6 b1 3c d7 ce f7 bd f1 8a 57 be fb 88 eb 3d
       0.021723777 -0.120999984 -0.21049096 0.11500736
0001e0 04 42 5e be ad b8 4c bd d3 83 59 bd 45 1d 00 be
       -0.2170487 -0.049980808 -0.053104233 -0.12511165
0001f0 b0 f2 30 3e ea f6 0a be 98 02 07 be 63 8f df bd
       0.17280078 -0.13570753 -0.13184583 -0.10916021
000200 65 b0 98 3d 93 fb 49 be f1 77 02 3e ef 88 f4 3d
       0.074555196 -0.19724874 0.12741067 0.119401805
000210 a1 78 bb 3d 55 26 3c 3e 19 b8 0a bc bf 21 f1 bd
       0.091538675 0.18373998 -0.008466744 -0.11774015
000220 23 3d 2f 3d 0f dd b8 3d ee 1c 8a 3b 2a 75 99 bd
       0.042782914 0.090265386 0.0042148745 -0.074930504
000230 8b d0 0e 3e 91 77 12 3d 88 d6 c9 3d b9 e4 80 bd
       0.1394674 0.03575856 0.09855372 -0.062936254
000240 bb 38 3f be be de 0e 3e 24 cd 54 be b8 04 4a bd
       -0.18673985 0.13952157 -0.2078138 -0.049320906
000250 dc a4 1e 3e 66 49 8b bb f3 50 f0 3d 9c e5 58 3d
       0.15492576 -0.004250693 0.1173419 0.052953348
000260 53 30 d9 3c 81 65 ea bd 04 2f 25 3d e7 21 95 bc
       0.0265123 -0.114451416 0.04032804 -0.018204642
000270 07 60 6b 3c 15 9d e8 3c 61 e2 49 bd ef 61 3a bd
       0.014366156 0.028395215 -0.049288157 -0.045503553
000280 20 c1 40 be c1 28 2e bd b5 90 52 bc 18 ae ab 3d
       -0.18823671 -0.042519335 -0.012851884 0.08382815
000290 70 92 93 3d 44 e6 d8 bd 54 03 90 bd a6 1b 88 bd
       0.07205665 -0.10590795 -0.07031885 -0.066458985
0002a0 3a b0 b0 3d b5 92 16 bc cd 7b 3e 3d dc cf 55 bd
       0.086273625 -0.009190251 0.046504784 -0.052200183
0002b0 01 b9 b6 bd 37 f1 0d 3d 6d 6b 86 3d 13 0f 04 be
       -0.089220054 0.03465387 0.065634586 -0.12896375
0002c0 11 22 24 3d 62 b9 4f 3d ad a0 f6 bd 9c a3 e5 3d
       0.04007155 0.050713904 -0.12042365 0.11212847
0002d0 05 c2 ca 3c a4 e1 c8 3d b9 fb 1b bd 19 af f1 3d
       0.024750719 0.098086625 -0.03808186 0.11800975
0002e0 92 95 93 bc 1f 76 e3 bd 66 d4 37 3d f0 6f ea bc
       -0.018015657 -0.11106514 0.044880293 -0.02861783
0002f0 e3 82 0b 3d 39 89 49 3c 8e 69 29 be 67 83 4d be
       0.03406037 0.012300783 -0.16544172 -0.20069657
000300 a7 5a 11 bd 16 ae 0f be 6b b6 41 3e a5 8d 71 3d
       -0.035486843 -0.14031252 0.18917243 0.058972973
000310 b0 8c f7 3d fc e2 8b bd 32 3d c2 bd 00 e7 04 3e
       0.12087381 -0.06830403 -0.09484328 0.12978745
000320 a7 9b 26 3c a2 0a 33 bd f0 bf 35 bd a2 e3 a1 bd
       0.010168946 -0.043711312 -0.0443725 -0.07904746
000330 31 80 88 bd 90 dc 66 3d 59 a9 57 bd 60 8a e1 bd
       -0.066650756 0.05636269 -0.052651737 -0.11012721
000340 64 74 08 3e 27 b6 f3 bd 53 4c dd bd 5d 7f 45 3e
       0.1332565 -0.11899977 -0.10805573 0.19286866
000350 b6 c7 8a 3c 48 3d f3 3d 01 08 2f bc 12 f1 45 3d
       0.016940933 0.11876923 -0.010683061 0.048325606
000360 9a 43 3d bd 09 59 16 3e 0c 64 85 bd 79 c4 bd bd
       -0.046207048 0.14682402 -0.06513223 -0.0926599
000370 d7 99 d9 bd ee b9 c6 3d 05 b7 c3 3d 9e ed 05 3c
       -0.10625046 0.09703432 0.095563926 0.008174328
000380 2b ff d2 3d 29 9d 40 bd 20 c9 44 3d b0 0b cc 3d
       0.10302576 -0.04702488 0.04804337 0.09963167
000390 e9 19 1e 3a e6 17 98 3d 25 7f cd 3d e6 69 6c 3c
       0.00060310826 0.07426433 0.100340165 0.014429545
0003a0 39 1d 9a bd 76 dc 3d 3c 34 2d 33 bd b0 75 de bc
       -0.07525105 0.0115882065 -0.04374428 -0.027155727
0003b0 f2 55 3e 3e 74 d8 b9 3d ae c4 28 be c7 e1 b0 bd
       0.18587473 0.09074488 -0.16481277 -0.086368136
0003c0 5e 1a e5 bc 2c 40 03 3e 96 bc 5e 3c 22 17 b8 3b
       -0.027966674 0.12817448 0.013594767 0.005617992
0003d0 2c f7 c3 bd 99 15 f5 bd b2 52 30 be 92 01 e7 bd
       -0.09568629 -0.1196701 -0.17219046 -0.112795964
0003e0 f1 a8 c8 3a 67 37 00 3d 0a c8 c9 bc ad 28 39 3d
       0.0015309138 0.031302836 -0.024631519 0.045204807
0003f0 ff a5 76 bd 26 ea ef 3d a6 9a 10 bd 00 ca e5 bd
       -0.0602169 0.11714582 -0.035303734 -0.11220169

local1.norm.weight f4 [128]
000000 14 df 85 3f 74 b1 8d 3f c0 a6 8a 3f 51 3d 7b 3f
       1.0458703 1.1069779 1.0832138 0.98140436
000010 56 4c 70 3f cc 33 80 3f f7 16 82 3f 52 d5 80 3f
       0.9386648 1.0015807 1.0163258 1.00651
000020 23 9c 81 3f 48 02 82 3f 87 2e 97 3f fd fb 76 3f
       1.0125774 1.0156946 1.1811074 0.96478254
000030 4e 12 75 3f d1 3d 77 3f 4b 2e 81 3f e6 9b 86 3f
       0.95731056 0.965787 1.0092252 1.0516326
000040 1c c1 72 3f 9d cb 5c 3f 92 cb 8f 3f 48 08 85 3f
       0.9482591 0.8624819 1.1234 1.0393152
000050 45 70 73 3f 95 47 6f 3f 41 c9 6e 3f 71 53 82 3f
       0.95093185 0.934686 0.9327584 1.0181714
000060 dd 23 8c 3f 3f 39 84 3f 84 05 7b 3f 2b 70 82 3f
       1.0948445 1.032997 0.9805529 1.0190481
000070 c3 5e 7b 3f 95 b6 82 3f f0 6e 6c 3f df 64 80 3f
       0.9819147 1.021197 0.9235678 1.0030783
000080 e0 ac 7b 3f b5 24 89 3f 63 48 76 3f b3 08 76 3f
       0.9831066 1.0714327 0.96204203 0.96107024
000090 2f ae 84 3f 3d 66 8b 3f 72 d2 7d 3f 24 68 74 3f
       1.0365657 1.0890576 0.9914924 0.95471406
0000a0 8c 5e 62 3f dc 4e 77 3f 06 f8 92 3f 70 a6 8f 3f
       0.8842552 0.96604705 1.1481941 1.1222668
0000b0 77 6c 8f 3f a0 1b 89 3f 93 a5 76 3f 8c a0 70 3f
       1.1204976 1.0711555 0.96346396 0.93994975
0000c0 be 82 7a 3f 30 d3 88 3f 02 a7 7d 3f 96 17 88 3f
       0.97855747 1.0689449 0.9908296 1.0632198
0000d0 8d 92 85 3f a0 2a 6a 3f 09 d2 7f 3f 7f 5d 6c 3f
       1.0435349 0.9147129 0.99929863 0.92330164
0000e0 a9 2e 6c 3f 84 2f 86 3f 99 5c 7f 3f da 01 8c 3f
       0.922587 1.0483251 0.9975067 1.0938065
0000f0 a7 a2 92 3f e5 17 7d 3f 4e 3d 7d 3f 4e d2 6c 3f
       1.1455888 0.98864585 0.9892167 0.925084
000100 c3 f0 6e 3f 09 0c 84 3f b5 f9 85 3f fe 29 93 3f
       0.93336123 1.0316173 1.046683 1.149719
000110 d2 95 7e 3f 18 1f 6f 3f 81 3c 61 3f 39 53 78 3f
       0.9944736 0.9340682 0.87982947 0.9700199
000120 91 52 8b 3f bd 91 64 3f 44 c8 7d 3f bf c8 8f 3f
       1.0884572 0.8928488 0.99133706 1.1233138
000130 6b 7d 83 3f b8 2b 84 3f e4 a6 6c 3f c1 2f 8a 3f
       1.027265 1.0325842 0.92442155 1.0795823
000140 6a 86 87 3f 50 56 71 3f a7 f1 76 3f 82 cd 81 3f
       1.0587895 0.9427233 0.9646248 1.0140841
000150 6a da 84 3f 3e 52 6e 3f 83 42 68 3f 17 30 8d 3f
       1.0379155 0.9309424 0.9072649 1.1030301
000160 18 e3 88 3f 04 c8 80 3f 23 72 78 3f ba ec 84 3f
       1.0694304 1.006104 0.9704916 1.0384743
000170 61 0b 7c 3f d4 4d 70 3f ca aa 74 3f 2b 24 79 3f
       0.9845486 0.93868756 0.95573103 0.9732081
000180 5a 5a 8f 3f 55 6c 8b 3f 5d c7 67 3f dd 55 81 3f
       1.1199448 1.0892435 0.9053858 1.0104328
000190 3d b9 70 3f a5 ae 77 3f e5 7c 87 3f 64 ab 81 3f
       0.9403265 0.9675086 1.058499 1.0130429
0001a0 12 45 7e 3f 43 85 89 3f d7 a2 85 3f 31 90 81 3f
       0.9932414 1.0743793 1.044032 1.0122129
0001b0 02 2b 85 3f 40 25 81 3f a9 a9 70 3f de b4 73 3f
       1.040375 1.0089493 0.9400888 0.95197856
0001c0 ce cd 80 3f 35 8b 7a 3f 06 e0 70 3f 8e be 71 3f
       1.0062807 0.97868663 0.9409183 0.9443139
0001d0 85 ee 6a 3f f3 00 7e 3f 21 c8 8e 3f 57 e8 96 3f
       0.917702 0.992202 1.1154824 1.1789654
0001e0 f4 84 81 3f 1a 5e 8d 3f 78 78 6c 3f b5 e0 8f 3f
       1.0118699 1.1044343 0.9237132 1.124045
0001f0 68 41 78 3f ce fb 70 3f 5d d8 73 3f 23 7c 91 3f
       0.969748 0.94134223 0.9525202 1.1366009

local1.norm.bias f4 [128]
000000 a8 37 a4 bd f8 68 af bd 1f 6b 76 bd e9 07 a4 bd
       -0.08018428 -0.08564943 -0.060160752 -0.08009321
000010 f3 1c c1 bd a3 49 8a bd 8e f0 a6 bd 5a 04 c2 bd
       -0.0942935 -0.06752326 -0.08151351 -0.09473486
000020 dc 8d b3 bd 70 6b 0e be 2a 07 c1 bd 72 4e d8 bd
       -0.08767292 -0.13908172 -0.094251946 -0.10561837
000030 0a c3 db bd 3d db e1 bd 64 26 07 be 78 f1 b2 bd
       -0.1073056 -0.110281445 -0.13198239 -0.08737463
000040 fc 54 dd bd 94 bb 19 be c9 8a 46 bd d7 6f ca bd
       -0.10807225 -0.15012962 -0.0484722 -0.09884613
000050 8c 3f 00 be a8 bb f3 bd ce 04 f0 bd 0f 76 98 bd
       -0.12524241 -0.11901027 -0.117196664 -0.07444393
000060 80 5a 2d bd 42 48 a7 bd a0 3f ea bd 62 4d f8 bd
       -0.042322636 -0.08168079 -0.11437917 -0.121241346
000070 49 e0 9e bd 70 99 0d be 38 0c 31 be 62 5e b0 bd
       -0.07757623 -0.13828063 -0.17289817 -0.08611752
000080 34 2e d8 bd 89 9a 09 be 40 85 bf bd ef 0b 9c bd
       -0.105556875 -0.13437857 -0.09351587 -0.07619464
000090 7c ec e3 bd 9c 3f 77 bd 36 dd c9 bd 3c 1a de bd
       -0.1112909 -0.060363397 -0.09856646 -0.108448476
0000a0 8e 1e 05 be 19 ce 97 bd b4 71 0e be 60 4d 04 be
       -0.12999937 -0.07412357 -0.13910562 -0.12920141
0000b0 56 e1 9d bd 27 22 d7 bd a7 67 ec bd 35 24 f0 bd
       -0.07708995 -0.10504561 -0.115432076 -0.11725656
0000c0 b3 fe 1c be 41 6e 9a bd a8 d1 d1 bd 08 c8 e2 bd
       -0.15331535 -0.075405605 -0.10245067 -0.11073309
0000d0 12 d9 9c bd 2b ce 01 be d4 ed e1 bd 8a 42 ff bd
       -0.076585904 -0.12676303 -0.1103169 -0.12463863
0000e0 dc f5 df bd 21 c7 9b bd 40 a0 15 be f1 11 ac bd
       -0.10935566 -0.0760634 -0.14611912 -0.084018596
0000f0 f6 f4 9b bd bf d6 32 be a0 c9 d2 bd 40 5b 20 be
       -0.07615082 -0.17464732 -0.10292363 -0.15659809
000100 51 d7 d8 bd 44 de e3 bd 62 68 2f be f8 6c a4 bd
       -0.10587943 -0.11126378 -0.17129663 -0.08028597
000110 0a dc e1 bd fb bb e5 bd 8f 6b 25 be 0a 62 a5 bd
       -0.11028297 -0.11217495 -0.16154312 -0.0807534
000120 5d 41 7e bd 6c b1 28 be db b5 09 be 55 a8 96 bd
       -0.062074054 -0.16473931 -0.13448279 -0.073563255
000130 3b dd c7 bd 8e b9 8b bd 90 a9 0f be 6d ea 9a bd
       -0.09758993 -0.06822501 -0.14029527 -0.075642444
000140 47 c0 84 bd c6 d7 13 be 58 03 fe bd 6e 82 a7 bd
       -0.064819865 -0.1443778 -0.124029815 -0.08179174
000150 5f fa b3 bd 3b 4a cd bd 3d f1 0c be 74 5f 93 bd
       -0.08787989 -0.10023924 -0.137639 -0.071959406
000160 03 28 a4 bd 09 58 dd bd b5 47 ef bd 77 2c 05 be
       -0.08015444 -0.10807807 -0.11683599 -0.13005243
000170 39 75 dd bd 42 c7 a0 bd 58 8e 20 be 41 5c aa bd
       -0.10813374 -0.078505054 -0.156793 -0.08318377
000180 23 e6 79 bd 44 59 dc bd 70 a1 22 be 38 7b ff bd
       -0.06101049 -0.107592136 -0.15881896 -0.12474674
000190 ad 75 e2 bd e8 82 cf bd 18 a0 37 be ce aa 71 bd
       -0.11057601 -0.1013239 -0.17932165 -0.059000783
0001a0 43 1f b7 bd 8c 72 01 be fe 2f 2e bd 55 66 ee bd
       -0.089415096 -0.12641352 -0.042526238 -0.11640612
0001b0 86 7f cb bd d2 03 38 bd 4e c0 a2 bd ba 09 ac bd
       -0.099364325 -0.04492552 -0.079468355 -0.08400293
0001c0 d8 b9 fb bd 73 86 28 be 0c dd ae bd 9e 1d 05 be
       -0.12291306 -0.16457538 -0.08538255 -0.1299958
0001d0 c5 07 e6 bd d6 00 0f be 40 76 16 be 7d e1 d0 bd
       -0.11231951 -0.13965163 -0.14693546 -0.101992585
0001e0 8c cb b9 bd 0a 67 2c bd e9 c8 28 be c3 16 3c bd
       -0.090720266 -0.042090453 -0.16482891 -0.045920145
0001f0 69 2f 11 be 99 43 df bd 2b b7 fc bd a4 5e 34 be
       -0.14178242 -0.10901565 -0.12339624 -0.17614228

local2.conv.bias f4 [128]
000000 2b 9b 13 3b 7d 65 29 ba fc cf df 3a 24 9d 48 bb
       0.0022522907 -0.00064619613 0.0017075534 -0.0030611241
000010 64 75 37 3d 61 9d 86 3c 7e f8 1b 3a e0 f2 b6 ba
       0.044789687 0.016432466 0.0005949809 -0.001395788
000020 f5 54 69 ba 8f a7 14 39 e4 12 10 3a 70 21 89 b9
       -0.0008900904 0.000141768 0.0005495979 -0.0002615559
000030 8c 5b a2 39 5d c4 12 3c ab 92 77 3b b4 9a b6 bc
       0.00030967256 0.0089579495 0.003777663 -0.022290565
000040 58 8e ed 3a b9 13 2c bb cf e4 11 bc 04 be dc 3a
       0.0018124087 -0.0026256873 -0.00890465 0.0016841297
000050 51 2e 86 3b b0 d8 86 ba b1 ab 2c 3b 24 5e 0c 3b
       0.004094877 -0.0010287967 0.0026347453 0.0021418417
000060 92 e0 97 3b e3 33 68 3a d8 59 e4 bd f4 15 27 3c
       0.004634925 0.00088578294 -0.11149949 0.010198105
000070 8b aa 18 3b 17 89 fc 39 ce fc 88 3b 65 ac 93 3a
       0.002329501 0.00048167325 0.0041805273 0.0011266588
000080 1a bb ec 3a 31 83 01 bc 11 62 8e 3a 2c 25 9f ba
       0.0018061132 -0.007904814 0.0010862966 -0.0012141815
000090 8c 36 e0 3c 33 6a d6 ba de 55 58 3b 37 39 2b 3b
       0.02736976 -0.0016358554 0.0033010165 0.0026126632
0000a0 4e bf fa ba 72 40 45 3c ec fb a5 ba fa 70 97 3c
       -0.00191305 0.012039291 -0.001266358 0.018486489
0000b0 af d1 9f 3a ae ea 1b 3a 6c 5a 1c 3d 11 f3 44 3a
       0.0012193228 0.0005947751 0.03817217 0.00075130264
0000c0 f4 54 5c bd 73 85 4a 3b 90 0a f7 37 00 18 aa bb
       -0.053791955 0.0030902296 2.9449613e-05 -0.0051908493
0000d0 18 5d 2c 3a 68 f3 6c 39 c8 10 36 3b 5b e7 d6 3a
       0.00065751513 0.0002259739 0.0027780998 0.0016395854
0000e0 01 d6 ac bc 8d 3a e1 3a 08 30 0e bc 45 54 02 bb
       -0.021098139 0.0017183587 -0.008678444 -0.0019886654
0000f0 dd 2b 16 bb ff ac bd 3a 9b 8a 95 3a ba d4 cd 38
       -0.0022914328 0.0014471113 0.0011409106 9.814785e-05
000100 0f be f3 ba f2 73 c0 3b 25 55 65 3a 24 ef e0 3a
       -0.0018596071 0.0058731968 0.0008748344 0.0017161113
000110 16 47 80 bb da 91 6d bb ba 0a 8a 3a cc 9d ca 3a
       -0.003914724 -0.0036250264 0.0010531761 0.0015458404
000120 a1 8e 14 3b 34 92 9d 38 5f d8 2f 3b 35 3f f4 ba
       0.0022668021 7.513576e-05 0.0026831848 -0.001863456
000130 5b c5 ef 3a 3f 06 86 3a 9c 39 92 ba 1b 91 85 3a
       0.001829307 0.001022525 -0.0011156085 0.001019034
000140 f1 bf a0 39 78 a1 3a 3a a5 a1 74 b9 23 d1 2a 3b
       0.00030660586 0.00071193976 -0.0002332987 0.0026064597
000150 86 a8 3d b7 e6 55 05 3b 8c 58 44 3b 64 43 59 bd
       -1.1304515e-05 0.002034539 0.0029960005 -0.053042784
000160 c7 24 29 3b 88 35 9f b9 e2 64 8f bb 19 e3 21 bb
       0.0025809275 -0.00030366727 -0.00437604 -0.002470201
000170 07 b9 29 3a d5 8d 98 3b 4a 78 e2 39 5b 65 d0 3a
       0.00064744096 0.0046555796 0.000431957 0.0015899347
000180 64 b4 1b 3b 7c 0a d2 3a 2c 2e 97 39 33 05 1e 3c
       0.0023758644 0.0016024853 0.00028835365 0.009644794
000190 22 99 dd 3a ad 9a fe 3a 79 05 d8 ba 89 74 00 3b
       0.0016906599 0.0019424759 -0.0016481123 0.001960071
0001a0 1a 6b 27 3a f7 e3 aa 3a b9 cd 0f 3b c4 26 ec bc
       0.0006386504 0.001303791 0.0021942689 -0.028827079
0001b0 d7 7f 35 3b 67 6c 87 3a 01 69 b0 3d 9c ae b7 3c
       0.0027694607 0.0010331989 0.08613778 0.022422127
0001c0 21 88 1e 3b 97 15 a5 3a 48 42 95 ba 5a a2 d6 ba
       0.0024190026 0.0012594935 -0.0011387551 -0.0016375289
0001d0 7a 9c ce 3a e1 af 26 ba be d8 8d 3a 06 12 99 bb
       0.0015763186 -0.00063586055 0.001082204 -0.004671338
0001e0 0e af 47 3b bd 18 a5 38 a3 f0 b1 39 05 42 5b 3a
       0.003046933 7.872421e-05 0.0003393936 0.00083640247
0001f0 2b 91 a6 3a ed 37 ab 3a 8a 95 fd 3a c2 fa 1e 3d
       0.0012708058 0.0013062932 0.0019346934 0.03881336

local2.conv.lin.weight f4 [128, 128]
000000 3c 00 b9 3d a8 5a f4 bd 2c 1d dd bd e1 e3 1e 3e
       0.09033248 -0.11931354 -0.1079658 0.15516616
000010 1f 9a d0 3d af 1e f3 bd c4 28 0d 3e e7 bf cd 3d
       0.10185646 -0.11871087 0.13785082 0.10046368
000020 5b e3 92 bd 27 c2 e0 3b 16 95 37 bd 71 be 0b 3d
       -0.07172271 0.0068590823 -0.044819914 0.034117166
000030 48 3f ef bd ec f2 69 bd 37 b6 60 bd f9 14 be bd
       -0.11681992 -0.057116434 -0.054861274 -0.09281344
000040 ec 19 36 3d 3f f1 0f 3d bc c8 fb 3d e7 8f 2a 3d
       0.044458315 0.03514218 0.122941464 0.041641142
000050 d7 7a 4d 3d c2 bb 10 3d 68 15 1f 3d 4b a0 88 bd
       0.050165977 0.03533531 0.038838774 -0.066711985
000060 31 0c ea bd 4d 1f 54 3d 95 59 94 bd 32 59 bc 3d
       -0.114281066 0.051787663 -0.07243649 0.091967
000070 2f 5f 76 bc 08 95 0b 3e 89 9b 02 3e e9 bd dc bc
       -0.015037342 0.1363107 0.12754644 -0.026946025
000080 ee 63 93 3d 7c 13 ce 3d 3e a6 6e 3d c1 cb 7e 3d
       0.071967945 0.1006231 0.05826401 0.062206034
000090 a4 13 13 3c 5d 7d b0 bc 49 73 ff 3c 36 e0 ed bd
       0.008976851 -0.021544153 0.031182902 -0.116150305
0000a0 7f 90 c9 bd 88 1e ea 3b d2 b8 37 bd ee 42 1a bd
       -0.098420136 0.007144753 -0.044853993 -0.037661485
0000b0 ec 5a c2 bd 13 6a 1e 3d 47 44 dc 3d 34 ce 78 3d
       -0.09489998 0.03867538 0.1075521 0.060743526
0000c0 27 d5 06 3e c6 29 f3 bd c9 6e 89 bc 9d 63 2e be
       0.13167249 -0.11873202 -0.01677646 -0.17030187
0000d0 31 9d bf 3d 07 db 0f be f0 f1 ff 3d 44 d7 f9 3c
       0.09356154 -0.14048396 0.12497318 0.030498154
0000e0 d2 af be 3c a1 9e 02 3d c6 25 d6 3c e9 dd d7 3d
       0.023277197 0.03188956 0.026141059 0.10540373
0000f0 03 bf 50 bd 01 2c e7 bd da c3 1d bd 92 ec 2c be
       -0.050963413 -0.1128769 -0.038516857 -0.1688712
000100 4e 8b e8 bc b4 46 2c be 9f 3b 50 3a 7a e4 80 3d
       -0.028386738 -0.16823846 0.00079434545 0.062935784
000110 c1 2c e2 3d f0 9b 47 bd 63 2d ca bd 8f aa 31 3d
       0.110436924 -0.048732698 -0.09871938 0.043375548
000120 a0 3b f1 3c 83 2b 91 bd 1b 19 dc 3c a8 f2 ef 3d
       0.029447377 -0.07088377 0.02686744 0.11716205
000130 fa b2 31 be 3f 7b 3b bd a6 ed 1c 3d 52 b1 08 3d
       -0.1735343 -0.045771834 0.038312577 0.03337223
000140 7d 51 9a 3d 4a b5 b7 bd bf eb 37 be ad a3 3e 3d
       0.07535074 -0.08970125 -0.17961024 0.046542812
000150 e4 37 6a bd d2 30 f1 bc 42 c1 d6 bd 86 2f 95 bd
       -0.057182208 -0.029442225 -0.1048608 -0.07284455
000160 81 2e 5d bd 07 59 a6 bd 73 88 b1 3c 81 38 25 3c
       -0.053999428 -0.08122449 0.02167151 0.010084272
000170 f4 d3 b4 3d 63 70 82 3d 85 2c 84 3d 92 4e 16 3e
       0.08829489 0.06369092 0.06453804 0.1467841
000180 4a 49 82 bd fb 05 86 bd df 8d 36 bd 23 dd 1e 3e
       -0.06361635 -0.065441094 -0.044568893 0.15514044
000190 b2 dc ff 3d 7e a8 ac bc f2 2f a6 bc 9f e4 b8 bd
       0.12493266 -0.021076437 -0.020286534 -0.09027981
0001a0 c5 4c 25 3e 78 17 e2 b9 c4 04 28 bd bc de 4a 3e
       0.16142567 -0.00043123565 -0.04102017 0.19811529
0001b0 b7 52 25 3b 76 01 00 bd 32 da 67 bb 3a 72 00 3e
       0.0025226304 -0.031251393 -0.0035377857 0.12543574
0001c0 9b 32 21 3e af 90 06 be 4c ae a9 3d 6c 13 1a bc
       0.1574196 -0.1314113 0.082851976 -0.009404045
0001d0 99 64 99 3d 23 b1 3c 3e de 47 0d 3e b5 62 1d 3d
       0.074898906 0.18426947 0.13796946 0.038424212
0001e0 53 89 78 bd 2c ff 9b 3d 78 dc 20 3e ef f4 82 3d
       -0.060677838 0.076170295 0.15709102 0.063943736
0001f0 df 7a ce 3c f4 ed 80 3d 93 f2 9a bd e2 39 c7 bd
       0.025205074 0.06295386 -0.075657986 -0.09727837
000200 27 c7 e2 3d 18 36 b5 bc 2a b9 91 3d 13 5f 62 bc
       0.110731415 -0.02212052 0.07115395 -0.013816613
000210 89 8e 69 bd 73 11 e0 3c dd bc ad 3d a7 8f d6 bd
       -0.057020698 0.02735207 0.084832884 -0.10476618
000220 76 28 9d bc 37 3c 45 3d 77 dc 30 3e 7b 26 81 3c
       -0.019184332 0.04815313 0.172716 0.01576542
000230 19 80 93 bd 09 d2 06 be 4d de 13 3e ea a5 1e 3d
       -0.07202167 -0.1316606 0.1444027 0.038732447
000240 c7 04 fb bc eb dc df 3c 32 3b c9 3d aa c8 1e be
       -0.030641926 0.027327022 0.09825744 -0.15506235
000250 65 a2 24 bd f6 74 07 be 11 b5 86 3d 7b 81 56 3c
       -0.040193934 -0.13228211 0.065775044 0.013092394
000260 47 31 e5 3d 7f 5d d0 3d 23 56 8c 3d e4 81 0e 3e
       0.111910395 0.10174083 0.06852367 0.13916737
000270 a7 ca 0b 3e 54 54 5f bc 5a e7 f0 bd d4 ef 96 3d
       0.13651524 -0.013630945 -0.11762877 0.07369962
000280 b3 5f 18 3e 34 49 98 bd 7d 45 0f 3e b1 a5 bb bc
       0.14880256 -0.074358374 0.13991351 -0.022906156
000290 c9 c6 b4 3d d4 1e 43 3d 73 9a 22 3e b6 61 e3 bd
       0.08826978 0.047636822 0.1587923 -0.11102621
0002a0 69 81 88 3d 9e 73 c8 3c a5 fe 1d be 8d 1b e5 3d
       0.06665308 0.024469193 -0.1542917 0.111868955
0002b0 df 46 9e bb 06 9b ea 3d cd 3e 3c bd 8e ff 2e be
       -0.004830226 0.114553496 -0.04595833 -0.17089674
0002c0 ac 0d 13 3e 3d e0 16 3d 92 3f d1 bd ad 15 29 3e
       0.14360684 0.036834944 -0.10217203 0.16512175
0002d0 78 dd ee 3d 73 1c 7b 3d 7c 40 de 3c 5d 28 8b 3d
       0.116633356 0.06130643 0.027130358 0.06794808
0002e0 57 de b5 3d 70 af 45 3d a0 44 f4 bd ff 01 84 3c
       0.088802986 0.048263013 -0.11927152 0.016114233
0002f0 91 4a 83 3e 22 a3 4f 3e 7a 61 bd bd 42 1c ce bc
       0.25642827 0.20277074 -0.09247108 -0.025159959
000300 1b 5d 0c be b0 b2 bf 3d 9d 4a 21 3d 92 bf 1c 3d
       -0.13707392 0.09360254 0.039377797 0.038268633
000310 bb 03 97 bd 44 2e 9b bb 03 c7 1e be df bb c0 3d
       -0.073737584 -0.00473574 -0.15505604 0.094108336
000320 e1 57 40 3e d4 2a d7 bd ab 3a a8 bd 49 0c 0d 3e
       0.18783523 -0.10506216 -0.08214315 0.13774218
000330 36 9e 9c 3d 73 87 1a 3e 8e 6e 85 bd 76 8f 14 3c
       0.07647364 0.15090732 -0.06515227 0.009067407
000340 fa 21 2a 3e aa 2f 8c bd 46 e0 42 3e 23 1d 3f bd
       0.16614524 -0.06845029 0.19030866 -0.046658646
000350 24 3d 3e bd a6 1f 8a 3a 76 2e 87 3d 34 9d 42 3e
       -0.046445027 0.0010537996 0.066006586 0.1900528
000360 05 af cd 3d 38 0f 97 3c 68 4c 0a 3d 09 7d a3 3d
       0.10043148 0.018439874 0.033764273 0.07982833
000370 af 27 c2 bd 15 a7 13 be d2 46 07 be ba 9e d8 39
       -0.09480225 -0.14419205 -0.1321061 0.0004131699
000380 b4 f0 01 3e 7c f4 91 3b 16 ac 0b be fa b9 07 be
       0.12689477 0.0044541936 -0.13639864 -0.13254538
000390 62 41 3e 3d 4f 4d e8 bd aa 43 b6 3d 02 27 80 3d
       0.046449073 -0.113428704 0.08899625 0.0625744
0003a0 30 23 cd bd af a8 79 bd 6f c2 87 bd 6e 2a ed 3c
       -0.10016477 -0.060951885 -0.06628882 0.028950896
0003b0 6d 5d 68 3d 39 a8 bd 3d 9d 56 bf bd 99 11 76 bd
       0.056729723 0.092606016 -0.09342692 -0.060075376
0003c0 ca 2a 23 be 75 17 a0 bd 12 61 06 bd 61 2e 09 be
       -0.15934291 -0.07816974 -0.032807417 -0.13396598
0003d0 9a 07 14 be 9c c7 89 3d 2c ec bb bb 84 35 0d 3e
       -0.14456025 0.067275256 -0.005734941 0.13789946
0003e0 39 21 f3 bc ec d9 fc 3d 51 54 19 be 95 7b 89 3b
       -0.029678928 0.12346253 -0.1497357 0.0041956403
0003f0 ef f7 a6 bc d0 a7 1f 3c 6a 7e 60 be de 17 49 3d
       -0.020381896 0.009744599 -0.21923223 0.049095027

local2.norm.weight f4 [128]
000000 54 6e 6f 3f f9 5b 83 3f 41 06 55 3f 92 7d 84 3f
       0.9352772 1.0262443 0.8321267 1.0350821
000010 21 1a 6e 3f 29 45 5d 3f 93 0b 88 3f 43 21 6f 3f
       0.9300862 0.86433655 1.0628532 0.9341013
000020 93 fb 66 3f 22 1c 65 3f 40 1b 76 3f 1c dd 7b 3f
       0.9022762 0.8949605 0.9613533 0.9838426
000030 28 65 77 3f 9a bd 84 3f 8e ff 5b 3f 3d b5 69 3f
       0.9663873 1.0370362 0.8593682 0.9129217
000040 af 1c 72 3f 64 ca 76 3f 43 12 85 3f 0f cd 67 3f
       0.9457502 0.96402574 1.0396198 0.9054727
000050 fe 8c 56 3f a7 06 86 3f e3 69 6b 3f 8c 41 6f 3f
       0.83808887 1.047078 0.91958445 0.9345939
000060 69 4e 4b 3f c0 a5 67 3f 06 24 72 3f 2b bc 6c 3f
       0.7941652 0.9048729 0.9458622 0.9247462
000070 3b 72 76 3f 28 07 84 3f 90 2e 50 3f 46 21 87 3f
       0.9626805 1.0314684 0.8132105 1.0557029
000080 2e 5f 5d 3f 6b 8c 84 3f a7 27 72 3f 2a e9 77 3f
       0.8647336 1.0355352 0.94591755 0.96840155
000090 f2 6a 7a 3f 86 5c 84 3f 61 be 5f 3f 66 e7 6e 3f
       0.97819436 1.0340736 0.8739987 0.93321836
0000a0 ea d7 6e 3f f7 65 68 3f df 01 82 3f 3e be 73 3f
       0.9329821 0.90780586 1.0156821 0.9521216
0000b0 ac 46 6a 3f ed 69 5f 3f 1c c6 5d 3f 0b 3e 7a 3f
       0.91514087 0.87271005 0.86630416 0.9775092
0000c0 57 9c 59 3f e9 ac 66 3f 10 da 73 3f 3a a5 7b 3f
       0.8500418 0.9010759 0.9525461 0.9829899
0000d0 0c ff 66 3f 4a 7f 80 3f f7 19 6a 3f 94 15 6d 3f
       0.9023292 1.0038846 0.9144587 0.9261105
0000e0 81 1b 7b 3f bf ca 65 3f 5a 90 8c 3f f9 21 87 3f
       0.9808884 0.8976249 1.0981553 1.0557243
0000f0 f6 63 7b 3f d0 6d 74 3f 58 88 6b 3f c7 16 8a 3f
       0.98199403 0.9548006 0.9200492 1.0788201
000100 48 54 81 3f 71 70 43 3f e9 01 6d 3f 10 d0 65 3f
       1.0103846 0.76343447 0.9258104 0.89770603
000110 90 80 81 3f d9 38 78 3f ef a0 7b 3f b3 7e 73 3f
       1.0117359 0.9696174 0.9829244 0.951152
000120 99 b5 71 3f fe ab 76 3f f0 a6 50 3f 64 9b 81 3f
       0.9441772 0.9635619 0.81504726 1.0125546
000130 04 44 69 3f 38 8b 77 3f 3a 88 7b 3f 29 60 7d 3f
       0.9111941 0.96696806 0.9825474 0.98974854
000140 8c d8 82 3f 37 37 87 3f 07 de 84 3f 4d 46 63 3f
       1.0222335 1.0563725 1.0380257 0.88779145
000150 e4 7d 71 3f 9f 24 72 3f 21 f4 5e 3f 99 0a 6c 3f
       0.9433272 0.9458713 0.8709126 0.9220367
000160 4b 52 67 3f 64 c3 88 3f 0e a1 7b 3f 5c 28 71 3f
       0.90359944 1.0684628 0.98292625 0.9420221
000170 46 59 7b 3f 5a 5b 4c 3f 86 26 71 3f e1 5a 73 3f
       0.98183095 0.7982689 0.9419941 0.95060545
000180 80 42 70 3f 72 82 6d 3f 62 53 7d 3f 03 45 6c 3f
       0.9385147 0.9277717 0.9895536 0.92292804
000190 19 76 7b 3f 43 13 80 3f 72 6b 85 3f a4 cc 70 3f
       0.9822708 1.0005878 1.0423415 0.94062257
0001a0 0d bd 77 3f cf cd 76 3f 42 75 58 3f f4 2d 7e 3f
       0.96772844 0.9640779 0.8455392 0.9928887
0001b0 39 3b 5c 3f ec 55 6e 3f 33 3f 5e 3f 92 f7 77 3f
       0.86027867 0.93099856 0.86815184 0.9686214
0001c0 3e db 51 3f 0b b8 7c 3f ee dc 70 3f 92 1b 6c 3f
       0.8197516 0.9871833 0.9408711 0.9222957
0001d0 8f e3 7a 3f 78 38 6f 3f 4f 6f 78 3f 0a 8e 82 3f
       0.98003477 0.9344554 0.97044843 1.0199597
0001e0 6d cb 53 3f 73 db 6c 3f 91 a2 7e 3f 94 47 5a 3f
       0.8273228 0.9252235 0.99466807 0.8526547
0001f0 64 09 6f 3f a8 d6 7c 3f 2e f3 6c 3f 83 3f 63 3f
       0.93373704 0.9876504 0.9255856 0.88768786

local2.norm.bias f4 [128]
000000 3d 26 e1 bd 73 38 01 be 8e 22 f3 bd 10 4a 88 bd
       -0.109936215 -0.1261919 -0.11871825 -0.06654751
000010 c0 32 0e be b8 0e 1c be 0f 71 80 bd be b2 d5 bd
       -0.13886547 -0.1523999 -0.06271564 -0.10434483
000020 45 2f 50 be 94 40 1d be 3d ed f9 bd 8a e6 e4 bd
       -0.20330532 -0.15356666 -0.12203453 -0.11176784
000030 75 89 fb bd d2 79 bf bd 7c 19 59 be 25 7b dd bd
       -0.12282077 -0.09349407 -0.21201128 -0.108145036
000040 bc 5f 2a be 84 44 f3 bd 57 f0 d2 bd c2 c0 de bd
       -0.16638082 -0.11878303 -0.102997474 -0.108766094
000050 59 d1 39 be 09 b2 87 bd ac 09 1c be 1d cb 03 be
       -0.18146266 -0.066257544 -0.15238065 -0.1287045
000060 01 da 40 be 88 31 14 be b8 64 b1 bd 6c c0 c9 bd
       -0.18833162 -0.1447202 -0.08661789 -0.09851155
000070 29 f6 ed bd d3 ea ca bd df c7 3e be 54 c1 c9 bd
       -0.11619217 -0.099080704 -0.18630932 -0.098513275
000080 2e dc 2c be 6a 36 a3 bd 41 f8 f6 bd 12 b8 02 be
       -0.16880867 -0.07969363 -0.120590694 -0.1276553
000090 ab ae ab bd 90 1f 7a bd 4f 6d 18 be 20 8e 48 be
       -0.08382925 -0.061065257 -0.14885448 -0.19585466
0000a0 46 c5 a3 bd 13 5a 10 be 69 d4 ce bd 51 60 02 be
       -0.07996611 -0.1409686 -0.10099108 -0.12732054
0000b0 cc 2e 11 be a6 f0 4c be 3f c3 4d be 6d 14 fe bd
       -0.14178008 -0.20013675 -0.20094012 -0.1240624
0000c0 4f 30 2f be 49 47 44 be 8a 00 1a be a9 bf d6 bd
       -0.17108272 -0.19167818 -0.15039268 -0.10485775
0000d0 4b 62 3c be c4 64 d1 bd 07 d0 0b be 70 59 08 be
       -0.18396871 -0.10224298 -0.13653575 -0.13315368
0000e0 94 8d a6 bd 5f 50 08 be d5 04 97 bd 77 4a b4 bd
       -0.08132473 -0.13311909 -0.073739685 -0.088032655
0000f0 49 8e af bd 6c 62 01 be 9a ee f2 bd ca fc 38 bd
       -0.085720606 -0.12635201 -0.11861916 -0.045162953
000100 06 4d 0f be 71 58 85 be 88 45 16 be 70 a1 2d be
       -0.13994226 -0.26044038 -0.14674962 -0.16956115
000110 1c 31 c7 bd 47 5a 1a be a5 9e c4 bd f6 13 36 be
       -0.09726164 -0.150735 -0.096005715 -0.17781052
000120 a8 23 da bd d5 f6 06 be 17 36 4f be 9f ea ba bd
       -0.10651332 -0.13180096 -0.20235477 -0.09126782
000130 d8 af 4b be 1a 99 b6 bd 71 85 19 be b1 39 1a be
       -0.19891298 -0.089159206 -0.1499231 -0.1506107
000140 70 ef c1 bd e9 6c 23 be 11 c0 ae bd 26 1b 43 be
       -0.09469497 -0.15959515 -0.085327275 -0.19053325
000150 33 48 e6 bd 72 73 12 be dd 8f 0c be 47 2c f9 bd
       -0.1124424 -0.14301851 -0.13726754 -0.12166648
000160 fa 6f 0e be e5 97 e6 bd 40 b8 2c be 2d 01 00 be
       -0.13909903 -0.1125944 -0.16867161 -0.12500449
000170 6b a0 05 be a2 48 49 be 0c af bc bd 96 05 04 be
       -0.13049476 -0.19656613 -0.09213075 -0.12892756
000180 78 bc 04 be 7f a3 e2 bd c4 a7 b2 bd d5 97 16 be
       -0.1296252 -0.11066341 -0.08723405 -0.14706357
000190 0e e9 d8 bd 66 15 d4 bd 84 e8 d1 bd 6c 0b 02 be
       -0.10591327 -0.10355644 -0.10249427 -0.1269967
0001a0 71 ca 98 bd 8d 1a 04 be 54 b2 2c be 74 17 8b bd
       -0.07460488 -0.12900753 -0.16864902 -0.06791583
0001b0 59 95 11 be 90 62 05 be 40 67 2c be d9 32 06 be
       -0.14217128 -0.1302588 -0.16836262 -0.13105334
0001c0 0b 8c 35 be 15 6b fc bd c5 e2 00 be 68 04 f6 bd
       -0.17729203 -0.12325112 -0.12586506 -0.12012559
0001d0 fe c6 13 be 09 8f f0 bd 18 9a 10 be ee d5 b2 bd
       -0.14431378 -0.11746032 -0.14121282 -0.0873221
0001e0 7c f8 53 be 26 60 0a be 1e 87 07 be df 82 11 be
       -0.20700258 -0.1351324 -0.13235137 -0.1421008
0001f0 b9 92 15 be ed fa 08 be 3b c1 13 be a1 0f 20 be
       -0.14606752 -0.1337697 -0.1442918 -0.15630962
