models/eeg_only/s_03.pt (torch, 561186 bytes, 37 tensors)

band_attn.fc1.weight f4 [8, 5]
00000000: ff30 ea3c 39f6 cdbe 83e9 613e 9957 883d
00000010: 070a e93e 4f1e b1be 9f6c 2abe 3af9 e3be
00000020: 032c 323e b4b8 053f 84f0 d73e 6714 cc3e
00000030: 6831 513e e043 5f3b 9efa a6be 79af db3b
00000040: 62cb 4d3e 63bf c43e 1683 b9be 949b a33e
00000050: 637f efbe cc4d 023e 6f16 86be 088c cebe
00000060: d6b5 393e a336 ad3e 5aa3 5e3d f81b a03e
00000070: e97a 483e c3db 6abe 475a 753e 25c0 e8be
00000080: 0408 57bd ef64 ab3e 4901 3a3c ff28 edbd
00000090: 9a45 fabd afc0 4e3e b0e8 573e a777 923e
0.028587816 -0.40226915 0.22061734 0.06657333 0.45515463 -0.34593436 -0.16642998 -0.44526082
0.17399602 0.5223496 0.42175686 0.39859316 0.20429003 0.0034067556 -0.3261308 0.0067042676
0.20097116 0.38427266 -0.36232823 0.31954634 -0.46776876 0.1272499 -0.2618899 -0.4034121
0.18135771 0.33830747 0.054355003 0.31271338 0.19578137 -0.22935395 0.2396022 -0.45459095
-0.05249788 0.33475444 0.0113528455 -0.11580085 -0.12220307 0.2019069 0.21084857 0.28606912

band_attn.fc1.bias f4 [8]
00000000: 057c 883e 9c6c d93c 12b2 a63c 58c6 1bbd
00000010: e496 9c3e 8f08 9cbe ec05 f83e 86ca 08be
0.2665712 0.026541047 0.020348582 -0.038030952 0.3058387 -0.3047528 0.48442018 -0.13358507

band_attn.fc2.weight f4 [5, 8]
00000000: 8399 cfbe d734 0dbf 5d3d 043d ff85 483e
00000010: f9d5 f03d cc9e 42bd f2dd e7bd c260 38be
00000020: f436 47be 43c6 8abe e27f bd3e 57f2 e23e
00000030: 9832 43bd c689 383e ad70 913d e104 8b3e
00000040: 8468 58be 944a eb3d 3c08 ccbd cf00 05bf
00000050: eca5 e53d 6d3c 143d 542e 02be 2119 d8bc
00000060: a5c8 733e 7d72 c63e 6b44 a33d 1796 f8bd
00000070: 47bf 5f3e 0fda 473d 1114 8a3e 2c25 96bd
00000080: 87d7 6e3d 7aaa 983d 13e5 bdbd 64c8 503e
00000090: 3c0f 5abd a9cf d0bd 99e1 81be f846 263e
-0.40546808 -0.5515875 0.032285083 0.19582365 0.11759562 -0.04751472 -0.113216296 -0.1800566
-0.19454557 -0.27104387 0.3701163 0.44325516 -0.04765567 0.18021306 0.07101569 0.2715216
-0.2113362 0.11488834 -0.09962508 -0.5195436 0.11213288 0.03619044 -0.12712985 -0.02637917
0.23807009 0.38759223 0.07972034 -0.12138002 0.2185031 0.04879194 0.26968434 -0.07331309
0.05831101 0.07454391 -0.09272208 0.20388943 -0.053237185 -0.10195858 -0.2536743 0.1623801

band_attn.fc2.bias f4 [5]
00000000: 3985 eebe e384 d0bd 6cac 843d cf5d 4bbe
00000010: 6f1f 643d
-0.46586016 -0.10181596 0.06478199 -0.19860004 0.05569404

feat_proj.weight f4 [128, 21]
00000000: 33a6 173e 91dd 823e de35 48bd 1938 bbbc
00000010: 1ce8 493e d680 e03b 5141 613e 0efb 823e
00000020: 874b aa3c a45e abbc a77a 103e 555f 413d
00000030: e8d5 eebd 3462 17be b74a 933a 0baa 2b3e
00000040: 09de 283e 474c 6fbe f649 f73d e9a4 503e
00000050: ea51 b53e bdbb e73c 0df3 60bb 3302 d63d
00000060: 7eb0 91be 450d 023d aa61 2b3d 23a9 14be
00000070: 2fbf 0a3e 8869 623e 090f a73c 0d41 80bd
00000080: 409e 9dbd dac5 a93c 96f1 813d e1cf 3d3d
00000090: b527 c6bd f319 793d de72 503e f0fd 03be
000000a0: 2387 0ebe f669 5abe 8b25 f23c fbcc a63e
000000b0: 572f e53d f602 82bd d436 b53c e3e3 7ebe
000000c0: 3650 633d 40ef 353d 8006 3c3e 5b25 0b3c
000000d0: 2c25 e53b 81a7 01be 7ccb 02be 825d 3ebd
000000e0: f282 d4bc c6e4 4d3e 35cb 603e db6b 3dbd
000000f0: a782 c6bc 3c2d b43d 5570 09be 12a1 9c3d
00000100: e16f 7dbe d31a 133e 4244 d03c 7d3f 39be
00000110: ac17 d5bc ab19 20bd cc67 f3bd c99e 2d3c
00000120: 1b77 2e3e b2e9 d53b b361 fe3d a490 d1bd
00000130: ff95 d33d a328 5abe ab54 fcbb 7911 c0bd
00000140: f879 5dbd 2aea 453e 32b7 2bbd b11d dcbc
00000150: 36f1 003e ddf3 79bc 6022 733d 0abd ba3c
00000160: 9783 cdbd f3d3 66be d1b7 553e f36a e23c
00000170: d162 68be 5380 383d 5bc2 f33d 2f57 203d
00000180: 148f 503e fc1c 05be 07ad 31be eb6a 883d
00000190: d697 48be 4b85 233e 963b 05bd fbf1 393e
000001a0: 882c 93bd d2fa 6c3d e7b4 683e 3331 3ebd
000001b0: 7ada 8ebd 6e4d 91be 04eb 223e 972e 013e
000001c0: 5925 563d 44ed 2bbd 4b24 c73d 4738 223e
000001d0: 149d c13d 5264 6bbe 6a09 323e 8c97 f83c
000001e0: edea 59be 9b15 3d3d 76eb 293e 844b f43c
000001f0: acdd aabd 787e e73e baa6 cebd 57f1 abbd
00000200: 0862 893d a652 763d be68 8c3c dc92 123d
00000210: 65a7 f4bd fec8 c93d 38f4 163e ea1e 99bd
00000220: 837b 81bd 94e6 4f3e f4dd 3e3d 50a2 71bd
00000230: 6d5a a9bc d528 ca3d 7bf5 10be 70f1 193d
00000240: f71b abbd cd5a b3bc 7d49 85bd 3a7d d43d
00000250: e527 403e 642f 44be dd95 56bc 1455 c63e
00000260: 555b 6cbd d874 403d 1369 d03d 6f82 2c3e
00000270: 5be0 bf3d 0a60 42be 582a 28be 25ba 68bd
00000280: c3b6 50bc 6747 f3bd a209 c3bc ef2c 673d
00000290: 7b43 333e 75bf ef3d 0898 9cbd f980 2abe
000002a0: b99d e4bd 2c0a 57be feb9 e3bd 1587 243d
000002b0: e353 a4be 07ca a8bd d858 bc3d 5e34 e7bd
000002c0: e7db 5abe f230 1c3e e623 0b3e 4085 40bd
000002d0: 9f1e 003e d48e 28be 9c6d 123e c4de 0abb
000002e0: 7938 173e 0791 f43d 05c1 48be 6e33 4c3e
000002f0: 634e a5bd da7f 6bbc 7f4f 07be 47cd c43c
00000300: de28 9c3c a67b 0d3d 561b aebd 16d0 6fbd
00000310: 8ee1 9abc 535e 2b3e d95f 2e3e 3d96 2a3d
00000320: 43d3 52bb 52f0 343e d781 023e 829d 56be
00000330: e3a4 b5bd 257e d5bd d3bf 0a3e 7fb6 cfbc
00000340: ea41 3abe eef9 00be 4e4b 543c 10a7 62be
00000350: 605c a03b 26f3 523e 6111 96be fdbb c0bd
00000360: e836 16bd ed29 ca3d 7680 39be e50e f0bd
00000370: ea7d bb3d ab4f 833d bb5f 593e 24aa cb3c
00000380: 4c30 48bb 988f 2abe 3ca2 c1bd 9897 a0bd
00000390: d8af 28be e19c 23be 7b2e a0be 17c8 133d
000003a0: b412 8c3e ffe6 213e 6ead bebd 211f c23e
000003b0: 9603 e23b 9a46 f23d 6165 19be 76b7 cb3d
000003c0: 538f e6bc 42c8 1dbe 18c5 173d 1765 263e
000003d0: 342f cebd 4139 01be 6349 22bb 3b78 4c3e
000003e0: f6f8 2b3e 0fab cebd 3ffe 12be 7cf5 2cbe
000003f0: 8bf2 d2bd 9d0b 00bd 4da9 05bd c527 24bd
0.14809494 0.25559667 -0.048879497 -0.022853898 0.19717449 0.006851296 0.21997572 0.25582165
0.020787967 -0.020919152 0.14109288 0.047210056 -0.11661893 -0.14783555 0.0011237477 0.16764085
0.1649095 -0.23368941 0.12074654 0.20375408 0.35414058 0.028287763 -0.0034324557 0.10449638
-0.28454965 0.031750936 0.041841187 -0.14517646 0.13549493 0.2211057 0.020392912 -0.062624075
-0.076961994 0.020724226 0.06344907 0.046340827 -0.09675542 0.060815763 0.20356318 -0.12889838
-0.13918738 -0.21329483 0.029558918 0.32578263 0.1119067 -0.06348221 0.02212087 -0.2489162
0.055496417 0.04441762 0.18361855 0.008492793 0.0069929566 -0.12661554 -0.12772936 -0.046475895
-0.025941346 0.20106801 0.21952517 -0.046245437 -0.024232222 0.0879769 -0.13421758 0.07647909
-0.2474971 0.14365701 0.025423173 -0.18090625 -0.026012264 -0.03908698 -0.11885032 0.010596939
0.17037623 0.006528103 0.124209784 -0.10232666 0.10331344 -0.21304564 -0.007700523 -0.09378333
-0.054071397 0.19327608 -0.041922756 -0.026869627 0.12592015 -0.015255895 0.059358954 0.022795219
-0.100348644 -0.2254179 0.20870902 0.027638888 -0.22693945 0.045044255 0.11902305 0.039145645
0.2036708 -0.12999338 -0.17351161 0.06661018 -0.19589171 0.15968816 -0.03252753 0.18158714
-0.07186228 0.05785639 0.22725259 -0.04643364 -0.06975265 -0.28379387 0.15909964 0.12615429
0.05228171 -0.04197432 0.09723719 0.1584178 0.094537884 -0.22987488 0.17386404 0.0303457
-0.21281023 0.046163183 0.16593727 0.029821165 -0.08343062 0.45213675 -0.10090394 -0.08395641
0.06708151 0.060137413 0.017139789 0.035784587 -0.119459905 0.09852789 0.147416 -0.074765995
-0.06322386 0.20302802 0.04659839 -0.058992684 -0.020673001 0.09871069 -0.14156143 0.03758377
-0.08354943 -0.021893883 -0.065081574 0.103754476 0.18765219 -0.19158703 -0.013097254 0.38736784
-0.05770429 0.04698643 0.10176291 0.16846631 0.09368964 -0.18981948 -0.16422403 -0.056818146
-0.012738886 -0.11878853 -0.023808304 0.056439336 0.1750621 0.117064394 -0.07646185 -0.16650762
-0.11162896 -0.20999974 -0.111194596 0.040167887 -0.3209525 -0.08241659 0.09196633 -0.11289285
-0.21372949 0.15253046 0.13587913 -0.047002077 0.12511681 -0.16460735 0.14299625 -0.0021189908
0.14767636 0.11941724 -0.19604881 0.19941494 -0.08071592 -0.014373744 -0.13213919 0.024023665
0.019062456 0.03454175 -0.08501308 -0.058548056 -0.018906381 0.167352 0.1702875 0.041647185
-0.0032169379 0.176698 0.12744842 -0.20958522 -0.0886934 -0.10424451 0.13549738 -0.025355576
-0.18189207 -0.1259534 0.012957407 -0.22134042 0.0048938245 0.20600566 -0.29310134 -0.09410856
-0.036673456 0.09871278 -0.1811541 -0.11721591 0.091548756 0.0641168 0.21227925 0.024861403
-0.0030546365 -0.16656339 -0.09454772 -0.07841414 -0.16473329 -0.15977813 -0.31285462 0.036079492
0.2735802 0.15810774 -0.09310423 0.37914374 0.0068974 0.118298724 -0.14980079 0.09947102
-0.028144514 -0.15408424 0.037053198 0.162495 -0.10067597 -0.12619497 -0.002476298 0.1996774
0.1679419 -0.100912206 -0.143548 -0.1689052 -0.10300168 -0.031261075 -0.03263216 -0.04007699

feat_proj.bias f4 [128]
00000000: 0654 643d 2a2a 0ebe a6d3 00be 6b93 77bc
00000010: 0173 653c 912d 72bd 7542 163e 7d90 9abd
00000020: c729 4c3d 67cb 89bc 4145 743d d186 a3bd
00000030: 9c85 ff3d 2ecb a83d 05d5 233d 3968 5cbd
00000040: 7ed0 183e fbe1 a3bd c965 6fbd f008 24be
00000050: 2b5c 753c b7b9 123e 788c 8e3c 1aac ccbd
00000060: c1d8 63bd 03c4 33bd 2b3d 463d 263a 1c3e
00000070: 90d3 3abe 007b 99bd 49fb f33c 03a5 18be
00000080: d1a4 c2bd fe08 c53d e044 1c3e 7dcc 353e
00000090: 92b7 29be 3851 323e 0ffd fa3d 0244 1fbe
000000a0: 634c b13d 7691 413e c249 923d a0d8 363e
000000b0: 41f0 7c3c 9059 26bc 654b 2b3e d152 6cbd
000000c0: 3973 633d 0733 403e 6638 06be da8d e0bd
000000d0: 9d27 d33d 20ce da3d b3a4 91bc a826 e73c
000000e0: f401 a8bd e37e d6bc 82ae a5bd 43ec 053d
000000f0: 0caa 523e bef5 083e 05e4 debd 7783 62bd
00000100: 6370 133e 4be1 45b8 87be 35be 4016 e3bd
00000110: 85fd 11be 3dcc 303e c8db 40be 0c89 1b3e
00000120: 87ed 28be 8d46 09be 9e8f 743d b122 12bd
00000130: b2ac 9e3c 5bfd b6bd a838 063e adc7 0e3d
00000140: eb17 4bbe f9ba 9c3d d943 053e 9a82 91bd
00000150: 92e2 113a 36d1 073e 3fd5 51be 0ed9 7abd
00000160: 927f 8dbd eef8 ebbd d0f2 f3bd 33e1 8f3d
00000170: c15a 643d 8455 023d 467f 06be 8ee9 5fbd
00000180: 40c5 cf3c 5970 073e 6fd2 c3bd b7a5 3f3d
00000190: 71d1 51bd 3b42 05bd 1740 0f3d 5709 95bd
000001a0: c41c 09be 6bda dfbb 0ea2 ac3d fcbe 38be
000001b0: 1e8c f63d abe2 8bbd 4094 c0bd 5c99 903d
000001c0: 94fc a73c 4458 55bd 63e4 053d 0a18 463d
000001d0: d945 b2bc 3490 ccbd 1f62 cb3c 5d24 383e
000001e0: 64bd 08be 53cb ba3d 0b1e 493d f423 673e
000001f0: 525b d9bb 111c 36bc bb2c 11be d4bb 50bb
0.055744193 -0.13883272 -0.12580737 -0.015110831 0.01400447 -0.059125487 0.14673789 -0.0754709
0.04984453 -0.016820623 0.05963636 -0.079846986 0.12476656 0.082418784 0.039998073 -0.053810332
0.14923283 -0.08002087 -0.05844668 -0.16019034 0.014975588 0.14328657 0.017400965 -0.09993763
-0.055626635 -0.043888103 0.048398178 0.15256557 -0.18244767 -0.074941635 0.029782908 -0.14906697
-0.095040925 0.09620856 0.15260649 0.17753787 -0.16573933 0.17413795 0.12255298 -0.15553287
0.08657148 0.18903145 0.071429744 0.17856073 0.01543814 -0.010153189 0.1672798 -0.057696167
0.055529807 0.18769465 -0.13107452 -0.10964556 0.1031029 0.106838465 -0.01777873 0.028216675
-0.082034975 -0.026183551 -0.08089925 0.03269602 0.2057268 0.13374993 -0.10883335 -0.055301156
0.14398341 -4.717828e-05 -0.17748462 -0.11088228 -0.14256866 0.1726541 -0.1883384 0.15188998
-0.1649686 -0.13405819 0.059707277 -0.035677616 0.019369457 -0.089350425 0.1310755 0.034858394
-0.19833343 0.0765285 0.13014163 -0.071049884 0.00055650726 0.13263401 -0.20491503 -0.061242156
-0.06909098 -0.11522089 -0.11911547 0.07025375 0.055750612 0.031819835 -0.13134488 -0.054666094
0.02536261 0.13226451 -0.095616214 0.046788897 -0.05122513 -0.032533865 0.03497323 -0.07277172
-0.1338988 -0.0068314574 0.08429347 -0.18041605 0.12038444 -0.06830343 -0.094032764 0.07060501
0.02050618 -0.05208613 0.03268851 0.04836277 -0.021761822 -0.09988442 0.024827061 0.17982621
-0.13353497 0.09120812 0.049100917 0.22572309 -0.0066332007 -0.01111509 -0.1417722 -0.0031850236

local1.conv.bias f4 [128]
00000000: 851a fb3a f7a1 87bc 1d45 133c 97e8 5d3c
00000010: 09bf b1bc d017 3d3c 18e6 973b 835b 0bbb
00000020: 8a3c 853c 5cff 90bb ac3e 163c bd2c 923c
00000030: d80a 8e3b f644 0e3d 1e62 433c 2e57 f1bb
00000040: 4211 653c f7bf b63b 371f 02bb 1f20 563c
00000050: f2c3 883b aef7 293c 719b db3b 4ca0 98bc
00000060: 3dce 2d3b 88ac 1d3c eb24 2c3b acda 343c
00000070: 0d56 293c b46a 2f3c a931 f5bc 4488 c63b
00000080: 151e 123c f573 e63a 04e4 86ba a441 003c
00000090: 889b ee3b 8b8c 1d3c 021b 7bbc d820 cd3c
000000a0: c5b9 833b c5c1 5b3c b750 633c efc7 77bc
000000b0: 526d 503c e0ca 233b 4085 8b3b 771d 2abc
000000c0: faaf 403b 99ca 833c 0b5f 823c fc58 283b
000000d0: a6e5 7ebb 9342 6abb 5e4d 8e3c e6af d4bc
000000e0: 459f f13a 4db7 f8b9 925e c5bb 9b7e b93c
000000f0: 438b e73b 548c ad3c f56d cbbc 816f cebc
00000100: 2ecf 1e3c 18a2 ae3b 309a bb39 c9d9 ce3c
00000110: f15c 223a 3593 40bc 91d5 2b3c 8592 cb3b
00000120: c407 ec3b 2477 e7bb 07ef 56bc efa8 8f3b
00000130: 6e83 1abb 40e3 71ba cae9 6e3c 21b3 173d
00000140: 0d31 183c 4174 8e3b 73ae fa3a b49d ae3b
00000150: df5a a83c 28bf 8cbb 4e8b f83b 095f 4cbc
00000160: b32c 463c 940e 933b 599d 153c 36a7 89bb
00000170: a2f9 c83c bb46 843c d00f a4bb 7059 9d3c
00000180: fc08 b23c f07e 1e3c 84ad 9c3c c913 8abc
00000190: 7a80 86bc 6c98 333c 8aaa c93c 92ff 993b
000001a0: 8dfb 92bb cb22 f13a c613 7c3c 1b99 483c
000001b0: f00c 1ebc 4569 493c 3145 433b 20b2 8f3c
000001c0: 37af b53c 0533 183a 3714 69bc 6f23 673b
000001d0: 43f5 1d3c 6042 84bb 3895 c3ba 409a 81b9
000001e0: a3dd 5b3c ac36 313b 8020 bfbc 5088 8a3c
000001f0: 9089 463b 539b 5c3c 1468 083d 459f a0bb
0.0019157684 -0.016556723 0.008988646 0.013544223 -0.021697538 0.011541322 0.0046355836 -0.0021264262
0.016264219 -0.0044249725 0.009170216 0.017843598 0.004334789 0.034733735 0.011925248 -0.007365129
0.013981165 0.005577083 -0.0019855031 0.013069182 0.004173749 0.010373993 0.0067018797 -0.018631123
0.0026520633 0.009623654 0.0026267122 0.011038464 0.0103354575 0.010706592 -0.029930906 0.0060587246
0.008918305 0.0017582165 -0.0010291343 0.00782815 0.0072817244 0.009616028 -0.015326263 0.025040075
0.004019948 0.0134128975 0.013874224 -0.0151233515 0.0127213765 0.002499275 0.004257828 -0.0103830015
0.0029401765 0.016087817 0.01591446 0.0025687804 -0.0038894205 -0.0035745248 0.017370876 -0.025962781
0.0018434307 -0.00047438816 -0.0060232366 0.022643378 0.007066162 0.021185078 -0.024832705 -0.025199654
0.00969295 0.0053293817 0.00035782298 0.025250332 0.0006193659 -0.011753847 0.01048793 0.006212535
0.007203074 -0.007063763 -0.013118512 0.004384152 -0.0023576873 -0.00092272833 0.014582107 0.037036065
0.009289038 0.0043473546 0.0019125476 0.0053288583 0.020551143 -0.0042952485 0.007584966 -0.01247383
0.012095618 0.004487822 0.009131753 -0.0042008413 0.024533097 0.016147008 -0.005006768 0.019207686
0.0217328 0.009673819 0.019125707 -0.016855137 -0.016418684 0.010961633 0.024617452 0.004699656
-0.0044855536 0.001839721 0.015385574 0.012243534 -0.009646639 0.012293165 0.002979588 0.017540991
0.022178276 0.00058059423 -0.014226011 0.0035268923 0.0096409945 -0.004036233 -0.001492179 -0.00024719723
0.0134195415 0.0027040644 -0.023330927 0.016910702 0.0030294396 0.013464767 0.03330238 -0.004901799

local1.conv.lin.weight f4 [128, 128]
00000000: cb5c 423c be60 c83c 8a67 053d fda0 173d
00000010: 7b1b 803c 0861 083e d176 9d3c 2578 7abd
00000020: 7f3b ed3c 7772 67be c6ed 71bd 6d7b afbc
00000030: bbfa 45bd 0eb9 87bc 4707 19be abc1 e13d
00000040: 75da d4bd 1cb9 19be f920 703d b55b fdbd
00000050: 9f88 1a3b 607c f4bd 874c febd a98b 6c3c
00000060: 0738 143d 2e98 e5bd 7a75 443d b264 433d
00000070: c264 31bc be10 aabc 1aeb 153d 4189 14bc
00000080: f44a b93b 68ba d43d 270c 033e 6718 083e
00000090: 2c84 81bd 085a 3ebd 632d 103e 804b 253e
000000a0: 9e37 bb3d 5407 ed3d e70b 0e3d d0e3 abbd
000000b0: 5a9d 103e c059 043d 8db8 9dbd 9edc 7f3e
000000c0: 9f42 cdbd 889e 5f3d 3183 953d 1fd1 d8bd
000000d0: f38b a2ba d470 8cbd aa24 b23a 8e56 bc3d
000000e0: 65cb b5bd 2fc4 05be 5711 6d3d 7c55 2dbe
000000f0: 4ae6 1ebe bb23 0ebe 9054 133c 7aad 213d
00000100: 140d 22bd 1d5f f43d 5cda 4cbb baf6 0cbe
00000110: 9ccd 963d f978 4d3c 2b8a a53c ad11 d73d
00000120: a5bf fd3c 02a2 d9bc 65a7 883d 9df5 21be
00000130: 416b cdbc 9956 debd 275f cc3c 460e 10bd
00000140: f371 293d b306 5abc 9138 153e a44e 0bbe
00000150: c293 dcbd 7a4b 1abe c962 0c3d 9713 3c3c
00000160: 818f 0f3d dbb9 80bd 96d5 d6bd 79e1 db3d
00000170: 29a6 933d 7ae3 77bd 475c a0bd eac1 8abd
00000180: 95d2 05bd e6a7 8d3d 3e9e 9b3d 8a47 96bd
00000190: 800a aa3d 028a 4dbd 2e6c 8f3d 35ee e0bd
000001a0: 985d c8bd f263 e33c 3f3c e4bd fd05 58bc
000001b0: a592 bebb de88 8ebd ddad 9e3d 0f76 da3c
000001c0: fe9a e9bd bc38 24bd b823 183d 44dd 453d
000001d0: 7e60 0a3e faaa e3bd d693 413c 7c35 a73d
000001e0: be01 0c3e 1b15 b73d 6f15 ecbd 169f 7ebd
000001f0: dd2f 4cbc 5942 da3d abe0 693d 93f1 9fbd
00000200: 2b1a 3d3d 5252 053e cf5a 413d 2bf0 8b3b
00000210: 1d2e 9cbd f46d a4bd 92ca 223d 54b6 0c3e
00000220: afc9 3ebe 324b 613d 2a54 d7bc 53bd c43d
00000230: c1ca 01be c74a 3ebe a5bc 133e d32e f9bd
00000240: 743d b03d 42e9 fa3b 9d6f 203e 9f50 d4bc
00000250: 386c 70bc 9777 31be 02b0 1fbe 464d 643d
00000260: 5570 f8bc 4ad3 bc3d e602 0bbe 2940 823d
00000270: c407 da3d 8932 8d3d ad2c 1bbd 734f a0bd
00000280: a889 62bd 302f c93d cf44 86bd d19b 9cbd
00000290: a322 b2bd c61b 853d 6ecb 773b 5c11 823d
000002a0: 6428 1abe 54d8 86bd 807a 2b3d e1eb d2bd
000002b0: ddee 20be 80b4 e8bd 646e 19bc 828c 243d
000002c0: 0867 80bd 7157 8d3d 90f0 d83d 50e9 5cbd
000002d0: 2722 a9bd 265a d7bd 9cf1 be3d aec9 e83d
000002e0: 09da 543e ee52 2bbe 506a 213e e2cb 203d
000002f0: 486e 12be bd77 37bc cd91 90bd f0f2 8f3d
00000300: 6a1b 26bc 944c 8dbb 77db 073e 9e45 31bd
00000310: d943 273e 53e3 cabd 06ff a0bc 71b4 c1bd
00000320: 4502 8d3d ca3e 203d b649 0e3e 47b2 07bd
00000330: 304f 5dbd e526 803c 01f7 9e3d 9d4c 49bc
00000340: 0eb1 d4bd 3de9 9cbd 3b4f aa3a ff9e ab3c
00000350: b2e0 013d 5621 15be 2f26 8f3e f933 30be
00000360: f18a f9bd 637f 343e 3226 01bc cfe7 9fbd
00000370: 8f0b 6ebc 50c6 f3bd 8d21 143d 45f8 bebd
00000380: d76f 73bd 3900 13be 2911 ddbd 6845 e1bd
00000390: 2ab6 c9bd 24e7 4abe 9c59 b73c 6749 cd3d
000003a0: 7647 f0bc 24ee c63d e0b8 4abe a251 1abd
000003b0: bd00 7cbd 2196 31bd 5154 abbd 60a3 96bc
000003c0: f69f e2bd 0713 d1bd 1110 ee3d 23cc a8bd
000003d0: 871f 153e 3c43 65bd a592 8cbd b163 863c
000003e0: cfd0 7f3b 2e9a 25be 4b66 3abd f35d 553d
000003f0: 5005 c2bc c328 28be 915e b6bd 6eec 9a3d
0.011862944 0.024460193 0.032569446 0.037018765 0.015638104 0.13318264 0.019221695 -0.061149735
0.028959034 -0.22602259 -0.05906465 -0.021421159 -0.04833482 -0.016567733 -0.14944182 0.11023267
-0.1039323 -0.1501202 0.058625195 -0.12371007 0.0023579968 -0.11937785 -0.1241694 0.014437594
0.036186244 -0.112106666 0.047963597 0.047703452 -0.010827245 -0.020759936 0.036601163 -0.009065927
0.005654687 0.10387117 0.12797605 0.13290559 -0.06324038 -0.04647258 0.14079814 0.16142082
0.091414675 0.11573663 0.03467932 -0.08393061 0.14122525 0.032312155 -0.07701216 0.24986503
-0.100224726 0.054594547 0.073004134 -0.10586762 -0.0012401327 -0.06857458 0.0013591249 0.091961965
-0.08876685 -0.1306312 0.057877865 -0.16927141 -0.15517536 -0.13880818 0.008992329 0.03947208
-0.039563254 0.11932204 -0.0031258082 -0.13765994 0.073634356 0.012541049 0.020207485 0.10501418
0.030975172 -0.02656651 0.06672553 -0.1581635 -0.025075557 -0.10856361 0.024947716 -0.035169862
0.041368436 -0.013307261 0.1457236 -0.13604218 -0.1077037 -0.15067855 0.034273896 0.01147928
0.035048965 -0.06285449 -0.10489957 0.10736365 0.07209427 -0.060519673 -0.078301005 -0.067752674
-0.03267153 0.0691679 0.07598542 -0.07337864 0.08302784 -0.050180443 0.070030555 -0.109829344
-0.097834766 0.027757619 -0.111443035 -0.0131850215 -0.0058158212 -0.06959699 0.077480055 0.026667623
-0.114065155 -0.04009317 0.03714344 0.04830672 0.13513371 -0.111165956 0.011815032 0.08164498
0.1367254 0.089395724 -0.11527526 -0.062163435 -0.012462583 0.10657186 0.057099026 -0.078097485
0.046167534 0.13019684 0.047205742 0.0042705736 -0.07625983 -0.080287844 0.039743967 0.13741428
-0.18631624 0.055003352 -0.02628525 0.09606423 -0.12675 -0.18583213 0.14427431 -0.12167134
0.08605471 0.007657201 0.15667577 -0.02591735 -0.014674239 -0.17330776 -0.15594485 0.055737756
-0.030327002 0.09219988 -0.13575324 0.06359894 0.106460124 0.068944044 -0.037884403 -0.07827654
-0.05530706 0.098234534 -0.06556093 -0.07646907 -0.08698013 0.06499438 0.0037810463 0.06350967
-0.1505447 -0.0658423 0.041864872 -0.102988966 -0.15716119 -0.11362553 -0.009364698 0.04017306
-0.06269652 0.06901444 0.10592759 -0.05393344 -0.08258467 -0.10515241 0.09323427 0.11366592
0.20786299 -0.16730854 0.15763211 0.039256938 -0.14299881 -0.011197981 -0.07059059 0.070287585
-0.010138372 -0.0043121073 0.13267313 -0.043279283 0.16334476 -0.0990664 -0.019652855 -0.094582446
0.068851985 0.03912238 0.13895306 -0.033129003 -0.054030597 0.015643546 0.07761956 -0.012286332
-0.10385333 -0.07661674 0.0012993583 0.020949839 0.031708427 -0.14563498 0.2795882 -0.17207326
-0.12184704 0.17626719 -0.007882642 -0.07807886 -0.014529123 -0.119030595 0.03616481 -0.093246974
-0.05943283 -0.14355554 -0.10794289 -0.10999566 -0.09849198 -0.19814736 0.022381596 0.10023766
-0.02933095 0.097133905 -0.19797087 -0.037675507 -0.06152414 -0.043356065 -0.083656915 -0.01838845
-0.110656664 -0.10208707 0.11624158 -0.08242061 0.14562808 -0.055972323 -0.06863908 0.016404958
0.0039034372 -0.16172096 -0.04550771 0.05209155 -0.023684174 -0.164218 -0.08904756 0.07564627

local1.norm.weight f4 [128]
00000000: 26e4 713f 700c 823f 444e 893f 0b68 803f
00000010: b350 953f 0c5c 7a3f 7349 6e3f fd66 7f3f
00000020: f85f 833f 9490 7b3f a399 713f 8d6f 833f
00000030: 6491 8a3f 951a 783f 880c 783f cedb 833f
00000040: e34b 763f 2135 7d3f 2b75 883f dc2e 853f
00000050: 1b28 713f 0607 803f dd13 6e3f 2c4f 8f3f
00000060: 995c 933f d444 703f 339e 783f 54a9 7a3f
00000070: 8fd7 793f c097 813f 2362 8a3f 1f61 753f
00000080: fb93 7f3f 5a7c 833f 62c1 853f 3457 853f
00000090: e64b 813f 7f94 843f e76a 813f 487e 7c3f
000000a0: 954a 733f bbaa 8a3f 24b1 6b3f 1eee 8f3f
000000b0: 5f1a 863f 076d 763f 99aa 743f d1ff 713f
000000c0: 51d4 723f 9b91 653f 5547 8c3f 5e63 7e3f
000000d0: 557c 763f 03ba 803f 0d51 683f c012 8a3f
000000e0: 7d72 8d3f ee17 763f d0d2 733f 1492 843f
000000f0: 3b96 813f 0162 8c3f 8fab 843f b357 833f
00000100: 4555 733f 2751 873f f2ae 8d3f 3309 7a3f
00000110: 0181 8f3f 72fc 8a3f 1599 6e3f 5b63 7d3f
00000120: 4b2f 743f 69e3 803f 9847 733f f9ea 7b3f
00000130: 9df2 803f bda1 753f d871 813f 48df 683f
00000140: 578a 713f bb8b 773f 5c7b 813f 256e 783f
00000150: 3dbd 833f 7665 913f 5a00 783f 7a40 803f
00000160: 6020 723f 88ef 833f 9ebb 7c3f a0f3 803f
00000170: 2918 823f 8d10 7d3f c260 753f 29b0 773f
00000180: 10d0 7c3f 60e7 793f 8a78 7a3f 6839 863f
00000190: d47a 883f d60f 763f ea85 843f 89eb 7d3f
000001a0: 413f 733f 3a97 7a3f 9451 7b3f 5a92 813f
000001b0: 546b 743f 69cd 753f f16a 733f ab7e 843f
000001c0: aaf6 6a3f 6915 7b3f af16 7a3f c9e9 763f
000001d0: 699d 743f b9a2 773f 59f7 6c3f 0626 693f
000001e0: b698 853f cd7f 7b3f 69ef 7c3f c229 7f3f
000001f0: 01e2 883f aa05 6e3f 7d53 783f bfde 883f
0.9448875 1.0160046 1.072701 1.0031751 1.1665252 0.977967 0.93080825 0.9976652
1.0263662 0.98267484 0.94375056 1.0268418 1.082562 0.9691556 0.9689412 1.0301454
0.96209544 0.98909193 1.0660757 1.0404925 0.9420182 1.0002143 0.9299906 1.1196036
1.1512634 0.93855023 0.9711639 0.97914624 0.9759454 1.0124435 1.0811199 0.9585132
0.99835175 1.0272324 1.0449641 1.0417237 1.0101287 1.0357817 1.0110749 0.9863019
0.9503568 1.0833353 0.9206717 1.1244543 1.0476798 0.9626011 0.9557281 0.9453097
0.9485522 0.896753 1.0959269 0.9937037 0.96283466 1.0056766 0.90748674 1.0786972
1.1050564 0.96130264 0.9524355 1.035708 1.0123972 1.0967408 1.0364856 1.0261139
0.95051986 1.0571641 1.1069014 0.97670287 1.1211244 1.085829 0.93202335 0.9897973
0.95384663 1.00694 0.9503112 0.98405415 1.007404 0.9594992 1.0112867 0.909657
0.94351715 0.96697587 1.0115771 0.9704307 1.0292126 1.1359088 0.96875536 1.0019677
0.9458065 1.0307474 0.9872378 1.0074348 1.0163623 0.9885338 0.95850766 0.96753174
0.9875498 0.97618675 0.9784018 1.0486269 1.0662484 0.96117914 1.0353367 0.99187523
0.9501839 0.97887003 0.98171353 1.0122788 0.9547627 0.96016556 0.95085055 1.0351156
0.9178263 0.98079544 0.9769086 0.9645048 0.9555269 0.9673267 0.9256492 0.91073644
1.0437229 0.98241884 0.9880281 0.9967309 1.0693971 0.9297739 0.97002393 1.0692977

local1.norm.bias f4 [128]
00000000: 8e30 b4bd a5f9 2fbd 8fb1 d5bd 8561 dcbd
00000010: 8b0d 39bd 6d3a cbbd f6d4 9abd 367e 40bd
00000020: b273 67bd 291a d7bd 3078 b7bd d6ae 8cbd
00000030: fc66 24bd 632a 81bd a4df 64bd 0aee 8abc
00000040: c903 dbbd 2aa5 2abd e6d4 4fbc 264c 38bd
00000050: c5b9 cfbd 92fd 74bd 18c6 e3bd 5a2d d0bb
00000060: 2238 3bbd 63dc aebd fd05 53bd afcc a0bd
00000070: c4ef 7ebd 2808 15bd e188 55bd 8fbb 99bd
00000080: 0e69 20bd 22a0 afbd d912 2bbd effa a1bd
00000090: f76b 8ebd 6f02 2bbd 4fa6 06bd 8e7e 80bd
000000a0: f2b4 edbd 3adf 42bd dc17 ccbd b73d 0dbd
000000b0: ef5c 76bd 4514 bcbd 4292 89bd 577d c5bd
000000c0: 3f4c 78bd 7356 bcbd b985 42bd e240 aabd
000000d0: 3484 00bd efa1 25bd 8d43 c4bd 12dd 77b9
000000e0: 53e1 acbc f341 7bbd dc8c 25bd c568 37bd
000000f0: 3049 1abd 45c4 46bd a153 8ebd 0a5d 68bd
00000100: fef9 d6bd a4d0 07bc cf7a 45bd 7689 8dbd
00000110: 715e c2bd 8b27 26bd c027 bdbd 836c 17bd
00000120: 0a45 98bd f34c 70bd d841 e0bd 743c 53bd
00000130: 5e1e 8abd d442 64bd bae9 2abd 3271 fcbd
00000140: f38e acbd 10ab a3bd a70c 2cbd 3f6b 37bd
00000150: a3dd d3bc 34c4 80bd 967a 89bd e781 c6bc
00000160: ab59 9ebd 0101 83bd 186e b7bd 2afb aabd
00000170: 44ad d6bc 14bb 1ebd dfb8 8cbd f550 adbd
00000180: 17b7 adbd bd74 4ebd 6999 6ebd 6736 42bd
00000190: 4fe4 52bd e259 a6bd dfb0 29bd e939 1dbd
000001a0: 371e a3bd d8fb 55bd e152 64bd 0d8a adbd
000001b0: 205c 90bd a8a5 b3bd 72cc 9cbd 6f5b d6bd
000001c0: f829 1dbe 55d5 91bd 4233 43bd f54c 14be
000001d0: 7525 54bd 6a13 9ebd 420b b2bd efc7 04be
000001e0: c376 25bd 3543 11bd ed08 8abd 66e5 23bd
000001f0: 9530 5cbd 8299 94bd b8e4 b7bd bc7c 25bd
-0.087983236 -0.04296269 -0.10434257 -0.10760788 -0.04517893 -0.09923253 -0.0756015 -0.046995364
-0.05650682 -0.105030365 -0.08958471 -0.06869285 -0.040137276 -0.06306913 -0.055877343 -0.016959209
-0.10694081 -0.04166142 -0.012685036 -0.044994496 -0.101428546 -0.059812136 -0.11121768 -0.0063530626
-0.04570783 -0.08538129 -0.051519383 -0.0785154 -0.062240377 -0.03638473 -0.05213249 -0.07506477
-0.039162688 -0.08575465 -0.04176602 -0.0790919 -0.069541864 -0.041750368 -0.032873448 -0.062741384
-0.11606778 -0.047576167 -0.09965488 -0.034482684 -0.060147222 -0.091835536 -0.067173496 -0.09643047
-0.06061959 -0.091961764 -0.04749081 -0.08313157 -0.03137608 -0.040437635 -0.09583197 -0.0002363811
-0.021103537 -0.06134219 -0.040417537 -0.04477765 -0.037667453 -0.04852702 -0.06949545 -0.056729354
-0.10496901 -0.00828949 -0.048212823 -0.06910984 -0.094906695 -0.040565055 -0.09236097 -0.03696872
-0.07435043 -0.058667134 -0.10950059 -0.051571324 -0.06744073 -0.055727795 -0.041726805 -0.12326278
-0.08425703 -0.07991612 -0.042004254 -0.044780012 -0.02586252 -0.06287423 -0.067128345 -0.024231864
-0.077319466 -0.06396676 -0.089565456 -0.08348687 -0.026205666 -0.03875263 -0.06871199 -0.08462707
-0.08482187 -0.0504043 -0.058251772 -0.047415163 -0.051487263 -0.081226125 -0.041428443 -0.038385306
-0.079647474 -0.05224213 -0.055743102 -0.08473597 -0.070488214 -0.08771831 -0.07656182 -0.10466658
-0.15348041 -0.07120768 -0.047656305 -0.14482482 -0.051793534 -0.07718547 -0.086935535 -0.12966894
-0.040396463 -0.035464484 -0.06739984 -0.040013693 -0.05375727 -0.07255842 -0.089791715 -0.04040216

local2.conv.bias f4 [128]
00000000: 8ecc 61ba 0f93 383b 77f0 1a38 8f0f f8b7
00000010: 6543 373c 813a af39 ee15 a13a b65f 8339
00000020: 907f a438 aa19 8c3a 633b 393b 1ec0 9f3b
00000030: be28 60b9 384e 76b7 f7f5 dfba 3997 9fbb
00000040: 8573 8c39 8f1a 833c 4364 30ba 3964 423a
00000050: 1b83 97b9 4eb4 623b bd18 bab8 e5c3 20ba
00000060: 9081 23bb 70bf 0eba 379d bfb8 bacd 983a
00000070: 0d08 cb39 15c8 0aba a28f 9f39 dea7 16ba
00000080: 5252 a539 0f40 41bb 6289 8bba 37c9 f9b9
00000090: ad18 e0b7 3504 c23a ed11 8bb8 86e3 1f3a
000000a0: a2bc 7339 d886 2e3a 98b5 213b 3c7d f7ba
000000b0: 0aee 013a 4454 093b fc6e 19bc 4ce1 6c3a
000000c0: 489d 133a 0ffe 44ba 9eca 1e3a 2418 b93a
000000d0: aba1 433a 1961 91bc 2a37 393c 0793 963c
000000e0: c223 743c 487a 05b9 fa4d 03ba fea6 f739
000000f0: 68ed c53c 10ac 413b 4713 68bb 58e6 673a
00000100: 58cf 4b3a 4c0e c1bc ec03 c53a ee18 89b9
00000110: ba01 de39 4f12 abba 3d97 5a3a cbd1 49bd
00000120: 9d0f 7c39 e39b 1c3b d98e 463a 8b3f 9339
00000130: faa1 df38 5ed8 5c3a b6c1 983c c4d0 eb3b
00000140: e50b c639 8a37 c13a b500 bdb9 2d21 03ba
00000150: 1202 40bb bc89 293a 2f0f 86bd 493b d3b9
00000160: ac54 42ba 216b e5ba 44aa b93a e378 e539
00000170: da4a 8d39 5c73 9c3a 6db2 67ba fd1a d33b
00000180: a266 0eba d8f6 263a fbc3 8d3a 0cde 6e3a
00000190: ab66 8839 a2fd 6d39 0ebc 2e39 01a9 313c
000001a0: 0daa e039 47b1 f13b 562d eeb8 f989 033b
000001b0: a417 68ba 16a4 433d 9ccd 9e39 738c 2c3a
000001c0: a1a0 d23a 7f7c d5b9 625c bdb9 4176 653a
000001d0: 8da0 74ba cf88 76ba 7924 e8b7 ec64 bbba
000001e0: 6c29 f039 28fd 7ebb a5b4 1c39 d782 19ba
000001f0: fe60 5f3c 31fe e83a 0136 74bd 8494 583c
-0.000861355 0.0028163826 3.694041e-05 -2.9571149e-05 0.011185502 0.0003342219 0.0012289861 0.00025057577
7.84389e-05 0.0010688801 0.0028264157 0.004875197 -0.00021377482 -1.4680954e-05 -0.0017086853 -0.004870322
0.0002678895 0.016003875 -0.00067288073 0.0007415447 -0.00028898646 0.0034592333 -8.873779e-05 -0.0006132706
-0.0024949051 -0.00054453965 -9.136873e-05 0.0011657991 0.00038725176 -0.0005294097 0.00030433858 -0.000574706
0.00031532586 -0.0029487645 -0.0010645802 -0.00047642898 -2.6714371e-05 0.0014802279 -6.6313754e-05 0.0006099272
0.00023244557 0.00066576665 0.0024674889 -0.0018881927 0.000495643 0.0020954767 -0.00936484 0.00090362574
0.0005631042 -0.00075146643 0.0006057414 0.0014121574 0.000746275 -0.017746495 0.011304656 0.018380655
0.014901103 -0.00012729422 -0.0005008873 0.0004723593 0.024161056 0.002955202 -0.003541188 0.00088462746
0.0007774732 -0.023566388 0.0015031076 -0.0002614925 0.00042344426 -0.0013051721 0.00083385763 -0.04927234
0.00024038409 0.0023896627 0.00075743865 0.00028085368 0.00010663639 0.0008424575 0.018647056 0.0071965177
0.00037774365 0.0014741283 -0.00036049416 -0.0005002197 -0.002929811 0.00064673624 -0.06545865 -0.00040289227
-0.000741313 -0.001750324 0.0014165123 0.0004376835 0.00026949384 0.0011936235 -0.0008838538 0.0064424262
-0.00054321636 0.000636918 0.0010815853 0.0009112067 0.00026016435 0.00022696567 0.00016663989 0.010843516
0.00042851307 0.0073758694 -0.00011357169 0.0020071252 -0.00088536204 0.047763906 0.000302893 0.0006582208
0.00160696 -0.00040719283 -0.0003611772 0.0008753278 -0.0009331785 -0.00094045413 -2.7673539e-05 -0.0014297045
0.0004580723 -0.0038908217 0.00014944615 -0.00058559835 0.013633965 0.001777595 -0.059621815 0.013219003

local2.conv.lin.weight f4 [128, 128]
00000000: 5dc3 523d 3131 463d 8c1f 303a 9d30 8d3d
00000010: 5da2 8d3e 7e99 e6bc 8f51 ad3c 50f2 043e
00000020: a9ef 38bb 15c2 13be 5e77 cfbd 89c0 08bd
00000030: 617c 2a3e c250 c33d df0f 86bd 0743 9c3d
00000040: 2ffb dfbd 4eb2 783c 9c6c 06be e5bb 82bd
00000050: 3008 c8bd cf90 d23d fceb ddbd c3d0 0dbd
00000060: 2f90 193e 55f7 ebbd f1ca 113d 4132 8eba
00000070: 7852 c23c 97f1 eabd 3cac da3d 54e3 f5bd
00000080: fb39 d33d be7d e63d 934e 473e b63a c8bc
00000090: 9964 003e ab52 743c edef c5bd eedb b2bd
000000a0: e0d4 bd3c 01b3 e73c c326 97bd 0c1e 293e
000000b0: b15c 0ebe 5312 943d 9da2 ff3d e603 26be
000000c0: e2f2 033d 3145 5ebd 6743 743d 2de8 0ebe
000000d0: f074 6fba 3be3 2e3d 4500 8e3d a7ed 0ebe
000000e0: 57ac a13c 61d9 a0bd 06f9 0dbe 01cf ad3d
000000f0: a50f 14bc e3c7 fd3b ecc0 d9bd 332c 1fbd
00000100: 889d 24bc 32ca 19be 92e3 ac3d a83b 06bc
00000110: a2e7 edbd 4eea 30be 1da9 0a3d 28cd 96bc
00000120: 0d81 213e d3b3 af3d adc8 77bd ed08 c1bc
00000130: 3c01 273d fd7f 5bbd 2af9 4b3d f197 47bd
00000140: 8fff e7bd 2264 103e 28a0 ce3d 764a 133e
00000150: d042 773c a9fb 4c3d 68c5 1f3e 9096 8dbd
00000160: e508 8c3d a917 4d3e dc17 18be 96ba 29bd
00000170: dd58 1c3e 4d9f 4c3d 232e afbb 0e65 0c3b
00000180: 34ea f03d 6385 a23b aeda ba3d b767 c8bb
00000190: 92bd 173e dd69 203d be9c 17bd 4aad 1b3d
000001a0: 14c4 e5bd 3150 783a 3fd6 103e 3684 643d
000001b0: 2648 b23d d30f 3d3d ed36 d63d 06d0 563d
000001c0: d374 e6bc 5a5f 0ebe 96f6 5a3d 0555 583b
000001d0: 3a3d 873d d529 cdbd a5b7 5ebb deca eb3b
000001e0: 1547 a63c 864a fabc b451 d9bb 990c ebbd
000001f0: 5633 c2bd 3348 2ebc eb81 9f3d 1735 2fbe
00000200: f4e5 103c ffdc 623d c7b6 be3d 16e6 2e3c
00000210: 148f 9c3d 65aa f83d 77e7 1ebb bec1 c13c
00000220: 398b a93d 7d12 a3bd 7b4e 69bd 365b b83d
00000230: 5fca bd3d b91a 06be cd4a 9e3d 9a3d 0fbe
00000240: 3249 323a 58c5 c2bd 83fc 4b3d fa79 5d3d
00000250: 8d2c 6a3d cc3b 05bd 31ac 273d 9958 32be
00000260: ec09 4a3e 70c8 fa3d 9d63 b23d 2024 f2bd
00000270: 576b 173e afe0 97bd 47be c63d debd 673b
00000280: d0bb d13c 2672 253e 5273 86bb a0d4 d8bd
00000290: 6711 f4bd a3be 023d b571 a9bd 2cd0 1b3d
000002a0: d5bb ccbd 7875 9e3c a55e 093e 4ec8 afbd
000002b0: 35a9 f43c eb22 babd 1567 ae3d 287d 10be
000002c0: ec08 f1bd 913c e1bc 1163 91bd ce3c 83bd
000002d0: f4af 0c3d 7e46 c53d fb48 ddbd b277 aebd
000002e0: 34f8 0a3e 09d3 a9bc 02f1 4dbd 74f9 c13d
000002f0: 51d4 ee3d 80bb 363d e9f6 b7bd aa74 a3bd
00000300: 989c 58bd 5fb1 47bd 1f5b 353e e36b c63d
00000310: 3bdd 0cbd 8d86 1abe 55ad fe3d 2c53 683d
00000320: 6fbe 083c 2105 c43d e01a 013e aa1c aa3d
00000330: 008f fc3c e5bb 153e 8b16 ef3d d51d 01be
00000340: 60e9 0dbe c0b0 04bd ff45 193c 41bc 9f3d
00000350: 5f2b 0b3e 2527 fc3d 20a8 db3d 2a1b 593d
00000360: 0b6f 943d 299a 8f3b d5e4 38be 02b0 8c3d
00000370: 53a7 e13d b91b 5d3d 1354 ad3c 2a79 8f3d
00000380: 1076 7d3d 59a5 663d f191 273d d34a b53c
00000390: 2bde 45bc 6081 743c 34f0 d13d f9f4 a03d
000003a0: 6850 58bd fa80 123e 3bed 91bd 2b7b 18bc
000003b0: 47de 16be c854 9b3c bbcd 2a3d ee27 5c3d
000003c0: 61e0 843d 7867 eebd 44e3 03be ddf5 02be
000003d0: daf9 473d f0e7 17bd fdd4 ab3d bf1f 90bc
000003e0: 24aa b8bd 38f0 a8bc fbb1 c83c 9859 fbbd
000003f0: 255b fe3d 4978 613d 2dfa de3d 0270 ef3d
0.051455844 0.048386756 0.0006718568 0.06894038 0.27662936 -0.028149363 0.021157054 0.1298306
-0.002821902 -0.14429505 -0.10130189 -0.03338674 0.1664901 0.09536888 -0.06545996 0.07629972
-0.10936581 0.01517923 -0.13127369 -0.06383494 -0.09767187 0.10281526 -0.10836026 -0.03462292
0.14996408 -0.11521784 0.03559393 -0.0010848717 0.023720965 -0.11471861 0.10677382 -0.1200625
0.10313793 0.11254452 0.19463567 -0.024442058 0.12538375 0.014912288 -0.09664903 -0.087333545
0.023172796 0.028283598 -0.0738044 0.16515368 -0.13902546 0.072300576 0.12482188 -0.16212425
0.032214053 -0.054265205 0.059634592 -0.13955756 -0.00091345515 0.042697173 0.06933645 -0.13957845
0.019735498 -0.07853962 -0.13864526 0.084867485 -0.009036933 0.0077447756 -0.106325 -0.03886051
-0.010047324 -0.15018538 0.08441843 -0.008192934 -0.11616446 -0.1727688 0.033852685 -0.018408373
0.15771885 0.085792206 -0.060494114 -0.023563826 0.04077266 -0.053588856 0.04979817 -0.048728887
-0.11328041 0.14100698 0.10089141 0.14383873 0.015091613 0.05004469 0.15602648 -0.06913483
0.06837634 0.20028557 -0.14852852 -0.041437708 0.15268274 0.04995661 -0.005346076 0.0021422538
0.11763421 0.0049597486 0.09123741 -0.0061158794 0.14818409 0.03916346 -0.037014715 0.03800706
-0.112190396 0.00094723987 0.14144228 0.05579015 0.087051675 0.04615767 0.10459695 0.05244448
-0.028131878 -0.13903561 0.05345782 0.003300966 0.06603475 -0.100177445 -0.0033983972 0.0071958145
0.020297566 -0.030553114 -0.006632054 -0.11477012 -0.09482448 -0.010637331 0.07788452 -0.17110096
0.008843888 0.05538654 0.09312206 0.010674974 0.076444775 0.12141875 -0.002424685 0.023651954
0.08278508 -0.07962511 -0.05695961 0.09001772 0.09267115 -0.13096131 0.07729111 -0.13988343
0.0006801068 -0.095102966 0.04980136 0.054071404 0.057171393 -0.03252773 0.0409357 -0.1741661
0.19730347 0.12245262 0.08710406 -0.118232965 0.1478704 -0.07415902 0.09704261 0.0035360972
0.025602251 0.16156825 -0.0041031027 -0.1058743 -0.11917382 0.031920087 -0.08273641 0.038040325
-0.099967636 0.019343123 0.1341501 -0.08583127 0.02986584 -0.09088691 0.08515755 -0.14110243
-0.1176928 -0.0274947 -0.070989735 -0.06408082 0.03434749 0.09632586 -0.108049355 -0.08518924
0.13571244 -0.020730512 -0.05027867 0.094714075 0.1166159 0.044612408 -0.08982641 -0.07981236
-0.052883714 -0.04875314 0.17710541 0.096885465 -0.03439067 -0.1509039 0.12435404 0.056719944
0.008346184 0.09571291 0.12607908 0.083062485 0.030829906 0.14622457 0.116742216 -0.12609036
-0.13858557 -0.032395124 0.009355067 0.077995785 0.13590764 0.12312154 0.10725427 0.05300442
0.07247742 0.004382391 -0.18056042 0.06869508 0.11018243 0.053981517 0.021158254 0.07005532
0.06188017 0.05631003 0.040910665 0.022130406 -0.012076895 0.0149234235 0.10250893 0.07859225
-0.052811056 0.14307013 -0.07125326 -0.009306709 -0.1473323 0.018961325 0.041700106 0.053749017
0.064881094 -0.11640829 -0.12879664 -0.12789102 0.04882226 -0.037086427 0.08390234 -0.017593263
-0.09016827 -0.020622358 0.02449893 -0.12272948 0.12419728 0.055046353 0.10887561 0.11691286

local2.norm.weight f4 [128]
00000000: 90bd 7e3f 1143 693f a59d 693f 49ef 6f3f
00000010: 0f80 773f e7fd 6e3f 781c 733f 91b8 773f
00000020: 8c63 823f 266f 6e3f 8b8b 783f 3e62 853f
00000030: 3a33 823f 37ee 7a3f 12b8 813f ddfb 863f
00000040: e3c3 743f b1d3 793f 53eb 853f a1bd 713f
00000050: b61a 7d3f a895 813f 18ef 823f 143c 7d3f
00000060: 95de 843f d026 7f3f 8afc 813f 8bd8 633f
00000070: 4cbc 763f 81d3 753f 086d 6e3f 4a2f 793f
00000080: 2972 803f 565d 6e3f c9f5 803f 80ff 753f
00000090: 7ccc 7b3f 5ccf 623f e284 6d3f 89c5 6b3f
000000a0: b52a 7e3f f85f 773f 036e 4e3f 6ca6 723f
000000b0: 9104 6f3f 5262 5c3f 57de 753f 3742 6d3f
000000c0: 6e76 693f 859e 8a3f cc30 783f 4baf 6c3f
000000d0: e4b7 703f 8a6f 743f 692b 703f b9b8 7a3f
000000e0: 9fc2 6a3f bcf3 723f 279c 7e3f 1c0f 793f
000000f0: 3464 7a3f 476e 763f f330 693f 2cda 7f3f
00000100: 1588 6e3f 0bd4 813f 9c02 6d3f 6f63 813f
00000110: e0bb 763f c254 803f 35dc 6e3f 7a55 6e3f
00000120: 90b3 7a3f abbe 703f cbc3 6a3f 4c40 783f
00000130: 86de 7f3f db05 6b3f 8e7f 7a3f 92a3 743f
00000140: b895 6a3f 931e 5d3f 2144 833f 7941 7d3f
00000150: 47a8 683f ad67 743f a0a2 6d3f ffc2 6f3f
00000160: c0e6 853f fdd7 803f 15a6 673f 9f91 633f
00000170: ab91 763f 6804 6b3f d19d 863f e505 663f
00000180: 01ab 6c3f b16f 723f 29cc 623f 8533 6a3f
00000190: 84b4 7b3f 03ac 833f 0069 7a3f b2da 743f
000001a0: f266 843f 6322 893f 47e4 7c3f 640e 513f
000001b0: 22d7 783f 37c0 6f3f d28d 753f 9328 733f
000001c0: 250f 643f 4424 733f 6d6d 823f 9926 673f
000001d0: e054 763f a837 6a3f 3aab 7e3f 848b 803f
000001e0: c748 703f 19ef 7f3f c0a7 7e3f 8881 833f
000001f0: b0dd 723f d1b5 643f 632a 7c3f 1cda 763f
0.99508 0.9111796 0.9125617 0.93724495 0.96679777 0.93356174 0.94965315 0.96766
1.0186629 0.9313835 0.97087926 1.0420606 1.0171883 0.98019737 1.0134299 1.0545613
0.956114 0.9758864 1.046244 0.94429976 0.9886888 1.0123796 1.0229216 0.98919797
1.0380427 0.996686 1.0155194 0.89002293 0.9638107 0.96025854 0.9313512 0.9733778
1.0034839 0.9311117 1.0075008 0.9609299 0.98358893 0.88597655 0.9278089 0.9209829
0.99283916 0.9663081 0.80636615 0.9478519 0.9336634 0.86087525 0.9604239 0.9267916
0.91196334 1.0829626 0.9694946 0.92454976 0.94030595 0.95482695 0.9381624 0.97938114
0.9170322 0.9490316 0.9945702 0.9728868 0.9780915 0.9626202 0.91090316 0.9994228
0.93176395 1.0142835 0.92582107 1.010847 0.96380424 1.0025866 0.9330476 0.93099177
0.9793024 0.94040936 0.91705006 0.9697311 0.9994892 0.9180581 0.97850883 0.9556209
0.916347 0.8637478 1.0255166 0.9892803 0.9088177 0.95470697 0.9282627 0.93656915
1.0461044 1.0065914 0.90487796 0.88894075 0.9631602 0.918036 1.0516912 0.89852744
0.9244843 0.9470168 0.88592774 0.9148486 0.9832232 1.0286869 0.9781647 0.956462
1.0343916 1.0713619 0.98785824 0.81662583 0.97203267 0.9365267 0.95919526 0.94983786
0.8908561 0.9497721 1.0189644 0.9029327 0.9622326 0.91491175 0.9948002 1.0042577
0.9386105 0.9997421 0.99474716 1.0273905 0.9486952 0.8933993 0.98502177 0.9642656

local2.norm.bias f4 [128]
00000000: cb15 cabc 0dd7 cfbd 36fc ddbd cde8 91bd
00000010: 5112 f8bd 78e9 8ebd ad09 c5bd ecd8 dbbd
00000020: 70b9 d1bd 5b46 c9bd 4d97 adbd 68b9 c0bd
00000030: 0846 bebd b0b0 23bd db6f acbd 6ba5 28bd
00000040: 8dcc 4abd 7e5d b4bd 5059 2bbd f29b a0bd
00000050: fbe5 40bd c105 81bd 0d66 3ebd e293 7cbd
00000060: dc09 c1bd 5646 3abd 5323 a2bd 612d c6bd
00000070: 0a9d 5fbd 3e99 6dbd 11a3 cfbd 3a12 8cbd
00000080: 29ea 2bbd 7308 c7bd 72d7 89bd 0043 80bd
00000090: 086d 53bd 1bd6 26be fbe0 c9bd 36e9 afbd
000000a0: 7de4 95bd 2232 66bd 8630 3cbe 5d1e 54bd
000000b0: c9c5 c4bd 998e 28be 4e25 abbd 24c7 e3bd
000000c0: 1334 f1bd 287e 5abd b74a 8fbd d060 b8bd
000000d0: b010 9dbd 8e9a 85bd 5dc9 84bd 529e 45bd
000000e0: ebb6 03be d24c 8bbd 4e56 cdbc 1fa9 83bd
000000f0: 94c3 b8bd 24e6 5abd 9500 d8bd f198 a5bd
00000100: 8cea 9ebd 5b0a 37bd 28be f1bd 8679 3fbd
00000110: 2faa 66bd 5081 c7bd b07b d0bd 622e f3bd
00000120: 7fb9 53bd 0e80 aebd 8bb9 b7bd 0c5e b8bd
00000130: 79fd 4cbd 7052 a0bd cf7f c6bd e4d9 dcbd
00000140: e8f9 f3bd 8511 1ebe d5b8 94bd 339a 57bd
00000150: 7fcc 01be 9f83 84bd 1998 b7bd 7ed4 a4bd
00000160: 3f7f 4cbd 0581 2bbd b529 11be 3bb0 febd
00000170: c233 f8bd bac3 1bbe 74e1 bebd dec1 03be
00000180: e13f 89bd 7e2a a0bd 22c3 11be 1e15 dfbd
00000190: c7f7 18bd e6e5 87bd 3116 03bd 9c73 c4bd
000001a0: 552f 66bd c7ac cdbc 8c3d 8fbd ad29 2abe
000001b0: e5a5 b6bc 4500 0bbe 3720 b8bd 8025 cfbd
000001c0: 445f 05be e9cf cfbd 3074 b0bd 8703 e9bd
000001d0: e6d6 50bd d677 05be 7d29 49bd 24e1 3bbd
000001e0: 4bcb a6bd 4f3f 91bd 04eb 8ebd 0a50 3cbd
000001f0: 01ad efbd ffc0 06be 30e7 44bd 8b7f 95bd
-0.024668595 -0.101484396 -0.10839121 -0.07124481 -0.121128686 -0.069781244 -0.09620986 -0.10734734
-0.102404475 -0.09827872 -0.08476124 -0.094103634 -0.09290701 -0.039963424 -0.08419772 -0.04117338
-0.04951148 -0.08806895 -0.041833222 -0.07842244 -0.047094326 -0.062999256 -0.046484042 -0.06166447
-0.09425709 -0.045477234 -0.07916894 -0.09676624 -0.054593123 -0.05800747 -0.10138524 -0.06839414
-0.04197136 -0.097184084 -0.06730546 -0.06262779 -0.051617652 -0.16292612 -0.09857365 -0.08589403
-0.07318971 -0.056200154 -0.18377885 -0.05178677 -0.09608037 -0.16460647 -0.08356725 -0.111219674
-0.117775105 -0.05334297 -0.069966726 -0.090028405 -0.076691985 -0.065236196 -0.064837195 -0.04824669
-0.12862746 -0.06801762 -0.025065567 -0.06428742 -0.090216786 -0.053442135 -0.10546986 -0.08085812
-0.0775958 -0.04468761 -0.118038476 -0.046746753 -0.056314643 -0.09741461 -0.101798415 -0.11874081
-0.051690575 -0.08520518 -0.089709364 -0.09002313 -0.050046418 -0.07828224 -0.09692346 -0.10783747
-0.119129 -0.1543637 -0.072618164 -0.05263729 -0.12675665 -0.06470417 -0.08964557 -0.08048342
-0.04992604 -0.04187109 -0.14176066 -0.12435957 -0.12119247 -0.15211383 -0.093203455 -0.12866923
-0.06701637 -0.07820605 -0.14234594 -0.108927 -0.037345674 -0.066356465 -0.032003585 -0.09592363
-0.056197483 -0.0251068 -0.06994161 -0.1661746 -0.022295902 -0.13574322 -0.089905195 -0.101145744
-0.13024622 -0.101470776 -0.08615911 -0.11377626 -0.050986193 -0.13033995 -0.049111832 -0.045869008
-0.08144244 -0.07092153 -0.069784194 -0.04597477 -0.1170292 -0.1315956 -0.04807204 -0.072997175

meso.Wq.weight f4 [128, 128]
00000000: 2df5 c83d ba9d d43d b255 8dbc a4e8 203d
00000010: 6818 ac3d 6e1d 163c d80f 48bd 42d2 93bc
00000020: d2a4 b8bd 1477 453b cc33 ef3d 61be b23c
00000030: def4 4f3d beda c53d 7859 1abe 0300 9abc
00000040: 41f1 a43d ea07 debd 36f0 ad3d cd5a 45bd
00000050: 3bee 563d 10f4 d2bd 202f 3ebe e6fc d43d
00000060: 7a8d 11be a160 27bd 4cbb 9f3d de50 3d3d
00000070: 7982 173d 67e4 b73b 55ae 643d 1826 f33d
00000080: 60a2 5fbd 0cd5 54bd ef0d d03d 96d3 d03d
00000090: 4a81 b6bc 377f 17be b982 bb3c 5c4b 523c
000000a0: a7c3 20bd 252d 3a3d 1ec0 4e3d bc1f bc3d
000000b0: 0b41 babc b25f 1b3d ce88 ab3d 7e81 d9bc
000000c0: f8f1 5a3d 052f 1cbe 710f 813d f192 87bd
000000d0: e061 d73d 8fbe 823c af0f 70bd c982 973d
000000e0: 650b 62bd 219d d7bc b0b3 d73c 13a9 0f3d
000000f0: 9a9d 37bd 8a7e 863d db86 8b3d a204 923d
00000100: 2d72 ff3d 11da 233d dc50 c63d a665 34bd
00000110: e889 bc3b dfe6 2abd f61b 8f3d 921d 723d
00000120: 92a1 973c 9b95 b1bd ba75 0f3d fe5e b1bd
00000130: c6d6 733d fd52 7abc c481 d13d 55a3 51bd
00000140: 777a 94bd e9d3 923c de18 d23d cf31 e83c
00000150: cf23 61bd b3a4 853d 71eb 663c d591 ddbc
00000160: a2cc c4bc 83e9 53bc bcf4 16bd 0897 c53d
00000170: aa5e 233e 1aec 44bd e33a 2ebd ac7f f1bc
00000180: 0ec8 913a 096a 443d 1903 92bb 406c 7dbd
00000190: 1e10 6c3b 5322 75bd 91e8 8a3d a0cd cdbc
000001a0: 4dd5 77bc 54b7 20bd a857 32bd be19 5c3d
000001b0: 2ab2 883d 526e 77bd dcef 753d 9119 ff3c
000001c0: 3bf0 ca3d 87d2 c7bb 93b1 14bb 1743 b63d
000001d0: 6642 373d e74e 55bd 830d af3b d744 d33c
000001e0: 9dce eabb 2ef4 85bc c1f1 0fbe f9e4 a9bc
000001f0: 95c0 cabc 0faa 1a3d f068 e33d e71a b6bb
00000200: a478 853c 948c 91bc b995 18bd dbb0 3e3c
00000210: 2234 943d da9c 283d d4a1 d53d de82 f83b
00000220: 96e9 823d cc6f a2bd e96d 18bd 5cb7 b53d
00000230: 976d e13c d803 46bb 06ee 19bd f8a1 b5bc
00000240: 8198 48bd fdb4 88bd ce2c 22bc 5db2 b3bc
00000250: 038d fbbd 8e95 adbd 9f3b 363e c6c5 093d
00000260: feac 353d 35cd 0abd 28c0 963d 2253 fbbb
00000270: 99ff f43c 2158 6b3d 573a 24bd 1887 e63b
00000280: 5a5f 98bd ccf9 513d 1ff1 99bd f06e 8dbd
00000290: d05d 36bb ace6 33bc f761 a73c 36d3 893d
000002a0: 796b 1fbe 61e4 803d ec74 093e 3661 d2bd
000002b0: a761 e53d 0949 1c3d 54f1 e33c b64b 993d
000002c0: bea4 ad3d 1949 06be 23de 27bd 8c2f f5bc
000002d0: bdd7 61bc 7c20 093d 4456 72bd 8d7c 89bd
000002e0: 8c22 5cbc 5a5a 513d 8e2c ecbc 5d88 063e
000002f0: a5ae 9cbd 68ed c13a 17b6 00bd 3105 213d
00000300: 97ca 413c 60f9 a43c d21b 0bbc 3ee1 7c3d
00000310: 2349 22bd 2cc3 f8bd 2905 4cbd 3d7b 8fbd
00000320: 5911 29bd 8df1 28bd 6108 083d a32d 2c3c
00000330: b3cd cabc a1e9 5c3d e307 b9bd 4be7 273e
00000340: b110 5abd 26f8 7d3d 7102 b9bc d151 abbd
00000350: 553d c33d adb1 5abc 6fba 8b3d c639 bb3d
00000360: 4005 803d 588c d4bd 4117 013c 6627 96bd
00000370: 6883 973d bec7 2b3c 5323 59bc b785 893d
00000380: dcfd 92bd 81d2 683d 02bd ed3c fba8 1fbd
00000390: 91cb ab3d 8149 133d bd6e 64bd e13e 263c
000003a0: e4ea 0ebe 77f3 8e3d 4adb 5b3c 3df7 983d
000003b0: c164 d3bc 7d6b 043d 250e 1c3c 87fa c1bd
000003c0: 41b5 1c3d 3742 e23c afc2 e7bd 3896 da3d
000003d0: 9890 b8bc 2e56 a13d 2a64 01bd 4d65 9e3d
000003e0: d721 103c ce9d 5bbd 0e3e cc3d 7ff4 40bc
000003f0: 6c05 743d 1c9c 9abd bc9e 2e3c 0253 ca3c
0.098123886 0.103816465 -0.017252777 0.039284363 0.084030926 0.00916229 -0.048843235 -0.018044595
-0.09015812 0.003013079 0.11679801 0.021819295 0.050770633 0.096608624 -0.15073192 -0.018798834
0.08053828 -0.10841353 0.08493082 -0.048182297 0.052473288 -0.103004575 -0.18572664 0.10399799
-0.14214125 -0.040863637 0.07799396 0.0462197 0.036989663 0.0056119445 0.05583032 0.118725
-0.054598212 -0.05196099 0.101589076 0.10196607 -0.022278447 -0.14794622 0.022889482 0.01283535
-0.03924909 0.04545321 0.050476186 0.0918574 -0.022736093 0.03793306 0.08375703 -0.026551004
0.053453416 -0.15252312 0.06301773 -0.06619824 0.10516715 0.015960006 -0.058608707 0.07397992
-0.055186648 -0.026320042 0.026330799 0.03507335 -0.044828035 0.06567104 0.06812831 0.0712979
0.12472949 0.040002886 0.096833915 -0.044042252 0.0057537444 -0.041724082 0.06987755 0.05911023
0.01850966 -0.08671113 0.035024382 -0.086606964 0.059530996 -0.015278575 0.10229829 -0.051181156
-0.07249921 0.017923312 0.10258649 0.028344063 -0.05496579 0.065255545 0.01409422 -0.027047077
-0.024023358 -0.0129340915 -0.03685449 0.096479475 0.1595408 -0.048076726 -0.042536628 -0.029479824
0.0011122243 0.047952686 -0.0044559357 -0.061870813 0.0036020349 -0.059847187 0.0678264 -0.025122464
-0.015126538 -0.039237335 -0.043540627 0.053735487 0.06674607 -0.060407944 0.0600432 0.03114012
0.099091016 -0.006098095 -0.002268885 0.08899515 0.044741057 -0.0520772 0.005342187 0.025789661
-0.0071657435 -0.016351786 -0.14057066 -0.020739065 -0.024750033 0.037759837 0.111039996 -0.005557406
0.016292877 -0.017767228 -0.03725216 0.011638845 0.07236506 0.04116521 0.10431257 0.00758396
0.06392209 -0.0793148 -0.037214193 0.08872864 0.027518077 -0.0030214693 -0.037580512 -0.02217196
-0.048973564 -0.06675146 -0.009898378 -0.021935636 -0.12282755 -0.08475791 0.17796181 0.033635877
0.04435443 -0.033887107 0.0736087 -0.0076698223 0.029907035 0.057457093 -0.0400947 0.0070351474
-0.07440062 0.051263615 -0.07516693 -0.06905925 -0.0027826913 -0.010980289 0.020432455 0.067297384
-0.15568341 0.0629356 0.13423508 -0.10272448 0.11200266 0.03815559 0.027825035 0.07485144
0.08478688 -0.13113822 -0.04098333 -0.029929899 -0.013784346 0.033478245 -0.0591643 -0.06713209
-0.013435971 0.051111557 -0.02882984 0.13137956 -0.07650498 0.0014795484 -0.031423654 0.03931159
0.011828086 0.020138443 -0.00849052 0.061738245 -0.03962053 -0.12146601 -0.04980961 -0.07005928
-0.04127631 -0.041245986 0.033211116 0.0105089275 -0.024756288 0.053933743 -0.090347074 0.16396825
-0.053238574 0.06200423 -0.022584172 -0.083652146 0.095331825 -0.013348025 0.06822669 0.09141879
0.06251001 -0.10378331 0.007879079 -0.073317334 0.07398111 0.010484634 -0.013253051 0.06714957
-0.07177326 0.056841377 0.02902079 -0.03897951 0.083884366 0.03595877 -0.05576967 0.010146827
-0.13956791 0.06980031 0.013418982 0.07469032 -0.02580488 0.03232907 0.009524857 -0.094716124
0.038258795 0.027619464 -0.1131643 0.10673183 -0.022529885 0.078777656 -0.031589665 0.07734165
0.008797131 -0.05361729 0.099727735 -0.011777042 0.059575483 -0.07549307 0.010657962 0.024697784
