models/eeg_only/s_04.pt (torch, 561186 bytes, 37 tensors)

band_attn.fc1.weight f4 [8, 5]
00000000: 41a3 b5be 7757 973e 7665 913d f505 c83d
00000010: 3ec6 cb3e 9b4e a1bd fc40 b2be a465 7e3d
00000020: aa5d 12bf ab3d 17bf 4e18 ecbd 0100 88bc
00000030: 75b5 2c3e e9cb a73e bff9 65be e41d 7c3e
00000040: a1b4 a7bd 860c dcbe 607f b93e 4de6 263e
00000050: 3765 5c3e d1b7 74be 6ecc cebe 71b1 a8be
00000060: aa9a bfbc 8370 93be fc8b f8be f118 3a3c
00000070: 08e6 4e3e 5521 133e ce35 cabe 6032 4bbe
00000080: eef7 28be 4f43 fbbe 8751 6dbd 6200 07be
00000090: 8048 773d e0a6 193f 5522 c3bd c498 11bd
-0.35476115 0.29558918 0.0709943 0.09766761 0.39799684 -0.07876321 -0.34815204 0.06210865
-0.5717417 -0.5907847 -0.11528073 -0.016601564 0.16866095 0.3277276 -0.22458552 0.24620777
-0.08188749 -0.42978305 0.36229992 0.1629879 0.21522985 -0.23898245 -0.40390342 -0.32947877
-0.02338918 -0.28796777 -0.485443 0.011358486 0.20204937 0.14368184 -0.39494175 -0.19843435
-0.16500828 -0.4907479 -0.05793908 -0.1318374 0.060371876 0.60020256 -0.09528033 -0.03554608

band_attn.fc1.bias f4 [8]
00000000: 6992 2a3f 9900 633d 71ed fc3e 2a7d e7be
00000010: a0dc 073e 6c73 d6bd 2089 ed3e ca6b 30bc
0.66629654 0.05542049 0.49399903 -0.4521268 0.13267756 -0.10471234 0.4639368 -0.010767886

band_attn.fc2.weight f4 [5, 8]
00000000: 27b7 76bd d9c8 01bf ba11 dbbe ad97 b73e
00000010: 2bd7 0fbe 317f 06bf d945 9abe cfbd f4be
00000020: e6b6 083e 0f3a aebd 298f 133e a28a eebe
00000030: e2d7 9b3e a19f 5bbe d9ee a7be 2ed7 0abe
00000040: c44a 7f3e 1ece 81be 59b2 8d3e fa75 693d
00000050: 7918 1b3d 2df6 033f 3178 b53d c6e2 df3e
00000060: 1ea4 a8be ad11 babe 5d61 babd c6c8 923e
00000070: c77b 203d 988f 8b3d 7d67 a4be 800d dfbe
00000080: 792c 403d 3bf6 f03e aadf 30bd 3f66 86bd
00000090: f910 623e 6ec1 0fbe 0f1d 8f3c 2f90 79bd
-0.06023326 -0.50697094 -0.42786962 0.35857907 -0.14046924 -0.5253783 -0.30131415 -0.47801062
0.1335102 -0.085071675 0.1441008 -0.46590143 0.30438143 -0.21447612 -0.32799414 -0.13558647
0.24930865 -0.25352567 0.2767513 0.056997277 0.037865136 0.5154751 0.08860815 0.43727702
-0.3293771 -0.3634161 -0.09100602 0.28668803 0.039180543 0.06814498 -0.32110205 -0.43564987
0.046917412 0.4706286 -0.043182053 -0.06562471 0.22076787 -0.14038631 0.01746991 -0.06092852

band_attn.fc2.bias f4 [5]
00000000: cd93 22be c391 f83a 3cdf 47be e110 8e3c
00000010: b76e 96ba
-0.15876694 0.0018964339 -0.19518751 0.017342033 -0.0011477087

feat_proj.weight f4 [128, 21]
00000000: bdff 523e 0138 953e 7b02 1a3e 4e57 44bd
00000010: f9c2 b43d bddf 60be 7901 47be 422d 253e
00000020: 857f 023e 7eb0 d63d 3c94 343e 11fb 123e
00000030: 6cd9 b3bb d259 003e 6eb0 8b3e af98 6bbe
00000040: ddaa 12be 6f9a 233e 5d0b 81be 5362 24be
00000050: c343 03be 1cbc c1bd f6ab 8ebe 9e86 943e
00000060: 0b51 2dbe bced e8bd dcf7 19be d2d5 b0bc
00000070: aa98 7b3d 457e 4ebd 4efb 04bd 75ee 3d3d
00000080: 9882 4bbe eab8 353d 3ae3 10bd d9cc d43c
00000090: 862b 3b3d 46e2 02be 6cb1 acbd f84a 413d
000000a0: 0ab9 6f3e 2c13 3f3e ee26 aebd a0f4 4bbe
000000b0: 5025 a43e fed9 793e e992 8e3c c154 0cbe
000000c0: e6ca 86bd 69f6 f2bd cc1d 26be ee4d 543e
000000d0: c0e3 9bbb 1bed 16be c778 2b3e 2723 2bbe
000000e0: 2701 14be 265d 1cbe 0a14 13bd 688e 8e3d
000000f0: 5b57 8cbd dbc8 8e3d fdc5 fd3d 1315 1f3d
00000100: a16a 8f3e f471 f43d d16d 243e 1cc2 61be
00000110: c20f b53c 1963 153e e926 e83d 1e99 0ebd
00000120: 2e85 ffbc 379b 413d 852d 45bd 3c43 35be
00000130: 8b25 d53d 3dde 783d 04e7 d33d 8743 c1bc
00000140: bacc 2dbe 91d7 d7bd 7c7c d43d 6472 19be
00000150: 0ad6 3a3e c990 89bd 9bcf 46bd 395d 653e
00000160: 23b9 803e 7132 953d 2711 763d e3e6 623e
00000170: 3b83 233e 6b64 fcbd 08be 583d ba22 303e
00000180: a446 e1bd e39e d0bc 890d 6a3d f93d 31bd
00000190: 20f5 10be 7550 01be 3984 513e 0bee 2c3d
000001a0: 70bb dfbe 7bb6 33be 29eb 8d3e e451 f4bd
000001b0: 1e82 29bd 7ed0 f23d 1882 983b 66a2 163d
000001c0: 67a4 60be 6f6c 2bbe a575 0a3e e4b6 76bd
000001d0: 5527 1cbe 73cc 3c3c 1646 30bd f963 1b3d
000001e0: 2746 813e fb3a 253e 361a 2bbe 010e 263d
000001f0: 5dd1 3bbc 1995 9fbc 140e aabc 15af 31be
00000200: 8026 9ebd 92de 20be 255d 803e 6252 2fbe
00000210: 1eb4 92bd f4f2 4e3c 49f1 35be 2f6d 25be
00000220: c3b2 903d cd59 bd3d 9952 183e c5a4 543a
00000230: e989 8b3d 9b6a 0cbd 599a 81bc 9d8f 4dbe
00000240: 44d0 093d 317b fd3c da95 08be 3562 823b
00000250: 7408 2e3e 3134 8bbd 42c0 663e 5c83 d0bd
00000260: 8605 e83d d5bc e6bd a8de 0fbe d8bd debd
00000270: 27fc fe3d 5b19 8e3c 2357 82bb b467 083d
00000280: 58bf 16bd 45be 8fbd aa63 85bc 2b3b 0abe
00000290: fa9f 68be d314 c23d 7601 9e3d b486 a53e
000002a0: d57e 42be 7dc5 64be c794 a33e 1c3a 61bd
000002b0: a59a 28bd 1427 3e3e 3cd2 24bc 5287 f5bd
000002c0: 3b62 ba3d 881e 173e 2ec6 f6bd c257 35be
000002d0: 07a6 d4bd 85c8 29bd 20ae f53d b99c 5e3d
000002e0: ca98 42be 8117 c7bc f1e9 53bd 1f66 013e
000002f0: e255 27be 3fe3 293e 6315 7cbe 255d 8bbe
00000300: 068d 233d e68e 033d eb6a 773e 6007 18bd
00000310: 0043 4f3e d3cb 893d ca3b b8bd c239 273e
00000320: 2bfc 2a3e e3d0 263d e1a7 86be 694d 0f3e
00000330: 6e0f 2ebe d59e d03d 6416 3b3d 9b27 39be
00000340: c5c7 8c3d 2ab4 94be 626d a4bd cb51 b73e
00000350: 4e0e 803e 7d71 ff3d a75c 7f3e 5d82 163e
00000360: 7894 39be b766 30bd 3804 fd3d 3161 163e
00000370: c02a 123d 6baa f73d 3415 15be 9d72 763c
00000380: 83cc 933d 440b 46bc 9b1e 6dbe b208 0f3d
00000390: 22ab 6a3d a329 133e 45c1 22be 27f7 213e
000003a0: f7ba 97bd 1be7 24be 0e4c 993e 40c3 d6bc
000003b0: 0500 5c3e 8595 263e d2d4 a6bc cd8c 043e
000003c0: 3f45 833e 4115 a13d 2c3b d23d 7675 d7bd
000003d0: ddac a23c d57b 6bbe eca1 01be 8d24 353e
000003e0: 245b 33be ad90 26be cf0f 123e c05a b0bd
000003f0: e430 8a3d 4219 823e cd3f acbe da85 8abc
0.20605369 0.2914429 0.15040009 -0.047934823 0.088262506 -0.2196035 -0.19434156 0.16130546
0.12743957 0.10482882 0.17634672 0.14353587 -0.005488565 0.12534264 0.27283043 -0.23007463
-0.14322992 0.1597688 -0.25203982 -0.16053133 -0.12818818 -0.09459707 -0.2786557 0.29008955
-0.16925447 -0.11373469 -0.15035957 -0.021586332 0.06142489 -0.05041339 -0.032466225 0.04636999
-0.19874036 0.0443658 -0.03537295 0.025976585 0.045695804 -0.12781629 -0.08432278 0.047190636
0.2341043 0.18659657 -0.08503519 -0.19917536 0.32059717 0.24399564 0.017404037 -0.13704206
-0.065816686 -0.11863405 -0.16222304 0.20732853 -0.0047573745 -0.14738886 0.16745292 -0.16712628
-0.14453565 -0.15269908 -0.035907783 0.069607556 -0.06852599 0.06971904 0.12391279 0.038838457
0.2801104 0.11935797 0.16057517 -0.22046703 0.02210224 0.14588584 0.113355465 -0.034813993
-0.031191435 0.047267165 -0.048139114 -0.17701429 0.104075514 0.060758818 0.10346797 -0.02359177
-0.16972628 -0.10539163 0.10375306 -0.14985043 0.18245712 -0.06717069 -0.04853783 0.22398843
0.25141248 0.072850116 0.06007495 0.22158389 0.15968029 -0.12323841 0.052915603 0.17200747
-0.10999802 -0.025466388 0.057141814 -0.043271992 -0.14156008 -0.12628348 0.20460595 0.042219203
-0.4369769 -0.1755008 0.27718475 -0.11929682 -0.041383855 0.11856173 0.0046541803 0.03677597
-0.21937715 -0.16740583 0.1352144 -0.06023301 -0.15249379 0.011523354 -0.04303559 0.03793714
0.25248834 0.1613578 -0.16709217 0.0405407 -0.01146349 -0.019480275 -0.020758666 -0.17351945
-0.07722187 -0.15709904 0.25071064 -0.1712127 -0.07163261 0.012631167 -0.17767824 -0.16154931
0.07065346 0.09245644 0.14875259 0.0008111711 0.06813414 -0.034281354 -0.015820669 -0.20074315
0.033645883 0.030942531 -0.13338414 0.0039789923 0.16995412 -0.06797064 0.22534278 -0.10181305
0.113291785 -0.112664856 -0.1404978 -0.108760536 0.12450438 0.017346075 -0.0039776727 0.033302024
-0.036803573 -0.07018713 -0.016282875 -0.13499133 -0.22717276 0.09476628 0.077151224 0.32329333
-0.18993695 -0.22340961 0.31949446 -0.054987058 -0.041163106 0.18569595 -0.010059889 -0.11988701
0.09100767 0.1475774 -0.120495185 -0.17709258 -0.1038323 -0.041450996 0.11996102 0.05434868
-0.19003597 -0.0243032 -0.051736776 0.12636612 -0.16341355 0.16590594 -0.24617533 -0.272195
0.039929412 0.0321187 0.2416188 -0.03711641 0.20240402 0.067283295 -0.08995779 0.16330627
0.16697757 0.040726554 -0.26299956 0.13994373 -0.16998073 0.10186545 0.04567565 -0.18081515
0.068740405 -0.29043704 -0.080286756 0.3580459 0.25010914 0.12472818 0.24937688 0.14698167
-0.18123043 -0.043066707 0.1235432 0.14685513 0.0356853 0.120930515 -0.1455887 0.015041974
0.07216742 -0.012087647 -0.23156206 0.034920402 0.05729211 0.14371352 -0.15894039 0.15816937
-0.074087076 -0.16103785 0.29940838 -0.02621615 0.21484382 0.16267975 -0.020365153 0.12944336
0.25638768 0.07865382 0.102651924 -0.10520451 0.019857818 -0.22996457 -0.12659425 0.17689724
-0.17515236 -0.16266127 0.14263843 -0.08611059 0.067476064 0.25409895 -0.33642426 -0.016909529

feat_proj.bias f4 [128]
00000000: 2ae2 d73c 84ca 73bd 8f4a a73d 0ef6 4e3b
00000010: 06b1 9cbc 683d 493b 311a 173e 12dc 4c3e
00000020: 8a11 473d 3b53 6e3d cb68 213e 67b6 10bd
00000030: 4d41 50bb 6c74 253d 5881 abbc 69fb 823d
00000040: dc8f 403c 6c24 3c3e 68f8 85bc 0862 363e
00000050: 3726 f83d f333 783d beac fbbc aa93 f6bd
00000060: 0a41 243e f817 27bb adb7 ae3d bba9 0f3d
00000070: 8772 28bd 2a03 393d a67b 01be 05ee a73d
00000080: 7836 173e c491 213c 9500 d8bc adba 27be
00000090: 2147 67bc 762d bcbd 0175 5fbd 5e5e 213e
000000a0: e99f 0f3e d33f 9dbc ce48 55be f4f5 37be
000000b0: 74b9 f13c 0ace 583d eeb0 a7bc f610 aabd
000000c0: 4ff7 7dbd af2b 9d3d 22b7 1cbe e6e8 11be
000000d0: 1e06 ae3d 3244 14be 789a e8bc 9c2f f4bc
000000e0: ae23 cc3c 7c4a 433e dca7 8f3c ff0b b4b9
000000f0: 228c 0a3d 612c 1dbc 49b1 08be 28bf abbd
00000100: 318d 373e 9dce 8ebd b981 0bbd e3d8 45bd
00000110: d6e9 2d3e d4fb 31be 72f1 033e 456c a13d
00000120: 2d9a 17bb f2de 483e 24ce 45be cdbe de3d
00000130: 5daf 013e a71e d13d 9969 d83d c270 8c3d
00000140: 522c c8bd e367 eb3d 13ec 253d f78f 4bbe
00000150: f1e5 38bc 27d1 503d 1d9a c6bd 7dee 03be
00000160: fa2e f03d 9f9f b43b 1721 323e 5136 373d
00000170: dd46 073e a1a9 c4bc 9f96 a8bd 3725 21be
00000180: 2e14 f93d f860 d7bd 160b e9bd 2a79 5f3c
00000190: 3cf4 ed3d 01ac d93d 687c a43d 009e 033c
000001a0: eeb5 9abd a4cc 5f3d ec95 8e3d 26c0 04be
000001b0: 89a1 353e a5ab fcbd d884 403e cf6f 053d
000001c0: 5142 333e db03 c5bd 1eac f73d 6c9c 11be
000001d0: f6f4 fe3d dd8b d7bd f6c9 2d3e f1ed 4dbe
000001e0: 5766 d3bd f533 5abd 1721 0bbe bc44 87bc
000001f0: 9595 18be 4167 8f3d e41d e63b 1963 003e
0.02635296 -0.059519306 0.08168518 0.0031579765 -0.01912738 0.0030706767 0.14756085 0.20005825
0.04860071 0.058184844 0.15762632 -0.035330202 -0.0031777204 0.04039423 -0.0209357 0.06395609
0.011753049 0.18373269 -0.0163538 0.17810833 0.12116664 0.060596418 -0.030722018 -0.120398834
0.16040435 -0.0025496464 0.08531127 0.035073977 -0.041124847 0.045169033 -0.12644824 0.081996955
0.14766872 0.009861413 -0.026367465 -0.16379805 -0.01411608 -0.091883585 -0.054554943 0.15758654
0.14025845 -0.019195473 -0.20828554 -0.17964917 0.029507376 0.05293087 -0.020470109 -0.08304016
-0.06200343 0.076743476 -0.15304235 -0.14249 0.084972605 -0.1447914 -0.028393969 -0.029807858
0.024919357 0.19071382 0.017536096 -0.00034341213 0.033825047 -0.0095931 -0.13348879 -0.083860695
0.17924954 -0.06973002 -0.03405926 -0.048302542 0.16983733 -0.17381221 0.12885073 0.07881979
-0.0023132667 0.19616297 -0.19316918 0.10876236 0.12664552 0.102109246 0.10567016 0.06857444
-0.097740784 0.11494424 0.04050834 -0.19879137 -0.011285291 0.050980713 -0.096973635 -0.12883945
0.1172771 0.0055121924 0.17395435 0.044729535 0.13210626 -0.024006667 -0.08231854 -0.15736853
0.12162052 -0.10516542 -0.113790676 0.013639728 0.1161885 0.1062851 0.08031541 0.008033276
-0.075542316 0.05463852 0.06962189 -0.12963924 0.17737402 -0.12337426 0.18800676 0.032577332
0.17505766 -0.09619876 0.120933756 -0.14219826 0.12449066 -0.10524724 0.16971573 -0.20110299
-0.10322254 -0.053272206 -0.13586842 -0.016512267 -0.14900811 0.07002116 0.007022606 0.12537803

local1.conv.bias f4 [128]
00000000: 56ce 043c cadd aa3c bb0e 5ebb c02f 81bd
00000010: 1d40 8b3c a44a 22bc dc6f e0ba cae2 1e3c
00000020: b466 d63b 2054 703a 3cbb e53c 47ee 9f3c
00000030: 7ecd 483c 93b9 ab3b 60fa 563b b6c8 9e3c
00000040: b01f 6bbc 8d27 b8bc 2c9a 323c 94ae 413d
00000050: eb00 fe3c b351 8b3c 36b8 5a3a 1a57 4ebb
00000060: 9b4f da3c 3cdb 2f3c 9c9f da3c 2c40 efbb
00000070: d6d8 69bb cbb5 503b cd3b 7bbb 3340 b83b
00000080: cf0f 833c fa55 d0ba c65d b8bb 27de 3a3c
00000090: 37c3 143c ab41 c23a 982c 103c 6118 88bc
000000a0: cde9 7f3c 106a 2b3b cf03 153d 77c9 55bc
000000b0: 0d4e b5bb 16de ad3c db21 54bc bd26 85bc
000000c0: e976 0dbc d470 debb c5ed 343c e4a1 b63c
000000d0: 4121 27bc 5773 c73c 4d4d c0bc 8235 41bb
000000e0: 5c6b 23bc c967 5ebc 5660 f8bc a610 5bbc
000000f0: 80bc 8dbc 2165 9b3b f1ce 173b 23d1 c03c
00000100: f0a0 a13b 08f7 053c fa44 2c3a 6493 273c
00000110: 4c1c ed3c 9d5a 223c b772 c33c 3f84 213c
00000120: 95ea 6a3c c87c b7bb 49fd 3ebb 76e4 443c
00000130: 2af5 8bbc ebc1 fd39 7003 a03c 33cf 053b
00000140: 0579 c2ba 423d e23c 4d3b ef3a 6f65 a23a
00000150: 78a8 8d3c 0f12 22bc d19b aeba 21cf 923a
00000160: dad6 59ba 1ec3 3a3c 6590 7fbd 2a0d 823c
00000170: c922 423c 3c49 edb9 0403 ac3c 80db c53c
00000180: 50aa 13bd c964 ecba efb4 0ebd 9c64 573b
00000190: 5503 debc 0559 863c 7a14 bc3c db0c a93c
000001a0: 5f1c 353c 31f8 71ba 3f48 7fbd 4368 503c
000001b0: f583 9fbc 14b6 4a3c df82 f1bb 1a22 2cbc
000001c0: 1953 e2bb dbd5 083d 9a3d 9fbc 3edf 253c
000001d0: abca ad3b ade4 b9bc e833 f03c 1906 f73c
000001e0: 0e49 983c fa86 1c3c 389e 98bc 1893 9fbc
000001f0: 7a0c a3bb af59 84bb 4f9c bfbb af86 7d3b
0.008105835 0.02085771 -0.0033883292 -0.06307936 0.016998345 -0.009905491 -0.001712318 0.009697625
0.006543005 0.0009167809 0.028043382 0.0195228 0.012256024 0.005240628 0.0032803044 0.019382816
-0.014350817 -0.022479797 0.010901015 0.04728563 0.031006297 0.01700673 0.00083434896 -0.0031485022
0.026649287 0.010733422 0.026687436 -0.007301351 -0.0035682223 0.0031846638 -0.0038335205 0.0056228875
0.015998749 -0.0015894764 -0.005626413 0.011405504 0.009079746 0.0014820596 0.0087996945 -0.016613187
0.015619707 0.0026155747 0.036380585 -0.013048521 -0.005532986 0.021224063 -0.012947525 -0.016253823
-0.008634307 -0.0067883525 0.011043017 0.022293992 -0.010200799 0.02434699 -0.02347436 -0.0029481356
-0.009974327 -0.013574549 -0.030319374 -0.0133706685 -0.017301798 0.00474228 0.0023164118 0.023537224
0.0049325153 0.008176573 0.00065715576 0.010228012 0.028944157 0.009909299 0.023858411 0.00985819
0.014338155 -0.005599592 -0.002914267 0.01201736 -0.017084677 0.000484004 0.01953289 0.002041769
-0.0014837092 0.0276171 0.0018251926 0.0012389849 0.017292246 -0.009892001 -0.0013321583 0.0011200645
-0.00083099084 0.011399059 -0.062393565 0.015875418 0.011849114 -0.00045258726 0.020997532 0.024152517
-0.036051095 -0.0018035407 -0.03484052 0.0032866364 -0.027101198 0.01639987 0.022958983 0.020636013
0.0110541275 -0.0009230404 -0.06232476 0.01272017 -0.019472102 0.012372512 -0.0073703374 -0.010506177
-0.0069068787 0.033407073 -0.019438554 0.010124026 0.005303701 -0.022692049 0.029321626 0.030154275
0.018589523 0.009553665 -0.018630132 -0.01947932 -0.0049758526 -0.0040390114 -0.005847491 0.0038685014

local1.conv.lin.weight f4 [128, 128]
00000000: 7be9 793c dc5d 1c3e b9bb d73b 61da 453d
00000010: 4e0e cebd 1934 22bd 9d08 9bbd 4608 073e
00000020: 5edd 95bd a674 a53d f6c8 91bd f57b 22be
00000030: 2c6b 483d 7a6b 7d3d d9ac fcbd fa23 5abd
00000040: 1ac6 3fbe 9a52 51bd 4d17 9c3c 6df9 223d
00000050: 1edc 3f3d 8fc7 b5bc 005f e7bd c85d b3bd
00000060: 5d36 02be 8f0b d43c 8106 2dbd 165f 353d
00000070: 9861 dabc be9e 15be 0340 93bc 36cb d13c
00000080: 3118 833c b39e 51bd 2310 9bbd 4dcd dbbd
00000090: 0ac1 6e3e f83e f5bd ba46 e9bb 9e8a 8a3c
000000a0: 7c4c 1dbd 32a5 7bbd 1126 a83b aa77 fbbc
000000b0: 2620 c63b dcbb e93c 06b4 813d b2ae 073c
000000c0: c1a1 fc3c 8e4a 8c3d 14dd aa3d a1bb 6e3d
000000d0: e49c 393c b81a c23d da04 473e 12d9 0dbe
000000e0: 2275 cc3d cecb d3bd 49f7 c8bd d460 b2bd
000000f0: 2e44 113d 9cf5 c63c c6aa ebbd 713d 26be
00000100: 75d0 b4bd 7a5d d4bd 99f5 92bd 8266 593e
00000110: d3f8 26bd 6616 1bbc a038 86bd 3a62 1a3e
00000120: 3aee aebd ec44 353d 6e26 7bbd 06d9 06be
00000130: 1323 46bc 5b7f 133c 36c0 d23d f497 853e
00000140: 1fca 7ebd bc96 fd3c 6986 b43d 2aa9 5f3d
00000150: 1d13 c6bb 48eb dabb 1503 ebbc 3717 c7bd
00000160: 49f1 24bd 01b4 b3bd 86be 003e 65a6 f7bd
00000170: f608 58bd 81be 0f3a 6751 03be a358 aa3b
00000180: 8a3a 72bd 5773 8fbd ef73 763d 7b6c e03c
00000190: 1270 babd 67b9 2f3d 80ca a8bd 1e84 d03d
000001a0: dd28 223e d043 36be f965 b63d 3e4b 82b9
000001b0: 19fc 143e 824e d13d 06f1 603d 49d3 d1bc
000001c0: 5856 a13d 3006 14be 8db2 bb3d 82d8 b43d
000001d0: 45da ddbd d75d 07be 8f65 133c d260 90bd
000001e0: ca74 79bc 3031 c6bd dad9 023e 7ded ec3d
000001f0: 2d5d 163d afec 0bbe 22f7 143e 66cf 65bb
00000200: 2c54 ba3d a486 033b d9b0 0c3d 9dd3 f23d
00000210: 9f42 483d 17b4 3b3d cf86 153e bc52 b7bb
00000220: 5026 833d ded1 a3bd 97f5 203e a89e de3d
00000230: 35fe 80bd 8aac dabd 9e53 f63d b739 a63d
00000240: 760e 4cbd 1ea1 bdbd 442a b9bd 341a 053e
00000250: 23e1 e0bc ebb5 6b3c c0e4 f9bd 88bc 7a3d
00000260: 0a42 983d 35e5 d13d 8823 c1bd ea60 c4bd
00000270: d52a 9abd 07b0 843d 9436 903c a893 b83b
00000280: 653c 11bb 72e1 333d 0e4b 99bd a21f 23be
00000290: 7191 113e 4510 f53c 8ed1 aa3c 673f febd
000002a0: 5728 463d 4703 be3c 4152 513b 9c80 b3bd
000002b0: d459 75bc 2342 d03b d272 35be b87f 14be
000002c0: 4b32 01be fcdf 753d 5d44 d0bd f0c9 20be
000002d0: fa0c aabd ba21 8fbc 048c 203e 0769 603d
000002e0: 1799 533d aa35 b33d c23f 423d 4be2 2fbd
000002f0: 9ed9 873d 7269 c43d 3cfd 2cbb 9355 eb3c
00000300: 63b5 f5bd c02b e03c ad49 213d 7bff 6c3c
00000310: f78f 233e 3542 2d3e 198d d7bc cd1d 8fbd
00000320: bcd4 7d3d 3411 973b 9942 b13d 6d82 2a3e
00000330: 6487 bcbd 7d29 38be d312 053c 89c2 293e
00000340: 02e5 353e 6291 963c 3c36 ee3d 0f08 ed3d
00000350: eddc f7bd 1072 ac3d 6d01 3dbd 7e25 9a3d
00000360: bfb3 1abe db55 81bd bee2 58bd f991 a7bd
00000370: efe5 033e 7945 d13d c06f 8dbc f37e e63c
00000380: dbf4 293d 4c41 a83d 9e60 0cbe ab0d 013e
00000390: 0b95 d13d 94f7 b4bd e395 77bd 6fd6 0fbd
000003a0: c8eb 0b3d d269 9ebd 31a7 ac3c 6fea 8d3d
000003b0: 5b21 48bc 9c87 dd3d 80da 60bd d032 333c
000003c0: 83c6 6a3d 32a8 7dbd c49d 623d 9a09 143d
000003d0: b176 4dbd 4cbc e3bc b8c2 a73d d1e4 13be
000003e0: 338e b4bd 3f19 923d b7ab e93d 5a9c adbd
000003f0: bd99 093e fa26 193c e5e0 b53c c9d3 85bd
0.01525342 0.1527018 0.0065836576 0.048303965 -0.10061322 -0.039600465 -0.07570002 0.1318675
-0.07317613 0.080788895 -0.071184084 -0.15867598 0.048930332 0.061870076 -0.123376556 -0.053256966
-0.18727913 -0.051104166 0.01905408 0.039788652 0.04684078 -0.022189884 -0.11297417 -0.08758122
-0.1271605 0.025884418 -0.04224253 0.044280134 -0.026657864 -0.14611337 -0.01797486 0.025609594
0.016002746 -0.051176738 -0.07571437 -0.107325174 0.23315826 -0.11974901 -0.007119027 0.016911801
-0.03840302 -0.06143684 0.005131491 -0.030696709 0.006046313 0.028531961 0.06333165 0.008281397
0.030838849 0.06850158 0.083429486 0.058284406 0.01132891 0.094777524 0.19435444 -0.13852337
0.09983279 -0.10341607 -0.09812791 -0.08709875 0.03546541 0.024287038 -0.11507182 -0.16234376
-0.088288225 -0.10369392 -0.0717575 0.2123051 -0.04076464 -0.009465789 -0.06553769 0.15076533
-0.08541532 0.044255182 -0.061315946 -0.13168725 -0.012093323 0.009002532 0.102905676 0.26092494
-0.062204476 0.030955665 0.08814699 0.054604687 -0.006044759 -0.0066808797 -0.028687993 -0.09721225
-0.04026917 -0.087745674 0.12572679 -0.12092284 -0.05274292 0.00054834044 -0.12824021 0.0051985546
-0.05913786 -0.07004421 0.060169157 0.027395478 -0.09103407 0.042901423 -0.08241749 0.10181449
0.158359 -0.17799306 0.089061685 -0.00024851592 0.14549293 0.10220052 0.054917358 -0.025613444
0.07877797 -0.14455485 0.09164915 0.08830358 -0.10832647 -0.13219391 0.008996381 -0.07049717
-0.015225599 -0.096773505 0.12778416 0.11568735 0.036709953 -0.13664506 0.14547399 -0.0035066246
0.09098086 0.0020069266 0.034348343 0.11856768 0.04889166 0.045826044 0.14602207 -0.0055945795
0.06403792 -0.07999013 0.15718685 0.10870105 -0.06298486 -0.106774405 0.120276675 0.08116477
-0.04981848 -0.09259246 -0.09041265 0.12998277 -0.027451104 0.014386634 -0.12201834 0.061214954
0.07434471 0.10248796 -0.09430605 -0.095887974 -0.07527701 0.06478887 0.01760415 0.0056328364
-0.0022161242 0.043916173 -0.07485019 -0.15930036 0.14215638 0.029914984 0.020851877 -0.12414437
0.048378315 0.023194922 0.0031939896 -0.08764765 -0.01497503 0.0063555404 -0.17719582 -0.14501846
-0.12616841 0.06002806 -0.10169289 -0.15702033 -0.08303256 -0.017472137 0.15678412 0.054787662
0.05165967 0.0875047 0.047424085 -0.04294042 0.06633304 0.095904246 -0.0026396057 0.028727328
-0.119974874 0.027364612 0.039376903 0.014465208 0.15972887 0.16919787 -0.026312398 -0.06988106
0.061970457 0.004610205 0.086552806 0.16651316 -0.09205511 -0.17984577 0.008122164 0.16578116
0.17763141 0.01837987 0.11631438 0.11573803 -0.12102685 0.08420193 -0.046143938 0.07526682
-0.1510763 -0.06315204 -0.052950613 -0.08182139 0.12880681 0.10218329 -0.0172652 0.028136706
0.041493278 0.082155794 -0.13708732 0.1260287 0.10233506 -0.08836284 -0.060445677 -0.03511661
0.034160405 -0.077350274 0.021075817 0.0692948 -0.012214984 0.10816881 -0.054895878 0.010937408
0.05731822 -0.06192798 0.05532624 0.03614197 -0.05016202 -0.027799748 0.081914365 -0.14442755
-0.08816185 0.071337216 0.11409705 -0.08477087 0.13437553 0.009347672 0.022201965 -0.065345354

local1.norm.weight f4 [128]
00000000: 27c9 6d3f d402 6d3f 7431 853f efde 8d3f
00000010: 0171 6c3f 8ac6 853f 7092 8c3f 7d76 813f
00000020: 1f98 763f 9228 783f cc6a 723f 1346 6a3f
00000030: 31b5 7b3f 87c3 703f 0bb4 7a3f 9876 763f
00000040: 3a35 943f 5348 7c3f f07b 753f bf74 6b3f
00000050: c30a 6f3f d0fa 6f3f 0554 813f 36d4 833f
00000060: 7415 793f b112 673f ac4e 7d3f 119b 8b3f
00000070: 152c 723f d56c 753f b321 803f 79c1 7c3f
00000080: fd92 843f bac6 843f 88fc 823f bbdf 823f
00000090: 48fb 823f ad32 803f 4236 723f c7df 933f
000000a0: b47b 863f 8f21 7e3f 65f5 773f 0501 8a3f
000000b0: 0cf3 863f c8b8 783f 1e18 913f d0d5 853f
000000c0: 7c70 843f 49fb 733f 1a26 7d3f 7253 693f
000000d0: 746c 763f 2886 7a3f b557 873f d750 7a3f
000000e0: 2d77 873f 85ac 813f 133c 833f 04d3 8f3f
000000f0: b8b9 7f3f ef74 873f aa85 7c3f 2acd 723f
00000100: 6376 833f 1bf9 7b3f 5d9e 813f c74b 7c3f
00000110: 4850 793f 6cbd 853f cb56 743f 6b45 783f
00000120: f287 863f eb52 873f 3ada 823f bb1d 793f
00000130: ebbb 6e3f f9f7 673f c68f 6a3f 24ad 7e3f
00000140: 6af9 7f3f 8410 7a3f d70c 703f 3335 8d3f
00000150: 28d1 723f b0ed 943f 6221 843f 9df6 723f
00000160: d0f2 753f ee95 853f 69c6 923f d28d 7c3f
00000170: 7398 6b3f 1a9d 763f 455a 7e3f 0687 703f
00000180: 4c62 8f3f 4bd3 7d3f 0e7d 923f 13cf 6c3f
00000190: 013e 8f3f 2b70 743f cf51 803f 10e4 6a3f
000001a0: a15a 723f 3561 773f be35 b43f 5012 8a3f
000001b0: b32a 863f 5102 6f3f 3b6f 7a3f 0ee2 873f
000001c0: 445f 853f dfd5 7b3f 6b3d 8c3f a9b9 6f3f
000001d0: fd5f 833f 5fd6 803f c4fe 693f 1555 683f
000001e0: aa67 763f 9ed5 6b3f 7ae3 793f 560c 853f
000001f0: a679 853f 9705 813f 6843 803f 5cd1 823f
0.9288506 0.9258244 1.0405717 1.1083659 0.9235993 1.0451214 1.0982189 1.0114285
0.9632587 0.96936905 0.9469421 0.91513175 0.9832335 0.9404835 0.97930974 0.9627471
1.1578743 0.9854786 0.9589224 0.91975015 0.93375796 0.93742085 1.0103766 1.0299137
0.9729836 0.90262896 0.9894817 1.0906698 0.94598514 0.9586919 1.0010284 0.98732716
1.0357357 1.0373147 1.0233316 1.0224527 1.0232935 1.0015465 0.9461404 1.1552666
1.0506501 0.99269956 0.9685882 1.0781561 1.0542922 0.97156954 1.1335485 1.0455875
1.0346828 0.95305306 0.98886263 0.9114295 0.96259236 0.97860956 1.0573641 0.977796
1.0583245 1.0130774 1.0252708 1.1236272 0.9989276 1.058256 0.98641455 0.94844306
1.0270504 0.9842698 1.0126454 0.9855313 0.97388124 1.0448432 0.95444936 0.96980923
1.0510237 1.057218 1.0222847 0.9731099 0.9325549 0.9061275 0.9162563 0.9948294
0.9998995 0.9768145 0.9376959 1.103186 0.948504 1.1635036 1.0322688 0.9490755
0.9607363 1.043638 1.14668 0.986539 0.92029494 0.9633347 0.9935649 0.9395603
1.1201873 0.9915053 1.1444414 0.9250347 1.1190797 0.95483655 1.0024966 0.91754246
0.9466954 0.966327 1.4078901 1.0786839 1.0481781 0.9336291 0.97825974 1.0615861
1.0419698 0.98373216 1.0956243 0.9364267 1.0263668 1.0065421 0.91404366 0.90754825
0.9625193 0.9212283 0.97612727 1.039439 1.0427749 1.0079831 1.0020571 1.0220141

local1.norm.bias f4 [128]
00000000: f384 97bd 87e1 68bd 6ec2 0abd 8d0c 24bd
00000010: 283f 09be 33db ddbd 6669 09bd 9deb 84bd
00000020: ab7a b3bd aff7 a1bd 2097 8ebd 4562 debd
00000030: 2640 84bd 674f e7bd 3627 85bd c7d4 1dbd
00000040: b28e 56bd ee2a 7dbd dd66 f2bd 546d 0fbe
00000050: 3ee1 c8bd 8662 f3bd 853e 8abd d774 91bd
00000060: 1b41 54bd 9375 debd 6a91 c4bd 6bdb 51bd
00000070: ea7b b8bd 2cbc 99bd ad15 17bd ea91 03be
00000080: 868e 7ebd 0879 2abd c73e 9ebd 6867 74bd
00000090: 36f6 85bd b5ee 07bd 3a3d cabd 93bf 2ebc
000000a0: ab2a d5bc afee 3cbd f4b8 b4bd 3fde c4bd
000000b0: 8007 8abc c724 a2bd 4c67 363b c865 3dbd
000000c0: 9c07 53bd d1c1 6bbd cba4 2ebd 8ddd b6bd
000000d0: c003 17bd fa9f 9bbc 56a6 efbc eeec 1bbd
000000e0: 79d0 52bd a3ae 2bbd a21b 7dbd 06c3 29bd
000000f0: 207e 31bc 0b2c b3bd bd90 7abd a477 6fbd
00000100: 9967 74bc bdde 88bd 5a16 7cbd 27fd 42bd
00000110: 3ff1 f3bd d514 a4bd 57c1 05be 2a09 45bd
00000120: ff50 72bd 0344 15bd bb44 94bd 879c a3bd
00000130: a456 02be ce78 d1bd b71e e0bd 7730 f2bc
00000140: 2169 81bd b825 cbbd e697 a5bd b0ed 19bd
00000150: e63e 6ebd 4c50 80bd f6f5 2dbd 9a26 9cbd
00000160: e7b4 acbd c6be 72bd a169 40bd dc10 cabc
00000170: ae06 b9bd b9b7 d9bd 05c1 bbbd 3450 d3bd
00000180: b035 1cbd 9ef9 7ebd 53dd 92bd 33a2 cfbd
00000190: 41e9 633b 45f4 e8bd 5ec3 f2bb 817b 03be
000001a0: c556 aebd 7166 d7bd 9017 3ebd 96f1 10bd
000001b0: ab7c 4cbd 9dad b4bd efc5 a9bd c55c 17bd
000001c0: f87e 69bd 11db c1bd 8f68 2cbd c12c e0bd
000001d0: f8bb d8bd 1ab8 40bd c0fc e1bd d209 f5bd
000001e0: 43b6 50bd 56a3 b1bd 23ae a5bd da08 c7bd
000001f0: 6d99 a1bc 991f b5bd 37a2 6cbd 54f9 c1bd
-0.07398405 -0.056855705 -0.03387683 -0.04005103 -0.13402998 -0.108328246 -0.03354778 -0.06490252
-0.087636314 -0.0790857 -0.069624186 -0.10858587 -0.06457548 -0.11294442 -0.065016195 -0.038533
-0.05238218 -0.06180852 -0.11836026 -0.14006549 -0.098085865 -0.11884026 -0.06750206 -0.071023636
-0.051819902 -0.10862269 -0.09598048 -0.051234644 -0.0900801 -0.07506594 -0.036885906 -0.1284863
-0.06214764 -0.04161933 -0.077268176 -0.05966893 -0.06541102 -0.033186633 -0.09874959 -0.010665792
-0.026021322 -0.046126064 -0.088243395 -0.096127026 -0.01684928 -0.07917171 0.0027832566 -0.046239644
-0.05152093 -0.057557885 -0.042637628 -0.08928976 -0.03686881 -0.018997181 -0.02925412 -0.03806775
-0.051468346 -0.041914593 -0.06179393 -0.041445754 -0.010833293 -0.08748635 -0.06117319 -0.058463708
-0.014917278 -0.06683109 -0.061544754 -0.047604706 -0.119112484 -0.08011786 -0.13062035 -0.048104443
-0.059159275 -0.036441814 -0.07239672 -0.079888396 -0.12728363 -0.1022812 -0.109433584 -0.029564125
-0.0631888 -0.09919304 -0.08085613 -0.037580192 -0.058165453 -0.062653154 -0.042470895 -0.0762455
-0.08432942 -0.059263967 -0.046975736 -0.024666242 -0.09034477 -0.106307454 -0.09167675 -0.10318032
-0.038137138 -0.062249772 -0.071711205 -0.10138359 0.0034776481 -0.11374716 -0.0074085435 -0.12840082
-0.08512644 -0.10517586 -0.04640919 -0.035386644 -0.04992358 -0.088221766 -0.08289706 -0.036953706
-0.057005852 -0.09465612 -0.042091902 -0.10946036 -0.10582727 -0.047050573 -0.11034536 -0.11964764
-0.05095507 -0.08673732 -0.080898546 -0.09718485 -0.01972648 -0.088439174 -0.057771888 -0.09471384

local2.conv.bias f4 [128]
00000000: 906e aebc 9cfa a7bc 45f6 a1ba ec2d 7b39
00000010: b81b f43a 46c3 643c 2267 823a e37b ec39
00000020: 6f86 1e3a 9a10 f1ba cc8e 523b 6e51 c63a
00000030: 4d24 fa3a 6c3f 5d3a 42cd 753c 9312 683b
00000040: e1f3 893a 842c ed3a 3c76 09bb 9cf6 883b
00000050: a07a 7a3b 443e a4ba dc59 33b8 f357 cebc
00000060: a477 fc3c edca 5639 ec6e 2c3b 8f9f e23a
00000070: fd5f 413c 5ff4 803c 64e9 183c 5b3c a13c
00000080: ad3c 713a 1e80 87ba e7eb a8bb a235 973a
00000090: 27ff be3a 683f e4b9 d26a 6d3c 5e04 a139
000000a0: 379e a83a 39b4 893a 26b7 8dba 915e 29b9
000000b0: 5a04 843a c590 913a 5dcd 3c3a 8015 353b
000000c0: 4027 553c 84f1 013b 33c5 733b 7f5a 96bd
000000d0: 073d 293b 146c 92b9 885a eab9 0103 aaba
000000e0: 1e46 44bc 621e d53a d161 f9b7 8465 aebb
000000f0: d6a9 243a 9742 7f3b cf89 f43c 99d3 0c3d
00000100: 4066 173b 7890 bbbb 1620 5e3c 1517 66bc
00000110: 11ea 403c d1d8 c239 aee2 7337 b941 233b
00000120: 8a77 30bb be02 fbbb 7523 9b3a f305 1c3a
00000130: 17bc 073b 99b0 253b 400c 4d39 d3f7 983a
00000140: 0ee8 b5ba cfef f2bb acd1 2bbc d9ff 803c
00000150: fdb9 c4ba fbfd c13a 3cb2 873a 0687 9eb9
00000160: 61c1 f23a d68f 25bc b632 22bc 9eed 1f3b
00000170: 10dc a33a 2820 133a 3e00 13ba c884 463b
00000180: ba81 103d ec5f 4a3b 0c54 7a3a 6e3a 0a3b
00000190: 88e4 603a 76b6 7d3b e9f2 48bd ea5f 1c3b
000001a0: 9e1d e3b9 1ed1 debb cc60 a53a 5395 7fb9
000001b0: 6af7 ed3a 538f 1839 8cd1 313b 021c d0bd
000001c0: d698 a4ba fd90 093a 96b9 12ba 2a45 a23d
000001d0: a15f c23a 0b00 563b 1492 c93a a09d 31bb
000001e0: 3e7f 7b3a 3461 bd3a 0911 c43a 7687 263b
000001f0: 0dc8 25ba 55f1 f839 3ce9 f2b8 0e0e 6739
-0.021292955 -0.020505242 -0.0012356719 0.00023954333 0.0018623983 0.013962572 0.0009948949 0.0004510573
0.0006047254 -0.0018391788 0.003212857 0.0015130469 0.0019084305 0.00084399316 0.015002551 0.0035411462
0.0010524952 0.0018094932 -0.0020975014 0.0041797888 0.0038220063 -0.0012530764 -4.2760614e-05 -0.025188422
0.030818768 0.00020484226 0.0026311232 0.0017289984 0.011802671 0.015741525 0.009332988 0.0196821
0.0009202462 -0.0010337865 -0.005155075 0.001153637 0.0014571891 -0.0004353479 0.0144908 0.00030711567
0.0012864535 0.0010505981 -0.0010812029 -0.00016152325 0.0010072098 0.0011105767 0.00072022324 0.0027631223
0.013009846 0.0019827792 0.0037196397 -0.073414795 0.0025823729 -0.00027927815 -0.0004469941 -0.0012970866
-0.011979608 0.0016259665 -2.9728662e-05 -0.00532216 0.0006281411 0.0038949603 0.029850869 0.034381483
0.0023101717 -0.005724009 0.013557455 -0.014043589 0.011774556 0.00037164104 1.4536707e-05 0.0024911
-0.002692672 -0.007660239 0.0011836129 0.0005951814 0.0020711476 0.0025282262 0.00019554887 0.0011670537
-0.0013878362 -0.0074138413 -0.010487001 0.015746998 -0.0015009042 0.0014800424 0.0010352801 -0.0003023671
0.0018520766 -0.010105094 -0.009899786 0.0024403105 0.0012501497 0.00056123966 -0.0005607641 0.0030291546
0.035279967 0.0030879928 0.0009549267 0.0021091956 0.00085789757 0.0038713492 -0.049059782 0.002386088
-0.0004331888 -0.006799831 0.0012617349 -0.00024374323 0.00181554 0.00014549242 0.0027132956 -0.10161592
-0.0012557756 0.000524774 -0.00055971125 0.07923348 0.0014829525 0.0032653834 0.0015378618 -0.0027102008
0.00095938507 0.0014448524 0.001495869 0.002541033 -0.00063240604 0.00047482052 -0.000115829025 0.00022035112

local2.conv.lin.weight f4 [128, 128]
00000000: 9a95 a6bd ec71 d43b 6052 1ebd 72d9 203e
00000010: e4f6 e6bd 3376 76bd cc1f 7abd f7b2 933d
00000020: 79a5 d03c c508 c93d e5cb 2c3e 90ce e2ba
00000030: 9591 d53d 9334 41be bac8 20be dc84 85bc
00000040: c50a 1d3d 0466 373e 0494 053e 5396 e2bd
00000050: 4a7a ab3d 0d27 7c3d 04bd db3d ceb2 13bd
00000060: 945b 05bd a643 0ebd 23e9 673d 88c6 00bd
00000070: 99a0 573d 4fe9 523d edc1 9b3c 4479 29bd
00000080: 67bc e13b 8960 563e 16d3 59bc cb0a 98bd
00000090: 7610 393e 1b1d 103e 2ac2 1b3e 2e33 0b3e
000000a0: 2d08 3d3d b993 5cbc 57aa 1e3d c6d6 b1bd
000000b0: bab2 2d3d 3204 9dbd 4a30 0d3e 1657 9e3c
000000c0: 0aca c3bd 01b2 bc3c 2bf9 20be 5698 48bd
000000d0: 3158 0c3e fcc3 213d f84d 2e3e 58e7 b9bd
000000e0: 1711 f5bb 9942 fb3d ae19 4abd 7b37 943c
000000f0: 8326 6abd 02db 67bc b80d 87bd e643 a2bc
00000100: 4892 f739 d686 2cbe 5c30 e23d 4461 f63d
00000110: 856f 20bd 9024 563c 60e0 033c 876c 08bd
00000120: 4be8 173d e02c 2b3d 9e88 55ba c147 41be
00000130: 4d72 303d ebb2 6dbd 1dc7 b93d 1f6f 00bd
00000140: da09 acbd 758a 7ebd 2926 2e3d d8dc aabb
00000150: 4ae4 05be 9620 d6bd 270d cbbd 38b5 34bd
00000160: 6517 eb3d 41c8 c73d cedf 6b3e f69b 963c
00000170: 481c 30be 9469 e43d f733 56bd e6cc 413d
00000180: 1672 17bc 7b60 21bd ae28 86bd d863 91bc
00000190: ff0a 933e 08fb bebd 3cd4 e73b 7435 dd3d
000001a0: df7f f4bc 4208 123e 9dbd 32bd 45b6 36bb
000001b0: 562d 433d b59e 1dbe 8d11 13be 70cb 3b3e
000001c0: 4c18 073e 62a5 3dbd 1087 b43d eef7 19bd
000001d0: 7328 acbb 4870 e93d b7f4 04bd fcec 9ebd
000001e0: 2045 773d faa0 66bd fdf4 79bd 6358 9e3d
000001f0: eee5 e3bd be48 a33d 077d a8bc 2c3e 13bd
00000200: 1f3e c13d 1f96 76bd 7f68 28be 15dd 77bd
00000210: f49b 64bd 273c febd 2f78 9dbd 7449 c73d
00000220: 8dc8 253e 2c05 783d e46d f0bd 7b99 07be
00000230: 9613 0abe 3af2 233e eab2 bd3c 9465 8c3d
00000240: 6e8e 18be 0394 5fbd db2a ccbd eee4 0d3d
00000250: b85c 11be 79b3 d3bc 024a fb3d fa77 143d
00000260: 9f1d 043d f646 9cbb 052a cdbd 5eaa 90bc
00000270: b4cd 10be 5208 46bc f237 a5bd e70e 94bd
00000280: b34b b83c b250 183e b262 873d 81d3 56b9
00000290: 4c3f ce3a c608 f63d e106 ffbd abb9 563e
000002a0: 26cd d33d c026 2c3e 8284 bb3d 0610 8fbd
000002b0: 3f2f 9b3d e1c0 a73d f454 1b3e 65e2 103e
000002c0: c599 bf3b 4225 213d a019 30be 66c8 b4bd
000002d0: 01dc c63c ffbe 8fbc 4587 343e a727 d53c
000002e0: cb3b 38bc 3821 8e3d 9c1b c93d b628 76be
000002f0: 3ca0 a33c 6271 36bc 7da3 b23c 7540 a1bd
00000300: 9941 003e bb2a 4c3c 7a8e c63c ee3b 873b
00000310: 859c 24bc 4eb3 18bd 7373 c53d a75d e23d
00000320: 0e0e 353e 85dc 213e ac2a e9ba 7058 7f3d
00000330: e181 11bd 5f69 a4bd d02a 1bbd cb45 ad3d
00000340: 2359 b3bd 5c19 803d 6481 973b cae5 fbbd
00000350: 8d5a c4bd ee9a ec3d c47b 853c 5480 a73d
00000360: 35d2 2a3d 304a 02bb 4eb4 2b3e fd0e b03d
00000370: 269a e53d bc9b c5bd 7df3 fabd fa9b 023d
00000380: b8c4 6abd f02b 0d3e 8039 f3bd 8197 b83d
00000390: e005 043e 9967 a33d 23e4 0d3c 5b98 17be
000003a0: 7e9c 0fbe 795b c1bd a34b dcba 7810 9ebb
000003b0: 0887 80bd 6d27 cf3d 25c5 0f3e 5e9e 073e
000003c0: 803a b13c f01a 053e 36d1 153e aa29 0e3e
000003d0: fd69 1abd 6ff8 d13d 33fb 13bd bb27 00be
000003e0: 05dc a8bd 6d60 61bd 46a3 a93d 76ed 9abd
000003f0: bc50 d03d 9257 cf3d 344b 923d 3124 28bd
-0.08134003 0.006483307 -0.038652778 0.15707949 -0.112775594 -0.060171317 -0.06106548 0.07211869
0.025469529 0.09816126 0.16874655 -0.0017303992 0.10428158 -0.18867712 -0.15701571 -0.016298704
0.03834035 0.1791001 0.13044745 -0.11063828 0.08372934 0.06156068 0.10729411 -0.036059193
-0.03255804 -0.034732483 0.05661882 -0.031439334 0.052643392 0.05149203 0.01901337 -0.041375414
0.0068889144 0.20935263 -0.013294956 -0.074239336 0.18072686 0.14073603 0.15210786 0.13593742
0.046150375 -0.013462954 0.038736667 -0.08683543 0.042406775 -0.07666816 0.13787952 0.019328635
-0.0956002 0.023034098 -0.1572005 -0.048973404 0.13705517 0.039493546 0.1702193 -0.090773284
-0.007478844 0.12268562 -0.049340896 0.018092861 -0.057165634 -0.014151337 -0.065944135 -0.019807767
0.000472205 -0.16848311 0.1104438 0.12030271 -0.039168853 0.013070241 0.008049101 -0.033306625
0.037086766 0.041790843 -0.0008145663 -0.18875028 0.043077756 -0.058031958 0.09071181 -0.031355973
-0.084003165 -0.06214376 0.04251686 -0.005214315 -0.13075367 -0.10455434 -0.09914618 -0.044118136
0.114790715 0.09754992 0.23034593 0.018384915 -0.17198288 0.1115295 -0.05229565 0.047314547
-0.009243509 -0.03939865 -0.06550728 -0.017747805 0.28719327 -0.09325224 0.007074861 0.10801211
-0.02984613 0.14260963 -0.04363786 -0.0027879637 0.047650658 -0.15392573 -0.14362164 0.18339324
0.13192862 -0.0463003 0.08814824 -0.03758996 -0.0052538454 0.11398369 -0.03245994 -0.07760045
0.060368657 -0.056305863 -0.061024655 0.07731702 -0.1112784 0.07972859 -0.02056743 -0.035947964
0.09435677 -0.06020176 -0.16446112 -0.060513575 -0.05581279 -0.12413817 -0.07688939 0.09730807
0.16189785 0.060551807 -0.1173971 -0.13242142 -0.13484034 0.16010371 0.023156602 0.06855312
-0.14898083 -0.054584514 -0.099691115 0.034642152 -0.14195526 -0.025842415 0.12269975 0.03624723
0.03225481 -0.0047692014 -0.1001778 -0.017659362 -0.1414097 -0.012086945 -0.08067311 -0.07229405
0.022497034 0.14874533 0.066106215 -0.00020487422 0.0015735417 0.12013392 -0.12452484 0.20969264
0.10341863 0.16811657 0.09156133 -0.06985478 0.07577371 0.081910856 0.15169126 0.14148863
0.005847188 0.039342172 -0.17197275 -0.088272855 0.024274828 -0.017547129 0.17629726 0.026019884
-0.0112447245 0.0693993 0.09819719 -0.24038967 0.019973867 -0.011135431 0.021806473 -0.07873622
0.12525024 0.01246136 0.02423786 0.004127017 -0.010047083 -0.037280373 0.09641161 0.11053019
0.17681143 0.15806778 -0.0017789206 0.0623402 -0.035524253 -0.080279104 -0.037882626 0.084605776
-0.08757236 0.06254837 0.004623579 -0.12299688 -0.09587584 0.11552988 0.016294368 0.081787735
0.041704375 -0.0019880645 0.16768 0.08596609 0.11211042 -0.096488446 -0.12253473 0.031887032
-0.057316512 0.13786292 -0.11876202 0.09013272 0.12892866 0.07978744 0.008660349 -0.14804213
-0.14024541 -0.09441275 -0.001680721 -0.0048237406 -0.06275755 0.10114942 0.14040048 0.13244006
0.02163434 0.12998557 0.14630589 0.13883081 -0.037698735 0.10252463 -0.036128234 -0.12515156
-0.082450904 -0.0550236 0.08283095 -0.07564823 0.10171649 0.101241246 0.0714325 -0.04105014

local2.norm.weight f4 [128]
00000000: 6436 793f fb4d 773f d4ee 763f e338 763f
00000010: 7718 6a3f ab2f 5a3f 4a24 7a3f 63e3 7a3f
00000020: 549b 683f f18a 923f a4e8 5d3f d772 5f3f
00000030: 7b69 683f 9aef 7f3f d6f2 6a3f 2987 503f
00000040: 7060 813f 9d72 663f 1eca 773f c37b 4c3f
00000050: 3366 5e3f 16eb 7a3f 80f3 793f 20e0 7c3f
00000060: 4286 6a3f 0532 6e3f 6164 663f 74cd 723f
00000070: 9968 423f 262b 743f 5d8d 673f 2963 763f
00000080: b323 703f 5cb0 633f 807e 823f 4351 6a3f
00000090: 6568 7c3f 778d 7f3f 7bf0 723f ea1b 773f
000000a0: d556 6f3f d5b1 7f3f 68aa 643f cec7 783f
000000b0: 9ea6 7a3f 4962 6a3f 3612 7d3f e1f5 5b3f
000000c0: f4d9 743f c935 6d3f d6c1 643f e1ff 973f
000000d0: 8419 6a3f 198b 6a3f 8a1d 863f 4ad9 723f
000000e0: d09d 783f 3824 6c3f 1e25 743f a62c 743f
000000f0: aee3 683f 8bc0 5c3f 3df5 7a3f fbe7 6c3f
00000100: c76d 6f3f 8ebe 823f 0043 6b3f a091 683f
00000110: efd7 683f 2b16 9a3f 1c59 783f 4467 613f
00000120: c4c7 8e3f c55b 713f 9ab9 6e3f 51c0 6d3f
00000130: 1544 5e3f 0639 633f a954 723f ad17 6a3f
00000140: e753 7b3f 4b37 6a3f 6746 803f dd38 643f
00000150: 5ef8 873f 37be 683f b2ad 823f 13c0 433f
00000160: ceee 713f d740 783f 5402 803f a5d1 673f
00000170: 8b40 6a3f 3d05 843f 4bba 703f c300 6e3f
00000180: 0df9 703f f5d2 5a3f b37e 653f 6f43 603f
00000190: 0167 753f 7075 423f e8bb 803f 8ff2 673f
000001a0: b81c 553f 82e3 863f 6cf0 793f c816 7c3f
000001b0: 3c46 623f 2a77 863f 3082 5c3f 992d 833f
000001c0: 18fe 883f 5049 6e3f 96fa 7c3f c438 623f
000001d0: 430c 7b3f 3b77 583f d8ec 843f d20f 893f
000001e0: 4639 6d3f cb69 733f 2223 763f 3728 603f
000001f0: aa05 6f3f a721 783f 4c2a 8b3f e5f2 783f
0.9734862 0.96603364 0.9645817 0.9618055 0.9144358 0.85228986 0.9771162 0.98003215
0.9086201 1.1448652 0.86683106 0.87284607 0.9078595 0.9997498 0.9177679 0.8145624
1.0107555 0.90018636 0.9679278 0.79876345 0.86874694 0.9801496 0.97637177 0.9877949
0.9161111 0.93045074 0.89996916 0.94844747 0.75940853 0.9537834 0.9045008 0.96245056
0.9380447 0.8894098 1.0194855 0.91530246 0.98596793 0.99825233 0.94898194 0.9652697
0.9349187 0.99880725 0.8932252 0.9717988 0.9791049 0.9155622 0.9885591 0.85922056
0.9564507 0.92660195 0.8935827 1.1874963 0.91445184 0.91618496 1.0477765 0.94862807
0.971158 0.92242765 0.95369136 0.9538063 0.9097241 0.862313 0.98030454 0.92541474
0.9352688 1.0214403 0.9189911 0.90847206 0.9095449 1.2038015 0.9701097 0.88048196
1.1154714 0.94280654 0.93251956 0.92871577 0.86822635 0.88758886 0.9466043 0.91442376
0.981749 0.9149062 1.0021485 0.89149266 1.0622671 0.90915245 1.0209258 0.76464957
0.9450501 0.9697394 1.000071 0.9055427 0.91504735 1.0314099 0.9403426 0.9296991
0.9413002 0.85478145 0.8964645 0.87602895 0.95860296 0.75960445 1.0057344 0.9060449
0.83246946 1.053818 0.9763248 0.9847226 0.8838842 1.0505116 0.8613615 1.024829
1.0702543 0.93080616 0.98819864 0.8836787 0.98065585 0.8455693 1.0384779 1.0707953
0.9266552 0.950833 0.9614736 0.87561363 0.9336802 0.9692635 1.0872283 0.9724563

local2.norm.bias f4 [128]
00000000: 4a86 15be 3fec 51bd 4dd0 c1bd fe23 d2bd
00000010: 9587 d6bd 4214 1cbe d824 e3bd 2e57 80bd
00000020: c617 debd e01e 24bd f94e 1bbe d198 01be
00000030: c256 c6bd 254c 8bbd 7573 04be 538e 2fbe
00000040: 4042 a5bd 22f9 e3bd 5818 5dbd 8dd7 68be
00000050: 032c 21be 6c82 9abd e48d 7dbd 9fef bbbd
00000060: bac2 f7bd 45a8 e3bd 5d0f efbd 10d5 94bd
00000070: 5595 84be d8eb a7bd 0e34 1ebe 4be4 aebd
00000080: 613f 92bd b815 aabd 1265 9dbd 7ae7 ebbd
00000090: 077b d5bd 195d 8ebc 344c d8bd 3b81 07be
000000a0: 5f1e bfbd 5863 81bd be41 3ebe a93f 23be
000000b0: 4380 efbd e00b edbd f4ab d7bd 4447 27be
000000c0: 1553 85bd 198b cfbd 7b44 44be 023c 5ebd
000000d0: ef4f 02be 66e9 1abd 736f e5bd 2716 f3bd
000000e0: 1441 85bd 5330 debd c735 cfbd a929 81bd
000000f0: 4b8e d8bd 8d9c 38be ba17 b1bd 834f e1bd
00000100: f352 07be e9ed 57bd 39f5 15be 4edc fbbd
00000110: 6cfa e7bd 9405 96bd ba7a c3bd 6520 0dbe
00000120: c385 adbd 0072 6dbd 3a15 d2bd e205 02be
00000130: f76d 17be 2927 14be ae5d aebd d663 efbd
00000140: ee9e a6bd 7d0c f0bd 0d18 a4bd 5430 16be
00000150: 325e c4bd cb1b c0bd 96ce 80bd d795 5ebe
00000160: a82a c9bd 1a5b 87bd dcc3 55bd 6438 05be
00000170: c1e0 c0bd bd91 c9bd e586 19be de49 cdbd
00000180: a4c4 06be ea74 23be 02c8 d3bd e26a fdbd
00000190: 164d a2bd a53e 6ebe 468a d6bd 2816 0abe
000001a0: 2574 0dbe bcc0 b1bd 6286 07be 94a2 ccbd
000001b0: b524 16be 1950 9cbd 9c3d 24be c7da cebd
000001c0: 2f49 5dbd 9f70 9abd de73 b5bd f7b9 2bbe
000001d0: 1faf 9bbd 5f38 1dbe c426 f8bd f1a3 bfbd
000001e0: b6e0 c2bd d349 a1bd 67f7 02be 52f6 3dbe
000001f0: a9fb b5bd 33d9 b3bd 701d 44bd d7a3 9cbd
-0.14602008 -0.051250692 -0.09463558 -0.10260771 -0.10475079 -0.15242103 -0.11091012 -0.06266628
-0.10844378 -0.040068507 -0.15166844 -0.12655951 -0.096845165 -0.06801633 -0.12934668 -0.17144136
-0.08069277 -0.11131503 -0.053978294 -0.22738476 -0.15739445 -0.07544407 -0.061902896 -0.091765635
-0.12097688 -0.11116079 -0.11672852 -0.07267201 -0.2589518 -0.081992805 -0.15449545 -0.08539637
-0.07140995 -0.08304924 -0.07685293 -0.1151876 -0.10423856 -0.017378377 -0.105614096 -0.13232891
-0.09331965 -0.063177764 -0.18579766 -0.15942253 -0.11694386 -0.115745306 -0.10530844 -0.1633578
-0.06509987 -0.10133953 -0.19166748 -0.054256447 -0.12725805 -0.037820242 -0.11202898 -0.118694596
-0.06506553 -0.10849061 -0.10117679 -0.06306774 -0.10574015 -0.1802847 -0.086471036 -0.11001494
-0.13215236 -0.052717123 -0.14644326 -0.12297879 -0.11327061 -0.07325283 -0.095448926 -0.13781889
-0.08472779 -0.057970047 -0.10257955 -0.12697557 -0.14788042 -0.14468063 -0.08513962 -0.11688964
-0.08135782 -0.11721132 -0.080124 -0.14666873 -0.09588279 -0.09380301 -0.06289403 -0.21736847
-0.09822589 -0.06609173 -0.05218874 -0.13009793 -0.094178684 -0.098422505 -0.14992864 -0.10023855
-0.1316095 -0.15962568 -0.10340883 -0.12373902 -0.07924859 -0.23266084 -0.10475592 -0.13485014
-0.13813837 -0.08679339 -0.13234857 -0.09991947 -0.1466244 -0.07632465 -0.16039127 -0.10100322
-0.05402487 -0.07541012 -0.088599905 -0.16770159 -0.07601761 -0.15353535 -0.12116769 -0.09357441
-0.095155165 -0.07875409 -0.12789689 -0.18550995 -0.08885891 -0.08781662 -0.047879636 -0.076484375

meso.Wq.weight f4 [128, 128]
00000000: 90f9 01bd b729 b9bd 32a2 40bd 6f74 1cbc
00000010: 0175 8f3d c058 aebd 35de 69bd 0a6d 7a3d
00000020: 4dc7 e73d 458a ef3d 056b a6bd 61a8 c23b
00000030: 825a 073d 5f65 6ebd 80cc 1ebc 14cd 963d
00000040: f9ab 11bd 8004 a8bb dd0d 523d 9c27 ae3c
00000050: 785a 6b3d c653 2bbd ecbc 22b9 d587 66bd
00000060: 74e7 3ebd c2bf 063e a558 033d 0f46 133e
00000070: 9531 04bd ffa6 043e c0eb b03d 2060 43bc
00000080: 263b c93d 64d6 cbbc 7940 15bd a796 cb3d
00000090: fdbe 27bd 125e 6e3e 6de5 723d a814 b53d
000000a0: 24ef 31bd f7f4 b3bd 32cf 19bd cccd c53c
000000b0: 63ce 2a3d 4311 ff3b 4478 eb3d 9e5c a53c
000000c0: 317c 9abd 688e e33d 94aa 5a3d a6d9 403d
000000d0: 5ad3 5f3d 3fd3 cb3c b355 4d3c e5c2 f63d
000000e0: d6b0 723d 1154 6dbd def3 b63c a4d1 633d
000000f0: 9150 52bd 0842 df3c 96a0 9e3d 4349 3abd
00000100: 477d d43c 4b14 adbb e536 be3d 620c dd3d
00000110: ea91 babc eac6 283b 4b85 27bb 82fc be3d
00000120: 9c71 45bd f23a 673d bb00 b03d 57fe b03d
00000130: 7800 c1bb f508 303d 4434 56ba 1e85 a2bc
00000140: d331 ca3d bbe6 3a3e 58ac 79bb 6664 bdbc
00000150: 3388 0d3d 5ae5 c4bc 4ffe 843c 45ff 9a3d
00000160: 7587 dc3d 7630 afbc 77f6 5f3d 1c6a c2bd
00000170: 4058 503d cd72 013d 1a5b 99bd ad73 fd3a
00000180: b021 8dbb 1fe5 c53c c24e bdbd e280 883d
00000190: 6f08 4ebd 05eb 0cbb eb66 e0bd 8f40 15bd
000001a0: 3087 713d 37cf 643d ca55 933d ce32 363c
000001b0: 7e10 0e3d 0511 aa3d 46a4 1c3b 8af4 efbd
000001c0: 2b18 ecbd 3838 ad3d 442b 40bc 1699 e43c
000001d0: cbcf f13d 100e 4cbd 2b77 b8bd 516c d1bc
000001e0: f2df 283d 162b 913d c054 e9bc f5df c9bd
000001f0: 3ad3 fb3c ed6e 76bd 2306 e1bc d968 77bd
00000200: 33da 313d e889 5e3d 559c 15bd b353 acbd
00000210: 2eef b03d 7f20 69bd 52eb b0bd 8ee8 b1bd
00000220: e87a 563c 83fb cc3b a9b6 7d3c d858 d83d
00000230: 6609 f2bc 509a 2ebe 39b8 ef3a 7066 753d
00000240: b679 d33c 3751 25bd 2da4 2e3c bdc0 a03c
00000250: 7d7b 80bc b4ed 1d3e ec94 71bd 0c71 433d
00000260: 48fd 53bc d915 5e3d 8607 d23d 2717 63bc
00000270: 0707 94bd e691 b9bd 40e2 d0bd e4da 9bbb
00000280: 33a3 603d 896c 9f3d 15a7 d83d 84ae fd3c
00000290: cc11 a1bb 57fa e43d 213a 963d 7907 08bc
000002a0: 55f7 24bd d4b7 b1bd 55ef a33d a186 04bd
000002b0: 58af 12be 7d7e 583d 487f 853c 43ee 55bc
000002c0: 0935 933c b052 913d eae0 97bd 945c 383e
000002d0: 191a 983c af02 033c d745 d83d 0851 343e
000002e0: ef8e 763d 252a 99bc 7a31 a83d d404 363d
000002f0: 9f0f 9fbd 5805 bdbd 48c8 283e 29a6 29bd
00000300: 3593 89bd aa6e 0dbd aec4 273d afc9 66bd
00000310: e2bd 8c3d 3765 f0bd d4e4 d3bd 6b3d 94bd
00000320: 3151 3dbd 7eed b3bc 54d8 5c3d d285 a2bd
00000330: ee62 063e 6e9e 4a3c 6476 423d 9c54 98bd
00000340: 7ed1 a23c 6e92 3c3b 1184 d23c 19c0 353c
00000350: 8ee4 0bbe de8b b2bc 0da2 91bd 1c9b 923d
00000360: 1101 3c3d 2d8e 513d 69be 033e bd31 e5bd
00000370: f24b 863c a392 c13d 6904 abbc 2612 1cbc
00000380: 4745 993d 0b62 c2bc 63ed c6bd 3ab6 5c3d
00000390: a126 b63c b5f6 963c 55fc 27bd d498 6bbd
000003a0: 29aa e4bc 6e9b 993c 9e27 abbd 777b 433d
000003b0: 9f7c 233d 5048 0a3e 986b 8a3d f7d1 14be
000003c0: ee85 283d aebb da38 ae11 aa3d 0e05 bc3d
000003d0: 8372 5b3d 56fb 53bd 5d9e 1cbe ec8b 21bd
000003e0: bd43 563d 265f 273d f113 243d fc51 e1bc
000003f0: 0b7d d43a b558 f4bd cc9a b83d af93 91bc
-0.031732142 -0.090411596 -0.04702968 -0.009549244 0.070047386 -0.085130215 -0.05709668 0.061139144
0.113173105 0.11696295 -0.08125881 0.0059404825 0.0330453 -0.058202144 -0.009692311 0.07363334
-0.035564397 -0.0051274896 0.051282752 0.021259122 0.057459325 -0.04182794 -0.00015519903 -0.056281883
-0.04660745 0.13159087 0.03206696 0.14382194 -0.032273848 0.12954329 0.08638716 -0.011924773
0.09825735 -0.024882503 -0.03643844 0.09940844 -0.040953625 0.23278072 0.05930083 0.088418305
-0.043440953 -0.08786958 -0.037551112 0.024145983 0.041700732 0.00778404 0.11497548 0.020185765
-0.07543219 0.11111146 0.053385332 0.047082566 0.05464492 0.024881003 0.012532639 0.12048892
0.059250675 -0.0579415 0.022333082 0.05561985 -0.051346365 0.027253166 0.07745473 -0.045480024
0.025938643 -0.00528196 0.09287814 0.107933775 -0.022774655 0.0025753328 -0.0025561627 0.09325506
-0.04820405 0.0564527 0.08593889 0.086422615 -0.0058899485 0.042977292 -0.00081712403 -0.019838866
0.098727845 0.18252079 -0.003809711 -0.023119163 0.034553718 -0.024035145 0.016234545 0.0756822
0.10768024 -0.021385413 0.054678407 -0.09492895 0.05086541 0.031603623 -0.07488079 0.0019336842
-0.0043069944 0.024157105 -0.092435375 0.066652074 -0.05030101 -0.0021502387 -0.1095713 -0.03643852
0.058966815 0.055861678 0.07194097 0.011120511 0.034683697 0.083040275 0.0023901626 -0.11716564
-0.11528047 0.084579885 -0.011729065 0.027905028 0.118072115 -0.0498181 -0.090071045 -0.025564345
0.041229196 0.07088296 -0.028482795 -0.098571695 0.03074037 -0.06016438 -0.027468747 -0.060402725
0.04342098 0.054330736 -0.036526043 -0.08414402 0.0863937 -0.056915756 -0.08638634 -0.086869344
0.013090827 0.0062555685 0.015485444 0.105638206 -0.029545497 -0.17051053 0.0018289156 0.059912145
0.025814872 -0.040360656 0.01065926 0.019623155 -0.015683884 0.15422708 -0.058979914 0.04771523
-0.012938805 0.054220054 0.10255341 -0.0138605 -0.07227903 -0.09061031 -0.10199404 -0.0047563184
0.05484314 0.07784373 0.10578743 0.030967005 -0.0049154516 0.11180561 0.07335306 -0.008302563
-0.040274937 -0.086776406 0.08004633 -0.032354955 -0.14324701 0.052855004 0.016296044 -0.013057294
0.017969625 0.070958495 -0.07415946 0.18004066 0.018567132 0.007996245 0.10560196 0.17609036
0.060194906 -0.018696854 0.08212562 0.0444382 -0.07766651 -0.09229535 0.16482651 -0.04141823
-0.06717531 -0.034529366 0.040959053 -0.056344684 0.06872155 -0.11738055 -0.1034638 -0.07238277
-0.04622001 -0.021963831 0.053917244 -0.079356804 0.13123676 0.012366874 0.047476187 -0.07438013
0.019875284 0.0028773802 0.02569774 0.011093163 -0.13661405 -0.02179521 -0.07110987 0.07158491
0.045899455 0.05116098 0.12865604 -0.111911274 0.016393635 0.09451797 -0.020876126 -0.009525811
0.07483917 -0.023728391 -0.09713247 0.053884722 0.022235217 0.018428186 -0.041012127 -0.057518795
-0.02791317 0.018750872 -0.08357166 0.047725167 0.03991377 0.13504148 0.06758803 -0.1453322
0.04114335 0.00010430008 0.083041534 0.091806516 0.053576004 -0.051753365 -0.15294786 -0.03944008
0.052310694 0.040862225 0.04005808 -0.027504914 0.0016211582 -0.11930982 0.090139 -0.017770616
