models/eeg_only/s_05.pt (torch, 561186 bytes, 37 tensors)

band_attn.fc1.weight f4 [8, 5]
0.014558445 -0.031722043 0.05088033 0.44112223 0.28680646 0.36382845 -0.23316082 -0.3083115
-0.11437759 0.061407767 -0.2953406 -0.23430371 -0.09790203 0.32765165 -0.49553144 -0.55339664
0.272244 0.08393251 -0.109803416 0.35209104 0.049190007 0.46833056 0.24243364 0.18079884
0.37063757 0.032353427 -0.22063856 0.25964275 -0.34130165 0.19289768 -0.14971837 0.18624939
-0.31103906 -0.16363671 0.08371633 0.12684946 0.20979273 0.4315104 -0.14525825 0.04031319
00000000: 8b86 6e3c f9ee 01bd e567 503d c6da e13e
00000010: 4cd8 923e b947 ba3e b6c1 6ebe 01db 9dbe
00000020: cc3e eabd b686 7b3d e236 97be 50ed 6fbe
00000030: dc80 c8bd f5c1 a73e 4cb6 fdbe 67ab 0dbf
00000040: 9163 8b3e cfe4 ab3d 9de0 e0bd 4745 b43e
00000050: 767b 493d 06c9 ef3e 8640 783e 5523 393e
00000060: 35c4 bd3e 0785 043d 13ef 61be e5ef 843e
00000070: 17bf aebe f886 453e c64f 19be 29b8 3e3e
00000080: 8340 9fbe 6290 27be 7873 ab3d d3e4 013e
00000090: e8d3 563e eeee dc3e 94be 14be 721f 253d

band_attn.fc1.bias f4 [8]
-0.41343388 0.32761756 0.22378314 0.022440437 0.056484558 -0.37651274 0.057019506 -0.2508612
00000000: 9bad d3be 7dbd a73e 6827 653e 02d5 b73c
00000010: 5a5c 673d 47c6 c0be 498d 693d e170 80be

band_attn.fc2.weight f4 [5, 8]
0.11280344 -0.017854802 0.3113692 -0.13353895 0.3038303 -0.101649545 -0.1494373 0.27823788
-0.33712375 0.09813636 0.14768332 -0.26478192 0.19893165 0.19808501 0.2756596 0.37191513
-0.14433509 -0.26875564 -0.22961316 -0.21935622 -0.10628604 -0.12162018 0.2101537 0.22005475
-0.15170905 0.036516882 -0.21863747 0.26928097 -0.025700346 0.3104188 0.13920972 -0.31013167
-0.11812934 -0.044855814 0.022251459 0.08652483 -0.2543368 0.20565838 0.087458566 -0.4013812
00000000: 7d05 e73d 3c44 92bc c96b 9f3e 6fbe 08be
00000010: a58f 9b3e a32d d0bd 1706 19be 3275 8e3e
00000020: 7c9b acbe b7fb c83d 4c3a 173e 7f91 87be
00000030: bdb4 4b3e ccd6 4a3e 4123 8d3e a96b be3e
00000040: 94cc 13be 579a 89be b61f 6bbe eb9e 60be
00000050: 7fac d9bd 0014 f9bd 8832 573e 0856 613e
00000060: 9e59 1bbe ba92 153d 80e2 5fbe 32df 893e
00000070: 8889 d2bc 37ef 9e3e fe8c 0e3e 94c9 9ebe
00000080: cced f1bd bbba 37bd b148 b63c ee33 b13d
00000090: 6f38 82be 1c98 523e 7a1d b33d d681 cdbe

band_attn.fc2.bias f4 [5]
-0.1289408 0.31718993 -0.27927023 0.2816666 0.014533295
00000000: 0f09 04be b866 a23e 82fc 8ebe 9b36 903e
00000010: 0f1d 6e3c

feat_proj.weight f4 [128, 21]
-0.04587609 0.05720941 -0.08746813 0.07691223 0.087407544 0.062838286 0.16227715 -0.16853851
0.212218 -0.14210062 -0.2065092 0.23496011 0.21040604 0.036795825 0.15099196 -0.056429442
0.12352104 -0.14930645 0.06977439 0.09843603 -0.04508283 -0.029272493 0.07853378 0.09099464
0.14446491 0.17163023 0.097309336 -0.0018109514 -0.131184 -0.12048728 0.05956139 0.011086556
-0.10335398 -0.11956855 0.06205189 -0.16053869 0.12024362 -0.21667022 0.16815552 0.22006962
0.11269684 -0.096222766 -0.053277463 0.18617068 0.077270426 -0.015373498 0.21906278 -0.0681352
-0.19669971 0.19874704 -0.11757809 -0.0063382387 -0.054606732 -0.14034733 -0.048171364 0.12806666
-0.14093234 -0.16491252 0.20269802 0.208123 0.19725376 0.05534015 0.011466953 -0.19355752
0.1309189 0.20891242 -0.07199642 -0.016664146 0.0053989147 0.11097941 0.06689523 0.04489493
0.14725281 0.1820815 -0.16021574 -0.034438778 0.13872135 0.16514342 -0.2099754 0.15851523
-0.18458459 -0.121957235 -0.20859455 -0.09391974 -0.11792138 -0.0692033 0.116273284 0.11088401
0.17447019 0.02811063 0.077924944 0.032812018 -0.18772754 -0.16577816 0.072363734 0.071854785
-0.02192292 -0.0021151586 -0.20269538 -0.06599871 0.1199987 0.13369125 0.1187304 0.09067462
-0.14561561 -0.045176018 -0.10355823 -0.16413961 -0.009783796 -0.116403356 -0.18400581 -0.10127095
0.15924397 0.11783149 0.05736547 0.003874116 -0.15426506 0.058548767 0.06906384 0.20632653
0.25295556 -0.11078319 0.14985625 0.17808428 0.18281831 -0.06985935 0.03630231 0.22623529
0.13237365 0.11895563 0.18088157 -0.18924534 -0.14943627 -0.14242627 -0.13856539 -0.0079613915
0.20980106 0.13155703 0.074919105 0.06261967 0.0037715582 0.23651963 0.1972382 -0.19636603
-0.005627657 -0.046886023 0.05418163 0.031676248 0.23780163 0.12886183 -0.025990782 -0.153828
0.18371408 0.1096092 -0.09607458 0.06001595 0.068453416 0.052201103 -0.03463507 -0.08655041
0.032818537 0.19443828 0.10576999 -0.019658698 -0.039854843 -0.14080769 0.14486663 -0.040195525
-0.01330693 0.19262484 -0.03120207 -0.087101154 0.20347871 0.05610296 0.0069547994 -0.008824492
-0.024662998 0.18447687 -0.08676117 -0.034788612 0.0008199958 0.016595792 -0.15841109 -0.16395584
-0.0743154 0.00606576 -0.15563622 0.17095114 -0.14578763 -0.004114079 0.18816552 -0.14182205
-0.18023154 -0.1144422 0.010685771 -0.18254937 0.1669207 0.18236677 -0.15355213 -0.1720115
0.059237733 -0.15661128 0.19658083 0.112036556 -0.012849273 -0.12814522 0.048131514 -0.17157066
-0.030705178 0.015273403 0.0013112917 -0.23757087 -0.032555137 -0.035319634 -0.17754161 0.054499745
-0.0060442197 0.16321468 -0.16992396 -0.04530307 0.079677835 -0.07726409 -0.13516162 -0.16725518
0.14563818 -0.18205693 -0.1277401 -0.21236515 -0.16276905 -0.028361436 0.12949866 0.1563961
-0.10328207 -0.084902 -0.1805323 -0.056939453 0.16925302 -0.0101642255 -0.02983683 -0.1331532
-0.07456002 0.18787274 -0.011130218 0.06653836 0.07028714 -0.08127799 -0.1384563 -0.14992662
-0.007999686 -0.11145751 0.104447775 -0.085699774 0.0896337 0.23702507 0.22383732 0.10732289
00000000: 91e8 3bbd 6a54 6a3d 7e22 b3bd 2984 9d3d
00000010: ba02 b33d 5cb1 803d fb2b 263e 5c95 2cbe
00000020: ad4f 593e d382 11be 2677 53be 6299 703e
00000030: ae74 573e 38b7 163d a39d 1a3e 8f22 67bd
00000040: 99f8 fc3d cae3 18be e0e5 8e3d d498 c93d
00000050: c6a8 38bd decc efbc 52d6 a03d 665b ba3d
00000060: 9cee 133e d6bf 2f3e 1e4a c73d 725d edba
00000070: 1955 06be 09c2 f6bd a5f6 733d 63a4 353c
00000080: 40ab d3bd 5be0 f4bd 1f2a 7e3d 4164 24be
00000090: 4942 f63d ccde 5dbe f630 2c3e ee59 613e
000000a0: 9acd e63d 7110 c5bd 7839 5abd 87a3 3e3e
000000b0: f53f 9e3d 20e1 7bbc fe51 603e 788a 8bbd
000000c0: a66b 49be 5884 4b3e c8cc f0bd 00b1 cfbb
000000d0: 4fab 5fbd 36b7 0fbe 564f 45bd e823 033e
000000e0: 9150 10be d4de 28be 1290 4f3e 321e 553e
000000f0: e4fc 493e 5aac 623d e3df 3b3c f133 46be
00000100: 9b0f 063e 23ed 553e dc72 93bd 3f83 88bc
00000110: 61e9 b03b 2c49 e33d 5e00 893d bfe3 373d
00000120: 71c9 163e 9373 3a3e 980f 24be ad0f 0dbd
00000130: f80c 0e3e 5b1b 293e cb03 57be d151 223e
00000140: be03 3dbe b7c4 f9bd cf99 55be fe58 c0bd
00000150: c480 f1bd 76ba 8dbd b020 ee3d 2817 e33d
00000160: 50a8 323e 4448 e63c 1d97 9f3d e565 063d
00000170: a63b 40be c0c1 29be 7033 943d 9a28 933d
00000180: b297 b3bc 799e 0abb 618f 4fbe 552a 87bd
00000190: e1c1 f53d 5ce6 083e ed28 f33d 9db3 b93d
000001a0: 421c 15be 7d0a 39bd 5616 d4bd 3714 28be
000001b0: 374c 20bc e264 eebd 056c 3cbe 2567 cfbd
000001c0: da10 233e a351 f13d 0ef8 6a3d e2e4 7d3b
000001d0: a9f7 1dbe d5d0 6f3d 5871 8d3d 4347 533e
000001e0: 6483 813e 4ce2 e2bd eb73 193e ba5b 363e
000001f0: b934 3b3e 6b12 8fbd bbb1 143d 39aa 673e
00000200: f58c 073e 029f f33d 0539 393e 88c9 41be
00000210: d205 19be 31d8 11be 16e4 0dbe 7f70 02bc
00000220: 17d6 563e e3b6 063e 306f 993d be3e 803d
00000230: 3f2c 773b 3432 723e d0f8 493e 2d14 49be
00000240: 3568 b8bb 8f0b 40bd 8fed 5d3d f4be 013d
00000250: 4582 733e 5bf4 033e 9fea d4bc 1685 1dbe
00000260: 8b1f 3c3e ca7a e03d c0c2 c4bd 49d3 753d
00000270: 4e31 8c3d d3d0 553d 81dd 0dbd 5741 b1bd
00000280: bb6c 063d d41a 473e f09d d83d 470b a1bc
00000290: d53e 23bd e42f 10be eb57 143e 10a4 24bd
000002a0: 4f05 5abc 723f 453e 7c9b ffbc 1762 b2bd
000002b0: b95c 503e 38cc 653d 16e5 e33b 9a94 10bc
000002c0: 0e0a cabc 81e7 3c3e d7af b1bd 817e 0ebd
000002d0: fdf4 563a e6f3 873c 8436 22be 0ae4 27be
000002e0: ac32 98bd 48c3 c63b 1a5f 1fbe d10d 2f3e
000002f0: 5a49 15be 65cf 86bb 76ae 403e cd39 11be
00000300: 9e8e 38be ac60 eabd 5f13 2f3c 39ee 3abe
00000310: 43ed 2a3e 5bbe 3a3e c53c 1dbe c823 30be
00000320: 44a3 723d b55e 20be 7c4c 493e 6c73 e53d
00000330: c285 52bc 8038 03be 8d25 453d 38b0 2fbe
00000340: 6d89 fbbc 4c3d 7a3c a6df ab3a c745 73be
00000350: 8958 05bd 52ab 10bd 78cd 35be 203b 5f3d
00000360: 970e c6bb c021 273e 8c00 2ebe b68f 39bd
00000370: 222e a33d a33c 9ebd cf67 0abe f144 2bbe
00000380: 2d22 153e 226d 3abe 4dce 02be 4076 59be
00000390: eeac 26be 3e56 e8bc 4c9b 043e 4d26 203e
000003a0: 8d85 d3bd 1ae1 adbd 76dd 38be 5839 69bd
000003b0: aa50 2d3e da87 26bc 5e6c f4bc 5059 08be
000003c0: ecb2 98bd b661 403e 855b 36bc 4445 883d
000003d0: b4f2 8f3d 1375 a6bd 7dc7 0dbe 5d86 19be
000003e0: 1d11 03bc d643 e4bd b7e8 d53d 5d83 afbd
000003f0: e091 b73d b3b6 723e 9c35 653e 1acc db3d

feat_proj.bias f4 [128]
0.11389481 -0.113986425 0.029110042 0.017054474 0.15403135 0.12972519 0.07840063 -0.15453851
0.16591322 0.101184145 0.038781296 0.15224701 -0.15683696 -0.038609833 -0.032562952 -0.035012443
0.039559998 0.09530064 0.03851313 0.005955629 0.15102184 0.12435292 -0.028074997 -0.17178951
0.03437654 -0.013773075 -0.14290993 0.19985671 -0.114576295 0.050982956 0.055243615 0.009189745
0.11592111 0.17509995 0.1510137 0.19590808 -0.11023619 0.07545349 0.10766359 0.13292325
0.0050164172 -0.11169084 -0.16465531 0.19376609 0.05010686 0.18714653 0.03682229 -0.087882265
0.1537422 0.117710315 0.17075719 0.108512826 0.09526096 -0.10773201 -0.09491513 0.07232723
-0.10250295 0.15116706 -0.05858358 -0.009412676 -0.001993053 -0.19330318 -0.10185197 0.15750562
-0.123194546 -0.09749271 -0.19698709 -0.07346399 0.12630364 0.006526475 0.15272744 0.012762276
0.17464702 -0.07714304 0.06988046 -0.048987873 0.11952385 0.023189327 -0.17940336 0.044161826
0.19450906 -0.10921184 0.17336546 0.10695266 -0.11475908 -0.108107634 0.1094921 -0.20131375
-0.11709983 -0.048459347 0.05784101 0.09948848 -0.20155925 -0.05060961 0.15665767 -0.09726353
-0.0067622224 0.14254437 0.07693416 -0.08796273 0.1772438 0.048023246 -0.096036926 0.04830071
-0.015764408 -0.16191502 0.18238504 0.02466874 0.15593053 0.0058831973 -0.123124324 -0.038629483
-0.015489997 -0.111790046 0.027696904 -0.06683041 0.16426392 0.1655608 -0.10399868 0.19347903
0.1695723 -0.061535858 0.19686817 -0.1730995 -0.14844905 -0.21264857 -0.028360797 -0.0025189335
00000000: af41 e93d b771 e9bd 2f78 ee3c d3b5 8b3c
00000010: 65ba 1d3e aed6 043e 8290 a03d 583f 1ebe
00000020: 28e5 293e a239 cf3d 23d9 1e3d a4e6 1b3e
00000030: de99 20be 5825 1ebd bb60 05bd 3569 0fbd
00000040: aa09 223d fb2c c33d f2bf 1d3d 7027 c33b
00000050: 78a5 1a3e beac fe3d 89fd e5bc 97e9 2fbe
00000060: 6ace 0c3d 77a8 61bc fb56 12be 3da7 4c3e
00000070: faa6 eabd 81d3 503d 2147 623d 9690 163c
00000080: 0c68 ed3d 674d 333e 56a3 1a3e 219c 483e
00000090: 83c3 e1bd 5c87 9a3d ba7e dc3d 081d 083e
000000a0: c260 a43b 2bbe e4bd 679b 28be 9e6a 463e
000000b0: da3c 4d3d 57a3 3f3e f8d2 163d 9efb b3bd
000000c0: 986e 1d3e 1b12 f13d f9da 2e3e f93b de3d
000000d0: 2e18 c33d 9aa2 dcbd dd62 c2bd 4c20 943d
000000e0: 11ed d1bd 8acb 1a3e 56f5 6fbd a037 1abc
000000f0: e19d 02bb 45f1 45be c497 d0bd 2749 213e
00000100: 6c4d fcbd 42aa c7bd fcb6 49be 4a74 96bd
00000110: be55 013e 0adc d53b 9564 1c3e de18 513c
00000120: abd6 323e 2cfd 9dbd 7d1d 8f3d 82a7 48bd
00000130: ecc8 f43d 8bf7 bd3c 84b5 37be 08e3 343d
00000140: 622d 473e 75aa dfbd b786 313e ff09 db3d
00000150: cf06 ebbd 8967 ddbd 653d e03d 3125 4ebe
00000160: 09d2 efbd 4f7d 46bd b2ea 6c3d 9ec0 cb3d
00000170: 8c65 4ebe 064c 4fbd de6a 203e 1a32 c7bd
00000180: a295 ddbb 27f7 113e a88f 9d3d ce25 b4bd
00000190: 667f 353e 06b4 443d 02af c4bd f7d6 453d
000001a0: 5c24 81bc 0dcd 25be 25c3 3a3e 1916 ca3c
000001b0: 41ac 1f3e d6c7 c03b 9b28 fcbd f339 1ebd
000001c0: c2c9 7dbc 2ef2 e4bd 9ee4 e23c 62de 88bd
000001d0: cd34 283e c588 293e 43fd d4bd 5e1f 463e
000001e0: 5ca4 2d3e 060d 7cbd cf97 493e ff40 31be
000001f0: 0703 18be 8cc0 59be e754 e8bc b114 25bb

local1.conv.bias f4 [128]
-0.0025042756 -0.004007404 -0.009484308 0.00057063357 -0.00012533076 -0.0040455027 -0.0028363557 0.003818767
-0.008078462 -0.00077883946 0.006095131 0.0018165094 -0.0059542456 0.0068573128 -0.007847321 -0.0019676234
-0.009536889 0.010463661 -0.008464191 0.001544405 0.014482773 -0.0048630605 -0.0006200033 0.0051011555
0.0022121584 -0.0019156274 0.00029729845 0.00078352133 -0.0029263673 0.0013392643 0.028610732 0.0017233347
0.0063000848 -0.008277246 -0.0045322785 -0.0034803317 -0.0037365158 0.002930454 0.0025945457 -0.002544783
-0.007227158 0.011750464 0.0023115994 0.00862208 -0.00044734962 0.009519876 0.0029018226 -0.0054750456
0.015005485 -0.009466725 0.022574352 0.00157833 0.0007685548 -0.0020255398 0.0021752277 0.0014305748
-0.008503315 0.0005463417 -0.004828564 0.0087455325 0.0028993182 -0.01321563 0.0034923074 0.009242189
-0.0028231943 -0.0016887833 -0.0065253195 0.010695652 -0.007384767 0.00072296226 0.0017838462 0.00025158192
0.009569636 -0.0054934775 -0.00012863163 0.0025597417 0.003928979 0.018967723 0.00012833836 0.0014692263
0.016344646 0.005598585 0.0067015495 -0.0012397594 -0.0006114796 -0.005697516 0.009669071 -0.0008893863
0.0070405295 0.004416281 -0.009106467 0.0042127753 0.0024401317 -0.012533292 -0.012563944 -0.0036223598
0.0016178797 -0.0012352958 0.003753102 0.005439103 -0.0044356156 0.005452582 0.0075602215 0.002332706
-0.001976534 -0.0059913574 0.0069692903 0.013574816 0.010753397 -0.0044749016 -0.0073607657 -0.0033187296
0.0023072944 0.010413807 0.010758339 0.021099143 0.009586678 0.003163461 -0.00020283804 -0.0027718907
0.003961087 -0.0065344963 0.005315132 -0.0037829187 -0.0034773536 0.0005899908 0.017466411 -0.005588876
00000000: c61e 24bb 8b50 83bb 1264 1bbc 9296 153a
00000010: 386b 03b9 2390 84bb 27e2 39bb 4744 7a3b
00000020: 875b 04bc 082b 4cba aab9 c73b f117 ee3a
00000030: d51b c3bb 4fb3 e03b 0d92 00bc 3ef3 00bb
00000040: 9d40 1cbc c66f 2b3c 64ad 0abc a26d ca3a
00000050: 2749 6d3c 4f5a 9fbb b887 22ba 9827 a73b
00000060: dcf9 103b ca15 fbba b9de 9b39 3a65 4d3a
00000070: 4cc8 3fbb 418a af3a 0e61 ea3c 84e1 e13a
00000080: f170 ce3b 499d 07bc 8283 94bb 4716 64bb
00000090: 55e0 74bb dc0c 403b 4109 2a3b 60c6 26bb
000000a0: ccd1 ecbb 0585 403c 347e 173b a043 0d3c
000000b0: 408a eab9 41f9 1b3c 812c 3e3b 0368 b3bb
000000c0: 91d9 753c 531a 1bbc d9ed b83c f7df ce3a
000000d0: d778 493a ebbe 04bb 448e 0e3b 2082 bb3a
000000e0: 7d51 0bbc 5f38 0f3a ee38 9ebb 6c49 0f3c
000000f0: 7d02 3e3b 5f86 58bc 32df 643b 8d6c 173c
00000100: 5705 39bb 2a5a ddba 59d2 d5bb d13c 2f3c
00000110: eafb f1bb 2d85 3d3a f2cf e93a c1e6 8339
00000120: f6c9 1c3c a102 b4bb 4ae1 06b9 57c1 273b
00000130: aabe 803b 3362 9b3c 9192 0639 0e93 c03a
00000140: 35e5 853c 5674 b73b ac98 db3b 6c7f a2ba
00000150: b44b 20ba 3ab2 babb 066b 1e3c b425 69ba
00000160: 3eb4 e63b 73b6 903b 4a33 15bc 520b 8a3b
00000170: 9eea 1f3b 7058 4dbc 00d9 4dbc 1d65 6dbb
00000180: 090f d43a a6e9 a1ba 9af6 753b 813a b23b
00000190: a458 91bb 93ab b23b bcbb f73b 50e0 183b
000001a0: bd88 01bb 2653 c4bb a55e e43b e868 5e3c
000001b0: 042f 303c 32a2 92bb 9432 f1bb 0b7f 59bb
000001c0: fa35 173b ac9e 2a3c bf43 303c 1cd8 ac3c
000001d0: 7111 1d3c 1252 4f3b ecb0 54b9 9ca8 35bb
000001e0: 02cc 813b 541f d6bb 8f2a ae3b d8ea 77bb
000001f0: 50e4 63bb 9da9 1a3a b815 8f3c e422 b7bb

local1.conv.lin.weight f4 [128, 128]
0.13421366 -0.012678214 -0.01808118 0.11315607 0.12282259 -0.017869012 -0.1321729 0.13439481
-0.1121785 -0.008748811 -0.10776148 0.089363374 -0.04211347 -0.019039905 0.04218746 0.07594483
0.1291752 0.05295809 -0.1265291 -0.09482015 -0.14055559 -0.016897902 -0.10842854 -0.057861354
-0.0733532 -0.15332063 0.10900937 -0.1449875 -0.05588229 -0.07646101 -0.11940582 -0.09120592
0.026369058 -0.041922886 -0.020922001 0.09759269 0.110420644 0.03840281 -0.1142163 -0.043879982
0.13769099 0.055673115 0.1247041 0.022852449 0.047796965 0.09707339 0.061004292 0.12816338
0.09114588 -0.106618024 -0.028447319 0.06312312 -0.03409272 -0.096873164 -0.036572356 0.12218599
0.09911013 0.083816186 -0.05883876 -0.14545323 -0.003717299 -0.11823935 -0.03213891 0.003805589
0.025483808 -0.04140702 -0.024806555 -0.012911383 -0.024935968 -0.020393314 0.0297146 0.07000741
0.012796639 0.03146469 0.0352309 -0.0116856145 0.034990944 -0.14005567 -0.013829108 0.0544557
0.023879793 -0.034540452 0.12115092 -0.034747753 0.09595494 0.0049774493 -0.11633711 0.021111188
0.06658517 0.02815084 0.12915443 0.072075434 0.087550625 -0.09571515 -0.13346258 -0.046477042
0.050116807 -0.029205186 -0.10182585 0.11566 0.0035009237 0.05885771 0.08715344 0.08378153
-0.08383611 -0.1220229 0.072973736 0.062590376 0.14133848 0.13697995 -0.115936466 0.03497275
-0.033879977 0.07195183 0.08875913 0.0191299 -0.0058526266 0.08253682 0.02442597 -0.12723887
0.12387568 -0.13646807 0.16412626 -0.13795881 0.03375326 0.017838081 -0.03526697 -0.03924114
-0.032514088 -0.13863279 0.05172243 0.016802689 -0.11150121 -0.078023486 0.12624826 0.04129687
0.02273926 0.07569968 -0.1387983 0.12971067 -0.09421855 -0.075086296 -0.124919 -0.0642776
0.07524081 0.051760446 0.062218253 -0.022614138 -0.15533748 0.07572256 0.071001306 -0.042887576
-0.12942535 -0.07713752 -0.05190386 -0.09585865 0.14730422 0.021984097 0.05334702 -0.063491575
0.04871944 -0.13136365 -0.11030697 -0.103899375 -0.15908593 -0.09907761 0.0013330586 0.16143565
0.15014844 -0.092567414 0.1404517 0.008366712 0.0016579101 0.031208502 -0.012968294 -0.031407163
0.10546084 -0.066727124 -0.080610864 -0.042745765 0.041996513 0.14527749 0.1436893 -0.13708948
0.1568858 0.12168257 0.14043306 -0.1295084 -0.10205127 0.08924096 -0.16465102 -0.012131029
-0.12917227 -0.14111875 0.11106834 0.08752866 0.029382586 0.12524098 -0.030874215 -0.116893776
0.098081216 -0.038135253 -0.07407812 -0.038629774 0.11656319 0.088972434 -0.05824243 -0.051949803
-0.06502124 -0.06272131 0.1145925 0.0027745476 -0.043772813 0.08439073 -0.0051977425 -0.11945613
-0.104751416 -0.05589458 -0.038561773 -0.023593755 -0.13033551 0.11568871 -0.12022384 0.10718847
-0.07753575 0.1435812 -0.05757308 0.024573518 -0.022200832 -0.0066919774 0.13369577 0.050336234
0.04989816 0.10557168 -0.13126524 -0.045348383 0.044101022 -0.14964499 0.031904686 -0.010568234
-0.0192182 0.07230922 0.07805456 -0.10797805 0.107040964 -0.048098415 0.00381998 0.05061798
-0.038342543 0.09204982 -0.013243876 0.029749902 -0.14178386 -0.04657259 0.105206706 0.031329416
00000000: 4e6f 093e 49b8 4fbc fc1e 94bc 5fbe e73d
00000010: 698a fb3d 0962 92bc 5558 07be cb9e 093e
00000020: d7bd e5bd 2c57 0fbc 0db2 dcbd 2504 b73d
00000030: 2d7f 2cbd 93f9 9bbc c2cc 2c3d f788 9b3d
00000040: 8146 043e 95ea 583d d890 01be 1131 c2bd
00000050: ceed 0fbe 786d 8abc c80f debd 0700 6dbd
00000060: 343a 96bd 1500 1dbe 4e40 df3d 9a77 14be
00000070: d4e4 64bd 9797 9cbd 0a8b f4bd 2bca babd
00000080: ec03 d83c 55b7 2bbd 9e64 abbc adde c73d
00000090: 3824 e23d 444c 1d3d 3cea e9bd 7fbb 33bd
000000a0: defe 0c3e 7e09 643d dd64 ff3d 0f35 bb3c
000000b0: c0c6 433d 6ace c63d a3df 793d 433d 033e
000000c0: b1aa ba3d 8d5a dabd 5a0a e9bc b246 813d
000000d0: cfa4 0bbd 7065 c6bd e5cc 15bd a63c fa3d
000000e0: 40fa ca3d d2a7 ab3d e900 71bd b1f1 14be
000000f0: ee9d 73bb 7927 f2bd 17a4 03bd 3067 793b
00000100: 6bc3 d03c 689a 29bd 1e37 cbbc 448a 53bc
00000110: 8446 ccbc e10f a7bc 086c f33c 0c60 8f3d
00000120: ffa8 513c 1ee1 003d 474e 103d 0575 3fbc
00000130: aa52 0f3d c16a 0fbe 7c93 62bc f10c 5f3d
00000140: 8e9f c33c 4a7a 0dbd f91d f83d a953 0ebd
00000150: 0684 c43d df19 a33b 2742 eebd 5ff1 ac3c
00000160: ce5d 883d 979c e63c 0f41 043e 499c 933d
00000170: be4d b33d 4e06 c4bd 6aaa 08be b65e 3ebd
00000180: 4847 4d3d b73f efbc 128a d0bd 26df ec3d
00000190: c16f 653b c814 713d 817d b23d a795 ab3d
000001a0: 44b2 abbd 24e7 f9bd 4173 953d 622f 803d
000001b0: 09bb 103e 7944 0c3e 1970 edbd 963f 0f3d
000001c0: bbc5 0abd 7b5b 933d 59c7 b53d 4fb6 9c3c
000001d0: 64c7 bfbb 1009 a93d f918 c83c e84a 02be
000001e0: 88b2 fd3d 49be 0bbe b710 283e 1345 0dbe
000001f0: dc40 0a3d 2b21 923c 1974 10bd 51bb 20bd
00000200: 7e2d 05bd c1f5 0dbe e6da 533d cba5 893c
00000210: bf5a e4bd c7ca 9fbd 3947 013e e826 293d
00000220: af47 ba3c 6f08 9b3d 2421 0ebe e0d2 043e
00000230: a8f5 c0bd d8c6 99bd 88d5 ffbd f9a3 83bd
00000240: db17 9a3d c302 543d 91d8 7e3d 4941 b9bc
00000250: ca10 1fbe 6e14 9b3d 2269 913d e2aa 2fbd
00000260: 1488 04be 47fa 9dbd 2499 54bd 8a51 c4bd
00000270: ebd6 163e fe17 b43c 6882 5a3d df07 82bd
00000280: 098e 473d 3184 06be 9fe8 e1bd 32c9 d4bd
00000290: 6ce7 22be 34e9 cabd 06ba ae3a 634f 253e
000002a0: 83c0 193e fc93 bdbd 92d2 0f3e 8914 093c
000002b0: 3b4e d93a f9a8 ff3c f878 54bc cca4 00bd
000002c0: dafb d73d 3ba8 88bd 4f17 a5bd 2f16 2fbd
000002d0: 8904 2c3d 9fc3 143e 4a23 133e 2f61 0cbe
000002e0: aca6 203e b634 f93d afcd 0f3e da9d 04be
000002f0: 4200 d1bd f7c3 b63d 479a 28be 39c1 46bc
00000300: bc45 04be 6f81 10be cc77 e33d 3a42 b33d
00000310: c0b3 f03c 2c3f 003e eceb fcbc 0166 efbd
00000320: cede c83d b633 1cbd 45b6 97bd 413a 1ebd
00000330: afb8 ee3d 2e37 b63d 9d8f 6ebd 51c9 54bd
00000340: db29 85bd 0874 80bd 79af ea3d 2fd5 353b
00000350: 1f4b 33bd 0cd5 ac3d d351 aabb 6aa5 f4bd
00000360: e987 d6bd b7f1 64bd f3f2 1dbd b147 c1bc
00000370: ac76 05be 34ee ec3d eb37 f6bd a185 db3d
00000380: 10cb 9ebd f306 133e c0d1 6bbd 674e c93c
00000390: 85de b5bc 6048 dbbb 8be7 083e 5e2d 4e3d
000003a0: 0362 4c3d f735 d83d 656a 06be 3abf 39bd
000003b0: 46a3 343d 893c 19be 7dae 023d 6326 2dbc
000003c0: 7d6f 9dbc db16 943d 12db 9f3d 9923 ddbd
000003d0: 4b38 db3d d802 45bd a158 7a3b cd54 4f3d
000003e0: 120d 1dbd 9e84 bc3d d8fc 58bc 11b6 f33c
000003f0: ca2f 11be e6c2 3ebd 9d76 d73d 4653 003d

local1.norm.weight f4 [128]
0.9679749 0.988437 1.0166919 0.99082476 0.99050254 1.003823 1.0306102 1.0096679
1.0069822 0.99316204 1.0131831 1.0020498 1.0397532 1.0080631 0.9974228 1.0022287
1.067061 0.99109405 0.9929872 1.0025092 0.9986534 0.98305416 0.9894851 1.0086502
0.98185885 1.016315 0.9971918 1.0101542 1.0473948 1.001309 1.0128578 1.0001792
1.0298206 0.9941295 0.99253774 0.9801435 1.012481 0.99529934 0.9882773 0.987599
1.0308768 0.9931403 1.0234153 1.0095098 0.99378794 1.0011328 1.0094438 0.9943472
1.0621171 1.0144565 1.0249007 0.99661297 0.99731684 0.99909997 0.99481803 0.99088943
1.0133673 0.9738075 1.0043492 0.99224126 1.0324867 0.9817718 1.0270637 0.9892767
0.9958265 1.0116676 1.0722871 0.9995779 0.98760426 0.98356825 1.0056957 0.98286444
1.0098163 1.0276706 0.99398756 0.99589074 1.002512 1.0157361 0.9907322 0.98596525
1.0234319 1.0028706 1.0029361 1.0042158 1.001785 0.98809683 1.0320023 0.99025923
1.0255932 0.99635226 1.0513606 1.0367886 0.9891388 0.9975534 1.0256675 1.059547
0.9926548 0.9986237 1.0193844 0.98434174 0.98985505 0.9807436 0.9877097 0.9962687
0.9987288 0.98697627 1.0059028 1.0071188 0.9995282 0.99230593 0.99274755 0.9923114
0.9823744 1.0055907 1.0192682 0.96901137 1.038955 1.0008688 1.020154 0.99177414
0.99955046 1.0292921 1.0076835 0.9906372 0.9906064 0.98945796 0.99510473 0.9781449
00000000: 34cd 773f 350a 7d3f f622 823f b1a6 7d3f
00000010: 9391 7d3f 467d 803f 09eb 833f cc3c 813f
00000020: cbe4 803f de3f 7e3f fcaf 813f 2b43 803f
00000030: a216 853f 3608 813f 1a57 7f3f 0849 803f
00000040: 7495 883f 57b8 7d3f 6934 7e3f 3952 803f
00000050: c0a7 7f3f 70a9 7b3f e54e 7d3f 731b 813f
00000060: 1a5b 7b3f 9c16 823f f647 7f3f bc4c 813f
00000070: 0811 863f e52a 803f 53a5 813f df05 803f
00000080: 29d1 833f 457f 7e3f f416 7e3f afea 7a3f
00000090: fa98 813f f0cb 7e3f beff 7c3f 4ad3 7c3f
000000a0: c5f3 833f 713e 7e3f 46ff 823f 9e37 813f
000000b0: e368 7e3f 1f25 803f 7435 813f 8a8d 7e3f
000000c0: 74f3 873f b6d9 813f f22f 833f 0722 7f3f
000000d0: 2850 7f3f 04c5 7f3f 65ac 7e3f eeaa 7d3f
000000e0: 05b6 813f 734b 793f 848e 803f 8603 7e3f
000000f0: 8628 843f 6655 7b3f d376 833f 3d41 7d3f
00000100: 7cee 7e3f 537e 813f b440 893f 56e4 7f3f
00000110: a2d3 7c3f 21cb 7b3f a3ba 803f 019d 7b3f
00000120: a941 813f b68a 833f f875 7e3f b2f2 7e3f
00000130: 5052 803f a403 823f a0a0 7d3f 3868 7c3f
00000140: d1ff 823f 105e 803f 3660 803f 258a 803f
00000150: 7e3a 803f eaf3 7c3f a718 843f a181 7d3f
00000160: a346 833f f110 7f3f fc92 863f 7db5 843f
00000170: 3338 7d3f a95f 7f3f 1349 833f 3c9f 873f
00000180: a01e 7e3f cea5 7f3f 307b 823f d2fd 7b3f
00000190: 2467 7d3f 0312 7b3f 8bda 7c3f 770b 7f3f
000001a0: b1ac 7f3f 7aaa 7c3f 6cc1 803f 45e9 803f
000001b0: 15e1 7f3f c307 7e3f b424 7e3f 1f08 7e3f
000001c0: e47c 7b3f 32b7 803f 6177 823f 2111 783f
000001d0: 7afc 843f 781c 803f 6894 823f e9e4 7d3f
000001e0: 8ae2 7f3f d8bf 833f c6fb 803f 669a 7d3f
000001f0: 6298 7d3f 1e4d 7d3f 2fbf 7e3f b467 7a3f

local1.norm.bias f4 [128]
-0.02035669 -0.009800269 -0.013804814 -0.00487305 0.0012921311 -0.013520832 -0.009597759 -0.0022401763
-0.012322232 -0.013075008 0.0030557073 -0.0046307105 -0.0038940893 -0.0011554488 -0.011358015 -0.017051501
-0.012228934 -0.011961887 -0.013449715 -0.006125719 0.006156642 -0.018436832 -0.021308811 -0.003398517
-0.0106862355 -0.0030018433 -0.005819544 -0.007644108 0.0011592648 -0.0042630504 -0.007678209 -0.009987413
-0.0060581844 -0.015470069 -0.009525861 -0.005791429 -0.00386481 -0.005774838 -0.015382764 -0.018415332
-0.01061664 -0.008093711 0.005542719 -0.002934343 0.00045397022 -0.007283229 0.005666397 -0.005578164
-0.00948868 -0.015405191 0.0015263784 -0.014642225 -0.00076099206 -0.014149347 -0.0083189355 -0.009755269
-0.01135332 -0.011359157 -0.0067145587 -0.002162495 -0.0022815675 -0.023560869 -0.004444949 -0.0053832815
-0.018048199 -0.007338849 -0.014144604 0.006340945 -0.021388087 -0.010624538 0.0031286138 -0.008932628
-0.006365669 -0.009570758 -0.01215588 -0.009266145 -0.010848028 0.011830016 -0.012257123 -0.010948053
-0.010411375 -0.0012469776 0.00070113526 -0.008383666 -0.012881075 -0.019372486 0.0018316683 -0.009043589
0.0012350171 -0.0034350276 0.0013912749 0.0024949047 -0.0058193062 -0.014095714 -0.011808194 -0.003637946
-0.010256032 -0.012095781 -0.015903467 -0.004835718 -0.015361851 -0.012000624 -0.0072635533 -0.005305857
-0.008785918 -0.014164305 0.010805803 -0.011138448 9.074989e-05 -0.011305283 -0.016950093 -0.008027224
-0.029021863 -0.0011724215 0.0018193035 -0.032462664 -0.0076767793 -0.0034490393 -0.0146983955 -0.012281842
-0.009666356 -0.014477311 -0.0033568926 -0.014509058 -0.010981705 -0.006594609 -0.010256388 -0.02022339
00000000: 13c3 a6bc 4f91 20bc 962d 62bc 1bae 9fbb
00000010: ba5c a93a 7b86 5dbc eb3f 1dbc eccf 12bb
00000020: 30e3 49bc 8f38 56bc 4342 483b 37bd 97bb
00000030: fa33 7fbb 6e72 97ba f816 3abc 97af 8bbc
00000040: de5b 48bc cafb 43bc 325c 5cbc 41ba c8bb
00000050: a8bd c93b d708 97bc d18f aebc a7b9 5ebb
00000060: 5215 2fbc 93ba 44bb e0b1 bebb 6d7b fabb
00000070: 79f2 973a 0fb1 8bbb 7c99 fbbb 3fa2 23bc
00000080: bc83 c6bb 2c76 7dbc 5b12 1cbc 07c6 bdbb
00000090: c148 7dbb da3a bdbb fd07 7cbc c0db 96bc
000000a0: 6af1 2dbc 7c9b 04bc b29f b53b 1b4e 40bb
000000b0: da02 ee39 27a8 eebb 2fad b93b 08c9 b6bb
000000c0: 6976 1bbc 0e66 7cbc c310 c83a f1e5 6fbc
000000d0: 507d 47ba aad2 67bc 254c 08bc 90d4 1fbc
000000e0: 4703 3abc c21b 3abc cd05 dcbb a5b8 0dbb
000000f0: 5a86 15bb b902 c1bc efa6 91bb 3d66 b0bb
00000100: d1d9 93bc ba7a f0bb c5be 67bc b4c7 cf3b
00000110: 1236 afbc 8b12 2ebc 6e09 4d3b 285a 12bc
00000120: 1a97 d0bb abce 1cbc 7529 47bc 07d1 17bc
00000130: edbb 31bc afd2 413c 1ad2 48bc 765f 33bc
00000140: 7994 2abc a071 a3ba 64cc 373a a55b 09bc
00000150: 250b 53bc 0cb3 9ebc 9714 f03a 902b 14bc
00000160: 4ce0 a13a 331e 61bb 705b b63a 8e81 233b
00000170: e1af bebb b6f1 66bc 2877 41bc 9b6a 6ebb
00000180: eb08 28bc 622d 46bc fd47 82bc f174 9ebb
00000190: 46b0 7bbc 449e 44bc 1a03 eebb c1dc adbb
000001a0: d0f2 0fbc 6711 68bc d30a 313c 097e 36bc
000001b0: fa50 be38 cb39 39bc ecda 8abc 9e84 03bc
000001c0: 42bf edbc f0ab 99ba b275 ee3a 92f7 04bd
000001d0: 7e8d fbbb 4709 62bb 8ad1 70bc c739 49bc
000001e0: a35f 1ebc 3e32 6dbc 50ff 5bbb 66b7 6dbc
000001f0: 9cec 33bc 9717 d8bb 690a 28bc 86ab a5bc

local2.conv.bias f4 [128]
0.0038007165 -0.0020564466 0.008419417 -0.00034082375 -0.00095236796 -0.004383461 -0.00024253172 0.0011278816
-0.0030127438 0.0021896714 -8.916283e-05 -0.006335362 0.008104882 0.0102118915 -0.010484104 0.019336937
-0.0007103661 -0.002350591 -0.00020493339 -0.007975138 -0.0008598916 -0.000694954 -0.0017974718 -0.0005495005
0.0031233183 -0.00050344534 -4.8391976e-05 -0.00067894225 0.0016500772 -0.0014198286 -0.0017582714 0.0048886477
0.013828374 -0.01798543 0.00034865632 -0.002769785 -0.0018359991 -0.0047433046 -0.0017414546 0.009767605
-0.00962578 0.0068536527 0.00044156137 0.00043771023 -0.00036455158 0.0011926977 0.005344541 -0.0011368995
-0.002943997 -0.0024360106 -0.011201478 -0.00094744255 0.0019726462 0.005728331 0.0019335856 -0.0012448713
-0.0027863556 -0.00092276855 0.019626262 -0.00015978163 -0.010549751 -0.0014036946 0.00044459398 -0.00091415056
-2.6873437e-05 -0.0018763765 -0.00086073513 -0.0068315193 -0.010658229 -0.0061008874 -0.0022301793 -0.0008702462
-0.0035104675 -0.002013615 -0.0044240267 -0.00016825902 0.009584204 -0.0006381462 -0.0006045738 -0.00057056895
-0.012211218 -0.0004777347 0.013710285 -0.00012889932 -0.0015023178 0.0048942664 -0.004542672 0.040384054
0.0044558113 -0.003244387 -0.014172198 0.008544031 -0.0029427651 -0.00013340938 -0.00022188613 -4.3593544e-05
-0.0022119507 -0.021622177 -0.0021435572 -0.020553282 -0.00028456535 -0.003768015 -4.1828458e-05 -0.0022803864
-0.00090355636 -0.00058760965 -0.00025612375 0.01012022 -0.0015392682 -0.00022198526 -0.003759748 -0.0006040744
-0.0019557527 -0.019184578 -0.0008215845 -0.0022616372 -0.0005929595 -0.00018333773 -0.0002145468 -0.00031040798
-0.0022412303 0.009044804 -0.0028743255 0.020094842 0.011433661 -0.0013948788 -0.0022155903 -0.002039922
00000000: 7115 793b 73c5 06bb 98f1 093c 97b0 b2b9
00000010: 55a8 79ba 23a3 8fbb 1d50 7eb9 6dd5 933a
00000020: 7471 45bb 9780 0f3b eefc bab8 de98 cfbb
00000030: 57ca 043c c74f 273c 85c5 2bbc 7f68 9e3c
00000040: dd37 3aba 5f0c 1abb 63e3 56b9 27aa 02bc
00000050: 596a 61ba 932d 36ba 2599 ebba 5b0c 10ba
00000060: 96b0 4c3b a5f9 03ba 7df8 4ab8 0bfb 31ba
00000070: 6747 d83a 8b19 baba cc75 e6ba f330 a03b
00000080: 6890 623c 2e56 93bc dccb b639 4885 35bb
00000090: e8a5 f0ba b96d 9bbb 8541 e4ba 4e08 203c
000000a0: 73b5 1dbc 9b94 e03b 5d81 e739 797c e539
000000b0: 4921 bfb9 4b54 9c3a 4221 af3b 0404 95ba
000000c0: 13f0 40bb 7aa5 1fbb 6786 37bc cb5d 78ba
000000d0: 8347 013b b9b4 bb3b 5e70 fd3a f32a a3ba
000000e0: 4a9b 36bb f3e5 71ba 41c7 a03c 0e8b 27b9
000000f0: ddd8 2cbc 2dfc b7ba 6518 e939 9ba3 6fba
00000100: 446e e1b7 bff0 f5ba f5a2 61ba f0da dfbb
00000110: da9f 2ebc f4e9 c7bb 3328 12bb 3c21 64ba
00000120: df0f 66bb dbf6 03bb 6df7 90bb b06e 30b9
00000130: 1107 1d3c 4449 27ba 437c 1eba 3c92 15ba
00000140: 8f11 48bc 7778 fab9 1aa1 603c 2629 07b9
00000150: 6ce9 c4ba 1560 a03b b2da 94bb c069 253d
00000160: 0e02 923b c89f 54bb 8232 68bc 43fc 0b3c
00000170: 68db 40bb cfe3 0bb9 1baa 68b9 36d8 36b8
00000180: 60f6 10bb fe20 b1bc ec7a 0cbb 5b5f a8bc
00000190: b731 95b9 cdf0 76bb f770 2fb8 8972 15bb
000001a0: a4dc 6cba d109 1aba 5948 86b9 47cf 253c
000001b0: 45c1 c9ba b7c4 68b9 1b66 76bb bf5a 1eba
000001c0: 162c 00bb fa28 9dbc 9a5f 57ba fa37 14bb
000001d0: d770 1bba 593e 40b9 f8f7 60b9 41be a2b9
000001e0: 9be1 12bb a830 143c 2e5f 3cbb f09d a43c
000001f0: 4054 3b3c 5ed4 b6ba 7033 11bb 36b0 05bb

local2.conv.lin.weight f4 [128, 128]
-0.107746236 -0.11421348 -0.0692798 -0.18262957 -0.13915081 -0.055706408 0.053713918 0.11983254
0.119333655 -0.040962994 -0.010677578 0.06158896 -0.12270339 -0.1797617 -0.14863083 -0.05943271
-0.14158696 -0.04090255 -0.078274496 -0.10519235 -0.18898013 0.032064483 -0.14592007 -0.16590656
-0.20007804 -0.08357053 -0.25431365 -0.2324788 0.13913593 -0.18857895 0.06944942 0.023199148
-0.09010887 0.088157356 -0.12921621 -0.20093231 -0.037165463 -0.18154638 -0.15992306 0.0026123056
0.015336583 -0.006210515 0.10225325 -0.22384502 -0.03530991 0.022695003 -0.023681102 -0.14021438
-0.10123066 0.1054895 0.043374687 0.029429698 0.05981832 -0.16159135 -0.23315611 -0.16203745
0.033257015 0.06623926 -0.14709757 -0.13663696 -0.022258123 -0.061692294 -0.0042869393 0.014092442
-0.03192207 -0.06198812 -0.07559719 -0.19161017 0.01873948 -0.23860675 -0.02537433 0.1270729
-0.15580906 0.019031819 -0.08129494 0.034367885 -0.22262856 -0.19759068 -0.12602086 -0.08006733
0.13313432 -0.020968404 -0.15078473 -0.26787713 -0.09885112 -0.043504637 -0.12292576 -0.18695469
0.0494572 -0.23377036 -0.15645567 -0.08638987 -0.22686097 0.004774309 0.15054181 -0.057108477
0.025070181 0.04898581 -0.12685196 -0.018490994 -0.0046462943 -0.068700574 -0.09926825 -0.125078
-0.057547294 -0.15176909 -0.22784176 0.04666026 -0.2743918 -0.18532562 -0.12442481 -0.087357
0.096826576 -0.1691362 -0.13717137 -0.12542553 -0.104184754 -0.14129284 -0.08789734 -0.2104613
-0.26218602 0.09073012 -0.11235943 -0.23573211 -0.09111933 -0.22874762 0.14971796 -0.1663828
-0.057838622 0.013251665 -0.026134085 0.14715523 0.0423944 -0.022775324 0.0802096 -0.054597218
-0.08048323 0.13503921 0.106584795 -0.010466688 0.03860468 -0.119234346 -0.17779432 0.13336776
-0.08232556 -0.015370144 -0.009922264 0.058996797 -0.093975425 -0.09738463 0.021773098 0.030018395
0.123022564 -0.042891026 -0.03973649 0.016208591 -0.08768615 0.0574882 0.06874507 0.033148624
0.101734295 0.12665786 -0.056292366 -0.004707651 -0.0068366285 0.018696304 0.07129159 0.102529496
0.01087619 -0.02413507 0.112561576 -0.083962716 0.15522733 -0.07770339 -0.07868465 0.09580766
0.12515649 0.032517403 -0.079222366 0.0013939638 0.06569438 -0.045180205 0.16194087 0.09887989
-7.4947224e-05 0.070309155 -0.14126672 0.059258435 -0.07914167 0.1205339 0.11892733 0.028821183
0.009808782 -0.114632726 -0.14076482 -0.11801669 0.020139609 0.13966784 0.12694564 -0.0692467
-0.110035606 -0.098501444 0.13717532 0.046108395 -0.10657007 -0.06930472 0.0925919 0.017448448
-0.007141783 0.15843049 0.015928278 -0.025562402 -0.0019548617 0.09122049 0.08586982 -0.121915005
0.0857714 -0.08139991 -0.14781508 0.040155858 0.063187115 0.071430854 0.00604328 -0.0780357
-0.035997108 0.10717244 0.025233885 0.1295939 -0.021940934 0.12434451 0.055498436 0.118990354
0.1524628 0.14022735 0.14302546 0.056087118 -0.030015757 0.10923338 -0.051643822 0.07177558
-0.07477961 -0.075589046 -0.09653759 -0.028291909 0.021768887 -0.09726088 -0.13587503 -0.12370174
0.08409614 0.06466806 -0.020774936 -0.106559455 -0.11299813 0.14548105 0.013137754 0.13107696
00000000: 0faa dcbd c2e8 e9bd 91e2 8dbd 3f03 3bbe
00000010: 8d7d 0ebe 672c 64bd 2003 5c3d c36a f53d
00000020: 3465 f43d d0c8 27bd 02f1 2ebc b544 7c3d
00000030: ea4b fbbd 7313 38be ae32 18be b76f 73bd
00000040: 2cfc 10be 6f89 27bd 614e a0bd 166f d7bd
00000050: 0284 41be 0c56 033d 126c 15be 69e3 29be
00000060: 42e1 4cbe 0727 abbd 6635 82be ec0e 6ebe
00000070: a679 0e3e d71a 41be 7f3b 8e3d 240c be3c
00000080: 008b b8bd d88b b43d 4151 04be 33c1 4dbe
00000090: d03a 18bd 4be7 39be dfc2 23be 3733 2b3b
000000a0: 4b46 7b3c 9381 cbbb 276a d13d a137 65be
000000b0: 20a1 10bd dfea b93c dffe c1bc 5c94 0fbe
000000c0: 0552 cfbd e10a d83d a8a9 313d 8d16 f13c
000000d0: 0e04 753d 3478 25be 7ac0 6ebe 25ed 25be
000000e0: 8238 083d 73a8 873d bfa0 16be 8fea 0bbe
000000f0: ab56 b6bc 0fb1 7cbd 7479 8cbb fce3 663c
00000100: b7c0 02bd 41e7 7dbd b3d2 9abd 7535 44be
00000110: 8a83 993c 5455 74be d4dd cfbc 661f 023e
00000120: 698c 1fbe 9ee8 9b3c f67d a6bd 57c5 0c3d
00000130: bef8 63be 3655 4abe 9d0b 01be 57fa a3bd
00000140: 5d54 083e eec5 abbc 5067 1abe 3127 89be
00000150: 7572 cabd eb31 32bd 80c0 fbbd 0d71 3fbe
00000160: a293 4a3d 7f61 6fbe ea35 20be 2ced b0bd
00000170: 3e4e 68be cf71 9c3b a227 1a3e 94ea 69bd
00000180: fb5f cd3c 58a5 483d 7be5 01be 6d7a 97bc
00000190: f13f 98bb e3b2 8cbd 274d cbbd 7214 00be
000001a0: b6b6 6bbd 5b69 1bbe 5a4f 69be d41e 3f3d
000001b0: 157d 8cbe 00c6 3dbe 6fd2 febd 3ae8 b2bd
000001c0: 034d c63d 0a32 2dbe a776 0cbe 8d6f 00be
000001d0: d15e d5bd 12af 10be 8503 b4bd 2b83 57be
000001e0: 3f3d 86be b7d0 b93d b31c e6bd c263 71be
000001f0: c59c babd d13c 6abe aa4f 193e 4160 2abe
00000200: 31e8 6cbd 831d 593c 2617 d6bc dcaf 163e
00000210: c0a5 2d3d 5193 babc ee44 a43d 55a1 5fbd
00000220: 64d4 a4bd b847 0a3e 2149 da3d 797c 2bbc
00000230: f11f 1e3d 2331 f4bd b70f 36be 8f91 083e
00000240: 4e9a a8bd 0ed3 7bbc fe90 22bc a0a6 713d
00000250: 3076 c0bd 9871 c7bd 7f5d b23c 23e9 f53c
00000260: 41f3 fb3d 80ae 2fbd bbc2 22bd e1c7 843c
00000270: cc94 b3bd bf78 6b3d 37ca 8c3d dac6 073d
00000280: 125a d03d 99b2 013e d392 66bd a442 9abb
00000290: cc05 e0bb fe28 993c 5301 923d fcfa d13d
000002a0: 0c32 323c e9b6 c5bc af86 e63d a5f4 abbd
000002b0: eaf3 1e3e f422 9fbd 6b25 a1bd ce36 c43d
000002c0: 0629 003e f830 053d 563f a2bd aab5 b63a
000002d0: c68a 863d e10e 39bd d4d3 253e 8a81 ca3d
000002e0: fc2c 9db8 3ffe 8f3d 39a8 10be f9b8 723d
000002f0: 0715 a2bd 7ada f63d 2c90 f33d 671a ec3c
00000300: 03b5 203c 90c4 eabd a724 10be bcb2 f1bd
00000310: d2fb a43c 1605 0f3e 0afe 013e 37d1 8dbd
00000320: 595a e1bd 20bb c9bd b077 0c3e 28dc 3c3d
00000330: 6941 dabd a2ef 8dbd d2a0 bd3d 0cf0 8e3c
00000340: 9e05 eabb 9a3b 223e 057c 823c 3e68 d1bc
00000350: 231d 00bb cfd1 ba3d 84dc af3d 93ae f9bd
00000360: eaa8 af3d ffb4 a6bd d65c 17be 787a 243d
00000370: 3f68 813d 574a 923d b506 c63b 2ed1 9fbd
00000380: b471 13bd 397d db3d 4bb7 ce3c 43b4 043e
00000390: 79bd b3bc 56a8 fe3d 5452 633d 37b1 f33d
000003a0: 351f 1c3e c297 0f3e 4475 123e 9bbb 653d
000003b0: 9be3 f5bc c0b5 df3d 7988 53bd 13ff 923d
000003c0: 0d26 99bd 6ece 9abd 80b5 c5bd 6fc4 e7bc
000003d0: aa54 b23c b630 c7bd d322 0bbe 5657 fdbd
000003e0: 993a ac3d b070 843d 3330 aabc d83b dabd
000003f0: 906b e7bd fcf8 143e bc3f 573c 0a39 063e

local2.norm.weight f4 [128]
0.98003256 0.97438985 0.99954724 0.9778192 0.9814753 0.96688104 0.98385304 0.9644432
1.0032057 0.97085094 0.9805735 0.9924595 0.960018 0.99555004 0.97617525 0.97839767
0.9793177 0.97363853 0.99676645 1.0671692 1.0031943 0.98997796 0.9824717 0.96988565
0.97066367 0.98003316 0.9657411 0.9823578 0.96836936 1.0185393 0.9826825 0.94955873
0.97463834 0.97827995 0.9813632 0.9925457 0.97202665 0.993227 0.9822307 1.0010552
0.98224103 0.9608392 0.96342796 0.96647096 0.97960794 0.9678837 0.9404136 0.98222697
1.0084151 0.9555897 1.0072823 0.98739904 0.9726751 0.9811908 0.98480076 0.9814819
0.99734133 0.9455926 0.980987 0.9655122 0.98435754 0.9919706 0.9604933 1.0223818
0.98200727 1.0008258 0.96975756 0.96820295 0.97268456 0.9758441 0.98283815 0.9713773
0.9925985 0.94754636 0.9746833 0.98072237 0.97446144 0.969579 0.94436735 1.0385649
0.99343187 0.98224944 0.9766476 0.9903575 0.9922869 0.9880632 0.9447986 0.95136356
0.96164554 0.9830776 0.9682595 0.9819028 0.9589292 0.9696365 0.9783249 0.98308706
0.95325166 0.9792011 0.99222374 0.9498285 0.9657872 0.98128784 0.96808094 0.96403867
0.97263277 0.92970616 0.9776464 0.99250185 0.9832995 1.0290098 1.0021597 0.96802163
0.9670873 0.9774517 0.96890235 0.95204663 0.98817605 0.98487437 0.99701977 0.9833617
0.96633613 0.9811863 0.9747353 0.9980748 0.96989983 0.94814783 0.96023315 0.9672444
00000000: 6ae3 7a3f 9d71 793f 54e2 7f3f 5c52 7a3f
00000010: f741 7b3f 8485 773f cbdd 7b3f c0e5 763f
00000020: 0b69 803f b089 783f dd06 7b3f d311 7e3f
00000030: bdc3 753f 5edc 7e3f 9fe6 793f 4578 7a3f
00000040: 91b4 7a3f 6040 793f 162c 7f3f 0099 883f
00000050: ac68 803f 326f 7d3f 4483 7b3f 6d4a 783f
00000060: 6a7d 783f 74e3 7a3f cf3a 773f cd7b 7b3f
00000070: 0ee7 773f 7f5f 823f 1591 7b3f 4816 733f
00000080: e681 793f 8e70 7a3f 9e3a 7b3f 7a17 7e3f
00000090: bdd6 783f 2044 7e3f 7973 7b3f 9422 803f
000000a0: 2674 7b3f 8ff9 753f 37a3 763f a46a 773f
000000b0: 96c7 7a3f 3ac7 773f f2be 703f 3a73 7b3f
000000c0: bf13 813f 87a1 743f a0ee 803f 2fc6 7c3f
000000d0: 3c01 793f 522f 7b3f e71b 7c3f 6642 7b3f
000000e0: c351 7f3f 5b12 723f f721 7b3f cf2b 773f
000000f0: dbfe 7b3f c9f1 7d3f e4e2 753f 68dd 823f
00000100: d464 7b3f 0f1b 803f 0842 783f 26dc 773f
00000110: db01 793f ebd0 793f 489b 7b3f 2fac 783f
00000120: ef1a 7e3f 6692 723f d884 793f 9f10 7b3f
00000130: 4e76 793f 5436 783f 0fc2 713f b2ef 843f
00000140: 8d51 7e3f b374 7b3f 9405 7a3f 1288 7d3f
00000150: 8406 7e3f b6f1 7c3f 52de 713f 908c 733f
00000160: 672e 763f f9aa 7b3f dbdf 773f fb5d 7b3f
00000170: 627c 753f 193a 783f 8073 7a3f 98ab 7b3f
00000180: 4d08 743f ecac 7a3f 6002 7e3f f627 733f
00000190: d43d 773f ae35 7b3f 27d4 773f 3dcb 763f
000001a0: 76fe 783f 3901 6e3f 0947 7a3f 9a14 7e3f
000001b0: 84b9 7b3f 98b6 833f c546 803f 44d0 773f
000001c0: 0993 773f 463a 7a3f fc09 783f 54b9 733f
000001d0: 1bf9 7c3f ba20 7c3f b03c 7f3f 98bd 7b3f
000001e0: ce61 773f 062f 7b3f 4188 793f d581 7f3f
000001f0: 5b4b 783f d1b9 723f d7d1 753f 549d 773f

local2.norm.bias f4 [128]
-0.0073698517 -0.029947365 -0.019179167 -0.033025544 -0.018804578 -0.028679468 -0.03568436 -0.04430123
-0.014352404 -0.019753251 -0.02943358 -0.01840788 -0.04455712 -0.0024634392 -0.029674334 -0.034205034
-0.021858148 -0.008895004 -0.03060611 -0.022613673 -0.010483182 -0.022738926 -0.02039345 -0.036755744
-0.008589554 -0.036601186 -0.046489466 -0.014592401 -0.026891952 -0.01840735 -0.021490488 -0.043424416
-0.02254333 -0.014408172 -0.039402608 -0.019078974 -0.036098007 -0.016804505 -0.026853638 -0.028549673
-0.012306756 -0.045360826 -0.029562145 -0.035165068 -0.022126336 -0.045667868 -0.053933587 -0.018093629
-0.007510753 -0.04446575 -0.02401002 -0.032506045 -0.02941865 -0.013435196 -0.027613955 -0.022231061
-0.015126159 -0.04569387 -0.02138208 -0.03037087 -0.028795667 -0.030057436 -0.035741817 -0.01676067
-0.03385014 -0.029451558 -0.026907101 -0.029505966 -0.02759002 -0.038873535 -0.02485426 -0.032640144
-0.02198587 -0.057482086 -0.027670609 -0.032705255 -0.03726417 -0.019653192 -0.044323474 -0.01725043
-0.033342652 -0.021055246 -0.026756618 -0.025325973 -0.02573992 -0.013833742 -0.040960506 -0.05703262
-0.031002399 -0.03317427 -0.018965818 -0.0121395625 -0.034662116 -0.034708798 -0.02284266 -0.033564437
-0.034878798 -0.026047448 -0.018321522 -0.061189175 -0.031986184 -0.02819836 -0.035549678 -0.025741993
-0.025579443 -0.062977694 -0.039940942 -0.014957432 -0.022816148 -0.014037429 -0.0065433555 -0.038521092
-0.038200267 -0.02472346 -0.043893404 -0.043262605 -0.022731854 -0.014808144 -0.023311459 -0.036506966
-0.03407522 -0.021000432 -0.03027935 -0.028792413 -0.027768401 -0.044455606 -0.028433751 -0.038149264
00000000: cc7e f1bb 2d54 f5bc a11d 9dbc cb45 07bd
00000010: 0f0c 9abc 34f1 eabc c329 12bd 3575 35bd
00000020: 5826 6bbc 92d1 a1bc b11e f1bc 1fcc 96bc
00000030: 8781 36bd a771 21bb 9717 f3bc 941a 0cbd
00000040: dc0f b3bc 5abc 11bc aab9 fabc 4f40 b9bc
00000050: a7c1 2bbc fc46 babc 2a10 a7bc 318d 16bd
00000060: 33bb 0cbc 20eb 15bd bd6b 3ebd f714 6fbc
00000070: 834c dcbc 03cb 96bc d20c b0bc cddd 31bd
00000080: caac b8bc 4110 6cbc a164 21bd 824b 9cbc
00000090: 81db 13bd 9aa9 89bc 29fc dbbc 01e1 e9bc
000000a0: 47a2 49bc 46cc 39bd 502c f2bc 3f09 10bd
000000b0: 4a42 b5bc 3b0e 3bbd 77e9 5cbd 1739 94bc
000000c0: c31c f6bb b821 36bd a9b0 c4bc 0f25 05bd
000000d0: 61ff f0bc 4c1f 5cbc a936 e2bc ea1d b6bc
000000e0: b6d3 77bc 7f29 3bbd 7929 afbc 55cc f8bc
000000f0: e4e4 ebbc 033b f6bc 0366 12bd ac4d 89bc
00000100: 72a6 0abd 6544 f1bc 486c dcbc 7fb6 f1bc
00000110: 7704 e2bc db39 1fbd 299b cbbc acb1 05bd
00000120: b61b b4bc 5672 6bbd 79ad e2bc f2f5 05bd
00000130: 50a2 18bd bbff a0bc 888c 35bd c650 8dbc
00000140: 4e92 08bd 0d7c acbc b230 dbbc 6a78 cfbc
00000150: 86dc d2bc eba6 62bc 34c6 27bd 099b 69bd
00000160: bef8 fdbc bee1 07bd 345e 9bbc 04e5 46bc
00000170: ddf9 0dbd d02a 0ebd 8820 bbbc dd7a 09bd
00000180: 12dd 0ebd 7561 d5bc 0417 96bc 80a1 7abd
00000190: f203 03bd 3f00 e7bc 8a9c 11bd dfe0 d2bc
000001a0: fb8b d1bc 73fa 80bd 1d99 23bd 0410 75bc
000001b0: eee8 babc 3ffd 65bc a569 d6bb 4bc8 1dbd
000001c0: e277 1cbd db88 cabc 92c9 33bd 2134 31bd
000001d0: 2738 babc dc9d 72bc acf7 bebc 5488 15bd
000001e0: 7592 0bbd 1909 acbc 660c f8bc 11de ebbc
000001f0: 8f7a e3bc 1517 36bd e6ed e8bc 6742 1cbd

meso.Wq.weight f4 [128, 128]
0.034373302 -0.0019208654 -0.09367238 0.02022768 0.013856614 -0.08786372 0.009257445 -0.06697324
-0.005213783 0.02718885 0.026713714 -0.056200363 0.027947392 0.07191712 -0.08523484 -0.086177185
-0.08552116 0.037131164 0.026022805 0.009743078 -0.040585235 -0.030148463 0.07007144 -0.03112311
-0.055346247 0.025773391 0.06199716 -0.050864458 -0.07903941 -0.023628319 -0.05679736 -0.052392226
-0.07596779 0.07870542 -0.009079679 -0.02186667 0.03708855 -0.06919718 -0.009324626 -0.0042661214
-0.05363322 -0.04477491 0.05441047 0.0004229444 0.060633764 -0.0029777952 0.10824626 0.0572261
-0.037847403 -0.08507114 0.06527442 -0.02502591 0.040679634 0.05622561 -0.045199502 -0.002929358
-0.035018418 -0.07962498 0.0559211 -0.02233045 -0.0205136 -0.02417967 -0.00961493 -0.083748
-0.05620147 0.063295946 -0.021297138 -0.0514135 0.024996253 -0.08811861 -0.05605861 -0.077972166
-0.0017403773 -0.05283877 -0.055758283 -0.08022208 0.05697855 0.0524804 -0.00085858203 -0.059273373
0.07410451 -0.0062393732 0.08559585 -0.07745748 0.07244764 -0.048887596 0.018527579 -0.033438686
-0.066683546 0.08515423 -0.060334437 0.0040368736 -0.016547598 -0.07446297 -0.08344597 -0.0185356
0.065807946 -0.020382946 0.04307772 0.052092824 0.03978225 0.008696126 -0.015764143 -0.053106017
-0.08148847 0.012373028 0.05143795 0.08652758 -0.07015055 -0.06433778 -0.05180794 0.08806432
-0.010652656 -0.064473845 0.056067523 0.012319604 -0.051354308 -0.00326536 0.029419154 -0.10220684
-0.045809615 0.02204114 -0.009468964 -0.09121704 -0.09298359 -0.0021423772 0.0142462365 0.03384206
0.030438801 0.036948342 -0.016641254 -0.065428704 0.081733935 -0.053925432 0.07713354 -0.024383165
-0.06306995 0.086251654 0.0020188028 0.029686812 -0.066300996 -0.049994867 -0.032706954 -0.063920975
-0.09456437 0.0635396 0.05044037 -0.007934652 0.015057608 0.03417545 0.023169903 -0.07106498
-0.0658366 0.010216215 0.010685664 -0.048047535 -0.03378935 0.11010668 -0.06981099 0.011336884
0.016094346 -0.025881639 0.040541243 0.004327402 0.041526522 -0.044217296 -0.036322042 0.012068689
0.024286795 0.060615472 -0.06957542 0.035472665 0.010100078 0.0087930085 -0.007982757 0.06422444
0.030767558 -0.084929906 -0.018015847 0.09569864 0.009339094 0.034264427 0.08749967 0.08154712
-0.079394594 -0.006696021 -0.013852297 -0.076928265 0.038426053 -0.041527275 0.041521933 0.071133666
0.082686074 -0.06590069 -0.032248627 5.121216e-05 0.08106716 0.029002596 0.0960298 0.06908153
-0.07475525 0.0040757377 0.015390707 0.0043144356 0.075748235 -0.080909275 -0.06913005 0.002713424
-0.07931957 0.06788268 0.022749223 -0.054637183 -0.03587949 0.074964404 0.012940685 -0.042319592
-0.00992618 0.07339863 -0.008754867 -0.05153397 -0.045752782 0.0036874358 -0.034400787 -0.026156679
0.016220871 -0.081480585 -0.04208657 0.07299756 -0.083112285 -0.06760166 -0.03129407 -0.024582382
-0.04252099 -0.0111295525 0.07064802 -0.0040850034 -0.05795752 -0.027040398 -0.07394974 0.024006665
-0.07364297 0.030048044 0.044407506 -0.0057372823 0.091465734 -0.0566283 -0.08670309 -0.08183957
-0.050008144 0.042812433 0.0853083 0.03324796 -0.003865218 -0.02642119 -0.0012900244 0.059270725
00000000: 05cb 0c3d 8cc5 fbba 4ed7 bfbd 85b4 a53c
00000010: da06 633c e5f1 b3bd 8aac 173c 4429 89bd
00000020: 62d8 aabb 27bb de3c b8d6 da3c 5a32 66bd
00000030: eef1 e43c 4849 933d 9b8f aebd aa7d b0bd
00000040: b825 afbd d916 183d c72d d53c 6ea1 1f3c
00000050: b43c 26bd e9f9 f6bc 9d81 8f3d e4f5 febc
00000060: bfb2 62bd b822 d33c bcf0 7d3d 4057 50bd
00000070: 6adf a1bd 2d90 c1bc 59a4 68bd 3b99 56bd
00000080: 0095 9bbd 4f30 a13d efc2 14bc bb21 b3bc
00000090: 2aea 173d 40b7 8dbd 51c6 18bc d2ca 8bbb
000000a0: 82ae 5bbd e565 37bd 83dd 5e3d a3be dd39
000000b0: 1c5b 783d 1d27 43bb 37b0 dd3d ea65 6a3d
000000c0: e105 1bbd c739 aebd 98ae 853d 2303 cdbc
000000d0: b09f 263d d34c 663d 1d23 39bd 79fa 3fbb
000000e0: 796f 0fbd 6c12 a3bd 860d 653d 59ee b6bc
000000f0: 230c a8bc 7114 c6bc f087 1dbc 1284 abbd
00000100: 8333 66bd 4ea1 813d 5677 aebc f696 52bd
00000110: f1c4 cc3c 8877 b4bd b79d 65bd dfaf 9fbd
00000120: 5f1d e4ba 776d 58bd cc62 64bd 794b a4bd
00000130: 5762 693d b0f5 563d 7712 61ba a3c8 72bd
00000140: 1bc4 973d a873 ccbb e14c af3d 07a2 9ebd
00000150: 6e5f 943d 5c3e 48bd 26c7 973c 01f7 08bd
00000160: 6291 88bd 5765 ae3d 3e21 77bd c047 843b
00000170: d48e 87bc 0b80 98bd b9e5 aabd f8d7 97bc
00000180: 51c6 863d 23fa a6bc 4372 303d 495f 553d
00000190: b6f2 223d 327a 0e3c ce23 81bc b285 59bd
000001a0: 6de3 a6bd 3eb8 4a3c 9ab0 523d 5f35 b13d
000001b0: 17ab 8fbd 87c3 83bd 9034 54bd 115b b43d
000001c0: 7a88 2ebc dd0a 84bd 0fa7 653d 2ad8 493c
000001d0: e558 52bd a6ff 55bb 7000 f13c d251 d1bd
000001e0: dda2 3bbd 9f8f b43c b723 1bbc 00d0 babd
000001f0: 2e6e bebd 2067 0cbb 0c69 693c f99d 0a3d
00000200: cb5a f93c 2557 173d 3d53 88bc 7cff 85bd
00000210: 1f64 a73d eae0 5cbd 30f8 9d3d 34bf c7bc
00000220: d12a 81bd b5a4 b03d e44d 043b c231 f33c
00000230: d1c8 87bd 6bc7 4cbd baf7 05bd 00e9 82bd
00000240: f7aa c1bd 0d21 823d 909a 4e3d 5800 02bc
00000250: 2fb4 763c 8ffb 0b3d cfce bd3c 848a 91bd
00000260: 57d5 86bd e961 273c ec12 2f3c 7ecd 44bd
00000270: b466 0abd 9c7f e13d 10f9 8ebd 57be 393c
00000280: 4ad8 833c bb05 d4bc 930e 263d e1cc 8d3b
00000290: b717 2a3d 321d 35bd 6cc6 14bd c0bb 453c
000002a0: 1af5 c63c ee47 783d 8f7d 8ebd c94b 113d
000002b0: cc7a 253c 8d10 103c 1cca 02bc 1a88 833d
000002c0: 3f0c fc3c bbef adbd f895 93bc a6fd c33d
000002d0: 0003 193c db58 0c3d 0733 b33d 2d02 a73d
000002e0: a299 a2bd 4c6a dbbb bff4 62bc 918c 9dbd
000002f0: a364 1d3d 8118 2abd e712 2a3d 87ae 913d
00000300: 5157 a93d f1f6 86bd 2317 04bd a3cc 5638
00000310: 8a06 a63d da96 ed3c 46ab c43d 9e7a 8d3d
00000320: 4819 99bd c48d 853b 4e29 7c3c 1c60 8d3b
00000330: e421 9b3d c3b3 a5bd 0e94 8dbd b3d3 313b
00000340: 4c72 a2bd 1306 8b3d 945c ba3c 3dcb 5fbd
00000350: 5ff6 12bd f086 993d 2b05 543c 4f57 2dbd
00000360: 6ba1 22bc 0552 963d 9370 0fbc 4915 53bd
00000370: 4567 3bbd e8a8 713b d7e7 0cbd 8846 d6bc
00000380: a2e1 843c 4bdf a6bd f862 2cbd bf7f 953d
00000390: c636 aabd bd72 8abd 362e 00bd fe60 c9bc
000003a0: 7d2a 2ebd ba58 36bc e9af 903d 7edb 85bb
000003b0: dd64 6dbd d383 ddbc f672 97bd a0a9 c43c
000003c0: 20d2 96bd 5127 f63c a5e4 353d d0ff bbbb
000003d0: 6352 bb3d 14f3 67bd 6491 b1bd 819b a7bd
000003e0: 57d5 4cbd 175c 2f3d 1eb6 ae3d 032f 083d
000003f0: 994f 7dbb 4071 d8bc 0916 a9ba dcc5 723d
