models/eeg_only/s_06.pt (torch, 561186 bytes, 37 tensors)

band_attn.fc1.weight f4 [8, 5]
0	0x3e84032f	0.2578368
1	0x3ea29f00	0.31761932
2	0x3de45feb	0.111511074
3	0x3e1ee36d	0.15516444
4	0x3e00a30d	0.12562199
5	0x3f1b0fb6	0.6057085
6	0x3dd2f82d	0.10301242
7	0xbec2b28f	-0.38026854
8	0x3d93e19d	0.07220767
9	0xbe5ad701	-0.2137108
10	0x3dcdc8e0	0.100480795
11	0x3ecb2165	0.39673916
12	0x3d1a5ac8	0.037684232
13	0x3e674a7a	0.22587004
14	0xbe90c883	-0.28277978
15	0x3e34b087	0.17645465
16	0xbf15265e	-0.5826167
17	0xbeb07441	-0.34463695
18	0x3d02d09b	0.031937223
19	0xbe3a68bc	-0.18204015
20	0xbd72aa68	-0.059244543
21	0x3e5b75f3	0.21431713
22	0xbccc9f83	-0.024978405
23	0x3e8c64c4	0.27420628
24	0x3bc09228	0.005876798
25	0x3e1f7eec	0.1557576
26	0x3ecda240	0.4016285
27	0xbea1d9ff	-0.3161163
28	0xbe66de17	-0.22545658
29	0xbe3fec32	-0.18742445
30	0xbf0f4ec4	-0.5597956
31	0xbe08171d	-0.13290067
32	0xbeaa0c4b	-0.33212504
33	0xbefca876	-0.49347275
34	0xbef785c7	-0.48344252
35	0x3ec41756	0.38299054
36	0x3ed6d6f1	0.41960862
37	0x3ea797b0	0.32732916
38	0x3efd3267	0.49452516
39	0x3d4d5491	0.050129477

band_attn.fc1.bias f4 [8]
0	0x3df81f11	0.121153004
1	0x3e403ae4	0.18772465
2	0x3eb17c74	0.34665263
3	0x3f0cfdb6	0.5507463
4	0x3e617406	0.22016916
5	0xbdbf6a24	-0.093464166
6	0x3d39295b	0.045205455
7	0x3d41345c	0.047169074

band_attn.fc2.weight f4 [5, 8]
0	0xbdc0bab1	-0.094106086
1	0x3ed13151	0.40857938
2	0xbbc8a0de	-0.0061226925
3	0x3e5ab203	0.21356969
4	0xbbbbe12f	-0.005733631
5	0xbebaf66f	-0.3651614
6	0xbea754cd	-0.32681885
7	0xbd5d520f	-0.054033335
8	0x3e29fc38	0.1660012
9	0xbd625ac1	-0.05526233
10	0xbc89f211	-0.01683906
11	0x3e6aa960	0.22916174
12	0x3ea3c256	0.31984204
13	0x3e7aaaf0	0.2447927
14	0xbe1ea138	-0.15491188
15	0xbea12792	-0.31475502
16	0x3c84112d	0.016121471
17	0x3e76df15	0.24108537
18	0x3e5bf68c	0.21480769
19	0xbe150162	-0.14551309
20	0xbe011b9a	-0.12608185
21	0xbe821bae	-0.25411743
22	0xbe27a141	-0.16370107
23	0x3da96489	0.08271129
24	0xbd0b8ab3	-0.03406782
25	0xbeb3638a	-0.3503688
26	0xbeba2e57	-0.3636348
27	0x3e870534	0.26371157
28	0xbe3b9ff7	-0.1832274
29	0xbe9b7353	-0.30361423
30	0x3ee7d5a7	0.4528019
31	0xbec4d1fe	-0.3844146
32	0xbddc38cb	-0.1075302
33	0x3e4acfae	0.19805786
34	0x3ea4f3d2	0.3221727
35	0x3de49432	0.111610785
36	0x3e6218f6	0.22079834
37	0x3dd55326	0.1041625
38	0xbe108d79	-0.14116468
39	0xbca25c00	-0.01981926

band_attn.fc2.bias f4 [5]
0	0x3ea47400	0.3211975
1	0x3e7a0a7f	0.24418066
2	0xbe774603	-0.24147801
3	0x3e5ddf4f	0.21667217
4	0x3ddb9ab8	0.1072287

feat_proj.weight f4 [128, 21]
0	0xbcc38ff4	-0.023872353
1	0x3d2ec79f	0.042670842
2	0xbda9496b	-0.082659565
3	0x3e8febf0	0.28109694
4	0xbe0972a0	-0.13422632
5	0xbdf30956	-0.11867015
6	0x3cbfed77	0.023428662
7	0x3d5614f3	0.052266072
8	0xbe11059f	-0.141623
9	0x3e031ca7	0.12803899
10	0x3e244881	0.16043283
11	0x3e202a37	0.15641104
12	0x3e7cfcb9	0.24705781
13	0x3e1ea99c	0.15494388
14	0xbc935908	-0.01798679
15	0x3e830c28	0.25595212
16	0xbe5ff355	-0.21870168
17	0x3e1d9217	0.1538776
18	0xbcdc51d6	-0.026894491
19	0x3dd77500	0.10520363
20	0x3d06ed2d	0.032941032
21	0x3e7cdb32	0.24692991
22	0xbe985d13	-0.2975851
23	0xbe2ba5ce	-0.16762468
24	0x3af81205	0.0018926269
25	0xbd07108e	-0.032974772
26	0x3e7587d1	0.23977591
27	0x3df39f1c	0.11895582
28	0xbda5ceb3	-0.08096065
29	0xbda6a65b	-0.081371985
30	0x3dd3baa3	0.103383325
31	0x3e188172	0.1489313
32	0x3d8b3ce0	0.0679872
33	0xbdeadc53	-0.11467805
34	0xbb9f04d0	-0.0048528686
35	0x3e119fa1	0.1422105
36	0xbc0797fe	-0.008275984
37	0xbe011c6b	-0.12608497
38	0x3c70a35f	0.014687388
39	0x3d487996	0.04894408
40	0x3dbcf0bf	0.09225606
41	0xbc83e9dc	-0.016102724
42	0xbd8ae6fc	-0.06782338
43	0x3d9c3761	0.0762775
44	0xbe4caab0	-0.19986987
45	0x3e19ca6d	0.15018626
46	0x3e45eb17	0.19327961
47	0x3e92da27	0.28682062
48	0x3d9c7d37	0.0764107
49	0x3d5621f3	0.05227847
50	0x3a0052cb	0.00048951496
51	0xbe138bdb	-0.1440882
52	0xbe5117cb	-0.20419233
53	0xbe3c7d2e	-0.18407127
54	0x3dafcf9f	0.085845225
55	0xbe2e013a	-0.16992655
56	0x3e28a658	0.16469705
57	0x3dccfa5e	0.10008691
58	0xbe5522d7	-0.20814072
59	0x3dda79f8	0.10667795
60	0xbc011620	-0.00787881
61	0xbe3ce613	-0.18447141
62	0xbe0e81d5	-0.13916714
63	0x3e96f5fc	0.29484546
64	0x3e464bed	0.19364901
65	0x3d7529e6	0.05985441
66	0xbd273153	-0.040818524
67	0xbe220fb3	-0.15826301
68	0x3dfb5aac	0.12273154
69	0xbdb020a3	-0.08599975
70	0xba5f4334	-0.0008516789
71	0x3e60c0ec	0.21948594
72	0x3de63b58	0.11241788
73	0x3e48facb	0.1962692
74	0x3e4cb808	0.19992077
75	0x3c5fffee	0.013671858
76	0xbdbb325e	-0.09140466
77	0xbd0a975a	-0.033835746
78	0x3cea7bfc	0.028623573
79	0xbcb6d8ad	-0.022320116
80	0xbe83b306	-0.25722522
81	0x3cca5ee1	0.024703445
82	0x3e0088ed	0.12552233
83	0xbe2b39e9	-0.1672131
84	0x3cedde2c	0.029036604
85	0x3d08054f	0.033208188
86	0x3e70dadd	0.2352099
87	0xbe043f95	-0.1291488
88	0x3e5e822c	0.21729344
89	0xbd76522c	-0.06013696
90	0xbe70dd3e	-0.23521897
91	0xbd99967e	-0.07499407
92	0x3e14280a	0.14468399
93	0x3cfe09be	0.031010505
94	0xbdb45792	-0.08805765
95	0x3d88170f	0.06645023
96	0xbd0721dd	-0.03299128
97	0x3dcd4291	0.10022462
98	0x3e02e333	0.12781982
99	0xbd36d616	-0.044637762
100	0xbe28465e	-0.16433093
101	0x3d3f6064	0.046722785
102	0x3bc424fa	0.0059858533
103	0xbe121326	-0.14265117
104	0xbe819d4a	-0.25315315
105	0xbe443403	-0.19160466
106	0x3b416c99	0.0029514192
107	0x3d9b819a	0.07593079
108	0xbd03a1d6	-0.03213676
109	0xbd50fde2	-0.05102337
110	0xbe4b805a	-0.19873181
111	0xbd5dad5d	-0.05412041
112	0xbdc8c979	-0.09804053
113	0x3cec05b6	0.028811317
114	0xbe7b5a21	-0.245461
115	0xbd3dd7aa	-0.04634825
116	0xbda0d036	-0.07852213
117	0x3dee6a0f	0.11641323
118	0x3d889a7b	0.0667009
119	0xbcd4b1b5	-0.025963644
120	0x3e6bafac	0.23016232
121	0x3e129005	0.14312752
122	0x3d06c7f2	0.032905526
123	0x3d263e82	0.040586956
124	0x3d678af3	0.056528997
125	0x3e19bd97	0.15013729
126	0x3db4f84c	0.08836421
127	0x3e8e6495	0.27811113
128	0xbe5da483	-0.21644787
129	0xbe5af72e	-0.21383354
130	0xbd033f4d	-0.03204279
131	0xbe256a10	-0.16153741
132	0xbd56b386	-0.0524173
133	0xbde907be	-0.1137843
134	0xbcbdc542	-0.023165349
135	0xbe53a52c	-0.20668477
136	0xbbba4261	-0.0056841825
137	0x3dbbceed	0.09170327
138	0x3e272427	0.16322385
139	0xbd9f09e0	-0.077655554
140	0xbe157880	-0.14596748
141	0x3e0e20a3	0.13879637
142	0x3e160350	0.14649701
143	0xbbcc5658	-0.006235879
144	0xbb8c4de5	-0.0042817467
145	0x3e28e55e	0.16493747
146	0xbd06684e	-0.032814316
147	0xbe2167be	-0.15762231
148	0x3e9afe47	0.30272123
149	0x3e2bdacc	0.16782683
150	0x3c813973	0.015774464
151	0xbe015bac	-0.12632626
152	0xbe0afae8	-0.13572276
153	0xbe4fcf42	-0.20293906
154	0xbe2ed033	-0.17071609
155	0x3e0e026d	0.13868113
156	0x3e36e3f4	0.17860395
157	0xbccd1f2c	-0.025039278
158	0x3daa2136	0.08307116
159	0x3b0e993f	0.0021758822
160	0xbe3d190e	-0.18466589
161	0x3e1fc8ac	0.15603894
162	0x3dc19ce2	0.09453751
163	0xbe596b0e	-0.21232244
164	0xbd04c597	-0.032415
165	0x3d3c5ab4	0.04598494
166	0xbd87f798	-0.06639022
167	0x3e87f3a4	0.2655307
168	0x3cd4a763	0.025958722
169	0x3df6590a	0.120287016
170	0xbe0d7808	-0.1381532
171	0x3c46e267	0.012138939
172	0xbe07a816	-0.13247713
173	0x3da3fa28	0.08006698
174	0x3db00934	0.08595505
175	0x3d569b46	0.052394174
176	0xbe0e256a	-0.1388146
177	0x3c3c856c	0.01150642
178	0x3d91d38e	0.07120429
179	0x3c7792a3	0.0151106445
180	0xbe8d60f4	-0.27613032
181	0x3e3fa105	0.18713768
182	0xbcc687dc	-0.024234705
183	0xbe2e6067	-0.17028962
184	0xbe3a0b68	-0.18168414
185	0x3d8a2d80	0.0674696
186	0x3e0b3664	0.13594967
187	0xbd9de1e7	-0.07709103
188	0x3d9c18c6	0.07621913
189	0x3d8e7488	0.0695582
190	0x3e46a205	0.19397743
191	0xbe35528b	-0.17707269
192	0xbe0673bb	-0.13130085
193	0x3e1cdc22	0.15318349
194	0x3dd61f21	0.10455156
195	0xbe19aa59	-0.15006389
196	0xbd95a5a1	-0.07306982
197	0x3e1b60f2	0.151737
198	0x3d82d56c	0.06388363
199	0x3de8571d	0.113447405
200	0xbe36f5b0	-0.1786716
201	0xbe2d8f72	-0.16949251
202	0x3d34bd17	0.044125643
203	0xbde83df6	-0.11339943
204	0xbde19263	-0.11014249
205	0xbcceceb9	-0.025245057
206	0x3d4df4e8	0.05028239
207	0x3df52e8f	0.11971771
208	0x3cb7a76a	0.022418696
209	0x3bad8fda	0.0052966895
210	0x3d4ba83b	0.049720984
211	0x3e161993	0.14658193
212	0xbdbffa7a	-0.093739465
213	0xbdb285d5	-0.08716933
214	0x3e0ffa82	0.14060405
215	0xbe181a37	-0.1485375
216	0x3e43a23e	0.19104859
217	0xbab50c39	-0.0013812847
218	0x3d3b9847	0.04579952
219	0xbd80dc20	-0.062919855
220	0x3e00e6c2	0.12588027
221	0x3a52e7a8	0.0008045384
222	0xbe0a33e1	-0.13496353
223	0x3e08ff9a	0.13378754
224	0x3e3cc552	0.18434647
225	0x3e482d62	0.19548562
226	0x3de5b861	0.11216808
227	0x3e5c5db9	0.21520127
228	0x3e3b7337	0.1830567
229	0xbe0562ee	-0.1302602
230	0xbdaa21da	-0.08307238
231	0x3e422797	0.18960415
232	0x3de3260b	0.110912405
233	0xbe4b8d6b	-0.19878165
234	0x3df2715d	0.118380286
235	0x3d4748b6	0.048653327
236	0xbe1b083f	-0.15139864
237	0xbe4d8f51	-0.20074202
238	0xbe1183f3	-0.14210491
239	0x3deae9a3	0.11470344
240	0xbe20d2a4	-0.15705353
241	0x3e042d8c	0.12908
242	0xbe3676d7	-0.17818771
243	0x3e151896	0.1456016
244	0xbdae1322	-0.08499743
245	0x3dcefd85	0.10106949
246	0x3e867950	0.2626443
247	0xbd922939	-0.07136769
248	0xbd0a6948	-0.03379181
249	0xbd9602eb	-0.07324775
250	0xbd9168d8	-0.071000755
251	0x3d6f1a91	0.058374945
252	0x3df6b6a6	0.12046556
253	0xbc493a4d	-0.012281966
254	0xbe44e35f	-0.1922736
255	0x3e953019	0.29138258

feat_proj.bias f4 [128]
0	0xbd22a144	-0.039704576
1	0x3cd56e8c	0.02605369
2	0x3e422abc	0.18961614
3	0x3e1e2f20	0.15447664
4	0xbd85767c	-0.0651674
5	0x3df1cb85	0.118063964
6	0xbe2f253d	-0.17104049
7	0x3d779109	0.06044105
8	0x3e392652	0.18081024
9	0x3c07f0b8	0.008297138
10	0xbd6bbe28	-0.057554394
11	0xbd81c48a	-0.06336315
12	0x3db988b0	0.09059274
13	0xbb8b149d	-0.0042444007
14	0x3db7dc09	0.08977515
15	0xbd6c779e	-0.057731263
16	0xbde49d43	-0.11162808
17	0x3dc3e2da	0.09564753
18	0xbddd76f6	-0.108137056
19	0x3e336e02	0.17522433
20	0x3d416e83	0.047224533
21	0xbe00c602	-0.12575534
22	0xbcdef534	-0.027216531
23	0xbe2e3a03	-0.17014317
24	0xbd13ff76	-0.0361323
25	0x3c144051	0.009048537
26	0x3cc3b5aa	0.023890335
27	0x3e3252f3	0.17414455
28	0x3d314d3c	0.043286547
29	0xbe4fccef	-0.2029302
30	0xbe3f82fa	-0.18702307
31	0xbc69d5ac	-0.014272135
32	0xbdc94073	-0.09826746
33	0xbc07d583	-0.008290651
34	0x3da954ce	0.08268128
35	0xbdea1b02	-0.114309326
36	0xbe1ff0c7	-0.15619193
37	0x3d97e047	0.074158244
38	0x3d984316	0.074346706
39	0x3e5c7cfc	0.21532053
40	0x3e0e5eb9	0.13903321
41	0xbc962dde	-0.018332418
42	0xbd6c30b3	-0.05766363
43	0xbdc9e617	-0.09858339
44	0x3e33b2f4	0.17548734
45	0x3d81e471	0.063424
46	0x3d2beed1	0.0419758
47	0xbdd9ceb8	-0.106351316
48	0xbe0fc805	-0.14041145
49	0x3e28df60	0.16491461
50	0x3e4e6eac	0.20159405
51	0xbe15c201	-0.14624788
52	0xbd125b53	-0.035731625
53	0xbe1ed96e	-0.1551263
54	0xbcef5a04	-0.029217727
55	0x3d545222	0.05183614
56	0xbd662f12	-0.056197233
57	0xbd235958	-0.039880127
58	0xbc8d66c9	-0.017260926
59	0x3dc95bf3	0.09831991
60	0xbdb99e28	-0.09063369
61	0x3c8945ad	0.016756857
62	0xbe3c701e	-0.18402144
63	0x3d287879	0.041130517
64	0x3e133913	0.14377241
65	0x3d21d2ab	0.03950755
66	0x3d01787a	0.031609036
67	0x3e05b68f	0.13057922
68	0x3db85eaa	0.09002431
69	0x3de02d7a	0.10946174
70	0xbd07d5b8	-0.033162802
71	0xbe30e79c	-0.17275852
72	0x3e218d4d	0.15776558
73	0x3e081832	0.1329048
74	0x3c80e10b	0.015732309
75	0xbdace129	-0.084413834
76	0x3c20ee4c	0.009822439
77	0x3dc8adbe	0.09798764
78	0xbda4c385	-0.08045105
79	0x3d8c180e	0.068405256
80	0x3d13b93f	0.036065336
81	0x3df8a115	0.12140099
82	0x3e0dcde1	0.13848068
83	0xbd87da91	-0.06633485
84	0x3e181256	0.14850745
85	0xbd8bdb68	-0.06828958
86	0xbe0fce0d	-0.14043446
87	0x3df83a2c	0.121204704
88	0xbd5c1b94	-0.053737238
89	0x3d3bcbad	0.045848537
90	0x3db59de5	0.088680066
91	0x3e1bbe0d	0.15209217
92	0xbc42ce68	-0.011890031
93	0xbe12918f	-0.14313339
94	0xbdf4845e	-0.119393095
95	0xbdb309b1	-0.08742083
96	0xbde7ffb0	-0.113280654
97	0xbd0e4546	-0.034734033
98	0x3de5126c	0.11185154
99	0xbdd4ad02	-0.10384561
100	0xbdfd50ad	-0.12368903
101	0xbdd23bb8	-0.10265297
102	0x3da16ff8	0.078826845
103	0x3d9ae824	0.075638086
104	0xbdc2955e	-0.09501146
105	0x3de03f93	0.10949626
106	0x3c643e6b	0.013930897
107	0x3ddc9af9	0.10771746
108	0xbd3249bd	-0.043527354
109	0xbac13425	-0.0014740272
110	0x3e1c4748	0.15261567
111	0xbdb8163d	-0.089886166
112	0xbde47096	-0.111542866
113	0xbd725fcd	-0.059173394
114	0xbdf8b8cb	-0.121446215
115	0x3b4c07b6	0.0031132526
116	0xbbd75dc5	-0.0065724575
117	0xbe402791	-0.18765093
118	0x3cf184c7	0.029482258
119	0xbe24b7b1	-0.16085698
120	0xbe1459c7	-0.14487372
121	0x3e26f753	0.16305284
122	0xbe43d24d	-0.19123192
123	0xbd7007f7	-0.058601346
124	0xbe6221f7	-0.22083269
125	0x3d26a683	0.04068614
126	0x3d4430ec	0.047898218
127	0x3e0e7aee	0.13914081

local1.conv.bias f4 [128]
0	0x3b5aef41	0.0033406767
1	0x3ca96ede	0.020682748
2	0x3b2a50e5	0.0025988158
3	0x3b2c4fa3	0.0026292584
4	0xbc473553	-0.01215871
5	0xbc96d871	-0.018413754
6	0x3c7dff28	0.0155027285
7	0x3ca80996	0.020512383
8	0xba8be3dc	-0.0010672766
9	0x3c42b178	0.011883132
10	0xbbdd3646	-0.0067508547
11	0x3be06982	0.006848515
12	0xbb52c038	-0.0032158028
13	0x3b0e6771	0.0021729136
14	0xba790a3d	-0.0009500122
15	0x3c9c8727	0.019107414
16	0xbb88a83d	-0.004170446
17	0xbcdda42f	-0.027055828
18	0xbc1ab4af	-0.009442492
19	0xbccbf8b3	-0.024898862
20	0x3c30bd2d	0.0107872905
21	0x3cce7f68	0.025207236
22	0x3c3aa106	0.01139093
23	0x3ce65e2e	0.02812108
24	0x3c80ec28	0.015737608
25	0x3b19f1f5	0.0023490165
26	0xbbc24f51	-0.0059298654
27	0x3ca3fd40	0.02001822
28	0x3cea900e	0.028633144
29	0xba45663b	-0.0007530187
30	0x3cb81579	0.022471176
31	0x3bb2692e	0.0054446673
32	0x3c2f63c6	0.01070494
33	0x3b560e5d	0.003266237
34	0x3ad83792	0.0016496053
35	0x3c6257e8	0.013814904
36	0x3bc2ca08	0.005944494
37	0x3ae87df2	0.001773773
38	0x3c9893ea	0.018625218
39	0x3ba56bb3	0.005048239
40	0xbc2614d1	-0.010136799
41	0xbbe186d0	-0.006882526
42	0x3b5711ac	0.003281693
43	0x3a83c8dc	0.0010054368
44	0x3ce3a9fb	0.027791014
45	0x3c5afe2b	0.013366262
46	0x3cd18058	0.025573894
47	0x3b245f37	0.0025081167
48	0xbd6097b5	-0.05483218
49	0xbb1aeb36	-0.0023638732
50	0x3ba140a8	0.0049210377
51	0x3c92d439	0.017923461
52	0x3c1a65ce	0.009423686
53	0x3c78d3f5	0.015187253
54	0x3b772e3a	0.0037716762
55	0x3c44e829	0.012018242
56	0xbc2c567c	-0.010518666
57	0x3ba2a891	0.0049639423
58	0x3c93b1d2	0.018029127
59	0x3c57c4b3	0.013169455
60	0xbc28646b	-0.010277848
61	0x3a8c933e	0.0010725034
62	0xbacd1c84	-0.0015648757
63	0xbc3f0efd	-0.011661288
64	0xbc053f52	-0.0081327725
65	0xbc19ec54	-0.009394724
66	0xbb82b4bb	-0.00398883
67	0x3b8b470c	0.004250413
68	0xbd3bd768	-0.045859724
69	0xbb048f6c	-0.0020227088
70	0xbc7c4aec	-0.015398722
71	0x3b56958a	0.003274294
72	0xbd76805a	-0.060181
73	0x3c4d14cb	0.012517164
74	0x3ba6a5fd	0.0050857053
75	0xbb8f551b	-0.004374159
76	0x3bd5cb18	0.006524455
77	0xbc5b2c72	-0.013377296
78	0x3c2274f2	0.009915577
79	0xbb37d37a	-0.0028049634
80	0x3cc6cc99	0.024267482
81	0x3c81c8dc	0.015842848
82	0x3c67e26a	0.014153102
83	0xbca8446a	-0.020540435
84	0xbad6fa04	-0.0016401415
85	0x3c250e66	0.010074234
86	0x3bff5ce2	0.007793055
87	0x3c8a5405	0.016885767
88	0x3c50133e	0.0126999
89	0x3c847a36	0.016171556
90	0x3ca023e3	0.019548362
91	0x3b6008e6	0.0034184991
92	0xbce36ca7	-0.02776177
93	0x3c2533e6	0.010083174
94	0x3ca423b4	0.020036556
95	0x3bdc824d	0.0067294003
96	0xbc47bce7	-0.012191034
97	0x391973d1	0.00014634362
98	0x3cb1c6ef	0.021701304
99	0xbb88ca3a	-0.004174498
100	0x3cf962b5	0.030442575
101	0x3c71df44	0.014762703
102	0xbc328449	-0.010895797
103	0x3c8687f5	0.016422251
104	0x3c47339f	0.0121583035
105	0x3c9ab486	0.018884908
106	0xbc71d763	-0.014760825
107	0xbb0519f7	-0.0020309666
108	0x3b208c2b	0.002449761
109	0xbc0a5f13	-0.008445519
110	0x3c4bbeb4	0.012435604
111	0x3c100ca5	0.008792077
112	0xbc5c85fd	-0.01345968
113	0x3ca7d7da	0.020488668
114	0x3c7f8525	0.015595709
115	0x3bc129dd	0.005894883
116	0x3b40dccb	0.0029428478
117	0xbcb7bcfb	-0.02242898
118	0x3d07a6fd	0.033118237
119	0xbc3dbdf8	-0.011580937
120	0xbb9b0071	-0.004730277
121	0x3cf13e75	0.029448727
122	0x3b26f241	0.0025473984
123	0xbbd9ca73	-0.0066464483
124	0xbc2bd4fd	-0.010487792
125	0x3be877bc	0.0070943516
126	0xbb0f53b1	-0.0021869952
127	0x3c811b8b	0.015760204

local1.conv.lin.weight f4 [128, 128]
0	0x3e619889	0.22030844
1	0xbd03356e	-0.032033376
2	0x3daa18a9	0.08305485
3	0xbe00a2d0	-0.12562108
4	0xbd425e5d	-0.047453273
5	0xbacaed08	-0.0015482018
6	0xbe055fdc	-0.13024849
7	0x3e019c5a	0.126573
8	0xbe064033	-0.13110428
9	0xbd871153	-0.06595101
10	0x3e13cb1f	0.14432953
11	0x3dda70f3	0.106660746
12	0x3dd73c33	0.10509529
13	0x3cadcf94	0.021217145
14	0xbcfe3c58	-0.031034634
15	0x3e6129b0	0.21988559
16	0x3d9c7e33	0.07641258
17	0x3dc1f422	0.09470393
18	0x3d3519e4	0.044214144
19	0xbe2b2201	-0.1671219
20	0x3d026b15	0.031840403
21	0x3bc08da4	0.00587626
22	0x3db72507	0.08942609
23	0x3d47a93a	0.04874537
24	0xbdce4251	-0.100712426
25	0x3d87472f	0.06605374
26	0x3cc9111d	0.024544293
27	0x3d6e2bb6	0.058147155
28	0x3cad49b3	0.021153307
29	0xbd89c630	-0.067272544
30	0x3da05937	0.078295164
31	0x3daa2657	0.08308094
32	0xbdc3c013	-0.095581196
33	0x3e3870fa	0.18011847
34	0xbda9149a	-0.082558826
35	0xbc22b323	-0.009930405
36	0x3e2a87e7	0.16653405
37	0xbc7f0e8a	-0.015567431
38	0xbdf89144	-0.12137082
39	0xbe0bbf3e	-0.13647172
40	0xbd86acba	-0.06575914
41	0x3e075192	0.1321471
42	0xbc940cb5	-0.018072465
43	0x3e098d1c	0.13432735
44	0x3c2b4000	0.0104522705
45	0xbce277a1	-0.027644934
46	0xbda72a2f	-0.08162343
47	0x3da9dc8f	0.08294021
48	0xbd548b36	-0.051890574
49	0xbe320dd7	-0.17388092
50	0xbdc8da64	-0.0980728
51	0x3d55d143	0.05220152
52	0x3d0a5d98	0.033780664
53	0x3d978c58	0.07399815
54	0xbe194c43	-0.14970498
55	0xbe20ab78	-0.1569041
56	0xbcec4e5b	-0.028845957
57	0x3d6a9f98	0.057281107
58	0xbd54a026	-0.051910542
59	0xbbd327d1	-0.0064439555
60	0xbb8837a9	-0.004157026
61	0xbe18a8c8	-0.14908135
62	0x3e00e32a	0.12586656
63	0xbdbc323c	-0.09189269
64	0xbe3a6366	-0.1820198
65	0x3c96dac5	0.018414864
66	0xbced183e	-0.028942224
67	0x3cc7d6fb	0.024394503
68	0x3dff6d35	0.124720015
69	0xbceaf85b	-0.028682878
70	0x3bca03c5	0.006165
71	0xbe29fe06	-0.16600809
72	0xbd2156aa	-0.03938929
73	0x3e394d56	0.18095908
74	0xbc2ec85c	-0.010667887
75	0xbd98f888	-0.074692786
76	0xbe1c39ff	-0.15256499
77	0x3dff2a6b	0.124592625
78	0xbe159ffb	-0.14611809
79	0xbd43c800	-0.047798157
80	0x3d2e03cc	0.04248409
81	0x3dbd0430	0.09229314
82	0xbd7a5199	-0.061112974
83	0x3dc31726	0.095258996
84	0xbe2180d3	-0.15771799
85	0xbe0858e9	-0.13315167
86	0x3de6a770	0.11262405
87	0x3de218ce	0.11039887
88	0xbd32c33e	-0.04364323
89	0x3d9d7e94	0.076901585
90	0xbddef237	-0.108860426
91	0xbdd6fc5a	-0.10497351
92	0x3de7fc16	0.113273785
93	0xbd8f76a4	-0.07005051
94	0xbcf68238	-0.03009139
95	0x3e36e0e3	0.17859225
96	0xbe0934b7	-0.13399015
97	0xbd5bd2b3	-0.053667735
98	0xbe4f63f3	-0.20252971
99	0x3bf8bc90	0.007590838
100	0x3d7bd6df	0.061484214
101	0xbde7a22e	-0.1131023
102	0xbc3b98cc	-0.011450004
103	0x3bbcece6	0.005765545
104	0xbdb1646f	-0.08661734
105	0x3d84b052	0.06478943
106	0x3d35b096	0.04435786
107	0xbd205ff3	-0.039154004
108	0x3cc80538	0.024416551
109	0xbcdb50f1	-0.026771994
110	0x3c3da17d	0.011574146
111	0xbd9c1491	-0.0762111
112	0x3c2e8648	0.010652132
113	0xbdbe38d2	-0.09288181
114	0xbe26f738	-0.16305244
115	0xbdf76d0f	-0.12081348
116	0x3d810a94	0.06300846
117	0x3d5941d2	0.053041287
118	0xbe0ae619	-0.13564338
119	0x3e341ad7	0.17588364
120	0xbe04cdd8	-0.12969148
121	0xbc6b1cbc	-0.0143501125
122	0xbd1e66a7	-0.038672116
123	0x3c0c805f	0.008575528
124	0xbe018009	-0.12646498
125	0xbdd43e65	-0.10363463
126	0xbe0dfbc7	-0.13865577
127	0x3dd1b53a	0.10239644
128	0x3d0d3a8a	0.034479655
129	0xbdee3e43	-0.11632969
130	0xbdb9df30	-0.09075773
131	0xbe13859b	-0.14406435
132	0xbd9fd1b2	-0.07803668
133	0x3e338253	0.17530183
134	0x3da4acd5	0.080407776
135	0xbdef55c3	-0.116862796
136	0x3b4ebbbf	0.003154501
137	0x3cd97fa1	0.026550116
138	0x3e1f854c	0.15578192
139	0x3a7a7a4a	0.00095549657
140	0xbda453d7	-0.08023804
141	0x3dca4279	0.0987596
142	0xbe317a8a	-0.17331901
143	0xbdfefc0c	-0.12450418
144	0x3db604a2	0.088876024
145	0x3da88a6b	0.08229526
146	0xbe07fad3	-0.13279276
147	0xbe1e89db	-0.15482275
148	0x3e13bfa9	0.14428581
149	0x3d2e3e97	0.04254016
150	0x3d9769b4	0.07393208
151	0x3c3a976d	0.011388642
152	0x3e18f1a0	0.14935923
153	0x3dfb84cd	0.12281189
154	0xbd541132	-0.05177421
155	0xbd3c60f0	-0.045990884
156	0xbdc09443	-0.09403279
157	0xbe50e702	-0.20400622
158	0xbc8b6541	-0.017016055
159	0x3e311725	0.17293985
160	0xbd9f02a7	-0.07764178
161	0x3d090486	0.03345158
162	0xbd69cdba	-0.05708096
163	0x3d99e834	0.07514992
164	0xbdb04b75	-0.08608142
165	0x3e1c97a1	0.15292217
166	0xbb643303	-0.0034820444
167	0xbd911b8b	-0.070853315
168	0x3dbf6186	0.09344773
169	0x3c8d6bc4	0.0172633
170	0x3dda42a1	0.1065724
171	0xbd0f01b6	-0.03491374
172	0x3da73a88	0.08165461
173	0xbda2f0c0	-0.07956076
174	0xbcbd4ace	-0.023106959
175	0xbe1370c2	-0.14398482
176	0xbd0864d2	-0.033299275
177	0xbe39aad3	-0.1813157
178	0x3d4912d0	0.049090207
179	0x3db7e421	0.08979059
180	0xbe52b3e1	-0.20576431
181	0x3d93cb53	0.072165154
182	0xbcc6efe9	-0.02428432
183	0x3d7bea6d	0.061502863
184	0x3e035573	0.12825565
185	0xbc899b15	-0.016797582
186	0x3becfb7a	0.007232127
187	0x3ba30006	0.004974368
188	0x3d773038	0.06034872
189	0xbe144f84	-0.14483458
190	0xbd53161a	-0.05153475
191	0x3d51aa29	0.051187668
192	0x3e159990	0.1460936
193	0xbde03fed	-0.10949693
194	0x3cb8c9a5	0.02255709
195	0xbaa54728	-0.0012609707
196	0x3d1606fe	0.036627762
197	0x3db421a1	0.08795477
198	0xbcd5c9ce	-0.026097205
199	0x3e06ac6c	0.13151711
200	0x3e16e9fb	0.14737694
201	0x3d6c9a5b	0.057764392
202	0x3c9a8415	0.01886181
203	0xbc56ce47	-0.013110704
204	0x3c3c9353	0.011509734
205	0xbd98d4d5	-0.074624695
206	0xbd5dd388	-0.05415681
207	0xbdd39566	-0.1033123
208	0xbd828efb	-0.063749276
209	0xbe19d833	-0.1502388
210	0xbdcac074	-0.09899989
211	0xbc1a06a1	-0.0094009945
212	0x3d00c98f	0.03144222
213	0xbd15f712	-0.036612578
214	0xbe13dfde	-0.14440867
215	0x3e3cd931	0.18442227
216	0x3d64d8c0	0.05587077
217	0xbdc70331	-0.097174056
218	0x3d3c02fb	0.04590128
219	0x3db1f1ce	0.08688699
220	0x3db970cd	0.09054718
221	0xbde4eb9d	-0.11177752
222	0xbe0852ae	-0.1331279
223	0x3da2c218	0.07947177
224	0x3daf26d2	0.08552326
225	0xbc46f3a9	-0.012143054
226	0xbdc527e4	-0.09626749
227	0x3d237c2a	0.039913334
228	0xbdcc0abf	-0.09962987
229	0xbe03a694	-0.12856513
230	0xbdf09a38	-0.11748165
231	0xbc00ae40	-0.007854044
232	0xbe1eadf3	-0.15496044
233	0x3e3809c3	0.17972474
234	0x3ce30411	0.0277119
235	0xbd1354af	-0.035969432
236	0xbc9447da	-0.018100668
237	0x3d392692	0.0452028
238	0xbdbe2a2a	-0.09285386
239	0xbd4bb26b	-0.0497307
240	0xbdb99427	-0.09061461
241	0xbce86064	-0.028366275
242	0xbd8ac21a	-0.06775303
243	0xbe127086	-0.14300737
244	0xbc2ed0a2	-0.010669859
245	0xbd11a6f4	-0.03555961
246	0xbdc92a46	-0.09822516
247	0x3bf50193	0.0074769943
248	0xbdb66378	-0.08905691
249	0x3d25570e	0.040366225
250	0x3d74d5fd	0.059774388
251	0x3d5603f7	0.052249875
252	0xbe0d4225	-0.13794763
253	0x3e22492d	0.15848227
254	0xbd645196	-0.05574187
255	0xbdafd1bc	-0.085849255

local1.norm.weight f4 [128]
0	0x3f8130ca	1.0093014
1	0x3f807182	1.003464
2	0x3f87c3d4	1.0606637
3	0x3f866a05	1.0501105
4	0x3f76b830	0.963748
5	0x3f8ffacb	1.1248411
6	0x3f79a274	0.9751351
7	0x3f887a5c	1.0662341
8	0x3f851c25	1.0399214
9	0x3f762728	0.961535
10	0x3f6d1287	0.92606395
11	0x3f7c274c	0.9849746
12	0x3f810816	1.0080593
13	0x3f775d0b	0.9662635
14	0x3f82304d	1.017099
15	0x3f77f654	0.9686024
16	0x3f7c9924	0.98671174
17	0x3f8a15d5	1.0787913
18	0x3f858fd1	1.0434514
19	0x3f9d6840	1.229744
20	0x3f832972	1.0247023
21	0x3f81f01b	1.0151399
22	0x3f786b33	0.97038573
23	0x3f8295e2	1.0201991
24	0x3f77c260	0.9678097
25	0x3f7e39f3	0.99307173
26	0x3f861582	1.0475314
27	0x3f7cc1c2	0.9873315
28	0x3f7b2395	0.9810117
29	0x3f7c1a49	0.9847761
30	0x3f7b0c55	0.9806569
31	0x3f6fee81	0.93723303
32	0x3f76357e	0.9617537
33	0x3f81a21b	1.0127596
34	0x3f79d28c	0.97586894
35	0x3f81565f	1.0104483
36	0x3f7f540f	0.9973764
37	0x3f80c28e	1.0059373
38	0x3f7d7bef	0.9901723
39	0x3f822017	1.0166043
40	0x3f821161	1.0161554
41	0x3f7ee7d2	0.9957248
42	0x3f75f394	0.96074796
43	0x3f718b09	0.94352776
44	0x3f87097e	1.0549772
45	0x3f7cd673	0.98764724
46	0x3f8159be	1.0105512
47	0x3f817aa8	1.0115557
48	0x3f8a343f	1.0797194
49	0x3f7fe3ca	0.99956954
50	0x3f7b217e	0.9809798
51	0x3f73e090	0.9526453
52	0x3f8254b8	1.0182104
53	0x3f6fb4ae	0.9363507
54	0x3f7eb939	0.9950138
55	0x3f8315e0	1.0241051
56	0x3f9148cd	1.1350342
57	0x3f816d51	1.0111486
58	0x3f751606	0.9573673
59	0x3f6867db	0.9078347
60	0x3f73df60	0.9526272
61	0x3f6e4b34	0.930835
62	0x3f78fe66	0.9726318
63	0x3f7e1f76	0.99266756
64	0x3f826510	1.0187092
65	0x3f84c93e	1.0373914
66	0x3f89ab35	1.0755373
67	0x3f824114	1.017611
68	0x3f8826fd	1.0636898
69	0x3f6d1ccf	0.92622083
70	0x3f7dc304	0.99125695
71	0x3f8058e3	1.0027126
72	0x3f8a323e	1.0796583
73	0x3f7c8a17	0.9864821
74	0x3f78f036	0.9724153
75	0x3f852b23	1.0403789
76	0x3f74d4f0	0.95637417
77	0x3f8b2cd6	1.0873058
78	0x3f834091	1.0254079
79	0x3f810df8	1.0082388
80	0x3f7a91df	0.9787883
81	0x3f8507ae	1.0392969
82	0x3f786bad	0.970393
83	0x3f7dd903	0.9915926
84	0x3f8219a7	1.0164078
85	0x3f76f63a	0.9646946
86	0x3f7b7b1b	0.9823472
87	0x3f774e60	0.96603966
88	0x3f740598	0.95321035
89	0x3f830057	1.0234479
90	0x3f846e7f	1.0346221
91	0x3f7cb035	0.9870637
92	0x3f86c60a	1.0529187
93	0x3f88e74d	1.0695587
94	0x3f80ad9d	1.0052983
95	0x3f80df66	1.0068176
96	0x3f785dd0	0.97018147
97	0x3f7d714d	0.9900101
98	0x3f7982a5	0.9746497
99	0x3f822121	1.016636
100	0x3f691479	0.91046864
101	0x3f74f14f	0.9568071
102	0x3f77a617	0.9673781
103	0x3f85ccb1	1.0453092
104	0x3f811516	1.008456
105	0x3f823e2c	1.0175223
106	0x3f83e294	1.0303521
107	0x3f81b1ad	1.0132347
108	0x3f82d12d	1.0220085
109	0x3f73e863	0.9527647
110	0x3f6e2c59	0.9303642
111	0x3f801ec7	1.0009392
112	0x3f8ed35f	1.1158255
113	0x3f74a421	0.9556294
114	0x3f85ddfa	1.0458367
115	0x3f86c958	1.0530195
116	0x3f6e539c	0.9309633
117	0x3f850361	1.0391656
118	0x3f78ff44	0.97264504
119	0x3f84609b	1.0341982
120	0x3f7d534a	0.98955214
121	0x3f717ba5	0.9432929
122	0x3f7fb4ba	0.9988514
123	0x3f80ac55	1.0052592
124	0x3f7af5cc	0.98031306
125	0x3f79fe32	0.97653496
126	0x3f78743d	0.97052366
127	0x3f84f885	1.0388342

local1.norm.bias f4 [128]
0	0xbca56a5f	-0.020192323
1	0xbcf7e586	-0.030260812
2	0xbd36c0b4	-0.04461737
3	0xbdc40812	-0.09571852
4	0xbd689e00	-0.056791306
5	0xbd8897bc	-0.06669566
6	0xbd390008	-0.045166045
7	0xbd7c1483	-0.061543
8	0xbcd52d6a	-0.026022632
9	0xbda80fda	-0.082061484
10	0xbdb30d18	-0.08742732
11	0xbd714dac	-0.058911964
12	0xbd8ade95	-0.067807354
13	0xbd38ee45	-0.045149107
14	0xbd76eead	-0.060286213
15	0xbd470179	-0.04858539
16	0xbd1fd49a	-0.039021112
17	0xbd85a7fc	-0.06526181
18	0xbd07c7ef	-0.033149656
19	0xbda5a4af	-0.080880515
20	0xbd0422cb	-0.032259744
21	0xbd5713ac	-0.052508995
22	0xbd755b32	-0.059901424
23	0xbd92d9b5	-0.071704306
24	0xbd69daac	-0.057093307
25	0xbd3a908c	-0.045548007
26	0xbd800f61	-0.06252933
27	0xbd576e0d	-0.052595187
28	0xbd4a18a6	-0.049339913
29	0xbc6255bf	-0.013814389
30	0xbdaa64f6	-0.08320038
31	0xbd8c16e0	-0.068403006
32	0xbd7fc96a	-0.062447943
33	0xbd8d8826	-0.06910734
34	0xbd26a9d0	-0.04068929
35	0xbd5b5fef	-0.053558286
36	0xbd866698	-0.06562537
37	0xbceaa628	-0.028643683
38	0xbc481850	-0.012212828
39	0xbca3c4e8	-0.019991353
40	0xbd6806ae	-0.056646995
41	0xbd438989	-0.047738586
42	0xbd3b80f8	-0.04577729
43	0xbd837398	-0.06418532
44	0xbd7fe7f5	-0.06247707
45	0xbd50e567	-0.051000025
46	0xbd27fcdf	-0.04101264
47	0xbda50b14	-0.080587536
48	0xbd3118e9	-0.043236647
49	0xbcead1c4	-0.028664477
50	0xbce77339	-0.028253185
51	0xbdf66fea	-0.12033065
52	0xbd09221d	-0.0334798
53	0xbd976afc	-0.073934525
54	0xbd1e8c4e	-0.038708024
55	0xbcfc33d6	-0.030786436
56	0xbd54115c	-0.051774368
57	0xbd1b30ab	-0.03788821
58	0xbde69ad6	-0.11260001
59	0xbdb58b4c	-0.088644594
60	0xbd9b6a9c	-0.075886935
61	0xbda727bd	-0.08161876
62	0xbd982e58	-0.07430714
63	0xbd3691a6	-0.044572495
64	0xbd1ea915	-0.038735468
65	0xbd42c6db	-0.047552925
66	0xbcca3278	-0.024682269
67	0xbcd1fa8f	-0.025632171
68	0xbd773cdf	-0.060360786
69	0xbdaaf7b2	-0.083480254
70	0xbdb30641	-0.08741427
71	0xbd6bbe4a	-0.05755452
72	0xbd8124a9	-0.063058205
73	0xbd4886b9	-0.048956607
74	0xbd83017c	-0.063967675
75	0xbd07a9d9	-0.033120964
76	0xbd1f2eaf	-0.03886288
77	0xbded80c5	-0.115968265
78	0xbd25de1b	-0.04049502
79	0xbdb44cd3	-0.088037156
80	0xbdc31df5	-0.09527198
81	0xbcfb4e90	-0.03067711
82	0xbd924456	-0.0714194
83	0xbdc0c9e8	-0.094135106
84	0xbd32a2eb	-0.043612402
85	0xbd629396	-0.05531653
86	0xbd4d53aa	-0.050128616
87	0xbdc82e0c	-0.09774408
88	0xbd9a568e	-0.0753604
89	0xbd4728f8	-0.048623055
90	0xbd5b6e9b	-0.05357228
91	0xbce64640	-0.02810967
92	0xbd8cc9e7	-0.06874447
93	0xbd5f7c18	-0.054561704
94	0xbcebb1e1	-0.028771343
95	0xbdb751dd	-0.08951161
96	0xbd8d9242	-0.06912662
97	0xbce6e555	-0.028185526
98	0xbd1d0bd2	-0.03834135
99	0xbdbeeb50	-0.09322226
100	0xbd93d237	-0.0721783
101	0xbd61f879	-0.055168603
102	0xbd935718	-0.07194346
103	0xbcbbefeb	-0.02294155
104	0xbd9e8850	-0.07740843
105	0xbda38e1d	-0.0798609
106	0xbd89018b	-0.066897474
107	0xbd4788cd	-0.048714448
108	0xbd82d2b8	-0.06387848
109	0xbda06530	-0.078318
110	0xbd6096cd	-0.054831315
111	0xbd4db751	-0.050223652
112	0xbdac6d15	-0.08419243
113	0xbd9f5153	-0.07779183
114	0xbd0849b8	-0.03327343
115	0xbcadd7ea	-0.02122112
116	0xbdc06ea3	-0.09396102
117	0xbd6e3c38	-0.058162898
118	0xbd86a8f6	-0.065751955
119	0xbd3e9f0f	-0.04653841
120	0xbd8b21e8	-0.067935765
121	0xbd5284ae	-0.051396064
122	0xbd27ef6b	-0.04099981
123	0xbcf26933	-0.029591179
124	0xbdaa2833	-0.08308449
125	0xbdb4647a	-0.08808227
126	0xbdd3fecc	-0.10351333
127	0xbd183d7c	-0.03716801

local2.conv.bias f4 [128]
0	0xb98de1a5	-0.00027061734
1	0xb83de316	-4.52726e-05
2	0xb944a780	-0.00018754415
3	0x3a93bfd1	0.0011272376
4	0xbb532b0c	-0.0032221703
5	0x3ab96d8d	0.0014147029
6	0xb8c8a903	-9.568224e-05
7	0x3ad12ed1	0.0015959387
8	0xbba91cfc	-0.005160926
9	0x3c77f0f8	0.015133135
10	0x3aa7c686	0.0012800253
11	0x3ca9efbc	0.020744197
12	0x3a82b44d	0.0009971947
13	0xb8cd61e1	-9.793393e-05
14	0x3ac3edfd	0.0014948245
15	0xbab12481	-0.0013514907
16	0x3aed6f85	0.00181149
17	0x3a689a42	0.0008873084
18	0xbb853661	-0.0040653204
19	0x3a9d44ee	0.0011998692
20	0x39eddf46	0.00045370514
21	0x3b06cee0	0.0020570084
22	0x3a3ff00a	0.00073218404
23	0x3ab9fac3	0.0014189113
24	0x3cd44b13	0.025914704
25	0x3a910bb8	0.0011066115
26	0x39bd492b	0.00036103404
27	0xba513be1	-0.000798164
28	0x3a372ee2	0.0006987882
29	0x3a97ac37	0.001157171
30	0x3a6b211d	0.0008969473
31	0xbce35463	-0.0277502
32	0xba22f1b8	-0.00062158285
33	0xb9f8ee2b	-0.00047479695
34	0xbbe6684d	-0.0070314766
35	0x3a026b5b	0.00049751037
36	0x3a5d7e04	0.0008449259
37	0xbb9db89d	-0.0048132674
38	0x3ae3a99a	0.0017369271
39	0xba86560b	-0.0010249031
40	0xbb1189f5	-0.0022207473
41	0xbb16fb69	-0.0023038036
42	0xba4c9350	-0.00078039337
43	0xbb888132	-0.004165792
44	0xbb3c6eca	-0.002875256
45	0xba694816	-0.0008898986
46	0x3a326b7a	0.00068061764
47	0xbc930b8a	-0.017949838
48	0x3ad71ece	0.0016412379
49	0xb91c5b54	-0.00014911342
50	0xbbb44451	-0.005501308
51	0x3a93fab7	0.0011289929
52	0x39c49bdb	0.00037500155
53	0x3ca7034e	0.020387318
54	0x3a51a34f	0.0007997052
55	0xbc561e20	-0.013068706
56	0x394f848f	0.0001979044
57	0xbb0512be	-0.002030536
58	0x3abf8fff	0.0014615058
59	0x3a630b80	0.00086610764
60	0xbbc35333	-0.005960846
61	0x3a9bf427	0.0011898325
62	0xbc12553f	-0.008931457
63	0xb9330e8a	-0.00017076186
64	0xbbc51969	-0.006014992
65	0xbb9040e6	-0.0044022677
66	0xbabce97b	-0.0014412844
67	0x3bd17cd5	0.006393055
68	0xba2e495b	-0.0006648504
69	0xb8175b27	-3.6086098e-05
70	0xbb37a3b4	-0.0028021159
71	0x3afe1716	0.0019385542
72	0xba86692a	-0.001025473
73	0xb9e9e994	-0.00044615252
74	0xba2eecb4	-0.0006672845
75	0x3a8830c9	0.0010390516
76	0xbb3d2976	-0.0028863824
77	0xbb916694	-0.004437277
78	0x3abd8cdc	0.0014461535
79	0x39d8ee05	0.0004137607
80	0xbb55f417	-0.003264671
81	0x3acb2766	0.0015499413
82	0x39ea636c	0.00044706033
83	0x39d1ff09	0.00040053602
84	0x370c406f	8.359652e-06
85	0xb779ac79	-1.48817135e-05
86	0x3b10269d	0.0021995672
87	0xbbf35123	-0.0074254437
88	0x39361494	0.00017364539
89	0x39ce3417	0.00039330192
90	0x3a91b691	0.0011117031
91	0xb9bfcd40	-0.00036583282
92	0xbc759175	-0.014988293
93	0xba7ee243	-0.00097230467
94	0xbb2ea819	-0.0026650487
95	0xbaeecc53	-0.0018218852
96	0x3a7ea02a	0.00097131974
97	0x3afae59e	0.0019141918
98	0x3a4a372c	0.000771391
99	0xbb6d76e8	-0.0036234204
100	0xbac7d3bc	-0.0015245597
101	0x3ae38ffc	0.0017361636
102	0xbb80a3ac	-0.003925761
103	0x3d34d76e	0.044150762
104	0xbbe7e175	-0.007076437
105	0x399053dc	0.000275283
106	0x3b04fd65	0.0020292636
107	0x3da632a9	0.081151314
108	0x39f9b431	0.00047627234
109	0x3bf3bd96	0.007438372
110	0x3aeca911	0.0018055757
111	0xba85bae0	-0.0010202788
112	0x3cef2028	0.029190138
113	0x3b035dad	0.0020044849
114	0xbc2fcaee	-0.010729535
115	0x3aa14d6e	0.0012306401
116	0x3c4b17ac	0.0123957805
117	0x39c780ca	0.00038052193
118	0x3aff465f	0.0019475928
119	0x3a510599	0.00079735514
120	0x3a8ab17d	0.001058146
121	0x3a08617f	0.00052025163
122	0xb9852457	-0.00025394812
123	0x39f4f2aa	0.00046720105
124	0x3aa5f609	0.0012661825
125	0xb8c0b952	-9.189792e-05
126	0x3b101cec	0.0021989895
127	0x3cc9461a	0.02456956

local2.conv.lin.weight f4 [128, 128]
0	0xbb44e048	-0.0030040909
1	0x3e17748a	0.1479055
2	0x3da4c671	0.08045662
3	0xbd9f904b	-0.077911936
4	0xbde1eaeb	-0.11031135
5	0x3dfb99f3	0.12285223
6	0xbd7ff786	-0.062491916
7	0xbe32bb7c	-0.17454332
8	0xbc121b56	-0.00891765
9	0x3b5b2bb3	0.0033442795
10	0xbc93ed09	-0.018057363
11	0xbcac39bf	-0.02102363
12	0x3c91add3	0.017783081
13	0x3d1bdd3d	0.038052786
14	0xbd798727	-0.060919907
15	0x3e08c0f3	0.13354854
16	0x3dd7c015	0.105346836
17	0xbe22f333	-0.15913086
18	0x3e14468d	0.14480038
19	0x3bfd4f64	0.0077304114
20	0x3cf770b3	0.030205106
21	0x3e023056	0.12713751
22	0x3dd33ee4	0.1031473
23	0x3db1a2ab	0.086736046
24	0x3d7be4f4	0.061497644
25	0xbe13f712	-0.14449719
26	0xbe716af5	-0.23575957
27	0xbdba74be	-0.09104298
28	0xbe14f447	-0.1454631
29	0x3db64e1d	0.08901618
30	0xbdb4275a	-0.08796568
31	0x3c72d6b1	0.014821694
32	0xbda1abdb	-0.07894107
33	0xbd692e88	-0.05692914
34	0xbde020f6	-0.10943787
35	0x3d3dfd24	0.04638399
36	0xbd9ebbe1	-0.07750679
37	0x3d133cd7	0.035946693
38	0x3d0f4840	0.034981012
39	0xbe040406	-0.1289216
40	0x3bf2fb2e	0.007415197
41	0x3d6b9538	0.057515353
42	0xbdb814d3	-0.08988347
43	0xbd802144	-0.06256345
44	0x3daac535	0.083383955
45	0xbe04aa44	-0.12955576
46	0x3ded6a25	0.11592511
47	0x3d4fd302	0.050738342
48	0x3c9ecbdc	0.019384317
49	0xbc77e6d3	-0.015130716
50	0xbbcdef82	-0.006284655
51	0x3d7d202c	0.06179826
52	0xb920ccf0	-0.00015335134
53	0x3dc2a926	0.09504919
54	0x3ce27ec3	0.027648335
55	0xbe0baec2	-0.13640884
56	0x3d8f01a7	0.06982737
57	0xbddc428b	-0.107548796
58	0x3dba296c	0.09089932
59	0x3dcc132e	0.09964596
60	0x3df4c19e	0.11950992
61	0x3de782c8	0.113042414
62	0x3dccf5ec	0.100078434
63	0x3dfa9e9d	0.12237284
64	0x3dd76b03	0.10518458
65	0x3dcefb28	0.10106498
66	0xbe0c4d88	-0.13701451
67	0xbd4023b7	-0.04690906
68	0x3e03d18a	0.12872902
69	0x3da295c4	0.07938722
70	0x3dbc2828	0.09187347
71	0x3d4264af	0.0474593
72	0xbd8b12e4	-0.067907125
73	0xbb1e19d2	-0.0024124277
74	0xbd073186	-0.033006214
75	0xbbf6526b	-0.007517149
76	0xbdd5da4c	-0.104420274
77	0xbd2944b1	-0.041325275
78	0xbdb92136	-0.090395376
79	0x3d6e8dbe	0.058240645
80	0x3da162b6	0.07880156
81	0x3dec06d6	0.11524741
82	0xbd8c7e37	-0.06860011
83	0x3dc4c299	0.09607429
84	0x3d49664d	0.049169827
85	0x3cb76642	0.022387628
86	0x3d8794ef	0.06620204
87	0x3bfa0c7c	0.007630883
88	0xbc46554b	-0.012105296
89	0x3d817bce	0.06322442
90	0x3d8b5440	0.06803179
91	0xbb70e6a6	-0.003675857
92	0x3df49554	0.119425446
93	0xbe326271	-0.17420365
94	0x3e0f6961	0.14005043
95	0xbd2c2140	-0.042023897
96	0x3da6eff2	0.08151235
97	0xbe0b88f8	-0.13626468
98	0xbded7f10	-0.11596501
99	0xbd87eca4	-0.066369325
100	0xbdf31f51	-0.118712075
101	0xbe12b42d	-0.14326544
102	0x3cfc5540	0.03080237
103	0x3b0e4f08	0.0021714587
104	0xbc72e764	-0.014825676
105	0xbddeed85	-0.10885147
106	0x3db79094	0.08963123
107	0x3bebeb83	0.007199706
108	0x3d2391cb	0.03993396
109	0x3e152fee	0.14569065
110	0xbcacf4fa	-0.021112908
111	0xbdf5a6f9	-0.11994738
112	0x3dc5cf72	0.09658708
113	0x3cf30a6f	0.029668061
114	0x3dcdbe70	0.10046089
115	0xbe450463	-0.19239955
116	0x3df9fb6c	0.12206158
117	0x3dc16b4b	0.09444293
118	0x3d575eca	0.052580632
119	0x3db0172b	0.08598169
120	0xbddde97e	-0.10835551
121	0x3c149ecf	0.009071066
122	0x3cce3028	0.025169447
123	0xbdc99b84	-0.098441154
124	0xbd693297	-0.05693301
125	0x3d02172d	0.031760383
126	0x3dabe3ee	0.083930835
127	0xbd77b5bc	-0.06047605
128	0xbe3d840f	-0.18507408
129	0xbe57b669	-0.21065678
130	0xbe6570cb	-0.22406308
131	0x3e8d8d88	0.27647042
132	0xbe5b6600	-0.21425629
133	0xbe2d6037	-0.16931234
134	0xbe8c7cd8	-0.27438998
135	0xbe6d3ee9	-0.2316853
136	0x3dc0b77b	0.09409996
137	0x3acae83d	0.0015480589
138	0xbdc01847	-0.093796305
139	0xbe8a2ac7	-0.26985762
140	0xb9145113	-0.00014144582
141	0x3e33b1d9	0.17548312
142	0xbe5c1ac7	-0.2149459
143	0xbe340309	-0.17579283
144	0xbe4ed99a	-0.20200196
145	0xbcb5e8ce	-0.022205736
146	0xbd3f951a	-0.046773054
147	0x3e50e3c3	0.20399384
148	0xbdd219a2	-0.10258795
149	0xbdd34455	-0.10315768
150	0xbe3bd456	-0.18342718
151	0xbe4b137d	-0.19831653
152	0xbe337ccf	-0.1752808
153	0x3e0b6008	0.13610852
154	0x3e2a6cea	0.1664311
155	0xbd833375	-0.06406299
156	0xbe1cc673	-0.15310077
157	0xbe816571	-0.25272706
158	0xbea7c40a	-0.32766753
159	0xbc7628f5	-0.015024413
160	0xbdf06ecd	-0.117398836
161	0xbd5778ec	-0.052605554
162	0xbe312e99	-0.17302932
163	0x3d61902b	0.05506913
164	0x3d0a06fb	0.033698063
165	0xbe0af78d	-0.13570996
166	0x3dffe070	0.1249398
167	0xbe7e4ac6	-0.24833211
168	0x3e743cfb	0.23851387
169	0xbd822b58	-0.063559234
170	0xbe13de6c	-0.14440316
171	0xbcebb7c2	-0.028774146
172	0xbda347cd	-0.07972679
173	0x3daac776	0.083388254
174	0xbe192c18	-0.14958227
175	0xbcccd229	-0.025002556
176	0x3eb25264	0.34828484
177	0x3d09026b	0.03344957
178	0xbdc76f4a	-0.097380236
179	0xbc462f33	-0.012096214
180	0xbc9946cd	-0.018710518
181	0x3d08e44c	0.033420846
182	0xbe0e35ea	-0.13887754
183	0xbe23cc5d	-0.15995927
184	0x3df911f9	0.12161631
185	0x3cbaa923	0.022785729
186	0xbe0924f2	-0.13393
187	0xbd2f5966	-0.042809866
188	0xbe26aa75	-0.16275962
189	0xbdf3e224	-0.11908367
190	0xbc892764	-0.016742416
191	0xbe4a8dc5	-0.19780643
192	0xbe1a0abc	-0.15043157
193	0x3e7fc181	0.2497616
194	0x3c42cb4c	0.01188929
195	0xbeafbf17	-0.34325477
196	0x3e50d5d4	0.20394069
197	0xbd54922a	-0.051897205
198	0xbdaac672	-0.08338632
199	0xbe32cace	-0.17460176
200	0x3e92246b	0.2854341
201	0xbe43ede3	-0.19133715
202	0xbe644b9b	-0.22294466
203	0xbe175fbd	-0.14782615
204	0x39f3baaf	0.00046487662
205	0x3e5ced05	0.21574791
206	0x3d65c4f3	0.05609603
207	0x3daea588	0.08527666
208	0x3d0f0ecc	0.03492622
209	0xbe0118af	-0.12607072
210	0x3d50b61c	0.050954923
211	0xbe65e506	-0.22450647
212	0xbe565901	-0.2093239
213	0xbd66b9d5	-0.056329567
214	0xbd330034	-0.043701366
215	0x3decdeba	0.11565919
216	0xbe23c887	-0.15994464
217	0xbe937942	-0.2880345
218	0xbd717446	-0.058948778
219	0xbe30eaa2	-0.17277005
220	0x3e701f32	0.234494
221	0x3d4c4098	0.04986629
222	0xbcba70bd	-0.022758836
223	0xbe764c39	-0.24052514
224	0xbe7b024a	-0.24512592
225	0xbdc81d98	-0.097712696
226	0xb821c032	-3.8564387e-05
227	0x3dc84251	0.09778274
228	0x3c0cee46	0.008601731
229	0xbe02e648	-0.12783158
230	0xbe9adee2	-0.3024817
231	0xbe1e765a	-0.15474835
232	0xbdb1b6bc	-0.08677432
233	0xbe20c741	-0.1570101
234	0xbda0f59e	-0.07859348
235	0xbe08b029	-0.1334845
236	0xbe0166dc	-0.12636894
237	0xbe140746	-0.144559
238	0x3bd9c9ab	0.006646355
239	0xbe78fb7a	-0.2431468
240	0x3e33f6c6	0.17574605
241	0xbe34e274	-0.1766451
242	0x3e4c1cb0	0.19932818
243	0x3e2ccd44	0.16875178
244	0xbe2de26f	-0.16980909
245	0xbca8991e	-0.020580824
246	0xbe7e6a1b	-0.24845164
247	0x3e866797	0.26250908
248	0xbe12cd3f	-0.14336108
249	0xbdc8c8ec	-0.09803948
250	0xbe83b306	-0.25722522
251	0xbea6433b	-0.32473168
252	0xbe0ed75e	-0.13949344
253	0x3d985abb	0.074391805
254	0xbe0609c6	-0.13089666
255	0xbe18b2c2	-0.1491194

local2.norm.weight f4 [128]
0	0x3f6b0b9e	0.918146
1	0x3f921304	1.1412053
2	0x3f73ab35	0.95183116
3	0x3f6547ed	0.89562875
4	0x3f869df0	1.0516949
5	0x3f728d1f	0.94746584
6	0x3f81accb	1.0130857
7	0x3f77cca8	0.96796656
8	0x3f6600f6	0.89845216
9	0x3f5c898f	0.861474
10	0x3f795e3f	0.97409433
11	0x3f7b619d	0.9819582
12	0x3f7ce9c5	0.98794204
13	0x3f8000de	1.0000265
14	0x3f707855	0.9393361
15	0x3f73fa57	0.95303863
16	0x3f769aee	0.96330154
17	0x3f7a8cb2	0.97870934
18	0x3f8945a7	1.0724381
19	0x3f796b2c	0.97429156
20	0x3f7bc04d	0.983403
21	0x3f610436	0.8789705
22	0x3f680781	0.9063645
23	0x3f772b92	0.9655086
24	0x3f7ad068	0.9797425
25	0x3f5c6e8f	0.861062
26	0x3f711321	0.94169813
27	0x3f5d9e90	0.8657007
28	0x3f69e020	0.9135761
29	0x3f737338	0.95097685
30	0x3f6fa21e	0.93606746
31	0x3f7221c4	0.9458277
32	0x3f6f1920	0.9339771
33	0x3f5bce82	0.8586198
34	0x3f7ebf7a	0.9951092
35	0x3f64fa55	0.89444476
36	0x3f7cf7f9	0.98815876
37	0x3f8a37a6	1.0798233
38	0x3f6715f9	0.902679
39	0x3f9167b3	1.1359771
40	0x3f810ad1	1.0081426
41	0x3f754e15	0.9582227
42	0x3f742c8d	0.9538048
43	0x3f6f5286	0.93485296
44	0x3f71261f	0.94198793
45	0x3f7cc03d	0.9873083
46	0x3f6c327d	0.9226454
47	0x3f690e91	0.9103785
48	0x3f748a21	0.9552327
49	0x3f740cf0	0.9533224
50	0x3f791759	0.9730125
51	0x3f800268	1.0000734
52	0x3f7e7db7	0.99410576
53	0x3f60ec8e	0.87860954
54	0x3f6d962d	0.92807275
55	0x3f6f40ad	0.9345806
56	0x3f630ee2	0.88694584
57	0x3f7c402b	0.9853541
58	0x3f73cf6a	0.95238364
59	0x3f7d096d	0.9884251
60	0x3f72be23	0.94821376
61	0x3f706c9e	0.93915737
62	0x3f835620	1.0260658
63	0x3f5a9198	0.8537841
64	0x3f75e294	0.96048856
65	0x3f6d51b7	0.9270281
66	0x3f722f31	0.9460326
67	0x3f5db383	0.8660204
68	0x3f74cba0	0.9562321
69	0x3f72936e	0.9475621
70	0x3f687bdb	0.9081399
71	0x3f5d52cf	0.8645448
72	0x3f8a306c	1.0796027
73	0x3f800fa5	1.0004774
74	0x3f69d731	0.9134398
75	0x3f77b4f8	0.9676051
76	0x3f7a48c4	0.9776728
77	0x3f75b242	0.95975125
78	0x3f5e4223	0.86819667
79	0x3f7e146a	0.992499
80	0x3f7de6b3	0.99180144
81	0x3f72297e	0.9459456
82	0x3f754815	0.95813113
83	0x3f8a7f3d	1.082008
84	0x3f70681b	0.9390885
85	0x3f798ed4	0.97483563
86	0x3f67e895	0.90589267
87	0x3f7a188f	0.97693723
88	0x3f657ad7	0.89640564
89	0x3f82ab58	1.020854
90	0x3f6bffb7	0.92187065
91	0x3f750fe4	0.9572737
92	0x3f79eb6d	0.97624856
93	0x3f7ad0ef	0.9797506
94	0x3f83b1e1	1.0288659
95	0x3f6b303a	0.9187046
96	0x3f72983d	0.9476355
97	0x3f6d858a	0.9278189
98	0x3f7f0ab1	0.9962569
99	0x3f857652	1.0426733
100	0x3f785d68	0.97017527
101	0x3f63c2e5	0.8896926
102	0x3f70f507	0.9412388
103	0x3f698732	0.91221917
104	0x3f7b6c59	0.982122
105	0x3f6934bf	0.9109611
106	0x3f6f1f4c	0.9340713
107	0x3f6e5462	0.9309751
108	0x3f726978	0.9469218
109	0x3f7240c2	0.9463006
110	0x3f70b600	0.9402771
111	0x3f711fa6	0.94188917
112	0x3f79856e	0.9746922
113	0x3f748937	0.95521873
114	0x3f6eab8a	0.932305
115	0x3f7d475d	0.98937017
116	0x3f7f9e41	0.9985085
117	0x3f792138	0.9731631
118	0x3f6b9401	0.9202271
119	0x3f74729a	0.9548737
120	0x3f63a2c8	0.8892026
121	0x3f6bbee1	0.92088133
122	0x3f7bb902	0.98329175
123	0x3f6debe6	0.9293808
124	0x3f75b354	0.9597676
125	0x3f790889	0.9727865
126	0x3f6a026c	0.91409945
127	0x3f788808	0.9708257

local2.norm.bias f4 [128]
0	0xbdde0371	-0.108405
1	0x3c7ac41e	0.015305547
2	0xbd9addc8	-0.07561833
3	0xbddc6907	-0.1076222
4	0xbc726b0c	-0.01479603
5	0xbdc37b5c	-0.09545013
6	0xbd67d3e7	-0.05659857
7	0xbda3b52b	-0.079935394
8	0xbdf85817	-0.12126177
9	0xbe1131f4	-0.14179212
10	0xbd576c5f	-0.052593585
11	0xbdc3a797	-0.095534496
12	0xbd65d732	-0.05611343
13	0xbd0fa192	-0.035066195
14	0xbe04b6e7	-0.12960397
15	0xbd87712b	-0.06613382
16	0xbdda196c	-0.1064938
17	0xbd4df94b	-0.050286572
18	0xbda0eafa	-0.07857318
19	0xbdb68deb	-0.089137875
20	0xbd136150	-0.035981476
21	0xbe0cae9e	-0.13738486
22	0xbdd669b3	-0.10469379
23	0xbd91a9eb	-0.071124874
24	0xbdbe8a96	-0.09303777
25	0xbdfeb931	-0.12437666
26	0xbd782fe4	-0.060592547
27	0xbe0b21b5	-0.13587077
28	0xbdec3f1e	-0.11535476
29	0xbdfb5fcd	-0.12274132
30	0xbd8ed51b	-0.069742404
31	0xbd4269c5	-0.04746415
32	0xbd7df25c	-0.06199871
33	0xbe07e03e	-0.13269135
34	0xbd8c6bd6	-0.068565056
35	0xbdf85268	-0.12125093
36	0xbd4b6a82	-0.04966212
37	0xbdac9e37	-0.084286146
38	0xbda55ce6	-0.080743596
39	0xbdb38218	-0.08765048
40	0xbd9549cc	-0.07289466
41	0xbdd90c9a	-0.10598107
42	0xbdafc32f	-0.0858215
43	0xbd768b3c	-0.060191378
44	0xbdceb196	-0.100924656
45	0xbd9c68b7	-0.0763716
46	0xbd987a24	-0.074451715
47	0xbdb59f19	-0.08868236
48	0xbdc0729f	-0.09396862
49	0xbddfe446	-0.109322116
50	0xbd18d4e4	-0.037312403
51	0xbda027c1	-0.078200825
52	0xbd511f7c	-0.051055416
53	0xbdf5b949	-0.11998231
54	0xbdeb42a3	-0.11487319
55	0xbd934e2d	-0.07192645
56	0xbde91af3	-0.11382093
57	0xbda7c0f0	-0.08191097
58	0xbd8da9d6	-0.06917159
59	0xbd98347c	-0.074318856
60	0xbd99a3f9	-0.075019784
61	0xbd84c311	-0.064825185
62	0xbd20e8ea	-0.039284624
63	0xbe43631f	-0.1908078
64	0xbde66bdc	-0.11251041
65	0xbda99392	-0.082801
66	0xbdc9639e	-0.098334536
67	0xbe1ce482	-0.15321544
68	0xbd87ae38	-0.066250265
69	0xbd86ff75	-0.06591693
70	0xbdd63802	-0.104599014
71	0xbe1a7a36	-0.15085682
72	0xbd8a5c3e	-0.06755875
73	0xbcd1350a	-0.025537986
74	0xbde9a627	-0.11408644
75	0xbd9be871	-0.07612694
76	0xbd99aee9	-0.075040646
77	0xbdabb24f	-0.08383619
78	0xbde88ea4	-0.113553315
79	0xbdcd3001	-0.10018922
80	0xbd190372	-0.0373568
81	0xbd8b5e4d	-0.06805096
82	0xbd6541d8	-0.055970997
83	0xbcac49f4	-0.021031357
84	0xbdb60078	-0.08886808
85	0xbd9a422f	-0.07532155
86	0xbdea0954	-0.114275604
87	0xbdc9b04a	-0.098480776
88	0xbdd675e4	-0.104717046
89	0xbb99bf04	-0.0046919603
90	0xbddc7cdf	-0.10766005
91	0xbda40284	-0.08008292
92	0xbd935252	-0.07193436
93	0xbded3b64	-0.115835935
94	0xbd5c0481	-0.053715233
95	0xbdf8c0d7	-0.12146156
96	0xbda29c1f	-0.07939934
97	0xbddaedaf	-0.10689866
98	0xbd8bfca2	-0.06835295
99	0xbd94e2c6	-0.07269816
100	0xbd6b16b7	-0.05739471
101	0xbe1a91e4	-0.15094715
102	0xbda3b529	-0.07993538
103	0xbde4f882	-0.111802116
104	0xbd3c33b0	-0.04594773
105	0xbdc37226	-0.095432565
106	0xbdf3f1a8	-0.11911327
107	0xbd919416	-0.07108323
108	0xbd69c570	-0.057073057
109	0xbd8d2aec	-0.06892952
110	0xbda6f288	-0.08151728
111	0xbd9824c1	-0.07428885
112	0xbdc914c1	-0.098184116
113	0xbdb50efe	-0.0884075
114	0xbd864a5a	-0.0655715
115	0xbd3cdfdc	-0.046111926
116	0xbd8a977d	-0.06767175
117	0xbdcd34ec	-0.1001986
118	0xbdd8bfef	-0.105834834
119	0xbd901f1c	-0.07037184
120	0xbdbf18cd	-0.09330902
121	0xbe0f0139	-0.1396531
122	0xbdbe7f70	-0.093016505
123	0xbdeddd0a	-0.116144255
124	0xbd71f232	-0.059068866
125	0xbd9bfe96	-0.07616918
126	0xbdf7eee8	-0.121061146
127	0xbd906087	-0.07049661
