models/eeg_only/s_07.pt (torch, 561186 bytes, 37 tensors)

band_attn.fc1.weight f4 [8, 5]
00000000: 00c4 a0be 1979 63bd 2bb4 febe 9454 4cbd
00000010: c90f 993e aff4 903e d94e 85be cde7 b53d
00000020: 4d43 433e 2eaa 47be 39b2 953e f65d 6c3e
00000030: 34f5 503e a31c 723e f51e 423e 0738 0b3f
00000040: 9252 043f 95b0 993e 23cf c9be 4d37 023f
00000050: 7edb 053f 0c57 a6bd 2ab3 b13d 91c8 e03e
00000060: 4d90 9bbd 06b1 bebd e497 1c3d 85c8 03bf
00000070: 2482 633e 4429 ae3e 4a17 77bd 678f 87be
00000080: 3f72 603e f270 dfbe 3897 26bf fdad 0cbf
00000090: fbbc bcbe 9f88 b13e f192 0b3f a085 14be
-0.31399536 -0.05553541 -0.49746832 -0.049885347 0.29894856 0.2831168 -0.26036718 0.08882103
0.19068642 -0.19498512 0.29237536 0.23082718 0.20406038 0.23643737 0.18957122 0.54382366
0.5168849 0.30017534 -0.39415845 0.5086563 0.52288043 -0.081220716 0.08676751 0.4390302
-0.075958826 -0.09311108 0.03823079 -0.51477844 0.22217613 0.34015858 -0.060324945 -0.26476595
0.21918581 -0.43640858 -0.6507449 -0.54952985 -0.3686293 0.34674546 0.5452109 -0.14504099

band_attn.fc1.bias f4 [8]
00000000: f3f8 25bd c90b a93e a562 f73e 415b b1bc
00000010: 4e6b 003f 18b1 163e 6d0d 13be 6f36 903d
-0.04052062 0.33016804 0.48317447 -0.021649959 0.50163734 0.14715993 -0.1436059 0.070416324

band_attn.fc2.weight f4 [5, 8]
00000000: 98c1 4ebe 8701 25be 38b8 b8bd a3db febd
00000010: 700b 9d3d 4db8 cabe 1eaf 0fbe 25d1 0bbf
00000020: d511 c1be 3f40 6bbe 2a57 debe db91 ec3d
00000030: 74a6 c1be 432f 273e 68ec 8f3d 95ff 9abd
00000040: 80dc 293e 7e14 4cbe 81ee 593e 8118 7d3e
00000050: 3506 823d e68a 1f3f 9c93 f3be ec3b 523e
00000060: 7669 f1be 3ebc ba3e 2a3c 50be 8cf8 f4bd
00000070: af14 9d3e afe2 b43d f65f 6cbd 8c9c 123f
00000080: 941a 033e 0afd f1bd 1724 efbd 99df 16bf
00000090: 64ff 1abe 2c21 9ebe dcd6 f43e 636c 993e
-0.20191038 -0.16113864 -0.09019512 -0.12444236 0.07668197 -0.39593735 -0.14031646 -0.54616004
-0.37708917 -0.22973727 -0.43425876 0.11551257 -0.37822306 0.16326623 0.07027513 -0.0756828
0.1658802 -0.19929692 0.21282388 0.24716379 0.0634884 0.6232132 -0.47573555 0.20530671
-0.47150773 0.36471742 -0.20335451 -0.11961469 0.30679843 0.08832299 -0.057708703 0.5727012
0.12803108 -0.118158415 -0.116768055 -0.5893493 -0.15136486 -0.30884683 0.47820175 0.29965505

band_attn.fc2.bias f4 [5]
00000000: 9281 4abd 15e6 c5be 5988 163d 4d41 a83e
00000010: 8837 b83e
-0.049439974 -0.386521 0.036751125 0.3286232 0.35979867

feat_proj.weight f4 [128, 21]
00000000: 52c8 19be 28fd 843d 7c48 95be f7f1 473e
00000010: ad0d 9a3d b14f 49be 1292 753d 996a 363e
00000020: b89d c33a 50ab 1c3d bc62 13be 4ab9 8abc
00000030: 8ea5 bebd ff8f 453e 830a 5cbc 4d17 54be
00000040: 209c a8bd d29f 683e a7a7 abbd 5f77 fcbd
00000050: 704c b5bd 9158 2bbe 9eca af3e 8ec4 74be
00000060: f2d5 343d 307b 693c b9ab 03be cfac 6d3e
00000070: 6025 383e 480e 853c 6f52 7a3e 3911 23be
00000080: 563e b43d f791 c2bd 098b cebd 0c63 05be
00000090: 5b2b 5b3c bb30 12be 5e5e 0bbe 9fd5 643d
000000a0: 3d37 573d 893b 193e 1612 313e 1763 e2bb
000000b0: d9cd 83be a4aa 92be c339 94bd cd7e d23d
000000c0: 5092 cebd 1b30 b2bd 8151 db3d f81c 6abd
000000d0: 357c 063e 8fc1 173e 7734 9b3c 93d1 df3d
000000e0: b35a 4f3e 9a8f fdbb a464 f0bd 1cb5 94bd
000000f0: c6c9 183e 3f3c b6bd a416 813d 6fe0 e03d
00000100: 45d0 233e 4f05 96bc c7f4 3fbe e97f 373e
00000110: 17e6 383d 3383 b43d 8cad 8f3d 6aef d03c
00000120: 9c2d 72be 898d 2cbd 8f0f 4c3e c90b 57bd
00000130: 7711 d43c 3e1e 0c3e 9441 88be 95a8 debb
00000140: fd51 12bd aa4e 19be 8851 26be 529a 8c3e
00000150: 4009 303e 6726 6ebe b261 02be 9d5c cb3d
00000160: 25b9 c3bd a87e ecbd 8804 363d 9dc4 28be
00000170: 41d5 cdbd 585e 823e 050f 06be 8a49 e83d
00000180: 001f 95bd 8ec9 f6bd bf5d 713e d862 2a3e
00000190: a4be 833d 1be9 f23d 33e5 563e 20cd 1b3e
000001a0: 91e2 35bb 7607 fa3d 1bfe 47be 4dfb 103e
000001b0: e800 1d3e dc54 7ebe 4126 b73d 53d8 0b3e
000001c0: f88d 1cbe 2017 babc 9e0c a4bc 721d b6bd
000001d0: 282c 3b3e 09b1 1b3d f0ae 7dbd 80dd 9abd
000001e0: 88a7 e8bd 54cb 193e 2291 903b 00b7 b4bc
000001f0: 99ed 343d abb1 333d d2b5 233c e4a1 d83d
00000200: 2d4e 933e 47a0 853e 1751 333e 7548 61bd
00000210: 5edf 453e ceab 113e c145 273e d541 223e
00000220: d3db 39bc 70fe f73d f5b3 d8bc 2cb3 b4bd
00000230: eb9a e23d 2086 273e fd5a 28be 00d1 593e
00000240: 8234 22be 2b0b 1cbd 7649 863b 4378 a83d
00000250: 9af3 db3b 64e3 d33d 2eae bc3e 45ab 4bbe
00000260: 6904 223e 622f a6bd 3063 3abe 69c9 00be
00000270: 71ce 2b3e 336e 573c 1f68 f0bd ad8f 18be
00000280: cdb1 11be af00 0cbd 7a51 87bd dd93 b73d
00000290: 0260 a63c 89bd 1e3e b801 03bd 16ff 2d3e
000002a0: 36f3 593d 4c94 b0be 7d8e 4b3d 008c 52be
000002b0: c0a8 903d 43b5 323e bc3e 2fbe 42fc 163e
000002c0: 9495 b0bd 12d4 31be 0939 e4bd ffd4 65be
000002d0: ad7d 323e 1870 9a3d 0937 d93d 38ea 63be
000002e0: 2f04 ae3d f492 1b3d 7ac1 b4bd dbdd 263e
000002f0: 36e4 96bd 9179 68be b2ec b93e 0fdb a23e
00000300: 6f41 50bc 4f8b 9a3e 2a75 42bd 55c1 193e
00000310: 822b 843e a94a ae3d b561 fbbd 0f5c 043e
00000320: e27a 63be 6502 f53d 024a 873d b25b 2f3e
00000330: cc1c 3dbd d4c5 cebd 4977 193d 80b5 a8bd
00000340: 57a9 de3d f3f5 96bd dc1e 793d c9e2 eebc
00000350: 0ec1 55be 7f5a 26be 04fe debd 6fe6 55be
00000360: a319 e7bd ad21 7e3d 8398 2c3e 6e64 ea3d
00000370: e2e7 d73d 2ab2 273e 3f92 c6bd 7a54 113e
00000380: 0a6f bfbb 719b 1a3e 8312 f53c d0a7 033e
00000390: bc9a 0c3d 9db3 183e e30b 84be bd45 a43b
000003a0: 8302 b4bd 9c75 a23e 33f3 5b3e 4e2d 733d
000003b0: 4d8b 86bc b1c1 f13b d79c 773d 28ec 403d
000003c0: 8561 7b3e dbd9 70bc baea 59be b14d c2bd
000003d0: 3caf 3abe 7564 633e f427 333e eefd 8abe
000003e0: 68cf 4c3e deee 453e 3c38 1fbe 83b2 60bc
000003f0: 3d7b 5a3d 5d4f 003e b245 02be ace0 0c3d
-0.15017822 0.06493598 -0.29156864 0.19525896 0.0752214 -0.19659306 0.059953757 0.17814101
0.0014924323 0.038249314 -0.14393133 -0.016934056 -0.09308921 0.19293211 -0.013430241 -0.20712014
-0.082329035 0.22717217 -0.083815865 -0.12327456 -0.0885247 -0.16733004 0.34334272 -0.23903105
0.044149347 0.014250562 -0.12858476 0.23210452 0.17983007 0.016242161 0.24445508 -0.15924539
0.08800952 -0.09500497 -0.100851126 -0.13026065 0.013377036 -0.14276402 -0.13610217 0.055867787
0.052542914 0.14964117 0.17292055 -0.006908785 -0.25742987 -0.28645813 -0.0723758 0.102780916
-0.10086501 -0.08700582 0.10708905 -0.057156533 0.13133319 0.1481993 0.018945916 0.10928645
0.20249443 -0.007738066 -0.11737946 -0.07261106 0.1492072 -0.0889821 0.063031465 0.10980307
0.15997417 -0.018313078 -0.18745719 0.17919888 0.045141306 0.08814087 0.07015523 0.025504787
-0.23650211 -0.042127166 0.1992781 -0.052501474 0.025887234 0.13683411 -0.26612532 -0.006794999
-0.03572272 -0.14971414 -0.16242039 0.27461487 0.17191029 -0.23256837 -0.1273258 0.09929774
-0.09556798 -0.11547595 0.044437915 -0.16481252 -0.100504406 0.25462604 -0.13091667 0.113421515
-0.072813034 -0.12050162 0.23570918 0.16639268 0.06432846 0.118608676 0.2098587 0.15214968
-0.0027753452 0.12208454 -0.19530527 0.14158364 0.15332377 -0.24837059 0.08942843 0.1365674
-0.15288532 -0.022716105 -0.020025548 -0.08892335 0.18278563 0.03801063 -0.06193441 -0.07561779
-0.11360079 0.1501897 0.0044118324 -0.022059917 0.044171903 0.04387061 0.00999208 0.10577753
0.2877058 0.26098844 0.17511402 -0.05500074 0.19323489 0.14225695 0.16335203 0.15845425
-0.011343914 0.12109077 -0.026452998 -0.08823237 0.110647045 0.16359758 -0.1644096 0.21271133
-0.15840343 -0.038096588 0.0040981127 0.08226063 0.006712389 0.10346106 0.3685164 -0.19889553
0.15821995 -0.08114506 -0.182019 -0.12576832 0.1677797 0.013148832 -0.117386095 -0.14898558
-0.14227982 -0.03418034 -0.06607337 0.089637496 0.020309452 0.1550199 -0.03198406 0.16991839
0.05321046 -0.34488142 0.049696434 -0.20561218 0.070634365 0.17451958 -0.17113775 0.14744666
-0.0862228 -0.17366055 -0.11143691 -0.22444533 0.17430754 0.075409114 0.106062 -0.22257316
0.08496892 0.037981942 -0.08825965 0.16295569 -0.073677465 -0.22702624 0.36313397 0.31807753
-0.012710913 0.3018441 -0.047475018 0.15015157 0.25814444 0.08510334 -0.122744955 0.12925743
-0.22214845 0.11963347 0.06605913 0.17124823 -0.04617004 -0.100963265 0.037467275 -0.082377434
0.10872143 -0.0737113 0.060820445 -0.029160874 -0.20874426 -0.16245459 -0.108882934 -0.20888685
-0.11284187 0.062043834 0.16855054 0.11444937 0.10542275 0.16376558 -0.09695863 0.14192382
-0.0058420943 0.15098359 0.029916054 0.12856984 0.034327254 0.14912267 -0.2579032 0.0050131963
-0.087895416 0.31730354 0.21479492 0.059369378 -0.016423846 0.007377826 0.06045231 0.047100216
0.2454892 -0.014700378 -0.21280947 -0.09487475 -0.18230909 0.2220629 0.1749571 -0.27146858
0.20000994 0.19329402 -0.15548795 -0.0137144355 0.053340185 0.12530275 -0.12721899 0.03439395

feat_proj.bias f4 [128]
00000000: 453f 6ebd d84f 263e 3637 183e f64a 10bd
00000010: 19eb 083d 0766 0abe 9ae5 dd3d a4ff 15be
00000020: 3f26 073e 2ab4 c43d 2e4b 523d 8e2a e83d
00000030: 973a 2b3e 6595 bbbd 031f 043e b8ff 05bc
00000040: 40de 33be e9e4 8bbd 470d f83d 4889 a6ba
00000050: 9a95 9a3d c3ab f5bd e1a0 0e3d 53c3 473d
00000060: 7d43 10be d74b 683e 2298 123e 470f 84bd
00000070: 79bc b33d 9757 58be 3229 14be 96e9 1ebe
00000080: 9794 77bd c92a 84bd bb83 e3bd b82a 4bbe
00000090: b396 2abd e4f9 dbbd a511 963b f78e 263d
000000a0: 6cd3 2c3e 1c8b 3b3e 981c 5fbd 1ec6 fe3d
000000b0: ee40 b23c 510f 52bd 72ca 183e 84d5 21be
000000c0: cd75 8fbd e610 e33d a6fa c03b cf60 11be
000000d0: 43eb ca3d 381d 06be 3cb1 793d 5dfa 323e
000000e0: 6e0c 083e 4451 94bd e95a 36be 9113 4fbe
000000f0: e3dc 2f3e f574 093e a7a5 29bd 73aa 47bd
00000100: 2ff1 19bd 5a0e b7bc 8653 c1bd 9c04 27be
00000110: bb8d a83d 6af0 11be 3b55 54be 852e 013e
00000120: 638a 703d f507 60bb 8719 29be 5222 093d
00000130: 702a e0bd 129e 47be 65df 28be a774 ba3d
00000140: c375 dd3d e681 2fbd dff4 993d 60be aabd
00000150: 0f78 21be 4c67 5abe 36a2 633d 6461 9a3d
00000160: 246f 1abd dc6e 8bbd 05b3 033e 66d9 0d3e
00000170: 4c53 073e c904 4dbe 90f7 b6bd fed0 0e3d
00000180: dda7 2d3e c4e1 463c c185 70be a232 cabd
00000190: 3014 2f3d 28ac 0a3e 7db4 cb3d 9d12 293b
000001a0: bbf7 b43d 0eb9 29be 39e1 003e 63d3 81bd
000001b0: 8d6b 8cbd 0747 afbd 334f c1bc 97e9 d93d
000001c0: 3a56 5b3c 3ab6 2bbe 896e 85bc 7aeb 02be
000001d0: 88e9 d13d d17c c73d e3c5 073d 91ba 003d
000001e0: 7096 81bd c98f 06be 7683 5c3c 3332 03be
000001f0: b0ea 31be de92 c6bd 0266 433e df08 4fbe
-0.058165807 0.16241395 0.14864811 -0.03522774 0.03342733 -0.13515483 0.10834809 -0.146483
0.13198183 0.09604676 0.05134123 0.11336242 0.16721569 -0.09159354 0.12902455 -0.008178644
-0.1756525 -0.068307705 0.121119075 -0.0012705708 0.075480655 -0.119956516 0.034821395 0.04877026
-0.14088245 0.2268518 0.14315847 -0.064482264 0.08776183 -0.21127163 -0.1446884 -0.15518793
-0.06044444 -0.06453473 -0.1110911 -0.19840515 -0.041647624 -0.10741022 0.00457974 0.040663686
0.16877526 0.18314785 -0.05447063 0.124401316 0.021759477 -0.051284138 0.14920977 -0.15804106
-0.070048906 0.110872075 0.0058892546 -0.14197086 0.09908154 -0.13097084 0.06096004 0.17478319
0.13285992 -0.07242063 -0.17808117 -0.20222308 0.17174105 0.13423522 -0.041417744 -0.048746537
-0.037583526 -0.02234571 -0.09439759 -0.16310352 0.08230158 -0.14251867 -0.20735638 0.12615402
0.058725726 -0.003418443 -0.16513644 0.033479996 -0.10945594 -0.19493893 -0.16491468 0.09104281
0.10813477 -0.04284849 0.075174086 -0.083370924 -0.15768455 -0.21328467 0.05557462 0.07538107
-0.03770365 -0.06808254 0.1286126 0.13852462 0.13215369 -0.20021357 -0.089339375 0.03486728
0.16958566 0.012138788 -0.23488523 -0.09872939 0.04274386 0.13542235 0.09946535 0.0025798448
0.08836313 -0.16574499 0.12585916 -0.06339147 -0.06856451 -0.08558469 -0.023597335 0.10640257
0.013387257 -0.16768733 -0.016288059 -0.1278514 0.10249621 0.09740604 0.033147704 0.031427924
-0.06327522 -0.13140787 0.013459077 -0.12812118 -0.17374682 -0.096959814 0.19081882 -0.20218228

local1.conv.bias f4 [128]
00000000: 4d41 8d3b 68ca ecbc 5cbe 3bbc 8376 9e3c
00000010: 11af b43b fd27 29bd f99f 263d 3cab 58bc
00000020: da46 b4bc a53b c0bb 48fd a1bc 1516 5b3a
00000030: 332a bfbc 10ce 3f3c 040d 75bc cc15 373c
00000040: 47b3 643c 52f0 183d f915 b83c 2cab 10bd
00000050: 7a5a 13bc 8c32 6abc d0c3 4b3a c825 583c
00000060: eb04 42bc 1ae0 41bc 0916 cc3c a30f f43c
00000070: be5c b0bc 1d38 b33c 65a7 b5bb a279 a73b
00000080: e477 0d3c 0d47 b43c 2b68 073d 3038 143d
00000090: 3ea0 cc3c b379 32bc 1b02 733c b169 af3c
000000a0: caed 423c 1235 603d d1df 87bb 4635 3e3c
000000b0: bca5 97bc 48ea 02bc dccf 1ebc db5f 2e3c
000000c0: 81d6 c03a c4bd cd38 b3d0 9b3a 28ba ac3b
000000d0: 03b1 033c 4331 c53c 8242 a8bc c707 5a3c
000000e0: b46f 78bc d2f1 353c e790 713b 7154 1e3c
000000f0: 0752 f1bc 724c fc3b 65e1 2fbb 278a d93a
00000100: e7cc c0bc 689d b73c b799 533c 29f6 7c3c
00000110: 0794 8a3c 914c 51bb f090 2abd 87ba 3abd
00000120: d1f2 8dbc 08cc 5a3c 9621 09bc bca8 d6bc
00000130: 471f 07b9 0f87 04bb c1ab 913c 6e76 a83c
00000140: fdb3 c8b9 c2af 8b3c 3ad2 193c 0eb1 94bc
00000150: 7a5d 583c 7724 11ba 2e62 203d 488a 39bb
00000160: 1b4e 953c fd0d 1ebd 6185 f13a f02e b23c
00000170: 1b23 783c 79b6 4fba 7c4f c23c f640 51bb
00000180: 3b59 353c c3de 92bc d811 99bb bacf 3abc
00000190: 2840 e13c 5d7c 733c 09d9 92bd fa68 cc3b
000001a0: 7e24 4f3c 3532 34bc 873e bbbb df81 243d
000001b0: 0357 0f3d e84a 1c3c 9b3f c63c a9af d53b
000001c0: b1c9 05bb d664 bd3c 1c3c 1dbc 6d4d 893b
000001d0: 8e1f 2f3c 65c0 ae3c 3b41 bebb 4f50 88bb
000001e0: a3f7 543c eaa5 68bc b41f c9bb 703f a2bc
000001f0: 1b8a a7bb 8281 7b3c 4825 4b3c a97c 9a3c
0.004310763 -0.028905109 -0.011458959 0.01934362 0.0055140336 -0.0412979 0.040679906 -0.013224419
-0.02200644 -0.005866485 -0.019774094 0.00083574775 -0.023335552 0.011706844 -0.014956716 0.01117463
0.013958759 0.037338562 0.022471415 -0.035319492 -0.008993739 -0.014294278 0.0007773014 0.0131926015
-0.011841993 -0.011833215 0.02491285 0.029792612 -0.021528598 0.021877343 -0.0055436366 0.0051109353
0.008634541 0.022006536 0.033058327 0.036186397 0.024978753 -0.010893273 0.014832045 0.021412702
0.011897514 0.05473811 -0.004146554 0.011609381 -0.018511645 -0.007990427 -0.009693112 0.010642971
0.0014712365 9.810508e-05 0.0011887759 0.005271215 0.008037808 0.024071341 -0.020539526 0.013307518
-0.015163351 0.011105018 0.003686005 0.009663687 -0.029458059 0.0076995427 -0.0026837226 0.0016596959
-0.023535205 0.022413924 0.012915066 0.0154395485 0.016916288 -0.0031936506 -0.04164213 -0.045588043
-0.017327698 0.013354309 -0.008369824 -0.026203506 -0.00012886255 -0.0020222103 0.017782094 0.020564284
-0.00038281074 0.017051581 0.009388501 -0.018150833 0.01320588 -0.0005536745 0.03915613 -0.0028311182
0.01822572 -0.03858756 0.0018426591 0.021750897 0.015145089 -0.0007923614 0.023719542 -0.003192959
0.0110686375 -0.017928487 -0.0046713166 -0.011402065 0.027496412 0.0148611935 -0.071703024 0.0062381
0.012642978 -0.010998298 -0.005714241 0.040162917 0.03499509 0.009539343 0.024200251 0.0065211845
-0.0020414407 0.023119371 -0.009596851 0.004190138 0.010688676 0.021331975 -0.005806116 -0.004159964
0.012998494 -0.014199713 -0.0061378125 -0.01980564 -0.005112899 0.015350701 0.012399025 0.01885827

local1.conv.lin.weight f4 [128, 128]
00000000: 2da2 123c cf3d 183e 8885 d23d 1563 07be
00000010: c3d2 8ebd 2656 c5bc b421 a73d 1eb2 dfbd
00000020: 4bf3 4abc 76dc bebd fe65 2fbe 4c6a c2bb
00000030: 8123 063e 964b dfbd d9af 96bc df32 a5bc
00000040: 87e1 b1bd 433b cf3d a9cf 1d3d af2c 6b3c
00000050: 026c b63c b568 00bd 410e 31be 9664 8cbd
00000060: 74ba d23d 95d2 033e 4808 763d b6c0 7cbd
00000070: 1d2c 743d 1c48 293e d9e9 d43d 2695 033e
00000080: c9f1 76bd a4de dabc 0b56 163e 31f4 01be
00000090: e07d f43c 5426 533b 98e3 2cbd a7d7 2c3e
000000a0: 4a87 083e 42f2 c73d d69c 753d 9001 29bc
000000b0: bade a0bc 1973 acbd dfdc 25bd 3046 29be
000000c0: fc67 793c 5541 e83d 0bf5 c73d a3a0 28bd
000000d0: e5f5 243d dc47 693c 52eb 0f3e cd7a 1b3e
000000e0: abaa 9bbd d802 5abb 0ed7 93bd e004 ac3d
000000f0: c7ca e03d 9ee9 983d e6d6 b0bd 1ab2 abbd
00000100: 6e9e 973d b746 3c3d ad35 473d 02db 2fbd
00000110: 400a 2fbe 664a cfbd 89be 75bd 6e68 7fbd
00000120: 05ac 50bd 9a52 8cbd d824 3cbe 919b 513d
00000130: a365 54bd 0954 59bd 1cdd 7fbd d56b dcbd
00000140: 3a20 5dbc 01c5 143e 7bac d73b 9a47 9dbc
00000150: 09cd 273e 4857 093d 12b1 ef3d f156 9fbd
00000160: 56f2 2a3d b30a 113e 5a30 ecbd 6ea3 063e
00000170: 7213 063e 41fb 80bd 5c26 55bd 52cc e23d
00000180: b8d4 143c 9364 463d a5f6 9a3d 9f55 893d
00000190: f3c1 12be d2b3 2cbe 651e a3bd c3c7 933d
000001a0: 7fac 073d 8664 21bd 301f 34be 302f 953d
000001b0: ef87 cc3b be82 bdbd 8851 e73d 6f97 29be
000001c0: 3a85 853d 7b1f 1fbe 50f8 babd 265d 313d
000001d0: 54c2 97bd 45d9 eabd 391b 9ebd bc21 2ebd
000001e0: 6824 00bd 72cc 36be 07eb 8c3c 621e d93b
000001f0: 2e6b 103e f70f 92bd 5191 a23d b7c6 15be
00000200: 540b 3fbc e910 02be 87e1 493e 3ece a63d
00000210: 64e1 2a3d 58b7 b4bd 76a6 f5bd b7ef b0bd
00000220: 8d43 633c e2c4 02bd e0b8 343d 20d6 9b3d
00000230: 9a6d 10be 9d55 22bc b0ac bdbc bb10 e23c
00000240: be7c 2ebd d350 0bbe 992d d13d 33ef 023e
00000250: f609 763d 110f 24bd 9bda aabd 7101 e1bd
00000260: 4f03 d0bd 4062 bcbd 2286 c7bd 4271 93bd
00000270: 1c6b 4abe ec78 ea3c bc5e b73d 2690 bfbd
00000280: 5299 3ebd ace8 083e 00ed 08be fc08 0a3e
00000290: 18e9 bbbd ed5f c23c 0a99 14be 1f2c b6bd
000002a0: 1200 b03d 99b3 213e 5f39 61bd e41d a0bd
000002b0: e697 463e 98c3 043e d493 9a3d 7d00 693c
000002c0: 8b18 bfbd f25c 47be d177 863b b5db 6bbd
000002d0: 45c7 fdbd 492e 173e 8c9f 09be 97d6 1fbe
000002e0: 34e8 4fbd afe8 b5bc e646 7cbd 9571 cabd
000002f0: 132b aebd 5602 093e 79fa 1a3e 4bae 0d3e
00000300: 509e 033d 16bd 8eba e867 01be ab9f eb3b
00000310: 977d b8bd fdcf b3bd e2b4 1c3e b678 883d
00000320: db73 b2bd 6eb2 dcbd 3ece 363e f1fb 4ebe
00000330: c700 9dbc 4197 46bd a5db 10be 70c1 0ebe
00000340: ac4a b53a b441 0abd ad54 103e 32ad fb3d
00000350: 2394 22be 197f d83d 4ae3 9ebd 3797 d5bd
00000360: 831e 383d 3fdc f0bd e6a7 1fbe a21d 293d
00000370: 1bcc 0dbd 493f e83d ce25 a6ba ce71 103d
00000380: 89f8 2cbe d2fd f0bd f668 073e dbc1 e7bc
00000390: 5a2a e8bd cb22 f1bd a229 c0bd fd23 ecbd
000003a0: c227 2abd 4447 443e 63ce 8abd 9497 d5bd
000003b0: 9ed6 843e 296c 233d 9364 90bb c485 4c3d
000003c0: 2dc6 fcbc 2dbd ec3d 92aa e8bd b992 053e
000003d0: dd5d aa3d f7e1 21be f31e f83b 5341 2dbe
000003e0: b526 a03c 9b9b 04bd 7500 333d 0db1 253e
000003f0: 4935 bdbd 2094 2d3e 9ba4 0ebe 7a33 063e
0.0089497985 0.14867328 0.10279375 -0.1322139 -0.06973793 -0.02408893 0.08160725 -0.10922645
-0.012387107 -0.09319393 -0.1712875 -0.0059330817 0.13099481 -0.10903089 -0.018394398 -0.020165859
-0.08685594 0.10118725 0.03852812 0.014353915 0.022268299 -0.031349856 -0.17290594 -0.06855123
0.10289469 0.128733 0.06006649 -0.06170722 0.059612382 0.16531414 0.103961654 0.12849864
-0.060289178 -0.026717491 0.1468126 -0.12690808 0.029845178 0.003221889 -0.042209238 0.1687914
0.13332859 0.09763004 0.059964024 -0.010315314 -0.019637454 -0.08420391 -0.040493842 -0.1653068
0.015222546 0.11340586 0.09763535 -0.04116882 0.040273566 0.014238324 0.14054611 0.15183564
-0.07600912 -0.0033265855 -0.07218753 0.08399367 0.10976177 0.07466434 -0.086347386 -0.083835796
0.07403265 0.045965876 0.048635174 -0.04293347 -0.17093754 -0.10121612 -0.05999616 -0.06235545
-0.0509453 -0.068516925 -0.1837343 0.05117375 -0.05185474 -0.053058658 -0.062466726 -0.10762755
-0.013496453 0.14528276 0.0065818406 -0.019199181 0.16386808 0.033530504 0.11703695 -0.07780255
0.041735016 0.14164238 -0.1153266 0.13148281 0.13093355 -0.06297923 -0.052038535 0.11074127
0.009083919 0.04843576 0.07566575 0.06705784 -0.14331798 -0.16865471 -0.07964782 0.07215836
0.03312349 -0.039402507 -0.17590022 0.07284391 0.0062417905 -0.09253453 0.11294848 -0.16561674
0.065195516 -0.15539353 -0.09129393 0.043301724 -0.07410112 -0.11467222 -0.07720036 -0.04251264
-0.03128472 -0.17851427 0.017201914 0.0066259364 0.14103386 -0.07131951 0.07937873 -0.14626585
-0.011660416 -0.12701763 0.19714938 0.08144806 0.041718856 -0.088240325 -0.119946405 -0.08639472
0.013871086 -0.031926043 0.044121623 0.076092005 -0.1410431 -0.009908107 -0.023153633 0.027595868
-0.042599432 -0.1360505 0.10213775 0.1278656 0.060068093 -0.04005343 -0.08342477 -0.10986603
-0.10156881 -0.09198427 -0.09742381 -0.071993366 -0.19767421 0.028622113 0.08953616 -0.09353666
-0.046532936 0.13370007 -0.13371658 0.1347999 -0.091753185 0.023727382 -0.14511505 -0.08895134
0.085937634 0.15791167 -0.054986354 -0.07818201 0.19393882 0.12965238 0.07547727 0.014221308
-0.09330853 -0.1946905 0.0041036387 -0.057582576 -0.12391523 0.1476375 -0.13439769 -0.15609203
-0.050758556 -0.022205679 -0.06159105 -0.09884945 -0.085043095 0.13379797 0.1513461 0.13836019
0.0321334 -0.0010890092 -0.12637293 0.0071906648 -0.09008329 -0.08779905 0.15303376 0.06663649
-0.08713504 -0.1077622 0.17852113 -0.20213296 -0.01916541 -0.04848409 -0.14146288 -0.13940978
0.0013831458 -0.033754066 0.14094801 0.12288894 -0.15876822 0.10571117 -0.07758196 -0.104292326
0.044950973 -0.117607586 -0.15591392 0.041288026 -0.03461848 0.11340196 -0.0012676062 0.035264783
-0.16891684 -0.117671624 0.13223633 -0.02829068 -0.11336203 -0.11774214 -0.09382941 -0.11530302
-0.041541822 0.1916781 -0.067776464 -0.10429302 0.2594499 0.03989807 -0.0044065206 0.049932256
-0.030856216 0.1155952 -0.11360659 0.13044252 0.08318684 -0.15808855 0.007572049 -0.1691945
0.019549707 -0.03237496 0.043701608 0.16180821 -0.09238679 0.16951036 -0.1392998 0.13105574

local1.norm.weight f4 [128]
00000000: de7d 823f b1bb 893f 9b50 793f 6e14 873f
00000010: f767 8a3f 5500 893f 05f0 743f ad10 883f
00000020: 5795 833f 3101 8e3f 760e 853f a00f 883f
00000030: fea8 843f 6f3a 843f 26de 7d3f 6c98 7c3f
00000040: e373 7c3f 75cb 753f 7494 6b3f be28 853f
00000050: fd10 733f 923e 893f 61ce 673f 16c8 7e3f
00000060: b636 823f 68c6 8c3f 22e5 823f 812c 713f
00000070: 3c6e 8c3f f341 7d3f 1851 803f bc31 853f
00000080: 0de4 783f d632 753f 1e11 763f 5a08 6d3f
00000090: 468b 743f e5b1 833f e895 813f e0cd 713f
000000a0: e751 813f 6393 7d3f c48a 813f a32e 793f
000000b0: c125 873f 13b1 723f f634 7b3f 6f74 823f
000000c0: f97e 823f f888 843f 14d6 803f bc5c 823f
000000d0: 1d27 6f3f 3202 7e3f 1d9c 703f e7b9 803f
000000e0: 30fe 843f 398e 763f dd9c 6b3f c15f 853f
000000f0: 8b9a 8b3f 7ccf 7e3f 7df4 843f e8bc 7c3f
00000100: 4425 863f 07fd 783f 7b96 833f c582 7e3f
00000110: 7343 813f f982 833f 3d2f 853f ca65 923f
00000120: 4a83 833f ea09 873f d70c 853f adda 783f
00000130: 8b93 713f fd1b 723f b035 773f 0af6 813f
00000140: b762 6f3f f0b5 783f 6217 7d3f 6e54 7e3f
00000150: 420f 813f ebe9 7c3f 668c 703f db5f 793f
00000160: 77ee 6e3f 153b 843f eb67 853f 8514 753f
00000170: 024e 7d3f 438a 863f 39c4 7a3f 2b27 783f
00000180: abb1 7c3f 3336 873f f1da 7e3f 09e0 943f
00000190: 9d05 833f 444c 6b3f d362 9c3f 7a16 763f
000001a0: 2c67 6c3f 06f7 753f 5885 673f 0c26 803f
000001b0: 2505 803f cbec 793f 21e3 743f 4792 843f
000001c0: c738 6a3f c26c 833f 2758 813f 06b0 7d3f
000001d0: dc59 743f f3e5 7a3f 8d08 773f a3b1 843f
000001e0: 9650 853f 5030 853f c5b3 7a3f e399 813f
000001f0: b1d8 8b3f 5b9f 693f f73d 853f 659d 833f
1.0194662 1.0760404 0.9738862 1.055311 1.0812978 1.0703226 0.9567874 1.0630089
1.027995 1.1094114 1.0395038 1.0629768 1.0364072 1.0330333 0.99167097 0.9867008
0.9861433 0.96013576 0.92023396 1.0403059 0.949478 1.072222 0.90549284 0.99524057
1.0172946 1.0998049 1.0226176 0.9420853 1.0971141 0.98928756 1.0024748 1.0405803
0.9722298 0.95780694 0.9611987 0.9259087 0.95525014 1.0288664 1.0123873 0.94454765
1.010312 0.9905302 1.0120473 0.97336787 1.0558397 0.94801444 0.98127687 1.0191783
1.0194999 1.03543 1.0065331 1.018455 0.9341906 0.992221 0.9398821 1.0056733
1.0390072 0.96310765 0.9203623 1.0419847 1.0906538 0.99535346 1.0387112 0.9872575
1.0480123 0.9726109 1.0280298 0.9941829 1.0098709 1.0274345 1.0405041 1.1437314
1.0274441 1.05499 1.0394543 0.9720867 0.9436576 0.94573957 0.96566296 1.015321
0.9351 0.97152615 0.98863804 0.9934758 1.0082781 0.9879443 0.9396423 0.9741189
0.9333262 1.033053 1.0422338 0.95734435 0.98947155 1.0510944 0.9795566 0.96934766
0.987086 1.0563415 0.9955283 1.163087 1.0236088 0.9191325 1.2217659 0.96128047
0.9234493 0.9608005 0.9043784 1.0011611 1.000157 0.9762694 0.9565907 1.035714
0.91492885 1.0267565 1.0105027 0.99096715 0.95449615 0.98007125 0.9649742 1.036671
1.0415218 1.0405369 0.97930557 1.0125087 1.0925504 0.9125878 1.0409535 1.0282408

local1.norm.bias f4 [128]
00000000: 7ece 7dbd daa3 3abd 3547 6dbd 59a7 c4bd
00000010: 70bd 02bd 0fbd f9bc 9be5 d6bd 2fca 34bd
00000020: ce02 94bd aaa6 96bd 9478 4ebd 80fa 27bd
00000030: b7ce 5bbd 51ff debd 025e 83bd 987e a7bd
00000040: f5d2 f6bd 6107 05be 83bd 46bd 3efe 69bd
00000050: eea4 2ebd 85e9 37bd 5b4e e0bd 6c5b b5bd
00000060: 91ec 80bd bc7b 8abd 1894 c1bd 1dd6 d9bd
00000070: baa2 bdbd 2aee d2bd 0a73 4bbd 72ba adbd
00000080: 3b9f 5fbd a3e0 13be 3100 9ebd 6228 08be
00000090: dd02 dabd 6adb 6fbd ac5c 96bd f335 d1bd
000000a0: f9ac 16bd 70a6 01be ec50 ccbd a48c 83bd
000000b0: 2ce0 a7bd 118f 45be 02da a0bd b5fe 30bd
000000c0: 7f4c 73bd d34c e7bd 6e4b c2bd e823 90bd
000000d0: 4210 b2bd 41cb b1bd c4ac dabd 4295 cabd
000000e0: 77f0 35bd 99cd cabd 5c24 0bbe 8203 4cbd
000000f0: ed4a dfbc d6a8 90bd 4c34 0ebe e9d7 d5bd
00000100: fc09 eabd 630a bbbd da25 cdbd 3175 c4bd
00000110: eafd c5bd 8f3d 82bd 5da2 cebd 5d1a 1abd
00000120: cc1e 4fbd cb73 dabd f964 87bd 13f3 b3bd
00000130: 0e28 6dbd e2e3 34bd baaf b8bd 52d4 e8bd
00000140: 8bce 30bd a5c8 aabd 185c c5bd a847 90bd
00000150: 5e66 a5bd c587 f4bd 213e 09be 12b7 37bd
00000160: e04a b9bd b368 a5bd 9eb4 c7bd 5eea 99bd
00000170: fb9b c8bd 10a8 aebc d2aa 98bd c2e9 91bd
00000180: 0401 f4bd e52e 9abd 37d6 a7bd 6bfb 0fbd
00000190: 2998 7ebd 4847 99bd f61d 9dbd 1b14 fabd
000001a0: aae8 0abe c6b4 ccbd e4e8 a5bd d2fe b2bd
000001b0: d2b9 b9bd 7990 85bd a6db e9bd 5d52 b5bd
000001c0: 0af5 64bd b395 41bd 8304 5bbd 5a8b dabd
000001d0: c898 f2bd 8849 09be a65b a9bd e623 6ebd
000001e0: ae2f 8abd c9c2 8ebd c553 0cbd 4610 a1bd
000001f0: 7e54 c0bd b116 a3bd 634f acbc 3451 b9bd
-0.061964504 -0.045566417 -0.057929236 -0.096022315 -0.031918943 -0.030485658 -0.104930125 -0.04413813
-0.072270975 -0.073560074 -0.05040796 -0.04101038 -0.053663936 -0.108885415 -0.06414415 -0.08178443
-0.120519556 -0.12991096 -0.048520576 -0.05712723 -0.042637758 -0.044900436 -0.10952445 -0.08855328
-0.062951215 -0.06761882 -0.09452075 -0.10636542 -0.09259553 -0.102993324 -0.049670257 -0.08482827
-0.054595213 -0.14441161 -0.0771488 -0.13296655 -0.106450774 -0.05855886 -0.073418945 -0.10215368
-0.036786053 -0.12661147 -0.09976372 -0.064233094 -0.08197054 -0.19292857 -0.07854082 -0.043211658
-0.059399124 -0.1129395 -0.09487043 -0.070380986 -0.08694507 -0.08681346 -0.10677484 -0.0989175
-0.04441878 -0.09902496 -0.13588089 -0.049808033 -0.027257407 -0.07063453 -0.13887137 -0.10441572
-0.114276856 -0.091328405 -0.10016985 -0.09592665 -0.09667571 -0.063593976 -0.10089562 -0.0376228
-0.05056648 -0.10666617 -0.06611056 -0.08786597 -0.057899527 -0.04416264 -0.09017892 -0.11368622
-0.043165725 -0.08339051 -0.09636706 -0.07044917 -0.080761656 -0.119399585 -0.13402607 -0.044852324
-0.090474844 -0.080766104 -0.09751247 -0.07515405 -0.09795376 -0.021320373 -0.074544564 -0.07124664
-0.11914256 -0.07528476 -0.08195155 -0.03515188 -0.06215683 -0.07484299 -0.0767173 -0.12210866
-0.13565317 -0.09995417 -0.08101061 -0.08740009 -0.090686455 -0.065216966 -0.11418848 -0.088536
-0.05589775 -0.047261905 -0.0534711 -0.106711105 -0.11845547 -0.13406956 -0.08269434 -0.058139704
-0.067473754 -0.06970746 -0.034259576 -0.07864432 -0.093911156 -0.079633124 -0.021033948 -0.090486914

local2.conv.bias f4 [128]
00000000: c92e 533a 78e8 cb3a c7ea f43a dbb2 8e3a
00000010: 70a4 c83a da90 183b b9d8 033c b3f5 d1b8
00000020: 1273 52bd 37e4 863a 2339 213b 2e3e 3f3b
00000030: 897b 39bd 6ac6 db3a 0283 873a eba3 603a
00000040: 4c1c 8cba eecf c83a 8e90 a839 5420 403c
00000050: 34fa d73a 0b86 bfb9 3ca8 2539 ae38 4bb9
00000060: c91a db3a 7377 d23a 2e11 313a e5e1 23bb
00000070: 504f b5bc 9086 2a3d 4e1a c13c 1456 dd3a
00000080: bd20 6c3a b23f d639 7fac 8a3a 3a23 643d
00000090: ff14 9f3a 4d49 093b 4fc2 203b 93e8 d93a
000000a0: e90e 243b c46e 363b 668b a4ba 1542 b23a
000000b0: 43d0 173b 6bd4 e23a 1959 8cbb bf12 2c3a
000000c0: 0c4e 1b3b 97f2 59bb 19d6 39ba 8a77 883b
000000d0: c455 a7bb 5385 5a3b 58f4 2339 9b22 143b
000000e0: a0d6 2f3a 4a99 5d3b 9f1c 8639 f147 4a3b
000000f0: 57dc 64ba 00e1 243b f82a a939 b81a 013b
00000100: 77b7 4a3a 712d 113b 6c3c 0339 4b5b 7fba
00000110: b6b6 b0bd 4a8a a53a 7e2e 0a3a 2fec 23bd
00000120: 38c5 ad3a 11f2 a23c c278 b5bb d5b7 f5b9
00000130: 2df6 7a3a 529f ce3a 93aa 4f3c c123 0c3b
00000140: c002 c0ba 9679 9a3b 5924 8a3a bde2 eeba
00000150: 94ec 353a a071 0d3b 6e1e e0b8 f46d bc39
00000160: 1a38 143d cba0 133b 1fea 043d 660e bf3a
00000170: 8199 cf3a 6267 1a3b f92b 7ebb 1d7c e33a
00000180: 514c 3a3b 4e4d 3f3b e6bf 8e3a 0137 0cb8
00000190: cc35 7fb9 4f9a 2d3b 35fe eaba 43ea e9bb
000001a0: b6e5 493b 3efe fc37 b3b3 8d3c b19b 91ba
000001b0: 7e51 c03a 375d b5ba 46a4 623c 6c81 5cbc
000001c0: a695 1d3b 574f 763a 7eb7 62ba fdf7 5e3a
000001d0: 2f28 123b 4a24 56bb ab20 043b 7809 f33a
000001e0: 88b5 1eba bb07 3fba 92e8 bc3a 0fac 63ba
000001f0: e7d5 1b3b 9206 aa3a ee0a 183b fdcb 6e3b
0.0008055983 0.0015556952 0.0018685692 0.0010887043 0.0015307795 0.0023279698 0.008047276 -0.00010011662
-0.05137927 0.0010291402 0.0024600707 0.002918135 -0.045283828 0.0016767506 0.0010338726 0.00085693476
-0.0010689585 0.0015320757 0.0003215116 0.011726458 0.0016477765 -0.0003653023 0.00015798298 -0.00019380703
0.0016716357 0.0016057327 0.0006754574 -0.002500647 -0.022132546 0.041632235 0.023572113 0.0016886615
0.0009007564 0.00040864717 0.0010579972 0.055697657 0.0012136995 0.0020948232 0.002452988 0.0016625099
0.0025033301 0.0027837018 -0.0012553751 0.0013600016 0.0023164905 0.0017305737 -0.004283082 0.00065640727
0.0023697643 -0.0033256167 -0.0007089093 0.004164641 -0.0051066596 0.0033343628 0.00015635916 0.0022603634
0.0006707702 0.0033813291 0.00025579796 0.0030865634 -0.0008730343 0.0025158525 0.00032266206 0.0019699764
0.0007733027 0.002215233 0.00012515642 -0.0009741082 -0.08628599 0.0012629714 0.000527121 -0.040020164
0.0013257628 0.019890817 -0.005538077 -0.00046867007 0.0009573426 0.0015764034 0.012674945 0.0021383616
-0.0014649257 0.004714201 0.0010539397 -0.0018225532 0.0006939855 0.0021582618 -0.0001068682 0.00035940076
0.036186315 0.002252626 0.032449838 0.0014576435 0.0015838594 0.0023560156 -0.0038783534 0.0017355714
0.0028426836 0.0029190364 0.001089093 -3.3429827e-05 -0.00024338736 0.002648968 -0.0017928543 -0.007138522
0.0030807084 3.0159132e-05 0.017297601 -0.0011109022 0.0014672724 -0.0013836984 0.013833111 -0.013458591
0.0024045496 0.0009395978 -0.0008648558 0.0008505581 0.0022301783 -0.0032675439 0.0020161073 0.0018542251
-0.0006054272 -0.00072872237 0.0014412573 -0.00086850015 0.0023778619 0.0012971929 0.0023199874 0.0036437504

local2.conv.lin.weight f4 [128, 128]
00000000: 1b88 09be 5251 6b3d aa32 2fbd 2c1a 353d
00000010: ef0c d13d 55a0 98bd 88f2 5bbd a426 ea3d
00000020: 550f c93d 2461 453e 87e7 b73d 8896 023e
00000030: 337f 39bd 2139 113e b37d 9c3d 1305 d2bc
00000040: 1d85 af3c 5abe 58bd c790 f1bd dae8 713b
00000050: 07b5 4f3d 2046 e23d 06e9 ecbd b1a8 2fbd
00000060: fb22 d03d a457 3c3e c5c8 e93d 3afe 9ebd
00000070: 9c5b 003d 9376 71bd d15d 2abe 8605 63bd
00000080: 4928 29be 68a7 aebd bab4 5ebd 2313 33be
00000090: 1b1b 5bbd df38 50bd ce45 a23d e2c7 0b3e
000000a0: 0075 06be 2979 29ba 73d0 60be 368c db3d
000000b0: 471a f4bc 58ed c33d 124e 323d 7878 49bc
000000c0: abae 28bd c27d 63be e6db eebd d55c 333e
000000d0: 7d14 303d 8d33 323d 3a4f 20bc e907 bb3b
000000e0: a72a 84bd b28b f2bc ef4e 8cbd d393 a63d
000000f0: 8c11 843d 1666 cabd da8e a43d e78a 20be
00000100: 2bd8 0d3d c68c d43d 342c fc3c 3792 cc3d
00000110: 5ac6 1cbc 6613 723c 2614 f7bd 8600 4a3e
00000120: 1dba d3bd 1f0f 52bd ddcd b3bc 68ce 97bd
00000130: 70f9 1f3e 038e 3e3d fc80 d13c fcea 7bbe
00000140: 4bd1 93bd 072c 2a3c 4310 a6bd 6d8e f33d
00000150: 64d5 263e d6c9 1e3d c22b 00bd b9ae 213e
00000160: 1654 cebd e894 d93d 0317 c8bc 67ec 07be
00000170: 3c2e 7d3d 9e83 46bd 6c3a ee3d 5a5a 68bd
00000180: c4cd 00bc d729 fd3d 75fa 58ba d0c2 8abd
00000190: 5c34 06be 2168 fbbd cb9c 9fbd ea5e a63c
000001a0: c670 0a3e 8751 293e 5849 873d 279c 9b3d
000001b0: 76e7 49bd 527e 383c 0c5c 54bd 1507 e43d
000001c0: 0bc8 523d 7132 ba3c a77c 603d 2a94 00be
000001d0: be4e 09be 13d8 44bd 7e7d b33d ad49 1fbe
000001e0: 9587 783d c128 fc3d d945 35bd 7313 30be
000001f0: 7faa 973d c6e8 6cbd a622 ec3c 8fc4 02bd
00000200: cdb5 bebd 41c5 c6bd 8ef3 d3bd d8c9 0dbe
00000210: d059 cc3d 74ac 283d 4658 7f3d 94c9 f7bc
00000220: ad5b a2bd e057 403e 067a 853c 1f70 84bd
00000230: ad6c b4bd 79b6 993c dd8b f33d a60f 803d
00000240: 0257 84bd 44ce 6fbd c343 fbbd 72a3 e53c
00000250: 5c79 ac3d 3a13 1e3e df1e bbbc c623 15ba
00000260: 2d41 423e c2ae 40bd d0b0 29be b5d3 1f3e
00000270: c004 d9bd f158 c2bc 7e1f 633e c300 4c3d
00000280: fd70 833d a2f5 e73b 813d 30bd 0679 343d
00000290: bd50 b6bb 3d2a 2c3d 7a51 13bd 2250 e4bb
000002a0: 7b8a cdbd 8809 ab3d d16f 293e e823 003e
000002b0: f32d 193d 0d58 11be 7c7a 7cbd f0b6 ecbc
000002c0: 9910 0dbe eeb0 613d b3de 36bd a9fb aa3d
000002d0: e466 91bd adaa b13d 6cb7 883c 3609 3b3d
000002e0: 5868 f63c eb99 96bc deb8 b73d 29ca ea3c
000002f0: 3090 eebc 58df 753d 7d75 b93d cd20 a1bd
00000300: ad1f c2bd 3a37 1e3d 39b4 60bc 1e74 1bbd
00000310: 3ff6 133e 4af5 35bd 12b7 213b 9200 1c3e
00000320: 3fa3 31be bce5 babd 9a90 743c cf98 a13d
00000330: 8f0d b33d dba5 16bc 63b1 3abd 1a61 9abd
00000340: 0f0c 69bd 0e45 da3d 8c25 d23d db36 073e
00000350: 23d6 663d 75fd b73d 1a00 033e 4707 ddbd
00000360: b808 8c3d 9fa3 cfbd 8804 a7bc 2ff5 0f3e
00000370: 4a5b 0e3e ff0c c2bd a75e ae3c fd00 8bbc
00000380: ee06 a13d c1f6 b63d 6ebf ffbb bcb4 313d
00000390: 906f 0a3e da44 0d3e 879c b4bd 4943 37bd
000003a0: 9e55 013e f317 cdbd bc4a aebd 5c67 3f3c
000003b0: 7081 f43d 30b1 45bc 1495 eebd 7725 633d
000003c0: 5316 f13d 83f4 c13d c48b ed3c 51c1 a3bd
000003d0: 94ba f73d f64c 8f3d 301f 8e3c 6d28 4ebd
000003e0: 0e4d e43d 5630 f8bd f729 e2bb cf21 5bbd
000003f0: 26ec 1ebe 3835 b03d 1369 0fbe 2343 1d3d
-0.13430826 0.0574506 -0.042772926 0.044214413 0.10207545 -0.07452456 -0.053698093 0.11433151
0.098173775 0.19275337 0.08979707 0.12752736 -0.045287322 0.14181949 0.07641163 -0.025637185
0.021425778 -0.05291591 -0.11795192 0.0036912472 0.05070975 0.110485315 -0.11567883 -0.042885486
0.10162922 0.18392807 0.11415247 -0.077633336 0.031337366 -0.05895097 -0.1663735 -0.05542519
-0.16519274 -0.08528024 -0.054371573 -0.17487769 -0.053492647 -0.050835487 0.079234704 0.13650468
-0.1313057 -0.00064648926 -0.21954517 0.107201025 -0.029797686 0.09566754 0.043531485 -0.012296788
-0.0411822 -0.22215942 -0.11663036 0.17515881 0.04298829 0.043506194 -0.009784514 0.00570773
-0.06453448 -0.029607628 -0.06850993 0.08133664 0.06448659 -0.098827526 0.08035059 -0.15677987
0.034629982 0.10378413 0.030782796 0.09988826 -0.009568775 0.014775133 -0.1206439 0.19726762
-0.10338233 -0.05128395 -0.02194875 -0.07412416 0.15622497 0.04652215 0.0255742 -0.24601358
-0.07217654 0.0103864735 -0.081085704 0.118924 0.1629234 0.038766704 -0.03129173 0.15789308
-0.10074632 0.10624105 -0.024425035 -0.13273774 0.06181167 -0.048465364 0.11632237 -0.05672679
-0.007861558 0.12361496 -0.0008277067 -0.06775439 -0.13105911 -0.122757204 -0.07793578 0.02030893
0.13519582 0.16535006 0.06605786 0.07598143 -0.049293004 0.011260586 -0.051845595 0.11134163
0.051460307 0.02272913 0.054806378 -0.1255652 -0.13408944 -0.048057627 0.0876417 -0.15555449
0.060676176 0.12312461 -0.044256065 -0.1719492 0.074055664 -0.057839178 0.028825115 -0.031925734
-0.093120195 -0.09705592 -0.10349189 -0.13846529 0.09978068 0.04118009 0.062340043 -0.030247487
-0.07927642 0.18783522 0.016293537 -0.06466698 -0.08809791 0.018763768 0.11891911 0.06252985
-0.06461908 -0.05854632 -0.12268784 0.028032038 0.08421585 0.15437022 -0.022841869 -0.00056892296
0.18970175 -0.047041662 -0.16571355 0.15608104 -0.10596609 -0.023724051 0.22179982 0.049805414
0.06418035 0.0070788423 -0.043027405 0.04406073 -0.005563824 0.04203247 -0.035966374 -0.0069675604
-0.10036179 0.08351427 0.16546561 0.12513697 0.037397336 -0.14193745 -0.061640248 -0.028895825
-0.13775863 0.055100374 -0.044645976 0.083487816 -0.07099703 0.08675132 0.016689025 0.04566308
0.030079052 -0.01838394 0.089708075 0.02866085 -0.029121488 0.06002745 0.09055612 -0.078675844
-0.09478698 0.038626887 -0.013714843 -0.037952535 0.14449404 -0.04442338 0.0024675769 0.15234593
-0.1734743 -0.091258496 0.014927054 0.07890474 0.087428205 -0.009194816 -0.045579325 -0.07538052
-0.056896266 0.106577024 0.10261068 0.1320452 0.05635656 0.0898389 0.12793007 -0.10792404
0.068376005 -0.1013863 -0.020387903 0.14058374 0.13902012 -0.09475135 0.021285368 -0.016968245
0.0786265 0.08933783 -0.0078048026 0.043385252 0.1351912 0.13795796 -0.08818918 -0.044741903
0.12630317 -0.100143336 -0.08510348 0.011682358 0.11938751 -0.012066171 -0.11649528 0.05545565
0.11771836 0.09470465 0.02899731 -0.079958566 0.12096134 0.06997101 0.017348856 -0.05033152
0.111475095 -0.12118594 -0.0069019753 -0.05349904 -0.15519771 0.08603901 -0.14004926 0.038394105

local2.norm.weight f4 [128]
00000000: 6074 7a3f 2076 6c3f 3e9e 683f 9eba 7c3f
00000010: 8b9b 723f f59f 6c3f 96a0 6f3f 0b14 673f
00000020: 9a09 8a3f 4db7 683f 2862 703f 7441 5e3f
00000030: 22f7 703f 8d3a 5b3f 9c92 703f 4e29 873f
00000040: dd9f 8e3f 4357 703f 1d83 7a3f 3095 663f
00000050: 1b30 6b3f 8f40 853f d681 833f c13a 6d3f
00000060: 1992 593f d7ce 7d3f 6bd6 7d3f 36cd 793f
00000070: cb93 8f3f c1d8 693f 7e87 7c3f 6667 703f
00000080: 87ba 853f 13f5 783f 6c16 5c3f 039f 6a3f
00000090: c09d 703f b65f 603f f7c0 653f 0df5 7a3f
000000a0: 745d 643f f3e7 5a3f f4ae 823f 6891 843f
000000b0: 4a7b 743f 2f4c 6e3f fd1e 893f 60c7 603f
000000c0: 05be 5c3f 3b8e 823f 95d5 7a3f 630c 773f
000000d0: dd4b 863f 3d1b 513f 6138 813f 23e1 773f
000000e0: 289c 863f ba16 6f3f 796a 843f 9119 6b3f
000000f0: d4a2 843f d77b 753f 9091 7e3f 7a62 613f
00000100: 6e60 7a3f 9164 663f 74e8 693f db81 813f
00000110: 528f 703f 4174 7f3f fc5b 8d3f 8003 803f
00000120: bde2 7a3f 50b2 513f 02c1 793f 7cdb 6f3f
00000130: 566a 6f3f 5290 6b3f 7fc7 573f 2f43 683f
00000140: 89e4 733f 8a53 403f 7f8d 763f f245 893f
00000150: 9542 823f 364e 793f 4e37 6b3f d72f 6f3f
00000160: dd54 683f 54d8 673f 2d1e 653f b368 6a3f
00000170: 1300 763f 5424 6b3f 8ffa 7f3f 4a76 5c3f
00000180: d303 4f3f 20ff 613f 834e 7b3f 4f94 6b3f
00000190: a42d 843f bad6 673f a2ce 833f ac02 8a3f
000001a0: 3e05 5c3f 8f9b 6b3f dcef 6d3f f790 803f
000001b0: fdd5 683f 5458 6c3f ce33 703f ddd6 803f
000001c0: 4de0 703f 7d4f 773f 82b9 653f 1ab1 823f
000001d0: 19c7 763f 6160 8a3f 0fdf 673f a406 723f
000001e0: 2158 793f 0df6 7f3f abea 763f a4c1 773f
000001f0: 8593 5e3f 6a67 6d3f 70a2 663f 299c 493f
0.97833824 0.92367744 0.9086646 0.98722255 0.9476859 0.92431575 0.9360441 0.9026496
1.078418 0.90904695 0.93899775 0.86818624 0.94127095 0.85636216 0.9397371 1.055948
1.1142536 0.9388315 0.97856313 0.9007139 0.9187028 1.0410327 1.0273998 0.92667776
0.8498855 0.9914374 0.991553 0.9757875 1.1216978 0.91346365 0.98644245 0.93907773
1.0447549 0.97248954 0.85971713 0.9164888 0.9399071 0.87646043 0.89747566 0.9803017
0.892051 0.85510176 1.0209641 1.0356874 0.95500624 0.93084997 1.0712582 0.8780422
0.86227447 1.0199655 0.9798215 0.96503276 1.0491902 0.8168219 1.009533 0.96827906
1.0516405 0.93394053 1.0344993 0.91835886 1.0362191 0.9589209 0.9944086 0.8804089
0.9780339 0.899972 0.9137032 1.0117754 0.9396869 0.99786764 1.1043696 1.0001068
0.98002225 0.8191271 0.9756013 0.9369428 0.9352163 0.9201709 0.8428878 0.90727514
0.9527059 0.7512747 0.96309656 1.0724471 1.0176569 0.97384965 0.91881263 0.9343237
0.9075449 0.90564466 0.8949917 0.9156601 0.96093863 0.9185231 0.999917 0.86117995
0.8086521 0.88279915 0.98166674 0.92023176 1.0326428 0.9056202 1.0297434 1.0782065
0.859455 0.9203424 0.9294412 1.004424 0.9095152 0.9232228 0.9382905 1.0065571
0.94092256 0.96605664 0.8973619 1.0210297 0.9639755 1.0810663 0.90574735 0.9454138
0.974001 0.9998482 0.96451825 0.9677985 0.86943847 0.9273592 0.9009161 0.78753906

local2.norm.bias f4 [128]
00000000: 705a 88bd 9efd bcbd ad86 e0bd 7445 29be
00000010: 1d1b d4bd e6b0 06be 7b4d f5bd e539 fbbd
00000020: 5786 0bbd 5be1 c6bd d7b4 26be 855a 20be
00000030: 6ef1 c9bd 6ccd 28be aab0 c3bd 899d 75bd
00000040: 0fb0 a1bd 1a8c e4bd 1f75 0fbe eb96 f3bd
00000050: 1dba d5bd 80b8 89bd 93cb e6bd 552c b8bd
00000060: 053d 3abe 0411 a0bd 777a 7cbd 00a5 8ebd
00000070: 765e d2bc e293 16be bb0f 08be 6ca1 e0bd
00000080: 7d90 8cbd a2b2 adbd 65d5 28be c0cc 0dbe
00000090: d10d b5bd 2a34 32be f728 03be 0a6b b7bd
000000a0: b4fe 12be 8135 30be a93f 64bd 7d7d 25be
000000b0: 7705 07be c48a fbbd e3c3 3abd 087c 1dbe
000000c0: de65 1abe 774b 7cbd 4bf3 60bd a786 dfbd
000000d0: 70d0 7abd 5890 47be c4e2 99bd d300 05be
000000e0: 3eed 9bbd 978b bcbd 4ea4 a3bd 4a88 38be
000000f0: f6c7 26bd 8c03 15be 9a54 a4bd 9550 fdbd
00000100: a688 9fbd b943 00be df73 f6bd d3b1 9dbd
00000110: 3ed8 c7bd 310d b8bd de5e 84bd c336 c4bd
00000120: 75d6 bfbd 0721 62be a89b 88bd 7a95 7dbc
00000130: 9634 1dbe 2a01 c4bd a13a 1dbe c466 17be
00000140: 7a00 d3bd e46d 81be bd7f f6bd 099e 7bbd
00000150: ccc8 a2bd 0573 02be 89c0 03be e356 babd
00000160: caa9 0cbe f10b f7bd 90be 12be d5ee 0abe
00000170: 8910 bcbd b644 00be 9dac b9bd e50e 10be
00000180: 75da 2dbe f3d3 2bbe 4081 83bd 1f05 a2bd
00000190: 75bc 80bd dc58 1cbe f357 8abd 9c50 00bd
000001a0: 486d 18be ef79 07be add1 ffbd e9f0 edbd
000001b0: 3de1 07be 8f9e 04be bcd0 b0bd c7a2 f8bd
000001c0: adc0 11be 59f9 c9bd e613 e8bd eda5 dcbd
000001d0: 9ab3 09be e5db 92bd d38e c7bd bcf0 13be
000001e0: 34ec a0bd 6d46 c2bd b095 babd ef8a d4bd
000001f0: cf9a 0dbe 3f1a fbbd 47b5 10be ccc5 62be
-0.066578746 -0.09228061 -0.10963187 -0.165304 -0.10356734 -0.13153419 -0.11977669 -0.12266902
-0.034063663 -0.09710952 -0.16279922 -0.1565953 -0.09860502 -0.16484612 -0.0955518 -0.05996469
-0.07894909 -0.11159535 -0.14009522 -0.1189402 -0.10435889 -0.06724644 -0.112692975 -0.08992831
-0.1818734 -0.078157455 -0.06164023 -0.06965065 -0.025679808 -0.1470485 -0.1328725 -0.10968289
-0.068634965 -0.08481337 -0.16487654 -0.13847637 -0.08840526 -0.17402712 -0.12808596 -0.08955963
-0.14354974 -0.1720791 -0.055724774 -0.16161151 -0.13185678 -0.12282327 -0.04559697 -0.15379345
-0.15077922 -0.061595406 -0.054919522 -0.10914355 -0.061233938 -0.19488657 -0.07513955 -0.12988596
-0.0761361 -0.09206312 -0.07990323 -0.1802074 -0.04071804 -0.14552134 -0.08023949 -0.123688854
-0.077897355 -0.12525834 -0.120338194 -0.07699933 -0.09758042 -0.08986891 -0.06463407 -0.095807575
-0.09367076 -0.22082911 -0.06670314 -0.0154775325 -0.15352091 -0.095705345 -0.15354396 -0.14785296
-0.10302825 -0.25279152 -0.12036083 -0.06143001 -0.07948455 -0.12739189 -0.12866415 -0.090986036
-0.13736644 -0.120628245 -0.14330506 -0.1356767 -0.09182841 -0.12526211 -0.090661265 -0.14068182
-0.16977866 -0.16780071 -0.06421137 -0.07911133 -0.06285945 -0.15268272 -0.06755056 -0.031326875
-0.14885437 -0.13230108 -0.12491164 -0.116182156 -0.13269515 -0.1295111 -0.08633563 -0.12140422
-0.14233656 -0.098620124 -0.1133192 -0.10773835 -0.13447419 -0.07170848 -0.097440384 -0.14447302
-0.07857552 -0.09486089 -0.09110582 -0.10378062 -0.13828586 -0.122608654 -0.14131652 -0.22145766

meso.Wq.weight f4 [128, 128]
00000000: 61e2 f4bc bcb9 45bd ae5a 833d 2f2e bf3d
00000010: 9b4f 92bd d1b8 33bd d141 c2bd 66b4 153d
00000020: ad2e e33b eb49 56bd 36d1 173d c2c5 95bd
00000030: 26c1 e0bd d19b b9bd 979c 65bd ad2a bfbc
00000040: 6349 01be 7397 9ebc 6da7 a23c 9c3c 6fbc
00000050: 23db e53c 8f9e edbd e1fd d63b d39e a13c
00000060: f8e2 cabc 040e 1abd 6ffe be3c b360 0e3d
00000070: a6c0 073d 893b 9c3d 1694 033d fc07 b4bd
00000080: ee7c c7bd 6870 cebc f5c0 3c3d 3ed2 983d
00000090: f9a3 e2bd d61f 6fbc cd60 c2bc da1c 4cbd
000000a0: 2bf4 b8bd 2235 95bd add4 4bbc 7c6c 83bd
000000b0: d302 363c 2836 b8bd eeae 9fbb 73b8 763d
000000c0: 5ec7 873d 2dc8 183d 01c1 0ebd a9a3 7a3b
000000d0: ffde 1c3d b861 383d 24c7 943c 0366 21bd
000000e0: 87fe 983d f138 05bc 2ef2 93bd eeb3 ec3b
000000f0: 5db8 cc3c 5fd6 2cbd 91f3 1abd 401c a53d
00000100: 567e b23d 7157 b83d 5723 d03c 3545 0f3e
00000110: 36c0 693d 8161 52bd b3b3 b6bd 1410 b0bd
00000120: 54dc a83b f22d b1bc ee3a 45bd 1524 a43d
00000130: 728c 34bd 792a ad3d 9654 d9bb 6a8c d33c
00000140: 3b99 c03d e980 40ba 6eca 63bc 5231 cfbc
00000150: e070 e83c a90a 4dbc e593 c83c f742 b73d
00000160: 4fc9 263d 63f9 973d c3af c43c 6903 1c3d
00000170: b16d b53d 1f99 06bc 70f6 76bc 4b94 af3d
00000180: dfb6 923c 8674 b1bd 9f5c 233d 3579 d0bd
00000190: 4e7b 22bd 9b20 423c 69d9 7cbd df0c 8e3d
000001a0: ee96 8b3c fa3c e43c ee67 70bc 33bc 653d
000001b0: 522f c13d 967d 4fbc b304 14bd 2983 973b
000001c0: 08f8 9e3c 6025 d2bc 1369 1b3d 46aa 9ebc
000001d0: aeba 4bbd e03d 293d 3f32 b03d 7447 8bbd
000001e0: ba94 8cbd 64e3 e53d 848a 4f3c ed7f 113d
000001f0: 0503 2a3d 909d b0bd 1b35 94bd fab3 413b
00000200: 12fb 27bc b3da 9bbd edfb 9f3d 2925 ca3d
00000210: b2e5 5cbc e58b 0f3c 2852 3dbc 832d adbc
00000220: 4aa6 1fbc 53f9 f2bd e22f 21bd f45f 3f3d
00000230: 80a2 2ebd ddd1 66bc ec27 113d 6264 00be
00000240: a858 a8bd 0445 b0bd b4d5 b13d 36fd afbd
00000250: be09 c8bd e1ab 973d a178 7fbd 11e5 83bd
00000260: eac2 8abd 8e32 18bd 1775 82bc 59ea a3bd
00000270: c47d d0bd 6bfc 92bc abb7 f13d e2e8 983b
00000280: 0ac5 883d e9e8 a33c 394c f8bb e168 e83c
00000290: f132 b6bc 11f9 84bd 6302 43bd dfe6 2b3d
000002a0: a553 b33c c20c c7bd 1025 b83d defd e8bd
000002b0: c914 093d ed96 ad3c 5a24 e53d 10f4 82bd
000002c0: 8064 da3c 5dff c5bd 207c b83d c90f 2b3d
000002d0: 7ccd 0abe 7c47 e2bc f584 f13b 13f5 0bbd
000002e0: 31ef 9abd 52d8 043d d3c2 cabd 8243 f2bb
000002f0: 4188 983d 4a6a f5bc 9b56 05be b8c5 243d
00000300: 076d 853d c717 aa3d 1ebb 043d 4bd9 2c3d
00000310: 19c4 923c b7a9 06bd 73b6 36bd d369 23be
00000320: aa96 4a3d 9621 d4bc 1daf 26bd c885 97bc
00000330: 583a a7bd 6772 433d cf4c babd faee 7a3c
00000340: b4d9 9dbd 3825 f1bb 4f5e b33d b5c4 16bd
00000350: bf9f 74bc cdbc 82bd 695b 573b 2191 f1bb
00000360: 1488 f7bd 6420 403c 5cb0 acbd 5654 ce3d
00000370: b3d9 21bc f348 b83c 0467 9d3d 477c 5a3d
00000380: fb72 33bd 6a36 9f3d 2591 7b3d e753 0abc
00000390: 507c 96bd e510 a03d 659f b83d bd82 f7bd
000003a0: 21bb a2bd 3d54 cdbc b72b 6d3c ee5b dd3d
000003b0: b57e 023d 5413 81bc 0183 b6bd 3f8f c6bc
000003c0: 6939 e83d 83f5 833d db9a 473c b3e5 d8bd
000003d0: ea52 433c dd78 16bd b1c6 8e3d e106 e5bd
000003e0: a2ca 5d3d de04 a73d 898f 4ebd e3d7 833c
000003f0: b6b2 d53b 259d 9ebc 9763 c13c 6b11 4f3c
-0.029893102 -0.048272833 0.0641378 0.09334981 -0.0714409 -0.043877427 -0.0948521 0.036548994
0.0069330544 -0.052316587 0.037064753 -0.0731311 -0.1097434 -0.09062923 -0.05605754 -0.02333578
-0.12625651 -0.019359326 0.019855225 -0.014601853 0.028058594 -0.11602508 0.0065610264 0.019729054
-0.02476643 -0.037611023 0.023314683 0.03476019 0.03314271 0.07628543 0.032123648 -0.087905854
-0.09740625 -0.025200084 0.046082456 0.074619755 -0.110664316 -0.014594993 -0.023727799 -0.049832202
-0.09030946 -0.07285525 -0.012440843 -0.06417176 0.011109072 -0.089947045 -0.004873148 0.0602345
0.06629823 0.037300278 -0.03485203 0.0038244522 0.038298603 0.045015067 0.018161364 -0.039403927
0.07470422 -0.008131252 -0.072239265 0.0072235977 0.024990255 -0.042196628 -0.03782994 0.08062029
0.08715503 0.09001053 0.025407476 0.13991244 0.057068072 -0.05136252 -0.08920994 -0.08596817
0.0051532183 -0.021628354 -0.048151903 0.080146946 -0.04407925 0.08455367 -0.006632398 0.02582379
0.094042264 -0.0007343428 -0.0139032435 -0.025292072 0.028374135 -0.012514749 0.024484584 0.089483194
0.040719327 0.074206136 0.024009591 0.03808919 0.088588126 -0.008215218 -0.015073404 0.085732065
0.017909465 -0.08664803 0.039883252 -0.101793684 -0.039668374 0.011848594 -0.061730776 0.06936049
0.017039742 0.027861107 -0.014673216 0.056087684 0.09432854 -0.012664219 -0.036137294 0.00462379
0.01940538 -0.025652587 0.037942003 -0.019368302 -0.04973858 0.041318774 0.08603334 -0.06800738
-0.06864305 0.11225012 0.012667302 0.03552239 0.041506786 -0.08623803 -0.072366916 0.0029556737
-0.010252731 -0.07610073 0.07811723 0.09870369 -0.013482498 0.008761381 -0.011555232 -0.021139866
-0.009744236 -0.11863961 -0.039352305 0.046722367 -0.04263544 -0.014088121 0.035438463 -0.12538293
-0.08220035 -0.08606914 0.08683339 -0.08593218 -0.09767483 0.0740583 -0.0623709 -0.06440175
-0.06775458 -0.037157588 -0.015924973 -0.08003683 -0.10180238 -0.017942628 0.1180261 0.0046664337
0.06678207 0.020008521 -0.007577446 0.028370323 -0.022241088 -0.06492818 -0.047609698 0.041968223
0.02189047 -0.0971923 0.08991444 -0.11376546 0.033467088 0.021190131 0.11188574 -0.063942075
0.02665925 -0.09667847 0.0900805 0.0417631 -0.13554949 -0.027621977 0.007370586 -0.034169268
-0.075651534 0.03243286 -0.09900441 -0.0073933015 0.07447863 -0.02995791 -0.13021319 0.04022762
0.06514936 0.083053164 0.03240501 0.042199414 0.017915772 -0.032876696 -0.04460759 -0.15958337
0.04946009 -0.025894921 -0.040694345 -0.018496409 -0.08165425 0.047716524 -0.09096681 0.0153157655
-0.07707539 -0.007359173 0.08758222 -0.03680869 -0.014930665 -0.06383667 0.0032860881 -0.007372037
-0.12086502 0.0117264725 -0.084320754 0.100746796 -0.009878564 0.022495722 0.07685664 0.053341176
-0.043810826 0.077740505 0.061417717 -0.008442855 -0.073479295 0.078157224 0.09014777 -0.12085483
-0.07945848 -0.025064582 0.014475754 0.1080855 0.03185912 -0.015756287 -0.08911706 -0.024238227
0.11339075 0.06443312 0.0121829165 -0.10590687 0.011921624 -0.036736358 0.06971491 -0.11182953
0.054148324 0.08155225 -0.050429855 0.016094154 0.006521548 -0.019362042 0.023607058 0.01263843
