models/eeg_only/s_08.pt (torch, 561186 bytes, 37 tensors)

band_attn.fc1.weight f4 [8, 5]
000000 84 c7 ce 3e 7c c7 92 be 70 50 cd 3e 63 bb 45 3e
       0.40386593 -0.2866782 0.4010043 0.19309764
000010 ae 5c 01 3f e2 4e 90 be 59 a1 89 3d b8 7a f4 3d
       0.5053204 -0.28185183 0.06720228 0.11937469
000020 1c f5 16 3e 60 0d a5 be 09 9e a0 be 78 68 b6 3e
       0.1474194 -0.32236767 -0.3137057 0.35626578
000030 fa 28 bd 3e b1 6d cc 3e 0f 6d ce 3e 5d 12 84 be
       0.36945325 0.39927438 0.4031758 -0.2579526
000040 fd 4a b4 bd bf f1 2e bd 8c 61 76 be 40 28 00 3f
       -0.088033654 -0.042711016 -0.24060649 0.50061417
000050 f8 b5 5d 3e 3e af cc 3e 44 8d 94 be 39 98 8f 3e
       0.21651447 0.3997745 -0.29014027 0.28045824
000060 9a 45 b4 3d ea 73 90 be 6c 2a ab 3e 05 97 19 be
       0.08802338 -0.28213435 0.33430803 -0.14999016
000070 f7 86 d8 bc a0 e6 ae bd 63 59 a9 3e 81 e6 68 3e
       -0.026431544 -0.08540082 0.3307601 0.2274418
000080 e7 3f 04 3e 39 2d 1b 3e 38 56 96 3e d1 3d f3 3d
       0.12915002 0.1515397 0.29362655 0.11877025
000090 cb 13 7d be df b4 71 be 1f 82 6b 3d 2b bc f1 be
       -0.24714582 -0.23604153 0.05749714 -0.47213873

band_attn.fc1.bias f4 [8]
000000 de 4b fd 3c 5b 8e ac be 61 00 3a 3d 2a 9c 01 bc
       0.030919965 -0.3370236 0.045410518 -0.007910768
000010 9f 1f eb be 56 f6 22 3e da 32 90 3e 8c 88 d0 3e
       -0.45922562 0.15914282 0.28163797 0.40729177

band_attn.fc2.weight f4 [5, 8]
000000 50 3b 12 3e 2e 02 94 be a6 82 c1 3e 7c e9 7c 3e
       0.14280438 -0.28907913 0.3779499 0.24698442
000010 4a ee 98 be 39 6d 89 3e 16 1e a1 3e 54 68 32 be
       -0.298693 0.26841143 0.31468266 -0.1742261
000020 e2 5f 04 3e 8b a5 b3 3e df c2 3e be 4a 5a 29 3e
       0.12927201 0.35087237 -0.18629025 0.16538349
000030 09 69 2f be 83 77 fd 3d 46 ce 18 be 41 52 5f be
       -0.17129911 0.12376311 -0.14922437 -0.21808721
000040 ca e7 27 be be 0d af 3e a4 e4 e1 3c a7 55 9f 3e
       -0.16397014 0.34190172 0.027574845 0.31120035
000050 1c 11 35 3d e0 bb 1c be 3f 15 8f be 4f ce fd bd
       0.04420577 -0.15306044 -0.27945897 -0.12392866
000060 5e 6c 3f 3d 80 79 76 be 37 b8 d1 3d e9 91 b1 be
       0.046734206 -0.24069786 0.10240214 -0.34681633
000070 93 ec a8 be f0 a6 ac 3e 39 f6 0a be f5 7f b6 3e
       -0.32992992 0.33721113 -0.13570489 0.35644498
000080 c5 57 a4 be 0d a3 29 3d b1 e6 63 bd c8 84 86 3e
       -0.32098213 0.041415263 -0.055639926 0.2627318
000090 b8 ed 91 3e 83 c3 ec be 6a 1a a3 be fc a7 b3 be
       0.28501678 -0.46242914 -0.3185609 -0.350891

band_attn.fc2.bias f4 [5]
000000 97 06 2e be b5 c8 0e 3e 54 19 e5 bd 6b 99 36 bd
       -0.16994701 0.13943751 -0.111864716 -0.044579905
000010 6d 10 32 3e
       0.17389078

feat_proj.weight f4 [128, 21]
000000 d9 a7 52 3e a1 0c 1e bd 63 7a 3b 3e b8 57 15 bc
       0.20571841 -0.038586263 0.18308406 -0.009115152
000010 28 85 10 3d af f9 44 be 7d 6c af 3d 78 40 2a bd
       0.035283238 -0.19235872 0.08565614 -0.04156539
000020 c9 5e 62 be 6d a1 0c be e1 1f 0b 3e 51 9c 6a bd
       -0.2210647 -0.13733454 0.1358638 -0.05727798
000030 26 e9 1b 3e be 2b 1d be 4f 8c d2 3d d7 75 43 bd
       0.15225658 -0.15348718 0.10280668 -0.047719803
000040 48 c3 79 be 5c d1 f2 3d 28 97 19 3e 8f 66 51 3e
       -0.243909 0.118563384 0.14999068 0.20449279
000050 c4 6d 88 3b 5c c6 ae bd ad 76 75 be 12 a1 75 be
       0.0041634757 -0.08533928 -0.23971052 -0.23987225
000060 b2 a7 a5 3d e3 9e 8c bd ac f1 29 3e 05 8f 24 3d
       0.08088626 -0.06866243 0.16596097 0.040175457
000070 97 89 26 be b3 a6 3a 3e 06 eb 3c be 31 5c 1e be
       -0.16263424 0.18227653 -0.1844903 -0.15464856
000080 e7 f9 42 be 49 e3 08 be 66 c0 4a 3e 90 0d d8 bd
       -0.19040643 -0.13367952 0.19799957 -0.10549462
000090 9b 77 3d 3e 93 f0 a6 bd 3b e2 d6 bd 6f f7 22 be
       0.18502657 -0.08151355 -0.10492369 -0.15914701
0000a0 49 7c fb 3c ca 6a f3 3d 2f e7 8a 3d c9 40 5e 3d
       0.030698912 0.11885603 0.06782376 0.054261003
0000b0 5c a7 4c be f3 82 b1 3d ae 8b 7a 3d 1e e9 1a be
       -0.19985718 0.08667555 0.061168365 -0.1512799
0000c0 5f 2c 1f be 1f 49 6a be a2 a6 1a bd 2a 03 1a be
       -0.1554427 -0.22879456 -0.03775657 -0.1504027
0000d0 4c cd 44 be 31 f4 f1 bd 79 c5 0c 3e ae b0 40 3c
       -0.1921894 -0.11814154 0.13747205 0.011760874
0000e0 f1 cc 25 3e 47 57 40 be 9b 13 30 3e c4 2e 9d bd
       0.1619146 -0.18783294 0.17194979 -0.076749355
0000f0 38 1e ab bd 10 01 4c 3d ee 3b a9 bd 4f 63 27 be
       -0.08355373 0.0498057 -0.08263384 -0.16346477
000100 25 16 3d bb ad 7d 09 be f4 c2 ef 3b 79 f8 e1 bd
       -0.002885231 -0.13426848 0.0073169414 -0.110337205
000110 78 85 e2 3d 1e 11 3f 3e cc 13 3a 3d 33 20 d5 3c
       0.110606134 0.18658873 0.045429036 0.02601633
000120 c3 a4 f1 3d ee 5c 1a be 66 dc f2 bd 3a 59 bf bd
       0.11799004 -0.15074512 -0.11858444 -0.093431905
000130 bf d5 24 3e df 5e 0f be 9f 93 12 be af c3 93 3d
       0.16097163 -0.14001034 -0.14314125 0.07215058
000140 c3 35 db bc 5f 15 17 be 7e cd b1 3d 6b 94 0c be
       -0.026759034 -0.14754246 0.08681773 -0.13728492
000150 b2 ae 73 be a6 6e 3c 3e 08 7b 89 3d 0c d5 a9 3d
       -0.2379711 0.18401584 0.067129195 0.082925886
000160 76 6d 4b be 98 ad 6d 37 a1 65 09 be 9a 37 d7 bd
       -0.19865975 1.4166719e-05 -0.13417675 -0.10508652
000170 d5 5e ed bd 05 e8 18 3e e5 47 34 be 67 4c 7e 3e
       -0.115903534 0.14932258 -0.1760555 0.24833833
000180 0d 98 01 3e 7f 77 d1 bd 6f fb e0 bd 36 8c ec bd
       0.12655659 -0.1022787 -0.10985457 -0.115501806
000190 aa 16 8c bc b4 97 ac 3d 72 22 06 3e e1 a5 38 3e
       -0.01710065 0.084273726 0.13099077 0.18032028
0001a0 a0 e9 0d 3e cc 6f 3a be 82 59 95 3e 6e 18 2d be
       0.13858652 -0.1820671 0.29169852 -0.1690385
0001b0 19 59 78 3e 94 97 5c 3d fb 3f 3d 3e 6c e7 08 be
       0.24252738 0.053855494 0.18481438 -0.1336953
0001c0 56 b7 11 bd b6 6a 05 3e b0 7a 24 3e a7 c2 00 3e
       -0.035575233 0.13028988 0.16062427 0.12574254
0001d0 03 74 e4 bd de 41 f7 3c 69 b9 03 bd a8 34 98 bd
       -0.1115494 0.030182775 -0.032159243 -0.074319184
0001e0 1c 1a ba bd 3f 6a 54 be 72 3a 4e 3e 56 14 af 3c
       -0.09087011 -0.20743655 0.20139483 0.021372002
0001f0 93 aa 3d 3e 51 5d d2 bd d9 fd 9c 3d 95 58 c8 3d
       0.185221 -0.10271705 0.07665605 0.09782521
000200 b7 74 24 bd f9 ff 82 bd b0 f7 dc bd c9 ce b7 bd
       -0.04015037 -0.06396479 -0.1078943 -0.08974988
000210 45 b0 4b be 2e 67 55 3e be 2a 34 be af c1 b3 bd
       -0.1989146 0.20840141 -0.1759443 -0.087771766
000220 62 86 1f bd 09 00 fe 3d 7d cb 61 3d 37 bc 61 3e
       -0.038946517 0.124023505 0.055125702 0.22044455
000230 93 bf 45 bc 37 ae 99 bd 37 37 f3 3d b7 cb 2e 3e
       -0.012069601 -0.07503932 0.11875766 0.17069899
000240 16 0a 3c 38 9b 17 54 bc f8 d7 4c 3d 07 10 5d 3e
       4.4832086e-05 -0.012945081 0.05001065 0.21588145
000250 84 cd 7a 3e f5 e2 10 3d f1 80 41 3e 10 a6 65 3d
       0.2449246 0.035372693 0.18896843 0.056066573
000260 82 ec ae bd 01 39 19 3e 64 0d f2 bd 9c f1 2b 3d
       -0.08541204 0.14963152 -0.1181896 0.041978464
000270 b0 ab 02 be c5 c1 18 3e fb de 45 3d f8 c1 18 3e
       -0.12760806 0.14917667 0.048308354 0.14917743
000280 08 5e 86 bc 24 a0 0a bd d9 af 1b 3d 81 ee 4e bd
       -0.01640226 -0.03384413 0.0380095 -0.050520424
000290 30 d8 cf 3d 9a 0e 8a 3b 8c a7 1e be 03 73 fb 3d
       0.10148656 0.0042131664 -0.15493602 0.12277796
0002a0 bd e8 a9 bd 15 5b cd 3d b7 6c 35 3e 19 a6 13 be
       -0.082963444 0.10027138 0.17717253 -0.1441883
0002b0 40 1d 2c be 79 f2 c8 bd ee d3 eb 3d 74 c2 0a be
       -0.16808033 -0.09811873 0.11515032 -0.1355074
0002c0 43 f0 1c 3d 86 40 6e bd 31 63 75 be 9f 4e 08 3e
       0.03831507 -0.058167003 -0.2396362 0.13311242
0002d0 a7 a3 56 39 87 12 a6 3d 24 a1 43 3e 66 bb b0 bd
       0.00020469596 0.081090026 0.19104439 -0.086294934
0002e0 2d 4b 0b 3e 83 fe 19 3e 7d f2 00 3e 20 9f 58 3e
       0.13602896 0.15038495 0.12592502 0.21154451
0002f0 6f 42 98 bd 56 f7 44 bc 23 64 31 bd 74 75 f9 3d
       -0.07434546 -0.01202186 -0.04330839 0.121806055
000300 0e 50 54 3e 32 b1 e3 bd bd 53 ab bc 44 96 9f 3d
       0.20733663 -0.11117782 -0.020913953 0.07792333
000310 ab ad 72 3e 26 42 cd bd 92 5b 35 bd 29 1d 48 3e
       0.23699062 -0.100223824 -0.04427678 0.19542374
000320 ef 40 bc bd 0f c8 1c 3e 66 f2 2f be d8 d1 c1 3b
       -0.091920726 0.15310691 -0.17182311 0.005914908
000330 fc 69 44 3e 2b 4e 36 bc 6f c6 c0 3d 01 3c fe 3b
       0.19181055 -0.011127035 0.09412848 0.007758618
000340 99 91 c5 3d 1a 72 d3 bd a4 90 b6 bd f5 75 09 3c
       0.09646911 -0.103244975 -0.08914307 0.00838994
000350 09 07 af bd ff 4c f5 3d e3 b8 09 be 5e de d7 bd
       -0.08546264 0.119775765 -0.13449435 -0.1054046
000360 30 f2 c4 bd 13 28 2e bd 02 57 c3 bd f5 1e 45 3e
       -0.09616506 -0.042518687 -0.0953808 0.1925009
000370 d3 ad 5f 3c 4a 6f 34 3d f1 b7 4d 3e 16 ca 3a bc
       0.013652283 0.044051446 0.200897 -0.01140072
000380 a7 69 c6 bd 67 cc 4a bd 2d 1b ac 3d be 32 f6 3d
       -0.0968812 -0.04951134 0.08403621 0.12021397
000390 75 4e 45 3e a3 d5 77 bd 3d b8 99 bd df 13 29 3d
       0.1926821 -0.060506474 -0.07505844 0.041278716
0003a0 33 ac 0b be d4 45 fb 3d e5 5f 3b be e5 c9 90 3b
       -0.13639908 0.12269178 -0.182983 0.004418599
0003b0 e4 c5 ef 3d 0c 8c 8b 3c 03 bf 2d 3e 88 e8 dc 3c
       0.117076665 0.017034553 0.16967396 0.026966348
0003c0 f9 57 95 bd 1b 71 23 be 2e e8 1e 3e 62 46 1a 3e
       -0.0729217 -0.15961115 0.15518257 0.15065911
0003d0 b9 0e 36 3e ce 8a f2 bc 55 1e 41 3e e1 73 50 be
       0.17779054 -0.029607203 0.18859227 -0.20356704
0003e0 aa 71 78 bd 23 65 e2 3d 40 e3 00 3e 6c a0 9f bc
       -0.060655273 0.110544465 0.12586689 -0.019485675
0003f0 61 e6 43 be 88 9c 2e be de cd a5 bd 39 01 0d bd
       -0.19130851 -0.170519 -0.08095907 -0.034424994

feat_proj.bias f4 [128]
000000 6f e7 2a 3e ca bd 47 bd e9 bf ba 3d c3 7f ec 3d
       0.16689847 -0.04876498 0.09118635 0.11547806
000010 81 27 38 b9 7d 22 23 3e 57 19 3d 3e b8 0f 03 3e
       -0.00017562324 0.15931125 0.18466698 0.12798965
000020 79 05 1b 3e 7a 10 08 be 48 e1 68 3b 50 b9 d3 bd
       0.15138806 -0.13287535 0.0035534669 -0.1033808
000030 cb 7a 65 3d c3 12 40 3d b0 cd fd 3d eb 82 fd bd
       0.056025308 0.046892893 0.123927474 -0.12378486
000040 a0 8d 4d bd 5d 85 06 be 5f c3 bf bd 45 96 4f 3e
       -0.050183892 -0.13136812 -0.09363436 0.20272167
000050 99 67 fe 3c e8 91 8e 3b 41 d6 ea bd 92 2c f4 bd
       0.031055259 0.0043508895 -0.11466647 -0.119225636
000060 2b 73 dc 3d 35 85 3a be 41 60 06 be b0 1a c7 bd
       0.10764154 -0.18214877 -0.13122655 -0.09721887
000070 61 e3 0d be 00 6e 07 3e 04 70 3a be 5f bc bf 3c
       -0.1385627 0.13225555 -0.18206793 0.023405252
000080 bf 68 d6 bb b3 8a 00 be e6 9c 03 3e 90 e9 b7 3d
       -0.0065432484 -0.1255291 0.12852821 0.089800954
000090 b8 29 02 be 89 18 5c 3e 28 64 49 3e f8 e9 05 3d
       -0.12711227 0.21493734 0.19667113 0.032693833
0000a0 a1 9b 96 bd 72 44 4e bc 6f f3 bf bd ed e7 87 bc
       -0.073539026 -0.012589561 -0.09372603 -0.016590083
0000b0 c8 d4 28 3e dc 85 71 3d 47 9c 27 be 97 22 03 3e
       0.1648742 0.05896555 -0.16368209 0.12806164
0000c0 aa 71 90 bd 36 bf 40 be 93 12 6f bd 47 f6 e2 3b
       -0.0705293 -0.18822941 -0.058367323 0.006926331
0000d0 3e 81 0d 3e 0b 94 31 3e 3b a0 4d 3d b8 d7 c5 bd
       0.13818833 0.1734163 0.050201636 -0.09660286
0000e0 f1 fc 32 be cb 09 03 be 82 0c 18 be ff d5 07 be
       -0.17479302 -0.12796704 -0.14848521 -0.13265227
0000f0 35 92 03 be 83 9e 46 3e db 12 51 bd 99 3c 09 3e
       -0.12848742 0.19396405 -0.051043373 0.13402022
000100 11 62 8c bd dc c8 35 be 5b 71 ae 3d d5 19 12 bd
       -0.06854642 -0.17752403 0.085177146 -0.035669167
000110 28 cf 94 3c 79 0b 42 be d5 8f ef bd 08 3f 17 3d
       0.018165186 -0.18949689 -0.11697356 0.036925346
000120 a0 e2 fc bd fb 06 1c 3e ad be c5 bd 00 d0 0d 3e
       -0.12347913 0.15237038 -0.09655509 0.13848877
000130 e2 7d 20 be f7 64 4f be d7 8c 7b 3d 7f a7 a4 3d
       -0.1567302 -0.20253359 0.061413612 0.0803976
000140 a4 ce 12 3e a5 05 0c 3d ee 6e cb 3d aa 27 a6 3d
       0.1433664 0.03418507 0.099332675 0.08113034
000150 6d 31 40 bd 71 d8 35 3d 8c 2f a3 3d c8 95 e1 bd
       -0.046922136 0.044395868 0.07968053 -0.11014897
000160 90 0d 01 bd 66 2f e3 3d 8b 37 ab bb e1 2b 2b be
       -0.031507075 0.11093025 -0.005225127 -0.16715957
000170 5d 2f 1f 3e 62 cd 0e 3e 75 b5 3e 3e 4c 7c c4 3d
       0.15545411 0.13945535 0.18623908 0.0959402
000180 d3 0e c0 bd fe 91 fb bd fc 26 f3 3d 78 5f 11 3e
       -0.093778275 -0.12283705 0.1187267 0.14196575
000190 91 7e 8a 3d f1 f5 fe bd 73 94 44 be ff 0c a5 bd
       0.06762422 -0.12449253 -0.19197254 -0.080591194
0001a0 0f ca f3 bc 10 12 b7 bd a1 23 ec 3d db 36 4a be
       -0.029759435 -0.08938992 0.11530233 -0.19747488
0001b0 27 b4 ef bd ea 71 3e 3e 31 22 4a 3d 2a a1 50 3e
       -0.11704283 0.18598142 0.049349014 0.20373979
0001c0 f5 f0 e8 3d 40 b8 3c 3e 83 2e 74 3d 0c 17 9e bb
       0.11374084 0.18429661 0.05961467 -0.0048245247
0001d0 b5 27 d3 bd e3 9d 36 be 01 5e 54 3e 63 5d 82 bc
       -0.10310308 -0.17833667 0.20738985 -0.01591367
0001e0 62 7e 7d 3d 26 59 11 be ab fb 53 be 14 4b 8f 3d
       0.061888106 -0.14194164 -0.20701472 0.06996742
0001f0 cb ae 24 bd f4 71 58 3d 5a 68 31 3e d9 f7 0b 3e
       -0.040205758 0.05284305 0.17324963 0.13668765

local1.conv.bias f4 [128]
000000 90 53 42 3c f4 23 f5 bb c0 15 ff 3b cf 02 dc 3b
       0.011860743 -0.0074810926 0.007784575 0.006714202
000010 d1 f2 a1 bb 6d 91 0a 3c 17 fa 37 bc 80 e5 05 3c
       -0.004942276 0.008457524 -0.01122906 0.008172393
000020 4e 3c fa 3c 07 57 24 3b fc 0b 09 3c 16 88 52 ba
       0.030546334 0.0025076286 0.008364674 -0.00080311426
000030 c9 f8 92 3b a5 6b 61 bc f3 f8 b2 3c f4 4b 48 3c
       0.004485224 -0.013758575 0.021847224 0.01222514
000040 85 cc 65 3b 67 84 1c bb 2a 27 84 3c 2c bf fa 3b
       0.003506453 -0.002388263 0.016131956 0.007652184
000050 ca 3d 94 bb a9 59 67 3c 46 29 cd bb 88 8d e8 3a
       -0.0045239674 0.014120498 -0.0062610237 0.0017742375
000060 c2 9a 1f 3a 8d 9e 4c bb f7 8c cb 3a 58 f7 1c bb
       0.00060884294 -0.0031222433 0.0015529682 -0.002395114
000070 54 22 c6 bc 55 ca 00 3c 0d b7 a5 b9 6f 40 01 3c
       -0.02418629 0.00786074 -0.00031607636 0.007888897
000080 53 3e ec bb 1c d6 3f bb c1 68 68 3c 95 46 40 3b
       -0.007209578 -0.0029271906 0.0141851315 0.0029338945
000090 69 a9 7e 3c d9 3f fc bb 56 88 a9 bc ee 0c ab 3c
       0.01554332 -0.007698041 -0.020694893 0.020880189
0000a0 44 c9 b0 bb ac 31 4b bc d9 6a 8e ba 64 9d 32 bc
       -0.0053950865 -0.012401979 -0.0010865583 -0.010901783
0000b0 a5 f2 a5 bc 0a c5 3a 3c 38 a4 de 3b f8 5d c0 bb
       -0.020257303 0.011399517 0.0067944787 -0.005870577
0000c0 f5 35 a4 bb 71 4a 8f 3c 8e 2e 97 bc bf c5 94 3c
       -0.005011315 0.017491551 -0.018454816 0.018160699
0000d0 56 bc b0 bb af f6 cc 3c 02 60 ab bb 2a a7 ef ba
       -0.005393545 0.025019972 -0.005229951 -0.0018284072
0000e0 05 3a 25 bc 73 e0 30 bb f4 c1 c8 3c dc 4b e9 3b
       -0.010084634 -0.002698925 0.024506547 0.007119639
0000f0 0d 9b 7f bb 25 b2 40 bb c6 eb f9 bb 1c ad 02 bb
       -0.003900233 -0.0029403057 -0.0076269833 -0.0019939607
000100 14 48 46 3c 91 79 92 3c 0d 52 1f 3c 16 6c 6e bc
       0.012102146 0.017880233 0.009724152 -0.014552137
000110 8e 3c 02 3c ea 0c f2 3b 0e 93 eb 3c ba cf 2b bb
       0.007949008 0.0073867934 0.028756645 -0.0026216344
000120 7e 06 9d bb d2 f5 05 3b 4a 45 ed bb c2 c3 86 3c
       -0.0047920337 0.002044071 -0.007240926 0.016450766
000130 72 f2 04 3b 9b c3 84 bc 3b 9c a9 38 36 11 be bc
       0.002028611 -0.016206553 8.087648e-05 -0.023201566
000140 cf 01 68 3c 6e 25 21 3c 1f fb be bb a9 44 0a 3c
       0.014160587 0.009835584 -0.005828276 0.008439221
000150 92 04 a3 bb c7 d8 06 ba 17 f0 81 bc 25 cd 7f ba
       -0.00497491 -0.00051439967 -0.015861554 -0.0009758047
000160 94 15 12 3c ab d8 58 bc 7e 23 e6 3b df c0 6c bb
       0.008916277 -0.013235251 0.007023274 -0.0036125702
000170 c1 13 91 3c 14 c0 03 bc 09 74 12 3c c5 47 42 bb
       0.017709615 -0.0080414 0.008938798 -0.0029644829
000180 62 10 15 3c 00 af 21 bd a3 3e 3b bc 27 d7 9c 3c
       0.009098144 -0.039473534 -0.011428508 0.019145561
000190 76 8d 8e 3b c9 29 a9 3c 32 e5 eb bb 21 63 41 3b
       0.0043503596 0.020649808 -0.007198953 0.0029508548
0001a0 91 4e 03 3c 72 7b b9 bc 53 f1 c7 3b 33 b7 8e 3b
       0.008014337 -0.022641871 0.006101766 0.004355335
0001b0 50 ec a7 3c fb b4 6e bc 17 61 9a b7 b7 83 36 3b
       0.020498425 -0.014569516 -1.8403442e-05 0.0027849504
0001c0 79 c4 6e 3c 97 48 87 3c f0 bc fe 39 06 c9 88 3b
       0.01457321 0.016514106 0.00048587425 0.0041743545
0001d0 bf d0 f7 3b 5a 23 11 3b 54 4d 6c 3c 93 f3 e6 39
       0.0075627263 0.0022146315 0.014422733 0.00044050495
0001e0 1f 64 1a bb ab 41 4b bc 3e a8 10 bc 37 b3 42 3c
       -0.0023558212 -0.012405793 -0.008829175 0.011883548
0001f0 10 dc a5 bb 5c dd 23 3c ff c1 4a 3c cb 93 eb bb
       -0.005061634 0.010001507 0.012375354 -0.007189249

local1.conv.lin.weight f4 [128, 128]
000000 bb f4 64 bd 3b 92 f5 bd be 49 d8 bc 52 ea a4 3d
       -0.055897456 -0.11990782 -0.02640235 0.080525056
000010 72 eb 7f 3d ef 97 76 3d fa a9 17 3d df 9d 21 3e
       0.062480398 0.06020349 0.037027337 0.1578288
000020 49 6b f6 3d af 3f 56 bd 60 60 b3 3b 16 c2 a5 bc
       0.12032182 -0.052306827 0.0054741353 -0.020234149
000030 07 4b e0 bb 8f 26 ae 3d bb ab f2 bd 7d 26 dc 3d
       -0.0068448815 0.08503448 -0.11849161 0.107495286
000040 e4 69 a2 bd 3c 3d e3 3d 2f 65 45 3d 43 f9 95 3c
       -0.07930353 0.11095664 0.0481922 0.018307334
000050 ae 41 c4 bd 46 6a d6 3d b1 42 0b 3e a3 ea 9f bd
       -0.0958284 0.10469489 0.1359966 -0.07808425
000060 9d 4c 8b bd ac 1d 74 3c 5f 07 f4 3d 22 d0 fd 3d
       -0.06801722 0.014899652 0.119154684 0.12393214
000070 8a 1d 0f be a8 d3 0a 3e 41 59 ab 3d 79 1c 92 bd
       -0.13976112 0.13557303 0.08366633 -0.07134337
000080 5b 10 23 bd 38 7c fb bd a9 d2 f7 3d bd 2f 90 3d
       -0.03981052 -0.12279552 0.12100727 0.07040355
000090 11 2f b3 3c 71 71 b6 bd b0 76 61 bd 4a 39 76 3c
       0.021873029 -0.08908356 -0.05504483 0.015028307
0000a0 6e 14 a4 3c e6 51 c4 bc 7f 63 cf bd 7f 87 90 3d
       0.020029273 -0.023964833 -0.10126399 0.07057094
0000b0 db 9f 0a 3e 86 62 e1 ba ef 7f dc bd e6 57 8d 3d
       0.13537543 -0.00171955 -0.10766589 0.06901531
0000c0 4f f2 95 bd bb 65 d5 bd 9d ee d2 3d 88 71 34 3e
       -0.07321607 -0.10419794 0.10299418 0.17621434
0000d0 8b 78 36 bd 48 31 86 bd 09 b4 4d 3d 95 ea 20 be
       -0.044548552 -0.065523684 0.050220523 -0.15714486
0000e0 10 17 95 3c 67 6e f6 bc ee f2 ab 3c 19 49 f4 3d
       0.018199474 -0.03008194 0.020989861 0.11928005
0000f0 81 ea fc bc 85 be 7f 3d ac 0b 70 3c e7 77 95 bd
       -0.030873539 0.062437553 0.01465122 -0.0729826
000100 aa d9 0a 3e 34 d0 ea 3d 1e 3c fe 3d f5 fd a8 3d
       0.13559595 0.11465493 0.1241381 0.082515635
000110 73 76 0d 3d 2d eb 20 be 38 80 4b 3d 40 65 ce bc
       0.03453679 -0.15714712 0.049682826 -0.025194764
000120 5a 97 d4 bb 85 42 ae bd cc cc 9c 3d 27 73 fe 3c
       -0.006487769 -0.08508781 0.076562494 0.031060768
000130 3c 7f 08 3e ef d2 5b bd 6a bb 54 bd 87 eb 9f 3d
       0.13329786 -0.05366796 -0.051936544 0.07808595
000140 a9 2a 07 be 28 39 a4 bd c4 9f a8 3d 17 bf 65 bd
       -0.13199867 -0.08018714 0.08233598 -0.05609044
000150 b1 b9 66 3d 02 c7 2c bc 46 ce b7 3c 23 b1 0c 3e
       0.056329433 -0.010545494 0.022437226 0.13739447
000160 b1 f4 a9 3d 75 77 04 3e 8f 40 b8 bd 73 cf 1d 3d
       0.08298624 0.12936194 -0.089966886 0.038527917
000170 b8 67 9b 3d 49 16 b2 3b ee e5 b0 3d 58 a3 c0 3d
       0.07588142 0.0054347855 0.086376056 0.09406155
000180 17 96 63 3c 48 1e aa 3d 21 3e 63 3a ae 85 df 3d
       0.013890765 0.08306557 0.0008668621 0.10914169
000190 9a 65 1b bc e7 e5 0a be c5 cb 1b 3d d8 ad 27 be
       -0.009484673 -0.13564263 0.038036127 -0.1637491
0001a0 9b fb a0 3d 3c e4 0f bd c5 ab af bd 13 db 02 be
       0.0786049 -0.03512977 -0.08577684 -0.12778883
0001b0 57 0b 48 3d 8c 16 aa 3d 3b f6 04 be 2c de 6e 3d
       0.04883894 0.08305082 -0.12984554 0.05831735
0001c0 ec b1 c7 3d 22 a3 f2 3d 0a 71 a7 3d 5d 59 20 bd
       0.09750733 0.11847521 0.08175857 -0.039147723
0001d0 6c 38 0f be 70 70 c7 3d 00 97 14 3e c0 44 e2 3d
       -0.13986367 0.097382426 0.14510727 0.11048269
0001e0 00 9f 5a bd 42 ab c6 bd ae 56 e2 bd 82 0f 9a bd
       -0.05337429 -0.097006336 -0.11051689 -0.07522489
0001f0 3a 4c b4 3d 57 d7 46 bd 02 d5 9e bd 8e a9 33 3e
       0.088036016 -0.048545208 -0.07755472 0.17545149
000200 79 a9 8e bd c4 c1 a1 3d c4 ac da 3d e7 5c 37 3d
       -0.06965918 0.07898286 0.10677484 0.044766333
000210 6d c6 9e bd d4 82 01 3e 63 c2 0e 3d b5 ea ae bd
       -0.077526905 0.12647563 0.03485335 -0.085408606
000220 ee e1 41 3d 60 a5 be 3d 1e 20 35 3d 5d b3 3e bd
       0.047334604 0.093088865 0.044220082 -0.046557773
000230 fc 21 c1 3c 9c 14 ef bb 56 ff 69 bb af 9b 66 3d
       0.023575775 -0.007296158 -0.003570517 0.056300815
000240 d9 39 91 3d 65 68 8f bd a2 df f3 bd b6 76 91 bd
       0.07091112 -0.070023336 -0.11907889 -0.071027204
000250 b9 5d c9 3d 3d 82 03 3d 43 8b be bd bc 03 80 bd
       0.09832329 0.032106627 -0.09303906 -0.06250712
000260 e2 8f 6b 3d 97 f6 28 bb 99 23 e7 bc 02 5e 24 3c
       0.057510264 -0.0025781745 -0.028215216 0.010032179
000270 87 fe 16 be 91 4e 1f 3d 4d 73 bc 3d ff e7 11 be
       -0.14745532 0.038893286 0.092016794 -0.14248656
000280 1d 64 e0 bd 31 d9 d0 3d a6 1f 7e bd a3 3f 91 3d
       -0.10956595 0.10197676 -0.0620419 0.07092216
000290 a9 18 05 3e 68 aa d9 bd b5 67 04 3e 7e fb 61 3d
       0.12997688 -0.106282055 0.12930186 0.055171482
0002a0 31 cb b6 3d 37 d6 a2 bc 6e 0e 29 bd 7b 3e 14 3e
       0.089254744 -0.019877536 -0.041273527 0.1447696
0002b0 c2 9a e4 3d 76 ab 1b 3c fa 25 51 3d 4a 11 12 be
       0.1116233 0.009501329 0.051061608 -0.14264408
0002c0 33 41 17 3b 14 f5 62 3d a4 a3 69 bd 28 2d 26 bd
       0.0023079633 0.055409506 -0.057040825 -0.040570408
0002d0 da 98 03 bd 75 d9 80 3c 53 60 c9 bd 5c 67 ed 3c
       -0.032128192 0.015728692 -0.098328255 0.02897995
0002e0 6e 9c 59 b9 55 a3 14 3d 39 e0 be ba a9 08 1a be
       -0.00020753007 0.036288578 -0.0014562673 -0.15042366
0002f0 90 88 2d bd 44 e1 a9 3b e7 d1 c4 bd 04 ce e9 3d
       -0.042366564 0.0051843245 -0.09610348 0.114162475
000300 6b 40 07 be 32 c0 83 3d 50 80 1b be 86 57 dd bd
       -0.13208167 0.06433143 -0.15185666 -0.108077094
000310 4f fd 49 bd 1e 9f 27 3e 2e d0 19 be 38 e0 98 3d
       -0.04931384 0.16369292 -0.1502082 0.07464641
000320 72 2a e0 3d f6 9e a1 3d 2b 6c 21 3e fc d1 1e bd
       0.10945596 0.078916475 0.15763919 -0.038774475
000330 77 07 5a bd 93 e2 13 bd 97 6f e6 3b 92 d8 5b bc
       -0.053229775 -0.03610475 0.0070323455 -0.013418334
000340 37 8c ad bd 86 75 e4 3d 52 93 27 3d bc 7b b2 3d
       -0.084740095 0.11155228 0.04091198 0.08715007
000350 b2 82 f6 3d 13 59 20 be 01 0c 3f 3d 15 d8 8e bd
       0.12036647 -0.15658979 0.046642307 -0.06974808
000360 ea e5 b0 3b 34 52 b1 bd 43 76 d1 3d b6 d1 a5 3c
       0.0053985016 -0.08658257 0.10227635 0.0202416
000370 62 4d 01 3d d3 a8 ec bd 66 91 a8 3d 9d 40 92 bc
       0.03156794 -0.11555638 0.082308576 -0.017853076
000380 1f a2 44 bc fd c5 a2 bd b6 d6 c8 bd 67 37 79 bd
       -0.012001543 -0.079479195 -0.09806578 -0.06084385
000390 b4 81 fd 3d 80 fa 12 be 38 90 23 3e e5 b3 c4 bd
       0.123782545 -0.1435337 0.15972984 -0.09604625
0003a0 c0 65 8d 39 78 b0 8d 3d b8 ed 90 bd 31 b7 d1 3d
       0.00026969425 0.06918424 -0.07076591 0.10240019
0003b0 dd 54 fe bc 0d 63 14 3d 34 a5 ee bd 08 a1 08 3e
       -0.031046325 0.036227275 -0.11652604 0.13342679
0003c0 4a b3 b1 3d fe 6e f8 bd 82 59 90 bd 40 f7 98 bd
       0.08676775 -0.12130545 -0.07048322 -0.07469034
0003d0 bd 21 cc 3c d0 d7 10 be 05 70 32 3d cd ca c9 bd
       0.024918431 -0.14144826 0.04356386 -0.09853134
0003e0 03 ee 5d 3d 34 48 19 be 02 8a f3 3c cf de 8a 3d
       0.054182064 -0.1496895 0.029728893 0.067807786
0003f0 5c 1f cb 3c 3b 49 fe 3d 97 8d 05 3e 2d 3f 92 3d
       0.024795227 0.12416311 0.13042293 0.07140956

local1.norm.weight f4 [128]
000000 cc aa 79 3f 6f 79 79 3f a4 6b 8c 3f 9e 22 7e 3f
       0.9752624 0.9745092 1.0970349 0.9927157
000010 7b 98 81 3f ad e7 7f 3f cb 10 8a 3f 39 d4 7c 3f
       1.0124658 0.99962884 1.0786375 0.98761326
000020 b3 2a 81 3f 8b fb 7f 3f e8 29 7e 3f 67 cb 7e 3f
       1.0091156 0.999932 0.99282694 0.9952912
000030 57 bc 76 3f 06 a5 8f 3f 83 ca 79 3f c5 bf 7b 3f
       0.96381134 1.1222236 0.97574633 0.9833949
000040 f7 bf 85 3f a8 ee 86 3f b2 31 82 3f 93 57 85 3f
       1.0449208 1.0541582 1.0171416 1.041735
000050 63 5e 7c 3f 06 29 81 3f 20 76 7e 3f d3 1c 7a 3f
       0.9858152 1.0090644 0.99398994 0.9770023
000060 c7 07 73 3f ae 95 80 3f 6d cb 82 3f fc 30 7b 3f
       0.9493374 1.0045679 1.0218331 0.9812162
000070 21 02 7e 3f 7b fe 77 3f fc 63 80 3f 75 81 7d 3f
       0.99222 0.9687268 1.0030513 0.9902566
000080 11 ac 85 3f 73 c2 84 3f b0 f5 81 3f 88 02 81 3f
       1.0443135 1.0371841 1.0153103 1.0078897
000090 94 4c 7a 3f 48 98 7c 3f 3d 51 83 3f b1 a2 7c 3f
       0.977731 0.9866986 1.0259167 0.9868575
0000a0 09 90 87 3f 2f 91 85 3f 6b 88 7e 3f 46 d5 84 3f
       1.0590831 1.0434932 0.9942691 1.0377586
0000b0 98 9a 83 3f da 74 80 3f 64 3e 83 3f 6c 30 79 3f
       1.0281553 1.003566 1.0253415 0.9733951
0000c0 49 a0 7e 3f 48 dd 79 3f 55 e6 82 3f 3a 0f 80 3f
       0.99463326 0.97603273 1.0226542 1.0004647
0000d0 d6 53 7f 3f 48 a5 83 3f 43 5a 82 3f 5f 8d 81 3f
       0.997373 1.0284815 1.0183796 1.0121268
0000e0 37 e1 79 3f 16 34 78 3f 9b 19 81 3f bd 57 7d 3f
       0.97609276 0.96954477 1.0085939 0.98962003
0000f0 47 bb 80 3f ae 9e 74 3f 9b d8 7c 3f 18 e3 7e 3f
       1.0057153 0.95554626 0.98768014 0.9956527
000100 3c e8 7b 3f 39 47 81 3f 1a 19 7e 3f 85 23 83 3f
       0.98401237 1.009986 0.9925705 1.0245215
000110 d3 d5 84 3f 8c ca 77 3f 1b b8 83 3f c3 65 76 3f
       1.0377754 0.96793437 1.029056 0.96249026
000120 67 d3 7b 3f 62 fa 78 3f 5b 54 86 3f 0b c3 7d 3f
       0.9836945 0.97257054 1.0494493 0.99125737
000130 85 e6 7f 3f 70 f1 80 3f 88 75 81 3f bc 93 82 3f
       0.9996112 1.0073681 1.0113993 1.0201335
000140 86 a9 78 3f 8c f3 7a 3f 74 7d 75 3f 28 43 7b 3f
       0.9713367 0.98027873 0.9589455 0.9814935
000150 4e b8 83 3f 4c 8b 80 3f 79 b0 7b 3f 06 3b 75 3f
       1.029062 1.004251 0.9831615 0.9579319
000160 69 b5 82 3f ee 4c 80 3f 55 ea 7c 3f 1c 7e 81 3f
       1.0211612 1.0023477 0.9879506 1.011661
000170 ed 92 7a 3f 02 f3 7f 3f 76 aa 7d 3f 0d 9a 7b 3f
       0.9788044 0.99980175 0.9908823 0.9828194
000180 ba ef 82 3f f9 66 8c 3f 39 de 80 3f 30 d4 80 3f
       1.0229409 1.0968925 1.0067817 1.0064754
000190 c2 3a 7b 3f 50 af 81 3f 1c 4f 7e 3f 83 e6 75 3f
       0.9813653 1.0131626 0.9933946 0.9605486
0001a0 63 97 82 3f 37 5f 8b 3f 83 d5 81 3f 3d 2e 7d 3f
       1.020245 1.0888432 1.0143284 0.9889868
0001b0 dc 75 7e 3f 8b 01 80 3f 93 9d 7e 3f 73 06 88 3f
       0.9939859 1.0000471 0.9945919 1.0626968
0001c0 f8 31 80 3f d8 ef 7f 3f 50 fc 81 3f 50 f6 7d 3f
       1.0015249 0.9997535 1.0155125 0.9920397
0001d0 09 25 80 3f 51 3a 80 3f 20 79 7e 3f 36 78 7d 3f
       1.0011302 1.0017797 0.9940357 0.9901155
0001e0 8f 87 7a 3f 7a d2 74 3f 03 36 7d 3f 79 cf 80 3f
       0.97863096 0.9563366 0.9891054 1.0063316
0001f0 5d 06 7b 3f b4 eb 78 3f 2a cf 82 3f 38 03 78 3f
       0.98056585 0.97234654 1.0219471 0.9687991

local1.norm.bias f4 [128]
000000 b3 bb b0 bc 15 dd cc bc 01 eb f8 3a a2 75 03 bd
       -0.021573877 -0.025007764 0.0018990935 -0.032094605
000010 a8 74 86 bc 85 e5 1f bc 53 c5 b9 bc 4e 77 f4 bc
       -0.016413048 -0.009759312 -0.0226771 -0.029842045
000020 91 b7 43 bd a9 50 6e bc da 63 0a bd 41 47 bf bc
       -0.047782484 -0.014545598 -0.033786632 -0.023349406
000030 45 af ef bc 10 93 9a 3b 53 50 21 bd 38 e9 02 bd
       -0.02925838 0.0047172382 -0.039383244 -0.031960696
000040 ed 24 a2 bc 37 4c c1 bc 91 42 a0 bc 96 48 45 bd
       -0.019792998 -0.023595912 -0.019562991 -0.048164926
000050 7b dc 32 bd c2 03 d9 bc 6c 08 b9 bc 17 37 1a bd
       -0.043667298 -0.02649105 -0.022587024 -0.037650194
000060 39 c3 6c bd 30 53 64 b8 da df 26 bc f8 03 a3 bc
       -0.057803366 -5.443691e-05 -0.010185206 -0.019899353
000070 13 31 c2 bc 45 54 55 bc d9 fc 00 bd 9d b2 8e bc
       -0.023705041 -0.01302058 -0.031491134 -0.017419154
000080 49 2c 86 bc a8 61 40 bc 18 51 e5 bc c5 16 49 bc
       -0.016378539 -0.011742033 -0.02799277 -0.012273495
000090 73 0b 04 bd 22 e5 0f bd 28 50 0b bc b7 37 35 bd
       -0.03223748 -0.035130627 -0.008502997 -0.044242587
0000a0 0b 56 b7 bc fd 83 0e bd 6b a0 47 bc fc 11 6b bc
       -0.022379896 -0.034793843 -0.012184243 -0.0143475495
0000b0 62 32 2f bc fd 51 64 bc dc 76 a1 bc ff 93 ef bc
       -0.010693165 -0.013935563 -0.019709997 -0.029245375
0000c0 9a ca 8a bc ad cb 08 bc 11 7d 53 bc 09 62 2e bb
       -0.016942311 -0.008349341 -0.012908236 -0.0026608726
0000d0 32 62 39 bd 2d 55 b6 bc de 24 93 bc 1c 01 56 bc
       -0.045259662 -0.022257412 -0.017961916 -0.013061788
0000e0 be c6 1d bd e6 a7 1e bd 74 0e 08 bc c4 14 fa bc
       -0.038519613 -0.03873434 -0.008304227 -0.03052748
0000f0 94 ba 61 bc bb 85 e0 bc 0d 14 19 bd 10 a7 6a bc
       -0.013777394 -0.027407518 -0.037372638 -0.014322057
000100 8e 15 2b bd 60 d5 c6 bc ce ab f6 bc 58 0e ca bb
       -0.041768603 -0.024271667 -0.03011122 -0.0061662607
000110 a6 39 09 bd 5c 57 06 bd 17 2b 12 bd 71 c6 02 bd
       -0.033502243 -0.032798156 -0.035685625 -0.03192753
000120 b3 f8 a4 bc 70 76 f8 bc db 49 75 bc 22 dd a1 bc
       -0.02013812 -0.030329913 -0.014971222 -0.019758765
000130 c2 c9 a3 bc 05 af b2 bc 5c 71 65 bb 06 37 00 bd
       -0.019993667 -0.021811971 -0.0035010194 -0.031302474
000140 6c 09 12 bd 5b 4a 2e bd 8e ce 23 bd 69 36 00 bd
       -0.035653517 -0.04255138 -0.039991908 -0.03130189
000150 93 de 90 bc ff 7a 88 bc 0c 80 b6 bc 6a d1 50 bd
       -0.017684257 -0.016660212 -0.022277854 -0.050980963
000160 41 b4 08 bc 32 d9 75 bc e0 db 6c bc f1 e1 a2 bc
       -0.008343757 -0.015005397 -0.014456719 -0.019883128
000170 88 28 0a bd ac 1e 95 bb 8d 2d 97 bc bd d2 b4 bc
       -0.03373006 -0.0045507755 -0.018454337 -0.022073144
000180 0b a7 d2 bc 21 83 9d bc 00 1a e7 bc 2f 33 d5 bc
       -0.025714418 -0.019227566 -0.02821064 -0.026025383
000190 da 26 fb bc e1 d8 5a bc 06 00 87 bc ce 9a ef bc
       -0.030658174 -0.013357372 -0.016479503 -0.029248621
0001a0 75 13 03 bd d4 29 98 3a 46 12 6a bc 06 9d 6d bc
       -0.032000978 0.0011609145 -0.014286583 -0.014502769
0001b0 d1 37 cd bc d2 53 1f bc f5 9d d5 bc be 40 c9 bc
       -0.02505103 -0.009724574 -0.026076296 -0.024567004
0001c0 00 d8 8f bc e0 d9 3c bc 97 e4 df bc 23 8f fb bb
       -0.017559052 -0.011526555 -0.02733068 -0.0076769753
0001d0 47 2e 11 bd a4 24 b8 bc 82 49 b3 bc 52 89 6f bc
       -0.035444524 -0.02247841 -0.021885637 -0.014620142
0001e0 ac af 12 bd 6a c9 4e bd ce e5 0f bd 42 89 b4 bc
       -0.035812065 -0.050485052 -0.03513127 -0.022038106
0001f0 5e ba f3 bc a8 0c c8 bc 39 79 bb bb 8f c2 39 bd
       -0.029751953 -0.024420097 -0.005721238 -0.04535156

local2.conv.bias f4 [128]
000000 c4 ad 07 bb d4 22 df 3c 59 86 1c ba 7c 55 43 ba
       -0.0020702938 0.027238287 -0.0005970947 -0.0007451398
000010 ee ac 08 ba 05 f8 68 3a 7a 42 eb bb 84 f5 05 bc
       -0.0005213757 0.00088870554 -0.0071795555 -0.008176211
000020 58 dc cc b8 16 42 88 38 04 78 84 ba b5 c2 d8 3c
       -9.76852e-05 6.497295e-05 -0.0010106568 0.026460031
000030 d0 f0 5b bb aa d1 3a 3a c7 f1 06 bb 96 99 36 bb
       -0.0033560283 0.00071265793 -0.0020590888 -0.002786254
000040 9a b4 59 3a de da 5f bb a4 53 07 3a 2f 57 a9 bc
       0.0008304805 -0.0034157555 0.0005162305 -0.020671455
000050 ee f4 95 bb 52 c2 a7 3b 08 98 a6 3c c5 bc 1b 3b
       -0.004576317 0.0051196003 0.020336166 0.0023763638
000060 b1 c6 4e 3a ca 1a 68 3b ac e9 19 3c 4c e8 98 b9
       0.00078878837 0.0035416358 0.009394091 -0.00029164774
000070 95 d7 25 ba 1a 4a 55 3a 27 19 bf ba 66 a7 d1 38
       -0.0006326375 0.0008136347 -0.001457964 9.997077e-05
000080 a4 ce 28 3c 85 59 37 3c 9f 67 6b 3c 05 2e 1b 3c
       0.010303173 0.011190777 0.014367967 0.009471421
000090 0c 18 e2 38 a9 33 d6 39 24 75 9d bc ca ab 24 ba
       0.00010780999 0.0004085575 -0.019220896 -0.0006281702
0000a0 01 65 bf ba 3f f5 dd ba c5 5f 46 3a 68 67 c1 3b
       -0.0014602245 -0.0016934051 0.00075673714 0.0059022196
0000b0 02 93 bc 3c 38 d3 cf 3b f7 bb 6f ba 2a 7f 25 b9
       0.023019318 0.006342318 -0.00091451354 -0.00015782999
0000c0 56 d3 26 bb c9 8b 03 ba ab d7 8d 3c d6 cf 70 b9
       -0.0025455556 -0.0005018083 0.017314753 -0.00022965609
0000d0 ec 45 aa 3c 83 95 03 ba 14 39 55 3c c0 fc df 3b
       0.020785294 -0.00050195324 0.013014097 0.00683555
0000e0 c3 78 2b 3a 44 62 0d bc 67 92 79 39 08 06 21 b9
       0.0006541127 -0.008629385 0.0002380103 -0.00015356403
0000f0 f5 b9 90 39 0e 1c 61 ba dd 14 22 3a aa 51 94 bb
       0.0002760437 -0.00085872493 0.00061829184 -0.0045263367
000100 fa e7 3d 3a 9d f7 02 ba e0 10 a4 b8 41 44 03 3c
       0.0007244345 -0.00049960037 -7.8232726e-05 0.0080118785
000110 4a 8a 41 bc c4 70 5a 3b c3 3e d9 39 67 99 ff 37
       -0.011812756 0.0033331374 0.00041436226 3.0469802e-05
000120 03 33 c9 b8 e9 a4 a2 3b 88 a6 74 39 a1 6c 97 b8
       -9.5939286e-05 0.0049635065 0.00023331691 -7.220475e-05
000130 39 fe 82 bb 0d 0d 4d bb 57 d0 d0 38 31 f8 c5 b9
       -0.003997591 -0.0031288296 9.957019e-05 -0.00037759685
000140 c1 a6 3d 3b c2 81 b1 3b 5e 39 a4 3a cc 89 97 3b
       0.0028938504 0.0054170797 0.0012529304 0.004624581
000150 10 85 99 3a 1b 70 7e bd 59 20 cc ba e0 98 57 3a
       0.0011712629 -0.06211863 -0.0015573605 0.0008224379
000160 ea 00 91 3a b9 fb 1b bc a6 3f 9d 39 e2 31 be ba
       0.0011062894 -0.009520465 0.00029992795 -0.0014510716
000170 f2 f7 1e 3b e6 22 6f b9 7c 4b 61 3c 6e 8c 8f 3c
       0.0024256674 -0.00022805817 0.013750907 0.017523017
000180 ac 5e 9d 3a b3 44 97 ba 0e 9c e1 ba 63 d4 f6 bb
       0.0012006364 -0.001154086 -0.0017212646 -0.0075326427
000190 2c ec 94 b9 b0 03 3a bb 5a 7a 05 ba 70 c0 59 bb
       -0.00028404722 -0.0028383546 -0.0005091779 -0.0033226274
0001a0 54 a7 13 39 5f e0 40 3a 12 7b 67 3a f7 41 d9 ba
       0.00014081347 0.00073576526 0.00088302896 -0.0016575445
0001b0 17 6f b9 bc 32 a5 27 bc 1b 7e 1d 3c 5f 3f 8c 39
       -0.02263598 -0.010232257 0.009612585 0.00026750096
0001c0 7e 5f 06 ba 54 c9 40 39 71 91 c8 3b e7 21 52 3b
       -0.0005125924 0.00018385547 0.0061208536 0.0032063664
0001d0 99 27 a0 b9 dd b5 75 38 f8 15 25 3a ad e4 9a ba
       -0.0003054708 5.8581925e-05 0.0006297524 -0.0011817418
0001e0 39 cb f5 bb be e8 29 ba eb 8a 0b 39 3c 45 09 3a
       -0.0075010327 -0.00064815197 0.00013307824 0.0005236452
0001f0 66 e9 b6 39 e5 d1 1a 3a 7e 22 00 3a 40 44 e2 bb
       0.0003488764 0.00059059105 0.0004887952 -0.0069051087

local2.conv.lin.weight f4 [128, 128]
000000 30 ad 08 3e 2c 8a 02 be 8a 57 49 bd d6 91 f8 bd
       0.13347316 -0.12748021 -0.04915575 -0.12137191
000010 d8 62 b4 bd 04 a1 10 3e 4e 21 d6 3d cd f7 ad 3d
       -0.088079154 0.14123923 0.10455571 0.0849453
000020 62 66 dd 3d 71 6d cb 3d 33 05 d1 3d cf 48 03 3e
       0.108105436 0.09932984 0.1020607 0.12820743
000030 fa 17 ac bc 34 5c 72 bd ea 27 c7 bd 13 5f 38 bd
       -0.021007527 -0.059169963 -0.0972441 -0.045012545
000040 20 23 08 3e 12 0a db bd 27 8c b3 bd b4 e9 8b bb
       0.13294649 -0.1069528 -0.08766966 -0.004269803
000050 8f c9 fd 3d a9 bb ab bd 02 09 8c 3d 21 33 25 be
       0.1239196 -0.08385403 0.068376556 -0.16132785
000060 1a 75 03 bd 98 43 0c bc b0 8c 0b 3e 19 f3 7c bd
       -0.0320941 -0.0085610375 0.13627887 -0.061755273
000070 81 52 f6 bd bf d5 dc 3d 1f db 92 bd 4d f0 f1 3d
       -0.12027455 0.10782956 -0.071707 0.11813412
000080 9e 5f f0 3d 1a 64 c6 3d 6c db 38 3b 27 52 b5 bd
       0.117369875 0.096870616 0.0028206958 -0.0885356
000090 0c 3a 27 be 7e f9 0c 3e d4 c3 b7 bd a2 45 30 bc
       -0.16330737 0.13767049 -0.08972898 -0.010758789
0000a0 5d e8 a9 bd 8c 4b de 3d 4f df a8 bc 9a 14 d5 bd
       -0.08296273 0.10854253 -0.020614294 -0.1040432
0000b0 8d f7 8e bd bc f7 6a bd 4c 4c 07 be a3 45 70 bd
       -0.0698081 -0.057365164 -0.13212699 -0.05866016
0000c0 dd f0 26 be 0d bc b6 3d 14 52 9a 3d 92 7b c3 bd
       -0.1630282 0.089225866 0.075351864 -0.095450535
0000d0 b7 37 98 bd 35 93 d1 3d 77 ab fd bd 98 66 0a bd
       -0.07432502 0.10233156 -0.1238622 -0.033789247
0000e0 a0 ff a0 bd 67 68 f5 3d 65 6a 83 3d 4b 3a 1b be
       -0.078612566 0.11982804 0.064167775 -0.15158956
0000f0 94 b8 ec bd 7d 1a 12 be bb 30 ab 3d 0c d3 51 3d
       -0.11558643 -0.14267917 0.08358904 0.05122666
000100 a6 ee 02 bd d3 f5 a0 3d 21 dc 00 3e 68 60 94 bd
       -0.031965874 0.07859387 0.12583973 -0.072449505
000110 83 01 22 be 4f 5a f8 3d b3 47 21 3e 65 52 c7 3c
       -0.15820889 0.121266 0.15750007 0.024331281
000120 b4 6c 64 3d a9 c3 52 3d cd 7a 95 3c 4b cd c4 3d
       0.05576773 0.051456127 0.018247033 0.09609469
000130 70 6b e2 3d 09 c5 02 bd 05 f2 0c be 87 93 9a bd
       0.11055648 -0.03192619 -0.13764198 -0.0754767
000140 72 4d 04 be 14 e7 b4 39 ff ac f9 bd 4c 25 99 3d
       -0.12920168 0.00034504442 -0.121911995 0.07477817
000150 2a 20 6f 3d 04 0e 9d 3c 0f 3b 2c 3d 4e db 15 bd
       0.058380283 0.019171722 0.04204851 -0.0365861
000160 d5 dc 3e bd 9f e2 d7 bd 64 2f 00 be 49 93 ca bd
       -0.04659732 -0.105412714 -0.12518078 -0.09891374
000170 ef ee 81 bd c9 b8 1c be 68 90 3d 3d c7 fe 11 3d
       -0.06344401 -0.15304865 0.046280295 0.035643365
000180 41 b9 9d bd ad bd 8f bb 41 96 cb 3d ab 64 c5 bd
       -0.0770135 -0.004386625 0.09940768 -0.096383415
000190 82 da 57 bd a1 c2 06 be 39 a2 23 bd f8 1e a3 3d
       -0.05269862 -0.13160183 -0.03994963 0.07964891
0001a0 e7 ca 93 3d 22 2f 37 bd 08 3c b5 bd a2 3c 04 3c
       0.07216435 -0.044722684 -0.08849341 0.008071097
0001b0 d9 4d ee 3d 12 30 ac bd 29 5a 9d bb 92 a7 1b 3e
       0.11635942 -0.08407606 -0.0048020077 0.15200642
0001c0 59 fd bc 3d bb f5 3b 3d 76 86 a0 bc 03 0c b6 3d
       0.0922801 0.045888644 -0.019595366 0.0888901
0001d0 c9 9f 9a 3d 8d 82 db bc fd c5 e0 3d 01 3d c9 3d
       0.07550008 -0.02679565 0.10975263 0.09826089
0001e0 65 61 93 bd 16 03 c0 bd 41 ff da bd 26 73 2d bd
       -0.07196311 -0.093755886 -0.10693217 -0.042346142
0001f0 b6 14 8d 3c 7e ec fc 3c 71 d0 93 3d e9 b9 01 3e
       0.01722179 0.030874487 0.072174914 0.12668575
000200 67 4c 02 bc b7 09 ec 3c 18 be df bd 30 8d ee 3d
       -0.007952786 0.028813226 -0.109249294 0.11648023
000210 ec 76 03 be 7f 36 0c bc b2 2a cf bd 4c 89 18 3d
       -0.12838334 -0.008557915 -0.10115565 0.03724031
000220 17 8c 89 bd 05 f5 ad bd 15 0a f0 bd 2f 9c 53 bd
       -0.06716173 -0.084939994 -0.11720673 -0.05166262
000230 b5 88 11 be da 2c df b8 f4 b3 dc bd c9 6f 3d bd
       -0.14212306 -0.00010641823 -0.10776511 -0.046249185
000240 87 92 9f 3d 44 47 b6 3c a3 66 3e 3d 37 5c 1c bd
       0.0779162 0.022250779 0.0464846 -0.03817388
000250 9e 40 8c bd 63 7a 2c 3e bb 8f 0e 3e cb af b9 3d
       -0.06848262 0.16843562 0.13922016 0.09066733
000260 71 7f f2 3d 25 8e ee bd 2f 10 a0 bd 2d 4b a4 3d
       0.11840714 -0.11648206 -0.07815587 0.08022151
000270 ca 3b d4 bc b1 97 08 be af 47 c9 3d 00 60 a2 bd
       -0.025907416 -0.13339116 0.09828126 -0.07928467
000280 47 1d 4e 3d 63 a3 21 bd 76 3b 18 be 86 6b 73 3d
       0.05032089 -0.03946246 -0.14866433 0.059428714
000290 70 f2 66 bd 9a 31 91 bd 00 86 c7 bd e5 49 b2 bd
       -0.05638355 -0.07089539 -0.09742355 -0.087055005
0002a0 9d da 8d 3d 80 a8 75 bd c1 3e 15 bd f1 19 30 be
       0.06926463 -0.059975147 -0.0364368 -0.17197396
0002b0 cb 3d 58 3c 76 2f f9 3d f1 3b b0 bd a8 fd 0d 3e
       0.013198326 0.121672556 -0.08605183 0.13866293
0002c0 45 51 2d bd b8 b7 91 bd 5b 64 aa 3d 64 c8 a9 bd
       -0.042313833 -0.0711512 0.083199225 -0.082901746
0002d0 82 c7 22 bd 2f cb 08 be c0 a0 f2 bd ce 21 aa bd
       -0.039741047 -0.13358758 -0.11847067 -0.08307229
0002e0 98 7c 7c 3d 6d 74 40 3c c9 90 9a bd 97 fa c1 bb
       0.06164226 0.011746508 -0.07547147 -0.005919765
0002f0 0b 23 1e bd 05 86 bc bc 6e 01 ac 3d 8d 44 6f 3d
       -0.03860764 -0.023013124 0.0839871 0.058414984
000300 e2 2a 8d bd 91 53 57 3d be aa 9c 3d 87 d9 ac 3d
       -0.06892945 0.05256993 0.07649754 0.084399275
000310 aa 42 06 3e b9 48 02 be f6 64 1d bd 07 61 95 3b
       0.13111368 -0.12723054 -0.038426362 0.0045586857
000320 47 69 01 3e 75 ba eb 3d 7a 21 13 3e a9 bc aa bb
       0.12637816 0.11510173 0.14368239 -0.0052104783
000330 e9 24 62 3d 5c 89 84 bd 39 b8 a4 3c 0e 9e 52 3c
       0.05521098 -0.06471512 0.020107375 0.012855066
000340 0f 86 0d 3d f8 70 7e bb 1e 46 9d bc eb 82 a5 bb
       0.034551676 -0.003882466 -0.019198474 -0.005051007
000350 08 80 12 3d 8b 8f e4 3d cb 52 6b 3d 2a 9a db 3d
       0.03576663 0.11160191 0.057452004 0.10722764
000360 f9 18 8e bd 59 27 db 3d 88 8e 48 3d ae d3 eb bd
       -0.06938357 0.10700864 0.048964053 -0.11514984
000370 fd b3 28 3c 03 9a 73 3d fd 8c dc 3d cd 58 d8 3b
       0.010296819 0.05947305 0.10769079 0.0066023828
000380 53 3a 7e bd 2b ee fa 3d 1e 81 37 bd 99 c9 56 bd
       -0.06206734 0.12252458 -0.04480087 -0.052438352
000390 91 14 ba bd 7d 66 42 3d e9 77 04 3d a5 8c eb bd
       -0.09085954 0.04746102 0.032340918 -0.11501435
0003a0 5a 04 8f 3d 82 4a 1d 3e 01 7e 9a 3d 99 94 bc 3d
       0.06983252 0.15360454 0.075435646 0.0920803
0003b0 99 a7 28 bd d8 75 4d 3d 10 09 89 bd 2a d2 c2 bd
       -0.04117546 0.050161213 -0.06691182 -0.09512742
0003c0 27 68 a6 3d 5f 66 f9 bb 92 75 08 3d d6 93 be 3d
       0.08125334 -0.0076110805 0.03331525 0.09305541
0003d0 6d c4 cf 3c 04 04 79 3c d2 98 26 3d a7 b9 b1 bc
       0.025362218 0.015198711 0.040673085 -0.021694971
0003e0 1f 3e 32 bd 6f ff b0 bd 62 a3 03 3e ca e3 58 3d
       -0.043516275 -0.0864247 0.12855294 0.05295161
0003f0 cb f4 0d 3e 87 aa a2 3c fd 5a 13 3e 09 47 2f bd
       0.13862912 0.019856704 0.14390178 -0.042792354

local2.norm.weight f4 [128]
000000 f8 b0 7b 3f 99 40 6d 3f 21 68 78 3f b1 05 71 3f
       0.9831691 0.92676693 0.9703389 0.9414931
000010 9c d7 7e 3f dc 5f 7a 3f 84 dc 76 3f 7a 4d 77 3f
       0.99547744 0.9780252 0.9643023 0.96602595
000020 ae 53 74 3f 55 4b 7d 3f d8 0d 78 3f 73 cc 74 3f
       0.95440185 0.9894307 0.96896124 0.95624465
000030 4e ea 7d 3f 60 9a 7d 3f d8 23 83 3f af 29 80 3f
       0.99185646 0.9906368 1.0245314 1.0012721
000040 84 29 6e 3f 75 3d 76 3f fe 70 7a 3f 38 05 84 3f
       0.930321 0.96187526 0.9782866 1.0314093
000050 52 53 80 3f ff ed 73 3f d3 a2 74 3f 6a b5 72 3f
       1.0025427 0.9528503 0.9556095 0.94808066
000060 c2 43 82 3f 4d 21 78 3f 0c 26 68 3f 4a 07 79 3f
       1.0176928 0.9692581 0.90683055 0.9727675
000070 a6 90 79 3f b4 2c 7a 3f 73 aa 7b 3f 92 c6 78 3f
       0.9748634 0.9772446 0.9830696 0.97177994
000080 d0 4d 7e 3f 90 bf 72 3f 60 a1 70 3f 1e a6 76 3f
       0.9933748 0.9482355 0.9399624 0.96347225
000090 75 ca 79 3f 2c 4b 81 3f 5a 1c 80 3f 55 ee 77 3f
       0.9757455 1.0101066 1.0008652 0.9684804
0000a0 b5 fb 7c 3f 84 65 7a 3f cc 34 84 3f 33 aa 75 3f
       0.98821574 0.9781115 1.0328612 0.9596283
0000b0 e3 4d 73 3f 05 e8 78 3f 84 78 77 3f 9b 8a 73 3f
       0.9504072 0.97229034 0.9666827 0.9513337
0000c0 b0 3f 79 3f e6 22 80 3f 3b 25 7b 3f b5 63 82 3f
       0.97362804 1.001065 0.98103684 1.0186678
0000d0 b1 07 70 3f fe ea 7e 3f d5 f1 7a 3f 32 5b 7a 3f
       0.93761736 0.9957732 0.98025256 0.97795403
0000e0 50 ee 78 3f 11 36 80 3f 4b 02 77 3f fd 34 81 3f
       0.97238636 1.00165 0.96487874 1.0094296
0000f0 76 4b 77 3f c4 5f 7c 3f 3b 05 78 3f 23 02 77 3f
       0.9659952 0.98583627 0.9688298 0.96487635
000100 79 e6 6f 3f 89 e8 7c 3f 48 cb 7b 3f 02 1a 7a 3f
       0.9371105 0.9879232 0.9835706 0.97695935
000110 e6 b5 77 3f 0e a5 7b 3f 30 c7 7c 3f b7 32 7e 3f
       0.9676193 0.9829873 0.98741436 0.99296135
000120 2c 9a 7a 3f ed b8 73 3f c8 32 7a 3f 2b 48 83 3f
       0.978915 0.9520405 0.97733736 1.0256399
000130 b1 38 7c 3f 74 43 76 3f 46 33 80 3f 89 64 89 3f
       0.98524004 0.96196675 1.0015647 1.0733806
000140 0c 5b 7a 3f ef 1e 75 3f 15 4a 72 3f db d4 79 3f
       0.97795177 0.95750326 0.9464429 0.97590417
000150 9e 0d 69 3f e9 e2 7c 3f ea 85 6f 3f 36 9e 73 3f
       0.91036403 0.9878374 0.9356371 0.95163286
000160 a7 04 74 3f 5a 68 85 3f 60 61 77 3f cb 4b 7f 3f
       0.953196 1.042247 0.9663296 0.99725026
000170 b0 0f 79 3f a4 51 7a 3f 21 6c 78 3f b8 d8 75 3f
       0.9728956 0.97780824 0.9703999 0.9603381
000180 6c 80 78 3f 33 3e 7c 3f 37 c6 83 3f 90 14 7d 3f
       0.97070956 0.9853241 1.0294865 0.988595
000190 ac 70 82 3f c3 36 7b 3f bf bf 84 3f 70 91 72 3f
       1.0190635 0.98130435 1.0371016 0.9475317
0001a0 15 1c 77 3f 3f 88 78 3f fe 1f 71 3f cd 51 78 3f
       0.96527225 0.97082895 0.9418944 0.9699982
0001b0 ec f6 74 3f 20 38 7e 3f eb e2 74 3f 37 15 79 3f
       0.9568927 0.9930439 0.9565875 0.97297996
0001c0 2e c4 72 3f 19 b1 79 3f b3 80 72 3f 4e d1 72 3f
       0.94830596 0.97535855 0.9472763 0.94850624
0001d0 0c fc 7b 3f 6e f4 80 3f 6f 22 74 3f 02 5f 7a 3f
       0.9843147 1.0074594 0.9536504 0.9780122
0001e0 81 d1 80 3f 69 ce 7d 3f be cb 79 3f d8 e6 81 3f
       1.0063936 0.9914308 0.9757651 1.0148573
0001f0 eb d2 7e 3f 2c 53 77 3f 84 fc 72 3f d3 94 80 3f
       0.99540585 0.96611285 0.9491656 1.0045418

local2.norm.bias f4 [128]
000000 50 58 dc bc 83 a4 80 bd 43 b2 21 bd a8 d9 7b bd
       -0.02689758 -0.06281378 -0.039476644 -0.06148687
000010 67 ec 24 bd 51 bb 34 bd d0 61 ec bc 5e 5c 31 bd
       -0.040264513 -0.04412395 -0.028855234 -0.04330098
000020 bf a9 3f bd ee 40 26 bd ff 05 5a bd 76 c8 24 bd
       -0.046792742 -0.040589266 -0.053228375 -0.040230237
000030 07 b0 2d bd 90 79 15 bd 87 a7 f9 bc b0 ab ec bc
       -0.0424042 -0.036492884 -0.030475391 -0.02889046
000040 29 b5 6f bd 9b ae 30 bd 13 d1 1c bd a0 bf 07 bc
       -0.058522377 -0.043135267 -0.038285326 -0.008285433
000050 93 8c c7 bc e9 c8 65 bd 3d 37 72 bd 28 0e 0d bd
       -0.024359023 -0.056099806 -0.05913471 -0.03443733
000060 fd b3 36 bd 89 c6 1b bd 62 36 a1 bd 64 95 13 bd
       -0.044605244 -0.038031135 -0.07871701 -0.036031142
000070 61 99 01 bd 9a b7 0a bd 34 8d 2c bd 85 06 c6 bc
       -0.031640414 -0.033866502 -0.04212685 -0.02417303
000080 1a 84 f7 bc 16 32 ca bc 96 9f 72 bd 9d be 23 bd
       -0.030214358 -0.024682086 -0.059234224 -0.039976705
000090 43 88 d6 bc 23 e8 2c bd 0e 26 d4 bc 26 da 20 bd
       -0.026188022 -0.04221357 -0.025897052 -0.039270543
0000a0 b3 69 ec bc ae eb 21 bd 7d fd 3c bd 18 58 2b bd
       -0.028858995 -0.039531402 -0.046140183 -0.04183206
0000b0 58 13 5d bd de 36 57 bd 22 1c 6b bd 28 ad 52 bd
       -0.053973526 -0.05254256 -0.057399876 -0.051434666
0000c0 d3 71 40 bd 22 ed dd bc 86 92 f2 bc 0c b8 bc bc
       -0.04698355 -0.027090613 -0.029610883 -0.02303698
0000d0 ac 88 92 bd 5c 03 78 bd c7 65 02 bd 12 90 eb bc
       -0.07154974 -0.06055008 -0.031835344 -0.028755222
0000e0 ff 6f 1e bd cc e9 f7 bc f7 9a cd bc 92 1b 88 bc
       -0.038681027 -0.03026285 -0.025098307 -0.016614709
0000f0 05 c8 d9 bc bd af cc bc 5d 7a 0c bd 20 f7 1e bd
       -0.026584635 -0.024986142 -0.034296382 -0.038809896
000100 0a 90 82 bd d7 91 01 bd 11 0f 31 bd de 2a 2a bd
       -0.063751295 -0.031633224 -0.04322726 -0.041544788
000110 f5 ea 19 bd 52 78 12 bd 5a a0 1c bd d1 30 8b bc
       -0.037577588 -0.035759278 -0.03823886 -0.01699105
000120 77 52 20 bd 32 72 2e bd 89 89 27 bd 99 3b a0 bc
       -0.039141145 -0.042589374 -0.040902648 -0.019559668
000130 f2 0e 0c bd 01 f2 39 bd 30 f9 22 bc 70 7c 19 bd
       -0.03419394 -0.04539681 -0.009947106 -0.03747219
000140 1b 2c 20 bd b9 22 80 bd 21 7e ab bd d3 6e 18 bd
       -0.039104562 -0.06256623 -0.083736666 -0.037215065
000150 29 6b 9c bd 5a 0f 1c bd f5 54 95 bd d2 7b 2f bd
       -0.07637627 -0.038100578 -0.07291595 -0.042842694
000160 eb a5 80 bd e6 41 48 bd ad c6 3e bd 13 4b 9e bc
       -0.06281646 -0.04889097 -0.04657619 -0.019322908
000170 87 46 e0 bc df c9 03 bd eb 17 67 bd 97 5e 67 bd
       -0.02737738 -0.03217494 -0.056419294 -0.056486692
000180 96 c1 49 bd d2 9d 19 bd 1c b7 01 bd 8a e9 de bc
       -0.049256884 -0.037504025 -0.031668767 -0.02721097
000190 b4 7f e0 bc 0d 59 4b bd 23 73 b7 bc 37 78 78 bd
       -0.027404644 -0.049645472 -0.022393769 -0.06066152
0001a0 ca 1c 27 bd 17 2e 75 bd 8d af 64 bd c8 89 16 bd
       -0.04079894 -0.059858408 -0.05583148 -0.036752492
0001b0 10 79 10 bd 48 f6 2a bd 53 40 01 bd e7 ac 28 bd
       -0.035271704 -0.04173878 -0.031555485 -0.041180518
0001c0 ec 30 73 bd af a3 0d bd 40 56 6b bd bf 89 3a bd
       -0.059372827 -0.03457993 -0.0574553 -0.04554152
0001d0 96 d3 23 bd 5c d9 ed bc 27 c1 69 bd 6a 9a 90 bd
       -0.039996706 -0.02903431 -0.05706897 -0.07060702
0001e0 5b 2d cd bc db ee 4a bc ab 78 19 bd d0 21 c4 bc
       -0.025046041 -0.012386049 -0.037468594 -0.023941904
0001f0 a5 ec d1 bc 49 45 22 bd 70 5c 51 bd 01 8c e5 bc
       -0.025625536 -0.039616857 -0.051113546 -0.02802086
