models/eeg_only/s_09.pt (torch, 561186 bytes, 37 tensors)

band_attn.fc1.weight f4 [8, 5]
0.09210912 0.28619695 -0.29027835 0.30401906 0.38950738 -0.24730153 -0.46177047 -0.083957836
0.3830307 0.05307132 -0.45479992 -0.42979366 0.043452412 -0.12412469 -0.45381036 0.14214593
0.24450573 0.22937824 -0.41944343 0.19534892 -0.37743226 0.041604683 0.41848114 0.49073017
0.41891482 -0.34562588 -0.2124463 -0.04456748 -0.58806044 -0.47429803 0.31531572 0.22584848
0.26130015 -0.011333977 0.0540112 0.47304064 0.44372314 0.31283984 -0.2275394 0.3220439
00000000: b5a3 bc3d 6888 923e 5d9f 94be 63a8 9b3e
00000010: 836d c73e 9d3c 7dbe 2e6d ecbe 16f2 abbd
00000020: 9a1c c43e 5061 593d 89db e8be ea0d dcbe
00000030: 28fb 313d 1635 febd d559 e8be b48e 113e
00000040: b65f 7a3e 21e2 6a3e 4ac1 d6be 8c09 483e
00000050: cd3e c1be ac69 2a3d 2943 d63e fc40 fb3e
00000060: 017c d63e e0f5 b0be 868b 59be 648c 36bd
00000070: 218b 16bf 31d7 f2be 1071 a13e d344 673e
00000080: 22c9 853e 25b2 39bc d93a 5d3d 6232 f23e
00000090: ae2f e33e 8b2c a03e 1700 69be f0e2 a43e

band_attn.fc1.bias f4 [8]
-0.1829372 0.089142695 0.5100068 0.22063647 0.054992042 0.1480433 -0.18599166 0.44414905
00000000: e453 3bbe 7290 b63d ce8f 023f 87ee 613e
00000010: 563f 613d aa98 173e 9974 3ebe 8167 e33e

band_attn.fc2.weight f4 [5, 8]
0.26791328 -0.056955256 0.088697836 -0.32474774 0.28093064 0.07526046 -0.040022183 -0.38868836
0.11181526 -0.12658179 -0.30394408 -0.16267319 0.32574427 -0.40435544 0.12159367 0.1332195
-0.32036057 -0.20655146 0.2909434 -0.10884674 -0.13671878 -0.24243736 -0.2756041 -0.01326843
-0.17465416 0.028991599 -0.30640748 0.0037866868 0.096852146 -0.12904939 -0.34752053 -0.22305426
-0.09238019 0.44444966 0.43886355 -0.29814744 -0.09650693 -0.1431338 -0.18620922 -0.32996404
00000000: ee2b 893e ea49 69bd 36a7 b53d 5645 a6be
00000010: 24d6 8f3e 2822 9a3d 4dee 23bd 2902 c7be
00000020: 66ff e43d a89e 01be 8f9e 9bbe cd93 26be
00000030: f4c7 a63e ad07 cfbe 1a06 f93d b16a 083e
00000040: 4d06 a4be 3a82 53be 89f6 943e 0aeb debd
00000050: 0200 0cbe 8041 78be fb1b 8dbe d463 59bc
00000060: 8ad8 32be ca7f ed3c 71e1 9cbe 102a 783b
00000070: 6b5a c63d 8625 04be 36ee b1be 5668 64be
00000080: d331 bdbd e88e e33e b9b2 e03e c8a6 98be
00000090: 6da5 c5bd ab91 12be a1ad 3ebe 0cf1 a8be

band_attn.fc2.bias f4 [5]
0.20500194 -0.2870185 -0.22277693 -0.028211284 0.097852595
00000000: 07ec 513e 17f4 92be a31f 64be 5a1b e7bc
00000010: f166 c83d

feat_proj.weight f4 [128, 21]
-0.15959659 -0.22183083 -0.11527987 0.099545665 0.20528707 0.12356976 -0.0732507 -0.240648
-0.1033039 -0.00020738861 -0.027441375 -0.10145994 -0.06638925 0.08073288 0.101825655 0.17625481
-0.2915878 -0.19692539 -0.015216477 0.13336223 -0.03968696 -0.053850733 0.22430182 -0.13326716
0.19714859 0.102833524 -0.13998047 0.15727437 0.036637157 -0.011990786 0.0050493865 -0.1430321
0.2900752 -0.26825407 0.28279713 0.022199042 -0.20679712 -0.011732087 0.20587844 -0.14073506
-0.040875718 0.074692994 0.030723935 -0.087827176 0.10432868 -0.16203737 0.42124167 -0.035573017
0.02158484 -0.12808569 0.03760262 -0.12881148 0.06209029 -0.2959647 0.13295706 0.10311034
0.21987592 -0.035447758 0.089213975 0.06579382 0.23820099 -0.062504224 -0.015886467 -0.21876852
-0.03469309 -0.14657822 0.15095928 -0.1100841 0.08658728 0.16745774 -0.14317428 0.09976902
0.16381387 -0.22115935 0.1913747 0.17203578 -0.040037084 -0.26471892 0.15188727 0.1506794
0.059661224 -0.16567421 -0.05809263 -0.09905586 0.09355182 -0.21102875 0.13336687 0.02912236
0.29653794 -0.16186863 -0.15059435 -0.20838077 -0.16805142 0.057756215 -0.11054546 0.05290575
-0.04469534 -0.10644861 -0.016928352 -0.18964761 -0.13194907 0.21926858 0.113530375 -0.15271854
-0.12109245 0.10338771 -0.06438835 -0.09781557 -0.2906674 -0.026345331 -0.24480177 -0.20491128
-0.07281672 0.16300496 0.15882152 -0.022663586 -0.13141242 0.12189073 0.18650009 -0.25192937
0.18685561 0.19804485 -0.004480806 -0.09279026 0.011133131 -0.17637938 0.08815377 0.20459521
-0.09982296 0.13177507 0.24743481 -0.062313266 0.14105165 -0.09725023 0.03553333 0.23221648
0.012577239 0.2599894 -0.18888976 0.029885698 -0.3139588 0.104483455 0.037735693 0.12816735
-0.085618496 0.05451768 -0.029161735 -0.253465 -0.010298716 0.25481325 -0.26553395 0.2606218
-0.078634545 -0.13696007 0.09246131 -0.07065681 -0.14545292 -0.016592456 -0.07842068 -0.19275942
-0.22518441 0.095194496 -0.0423763 -0.037091415 0.032939255 0.08434811 0.054279894 0.18822762
-0.10129242 -0.049245942 0.15379924 -0.20343319 -0.28161228 0.14718772 -0.050617125 0.14279158
0.11415954 -0.16222577 0.09922488 0.0413048 0.06400358 0.03659701 0.01071971 -0.12370409
0.031532314 -0.19849063 0.15190242 0.08817862 0.16584769 -0.03273655 0.18287724 -0.16305768
0.15432306 0.19024186 -0.25888225 -0.034437474 -0.012304996 -0.10844749 0.15786946 0.10675403
-0.13925591 -0.18411402 0.25836965 0.20007242 0.1317884 0.05308928 -0.04236596 -0.039849382
0.17071073 0.14356145 -0.1179058 -0.035242893 -0.008181594 -0.20670955 0.11714389 -0.081847794
0.2134391 0.14200708 0.023937654 -0.115878984 -0.28406808 -0.16175278 0.18668318 -0.035062503
0.11124991 -0.14840108 -0.032653168 -0.12636833 0.1053523 -0.13480675 -0.24784434 -0.2313648
-0.20666899 -0.45015082 -0.003145398 0.04378316 0.028920868 -0.19427508 -0.21965964 0.033720326
-0.063853554 -0.1564218 -0.1247689 -0.11658529 0.20479858 -0.007615285 -0.036967926 -0.11159682
-0.096285686 0.2369247 -0.091221645 -0.03853877 -0.106103785 0.12178426 -0.28112572 -0.1926956
00000000: 4a6d 23be 9f27 63be da17 ecbd 99de cb3d
00000010: c636 523e 2412 fd3d 7704 96bd 6e6c 76be
00000020: ff90 d3bd 7576 59b9 bccc e0bc 3bca cfbd
00000030: 16f7 87bd 4857 a53d f889 d03d 247c 343e
00000040: ff4a 95be cfa6 49be 884e 79bc 1c90 083e
00000050: cb8e 22bd 9692 5cbd 60af 653e 3077 08be
00000060: 52e1 493e 629a d23d 0a57 0fbe 880c 213e
00000070: d810 163d 0075 44bc 5375 a53b 0277 12be
00000080: bd84 943e 9958 89be c9ca 903e c4da b53c
00000090: a0c2 53be f037 40bc ccd1 523e da1c 10be
000000a0: 4c6d 27bd a4f8 983d c3b0 fb3c bcde b3bd
000000b0: 46aa d53d 20ed 25be fdac d73e 03b5 11bd
000000c0: b1d2 b03c e528 03be 3405 1a3d 28e7 03be
000000d0: 6352 7e3d af88 97be e525 083e 842b d33d
000000e0: 2727 613e ab31 11bd d1b5 b63d e9be 863d
000000f0: f6ea 733e 3702 80bd 5624 82bc db04 60be
00000100: 571a 0ebd 9a18 16be 1295 1a3e c673 e1bd
00000110: ac54 b13d 0b7a 2b3e 479c 12be b353 cc3d
00000120: d3be 273e 9977 62be bbf7 433e 262a 303e
00000130: edfd 23bd 3d89 87be 5688 1b3e b34b 1a3e
00000140: 545f 743d 80a6 29be 8af2 6dbd ccdd cabd
00000150: 1998 bf3d ec17 58be 5391 083e 0492 ee3c
00000160: d2d3 973e e4c0 25be 6835 1abe c561 55be
00000170: ac15 2cbe c891 6c3d a865 e2bd b3b3 583d
00000180: 7612 37bd bb01 dabd 54ad 8abc fc32 42be
00000190: a81d 07be f187 603e 9d82 e83d 4062 1cbe
000001a0: 52ff f7bd f0bc d33d 0ade 83bd 8853 c8bd
000001b0: 5cd2 94be 2ad2 d7bc 51ad 7abe 43d4 51be
000001c0: ef20 95bd c6ea 263e 1ca2 223e fca8 b9bc
000001d0: fa90 06be d9a1 f93d e1f9 3e3e e3fc 80be
000001e0: 1457 3f3e 45cc 4a3e bad3 92bb d208 bebd
000001f0: bc67 363c cc9c 34be f789 b43d 6881 513e
00000200: fb6f ccbd 0bf0 063e 8d5f 7d3e 323c 7fbd
00000210: d86f 103e 212b c7bd 668b 113d 28ca 6d3e
00000220: c410 4e3c 551d 853e 516c 41be dad2 f43c
00000230: 35bf a0be 6cfb d53d be90 1a3d 4d3e 033e
00000240: c058 afbd ee4d 5f3d 97e4 eebc 2ac6 81be
00000250: f2bb 28bc e276 823e 11f4 87be 3870 853e
00000260: 260b a1bd 433f 0cbe 5b5c bd3d 85b4 90bd
00000270: 9cf1 14be e7ec 87bc 059b a0bd ba62 45be
00000280: be96 66be 55f5 c23d c592 2dbd 2bed 17bd
00000290: 50eb 063d b4be ac3d 9854 5e3d bebe 403e
000002a0: 6672 cfbd 1db6 49bd 8c7d 1d3e ca50 50be
000002b0: 7c2f 90be 61b8 163e e753 4fbd f537 123e
000002c0: 7acc e93d 831e 26be 6a36 cb3d 392f 293d
000002d0: 4f14 833d bfe6 153d b9a1 2f3c 9258 fdbd
000002e0: 0728 013d 2141 4bbe 4f8c 1b3e fe96 b43d
000002f0: fad3 293e c316 06bd 2c44 3b3e 98f8 26be
00000300: dd06 1e3e c3ce 423e 378c 84be 4f0e 0dbd
00000310: e59a 49bc b819 debd 88a8 213e dba1 da3d
00000320: 1a99 0ebe 6388 3cbe 0749 843e c9df 4c3e
00000330: 8af3 063e 2574 593d ee87 2dbd 1b39 23bd
00000340: cbce 2e3e c601 133e 9978 f1bd da5a 10bd
00000350: 180c 06bc abab 53be 23e9 ef3d d19f a7bd
00000360: c88f 5a3e 4e6a 113e e618 c43c f651 edbd
00000370: 5f71 91be 85a2 25be e029 3f3e b39d 0fbd
00000380: fed6 e33d 74f6 17be 54bf 05bd b366 01be
00000390: f2c2 d73d c80a 0abe e8ca 7dbe e5ea 6cbe
000003a0: 09a1 53be 2b7a e6be 0623 4ebb f955 333d
000003b0: 75eb ec3c 0cf0 46be 75ee 60be 531e 0a3d
000003c0: a7c5 82bd 092d 20be d686 ffbd 45c4 eebd
000003d0: b8b6 513e a489 f9bb ae6b 17bd e08c e4bd
000003e0: 6e31 c5bd 639c 723e 6ad2 babd d4da 1dbd
000003f0: f14c d9bd 076a f93d b6ef 8fbe ff51 45be

feat_proj.bias f4 [128]
0.11134218 0.011243753 -0.13824898 -0.004575075 0.11319993 0.014857043 -0.12877023 0.034750447
0.028413713 0.05395998 0.13546439 -0.09907514 0.16524144 0.14062688 0.030792793 -0.16922115
-0.09521402 0.15114039 -0.120059215 0.004685162 0.09912091 -0.0500051 -0.17914467 -0.10013381
0.180096 0.07783826 -0.1307817 -0.03160912 -0.037570957 -0.17298782 0.15793501 -0.09811956
0.1431137 -0.21200086 0.044980284 -0.057889897 -0.0164182 0.027969224 -0.11342784 0.0047583263
0.14178424 0.14429034 -0.18415369 0.011459177 0.10573317 0.16507527 0.12698144 -0.12557447
0.11645094 0.14098173 0.08903918 0.16774343 0.019134633 -0.09455017 -0.0046668053 -0.069330595
-0.13466224 -0.1322646 0.08995539 0.058059778 -0.045612134 -0.0002772159 0.13431826 -0.016363196
0.016636966 -0.1492655 -0.17748776 -0.0046589863 -0.1339969 -0.12331029 -0.029457467 -0.1418877
-0.022075329 0.017593486 0.17389478 -0.058398917 0.028860988 0.024998896 0.15729456 0.04790588
-0.111975305 0.027409349 -0.1238406 -0.11865083 0.02021793 0.020936804 0.031407144 0.12744574
0.082134746 -0.0697561 -0.018433396 -0.06557203 -0.019771973 0.05942244 -0.08579225 -0.052828643
-0.12768637 -0.089314274 0.06426429 -0.17757492 -0.058071364 0.0695562 0.007999278 -0.053526424
-0.18994458 0.020489778 -0.0863784 -0.056744993 -0.08682274 0.124063954 0.09281244 0.13695258
-0.20477429 0.17317666 -0.102195695 0.12342686 -0.011462334 -0.053610455 0.16226354 -0.1417228
-0.060775444 -0.07549794 0.18875965 0.02388907 0.17376947 -0.0056373696 0.09381204 0.097083636
00000000: 5e07 e43d b837 383c 2491 0dbe 83ea 95bb
00000010: 5dd5 e73d f46a 733c 58dc 03be 7c56 0e3d
00000020: e0c3 e83c 2405 5d3d 2db7 0a3e e8e7 cabd
00000030: 0d35 293e 7e00 103e 2b41 fc3c 4f48 2dbe
00000040: 91ff c2bd 8cc4 1a3e 9be1 f5bd fd85 993b
00000050: e7ff ca3d 26d2 4cbd b371 37be f412 cdbd
00000060: 166b 383e aa69 9f3d a3eb 05be 9178 01bd
00000070: 01e4 19bd b823 31be b7b9 213e e8f2 c8bd
00000080: 668c 123e c116 59be 3f3d 383d f51d 6dbd
00000090: 767f 86bc b71f e53c db4c e8bd bceb 9b3b
000000a0: e32f 113e d9c0 133e c992 3cbe 46bf 3b3c
000000b0: a28a d83d 7e09 293e 6c07 023e 9896 00be
000000c0: d57d ee3d 845d 103e 2c5a b63d efc4 2b3e
000000d0: 3cc0 9c3c 85a3 c1bd 00ec 98bb 33fd 8dbd
000000e0: e6e4 09be 5f70 07be 883a b83d 17d0 6d3d
000000f0: cad3 3abd 4a57 91b9 ba8a 093e 1c0c 86bc
00000100: 3f4a 883c 0ed9 18be 5abf 35be 69aa 98bb
00000110: 7c36 09be 1b8a fcbd c950 f1bc 024b 11be
00000120: 52d7 b4bc 3720 903c 7911 323e b433 6fbd
00000130: e16d ec3c 7cca cc3c d311 213e f538 443d
00000140: 4f53 e5bd 9289 e03c 24a0 fdbd 35ff f2bd
00000150: 13a0 a53c a983 ab3c c7a4 003d 2381 023e
00000160: 4336 a83d 49dc 8ebd a201 97bc a14a 86bd
00000170: d5f8 a1bc f264 733d d9b3 afbd d962 58bd
00000180: 37c0 02be 67ea b6bd ff9c 833d 33d6 35be
00000190: 3ddc 6dbd 7b73 8e3d 670f 033c 863e 5bbd
000001a0: d580 42be 2eda a73c 29e7 b0bd 706d 68bd
000001b0: 1fd0 b1bd 3e15 fe3d 7314 be3d 4c3d 0c3e
000001c0: 5ab0 51be 3955 313e fa4b d1bd 39c7 fc3d
000001d0: 83cc 3bbc a396 5bbd 6a28 263e c81f 11be
000001e0: acef 78bd aa9e 9abd 364a 413e 03b3 c33c
000001f0: a0f0 313e afb9 b8bb 8720 c03d c9d3 c63d

local1.conv.bias f4 [128]
0.0009905567 0.012281066 0.01410198 0.024313502 0.006601329 0.020391962 0.027977608 0.011595173
0.00450485 0.027563868 -0.007264659 -0.0004104819 0.021200359 -0.009341969 -0.009385856 -0.017005373
-0.011092812 -0.0150927 0.00751823 -0.026937788 0.0013108416 0.0049953973 -0.012314547 -0.012991857
0.016154038 0.015497384 0.0039052246 0.040808547 0.0014350304 0.0032892886 0.015424136 0.0064620315
-0.011500438 0.017469842 0.018341858 -0.0004294464 -0.01466689 -0.034767885 0.021112597 -0.0372393
-0.021079104 -0.0052424367 -0.03480887 -0.030087903 0.010428276 0.024808398 -0.015223758 -0.006013748
0.024484728 0.013508681 -0.0028914283 0.030986765 0.023711558 0.012072145 0.016349355 0.006201089
0.020300426 -0.020119442 0.020210888 0.030484453 -0.008161046 -0.028301347 -0.013263477 -0.0032461926
0.008085044 0.007711967 0.0120764645 0.02405402 0.025416082 -0.029467132 0.002770817 0.035929073
0.039742548 -0.0033159577 -0.009755983 0.012179661 -0.015467654 -0.021978304 0.003236389 0.011080029
-0.005365114 0.0058920155 0.004018298 0.006569626 0.003920737 -0.003999218 0.015968654 0.0071968064
-0.0008845291 -0.023325486 -0.01854996 0.004018566 -0.0011436493 -0.0012557138 0.025012134 0.016241994
0.013748277 -0.027294902 -0.017621137 -0.007725991 -0.0018783102 0.022598444 -0.0005633801 0.0034205145
-0.0049556927 -0.0069443267 0.024152359 0.01331986 -0.00561579 0.013874284 0.017530227 -0.017239248
-0.026490776 0.0010617559 -0.001839759 0.03844522 0.008700924 0.01930958 -0.005935713 0.011369787
0.021517266 0.008116854 -0.008924332 0.009062854 0.001329682 0.01203834 -0.020155033 -0.00957562
00000000: 91d5 813a 8636 493c fe0b 673c 1c2d c73c
00000010: f64f d83b 0b0d a73c 4c31 e53c aef9 3d3c
00000020: 6c9d 933b 9fcd e13c 600c eebb f335 d7b9
00000030: 60ac ad3c 0f0f 19bc 22c7 19bc da4e 8bbc
00000040: a0be 35bc 5f47 77bc 7c5b f63b a3ac dcbc
00000050: 8cd0 ab3a 6eb0 a33b f4c2 49bc ccdb 54bc
00000060: 7955 843c bde8 7d3c ccee 7f3b dd26 273d
00000070: a117 bc3a 1b91 573b 84b5 7c3c 73bf d33b
00000080: 556c 3cbc ea1c 8f3c aa41 963c 5227 e1b9
00000090: 654d 70bc c568 0ebd 53f4 ac3c 3c88 18bd
000000a0: 16ae acbc bfc8 abbb bf93 0ebd e87a f6bc
000000b0: 5cdb 2a3c fb3a cb3c 126d 79bc f90e c5bb
000000c0: 3294 c83c 8453 5d3c 1e7e 3dbb f5d7 fd3c
000000d0: be3e c23c 3fca 453c 15ef 853c 8132 cb3b
000000e0: 144d a63c 87d1 a4bc 4e91 a53c 88ba f93c
000000f0: e8b5 05bc 3ad8 e7bc 0e4f 59bc 13be 54bb
00000100: 2277 043c abb4 fc3b 5ddc 453c f00c c53c
00000110: 6335 d03c 0e65 f1bc 9896 353b 5d2a 133d
00000120: 15c9 223d 8a50 59bb 8fd7 1fbc 338d 473c
00000130: 0b6c 7dbc d80b b4bc 9919 543b 0389 353c
00000140: d7cd afbb cf11 c13b edab 833b 0446 d73b
00000150: 8779 803b df0b 83bb b2d0 823c 30d3 eb3b
00000160: bedf 67ba 1715 bfbc 16f6 97bc 2dae 833b
00000170: 81e6 95ba c396 a4ba 3fe6 cc3c ee0d 853c
00000180: 7440 613c 8f99 dfbc 345a 90bc 4f2a fdbb
00000190: a231 f6ba 5f20 b93c ccaf 13ba b62a 603b
000001a0: 5d63 a2bb 3c8d e3bb 2bdb c53c 8b3b 5a3c
000001b0: a904 b8bb f750 633c 8d9b 8f3c 5339 8dbc
000001c0: 2f03 d9bc 9e2a 8b3a 1124 f1ba bc78 1d3d
000001d0: 528e 0e3c 202f 9e3c 5f80 c2bb 5848 3a3c
000001e0: fa44 b03c 8efc 043c 5d37 12bc 5d7c 143c
000001f0: b948 ae3a 753c 453c 2b1c a5bc 10e3 1cbc

local1.conv.lin.weight f4 [128, 128]
-0.022494067 -0.06744157 -0.11322112 0.09397702 -0.0843291 0.04271358 -0.12271571 0.012184001
0.11620534 0.07439433 -0.025873642 -0.09688836 0.10540717 -0.12875612 -0.14287604 0.020196848
0.021980116 -0.019514637 0.1124149 0.13988914 -0.06398096 -0.098840445 -0.005458649 0.14279026
-0.110961296 0.10322344 -0.13474527 -0.057014212 -0.120685235 0.12352177 0.068590686 0.016876316
-0.2444125 0.011638875 0.066653185 0.15680118 0.13959005 0.11626172 -0.003093307 0.123878345
0.17397867 0.096110694 -0.051285565 -0.030179363 -0.02635328 0.11128918 0.067856885 -0.14678727
-0.010289722 0.13580596 0.06824948 0.13943991 -0.01717683 0.021925535 -0.14654134 0.08511684
0.13707583 -0.1645637 -0.11176472 -0.16400413 -0.10980459 0.0065005454 -0.10978867 0.06476246
-0.04425771 -0.10731903 0.062615894 0.09420221 0.022902576 -0.088654146 0.011285603 0.055851582
0.11683014 0.059920385 -0.13480811 0.10125988 -0.078318074 0.075569145 -0.12046102 0.09425055
-0.13387959 0.07425832 0.12350673 0.12162094 0.04834931 0.07154982 -0.045445662 -0.111697994
0.041565616 -0.059568826 0.083744906 0.106415495 -0.01919176 0.08440885 0.07558759 0.10235188
-0.0075841364 -0.1731738 0.11928007 -0.092655174 0.12969108 -0.075144134 0.105765104 -0.012276711
0.15321788 -0.18690138 0.0080370605 0.070592664 0.14529587 -0.04307433 0.10910496 0.026386498
-0.13265176 -0.030790305 0.13151975 0.121927276 0.085803606 0.009753068 0.025595091 -0.09416496
0.07487264 -0.07635351 -0.05096374 -0.008268869 -0.08650274 -0.09486422 -0.044488233 0.072732605
-0.17461027 0.050080594 -0.031432673 -0.16123345 0.14825507 -0.07769844 0.014198307 0.07697419
0.002371847 -0.080205165 0.08163698 0.05094626 0.1844528 0.10786601 0.04978028 -0.113013946
-0.011070338 0.15176675 0.16059794 -0.008617037 0.07844016 -0.024629332 -0.16365083 -0.15880159
-0.065408975 -0.062450573 0.100842886 -0.1459934 -0.025007185 -0.14423716 0.024986789 -0.15205362
0.174105 -0.13259538 0.055014417 -0.032109845 0.08252804 0.13262503 -0.06740016 -0.06903829
-0.11753039 0.110467024 -0.04829419 -0.13660192 -0.00832443 0.13589078 0.13531643 0.11786924
0.049594454 -0.15008691 -0.09450582 -0.122522675 -0.2847404 0.071668096 0.019770732 -0.12186435
0.013045027 0.011035362 -0.061671697 0.09239821 0.048862267 0.15127409 -0.046793506 -0.07228294
0.023975797 0.10489897 0.10720374 0.0021168115 -0.18370388 -0.06343019 0.027200485 -0.19296914
-0.14698774 0.0913897 -0.055171214 0.02547514 -0.02300185 0.1928782 0.22013147 -0.12885064
-0.17663188 -0.042337447 -0.016326841 0.0719083 0.018821236 0.08553197 -0.15760154 -0.075152926
-0.070561185 0.18846254 0.17863801 -0.02845417 0.0936142 -0.11071637 0.09642677 -0.110644646
-0.02518777 -0.051615007 -0.031683225 -0.082594015 0.110656165 -0.06252972 0.16881536 0.0034296003
-0.04885464 -0.04649045 0.02265389 0.042537652 0.08587395 0.090349026 0.21739402 0.079923525
-0.17323261 -0.0015385287 -0.0692649 -0.027500072 -0.06368213 0.2077117 -0.16418801 -0.010892023
0.10642166 -0.1362053 0.16149043 0.08831224 -0.09458787 -0.22340973 -0.102446206 -0.027374677
00000000: 7a45 b8bc ce1e 8abd 79e0 e7bd 0677 c03d
00000010: bcb4 acbd 6ff4 2e3d 6052 fbbd 679f 473c
00000020: 11fd ed3d 0e5c 983d f6f4 d3bc 686d c6bd
00000030: b7df d73d a5d8 03be 194e 12be dc73 a53c
00000040: a50f b43c 29dd 9fbc c839 e63d 193f 0f3e
00000050: 7308 83bd dc6c cabd 77de b2bb 9c37 123e
00000060: ad3f e3bd d066 d33d aafa 09be bc87 69bd
00000070: d229 f7bd fbf8 fc3d 4679 8c3d 3340 8a3c
00000080: 4547 7abe fbb0 3e3c 7781 883d 7d90 203e
00000090: b2f0 0e3e a01a ee3d 14b9 4abb eeb3 fd3d
000000a0: 7727 323e afd5 c43d d010 52bd b63a f7bc
000000b0: d5e2 d7bc 95eb e33d 8df8 8a3d 674f 16be
000000c0: 3996 28bc b810 0b3e 62c6 8b3d 56c9 0e3e
000000d0: 6cb6 8cbc 2e9d b33c ef0e 16be bd51 ae3d
000000e0: 9b5d 0c3e 6383 28be e7e4 e4bd b3f0 27be
000000f0: 3be1 e0bd 8702 d53b e2d8 e0bd 2ea2 843d
00000100: 9347 35bd 14ca dbbd c33c 803d 17ed c03d
00000110: 2f9e bb3c 4e90 b5bd 40e7 383c a1c4 643d
00000120: a444 ef3d 146f 753d 230b 0abe 5761 cf3d
00000130: 3a65 a0bd ffc3 9a3d 44b4 f6bd 6f06 c13d
00000140: bb17 09be bf14 983d 19f1 fc3d 6614 f93d
00000150: ed09 463d b688 923d 3b25 3abd ebc1 e4bd
00000160: b540 2a3d 71fe 73bd 7382 ab3d 5ef0 d93d
00000170: 0a38 9dbc 8cde ac3d abcd 9a3d dd9d d13d
00000180: 5984 f8bb 7954 31be 1c49 f43d ffc1 bdbd
00000190: bdcd 043e 2be5 99bd 609b d83d 4224 49bc
000001a0: 26e5 1c3e 1363 3fbe e0ad 033c e392 903d
000001b0: 71c8 143e b56e 30bd 6c72 df3d 7f28 d83c
000001c0: ddd5 07be f33b fcbc 1dad 063e 02b5 f93d
000001d0: cdb9 af3d 55cb 1f3c ccac d13c 8fd9 c0bd
000001e0: d456 993d 3b5f 9cbd 5bbf 50bd 267a 07bc
000001f0: 5928 b1bd 2c48 c2bd 4b39 36bd d5f4 943d
00000200: 09cd 32be 4f21 4d3d 8cbf 00bd 621a 25be
00000210: 2dd0 173e 5c20 9fbd 04a0 683c a5a4 9d3d
00000220: fd70 1b3b 9b42 a4bd 4a31 a73d 07ad 503d
00000230: 32e1 3c3e dbe8 dc3d 68e6 4b3d db73 e7bd
00000240: 5d60 35bc be68 1b3e c973 243e 792e 0dbc
00000250: 3ca5 a03d 74c3 c9bc 1594 27be e29c 22be
00000260: 24f5 85bd 2ccc 7fbd b786 ce3d 4b7f 15be
00000270: dedb ccbc e8b2 13be 18b1 cc3c f2b3 1bbe
00000280: 9548 323e 15c7 07be cc56 613d 9d85 03bd
00000290: 7604 a93d dbce 073e 1809 8abd f263 8dbd
000002a0: c6b3 f0bd 893c e23d 21d0 45bd 60e1 0bbe
000002b0: 3163 08bc f426 0b3e 6490 0a3e 6e65 f13d
000002c0: 8e23 4b3d 62b0 19be 448c c1bd 2bed fabd
000002d0: 7ec9 91be b9c6 923d 3bf6 a13c 0494 f9bd
000002e0: cfba 553c aacd 343c 769b 7cbd 463b bd3d
000002f0: cd23 483d 98e7 1a3e 8caa 3fbd 1409 94bd
00000300: e468 c43c 45d5 d63d a28d db3d 34ba 0a3b
00000310: df1c 3cbe b0e7 81bd 8dd3 de3c b499 45be
00000320: f483 16be 862a bb3d 36fb 61bd 3eb1 d03c
00000330: 606e bcbc dd81 453e 256a 613e 6cf1 03be
00000340: fdde 34be 086a 2dbd debf 85bc a944 933d
00000350: fe2e 9a3c 632b af3d 4c62 21be c7e9 99bd
00000360: 6282 90bd 53fc 403e e2ec 363e b818 e9bc
00000370: cdb8 bf3d 44bf e2bd 667b c53d a999 e2bd
00000380: 9556 cebc 426a 53bd 45c6 01bd 0d27 a9bd
00000390: b39f e23d 950f 80bd efdd 2c3e 25c3 603b
000003a0: ce1b 48bd c56c 3ebd a794 b93c f63b 2e3d
000003b0: aede af3d e908 b93d 8a9c 5e3e f2ae a33d
000003c0: e463 31be 75a8 c9ba c2da 8dbd d547 e1bc
000003d0: c76b 82bd 60b2 543e e720 28be 7574 32bc
000003e0: 99f3 d93d 6779 0bbe bf5d 253e 0cdd b43d
000003f0: 49b7 c1bd 85c5 64be 51cf d1bd dc40 e0bc

local1.norm.weight f4 [128]
0.9677613 1.0349271 0.9835849 1.0064404 0.98333347 0.9869337 0.97638595 1.0330325
0.9760889 0.93045807 1.1013192 0.951876 0.9070626 1.0103709 1.0172054 0.99231446
1.0581914 0.94361466 1.051124 1.192073 0.99716836 1.0002751 0.9757101 1.0270585
1.0154607 1.0037555 1.029605 0.9791569 0.95641947 1.0553195 0.9751906 0.9958153
1.0293382 0.9617061 0.97716993 1.0127734 1.0495442 1.0811929 0.91920125 1.0860401
1.0229318 1.0251098 1.1187762 1.1861951 0.97107774 0.976561 0.9428394 1.0652474
0.92038554 0.9450179 1.0127885 0.9229534 0.91487724 0.92555016 0.9442111 1.0948976
1.0190697 1.101102 1.0283568 0.9527552 1.0412261 1.1326139 1.0739815 1.0024656
0.9224838 0.99920523 0.98822653 0.9934478 0.9404545 1.1406399 0.95573014 0.94299984
0.88055295 0.9771959 0.9608983 1.035262 1.0665743 1.0258853 1.0007204 0.92087305
1.0469592 1.0335133 1.0744247 0.9338975 1.09253 0.97364026 0.93273675 0.9828605
0.9693477 1.058291 1.0050997 0.9886105 0.9682038 0.9653297 0.9334719 1.0001659
0.9588882 1.0711892 1.1868324 0.99815035 0.9913894 0.959022 1.0459006 1.0364404
0.98993087 1.0186851 0.95660037 0.9407202 1.0385094 0.91303295 0.931273 1.0362145
1.0803045 1.0043843 1.0584744 0.9046656 0.9497988 1.0875226 1.0689805 1.0137527
0.9377876 0.9846406 1.114836 0.990852 1.0735259 0.97246087 1.0138619 1.0360365
00000000: 34bf 773f 7e78 843f 38cc 7b3f 0ad3 803f
00000010: bebb 7b3f b0a7 7c3f 6ef4 793f 693a 843f
00000020: f6e0 793f 8032 6e3f 07f8 8c3f 25ae 733f
00000030: 4135 683f d553 813f c933 823f 5208 7e3f
00000040: d172 873f bb90 713f 3b8b 863f d995 983f
00000050: 6d46 7f3f 0409 803f 23c8 793f a776 833f
00000060: 9efa 813f 0f7b 803f 19ca 833f 07aa 7a3f
00000070: e8d7 743f b614 873f 17a6 793f c0ed 7e3f
00000080: 5bc1 833f 5f32 763f cf27 7a3f 8fa2 813f
00000090: 7757 863f 8764 8a3f c650 6b3f 5d03 8b3f
000000a0: 6eef 823f cc36 833f 0f34 8f3f 3ed5 973f
000000b0: 8d98 783f e7ff 793f ec5d 713f 075a 883f
000000c0: 639e 6b3f b1ec 713f 0ea3 813f ad46 6c3f
000000d0: 6535 6a3f dbf0 6c3f d2b7 713f 9b25 8c3f
000000e0: e070 823f e9f0 8c3f 32a1 833f c4e7 733f
000000f0: e646 853f 7ef9 903f 3a78 893f cb50 803f
00000100: e627 6c3f eacb 7f3f 6afc 7c3f 9852 7e3f
00000110: a0c1 703f 7d00 923f bbaa 743f 7068 713f
00000120: eb6b 613f 8329 7a3f 6efd 753f 7783 843f
00000130: 8285 883f 3650 833f 9b17 803f 56be 6b3f
00000140: c202 863f 2a4a 843f c086 893f e813 6f3f
00000150: 06d8 8b3f 7d40 793f d6c7 6e3f bf9c 7b3f
00000160: 2c27 783f 1476 873f 1ba7 803f 9415 7d3f
00000170: 34dc 773f d91f 773f 04f8 6e3f 7005 803f
00000180: b279 753f ba1c 893f 20ea 973f c886 7f3f
00000190: b2cb 7d3f 7782 753f 12e0 853f 14aa 843f
000001a0: 1c6c 7d3f 4664 823f c3e3 743f 0ad3 703f
000001b0: e0ed 843f 87bc 693f e867 6e3f ada2 843f
000001c0: 6b47 8a3f aa8f 803f 177c 873f 2a98 673f
000001d0: 0426 733f f133 8b3f 5ad4 883f a6c2 813f
000001e0: d912 703f 6811 7c3f f2b2 8e3f 7aa8 7d3f
000001f0: 4c69 893f 32f3 783f 3ac6 813f d89c 843f

local1.norm.bias f4 [128]
-0.09239779 -0.082293026 -0.06224509 -0.115985945 -0.11307373 -0.120492905 -0.08968688 -0.07415432
-0.091737516 -0.105914846 -0.035022613 -0.08340413 -0.13647114 -0.070552856 -0.050224066 -0.07719159
-0.104240246 -0.088278055 -0.07178719 -0.09459689 -0.035237767 -0.10956426 -0.11175635 -0.0848749
-0.08192366 -0.06374586 -0.08652171 -0.08861227 -0.09314888 -0.13115913 -0.19140704 -0.08095013
-0.048806053 -0.12664555 -0.10334603 -0.06118206 -0.060020216 -0.05228088 -0.14166953 -0.067408115
-0.062724344 -0.07500989 -0.090390116 -0.04945449 -0.11299035 -0.10394141 -0.16784525 -0.07269671
-0.07685872 -0.07449538 -0.08748956 -0.11506831 -0.17752972 -0.12701377 -0.11242554 -0.05658348
-0.10893386 -0.0766784 -0.09137304 -0.09187484 -0.06645911 -0.049671695 -0.07874972 -0.12548862
-0.12480785 -0.06259935 -0.106996134 -0.06761279 -0.08467085 -0.07817301 -0.114461996 -0.08017006
-0.14052087 -0.08694362 -0.08918464 -0.04549905 -0.05928374 -0.1021523 -0.0781411 -0.13316816
-0.08540606 -0.09892407 -0.073252134 -0.1170321 -0.0859176 -0.11181178 -0.09821585 -0.11718073
-0.1034618 -0.029618975 -0.103587 -0.16026388 -0.09846246 -0.0764721 -0.115027614 -0.036846783
-0.09467838 -0.057419445 -0.041691013 -0.10586017 -0.10044786 -0.14323792 -0.09228247 -0.090105325
-0.09051636 -0.04147248 -0.08961669 -0.12724473 -0.046046615 -0.1160618 -0.11218021 -0.09815044
-0.07970161 -0.058368836 -0.100274995 -0.12199659 -0.10788406 -0.075681336 -0.06453134 -0.085306406
-0.077215455 -0.08171497 -0.07019343 -0.09471546 -0.057167184 -0.079699 -0.048417486 -0.10835297
00000000: 0d3b bdbd 3f89 a8bd b5f4 7ebd 0a8a edbd
00000010: 3393 e7bd fcc4 f6bd c1ad b7bd 38de 97bd
00000020: e1e0 bbbd e2e9 d8bd df73 0fbd c9cf aabd
00000030: 17bf 0bbe 047e 90bd c0b7 4dbd a016 9ebd
00000040: e97b d5bd 20cb b4bd 2a05 93bd 04bc c1bd
00000050: 7a55 10bd 3a63 e0bd 83e0 e4bd e4d2 adbd
00000060: 98c7 a7bd 308d 82bd 4b32 b1bd 5a7a b5bd
00000070: d7c4 bebd 944e 06be 3500 44be 2fc9 a5bd
00000080: dbe8 47bd 5faf 01be 15a7 d3bd 0a9a 7abd
00000090: c2d7 75bd 7a24 56bd d111 11be 440d 8abd
000000a0: 9f75 80bd c99e 99bd 741e b9bd cb90 4abd
000000b0: 7c67 e7bd 3cdf d4bd a0df 2bbe 03e2 94bd
000000c0: 1b68 9dbd 0991 98bd ba2d b3bd efa8 ebbd
000000d0: 5aca 35be e60f 02be 5d3f e6bd 14c4 67bd
000000e0: b718 dfbd 9109 9dbd ca21 bbbd e028 bcbd
000000f0: b71b 88bd 8c74 4bbd 8847 a1bd 1780 00be
00000100: 429b ffbd 1734 80bd ca20 dbbd 9378 8abd
00000110: e967 adbd 2c19 a0bd 0d6b eabd 3330 a4bd
00000120: b4e4 0fbe 7f0f b2bd 70a6 b6bd 365d 3abd
00000130: 82d3 72bd 3a35 d1bd 7108 a0bd 3c5d 08be
00000140: 5fe9 aebd b498 cabd 3705 96bd 87ae efbd
00000150: 91f5 afbd 93fd e4bd 6425 c9bd 73fc efbd
00000160: c8e3 d3bd 7ea3 f2bc 6c25 d4bd 371c 24be
00000170: b0a6 c9bd 689d 9cbd 9993 ebbd a7ec 16bd
00000180: bde6 c1bd a730 6bbd 32c4 2abd 38cd d8bd
00000190: 9cb7 cdbd f6ac 12be 97fe bcbd 2489 b8bd
000001a0: a460 b9bd 0cdf 29bd f588 b7bd 714c 02be
000001b0: 609b 3cbd cfb1 edbd bdbe e5bd 1903 c9bd
000001c0: 993a a3bd 2914 6fbd fa5c cdbd 59d9 f9bd
000001d0: 51f2 dcbd d1fe 9abd 0229 84bd 20b5 aebd
000001e0: 2323 9ebd 2e5a a7bd 93c1 8fbd 2efa c1bd
000001f0: 2328 6abd 3b39 a3bd 6a51 46bd 29e8 ddbd

local2.conv.bias f4 [128]
0.0006566374 0.0014843888 0.004499631 0.0015590145 0.0140482895 0.0020511802 0.001614517 -0.044541072
-0.009382154 0.00040910504 -0.0029538032 0.002555918 0.0019315456 0.0017681336 0.0027850862 -0.0026894943
0.0034254626 0.00056146947 -0.0006746472 0.019720415 0.001223278 0.0015794567 -0.026638312 0.0016122601
-0.00038259532 -0.0016692304 -0.0026503499 -0.0011122205 -0.00019359363 0.007870662 -0.00052556954 0.0017824495
0.0017525217 0.00012517445 0.0009949545 0.005102122 -0.002159953 0.0036036156 0.0030808435 -0.0053533693
-0.00042730957 0.0012695738 0.001278805 0.018849047 -0.004059769 0.0020494603 0.0011267461 -0.0015813739
-0.0038025898 -0.00060027244 0.0015461757 0.000276833 0.0015841272 0.012839049 0.001305127 0.016896619
0.0030005283 0.0019697053 -0.00083704805 -0.0011222664 -0.0016623001 0.0010503443 0.015238703 -0.005765022
0.0004914937 0.0016737473 0.014845077 0.008928951 0.0032315166 -0.009317985 0.00045580787 0.0034295344
0.00057158817 -0.0035959438 -0.07009557 0.0022205412 0.0017789473 -0.0034191392 -0.0027545497 0.0012045029
0.0026688622 0.0010517148 -0.0006192457 0.0018366001 0.0004722417 0.004283106 0.00095142366 0.0026502672
0.015139276 -6.70827e-05 0.070193104 0.0010388993 -0.0008308113 0.0005371463 0.00035457528 0.0019979754
-0.0007391741 0.015400629 -0.007294658 0.0011262238 -0.15863101 -0.0023329977 0.01699716 0.0018785815
0.004182197 0.022534281 -0.004348264 -0.001163556 0.001784025 -0.009087469 0.021179881 -0.00049096387
0.0010198593 0.025113849 0.001304101 0.0036803132 0.0009566342 -0.00016336146 0.0026681162 0.00025280533
0.00047826415 0.007821138 0.0016769022 -0.0003091442 0.0011509409 -0.0019971943 0.0014427472 -0.00055948587
00000000: 3122 2c3a d38f c23a a471 933b d957 cc3a
00000010: cc2a 663c 186d 063b 339e d33a b370 36bd
00000020: 9bb7 19bc 267d d639 9894 41bb 3081 273b
00000030: ea2b fd3a b8c0 e73a fe85 363b 3a42 30bb
00000040: ba7d 603b 942f 133a cfda 30ba b58c a13c
00000050: 6656 a03a c605 cf3a 9738 dabc 7952 d33a
00000060: 1397 c8b9 14ca daba 7eb1 2dbb edc7 91ba
00000070: 65ff 4ab9 f3f3 003c 60c6 09ba 15a1 e93a
00000080: dfb4 e53a 4341 0339 2269 823a b42f a73b
00000090: ff8d 0dbb a32a 6c3b fae7 493b 516b afbb
000000a0: 8508 e0b9 d467 a63a 939d a73a 5169 9a3c
000000b0: d007 85bb 3d50 063b 53af 933a 1a46 cfba
000000c0: df34 79bb 9a5b 1dba 0ca9 ca3a e523 9139
000000d0: 7da2 cf3a e05a 523c cc10 ab3a c76a 8a3c
000000e0: 83a4 443b 2c16 013b 586d 5bba 0319 93ba
000000f0: 89e1 d9ba b5ab 893a c1ab 793c 82e8 bcbb
00000100: 95d7 003a a461 db3a c438 733c bc4a 123c
00000110: dac7 533b 76aa 18bc 7ff9 ee39 0ac2 603b
00000120: a2d6 153a eda9 6bbb 448e 8fbd 8086 113b
00000130: 912b e93a a313 60bb ad85 34bb 69e0 9d3a
00000140: 14e8 2e3b b1d9 893a e054 22ba 13ba f03a
00000150: 3597 f739 4c59 8c3b f668 793a 1bb0 2d3b
00000160: ba0a 783c c0ae 8cb8 67c1 8f3d ad2b 883a
00000170: cdca 59ba 47cf 0c3a 4ae6 b939 77f0 023b
00000180: 22c5 41ba eb52 7c3c 0708 efbb cd9d 933a
00000190: 2b70 22be 35e5 18bb a13d 8b3c bc3a f63a
000001a0: d00a 893b d099 b83c e27b 8ebb 7682 98ba
000001b0: f2d5 e93a 9ce3 14bc 6e81 ad3c 07b4 00ba
000001c0: cdac 853a 8fbb cd3c 5eee aa3a 6931 713b
000001d0: a2c6 7a3a 024c 2bb9 90db 2e3b f58a 8439
000001e0: 87bf fa39 3b24 003c 80cb db3a a214 a2b9
000001f0: 2bdb 963a 5ce3 02bb 901a bd3a 76aa 12ba

local2.conv.lin.weight f4 [128, 128]
0.15487416 -0.05319534 0.00939923 0.030933734 -0.013682969 -0.047698867 -0.13651988 0.019277725
0.15791264 -0.12924902 0.1791061 0.09175015 0.10897489 -0.16321176 -0.040174875 0.11991697
-0.008753195 -0.058981452 -0.0012438676 -0.16879612 0.07425258 0.17630026 -0.049704995 -0.25211442
-0.025860999 -0.0051368377 -0.106571205 0.019694332 0.06699804 -0.115522884 -0.24312413 -0.1603415
-0.08891176 -0.06322445 -0.124527745 -0.09862801 0.199648 0.12085518 0.08958973 0.06950142
0.09511134 -0.11275128 0.19155309 0.12773149 0.07449989 -0.020744694 -0.07542634 0.1852804
-0.046210766 0.0552379 -0.10414662 -0.043191608 -0.0012208229 0.12200523 0.073062256 0.19211484
0.10515207 -0.015188967 -0.044133123 -0.040011674 0.20321274 0.1471285 -0.037856895 0.0047476655
0.05526934 0.1884189 -0.049318124 -0.10804757 -0.07332514 0.105022766 0.09232697 0.07073987
-0.07880364 -0.177089 0.14074747 -0.098355494 -0.0873271 0.16938521 0.11659562 -0.105007716
-0.10920267 -0.0549061 0.15422995 -0.11055263 0.18388808 0.10018319 0.0688857 -0.13293435
-0.06798336 0.012625954 0.1520121 -0.1959403 -0.05237566 -0.081320144 0.10033569 -0.16576663
-0.032795534 0.07107964 0.018626146 0.065318115 -0.21372476 0.04171939 0.06201014 -0.0060525686
0.15403803 -0.16184682 0.068122424 -0.01567652 0.042431034 -0.030486831 -0.15795237 -0.0992829
-0.007630756 -0.06265816 0.078368 0.038223237 -0.08905785 -0.015984641 0.17646445 0.18165414
0.045333732 0.032471944 -0.0037634377 -0.047352724 -0.032790914 -0.12830691 -0.07451604 0.24811958
0.13521886 0.13711779 -0.05549611 0.13047047 -0.015034249 -0.114130735 -0.026011664 0.17609465
0.019652292 -0.10961255 0.1108582 -0.127466 0.11588412 -0.028109847 0.12739135 0.02560354
0.12497943 0.12300539 0.032392524 -0.13852775 -0.08809111 -0.093104996 -0.19075929 -0.1447079
0.04564833 0.013749335 -0.033894986 -0.006933938 -0.07397792 -0.14893076 0.11149933 0.11777289
0.1366173 0.018933201 0.092791185 -0.15556608 -0.04533196 0.03676904 0.020627426 0.1423429
-0.05705212 -0.113055475 -0.050897967 -0.08732629 -0.146076 -0.049920425 -0.06924958 0.13901076
0.12578289 0.103649706 -0.09830907 -0.07644154 -0.0842156 -0.0377524 0.06822986 -0.09608719
-0.001744764 0.07310202 0.018339079 0.027141932 0.1020388 -0.015784515 -0.0034745694 -0.031173492
0.13229015 0.1532695 0.061254278 -0.03675851 -0.15073068 0.052779973 0.06841448 0.055159707
0.09451664 -0.16646725 0.062834404 0.040610526 0.004612628 0.097469635 -0.1707804 -0.09667216
0.0393057 0.09160151 0.033570696 0.10664162 0.11681258 -0.1394419 0.1517403 0.10189044
-0.0056275376 -0.16444871 0.090302564 -0.13113265 0.013313872 0.09209603 -0.03016219 -0.048471328
0.07259874 0.09259638 -0.06601268 -0.023016758 -0.1551394 -0.031156266 0.12563007 -0.020733248
-0.087657824 -0.22690478 -0.052310523 0.041215234 0.14856467 -0.12936696 0.057631753 0.036768105
-0.12973899 0.13190092 -0.23233141 0.023657277 0.035185825 -0.031687655 0.10303891 0.18029319
0.16960202 0.014377196 0.09909833 0.18021986 0.14113036 0.05189437 -0.14765438 0.091948874
00000000: 5597 1e3e 5be3 59bd 3aff 193c be68 fd3c
00000010: 882e 60bc e35f 43bd decb 0bbe 52ec 9d3c
00000020: dab3 213e db59 04be 9767 373e 81e7 bb3d
00000030: 3a2e df3d fc20 27be 698e 24bd 0797 f53d
00000040: 9069 0fbc 8996 71bd 4509 a3ba e4d8 2cbe
00000050: bd11 983d 0e88 343e 7797 4bbd 2415 81be
00000060: 72da d3bc eb52 a8bb 0142 dabd 0256 a13c
00000070: 4536 893d 4397 ecbd 88f5 78be 9030 24be
00000080: 5e17 b6bd d27b 81bd 6708 ffbd 7bfd c9bd
00000090: 8670 4c3e ec82 f73d d27a b73d c356 8e3d
000000a0: bcc9 c23d 25ea e6bd 7e26 443e 0bcc 023e
000000b0: 6693 983d c7f0 a9bc 2079 9abd 25ba 3d3e
000000c0: 8047 3dbd 2341 623d d34a d5bd afe9 30bd
000000d0: 0504 a0ba e1dd f93d aaa1 953d c1b9 443e
000000e0: f859 d73d 25db 78bc efc4 34bd 48e3 23bd
000000f0: 0017 503e daa8 163e d50f 1bbd 4e92 9b3b
00000100: 1a62 623d e2f0 403e cd01 4abd 0b48 ddbd
00000110: 7e2b 96bd 2d16 d73d ec15 bd3d 11e0 903d
00000120: ce63 a1bd d256 35be 1b20 103e 9b6e c9bd
00000130: 8dd8 b2bd 5173 2d3e afc9 ee3d 490e d7bd
00000140: a6a5 dfbd 38e5 60bd 75ee 1d3e 6b69 e2bd
00000150: 284d 3c3e d82c cd3d f213 8d3d f11f 08be
00000160: dc3a 8bbd 17dd 4e3c 0fa9 1b3e 93a4 48be
00000170: dc87 56bd 2d8b a6bd cc7c cd3d babe 29be
00000180: 9c54 06bd 3492 913d dc95 983c 81c5 853d
00000190: aada 5abe f3e1 2a3d 58fe 7d3d a054 c6bb
000001a0: 25bc 1d3e 2cbb 25be c583 8b3d 0c6c 80bc
000001b0: 2acc 2d3d 85bf f9bc 44be 21be d554 cbbd
000001c0: 6c0b fabb ec52 80bd 677f a03d f88f 1c3d
000001d0: f663 b6bd 39f2 82bc 19b3 343e 8b03 3a3e
000001e0: ddaf 393d 4d01 053d 02a4 76bb eef4 41bd
000001f0: c44f 06bd e362 03be de9b 98bd 0f13 7e3e
00000200: d076 0a3e 9b68 0c3e e44f 63bd 0d9a 053e
00000210: 3652 76bc 60bd e9bd 6a16 d5bc 2852 343e
00000220: d8fd a03c 8b7c e0bd a009 e33d 7286 02be
00000230: a754 ed3d 9f46 e6bc e172 023e 84be d13c
00000240: 37f5 ff3d 40ea fb3d 06ae 043d 38da 0dbe
00000250: 1d69 b4bd d5ad bebd 6756 43be 4f2e 14be
00000260: bef9 3a3d e444 613c 78d5 0abd 1636 e3bb
00000270: bc81 97bd 4e81 18be c359 e43d ea32 f13d
00000280: 68e5 0b3e cd19 9b3c 4e09 be3d b74c 1fbe
00000290: 01ae 39bd 229b 163d d9fa a83c 56c2 113e
000002a0: 7caf 69bd a189 e7bd 637a 50bd 20d8 b2bd
000002b0: f294 15be 5c79 4cbd b9d2 8dbd d658 0e3e
000002c0: 3bcd 003e 4c46 d43d 4456 c9bd 628d 9cbd
000002d0: 3a79 acbd 43a2 1abd 19bc 8b3d 5cc9 c4bd
000002e0: 91b0 e4ba 83b6 953d d63b 963c c258 de3c
000002f0: b8f9 d03d 874e 81bc 9ab5 63bb 8d5f ffbc
00000300: 1277 073e aef2 1c3e c4e5 7a3d 1790 16bd
00000310: 2559 1abe d02f 583d e41c 8c3d 25ef 613d
00000320: f191 c13d 6476 2abe 53af 803d 3957 263d
00000330: 8725 973b 299e c73d 0fe1 2ebe 0efc c5bd
00000340: 04ff 203d 9399 bb3d 6d81 093d ec66 da3d
00000350: 6f3b ef3d dcc9 0ebe cf61 1b3e efab d03d
00000360: 3567 b8bb 3e65 28be 8df0 b83d a347 06be
00000370: 6d22 5a3c d89c bc3d b216 f7bc df89 46bd
00000380: a6ae 943d 2ca3 bd3d a831 87bd a48d bcbc
00000390: dddc 1ebe 6d3b ffbc 2ba5 003e c6d8 a9bc
000003a0: f285 b3bd ba59 68be 8f43 56bd 4ed1 283d
000003b0: 5621 183e c678 04be 460f 6c3d 279a 163d
000003c0: 4cda 04be 0911 073e 49e8 6dbe e8cc c13c
000003d0: 031f 103d eaca 01bd 1006 d33d c79e 383e
000003e0: 27ac 2d3e 558e 6b3c 11f4 ca3d 8e8b 383e
000003f0: 7a84 103e 318f 543d b632 17be b14f bc3d

local2.norm.weight f4 [128]
1.0146453 0.9024549 0.8410198 0.92541367 1.0115862 0.9027456 0.9840745 0.89150274
0.8879075 1.0211347 1.1278913 0.91105807 0.8542967 0.9053414 0.86707217 0.98050725
0.8236053 0.92005694 0.94708556 0.9374412 1.0005728 0.9079544 0.9375551 0.9663283
0.9359685 0.98297864 1.0210261 0.9787305 0.9994086 0.8608828 0.95051485 0.9273844
0.9272301 0.9368109 0.93425363 0.7877009 1.0042138 0.87105584 0.8454509 1.048289
0.9858898 0.92145336 0.93459326 0.99807364 0.9630572 0.89785635 0.90108883 0.9192821
1.0404891 0.83662903 0.9271001 1.0260695 0.9723169 1.0207727 0.9937727 0.96985674
0.92606896 0.87347174 0.96973884 0.9222696 1.1262187 0.9552824 0.9270499 0.99851906
0.95426196 0.85643417 0.9262714 0.9176646 0.858796 0.9425159 1.0505447 0.8591746
0.93130845 0.96488446 1.0816722 0.8971664 0.9334655 1.0174586 0.9392873 0.9234934
0.90756375 0.98219234 0.8889574 0.951435 0.95986116 0.85158634 0.9721423 0.88086444
0.9761928 1.0852951 0.8977129 0.9432357 1.0666393 0.9558785 1.0275393 0.916713
0.96466684 0.9556081 1.0284507 0.92147315 1.0322555 0.9985528 0.9609274 0.9331522
0.81837606 0.9606595 0.89462715 0.9129907 0.95067513 0.92064464 1.0180309 0.91684693
0.89801246 0.91588706 0.98860335 0.87317044 0.955349 1.0145315 0.884004 1.027028
0.9793684 0.9689209 0.8683558 0.9699221 0.99048805 0.9579507 0.9641773 1.0116985
00000000: e6df 813f 4907 673f 134d 573f e9e7 6c3f
00000010: a87b 813f 561a 673f 4eec 7b3f 8639 643f
00000020: e84d 633f 8bb4 823f be5e 903f 1a3b 693f
00000030: 30b3 5a3f 74c4 673f 71f8 5d3f 8602 7b3f
00000040: ccd7 523f da88 6b3f 3374 723f 25fc 6f3f
00000050: c512 803f b36f 683f 9c03 703f 4b61 773f
00000060: a29b 6f3f 7da4 7b3f fcb0 823f 158e 7a3f
00000070: 3ed9 7f3f d162 5c3f f154 733f 1069 6d3f
00000080: f45e 6d3f d7d2 6f3f 3f2b 6f3f c4a6 493f
00000090: 148a 803f 84fd 5e3f 786f 583f 552e 863f
000000a0: 4663 7c3f 5ee4 6b3f 8141 6f3f c181 7f3f
000000b0: eb8a 763f ead9 653f c2ad 663f 1256 6b3f
000000c0: bf2e 853f 522d 563f 6f56 6d3f 3f56 833f
000000d0: c3e9 783f aea8 823f e367 7e3f 8848 783f
000000e0: db12 6d3f d89b 5f3f ce40 783f dc19 6c3f
000000f0: ef27 903f 638d 743f 2453 6d3f f29e 7f3f
00000100: 834a 743f 453f 5b3f 1f20 6d3f 11ec 6a3f
00000110: 0eda 5b3f b948 713f 4078 863f def2 5b3f
00000120: 3b6a 6e3f ab02 773f 3c74 8a3f b2ac 653f
00000130: 98f7 6e3f 153c 823f 2275 703f 106a 6c3f
00000140: 1956 683f f570 7b3f b692 633f 3f91 733f
00000150: 76b9 753f 9001 5a3f 51de 783f 5580 613f
00000160: c5e7 793f f3ea 8a3f 83d0 653f e577 713f
00000170: a387 883f 74b4 743f 6886 833f b4ad 6a3f
00000180: 68f4 763f bca2 743f 46a4 833f aae5 6b3f
00000190: f320 843f 28a1 7f3f 57ff 753f 10e3 6e3f
000001a0: 1881 513f c8ed 753f 4906 653f c2b9 693f
000001b0: 725f 733f 5eaf 6b3f d64e 823f 7bb6 6a3f
000001c0: 25e4 653f 9377 6a3f 1c15 7d3f 1988 5f3f
000001d0: c191 743f 2bdc 813f 164e 623f a775 833f
000001e0: e3b7 7a3f 330b 783f 914c 5e3f d14c 783f
000001f0: a090 7d3f 423c 753f 53d4 763f 567f 813f

local2.norm.bias f4 [128]
-0.09172536 -0.1124156 -0.20195687 -0.11173854 -0.12116656 -0.121597 -0.09872552 -0.123120606
-0.17255819 -0.10091187 -0.09246927 -0.12262727 -0.15561572 -0.12791277 -0.20951019 -0.0711361
-0.19088984 -0.091068015 -0.10448614 -0.1304479 -0.10409357 -0.1533285 -0.0904109 -0.10826504
-0.11785509 -0.100965805 -0.081361495 -0.12597065 -0.1287689 -0.12270492 -0.100475155 -0.13786784
-0.104009554 -0.08817141 -0.12519962 -0.22001977 -0.11080516 -0.16024728 -0.155932 -0.07337075
-0.11669914 -0.10147097 -0.09447017 -0.17553261 -0.084574066 -0.13837074 -0.14500086 -0.12911859
-0.080013186 -0.20934276 -0.09131695 -0.0852314 -0.11570398 -0.07611193 -0.1268064 -0.12642795
-0.15039517 -0.1728665 -0.11032819 -0.116308264 -0.04731827 -0.11961491 -0.10326915 -0.06747645
-0.11070899 -0.13953921 -0.11050562 -0.0035175567 -0.18848526 -0.11699707 -0.07523582 -0.18110502
-0.14810503 -0.0876609 -0.122014 -0.14295897 -0.13215421 -0.08297598 -0.12821425 -0.13594852
-0.13395567 -0.10263322 -0.17361814 -0.12662831 -0.0785971 -0.21925701 -0.10486842 -0.16133837
-0.06451127 -0.07203535 -0.15046395 -0.118996926 -0.04951348 -0.1257494 -0.116396345 -0.10353227
-0.10153553 -0.1125369 -0.079993665 -0.097609185 -0.08385968 -0.08419481 -0.07994547 -0.13668033
-0.20220451 -0.1093108 -0.1485933 -0.13236496 -0.09937261 -0.12688377 -0.08839033 -0.11166499
-0.14419052 -0.18473859 -0.098644555 -0.19104007 -0.08925548 -0.10617388 -0.1477848 -0.10504606
-0.09753739 -0.09610488 -0.12501834 -0.07329805 -0.1361528 -0.08532931 -0.13699983 -0.08385901
00000000: 81da bbbd 263a e6bd c8cd 4ebe 2dd7 e4bd
00000010: 2c26 f8bd d907 f9bd 9b30 cabd a826 fcbd
00000020: 18b3 30be e2aa cebd 8760 bdbd 0224 fbbd
00000030: ba59 1fbe 91fb 02be d789 56be ceaf 91bd
00000040: a078 43be de81 babd d4fc d5bd 2294 05be
00000050: 022f d5bd 2502 1dbe 5a29 b9bd 10ba ddbd
00000060: 025e f1bd 29c7 cebd dba0 a6bd 73fe 00be
00000070: ffdb 03be b84c fbbd ebc5 cdbd 3a2d 0dbe
00000080: f602 d5bd 3693 b4bd 5434 00be dd4c 61be
00000090: d1ed e2bd dd17 24be a3ac 1fbe 6743 96bd
000000a0: f5ff eebd 03d0 cfbd 9479 c1bd d2be 33be
000000b0: 2b35 adbd 0fb1 0dbe 1b7b 14be aa37 04be
000000c0: f4dd a3bd f35d 56be 6204 bbbd cd8d aebd
000000d0: 35f6 ecbd 92e0 9bbd 89d9 01be 5476 01be
000000e0: 3101 1abe ea03 31be bff3 e1bd 0733 eebd
000000f0: cdd0 41bd a9f8 f4bd c77e d3bd 1831 8abd
00000100: 65bb e2bd 5ee3 0ebe c550 e2bd cf86 66bb
00000110: 4802 41be 299c efbd 3d15 9abd 9873 39be
00000120: d8a8 17be 8f87 b3bd 7ae2 f9bd d663 12be
00000130: 6f53 07be 50ef a9bd 994a 03be 1736 0bbe
00000140: ad2b 09be 5e31 d2bd f4c8 31be daaa 01be
00000150: 84f7 a0bd e984 60be 41c5 d6bd e335 25be
00000160: 7c1e 84bd 4587 93bd 3913 1abe a9b4 f3bd
00000170: a6ce 4abd 73c4 00be 3561 eebd ba08 d4bd
00000180: dcf1 cfbd bf79 e6bd b8d3 a3bd 53e7 c7bd
00000190: a0be abbd 546e acbd 73ba a3bd eef5 0bbe
000001a0: b30e 4fbe 57de dfbd d828 18be ae8a 07be
000001b0: de83 cbbd d2ed 01be fd05 b5bd 9db0 e4bd
000001c0: aea6 13be 1d2c 3dbe 2806 cabd 02a0 43be
000001d0: 94cb b6bd b171 d9bd e654 17be 6422 d7bd
000001e0: afc1 c7bd a3d2 c4bd cf04 00be 4a1d 96bd
000001f0: a46b 0bbe 22c1 aebd af49 0cbe 46be abbd

meso.Wq.weight f4 [128, 128]
-0.08459145 -0.026606023 0.03227159 0.07607977 0.029260436 -0.07630875 -0.08454906 0.12040438
0.017251499 0.051072013 -0.044389945 0.057921 0.039696965 -0.016133439 0.052812085 -0.017341848
0.044995125 -0.041109603 -0.019579025 0.049232125 -0.043885294 0.09708743 0.09740577 0.060489558
0.10967529 -0.11647701 -0.09894515 -0.026707703 0.07920002 -0.023958324 -0.034469496 0.10229978
0.088176385 0.013977639 0.08463469 -0.06625652 -0.018353742 -0.0049943547 -0.011652297 0.07050504
0.016543347 0.0078816535 0.008502574 0.0103289485 -0.078298256 -0.024981836 -0.11722659 -0.05311765
0.12061828 0.006722694 -0.060715333 0.0015498627 0.05875981 -0.038252283 0.07341624 0.09128465
-0.03446562 0.023739608 0.067983046 -0.043594226 -0.055459123 0.07000748 0.057874005 -0.04575708
-0.1247948 0.020807493 -0.09821847 -0.044833105 -0.02841451 -0.08997721 0.07068344 0.012366701
-0.08239258 -0.015790418 0.037987288 0.007222462 0.021613482 -0.13440402 -0.033188615 0.032095857
-0.07548386 -0.06768434 -0.034124505 -0.059043873 0.12031489 0.0031714912 0.094853714 0.05055256
0.00359864 0.28267333 -0.052752864 -0.072591074 -0.14690495 0.111378685 -0.0547334 0.12571925
0.068305284 0.05733555 -0.037350602 -0.05700957 -0.14723684 -0.07552343 -0.001034257 -0.11252287
0.026132263 -0.046621226 -0.0005238407 -0.09156665 0.02651116 -0.036502894 -0.094576955 0.0840718
-0.046673294 0.009212296 -0.074351065 -0.050739665 -0.02957537 0.074336134 -0.023906466 -0.053898524
0.037967093 -0.1482098 -0.03856899 -0.067494154 -0.0020211725 0.09776257 0.07550233 -0.021126866
-0.033652697 -0.08446758 0.0016038456 -0.03426121 0.10770727 0.08204006 -0.06568371 0.009314096
0.035527565 -0.08796108 0.12837172 5.824373e-05 -0.062329922 0.05318664 0.00970545 0.14355828
-0.08918474 0.054943115 -0.012050401 0.0028124922 -0.041297276 0.06510959 0.080478154 -0.037509605
-0.013023619 0.017888071 0.07820975 0.09107504 0.05590299 0.06481042 0.031136982 -0.02868171
0.005845531 0.08468509 -0.08472649 0.05900937 0.06026957 -0.06777329 -0.061111394 -0.021622377
-0.0006334648 -0.021234324 0.059135582 -0.07012803 -0.066474974 0.028038358 -0.03963467 0.027141923
-0.025451265 -0.031254757 -0.07792932 0.16274364 0.10396406 0.040898174 -0.03411982 0.023850305
-0.05263607 -0.010333985 -0.05878233 -0.06678053 -0.062873006 -0.07818884 -0.028869685 -0.10065189
-0.007203469 -0.091607325 -0.017941842 0.028433125 -0.033214033 0.032042656 0.0069786804 -0.010904936
0.013851899 -0.028682468 0.05752293 0.10463903 -0.10833528 0.03503089 0.057486005 -0.024482438
-0.024081057 0.0896856 0.11812998 -0.10067027 0.040681615 -0.08070817 0.062475286 -0.03871735
0.053475298 0.0833977 0.01541721 0.12948741 -0.043488856 -0.00017121837 0.12721176 0.10424054
-0.004695995 -0.0062646265 0.106519885 0.04792381 -0.12966228 0.0635599 -0.028764626 -0.16567114
0.007557088 0.08488929 -0.08740954 0.033704285 0.09667997 -0.021898376 -0.0033626978 0.022467425
-0.04722246 0.06742957 -0.043763038 0.06975311 0.078330025 -0.10545045 -0.05715085 0.08093079
0.005809803 0.10597871 -0.088610396 -0.057088748 -0.028241696 0.05380345 0.04828008 -0.13205205
00000000: 483e adbd e0f4 d9bc 372f 043d b6cf 9b3d
00000010: 95b3 ef3c c347 9cbd 0f28 adbd 9296 f63d
00000020: 0453 8d3c e330 513d 3bd2 35bd 923e 6d3d
00000030: 4999 223d 462a 84bc 7c51 583d 7e10 8ebc
00000040: cf4c 383d 8b62 28bd 3164 a0bc a0a7 493d
00000050: 11c1 33bd c6d5 c63d ad7c c73d e6c3 773d
00000060: 709d e03d 808b eebd c1a3 cabd 1dca dabc
00000070: 9f33 a23d 3f44 c4bc e32f 0dbd 8c82 d13d
00000080: d295 b43d 7802 653c f454 ad3d 80b1 87bd
00000090: 965a 96bc afa7 a3bb 47e9 3ebc f264 903d
000000a0: ea85 873c 0d22 013c 614e 0b3c c03a 293c
000000b0: d65a a0bd b5a6 ccbc 7f14 f0bd e591 59bd
000000c0: b706 f73d 0b4a dc3b a4b0 78bd c324 cb3a
000000d0: 20ae 703d 6dae 1cbd 415b 963d 72f3 ba3d
000000e0: d22b 0dbd 9179 c23c b23a 8b3d dc8f 32bd
000000f0: 1b29 63bd 1560 8f3d 4b0d 6d3d c76b 3bbd
00000100: 6b94 ffbd 7a74 aa3c c426 c9bd eba2 37bd
00000110: 8cc5 e8bc f945 b8bd 7bc2 903d b49d 4a3c
00000120: 71bd a8bd e85a 81bc 8f98 1b3d 67aa ec3b
00000130: c20e b13c 35a1 09be c9f0 07bd f276 033d
00000140: 4897 9abd 169e 8abd 23c6 0bbd fdd7 71bd
00000150: a767 f63d cbd8 4f3b aa42 c23d 3310 4f3d
00000160: 29d7 6b3b 8fba 903e 6313 58bd a1aa 94bd
00000170: 406e 16be 821a e43d 2130 60bd 8cbc 003e
00000180: a4e3 8b3d afd8 6a3d f2fc 18bd de82 69bd
00000190: 41c5 16be 07ac 9abd e88f 87ba 6472 e6bd
000001a0: 5413 d63c e6f5 3ebd 5b52 09ba 4c87 bbbd
000001b0: ef2d d93c 0f84 15bd 90b1 c1bd d62d ac3d
000001c0: 7f2c 3fbd 2cef 163c 5f45 98bd 65d4 4fbd
000001d0: 0c48 f2bc 8b3d 983d 7ed7 c3bc b3c4 5cbd
000001e0: 6283 1b3d 4fc4 17be 84fa 1dbd 603a 8abd
000001f0: a675 04bb be37 c83d f7a0 9a3d 4012 adbc
00000200: 69d7 09bd 57fd acbd 2138 d23a 7c55 0cbd
00000210: a195 dc3d 9e04 a83d 2e85 86bd 269a 183c
00000220: 5a85 113d f024 b4bd e073 033e bb4a 7438
00000230: a94d 7fbd 3cda 593d 9c03 1f3c f100 133e
00000240: 7da6 b6bd 080c 613d 0c6f 45bc ca51 383b
00000250: 5527 29bd 2d58 853d bbd1 a43d aca3 19bd
00000260: 0461 55bc 018a 923c 6f2c a03d 8d85 ba3d
00000270: 89fa 643d 53bb 843d fc12 ff3c e8f5 eabc
00000280: de8b bf3b 606f ad3d 1585 adbd cfb3 713d
00000290: 3add 763d b9cc 8abd f14f 7abd 6921 b1bc
000002a0: 1a0f 26ba 9bf3 adbc 2738 723d 499f 8fbd
000002b0: 0824 88bd b3b0 e53c f757 22bd bd58 de3c
000002c0: 2c7f d0bc fd04 00bd 6899 9fbd 45a6 263e
000002d0: 1ceb d43d d884 273d 39c1 0bbd b761 c33c
000002e0: eb98 57bd e04f 29bc bec5 70bd 3bc4 88bd
000002f0: 90c3 80bd 7821 a0bd 1e80 ecbc 9422 cebd
00000300: 140b ecbb 9f9c bbbd c5fa 92bc 96ec e83c
00000310: 700b 08bd 293f 033d 6aad e43b 9eaa 32bc
00000320: 13f3 623c 7ff7 eabc 2a9d 6b3d fd4c d63d
00000330: e3de ddbd 8d7c 0f3d 7276 6b3d 658f c8bc
00000340: a345 c5bc 15ad b73d 22ee f13d 372c cebd
00000350: c4a1 263d 534a a5bd 16e6 7f3d 1696 1ebd
00000360: ea08 5b3d 6acc aa3d 7798 7c3c 5998 043e
00000370: 5f21 32bd 1589 33b9 cd43 023e 107c d53d
00000380: dce0 99bb 7f47 cdbb 1927 da3d c24b 443d
00000390: 30c6 04be b12b 823d cba3 ebbc b2a5 29be
000003a0: 73a1 f73b 70da ad3d c603 b3bd 810d 0a3d
000003b0: 2600 c63d 3964 b3bc b560 5cbb 9b0d b83c
000003c0: 576c 41bd 8418 8a3d df40 33bd b8da 8e3d
000003d0: 7e6b a03d 68f6 d7bd 0217 6abd 0bbf a53d
000003e0: 2960 be3b 5e0b d93d 5e79 b5bd e4d5 69bd
000003f0: 215b e7bc 0261 5c3d 55c1 453d a738 07be
