models/eeg_only/s_10.pt (torch, 561186 bytes, 37 tensors)

band_attn.fc1.weight f4 [8, 5]
00000000: e4fa 4d3d e390 913e 743a d4bd ee18 6b3c
00000010: 126a 52bd 992f e73e 7d37 8d3e 9b8f d63e
00000020: 3e5b c0bd 8b30 78be ce5f c53e 6cf4 063f
00000030: 4142 b33e 664b a43c 4249 c13e 7041 28be
00000040: b90d e7be d694 8bbe a377 a03d 34d5 41be
00000050: 54cf c6be 2480 0ebf f004 82bc a7c3 09bf
00000060: 0ee9 bdbe cbac cd3e 9cdd cbbd 4a6f 84be
00000070: cfc5 833e e9c5 813e 9a63 0f3f 8a0c 933e
00000080: a4a2 e2bc cee1 ed3e 859f 803e 4c1c ed3e
00000090: eada 3d3e 9172 11be 966c dabe 3d41 99be
0.050288096 0.28430852 -0.103627115 0.014349205 -0.051370688 0.45153502 0.27581397 0.41906437
-0.09392403 -0.24237268 0.38549656 0.5271671 0.35011485 0.020055484 0.37751204 -0.16431212
-0.45127657 -0.2726199 0.07835319 -0.18928987 -0.38830054 -0.5566428 -0.015871495 -0.53814167
-0.3709187 0.40170893 -0.09954378 -0.25866157 0.25736853 0.25346306 0.56011355 0.28720504
-0.027665444 0.46461338 0.25121704 0.4631065 0.1854054 -0.1420386 -0.4266097 -0.29932585

band_attn.fc1.bias f4 [8]
00000000: 7bc6 c3bd 4d3b 9d3e c5b4 03bd 63fc 8dbe
00000010: d55f ecbe ead9 28be ba68 283e 5db5 dfbe
-0.095593415 0.30709305 -0.032154817 -0.27731618 -0.46166864 -0.16489378 0.164462 -0.43693057

band_attn.fc2.weight f4 [5, 8]
00000000: 77cd dabc 4d83 02be 6b73 b63d 07a3 70bd
00000010: e5b4 a53e 1b24 b3bd fc93 ba3d 1c1d 88bd
00000020: 9f9a 4abe b2ea a6be f21b e3bd 434e 2c3c
00000030: 54e5 80be 86e1 1ebf 9bfa 9fbd 829c 2bbd
00000040: f077 0abd 25eb e93d b654 a0bc 32d6 b6be
00000050: e04d cbbe b98c 5b3e c11f 99be 77e5 443e
00000060: 65f7 123d 88ea 903e d985 a43e d04c 823d
00000070: b565 b63e 9786 933e 3b59 e53e 94a8 fd3d
00000080: b5ed 26be 9f46 30bd 1f01 aa3e 9099 83be
00000090: e65b 0fbe 3911 c53e 723d b43d a0f5 083f
-0.026709301 -0.127454 0.08908733 -0.058749225 0.32364574 -0.08747121 0.09110257 -0.06646177
-0.19785546 -0.32600933 -0.110893145 0.010516706 -0.25174963 -0.6206287 -0.07811471 -0.041897304
-0.033805788 0.114218034 -0.019571643 -0.35710293 -0.3970785 0.214404 -0.2990704 0.19228159
0.035880465 0.28303933 0.32133368 0.06362307 0.3562447 0.2881362 0.4479464 0.12385669
-0.16301616 -0.0430361 0.3320398 -0.25703096 -0.139999 0.38489702 0.08800782 0.53499794

band_attn.fc2.bias f4 [5]
00000000: b220 abbd 2c19 b1be 4359 efbd d7be 9c3e
00000010: 044c 48bc
-0.083558455 -0.34589517 -0.11686947 0.3061435 -0.012225155

feat_proj.weight f4 [128, 21]
00000000: f422 46bd 4ff7 373e 6450 d6bd 83c5 82be
00000010: 13a3 1fbd a5be 69be 01f3 50be 6c74 c3bd
00000020: a580 b33c 6870 41be 0d89 6bbd 8128 143d
00000030: 91bd 893d 05bd afbd 635b c63d d08e 3c3e
00000040: c7af 82bc c528 15bd 1cb3 3d3e eaea 2dbd
00000050: d91d 343e 04aa 4dbe baf5 f23d a42c 7dbd
00000060: c35b 973c 3a08 8d3e d6fc 323e 5ede 1ebe
00000070: 0076 573d dcc4 e73d 133e 8abd 5777 4abc
00000080: bbc2 d4bd b029 80bd 4413 493e 8386 83be
00000090: e2fd 88bd fa35 813d 8bba babd 4651 a2bd
000000a0: d645 96be da9f 61bb 3f34 30be 67c9 44be
000000b0: 9630 a83d 4225 13be 7c76 0bbe 7e9a d43c
000000c0: 631b c9bd 368b df3d bc5b 16be 3dab 77be
000000d0: 69b3 c1bd a3e0 2dbc 20ea 123e 2944 abbd
000000e0: 661f 28be faa0 da3d a5c0 023e 1962 b3bd
000000f0: 7fc9 55be e017 873d 8f2e febb 91ff 89bd
00000100: 9188 02be 1575 3abd 1779 6a3e 1885 af3e
00000110: 0c4a 2e3d c3a4 c2bd ed2d 2a3d 353a 773e
00000120: 9743 edbc da41 6cbe 8387 b43c f63d 343e
00000130: dca2 07bd 41eb 97be 6b27 903b ae90 1fbe
00000140: f1d5 eb3d 9faa cb3d 5442 013e 660f 3d3e
00000150: d20d 3dbe eec1 87be 967c 343e 0dfa f1bc
00000160: e44d 9cbd a38b adbd c493 b13d 5b25 993d
00000170: 6228 cb3b b087 2bbe 7061 5bbd 6d86 473e
00000180: 999c cf3d 46e8 ca3c 742f d1bd 012d 99bc
00000190: ad59 b4bd 5001 7ebe 92ee 2dbe ec1d 8fbe
000001a0: d84d 9e3d 0781 043d a1a1 bcbc 5ff4 cb3d
000001b0: 58f6 a43e b7f2 a2bd 32d6 5abe c08e 113d
000001c0: 204d 00bd 07d9 2cbe 0447 823e d99e 623e
000001d0: 9d18 7bbd 868f f73d 6e02 4a3d 5a14 35be
000001e0: 38f1 083e e26d f1bc c4a7 4b3e 1849 ad3d
000001f0: 0d10 66bd a053 123e e987 9bbd 5236 053e
00000200: e5bc 333e 3b3a 873d 3741 cf3d 2b15 f3bd
00000210: 031c f8bd 9211 ee3d 21c0 373e 4aa5 41be
00000220: 61b4 ae3d fb24 0a3e 3165 bbbd c768 203d
00000230: f0f1 303d 766a 163e 9ffb 4b3e e163 c0bd
00000240: b6ad a1bc 8347 5dbe 1bd7 b03d 6a70 ddbd
00000250: b779 23be 6910 833c 0a66 0cbe 6374 b2bd
00000260: a86a d23d 502e 7c3d 4b60 f63d faf9 31bd
00000270: a98f ea3b de30 fe3d 4626 e33d 5ceb 0abe
00000280: b94f 883d 8efa 483e da33 ebbd 2f48 fe3c
00000290: a01b 29be 93d9 6bbe cce4 143e 636e dabd
000002a0: ec02 f53d 4f8a 3d3e 28a3 d0bc e3f8 90bd
000002b0: 30dd 04be c818 28be d9c5 c5bd c232 ab3d
000002c0: 3a0c d2bd 95a7 55be abe8 f13d 9e5b 8d3d
000002d0: cb50 803c c8f4 5f3d 3fed 85bb b729 21bc
000002e0: 52cc 1abe 2df8 623e ae22 9bbd 0872 07be
000002f0: be9c 713e 38c6 01bd 8daa 93bb 4cf8 5b3d
00000300: bd9f 2a3d ea53 4f3d 2fa5 33be c797 f5bd
00000310: 6ded 953c 6177 463d c278 213d f46c bb3d
00000320: b144 24be ec81 503d d7d4 363e 45fe ebbc
00000330: fff5 1a3e 5c10 d83a 7049 41be 960a 63bd
00000340: da0f 293e 4b52 30be 1e80 e2bd 9671 52bd
00000350: b224 6f3d 37fd 8f3d e4b1 323e 24cb 5c3e
00000360: 158e 7b3e ff7f 443e 73d6 ee3d 8a4b 133e
00000370: ecc2 7ebc 322a 38be f202 2cbe cc97 9abc
00000380: d9e5 033d 918e 0cbe 9335 673d f867 b03d
00000390: 4050 47bd 4a77 f9bd 6a07 003e b88b 8a3d
000003a0: 5436 63be 0f98 5bbd 5823 0a3e 2b06 f63d
000003b0: e8eb 4c3e 7160 adbc c47a 09be 336e 1bbe
000003c0: 9ac1 15be 0f76 e83c c725 b3bc 1298 833a
000003d0: b415 8dbd 2425 03bc 184b 2dbe 47f3 1ebe
000003e0: 4ce6 a33d d3f6 c43d 2320 83be e38c da3d
000003f0: 88b5 b33d ddf6 7dbb 9c11 6d3e 8740 063d
-0.048373178 0.17965434 -0.10464552 -0.25541314 -0.03897388 -0.22826631 -0.20405199 -0.0954369
0.021911928 -0.18890536 -0.05750375 0.03617144 0.0672561 -0.085809745 0.096853994 0.18413854
-0.015952958 -0.036415834 0.18525356 -0.04246036 0.17589511 -0.20084387 0.11863275 -0.06181015
0.018476373 0.2754534 0.17479262 -0.15514514 0.052602768 0.11316845 -0.06750121 -0.012357554
-0.103887044 -0.06257951 0.19636256 -0.25688562 -0.06689049 0.06309123 -0.091176115 -0.07925658
-0.29350156 -0.0034427554 -0.1720743 -0.19217454 0.08212392 -0.14369681 -0.13619417 0.025952574
-0.09819677 0.10915224 -0.14683431 -0.24186416 -0.09458048 -0.01061264 0.14347124 -0.0836261
-0.16418228 0.10675235 0.127688 -0.08758945 -0.20877646 0.06596351 -0.007757015 -0.067381985
-0.12747408 -0.045521814 0.22897755 0.3428123 0.042551085 -0.09504082 0.041547704 0.24143298
-0.028962893 -0.23071995 0.022037273 0.17601761 -0.0331143 -0.29671672 0.0043992302 -0.15582535
0.115154155 0.09944653 0.12622958 0.18462905 -0.18462303 -0.26515144 0.17625651 -0.029538179
-0.07632044 -0.08473899 0.08670762 0.07477828 0.0061998824 -0.1675098 -0.05355972 0.19484873
0.101372905 0.02476896 -0.10214129 -0.018698217 -0.08806167 -0.24805188 -0.16985539 -0.27952516
0.07729691 0.032349613 -0.02302629 0.099587195 0.32219195 -0.079564504 -0.21370772 0.035536528
-0.031323552 -0.16879664 0.25444806 0.22130908 -0.06130277 0.12087922 0.049318723 -0.17683545
0.13373268 -0.029471342 0.19888216 0.08461207 -0.05616765 0.14289713 -0.07594282 0.13009003
0.17552526 0.066029035 0.101198606 -0.11869272 -0.12114718 0.11624445 0.17944385 -0.18910709
0.08530498 0.1349067 -0.0915016 0.039162423 0.04319948 0.14689049 0.19920205 -0.093940504
-0.019736152 -0.21609311 0.08634778 -0.10812457 -0.159644 0.015999036 -0.137108 -0.08713605
0.10274249 0.061567605 0.12030085 -0.043451287 0.007158239 0.124116644 0.110912845 -0.13566345
0.06655831 0.19626829 -0.11484499 0.03104028 -0.16514444 -0.23032217 0.14540404 -0.10665586
0.11963448 0.18509792 -0.025468424 -0.070787214 -0.12975001 -0.16415703 -0.09656877 0.08359291
-0.10256238 -0.20864709 0.11811956 0.0690224 0.015663525 0.0546768 -0.00408712 -0.009836606
-0.15117005 0.22164984 -0.07574974 -0.13227093 0.23594949 -0.031683177 -0.004506415 0.05370359
0.041656245 0.050617136 -0.17543481 -0.1199184 0.01830169 0.048453692 0.039421804 0.091516405
-0.16041829 0.050905153 0.1785463 -0.028807769 0.15132903 0.0016484368 -0.1887567 -0.055430017
0.16509953 -0.17218892 -0.11059593 -0.051377855 0.058384605 0.07030719 0.17450672 0.21561867
0.24565919 0.19189452 0.11661997 0.14384285 -0.015549403 -0.17984846 -0.16797999 -0.01887121
0.03220162 -0.1372626 0.056447577 0.086135805 -0.048660517 -0.12180956 0.12502828 0.067649305
-0.22188693 -0.05361181 0.13490045 0.12012895 0.20011866 -0.02116415 -0.13425738 -0.15178756
-0.14624634 0.028376607 -0.0218686 0.0010039827 -0.06888905 -0.0080044605 -0.16923177 -0.1552249
0.0800291 0.096173905 -0.25610456 0.10671403 0.08774859 -0.0038751878 0.23151249 0.03277638

feat_proj.bias f4 [128]
00000000: 67f5 863d e9cf 88bc 4643 7bbd fd0d 86bd
00000010: ca43 1abe 3387 c93d 4fc0 47be ded8 253c
00000020: 41dd 60bd 5324 fd3d 3289 043e 0849 1ebe
00000030: 0edd 683e 8d67 0b3e f3a9 f23d 68da ea3d
00000040: 3624 1fbe 487e 253e 72bd c9bd f26d e0bd
00000050: 062c 8fbd 56f4 bcbd ad1b 103e b174 873d
00000060: 5e82 153e 4618 8c3d 9b6e d43c 0cd8 4fbe
00000070: 80ae 2fbe 9881 27be 7ab2 dfbd 7e88 72be
00000080: 2b47 0d3e 9356 efbd 3a21 1e3e 7ad9 0dbe
00000090: 72cf 2d3d abb3 213d 7bbe 88bd 7a9f 03be
000000a0: f1af cebd 45ea 23be 88a5 adbd c8a2 cfbd
000000b0: 93e0 383e 1aa0 9b3c 958b c8bd ef64 233c
000000c0: 3c42 ac3d d6ac 1a3e fa88 5e3c 8ef8 1dbe
000000d0: 3485 213e f209 293e ffaf 4e3e b2da 9a3d
000000e0: 7b26 083e 943a 1fbe 1220 47bd 1e85 e53d
000000f0: b690 193e 2f03 a53d 9dfd 1ebe b150 1b3c
00000100: d0d5 623d 7668 523d 02ac a63d 0ac3 0cbe
00000110: 9110 853d 6432 78bd 27e2 35be e2d6 a5bd
00000120: 21a5 143e d7e0 393e 4909 3ebe 5e5e 77be
00000130: 25dc b3bd a8ed d1bd f211 503d ce2b 4fbe
00000140: 638e 9e3d 2c32 50be 7e09 ecbd 1997 ee3d
00000150: bf78 bfbd ff2e 95bd 0ba8 383e 59e8 60be
00000160: 7d4e 203e cde9 32be 1417 303e bd8f ec3d
00000170: 22fc 353d d34f 34be 1655 6a3d 9a94 a83c
00000180: 020c ffbd 2bfc 243e bd1f 88bc 7d06 f5bd
00000190: c429 213d fc05 3dbe 9c06 22be 9f6c 053e
000001a0: 2af4 7ebd 06ba 3a3e c280 903d a93e 93bc
000001b0: eb43 0abe e4fa 55be e586 acbd c3cb 663d
000001c0: d3ca 193e ed20 6a3d 0eed 8fbd a703 87bd
000001d0: 5898 1f3e 4415 81bd 8bfe 24bd 3691 eebd
000001e0: 67f2 04be 9ef4 11be 2798 003d 7cb9 0d3e
000001f0: 7572 0e3e 86d5 2bbd d1de 29be bc4c e63d
0.065897755 -0.016700702 -0.061343454 -0.06545637 -0.15064922 0.0984024 -0.19506954 0.010122506
-0.054898504 0.12360444 0.12942961 -0.15457547 0.22740576 0.1361372 0.118488215 0.11467439
-0.15541157 0.16161454 -0.09850587 -0.109584704 -0.06990819 -0.09226291 0.14073057 0.06614054
0.14600512 0.06840567 0.025931647 -0.20297259 -0.1715641 -0.1635803 -0.109227136 -0.2368488
0.1379668 -0.116864346 0.15442362 -0.13852492 0.042434163 0.039477985 -0.06676956 -0.12853804
-0.10092152 -0.16007335 -0.08478838 -0.1013847 0.18054418 0.01899724 -0.09792248 0.009972795
0.08411071 0.15104994 0.013582462 -0.15426847 0.15773469 0.165077 0.20184325 0.07561244
0.13295929 -0.1554969 -0.04861457 0.11207031 0.14996609 0.08057248 -0.15526433 0.009479688
0.05537969 0.051369153 0.08138277 -0.13746276 0.064973004 -0.06059493 -0.17762052 -0.08097626
0.14516117 0.18152176 -0.1855823 -0.24157092 -0.087822236 -0.102504075 0.050798364 -0.20231554
0.07742002 -0.20331639 -0.11525248 0.11649913 -0.09349202 -0.072843544 0.18032853 -0.21963634
0.15654941 -0.17472 0.17196304 0.115508534 0.044429906 -0.17608576 0.05721005 0.020578671
-0.12453462 0.1611182 -0.016616696 -0.11964128 0.03934647 -0.18459314 -0.15822834 0.13029717
-0.06224457 0.18235025 0.070558086 -0.017974215 -0.13502471 -0.20896488 -0.084241666 0.056346666
0.15018778 0.057160307 -0.070276365 -0.065924935 0.15585458 -0.06302884 -0.040281814 -0.116487905
-0.12983094 -0.1425347 0.031395104 0.13840288 0.1391085 -0.04195168 -0.16588904 0.11245105

local1.conv.bias f4 [128]
00000000: 7115 123d 1cf8 103d b441 e53c 204c b33c
00000010: 32b5 95ba 0216 13bd 29ec f23c af40 edbc
00000020: fa18 dd3c 73e6 003d c5ec cd3b e30e d43a
00000030: d31a d839 9bb0 a63c bd30 733c b149 f2bc
00000040: c2f4 d83c d1d7 6cbc 4dc4 143c e371 d8bb
00000050: 3a3f 143c 7328 163c 250b 143d 2cf2 ac3c
00000060: f38a f1bb 2832 023d a0e1 193c 4638 823d
00000070: 45f2 01bd f2e7 e73b 1e35 30bd 9afa b8bc
00000080: bab3 243c dfd0 c13b 8682 393d 0af6 c43b
00000090: c88f 723c 3f9e 49bb 5664 303c 7d87 2ebc
000000a0: 6e35 11bc c7f9 13bd 61e9 8b3c 426f 0c3c
000000b0: fd47 bfbb 98b4 003c 7079 0cba a24c 27bc
000000c0: f020 cc3b 0b77 9c3c 7bdd 05bc 3aeb d23b
000000d0: 9ea0 283c 4383 6fbc cf35 74bc 6efa 37bd
000000e0: 7d36 a0bc eb94 c5ba 3184 e83b 6b77 1dbc
000000f0: 4e3d ac3c d3d6 09bd 43de 6b3c a2ea 793c
00000100: 2af1 f33c 389a 07bd f418 a03b 1a00 953c
00000110: 9ec0 b53b f869 963c 0230 b7bc 2142 363b
00000120: 0809 e6bc f951 97bc 1a0d 443c 5e0d 863b
00000130: a96a cfba 393e fa3a 5b65 e5bb 4901 e4bc
00000140: cac7 af3a 1d23 033d 182b 0bbc 44ed 943c
00000150: 6419 233c 99f8 d6bc b7ae 36bb 9bd8 b53c
00000160: 9792 45bc b6cb 00bd 6294 e1bc e80d 043c
00000170: 4b65 373c e8fc 49bc a20a 863d 255d 8ebc
00000180: 35da ab3c 4abf e13b 7bc0 4cbc 96c3 dbb9
00000190: 9dc4 003c 22d0 5bbc 998c ca3c f153 05bc
000001a0: 22a0 213c 245e 7abc c872 983b 5cff 82bc
000001b0: 0257 08bc f92c 4ebb 59e6 d03a 989b 333c
000001c0: 3de1 853c 90fb 223d 9321 6cbc c760 b43c
000001d0: 3667 40ba 6836 ff3b 84c3 6f3c 0b19 ac3c
000001e0: 5db5 01bd d526 e1bc de4c 513c 3118 393d
000001f0: 315c 2a3d ff36 d23b fcc6 8e3c 69fe 203b
0.03566498 0.035392866 0.027985431 0.021886885 -0.0011421798 -0.03590966 0.029653626 -0.028961508
0.026989449 0.031469774 0.0062843286 0.0016178753 0.00041218716 0.020347884 0.014843163 -0.029576154
0.026483897 -0.0144557515 0.009080005 -0.006605373 0.0090482775 0.009164917 0.03614344 0.02111157
-0.0073713004 0.031786114 0.009392172 0.063583896 -0.031725187 0.0070772106 -0.043019406 -0.022580434
0.010052616 0.005914792 0.045290492 0.0060107755 0.014804788 -0.0030764488 0.010766109 -0.01065242
-0.008862836 -0.036126878 0.017079057 0.008571448 -0.005837439 0.007855557 -0.0005358672 -0.010211142
0.0062295124 0.019099733 -0.008170481 0.0064367326 0.0102922 -0.014618698 -0.014905407 -0.044916563
-0.019557232 -0.0015074288 0.0070958366 -0.009610991 0.021025326 -0.033652138 0.014396253 0.015253695
0.029778082 -0.03310606 0.004885787 0.018188525 0.0055466434 0.018361077 -0.02236176 0.0027810412
-0.028080478 -0.018471705 0.011966014 0.004090949 -0.0015824634 0.001909203 -0.007000608 -0.027832644
0.0013410982 0.03201591 -0.008494161 0.018179543 0.009954784 -0.026241587 -0.0027875134 0.022198012
-0.0120588755 -0.031444274 -0.027536575 0.008059956 0.011193584 -0.012328364 0.06544997 -0.0173784
0.020978073 0.0068892585 -0.012497063 -0.00041916658 0.007859376 -0.013416322 0.024725245 -0.008137689
0.009864839 -0.015281234 0.004652355 -0.015990905 -0.0083215255 -0.0031459911 0.001593779 0.010962389
0.016342754 0.03979069 -0.014412302 0.022018803 -0.00073395984 0.007788468 0.014634017 0.021008035
-0.031667102 -0.027484337 0.012774674 0.045189086 0.041591827 0.0064152475 0.017428868 0.0024565703

local1.conv.lin.weight f4 [128, 128]
00000000: f82f afbd 5bc2 f93d 72ad 04bd 8d6d 0abe
00000010: 1565 e13d 8bb2 7d3d ab81 ffbd 1716 2bbe
00000020: 9e3e 033d 9874 c6bb 49cd a03d f896 a3bb
00000030: 19a9 91bd a93a 2b3e 27a0 843c b4e5 02be
00000040: 0047 c4bd 5f43 193e 907c ca3d 37bb 81be
00000050: 5b02 5fbd 06d0 19be fc84 acbc 66a9 e83d
00000060: 48ec 87bd e122 2b3e c95b be3d dc47 b23d
00000070: 3c23 3e3d e0a3 d7bd f806 12be 9926 653d
00000080: ff7e 223e bcb0 273e dc95 c23d 831e 2fbd
00000090: 2913 2fbd 6587 f63c 26b4 7e3d 3dd3 d43c
000000a0: 3229 dc3d 1cd5 e53c ed25 32be 3cf1 583d
000000b0: 2359 1e3e f2de 4b3c 41ab 413a 999a 1b3e
000000c0: 2bad 9e3d a43e 69bd 404e 2abc b0d5 14bc
000000d0: 36e5 153d 672f 373e d513 2fba ac91 afbd
000000e0: 19af a5bc b5e1 473c 2648 923d d45b 143c
000000f0: 485b e2bd 12b3 ca3d 45b6 fbbd f86d 283c
00000100: f4d6 f9bd db77 f6bc 973d 613d 06b8 c5bc
00000110: fc49 93bd da56 08be e9d4 3a3d a9aa 4c3d
00000120: 967a c43d 7887 1cbe 724e d33b cf13 163a
00000130: f5ca cbbd bcb1 323d 25ab a53c 43f5 0eba
00000140: c570 efbd 0133 02bd 6859 1c3d ab3c 40bd
00000150: 6f0c 38bc 8065 18be a5bc 6cbd 60e1 29be
00000160: 601a ee3d 9436 22bb 9dea 0ebc 4260 823d
00000170: 363c b8bd 2424 acbd 439a ccbc f9eb 853d
00000180: c47d b73d db3b cd3c 1e53 c7bb 3273 70bd
00000190: c630 513d 8546 0abd 2ef6 78bb 2e96 c8bd
000001a0: 165e 12be ea4a 59bc c236 05be 3001 9d3d
000001b0: 8b5f 18be 5bb1 05be bdab c03d 6c5e 003e
000001c0: edf0 e03d 55be 2f3c 4d5a ddbd 8b6b 94bc
000001d0: 8c38 333e 3391 0c3c 1ef6 d7bd 7bc4 2e3d
000001e0: 0972 eebd 9140 18be 7572 1f3e 7b78 9bbd
000001f0: 22b2 92bd 4bfc 74bd c640 24be 1c5e b3ba
00000200: 8884 0fbe 5f45 04be 04d8 113d 5a27 84bd
00000210: bab5 27bd 35cf 103e 3bb4 ecbd 598d 84bc
00000220: c0b7 e1bd 1d70 6c3d 6d6b cb3d c4ce cbbd
00000230: 0a8e e63c 243b e0bd 3cca d5bd 1a33 af3c
00000240: cee9 813d 5a82 2cbe d89c 913c 47ca 2bbe
00000250: c438 e1bd 10a0 bdbd 107f 0d3d 1120 073e
00000260: 7935 94bd 476e 0d3e b825 023d ca55 e0bd
00000270: 8f43 603c 06e6 c0ba c26d 90bc 4212 77bd
00000280: 0094 b0bc e6aa edbc 68f5 c4bd 25cf 84bd
00000290: 04de 3d3c 2eaf 073e 3e7a 933b 0072 0c3e
000002a0: fd7d 6e3c ea76 41be 9b98 813c 249b a73d
000002b0: ca6e 8f3d 713a 333e f97f 99bd 019b f93c
000002c0: 2969 0f3e 1cb7 98bd a10d 9d3d d679 943d
000002d0: ab17 ba3d 2c81 7c3b 899c 0c3e 0597 a8bd
000002e0: 2bf1 e03d f7c2 68bc eee4 173e ebac e7bb
000002f0: 2c38 c0bd 70d6 ecbd d1ea e1bd b908 bd3d
00000300: 768e b2bd 2d98 81bd 0006 92bd e459 bbbd
00000310: 1957 e2bd ddbf 0e3e ec6a 25bc 5dca 123c
00000320: cf9a 6e3d 47be 8e3d 0dcf 0dbe da93 6d3c
00000330: 99f0 1f3d 9f7e 03be 28bf 09bd 4c17 09be
00000340: 6b45 1bbd 2340 a23d 30c8 90bd 789a a83d
00000350: b3b0 a0bd d058 64bd 7b97 0fbd 3b9b c0bd
00000360: 1340 103d e6ab 12be 0254 0b3d 2298 0ebd
00000370: 6ab7 a9bc d3d0 1cbe 306c 1a3d c10e 6038
00000380: 1f51 a03d 351e 993d 0c3c cdbd 95f1 e8bd
00000390: d5ec 29be 03f0 04be 52c1 33be 6cdd a83b
000003a0: 4f7b 923d dc7d a03d db1f e63c be66 053e
000003b0: 74ae 743d 6cd0 edba 3451 b1bc 4f5c abba
000003c0: 829e dabd 62a1 8dbc 7432 ee3d bd9f 3cbe
000003d0: 700f 053e e0c6 d93d 9435 953d 321d 443d
000003e0: 8481 99bd 4864 cbbd 336c 343e 2f3e 0cbd
000003f0: fa0f 7f3c 039e 123d 211d 493d df4a fd3d
-0.08554071 0.121952735 -0.032391973 -0.13518353 0.11005608 0.06193785 -0.12475904 -0.16707645
0.03204214 -0.0060563795 0.07851655 -0.004992362 -0.07112331 0.16721596 0.016189648 -0.12782937
-0.09583855 0.14967106 0.0988704 -0.25338146 -0.054445606 -0.15020761 -0.021059506 0.11360435
-0.06636864 0.16712524 0.092948504 0.08705112 0.04642032 -0.105293036 -0.14260471 0.055945013
0.15868758 0.16376013 0.0950124 -0.042753708 -0.042742882 0.030093858 0.06218352 0.025979633
0.10750045 0.02805572 -0.1739728 0.052964434 0.1546369 0.012443291 0.00073878845 0.15195693
0.07747873 -0.056944504 -0.010394633 -0.00908415 0.036595546 0.17889176 -0.00066786754 -0.085727066
-0.020225095 0.012199809 0.071426675 0.009055097 -0.11052567 0.09897436 -0.122906245 0.010280125
-0.12199202 -0.030086448 0.054990377 -0.0241356 -0.07191846 -0.13314381 0.045613203 0.04996744
0.09593694 -0.15286052 0.0064485604 0.00057249976 -0.0995082 0.043626532 0.02022321 -0.0005453417
-0.11691431 -0.031786922 0.038171202 -0.046932857 -0.011233433 -0.14882469 -0.057797093 -0.1658988
0.116261244 -0.002475177 -0.008722928 0.06366016 -0.08995859 -0.08405331 -0.024975901 0.06539149
0.08959535 0.025052955 -0.0060829064 -0.05870361 0.051071905 -0.03375866 -0.0037988531 -0.097942695
-0.14293703 -0.01326249 -0.1300917 0.07666242 -0.14880197 -0.13055937 0.094077565 0.12536019
0.10983453 0.010726531 -0.10808239 -0.018117687 0.1750204 0.00857954 -0.1054499 0.042667847
-0.11642844 -0.1486838 0.15571006 -0.07591339 -0.071628824 -0.059810918 -0.16040334 -0.0013684663
-0.140154 -0.12917088 0.0356064 -0.06452818 -0.040944792 0.14141543 -0.11557814 -0.016180681
-0.11021376 0.057724107 0.09932599 -0.09951547 0.028143901 -0.1094878 -0.10438964 0.021386672
0.06343423 -0.168466 0.017774984 -0.16776381 -0.10997155 -0.09259045 0.034545004 0.13195826
-0.072367616 0.13811599 0.031774253 -0.10953863 0.013687982 -0.001471699 -0.017630462 -0.060320146
-0.021554947 -0.029012155 -0.0961712 -0.06484822 0.011588577 0.1325042 0.0045006564 0.13715363
0.014556405 -0.18893018 0.015819838 0.081838876 0.07003553 0.17502762 -0.07495112 0.03046942
0.14004959 -0.074568 0.07668615 0.07249801 0.090865456 0.003852914 0.13731588 -0.0823193
0.10983499 -0.0142066395 0.14833423 -0.007070174 -0.09385714 -0.11564338 -0.11031116 0.09230179
-0.087185785 -0.06327853 -0.07130051 -0.09148005 -0.11051769 0.13940378 -0.010096293 0.00895938
0.058253106 0.06969886 -0.13848515 0.014500583 0.03904781 -0.12841271 -0.033629566 -0.13387793
-0.037908 0.07922389 -0.07069433 0.082325876 -0.07846203 -0.05574876 -0.035056572 -0.09404608
0.035217356 -0.14323387 0.034015663 -0.034813054 -0.020717341 -0.15314035 0.037700832 5.3419502e-05
0.078279726 0.07476465 -0.10021219 -0.11374203 -0.1659425 -0.12982182 -0.17554215 0.0051533487
0.071524255 0.07836506 0.028091362 0.13027474 0.059736684 -0.001814378 -0.021645166 -0.0013073775
-0.10674764 -0.017288867 0.11630717 -0.1842031 0.1299417 0.106336355 0.0728561 0.047879405
-0.07495406 -0.099312365 0.176194 -0.03423899 0.015567774 0.035795223 0.049100045 0.12367796

local1.norm.weight f4 [128]
00000000: ac91 783f f391 753f d149 6d3f f2d2 6e3f
00000010: 42af 753f 4c41 833f a1dd 6c3f cb8e 8e3f
00000020: c678 7d3f 9a73 843f 9114 893f 6a47 853f
00000030: e113 823f 3094 843f 2013 6e3f 8efc 803f
00000040: c761 8c3f 02cd 863f 273d 7a3f 3684 823f
00000050: aff5 803f 16a6 7c3f 9f14 7a3f 10fb 5f3f
00000060: 0e30 893f 8a35 753f 120e 833f 32d9 5a3f
00000070: 41f8 843f 32ad 7d3f e28d 823f b83e 803f
00000080: 9b60 6b3f a30a 7a3f bbd7 803f f2ad 803f
00000090: 10d4 773f 7390 743f 4522 843f e9dd 903f
000000a0: 6fac 833f 663c 823f bad8 7b3f d30f 873f
000000b0: 4f19 883f f2ca 803f 0439 7b3f a57a 803f
000000c0: dc47 733f 2884 7e3f 244d 813f 8b31 853f
000000d0: 9e98 753f 1635 7e3f 3c81 7e3f bbf0 863f
000000e0: eb2d 823f a5d6 803f e711 713f 424f 843f
000000f0: dd80 763f 2ff2 853f 8145 893f 4ae5 763f
00000100: c3b6 793f e385 8c3f d651 7c3f e40e 733f
00000110: 2871 8c3f abf4 833f 26e0 813f 8c13 7a3f
00000120: a91b 873f 2c35 813f f2fc 763f 6231 793f
00000130: 1508 7c3f 497a 713f 54b9 7b3f 2f3c 7f3f
00000140: 042a 723f 4b74 7b3f 709b 853f 33b4 773f
00000150: 2afc 733f 6871 813f 2475 823f 37f6 7c3f
00000160: 980b 8c3f 8e86 863f 70be 803f 83ed 763f
00000170: 42ff 6c3f 11a9 7e3f 5956 793f 246c 813f
00000180: 72bb 743f 289d 743f 4f07 883f 1409 873f
00000190: 8eab 703f 1015 823f 4388 723f 23a0 7a3f
000001a0: 9e67 793f 63ca 763f 8e5d 8a3f 34b6 843f
000001b0: d2d7 823f 439e 853f 68af 833f 9a8b 873f
000001c0: 72e5 833f 3d30 793f 1471 7c3f 1fc8 763f
000001d0: 3738 843f e59d 773f a2de 803f 4889 823f
000001e0: f6ae 883f 11c7 843f b1ff 773f 7b24 7f3f
000001f0: 13bc 6c3f 7b1e 803f 971a 773f 6621 863f
0.9709728 0.95925826 0.9269076 0.93290627 0.9597055 1.0254302 0.9252568 1.1137327
0.9901241 1.0347779 1.0709401 1.0412419 1.0162317 1.0357723 0.9299793 1.0077074
1.0967339 1.0531313 0.9774956 1.0196598 1.0074977 0.9869093 0.97687715 0.87492466
1.071779 0.9578482 1.0238669 0.85487664 1.0388261 0.990924 1.0199549 1.001914
0.91944283 0.9767248 1.0065836 1.0053084 0.96807957 0.9553291 1.0322958 1.1317722
1.0286998 1.0174682 0.98377573 1.0551704 1.0632724 1.0061934 0.98133874 1.0037428
0.95031524 0.99420404 1.0101666 1.0405744 0.95936 0.9929975 0.99415946 1.0542215
1.0170263 1.0065504 0.9416794 1.0336688 0.9629038 1.0464534 1.0724336 0.9644362
0.975445 1.0978359 0.9856237 0.94944596 1.0972033 1.0309042 1.014653 0.97686076
1.0555316 1.0094352 0.96479714 0.9734098 0.9844983 0.9432722 0.98329663 0.9970121
0.9459536 0.98224324 1.0438061 0.9675934 0.95306647 1.0112734 1.0191998 0.98813194
1.0941038 1.0509813 1.0058117 0.96456164 0.9257699 0.99476725 0.9739738 1.0111127
0.9559852 0.955523 1.062723 1.0549645 0.9401177 1.0162678 0.9473917 0.979006
0.9742373 0.9640257 1.0809801 1.0368104 1.0222113 1.0438923 1.0287905 1.0589478
1.0304396 0.9733923 0.98610044 0.9639911 1.0329655 0.967253 1.0067942 1.0198145
1.0678394 1.037325 0.9687453 0.9966504 0.9247448 1.0009302 0.9652495 1.0478942

local1.norm.bias f4 [128]
00000000: 7465 76bd b886 53bd a32f d3bd 73eb f4bd
00000010: cbe9 f7bd 052f 5abd 0424 c7bd 3fed f2bc
00000020: 291a 59bd 24ac cabd 96fc e3bc 01a3 bebc
00000030: af53 91bd bee8 62bd a48c bcbd 0b3e 5bbd
00000040: 5cef 0abd 864b 9bbb 5fc6 a4bd 2d87 74bd
00000050: 9390 00be da4f ccbd 2d59 d0bd ca3b edbd
00000060: a021 2abd 29d1 85bd 78f6 16bd 0951 22be
00000070: eda0 27bd 8a52 85bd b1df 76bd a975 41bd
00000080: db6b b3bd 9bdb 98bd bb1d 13bd ff67 b2bd
00000090: 523c 68bd e56f b7bd 45a9 3cbd ac0d f4bc
000000a0: c7d7 78bd e156 33bd 688d c5bd 4385 93bd
000000b0: cc2b 33bd 9884 07bd 4b02 a0bd 171f 3cbd
000000c0: 4d7c 84bd 5254 20bd cab5 17bd ad58 a3bd
000000d0: 4220 a7bd 425f 04bd e6f6 bdbc 781c 55bd
000000e0: eb15 13bd 2a5e e1bc c2ce 8bbd d0a1 0bbd
000000f0: dc13 c4bd c7f4 b1bc 70df 1ebd 93a5 90bd
00000100: c67d 67bd 45a7 01bc c47e 28bd 29e4 78bd
00000110: 9a3b 26bd 1c9b b6bd 0736 8cbd d926 89bd
00000120: 058e dcbd 1e43 78bd 9520 79bd 455a aebd
00000130: e855 82bd 4400 abbd e25a 79bd 6446 b0bd
00000140: e509 cbbd dec2 afbd f940 00bd 4ef2 8fbd
00000150: c04e e7bd 0831 bfbd bf71 99bd ef8c 93bd
00000160: 0e0f 3ebd a156 96bd 3a91 67bd 4f48 c9bd
00000170: 411c 4fbd 6673 23bd 2ba9 c7bd 1c7d 86bd
00000180: 1c16 7cbd 7bd9 8fbd 5db4 34bd 344b f9bd
00000190: b4cc ccbd badc 8abd 1d75 8abd 201c 87bd
000001a0: 525f 90bd 7e49 06bd cc48 54bc f410 89bd
000001b0: 306a 51bd 1125 3cbc 5d98 e9bc 0d2e e3bc
000001c0: 0fdf bebd 7a9a 19bd 0b94 7fbc 0a6d 6bbd
000001d0: d751 6ebd 7234 98bd 81f2 acbd 1009 48bd
000001e0: 035c 74bc c6fd 8dbd bc54 a3bd bfeb 61bd
000001f0: 52e8 e9bd 36c9 70bd df07 a8bd 7885 4ebd
-0.060155347 -0.05164215 -0.1031182 -0.11958971 -0.12105139 -0.053267498 -0.09723666 -0.029654143
-0.053003464 -0.098961145 -0.027830403 -0.023271086 -0.070960395 -0.05539774 -0.092065126 -0.053525966
-0.033919677 -0.0047392277 -0.08045649 -0.059699226 -0.1255515 -0.09976168 -0.10173259 -0.115836695
-0.041535974 -0.06534035 -0.036856145 -0.15851225 -0.040924955 -0.06509884 -0.060271922 -0.04723135
-0.08760806 -0.074637614 -0.035917025 -0.08711242 -0.05669815 -0.08956889 -0.046059866 -0.029791676
-0.060752656 -0.043784026 -0.09646112 -0.07203152 -0.04374294 -0.033085436 -0.07812937 -0.045928087
-0.06469021 -0.039142914 -0.037038602 -0.07975898 -0.081604496 -0.032317407 -0.02318902 -0.052029103
-0.035909574 -0.027510721 -0.06826545 -0.034089863 -0.095741004 -0.021723164 -0.038787305 -0.07062831
-0.05651643 -0.007913415 -0.041136518 -0.060764465 -0.040584184 -0.089163035 -0.068462424 -0.06696863
-0.107692756 -0.060610883 -0.06082209 -0.08513311 -0.063640416 -0.0834966 -0.06087769 -0.08607176
-0.099139966 -0.0858209 -0.031311963 -0.07028638 -0.11294317 -0.09335524 -0.074923985 -0.07204615
-0.046401076 -0.07340742 -0.056534983 -0.09828245 -0.050564054 -0.039904974 -0.09749063 -0.065668315
-0.061544523 -0.07023903 -0.04411732 -0.12172547 -0.099999815 -0.067803815 -0.06760619 -0.06597161
-0.07049431 -0.03278493 -0.012956809 -0.06692687 -0.05112666 -0.011483447 -0.028515035 -0.02773192
-0.09319889 -0.037500836 -0.015599261 -0.057477035 -0.058183517 -0.07431878 -0.084446914 -0.048836768
-0.014914515 -0.06933169 -0.07975146 -0.055156466 -0.11421265 -0.05878564 -0.08204626 -0.050420254

local2.conv.bias f4 [128]
00000000: 878b dc3a 1909 a3b9 2959 e93a d187 36bb
00000010: df08 b738 7d8e 123b ab8a ecba 8963 8c3a
00000020: 978f 3d3a 90dd 343d fef1 083b 24b9 0bbb
00000030: f9af 8fba d3b9 2b3a eb39 da3b 0d8b b13a
00000040: 3feb 943a e23a 00ba 7c8a 32bb 2bc1 273b
00000050: 958e 1e3a 98ab a23a d1ef 9e3a c535 6239
00000060: 98fe 263b f591 1f3c 1722 d23a bb53 41bb
00000070: f0c8 053a 45c6 063b 3b4e b739 d021 13bc
00000080: b500 273d a19d 4a3b a7cf 63bc 1104 4aba
00000090: acf2 823b e736 dfbb 6cca 86bc 2c29 983a
000000a0: 056a 0439 d099 10bc 3a42 a93a 2c98 b0b8
000000b0: a0ae a13a 8102 e7bb 7d5d 89bb 7041 f0ba
000000c0: 0ef1 1d3a d56c f23a d848 1bbb 4237 0a3b
000000d0: 2e83 a3ba 1c17 1a3b 8b51 2c3a 91dc 0b3b
000000e0: 01f3 0d3c c577 283a 9388 ed3b cbe7 1e39
000000f0: ec4d 213b 5a2a 5f3c 59e3 fb39 ce9f 3d3a
00000100: 0c76 edbb 4f0f 9dba 6e19 d33a 0c76 77bc
00000110: fafd 08bc a3d1 263b e143 0bb9 890a 0cbb
00000120: 0542 1c3c 2efe 08bc c11d da3a 66c3 ca3a
00000130: 426e 11ba 7f95 273b 4bf6 133b 50ab a439
00000140: 652b 33bc 1ffe 133a 8b1a b6ba d445 35b6
00000150: 747a 853a 8c18 813c 5871 7439 1dd6 dc3a
00000160: b804 183b 4386 333a 6e4b 0f3b d504 03ba
00000170: 05e4 8a3a 2baf 343b 7b22 e53a cde6 023b
00000180: eb2c febb 3583 ba3a be01 96ba 801c d6bd
00000190: 19f4 e339 e9c8 8d3c df0f c13a 983c 7e3b
000001a0: 1fd4 c33a db82 b63a e190 c43a 2aa7 b53d
000001b0: e1ae 733b f013 8fbc 386d 87bb 8102 d9ba
000001c0: 0f3d 3f3b e1ec 06bb 0b79 113a 30f6 743c
000001d0: 273f 793b f11d 3c38 b76e 63ba 2321 563a
000001e0: e1fd 273c 0973 8a3b 804e 193b 9349 5f3b
000001f0: f86c c33a c692 063d 3c2e ed39 47fb 2c3b
0.001682625 -0.0003109656 0.0017803061 -0.002785195 8.7277724e-05 0.0022362762 -0.0018046697 0.0010710816
0.00072311744 0.04415661 0.0020896192 -0.002132007 -0.0010962478 0.0006550822 0.0066597364 0.0013545469
0.0011361613 -0.0004891587 -0.0027243188 0.0025597315 0.0006048468 0.0012410758 0.0012125914 0.0002157307
0.002548134 0.009739389 0.0016031888 -0.002949937 0.00051034894 0.0020564955 0.00034962766 -0.0089802295
0.04077216 0.0030916708 -0.013904489 -0.00077062944 0.003996214 -0.006811965 -0.016453944 0.001160895
0.00012627996 -0.008825734 0.0012913414 -8.420678e-05 0.0012335368 -0.007049859 -0.004192053 -0.0018330049
0.00060249947 0.0018495569 -0.0023694541 0.0021090065 -0.0012475008 0.002351231 0.000657343 0.0021341185
0.008663894 0.00064265385 0.007248947 0.00015154404 0.0024613095 0.013620937 0.00048043838 0.00072335906
-0.0072467383 -0.0011982712 0.0016105601 -0.015103828 -0.008361334 0.0025454543 -0.0001328136 -0.0021368584
0.009537225 -0.008361382 0.0016640947 0.001546961 -0.0005547741 0.0025571284 0.0022577222 0.00031408155
-0.010935639 0.0005645472 -0.0013893408 -2.7011747e-06 0.0010183589 0.015758775 0.00023311877 0.0016848479
0.0023196172 0.00068483147 0.0021865028 -0.00049979734 0.001059652 0.0027570229 0.001748159 0.0019973994
-0.0077568195 0.0014229777 -0.0011444611 -0.10454655 0.0004347868 0.017307715 0.0014729461 0.003879344
0.0014940536 0.0013924496 0.001499679 0.08869775 0.0037183093 -0.017465562 -0.004132893 -0.0016556532
0.002918068 -0.0020587968 0.0005549348 0.014951274 0.0038032026 4.4850578e-05 -0.00086758606 0.000816839
0.010253401 0.004225139 0.0023392737 0.0034070953 0.0014909795 0.032854818 0.0004523861 0.002639489

local2.conv.lin.weight f4 [128, 128]
00000000: 37e3 a93a adb4 9f3d 8640 103e 5e17 04be
00000010: eee9 bfbc 1ec5 613c acc1 edbd 0632 733c
00000020: 3e0c debd a5ea 193d 0b03 313d 548e e93c
00000030: ae9e d83b 3459 963c 46e6 673d 5113 6abd
00000040: 4caa b83d aa5a 00be 82dd ce3d d8c1 473d
00000050: 06dc 6f3d db3f 903d ecb1 d63c de9f 083e
00000060: 6762 81bc f5c5 30bd 34fe de3d 81f9 303e
00000070: 5dfc 2fbe 77bb e0bc 62d9 08be 6238 93bd
00000080: 57ca 083e be53 843d cfc3 d1bb 3502 fabd
00000090: 92c8 bd3d 66cb 663d 8aaf cfbc 3e1d 393e
000000a0: e7e0 e53d 010a 93bd a077 04bc 4925 563e
000000b0: ac62 8abd 7742 9bbd 2845 173d f0a0 023c
000000c0: ec75 fb3c ef6b aabd 919f efbd 0d36 073d
000000d0: f43d afbd 67a7 893b a2e4 bfbd 7909 a23d
000000e0: 91e8 9abd 73fb 81bd d884 9c3d a45c d93c
000000f0: 853c 013d 35fa 39be ad23 163d f6a9 003e
00000100: 86aa 0fbc 1a29 8abd 2943 10be 827f 77bd
00000110: 308d 023e 80f9 d3bd 73c4 f4bc e0ee 9f3d
00000120: 9059 28bd 475a fbbb 1cc9 e43d 49b7 a23d
00000130: 40b7 0c3e b4fa f33d f47d 9b3d ff62 933d
00000140: f90b dcbd 17e6 2b3c 4f37 04be 7d08 8cbc
00000150: 1e4d 8abd 236d b73d 8b5a 823d 13f1 00bd
00000160: c7db 32bd 324c 023d 571d 613d db57 c53c
00000170: 777f e33d e842 d23d 1b99 6cbc f4fb 00bd
00000180: a3a6 f7bd ac12 973d e338 0e3e 11b1 063e
00000190: 92dd 5dbd 2b35 4f3e 6f74 bd3d f84b 323c
000001a0: 148f 65bd 72a4 d93c ee8c 973d 18a8 c7bc
000001b0: 3c6e 043e 127b e13d afdf 803c e130 5abc
000001c0: bcd0 743d 7e66 bb3d 3846 30bc 076e d4bd
000001d0: 43f3 8e3d 9764 06be 81a4 83bc b5c1 b7bd
000001e0: 8864 ffbd a7cb 01be 7c6b 3cbd 238c 823d
000001f0: 4dd7 d8bd 8393 e73d e7f9 ee3d 4e34 1fbe
00000200: fb6b cd39 79cd ad3d 0dad ddbd 6825 223b
00000210: 1e31 fcbb 9da2 ae3d a8b9 b23d f31f 24ba
00000220: e23c 69bd addf bfbd e97b 043d 64fd 173e
00000230: 7f29 96bc b434 0fbd d1ef c03d 1b9c 69bd
00000240: 563e 01be 0c1b 033e c9f4 bebd 5c46 1bbd
00000250: 7d31 c6bd fb20 883d c08e 663d 100d e23d
00000260: 571c 883c 94a5 91bb 4af9 a23d 1f79 afbb
00000270: 1a20 be3c e165 ecbd 0340 75bd 5aae 0e3e
00000280: bb9c b8bd a74c 493d 23b5 e53b 5948 91bd
00000290: 30f1 d43c 9b66 153e b4cb cf3d 8ab5 adbd
000002a0: 065c f93d 1de3 233e 4dd9 d3bc 526d dd3c
000002b0: 4911 74bd 5f64 0f3e b225 433d 0302 ef3c
000002c0: 6d10 d7bd 7b03 8cbd 6496 19be f27d 5abd
000002d0: 20d5 033d fee7 ecbd 389a e0bd 9242 91bc
000002e0: 3368 aa3d 440b 483d 8f65 cf3d 0588 e83d
000002f0: 455c 09be e518 d4bd 2c78 92bd c37b 893c
00000300: c22e 0f3e f592 123e cd35 0b3d 21dc 91bd
00000310: 201b 00be e053 bfbd 7605 babd 6f63 a7bc
00000320: fd67 693d 1340 c63d b738 2d3c 7777 8fbd
00000330: ab18 d4bd e72b 84bd 3f24 9ebd d36f 8ebd
00000340: d49c 05be b1d1 333d 5851 9ebd 526b f63d
00000350: 21be 38be 1d8d c83d bb7c f1bc c717 f7bd
00000360: 9553 983d 2829 233e c2a7 933d bae0 11bd
00000370: bf64 a73d 58cd 0cbe 78bf 083e cafb 3fbe
00000380: 0432 1abe b7e3 41bd b97a e23c 090d 51be
00000390: 31fc 01be c1b9 8bbd 1bcc 553d 7b8a 01be
000003a0: 81bf f73d b81b 183e 380a 91bd f369 2eba
000003b0: 19c5 243e 1ecf 22be 533c 903d 001c f73d
000003c0: 67af 0fbd be01 d8bd f3fe 92bd 1f89 113e
000003d0: d56d 033e 6b9b ed3d 4925 3abe 41a1 71bc
000003e0: 7df1 91bd 1b58 d33c 6677 b33d 5a09 853d
000003f0: 2e74 6c3d c04a 643d 00dc 733b ce96 c83d
0.0012961392 0.07798133 0.14087114 -0.12899539 -0.023426976 0.013779907 -0.116092056 0.0148434695
-0.10842179 0.03757729 0.043215793 0.02851025 0.006610713 0.018353082 0.05661609 -0.057147328
0.090168566 -0.12534586 0.10100843 0.04876885 0.05855944 0.070434295 0.026207887 0.13342234
-0.015793992 -0.043157537 0.10888329 0.17282678 -0.17186113 -0.02743314 -0.13364175 -0.071884885
0.13358437 0.06461285 -0.006401516 -0.12207452 0.092667714 0.05634632 -0.025352258 0.18077561
0.11224537 -0.071796425 -0.008085161 0.2091266 -0.067571014 -0.075810365 0.036931187 0.007972941
0.030695878 -0.08321368 -0.11700357 0.03301053 -0.085567385 0.004200864 -0.0936978 0.07911963
-0.0756389 -0.06346788 0.076425254 0.026533432 0.031551857 -0.18161853 0.036655117 0.12564835
-0.008768683 -0.06746121 -0.1408812 -0.060424335 0.12749171 -0.10350323 -0.02987883 0.07809234
-0.04110104 -0.007670674 0.11171171 0.07945115 0.1374178 0.11913052 0.07592383 0.071966164
-0.10744471 0.010491869 -0.12911724 -0.017093891 -0.0675299 0.08956363 0.06364926 -0.031479906
-0.043666627 0.031810947 0.05495962 0.024089744 0.11108296 0.102666676 -0.0144408 -0.03149028
-0.1209233 0.07376608 0.13888888 0.13153483 -0.054166384 0.20235126 0.092507236 0.01088237
-0.056044653 0.026567671 0.07399927 -0.024372146 0.12932676 0.11009802 0.01573166 -0.013317318
0.059769377 0.09150408 -0.010758929 -0.103725486 0.06979992 -0.1312431 -0.016069653 -0.089724936
-0.12470347 -0.12675343 -0.046000943 0.06374385 -0.1058794 0.113074325 0.11668759 -0.15547296
0.000391811 0.084864564 -0.108240224 0.0024741534 -0.007696285 0.0852711 0.08726817 -0.00062608643
-0.056942828 -0.09368835 0.032344732 0.14842755 -0.018330334 -0.03496237 0.09420741 -0.05703364
-0.12621436 0.12803286 -0.09324033 -0.037908897 -0.09677408 0.066469155 0.05628848 0.11037648
0.016615076 -0.0044447873 0.07957704 -0.005355015 0.023208667 -0.11542869 -0.0598755 0.13933697
-0.09014269 0.049145367 0.0070101186 -0.07093877 0.025993913 0.14589922 0.10146275 -0.084818915
0.12175755 0.16004606 -0.025860453 0.027029667 -0.059586797 0.14003132 0.04764337 0.029175764
-0.1050118 -0.06836601 -0.14998776 -0.053342767 0.032185674 -0.115676865 -0.10966915 -0.017731939
0.08320656 0.04883887 0.10126793 0.11354069 -0.13414104 -0.10356311 -0.07151827 0.016782647
0.1398268 0.14313872 0.033986855 -0.071220644 -0.12510347 -0.0934217 -0.09083073 -0.020433156
0.056983937 0.0968019 0.010572604 -0.07005208 -0.103562675 -0.06453686 -0.07721757 -0.069549225
-0.13048106 0.04390115 -0.07730359 0.120321885 -0.18041278 0.0979254 -0.029478421 -0.12065082
0.07437817 0.15933669 0.07209732 -0.035614707 0.08173513 -0.13750207 0.1335429 -0.18748394
-0.15058142 -0.047336306 0.02764641 -0.20415129 -0.1269386 -0.06822539 0.052196603 -0.12650482
0.12097073 0.14854324 -0.07082027 -0.0006653361 0.16090812 -0.15899321 0.07042756 0.120658875
-0.035079386 -0.10547207 -0.07177534 0.14212464 0.12834866 0.11601909 -0.18178286 -0.014747919
-0.07126138 0.025798848 0.08763008 0.06495924 0.057727985 0.05573535 0.0037209988 0.09794389

local2.norm.weight f4 [128]
00000000: 3eba 6f3f 6e18 6a3f 0303 6a3f b208 7c3f
00000010: de1b 723f da59 643f ebc6 623f e7e5 823f
00000020: 879b 793f e3d8 5a3f 6ef8 7a3f fb62 803f
00000030: 6fca 823f 60b9 6c3f 7310 863f 646f 7e3f
00000040: a464 663f 8452 7b3f f9d3 7a3f 5203 6b3f
00000050: a97f 7d3f e12d 6e3f 8f8e 7d3f bcd1 793f
00000060: 2cb3 6d3f 9c4a 673f d7bd 6f3f 2df5 7c3f
00000070: f080 773f abcd 6e3f cf23 683f 43bc 783f
00000080: 802c 5d3f 9029 5e3f 310b 803f 384a 743f
00000090: 8f3a 453f 0980 6f3f 7ef9 753f ee1f 6b3f
000000a0: 02d9 733f 4d61 783f a555 693f aa5c 7c3f
000000b0: 30b2 703f 90b2 813f 9986 763f c4cb 723f
000000c0: cf55 743f 761e 743f 19ef 7d3f 7458 693f
000000d0: bcb6 793f 757a 5f3f ce2e 803f f0d9 633f
000000e0: f450 733f 6218 7e3f d465 823f 3d28 663f
000000f0: b60b 683f c6e3 833f 634a 7c3f f0b7 7a3f
00000100: 95d6 7b3f 4a3b 803f c28d 643f 1f13 813f
00000110: 5a6f 6f3f 836f 683f 057c 783f 3a93 833f
00000120: c0da 6a3f db7d 7a3f ca82 6c3f fad1 6f3f
00000130: eb58 7d3f b122 6f3f 78a4 753f 3e15 783f
00000140: c83f 833f 45ec 743f 560e 813f 059a 813f
00000150: eb84 6e3f 6d03 733f 43db 833f 72dd 673f
00000160: 4418 513f 1a37 793f 17d8 6b3f 718e 6d3f
00000170: 5212 663f 129b 5b3f 870e 713f 307d 753f
00000180: 62f9 823f 2034 723f 503c 743f 3305 6d3f
00000190: 53da 663f 62e3 793f cf45 823f ddb4 503f
000001a0: f7fc 763f 3bca 823f 0324 6d3f 8fec 6b3f
000001b0: 0295 553f e1aa 8d3f 29b8 813f 0cc9 6f3f
000001c0: 36aa 663f 3409 793f e904 6a3f 1d3f 783f
000001d0: ba73 493f 134e 7c3f a073 773f 612d 803f
000001e0: 8abf 7b3f 047d 6e3f 58dc 6d3f 18b6 573f
000001f0: 7894 803f 77e7 7a3f c55b 843f a8a6 6b3f
0.9364356 0.91443527 0.91410846 0.9845077 0.9457377 0.891996 0.88584775 1.0226411
0.9750294 0.8548719 0.98035324 1.0030206 1.0218028 0.9247036 1.047377 0.9938872
0.89997315 0.98172784 0.97979695 0.9180194 0.9902292 0.93038756 0.9904565 0.97585654
0.9285152 0.9034822 0.9364905 0.9881161 0.9668112 0.93282574 0.9067964 0.97162265
0.86396027 0.8678217 1.0003415 0.9542575 0.7704248 0.9355474 0.9608382 0.91845596
0.95253 0.9702347 0.9114631 0.98578894 0.9402189 1.0132618 0.9629913 0.9484217
0.95443434 0.9535898 0.9919296 0.91150594 0.97544456 0.8729623 1.0014284 0.8900442
0.950454 0.99255955 1.0187325 0.8990515 0.9064287 1.0303886 0.98551005 0.97936916
0.983743 1.0018094 0.89278805 1.008396 0.93529284 0.90795153 0.9706424 1.0279305
0.91740036 0.9784829 0.9238707 0.93679774 0.98963803 0.9341231 0.95954084 0.96907413
1.025384 0.9567302 1.00825 1.0125128 0.93171567 0.949271 1.0301288 0.90572274
0.8167765 0.97349703 0.921266 0.92795473 0.89871705 0.85783494 0.9416279 0.95894146
1.0232356 0.94610786 0.9540453 0.9258606 0.90176886 0.97612584 1.0177554 0.81525975
0.96479744 1.0217966 0.92633075 0.92157835 0.8343049 1.1067773 1.0134326 0.9366615
0.9010347 0.9727967 0.9141374 0.96971303 0.7869221 0.9855663 0.96660805 1.0013849
0.9833914 0.9315951 0.9291434 0.8426223 1.0045309 0.9800944 1.0340506 0.9205117

local2.norm.bias f4 [128]
00000000: c138 eebd 4de8 afbd a6fb d5bd 87aa 46bd
00000010: 6432 c0bd 92db e6bd 9da2 1dbe ab7d 6abd
00000020: 75fe a6bd ebae 48be da33 d9bd 5a55 56bd
00000030: db61 acbd cd25 8dbd 1951 68bd 3550 89bd
00000040: cb3f d2bd b48b e5bd 32b6 bcbd ea8d cebd
00000050: fc39 a2bd 22cc d0bd 4728 88bd ea06 acbd
00000060: 1be7 d9bd 7d27 ecbd a717 0bbe c0f7 88bd
00000070: 3d36 9ebd 8fd0 8bbd 66b1 d9bd 7168 82bd
00000080: 884b dfbd 9f28 17be 0913 86bd d82f dbbd
00000090: abd0 62be 98d5 aabd 9a9e 93bd fd07 cfbd
000000a0: 9309 d7bc e45f b1bd 13e2 c3bd 19f2 afbd
000000b0: 50e2 ccbd bc67 8fbd 2c77 97bd 4dc0 b7bd
000000c0: e27b c7bd bb8a afbd 8979 82bd 2e54 d1bd
000000d0: 1627 3cbd bb92 f9bd 3d9f 76bd 6894 01be
000000e0: ffa5 aebd f072 3bbd 44ee 71bd d599 f4bd
000000f0: 420d e7bd 7a39 8dbd ecd0 6dbd aa93 89bd
00000100: 4d84 abbd 6caa 70bd 12b7 f2bd 4fd4 1abd
00000110: 1ce3 babd 143b cbbd 362a abbd 8326 0ebd
00000120: 9558 04be 53b6 afbd 8ca8 e1bd ddf6 fabd
00000130: 4662 5fbd 86cd 05be 2a3e 94bd 098a b8bd
00000140: 2615 35bd 1a3a abbd 6360 68bd 4691 45bd
00000150: e33b b9bd 7281 b8bd 31e5 92bd 99fa f4bd
00000160: f321 36be d814 a3bd 5e58 e2bd ef3b e0bd
00000170: 7f8b 00be 29ca 03be df80 eabd 8efd b5bd
00000180: b55d 95bd c7fd babd 58cb bcbd cbaa bcbd
00000190: 7f30 01be 0cb6 38bd b5ba 94bd 52f1 34be
000001a0: a482 bcbd 261e 24bd e32a e0bd 805e 08be
000001b0: 5842 54be ccbc 20bd eee0 9bbd ff26 c0bd
000001c0: 88c6 f3bd 47f6 6fbd 7872 bdbd 2878 e2bd
000001d0: bb39 3fbe 8f4a a7bd 985d babd 580e 9bbd
000001e0: c0c1 73bd 85f0 8cbd ffd5 d1bd 38c7 2bbe
000001f0: e97a 1ebd 2dca aabd ebea 8bbd 454e eebd
-0.11631919 -0.0858923 -0.10448389 -0.04850247 -0.09384611 -0.112723485 -0.15394063 -0.057248753
-0.081540026 -0.19597976 -0.10605593 -0.05232749 -0.08417102 -0.068919756 -0.056717966 -0.067047514
-0.10266074 -0.11208287 -0.092144385 -0.10085662 -0.07921216 -0.10195185 -0.06648307 -0.08399756
-0.10639783 -0.11530969 -0.13583241 -0.066878796 -0.07725189 -0.06826889 -0.10629539 -0.06367577
-0.10903078 -0.1476159 -0.065465994 -0.10702485 -0.22149913 -0.08341521 -0.07207985 -0.101089455
-0.026249683 -0.08660868 -0.095646046 -0.08591098 -0.10004103 -0.07002208 -0.07395777 -0.08972225
-0.09740426 -0.085713826 -0.06370837 -0.10221134 -0.045935713 -0.1218619 -0.060210455 -0.12654269
-0.08527755 -0.04576391 -0.05906512 -0.11943404 -0.112818256 -0.068957284 -0.05806057 -0.06717618
-0.08374844 -0.058756277 -0.11851324 -0.03780013 -0.09125349 -0.09923378 -0.083576605 -0.034704696
-0.12924416 -0.085796975 -0.11018476 -0.12254117 -0.05453708 -0.13066682 -0.07238419 -0.09010703
-0.04420962 -0.08360691 -0.056732547 -0.048234247 -0.090446256 -0.09009065 -0.07172621 -0.1196186
-0.17786388 -0.0796296 -0.11052011 -0.109489314 -0.12553214 -0.12870087 -0.114503615 -0.08886252
-0.07293264 -0.091304354 -0.09218472 -0.09212264 -0.12616156 -0.04509549 -0.07262174 -0.17670181
-0.09204605 -0.040067814 -0.1094568 -0.13317299 -0.20728433 -0.03924255 -0.07611261 -0.09382438
-0.11903101 -0.058584478 -0.09250349 -0.11058074 -0.18674366 -0.08168518 -0.09099883 -0.07571095
-0.059510946 -0.06881813 -0.10245895 -0.16775215 -0.038691435 -0.08339343 -0.068319164 -0.116360225

meso.Wq.weight f4 [128, 128]
00000000: 39fa 9cbb 742c 603d b416 b3bb f896 f33d
00000010: f7a1 2b3d 13e2 04bd 3526 0bbe 1b49 173d
00000020: a667 d1bd 4be4 64bd c3ec fabc 6534 273d
00000030: f0a3 273d 0107 6e3d 6d3d 11bd 6d15 383d
00000040: 7473 fe3d 8987 8bbc 7424 553d f6af 99bd
00000050: 8161 d63d 7845 803c 32c1 943d d154 5bbd
00000060: a944 1ebd 7226 d9bd 3425 5c3d ad3b 24be
00000070: 7d24 b5bd 8d00 e33c 9f91 05be d97e eebc
00000080: b190 bd3c b88c ae3c a7de 98bd a3e1 2fbe
00000090: 4ff7 393c 8a93 fa3d 9ba2 8cbd 5b06 80bd
000000a0: c1cc 40bc 2302 0f3c 8db5 a6bd 43d4 c03c
000000b0: fbbb e63c b020 1dbd f14c fcbd fa18 67bd
000000c0: 8ec2 37bd 34ca 6fbd f379 36be b5f6 c7bd
000000d0: 0a1b 05bd a7ab 023d 9755 263e eb18 a63d
000000e0: 01c0 583c 46a6 543d abfb 853c b305 c03c
000000f0: 2d10 cdbc b991 1cbc 1e1e 093d 6de9 e43c
00000100: 626c 313d 2549 873d 279f 45bd 6fba 9abd
00000110: abc7 b3bc 79b3 89bd 5b66 ddbb 8000 813d
00000120: ef58 c5bd c6c0 f13d 1cf8 dd3d e891 073c
00000130: e862 de3d 1912 fb3c 341f 8c3b 2502 0a3d
00000140: 96d2 1dbd aea3 16bd 570f c33d 251e 17be
00000150: 17d4 b03d e3b6 333b 0e62 66bd b941 b83d
00000160: 76bd f83c e2ea f1bd f42f 323d e2b8 873d
00000170: 7b8f 12bd c608 b03d f2e7 7c3d 85aa 31be
00000180: 49ba b53d adc0 28bd 6661 bb3c 2c63 9dbd
00000190: eff6 fb3d 33c0 15bd d083 c53d 0918 3dbd
000001a0: fa16 423d 3877 4d3d a4ee d9bd afab c3bd
000001b0: 9cf9 2d3d bb37 95bd 998b ab3c e17e 3f3d
000001c0: 4716 5c3c 685b 913c 5bca cfbd 9a37 043e
000001d0: 2efa ef3b c597 a5bd cd3d ea3b 8cf2 003e
000001e0: 4dad 793d 373e 0d3d 3800 a9bd 48c5 c2bc
000001f0: 93b1 fe3c b3b7 323d a383 413d d420 8fbd
00000200: 09c9 043d 4f8a 02be 525d 89bc 8504 5cbd
00000210: b94f f33c ca45 913d ef82 30bd aeb2 1a3d
00000220: 6c2d 3e3d 2f40 c6bd bb5f aabd 7a25 19bd
00000230: 54d8 dd3d 73c0 f4bb f997 0f3d 2efc c83d
00000240: 6dc1 b23d 7997 b9bd 3e2f 43bc 3e97 88bd
00000250: b8ed 8c3c 6248 58bd 9b54 1d3c e631 35bd
00000260: 5878 23bc 8804 b5bd c7a5 7aba 622c efbc
00000270: 24fb 9cbd 22b9 cabd af23 583d 59b6 8cbd
00000280: 51e5 1e3c c527 493d dcc2 6f3d 80dc c8bd
00000290: 1895 723d 98fd ab3d cabf 29bc 5e35 ddbd
000002a0: 2cad ee3b 72ce cabd 05c6 183d 5af7 d13c
000002b0: f36d fa3b 1786 e5bd c500 c8bc f2cc 50bd
000002c0: c4db afbc ab06 ad3b 0a2c b73c 646b f5bc
000002d0: 5e05 0ebe 3fff 75bd f4d2 d6bc 7720 c0bd
000002e0: abc3 a93d 27e0 2d3d eb4e 3abd 76a1 393c
000002f0: 631c bdbd d782 06be d73a 86bd 09e2 a8bd
00000300: 3391 603d c673 c3bd fae4 8fbd 9287 cb3c
00000310: 603e 0cbe c3ac 0b3d b866 90bd 6788 b7b8
00000320: d3fc 80bd 1b6a 413d b28e 903d 47f0 763d
00000330: f842 99bd 2ef9 0e3d 2bd5 793c ba84 bc3d
00000340: f23a fa3d 0255 92bd 1dcf 473c 40ff cebd
00000350: e78d f93c c6a6 ce3c 0f8a bdbd 3ebf 51bd
00000360: 712e 26bd a662 46bc 1f5d f5bd fff7 e1bb
00000370: 5c13 313c 9e9c 8abd 31b7 88bb d145 1fbe
00000380: 7915 9dbd f6f8 813d 233a 413d b4e2 54bd
00000390: 2e72 64bd a7f7 f9ba 8f9a 953d efd7 aebd
000003a0: 23b6 3cbd 06d5 b43d 95a8 7dbd 2b65 83bd
000003b0: 1174 12bd 02ae 78bd 13df d1bc c1a2 c5bb
000003c0: d734 10bc cd32 373d 0ace e1bd 52f3 293d
000003d0: 9860 43bc 4611 e63b 42ac 08bd 5ba7 0fbd
000003e0: 1a6a 2bbd 8afe 9e3d af43 f1bd f461 813d
000003f0: 85cd 50bd 6c8d 6d3d 9aa1 7abc ce89 cbbb
-0.004790571 0.054729894 -0.005465353 0.118940294 0.04190251 -0.032442164 -0.13588794 0.036934953
-0.102248475 -0.05588178 -0.030630475 0.04082145 0.040927827 0.05811215 -0.03545897 0.04494231
0.12424365 -0.017032402 0.052036718 -0.07504265 0.10467816 0.015658125 0.072634116 -0.053547684
-0.0386397 -0.10603036 0.053746417 -0.1603839 -0.0884485 0.027710224 -0.13043831 -0.02911322
0.023140283 0.021307334 -0.074643426 -0.17175917 0.011350467 0.12235172 -0.06866952 -0.06251212
-0.011767567 0.008728537 -0.08140097 0.023538714 0.028165808 -0.03836125 -0.12319363 -0.056420304
-0.044863276 -0.058542445 -0.17819957 -0.097638525 -0.03249649 0.03190198 0.16243587 0.081102215
0.013229371 0.051916383 0.016355356 0.023440218 -0.025032127 -0.009556227 0.033475988 0.027943337
0.043316253 0.06605748 -0.048247483 -0.07555091 -0.021945795 -0.06723685 -0.0067565865 0.062989235
-0.09636103 0.11804347 0.10838339 0.008274533 0.108587086 0.030648278 0.0042761806 0.03369345
-0.03853091 -0.03677719 0.0952441 -0.14757593 0.08634203 0.0027422241 -0.056245856 0.089969106
0.03036378 -0.118123785 0.043502763 0.066270605 -0.035781365 0.085954234 0.061744638 -0.17350204
0.08873422 -0.041199375 0.022873592 -0.07684931 0.12302958 -0.03656025 0.09644282 -0.0461655
0.047385193 0.050162524 -0.1064122 -0.095542304 0.042474374 -0.0728602 0.020940589 0.04675186
0.013433046 0.017743781 -0.10146018 0.12911835 0.007323525 -0.08085588 0.0071484805 0.12592524
0.060956288 0.03448316 -0.08251995 -0.023775712 0.031090533 0.04363222 0.04724468 -0.06988683
0.032418285 -0.12748073 -0.016768131 -0.053715248 0.0297011 0.07093389 -0.043093618 0.03776806
0.046430036 -0.09680211 -0.083190404 -0.037389256 0.10832277 -0.007469231 0.03505704 0.098137245
0.08728299 -0.09062094 -0.011913119 -0.06669472 0.017203197 -0.052803405 0.009602691 -0.04423704
-0.009977423 -0.08838755 -0.0009561446 -0.029195968 -0.07665089 -0.098985925 0.052768406 -0.068707176
0.009698228 0.049110193 0.05853544 -0.09807682 0.059224218 0.083979785 -0.0103606675 -0.108011946
0.0072838273 -0.099026576 0.03729822 0.025630642 0.0076425015 -0.11207216 -0.02441443 -0.0509767
-0.021467097 0.005280336 0.022359867 -0.029958434 -0.13869235 -0.060057875 -0.026223637 -0.09381192
0.08289274 0.042450096 -0.04548542 0.011329999 -0.0923393 -0.13135849 -0.065541916 -0.08246238
0.054825973 -0.095435664 -0.07026096 0.024844918 -0.13695669 0.034100305 -0.07050842 -8.751527e-05
-0.062982224 0.04722033 0.07058467 0.06028774 -0.074834764 0.034905605 0.015248577 0.09205003
0.12218274 -0.0714512 0.012195376 -0.10107279 0.030463172 0.025226008 -0.09254848 -0.051207773
-0.040571634 -0.012108481 -0.11980652 -0.0068960185 0.010807838 -0.067681536 -0.0041722287 -0.15553977
-0.07670111 0.06346314 0.047174584 -0.051974013 -0.055772953 -0.0019070999 0.0730487 -0.0853728
-0.046072137 0.088296935 -0.06192835 -0.06415781 -0.03575522 -0.06071282 -0.025619065 -0.0060313647
-0.0088016605 0.04472618 -0.11025627 0.041491814 -0.011924885 0.007021102 -0.033367403 -0.035071712
-0.041849233 0.07763393 -0.11780488 0.06317511 -0.05097725 0.0579962 -0.015297318 -0.006211496
