models/eeg_only/s_11.pt (torch, 561186 bytes, 37 tensors)

band_attn.fc1.weight f4 [8, 5]
-0.026120441 -0.10218493 -0.46677876 0.37847117 0.009791191 0.1690483 0.17325155 0.3350705
0.07992567 0.35710922 0.4663825 0.027110808 0.33364627 -0.31710857 0.41498408 0.116536625
-0.15604514 -0.4367414 0.016190907 0.3296384 0.13438755 -0.20086458 0.06053452 0.15613154
-0.06535734 -0.600602 -0.29230478 0.041235104 -0.31439796 0.05589996 0.40720734 0.51168525
0.12812608 0.08392946 0.09122205 -0.3921017 -0.14994082 -0.5149177 -0.08968877 0.020123012
00000000: 89fa d5bc 5546 d1bd a0fd eebe f9c6 c13e
00000010: 3b6b 203c ff1a 2d3e db68 313e 5c8e ab3e
00000020: 12b0 a33d 05d7 b63e b0c9 ee3e 7c17 de3c
00000030: afd3 aa3e 0e5c a2be cb78 d43e c1aa ee3d
00000040: 4cca 1fbe 929c dfbe cba2 843c 5dc6 a83e
00000050: e49c 093e 72af 4dbe 0bf3 773d f2e0 1f3e
00000060: 12da 85bd 0dc1 19bf f9a8 95be 24e6 283d
00000070: c5f8 a0be 5bf7 643d 7b7d d03e cefd 023f
00000080: 7c33 033e 35e3 ab3d a0d2 ba3d 8ec1 c8be
00000090: 168a 19be a5d1 03bf bfae b7bd 04d9 a43c

band_attn.fc1.bias f4 [8]
0.041800212 0.47853446 -0.30804157 0.008211041 0.12583503 0.43750167 0.09840355 -0.26640874
00000000: b336 2b3d 7802 f53e a0b7 9dbe 9a87 063c
00000010: e6da 003e 3800 e03e cd87 c93d ba66 88be

band_attn.fc2.weight f4 [5, 8]
-0.41789377 -0.053834498 0.16486587 -0.1348083 -0.15486234 -0.51431894 -0.18681042 -0.17738086
0.24402574 -0.326764 -0.19443806 0.31675345 0.03261962 -0.40588495 -0.07097515 -0.09512924
0.13353151 -0.3192369 0.05773401 -0.51023334 0.23191422 -0.26842892 -0.17390265 -0.19389236
0.16947562 -0.056993786 0.27478936 0.0051590004 0.25942326 0.41620183 0.01032228 0.29196247
-0.47263983 0.40060607 0.38609925 -0.5946367 0.07272891 -0.26792973 0.24359402 0.029470429
00000000: 2cf6 d5be 9081 5cbd 99d2 283e 300b 0abe
00000010: 3c94 1ebe 68aa 03bf 3b4b 3fbe 54a3 35be
00000020: e2e1 793e 9c4d a7be c51a 47be 822d a23e
00000030: 279c 053d 27d0 cfbe 6b5b 91bd 1ed3 c2bd
00000040: 7cbc 083e 0573 a3be 7f7a 6c3d a79e 02bf
00000050: ec7a 6d3e 846f 89be 8913 32be b88b 46be
00000060: 048b 2d3e 5172 69bd 31b1 8c3e d50c a93b
00000070: 20d3 843e 6818 d53e c81e 293c 1b7c 953e
00000080: d9fd f1be 3d1c cd3e cdae c53e 1c3a 18bf
00000090: e5f2 943d 162e 89be b670 793e f86b f13c

band_attn.fc2.bias f4 [5]
-0.4861332 -0.37932634 0.07653254 0.30404145 -0.05628332
00000000: 73e6 f8be 1037 c2be 18bd 9c3d 52ab 9b3e
00000010: 5789 66bd

feat_proj.weight f4 [128, 21]
0.19180909 0.20917276 -0.20101191 -0.22143981 -0.131714 0.27077547 0.110874854 -0.037793458
-0.0827804 -0.18250652 -0.062237553 0.06980976 0.102719605 -0.00359083 -0.20653033 0.0087206
-0.023451231 -0.2069174 -0.14329316 0.17100349 0.22757818 0.0899617 -0.43506697 -0.0012453673
0.41687015 -0.20764937 -0.054822456 0.2100141 0.11278198 -0.16957839 0.13752288 0.044654135
-0.15232767 0.066703215 0.074878715 0.15549304 -0.2624993 0.16873203 -0.09270087 -0.19407675
0.13477005 -0.07800695 0.0116963 0.31502047 0.060465004 -0.41798422 0.2934107 -0.0584918
-0.10593492 0.1804011 0.0053062793 0.005821347 -0.024748225 0.017235171 -0.07999805 0.031578276
-0.27204722 0.122836836 -0.05340731 0.030969737 0.0111252405 -0.20919737 0.300737 0.07155774
0.07756712 0.13738817 -0.34730166 -0.12343637 -0.095891654 -0.00021168197 -0.14570367 -0.14939426
-0.1259935 0.03434459 -0.17350678 0.24466781 0.12962696 0.1278574 -0.12877508 -0.13562393
0.2133629 0.0076897913 0.0061909542 -0.07354166 0.0973465 -0.017905004 0.15834154 -0.1601444
0.26480064 0.06460983 0.2452649 0.026442857 -0.120416515 0.07592096 -0.14671911 -0.07224026
-0.07503727 -0.17964122 0.23633245 -0.15100202 -0.039257966 -0.012214136 -0.120253466 0.04129295
0.21727583 0.063396245 -0.044256806 -0.07060322 0.2342872 -0.23586483 -0.0981101 0.14432736
-0.05457107 -0.10231457 0.120025136 0.024240332 -0.06435094 0.06386672 -0.07183583 -0.21163316
0.17518966 0.2432612 0.11831158 -0.039738994 -0.21953642 0.078373976 0.1478347 0.15461239
-0.23096901 -0.108557865 0.0685117 -0.1856361 -0.07654249 -0.22223401 -0.17447324 -0.016207118
0.0125824595 -0.12928477 0.10229056 0.21716624 -0.16724078 0.14488567 0.02675326 -0.092032924
-0.021518456 0.09336394 -0.028078353 -0.25521764 0.26778695 0.115304574 -0.258926 -0.035653513
-0.13011453 -0.13686459 -0.022783535 -0.12414595 -0.008997853 -0.018529803 -0.14492631 -0.22074595
-0.1819027 0.08336901 0.24498594 -0.21820086 0.0375015 0.061806023 0.16969696 0.24977632
0.20533842 0.17018935 0.18194614 -0.14860468 -0.028756095 -0.114618346 -0.17804684 -0.022161316
0.17617136 -0.1583362 -0.14284618 0.14425403 -0.13047118 0.09436701 -0.19544685 0.01555605
-0.10641034 -0.028082633 0.22192307 0.14625742 0.09194743 -0.041217793 -0.07526655 0.11320589
0.047622375 0.066077806 -0.20677526 -0.08872357 0.03758123 0.02187376 0.0834849 -0.1742967
-0.18785919 -0.03780223 -0.07760477 -0.035552777 -0.10042294 -0.12455678 0.10753699 0.060292285
0.09482506 0.27440625 -0.07177005 0.1271313 0.04269287 -0.09211153 0.0883725 -0.100478254
-0.12099246 -0.102361426 -0.14030516 0.10620225 -0.012229273 -0.18397789 -0.21468253 0.05670095
0.05146004 0.14086327 -0.23849618 0.08991695 -0.16949552 0.0010113622 0.26420847 0.0353031
0.14324336 -0.18191567 -0.04553514 0.25444698 -0.1429541 0.1363297 -0.091499045 -0.03768713
-0.017032802 0.16850314 0.124580055 0.09269464 0.221638 0.08762439 -0.12040091 -0.21704708
0.08992699 -0.17756504 0.11420543 0.13993718 0.22910468 -0.27200076 -0.12094232 -0.30258694
00000000: 9a69 443e 6231 563e 11d6 4dbe 1ec1 62be
00000010: 09e0 06be 15a3 8a3e 5b12 e33d 50cd 1abd
00000020: c588 a9bd fde2 3abe ceec 7ebd 6bf8 8e3d
00000030: a85e d23d 2154 6bbb b07c 53be d9e0 0e3c
00000040: cc1c c0bc 28e2 53be 71bb 12be 8a1b 2f3e
00000050: 410a 693e d73d b83d 19c1 debe 983b a3ba
00000060: 0170 d53e 09a2 54be 838d 60bd f00d 573e
00000070: 3dfa e63d f5a5 2dbe ccd2 0c3e 41e7 363d
00000080: c9fb 1bbe b29b 883d 035a 993d 9139 1f3e
00000090: 4f66 86be 17c8 2c3e f4d9 bdbd 0ebc 46be
000000a0: 2901 0a3e 1cc2 9fbd d6a1 3f3c 5d4a a13e
000000b0: 27aa 773d 0702 d6be ed39 963e 1995 6fbd
000000c0: 68f4 d8bd 11bb 383e 4ce0 ad3b ffc0 be3b
000000d0: cabc cabc c630 8d3c 05d6 a3bd 3958 013d
000000e0: c649 8bbe e191 fb3d a0c1 5abd 3fb4 fd3c
000000f0: a446 363c d637 56be 33fa 993e dd8c 923d
00000100: 83db 9e3d 7caf 0c3e 86d1 b1be 35cc fcbd
00000110: d862 c4bd f2f6 5db9 5833 15be cffa 18be
00000120: 7104 01be eaac 0c3d c3ab 31be 338a 7a3e
00000130: eebc 043e 0ded 023e 9ddd 03be 00e1 0abe
00000140: ce7b 5a3e a5fa fb3b 7ddd ca3b 039d 96bd
00000150: 9a5d c73d 84ad 92bc 4924 223e e5fc 23be
00000160: f393 873e 2952 843d b926 7b3e b19e d83c
00000170: ef9c f6bd 737c 9b3d 893d 16be b4f2 93bd
00000180: 24ad 99bd def3 37be 2201 723e 46a0 1abe
00000190: f6cc 20bd cd1d 48bc 7347 f6bd cc22 293d
000001a0: 8e7d 5e3e e4d5 813d a046 35bd 6c98 90bd
000001b0: fce8 6f3e 8d86 71be f3ed c8bd 8dca 133e
000001c0: ea85 5fbd 4d8a d1bd bdcf f53d a993 c63c
000001d0: 6dca 83bd 8ecc 823d aa1e 93bd 5db6 58be
000001e0: eb64 333e 7719 793e 574d f23d 5bc5 22bd
000001f0: 28ce 60be 8982 a03d fb61 173e b652 1e3e
00000200: 2483 6cbe 9653 debd dd4f 8c3d 6417 3ebe
00000210: 4fc2 9cbd 5091 63be 1da9 32be cac4 84bc
00000220: a926 4e3c 3a63 04be b77d d13d d460 5e3e
00000230: 2b41 2bbe e95c 143e a729 db3c c27b bcbd
00000240: 7947 b0bc 9835 bf3d 9304 e6bc e3ab 82be
00000250: 5f1b 893e ce24 ec3d f391 84be 6b09 12bd
00000260: be3c 05be 3b26 0cbe 89a4 babc 3b40 febd
00000270: bb6b 13bc d0cb 97bc 9067 14be 3a0b 62be
00000280: b444 3abe 5fbd aa3d 98dd 7a3e 0c70 5fbe
00000290: 2c9b 193d 5028 7d3d 0ac5 2d3e 5dc5 7f3e
000002a0: 3c44 523e 1e46 2e3e 1750 3a3e d32b 18be
000002b0: e791 ebbc 06bd eabd e951 36be a68b b5bc
000002c0: 4466 343e e322 22be 4546 12be 54b7 133e
000002d0: 3d9a 05be 7e43 c13d 3823 48be cede 7e3c
000002e0: aaed d9bd 8d0d e6bc cd3f 633e 81c4 153e
000002f0: ef4e bc3d fdd3 28bd 5925 9abd 7dd8 e73d
00000300: ae0f 433d cd53 873d e5bc 53be b4b4 b5bd
00000310: c7ee 193d 9930 b33c 22fa aa3d d67a 32be
00000320: 295e 40be 83d6 1abd 40ef 9ebd ca9f 11bd
00000330: 8baa cdbd a017 ffbd 5a3c dc3d 0bf5 763d
00000340: a433 c23d fa7e 8c3e 2dfc 92bd b52e 023e
00000350: b8de 2e3d f8a4 bcbd a4fc b43d 8bc7 cdbd
00000360: e5ca f7bd dea2 d1bd 28ac 0fbe 9180 d93d
00000370: 4a5d 48bc b364 3cbe bdd5 5bbe 413f 683d
00000380: c3c7 523d 763e 103e 5838 74be 6126 b83d
00000390: 3c90 2dbe af8f 843a 5546 873e fc99 103d
000003a0: 63ae 123e 1a48 3abe 0e83 3abd e046 823e
000003b0: 8f62 12be 039a 0b3e da63 bbbd d25d 1abd
000003c0: 6088 8bbc 168c 2c3e d423 ff3d b0d6 bd3d
000003d0: 12f5 623e 6b74 b33d c194 f6bd 9741 5ebe
000003e0: a42b b83d 9cd3 35be 89e4 e93d b14b 0f3e
000003f0: 6b9a 6a3e af43 8bbe 9bb0 f7bd adec 9abe

feat_proj.bias f4 [128]
-0.018521406 0.08403141 -0.19131811 0.016006313 -0.08482143 0.099145226 0.15568006 -0.21939966
-0.1808955 -0.11031811 -0.06729782 0.16865481 -0.20474182 0.16945995 0.15546417 0.07519339
-0.1050574 -0.062238973 -0.12910886 0.048145145 0.020251855 -0.001872475 -0.15901294 0.07568472
0.0869823 0.06474444 -0.04828744 0.10185891 -0.109392315 -0.07014519 -0.17969595 0.04080493
0.118103065 -0.057404496 0.17762502 -0.12481986 -0.121347405 -0.009954283 0.11515088 0.17299838
-0.051917814 -0.121062644 -0.13348275 0.24617897 0.06637948 0.07777194 -0.113802806 0.007436223
0.019438017 -0.2008765 -0.13540748 -0.070073195 0.12959228 0.012178846 -0.16071516 -0.13351615
0.07811336 -0.13363454 0.036716457 -0.051658176 -0.038566332 0.15070793 0.1645904 0.21253869
0.0627616 -0.1478877 -0.131496 -0.032802004 0.00913713 0.13851586 -0.047988616 0.12235331
-0.031642757 0.06991495 0.15898855 0.14292149 0.017901776 -0.0685629 0.08967381 -0.12679872
0.21953905 0.048404053 0.103360526 0.0034611616 0.1293267 0.14285436 -0.15876126 0.0642459
0.07156078 0.16360728 0.2229361 -0.13362916 0.1346435 0.051611267 0.072829336 -0.019995213
-0.23977102 0.031146277 0.040720485 0.05562945 -0.2157199 -0.13274223 0.19824319 -0.0055493605
-0.19064783 -0.13383844 0.02898904 -0.06939029 -0.03668591 0.08263893 0.105317414 0.058760885
0.030853275 0.06767412 0.097664736 0.14502686 -0.14823015 -0.021040572 -0.20684345 -0.15494736
0.03916905 0.1681959 0.0039769947 -0.015189195 0.034193896 -0.1260379 0.15604964 0.15570408
00000000: 34ba 97bc a918 ac3d e5e8 43be ac1f 833c
00000010: dcb6 adbd a70c cb3d 986a 1f3e 4eaa 60be
00000020: ac3c 39be 76ee e1bd 70d3 89bd d9b3 2c3e
00000030: d7a7 51be e986 2d3e 0032 1f3e fefe 993d
00000040: 5628 d7bd 4bee 7ebd 1d35 04be d833 453d
00000050: 38e7 a53c d66d f5ba 4ad4 22be 9700 9b3d
00000060: c723 b23d bc98 843d 0dc9 45bd 679b d03d
00000070: 1409 e0bd 48a8 8fbd 3702 38be 1223 273d
00000080: 05e0 f13d fa20 6bbd 55e3 353e 8ea1 ffbd
00000090: fd84 f8bd 4a17 23bc 39d4 eb3d 7d26 313e
000000a0: c6a7 54bd b1ef f7bd b4af 08be 5716 7c3e
000000b0: f7f1 873d e546 9f3d 7211 e9bd 8fab f33b
000000c0: 7a3c 9f3c 92b2 4dbe 42a8 0abe 8982 8fbd
000000d0: d7b3 043e c889 473c 8492 24be 75b8 08be
000000e0: e6f9 9f3d 7ed7 08be ff63 163d 8697 53bd
000000f0: bbf7 1dbd 2e53 1a3e 638a 283e bea3 593e
00000100: 2789 803d e06f 17be e3a6 06be 655b 06bd
00000110: e7b3 153c 1ad7 0d3e b68f 44bd 5f94 fa3d
00000120: d69b 01bd 922f 8f3d e5cd 223e 035a 123e
00000130: bfa6 923c b56a 8cbd e7a6 b73d 86d7 01be
00000140: d8ce 603e 5443 463d afae d33d a8d4 623b
00000150: 386e 043e 6a48 123e 5092 22be 5b93 833d
00000160: 758e 923d ab88 273e 5c49 643e 15d6 08be
00000170: fcdf 093e 5666 533d 8c27 953d 00cd a3bc
00000180: 8986 75be 7a26 ff3c 86ca 263d b5db 633d
00000190: ade5 5cbe 94ed 07be 4300 4b3e 69d7 b5bb
000001a0: 2f39 43be f20c 09be 6c7a ed3c 7f1c 8ebd
000001b0: f743 16bd 993e a93d a8b0 d73d 41af 703d
000001c0: 02c0 fc3c bb98 8a3d 7304 c83d ec81 143e
000001d0: a5c9 17be 475d acbc c5ce 53be 85aa 1ebe
000001e0: ba6f 203d 8c3b 2c3e 7351 823b 1adc 78bc
000001f0: e60e 0c3d 1410 01be 7acb 1f3e e470 1f3e

local1.conv.bias f4 [128]
0.025589174 0.015085555 0.013296461 0.015361018 -0.071471 0.008747785 0.0022930936 -0.008318677
0.029257577 -0.004214079 0.02034061 0.007831573 -0.0338291 0.0032911755 -0.060954284 0.006515783
0.02904562 0.022738397 0.006521616 0.023173071 0.018389007 -0.0007327665 0.0126354275 0.010830902
0.0046795644 -0.019915527 -0.022151908 -0.013370812 0.017099805 0.008180846 -0.0022171042 0.042618193
-0.02055199 0.00067503296 0.010820429 0.021665428 0.011390779 0.013330669 -0.013169918 0.026604937
0.020562531 0.022558369 -0.010944297 -0.07281563 0.0120383585 -0.004478514 0.02100022 -0.0034879846
0.027751172 -0.0061326507 0.010702436 0.0059262947 0.006177954 0.013107777 0.023335326 0.0018304038
-0.010834291 0.029711533 -0.0061678737 -0.024435846 -0.03711802 0.021029282 0.006148269 0.0065737297
0.021035643 -0.010917976 0.02657624 -0.018589983 -0.021469258 0.03312815 -0.045785163 -0.031883925
0.02625148 0.014141029 -0.009336406 0.01123142 0.031074382 -0.028907022 0.04289488 0.0186071
-0.015799418 -0.006573403 0.007949573 0.055526525 0.0032056482 0.023872646 -0.05463848 0.013141038
0.015451653 0.010805675 -0.015720017 0.0055491375 0.041577656 0.037767503 0.0043886756 0.027595507
-0.011016119 -0.007761993 -0.010457125 0.0029395397 0.009265377 -0.0046239663 0.0050981683 0.024965907
0.013953991 -0.019405091 0.01766323 0.024417086 -0.008471752 0.009062387 -0.019957671 0.0421996
0.005264035 0.011274321 0.0016457477 0.020626834 0.017214986 -0.044552848 -0.020212734 0.011091619
0.0170626 0.025274754 0.016670829 -0.014509382 0.010262629 0.02291708 0.0056378646 0.028802326
00000000: 63a0 d13c 6729 773c 66d9 593c c7ac 7b3c
00000010: 635f 92bd df52 0f3c ba47 163b 0f4b 08bc
00000020: 96ad ef3c 4216 8abb 5aa1 a63c ff4f 003c
00000030: 6290 0abd c3b0 573b 33ab 79bd 5982 d53b
00000040: 14f1 ed3c e045 ba3c 48b3 d53b 74d5 bd3c
00000050: 8ba4 963c 2117 40ba d304 4f3c 1874 313c
00000060: 0857 993b e325 a3bc eb77 b5bc 4011 5bbc
00000070: e414 8c3c f508 063c d64c 11bb 6a90 2e3d
00000080: a65c a8bc b2f4 303a 2b48 313c b27b b13c
00000090: 64a0 3a3c e168 5a3c a4c6 57bc 99f2 d93c
000000a0: c172 a83c 54cc b83c b54f 33bc 5c20 95bd
000000b0: 893c 453c 80c0 92bb a708 ac3c ac96 64bb
000000c0: 6d56 e33c 67f4 c8bb 4559 2f3c 5d31 c23b
000000d0: 6f70 ca3b 00c2 563c ba29 bf3c 29ea ef3a
000000e0: 4f82 31bc 9a65 f33c e01b cabb af2d c8bc
000000f0: 1109 18bd 9a45 ac3c 6b77 c93b 7168 d73b
00000100: f152 ac3c 4fe1 32bc 6ab6 d93c 054a 98bc
00000110: 4ce0 afbc 62b1 073d 3989 3bbd b898 02bd
00000120: 580d d73c c6af 673c baf7 18bc fd03 383c
00000130: b48f fe3c 6bce ecbc 8bb2 2f3d eb6d 983c
00000140: c86d 81bc b365 d7bb ed3e 023c c86f 633d
00000150: da15 523b 9190 c33c 99cc 5fbd 824d 573c
00000160: ee28 7d3c 490a 313c 44c7 80bc 8ad5 b53b
00000170: 554d 2a3d 19b2 1a3d e1ce 8f3b f90f e23c
00000180: f47c 34bc 5158 febb 5c54 2bbc 4ba5 403b
00000190: cfcd 173c a484 97bb 890e a73b 4d85 cc3c
000001a0: 489f 643c 6df7 9ebc 7ab2 903c 5706 c83c
000001b0: 1acd 0abc 687a 143c 457e a3bc 7dd9 2c3d
000001c0: ed7d ac3b eeb7 383c 21b6 d73a 9bf9 a83c
000001d0: 7106 8d3c 0c7d 36bd 2d95 a5bc 9fb9 353c
000001e0: dec6 8b3c 000d cf3c 4391 883c c2b8 6dbc
000001f0: 9624 283c 9abc bb3c d6bd b83b dbf2 eb3c

local1.conv.lin.weight f4 [128, 128]
0.13597342 -0.022393653 0.0033566752 0.046494514 -0.059321232 0.059404336 -0.08222139 -0.018819083
0.12658724 0.14239779 -0.088975005 -0.041136213 -0.027831815 0.16345367 0.065982245 -0.15364574
0.07532975 -0.0880287 -0.17333157 -0.0259484 -0.019748824 0.107448064 0.0465806 0.02817421
-0.12586121 -0.10896372 0.061798695 0.11982259 -0.04289757 0.07955859 0.1329199 -0.10434955
0.09698942 0.1704507 -0.054799557 -0.057457548 -0.08245893 0.047711805 0.06454805 -0.09694094
0.03039247 -0.09403322 -0.08188408 -0.14725246 0.11262613 -0.0045224247 -0.019026991 0.21372324
0.10267987 0.058511004 -0.006760534 0.071411915 0.011932917 0.13410574 -0.12157511 0.1432991
0.10499791 -0.088638395 -0.09477065 -0.13948295 0.0941641 -0.13941307 0.10455759 -0.035704836
0.060816895 0.13368027 0.15285116 -0.15038757 0.059810985 0.0016285953 0.03504309 -0.006463868
0.023494491 0.06285463 -0.1220714 -0.1100876 0.101587035 0.0735581 0.14197062 0.07698117
0.074338436 0.14008716 0.085238405 0.15543969 -0.043703515 0.092434615 0.1273508 -0.03810214
0.10741451 0.15111683 -0.13551976 -0.1254764 0.0129416725 0.011010611 -0.05813959 -0.15175845
-0.025982969 0.06917867 0.1063164 -0.0035961273 0.08753368 0.028933577 -0.15499859 -0.04261432
-0.034830984 -0.022137217 0.048060738 0.14274928 0.13597521 -0.05837054 0.029003538 -0.10555682
0.01629655 0.048592344 0.06425451 0.119851634 0.110944524 0.16154048 -0.11184457 0.1544179
-0.17091195 -0.007381641 -0.06632924 0.073109396 -0.15690912 0.08020697 -0.16953887 -0.0003008283
0.03447235 -0.04597002 0.018784624 0.044295363 -0.09262864 -0.1277087 0.008583921 -0.118141316
0.06189391 -0.12335328 0.029725388 0.028861172 -0.12709798 0.042619914 0.043694243 0.00783081
0.12511814 0.051754426 0.012312609 0.03630306 0.027162086 0.035040297 0.15818515 0.018047992
0.09311494 -0.073896945 0.060727563 -0.030193858 -0.042665977 0.061273336 -0.07528299 -0.053584754
-0.088181205 0.064824276 0.1453262 -0.07391244 0.047022894 0.05037742 -0.16650504 -0.13972655
-0.07611974 -0.061018433 0.03183467 0.047001757 0.10157587 0.19440533 0.10491819 0.10680073
-0.16052884 0.07755247 -0.08506123 0.11024559 0.12444665 -0.2105907 0.017235756 -0.065439634
0.016533192 -0.112763934 0.07234922 -0.04462391 -0.06373842 0.14555551 0.028108403 -0.06780456
-0.022071065 0.08347664 0.10269189 0.16814998 -0.019087862 -0.07298298 -0.11194922 0.12189901
-0.08944226 -0.09936999 -0.036752198 -0.10569904 0.13049841 -0.037087157 0.11959291 0.101240225
0.16742638 -0.100534655 0.12748231 0.1457191 -0.0009916002 0.17850763 -0.14576669 -0.15083827
-0.110790595 -0.08749439 0.074028485 0.07663623 0.10330738 -0.11549282 0.17818612 -0.037304353
0.09192745 -0.02890564 0.087112516 0.04124595 -0.18930383 0.09736304 -0.0069834455 -0.042715307
-0.07678949 0.053699676 0.005217119 -0.09608402 -0.035046425 0.16456765 0.1526999 0.047674835
0.028528366 -0.03226461 0.034997974 0.17440403 0.043865096 -0.029401554 -0.085844874 -0.12039537
0.11154079 0.07079065 0.0631861 0.067188844 0.05956423 -0.127701 0.05783757 -0.057213955
00000000: 9e3c 0b3e e572 b7bc aafb 5b3b 0871 3e3d
00000010: d2fa 72bd f651 733d b063 a8bd 7a2a 9abc
00000020: 16a0 013e bad0 113e 8738 b6bd 727e 28bd
00000030: 8cff e3bc 6660 273e b321 873d 4f55 1dbe
00000040: 7c46 9a3d 6448 b4bd d57d 31be bd91 d4bc
00000050: 49c8 a1bc bb0d dc3d 4dcb 3e3d 9acd e63c
00000060: c3e1 00be 5f28 dfbd a120 7d3d 8c65 f53d
00000070: 5db5 2fbd 9def a23d 271c 083e 38b5 d5bd
00000080: 64a2 c63d a18a 2e3e 8075 60bd 9b58 6bbd
00000090: 3ae0 a8bd 746d 433d c531 843d f988 c6bd
000000a0: a1f9 f83c 7d94 c0bd d7b2 a7bd 59c9 16be
000000b0: 87a8 e63d d930 94bb 7ede 9bbc 44da 5a3e
000000c0: d349 d23d 3ca9 6f3d 7887 ddbb 6940 923d
000000d0: 4882 433c 0453 093e 5ffc f8bd 00bd 123e
000000e0: 2509 d73d 0c88 b5bd 1d17 c2bd 9ed4 0ebe
000000f0: 1cd9 c03d 4dc2 0ebe 4a22 d63d 3c3f 12bd
00000100: 231b 793d 7be3 083e 0485 1c3e 33ff 19be
00000110: 5dfc 743d 9776 d53a 5889 0f3d dbce d3bb
00000120: 8577 c03c eeb9 803d 9200 fabd 9c75 e1bd
00000130: dd0c d03d a1a5 963d bf60 113e 4ea8 9d3d
00000140: c03e 983d 0273 0f3e 7991 ae3d 952b 1f3e
00000150: 7502 33bd 5c4e bd3d 4068 023e fd10 1cbd
00000160: 23fc db3d 5fbe 1a3e b1c5 0abe e37c 00be
00000170: 4f09 543c da65 343c c723 6ebd 9166 1bbe
00000180: 3cda d4bc 8cad 8d3d 6abc d93d 01ad 6bbb
00000190: dc44 b33d 1c06 ed3c f3b7 1ebe 5a8c 2ebd
000001a0: efaa 0ebd 1c59 b5bc 56db 443d de2c 123e
000001b0: 163d 0b3e f315 6fbd d498 ed3c 2d2e d8bd
000001c0: 5880 853c c408 473d de97 833d c674 f53d
000001d0: e236 e33d de6a 253e c40e e5bd ba1f 1e3e
000001e0: 8b03 2fbe b1e1 f1bb a0d7 87bd 61ba 953d
000001f0: c9ac 20be 8d43 a43d 999b 2dbe 7eb8 9db9
00000200: e132 0d3d 0f4b 3cbd 36e2 993c 0e6f 353d
00000210: 16b4 bdbd 12c6 02be 93a3 0c3c 13f4 f1bd
00000220: 7884 7d3d a5a0 fcbd a882 f33c 446e ec3c
00000230: f925 02be 3892 2e3d bcf8 323d cc4c 003c
00000240: f81e 003e 73fc 533d d3ba 493c 84b2 143d
00000250: 0683 de3c 6a86 0f3d 4afb 213e 62d9 933c
00000260: 0cb3 be3d 4857 97bd 77bd 783d 1c59 f7bc
00000270: 85c2 2ebd c0f9 7a3d f82d 9abd b07b 5bbd
00000280: 5998 b4bd 97c2 843d 64d0 143e 685f 97bd
00000290: 149b 403d 8e58 4e3d 4c80 2abe 7a14 0fbe
000002a0: abe4 9bbd 77ee 79bd 1265 023d ea84 403d
000002b0: 0207 d03d 3112 473e 59df d63d 57ba da3d
000002c0: ac61 24be d4d3 9e3d 9534 aebd 71c8 e13d
000002d0: e3dd fe3d 17a5 57be 0032 8d3c 3705 86bd
000002e0: 9e70 873c c7f0 e6bd d42b 943d 90c7 36bd
000002f0: 4a89 82bd 810c 153e 9843 e63c 1edd 8abd
00000300: 61ce b4bc cdf5 aa3d 2050 d23d 822f 2c3e
00000310: 265e 9cbc 1a78 95bd a245 e5bd 30a6 f93d
00000320: 812d b7bd 7e82 cbbd 7989 16bd bd78 d8bd
00000330: 60a1 053e b4e8 17bd 21ed f43d 0957 cf3d
00000340: d271 2b3e 1de5 cdbd b98a 023e 6337 153e
00000350: 95f8 81ba b4ca 363e dd43 15be 5975 1abe
00000360: 2ee6 e2bd 4230 b3bd 3f9c 973d 75f3 9c3d
00000370: d292 d33d 8087 ecbd 6c76 363e 73cc 18bd
00000380: 7544 bc3d 85cb ecbc 0c68 b23d 83f1 283d
00000390: ddd8 41be 4666 c73d 63d5 e4bb 3ff6 2ebd
000003a0: cf43 9dbd 31f4 5b3d 5ef4 aa3b b3c7 c4bd
000003b0: d78c 0fbd 6c84 283e 5d5d 1c3e b046 433d
000003c0: 52b4 e93c e527 04bd 095a 0f3d f896 323e
000003d0: e3ab 333d 87db f0bc 70cf afbd d991 f6bd
000003e0: 7f6f e43d b0fa 903d b767 813d 4e9a 893d
000003f0: 9ff9 733d 0dc4 02be 16e7 6c3d 2e59 6abd

local1.norm.weight f4 [128]
1.0384259 0.9615372 1.0340167 0.98839283 1.2357638 0.9251613 0.9678099 1.0416728
0.893961 0.96098316 0.93195987 1.0246289 1.1351435 0.95037174 1.0992101 1.0040157
1.0364474 0.9260372 0.96610546 0.9614172 0.9307796 0.9498274 0.9628398 0.98864603
0.91250354 1.1119717 1.0578352 1.0518761 0.9851652 1.0198227 0.95488846 0.9475153
1.036833 0.9605663 1.0209894 1.0035836 0.93512136 0.944408 1.066352 0.95134264
1.0652118 0.9479181 1.0247234 1.2236146 0.9644304 1.0107145 0.93051046 0.99913156
0.9805377 0.9929605 0.9952506 0.9969031 0.94013965 0.95905244 1.0035564 1.0635966
1.0246966 0.96548784 1.0639485 1.0229417 1.0431117 0.9516647 0.9836086 1.1118377
1.0382308 1.0124758 1.0195303 1.0444366 1.019822 0.9863081 1.0408255 1.0353051
0.9282157 1.0116582 1.0479516 0.98872066 0.99635386 1.0701467 0.9892183 1.0062869
1.0033613 1.0320486 1.0018376 0.9262604 1.0214612 0.9185504 1.104315 1.0093782
0.95188963 0.9730881 1.0360179 0.9863783 0.8934269 0.9349617 1.0041732 1.0285358
1.0783702 1.0254593 1.0638427 0.98552215 0.9531224 1.0520941 0.9364527 0.9434847
1.002893 1.0416731 0.9723519 1.0019923 1.0011394 1.0076897 1.0434451 0.9751741
0.99530125 0.96981895 0.9944312 0.99010795 0.9968432 1.1457684 1.1330888 0.96785885
0.97482634 0.9927433 0.9851757 1.0357888 0.9220481 0.9966002 1.0584054 0.9908143
00000000: 24eb 843f 4d27 763f a95a 843f 5007 7d3f
00000010: 822d 9e3f 5fd7 6c3f 64c2 773f 8955 853f
00000020: a1da 643f fe02 763f ec94 6e3f 0a27 833f
00000030: 624c 913f 904b 733f ebb2 8c3f 9683 803f
00000040: 4faa 843f c610 6d3f b052 773f 701f 763f
00000050: 9247 6e3f e327 733f ab7c 763f e817 7d3f
00000060: d599 693f 1755 8e3f 2567 873f e0a3 863f
00000070: c933 7c3f 8d89 823f 9273 743f 5d90 723f
00000080: f2b6 843f ace7 753f c8af 823f 6d75 803f
00000090: 1d64 6f3f b9c4 713f 397e 883f 318b 733f
000000a0: dc58 883f c3aa 723f 232a 833f 679f 9c3f
000000b0: e9e4 763f 185f 813f ef35 6e3f 16c7 7f3f
000000c0: 8504 7b3f a932 7e3f bec8 7e3f 0b35 7f3f
000000d0: feac 703f 7684 753f 8974 803f ef23 883f
000000e0: 4229 833f 362a 773f 772f 883f c1ef 823f
000000f0: af84 853f 4ca0 733f c6cd 7b3f b350 8e3f
00000100: bfe4 843f cf98 813f f87f 823f 19b0 853f
00000110: 8789 823f b07e 7c3f c539 853f e184 843f
00000120: 8b9f 6d3f 047e 813f 4723 863f cc1c 7d3f
00000130: 0c11 7f3f 91fa 883f 693d 7d3f 02ce 803f
00000140: 256e 803f 2b1a 843f 373c 803f 671f 6d3f
00000150: 3ebf 823f 1e26 6b3f 325a 8d3f 4e33 813f
00000160: 0aaf 733f 4d1c 793f 3c9c 843f 4a83 7c3f
00000170: a0b7 643f a659 6f3f bf88 803f 10a7 833f
00000180: 0908 8a3f 4042 833f ff2b 883f 2e4b 7c3f
00000190: d4ff 733f 05ab 863f 5dbb 6f3f 3788 713f
000001a0: cc5e 803f 8b55 853f 0eec 783f 4941 803f
000001b0: 5625 803f fafb 803f 9c8f 853f 03a5 793f
000001c0: 10cc 7e3f 0e46 783f 0b93 7e3f b777 7d3f
000001d0: 1e31 7f3f 8aa8 923f 0e09 913f 99c5 773f
000001e0: 388e 793f 6d24 7e3f 7a34 7c3f ba94 843f
000001f0: 580b 6c3f 3121 7f3f d479 873f 02a6 7d3f

local1.norm.bias f4 [128]
-0.019430483 -0.07051452 -0.034271505 -0.0632265 -0.038292427 -0.08556973 -0.08627023 -0.06714877
-0.104209885 -0.036642577 -0.08278595 -0.06073901 -0.062008888 -0.095190585 -0.09152351 -0.07694354
-0.07823876 -0.06682574 -0.061216023 -0.09471294 -0.07459577 -0.09625213 -0.06723185 -0.05981118
-0.07509685 -0.047332034 -0.07966111 -0.029252924 -0.053849313 -0.05337713 -0.08086521 -0.08442756
-0.06028963 -0.0735934 -0.07297977 -0.053280372 -0.068545625 -0.071941964 -0.06941648 -0.101634935
-0.07241858 -0.09094321 -0.025433931 -0.026630022 -0.04973104 -0.06696979 -0.1304312 -0.05737184
-0.059180427 -0.0555651 -0.02415881 -0.091012724 -0.11015418 -0.07040774 -0.056061678 -0.041958585
-0.030019978 -0.06198257 -0.03691985 -0.04672915 -0.046088677 -0.12655376 -0.040502448 -0.09215863
-0.044983003 -0.08322633 -0.044914477 -0.04775077 -0.06413341 -0.108229935 -0.064890385 -0.069686376
-0.08549442 -0.056154206 -0.08333273 -0.038649097 -0.07337199 -0.038142048 -0.06388337 -0.049052287
-0.072923236 -0.044014793 -0.11272976 -0.115592875 -0.022621308 -0.09579448 -0.09205653 -0.047507793
-0.07162282 -0.08455782 -0.036055956 -0.07228538 -0.0841261 -0.06925127 -0.067687884 -0.082969606
-0.088892825 -0.06798177 -0.1136219 -0.06605759 -0.047552526 -0.018951425 -0.09034633 -0.091815926
-0.10684792 -0.05682219 -0.0794033 -0.07522232 -0.051400293 -0.079880394 -0.083619475 -0.04464373
-0.06946333 -0.07688628 -0.10388437 -0.11532096 -0.07734544 -0.014431158 -0.031934038 -0.09145225
-0.057085544 -0.0679598 -0.11206194 -0.0450873 -0.027305033 -0.049926326 -0.048934896 -0.09908906
00000000: ad2c 9fbc eb69 90bd 4760 0cbd e57c 81bd
00000010: 85d8 1cbd 2f3f afbd 72ae b0bd 4b85 89bd
00000020: fe6b d5bd 8716 16bd ae8b a9bd 78c9 78bd
00000030: 08fd 7dbd 48f3 c2bd ae70 bbbd 9394 9dbd
00000040: a53b a0bd efdb 88bd a7bd 7abd dcf8 c1bd
00000050: abc5 98bd d61f c5bd dab0 89bd 91fc 74bd
00000060: 61cc 99bd 3cdf 41bd 5d25 a3bd d4a3 efbc
00000070: 1991 5cbd faa1 5abd a99c a5bd 5be8 acbd
00000080: 42f2 76bd 23b8 96bd 6b76 95bd 853c 5abd
00000090: a661 8cbd 4f56 93bd 3a2a 8ebd fa25 d0bd
000000a0: 3150 94bd 6f40 babd d25a d0bc 3427 dabc
000000b0: c6b2 4bbd 7527 89bd c28f 05be bcfe 6abd
000000c0: 2d67 72bd 3b98 63bd b2e8 c5bc e164 babd
000000d0: 8498 e1bd ef31 90bd eea0 65bd c4dc 2bbd
000000e0: 75ec f5bc 6fe1 7dbd 4539 17bd 1167 3fbd
000000f0: 7bc7 3cbd 4f97 01be e5e5 25bd aabd bcbd
00000100: 1940 38bd 9172 aabd 3ef8 37bd 5096 43bd
00000110: 6158 83bd a8a7 ddbd 40e5 84bd bbb7 8ebd
00000120: b317 afbd f401 66bd 5aaa aabd 844e 1ebd
00000130: 0e44 96bd d63a 1cbd 49d5 82bd 0deb 48bd
00000140: c758 95bd db48 34bd dcde e6bd f5bb ecbd
00000150: 5250 b9bc e52f c4bd 2288 bcbd 8897 42bd
00000160: fcae 92bd a62c adbd 69af 13bd 5b0a 94bd
00000170: 4e4a acbd 9cd3 8dbd f29f 8abd f8eb a9bd
00000180: 710d b6bd 073a 8bbd 99b2 e8bd 3449 87bd
00000190: 70c6 42bd 0540 9bbc 7f07 b9bd fd09 bcbd
000001a0: 15d3 dabd 62be 68bd 339e a2bd 290e 9abd
000001b0: 1d89 52bd 5598 a3bd b040 abbd 58dc 36bd
000001c0: ca42 8ebd 8e76 9dbd 54c1 d4bd 652d ecbd
000001d0: 4967 9ebd aa70 6cbc 44cd 02bd 514b bbbd
000001e0: 88d2 69bd 822e 8bbd bb80 e5bd 76ad 38bd
000001f0: ceae dfbc 8c7f 4cbd f56f 48bd 35ef cabd

local2.conv.bias f4 [128]
0.0014774415 0.09100569 0.0101844985 0.0022666953 0.0035189684 0.00048175664 0.0025278137 -0.07591679
0.002444827 -0.009715522 0.0023248843 0.0031177662 0.0027120681 0.00040475623 0.0014205888 0.0014758109
0.00078361836 0.003671583 -0.026184434 0.015042204 0.001614134 0.0023108684 0.00020677352 0.0003379941
0.0025733863 0.0006983115 -0.0038058907 0.0021328228 0.003401568 0.002468593 0.0006812842 0.0031288615
0.0020186969 -0.020480338 0.0003010821 0.004438234 0.0046592643 0.00047510676 -5.218984e-05 0.0004065505
0.011377505 -0.00010653086 0.020053385 0.0015254786 0.02268126 0.0002237937 0.0022566072 0.0029282027
-0.000725736 -0.0024025235 0.0013384956 0.0022609546 -0.09632303 0.0021630675 0.0018087563 0.0019173343
0.0024600355 0.002404601 0.004922695 0.0026291846 0.0019452345 0.001911425 0.0026549015 0.0026094976
0.0005906381 -0.00064664107 0.0024094458 0.00047314534 0.0042338404 0.0013452467 0.0027215986 0.0034702313
-0.00084329775 0.0029084508 -0.026129333 0.0028467479 -0.007563259 -0.00030250917 -0.00036743472 0.0028125204
0.0042512463 0.0022954023 0.003969401 -0.0034441054 0.0029819014 0.0014500944 0.003854913 -0.001302786
0.003368571 0.0034806833 0.002149441 -0.005388146 0.0043084705 0.012461453 0.018619958 0.002066551
0.008589388 0.0021715043 0.0019250527 0.0023690409 0.025224406 0.007927714 0.0016021936 -0.0003601812
0.0006781636 -0.09742337 0.0021379357 0.0027742288 -0.00058244285 -0.0029409255 0.00094066985 0.002733679
0.0019097893 0.0041888244 0.0073274835 0.0012579757 0.00081458216 0.0048378496 0.00324443 0.0011313714
0.002073735 0.0006721302 0.008676751 0.00532548 0.0034547562 0.03603213 0.05522223 0.0035891598
00000000: b6a6 c13a 3161 ba3d e2dc 263c d68c 143b
00000010: 7e9e 663b 4894 fc39 ada9 253b 437a 9bbd
00000020: 6439 203b da2d 1fbc 165d 183b 7053 4c3b
00000030: f4bc 313b 7635 d439 0d33 ba3a ff6f c13a
00000040: bd6b 4d3a f19e 703b bd80 d6bc 9473 763c
00000050: 5991 d33a f071 173b 58d1 5839 cd34 b139
00000060: 42a6 283b e40e 373a 406c 79bb d4c6 0b3b
00000070: d7ec 5e3b 1ec8 213b 3598 323a 960d 4d3b
00000080: 1d4c 043b 62c6 a7bc 8eda 9d39 9b6e 913b
00000090: beac 983b c017 f939 6ae6 5ab8 4926 d539
000000a0: b768 3a3c 5269 dfb8 ff46 a43c 91f2 c73a
000000b0: 0dce b93c 2aaa 6a39 96e3 133b 17e7 3f3b
000000c0: 523f 3eba a873 1dbb 7670 af3a 862c 143b
000000d0: 0245 c5bd 40c2 0d3b ca13 ed3a 104f fb3a
000000e0: 8c38 213b 8396 1d3b 8f4e a13b 664e 2c3b
000000f0: 3df7 fe3a c888 fa3a dbfd 2d3b 1b04 2b3b
00000100: 0dd5 1a3a 5983 29ba cbe7 1d3b 7e10 f839
00000110: 07bc 8a3b fd52 b03a d95c 323b d26c 633b
00000120: c110 5dba b59b 3e3b 2f0d d6bc 8190 3a3b
00000130: 37d5 f7bb 189a 9eb9 41a4 c0b9 4352 383b
00000140: 0a4e 8b3b 766e 163b c011 823b 80b6 61bb
00000150: 016c 433b 1811 be3a b5a2 7c3b 3fc2 aaba
00000160: 3ec3 5c3b 2d1c 643b a3dd 0c3b 0b8f b0bb
00000170: 122e 8d3b 1f2b 4c3c e288 983c f96e 073b
00000180: 81ba 0c3c cc4f 0e3b 0d52 fc3a e941 1b3b
00000190: 6aa3 ce3c 3ee3 013c b200 d23a b4d6 bcb9
000001a0: cac6 313a e785 c7bd 9c1c 0c3b d6cf 353b
000001b0: 14af 18ba 8bbc 40bb 4997 763a 8627 333b
000001c0: e551 fa3a 6842 893b 631b f03b a9e2 a43a
000001d0: af89 553a d386 9e3b 81a0 543b 864a 943a
000001e0: 80e7 073b e531 303a ee28 0e3c 5d81 ae3b
000001f0: 3169 623b 6d96 133d b430 623d 1c38 6b3b

local2.conv.lin.weight f4 [128, 128]
-0.21730363 0.030766325 0.12391936 0.048592467 0.017585553 -0.002794206 0.045415465 -0.06643176
-0.13968949 0.08854806 0.004444554 -0.07617159 -0.05638473 -0.024524827 -0.0422273 0.047765892
0.06514216 0.005097026 -0.048236344 0.12577225 0.11055418 0.15652952 0.03892767 0.1392669
0.003835313 -0.26308498 -0.038136646 0.0548355 0.10155907 -0.07220831 -0.033299357 -0.015707368
-0.18165277 0.031595036 0.03259837 0.04988083 -0.029977664 -0.093256086 -0.281683 0.088594094
0.21749665 0.11624216 -0.078760035 -0.107093565 -0.14464404 0.07186697 0.14797923 0.043389007
-0.10018149 -0.041842535 -0.039768796 -0.06397451 -0.046490885 0.044901792 0.16179883 -0.21259788
-0.119218215 0.035945114 0.11647474 0.08630285 -0.20535883 0.05865491 -0.21131599 -0.038042475
-0.25547823 -0.08195237 0.07626857 -0.04556681 -0.160763 0.02530268 -0.07096746 -0.032150656
0.109559454 -0.13441336 0.07320809 0.067401044 0.18835592 -0.0025630346 0.10349442 -0.023944108
-0.110426255 -0.0884163 0.08948784 0.13743089 -0.06253516 0.13436244 -0.045519978 0.058257837
-0.12174255 -0.04426151 -0.0745209 -0.059568405 -0.01874933 0.07453885 -0.16545723 -0.06258466
-0.09369779 -0.0063296626 0.04835386 0.05452759 -0.06825666 -0.017759584 0.06793839 -0.08067837
0.0489025 0.14697398 -0.053030204 0.122426614 -0.1323014 0.08181709 0.15215807 -0.025367144
0.020578397 0.0710681 0.15527688 -0.06468766 0.09229047 -0.052385483 0.0039517363 0.10593307
-0.059792925 -0.031306047 0.076422 -0.050346836 -0.13579227 -0.052160364 -0.03406162 0.053912297
0.12175663 -0.13370167 0.08354992 -0.06666506 0.14101842 -0.091818266 0.14260471 -0.076859556
-0.048564844 0.09647663 0.11661207 0.048450682 0.18318291 -0.025105475 -0.1424915 0.08626434
-0.14824404 0.03723723 -0.0600284 0.077489175 0.036324546 -0.026657488 -0.13317992 0.15261324
0.11375622 -0.09108978 -0.12529486 0.018951248 -0.022969345 -0.1246363 0.056132574 -0.01930555
-0.0086680325 0.035567142 0.07729135 -0.033622574 0.042540863 -0.045663483 0.026171371 -0.074125156
0.026930163 -0.044011787 0.08589927 0.019693233 -0.022944959 -0.03774974 -0.06827488 -0.024999857
0.020619905 -0.14090136 0.13541402 0.020046934 0.020628516 0.056954257 0.13139664 0.10123601
0.067122206 -0.06680987 0.12402999 0.11884584 -0.0053569027 0.16062924 0.116075516 0.02810957
0.18871552 -0.043843687 0.009000729 0.105433695 0.030988537 -0.16791216 0.09562305 -0.11453632
0.06877454 0.062988095 -0.06712281 0.043816555 -0.15839097 0.10870707 -0.013438595 0.0944104
-0.05489649 -0.013065751 -0.10075762 -0.045377985 0.12237859 -0.018523915 0.13096298 0.0018188648
0.1072302 0.03711816 -0.06717275 -0.104142584 0.1336207 -0.041780513 -0.10095604 -0.04081183
-0.113958225 0.012674473 -0.14467749 0.10367285 0.07394416 -0.12304836 -0.03307416 0.11076104
-0.013690748 0.072629526 -0.07542726 0.1344649 0.11045145 -0.1905831 -0.038931888 0.105023734
-0.06207073 -0.046059243 -0.09375787 -0.03144835 -0.014211684 0.12191519 0.03121266 -0.047239166
-0.20056432 0.08835288 0.11893339 0.089929305 0.013307409 -0.08992297 0.02833735 -0.036622167
00000000: d884 5ebe a909 fc3c 6fc9 fd3d e508 473d
00000010: 940f 903c ff1e 37bb 9105 3a3d 600d 88bd
00000020: c30a 0fbe af58 b53d 9fa3 913b daff 9bbd
00000030: adf3 66bd 4ae8 c8bc 89f6 2cbd 2ba6 433d
00000040: 4169 853d f404 a73b 7993 45bd 71ca 003e
00000050: 3b6a e23d 4649 203e 9f72 1f3d fb9b 0e3e
00000060: e059 7b3b 13b3 86be 2c35 1cbd 309b 603d
00000070: 34fe cf3d f3e1 93bd e864 08bd bdac 80bc
00000080: 2f03 3abe cc69 013d de85 053d d74f 4c3d
00000090: b893 f5bc 0cfd bebd c138 90be d270 b53d
000000a0: 71b7 5e3e 5f10 ee3d f14c a1bd df53 dbbd
000000b0: 911d 14be fd2e 933d de87 173e acb8 313d
000000c0: f42b cdbd 1463 2bbd 9be4 22bd 1105 83bd
000000d0: 3a6d 3ebd f1ea 373d 98ae 253e 42b3 59be
000000e0: ae28 f4bd 2f3b 133d 4f8a ee3d 8cbf b03d
000000f0: 9649 52be 2240 703d 3863 58be 6dd2 1bbd
00000100: 0bce 82be a5d6 a7bd b232 9c3d 43a4 3abd
00000110: 0e9f 24be 9147 cf3c 6357 91bd 68b0 03bd
00000120: b560 e03d a8a3 09be 20ee 953d 8f09 8a3d
00000130: 60e0 403e 96f8 27bb e2f4 d33d 6f26 c4bc
00000140: 2927 e2bd 9b13 b5bd 6745 b73d afba 0c3e
00000150: 6f12 80bd 4f96 093e 2873 3abd c59f 6e3d
00000160: 2854 f9bd 8f4b 35bd 6a9e 98bd 00fe 73bd
00000170: 3298 99bc d3a7 983d 9f6d 29be 632c 80bd
00000180: a0e4 bfbd 0f69 cfbb b20e 463d 5258 5f3d
00000190: 26ca 8bbd 8c7c 91bc 4823 8b3d b43a a5bd
000001a0: fd4d 483d 5980 163e 3336 59bd ceba fa3d
000001b0: 057a 07be b88f a73d 53cf 1b3e c2ce cfbc
000001c0: 0794 a83c 278c 913d e700 1f3e f77a 84bd
000001d0: c902 bd3d 2992 56bd 917d 813b 70f3 d83d
000001e0: 6de9 74bd c53a 00bd 2383 9c3d 7c38 4ebd
000001f0: 210d 0bbe 1ba6 55bd 3284 0bbd 24d3 5c3d
00000200: 8a5b f93d 17e9 08be 381c ab3d b187 88bd
00000210: 2267 103e 370b bcbd f806 123e 8b68 9dbd
00000220: eeeb 46bd 8a95 c53d 4fd2 ee3d 3974 463d
00000230: 4d94 3b3e ffa9 cdbc 4be9 11be 5cab b03d
00000240: 49cd 17be 1186 183d 57e0 75bd a5b2 9e3d
00000250: 0cc9 143d ce60 dabc 5160 08be a546 1c3e
00000260: 05f9 e83d 478d babd 4c4d 00be a63f 9b3c
00000270: 352a bcbc 5141 ffbd 45eb 653d ac26 9ebc
00000280: 5d04 0ebc daae 113d ed4a 9e3d d3b7 09bd
00000290: 543f 2e3d a209 3bbd 5865 d63c eece 97bd
000002a0: a59c dc3c b445 34bd f5eb af3d b453 a13c
000002b0: 11f7 bbbc 799f 1abd b3d3 8bbd 80cc ccbc
000002c0: 13eb a83c 7248 10be f9a9 0a3e 7839 a43c
000002d0: 22fd a83c de48 693d d78c 063e d354 cf3d
000002e0: 5e77 893d 9dd3 88bd 6f03 fe3d 7365 f33d
000002f0: f588 afbb fe7b 243e 00b9 ed3d 0a46 e63c
00000300: a43e 413e 7095 33bd cb77 133c 9fed d73d
00000310: acdb fd3c 2af1 2bbe 05d6 c33d 0592 eabd
00000320: abd9 8c3d e7ff 803d af77 89bd fd78 333d
00000330: 3e31 22be d0a1 de3d 8e2d 5cbc 3d5a c13d
00000340: 24db 60bd bb11 56bc 035a cebd 44de 39bd
00000350: a0a1 fa3d 77bf 97bc 291b 063e fa66 ee3a
00000360: 829b db3d 3609 183d de91 89bd b548 d5bd
00000370: ddd3 083e 0b22 2bbd 0ac2 cebd 4e2a 27bd
00000380: ee62 e9bd 98a8 4f3c 5626 14be 6e52 d43d
00000390: 0970 973d c700 fcbd c578 07bd afd6 e23d
000003a0: 294f 60bc cabe 943d 9b79 9abd 2bb1 093e
000003b0: 5f34 e23d 3728 43be 0b77 1fbd af16 d73d
000003c0: e13d 7ebd 9ea8 3cbd 2004 c0bd fccf 00bd
000003d0: 20d8 68bc acae f93d b1b1 ff3c db7d 41bd
000003e0: bc60 4dbe 5bf2 b43d 5993 f33d db2c b83d
000003f0: 5207 5a3c 8929 b8bd bb23 e83c 2001 16bd

local2.norm.weight f4 [128]
0.9371573 0.89229643 0.8542786 1.047491 0.8730163 1.0466714 0.9653253 0.93599707
0.95837975 1.0297774 0.9013708 0.9445247 0.93193054 0.91617364 1.0288432 0.9729891
0.94326556 0.8809197 0.9231732 0.9933879 0.9940731 1.014563 0.9807748 0.9771873
0.9427471 1.0764242 0.9502546 1.0322587 0.8884295 0.9234358 0.9515788 0.8814301
0.89278764 1.0846124 1.139962 0.880918 0.91246367 0.95321935 0.9466805 0.9512582
0.85797554 0.99980503 0.9190085 0.98787636 1.0168403 0.957261 0.97196496 0.9170284
0.9489875 0.9888137 0.99455696 0.96619725 1.033425 1.0296024 0.99937296 0.9706467
1.031062 0.91792154 0.8120038 0.9553023 0.95094895 0.9668497 1.0030098 0.9093089
1.0282049 0.9291968 0.9431715 0.9207226 0.8830632 1.0284767 0.921316 0.9040418
0.9912171 1.0073735 0.92647773 0.9532741 0.912401 1.0288639 0.94885 0.9296565
0.89133704 0.978835 0.8436262 0.86530334 0.8844142 0.9596258 0.92420554 0.9828234
0.873006 0.90896744 0.9238779 0.9478534 0.88692415 0.9888346 0.9160896 1.0387735
0.9387117 0.95707655 0.93765515 0.91612864 0.87038136 0.86175287 0.9855188 0.97891104
0.9485841 1.0822556 0.9531091 0.91946226 0.90528274 0.93459505 0.98243666 1.0616561
0.94646984 0.8348674 0.79961807 0.95174026 1.1619238 0.9262081 0.9202252 1.0159045
1.0516206 1.0006751 0.92867225 0.85851264 0.9362538 0.890614 0.90011173 0.93133754
00000000: 8ae9 6f3f 8a6d 643f 01b2 5a3f 2f14 863f
00000010: ff7d 5f3f 54f9 853f 8f1f 773f 819d 6f3f
00000020: 6058 753f bfcf 833f 3dc0 663f 5fcc 713f
00000030: 0093 6e3f 5b8a 6a3f 22b1 833f d015 793f
00000040: da79 713f f483 613f 1455 6c3f ab4e 7e3f
00000050: 937b 7e3f 33dd 813f 0f14 7b3f f228 7a3f
00000060: e057 713f 45c8 893f e343 733f 0e21 843f
00000070: 1e70 633f 4a66 6c3f ab9a 733f 67a5 613f
00000080: bb8d 643f 94d4 8a3f 46ea 913f d883 613f
00000090: 3897 693f 2f06 743f a759 723f a885 733f
000000a0: 49a4 5b3f 39f3 7f3f 2444 6b3f 77e5 7c3f
000000b0: d327 823f 0f0f 753f b2d2 783f 60c2 6a3f
000000c0: d8f0 723f e522 7d3f 499b 7e3f b458 773f
000000d0: 4547 843f 03ca 833f e8d6 7f3f 4d7c 783f
000000e0: d7f9 833f e8fc 6a3f 7bdf 4f3f b18e 743f
000000f0: 6471 733f 7683 773f a062 803f 78c8 683f
00000100: 389c 833f d7df 6d3f b073 713f 7ab4 6b3f
00000110: 6e10 623f 20a5 833f 5edb 6b3f 496f 673f
00000120: 67c0 7d3f 9df1 803f a52d 6d3f c509 743f
00000130: 1d93 693f d0b1 833f d5e7 723f f8fd 6d3f
00000140: aa2e 643f ee94 7a3f e3f7 573f 8584 5d3f
00000150: f868 623f 09aa 753f bc98 6c3f 509a 7b3f
00000160: 527d 5f3f 17b2 683f 4383 6c3f 85a6 723f
00000170: 760d 633f 4424 7d3f d984 6a3f 88f6 843f
00000180: 694f 703f f802 753f 2b0a 703f 6887 6a3f
00000190: 50d1 5e3f d69b 5c3f f64a 7c3f ea99 7a3f
000001a0: 68d6 723f 5a87 8a3f f5fe 733f e161 6b3f
000001b0: 9cc0 673f 9f41 6f3f f880 7b3f 59e4 873f
000001c0: d94b 723f dfb9 553f c5b3 4c3f 40a5 733f
000001d0: ebb9 943f f91b 6d3f e193 6b3f 2909 823f
000001e0: 819b 863f 1f16 803f 77bd 6d3f 7cc7 5b3f
000001f0: 54ae 6f3f 47ff 633f b96d 663f 236c 6e3f

local2.norm.bias f4 [128]
-0.07907656 -0.11843247 -0.17031632 -0.07849866 -0.16141132 -0.09905026 -0.09556913 -0.08385436
-0.078571275 -0.06050055 -0.11420004 -0.09390192 -0.08325699 -0.08670697 -0.05672098 -0.079638906
-0.06808914 -0.13581578 -0.09429632 -0.074194565 -0.11763057 -0.066785656 -0.06408078 -0.041634005
-0.15710874 -0.08503028 -0.048190694 -0.09349584 -0.11532392 -0.11236354 -0.07219052 -0.1459831
-0.09630802 -0.05608102 -0.07019235 -0.18313192 -0.1297383 -0.06447877 -0.07820772 -0.077609256
-0.18907933 -0.05059627 -0.11493782 -0.094212316 -0.07668428 -0.067015216 -0.06847313 -0.105472594
-0.018013706 -0.058278736 -0.08120762 -0.062755734 -0.049270034 -0.07592339 -0.071928374 -0.045344725
-0.07290677 -0.10988165 -0.1995092 -0.10333496 -0.10055281 -0.069182724 -0.08447678 -0.1205149
-0.06693023 -0.08738705 -0.058361184 -0.07220199 -0.14370325 -0.045574125 -0.10351063 -0.11547697
-0.06917481 -0.09249768 -0.13258567 -0.09123161 -0.10716407 -0.00812363 -0.07614856 -0.12005604
-0.15768653 -0.06722052 -0.15831997 -0.15833862 -0.10086666 -0.06880256 -0.12751693 -0.069461174
-0.13524023 -0.107800364 -0.11289432 -0.073861636 -0.16442643 -0.10495315 -0.10254576 -0.09894684
-0.078963704 -0.1035878 -0.086493835 -0.07563915 -0.13288133 -0.18905808 -0.07945993 -0.08789968
-0.06602996 -0.11146701 -0.098716125 -0.11402756 -0.068838015 -0.060341526 -0.06997825 -0.079607725
-0.062094577 -0.1715959 -0.19143297 -0.11379174 -0.046616726 -0.18484177 -0.12522489 -0.045253005
-0.07288661 -0.050120924 -0.10126479 -0.21333724 -0.13467583 -0.16768032 -0.1708032 -0.14504252
00000000: e4f2 a1bd b98c f2bd 6767 2ebe e8c3 a0bd
00000010: 0249 25be ddda cabd bfb9 c3bd d6bb abbd
00000020: fae9 a0bd 6dcf 77bd b6e1 e9bd a64f c0bd
00000030: a482 aabd 6d93 b1bd 4254 68bd b919 a3bd
00000040: 5272 8bbd 4b13 0bbe 6e1e c1bd 52f3 97bd
00000050: 4ce8 f0bd ebc6 88bd c93c 83bd 6b88 2abd
00000060: 1de1 20be 5b24 aebd 9b63 45bd bf7a bfbd
00000070: f32e ecbd db1e e6bd a0d8 93bd 987c 15be
00000080: 243d c5bd 36b5 65bd 02c1 8fbd ef86 3bbe
00000090: 1eda 04be 720d 84bd 5e2b a0bd 9af1 9ebd
000000a0: 039e 41be 093e 4fbd 8564 ebbd 63f2 c0bd
000000b0: a60c 9dbd 463f 89bd a43b 8cbd 0402 d8bd
000000c0: 7b91 93bc afb5 6ebd 2e50 a6bd 1486 80bd
000000d0: 60cf 49bd b97d 9bbd 2f4f 93bd 64bb 39bd
000000e0: 2550 95bd a109 e1bd 244c 4cbe 48a1 d3bd
000000f0: a2ee cdbd acaf 8dbd 2902 adbd 84d0 f6bd
00000100: b712 89bd fbf7 b2bd 230c 6fbd a3de 93bd
00000110: f226 13be efab 3abd 62fd d3bd 317f ecbd
00000120: 86ab 8dbd 6c6f bdbd 8ac4 07be a3d7 babd
00000130: d678 dbbd f918 05bc c7f3 9bbd f1df f5bd
00000140: 9478 21be e9aa 89bd a11e 22be 8523 22be
00000150: 2e93 cebd 5be8 8cbd cc93 02be a941 8ebd
00000160: 6a7c 0abe 70c6 dcbd 2335 e7bd c544 97bd
00000170: 675f 28be adf1 d6bd 8303 d2bd a4a4 cabd
00000180: b9b7 a1bd d725 d4bd ae23 b1bd b3e8 9abd
00000190: 0b12 08be 7198 41be e3bb a2bd bf04 b4bd
000001a0: b73a 87bd d148 e4bd ae2b cabd 4887 e9bd
000001b0: f2fa 8cbd ad28 77bd c250 8fbd 6009 a3bd
000001c0: e256 7ebd d6b6 2fbe 0107 44be a50b e9bd
000001d0: 2ef1 3ebd 2947 3dbe f43a 00be 375b 39bd
000001e0: 9345 95bd 994b 4dbd ea63 cfbd 1475 5abe
000001f0: 76e8 09be 64b4 2bbe 09e7 2ebe 0786 14be

meso.Wq.weight f4 [128, 128]
-0.078795984 0.029552076 0.02751774 0.06111577 0.05229331 0.026211051 -0.014620525 -0.058470935
-0.059904482 0.025304148 -0.15012795 -0.039652042 0.062416658 0.008270817 -0.00048372836 0.028575763
0.0038470982 -0.1392499 0.021488084 -0.021934954 -0.024008647 -0.05790301 0.0075544403 -0.0608988
0.020919487 -0.11959969 0.0046782685 0.008250551 -0.04440247 0.04103793 0.0108398665 0.04431282
0.09251817 0.10943497 0.027173081 0.02019748 -0.0111939255 0.0064100237 -0.05088704 0.057698708
-0.0505017 0.07783457 -0.063339695 -0.09968132 0.060061675 -0.023878204 -0.0008644419 -0.025280593
0.042211205 -0.08631985 -0.12651812 -0.009212424 0.006187605 -0.024359835 0.015550474 0.036930006
0.03042405 0.015666855 0.009275193 -0.047515683 0.087710135 0.007521297 0.035808064 0.05579613
0.14929982 0.017594794 -0.002777603 -0.022784142 -0.039771523 0.042498462 -0.11735623 0.052494723
0.044647586 -0.056577545 0.014889055 0.019705988 0.11531758 -0.029061742 -0.08335324 0.08422064
0.09881002 -0.010894511 -0.060953137 0.077546984 -0.069724016 0.10035165 0.09237215 -0.03300859
-0.0031225958 -0.037963346 -0.073084116 -0.08228902 0.076030895 0.015360206 -0.043551862 -0.066256166
-0.04101068 -0.03745333 0.015030492 0.07960426 -0.117138006 0.09434505 0.057443112 -0.018488532
0.09656972 -0.016837668 0.005526489 -0.10618384 0.03849347 0.037701197 0.001081711 -0.019950686
0.061051257 -0.04412542 0.036505528 -0.013421487 -0.083663404 -0.0629577 0.10771585 -0.006304931
0.030571122 0.06929286 0.0046114074 0.04887408 -0.013917597 -0.08445238 0.080179326 -0.05048969
-0.05545854 0.028949894 0.04058235 0.007920904 0.16276765 -0.024807608 0.04315779 0.07717194
0.019316887 0.10224415 0.0025477624 0.06514881 -0.033746812 -0.007513591 0.13018984 -0.15106441
0.10003771 0.0523951 0.038124338 0.0016714423 -0.111206196 -0.019962233 0.021145664 0.09068447
-0.017238712 -0.0046226266 -0.07982112 0.13695079 0.004681818 0.057515036 0.06580735 -0.061436556
-0.061360426 -0.046737462 0.04585175 0.0024609785 0.04191999 -0.05398505 0.08316985 -0.0055725873
-0.047209598 -0.012955185 0.058437854 0.1281352 -0.010760934 -0.08917087 -0.12167783 -0.04713317
-0.037833493 0.018728672 0.023435188 0.10481123 0.09947059 0.1307615 0.10390428 -0.013461072
0.07593447 -0.07401789 0.025370086 0.07128455 -0.017661998 -0.046813164 -0.026888555 0.024477465
-0.10772256 -0.11653965 -0.037959103 -0.11635923 -0.046648078 -0.115055874 -0.07923307 -0.08165623
-0.007631786 0.05458821 0.07161496 -0.014721223 0.028340533 -0.059512954 -0.07053287 0.043240353
0.08027978 0.024465235 -0.0342556 0.019911502 -0.12470501 0.10338788 0.019293306 -0.0724383
-0.021272449 0.0042421725 0.11088769 0.08920014 -0.015064572 -0.00020544685 -0.046976794 -0.008543405
0.043174244 -0.06012428 -0.06102211 0.08049373 -0.08274044 0.021264914 0.021334725 0.09170052
-0.031204684 0.028609468 -0.0039176717 -0.00921428 0.057177212 -0.011733089 0.025340693 0.18983367
-0.08877141 -0.009347595 -0.094648406 0.028469287 0.10587053 -0.090735234 -0.00095558586 0.0980637
-0.057356764 0.029169481 0.09000523 0.0424059 0.113724 -0.07512791 0.02416437 -0.10047126
00000000: ca5f a1bd 3217 f23c e26c e13c 8854 7a3d
00000010: 8331 563d 8fb8 d63c ed8a 6fbc 387f 6fbd
00000020: 675e 75bd a54a cf3c 24bb 19be 2e6a 22bd
00000030: 9ca8 7f3d 5282 073c ec9c fdb9 b817 ea3c
00000040: 991f 7c3b 8797 0ebe c707 b03c efb0 b3bc
00000050: c8ad c4bc b52b 6dbd 3d8b f73b 0571 79bd
00000060: 585f ab3c aff0 f4bd 294c 993b 522d 073c
00000070: 5ddf 35bd 6317 283d b299 313c 5c81 353d
00000080: 2b7a bd3d 711f e03d 159a de3c 3075 a53c
00000090: ba66 37bc 2d0b d23b ee6e 50bd 7b55 6c3d
000000a0: dfda 4ebd bb67 9f3d 3eb8 81bd b825 ccbd
000000b0: 3b03 763d 399c c3bc b79b 62ba 3f19 cfbc
000000c0: a8e5 2c3d 76c8 b0bd f78d 01be b5ef 16bc
000000d0: 65c1 ca3b 478e c7bc 6ac7 7e3c eb43 173d
000000e0: db3b f93c c757 803c fbf6 173c ce9f 42bd
000000f0: 5fa1 b33d 3675 f63b 7aab 123d 7c8a 643d
00000100: 0de2 183e f522 903c 7208 36bb cfa5 babc
00000110: 77e7 22bd de12 2e3d 7758 f0bd b504 573d
00000120: 63e0 363d dbbd 67bd 39f1 733c 746e a13c
00000130: a02b ec3d e412 eebc 1ab5 aabd df7b ac3d
00000140: e85c ca3d e47e 32bc ffa9 79bd f4d0 9e3d
00000150: 77cb 8ebd 2a85 cd3d 9c2d bd3d 0434 07bd
00000160: 77a4 4cbb 747f 1bbd 20ad 95bd 2587 a8bd
00000170: 16b6 9b3d 60a9 7b3c 7063 32bd 50b1 87bd
00000180: d1fa 27bd aa68 19bd 7442 763c 8f07 a33d
00000190: 0de6 efbd fa37 c13d 7849 6b3d 4375 97bc
000001a0: 58c6 c53d 26ef 89bc 8d17 b53b ea76 d9bd
000001b0: 54ab 1d3d 926c 1a3d 33c8 8d3a 9f6f a3bc
000001c0: e210 7a3d dbbc 34bd d286 153d cce5 5bbc
000001d0: b857 abbd f7ef 80bd 219a dc3d 9899 cebb
000001e0: 4a70 fa3c 6ae9 8d3d 4a1b 973b 3030 483d
000001f0: a206 64bc 5ff5 acbd 0f35 a43d 47ce 4ebd
00000200: 7e28 63bd 5428 ed3c ae39 263d aec6 013c
00000210: 90ac 263e 5339 cbbc 39c6 303d 520c 9e3d
00000220: 733e 9e3c 6265 d13d 5cf8 263b bd6c 853d
00000230: 193a 0abd 9234 f6bb 7c50 053e a1b0 1abe
00000240: 92e0 cc3d 3f9c 563d 4428 1c3d 4c14 db3a
00000250: 13c0 e3bd d687 a3bc ac39 ad3c c8b8 b93d
00000260: 3338 8dbc 6779 97bb 4179 a3bd d43c 0c3e
00000270: f069 993b e394 6b3d 01c6 863d e6a4 7bbd
00000280: 1255 7bbd c86f 3fbd 0bcf 3b3d 5e48 213b
00000290: 4cb4 2b3d 6e1f 5dbd f454 aa3d 409a b6bb
000002a0: da5e 41bd fc41 54bc 885c 6f3d e035 033e
000002b0: a14e 30bc 389f b6bd 3a32 f9bd b60e 41bd
000002c0: 4bf7 1abd df6c 993c 27fb bf3c 45a7 d63d
000002d0: 3db7 cb3d 58e6 053e c4cb d43d d48b 5cbc
000002e0: 8883 9b3d b196 97bd edd4 cf3c a2fd 913d
000002f0: e5af 90bc 29bf 3fbd 6345 dcbc f784 c83c
00000300: a59d dcbd 57ac eebd 017b 1bbd bf4d eebd
00000310: 0e12 3fbd 6aa2 ebbd f344 a2bd 623b a7bd
00000320: 1014 fabb e397 5f3d ddaa 923d 4931 71bc
00000330: 682a e83c dbc3 73bd 8a73 90bd cc1c 313d
00000340: ba69 a43d 516b c83c 9a4f 0cbd 721d a33c
00000350: 5765 ffbd 06bd d33d ff0c 9e3c 885a 94bd
00000360: 8f43 aebc ec01 8b3b 1619 e33d 90ae b63d
00000370: 65d1 76bc 386d 57b9 bd6a 40bd a3f9 0bbc
00000380: 7ad7 303d e144 76bd 52f2 79bd e6d9 a43d
00000390: d273 a9bd c233 ae3c 29c6 ae3c 7bcd bb3d
000003a0: f7a0 ffbc 675e ea3c d05f 80bb 7ef7 16bc
000003b0: a732 6a3d 243c 40bc 4997 cf3c c263 423e
000003c0: c9cd b5bd a826 19bc 06d7 c1bd 6c38 e93c
000003d0: a6d2 d83d 65d3 b9bd 4880 7aba 9fd5 c83d
000003e0: edee 6abd d6f4 ee3c a954 b83d cfb1 2d3d
000003f0: 21e8 e83d a9dc 99bd 5bf4 c53c e0c3 cdbd
