models/eeg_only/s_12.pt (torch, 561186 bytes, 37 tensors)

band_attn.fc1.weight f4 [8, 5]
0	0x3eb5fba6	0.35543555
1	0xbe473d36	-0.19456944
2	0x3e835734	0.25652468
3	0xbe08209c	-0.1329369
4	0x3e41175d	0.18856569
5	0xbd516585	-0.051122207
6	0x3eeb1035	0.45910802
7	0x3d0493a5	0.032367367
8	0xbed0c943	-0.4077855
9	0xbe04b147	-0.12958251
10	0x3e13ec7e	0.14445683
11	0xbea15fe0	-0.3151846
12	0xbec38dd6	-0.3819415
13	0xbe627d17	-0.2211803
14	0xbe98565c	-0.29753387
15	0xbe8ef743	-0.2792302
16	0x3d43511f	0.047684785
17	0xbe7218ac	-0.23642224
18	0xbeba64de	-0.3640508
19	0x3ecca1f6	0.39967316
20	0x3e2d0075	0.16894706
21	0xbdf9501c	-0.12173483
22	0xbedd6208	-0.43238854
23	0x3d8500cd	0.06494293
24	0xbe6e3cf3	-0.23265438
25	0xbe5299fa	-0.2056655
26	0xbe9358dc	-0.28778732
27	0xbce24625	-0.027621338
28	0x3e4a516b	0.19757621
29	0xbe54880f	-0.20755027
30	0xbe3b5b43	-0.18296532
31	0x3e1b698c	0.15176982
32	0xbeaff78b	-0.34368548
33	0xbe954774	-0.29156077
34	0xbea07e6d	-0.31346455
35	0xbebbf033	-0.36706695
36	0x3dc9643c	0.09833571
37	0x3eb82c54	0.3597132
38	0x3ebb0369	0.3652604
39	0x3dc998d6	0.09843604

band_attn.fc1.bias f4 [8]
0	0x3d60412c	0.054749653
1	0x3e8f2b27	0.2796261
2	0x3eb766af	0.3582053
3	0xbe882d06	-0.2659685
4	0xbea68311	-0.3252187
5	0xbd46ec74	-0.048565343
6	0xbec7daa2	-0.3903399
7	0xbcb42e86	-0.02199484

band_attn.fc2.weight f4 [5, 8]
0	0xbebb894e	-0.36628193
1	0x3c12abd3	0.008952099
2	0x3da1979a	0.07890244
3	0x3e2c8ddb	0.16850989
4	0xbd828bae	-0.06374298
5	0xbe0f6654	-0.14003879
6	0xbe45f58f	-0.19331954
7	0xbd9c6877	-0.076371126
8	0xbe023666	-0.12716064
9	0xbe0a98d8	-0.13534868
10	0x3ea735bf	0.32658193
11	0xbe975d2e	-0.29563278
12	0x3e83463c	0.25639522
13	0x3e5f56c0	0.21810436
14	0x3e0183c1	0.12647916
15	0xbe18b31d	-0.14912076
16	0x3ebf2855	0.37335458
17	0x3e909b0f	0.282433
18	0x3e132b59	0.14372005
19	0xbbe168a6	-0.00687893
20	0x3ced9e20	0.029006064
21	0xbe2ec69f	-0.17067955
22	0x3e69c2ba	0.22828189
23	0xbd46b96e	-0.048516683
24	0x3e300152	0.17188004
25	0x3e8f30fc	0.2796706
26	0xbde90348	-0.11377579
27	0x3ec28a5c	0.37996185
28	0xbf0f09d1	-0.55874354
29	0x3e4745a7	0.19460164
30	0xbcd21dd0	-0.025648981
31	0xbe9addd1	-0.30247357
32	0xbe578adf	-0.21049069
33	0xbeca9977	-0.3957021
34	0x3eb782cd	0.3584198
35	0xbef96511	-0.4870992
36	0xbda16d37	-0.07882159
37	0x3e3d62ba	0.18494692
38	0x3e85731f	0.26064393
39	0x3e8e275c	0.27764404

band_attn.fc2.bias f4 [5]
0	0xbe810204	-0.2519685
1	0xbd84793b	-0.064684354
2	0xbec8921f	-0.39173982
3	0xbe8bb005	-0.2728273
4	0x3be712af	0.007051788

feat_proj.weight f4 [128, 21]
0	0xbea59fc4	-0.32348454
1	0x3e8e82db	0.2783421
2	0xbe7b2ae0	-0.24528074
3	0xbe260a98	-0.16214979
4	0x3eb40039	0.3515642
5	0xbdbc8890	-0.09205735
6	0x3e5804d6	0.21095595
7	0x3d587bdc	0.052852497
8	0xbe438daf	-0.19097017
9	0x3df2ecf5	0.11861602
10	0xbe7241d4	-0.23657924
11	0x3ca8d041	0.020607116
12	0xbe415168	-0.1887871
13	0xbe2729fe	-0.16324612
14	0x3e37ceab	0.17949931
15	0xbe0b735e	-0.13618228
16	0x3cab81f8	0.020935997
17	0xbce9f4b1	-0.02855906
18	0x3e44807e	0.19189641
19	0x3e1c958f	0.15291427
20	0x3e1be315	0.15223344
21	0x3daaf74d	0.0834795
22	0x3e445761	0.19173957
23	0x3df98a9d	0.121846415
24	0x3d887607	0.06663137
25	0x3e7eb52e	0.24873802
26	0x3bb33fc0	0.005470246
27	0x3dbfabd7	0.09358948
28	0x3d306330	0.043063343
29	0x3bac9b96	0.0052675707
30	0x3d01abe6	0.031658076
31	0xbce7922c	-0.028267942
32	0x3d1cb047	0.03825405
33	0x3e68153f	0.22664355
34	0x3ccddbe1	0.02512926
35	0xbe5ae7bf	-0.21377467
36	0x3db9c712	0.09071173
37	0xbe8082aa	-0.2509969
38	0x3e16b238	0.14716423
39	0x3dfb9ec0	0.122861385
40	0xbd29c79e	-0.041450135
41	0xbe69d8f4	-0.22836667
42	0x3e71be67	0.23607789
43	0x3e0448ab	0.12918346
44	0x3d4ea138	0.05044672
45	0x3e04ffb8	0.12988174
46	0xbdd62a5d	-0.10457299
47	0xbe014054	-0.12622195
48	0x3e1564ea	0.14589277
49	0x3e34703e	0.17620942
50	0x3e1a7386	0.15083131
51	0x3dfa9071	0.12234581
52	0x3e75877a	0.23977461
53	0x3d88156c	0.06644711
54	0xbe825192	-0.25452858
55	0x3d0ea62c	0.034826443
56	0x3e4297a3	0.19003157
57	0x3d99a3a1	0.07501913
58	0x3dd4ac04	0.10384372
59	0x3e59b3cb	0.21259992
60	0x3d264a19	0.04059801
61	0xbca68c78	-0.020330653
62	0xbdd894a6	-0.105752274
63	0x3e1d07e4	0.15335041
64	0x3e83c2cf	0.25734565
65	0x3deb5033	0.11489906
66	0x3e4ad534	0.19807893
67	0x3dbdbd34	0.09264603
68	0xbcf07953	-0.029354727
69	0x3e3d55c1	0.18489744
70	0xbd39dd47	-0.045377042
71	0x3e3cd014	0.1843875
72	0x3e81213b	0.25220665
73	0xbe566c20	-0.20939684
74	0x3da383fb	0.07984158
75	0xbbf582be	-0.0074923923
76	0xbe39e9b5	-0.18155558
77	0x3e017f79	0.12646283
78	0x3dee78ca	0.116441324
79	0xbd234bd1	-0.039867226
80	0x3e7bccf1	0.24589898
81	0x3d5876e0	0.052847743
82	0xbce6119d	-0.02808457
83	0x3d959454	0.07303682
84	0x3dd024d0	0.101632714
85	0x3e48c53f	0.19606493
86	0x3de6a9e4	0.11262873
87	0xbe5b24f4	-0.21400815
88	0xbd72415a	-0.059144355
89	0xbe37d191	-0.17951037
90	0xbe5b6f06	-0.21429071
91	0x3adad86d	0.001669658
92	0x3ddac8c5	0.10682825
93	0xbe29bd99	-0.16576232
94	0x3e4a59cc	0.19760817
95	0xbe161cc8	-0.14659417
96	0xbdc44c9e	-0.09584926
97	0x3d93211d	0.0718405
98	0x3e3b152d	0.18269797
99	0xbdfdaf3a	-0.123869374
100	0x3c07ef92	0.008296864
101	0x3d2ff51c	0.042958364
102	0x3e206da6	0.15666828
103	0x3e50720b	0.20356004
104	0xbb6a7a62	-0.0035778512
105	0x3d35e30a	0.044405974
106	0xbea8d2df	-0.32973382
107	0xbe665f40	-0.22497272
108	0x3e600397	0.2187637
109	0xbdccc29e	-0.09998058
110	0x3defe021	0.11712671
111	0xbe1dc114	-0.15405685
112	0x3e17f5fb	0.14839928
113	0x3dbf27a7	0.09333735
114	0xbc2b8209	-0.0104680145
115	0x3e6eddfe	0.23326871
116	0xbc415720	-0.011800557
117	0x3d28c1c8	0.04120043
118	0x3e134d03	0.14384846
119	0x3cceb84b	0.025234362
120	0x3cd8e37c	0.02647566
121	0x3d836b7a	0.06416984
122	0xbc89d9e7	-0.016827537
123	0x3e454195	0.19263299
124	0xbe386f42	-0.18011191
125	0xbe77c11f	-0.24194764
126	0xbd27c240	-0.040956736
127	0x3cfa8311	0.030580075
128	0xbd572179	-0.052522156
129	0x3e1546fe	0.14577863
130	0x3e80677f	0.2507896
131	0xbb4e9ad4	-0.003152539
132	0xbd95c7e1	-0.073135145
133	0xbe11f1b5	-0.1425236
134	0x3e2eeb80	0.17082024
135	0xbe17a2ed	-0.14808245
136	0xbe6a5909	-0.22885527
137	0x3da42320	0.08014512
138	0x3dd76fde	0.10519384
139	0x3c6dfe55	0.0145259695
140	0xbe533d8e	-0.2062895
141	0xbe58df88	-0.2117902
142	0x3d1d7d26	0.03844943
143	0xbc928365	-0.01788492
144	0x3d824f06	0.06362729
145	0xbd8b1ce4	-0.0679262
146	0xbe742d3d	-0.23845382
147	0x3cca8275	0.02472041
148	0xbe1ad61a	-0.15120736
149	0x3d0d9a96	0.034571253
150	0xbd5217b7	-0.051292147
151	0xbe6e9db2	-0.23302343
152	0x3e264597	0.16237484
153	0xbd9489e8	-0.07252866
154	0xbe2b5798	-0.16732633
155	0xbe3d90a4	-0.18512207
156	0x3d787c78	0.060665578
157	0xbdd87a2a	-0.10570176
158	0x3d235214	0.039873198
159	0x3e5ce812	0.21572903
160	0xbdd49600	-0.10380173
161	0xbd387ba2	-0.04503978
162	0xbe0a645b	-0.13514845
163	0xbe515172	-0.20441225
164	0x3cfcc601	0.030856134
165	0xbd5e91c1	-0.05433822
166	0x3e467938	0.19382179
167	0x3dd5b11c	0.104341716
168	0xbd2524cc	-0.040318295
169	0x3e27648d	0.16346951
170	0x3e527df7	0.20555864
171	0xbc5f9452	-0.013646202
172	0x3ec440f3	0.38330802
173	0x3e2949f2	0.16532114
174	0x3e6e63cb	0.23280255
175	0x3d60a343	0.0548432
176	0xbe1343ba	-0.14381304
177	0x3e178988	0.14798558
178	0xbe3ffce4	-0.18748814
179	0xbe830807	-0.25592062
180	0x3c955866	0.018230628
181	0xbe8ed5ae	-0.278974
182	0x3dd973f9	0.10617823
183	0x3e1c7185	0.1527768
184	0xbe3de217	-0.18543278
185	0x3e19bc57	0.15013252
186	0x3e487159	0.19574489
187	0x3e2e38c4	0.17013842
188	0x3dde4d41	0.10854579
189	0xbc6b8253	-0.014374333
190	0x3bd167cf	0.006390549
191	0xbd732ee9	-0.05937091
192	0xbe014e7f	-0.126276
193	0x3e673188	0.22577488
194	0xbd2a98a0	-0.04164946
195	0x3df104e3	0.1176851
196	0x3dd6dd53	0.10491433
197	0xbe13892b	-0.14407794
198	0xbe4f2055	-0.20227177
199	0x3b6712c9	0.0035259
200	0x3e25462c	0.1614005
201	0x3e283ef0	0.16430259
202	0x3ccd88ad	0.025089586
203	0xbd64cfc9	-0.055862222
204	0xbdafba36	-0.08580439
205	0xbcdeef04	-0.02721358
206	0x3d36a096	0.04458674
207	0xbe0c8121	-0.13721134
208	0x3ddd65ff	0.1081047
209	0xbd5fb06f	-0.05461162
210	0xbd9be040	-0.07611132
211	0xbe5991dc	-0.21247047
212	0xbb6887a4	-0.0035481239
213	0xbda5f3d2	-0.08103146
214	0x3e350efe	0.176815
215	0xbce2a16b	-0.02766486
216	0xbe2efd75	-0.17088874
217	0xbe6a6743	-0.22890954
218	0xbd02f012	-0.03196723
219	0x3dd04ef4	0.10171309
220	0xbdbeb072	-0.09310998
221	0xbe06eb5b	-0.13175718
222	0xbe822bfe	-0.25424188
223	0x3e848c7e	0.25888437
224	0xbe712211	-0.23548152
225	0x3daa5dee	0.08318697
226	0xbd26f3f6	-0.040760003
227	0xbddaa43c	-0.106758565
228	0x3e0763c1	0.13221647
229	0xbd2d9e61	-0.04238737
230	0x3d85f5e5	0.06541041
231	0xbe375c16	-0.17906222
232	0xbde6ba4d	-0.11266003
233	0xbdbfc7b8	-0.09364265
234	0x3d891586	0.066935584
235	0xbe8990ad	-0.2686819
236	0xbe2f9310	-0.17145944
237	0xbc9386ef	-0.018008677
238	0xbe223db9	-0.15843858
239	0xbe564eb1	-0.20928456
240	0xbd03be62	-0.032163985
241	0x3e48658f	0.19569992
242	0x3e45f377	0.19331156
243	0xbe3ef6b8	-0.18648803
244	0x3e5491fd	0.20758815
245	0xbe06ce54	-0.13164645
246	0xbe241aee	-0.16025898
247	0xbda94d84	-0.08266738
248	0xbca9df38	-0.020736322
249	0xbc60df2f	-0.013725086
250	0x3e00284e	0.12515375
251	0xbe28532f	-0.16437982
252	0x3e709a5f	0.23496388
253	0xbe4f0fb9	-0.20220841
254	0x3df56df6	0.11983864
255	0xbceb50e8	-0.028725103

feat_proj.bias f4 [128]
0	0xbca91577	-0.020640118
1	0x3e09696f	0.13419126
2	0xbca80119	-0.020508336
3	0xbd881bfd	-0.06645963
4	0xbdf5d552	-0.12003578
5	0xbd930989	-0.07179553
6	0xbe3abdff	-0.1823654
7	0x3e297728	0.16549361
8	0x3e12e29c	0.14344257
9	0xbe1449f9	-0.14481343
10	0xbcc77710	-0.024348766
11	0xbdac8e5a	-0.08425589
12	0xbde8fd07	-0.11376386
13	0xbde40bdb	-0.11135074
14	0x3e38148e	0.17976591
15	0xbdb0cb6c	-0.0863255
16	0xbd10a3a3	-0.035312306
17	0x3e3985ce	0.18117449
18	0xbd7f8b9c	-0.062389
19	0xbd976364	-0.07392004
20	0x3d3d7bc8	0.046260625
21	0xbe29c45b	-0.1657881
22	0xbdc55814	-0.0963594
23	0xbd0b707f	-0.03404283
24	0xbdac1171	-0.08401764
25	0xbda51960	-0.080614805
26	0x3e14317e	0.14472005
27	0x3d1781ec	0.036989138
28	0x3e176d3f	0.14787768
29	0x3ba6c517	0.005089413
30	0x3db1d39a	0.08682938
31	0x3dc4adc4	0.09603456
32	0x3d2575fe	0.04039573
33	0xbc26dd4d	-0.010184598
34	0x3e318dd0	0.17339253
35	0xbde38b1f	-0.111105196
36	0xbe39fb8b	-0.18162362
37	0xbe03663a	-0.12831965
38	0x3cdc9990	0.026928693
39	0x3df0a4fe	0.1175022
40	0xbe255ea9	-0.16149391
41	0xbd7e39a3	-0.062066685
42	0xbe17d25d	-0.14826341
43	0xbded88ed	-0.11598382
44	0xbe182750	-0.14858747
45	0x3df17e08	0.11791617
46	0xbd9d28d1	-0.07673801
47	0x3da2e40a	0.07953651
48	0x3e001ce3	0.1251102
49	0x3d1d737d	0.038440216
50	0xbdfe96a7	-0.124310784
51	0x3d95dec0	0.07317877
52	0x3c80e51f	0.015734253
53	0xbda32e05	-0.07967762
54	0x3dd8c758	0.10584897
55	0x3d2eb6d0	0.042654812
56	0xbdf8290d	-0.12117205
57	0x3e0e91b9	0.13922776
58	0xbe3b44a9	-0.1828791
59	0x3d870d06	0.06594281
60	0x3e24d197	0.16095577
61	0x3e0348b0	0.12820697
62	0xbd8931b8	-0.06698936
63	0xbd6b3cba	-0.05743096
64	0x3e2fec7d	0.17180057
65	0x3dbd3578	0.09238714
66	0xbe57e6db	-0.21084158
67	0x3dc05682	0.093915
68	0x3d9ba5f8	0.076000154
69	0x3e39d702	0.18148425
70	0xbde29ccc	-0.11065063
71	0xbd35f441	-0.04442239
72	0x3c99f536	0.018793683
73	0x3e1a6a6d	0.1507966
74	0xbd576432	-0.052585788
75	0xbdecdf8a	-0.11566074
76	0xbd9dae83	-0.07699301
77	0xbd94e68f	-0.07270538
78	0x3e190072	0.14941576
79	0x3dcf9d91	0.10137475
80	0xbcc73631	-0.024317833
81	0x3d884815	0.066543736
82	0x3dd0ce0f	0.101955526
83	0x3dfd6e52	0.123745576
84	0xbd581417	-0.052753534
85	0x3df1a7a8	0.11799556
86	0xbda4fe98	-0.080563724
87	0x3ca80851	0.020511778
88	0xbdfe6761	-0.12422062
89	0x3e0b8f96	0.13628992
90	0xbd10c73f	-0.035346266
91	0x3d3901b8	0.045167655
92	0xbc416a73	-0.011805165
93	0x3da8dc99	0.08245201
94	0xbdbdb4ec	-0.09263024
95	0x3deb8d72	0.11501588
96	0x3e419b7f	0.18906973
97	0xbdb4e18a	-0.08832081
98	0x3e49c36f	0.19703458
99	0x3e109081	0.14117624
100	0xbe31209e	-0.17297599
101	0xbd6cbb40	-0.057795763
102	0xbe395f07	-0.18102656
103	0x3e022679	0.12709989
104	0x3c4df75a	0.01257118
105	0xbe11e2d6	-0.14246687
106	0x3cadebfc	0.02123069
107	0x3e27dfa6	0.16393909
108	0x3d7f993d	0.062402
109	0x3e11a35c	0.14222473
110	0x3e03eacb	0.12882535
111	0x3e1db380	0.15400505
112	0x3bd84190	0.0065996125
113	0xbe3ecbfa	-0.18632498
114	0xbd0f3e6e	-0.034971647
115	0xbe398821	-0.18118335
116	0x3df3574f	0.11881887
117	0x3e1191ff	0.1421585
118	0xbdb24631	-0.08704794
119	0x3d15fb71	0.036616746
120	0xbd02c66c	-0.03192751
121	0xbdcc2565	-0.0996807
122	0xbcefcd04	-0.029272564
123	0xbdd31038	-0.10305828
124	0xbdb9f547	-0.09079986
125	0xbd40da11	-0.047082964
126	0x3c7b1510	0.015324846
127	0xbdd42e31	-0.10360373

local1.conv.bias f4 [128]
0	0xba320578	-0.0006790976
1	0x3d0539b1	0.032525722
2	0x3c7caf3d	0.015422639
3	0xbc118947	-0.008882827
4	0xbb802ee0	-0.003911838
5	0x3c0b15b9	0.008489066
6	0x3b516030	0.0031948201
7	0x3bfd1454	0.0077233706
8	0x3c1a2e6a	0.00941048
9	0xbbb875d9	-0.005629283
10	0xbcf885a3	-0.03033716
11	0x3a5666c8	0.0008178768
12	0xbb7e4dae	-0.0038803625
13	0xbca9977c	-0.020702116
14	0x3bd26419	0.006420624
15	0xbcdd2559	-0.026995348
16	0x3b9c3051	0.004766502
17	0x3cc10363	0.023561185
18	0x3cb48376	0.022035342
19	0x3c425a05	0.011862283
20	0xbc9d9327	-0.019235207
21	0x3c825bd6	0.015912931
22	0x3b2bab62	0.0026194681
23	0x3c6de220	0.014519244
24	0x3d100d03	0.03516866
25	0x3bd1a277	0.006397541
26	0x3be212a5	0.0068991953
27	0x3a184593	0.0005808707
28	0xba489657	-0.0007651797
29	0x3b3129fa	0.0027033077
30	0xbc3edb48	-0.01164896
31	0x3cafb7e2	0.021449987
32	0x3c82e305	0.015977392
33	0xbc31c676	-0.010850539
34	0xbcff5bfa	-0.031171788
35	0x3b91d8eb	0.0044509075
36	0x3c8946e0	0.016757429
37	0x3c1d3ccb	0.009597014
38	0x3c232d34	0.009959508
39	0xbb3c5427	-0.0028736682
40	0x3c32d297	0.010914466
41	0xbcb6359e	-0.022242364
42	0x3d089191	0.033341948
43	0x3d274dab	0.040845554
44	0x3a7b6f43	0.00095914694
45	0xbc32467c	-0.010881063
46	0x3c421fc5	0.011848395
47	0x3ce57f27	0.028014733
48	0x3cbb77fb	0.02288436
49	0x3c8c2131	0.01710567
50	0x3b2c9578	0.0026334208
51	0xbbb9be05	-0.005668404
52	0x3c47c835	0.012193729
53	0x3c977a4d	0.018490935
54	0xbd174dcd	-0.03693943
55	0x3d20ad48	0.039227754
56	0x3cf2fdd6	0.029662054
57	0xbb1e887a	-0.0024190233
58	0x3c0dca0d	0.00865413
59	0xbc1735ee	-0.009229166
60	0xbb28736e	-0.0025703567
61	0x3c834074	0.016021945
62	0x3ae86fb3	0.0017733484
63	0xba597ab9	-0.000829618
64	0x3b024a90	0.0019880868
65	0x3bc5297c	0.006016908
66	0xbbfbdaaf	-0.007685981
67	0xbc065450	-0.008198813
68	0xbba64ec8	-0.0050753094
69	0x3b62de7a	0.003461747
70	0x3b8d5d5f	0.004314109
71	0x3c11c6fa	0.008897537
72	0x3c82b3ea	0.01595493
73	0x3c1a3288	0.009411462
74	0x3c10e3b6	0.008843353
75	0x3c40cb3c	0.011767205
76	0x3c591b00	0.013251066
77	0xbc19c868	-0.0093861595
78	0x3b8b975e	0.0042599877
79	0x3c802eaa	0.015647251
80	0x3b347665	0.002753639
81	0x3cbc4326	0.022981238
82	0xbc114438	-0.008866362
83	0x3c802595	0.01564292
84	0xbbac3814	-0.0052557085
85	0xbc96f7cd	-0.018428707
86	0x3c09ce7e	0.008411048
87	0x3b65056c	0.0034945859
88	0xbd363c87	-0.044491317
89	0xbd114fbc	-0.03547643
90	0xbce3ac9c	-0.027792268
91	0xbbbfca89	-0.0058530015
92	0x3ab0c4f0	0.0013486426
93	0xbbb00cc3	-0.005372615
94	0x3bfa9d42	0.007648141
95	0x3ccf37de	0.025295194
96	0x3cc42f87	0.023948444
97	0x3c500808	0.012697227
98	0x3c6317b3	0.013860631
99	0x3c2e4b16	0.010638019
100	0xbc23b5ea	-0.009992102
101	0xba7432bc	-0.00093154213
102	0xbb65a75b	-0.0035042379
103	0x3c5deba8	0.013544954
104	0xb9c14f6a	-0.00036870997
105	0x3a2ccf1c	0.0006592141
106	0x3affebb7	0.0019525205
107	0x3c8f422f	0.017487613
108	0xbc31247d	-0.010811922
109	0x3c739cd5	0.014868935
110	0x3b9da28f	0.0048106383
111	0xbbc377c0	-0.005965203
112	0xba8083ea	-0.0009804938
113	0xbb8bb0c2	-0.0042630145
114	0xbb66f0ac	-0.0035238666
115	0x3aed0312	0.001808258
116	0x3c2d1f4f	0.010566547
117	0xbd17cd6c	-0.03706114
118	0xbc9fc2f9	-0.01950215
119	0x3c88c26e	0.016694274
120	0xba56f571	-0.0008200026
121	0x3c3a80fc	0.011383291
122	0xbaee5007	-0.0018181809
123	0x3ce1a335	0.027543643
124	0x3c510b9c	0.012759116
125	0x3cf08696	0.02936105
126	0x3c0ef636	0.008725693
127	0x3d18a860	0.03726995

local1.conv.lin.weight f4 [128, 128]
0	0x3da7c1a1	0.08191229
1	0xbd8c94d2	-0.06864323
2	0xbe121466	-0.14265594
3	0xbb44fe01	-0.0030058625
4	0xbdbbc8db	-0.091691695
5	0x3de808dc	0.11329815
6	0x3dccd53d	0.100016095
7	0x3e22e76c	0.15908593
8	0xbd40b38b	-0.047046226
9	0xbbd1d2a4	-0.006403284
10	0x3e1c46a5	0.15261324
11	0x3db909d0	0.09035075
12	0x3e105b18	0.1409725
13	0x3dd6ebd0	0.104941964
14	0xbde175e6	-0.110088155
15	0xbdb7cc4e	-0.08974515
16	0xbcb3aa83	-0.021931892
17	0xbdfcce3e	-0.12344025
18	0x3ce9072d	0.028445804
19	0xbda49ff1	-0.08038319
20	0x3e3d8c63	0.18510585
21	0x3d20dbeb	0.03927223
22	0xbcd60b53	-0.026128447
23	0xbd081480	-0.033222675
24	0xbd1dcbea	-0.038524546
25	0xbd8b60dd	-0.068055846
26	0x3ced036f	0.028932301
27	0x3e209426	0.15681514
28	0xbd2fb7cc	-0.04289989
29	0x3dba1b27	0.0908721
30	0x3d9d383c	0.076767415
31	0xbd2a97f7	-0.04164883
32	0x3dc018d9	0.09379739
33	0x3dbdcf7f	0.09268092
34	0xbe0c2d26	-0.13689098
35	0xbbb14c79	-0.0054107276
36	0x3d95e238	0.073185384
37	0x3e1446fc	0.14480203
38	0xbb81ee57	-0.00396518
39	0x3db3b82c	0.08775362
40	0xbdc03210	-0.09384549
41	0x3d55e68d	0.052221823
42	0x3e0bdfad	0.13659544
43	0xbde84708	-0.11341673
44	0xbd4505ba	-0.048101164
45	0x3de04024	0.10949734
46	0x3de730f7	0.11288636
47	0x3da641ad	0.081179954
48	0xbd97a6b1	-0.07404841
49	0x3dcc566f	0.099774234
50	0xbd2295db	-0.039693695
51	0xbdb7a3ce	-0.0896679
52	0x3b9aae60	0.004720494
53	0x3d755da9	0.059903774
54	0x3df72423	0.120674394
55	0xbd20b50e	-0.039235167
56	0xbda04b73	-0.07826891
57	0xbdce65c6	-0.100780055
58	0x3d0a9325	0.033831734
59	0x3dc66085	0.096863784
60	0x3d95b9e0	0.073108435
61	0xbe398a3b	-0.18119137
62	0xbd42e7e2	-0.047584422
63	0xbdca2c8f	-0.0987178
64	0x3dbb8132	0.091555014
65	0xbdc2949a	-0.09501
66	0xbd134d99	-0.035962675
67	0x3d8cd1ec	0.06875977
68	0x3db119f5	0.08647529
69	0x3d9809b6	0.07423727
70	0xbe0568f3	-0.13028316
71	0xbd86584f	-0.06559812
72	0xbda545d6	-0.08069961
73	0xb83eeecb	-4.5521923e-05
74	0xbdf78877	-0.120865755
75	0xbd8af2da	-0.067846015
76	0xbddea0cd	-0.10870514
77	0x3d7213df	0.05910098
78	0x3ba4cbbf	0.0050291712
79	0xbe006649	-0.12539019
80	0xbe37079c	-0.17873996
81	0xbd847560	-0.064677
82	0xbe1dd458	-0.15413034
83	0xbde2ded3	-0.110776566
84	0xbe043991	-0.12912585
85	0xbc8eb920	-0.017422259
86	0x3e0f7d66	0.1401268
87	0x3d467df8	0.048459977
88	0x3d9fe1de	0.078067526
89	0x3d6c1809	0.05764011
90	0xbb33a0fe	-0.0027409191
91	0x3da47e63	0.08031919
92	0x3de0b87d	0.10972688
93	0x3d1f9f4c	0.038970277
94	0x3e1971c8	0.1498481
95	0xbe10e14c	-0.14148444
96	0xbbc1343d	-0.00589612
97	0x3c663237	0.014050058
98	0xbd90cab4	-0.070699126
99	0x3d0d0e62	0.034437545
100	0xbb397cb3	-0.0028303086
101	0xbdb08c20	-0.08620477
102	0xbdb0d434	-0.086342245
103	0x3d7188b2	0.058968253
104	0x3d7d99f3	0.061914396
105	0xbdd115e5	-0.10209254
106	0x3de7c135	0.11316148
107	0xbdbf6bca	-0.09346731
108	0xbc00ae91	-0.00785412
109	0xbdb3ab6a	-0.08772929
110	0x3d7757ce	0.06038647
111	0xbc45e9b1	-0.012079642
112	0x3e15ebdf	0.14640759
113	0xbdbf5584	-0.09342483
114	0x3e0b1423	0.135819
115	0xbd9ce81b	-0.07661458
116	0xbe0c0fd8	-0.13677919
117	0x3d812e11	0.063076146
118	0xbd50ce43	-0.050977957
119	0xbdc6381e	-0.09678672
120	0x3d6cdc6f	0.05782741
121	0xbc55a043	-0.013038698
122	0x3da1fee0	0.07909942
123	0xbdf91cdc	-0.121637076
124	0x3d87b0dc	0.0662553
125	0xbda9a2b5	-0.08282987
126	0xbd441b41	-0.047877554
127	0x3c802e66	0.015647124
128	0xbe50b2ee	-0.20380756
129	0xbd90cb3e	-0.07070015
130	0x3dfe058d	0.124034025
131	0xbdf9bc51	-0.12194122
132	0x3d94e386	0.07269959
133	0x3d83685a	0.06416388
134	0x3cd64079	0.02615379
135	0xbe1a17e0	-0.1504817
136	0xbe3209ce	-0.17386553
137	0xbd051ef2	-0.032500215
138	0xbde53b9e	-0.11193012
139	0x3d35e939	0.04441187
140	0x3d8811b4	0.066440016
141	0x3e395123	0.18097357
142	0x3ddc63d1	0.10761226
143	0xbdf82033	-0.121155165
144	0xbabc7511	-0.001437815
145	0x3e43c3af	0.19117616
146	0xbd3cccac	-0.046093628
147	0xbd098fcc	-0.0335844
148	0xbdbb33a7	-0.09140711
149	0x3ca217f9	0.019786822
150	0x3d9c68d7	0.07637184
151	0x3e093adb	0.13401358
152	0xbda8ce1c	-0.08242437
153	0xbe27c8bb	-0.16385166
154	0xbd70627f	-0.058687683
155	0xbe360c09	-0.17778029
156	0xbdf03467	-0.11728745
157	0xbd9403a3	-0.07227256
158	0x3da06d6e	0.07833372
159	0x3cdc04a6	0.026857685
160	0xbdace949	-0.08442933
161	0x3dd1a72d	0.102369644
162	0xbd7f23d5	-0.06229003
163	0xbdab04a1	-0.08350492
164	0x3d941cc3	0.07232048
165	0xbd57b4b1	-0.052662555
166	0xbd2f8284	-0.04284908
167	0x3dcf8d88	0.10134417
168	0xbd58f543	-0.052968275
169	0xbddc382c	-0.107529014
170	0xbe17e90a	-0.14834991
171	0xbe23b036	-0.15985188
172	0x3dcebac2	0.10094215
173	0xbd5f76a3	-0.0545565
174	0xbd45cdbe	-0.048291914
175	0x3d224fe2	0.039626963
176	0x3dd4c094	0.10388294
177	0x3c4a1c2e	0.01233582
178	0xbc98f449	-0.018671172
179	0xbdaa633a	-0.08319707
180	0x3bb9ae43	0.0056665256
181	0xbd81285c	-0.06306526
182	0xbe09d0d5	-0.1345857
183	0xbe2448d9	-0.16043414
184	0x3dd25a2c	0.10271105
185	0xbe17c176	-0.14819893
186	0xbe432c4e	-0.1905987
187	0xbceb69e9	-0.028737025
188	0xbdb39144	-0.087679416
189	0x3d0117dc	0.031516895
190	0x3d984cd8	0.07436532
191	0x3dc18255	0.09448687
192	0xbd40706d	-0.046982218
193	0x3d0fb3db	0.035083633
194	0x3d82ea9f	0.06392407
195	0x3cffdcbf	0.03123319
196	0x3d6a36c3	0.05718113
197	0x3ddf2e61	0.10897518
198	0xbb52517f	-0.0032092032
199	0xbd77de52	-0.060514756
200	0xbdd84376	-0.10559742
201	0xbe444db4	-0.19170266
202	0xbcb5fe8d	-0.022216106
203	0x3c9af364	0.018914886
204	0x3e2a4e3a	0.16631404
205	0xbdf6877e	-0.12037562
206	0xbd2c1d45	-0.0420201
207	0x3cfaf790	0.030635625
208	0x3dab4c4f	0.08364164
209	0xbde70f6a	-0.11282237
210	0xbd8ebf22	-0.069700494
211	0x3db601fe	0.08887099
212	0x3c544918	0.01295688
213	0xbe33dc1e	-0.17564437
214	0x3de6de03	0.11272814
215	0x3e01563d	0.12630554
216	0x3dbe9c29	0.09307129
217	0x3d457eaa	0.0482165
218	0xbd95a844	-0.07307485
219	0x3d5afe5c	0.053465232
220	0xbdf2abf6	-0.11849205
221	0xbd98ab13	-0.07454505
222	0xbdae49d2	-0.08510174
223	0xbe201ff2	-0.15637186
224	0xbdc27030	-0.09494054
225	0xbe0730e9	-0.13202251
226	0x3dd56625	0.10419873
227	0xbe0ff05c	-0.14056534
228	0xbd9aae83	-0.07552817
229	0x3c41609e	0.0118028205
230	0xbe03811b	-0.12842219
231	0xbd28a61f	-0.04117405
232	0xbdbaf44a	-0.09128626
233	0xbe42aabe	-0.19010445
234	0xbe1698f3	-0.14706783
235	0x3e6a659f	0.22890328
236	0x3d1aa9fe	0.037759773
237	0xbddfa0ef	-0.109193675
238	0xbd91006a	-0.07080157
239	0x3d8b1942	0.06791927
240	0xbe4eb7fc	-0.20187372
241	0xbc079fb9	-0.008277827
242	0xbe129f46	-0.1431857
243	0x3dce4e93	0.100735806
244	0xbda40ef5	-0.08010665
245	0xbdb25fcd	-0.08709679
246	0xbdb2cd79	-0.08730597
247	0xbc75473a	-0.014970595
248	0x3dc50710	0.09620488
249	0xbcb21cca	-0.021742243
250	0x3c0e105b	0.008670892
251	0xbd374990	-0.04474789
252	0xbe0b92c8	-0.13630211
253	0x3cf2fded	0.029662097
254	0xbd3251ac	-0.04353492
255	0x3dd38b0b	0.10329255

local1.norm.weight f4 [128]
0	0x3f6e63ac	0.9312084
1	0x3f82fa05	1.023255
2	0x3f7e0cc0	0.99238205
3	0x3f7ad32a	0.9797846
4	0x3f6936da	0.9109932
5	0x3f6d0271	0.9258185
6	0x3f7adbe3	0.9799177
7	0x3f820417	1.0157498
8	0x3f897310	1.0738239
9	0x3f858041	1.0429765
10	0x3f93c799	1.1545287
11	0x3f8262a4	1.0186353
12	0x3f78acad	0.9713848
13	0x3f82a820	1.0207558
14	0x3f763b1d	0.9618395
15	0x3f82df95	1.0224482
16	0x3f7bba8f	0.9833154
17	0x3f768c81	0.9630814
18	0x3f77f8b8	0.9686389
19	0x3f840192	1.0312979
20	0x3f80dba4	1.0067029
21	0x3f723df9	0.9462581
22	0x3f70c5b2	0.9405166
23	0x3f7d1997	0.9886717
24	0x3f5a7398	0.8533263
25	0x3f7c21fc	0.98489356
26	0x3f82f2da	1.0230362
27	0x3f82d726	1.0221908
28	0x3f82d5cb	1.0221494
29	0x3f7fe31a	0.99955904
30	0x3f82f382	1.0230563
31	0x3f6bfbe2	0.9218122
32	0x3f7b8089	0.98243004
33	0x3f82c2fb	1.0215753
34	0x3f98271b	1.1886934
35	0x3f787ffb	0.9707028
36	0x3f7b5408	0.98175097
37	0x3f84e216	1.0381496
38	0x3f8559bf	1.0418013
39	0x3f7d715c	0.990011
40	0x3f7a5393	0.97783774
41	0x3f85c282	1.0449984
42	0x3f728187	0.94728893
43	0x3f72521b	0.94656533
44	0x3f6fbc7f	0.93647
45	0x3f829c81	1.0204011
46	0x3f7ee131	0.99562365
47	0x3f7ae0e1	0.9799939
48	0x3f7811c4	0.9690211
49	0x3f8123cb	1.0089048
50	0x3f770618	0.96493673
51	0x3f839531	1.0279905
52	0x3f77ea12	0.9684154
53	0x3f7dc10c	0.9912269
54	0x3f805f1a	1.0029023
55	0x3f762af9	0.9615932
56	0x3f783b4e	0.9696549
57	0x3f85e5ff	1.0460814
58	0x3f72508e	0.94654167
59	0x3f889773	1.0671219
60	0x3f7bac74	0.9831002
61	0x3f768597	0.9629759
62	0x3f80b734	1.0055909
63	0x3f804837	1.0022038
64	0x3f82b793	1.0212272
65	0x3f8e64e4	1.1124539
66	0x3f802b88	1.0013285
67	0x3f8e2721	1.1105691
68	0x3f7f8f8f	0.9982843
69	0x3f91397f	1.1345671
70	0x3f8c639d	1.09679
71	0x3f6b0efe	0.9181975
72	0x3f7c509c	0.985605
73	0x3f75ae08	0.95968676
74	0x3f865082	1.0493319
75	0x3f80b8bb	1.0056375
76	0x3f756565	0.9585784
77	0x3f81c529	1.0138294
78	0x3f7c31c1	0.9851342
79	0x3f75103f	0.95727915
80	0x3f6fb4c4	0.936352
81	0x3f6e8405	0.93170196
82	0x3f8599ba	1.0437539
83	0x3f80dd8e	1.0067613
84	0x3f80c4b9	1.0060035
85	0x3f80f70c	1.0075393
86	0x3f7c697f	0.98598474
87	0x3f7458af	0.9544782
88	0x3f90ff26	1.1327865
89	0x3f95a62f	1.169134
90	0x3f808d8e	1.0043199
91	0x3f7fad0e	0.99873435
92	0x3f809767	1.0046204
93	0x3f851cef	1.0399455
94	0x3f7e64a7	0.99372333
95	0x3f8090e7	1.0044221
96	0x3f5faa12	0.8736888
97	0x3f7214c8	0.9456296
98	0x3f828ab8	1.0198584
99	0x3f766d4f	0.9626054
100	0x3f77c129	0.96779114
101	0x3f825264	1.0181394
102	0x3f83d429	1.0299121
103	0x3f717541	0.9431954
104	0x3f732adc	0.94987273
105	0x3f81dfb3	1.0146393
106	0x3f7a6a17	0.9781813
107	0x3f82bfc9	1.0214778
108	0x3f82311f	1.017124
109	0x3f8150fb	1.0102838
110	0x3f81680d	1.0109879
111	0x3f83ac68	1.0286989
112	0x3f7b3785	0.9813159
113	0x3f6d73af	0.92754644
114	0x3f8592c5	1.0435416
115	0x3f7fdbae	0.9994458
116	0x3f7117e1	0.9417706
117	0x3f873600	1.0563354
118	0x3f80221a	1.0010407
119	0x3f6f85d8	0.93563604
120	0x3f757a5a	0.9588982
121	0x3f766b59	0.9625755
122	0x3f7b1972	0.980857
123	0x3f84e6e7	1.0382966
124	0x3f7bf658	0.98422766
125	0x3f6448f3	0.8917381
126	0x3f74a78d	0.9556816
127	0x3f6eec2b	0.93329114

local1.norm.bias f4 [128]
0	0xbd8d4842	-0.06898548
1	0xbd92cef6	-0.07168381
2	0xbdb6ee2d	-0.08932147
3	0xbdc7f598	-0.0976364
4	0xbdde051c	-0.10840818
5	0xbdc358f2	-0.09538449
6	0xbd593e9d	-0.05303823
7	0xbc20c729	-0.0098131085
8	0xbd6c3fa2	-0.057677872
9	0xbd638605	-0.055547733
10	0xbdce728f	-0.10080444
11	0xbdd2e36a	-0.10297282
12	0xbdf93228	-0.1216777
13	0xbdc01d4b	-0.09380587
14	0xbddc1dc4	-0.10747865
15	0xbd23420c	-0.03985791
16	0xbd9ec442	-0.07752277
17	0xbdeab10d	-0.11459551
18	0xbd63101b	-0.05543528
19	0xbd45a9af	-0.048257526
20	0xbdd5e444	-0.10443929
21	0xbdd01ae1	-0.10161377
22	0xbda07437	-0.07834666
23	0xbd2b4525	-0.04181399
24	0xbe230a3b	-0.15921871
25	0xbdad44b1	-0.084603675
26	0xbd06e949	-0.03293732
27	0xbd58225c	-0.052767143
28	0xbda5d875	-0.080979265
29	0xbda1af4c	-0.07894763
30	0xbd027a6b	-0.031855028
31	0xbe08ae82	-0.1334782
32	0xbd345321	-0.04402459
33	0xbd953747	-0.07285934
34	0xbd4188de	-0.047249667
35	0xbdf0927a	-0.11746688
36	0xbd8e5f19	-0.06951732
37	0xbc303746	-0.010755366
38	0xbd8d7cf1	-0.06908596
39	0xbd54adab	-0.051923435
40	0xbd772276	-0.0603356
41	0xbd9a7991	-0.07542718
42	0xbd88eaee	-0.06685434
43	0xbdacb2d4	-0.08432546
44	0xbdfe6467	-0.12421494
45	0xbd0a01bf	-0.03369307
46	0xbd5f0bea	-0.05445472
47	0xbd5d9b62	-0.054103263
48	0xbd6b5dfe	-0.057462685
49	0xbe043cab	-0.12913768
50	0xbd8c43bd	-0.068488576
51	0xbd702bb6	-0.058635436
52	0xbd98aa56	-0.07454364
53	0xbdb41ad2	-0.08794178
54	0xbd4f6421	-0.0506326
55	0xbd460ac3	-0.048350107
56	0xbdc011b7	-0.09378379
57	0xbd6c4b0b	-0.057688754
58	0xbd9a7b86	-0.075430915
59	0xbd30948f	-0.043110427
60	0xbd3abc60	-0.045589805
61	0xbd91e2cb	-0.071233355
62	0xbd7aa983	-0.061196815
63	0xbda99a30	-0.08281362
64	0xbd2290d4	-0.0396889
65	0xbd26d548	-0.040730745
66	0xbd649438	-0.055805415
67	0xbcedb9bd	-0.029019231
68	0xbd6fdf59	-0.05856261
69	0xbd8f5214	-0.06998077
70	0xbd4e2bb7	-0.05033466
71	0xbe02c3f4	-0.12770063
72	0xbdb0adee	-0.086269245
73	0xbd8bb31b	-0.06821271
74	0xbca1f627	-0.019770695
75	0xbdca294f	-0.0987116
76	0xbdc9c6e3	-0.09852388
77	0xbda1db4d	-0.079031564
78	0xbd935779	-0.071944185
79	0xbd84538c	-0.06461248
80	0xbd82e992	-0.06392206
81	0xbd839f7a	-0.06426902
82	0xbd30e75c	-0.04318939
83	0xbddbd4fd	-0.10733984
84	0xbd6b56a3	-0.05745567
85	0xbdc4b350	-0.09604514
86	0xbdcf5b20	-0.101248026
87	0xbda442cc	-0.08020553
88	0xbdbee0a2	-0.09320189
89	0xbd68effa	-0.056869484
90	0xbd7bd9a4	-0.061486855
91	0xbd0e8fc5	-0.034805078
92	0xbe0ccb78	-0.13749492
93	0xbd94cd28	-0.07265693
94	0xbd839c01	-0.0642624
95	0xbd6dcee3	-0.05805863
96	0xbe1c41f5	-0.15259536
97	0xbd9aeed2	-0.075650826
98	0xbd3badb7	-0.045819964
99	0xbd6efa76	-0.058344327
100	0xbd80135f	-0.06253695
101	0xbd761cd0	-0.06008607
102	0xbcf5a55a	-0.029986072
103	0xbdae9e90	-0.08526337
104	0xbdfcf93d	-0.12352226
105	0xbcabdfe4	-0.020980783
106	0xbdb31f67	-0.08746224
107	0xbd827aec	-0.06371102
108	0xbd212a50	-0.039346993
109	0xbd999ae2	-0.07500245
110	0xbdeaee37	-0.11471217
111	0xbdab99b5	-0.08378927
112	0xbd09e789	-0.033668075
113	0xbd8d5b4e	-0.069021806
114	0xbd78d49e	-0.060749643
115	0xbdf5e785	-0.120070495
116	0xbdad1f9f	-0.08453297
117	0xbdaf9ce3	-0.08574846
118	0xbd79f61f	-0.061025735
119	0xbda5c802	-0.08094789
120	0xbda9ef9e	-0.082976565
121	0xbdc3dcde	-0.095636114
122	0xbcecdd42	-0.028914098
123	0xbd759833	-0.0599596
124	0xbd77d6b5	-0.060507495
125	0xbe062a43	-0.13102059
126	0xbdca64a0	-0.09882474
127	0xbde9810b	-0.11401566

local2.conv.bias f4 [128]
0	0x3c63d437	0.013905576
1	0xbbb7b982	-0.005606831
2	0x3a1cb9e5	0.0005978628
3	0x3afcecd0	0.001929665
4	0xba6fd403	-0.00091487187
5	0x3be443be	0.0069660833
6	0x3b391002	0.0028238301
7	0x3cfa88f5	0.030582884
8	0x3acf0a1a	0.0015795857
9	0x391f09f1	0.00015167125
10	0x3a8916c2	0.0010459053
11	0x3af82697	0.0018932399
12	0xbab89137	-0.0014081363
13	0x3ab4a385	0.0013781643
14	0x3adea3d2	0.0016986078
15	0x36e20a91	6.736555e-06
16	0x3a996c3b	0.0011705229
17	0x3b15dbc1	0.002286658
18	0x3b03a137	0.0020085105
19	0x3a148d59	0.00056668144
20	0x3bb5364a	0.0055301534
21	0x3af66021	0.0018796959
22	0xba7f29d7	-0.00097337126
23	0xba0a074c	-0.00052653695
24	0xbb499606	-0.0030759587
25	0x3b205137	0.002446247
26	0xbb821452	-0.0039697075
27	0x3b207670	0.0024484657
28	0xba3e2755	-0.0007253786
29	0x3ada2a71	0.0016644729
30	0x3af85eb5	0.0018949123
31	0x3a41090c	0.0007363714
32	0x3a393a0f	0.00070658413
33	0x3c2df7e4	0.010618184
34	0x3b1a64ff	0.0023558734
35	0xbb61403f	-0.003437057
36	0x3d58021b	0.052736383
37	0x3aa42b95	0.0012525195
38	0x3b30be5c	0.0026968932
39	0x39f97adb	0.00047584515
40	0x3b18e508	0.0023329873
41	0x3d79a1ab	0.060945194
42	0xbb6576c6	-0.0035013421
43	0x3af44bf9	0.0018638364
44	0x3be5be90	0.007011242
45	0x38573919	5.131317e-05
46	0xbb502143	-0.0031758107
47	0x3a8f507f	0.0010934024
48	0x3994c485	0.00028375178
49	0xbc89aae9	-0.01680513
50	0x3c2505c4	0.010072175
51	0x3b1313d8	0.0022442248
52	0x398e496f	0.00027139063
53	0x3ac8e14b	0.0015325932
54	0x3b25c21f	0.0025292707
55	0x3b300eed	0.0026864365
56	0xba9892e6	-0.0011640459
57	0x3aadcb97	0.0013259527
58	0xba2d4169	-0.0006609173
59	0x39f6e5de	0.0004709204
60	0x3b0cd258	0.002148768
61	0xba816960	-0.0009873323
62	0x3b14fa1b	0.0022732082
63	0x3aff0e82	0.001945928
64	0xbc1aab16	-0.009440204
65	0x3b13bb4e	0.0022542062
66	0xba95e220	-0.0011435188
67	0xbdad0f10	-0.084501386
68	0x3c700b90	0.014651194
69	0x3b391d80	0.0028246343
70	0x3b09a11f	0.0021000577
71	0x38ef2d87	0.00011404888
72	0x3c8895bd	0.016672963
73	0x3ada6816	0.00166631
74	0xba837ef8	-0.0010032346
75	0xbacb3805	-0.0015504366
76	0x3ce40b72	0.027837489
77	0xba7bc583	-0.00096043217
78	0xbbce0ec5	-0.0062883818
79	0xb93906f1	-0.00017645561
80	0x3b7f63b3	0.0038969337
81	0xba28eaae	-0.00064436614
82	0x3acfa406	0.001584173
83	0x3b25923c	0.0025264164
84	0x3b14498f	0.0022626852
85	0x3c8805bf	0.016604302
86	0xba8a34a6	-0.0010544255
87	0xba0056b2	-0.0004895731
88	0x3a763785	0.00093924283
89	0x3ba5e92c	0.0050631966
90	0x3b13a41d	0.002252824
91	0x3984bb62	0.00025316613
92	0x3b529ee3	0.003213816
93	0x3aeab456	0.0017906528
94	0x3af4560e	0.0018641369
95	0x3a35865f	0.0006924625
96	0x39ae6f3f	0.0003327075
97	0x39b8c7c6	0.00035244058
98	0x3b1b9fd5	0.002374639
99	0x3af39b3a	0.001858569
100	0x3a2fa22e	0.0006699887
101	0x3aceba61	0.0015772098
102	0x38432deb	4.6534387e-05
103	0xbb19293d	-0.0023370527
104	0x3978ef2e	0.00023740224
105	0xb9931be1	-0.00028058796
106	0x3ab63466	0.0013901114
107	0x3a1c758e	0.0005968445
108	0x3b300db0	0.0026863627
109	0x3764d4a2	1.3639366e-05
110	0xb9c2d38a	-0.00037160172
111	0x3aeeeef0	0.0018229168
112	0x38f9e326	0.00011915555
113	0xbbd75ea9	-0.0065725637
114	0x3a9bc4c0	0.0011884198
115	0xb6c28922	-5.797615e-06
116	0x3a91dd61	0.0011128598
117	0x3b1411b1	0.0022593553
118	0xbbdb368f	-0.0066898535
119	0xbb0e583c	-0.0021720072
120	0x3c089435	0.008336117
121	0x3ac2f37d	0.001487359
122	0x3b0b8154	0.0021286802
123	0x3acac676	0.0015470523
124	0x3a99401a	0.0011692077
125	0x3a7ab7ba	0.00095641206
126	0xbda7c16c	-0.08191189
127	0xbbc33a11	-0.00595785

local2.conv.lin.weight f4 [128, 128]
0	0x3e001853	0.12509279
1	0x3d7e343a	0.062061526
2	0xbe12ce16	-0.14336428
3	0xbe4809ed	-0.19535036
4	0xbd037aa9	-0.0320994
5	0x3de007b2	0.10938968
6	0xbdef65fd	-0.116893746
7	0xbc698a58	-0.014254175
8	0x3dc723d7	0.09723633
9	0xbdaf53f5	-0.085609354
10	0x3d36f9d1	0.044671837
11	0xbe0e905a	-0.13922253
12	0xbd5fda87	-0.054651763
13	0xbe0820ec	-0.13293809
14	0x3dad39e7	0.084583096
15	0xbdc379cc	-0.09544715
16	0xbdacc642	-0.08436252
17	0x3d50d164	0.05098094
18	0x3d86749c	0.0656521
19	0x3e11efe3	0.14251666
20	0xbdd54a58	-0.104145706
21	0xbc4021d9	-0.01172682
22	0xbd290bcb	-0.041271012
23	0x3cb7c3d5	0.022432247
24	0x3e1dcebb	0.15410893
25	0x3c03856e	0.008027418
26	0xbdd5b685	-0.104352035
27	0xbcb5ccda	-0.022192407
28	0xbd1e018f	-0.038575705
29	0x3dd2fcaf	0.10302102
30	0x3d924e23	0.0714381
31	0x3c84dd83	0.016218906
32	0xbde40320	-0.111334085
33	0xbe3352c3	-0.1751204
34	0x3e2e6f41	0.17034627
35	0xbd63dcc9	-0.05563048
36	0xbd83217d	-0.06402872
37	0xbb0a06a6	-0.0021061092
38	0x3d9ba75c	0.07600281
39	0x3d9baa3b	0.07600828
40	0xbda7f38c	-0.0820075
41	0xbad508f7	-0.0016253282
42	0x3d725a55	0.05916818
43	0x3d6a0435	0.05713292
44	0xbb86d2af	-0.004114471
45	0xbc5556fe	-0.013021229
46	0xbd21800b	-0.039428752
47	0xbbe2a29a	-0.0069163563
48	0x3d88a9a4	0.066729814
49	0xbd83b6a4	-0.0643132
50	0x3d7b3b6e	0.061335973
51	0xbd6e6603	-0.058202755
52	0x3d9c29d2	0.07625164
53	0x3ddff325	0.10935048
54	0x3db38bcf	0.08766901
55	0x3d79fcb1	0.061032
56	0xbcf5493c	-0.029942147
57	0x3d9a4e53	0.075344704
58	0x3dbb0211	0.091312535
59	0xbe03b7cd	-0.12863083
60	0x3da1874a	0.078871325
61	0x3e102620	0.14077044
62	0x3ded6500	0.1159153
63	0x3c334daf	0.010943814
64	0x3da562ff	0.08075523
65	0x3d5fd0bf	0.054642435
66	0xbc70c2a4	-0.014694843
67	0x3dc06efa	0.09396167
68	0xbd0f6340	-0.03500676
69	0x3e17e03c	0.14831632
70	0x3ddaf219	0.10690708
71	0x3deb7cea	0.11498435
72	0xbd3a0a4d	-0.04541998
73	0xbcbc9006	-0.023017894
74	0xbc9f23c0	-0.019426227
75	0xbde74e8c	-0.112942785
76	0x3e055ff4	0.13024884
77	0xbda029f6	-0.078205034
78	0xbc80332e	-0.015649404
79	0xbdd6733d	-0.10471199
80	0xbd72673b	-0.05918048
81	0xbd1c7f7d	-0.03820752
82	0x3ddde732	0.10835113
83	0x3dd36c4e	0.10323392
84	0xbe287edf	-0.16454647
85	0x3db7ed04	0.08980754
86	0xbd607cb5	-0.05480643
87	0x3c46f37c	0.012143012
88	0xbbeb7767	-0.0071858647
89	0x3cdde054	0.027084507
90	0x3d35d3bd	0.044391382
91	0x3d20e275	0.039278466
92	0xbdb1b145	-0.086763896
93	0xbdd0ce78	-0.10195631
94	0x3d2439ca	0.040094174
95	0x3df8d99c	0.12150881
96	0xbda5dcfb	-0.08098789
97	0xbbf217b6	-0.0073880805
98	0xbe12e263	-0.14344172
99	0x3e1776b5	0.14791377
100	0xbe0f5fbd	-0.14001365
101	0xbd804c91	-0.06264604
102	0x3dd4ada0	0.10384679
103	0xbdcdd741	-0.10050822
104	0x3d8f9926	0.070116326
105	0xbdb1290c	-0.08650407
106	0xbdfbe0e2	-0.12298752
107	0x3db622eb	0.08893379
108	0xbd3b082a	-0.045662083
109	0x3d56fca9	0.05248705
110	0xbd1d33eb	-0.03837959
111	0xbe14cf3c	-0.14532179
112	0x3d642a26	0.05570426
113	0xbcf7bdf0	-0.030241936
114	0x3e017c50	0.12645078
115	0x3de2bdc4	0.11071351
116	0xbe205f36	-0.1566132
117	0xbe116fab	-0.14202754
118	0x3db9199f	0.0903809
119	0x3d63a1f8	0.055574387
120	0x3d870c48	0.06594139
121	0x3d76afb6	0.060226165
122	0x3dd0038e	0.10156928
123	0xbd5689ea	-0.05237762
124	0xbdd7b90e	-0.10533343
125	0xbd3613bc	-0.044452414
126	0x3e1bcaf6	0.15214142
127	0xbcfd6da3	-0.030936068
128	0xbdf04414	-0.11731735
129	0x3e055abd	0.13022895
130	0x3c526cba	0.012843305
131	0x3da75faa	0.08172543
132	0xbbb14327	-0.0054096165
133	0x3e01ee8d	0.12688656
134	0x3d848f10	0.064725995
135	0xbe06df7a	-0.13171187
136	0xbdcb8b24	-0.09938648
137	0xbdca9550	-0.0989176
138	0x3cb729a9	0.022358732
139	0xbcf949b9	-0.030430662
140	0x3dea0d5d	0.1142833
141	0x3c03061b	0.007997061
142	0x3c580667	0.01318512
143	0xbd8874cd	-0.06662903
144	0x3d37ce08	0.04487422
145	0xbd282c10	-0.041057646
146	0xbdbcfba1	-0.09227682
147	0xbe59f42a	-0.21284547
148	0x3ce794f1	0.028269263
149	0xbd59d9ce	-0.05318623
150	0xbc428dba	-0.011874611
151	0xbdaede34	-0.08538476
152	0x3daec0a1	0.08532835
153	0xbdce30ee	-0.10067926
154	0xbe1309ca	-0.14359203
155	0x3df8fe71	0.12157906
156	0x3e3fd7d7	0.1873468
157	0xbd890b91	-0.06691659
158	0xbdda357c	-0.106547326
159	0x3d63c7d1	0.05561048
160	0xbbf05aff	-0.0073350663
161	0xbda4cf45	-0.08047346
162	0xbe146538	-0.14491737
163	0x3dd88243	0.105717205
164	0x3dbc734a	0.09201677
165	0xbd445d0f	-0.04794031
166	0xbe3a10c2	-0.18170455
167	0xbde76365	-0.11298255
168	0x3b93c483	0.00450951
169	0xbe30f3c9	-0.17280497
170	0x3d832f89	0.06405551
171	0x3c8e738e	0.017389085
172	0xbb8aa18c	-0.0042306837
173	0x3cbfaf36	0.023398977
174	0x3dede19a	0.11615296
175	0xbc8786d5	-0.016543785
176	0xbd471182	-0.04860068
177	0x3c135ced	0.008994323
178	0xbe1f13b1	-0.15534855
179	0x3cbaee28	0.02281864
180	0xbd049054	-0.032364205
181	0xbc896b9c	-0.016774945
182	0x3df32a52	0.11873306
183	0xbe3a9db9	-0.18224229
184	0xbc827b6e	-0.015927996
185	0xbd9cd8d3	-0.076585434
186	0xbce7df1d	-0.02830463
187	0x3d963295	0.073338665
188	0x3c6ccb89	0.014452823
189	0xbdf6d1a0	-0.120517015
190	0xbdf3e62c	-0.11909136
191	0x3d8dedb4	0.06930104
192	0x3e00abb1	0.12565495
193	0x3dc27de5	0.09496669
194	0x3dabf7be	0.083968624
195	0xbe2dee79	-0.16985501
196	0xbdb819a9	-0.08989269
197	0xbd068ebc	-0.032850966
198	0xbb4738fe	-0.003039896
199	0x3d6c8f7d	0.05775403
200	0xbc83f8e0	-0.016109884
201	0x3d0ca557	0.034337368
202	0xbda7ea24	-0.08198956
203	0xbdea1286	-0.11429314
204	0x3df7abe3	0.12093332
205	0x3d6f95f1	0.058492605
206	0x3db4b166	0.088228986
207	0x3de94f89	0.11392123
208	0xbe470e99	-0.19439162
209	0x3bd43fea	0.0064773457
210	0xbdec2d05	-0.11532024
211	0x3e299e60	0.16564322
212	0x3d827d2b	0.0637153
213	0x3d2960a0	0.041351914
214	0x3dc03c3f	0.09386491
215	0x3dbce89d	0.09224055
216	0xbe9a39f1	-0.3012233
217	0xbe46335c	-0.1935553
218	0x3d3449fe	0.044015877
219	0x3d5cc39a	0.053897478
220	0xbbaa4f48	-0.0051974393
221	0x3d8c5cef	0.06853663
222	0xbe7d53c5	-0.24738987
223	0x3d1f73e6	0.03892889
224	0x3ca4a219	0.020096825
225	0x3d079f54	0.03311093
226	0x3dbe3cf6	0.09288971
227	0x3dda3ca2	0.10656096
228	0xbd53870a	-0.051642455
229	0x3c207c16	0.009795209
230	0xbe112d0e	-0.14177343
231	0x3dc0a189	0.094058104
232	0x3e04ee02	0.12981418
233	0x3db21457	0.08695286
234	0x3e041e5f	0.1290221
235	0x3e37b58a	0.17940345
236	0xbd70e4ad	-0.058811832
237	0xbafae209	-0.001914085
238	0x3bda14a2	0.0066552917
239	0xbdd1e515	-0.10248772
240	0xbde22ceb	-0.11043724
241	0xbc4af9fe	-0.012388704
242	0xbddd3be1	-0.108024366
243	0xbcc5c3bd	-0.024141187
244	0x3d5fe400	0.054660797
245	0x3d702c4c	0.058635995
246	0x3c57f139	0.013180071
247	0x3d05818c	0.03259425
248	0x3e19078a	0.14944282
249	0xbe3fc136	-0.18726048
250	0x3c59d6ec	0.01329587
251	0xbe3b8228	-0.1831137
252	0x3e0ab14c	0.13544196
253	0x3dac0953	0.08400216
254	0xbd9e612b	-0.07733377
255	0xbba3837e	-0.0049900403

local2.norm.weight f4 [128]
0	0x3f67aaae	0.9049481
1	0x3f7d01b3	0.9883072
2	0x3f8a68e1	1.0813257
3	0x3f625ea2	0.8842565
4	0x3f78c43b	0.97174424
5	0x3f78e3da	0.97222674
6	0x3f67708f	0.90406126
7	0x3f6a442a	0.9151026
8	0x3f758220	0.9590168
9	0x3f760af0	0.9611044
10	0x3f8022b5	1.0010592
11	0x3f7f85da	0.99813616
12	0x3f793bb6	0.97356737
13	0x3f81646e	1.0108774
14	0x3f69f275	0.91385585
15	0x3f881691	1.0631887
16	0x3f7a7045	0.9782756
17	0x3f6b51f0	0.919219
18	0x3f779f6d	0.9672764
19	0x3f848dae	1.0355737
20	0x3f60d732	0.8782836
21	0x3f67c49b	0.9053437
22	0x3f743738	0.9539676
23	0x3f892140	1.0713272
24	0x3f7f54b4	0.9973862
25	0x3f6069c6	0.876614
26	0x3f880aac	1.0628257
27	0x3f651653	0.8948719
28	0x3f77a861	0.967413
29	0x3f7e89ef	0.9942922
30	0x3f792239	0.97317845
31	0x3f7688b2	0.9630233
32	0x3f7ff5cb	0.99984425
33	0x3f76bf3e	0.9638556
34	0x3f74631a	0.95463717
35	0x3f838739	1.0275642
36	0x3f61fcd3	0.88276404
37	0x3f771c4b	0.96527547
38	0x3f60a29c	0.8774812
39	0x3f855312	1.0415976
40	0x3f62cd75	0.8859475
41	0x3f63d731	0.8900023
42	0x3f834c48	1.0257654
43	0x3f82936c	1.020124
44	0x3f5ab2be	0.8542899
45	0x3f775632	0.966159
46	0x3f7f1d6f	0.9965429
47	0x3f650118	0.89454794
48	0x3f876ea9	1.0580646
49	0x3f57df1e	0.84324825
50	0x3f7a1bfe	0.9769896
51	0x3f770a74	0.96500325
52	0x3f7e8a9c	0.9943025
53	0x3f7db00a	0.9909674
54	0x3f6fdc7e	0.9369582
55	0x3f6f643c	0.9351232
56	0x3f5e16c4	0.8675349
57	0x3f8092a4	1.0044751
58	0x3f83ea0f	1.0305804
59	0x3f82ed86	1.0228736
60	0x3f632c52	0.887395
61	0x3f65a9ec	0.89712405
62	0x3f79b311	0.9753886
63	0x3f7263ca	0.94683516
64	0x3f85b090	1.0444508
65	0x3f64c386	0.89360845
66	0x3f7fcdcc	0.99923396
67	0x3f75dd15	0.9604047
68	0x3f696dbc	0.91183066
69	0x3f53cbe0	0.82732964
70	0x3f6d7df8	0.9277034
71	0x3f71b359	0.9441429
72	0x3f6e5fd4	0.9311497
73	0x3f7938fe	0.9735259
74	0x3f750e09	0.9572454
75	0x3f6fb8e7	0.93641514
76	0x3f697478	0.9119334
77	0x3f725f24	0.94676423
78	0x3f815722	1.0104716
79	0x3f7c7709	0.98619133
80	0x3f6cbb68	0.9247346
81	0x3f7d88e7	0.9903702
82	0x3f6d8971	0.92787844
83	0x3f62fd06	0.88667333
84	0x3f7012cc	0.9377868
85	0x3f6ca48d	0.92438585
86	0x3f85272f	1.0402583
87	0x3f88ff43	1.07029
88	0x3f75537d	0.9583052
89	0x3f7fce62	0.9992429
90	0x3f6b7daa	0.91988623
91	0x3f7efaf1	0.99601656
92	0x3f5c3465	0.8601745
93	0x3f737c2c	0.95111346
94	0x3f6ceeae	0.92551696
95	0x3f791cdb	0.97309655
96	0x3f7455f5	0.9544366
97	0x3f76fed0	0.96482563
98	0x3f68288e	0.9068688
99	0x3f6cf1e9	0.92556626
100	0x3f6c6c7c	0.92353034
101	0x3f6c640b	0.92340153
102	0x3f7d2b8d	0.9889458
103	0x3f7f4cae	0.9972638
104	0x3f870548	1.0548487
105	0x3f84ef64	1.0385556
106	0x3f73e64e	0.9527329
107	0x3f800e18	1.0004301
108	0x3f67da9e	0.9056796
109	0x3f7c7aec	0.98625064
110	0x3f71edc1	0.9450341
111	0x3f64ceaa	0.89377844
112	0x3f8311c6	1.0239799
113	0x3f8183d6	1.0118358
114	0x3f7bbb1d	0.9833239
115	0x3f6bd629	0.9212366
116	0x3f815aec	1.0105872
117	0x3f6d718a	0.9275137
118	0x3f6776df	0.9041576
119	0x3f80289d	1.0012394
120	0x3f6da893	0.9283535
121	0x3f68771c	0.90806746
122	0x3f745c21	0.9545308
123	0x3f7ec371	0.9951697
124	0x3f86802f	1.0507869
125	0x3f6d4197	0.9267821
126	0x3f802bed	1.0013405
127	0x3f939ecd	1.1532837

local2.norm.bias f4 [128]
0	0xbdd19607	-0.102336936
1	0xbda30aa6	-0.079610154
2	0xbc7876db	-0.015165056
3	0xbde33b39	-0.1109528
4	0xbdbc0faa	-0.09182675
5	0xbde2f08b	-0.11081036
6	0xbdecdaaa	-0.11565144
7	0xbddfa325	-0.10919789
8	0xbdf2aa01	-0.11848832
9	0xbdedeaa3	-0.11617019
10	0xbd89cbaa	-0.06728299
11	0xbd8e9606	-0.069622084
12	0xbd3bc369	-0.045840655
13	0xbdb657ef	-0.08903491
14	0xbdabe84e	-0.08393918
15	0xbd4b3523	-0.049611222
16	0xbd8abb3a	-0.06773992
17	0xbdbeede2	-0.09322716
18	0xbd70ca74	-0.058786824
19	0xbd3b6e4e	-0.04575949
20	0xbe19066b	-0.14943855
21	0xbdc50b66	-0.09621315
22	0xbd9916b8	-0.074750364
23	0xbd3fe364	-0.046847716
24	0xbd5a914f	-0.053361233
25	0xbdd55d89	-0.10418231
26	0xbc9c242d	-0.019060219
27	0xbdfcd34c	-0.12344989
28	0xbde9132c	-0.1138061
29	0xbda7f562	-0.082011
30	0xbdc5e739	-0.09663243
31	0xbd9e1f19	-0.07720775
32	0xbd53411d	-0.05157577
33	0xbe083d45	-0.13304622
34	0xbde857ca	-0.113448694
35	0xbd42e9a2	-0.04758609
36	0xbdfbd0fe	-0.122957215
37	0xbd1ef120	-0.038804173
38	0xbe0a47c9	-0.13503946
39	0xbd391353	-0.045184445
40	0xbde32297	-0.11090582
41	0xbe10d1fc	-0.14142603
42	0xbd999c70	-0.07500541
43	0xbd996c6b	-0.07491382
44	0xbde9fcfc	-0.11425206
45	0xbd5e3de4	-0.054258242
46	0xbd7e3610	-0.062063277
47	0xbdfb3479	-0.12265868
48	0xbd574656	-0.052557312
49	0xbe1a1a99	-0.15049209
50	0xbd40cf01	-0.047072414
51	0xbdc6537d	-0.09683893
52	0xbdd05904	-0.101732284
53	0xbd45fd04	-0.048336998
54	0xbdcd32c2	-0.10019447
55	0xbe08efa8	-0.13372672
56	0xbe139ac6	-0.1441451
57	0xbd969fd3	-0.07354703
58	0xbd8c05f8	-0.06837076
59	0xbd508134	-0.050904468
60	0xbe0701c9	-0.13184275
61	0xbdf4e7c4	-0.11958268
62	0xbddc8e44	-0.107693225
63	0xbdbd60d7	-0.09246986
64	0xbd631d4b	-0.055447858
65	0xbe0666a6	-0.13125095
66	0xbd574a83	-0.052561294
67	0xbd352679	-0.044226144
68	0xbdd66603	-0.10468676
69	0xbe12f97e	-0.14352986
70	0xbdacedcb	-0.08443793
71	0xbd6edfed	-0.05831902
72	0xbdcb0e01	-0.099147804
73	0xbd9bd9a8	-0.07609874
74	0xbd5e7642	-0.054312
75	0xbda81080	-0.08206272
76	0xbdd75873	-0.10514917
77	0xbdc5159b	-0.096232615
78	0xbd8e4b70	-0.06947982
79	0xbd97c88e	-0.074113
80	0xbdac7e03	-0.08422472
81	0x3cdfaafa	0.027303208
82	0xbdc95cca	-0.09832151
83	0xbe246e69	-0.16057743
84	0xbdc527d0	-0.09626734
85	0xbdcf1e26	-0.10113172
86	0xbd969c04	-0.07353976
87	0xbd583749	-0.0527871
88	0xbdb9e5ce	-0.09077035
89	0xbe0075a6	-0.1254488
90	0xbde36b51	-0.11104453
91	0xbd8582ae	-0.06519066
92	0xbe1a189d	-0.15048452
93	0xbdee5473	-0.11637201
94	0xbde4317b	-0.1114225
95	0xbd82bb40	-0.06383371
96	0xbd98f5f3	-0.07468786
97	0xbdaba4b9	-0.08381028
98	0xbe0c5d0e	-0.13707373
99	0xbdc74959	-0.09730787
100	0xbdea353d	-0.11435936
101	0xbdc5a168	-0.096499264
102	0xbd5fe84a	-0.054664887
103	0xbd529f1c	-0.05142127
104	0xbdf7208f	-0.12066757
105	0xbd74d0ed	-0.05976956
106	0xbd8886e8	-0.06666356
107	0xbd808a6f	-0.06276404
108	0xbe035059	-0.12823619
109	0xbdb89491	-0.09012712
110	0xbe0a56d9	-0.13509692
111	0xbdf3fa6d	-0.11912999
112	0xbdafe22d	-0.085880615
113	0xbd6e5590	-0.058187068
114	0xbd72e477	-0.059299912
115	0xbd89d958	-0.06730908
116	0xbd1e8a75	-0.03870626
117	0xbde57500	-0.112039566
118	0xbdca2551	-0.09870399
119	0xbdea48a3	-0.114396356
120	0xbda33dc8	-0.07970768
121	0xbdcb3dd4	-0.09923902
122	0xbdc1ab2f	-0.09456479
123	0xbdab8a8a	-0.083760336
124	0xbd05b288	-0.032640964
125	0xbda64ed8	-0.08120507
126	0xbe0c97a4	-0.13729721
127	0xbc0309f3	-0.007997978
