models/eeg_only/s_13.pt (torch, 561186 bytes, 37 tensors)

band_attn.fc1.weight f4 [8, 5]
00000000: ca06 cdbe 9582 7dbe 9ded 4fbd c23d c43e
00000010: 45fd a4bd 7134 ec3e c22c e6be 0693 a13e
00000020: 7f2f 1e3e 6dd2 673e 573c c8be 2615 a73e
00000030: a144 a03d 98ad af3d 5e55 dd3d c9ea a63d
00000040: 9269 58be 0d8e bcbd 0ed3 d7be bcc1 cdbe
00000050: 6689 acbc 7bd3 cf3e 0671 0d3d 622c 6a3e
00000060: ffbf eb3e 4a48 bcbe 282e 8f3e 8762 d4bd
00000070: c7ed a03e 8fba 143e 99ad b53e a86a 053f
00000080: e158 d13e e0e5 623e 7504 4ebe acd0 b73e
00000090: 8ca4 0b3d fdb5 c43e 5fbb cc3e 06c6 bd3e
-0.40044242 -0.24756844 -0.050763715 0.38328367 -0.0805612 0.4613376 -0.44956023 0.31557482
0.15447806 0.22638865 -0.39108536 0.32633322 0.0782559 0.08578032 0.10807298 0.081502505
-0.21134022 -0.092067815 -0.4215321 -0.4018687 -0.02106161 0.40591034 0.034531616 0.22868493
0.4604492 -0.36773902 0.27964902 -0.10370355 0.3143141 0.14524291 0.35484007 0.5211587
0.40888122 0.22158003 -0.20118888 0.35901392 0.03409247 0.38420096 0.39986703 0.37065142

band_attn.fc1.bias f4 [8]
00000000: e6d0 ecbd d3b4 b8bc ae1f ed3e fa5d 0dbe
00000010: d3a9 003e 4f8f 013f 3211 f73e ee90 dd3d
-0.11563282 -0.022547161 0.46313232 -0.1380538 0.12564783 0.50609297 0.48255306 0.10818659

band_attn.fc2.weight f4 [5, 8]
00000000: 8090 a23e 171f 093e 6343 83be 2bc0 5dbe
00000010: d7a0 03be 41cf 37bc 773a 70bd f368 4b3e
00000020: 1498 e0bd 23f1 e5be 8a57 75be b328 87be
00000030: b572 613d f132 163e f07f fc3d f8ad 373d
00000040: 5ed2 3abd 8d7a 7ebe 57a9 06be 733c 723c
00000050: cd07 a6be ea48 05bf 2d0c aabd 104f 223e
00000060: 1bac a33d df44 1f3e 13d9 073f 9502 11be
00000070: 2511 2b3e 73c4 493e 7871 d33d cf7b cd3e
00000080: 77ac 7e3e fdc3 f3be 8386 89bc 898a 26bd
00000090: 85c2 4dbe 2ab4 df3d 1945 ccbe 6829 07bf
0.3175087 0.13390766 -0.2563735 -0.21655338 -0.12854324 -0.011218847 -0.058649506 0.19864254
-0.109665066 -0.44910535 -0.23959175 -0.2639824 0.055041034 0.1466787 0.1232909 0.044843644
-0.045610778 -0.24851437 -0.13150536 0.01478492 -0.32427827 -0.52064383 -0.083031036 0.15850472
0.07991811 0.15553616 0.53065604 -0.14161141 0.16705759 0.19703846 0.10324377 0.4013352
0.24870478 -0.47610465 -0.016787773 -0.04065946 -0.20093735 0.109230354 -0.39896467 -0.52797556

band_attn.fc2.bias f4 [5]
00000000: 3c9e 403e d2e9 a13e b6d5 9b3e cdaf 893e
00000010: ce49 23be
0.18810362 0.31623703 0.30436486 0.26891938 -0.15946123

feat_proj.weight f4 [128, 21]
00000000: beaa 37be 9cb2 7dbd 48be 573e 60e0 f9bd
00000010: b2bd d0bd a943 dc3d 736e 4dbd 14c9 b8bd
00000020: 1073 e2bd 6ee3 0f3e 8d15 213e 4304 2fbe
00000030: 885c b8bd 3ad3 6c3d 23b5 cebd b847 633e
00000040: aa77 453d 8dda 313e 1edb 5cbd 4733 013e
00000050: 20bd 4d3c 5b6a 51bd 25a6 86be f351 a0bd
00000060: e041 9f3d 533e 853d ba34 9abd 6f92 ce3d
00000070: 6c78 a73d 156c c0bd fc7d 2e3e f60d 02bd
00000080: 833b ccbd 4aaf 3b3c 22b1 50be 6356 da3d
00000090: a901 a6bc 626c 07bd a399 e03d 4108 6bbe
000000a0: 5c5c 0a3e 49de 833d 547d 0ebe 249c a4bc
000000b0: 9718 2bbd b0d1 be3d c656 483d 84b3 32be
000000c0: a1aa 2fbe caf4 0abd 5af5 923c b07f 113e
000000d0: ba3f 1abe 6ab9 1a3e d2bd 43be 7a07 1f39
000000e0: 502d e7bd 1e8c 4d3e 217d c0bb 70e2 ad3c
000000f0: 3e56 263e 206b 5dbd 92b4 07be 58d0 183e
00000100: c986 4abe 847b fd3a 5802 6fbd d235 debd
00000110: 9b40 383e 9662 fabd ef8e 4f3e 8303 053e
00000120: 2b6d 083e 49e5 523c 20c1 363c e14b 013e
00000130: b5c6 48bd 6fbc ffbc 6702 033c 3b70 88bd
00000140: 4c06 373e eef6 2c3e 3f69 d0bd 8f14 5dbe
00000150: 303a 90be 87d8 a2bc f319 0dbe 9373 03be
00000160: c69d d6bd f5ff 1abe a241 22be 4492 5abe
00000170: c6bd 19be ef25 74bd ffb1 e6bd a8b8 793d
00000180: 0903 d03c 6400 5f3e 0dd4 e9bc 6fcf 1d3e
00000190: 5cb5 2cbd de0d 83bd 2f53 2d3c b7e9 d5bd
000001a0: e28b 043d f075 1ebe f624 023d 1bf2 61be
000001b0: 05bc 2fbe 3d2b 0c3e 5057 16be a88d 3bbd
000001c0: c4f3 1bbe ef40 7cbd 1ac1 47bd 35b5 583d
000001d0: 9d40 6cbc c2e9 a43d 0a81 4dbe bc27 043e
000001e0: 2d29 503e 5181 07be 5f41 42be ce67 173c
000001f0: 6aac 9c3d f0fb 583e fd64 dc3c f638 1bbe
00000200: 4cee b2bd cfeb 633d 409d 51be 6b66 33be
00000210: d744 6f3e 180c 413e 84aa f1bd 4d49 3e3e
00000220: 2b52 c53d 49e8 bdbd 84c6 b7bd eaf9 44be
00000230: 3e88 b0bd 5f7c d03d 1d08 9f3d 7abd 2cbe
00000240: 31c6 4fbe 39f6 c3bd 195f 8ebe aa17 e2bd
00000250: 1b9d 56bd e1cc 523e 25ff 593d 6cfa 64be
00000260: 8c05 acbd 0558 1cbe 511f f5bd f944 b0bd
00000270: dcde 4c3e 847f 363e 25a3 183e 514b 39be
00000280: d6ba 0e3e 3702 9a3d ca0e a93d d817 1fbe
00000290: e6b6 f5bd 5303 7a3c e858 ff3d 58bf 31be
000002a0: ba00 8fbe 667e 153d 46e4 403e fc84 00bd
000002b0: 911d f0bd 18b1 aa3d 17e3 85bd 9443 07be
000002c0: d802 59be 2d2f 18be 1249 3f3d 134a 62bd
000002d0: 2710 09be 1fbe 31bd 8b73 17bd 732b 593e
000002e0: a527 7fbd 391d bcbc 39b6 543d f41e 5d3e
000002f0: 9950 0a3e 6026 8a3e 775b 50be 6c0b 9abc
00000300: d3d7 f5bc a9cf efbd 44cc 1c3c 1257 013e
00000310: 412c 9f3d 32f4 1f3d 8033 9cbc 6f97 db3c
00000320: 5286 39be 3d19 213e df71 f0bc dfbc eb3d
00000330: 8f8c 49bd 07ed 34be 1039 c53d b1a8 2c3d
00000340: 5788 51be 61b4 42bc 387d 8e37 af89 a0bd
00000350: 5671 7a3d f94b 453d 5168 053d 6584 3fbe
00000360: cb46 5bbd 3ebf f13d d809 943a 3086 193c
00000370: c7a6 e9bc 6e54 bcbd 1252 703d 68d5 24be
00000380: 6dac eebb 7392 c63d 45f4 a63d 0a70 0f3e
00000390: 170a c83d 457d 813d 2c68 e9bd 286a 353d
000003a0: 84e6 14be 9942 643e 3049 f53d 4356 603e
000003b0: bfae efbd 34f2 2bbe 5772 73bd 0bfc db3c
000003c0: ad07 f6bc 0e50 c13d c05f c6bd 6261 c4bd
000003d0: 68ea efbc 1934 85bd a441 22be 25ed 1e3e
000003e0: bf31 113e 378d 62be ce98 433e edd8 5b3e
000003f0: 3e67 543e 49b0 b6bd 3e61 00bd 4827 fdbd
-0.17936227 -0.061937913 0.2106868 -0.12200999 -0.101924315 0.10755093 -0.05015416 -0.090227276
-0.11057103 0.14051601 0.15730877 -0.1709147 -0.09002024 0.05781863 -0.10093143 0.22195327
0.048209824 0.17368527 -0.053919904 0.12617217 0.012557298 -0.05112682 -0.26298633 -0.078281306
0.077762365 0.06506028 -0.07529588 0.10086524 0.081772655 -0.09395615 0.17040247 -0.031751595
-0.099722885 0.011455366 -0.20380071 0.10661008 -0.020264463 -0.033062346 0.10966804 -0.22952367
0.13511795 0.06438882 -0.13914996 -0.020093985 -0.041771498 0.093173385 0.04891088 -0.17451292
-0.17154934 -0.033924855 0.017939258 0.14208865 -0.15063372 0.15109792 -0.1911538 0.00015166207
-0.112879395 0.20072982 -0.0058742915 0.021226138 0.16243836 -0.05405724 -0.13252476 0.14923227
-0.19777979 0.0019339179 -0.058351845 -0.10850109 0.17993395 -0.12225835 0.20269369 0.12989621
0.13322894 0.012872049 0.011154443 0.12626602 -0.049017627 -0.031217782 0.007996178 -0.06662031
0.17873496 0.16891071 -0.10176324 -0.21589874 -0.28169394 -0.019878639 -0.1377943 -0.12837057
-0.10479312 -0.15136702 -0.1584535 -0.21344858 -0.15013799 -0.05960649 -0.11264419 0.060967118
0.025392072 0.21777493 -0.028543497 0.15411161 -0.042165145 -0.06399129 0.010578915 -0.10444968
0.032359965 -0.15474677 0.03177353 -0.22065012 -0.17161568 0.13688369 -0.14681745 -0.04578939
-0.15229708 -0.061585363 -0.04876814 0.052907187 -0.014419702 0.08052398 -0.20068756 0.12905782
0.20328207 -0.13232924 -0.1897025 0.009241058 0.07650073 0.21189857 0.026903624 -0.15158448
-0.08736858 0.055644806 -0.20470142 -0.17519538 0.23366104 0.1885227 -0.118001014 0.1858265
0.09634813 -0.092728205 -0.08973411 -0.1923596 -0.08619736 0.10179972 0.07765219 -0.16869155
-0.20290448 -0.095684476 -0.2780693 -0.1103967 -0.05239592 0.20585968 0.05322184 -0.22361153
-0.083994955 -0.15267952 -0.11968864 -0.086069055 0.20006889 0.17822081 0.14905985 -0.18095137
0.1393846 0.07519954 0.08254774 -0.1553644 -0.11997776 0.015259582 0.124681294 -0.17358148
-0.27930242 0.036497496 0.1883708 -0.031376824 -0.11724389 0.08334559 -0.065374546 -0.13209373
-0.21192491 -0.14861746 0.046700545 -0.055246424 -0.13385068 -0.043394204 -0.036975425 0.21207981
-0.062293667 -0.022963153 0.051931594 0.21593839 0.13507308 0.26982403 -0.20347391 -0.018804274
-0.03001014 -0.1170953 0.009570185 0.12630871 0.07772113 0.039051242 -0.019067526 0.026805608
-0.18117645 0.15732284 -0.029351173 0.11510634 -0.049206313 -0.17668544 0.096300244 0.042153064
-0.20462166 -0.011883826 1.6986029e-05 -0.07838761 0.06114324 0.048168156 0.032570187 -0.18702848
-0.05353431 0.11804055 0.0011294438 0.009370372 -0.028521908 -0.09195791 0.05867202 -0.16097033
-0.0072837383 0.09695902 0.081520595 0.14007583 0.097675495 0.063227214 -0.11396822 0.04429069
-0.1454106 0.2229103 0.1197685 0.21907906 -0.11703252 -0.16791612 -0.059435215 0.026853582
-0.030032957 0.09439097 -0.096862316 -0.09588887 -0.029286578 -0.065040775 -0.15845352 0.15520151
0.14179133 -0.22124182 0.19101259 0.2146947 0.20742509 -0.089203425 -0.031342737 -0.12361008

feat_proj.bias f4 [128]
00000000: 3761 c03c 7809 aa3d 3030 09bd 0e11 85bc
00000010: 03ef 4f3e ad98 9cbd b812 04be 7453 f6bc
00000020: 6446 2abe f327 fb3d 79ab 41be 0bd6 573d
00000030: d12b 04bd 4664 13bd e77e 3b3e 86a3 dc3c
00000040: 33a3 1e3e 75c5 e23d 2413 f1bd 3a18 43bc
00000050: 51da 28be 8903 063e 6326 983d f664 fdbd
00000060: 1028 3f3e 2c14 a8bd 5c7f 053d 0959 603d
00000070: 7fa7 37bd e059 c43d 7894 333e a9a2 04bb
00000080: 55a8 4dbe 51ad bebd 2c74 b1bb 8729 c2bb
00000090: 0d3d 36be 38d9 36bd 429e e93c a546 16be
000000a0: a5bd 173e dcba debd 88b4 0e3e 7ee6 2b3e
000000b0: 5382 093d daaf 273e d2e9 b9bd d11f 343e
000000c0: f1da f83d 54fe 403e a7cc ecbc b7ae aebd
000000d0: 8cd2 2bbe 0068 c2bb b9a0 b23d e6d2 f13d
000000e0: afee 3bbd f621 04be e34a 163d 87f4 22be
000000f0: 6a5f c8bd aa25 193e 07a6 243e 78b6 b3bc
00000100: 935f 89bc 9fa2 983b 5856 20be 4de2 1f3e
00000110: fe77 253d 0452 8d3d 103c 133e 1ec5 673d
00000120: bb74 8e3d 6312 14bd 6e47 07be cda6 42be
00000130: 0633 00be 1900 143e 0fc4 da3d c0fe a63d
00000140: f0bc 34be ec7e eb3b c12f a33d e22a 15be
00000150: be7a 45be 0429 213e af26 a63d 2a4e 2cbe
00000160: c4e4 77bd ea55 efbd b16c 02bc 9fab 5c3e
00000170: aac8 d5bb 826f 0bbd 5b7c 2c3e a8b3 063e
00000180: b73b fbbd c483 ffbc acc2 8cbd b47d 35bc
00000190: 232d c9bd e2f7 f73c a6c1 cfbd 8047 c0bd
000001a0: a12b 03be 295e cfbd edc9 f63d cbe8 1fbe
000001b0: 2cf6 1ebe e7d0 06be c80a 1bbe f467 ffbc
000001c0: b586 a83d 4bc2 eabc 5ef3 1fbc d05b a6bb
000001d0: 9141 303e 97e8 003d 3216 f13d 3889 d7bc
000001e0: 82a9 323e 6235 963d 5cd4 36be 2842 273d
000001f0: e31a e63d 0bb7 283e 9a09 b53c 129f 24bd
0.023483856 0.08302587 -0.03349322 -0.016243484 0.2030602 -0.07646308 -0.12897766 -0.03006909
-0.16628414 0.12263479 -0.18913068 0.05269436 -0.03226835 -0.0359843 0.18310128 0.026933443
0.15491943 0.11072818 -0.11771229 -0.0119076315 -0.16489531 0.13087286 0.07429197 -0.123727724
0.18667626 -0.082069725 0.032592162 0.05477241 -0.04483747 0.09587455 0.17537105 -0.0020238555
-0.20083745 -0.09310401 -0.00541546 -0.0059253606 -0.17796727 -0.04464075 0.028517846 -0.14675386
0.14818437 -0.10875484 0.13936055 0.16787145 0.033571552 0.16375676 -0.09077801 0.17590262
0.12151135 0.18847018 -0.02890618 -0.08529418 -0.16779536 -0.005932808 0.08722062 0.11807804
-0.045881923 -0.1290358 0.03669251 -0.15913592 -0.09783824 0.14955774 0.1607896 -0.021937594
-0.016769206 0.004658058 -0.15657938 0.1561367 0.040397637 0.06900409 0.14378381 0.05658447
0.06955858 -0.036150347 -0.13210842 -0.19008942 -0.12519464 0.14453162 0.106819265 0.081540585
-0.17650199 0.007186761 0.07968093 -0.1456714 -0.19285104 0.15738302 0.08112847 -0.16826692
-0.060520902 -0.11686309 -0.007960484 0.21549843 -0.006524165 -0.03404189 0.16844313 0.13154471
-0.12267249 -0.03119076 -0.06873068 -0.011077333 -0.09823062 0.030269567 -0.101443574 -0.093886375
-0.12809612 -0.101253815 0.12050233 -0.15616147 -0.15523595 -0.13165627 -0.15140831 -0.031177498
0.08228818 -0.0286571 -0.009762613 -0.005076863 0.17212512 0.031471815 0.117718115 -0.026310548
0.17447475 0.07334401 -0.17854446 0.040834576 0.11235597 0.16476075 0.022099305 -0.040190764

local1.conv.bias f4 [128]
00000000: c1b1 c83b 3600 053c 53f2 9abc 0521 203a
00000010: dc1d 49bc f5c8 be3b 8f49 50bc b6c4 2bbc
00000020: f41a 953b 9bd8 0fbc 3034 133b daae 73ba
00000030: f539 35bc 4237 27bc a337 3cb9 a747 02bc
00000040: e3c9 49bc 184a 88bc 1695 a73a 3ead 383c
00000050: 2bfc 91bb 5ece cebb 1d91 b9bb 5fcd 803b
00000060: dbeb 1e3c 60f5 9d3c a9c0 37bc 80e5 143c
00000070: 84a4 5bbb 7574 193c 53e9 3cbc 5158 bd3b
00000080: 6a21 25bc f3e1 1b3c d83b 013b fcbb 233c
00000090: f3cd 41bc 7e67 033b 920d de3b 912c 593c
000000a0: 8861 643b a15e 75bb f192 2bbc 1293 e63b
000000b0: 388c 773c 68ca 513c 6ada 2bbc 071a 0cbb
000000c0: 510d 66ba 42d3 b8bb 5fcd 0eba cabb 323c
000000d0: d512 e1bc 88b0 2a3c 22aa 7bbb 57b0 93bc
000000e0: 7884 d3bb c255 bc3c d59f 2dba 1e44 733b
000000f0: 63b5 8c3c d8f6 9bb9 84f2 8a3b b6e8 7a3d
00000100: 74df bfbb e489 1a3c 520c b53c c7c2 cabb
00000110: fbf5 423b 8faf babc 3330 95b9 6604 653c
00000120: 6440 7c3c 6784 5e3c 31ee a1bc bc00 5b3a
00000130: 5b6b 3d3c a58c 39bc c452 0b3c 4ebe 893c
00000140: f3be 28bc c175 ae3b a61a a03c d90a 6a3c
00000150: 438e 113c 2f7f a93c dda8 043b 36f0 99bb
00000160: 9616 553b 3413 9a3c 3116 f33c c4cb 613c
00000170: cc5a 1abb d46b 073c c3cb 0b3c ece9 7b3b
00000180: f6fe cd3c 2417 663b c4dd a1bb 57c9 b13b
00000190: 51c1 c93a 579c 9d3c d3f2 323c 0b97 c939
000001a0: e0d2 b93b db02 613b 9af8 b5bb ccc4 933b
000001b0: 756f 44bc 42bd 8d3c 140b 853c 0eb3 dfba
000001c0: d0d1 10bb c073 f03b 6960 913b 3942 5cbc
000001d0: 6445 47bc 812f 3d3b 1fbb 6c3c ba86 b73b
000001e0: fc28 d73b 3d54 d4bb 4083 283c eb33 03bc
000001f0: 8101 eb3a 80a7 cabb 7c9d 3a3c 1cad e43a
0.0061247055 0.008117726 -0.018914377 0.0006108436 -0.012275185 0.005822296 -0.01271285 -0.010483911
0.004550332 -0.00877967 0.0022461526 -0.0009295769 -0.011061181 -0.010206046 -0.00017949803 -0.007951654
-0.0123162 -0.016636893 0.001278552 0.011271773 -0.0044551096 -0.006311222 -0.005663051 0.003930732
0.009699787 0.019282043 -0.011215367 0.00908792 -0.0033514807 0.009366144 -0.011530238 0.0057783504
-0.010078767 0.00951432 0.0019719508 0.009993549 -0.011828887 0.00200507 0.00677652 0.013255254
0.0034848172 -0.0037440436 -0.010472045 0.007036575 0.015109114 0.012804605 -0.010489086 -0.0021377818
-0.0008775788 -0.0056404183 -0.0005447473 0.01090903 -0.0274748 0.010418065 -0.0038400968 -0.018028421
-0.0064550005 0.022990111 -0.0006623243 0.0037119458 0.017176336 -0.00029747817 0.004240336 0.061257087
-0.005855495 0.00943229 0.022100601 -0.00618777 0.0029748667 -0.022788791 -0.00028455406 0.013978099
0.015396211 0.013581372 -0.019766899 0.00083542964 0.01156124 -0.011325036 0.00850362 0.016814377
-0.010299432 0.005324096 0.019543957 0.014284813 0.0088840155 0.020690529 0.0020242252 -0.004697825
0.0032514683 0.018807985 0.029673668 0.013781492 -0.0023552654 0.008265454 0.008532467 0.003843899
0.025145989 0.0035109008 -0.0049397666 0.005425613 0.0015392696 0.019239588 0.010922152 0.00038450243
0.00567089 0.0034333977 -0.0055533173 0.004509544 -0.011989464 0.01730216 0.016240634 -0.0017066912
-0.0022097714 0.007338017 0.004436542 -0.013443523 -0.01216254 0.0028867426 0.01444891 0.0056007775
0.006566165 -0.0064797685 0.010285199 -0.008007984 0.0017929525 -0.0061845183 0.011390086 0.001744661

local1.conv.lin.weight f4 [128, 128]
00000000: 64e4 d9bc 2114 fdbd 0ead f3bd 25b1 983c
00000010: 4abb 39bc 6662 b5bd 3d9a 833d e59a a53d
00000020: 7b8f fe3d 4a7f f0bd 996f 04be f7a6 bd3d
00000030: f76c bdbd 2f27 073e f473 77bd af8f e0bd
00000040: 4df8 2bbe 978f d33d 2cda 8abd 94fd bb3d
00000050: 2504 6a3d 8567 cc3c 532c 76be 545d 323d
00000060: 0a42 8b3c cbc9 023e b6d8 b43d fb43 243c
00000070: b1ee 243e 5c37 65bd 3449 afbd 122b e73d
00000080: 37a4 20bd c16c f2bd 8c97 9aba 9e42 e33d
00000090: 8315 9fbd a52f 063e 2c57 d93d 76be 6e3c
000000a0: d4cc cd3b 8505 cc3d 56d4 b3bb 1d0c 3d3c
000000b0: c551 883d 8a1b 713d 4b14 0b3e 51a6 9b3b
000000c0: 5052 d43d 4246 a03d 8426 b43d 4272 93bd
000000d0: 119b cbbd d602 e6bd 9c89 b2bd 1f9c 0abd
000000e0: 0087 183e b837 74bc 95c8 8dbc 8819 fa3d
000000f0: d81b b33c 99f9 74bd d227 093e a629 ecbd
00000100: 48c2 d4bd 77b1 013e e281 013e 1d7d 033e
00000110: 4776 bcbb 2722 ae3c b36b a83d ad35 9c3d
00000120: 9b58 90bd ae4d e8bd 42be ebbd d357 11be
00000130: a0f0 aebd d123 edbc 3b25 573c bdc4 88bc
00000140: 9a0e be3d b7c5 443d 7e9d b83c 60bd ffbd
00000150: 69d2 d6bd 4de1 c93d f208 073e 7acd e5bc
00000160: 7ae7 abbc 77fa c83d 9b0b 18bd 33db 1e3e
00000170: 171e 1dbe db0c 333d 45bd a93d df64 07be
00000180: 98e8 7ebc 6786 0fbd e316 213d d484 a0bc
00000190: 4c03 153e 09c4 84bd 9f88 c63d 0c52 ddbd
000001a0: 341c ec3d f9ee be3c 080b a43d 4dd9 aa3d
000001b0: 003f 1e39 1639 1ebe b9e3 33bd abeb 0d3e
000001c0: 0dc2 ff3d cb99 dab9 3673 04be 63ba 06be
000001d0: 28ea c03d c311 163e 5cff ddbc 5aba 703d
000001e0: ffa6 2fbd a29f acbc efc6 1f3b cb90 a23c
000001f0: cae1 8d3d 5e9c 68bd 3cc3 f03c 0a3f b33c
00000200: 9419 4cbd 0393 d63d 7e32 9cbc b2f3 073e
00000210: d0fd 7fbd 42b2 c23d d56c 113e f3b4 3fbd
00000220: 2225 a83d 1219 f53d 11dd 563d a6bd 083e
00000230: ee54 03bd 883f c93d e761 7e3d b32e 893d
00000240: e41b f03d c4a3 9f3d 313d 4ebd c7c5 903c
00000250: 6981 2bbe 70bf 3c3e ca92 433d 87d8 58bc
00000260: bdc8 09be 3973 533c 0bea 703c 73bd efbd
00000270: 1290 51bd 9bba 92bd 79ca 12be ddad 2f3d
00000280: b4f8 90bd 6f19 913d 31fb c9bd 06f7 a93d
00000290: 29cc 93bc f837 febd 5377 f0bd 2081 1bbe
000002a0: cab5 89bd b1ec 93bd 4452 c63c 0e5d cc3d
000002b0: f741 333e 8405 553d 285e 1d3e 5094 4bbb
000002c0: 2798 02be 6e9a ebbd 7490 02bd 5550 e63d
000002d0: 041e 2c3d 9ea8 7a3d c6eb 45bd 5599 48bc
000002e0: 9762 30bd cad3 0a3e 748d 41bc 3b8d 38be
000002f0: cd83 d9bd b74c 05be 154e 3a3b 52ee bc3c
00000300: de8a 093e c4ee 7bbd 9588 d1bd 0e5e 5dbd
00000310: 8de8 21be bdb4 7ebd 3860 dcbd bbbc 8cbd
00000320: 7500 913d 7f2b d7bc 46c8 c23d c802 dbbd
00000330: de55 f0bc 6b1d 333e 0cd5 20bc 3796 f73d
00000340: e208 423d 8022 19be 6a61 2bbd aa90 4f3d
00000350: acea d23d 9a77 04be cbf5 b53b fec1 15be
00000360: 9f1c 1fbe fab3 9ebd 9d39 1e3e 9ee1 d83d
00000370: bcce 053e 6738 e4bd edb3 c23d ec29 df3b
00000380: 46d9 0c3e 5b5d 8c3b 437c 013e caf3 f0bd
00000390: fefd f83d 4c91 83bd 6d97 a5bd d559 1b3e
000003a0: dc1f bcbd 7a13 0f3e 7b06 883d 0d8f a3bd
000003b0: 5a1f 04be dd5e 24be dd9c 9c3d 205e bfbd
000003c0: 8458 3a3d 985f c73d 3066 dd3b 2a8f c5bd
000003d0: 861a b03d a945 083e d894 e73c 639b 153d
000003e0: f7d0 183d 26be aa3d 0331 333d a204 283e
000003f0: 7852 093e cbfd e03d 9fe7 f23c 8f2e a8bd
-0.026598163 -0.12357355 -0.11898242 0.018639157 -0.011336157 -0.08856659 0.06425903 0.080861844
0.124297105 -0.117430285 -0.12933196 0.09260362 -0.09249299 0.13198541 -0.060413316 -0.109649055
-0.16793938 0.10330122 -0.06779894 0.091792256 0.05713286 0.024951706 -0.24040346 0.043546036
0.016999263 0.1277229 0.08830397 0.010025973 0.16106679 -0.055960998 -0.08558884 0.11287512
-0.039219107 -0.118371494 -0.0011794432 0.110966906 -0.07767775 0.13104112 0.1061233 0.014571777
0.006280521 0.0996199 -0.005487959 0.011538533 0.06656221 0.058864154 0.1358196 0.004750051
0.10367262 0.078259006 0.08796409 -0.07199527 -0.09941686 -0.1123101 -0.08717653 -0.033840295
0.14895248 -0.0149058625 -0.017307559 0.12211901 0.021863863 -0.059808347 0.13394096 -0.11531381
-0.10388619 0.12665354 0.12647203 0.12840696 -0.0057514044 0.02125652 0.08223667 0.07627425
-0.0704815 -0.11342941 -0.11510898 -0.14193659 -0.08541989 -0.028947743 0.013131435 -0.016695375
0.09280129 0.048040118 0.022536036 -0.12487292 -0.10489351 0.09857426 0.13187006 -0.02805208
-0.0209844 0.098133974 -0.037120443 0.15513305 -0.1534351 0.04371343 0.082880534 -0.13222073
-0.015558384 -0.035040285 0.039328467 -0.019594587 0.14552039 -0.06482703 0.09694027 -0.10806665
0.11528817 0.02330731 0.080099165 0.08342228 0.00015091524 -0.15451464 -0.043918345 0.13859431
0.12488184 -0.00041694785 -0.12934574 -0.13157038 0.09419662 0.14655213 -0.027099304 0.05877147
-0.04288387 -0.021072213 0.0024380048 0.019844433 0.069278315 -0.05678975 0.02938997 0.021880645
-0.04982908 0.10477259 -0.019067045 0.13276556 -0.062497914 0.09506656 0.14201672 -0.046803426
0.082102075 0.119676724 0.05245692 0.13353595 -0.032063417 0.09826571 0.062105086 0.0669836
0.1172407 0.07794908 -0.050351325 0.017672433 -0.16748585 0.18432403 0.04774741 -0.013235218
-0.13455482 0.012905889 0.014704238 -0.117060564 -0.051162787 -0.071644984 -0.1433505 0.04289042
-0.07078686 0.07084929 -0.09862364 0.08299069 -0.018041687 -0.12413019 -0.11741509 -0.15185976
-0.06724127 -0.0722288 0.02420915 0.09978686 0.17505632 0.052007213 0.15367949 -0.0031063743
-0.12753354 -0.115040645 -0.031876042 0.11245791 0.042020813 0.061195962 -0.048320554 -0.012243588
-0.043062773 0.13557354 -0.01181351 -0.18022625 -0.10620842 -0.13017546 0.0028427888 0.023062859
0.1343188 -0.061507 -0.10231129 -0.054044776 -0.15811367 -0.062184084 -0.1076054 -0.06871935
0.07080165 -0.026265858 0.095108554 -0.1069389 -0.02933782 0.17491691 -0.009816419 0.12089198
0.047371753 -0.14954567 -0.04184095 0.05067507 0.10298666 -0.1293625 0.0055529824 -0.14624783
-0.15538262 -0.077491716 0.15451665 0.10589908 0.13067144 -0.111435704 0.09506974 0.0068104174
0.13754758 0.00428359 0.12645058 -0.11765249 0.1215782 -0.064241976 -0.08085523 0.15170987
-0.09185764 0.13972273 0.06641861 -0.07986269 -0.12902585 -0.16051812 0.07647107 -0.09344125
0.04549457 0.0973503 0.0067565665 -0.09646447 0.08598809 0.13307823 0.028269216 0.03652514
0.03730866 0.08337049 0.043747913 0.16408017 0.13410366 0.10985907 0.029651461 -0.08212005

local1.norm.weight f4 [128]
00000000: 039f 813f 1f19 7c3f 87b9 843f f707 7e3f
00000010: 85bf 7b3f 2adc 703f 2816 833f 3ca3 713f
00000020: 2d88 823f 75aa 7e3f 978f 7c3f 4367 813f
00000030: ddb7 7f3f e390 7f3f 56ce 7c3f df7a 7f3f
00000040: ae2c 873f 811f 7c3f dc1e 7f3f 5a0d 813f
00000050: 6a56 7d3f 91b0 843f a82b 813f 1c0b 853f
00000060: 2948 813f db64 7d3f f5f5 813f 8723 813f
00000070: 013d 753f a305 803f 04c5 823f b401 7f3f
00000080: 342b 823f 964b 803f a659 7d3f 4c63 783f
00000090: e27c 7f3f b321 803f 7e81 873f 3afc 7a3f
000000a0: a33a 873f 9dc8 7e3f de14 803f 363e 753f
000000b0: 06cf 7c3f 84cb 843f a7cd 7a3f 7c99 783f
000000c0: 13c0 783f aa7e 773f c613 803f f24b 773f
000000d0: 2ca5 863f 4286 893f 78f9 813f 188a 7b3f
000000e0: dc7e 7f3f 2a08 803f ad94 733f 61c6 813f
000000f0: 5135 773f 8fd7 893f d5c1 863f 5df3 6e3f
00000100: ec95 713f a761 7a3f dd23 833f 6b27 8b3f
00000110: ba74 813f 2b4d 833f 31bb 853f 2cd4 713f
00000120: 2107 7b3f be93 863f fca9 7a3f 9b5a 823f
00000130: 1f6c 7e3f 3214 823f 05dc 793f d89b 773f
00000140: 49f5 833f 2ab0 8a3f 9923 813f 2b03 743f
00000150: d249 803f 3c39 693f cc54 813f 6007 823f
00000160: b711 863f 0757 793f 8ba4 823f 29c3 7c3f
00000170: 66e2 813f 0040 7e3f 47d2 803f 3009 803f
00000180: 7e90 833f da21 7d3f d973 763f d382 7c3f
00000190: 8e0d 733f b1c7 743f bd9a 813f 911c 773f
000001a0: 928d 833f 43fa 813f 3714 843f eba9 833f
000001b0: 67aa 7c3f be76 7d3f cf2b 773f 3fbb 743f
000001c0: fd4b 7f3f 9bb0 7b3f 8954 793f 6f5a 7e3f
000001d0: e8b1 893f b188 7d3f c34d 803f b0dc 773f
000001e0: f29b 7e3f e143 803f 0d36 7e3f 9fbb 803f
000001f0: 93db 7b3f 983b 853f 2fcc 7c3f b30f 833f
1.0126652 0.9847583 1.0369118 0.99230903 0.9833911 0.94085944 1.0241137 0.943897
1.0197808 0.99478847 0.986566 1.0109638 0.9988993 0.99830455 0.98752344 0.9979686
1.056051 0.9848557 0.9965646 1.00822 0.9895998 1.0366384 1.0091448 1.0394015
1.0100147 0.9898202 1.0153185 1.0088967 0.9579621 1.000172 1.0216374 0.99611974
1.0169435 1.0023067 0.9896492 0.97026515 0.9979993 1.0010284 1.0586393 0.9804112
1.056477 0.9952486 1.0006368 0.9579805 0.9875339 1.0374608 0.9797005 0.971092
0.9716808 0.9667765 1.0006034 0.9660026 1.0519156 1.0744097 1.0154257 0.9825759
0.9980295 1.0002491 0.95148736 1.0138665 0.9656573 1.0768908 1.0527903 0.9334009
0.9436939 0.97805256 1.024532 1.0871404 1.0113747 1.0257925 1.0447751 0.94464374
0.9805775 1.0513837 0.97915626 1.01839 0.9938373 1.0162413 0.9760135 0.96722174
1.030923 1.0835011 1.0088989 0.95317334 1.0022528 0.9110296 1.0104003 1.0158501
1.0474156 0.9739842 1.0206465 0.9873529 1.0147216 0.99316406 1.0064172 1.0002804
1.027847 0.9887978 0.9627052 0.9863712 0.9494256 0.95617205 1.0125347 0.96527964
1.0277579 1.0154499 1.0318669 1.028623 0.98697513 0.9900931 0.9655122 0.95598215
0.99725324 0.98316354 0.97394615 0.9935674 1.0757418 0.990367 1.0023731 0.9682112
0.99456704 1.0020715 0.99301225 1.0057257 0.9838192 1.0408812 0.9874906 1.0239166

local1.norm.bias f4 [128]
00000000: 7aaa 3bbc 5c47 e4bc a4bf d1bc 2594 19bc
00000010: d008 e5bc 8ad5 7ebd 1ff3 f5bc 60e1 09bd
00000020: 1d5c a7bc 4afc 37bd 8d19 40bd 375e adbc
00000030: 97b7 11bd f3f3 51bd a90c 55bd a99f 39bd
00000040: 6fc7 d8bc 3bf1 3bbd 101f a6bb c547 a2bb
00000050: 580e e1bc cad8 55bc 6863 1abd 7e44 44bc
00000060: 9b5a 19bd a7d5 babc 0f39 5dbd 6f5e d4bc
00000070: bab5 38bd 597a 02bd 6870 d1bc e5e6 9ebc
00000080: a64d b2bc 1045 b6bc b185 08bd cd5c 40bd
00000090: f9ae 8abc 8500 1abd ca2b 6cbc 4ab9 0cbc
000000a0: db70 c2bb fdd3 8abd a67f adbc ef91 22bd
000000b0: 70e2 1fbd e5e8 38bb 4232 2fbd 5940 f8bc
000000c0: 42f5 26bd 45d1 13bd d7a0 61bd 7a2e 2abd
000000d0: 911b e4bc cd34 41bc 5d32 f1bc 9a87 e4bc
000000e0: a7c4 a4bc 59a3 1bbd 7083 52bd 1a66 8ebc
000000f0: abfd d5bc 1a5f 39bb 7017 0fbd f6f2 07be
00000100: 9793 52bd a7fc 18bd a8fa e4bc d555 f0bc
00000110: 4758 3abd 12fa bbbc 78f0 f7bc b819 6ebd
00000120: ff9b 03bd 65fc 4ebd f436 e1bc 8b25 55bc
00000130: 5677 c7bc 50f1 6abc 6fc6 35bd 42bf 2abd
00000140: 1e10 d3bc daee 7cbd c293 39ba 9341 76bd
00000150: f176 02bd 43d3 96bd 8568 f2bc 3140 3abd
00000160: 9a6c 37bd 691c 4dbd 4eb4 013b 253f a2bc
00000170: 70f2 d3bc b99f c9bc 636d 34bd c425 a0bd
00000180: 61b1 c2b9 0d4f 29bd 5d9e 32bd 7637 0fbd
00000190: c60f 1cbd 1b41 80bd 6740 b9bc e085 5bbd
000001a0: 9d8f 34ba 136d 29bd a992 b5bc 1454 bbbb
000001b0: 76c6 33bd 8879 6dbd 48e9 45bd 1bfa 72bd
000001c0: 6c85 f0bc 6acb c2bc 67f5 51bd 8d22 a4bc
000001d0: a024 90bc 306f febc 0459 0ebd fc27 acbc
000001e0: 6243 99bc cc5b 99bc b7ff 64bc 4ad9 98bc
000001f0: 2fad b5bc 8187 2ebd 58e8 34bd 3fff dbbc
-0.011454219 -0.027866058 -0.025604077 -0.009373699 -0.027958304 -0.062215365 -0.030023156 -0.0336622
-0.020429665 -0.044918336 -0.046899367 -0.02116309 -0.035575476 -0.05125804 -0.052014027 -0.04531828
-0.026462285 -0.045884352 -0.005069621 -0.0049524033 -0.02747266 -0.013052175 -0.037692457 -0.01197922
-0.037439924 -0.022806956 -0.054009493 -0.025923936 -0.045095183 -0.03185496 -0.025566295 -0.019397208
-0.021765541 -0.022249728 -0.033330623 -0.0469635 -0.016929137 -0.03759815 -0.014414737 -0.008589098
-0.0059338636 -0.06778715 -0.021179032 -0.039689954 -0.039034307 -0.0028214988 -0.04277254 -0.03030412
-0.04076124 -0.036088247 -0.05508503 -0.04154823 -0.027845176 -0.011792374 -0.02944296 -0.027896691
-0.020113302 -0.037997577 -0.05139488 -0.01738267 -0.026121935 -0.0028285445 -0.03493446 -0.13276276
-0.051410284 -0.037350323 -0.027951553 -0.029337803 -0.045494344 -0.022946391 -0.030266032 -0.058129996
-0.03213119 -0.05053367 -0.027492024 -0.013009439 -0.024348896 -0.01433976 -0.044378694 -0.041686304
-0.025764521 -0.061751224 -0.00070792076 -0.06012113 -0.031851713 -0.07364514 -0.029590854 -0.045471374
-0.044781305 -0.050075922 0.0019791308 -0.0198055 -0.02587244 -0.024612295 -0.04404963 -0.07819703
-0.0003713472 -0.041335154 -0.04360806 -0.034965 -0.03810098 -0.06262418 -0.022613717 -0.05359447
-0.0006887855 -0.041363787 -0.02216466 -0.00571681 -0.04389044 -0.05797723 -0.048318177 -0.05932055
-0.029360496 -0.023778636 -0.051259425 -0.020036006 -0.01759559 -0.031058878 -0.03475286 -0.02101516
-0.018708888 -0.01872053 -0.013976983 -0.018658299 -0.022177307 -0.042609695 -0.044166893 -0.02685511

local2.conv.bias f4 [128]
00000000: bd81 bc3a 9ebc be3b d42d 5cbd 9624 663a
00000010: e532 82bc be15 203a b71b db39 38e8 5ebc
00000020: caac 00bc c641 96ba faf8 c039 acc5 253d
00000030: bf1d 403a af49 0bbb 8be6 1e3a ab27 c23b
00000040: 36c6 60b9 3d41 6639 c1cc 41ba dc66 15ba
00000050: 394d 74b9 5c94 4f39 0d64 dc3b 94aa 68b8
00000060: ef7c f53b 5e98 a4bc 4774 313b f384 2bba
00000070: 1400 c2bb 86e3 a6ba b4da 3f3a dfe3 d43a
00000080: 456f 1abb e361 f5ba 6f4a 7db9 4b0e f3bb
00000090: b20a a63a e772 6739 4234 463a 1752 5cb7
000000a0: 4761 af39 c38f c039 6cda 523c 8447 e4ba
000000b0: 7d82 fe3b c68a e339 0f28 883a 7f3b 153a
000000c0: 6db9 8bba 57ca a33b 009a bc3a a855 95bb
000000d0: a89d 403a 0d0c dd3a ed61 633c 58e1 a539
000000e0: 46c7 a7b9 ccdf aaba d00c b63a 0395 a9b8
000000f0: 2269 f1b9 a45b 8f3a 015e 083a 4a68 82bb
00000100: a288 83b9 53da 9f39 4359 63ba 7592 b63a
00000110: 2cdb 2ebb 81f1 10ba 3ad9 853a 9edd 4b3a
00000120: 3a98 bab8 29ac 1b3b 0eb0 2d3a a70d bc3a
00000130: fe78 b73c d808 903a 3ffd 53bb e55f 0b3a
00000140: d352 5cbc 84a7 8239 e785 1bbc ee26 843c
00000150: 7d74 07ba 3416 80bb d268 6339 d957 063c
00000160: fc26 143a 06f5 253c 7622 1d3a aa1a 4dba
00000170: 6133 723a b4f0 bc3c a3d9 e738 2ae5 30bb
00000180: 656e a33a 7ee8 553a ec21 e5b8 cb18 01bc
00000190: bfbc 8d3a 9d15 18bb 9d64 aa3b 836a 7e3a
000001a0: a98d b0ba fd1b 1cb9 3067 51bb e60b ceb9
000001b0: 21f1 ba39 0667 19bb e0a7 3d3d 3008 103a
000001c0: 51e5 b4ba b760 c339 7e31 0a39 95a9 1ebc
000001d0: 66f4 633a fbc0 55ba 5345 44bb 6312 3e39
000001e0: 6ab2 8f3a 9354 4cb8 42d9 e63c a850 d8b8
000001f0: 89b9 7f3a dc76 9bbb c094 bdb8 bc3d 533a
0.0014381927 0.0058208248 -0.053754643 0.00087792554 -0.015893409 0.00061067555 0.00041791584 -0.01360517
-0.007853696 -0.0011463694 0.00036806596 0.040471718 0.0007328651 -0.0021253636 0.0006061575 0.005925139
-0.00021436144 0.00021958812 -0.00073928764 -0.0005699226 -0.00023298421 0.00019796327 0.006725794 -5.5471974e-05
0.0074917 -0.020092186 0.0027077363 -0.00065429433 -0.0059204195 -0.0012732602 0.0007318661 0.0016242227
-0.0023564857 -0.0018721189 -0.00024155689 -0.0074174753 0.0012667982 0.00022072681 0.00075608876 -1.3132135e-05
0.00033451078 0.00036728205 0.012869459 -0.0017416333 0.0077670203 0.00043400208 0.0010387915 0.00056927645
-0.001066012 0.004998486 0.0014389157 -0.00455733 0.00073477114 0.0016864553 0.013878328 0.00031639147
-0.00032001192 -0.0013036667 0.0013889316 -8.0863036e-05 -0.00046045432 0.0010937345 0.0005201996 -0.0039797174
-0.00025088066 0.00030489507 -0.0008672664 0.0013929146 -0.002668093 -0.0005529151 0.0010211833 0.0007776859
-8.8975255e-05 0.0023753738 0.00066256605 0.001434733 0.02239656 0.0010988964 -0.0032346991 0.00053167186
-0.013447481 0.0002492034 -0.009492374 0.016131844 -0.00051671994 -0.003908897 0.00021687456 0.008199655
0.0005651561 0.010129219 0.000599421 -0.00078241026 0.00092392234 0.023063995 0.00011055476 -0.0026992061
0.0012468813 0.0008159949 -0.000109258894 -0.007879446 0.0010813697 -0.0023206242 0.0051999823 0.00097052025
-0.0013469952 -0.00014887746 -0.0031952374 -0.00039300247 0.0003565634 -0.0023407354 0.046302676 0.0005494384
-0.0013801252 0.00037265357 0.00013179143 -0.009683986 0.0008695781 -0.00081540615 -0.0029948547 0.00018126662
0.0010963206 -4.8716156e-05 0.028179768 -0.00010314706 0.0009755125 -0.0047443938 -9.039929e-05 0.00080582104

local2.conv.lin.weight f4 [128, 128]
00000000: 2b0b 70bd a3b0 0b3d cfdb ccbd 58d8 893d
00000010: 5cea b83d 669c f4bc 4c23 18be e4cf fc3b
00000020: d7fe 42bd 2c31 04bd 37db bcbd 1479 2dbd
00000030: fcc0 fbbd 22e4 edbd 8bcb 933d 811c 07be
00000040: fc6e 2abd 9f96 efbd fd3f 23bd 51d1 d23d
00000050: a2b0 67bd 9a3d 863c 77bf 413d 32c4 9ebd
00000060: af18 07bd bd9d 263e 1b61 c5bd 0304 eebd
00000070: 18a1 acbd 2930 103e 31e3 58bd 4104 3a3d
00000080: 3e4b fe3d 5722 8fbc 6d87 83bc 92ec 043e
00000090: b40a 673d cfd5 1a3e 97c2 323d 0c2d 003e
000000a0: 68aa 26bd dfe3 5dbd f775 39bc 95e9 eebd
000000b0: ea73 84bd f4b6 1bbe f45d fc3a 013b 7ebc
000000c0: 42b2 033d 03a5 44bd 86a7 493d d270 4b3c
000000d0: 4933 3a3c 66b1 66bd 6463 583d 7cdf 9dbc
000000e0: 423d ecbb 636f b9bd f6c2 f03d cd74 123e
000000f0: 4e8b 123e f2eb 00be 8bbf 2b3e 655a 55bd
00000100: d9f1 863c ac76 1abd aa3f 8ebd 00b4 92bd
00000110: 52a1 383e 777d a23d b778 06be 4e86 cfbd
00000120: a99d 7fbd 084c 913c e8d5 9bbd b8d9 a5bd
00000130: e00d be3d 98a1 cf3d 75db e2bd e3c2 0f3c
00000140: f520 2abd 972b c3bd 3e35 a2bd a164 023e
00000150: 2a86 973d a50d 81bd 725c 13bd 2ae8 633d
00000160: eaa9 6e3d 4e4d 6dbd 4231 21bc 7ecd 943d
00000170: 1121 e5bd 81c6 ccbd 11c0 e93d e73b c8bd
00000180: 4670 13bd 748b 47bd d712 403d 7b3f b63c
00000190: b3a5 09be 6333 483d f313 223e 93e6 0c3e
000001a0: d3c0 6b3d 4bb2 a43d e12c c63d 77bd e1bd
000001b0: 82ed 32bc 1b82 f3bd 2c65 f33d c258 f4bd
000001c0: aca3 073e 87e7 82bd c4ff 3e3d 6b6a f53d
000001d0: 3770 60bd db7d 23bc b15c bc3d 58f7 193e
000001e0: 2c62 bf3d 6b72 523b e510 163e 001b 3ebd
000001f0: b202 e13d c225 01bc 51f1 00be fdca 85bd
00000200: 0602 fdbc bce2 d7bd f1e6 06be dc9c 72bd
00000210: c79e db3d 1359 9c39 fdf2 06be f3e8 1d3c
00000220: 7669 09be 95c6 e03d 7eaa cfbd 35dd 16be
00000230: 230d ad3d 668d f1bd 8436 053e fa5d 143e
00000240: 0e22 99bb 95cb 9a3c a8bf c83d 5d96 17be
00000250: 4cac 44bd e2cc 103e b18f 2d3d 9def 933d
00000260: 7770 003d 6cca b53c c84d 373c 801e 713d
00000270: f677 f7bc 44a2 c0bd 5f4c 203c 9106 6e3d
00000280: 6a1f 63bd 90de 213b 93de 75bb 1779 d0bd
00000290: 5b07 07be 33bd a2bd a32c ac3d 3f17 04be
000002a0: d2e1 c23c 0c7c cb3d 04ab 9e3d e6e7 ff3c
000002b0: faee 06be 11ae e2bd 4c50 813a 3c19 05bd
000002c0: 30ca 1a3d 796b 953d b453 483c f857 8d3d
000002d0: 88d6 453d 97eb 39bd f35b 843d df3e 85bd
000002e0: 9631 783c d7e4 c8bd 5623 debd 2aa5 f43b
000002f0: 7b19 f1bd 692d 56bd a069 be3d d60f 083e
00000300: ac2e cbbc 5425 47bc 6eb9 d83d 520f 1f3d
00000310: f5a6 b03d 56f2 893d dfa5 b03d f2ff 6c3d
00000320: 79cd c5bb 98bc 46be 1261 a0bd 4a70 323e
00000330: 4d2a bf3d 28ed 123e 633f cf3d c7ce 0d3d
00000340: 36d5 323e 3ec1 593d ae6d 0ebe 4aff 283e
00000350: 561c 283d d3de bc3a c1d2 99bc 380a 803d
00000360: 2e1c d73d ae91 4a3e 47b3 44bd ba64 853c
00000370: 3f02 083e 85c3 bf3d 2605 363e 7eab 453e
00000380: bbe6 573d f67e 4b3b ce8f 91bd 3bf6 07be
00000390: 5ddb d9bd fa02 edbd 0be5 f2bc 2b63 a73d
000003a0: 8e2a a83d 0388 253e 267b 023b 1a21 5ebd
000003b0: fe77 16be c491 e6bd f6ac ad3d 40cd 91bd
000003c0: 89ae a6bd b00b 52bd 612f 60bd 390e 643d
000003d0: f723 0abd cdbe 1ebd 93a3 cebd 3cc5 b43c
000003e0: 26f9 b53d 7bd8 083e 6e95 aebd 2e77 c93d
000003f0: 2f41 1c3e dfe9 42be 8d4b b73d c71c b4bd
-0.0586044 0.034104 -0.10002863 0.067307174 0.090290755 -0.029859733 -0.14857215 0.007715212
-0.047606315 -0.032273456 -0.092214994 -0.042351797 -0.12292668 -0.116157785 0.07216557 -0.13194467
-0.04160975 -0.116986506 -0.039855946 0.1029383 -0.056564935 0.016386796 0.047301736 -0.07752265
-0.032982524 0.1627111 -0.09637662 -0.11621859 -0.08429164 0.14080872 -0.05295104 0.045414213
0.12416695 -0.01747243 -0.016055787 0.1298087 0.05640669 0.15120624 0.043642607 0.12517184
-0.040689856 -0.054172393 -0.011319629 -0.11665646 -0.06467421 -0.1520651 0.0019254074 -0.015516997
0.03215242 -0.04800893 0.04923203 0.012417035 0.011364766 -0.056321524 0.05282916 -0.019271605
-0.007209451 -0.090544485 0.11755936 0.14302368 0.14310953 -0.12590006 0.16772287 -0.05208816
0.016472744 -0.03771083 -0.06945737 -0.071632385 0.18030289 0.07934087 -0.13131987 -0.101330385
-0.062406216 0.01773645 -0.07609159 -0.08098167 0.0927999 0.101382434 -0.11077014 0.008774492
-0.041535337 -0.095297985 -0.079203114 0.127337 0.07398637 -0.063014306 -0.035976835 0.05564133
0.05826751 -0.05793505 -0.009838404 0.07265757 -0.111879475 -0.09998799 0.11413587 -0.097770505
-0.035995744 -0.048716977 0.046892967 0.022247067 -0.13442115 0.04887713 0.15827923 0.13759832
0.05755694 0.08041819 0.09676529 -0.11022466 -0.010920884 -0.1189005 0.118845314 -0.11930992
0.1324603 -0.063918166 0.046630636 0.11983188 -0.054794516 -0.009978737 0.09197367 0.1503576
0.09344897 0.0032111655 0.14654882 -0.046412468 0.10986842 -0.007882537 -0.12592055 -0.065328576
-0.030884754 -0.10541293 -0.13174035 -0.059231624 0.10723644 0.00029821004 -0.1317863 0.009638059
-0.13419136 0.109753765 -0.10139941 -0.14732821 0.08449771 -0.11794548 0.13009077 0.14488974
-0.004673249 0.018895904 0.098021805 -0.14803453 -0.048015878 0.14140657 0.042373363 0.07223437
0.031357255 0.022191249 0.011187978 0.058866978 -0.030208569 -0.0940595 0.009783833 0.05811173
-0.05544988 0.0024699308 -0.0037516698 -0.10179346 -0.131864 -0.07946243 0.08406951 -0.12899493
0.02378932 0.099357694 0.077474624 0.031238507 -0.131771 -0.11068357 0.0009865849 -0.03249477
0.037790477 0.072958894 0.012226988 0.06901544 0.048300296 -0.04539069 0.064628504 -0.06506132
0.015148541 -0.09809273 -0.108465835 0.007465978 -0.11772438 -0.0522894 0.0929749 0.13287291
-0.024802528 -0.012154896 0.10582243 0.03883297 0.086255945 0.06735675 0.086253874 0.057861276
-0.006036457 -0.1940788 -0.07831015 0.17425647 0.0933424 0.1434828 0.10119512 0.034621026
0.17464146 0.053162806 -0.13909027 0.16503635 0.04104265 0.0014409669 -0.018777253 0.06251949
0.10503422 0.19782135 -0.048022535 0.016283382 0.13282107 0.09363464 0.17775401 0.193037
0.052710276 0.0031051016 -0.07107507 -0.13277523 -0.10637543 -0.11572833 -0.029650232 0.08173212
0.08211242 0.16165166 0.0019909828 -0.054230787 -0.14694211 -0.11258271 0.08480255 -0.071192265
-0.08138759 -0.051280677 -0.054732684 0.055677626 -0.033725705 -0.03875618 -0.10089793 0.022066705
0.08885412 0.13363831 -0.08524595 0.09837185 0.1525924 -0.19034527 0.08949957 -0.08794551

local2.norm.weight f4 [128]
00000000: dc8f 6f3f 2852 723f f862 833f d2b3 843f
00000010: a926 8b3f 497b 7a3f a49e 803f 1663 813f
00000020: a004 883f d008 783f e057 803f 3ca6 6c3f
00000030: 67b3 773f 60e4 833f 862f 793f 1178 713f
00000040: 292a 803f 985c 883f 9624 813f c6fb 6e3f
00000050: a01e 783f dc9b 6a3f 91f7 713f 4acc 783f
00000060: bc02 623f fc42 783f d422 6e3f 2d52 7b3f
00000070: 5b24 853f a814 863f 6c62 6c3f a853 663f
00000080: 770b 7a3f 4033 713f 651c 803f 5bd0 7d3f
00000090: 22fb 683f bf2c 783f 9e84 773f 77ff 6f3f
000000a0: d0d3 783f 14c2 6b3f d202 753f 406c 7a3f
000000b0: 6fe2 773f a1a3 753f 8eb8 7b3f 7004 783f
000000c0: dbd6 873f 0701 733f aaef 713f 3a33 793f
000000d0: cd3e 733f 343c 703f 5685 733f 7e69 7f3f
000000e0: 1a89 823f 13c6 6f3f 9133 743f ab71 7b3f
000000f0: 3464 773f c3c0 663f 3941 813f f3ee 663f
00000100: 6330 763f fe3b 813f 0b8a 8b3f 19cb 683f
00000110: 7142 773f d453 7f3f dfd7 753f d84f 753f
00000120: 7b12 803f 97a2 753f 1e7b 7b3f 8400 6f3f
00000130: 1b24 733f 6c84 813f 6a50 773f f660 793f
00000140: 8eee 7b3f 69ec 793f 99aa 7a3f 0769 743f
00000150: ee57 813f 64c3 783f e246 763f fa01 713f
00000160: 6d51 7a3f 3758 713f 1580 7a3f afd0 803f
00000170: ab97 783f 0804 743f a4fc 783f 7009 7d3f
00000180: fae3 733f dd17 7b3f c1c5 763f 15c8 823f
00000190: e77d 7d3f 7b0f 6b3f 6332 7a3f 2aa9 6b3f
000001a0: 264e 7a3f 7cc1 6c3f 3c85 7e3f c3ff 783f
000001b0: f9ce 733f fda4 7f3f 9cbc 7a3f 534e 763f
000001c0: b0de 7a3f 02e0 7d3f 3c6f 843f 8ed3 803f
000001d0: 6fe9 733f 9517 7d3f 6ac5 823f 022c 7c3f
000001e0: acf3 733f c03d 733f 826f 6a3f 21f9 773f
000001f0: d068 7a3f 359c 753f 4600 813f f881 733f
0.93578887 0.9465661 1.0264578 1.0367377 1.0871173 0.9784437 1.0048413 1.0108364
1.0626411 0.96888447 1.0026817 0.92441154 0.9675812 1.030407 0.9733814 0.9432383
1.0012866 1.0653257 1.008929 0.93352926 0.9692173 0.9164407 0.9451838 0.9718672
0.8828542 0.9697721 0.93021894 0.98172265 1.040172 1.0475054 0.9233768 0.899714
0.97673744 0.94218826 1.0008665 0.9914605 0.910082 0.9694328 0.9668673 0.93749183
0.971982 0.92093015 0.9570743 0.97821426 0.96829885 0.959528 0.98328483 0.9688177
1.0612444 0.9492344 0.94506323 0.9734379 0.950177 0.9384186 0.9512533 0.99770343
1.019809 0.9366161 0.95391184 0.9822032 0.9663727 0.9013788 1.0098029 0.9020836
0.9616758 1.0096433 1.0901502 0.909349 0.96585757 0.99737287 0.9603252 0.95824957
1.000564 0.9595122 0.98234737 0.9336016 0.9497697 1.0118537 0.9660708 0.97413576
0.9841088 0.9762636 0.9791656 0.9547276 1.0104959 0.9717314 0.9620191 0.9414364
0.97780496 0.9427523 0.9785169 1.0063685 0.97106427 0.9531865 0.972605 0.98842525
0.9526974 0.9808329 0.963955 1.021731 0.99020237 0.91820496 0.97733134 0.92055
0.97775495 0.92482734 0.9942205 0.9726526 0.9523769 0.9986113 0.97944045 0.96213263
0.97996044 0.99169934 1.0346446 1.0064561 0.95278066 0.9886411 1.0216496 0.9850465
0.9529369 0.950161 0.915764 0.96864516 0.9781618 0.9594148 1.0078208 0.9512019

local2.norm.bias f4 [128]
00000000: 297a 71bd 59f6 52bd 7b7c 98bc ec4b f9bc
00000010: 1be5 fdbb ca55 25bd b3b7 a4bc def5 93bc
00000020: 1d9d b9bc 734b 54bd d445 08bd e3ce 75bd
00000030: a17b 46bd 9f8e 9fbc e4fd 21bd 41d4 7bbd
00000040: 587e a0bd 9594 d2bb 7126 c7bc 992d 83bd
00000050: ac2f 53bd fb68 89bd bcce 57bd c149 51bd
00000060: 6ee3 e7bd 4541 36bd 10d8 a6bd 0fbf 21bd
00000070: 2627 3dbc b49f 9ebc 44d7 acbd 5540 e3bd
00000080: 4213 03bd c206 93bd df8e 8cbc d9fa 0cbd
00000090: 4214 b3bd a0bc f7bc 2738 27bd ce9f 7abd
000000a0: f15c 88bd d77b 8ebd 1327 51bd 9025 38bd
000000b0: 36ed 09bd 08e5 5cbd a815 52bd ea73 44bd
000000c0: e6a3 babc 1803 50bd 2c0e a1bd b7de 4abd
000000d0: 0ac1 20bd a7bc 7abd c671 1dbd 9123 37bd
000000e0: 8d46 b5bc 6084 6ebd 1f85 aebd 52b2 febc
000000f0: a767 50bd fea8 bbbd 1780 12bd 1489 eabd
00000100: d8a1 08bd fc79 06bd 4f37 823b 425b c6bd
00000110: 79e8 65bd 7319 3abd 3acc 25bd 7d72 82bd
00000120: 9028 b3bc e9ed 4fbd 476e d7bc 2778 b2bd
00000130: abb7 28bd f68a 68bd 2338 7dbd d36c b8bc
00000140: 5586 c9bd b040 11bd faad 1bbd 1dec 1abd
00000150: 38c2 13bd 9f33 ebbc dd3e 57bd 1d47 39bd
00000160: 7007 27bd ad97 41bd a2a4 27bd 05bd 2ebd
00000170: 2e51 3cbd 6601 71bd 2306 9abd 7ed2 66bd
00000180: 0e50 72bd e861 10bd 340f acbd 0c48 52bd
00000190: b66a 73bd f221 13bd 795e 03bd bc3f 95bd
000001a0: a744 3ebd 596a babd e632 1bbd d0a4 30bd
000001b0: 1494 86bd 8f87 e8bc b842 01bd c4b2 cfbc
000001c0: 4dcd ccbc 891b bcbc bee2 f6bc 6bb4 bfbc
000001d0: 415e 51bd 09bc 0ebd de4c 54bc 23e9 37bd
000001e0: 6283 6abd e904 81bd 720d a3bd 9903 05bd
000001f0: 8b04 19bd a1f6 19bd b038 b5bc 3187 a2bd
-0.05895439 -0.051504467 -0.018614044 -0.03043171 -0.0077482588 -0.040365018 -0.020107126 -0.018061575
-0.022657925 -0.051829766 -0.03326972 -0.060011756 -0.048457745 -0.019477187 -0.03954877 -0.061481718
-0.07836598 -0.0064264038 -0.024310322 -0.064051814 -0.051559135 -0.067094766 -0.05268739 -0.051095728
-0.11322676 -0.04449584 -0.081466794 -0.03948885 -0.011544978 -0.019363262 -0.08439496 -0.11096255
-0.032000788 -0.07179023 -0.01715797 -0.034418914 -0.08744098 -0.03024131 -0.040825035 -0.061187558
-0.06658352 -0.06957214 -0.051062655 -0.044957697 -0.033673488 -0.05392936 -0.051290184 -0.047962107
-0.022783231 -0.0507842 -0.07864031 -0.049528804 -0.039246596 -0.06121507 -0.03843858 -0.044711653
-0.022128368 -0.05823171 -0.085214846 -0.03109089 -0.0508801 -0.09163092 -0.035766687 -0.11451927
-0.03335747 -0.032831177 0.0039738785 -0.09685375 -0.056129906 -0.045434427 -0.04047797 -0.06369493
-0.021869928 -0.050764 -0.026297702 -0.087143235 -0.041190784 -0.05677315 -0.061821114 -0.022512829
-0.09840075 -0.03546208 -0.038007714 -0.03782283 -0.036073893 -0.028711138 -0.052550185 -0.045233835
-0.040778577 -0.04726379 -0.04092849 -0.04266073 -0.045975856 -0.058839224 -0.07520702 -0.056353085
-0.059158377 -0.03524962 -0.08401337 -0.05133824 -0.05942794 -0.035921045 -0.032072518 -0.07287547
-0.04645219 -0.091023155 -0.037890337 -0.043125927 -0.065712124 -0.028384952 -0.03155777 -0.025353797
-0.025000239 -0.022962349 -0.030137416 -0.02340146 -0.05111528 -0.034847293 -0.01295778 -0.04490007
-0.057254203 -0.06299765 -0.07961549 -0.032474134 -0.03735785 -0.03758872 -0.022121757 -0.07935942

meso.Wq.weight f4 [128, 128]
00000000: 8bf5 d4bc abbc 283d 7735 21bd 30ac 4aba
00000010: c6f9 2abd bfd0 3d3d 9f91 583d 7c75 f9bc
00000020: 7d04 a0bd aabf af3d eecc f3bc 7393 823d
00000030: e695 ea3b 1d0e 89bd 9d53 853d 9f89 1b3d
00000040: 88d5 39bd 7376 59be c262 7abd 9843 5cbc
00000050: c374 4abb 04d1 7a3d b3ec 653d 5e90 d33d
00000060: 24b5 cdbc 6c73 5dbd e248 e43c 5879 2c3d
00000070: 978a dbbd ee67 96bc 74af abbc a3a8 813d
00000080: 6099 893d f109 76bc 560a dc3c 08f0 973c
00000090: 1dd8 a93b 8a0f 21bb 7335 c73c 6f05 9c3d
000000a0: 7e04 e53d b735 0dbd c181 883d 243a 7dbd
000000b0: 1ef7 fc3d de3d aab9 899d e4bd 1578 fbbd
000000c0: 8047 22bd 5b51 6fbd 3288 00bd 3098 3dbd
000000d0: cbed 85bd 2eb2 d5bd 357d e5bd 042f 033c
000000e0: d622 7f3d 3bf0 c0bd 5aab 89bd 7037 a8bc
000000f0: 813a 0b3c b6d2 2abd 84fa 9e3c a33e 303d
00000100: 645c 19bd 32f4 99bc 0e29 f2bc 7341 b3bd
00000110: e2ec 8e3d cd5e d13c 3643 fdbd 43e5 8a3c
00000120: 9d03 043c b9cf c13d 7c82 dbbc b290 9abd
00000130: a506 22bd bb53 d13d 2e2c 32bd 7711 04bd
00000140: 1575 d93d 9d9d a23d 0634 e0bd fe35 f53b
00000150: 6c6b 6f3d afe6 9dbc eda9 923c 8e47 f83b
00000160: a040 69bd 0643 2dbd 8a84 b03d 3855 963d
00000170: f230 16bd 3246 633d b9ad 93bd e3ab 8fbd
00000180: ec4a 523b 2efc 65bc fec6 893d c55c 4f3d
00000190: 6560 7bbd 5c22 6cbd 8a35 1dbd 7ce4 c3bd
000001a0: 3ae1 87ba 34f7 dfbc f6c8 493d 8cb7 303c
000001b0: 2fe0 823d 0c2f 3dbd 42d4 ffbd 8d3b f23c
000001c0: c336 37bc 5a7f 8ebd 037e 983d e13b b83c
000001d0: 1522 153d fae7 c43d 07fb 23bd 8a9f a63d
000001e0: 4353 6ebd d56e 133d 3dc5 a3bc 4e84 40bd
000001f0: 404d 2a3a 2bb2 af3c 0be2 ffbd dcb8 0b3d
00000200: 8aa8 02be a912 19bd 2944 1ebe 4c07 23bc
00000210: 4ba7 4a3d 7d9f 35bd 6ae7 c2bd 3d72 c03a
00000220: 3ae6 193d a04a de3d 6ac9 16bd 9994 293d
00000230: dd36 a33d e34f 763c 3ee2 6fbd 46a5 9ebd
00000240: b043 45bd b382 d73d c250 7ebd bfbf c6bd
00000250: b57b a53d 3dd7 c3bd 512d 49bb 3531 a93d
00000260: 79c8 9abc fe35 653a 6c63 70bd 7717 f43d
00000270: a7f3 1d3d 1034 3e3d 3109 a2bd b5ea 953c
00000280: db9e 0d3e 5c0e 183d 04e4 05bd c7f5 14bc
00000290: f55e 793a e310 e63a d133 f5bc 347c b03d
000002a0: 2562 ecbc ede4 83bc eeef 9cbd ddee b5bd
000002b0: 18e7 01bd cc1d b23d dc5e 613c c975 4cbd
000002c0: 3a48 813d 1451 573d 0edf 10bd d56f f5bb
000002d0: 43d1 fbbb 88c4 e63c 0d85 4dbd 3ac5 5a3d
000002e0: 9654 7d3d de4a 02be 27cf da3d a956 30bd
000002f0: 068d 9f3d 0174 983d b1ce 6cbd a3a9 e93b
00000300: 6071 0cbd 1b0b 4cbd a453 c5bd f233 f53c
00000310: e91a db3c d2a2 dbbc 0ee2 32bd 6109 9e3d
00000320: f476 01bd 36ed de3c 9b9c 0a3d dfb6 e0bd
00000330: 9128 c33c d309 fcbc 529e c2bc 6815 4bbd
00000340: f524 01bd f3bb 553d 1a3f c33c d123 bdbc
00000350: e0a4 bb3c 4abc 73bd 9172 3abd 9ae4 8ebd
00000360: a411 4c3d 8e9f 8f3d 698e 933d a991 ecbc
00000370: 39e8 f53c e70d cb3d 9885 6dbd 463d 4a3d
00000380: ae07 dabd beaa cfbc fd86 67bd 0c3d dbbc
00000390: f6ad 92bd 3190 a5bd 6e63 733d 1d19 853c
000003a0: 03d1 05be 5063 67bd 0e1d c0bc cf5e 703c
000003b0: f3af 32bd 1e9e 823d fbc2 f4bd d728 b13c
000003c0: 826e 8cbd 4ff7 fc3c 14a7 c13d e02e e13d
000003d0: 679c e9bd 82ca b33d 60a2 de3c aa98 5dbd
000003e0: 7e18 223d 02bb 733c cf35 a5bc ca1f 6f3c
000003f0: ff94 93bd 27f4 823c fe09 bbbb 98fd c03d
-0.02599599 0.041195553 -0.03935763 -0.00077313464 -0.04174211 0.046341654 0.05287325 -0.030451529
-0.07813356 0.08581479 -0.029760804 0.0637578 0.0071589826 -0.06692145 0.065100886 0.037973043
-0.045369655 -0.21236591 -0.06112934 -0.01344385 -0.003089235 0.06123449 0.056133937 0.1033027
-0.025110789 -0.054065153 0.027866784 0.04210791 -0.10719793 -0.018360104 -0.020957686 0.06330993
0.06718707 -0.015017019 0.026860397 0.018547073 0.0051832334 -0.0024575912 0.024317479 0.07618224
0.111824974 -0.034475055 0.066653736 -0.061823025 0.12351821 -0.0003247102 -0.1116286 -0.12278763
-0.03961897 -0.058427196 -0.031379886 -0.046287715 -0.06539496 -0.10434376 -0.11205522 0.008006815
0.06228908 -0.0942082 -0.06722136 -0.020534247 0.008497835 -0.041704856 0.019406565 0.043028485
-0.037441626 -0.0187932 -0.029560592 -0.08752718 0.069787756 0.0255579 -0.12366335 0.016955024
0.008057502 0.09463448 -0.026795618 -0.0754713 -0.039557118 0.102210484 -0.043499164 -0.03224322
0.10618035 0.079402186 -0.10947423 0.007483243 0.058452055 -0.019275038 0.017903293 0.0075768894
-0.056946397 -0.042300247 0.0861903 0.07340473 -0.03666777 0.055486865 -0.07210869 -0.07015207
0.0032088114 -0.014037175 0.06727408 0.05062558 -0.061371226 -0.057649955 -0.038381137 -0.09565064
-0.0010366805 -0.027339555 0.049263917 0.0107859485 0.06390416 -0.046187446 -0.12491657 0.029569412
-0.01118249 -0.06957884 0.0744591 0.02248949 0.036409456 0.096145585 -0.04003432 0.081358984
-0.058184873 0.03599437 -0.019991511 -0.047001176 0.00064964965 0.021447262 -0.12494286 0.034111843
-0.12759605 -0.03737131 -0.15455689 -0.00995047 0.04947595 -0.044341553 -0.09516795 0.0014682483
0.037573077 0.10854077 -0.036813177 0.04140148 0.07969449 0.015033695 -0.05856537 -0.07746367
-0.048160255 0.10522976 -0.062088735 -0.097045414 0.08080236 -0.09562538 -0.0030697177 0.082613386
-0.018894421 0.0008743702 -0.058688566 0.11918538 0.038562443 0.04643637 -0.07911909 0.018300394
0.1383013 0.03712307 -0.032688156 -0.009091801 0.0009512746 0.001755264 -0.029931935 0.0861744
-0.028855393 -0.016100371 -0.076629505 -0.0888345 -0.03171453 0.086970896 0.013755526 -0.049917016
0.06312604 0.052567557 -0.03536897 -0.007490138 -0.007684858 0.028169885 -0.050175715 0.053410746
0.061848246 -0.12723872 0.106840424 -0.043051396 0.0779057 0.07444001 -0.057814304 0.007130818
-0.03428781 -0.04981528 -0.09635094 0.029931996 0.02674623 -0.026811037 -0.043672614 0.07716633
-0.031607583 0.02721272 0.033840757 -0.1097238 0.023823055 -0.030766403 -0.023757134 -0.04958096
-0.031529386 0.052181195 0.0238338 -0.023088368 0.022905767 -0.05950574 -0.045519415 -0.06977196
0.04982151 0.070128545 0.07204897 -0.02887805 0.030017959 0.09914761 -0.057988733 0.04937484
-0.10645996 -0.02534997 -0.05652522 -0.026762508 -0.07162087 -0.08084143 0.059420995 0.016247327
-0.13068013 -0.056491196 -0.023451354 0.014671042 -0.04362483 0.06377815 -0.11951252 0.02162592
-0.06857015 0.030879645 0.09455696 0.10995269 -0.114067845 0.0877886 0.027177036 -0.05410067
0.03957414 0.014876129 -0.02016726 0.014594981 -0.07206153 0.015985562 -0.0057079783 0.09423369
