models/eeg_only/s_14.pt (torch, 561186 bytes, 37 tensors)

band_attn.fc1.weight f4 [8, 5]
000000 8b 73 41 be 50 e3 ca bd 50 45 28 be ef 54 65 3e
       -0.18891732 -0.09906638 -0.1643269 0.22395681
000010 dd 57 a2 be d3 60 f2 3d 1c be cf 3d 0b 4a 3f be
       -0.3170766 0.11834874 0.10143682 -0.18680589
000020 dd 19 fd 3e 60 37 b4 3e c7 50 a5 3e a3 2d 0e be
       0.49433795 0.35198498 0.3228819 -0.13884597
000030 ae 3a b2 be 70 48 e3 be bd a6 b9 be 38 47 a2 3d
       -0.34810394 -0.44391203 -0.36260024 0.0792374
000040 70 87 ca bc 11 24 ba 3d f0 d2 0c 3f 3d d6 e4 3e
       -0.024722785 0.0908891 0.55009365 0.446947
000050 ea 0f bf 3e c2 92 78 be f3 e8 95 3e a0 1d 54 3e
       0.3731683 -0.24274734 0.2927929 0.20714426
000060 b8 a3 fd be 61 9b 89 be a2 a1 a3 be 68 32 5e be
       -0.4953897 -0.26876357 -0.31959254 -0.21698916
000070 f3 90 bd 3d d3 0e 07 3e c1 d0 85 3e 79 39 44 be
       0.092561625 0.13189249 0.2613583 -0.19162549
000080 cd 12 9c be c0 25 04 3f 96 69 01 3f ad 83 72 be
       -0.30483094 0.516201 0.50551736 -0.23683043
000090 59 c5 97 3d a6 d8 0c 3f 35 05 0c bd e9 a5 e8 3e
       0.07410688 0.5501808 -0.034184653 0.4543908

band_attn.fc1.bias f4 [8]
000000 58 45 b7 be 22 19 4a bd 94 02 98 3e f2 82 46 be
       -0.35795093 -0.049340375 0.29689467 -0.19385889
000010 85 38 92 3e 27 c0 33 be d9 a3 d5 bd 8f 78 8a be
       0.28558746 -0.17553769 -0.10431642 -0.27045104

band_attn.fc2.weight f4 [5, 8]
000000 59 f7 06 3f a2 95 5a be ef a7 0a 3e e7 0b 6e 3e
       0.5272117 -0.21346143 0.13540624 0.23246728
000010 8d 42 3f be 35 74 d2 3b e9 28 6f be 1b cc 21 3e
       -0.18677731 0.0064225444 -0.2335545 0.15800516
000020 49 80 8a be 02 b4 a9 3e b2 08 a1 be 00 06 77 3e
       -0.27051 0.33145148 -0.31451946 0.24123383
000030 ae 12 43 3e 8a 96 30 be 7c 37 a6 3e b3 60 a3 bc
       0.19050094 -0.17244926 0.32464206 -0.01994357
000040 8f ee af be cd 9b 24 be b5 a0 91 be 85 c3 4d 3e
       -0.34361693 -0.16075058 -0.28442922 0.20094116
000050 f6 ae e3 bd 31 29 0e 3e f5 ec ad 3e 5a 9f cd 3d
       -0.111173555 0.13882901 0.33969846 0.100401595
000060 af ad 6d be f9 c6 35 be 8c 37 9e 3e 09 56 6d bd
       -0.23210786 -0.17751683 0.30901754 -0.057943378
000070 ab a8 28 be f0 b5 57 3d 74 9b 10 be bc 83 f3 be
       -0.16470592 0.052663743 -0.141218 -0.47561443
000080 b2 1d 6a 3a 96 af cf be f4 94 6e be 61 47 26 3d
       0.00089308165 -0.4056365 -0.23299009 0.040595416
000090 f2 ca 82 3e 45 db 30 3e e8 50 ad be d4 e5 86 bd
       0.2554546 0.17271145 -0.3385079 -0.06586805

band_attn.fc2.bias f4 [5]
000000 00 7a 28 3e 30 59 80 be 1d e8 6e bc 82 9e 2a be
       0.1645279 -0.25068045 -0.014581707 -0.16662028
000010 d1 7c 2f be
       -0.17137457

feat_proj.weight f4 [128, 21]
000000 0c 7e 7b 3e 85 b0 09 be 1b c8 05 3a 48 51 03 bb
       0.24559802 -0.13446243 0.00051033654 -0.002003746
000010 8d 57 db 3d a6 56 17 be bc b7 d6 bd 1c 6e f3 3d
       0.10710058 -0.14779148 -0.10484263 0.11886236
000020 b1 e2 4a 3d 8a d8 82 bc f6 1e 37 be 61 8c 2f bc
       0.049532596 -0.015972394 -0.17882904 -0.010714621
000030 1d fc 12 3c 75 59 9d 3c 88 7e 89 3e 3c dd 28 3b
       0.008971241 0.019207695 0.26854348 0.0025766632
000040 06 54 59 3c 34 db 97 3d 2f 95 56 be 02 60 0f be
       0.013264662 0.074148566 -0.20955347 -0.14001468
000050 67 2a e4 3d ce 2c 28 be 5d e4 ee 3d 59 45 a1 be
       0.111409 -0.16423342 0.116646506 -0.3149822
000060 87 c0 c4 3c 63 71 3c bc e2 4c 3a be 31 70 cb 3d
       0.024017585 -0.011501643 -0.18193391 0.09933508
000070 52 99 ad bc 01 58 1f be e1 92 3e be bf 5e 40 bd
       -0.021191273 -0.15560915 -0.18610717 -0.046965357
000080 f0 49 08 be 05 c4 77 be 45 2d c7 3d 4b 0a 39 3e
       -0.13309455 -0.2419587 0.09725431 0.18070333
000090 a9 c1 4f 3e 2d 45 2a 3e a4 1a 04 3e 03 d0 38 be
       0.20288719 0.16627951 0.12900788 -0.180481
0000a0 16 03 f3 3d e2 7c 4e 3e 6f 52 38 3e 58 94 6d be
       0.11865823 0.20164827 0.18000196 -0.2320112
0000b0 0e 56 88 3e 88 44 8c 3e 51 dc 5d 3e 2c 95 e1 bb
       0.26628155 0.27396035 0.21666075 -0.0068842378
0000c0 07 cb 59 be 51 9e c3 bd 57 8d 30 bd f1 44 b8 3c
       -0.21268855 -0.09551681 -0.043103542 0.022493811
0000d0 d4 40 1b 3e 06 59 5d 3e 88 fe 07 be ac 31 1e bc
       0.15161449 0.21615991 -0.1328069 -0.009655397
0000e0 c1 f4 e1 3d 58 e3 e9 bd 85 5a 5f 3e 53 1f d4 3d
       0.11033011 -0.114203155 0.21811874 0.10357537
0000f0 08 4e 3e 3e 8a aa 2d 3d a5 76 11 3e 14 8f 74 3e
       0.18584454 0.042398967 0.14205416 0.23882705
000100 93 ab 4d be 16 2f 54 bd 0f 67 1b 3d 44 18 44 be
       -0.20084982 -0.051802717 0.03794008 -0.19149882
000110 9e 3b 01 be f9 de cc bd 70 e5 9b bd d8 3c 36 bd
       -0.12620398 -0.10003466 -0.07612121 -0.04449162
000120 f2 65 45 be c4 c5 a3 3d 96 00 93 bd a3 0f 33 3e
       -0.1927717 0.07996705 -0.07177846 0.17486434
000130 33 19 17 3e a4 14 3a be 67 32 14 3e df 16 c0 3d
       0.14755706 -0.18171936 0.14472352 0.09379362
000140 4c a4 4b 3e d6 f4 f3 bd 18 cd c6 3d ea a6 22 3e
       0.19886893 -0.11911933 0.09707087 0.15883985
000150 b4 a4 2d 3e c3 f5 78 3d 23 c1 95 3e cc c1 68 3d
       0.1695736 0.06078125 0.29248914 0.056825444
000160 8e e4 00 3e 4e 06 8d bd 22 c4 b6 bc d9 08 a0 bc
       0.12587187 -0.06885968 -0.02231032 -0.019535469
000170 be 45 93 bc 29 67 77 3e 0e 9d 92 3c a6 ed 72 bd
       -0.017977592 0.24160446 0.017897155 -0.05930867
000180 cf 31 db bd 87 5a 10 3e 15 b0 0a be 1a fb 01 3e
       -0.107028596 0.14097033 -0.13543732 0.12693444
000190 12 53 41 3e 82 dd 81 bd 73 12 f7 bd 56 d3 9b 3d
       0.18879345 -0.063410774 -0.12064066 0.076086685
0001a0 b2 ee fc 3d a6 fb b7 3d ab c1 a8 bd 9c 6c 65 be
       0.12350215 0.08983545 -0.08240064 -0.22404712
0001b0 4a bb 2c 3d 5c 54 00 bd ab 6d 15 be d5 bb 87 3d
       0.0421708 -0.03133045 -0.14592616 0.06627623
0001c0 94 fd 18 bc 45 7b 08 be c0 a0 ac 3d 60 9d 00 be
       -0.0093378015 -0.13328274 0.08429098 -0.12560034
0001d0 eb 3b 23 3e e7 2f 54 3e 13 2b d7 bd 18 59 b1 3d
       0.15940826 0.20721398 -0.10506263 0.086595714
0001e0 90 21 2e 3e 73 81 91 bd 40 fd 15 be 28 f5 d1 bd
       0.1700499 -0.071047686 -0.14647388 -0.10251838
0001f0 8c ea 23 3d 61 db 18 3e 0e f0 eb bd b1 21 68 3d
       0.040018603 0.14927436 -0.11520396 0.056672756
000200 20 f7 26 3e e2 fd 65 be 33 7b ab 3d 36 e5 23 be
       0.16305208 -0.2246013 0.08373108 -0.16005406
000210 7d 94 8b 3d 1a 84 b7 3d 19 38 b0 bd 61 9f 3f 3e
       0.06815431 0.08960743 -0.0860445 0.18713142
000220 e3 9c 94 bd e1 f3 27 3e 3c 96 36 3e d3 23 0c bd
       -0.07256486 0.16401626 0.17830747 -0.034213852
000230 e6 90 29 bd a6 fa 83 bd a9 c1 07 3d e5 e1 24 3e
       -0.04139795 -0.06444292 0.033143673 0.16101797
000240 15 e0 ea bd df 35 b9 bd 17 bf df bd f6 d0 d0 3d
       -0.114685215 -0.09043478 -0.10925119 0.10196106
000250 46 5f 32 bc 65 db 3b be c2 24 d7 3d 56 8b 94 3d
       -0.010886973 -0.18345411 0.10505058 0.07253139
000260 ae cc ce 3d 2b e4 05 3d df 25 ea bc 32 55 fe 3d
       0.10097633 0.0326883 -0.028582511 0.124185935
000270 d0 11 05 be ee 4d 50 be 3d f3 04 3d cc 20 0f 3e
       -0.12995076 -0.20342228 0.032458533 0.13977355
000280 1c 51 5a bd 35 3c 5c 3e 0b f9 18 3e 0c 1c 1d 3e
       -0.05330001 0.21507342 0.14938752 0.1534273
000290 89 19 00 3e e7 9e 64 be c9 19 50 be 25 6a ac 3c
       0.12509741 -0.22326241 -0.20322336 0.021046707
0002a0 2c 35 6f 3e 5f ee 35 3e da 73 80 bd cf 9d 0d 3d
       0.23360127 0.17766713 -0.06272097 0.034574326
0002b0 1d 54 fd 3c 53 01 d6 bd 32 c0 3a be 3a a6 c3 bd
       0.030923897 -0.10449471 -0.18237379 -0.095531896
0002c0 6b 07 c0 3d d6 e0 5d 3e 20 a0 4e 3e 9e cd 41 be
       0.09376415 0.216678 0.2017827 -0.18926093
0002d0 d5 c3 b4 3d c4 8b 3e be c7 0d 0d 3e 7d e7 3c bd
       0.088264145 -0.18608004 0.13774787 -0.046119202
0002e0 20 97 c1 3d df 32 40 be dd 10 26 be d6 00 f9 bc
       0.09452653 -0.18769406 -0.1621737 -0.030395906
0002f0 f2 78 1c 3e 29 5a 8c bd 39 ae 22 3e a1 cb ad bd
       0.15280512 -0.06853134 0.15886773 -0.08486105
000300 e5 67 18 3e d3 86 4c 3c b9 bd 34 bd 29 59 43 bd
       0.14883383 0.0124833165 -0.044126246 -0.04769245
000310 4b 8e ad 3d 80 67 45 3d 4c 93 16 be 46 7a 05 3e
       0.08474406 0.04819441 -0.14704627 0.13034925
000320 5c 72 88 3e bf bd 1d 3c 2f d7 c1 bd 5b 9f 18 3d
       0.2664975 0.0096277585 -0.09464871 0.03726135
000330 ac 69 fc 3d 1c 76 d4 bc 35 fc 02 3d f3 61 a2 bd
       0.12324843 -0.025935225 0.031978805 -0.079288386
000340 55 bf 30 3e 43 4f 1b be 06 3f 67 bd f4 96 07 3d
       0.17260487 -0.15166955 -0.05645659 0.033102944
000350 47 a3 46 3d fe e4 8b 3e 0e 05 6d 3d 31 5e 33 3e
       0.048495557 0.27323145 0.05786615 0.175164
000360 96 9f 12 3c 37 6f 83 3d cd c1 23 3d 80 16 11 be
       0.008949181 0.06417697 0.039979745 -0.1416874
000370 94 60 99 3c f5 25 04 3c 7f 92 99 3e 2e 34 98 3d
       0.01872281 0.00806569 0.2999458 0.074318275
000380 bc 31 6a 3e 77 8c 30 bd 7e c9 2c be ef 54 16 3e
       0.22870535 -0.043102708 -0.16873738 0.14680837
000390 d7 e6 33 3e 5c 74 9c bd dd f9 8d bd 17 fc 25 3e
       0.17568527 -0.07639381 -0.06932423 0.16209446
0003a0 d7 83 4c 3e cb b9 09 be 05 b4 47 3e 11 00 8e bd
       0.19972168 -0.1344978 0.19502266 -0.069336064
0003b0 78 78 ca 3b 56 00 6e be 20 1e 24 be 2b 39 38 3e
       0.006178912 -0.23242316 -0.16027117 0.17990558
0003c0 a7 a9 13 be d7 41 b1 bb 84 fe 8c 3e 8c ea 52 be
       -0.14420186 -0.00540946 0.2753793 -0.20597285
0003d0 37 d1 28 3e 71 d1 31 3e fe c5 58 be c4 3f df 3d
       0.16486059 0.17365052 -0.21169278 0.10900834
0003e0 53 f8 4c 3c 74 9b 28 3e 1a f9 8f bd 3b 01 44 bd
       0.012510377 0.1646555 -0.07029934 -0.047852736
0003f0 51 2d 0a be df 3e 9e bd 4a 56 b9 bd f3 df 76 3e
       -0.1349385 -0.077268355 -0.090496615 0.24108867

feat_proj.bias f4 [128]
000000 de d0 4c 3e 2b b0 dd bd 09 04 ce 3c f9 36 85 bd
       0.20001552 -0.10824617 0.025148408 -0.06504626
000010 38 ae a5 3d bf 1b 65 3e 11 37 03 3e 21 91 3e 3e
       0.0808987 0.22373866 0.12813975 0.1861005
000020 f6 a8 1c bc bd 83 83 3d 28 d4 0d 3e 31 a2 ea 3b
       -0.009561768 0.064216115 0.13850462 0.007160448
000030 4e 56 38 3e 03 50 8a 3d c5 22 cc bc a9 c2 fa bd
       0.18001673 0.06753542 -0.024918923 -0.1224416
000040 70 21 61 3d 22 36 78 3e fb a5 1c be e2 52 c4 bb
       0.05496353 0.242394 -0.15297692 -0.0059913257
000050 23 3a d7 bd f2 fb eb b6 1e fa a5 3c f8 a4 0a 3e
       -0.105091356 -7.032876e-06 0.020260867 0.13539493
000060 29 53 f4 3c c1 2d 13 3e 6d b0 54 3d 49 12 29 be
       0.02982481 0.14372922 0.051926065 -0.16510881
000070 26 eb cc 3c 41 c9 af 3d ea 87 03 be 3a 81 72 bd
       0.025014471 0.08583308 -0.12844816 -0.05920527
000080 5d 2b 39 3d c6 42 2b bc 20 dc 3e 3e 46 55 c5 bd
       0.04520737 -0.010452932 0.18638659 -0.09635405
000090 de e8 4a 3e 8d 25 35 bd 38 4a bb 3c e6 51 1b bb
       0.19815394 -0.044225264 0.022862539 -0.0023699938
0000a0 23 2c 02 be a3 e0 2d bc 25 a3 14 3e 17 0a 4b be
       -0.1271215 -0.01061264 0.1451536 -0.19828068
0000b0 3b da 9b bd 63 25 81 3d 8b 17 6b bd d9 b0 ee 3d
       -0.076099835 0.06305959 -0.0573955 0.11654825
0000c0 87 ae 19 be 68 50 81 3d b9 9d da 3d 44 a3 30 3d
       -0.15007983 0.063141644 0.106746145 0.043124452
0000d0 ef fa 6d bd 6c b2 b1 bd 96 95 1d 3e a7 c4 08 3d
       -0.058100637 -0.086766094 0.15389094 0.033390667
0000e0 12 8f e0 3d d2 91 14 be f2 f1 48 3d 21 7b cc bd
       0.109647885 -0.14508751 0.049058862 -0.099844225
0000f0 74 5a 39 be 66 ef 43 3c f8 1f e5 bc 24 9d 22 3e
       -0.18100911 0.0119589325 -0.027969345 0.15880257
000100 d8 00 1c 3d a8 43 07 be b2 a1 41 3d 28 dd 33 3e
       0.038086742 -0.13209403 0.047273345 0.17564833
000110 36 6c 2a bd 76 44 a4 bd bc 46 c1 3d 87 f6 42 3d
       -0.041607104 -0.080208704 0.0943732 0.047598388
000120 c8 79 a6 3d 0f b9 84 bd 90 1e cf 3c fd 6a 00 bd
       0.08128697 -0.064806096 0.025283128 -0.031352032
000130 4f 05 e9 3d f3 5e 07 3e 5e 0f dc bb 81 b6 10 bc
       0.11377966 0.13219814 -0.006715699 -0.008832575
000140 f6 b4 8b 3c 86 ca 03 3d 30 5a 10 be 30 a5 8b bc
       0.017054062 0.032175563 -0.14096904 -0.017046541
000150 6f 65 0d 3e be b5 0d bb c1 39 48 3e 05 ee 96 3d
       0.13808225 -0.002162322 0.19553281 0.073696174
000160 f6 5b 21 3e 0d 9f 26 3e 7e 6d 81 bd 2a 0d 21 be
       0.15757737 0.1627161 -0.06319712 -0.15727678
000170 56 ad a8 3c 0b ee 46 be da dc 16 3d 69 87 17 3e
       0.020590466 -0.19426744 0.036831714 0.14797749
000180 c7 f5 8d 3d 7c 7f ce 3b 79 b4 4e 3c f8 7d c5 bd
       0.06931644 0.0063018184 0.01261627 -0.09643167
000190 d7 23 b0 bc cb 2b 30 3e 8d 40 92 bd 52 98 5f 3d
       -0.021501465 0.17204206 -0.07141218 0.054588623
0001a0 53 07 5e bd 6b 73 50 be 12 84 04 3e b4 21 6c 3c
       -0.054206204 -0.20356528 0.12941006 0.014412332
0001b0 bc 05 a4 3d 60 34 46 3e 15 1d 3e 3e b8 7d 51 be
       0.08008906 0.19355917 0.18565781 -0.20458114
0001c0 2b 52 25 3d c1 df ea bd 36 0e 16 be 4c fb 01 be
       0.040361565 -0.11468459 -0.14653859 -0.12693518
0001d0 31 ec 3b 3d 5a 2d fc 3d f9 9e 01 bc f7 ec c1 3c
       0.045879547 0.123133376 -0.007911437 0.023672564
0001e0 7c a8 26 be d9 80 4f 3e 2a 02 58 3e da 06 97 3c
       -0.16275209 0.20263995 0.21094576 0.018435884
0001f0 d8 e6 33 be 35 2f 20 be 77 d9 18 be 38 70 3e be
       -0.17568529 -0.15643008 -0.14926706 -0.18597496

local1.conv.bias f4 [128]
000000 4c a7 fa 3c ac e2 fd bc d8 bf e4 bb 9e 5a 7a 3c
       0.030597351 -0.030991875 -0.0069808774 0.015280394
000010 8e 02 7b 3c 3c 91 fd 3a a9 a7 81 bc 07 8f 2c bc
       0.015320433 0.0019345651 -0.015827017 -0.010532147
000020 8a 3b 7c 3b 38 57 86 3c 8a cc 93 3c eb 68 fb bc
       0.0038487636 0.016399011 0.018041868 -0.030689677
000030 eb a7 73 3b 5c f3 44 3c 46 23 bc bb 08 99 b3 3b
       0.0037178944 0.012020912 -0.0057415096 0.005480889
000040 fe 13 0a bd 4d 25 2f bd 12 e8 1f 3c ac 1a a2 3c
       -0.033710472 -0.042760182 0.00975992 0.019788109
000050 0b 89 d5 3b c5 75 a9 3b 10 a9 3b 3c b9 55 d0 bc
       0.006516581 0.00517151 0.011453882 -0.0254315
000060 da 0d 8a bb 32 c8 64 bc 2c 74 aa bc 12 40 e2 bb
       -0.004213077 -0.013963746 -0.020807348 -0.0069046104
000070 1b ab 27 3d b8 4e 5f 3c 96 c3 8a 3b 00 35 01 3d
       0.040934663 0.013629608 0.0042347414 0.031544685
000080 00 26 cb 3c c0 98 cd 3c 72 37 91 3b a8 ed a2 bc
       0.024798393 0.025097251 0.0044316584 -0.019888714
000090 85 97 fe 3c 94 40 9b 3a c6 ee 4c 3d 69 43 9b 3b
       0.03107811 0.0011844807 0.0500324 0.0047382605
0000a0 3a 30 b4 bb c7 f3 e2 3b cf 96 da bb 2b 45 7b 3c
       -0.005498913 0.006926033 -0.00667081 0.015336315
0000b0 0a 8a 14 3a 04 16 75 3b 4f bb 8d 3b 6b 71 8c 3c
       0.00056663214 0.0037397156 0.0043253074 0.017143926
0000c0 42 01 b1 bc d9 3a 99 3c 2c c6 68 3b 59 b4 ec bc
       -0.021607045 0.018704819 0.003551851 -0.02889459
0000d0 94 8f 88 3c 3f b0 d8 bc 4a c1 0a 3d 57 5f a0 3c
       0.016670026 -0.026451228 0.03387574 0.019576712
0000e0 96 8f f7 bb 70 80 aa 3a 57 05 d2 3c 6b ef 71 ba
       -0.0075549586 0.0013008248 0.025637312 -0.00092290965
0000f0 2c 99 5e 3c 01 a8 43 bb 42 fb c9 bc d8 07 00 bd
       0.013586324 -0.0029854777 -0.024655942 -0.03125748
000100 da fe 27 bb 4b d7 7d 3c b3 12 07 3d d8 10 8e 3c
       -0.002563408 0.015493224 0.032976817 0.017342016
000110 79 87 a7 3c bb 32 eb 3b 24 7a 30 bc 70 ab 8e 3b
       0.02045034 0.0071776784 -0.010771308 0.004353933
000120 4c 82 f5 3a ed 02 93 bb c1 ac a8 3b 54 9e 3d 3c
       0.0018730848 -0.0044864328 0.005147547 0.011573393
000130 70 62 55 3c c4 ef ef bc 8f 70 42 3c f8 2b f7 ba
       0.013023958 -0.029289134 0.011867656 -0.0018857708
000140 0b 93 26 3b e8 0e 8c 3b 9c 85 38 3c 81 f8 82 bb
       0.0025417234 0.004274238 0.011262324 -0.003996909
000150 9a a9 c1 3b cb 6f 0f 3a 28 3c a7 bb 3a d5 c2 3c
       0.0059101107 0.00054716755 -0.0051036067 0.023783315
000160 11 1a 0a 3d e4 ce 64 3c 33 bf 2b 3c cc e2 54 3c
       0.033716265 0.013965342 0.010482597 0.012993526
000170 96 0a ac 3c d9 16 21 3c f0 5f 20 bb c5 ca 27 3c
       0.021001142 0.009832107 -0.0024471246 0.010241215
000180 56 1d a1 3c 6b 5f 00 bb ca 8c a1 3c b5 8c bd bc
       0.019667309 -0.0019588124 0.019720454 -0.023138383
000190 16 52 03 bc b7 0e 96 bc db 78 d7 3c cc 3a 23 bc
       -0.008015176 -0.018317563 0.026302746 -0.009962749
0001a0 c0 51 df bc 07 6f f2 3c 13 33 1c bd 79 39 a1 3c
       -0.027260661 0.029593958 -0.038134646 0.019680725
0001b0 e5 ad 8b bc 36 e1 9f bb 81 64 99 3c cf 0b a4 3a
       -0.017050693 -0.004879142 0.018724682 0.0012515726
0001c0 83 f7 35 bb 38 76 00 bc ca ac 16 bc ef 88 ae 3c
       -0.0027765937 -0.007840686 -0.00919647 0.02130553
0001d0 c9 80 82 bc 12 54 49 3c d7 b3 da bb 3c 4a 9d 3c
       -0.01593055 0.01228811 -0.0066742706 0.019200437
0001e0 19 37 8c 3c 8c c7 a8 3b 5c 5b 15 3c 8a 38 7b bb
       0.017116116 0.005150741 0.00911602 -0.003833326
0001f0 df bf 95 3c 36 38 c4 bb 30 0f a4 bc b8 52 be 3c
       0.018279968 -0.005988146 -0.020026773 0.023232803

local1.conv.lin.weight f4 [128, 128]
000000 32 bc d2 bd 1d 28 03 be a4 35 08 be 66 0f cb 3d
       -0.10289802 -0.12808271 -0.13301712 0.099150464
000010 22 52 c1 bd cc 9c c0 3d 6b 04 ae bd 66 74 23 3e
       -0.09439494 0.09404907 -0.084969364 0.15962371
000020 80 4d 87 bc 24 72 0d 3e 77 2e 29 3e ac 53 53 bd
       -0.016516447 0.13813072 0.16521631 -0.051593468
000030 98 12 48 3d ed 93 d4 3d a1 bd 2e 3e 61 3f 7b bd
       0.048845857 0.10379777 0.17064525 -0.06133974
000040 7b 77 86 bd 26 09 4f bd 0d 02 0a 3d 30 bf 01 3e
       -0.06565758 -0.050545834 0.033693362 0.12670588
000050 f5 3d 23 bd fd a6 14 bd d1 8a de 3c df 44 6c 3b
       -0.03985401 -0.036292065 0.027165802 0.0036051793
000060 46 9f db b9 92 a2 9c bc ae ea 35 be c1 20 4a 3d
       -0.00041889603 -0.019120488 -0.17765304 0.049347643
000070 50 fe 12 be e9 66 2f 3c 62 ef 90 3d 10 c8 ce bd
       -0.14354825 0.010705688 0.07076909 -0.10096753
000080 81 ae 4c bd 49 67 2a 3d fe 9f ed 3d 07 a6 04 bd
       -0.049971107 0.041602407 0.11602782 -0.0323849
000090 19 f0 31 3c 2c 6e 33 bd 6b 36 13 be 22 7a 2b bd
       0.010860466 -0.04380624 -0.14376228 -0.04186452
0000a0 c8 a3 31 be 8a 54 9d 3d 21 3a 24 3e f7 b9 bb bd
       -0.17347634 0.0768214 0.160378 -0.09166329
0000b0 f5 68 75 3d 68 40 22 3d 01 aa 8a bd 85 83 a9 bc
       0.059914548 0.039612204 -0.06770707 -0.020692596
0000c0 a5 75 e9 3c 61 a5 82 3d d0 39 90 3c 9f 84 2f 3d
       0.02849848 0.063792 0.017605692 0.042851087
0000d0 94 c8 61 3d 3a 0b 66 3d ff 11 d3 bd 85 85 de 3d
       0.055122927 0.05616305 -0.10306167 0.108653106
0000e0 74 51 97 3c 27 cb a7 3d 74 09 f9 bd 97 0c 59 bc
       0.018471457 0.08193045 -0.12160006 -0.013247631
0000f0 ac 0c e8 bc 11 af 55 3e d4 8e a9 bc 39 18 dc 3d
       -0.028326355 0.20867564 -0.020697989 0.107468076
000100 2e 46 0c 3e 8b 8b 64 3d 0f db 87 bd 6a 91 ed bc
       0.13698646 0.05579714 -0.06633579 -0.029000003
000110 64 2d d0 bd a5 12 b8 bd cb fc c4 bd 1e 4c 14 3d
       -0.101649076 -0.08987931 -0.09618529 0.036205404
000120 25 17 e6 bc b6 51 0b bd 18 23 49 3a 51 e5 45 be
       -0.028087208 -0.034013472 0.0007672771 -0.19325759
000130 d2 ec 9a 3d b2 2d c8 bd a0 08 0f be 2d 9a db 3d
       0.07564701 -0.09774341 -0.13968134 0.10722766
000140 a9 aa 3b bd 70 3a 36 bd f0 df e9 3d 58 65 cf 3d
       -0.04581705 -0.044489324 0.11419666 0.10126752
000150 f4 af bb bd 3b bb 04 be 50 b3 b8 3d 78 b0 ae 3c
       -0.0916442 -0.12962048 0.09018576 0.021324381
000160 97 66 a6 3c 57 c9 e8 3d 35 50 9d 3b ed 57 b1 3b
       0.02031259 0.113665275 0.004800821 0.005412093
000170 68 b3 73 3d 45 37 b5 bd 47 fe e0 3d 78 6b 3d 3e
       0.059497267 -0.088484325 0.109859996 0.18498027
000180 2a fc 02 3e 0e cf 0c bd 59 f6 52 be 10 ae 16 3e
       0.12791505 -0.03437715 -0.20601787 0.14714837
000190 d7 9e 99 bd 25 3e 2a 3e e5 95 25 3d ac 1a 10 3e
       -0.075009994 0.16625269 0.040426154 0.14072675
0001a0 66 e9 b4 3c 65 6a 26 be df a9 ab 3d dd 9c 01 3e
       0.02208395 -0.16251524 0.0838201 0.12657495
0001b0 22 ca 4e bd b3 7e f3 bd b3 58 2f 3e 95 86 e5 bc
       -0.050485738 -0.118894 0.1712368 -0.028018275
0001c0 23 c2 00 be 5c 79 16 3d 3b 18 b6 3d 2d 45 eb bd
       -0.12574057 0.03673683 0.0889134 -0.114878036
0001d0 c6 da 3c 3d 88 df b1 bc 42 f9 27 3d 44 20 5e bd
       0.046107076 -0.021713033 0.041009195 -0.05422999
0001e0 08 85 0f be bb 6b 96 bd 2e 7e ca 3d 3c d3 7e bd
       -0.14015591 -0.07344767 0.09887348 -0.062213168
0001f0 88 78 70 bd 6e 77 15 be b3 31 33 be 35 68 49 3d
       -0.058708698 -0.1459634 -0.17499427 0.049171645
000200 1a ec ff 3c a2 cf 61 bd c8 57 9f 3c fc cb 1e 3d
       0.031240512 -0.055129655 0.019451037 0.038768753
000210 9f e5 db 3c 61 0a d7 3d 14 0d 97 ba 80 4a e5 bc
       0.02684289 0.105000265 -0.0011524283 -0.027989626
000220 d0 e8 a0 3c 34 31 ad 3d d8 a0 60 3d 58 ef ef bd
       0.019642264 0.084566504 0.054840893 -0.11715573
000230 c9 d8 dd bd 78 80 6c 3d 62 03 c4 bc 77 1d 4e 3d
       -0.10832364 0.057739705 -0.023927394 0.05032107
000240 8c 9d 47 bc 97 2f 40 be 2b e4 ae 3d 56 7a fa 3d
       -0.012183558 -0.18768154 0.08539613 0.12230365
000250 2d c5 38 bc d3 64 00 be df 01 83 3d 32 c7 01 3e
       -0.011277479 -0.12538461 0.06396841 0.12673643
000260 9c 1c f5 bd 69 79 18 bd dc 3b f0 bb 07 c3 40 bc
       -0.119683474 -0.03722516 -0.0073313545 -0.011765248
000270 82 b7 d6 3b 41 ed 84 3d 87 5e 2a bd 7d a2 c1 3d
       0.0065526376 0.06490565 -0.041594055 0.0945482
000280 2c ad cd bd 63 a8 11 3c 5b ea f4 3d 18 04 04 3e
       -0.100427955 0.008890244 0.11958762 0.12892187
000290 1b 30 2a be 60 32 5d be ca 45 08 bc 05 3b db bd
       -0.16619913 -0.21601248 -0.00831742 -0.107046165
0002a0 ed 31 7b 3d ab 5f 8d 3d 10 35 80 3d 45 5b 89 3d
       0.06132691 0.06903013 0.06260121 0.067068614
0002b0 3e af 7f 3d f0 b9 96 bc 23 df 4d bd d7 59 a1 3c
       0.062422983 -0.018399209 -0.050261628 0.01969616
0002c0 2c 49 2b bd 4e e0 8d bd 74 12 3e be 94 74 92 3c
       -0.04181783 -0.06927548 -0.18561727 0.017877854
0002d0 14 9d a4 bd fb a6 b5 bd a6 8a 0c be bb 10 14 bd
       -0.08037773 -0.088697396 -0.13724765 -0.036148768
0002e0 54 bb 53 bc 4d 4b 11 3e 75 0a 9f 3d 28 74 a6 3d
       -0.0129230805 0.14188881 0.077656664 0.08127624
0002f0 0f f1 fc 3d a9 69 ea bd 51 7f 40 bd 2c d0 8e be
       0.12350666 -0.11445934 -0.04699642 -0.27893198
000300 99 be aa 3c ae ef 39 bc 66 42 18 bd 4f 01 0b be
       0.020842837 -0.011348648 -0.037172697 -0.13574718
000310 5c 74 05 be 4d b8 06 3d af ba 14 be b6 d2 33 be
       -0.13032669 0.032890607 -0.14524339 -0.17560849
000320 06 f3 a0 3d 54 48 17 3e b0 44 62 3d 9d 08 04 3d
       0.07858853 0.14773685 0.055241287 0.032234777
000330 ca 2c a0 3c c1 dc 05 3d f1 66 48 bd d7 92 e9 bd
       0.019552607 0.03268123 -0.048926298 -0.114049606
000340 5e 1f 94 3c 1e 7c df bd 3f 84 9f bc e1 77 27 bd
       0.018081363 -0.10912345 -0.01947224 -0.04088581
000350 6a b7 18 3d eb 9c 08 3e f7 3a e5 3c de 42 dd 3d
       0.037284292 0.1334111 0.027982218 0.108037695
000360 94 d2 c4 3d 2a 4b dd 3d 9e e7 ca bd 8e e8 88 bd
       0.09610477 0.10805352 -0.09907459 -0.06684981
000370 6b c4 83 bd e7 b5 a5 bd c9 83 24 3e 48 65 9c 3d
       -0.06433948 -0.08091336 0.16065897 0.07636505
000380 75 93 e0 3c 5c 61 2a 3e 6d 79 6c bd 00 33 90 3d
       0.027414063 0.16638702 -0.05773299 0.070409775
000390 82 53 f3 bd 15 b6 91 bd 02 60 41 bd a3 12 1d be
       -0.11881162 -0.071148075 -0.0472107 -0.1533914
0003a0 ed 22 d3 3d d0 8c 12 3e 53 84 4c 3d 92 a5 6d bd
       0.10309396 0.14311528 0.04993088 -0.05801923
0003b0 ed 0c 18 bd 43 38 3a 3b 64 ce a7 bd 88 03 cc 3d
       -0.037121702 0.0028414882 -0.08193663 0.09961611
0003c0 e1 8f 79 3a a8 27 0e be 30 96 b6 3c 25 b4 e1 3d
       0.0009520036 -0.13882315 0.022288412 0.11020688
0003d0 e1 48 72 3c 3b f0 a8 bd 86 8d 24 bd b3 ae 84 bd
       0.0147878835 -0.08248945 -0.04017403 -0.06478634
0003e0 a3 2d c9 bc 80 f2 a0 3c 3e a9 38 be 73 d0 e6 3c
       -0.024557894 0.019646883 -0.18033311 0.028175568
0003f0 2d 75 cf bd 12 75 fa 3d 40 b0 c2 3d 11 eb 5b bd
       -0.101297714 0.12229361 0.09506273 -0.053690974

local1.norm.weight f4 [128]
000000 bb 77 85 3f cb c6 82 3f 1a d4 80 3f 4b 1f 7a 3f
       1.0427164 1.0216917 1.0064728 0.97704
000010 97 43 83 3f fb 07 6a 3f 3d ac 83 3f 65 dc 75 3f
       1.0255002 0.9141843 1.0286938 0.9603942
000020 86 63 7b 3f d8 ef 73 3f a2 09 6c 3f e7 23 98 3f
       0.98198736 0.9528785 0.922022 1.1885957
000030 a8 3f 7a 3f 80 60 7f 3f 98 f5 7f 3f 13 48 75 3f
       0.9775338 0.9975662 0.9998412 0.958131
000040 7b 22 8d 3f b8 3e 95 3f d9 8e 81 3f 95 90 81 3f
       1.1026148 1.1659765 1.0121719 1.0122248
000050 49 db 85 3f a3 99 71 3f ae 2d 82 3f b0 c7 8a 3f
       1.0457546 0.94375056 1.017019 1.084219
000060 4c bf 6c 3f 1a 28 70 3f c4 0f 82 3f 39 1d 77 3f
       0.92479396 0.9381119 1.0161061 0.96528965
000070 d0 85 80 3f 68 05 7e 3f 34 44 7d 3f fa 71 83 3f
       1.0040836 0.99227 0.98932195 1.0269158
000080 22 12 83 3f 72 31 80 3f 7d 69 85 3f c3 53 88 3f
       1.0239909 1.001509 1.0422817 1.0650562
000090 76 63 7f 3f 65 45 81 3f 11 92 61 3f 4b b3 7c 3f
       0.9976114 1.0099303 0.88113505 0.9871108
0000a0 63 c4 88 3f 53 da 7e 3f f9 71 6e 3f 80 a6 70 3f
       1.0684932 0.99551886 0.9314266 0.9400406
0000b0 69 85 7f 3f a1 e1 81 3f 31 29 6d 3f af 4c 7e 3f
       0.9981294 1.0146981 0.9264098 0.9933576
0000c0 fc ef 7c 3f ef 35 84 3f 8b cd 77 3f 9f 49 80 3f
       0.9880369 1.0328959 0.9679801 1.0022467
0000d0 c1 1e 80 3f b7 c9 71 3f d7 63 80 3f 01 aa 77 3f
       1.0009385 0.9444842 1.0030469 0.9674378
0000e0 ab d7 7d 3f 6f e5 80 3f 43 1e 7f 3f 03 e1 71 3f
       0.9915721 1.0070018 0.9965555 0.94483966
0000f0 d7 e6 7f 3f d8 4d 7d 3f 71 ec 87 3f 68 10 96 3f
       0.9996161 0.98946905 1.0619031 1.1723757
000100 89 b7 86 3f 2e d3 7a 3f da 42 84 3f 95 57 77 3f
       1.052476 0.97978485 1.0332901 0.96618015
000110 45 43 81 3f ec e1 84 3f f4 48 7d 3f 28 f2 75 3f
       1.0098654 1.0381446 0.9893944 0.96072626
000120 b6 cd 6a 3f b2 39 80 3f 8f fe 84 3f a1 10 84 3f
       0.9172014 1.0017607 1.0390185 1.0317575
000130 e2 24 81 3f db 39 7f 3f d2 a6 81 3f 47 a6 82 3f
       1.0089381 0.99697655 1.0129035 1.0206994
000140 cb 6d 73 3f b0 44 8b 3f e6 55 7c 3f 87 d4 72 3f
       0.95089406 1.0880337 0.9856857 0.9485554
000150 17 ae 88 3f a9 73 85 3f b0 a3 82 3f 74 74 78 3f
       1.0678128 1.0425922 1.0206203 0.97052693
000160 cb 7a 7b 3f 4d 44 75 3f 5b 6c 81 3f 76 39 63 3f
       0.9823424 0.95807344 1.0111192 0.88759553
000170 b6 73 87 3f 27 a4 72 3f bd cd 6f 3f b8 bd 8b 3f
       1.0582187 0.94781727 0.93673307 1.0917273
000180 23 a7 7d 3f a2 96 85 3f 59 a6 7d 3f df 6c 81 3f
       0.99083155 1.0436594 0.9908195 1.011135
000190 b7 9e 83 3f 77 6d 82 3f 23 94 69 3f 40 06 7e 3f
       1.0282811 1.0189656 0.91241664 0.99228287
0001a0 30 02 8c 3f 88 27 6c 3f f1 17 7e 3f 5e d0 81 3f
       1.0938168 0.9224782 0.9925528 1.0141714
0001b0 f7 02 8e 3f 35 3e 76 3f db 80 7d 3f 7d ea 70 3f
       1.1094655 0.9618867 0.9902474 0.941078
0001c0 6d 3f 81 3f 85 af 6c 3f bf b7 87 3f 47 b8 7f 3f
       1.0097481 0.9245532 1.060295 0.9989056
0001d0 dd 30 8b 3f dd 35 7d 3f 95 6f 75 3f 47 a3 7f 3f
       1.0874287 0.98910314 0.95873386 0.99858516
0001e0 40 e2 80 3f ad 37 78 3f 62 6d 7a 3f f2 7d 7a 3f
       1.0069046 0.96959955 0.97823155 0.9784843
0001f0 90 23 78 3f 3a cb 80 3f 42 f9 76 3f b9 1e 8d 3f
       0.96929264 1.006202 0.9647409 1.1025001

local1.norm.bias f4 [128]
000000 00 50 06 bc 49 d4 0a bd d4 af 81 bd f5 14 13 bd
       -0.008197784 -0.033893857 -0.06332365 -0.035908658
000010 1b 6b df bc de 28 54 bd 5c 49 f0 bc 9c 72 9c bd
       -0.027272752 -0.051796786 -0.029331855 -0.076390475
000020 e2 6d 44 bd db b8 9b bd 58 b1 89 bd 38 02 bc bd
       -0.047956355 -0.07603618 -0.06723279 -0.09180111
000030 45 9b 8c bd 7e 22 0c bd 14 8a b8 bc c9 74 ab bd
       -0.06865553 -0.03421258 -0.022526778 -0.083718844
000040 14 3d 0a bd fe 49 8e bd 07 db fc bc a8 e5 16 bd
       -0.033749655 -0.06947707 -0.03086616 -0.03684011
000050 12 7a 5d bd 41 34 80 bd 32 8e 18 bd d5 9e 33 bd
       -0.054071493 -0.06259967 -0.037244983 -0.043852646
000060 b8 d9 82 bd 9a 81 62 bd b6 33 27 bd cd 26 59 bd
       -0.06389183 -0.05529938 -0.0408208 -0.05301552
000070 df 6d be bb 74 67 43 bd 21 91 ea bc 96 64 10 bd
       -0.0058114375 -0.047706082 -0.028633656 -0.035252176
000080 45 08 59 bc 23 20 a6 bc 57 ea 9d bd 04 4f 03 bd
       -0.0132466005 -0.020278996 -0.077107124 -0.032057777
000090 15 86 44 bc 0a 78 6f bd 38 09 9b bd fb 25 9f bd
       -0.011994858 -0.058464088 -0.07570118 -0.07770916
0000a0 e7 09 ba bc 35 4b 88 bd ac b8 85 bd d8 16 ad bd
       -0.0227098 -0.066549696 -0.06529364 -0.08451623
0000b0 a1 65 9c bd f5 84 06 bd eb fe 91 bd 4d 97 47 bd
       -0.07636572 -0.03284164 -0.071287 -0.048728276
0000c0 eb af df bc 18 07 73 bc 08 ad a5 bd 79 9f ef bc
       -0.027305564 -0.014833234 -0.08089644 -0.029250847
0000d0 8d 42 f0 bc e1 16 61 bd b2 d3 b8 bb 67 a3 48 bd
       -0.029328609 -0.05495346 -0.0056404704 -0.048983958
0000e0 94 02 46 bd 79 c5 16 bd a9 ea 8a bd b9 ba 4d bd
       -0.048342302 -0.03680942 -0.06783039 -0.0502269
0000f0 f8 57 18 bd 7f f7 51 bd d0 9e 15 bd 91 93 6c bd
       -0.03719327 -0.05126142 -0.03652841 -0.057757918
000100 be 81 e6 bc 2f d6 5d bd 2f 30 23 bd c7 f3 7b bd
       -0.028138038 -0.05415934 -0.039840873 -0.06151178
000110 fc 05 bf bc 71 e0 93 bc 01 65 1f bd 43 f5 38 bd
       -0.023318283 -0.018051358 -0.038914684 -0.045155775
000120 12 21 8c bd 1f 6f c7 bc d7 98 d9 bd 85 8b 83 bc
       -0.06842245 -0.024344979 -0.10624855 -0.016057739
000130 c1 a9 da bc 16 66 01 bd f0 80 38 bd 21 3b 82 bd
       -0.026692273 -0.031591497 -0.04504484 -0.06358934
000140 84 24 b4 bd 03 3e 24 bd 98 18 2d bd 83 a4 48 bd
       -0.08796027 -0.0400982 -0.042259783 -0.048985016
000150 3b d9 dc bd 1b 9a b9 bc da 93 ba bc b6 a7 50 bd
       -0.10783621 -0.022656491 -0.02277558 -0.05094119
000160 fa 92 e9 bc 9b f3 53 bd 22 99 c6 bc c1 89 f7 bd
       -0.028512467 -0.051745992 -0.024242941 -0.12086821
000170 ec 81 c0 bc 06 a7 4e bd 10 f7 83 bd d6 d4 13 bd
       -0.023499452 -0.050452255 -0.06443608 -0.036091648
000180 80 ba 25 bd f0 1b 23 bd ae 83 92 bc cc 14 8a bd
       -0.040461063 -0.039821565 -0.017885055 -0.06742248
000190 bd f2 43 bd 5f 42 25 bd c6 07 03 be d5 ad 0f bd
       -0.047838915 -0.0403465 -0.12795934 -0.03507789
0001a0 1c 88 2c bd 3b 9a a1 bd 72 ab 11 bd 4d 67 f4 bb
       -0.04212199 -0.07890745 -0.035563894 -0.0074586035
0001b0 39 bf 68 bd 61 4a 19 bd b5 16 49 bd c4 25 10 bd
       -0.05682299 -0.03742445 -0.04909392 -0.035192266
0001c0 31 d8 42 bd db e2 8f bd c4 6b de 3a 98 c4 2e bd
       -0.047569457 -0.07025691 0.0016969373 -0.042667955
0001d0 9f af 8a bd 62 91 9a bd bf 04 05 bd 20 dc ab bd
       -0.06771778 -0.07547261 -0.03247523 -0.08391595
0001e0 7b df 26 bd 9a 29 24 bd 07 59 80 bd 91 40 2f bd
       -0.04074047 -0.040078737 -0.062669806 -0.042786185
0001f0 89 a2 71 bd f9 6b 70 bd e7 c2 3a bd 8b 3b 3b bb
       -0.058992896 -0.05869672 -0.04559603 -0.0028569426

local2.conv.bias f4 [128]
000000 e1 ac 07 39 9f ab 20 3a 7e 8f 28 3c 56 2e e3 3a
       0.00012939006 0.0006129089 0.010288117 0.0017332535
000010 d2 4d ae 3a e9 ba 42 3b 19 aa f2 ba fb a4 14 3c
       0.0013298339 0.0029713458 -0.0018513828 0.0090725375
000020 2f b8 35 3c 60 43 d9 3a f4 99 4d 3b 64 0e f0 ba
       0.011091276 0.0016575865 0.003137228 -0.0018314836
000030 2b d8 01 3a 84 47 c5 ba 79 4a 7d 3b 90 74 a0 3a
       0.0004953171 -0.001505122 0.0038649125 0.001224177
000040 7e 00 13 3a 89 38 c2 3c a4 2a 6d 3a da 54 0a 3b
       0.00056076783 0.023708599 0.00090471865 0.0021107704
000050 03 d9 50 b7 4b 40 b9 3a de c6 bc ba ad a4 54 3a
       -1.2448293e-05 0.0014133541 -0.0014402529 0.0008111697
000060 2c df b4 b9 f9 d4 04 bc 7b 3b e7 3a 6b f4 84 39
       -0.0003449855 -0.008107417 0.0017641628 0.00025359108
000070 fe e4 c2 39 be cc 8e 38 61 be 34 3c c5 bc a9 3a
       0.00037173176 6.809224e-05 0.011031718 0.0012949934
000080 0b aa df bb b9 38 b9 ba 1f ca cc 3a 77 a5 94 3a
       -0.0068256906 -0.0014131285 0.0015624202 0.0011340816
000090 ef 4e c8 3a 20 86 21 3b c0 9a 83 3a 13 f7 92 3a
       0.0015282313 0.0024646595 0.0010040626 0.001121255
0000a0 8e e8 28 ba 42 67 0d 3b 99 5e 41 3b 0f 6f 12 3b
       -0.0006443345 0.002157644 0.0029505847 0.0022344028
0000b0 36 c3 3f 3a ae 11 cb 39 3c e6 bb 3a c7 93 11 3a
       0.00073151605 0.0003873235 0.0014335583 0.00055533316
0000c0 ce 55 97 3a 8e 22 48 3a 67 86 5e 39 50 34 e1 39
       0.0011545958 0.00076345436 0.00021221639 0.0004295432
0000d0 95 2c 8d 3a ab 4a 7d ba 11 20 c2 3a 39 2e b3 3a
       0.0010770733 -0.00096623105 0.0014810582 0.0013670392
0000e0 21 46 07 3c bb 14 e5 3b 00 b1 6a 3b df ab c6 39
       0.008256466 0.0069909967 0.0035811067 0.00037893557
0000f0 b8 aa b2 3b cb 46 ae 3a bc 8e 21 3b bd 3c a1 3b
       0.00545248 0.0013296244 0.0024651727 0.0049205706
000100 c9 e1 22 ba 75 3d 3e 3a 12 47 c7 ba 0d 96 81 ba
       -0.0006213454 0.00072570826 -0.0015203676 -0.0009886638
000110 96 24 09 3c 59 dc aa ba b9 75 aa ba 96 89 22 bb
       0.008370539 -0.001303564 -0.0013005055 -0.0024801246
000120 27 8f a0 3a 52 ae 21 3a 0b 67 da 3a 42 8d 21 3b
       0.0012249694 0.00061676383 0.0016662789 0.0024650847
000130 35 8b 15 bb 0a f7 15 39 9d 5a ae bb a8 27 01 bb
       -0.002281857 0.00014301777 -0.0053208605 -0.0019707475
000140 9a 12 19 3c b7 98 45 3a e5 a8 04 3c 78 64 e4 3a
       0.009342814 0.000753771 0.008096908 0.0017424962
000150 9d 60 74 3d 25 9b ab 3a 25 46 90 3c 55 8e 14 3a
       0.05966245 0.0013092501 0.017611573 0.0005666961
000160 ee ea 02 3a e9 5d cb 3a 6e 97 8e bb 9d d2 b2 b9
       0.00049941137 0.0015515658 -0.004351548 -0.00034107725
000170 01 d0 e9 bc 4c 48 94 3b cc a1 c2 3b 96 ed 08 3b
       -0.028541567 0.00452522 0.005939698 0.0020893565
000180 b6 df 82 ba 73 9b fb 3a 64 64 c0 39 fe 6c 2c 3b
       -0.0009984884 0.0019196108 0.0003669589 0.0026310082
000190 fb 5a 67 3a e4 fa 71 bd 4d b4 7d 3a 88 71 21 3c
       0.0008825508 -0.05907716 0.0009678051 0.009853728
0001a0 b0 0f b1 3a 95 c2 bc 3a 44 51 56 bb ba 2c ed 3c
       0.0013508704 0.0014401252 -0.0032702247 0.028951991
0001b0 1f e0 0b bb ed 96 df 38 fa 17 99 3a 41 3b 11 3b
       -0.0021343303 0.00010661581 0.0011680119 0.0022160562
0001c0 56 b3 74 3c 2a 16 80 3a 24 94 15 3b af 79 c6 3a
       0.014935335 0.000977223 0.0022823894 0.0015142466
0001d0 55 e2 21 be 1a 6c 00 3b 9e 73 a2 3c a6 10 a0 ba
       -0.15808995 0.0019595684 0.019830521 -0.0012211993
0001e0 35 35 ee 3a 3f dc 1f 3c 12 91 90 3a 03 62 d2 3a
       0.0018173816 0.009757101 0.0011029562 0.0016050938
0001f0 36 fd d2 3a 92 62 b8 3a ab c5 3c 38 c7 d6 87 3c
       0.0016097191 0.0014067462 4.5006786e-05 0.016581906

local2.conv.lin.weight f4 [128, 128]
000000 68 75 ba bc 7a d9 04 3d 16 d5 1f 3e 2c c5 aa bd
       -0.022761062 0.032433964 0.1560863 -0.08338389
000010 6c 45 ff 3d 6a 18 24 3d 29 cf ca 3d 71 9a 2a bd
       0.12464413 0.040062346 0.09902794 -0.041651193
000020 00 2e d7 bd c7 ab 26 3e 86 51 d9 ba 59 51 05 3e
       -0.10506821 0.16276465 -0.0016580082 0.13019313
000030 3a 4e ae 3c 92 4a 7d 3d 58 dc 40 bd bb 39 b5 3c
       0.021277536 0.061838694 -0.047085136 0.022122255
000040 35 19 cb 3c 7e 1a 85 3e ac 41 03 3d f4 9b fa bd
       0.024792293 0.25996774 0.03204505 -0.12236777
000050 e2 5d 67 3a 9d 5b 8d bc 8d 02 f0 3d 13 52 5f 3d
       0.00088259403 -0.017255599 0.117192365 0.05452163
000060 1d cf ad bd 7f de 92 bd 4a 57 07 3d 88 83 b0 3c
       -0.08486769 -0.07171344 0.03304223 0.021547094
000070 8d 4b 26 bc 59 74 54 bd 1e c6 c1 3d 46 e5 95 3d
       -0.010149849 -0.05186877 0.09461616 0.07319121
000080 d6 04 15 be 90 f9 22 be 7e ee 04 be e9 20 86 3d
       -0.14552626 -0.15915513 -0.12981603 0.06549246
000090 fd 4c f9 3d 99 37 d3 bd f6 d5 29 3e f8 cf 1d 3e
       0.121728875 -0.10313339 0.16585526 0.15411365
0000a0 24 b9 19 be 5d 4d 8f 3d f8 6c 63 bd 37 34 bb 3d
       -0.15012032 0.06997178 -0.055523843 0.091408186
0000b0 64 90 13 bd 78 40 84 bd 45 fb 17 be 4a 2d 87 bd
       -0.036026374 -0.06457609 -0.14841945 -0.06600435
0000c0 bb e5 c1 3d 0c 26 f5 bc 65 fb c2 3c 96 d2 27 3e
       0.09467646 -0.029925369 0.023801515 0.16388926
0000d0 20 d0 c2 3d 72 7a d4 3d 5b 7f b3 3d 19 78 09 bd
       0.09512353 0.10374917 0.087645255 -0.0335618
0000e0 7a e3 8a bd 9a ce 7c bd 9c 8d fc 3d b1 a8 dc bc
       -0.06781669 -0.061720468 0.12331697 -0.026935907
0000f0 2f ab 12 3e 07 42 bf bd 05 da 15 3e 2c 6a 92 3e
       0.14323114 -0.093387656 0.14633949 0.28596628
000100 1d 15 9c 3c 97 03 d4 bd 2e a9 8d 3c a6 a1 51 3d
       0.019053036 -0.10352247 0.017292585 0.05117955
000110 7c c6 3b bd 3a 51 d1 3c 40 ae ec bd d4 8b be bd
       -0.045843586 0.025551427 -0.11556673 -0.09304014
000120 75 6b 14 be 68 0a e1 3d 45 98 a4 bd c4 26 0d 3e
       -0.14494117 0.10988313 -0.080368556 0.13784319
000130 f5 ab 9d bd 81 39 86 3d 1b ed b7 3d e5 74 b8 bd
       -0.07698814 0.06553937 0.08980771 -0.09006671
000140 f7 48 f1 bd 20 e3 8d 3d 02 0a 30 3e 72 21 e2 bd
       -0.11781495 0.06928086 0.17191318 -0.110415354
000150 a7 3d fb bd 4e 01 cc 3d 34 89 2b 3d d6 d6 6e bd
       -0.122676186 0.09961186 0.041878894 -0.058310352
000160 d3 c1 6d bb 5b b1 5d 3d 24 f2 79 bd 25 d2 81 bd
       -0.0036278858 0.054124217 -0.06102194 -0.0633891
000170 a7 f2 b4 3b c6 b5 77 3d 31 b9 68 bd b9 26 2a 3e
       0.0055220905 0.060476087 -0.056817237 0.16616334
000180 60 53 bb 3d 0e 02 c9 bd c5 44 9f bd c0 73 70 bd
       0.09146762 -0.09814845 -0.077767886 -0.058704138
000190 da 7b cb bd af 92 0a 3e b8 77 c7 bd 8f d4 5c bd
       -0.09935732 0.13532518 -0.097396314 -0.05391365
0001a0 88 c0 3d 3e 96 ab 07 be fb 8d b9 3d 04 8e b5 bd
       0.18530476 -0.13249049 0.09060284 -0.08864978
0001b0 1e 18 7b bd ac c6 be bd bd d0 8f bd ce 83 2b 3d
       -0.061302297 -0.093152374 -0.070222355 0.041873746
0001c0 2a a6 56 bc 02 72 3a 3e b1 77 44 3d 92 75 f9 bd
       -0.01310114 0.18207553 0.04796571 -0.12180628
0001d0 6e 37 31 3d 7f 72 c7 3d db 42 cb bd d0 ed 01 be
       0.043265752 0.09738635 -0.09924861 -0.12688375
0001e0 84 70 81 bd 3f 17 9b bd 77 07 10 3e fa 79 98 3d
       -0.06320289 -0.07572793 0.14065348 0.0744514
0001f0 cc 09 aa bb 78 95 0e bc d4 fc 6b 3d 86 cb 68 be
       -0.005189156 -0.008702628 0.057614163 -0.22733888
000200 7f 9a fc bd 88 2c c2 3d df bb 0d be 53 5a af bd
       -0.12334155 0.0948115 -0.13841198 -0.0856215
000210 42 ad 11 3e df 62 11 be 09 8e 0f 3e 33 30 0a be
       0.14226249 -0.14197873 0.14019026 -0.13494949
000220 83 88 d7 bd bf 3a 33 bd b8 d4 7f ba 26 12 80 3d
       -0.105240844 -0.043757197 -0.00097591756 0.062534615
000230 d6 71 11 be 03 38 09 be 98 17 05 3e 56 08 06 3e
       -0.14203581 -0.13400273 0.12997282 0.13089117
000240 e6 fa aa 3d 42 bd eb bc 78 64 bb bd f5 70 1c be
       0.08348636 -0.028776769 -0.09150022 -0.15277465
000250 c5 ef bb bc 16 c2 b5 3d 43 ef 76 bd be a7 2e 3e
       -0.02294148 0.088749096 -0.06028677 0.17056176
000260 76 06 e1 3d 6b fd 7a bd cb b8 32 bc 93 c0 f9 bd
       0.109875605 -0.061276834 -0.010908316 -0.12194934
000270 4c 1d 36 3d 98 ac bf bd 01 81 ee bd 84 bf dd 3d
       0.044461533 -0.093590915 -0.11645699 0.10827544
000280 2b 1b bf bd 0f 4f 5f bd 8e 62 1e 3e 62 cb 33 3e
       -0.09331354 -0.054518756 0.15467283 0.17558053
000290 1d 5a a7 3b e8 b6 4f be 53 51 aa 3d 3f bc 47 be
       0.005107178 -0.20284617 0.083162926 -0.19505404
0002a0 df 06 35 3e 71 a6 b5 bb e4 ca 4f 3d ff 8f 4a bc
       0.17678402 -0.005543523 0.0507306 -0.012363433
0002b0 1f 32 1c 3d 6d 22 9e bc e5 2b c6 bd fd fb 06 be
       0.038133737 -0.019303525 -0.09676341 -0.13182063
0002c0 be a9 b7 3d 13 8e 42 be fe ee 07 3e 65 69 cb 3d
       0.08967923 -0.1899951 0.13274762 0.09932212
0002d0 2d 6e 85 3d f1 05 3b 3d 0e 59 15 be ad d0 98 3d
       0.06515155 0.045659963 -0.14584753 0.07461677
0002e0 bd aa f5 bd d8 79 28 be c5 8a b8 bd d2 50 1d 3e
       -0.11995456 -0.1645273 -0.09010843 0.15362862
0002f0 db 65 f8 3b 30 53 0b bd 71 20 16 3e 01 16 02 3e
       0.0075805015 -0.03401488 0.14660813 0.12703706
000300 d8 20 85 3d 9b 97 85 3d 5d d2 6a be 8e 1a c3 bc
       0.06500405 0.06523057 -0.2293181 -0.023816373
000310 d6 3c 5f bd b3 72 0a 3e 1c 7d ec 3d 24 f4 f4 bd
       -0.054501377 0.13520317 0.115473 -0.11960629
000320 a4 95 02 bd 53 de b5 bd b7 4f c6 bc 2d 1b 1d 3d
       -0.03188099 -0.088802956 -0.024207933 0.038355995
000330 79 4e c5 3d 7d 81 b1 3d d1 93 23 be 52 56 8e 3d
       0.09634108 0.08667276 -0.15974356 0.06950058
000340 53 6c 3a be 78 3e a6 bd 5a 64 2f bd 68 a7 08 3e
       -0.18205385 -0.08117384 -0.042820312 0.1334511
000350 ae 22 e3 bd 86 d9 4e 3d b4 0c f3 3d 99 b7 60 3c
       -0.11090599 0.050500415 0.11867657 0.013715648
000360 e7 a1 92 bc 36 57 62 bd 98 15 31 bd c4 d4 b8 bd
       -0.017899467 -0.055258952 -0.043233484 -0.09024957
000370 a4 30 81 bc 3c 95 04 be 76 b5 07 be c3 22 04 bd
       -0.015770264 -0.12947553 -0.13252816 -0.032259714
000380 6a 03 f2 3d 04 96 00 3e 41 35 a8 3c e4 bd 96 3d
       0.118170574 0.12557226 0.020533206 0.073604375
000390 07 db a2 3c a9 76 08 bd cd 75 98 3b 4d 21 90 3d
       0.019879831 -0.03331629 0.004652715 0.070376016
0003a0 03 80 06 be 21 0f fd bd 42 8c e5 3d 30 95 18 3e
       -0.1313477 -0.12356401 0.11208393 0.1490066
0003b0 ae 33 01 be 32 4c c0 bd 3b 6b 59 bd 66 35 0f 3a
       -0.1261737 -0.09389533 -0.05308078 0.0005462974
0003c0 7c c1 28 bd 9d 1a d3 3d 1e 2c 97 3e 2c bd 14 be
       -0.041200146 0.103078105 0.29525846 -0.14525288
0003d0 b1 91 71 bd 06 76 cc bd f7 ae 9f 3d 4b 88 55 be
       -0.058976833 -0.09983449 0.07797044 -0.20852773
0003e0 29 71 ae 3d 32 79 48 bd 39 f5 13 3e ee bb d8 bc
       0.08517677 -0.048943706 0.14449014 -0.0264568
0003f0 b0 cb 1f 3d 4f 9f 1e be 34 bc 43 bd 34 ac 1d 3e
       0.03901261 -0.15490459 -0.047786906 0.15397722

local2.norm.weight f4 [128]
000000 02 22 8b 3f 9e a9 83 3f 60 90 70 3f 6d b7 7c 3f
       1.0869753 1.0286138 0.939703 0.98717386
000010 bf 81 6f 3f 86 b8 6a 3f a3 b6 82 3f c6 e6 71 3f
       0.9355735 0.9168781 1.0211986 0.9449276
000020 a6 a7 59 3f 32 87 75 3f f1 06 6a 3f da cd 7d 3f
       0.85021436 0.95909417 0.9141684 0.9914223
000030 e9 b6 73 3f 3e da 79 3f a4 e3 50 3f 84 de 77 3f
       0.95200974 0.97598636 0.8159735 0.96823907
000040 19 05 80 3f 99 38 59 3f 70 1a 74 3f 55 bb 6c 3f
       1.0001556 0.84851986 0.9535284 0.92473346
000050 dd e2 6e 3f 0a 35 63 3f a6 dc 82 3f ec 77 7c 3f
       0.93314916 0.88752806 1.0223587 0.98620486
000060 4b b9 7e 3f 22 c0 76 3f 48 40 70 3f 24 50 77 3f
       0.99501485 0.9638692 0.93848085 0.9660666
000070 68 88 68 3f 65 17 75 3f fb 54 5f 3f df 70 6e 3f
       0.9083314 0.9573882 0.87239045 0.9314098
000080 99 ca 7a 3f 85 7f 78 3f c0 d7 7a 3f b8 89 6f 3f
       0.9796539 0.9706958 0.9798546 0.9356952
000090 23 94 75 3f c7 1d 66 3f 42 0f 81 3f 85 f6 87 3f
       0.95929164 0.89889187 1.0082781 1.0622107
0000a0 b0 55 6e 3f 10 b6 6a 3f 31 d6 65 3f 76 24 72 3f
       0.930995 0.91684055 0.89779955 0.94586885
0000b0 1a f0 7f 3f fd 89 7a 3f 3b 9f 77 3f a4 98 77 3f
       0.9997574 0.97866803 0.9672734 0.96717286
0000c0 4b 86 76 3f a2 08 7d 3f 1d 99 77 3f f3 67 78 3f
       0.96298665 0.988413 0.9671801 0.97033614
0000d0 1f 35 6b 3f 10 d0 77 3f c4 e9 78 3f 65 f2 74 3f
       0.9187793 0.96801853 0.972317 0.95682365
0000e0 bc 94 77 3f 26 29 74 3f 68 d0 78 3f ba 08 83 3f
       0.96711326 0.9537529 0.97193 1.0237038
0000f0 0b fe 73 3f 81 ee 7a 3f a2 f2 67 3f 0d ca 4b 3f
       0.95309514 0.9802018 0.90604603 0.7960518
000100 df 47 74 3f 43 ed 73 3f 9f e1 71 3f c9 d1 74 3f
       0.95422167 0.9528391 0.94484895 0.95632607
000110 a6 ed 78 3f 09 33 78 3f 8f 15 7c 3f 26 6d 73 3f
       0.9723762 0.96952873 0.98470396 0.9508842
000120 27 81 87 3f f5 d3 7d 3f e2 a1 79 3f 27 86 53 3f
       1.0586289 0.99151546 0.9751264 0.82626575
000130 26 82 64 3f b2 88 80 3f 97 60 79 3f 31 a7 81 3f
       0.8926109 1.0041716 0.9741301 1.0129148
000140 62 74 71 3f 59 86 80 3f 41 a2 7f 3f 3e 44 6d 3f
       0.9431821 1.0041 0.99856955 0.92682254
000150 12 14 6e 3f 57 bd 86 3f 1c 0a 80 3f 3e e4 7d 3f
       0.92999375 1.0526532 1.0003085 0.99176395
000160 fb 1f 74 3f 9f 54 6f 3f 17 e3 80 3f af 41 72 3f
       0.953613 0.93488497 1.0069302 0.94631475
000170 17 8a 80 3f 0b 24 4e 3f d4 42 77 3f a2 a9 71 3f
       1.0042142 0.8052375 0.96586347 0.94399464
000180 a1 be 7d 3f 0c 02 6c 3f ee 79 73 3f 84 88 6c 3f
       0.99119 0.92190623 0.95107925 0.92395806
000190 67 01 67 3f 76 55 80 3f 18 4c 7e 3f d8 93 74 3f
       0.90236515 1.0026081 0.9933486 0.9553809
0001a0 a3 98 74 3f c7 90 66 3f 05 58 6f 3f a5 3b 65 3f
       0.95545405 0.9006466 0.9349368 0.89544135
0001b0 b9 be 71 3f 0f d2 76 3f b2 ad 80 3f e6 22 73 3f
       0.94431645 0.96414274 1.0053008 0.94975126
0001c0 c4 24 64 3f c4 dc 70 3f f8 e8 7f 3f a8 09 6d 3f
       0.891186 0.9408686 0.9996486 0.9259286
0001d0 95 47 85 3f 40 62 6e 3f 30 9c 6b 3f 9a a4 79 3f
       1.041247 0.9311867 0.920352 0.9751679
0001e0 f6 06 75 3f 13 c3 76 3f 9a c8 78 3f a6 e8 6c 3f
       0.95713747 0.9639141 0.97181094 0.92542493
0001f0 77 a4 74 3f ef 04 89 3f b2 ba 73 3f 5e 65 78 3f
       0.95563453 1.0704631 0.9520675 0.97029674

local2.norm.bias f4 [128]
000000 b4 7d 60 bd 3b ff 5f bd c6 bd 8b bd e7 7e a9 bd
       -0.05480738 -0.054686766 -0.06823306 -0.08276158
000010 f6 14 55 bd b9 13 f2 bd 7d c6 30 bd ee 53 8f bd
       -0.052021943 -0.11820168 -0.043158043 -0.0699843
000020 8d af 13 be b7 dc 8a bd 9f 30 ca bd 69 5c 29 bd
       -0.14422436 -0.06780379 -0.09872555 -0.041347895
000030 84 4a 45 bd 0c 6b 24 bd 14 0a 3e be 6e 68 91 bd
       -0.048166767 -0.04014115 -0.18558532 -0.070999965
000040 25 67 92 bd a4 33 0b be 49 df c1 bd d4 c4 af bd
       -0.071485795 -0.13593918 -0.094664164 -0.08582464
000050 71 95 a5 bd 53 13 b7 bd b6 a2 87 bd b2 f6 80 bd
       -0.08085144 -0.08939233 -0.066228315 -0.062970534
000060 f1 c6 57 bd 83 b7 9e bd bf bc 7c bd fb 01 8d bd
       -0.05267996 -0.07749846 -0.06170344 -0.06885143
000070 86 b2 9d bd bf 31 89 bd 14 64 da bd 65 3d ce bd
       -0.07700066 -0.066989414 -0.1066362 -0.10070304
000080 b8 53 40 bd 21 b4 3c bd d1 af 38 bd 1b a9 ba bd
       -0.04695484 -0.04607022 -0.045089547 -0.091142856
000090 fc 8a 9d bd 34 51 e9 bd 5b e7 2d bd 5d ba 3f bd
       -0.07692525 -0.113924414 -0.042456966 -0.04680859
0000a0 89 ca d4 bd e0 ce b2 bd 12 61 f5 bd c7 78 cd bd
       -0.10390193 -0.087308645 -0.11981405 -0.10032802
0000b0 38 4c 52 bc 0d d3 64 bd c0 a8 8b bd 49 e8 9f bd
       -0.012835555 -0.055865336 -0.06819296 -0.07807977
0000c0 cd 68 9a bd 3c e8 58 bd 50 5f e1 bc 94 db ab bd
       -0.075395204 -0.05295585 -0.027511269 -0.083914906
0000d0 5d 6e 9b bd 35 d4 7b bd f3 77 ba bd 8b 23 8e bd
       -0.075894095 -0.061481673 -0.0910491 -0.06940373
0000e0 66 c4 48 bd f8 6d 5c bd 56 a7 2a bd f5 ae 6c bd
       -0.049015425 -0.053815812 -0.04166349 -0.05778404
0000f0 ae f6 d7 bd a4 09 b5 bd 8d 50 01 be 7e 1d 54 be
       -0.10545097 -0.088397294 -0.12628384 -0.20714375
000100 b6 91 2e bd d9 1b 99 bd 1f ee 84 bd 6a ab 3a bd
       -0.04261943 -0.07476015 -0.064907305 -0.04557363
000110 45 7f 5a bd 2a f6 9f bd 62 88 4f bd ac 0b 4a bd
       -0.05334403 -0.07810624 -0.050667174 -0.049327537
000120 80 53 cc bc 7f b2 4b bd b2 ca 5f bd 7f 5d 0f be
       -0.02494216 -0.049730774 -0.054636665 -0.1400051
000130 3e 63 00 be 8e af 8d bd bc 09 62 bd c3 3d 59 bd
       -0.12537858 -0.0691825 -0.055185065 -0.053037416
000140 b9 6a 93 bd 0b a7 12 bd bd f6 b1 bd 2a 94 b4 bd
       -0.0719809 -0.035803836 -0.0868964 -0.088173226
000150 5a b8 95 bd 76 00 bc bd 40 fb 75 bd 1c d2 79 bd
       -0.07310553 -0.091797754 -0.060054064 -0.06099139
000160 e9 0e a3 bd 25 2d 63 bd e6 b5 90 bd 29 1c ae bd
       -0.07961828 -0.055462975 -0.070659444 -0.08501465
000170 47 13 af bc 81 56 40 be 5e 48 b7 bd 87 ad c3 bd
       -0.021371497 -0.18782999 -0.0894935 -0.09554582
000180 77 78 46 bd f8 39 a7 bd f5 52 49 bd fe 5a c4 bd
       -0.048454728 -0.081653535 -0.04915138 -0.09587668
000190 49 65 a8 bd 1b 0b 71 bd 08 7d 55 bd 8a 95 71 bd
       -0.082224436 -0.05884848 -0.052121192 -0.058980502
0001a0 2b 27 7e bd be ce c2 bd c5 2d 5c bd 7c a9 a3 bd
       -0.062049072 -0.09512089 -0.053754587 -0.07991311
0001b0 8f 8e d1 bd dd e7 80 bd 76 ab 41 bd 80 a3 d5 bd
       -0.10232269 -0.062942244 -0.04728266 -0.10431576
0001c0 35 41 03 be 7b e8 cf bd 69 2b b0 bd 3e a6 9f bd
       -0.12817843 -0.10151764 -0.0860203 -0.0779538
0001d0 be ed 02 bd 87 1e 94 bd d3 f0 03 be be 4f 68 bd
       -0.03196501 -0.07232385 -0.12884836 -0.056716673
0001e0 28 12 9e bd f8 04 52 bd d0 f2 a5 bd fd dd 90 bd
       -0.07718307 -0.05127427 -0.081029534 -0.07073591
0001f0 7e bd 7f bd 12 35 5f bd fc dd 80 bd cd e1 77 bd
       -0.062436573 -0.05449397 -0.0629234 -0.060518075
