models/eeg_only/s_19.pt (torch, 561186 bytes, 37 tensors)

band_attn.fc1.weight f4 [8, 5]
000000 88 a4 f4 3d f2 40 b8 3d 31 bd 82 be c8 2f 1b bf
       0.11945444 0.08996762 -0.25534967 -0.60619783
000010 45 c6 89 be 5f 4e c9 3e eb ad 55 3d f5 84 19 3e
       -0.2690908 0.39317605 0.052167814 0.14992125
000020 99 08 b7 3e 38 dd 57 be b6 31 d3 be 41 9b d4 be
       0.35748747 -0.21080482 -0.41248864 -0.415247
000030 6e f7 97 be bb 9f 4b 3e 97 eb 9a be 9f 88 e4 be
       -0.2968096 0.19885151 -0.30257866 -0.44635484
000040 d2 2c bf 3e 08 9e ce 3e 88 0f 53 3d 19 35 52 3e
       0.37338883 0.40354943 0.051528484 0.20528068
000050 cc 9f 4a 3e f8 6d d9 bd d2 0d cd 3e 08 20 9a be
       0.1978752 -0.10616678 0.40049607 -0.30102563
000060 7d 1f cc 3e 19 e8 e1 3d 82 08 89 3d e2 83 b0 3e
       0.39867774 0.11030597 0.06691076 0.3447562
000070 c3 86 69 3e e7 af 8b bd 57 bb b8 3d ba d9 20 ba
       0.22805314 -0.0682066 0.09020107 -0.00061359594
000080 b3 36 e0 3e ec f3 e2 3e e6 92 c4 3d e7 8a 57 be
       0.43791732 0.44326723 0.09598331 -0.21049081
000090 9d 3e 6d 3e 9b 30 40 bd 7d 9f 28 3e 5b ae e9 bd
       0.23168416 -0.046921354 0.1646709 -0.11410209

band_attn.fc1.bias f4 [8]
000000 ce ce 1e 3e 17 cd b8 3d f1 c2 d0 be f7 d7 ac bd
       0.15508577 0.09023493 -0.40773728 -0.084396295
000010 7f 38 75 3d 84 e7 27 3e 52 a4 b9 be 39 ca d7 be
       0.059868332 0.1639691 -0.3625818 -0.4214647

band_attn.fc2.weight f4 [5, 8]
000000 db b8 32 3e f0 39 89 3e 71 2c ee be ef e9 90 3d
       0.1745333 0.26802015 -0.4651828 0.07075869
000010 c2 1c 91 bd e8 6a 4b be 56 a3 69 be b4 da 37 3e
       -0.07085563 -0.19865 -0.22816214 0.17954522
000020 ea a8 f9 3c 2b 6c 89 3e 7b 90 2a 3e 45 b7 97 3c
       0.030476052 0.26840338 0.16656677 0.018520007
000030 3a d1 4c 3e 7b 95 9b be 8f f5 98 be c8 99 d8 3e
       0.20001689 -0.30387482 -0.29874846 0.42304826
000040 b4 34 cb 3e eb 19 85 3e c7 9d 1d 3e f7 b6 43 bd
       0.39688647 0.25996336 0.15392219 -0.04778191
000050 5d 23 3a be 29 11 77 3e b3 62 f7 3d 50 fd d1 3c
       -0.18177553 0.2412764 0.12079372 0.025633484
000060 3f e6 bb be 9e af ae be af 81 e5 be c5 3e b3 be
       -0.366991 -0.3411836 -0.44825503 -0.35008827
000070 73 ce b8 3e 92 5b 94 3e 04 3a c1 be c0 2e c4 be
       0.36095008 0.28976113 -0.37739575 -0.38316917
000080 6e 0a f4 bd f6 67 96 bd 57 24 2e 3e 69 2a a3 3e
       -0.11916052 -0.07344048 0.1700605 0.31868294
000090 60 a9 8e 3e 8f ef 9f 3e d1 cd 7f 3d 9e 6a 69 be
       0.27863598 0.31237456 0.06245214 -0.22794577

band_attn.fc2.bias f4 [5]
000000 2f 93 0d bd 09 74 92 3e db 65 56 3e 8d ee 09 be
       -0.034564193 0.28604153 0.20937292 -0.13469906
000010 d7 11 ab 3d
       0.08353012

feat_proj.weight f4 [128, 21]
000000 cd 4e 0e be 2b 6f f2 bd 3f 9c b8 be 56 35 de 3d
       -0.13897248 -0.1183761 -0.36056706 0.10850017
000010 b6 2f bb bd 46 57 3e be 1c 63 a5 bd 68 0a cf bd
       -0.091399595 -0.1858798 -0.08075544 -0.10109407
000020 09 d9 84 bb 0b 36 d7 bd 36 60 d0 bd d4 5a 68 be
       -0.004054193 -0.10508355 -0.10174601 -0.22690898
000030 34 d1 33 3e a3 3f a6 bd 6d 5a b1 3d 85 d4 e5 3d
       0.17560273 -0.081176065 0.086598255 0.112221755
000040 05 e0 15 3e 1b 93 30 3e 8d 00 9f 3d 28 b1 12 3c
       0.14636238 0.17243616 0.07763777 0.00895337
000050 a7 f5 3e 3e 31 9a 2c bd a1 73 d0 3d de 28 2c bd
       0.18648396 -0.042139236 0.101783045 -0.04203116
000060 6a 32 6f bd fe 0d 28 3e 91 c6 0c 3c 14 ea cb bd
       -0.058397688 0.16411588 0.008592264 -0.09956756
000070 6c e8 00 3e 75 04 a9 3c 21 d4 10 be e9 20 c4 3d
       0.12588662 0.020632008 -0.14143421 0.095765896
000080 e6 de 1b be 1e a9 d2 3d ac 1c 35 bd 35 00 10 3e
       -0.15221748 0.10286163 -0.044216797 0.14062579
000090 59 16 83 bd c7 c6 34 3d 85 93 32 be 4e 10 55 3e
       -0.06400747 0.04413488 -0.17439087 0.20807001
0000a0 51 b5 da bc e5 b4 b2 bd e5 a1 42 3e 10 f2 42 3d
       -0.026697787 -0.08725909 0.1900707 0.04759413
0000b0 ce a8 ab bc a1 e2 2e 3e 0d 19 73 be 61 1c 0b 3d
       -0.020954516 0.1707864 -0.23740025 0.03396261
0000c0 7e 93 f8 3c b7 97 88 bd 04 ca 57 3d a3 a5 0d 3d
       0.030343767 -0.06669562 0.05268289 0.03458179
0000d0 11 07 ee 3c de e0 4d 3e a1 fa a9 bd 23 86 82 be
       0.029056104 0.20105311 -0.08299757 -0.25492963
0000e0 84 d6 de bc 4d 20 eb bc 6f 5e c9 3d 09 0d 0d 3e
       -0.027201898 -0.028701926 0.09832465 0.13774504
0000f0 cf 87 4e be cd af 27 3e 86 f5 1f be 64 e7 12 bc
       -0.20168994 0.16375656 -0.15621004 -0.008966301
000100 58 e1 8f be 43 51 82 bd 82 29 82 bc 5e cd dc bd
       -0.2810161 -0.06363156 -0.015888933 -0.10781358
000110 c1 c1 1e be 93 b9 32 bd 15 ae e0 3d c0 3a 6b 3e
       -0.15503599 -0.04363401 0.109707035 0.2297163
000120 8a 75 9a bd 9c 01 6c be 25 07 17 be 36 4a 5e 3d
       -0.0754195 -0.23047489 -0.14748819 0.05426999
000130 10 9f 75 3e 5f 95 31 be a7 ef 44 bd ac 65 5a 3d
       0.23986459 -0.17342137 -0.048080113 0.053319618
000140 d8 21 35 3d 3c 17 b4 bd 92 ff e6 bd bc f0 b0 3d
       0.04422173 -0.08793494 -0.11279215 0.086396664
000150 cd 3d 81 bd b8 bf b2 3d ac c1 7c be a6 3d c2 3d
       -0.06310616 0.08727974 -0.24683255 0.09484415
000160 45 29 91 3e 04 2a c6 3b 46 a2 a9 bd 75 3b 22 3e
       0.283518 0.006047489 -0.08282904 0.15842994
000170 2a a6 99 3d 64 d0 b9 bd 87 75 03 3e c1 bd d7 3d
       0.075023964 -0.090729505 0.12837802 0.105342396
000180 a1 ff 61 3e dd 77 10 be f7 27 30 be 12 4c 60 3e
       0.22070171 -0.14108224 -0.17202745 0.21904019
000190 da 71 11 3e 4e f3 8f 3c 95 61 ee 3d 11 54 17 be
       0.14203587 0.017572071 0.11639706 -0.14778163
0001a0 9d 34 b1 bd 77 64 fb 3b 87 d8 23 3e d1 37 7c be
       -0.08652613 0.0076718885 0.16000567 -0.24630667
0001b0 70 c4 4e 3e 9c 3a 4a 3e e5 13 44 be 3f 07 2b 3e
       0.20192122 0.1974892 -0.19148214 0.16701983
0001c0 f6 6d e7 3d 86 7a 89 3d 6c d8 6e 3e b4 f5 d8 bc
       0.1130027 0.067128226 0.23324746 -0.026484348
0001d0 b5 03 a7 bd d7 ea 7d 3d 46 91 04 3e ab 5d 58 be
       -0.08155004 0.06199154 0.12946042 -0.21129481
0001e0 ec f0 08 3d 54 29 24 be bf 5b ca bd 29 87 b2 3d
       0.033432886 -0.1603139 -0.098807804 0.08717186
0001f0 c8 f5 54 be e4 7c d8 3c 94 b3 a7 3d bf 0c 03 bc
       -0.20796883 0.02642674 0.08188549 -0.007998644
000200 ac bd 73 bd 82 e0 55 bc 2a 99 2b be 38 74 a6 bd
       -0.059507057 -0.013054015 -0.16757646 -0.08127636
000210 54 e9 bf bd 26 fd f0 bd 2c d7 8d 3d 49 1d 6f bd
       -0.09370676 -0.11767034 0.069258064 -0.058377538
000220 cb 09 15 be 27 21 2d be b2 ce 90 bc a2 5f 56 3d
       -0.14554517 -0.16907178 -0.017676685 0.052337296
000230 b8 64 2a 3e 43 5b ef bc 13 37 10 be f0 95 01 3e
       0.16639984 -0.029218322 -0.14083509 0.12654853
000240 f3 08 01 3e 5c 84 1d bd 22 0f 97 3d db ed 02 be
       0.1260107 -0.038456306 0.07375933 -0.12786047
000250 b6 f9 c6 bd e1 41 54 bd 2e 07 56 3e 18 78 5c 3d
       -0.09715597 -0.05182064 0.20901176 0.053825468
000260 b9 ee 16 3d aa fd 0c be 45 c0 12 be 29 85 ba 3c
       0.036848757 -0.1376864 -0.14331158 0.022768574
000270 a4 38 74 3e 20 cb 36 3e d9 2f 4d bd 9e 02 18 be
       0.23849732 0.17850924 -0.05009446 -0.14844748
000280 ee 4c 82 3d 01 e6 ec 3d 82 ae bf bc 6d 01 23 be
       0.063623294 0.11567307 -0.023398641 -0.15918513
000290 46 c0 1c 3e a0 24 04 bc 3e 5e e3 bc 97 9d 1a bb
       0.15307721 -0.008065373 -0.0277549 -0.0023592466
0002a0 1b 37 c2 3c 85 0d 7b be 05 03 26 3e be 85 52 3e
       0.023707917 -0.24516876 0.1621209 0.20558831
0002b0 c2 ae 8e bd 6c 37 35 be 07 a2 d8 3d 48 d1 28 3e
       -0.06966926 -0.17696923 0.10577779 0.16486084
0002c0 7c b8 92 bd 35 21 3c 3e f5 c8 a0 bd 04 50 95 bc
       -0.07164094 0.18372042 -0.078508295 -0.018226631
0002d0 f8 11 af bb cc 3c 07 b8 4e 0a 63 3e 7e 14 87 3d
       -0.005342718 -3.224313e-05 0.221719 0.065957054
0002e0 7a 53 61 3e a6 2d f2 bc 98 9d 22 be 7f 32 81 3e
       0.220045 -0.029562782 -0.1588043 0.25233838
0002f0 8c 30 69 be 8a 16 39 3e 79 b7 33 3d 7e 44 90 bd
       -0.22772425 0.18075004 0.043876145 -0.07044314
000300 f3 f4 97 bd 44 b0 de bc b6 5e 12 3c 42 23 3e be
       -0.07419767 -0.02718366 0.008933714 -0.18568137
000310 70 57 1e be ec a9 3c 3e 7f 04 a4 3d e9 a8 c7 bd
       -0.15463042 0.18424195 0.0800867 -0.09749014
000320 e8 68 9b 3e 4f 52 13 be 9c e6 24 be 1b 04 10 3e
       0.30353475 -0.14386867 -0.16103595 0.14064066
000330 b3 08 49 bd f9 02 cb 3d b6 dc ec bd 11 d5 31 3b
       -0.04908056 0.09912676 -0.11565535 0.0027135054
000340 10 f6 f0 3d 5b f6 11 3c e3 3b e9 bb 2a 94 cb bd
       0.11765683 0.008908833 -0.0071177348 -0.099403694
000350 af 08 86 3e 9e ea 49 be ad fd d6 bc 63 ba d9 3d
       0.261785 -0.19718406 -0.026244009 0.106312536
000360 bc 23 8a bd 25 d7 67 bd b0 ce 0d be c9 dc 35 be
       -0.06745097 -0.056601662 -0.13848376 -0.17760004
000370 4a 4f 14 3c 58 fc ca bd 2d 56 e3 3d f0 57 0e be
       0.009052107 -0.09911412 0.11100421 -0.13900733
000380 9c 6b 70 3e 4b a8 c4 bd 80 2a f4 bd e7 b4 4f 3c
       0.2347855 -0.09602412 -0.11922169 0.012677408
000390 bf c8 b7 3b d0 4a 12 be 9c e7 5a be 65 b7 21 be
       0.0056086476 -0.14286351 -0.21377414 -0.15792616
0003a0 20 55 cd 3d 10 5b 89 be 50 0f 49 3e 87 0a 87 3e
       0.10026002 -0.26827288 0.19634748 0.2637522
0003b0 0b 11 89 3e f2 59 14 3e d1 5e 0d bd c8 58 2a be
       0.26770815 0.14487436 -0.034514252 -0.1663543
0003c0 c2 95 d6 bd 08 2c 3d 3e e8 0f 73 3e 4d c6 0f be
       -0.10477783 0.18473828 0.23736537 -0.1404049
0003d0 c7 be 3a be 5f 83 fa bd 84 b8 08 be d6 8d 39 3e
       -0.18236838 -0.12232088 -0.13351637 0.18120512
0003e0 4d ce 6b 3c 36 7a 60 bd ee a1 20 be 16 d7 dd 3c
       0.014392448 -0.05480405 -0.15686771 0.0270801
0003f0 51 40 31 3c dd 52 06 3e 3d 94 c1 3e 42 9e 32 be
       0.010818557 0.13117547 0.3780841 -0.17443183

feat_proj.bias f4 [128]
000000 90 56 60 be 61 b2 c8 bd 60 4f 3b 3e d6 8e b5 bd
       -0.21908021 -0.09799648 0.18291998 -0.088651344
000010 fc 29 a5 bd 73 90 07 3e 35 c8 cc bd 7e d3 01 3e
       -0.080646485 0.13238697 -0.09999124 0.12678334
000020 f7 5f e0 bd a3 5a 8c bd 46 a7 11 3e 15 e6 23 3e
       -0.10955804 -0.06853225 0.14223966 0.16005738
000030 ae cf 39 be 19 8c 56 3e 06 70 d5 3d 2a 5c a5 3c
       -0.1814563 0.2095188 0.104217574 0.020185549
000040 26 49 35 be 19 61 9c 3c 68 bb 64 3d bb be 16 be
       -0.17703685 0.019089269 0.055842787 -0.14721195
000050 92 17 90 3c 86 a1 b7 3d 05 cf 8c 3d e9 96 f7 3d
       0.017589364 0.08966355 0.06875423 0.12089331
000060 c5 08 55 bd e8 a1 23 bd 95 e5 1d 3d 22 a3 90 3d
       -0.052010316 -0.039949328 0.038549025 0.07062365
000070 8f 05 1c be 17 78 06 ba 21 5f 4c 3d 0e 94 11 bd
       -0.15236495 -0.0005129589 0.04989541 -0.035541587
000080 d1 b3 43 be aa 80 41 3d 5e 38 36 bc bc c7 2e be
       -0.19111563 0.047241844 -0.011121837 -0.1706838
000090 3e 15 51 3e cb 1e c7 bd a9 b2 d0 3d c1 ad 78 bc
       0.2041826 -0.0972267 0.10190327 -0.015178145
0000a0 d9 57 04 be c1 58 bd 3c af d8 27 be 31 f3 05 3e
       -0.12924136 0.02311361 -0.16391252 0.13081051
0000b0 41 0f 6d 3c 83 71 83 bd a3 32 9f 3d d3 40 3a 3d
       0.014468969 -0.06418135 0.0777333 0.045471977
0000c0 84 f8 d3 3b f3 49 02 3e ca 33 24 3e 29 06 89 3c
       0.0064688344 0.12723522 0.16035381 0.01672657
0000d0 37 c4 ec 3d 23 41 35 3e c6 82 ea bd be a3 91 bc
       0.115608625 0.17700629 -0.11450724 -0.017778274
0000e0 de e7 a8 bc 61 00 fb 3d a0 21 74 bd f9 ae 5b bc
       -0.020618375 0.12255932 -0.05960238 -0.013408416
0000f0 7a 24 0e be 22 8d 9c 3d fa 14 87 bc e1 9f 35 3d
       -0.13881102 0.076441064 -0.016489495 0.044341926
000100 c8 fa e5 bb d0 dc 70 bc 05 a3 2e 3e e2 f0 8e bd
       -0.007018421 -0.014701083 0.17054375 -0.069795385
000110 ef 15 d1 bd 0f f6 ce bd 5a a2 c8 3c fe dc 5b bd
       -0.102092616 -0.10105526 0.024491478 -0.05367755
000120 a7 6b 9c bc 2a 93 43 3e 2c e3 15 bd fc 06 07 bd
       -0.019094301 0.19099107 -0.0365936 -0.032965645
000130 96 4e 33 3e b9 d0 93 3d 8a 36 26 bc bc 1b 22 3d
       0.17510447 0.07217545 -0.010144839 0.03957723
000140 c9 87 68 bd 80 4f ee 3d cb d3 8e bd 75 3a b9 bd
       -0.05677012 0.11636257 -0.0697399 -0.09044353
000150 94 07 8c bd b1 01 f8 bd 44 0c d0 3d 03 45 92 3d
       -0.06837383 -0.121096976 0.101585895 0.07142069
000160 18 97 07 be 81 1b 2d be e4 d4 35 bc 55 d0 cc 3d
       -0.13241231 -0.16905023 -0.01109812 0.10000674
000170 7c 1f b1 bd f8 4f 3b 3d 9d ea b1 bd ca 25 5d be
       -0.08648583 0.04573056 -0.08687327 -0.21596447
000180 1d e7 cf 3d 24 22 0b 3e 04 e8 02 bd 77 b8 49 3e
       0.10151503 0.13587242 -0.03195955 0.19699274
000190 f3 dc e8 bd 15 b1 47 3d 5a bb d7 bd 90 72 03 3e
       -0.11370268 0.048752863 -0.10533781 0.12836671
0001a0 e5 7e 3e 3e 67 d6 c0 bd 91 e7 7c 3c 48 cc 58 3d
       0.18603094 -0.09415894 0.015436069 0.052929193
0001b0 82 cc 8a 3d f5 8f 0b 3e 59 c2 8a bc 2c 19 2c 3c
       0.06777288 0.13629134 -0.016938375 0.010504048
0001c0 f0 96 89 3d 6f bd c3 bd 5d 3f 85 bc 5e 98 a9 3d
       0.06718242 -0.09557616 -0.016265566 0.08281015
0001d0 75 1b 13 3e 39 29 74 bd 18 dc 2c 3d bb 9f 4b be
       0.14365943 -0.059609625 0.042202085 -0.19885151
0001e0 38 89 9e 3d c1 6c e1 3d 7d 7e 40 3d 0e d8 05 3e
       0.07741016 0.11007071 0.04699563 0.130707
0001f0 11 0e 8e bc 84 11 13 be e3 86 1b 3d c7 41 1d be
       -0.017340692 -0.1436215 0.037970435 -0.15357123

local1.conv.bias f4 [128]
000000 33 88 cf bb 83 bc cb 3c 8f 32 a2 3b 64 01 9c bc
       -0.006333375 0.024870163 0.0049498747 -0.019043632
000010 22 86 43 3c 98 65 82 bc 79 77 2e bc 41 89 39 bb
       0.011933835 -0.015917584 -0.010648602 -0.002831057
000020 12 5a c7 bc dd aa d8 3a c2 c4 6c 3c 22 46 42 3b
       -0.024334941 0.0016530413 0.014451208 0.0029643853
000030 dc ca 00 3a 7c 83 20 3c 0c 03 84 bb a3 37 de bb
       0.0004913041 0.009796973 -0.0040286835 -0.0067815348
000040 85 6f 2f 3c 6d 1d 03 3b 16 08 37 3c a0 da a8 b9
       0.010707741 0.0020006553 0.011171361 -0.00032206345
000050 92 9b 4f bc 90 c8 05 3c 3b 40 36 3a f9 91 9a 3c
       -0.012671368 0.008165494 0.000695232 0.018868433
000060 a8 85 7a 3c a9 c6 66 bc 05 93 90 3c 22 94 aa bb
       0.015290655 -0.01408545 0.01764823 -0.005205647
000070 ff 63 87 3c 6e 23 ab bc d3 2f bb bc 68 81 36 3c
       0.016527174 -0.020890918 -0.022849953 0.011139251
000080 8b 99 71 3b 5e 56 9a 3b 57 ec 9f 3c 7f 2b 99 bc
       0.00368652 0.004710003 0.019521875 -0.018697498
000090 cc 2e fd bb 8c 76 8a bc 06 17 a4 3c d2 6e 5b 3c
       -0.007726526 -0.01690223 0.02003051 0.013393121
0000a0 22 df 68 bb 81 ef 36 3c a5 36 6e 3c db 1a 38 3c
       -0.0035533388 0.011165501 0.014539395 0.011236872
0000b0 1d 85 a4 3c 35 11 2c 3c 02 48 a2 3c 68 28 e9 3b
       0.020083005 0.010502149 0.019809727 0.0071154125
0000c0 2d 21 19 3c d9 f7 b2 bc cf e5 48 bc f6 c5 51 3c
       0.009346289 -0.021846699 -0.012261822 0.012803545
0000d0 66 00 e9 bb 80 c4 a2 ba db 4e 73 bc 0d 22 4a bc
       -0.007110643 -0.0012418181 -0.014850344 -0.01233722
0000e0 0c b5 82 bc 7e 23 ea 3c a8 c0 ed 3a d3 9d 98 bb
       -0.01595547 0.028581377 0.0018139081 -0.004657486
0000f0 5c a4 ee bb dd 1a 18 bc 17 3e 1d bb c7 a7 0b 3d
       -0.0072827768 -0.009283748 -0.0023993307 0.03409555
000100 a8 1a 37 3b d7 da 84 3c 6b 73 b3 3c 22 7f 15 bc
       0.0027939472 0.016217632 0.021905622 -0.009124549
000110 2c a9 86 bc e6 1c 3e bc ab 07 75 3a ce 2f 05 bc
       -0.01643809 -0.01160357 0.0009347151 -0.008129073
000120 95 5d 4e 3b dd c1 ae 3c c6 cb 0c bb 49 36 26 bc
       0.0031488885 0.021332676 -0.0021483763 -0.0101447785
000130 30 37 3e 3c bc e7 39 3c a7 2a 89 3c f7 21 21 3c
       0.011609837 0.011346754 0.016743971 0.009834758
000140 b2 3c 26 3c 46 b9 4f 3c 32 27 01 bb e3 e1 08 3c
       0.010146307 0.01267845 -0.00197072 0.008354637
000150 e4 72 2e 3c f7 32 80 3c d0 c3 ca 3c 62 e5 d0 3b
       0.010647509 0.015649302 0.024751574 0.006375001
000160 95 ec 3e bc 2a 1a 88 bc 23 80 48 bc dc 9c 15 3c
       -0.011653085 -0.016614038 -0.012237581 0.0091316365
000170 83 e0 5f 3b 68 5b 93 3c 7a f8 c3 bb 20 ed 5d 3c
       0.003416092 0.017987922 -0.0059805484 0.013545305
000180 30 2b 29 bb 26 91 23 bc 4d 4f 76 3b 78 45 bb bb
       -0.0025813095 -0.009983337 0.0037583888 -0.0057150684
000190 67 43 32 3c e3 a6 6e 3b 38 8d 31 bc 4f 4f 1b bc
       0.010880328 0.003641539 -0.010836892 -0.009479358
0001a0 90 57 8e bc 65 53 0a 3c cb 4d 99 3b 70 7f 89 3c
       -0.017375737 0.008442734 0.004678463 0.0167844
0001b0 12 9c b1 3c b5 53 c2 3b 0a 56 83 bb e1 93 54 3c
       0.021680865 0.005930389 -0.0040080594 0.01297471
0001c0 b1 40 25 3c 24 ba 90 3c 77 06 b9 3c 0e 3e ef 3c
       0.010086224 0.017666884 0.02258609 0.029204395
0001d0 4c c5 36 3c 04 6c a2 bb dc 48 5a 3c 61 62 2c 3c
       0.011155438 -0.004956724 0.013323035 0.010521502
0001e0 72 d1 57 bc 5a 71 3c bb 11 85 73 3c 3f 9d a9 3b
       -0.013172494 -0.0028754086 0.0148632685 0.005176216
0001f0 a8 c0 a5 ba 63 fd d9 3a 28 ea aa 3c d3 ae 9f 3c
       -0.0012645917 0.0016631301 0.020863608 0.019492542

local1.conv.lin.weight f4 [128, 128]
000000 c5 01 33 3e 4a 13 82 bd cb 48 e0 bd 2f bf 14 3d
       0.17481144 -0.06351335 -0.10951384 0.03631514
000010 c8 1d 76 bd 04 a0 61 bd 4d 48 20 be 0e 78 07 be
       -0.060086995 -0.055084243 -0.1565258 -0.13229391
000020 cf 0d 58 be 92 92 56 3e f4 37 50 bd 5d 21 22 3e
       -0.21099018 0.2095435 -0.05083461 0.1583304
000030 d8 f9 73 ba 8c e9 1d 3e a6 79 99 bd 76 21 56 3e
       -0.0009306944 0.15421122 -0.07493906 0.20911202
000040 97 77 05 3e 8c 60 d1 3d a6 0b de bd e0 8a ea bd
       0.13033901 0.10223493 -0.108420655 -0.114522696
000050 e7 d8 24 3e 23 9a 2e bd 61 80 83 bd 21 4e 15 be
       0.16098367 -0.042627465 -0.06420971 -0.14580585
000060 63 c1 32 3e bf 6e 05 3d ff 13 2e 3b e6 2e c7 3d
       0.17456584 0.03257632 0.0026562212 0.09725742
000070 92 8c da 3c 38 11 1a 3e e6 dd 0f be 8b ce 56 bd
       0.026678357 0.15045631 -0.14049491 -0.05244307
000080 f6 8c 1a 3d be b7 82 3e fa 0e 2b 3c 45 d0 da bd
       0.037732087 0.2553081 0.010440582 -0.106842555
000090 05 3d 1e be 54 5f 95 3d 4f 95 04 3d 77 b7 86 3c
       -0.15452965 0.07293573 0.032368954 0.016444905
0000a0 b5 3a e9 3a 2a 4f a7 3d 75 dd a4 3d e5 df bc 3d
       0.0017793985 0.08169396 0.08050052 0.09222392
0000b0 73 ad 3f 3e 22 42 98 3d a5 e0 b3 bd 43 dc de 3c
       0.1871851 0.07434489 -0.08783082 0.027204638
0000c0 7b cd cd 3d b0 3d fc 3d df 52 07 bd 5a 4d 4d be
       0.10048958 0.123164535 -0.033038016 -0.20049039
0000d0 78 bc ea bd b8 9f 51 3e e2 70 13 3e 94 dd 5e 3c
       -0.11461729 0.20471084 0.1439853 0.013602633
0000e0 f0 98 85 3d b7 6d 20 bd 62 12 0d be 14 18 e6 3d
       0.06523311 -0.039167132 -0.13776544 0.11235061
0000f0 fd 84 a9 3c c9 e0 03 be bc a8 52 3e c1 21 f7 3d
       0.020693297 -0.12878717 0.2057218 0.12066985
000100 c9 5f e3 3d d5 a2 9d bd ca af 45 bd 68 9d ba bd
       0.11102254 -0.07697073 -0.04826335 -0.09112054
000110 63 10 c1 3c 4b 98 78 bd 87 74 b1 3b 8d 15 ec bd
       0.023567384 -0.060692113 0.0054155025 -0.11527548
000120 6d 75 39 3e 1f 89 15 3e 82 b5 8e bd 56 42 ca 3c
       0.181112 0.14603089 -0.069682136 0.024689835
000130 09 1a 04 be 54 ea 01 3e d8 a9 88 bd 80 0d a5 3d
       -0.12900557 0.12687045 -0.0667302 0.080592155
000140 c1 32 8a bc 10 d4 47 be a7 0c 5a 3c c7 a3 8c bd
       -0.016869904 -0.19514489 0.013308681 -0.068671755
000150 14 54 5f bd a0 78 20 3c c7 f4 89 bd de 47 8b bd
       -0.054523543 0.009794384 -0.06736141 -0.06800817
000160 6a dc 17 bc cb ec 44 bd 70 98 cd 3d bb b4 bf bc
       -0.009268859 -0.048077386 0.10038841 -0.023401609
000170 e7 88 5c bd 3b c1 20 3d e9 70 9b bd b5 78 19 be
       -0.053841498 0.03924678 -0.07589895 -0.14987452
000180 ca d7 20 3d 52 e9 64 bd e1 17 06 bd ce 30 80 bd
       0.039268292 -0.055886574 -0.032737616 -0.06259309
000190 eb a4 c4 bd 6d 81 05 be 13 8b 6e bd 3e ef 95 3d
       -0.09601768 -0.13037653 -0.0582381 0.073210225
0001a0 1c ac 29 3e 98 0f 37 be 42 ec 4e 3e 5b 68 30 be
       0.16569561 -0.17877042 0.20207313 -0.17227308
0001b0 1e e9 39 be 9e fc 1e 3d 94 6c 53 3d c3 b0 74 3d
       -0.18155333 0.038815133 0.05161722 0.059738886
0001c0 84 d6 df ba 79 73 cf bc 63 54 1d 3e 5f 2b 0d 3e
       -0.001707748 -0.025323616 0.15364222 0.13786076
0001d0 11 29 2e 3d c6 b9 5b bd c3 30 30 3e a1 ce 3d 3e
       0.042519633 -0.053643964 0.17206101 0.18535854
0001e0 86 d8 fe bd 9b a4 12 3c 26 5e 17 3e 14 ec bf bd
       -0.12443642 0.008950378 0.14782009 -0.093712
0001f0 0c cd 0c be 4c c7 db bd 28 75 10 be 16 b5 af bd
       -0.13750094 -0.10731372 -0.14107192 -0.08579461
000200 8c b6 02 bd 33 28 ea 3d d9 76 ad bd 2d 1a 3a 3c
       -0.03191237 0.11433449 -0.08469934 0.01135878
000210 19 c1 1c bd af 69 52 be d5 88 27 bd c3 cd 99 3d
       -0.03827009 -0.20548128 -0.040901978 0.07509949
000220 1d 49 83 3d eb c4 ca 3d 63 c2 72 3d d6 63 32 bd
       0.064104296 0.0990084 0.059267413 -0.043552242
000230 fb 24 09 bc 93 a8 cf 3d 0f fa b6 bd 1e 90 c0 bd
       -0.008370633 0.10139575 -0.08934414 -0.09402488
000240 7a 01 20 be 5a eb da 3d f7 76 cd bd 8f a1 33 be
       -0.15625563 0.10689421 -0.10032456 -0.17542098
000250 81 0c 4a bd d0 c0 43 be f5 3d a2 bd 5e 45 44 bd
       -0.04932833 -0.19116521 -0.079219736 -0.047917716
000260 8c bd a1 bd 7a e1 a2 3d 96 1d 2a 3e 99 67 d7 3d
       -0.07897481 0.079531625 0.16612849 0.105178066
000270 09 ec 17 3e 84 7f c3 bd e7 98 06 bd 8f 5c a9 bc
       0.14836134 -0.09545806 -0.032860663 -0.020674018
000280 c4 c5 9e 3c 0d 0b 4b 3e 87 9c 41 3d 1f 8b 9a 3b
       0.019381411 0.19828434 0.047268417 0.0047162916
000290 e5 d3 fb 3a d0 cb d8 3d 26 8c e0 3b c5 32 06 3c
       0.001921293 0.10585749 0.0068526445 0.008190815
0002a0 31 21 01 be 17 93 03 3e b4 5a 60 3d 58 35 04 be
       -0.12610318 0.12849079 0.054774 -0.12910974
0002b0 33 07 22 be f6 50 02 3e d7 80 26 bd d8 04 cb 3d
       -0.15823059 0.12726197 -0.040650215 0.09913033
0002c0 af f9 70 3d c8 76 01 3e 4c 48 be 3d f2 7c 21 be
       0.058831867 0.12642968 0.09291133 -0.15770319
0002d0 84 70 b3 3d bb 7a 22 3e 47 71 27 3d 4f a3 88 3d
       0.08761695 0.1586713 0.040879514 0.06671774
0002e0 e3 90 e2 3c 6a c0 a8 3d 30 70 aa 3d 6f 85 fa 3d
       0.027656978 0.08239825 0.08322179 0.12232482
0002f0 d7 6c 03 3e 48 a8 de 3c f8 7f 70 bc bb 30 ca 3d
       0.12834488 0.027179852 -0.014678948 0.09872576
000300 aa 69 ba 3d 50 f8 64 bd 56 51 8c bd 7d d4 7f 3d
       0.09102185 -0.05590087 -0.06851451 0.062458504
000310 84 9a 1f 3e f4 36 eb bc 3a 20 ab bd ca cf ef bd
       0.15586287 -0.028712727 -0.08355756 -0.117095545
000320 e8 9f 50 bd 6e 57 97 3c 58 69 16 3e f0 b2 8d bd
       -0.05093375 0.018474307 0.14688623 -0.06918895
000330 35 f3 14 be 2a 6b 98 3d 97 b6 3e 3e f9 46 95 3d
       -0.14545901 0.07442315 0.1862434 0.072889276
000340 53 ce ff bd a5 a1 36 be a3 80 1e be 07 fb 2d be
       -0.12490525 -0.178351 -0.15478759 -0.1699029
000350 eb 43 f9 3d a3 8c 3f 3c 00 c2 ae 3d 56 6e 8d 3d
       0.121711574 0.011691245 0.08533096 0.069058105
000360 b0 9c ec bd 8e ad 6a 3d 26 da 02 be 75 34 dc 3d
       -0.11553323 0.05729442 -0.1277853 0.10752193
000370 6c 14 16 be e8 3b 1a 3e b5 8e bc bd 22 54 bc bd
       -0.14656228 0.15061915 -0.09206907 -0.091957346
000380 bd 3d 26 be b0 72 a4 3b 65 ea c5 bd 3c 49 a3 3c
       -0.16234489 0.0050185546 -0.09663848 0.019932382
000390 9e d2 1c be e7 89 89 3d 02 54 f3 3c a4 09 5d be
       -0.15314719 0.06715756 0.029703144 -0.21585709
0003a0 d3 bf 3f 3e 7b 8f 03 be 7f d9 20 3e 43 a7 6d 3d
       0.18725519 -0.12847702 0.15707968 0.05802084
0003b0 bb 1b 8a 3c 20 95 d6 bd d3 62 87 bd 4e 37 6e be
       0.016858926 -0.10477662 -0.06610646 -0.23263285
0003c0 59 87 b9 3d b3 7f e2 bd 0d 8c 4a 3e e5 40 de 3d
       0.09059019 -0.11059513 0.19779988 0.108522214
0003d0 7e 14 cb 3c b8 13 1b be 5c 12 7f 3c 9b 79 de 3d
       0.024790045 -0.15144241 0.015568342 0.10863038
0003e0 df 1f d1 bd 3e 4e d5 bd 6f b1 c6 3d 2a 5a e0 3d
       -0.10211157 -0.10415314 0.097018115 0.109546974
0003f0 f3 95 8f bc de 6f c5 bc c6 c8 8d 3d 7f be 67 bd
       -0.017527556 -0.024101194 0.0692306 -0.056578156

local1.norm.weight f4 [128]
000000 f8 a0 8c 3f d0 ca 77 3f 24 1a 83 3f f7 d6 86 3f
       1.0986624 0.9679384 1.0242352 1.0534352
000010 ea 62 82 3f 91 cc 82 3f 97 d5 74 3f 93 7f 73 3f
       1.0186436 1.0218679 0.9563841 0.9511654
000020 c3 fd 87 3f cc 6d 8a 3f f2 0e 73 3f 83 4c 80 3f
       1.0624317 1.0814757 0.9494468 1.002335
000030 b6 fb 7e 3f 83 23 81 3f fa e7 84 3f 8d 8c 87 3f
       0.9960283 1.0088962 1.0383294 1.0589768
000040 0a 6a 81 3f 9d 75 78 3f 35 30 7d 3f 19 74 82 3f
       1.0110486 0.97054464 0.98901683 1.019168
000050 b5 11 8a 3f 58 1c 77 3f 00 25 83 3f e0 4a 80 3f
       1.0786654 0.96527624 1.0245667 1.002285
000060 b4 f7 82 3f fb 20 8b 3f e2 41 6b 3f f0 36 7b 3f
       1.0231843 1.086944 0.91897404 0.981307
000070 38 ff 7b 3f b7 ee 89 3f c8 c4 83 3f 54 c5 7e 3f
       0.9843631 1.0775975 1.0294428 0.9951985
000080 5f 95 7a 3f 16 14 7b 3f c0 97 6e 3f 64 1f 8c 3f
       0.9788417 0.98077524 0.932003 1.094708
000090 7b 14 83 3f 0b 62 86 3f 87 c6 78 3f 94 5d 74 3f
       1.0240625 1.049867 0.9717793 0.9545529
0000a0 79 4d 73 3f 02 1f 82 3f ab bf 93 3f 0d 7e 83 3f
       0.9504009 1.0165713 1.1542867 1.0272843
0000b0 9d ff 82 3f cf c6 8a 3f 40 ee 6f 3f 1c e4 7f 3f
       1.0234257 1.0841922 0.93722916 0.9995744
0000c0 dc 2d 7c 3f bb f3 86 3f 7a 79 83 3f 69 43 86 3f
       0.98507476 1.0543131 1.0271447 1.0489322
0000d0 84 0c 7f 3f a4 8c 78 3f 3a a6 7d 3f f2 97 73 3f
       0.9962847 0.970896 0.99081767 0.95153725
0000e0 65 38 88 3f ed 80 68 3f 5f 2e 82 3f 56 44 83 3f
       1.064221 0.90821725 1.0170401 1.025523
0000f0 82 fd 79 3f 9b 71 82 3f aa 6d 79 3f 55 bd 83 3f
       0.9765245 1.019092 0.9743296 1.0292155
000100 8e cc 7b 3f 40 c7 7b 3f 5b 3c 80 3f 3d cf 7e 3f
       0.98359 0.98350906 1.0018419 0.9953497
000110 52 ff 7f 3f 28 b3 82 3f 9f 2b 74 3f 31 58 87 3f
       0.9999896 1.0210924 0.9537906 1.0573789
000120 43 c4 82 3f 2c 7f 79 3f 7d e8 84 3f be 18 80 3f
       1.0216144 0.97459674 1.038345 1.0007551
000130 67 44 79 3f f3 20 80 3f c0 cb 74 3f 83 18 82 3f
       0.9737 1.0010055 0.956234 1.016373
000140 14 cb 73 3f 59 c8 84 3f 7e 97 7e 3f d9 0d 79 3f
       0.9523175 1.0373641 0.9944991 0.97286755
000150 78 28 79 3f 3b 48 7f 3f 69 05 78 3f 4d 61 76 3f
       0.97327375 0.9971959 0.96883255 0.9624222
000160 72 8a 83 3f a7 e3 7a 3f 43 79 85 3f f6 2a 80 3f
       1.0276625 0.9800362 1.0427631 1.0013111
000170 80 13 74 3f 35 a4 76 3f 9c ec 7d 3f 34 15 7d 3f
       0.95342255 0.9634431 0.9918916 0.9886048
000180 30 86 81 3f b6 7e 7a 3f f6 d5 7d 3f a4 cd 77 3f
       1.0119076 0.97849596 0.99154603 0.9679816
000190 35 c2 7b 3f 0a cd 7e 3f ee c3 82 3f 03 33 86 3f
       0.9834321 0.99531615 1.0216043 1.0484318
0001a0 08 b8 90 3f 70 84 83 3f 86 2e 74 3f 6a 22 7d 3f
       1.1306162 1.0274792 0.9538349 0.98880637
0001b0 cb 87 7a 3f 1c 2d 7d 3f 32 29 7f 3f 18 b7 80 3f
       0.97863454 0.98896956 0.99672234 1.0055876
0001c0 db ed 74 3f a0 58 78 3f d0 0b 7a 3f 46 fc 8b 3f
       0.9567544 0.9701023 0.97674274 1.0936363
0001d0 55 3e 76 3f 3d ad 89 3f 4e 1b 7d 3f 55 e3 78 3f
       0.9618886 1.0755993 0.9886979 0.9722188
0001e0 3d 68 87 3f ae f2 80 3f ad de 81 3f 41 34 78 3f
       1.0578686 1.007406 1.014608 0.96954733
0001f0 8d 16 80 3f 90 86 7f 3f 79 77 81 3f 91 64 75 3f
       1.0006882 0.998147 1.0114585 0.9585658

local1.norm.bias f4 [128]
000000 7c 0c d5 bd 0b e0 df bd 2f 4f 05 bd a3 11 b6 bd
       -0.10402772 -0.10931405 -0.03254622 -0.08890083
000010 91 72 c4 bd d0 6e 88 bd 40 9d e8 bd dc 35 b6 bd
       -0.09592164 -0.06661761 -0.11358118 -0.088969916
000020 11 f2 0e bd 9b 2e c0 bc ff cd 99 bd 8e 86 37 bd
       -0.03489882 -0.023459723 -0.07509994 -0.044806056
000030 47 45 bd bd e0 36 d6 bc 25 7a a4 bd af 24 9d bd
       -0.09241729 -0.026149213 -0.0803111 -0.076730125
000040 50 67 44 bd d9 7d 64 bd 6c 90 fb bd aa a2 59 bd
       -0.04795009 -0.05578408 -0.12283406 -0.053133644
000050 16 06 4b bd a5 f6 1f bd bb ab 8f bd 33 f2 f5 bd
       -0.04956635 -0.039053578 -0.07015177 -0.120090865
000060 8c 52 8e bd 3d 31 81 bd fc 02 a0 bd 9f d8 9d bd
       -0.06949338 -0.063082196 -0.07813069 -0.07707333
000070 c4 1b a7 bd 75 bb 4c bd c9 12 a4 bd 7d 14 c4 bd
       -0.08159593 -0.04998346 -0.080113955 -0.0957422
000080 10 48 66 bd 1f e2 9c bd 25 c4 d0 bd 4d 71 e8 bc
       -0.056221068 -0.07660317 -0.101936616 -0.028374339
000090 5b 4b 20 bd df 11 63 bd c1 ff a5 bd 10 6d 6d bd
       -0.039134365 -0.055436965 -0.08105422 -0.05796534
0000a0 03 91 52 bd 2a d3 38 bd 37 e2 41 bd 8e 58 33 bd
       -0.051407825 -0.045123257 -0.047334876 -0.043785624
0000b0 ad 72 99 bd 2e c8 b4 bd 77 ac 8b bd 61 58 84 bd
       -0.07492576 -0.08827244 -0.068200044 -0.064621694
0000c0 87 65 8e bd 5e af 3a bd 4f 35 86 bd 69 b1 59 bd
       -0.069529586 -0.0455774 -0.065531366 -0.053147707
0000d0 c0 c0 43 bd a2 88 bb bd 49 1a cd bd e3 f8 7c bd
       -0.047791243 -0.0915692 -0.10014779 -0.061760794
0000e0 3a 46 95 bd 6e 1d 73 bd 84 8b 96 bd fe 19 94 bd
       -0.07288785 -0.05935424 -0.07350829 -0.0723152
0000f0 6b f4 b2 bd 8e 1d c3 bd 47 8f 91 bd cd 7c 4b bd
       -0.08738025 -0.095271215 -0.07107406 -0.049679566
000100 79 47 46 bd b7 65 2d bd 7c 7e cf bd 5d 99 86 bd
       -0.048408005 -0.04233333 -0.10131547 -0.065722205
000110 b8 57 a0 bd 33 6c 4e bd cd 6e 69 bd 23 51 b2 bd
       -0.07829231 -0.050396156 -0.056990433 -0.08706882
000120 3b 5d dc bd d5 db c6 bc d0 82 a0 bd d8 6a af bd
       -0.1075997 -0.024274746 -0.078374505 -0.08565301
000130 da 5b 4d bd f4 2e 99 bd 73 cf 8d bd 04 a8 6a bd
       -0.050136425 -0.07479659 -0.069243334 -0.05728914
000140 02 42 8d bd d2 da d6 bc 24 3b 4a bd a0 03 8f bd
       -0.068973556 -0.026227389 -0.049372807 -0.06983113
000150 21 a2 74 bd 99 69 58 bd 1e 5c ad bd bb 8b 40 bd
       -0.05972493 -0.05283508 -0.084648356 -0.047008257
000160 89 af c8 bd c0 59 9f bd 87 b8 5f bd 48 c8 50 bd
       -0.09799106 -0.0778079 -0.05461934 -0.050972253
000170 eb ce 63 bd fa 26 56 bd a2 09 88 bd b9 0c 92 bd
       -0.055617254 -0.052283265 -0.06642462 -0.07131333
000180 d5 23 0b bd 85 30 b2 bd 37 3d 1a bd f3 09 89 bd
       -0.03396972 -0.087006606 -0.037656035 -0.06691351
000190 65 d5 b2 bd 2d 82 c9 bc 36 b1 88 bd 67 b4 4e bd
       -0.08732108 -0.024598205 -0.06674425 -0.050465014
0001a0 f9 99 84 bd 9a 6e 9e bd e1 6e 8b bd 1a 7a cd bd
       -0.064746805 -0.07735939 -0.06808258 -0.10033055
0001b0 7e aa d0 bd f0 46 de bd 7b 4b 1b bd 01 5c 6c bd
       -0.10188769 -0.10853374 -0.03791378 -0.05770493
0001c0 a7 e9 a2 bd 1b 40 c9 bc 34 dd d5 bc 3f c7 06 bc
       -0.07954722 -0.0245667 -0.026106454 -0.008226215
0001d0 69 d5 7d bd b1 ce 21 bd 51 ec 6a bd 90 ef 17 bd
       -0.061971102 -0.039503757 -0.057354275 -0.0370937
0001e0 ca 04 0f bd b1 16 64 bd 37 50 c8 bc e9 a5 91 bd
       -0.034916677 -0.055685703 -0.024452312 -0.07111723
0001f0 35 f9 9c bc 0e cd 8a bd 40 4c a7 bd cf 30 74 bd
       -0.0191618 -0.06777392 -0.081688404 -0.05961686

local2.conv.bias f4 [128]
000000 79 d9 28 3d f1 8a fa 3a 50 2a d1 bb 8e 06 60 3a
       0.041223023 0.0019114894 -0.006383218 0.00085458986
000010 d5 dd 8a 3c 82 d8 52 3c 90 4e 04 3d c8 73 63 bb
       0.01695148 0.012869002 0.032301486 -0.0034706462
000020 40 9c 98 3a 7e 73 fe b9 b5 e0 b4 3a bf 16 87 3a
       0.0011643246 -0.00048532704 0.0013799878 0.0010306461
000030 a8 21 a5 3a 4d 36 a5 3a b4 31 f2 3a fe 6a 61 3a
       0.0012598531 0.0012604684 0.0018477947 0.0008599012
000040 5f 37 26 3a cf 8c 3f 3b 65 6b 29 3b ba 81 20 3b
       0.00063406484 0.0029228216 0.0025851366 0.0024491386
000050 b3 fe 41 ba 75 f6 02 ba 6e 66 8e 3a 3b b5 d2 3a
       -0.0007400319 -0.00049958314 0.0010864267 0.0016075739
000060 38 3f fa bb f9 46 86 ba b5 fd ab bb 7e d6 e1 3a
       -0.007636931 -0.001024454 -0.00524875 0.0017230061
000070 1b 63 1a 3a 21 0b 38 3a 16 a0 cb 3a f5 91 25 3a
       0.00058894017 0.00070207013 0.001553538 0.0006316
000080 ce af d4 ba d8 1d 10 bd 60 2c 84 3a 62 79 ce bc
       -0.001622671 -0.03518471 0.0010084026 -0.025204364
000090 90 24 c7 3b cb 8a 16 ba 22 58 fe 3b b9 d3 6b 3a
       0.0060773566 -0.00057427277 0.007761971 0.00089960877
0000a0 e0 bc a2 ba 21 2c 1e 39 cb 5d e6 3a b7 dd 58 3c
       -0.0012415908 0.00015084493 0.001757556 0.013236455
0000b0 5e 7c 7f ba c6 54 45 3d 9d ad 97 3a 72 5c 05 ba
       -0.000974601 0.04817655 0.0011572127 -0.0005087323
0000c0 02 69 cd 3a 6e 9c d1 3a 7a 13 3a 3c ba 33 62 3a
       0.0015671554 0.0015992054 0.011357183 0.00086289237
0000d0 40 e2 ef 39 f7 19 30 39 8d 9f 43 3b da c7 f3 3a
       0.00045754202 0.0001679434 0.0029849738 0.0018598989
0000e0 32 c5 56 3a e6 2a 69 3a cc 2f d8 b8 88 b3 9c 3a
       0.00081928365 0.0008894637 -0.000103085855 0.001195536
0000f0 54 77 52 39 ca 93 c1 3a d3 62 3f bd 2f 3f 95 3a
       0.00020071614 0.0014768776 -0.046725105 0.0011386628
000100 f7 4e cb bb b8 e3 c9 39 cf b9 4f 3a 7e bf 2f 3a
       -0.0062044817 0.0003850737 0.0007924111 0.0006704255
000110 05 69 b5 3a a1 f6 05 3b ac 24 d2 3a 2e d6 da 3c
       0.0013840502 0.0020441192 0.0016032658 0.026713457
000120 21 71 a7 3a 6d 09 c0 3a 48 ef 0e ba 12 94 d1 3b
       0.0012774804 0.0014651247 -0.0005452526 0.006395825
000130 d2 0a f7 38 a5 ec 1b bd 5a 6e dc 3b 02 9d 1b bb
       0.00011779893 -0.03806748 0.006727022 -0.0023744707
000140 18 17 26 bb de 7f a5 ba 1c 7c 3d b9 9e 89 24 ba
       -0.0025343355 -0.0012626608 -0.00018070679 -0.000627661
000150 97 5c f4 3a 61 e2 e1 3a cc 1e 05 bd 08 28 49 3a
       0.0018643317 0.0017233604 -0.032500073 0.00076735066
000160 a1 3f c7 bd e1 03 fa 3a 30 6c 5a bd 76 9e 36 3b
       -0.09728933 0.0019074642 -0.053325832 0.0027865446
000170 50 ed b5 3a 43 62 dc bb 01 1d 5b bc 00 f1 b2 3a
       0.0013879929 -0.006725581 -0.013373614 0.0013652146
000180 0c de db 3a 9d a4 af 3c 1e 69 82 bb 9e f9 bb 39
       0.0016774549 0.021440798 -0.003979816 0.000358534
000190 f4 f4 1b 3d cc a9 55 3c ca 0d 95 3a 53 6b 12 3a
       0.038075402 0.013040971 0.0011371907 0.00055854506
0001a0 ed 7e 2d 39 e9 14 59 3b 24 2d a4 3c ae 80 4d 3a
       0.00016545849 0.0033124036 0.020041056 0.0007839304
0001b0 14 4d 41 3c ad 94 0c 3c 34 d0 d8 3a 60 41 46 ba
       0.011798162 0.008580369 0.0016541542 -0.0007562842
0001c0 0e 2c 1d 3a ed a8 db 3a dd 8f b1 3a 36 8d 09 3c
       0.00059956394 0.0016758718 0.0013546903 0.008395484
0001d0 33 25 3d bb 3d 12 27 3b a9 4d 77 3b 81 c7 d9 3a
       -0.0028861284 0.0025493049 0.0037735498 0.0016615243
0001e0 dc bb 0f 3b 34 c2 3a b9 99 b5 57 3b 5f fd 83 3a
       0.0021932041 -0.00017810689 0.0032914637 0.0010070017
0001f0 c6 85 4c 3a fc aa 7b ba d0 c7 95 3b a7 2c 55 3c
       0.0007801916 -0.0009600369 0.0045709386 0.013011134

local2.conv.lin.weight f4 [128, 128]
000000 bb 1a 24 be 08 06 ec 3d 71 ad 7a be 83 3f e2 3d
       -0.16025822 0.11524588 -0.24480225 0.1104727
000010 c0 79 63 bd 41 73 de 3d 96 df 1b be 52 0d f8 3d
       -0.05553603 0.10861827 -0.1522201 0.12111916
000020 c3 1e 0a be 2d fe ec bc 70 3e a1 3d eb fb ed 3b
       -0.13488297 -0.028929794 0.07873237 0.007262697
000030 f9 dd eb 3d 87 64 d4 bc 07 3c 47 be 94 91 d8 bd
       0.11516947 -0.025926841 -0.19456492 -0.10574642
000040 ee 19 8b bd 80 3b 89 bc 19 68 21 bc e5 ba 8e bc
       -0.06792055 -0.016752005 -0.009851479 -0.017423103
000050 4c 3d bc bc 47 7c c8 3d 3d ea 30 be 6a ac 83 3d
       -0.022978447 0.09789329 -0.17276855 0.0642937
000060 58 af 3b 3d ae 5c e7 3b f5 7d 2f 3d 1e 30 3e be
       0.045821518 0.007060609 0.04284473 -0.18573043
000070 a5 7d 92 bd f3 54 39 bd 68 b0 28 3e 91 dd 0a 3e
       -0.07152871 -0.04524703 0.16473544 0.13561083
000080 9d 18 62 bd d2 a0 11 3e f9 dc ee 3b 9b 58 f0 bd
       -0.055199254 0.14221504 0.0072895256 -0.1173565
000090 8d 17 e1 3d 3c a6 1a 3d 60 b3 ae bd f8 0b 66 bd
       0.1099082 0.03775619 -0.08530307 -0.056163758
0000a0 a0 45 d1 3c 4a d0 b7 3d 39 5b e2 bd 23 0c d3 3c
       0.025545895 0.08975275 -0.110525556 0.025762623
0000b0 66 05 32 3d 1a d2 0d bd cf 0f 2e 3d 4d 36 b2 bd
       0.04346218 -0.034624197 0.042495545 -0.08701763
0000c0 4b e4 28 3e 81 35 f7 3d 60 f8 17 3d db 37 36 bd
       0.16493337 0.12070752 0.037102103 -0.04448686
0000d0 9e a3 9f bd 70 04 0e be d4 c8 1d bd d8 43 05 be
       -0.077948794 -0.1386888 -0.038521603 -0.13014162
0000e0 19 ac 3a be e9 29 e8 3d e7 2e 7d 3d 4c 04 a5 3d
       -0.18229713 0.11336119 0.061812308 0.0805746
0000f0 b4 c0 eb 3d 34 58 d0 3d 99 ea a0 3b 31 6e 30 bd
       0.115113646 0.101730734 0.0049107787 -0.043073837
000100 60 72 b8 3d cd 8e 68 3d a8 6e a0 3a c6 11 89 3d
       0.0900619 0.05677681 0.0012240009 0.06692843
000110 a1 f7 fe 3d 8d f0 56 bd c7 d0 c8 3d e1 75 5a 3d
       0.12449575 -0.0524755 0.09805446 0.053335074
000120 77 d7 80 3d 22 56 df 3d 48 0a d4 bc 06 27 40 bc
       0.06291097 0.109051004 -0.025883809 -0.011728054
000130 7b c4 0b 3e 65 b7 f8 3d 52 1d f8 bd e3 92 b9 bc
       0.1364917 0.12144355 -0.121149674 -0.022653049
000140 22 c5 4d 3d 3f ff a3 bd 65 a8 29 3c 2c 08 fb bd
       0.05023683 -0.08007669 0.01035509 -0.12257418
000150 81 a4 a0 3d 6a d8 a7 3c a7 ff e8 bd 04 25 c7 bc
       0.07843877 0.020488936 -0.11376887 -0.024309643
000160 0a 4d 51 3d 80 6f 5f 3c 6e 87 05 3e 4b f8 16 3c
       0.05109886 0.0136374235 0.13039944 0.009214471
000170 a1 68 16 3c d0 2b 32 3e 77 e8 aa bc a2 dc fa bd
       0.009180219 0.17399526 -0.020862801 -0.122491136
000180 3d e8 01 3d 9e 61 91 3d 96 e9 88 bd dc 50 89 3d
       0.03171562 0.07098697 -0.06685178 0.06704876
000190 64 37 e7 bd 6e ea e7 3c 26 66 46 3e 7e 50 cd bd
       -0.11289862 0.028310027 0.19374904 -0.10025118
0001a0 ea 83 f3 3b 10 72 df bb bc fa a6 3d 4d 42 8e bd
       0.007431497 -0.006819017 0.081532925 -0.069462396
0001b0 0d 92 23 3c 90 cc 1b 3e 44 81 80 3d 43 d8 c9 bd
       0.009983552 0.15214753 0.062746555 -0.09855702
0001c0 b6 9b 08 3d e6 58 0f bd d2 78 1f 3e d0 28 d7 bd
       0.033351623 -0.03499689 0.15573433 -0.10505831
0001d0 cc 99 5b 3c 43 a6 07 bd f7 f1 93 3c ff b4 c4 3d
       0.013403367 -0.033117544 0.018059714 0.09604835
0001e0 5d ed a7 bc d0 0b e2 3d 29 95 ba bd 97 49 06 3e
       -0.020498926 0.11037409 -0.09110481 0.1311401
0001f0 75 68 d0 3c 54 16 ef 3c 0c bc 08 3d 75 40 30 be
       0.025440434 0.029185452 0.03338246 -0.17212088
000200 3f 20 e5 3d 40 05 05 3e 62 14 b7 bd ee 7f 89 bd
       0.11187791 0.12990284 -0.089394346 -0.06713854
000210 fe 8e e1 3d 07 e4 cd bb a8 52 1f 3d e3 61 fa 3d
       0.11013602 -0.0062832865 0.038897187 0.12225702
000220 ee a5 1b 3d d1 c9 a4 bd 16 ab 23 3e b7 a4 a5 3d
       0.03800004 -0.08046306 0.15983233 0.080880575
000230 3a 48 14 3e 75 2f 18 bd 2b 77 85 bd 4f 19 76 bc
       0.14480677 -0.037154634 -0.0651687 -0.0150206825
000240 f3 0d a2 3c af 01 82 bd 7b 20 c3 bd 30 00 82 bd
       0.019782042 -0.06347977 -0.095276795 -0.06347692
000250 c2 13 96 bd b1 86 bb 3d dc 04 95 3d 70 75 9b bd
       -0.07327987 0.0915655 0.072763175 -0.07590759
000260 b2 95 19 3d 75 ad b8 bd 31 c9 7f bd e3 8a 90 3c
       0.037496276 -0.09017459 -0.06244773 0.017644351
000270 49 21 0d 3e 3b 83 8d bd 25 ea 89 bd b6 8b 5c 3d
       0.13782229 -0.06909796 -0.06734113 0.053844176
000280 f3 6a a5 3d bd 24 c7 3d cc a6 ef 3d ca f9 2f bd
       0.080770396 0.09723804 0.11701736 -0.042962827
000290 87 c9 e3 3d 64 72 21 3e 91 5b 3d be bb fe ba 3d
       0.11122423 0.15766293 -0.18491961 0.09130617
0002a0 48 35 d4 bd cc ce a1 3b 90 5f 28 3d f2 12 02 3e
       -0.10361725 0.004937982 0.04110676 0.1270254
0002b0 1d ba f6 bd fb 97 b8 3d 45 62 ee 3a c0 9e af bc
       -0.12047217 0.09013363 0.0018187246 -0.021438003
0002c0 47 8e 3a bd d0 91 0c 3e e6 57 22 be 26 89 3e bb
       -0.045545842 0.13727498 -0.15853843 -0.0029073446
0002d0 83 f4 9b bd c4 ab 85 3d 3f e0 09 bd ff b3 eb 3d
       -0.07614996 0.06526902 -0.033661123 0.11508941
0002e0 d8 7a 42 3e 29 13 0b bb d1 d0 b1 bd 87 5e c7 bc
       0.18992174 -0.0021221137 -0.08682407 -0.024337066
0002f0 5f 93 d1 3c 20 38 1b be 92 ef c1 bd 62 1b a6 bc
       0.025582967 -0.15158129 -0.094695225 -0.020276729
000300 d2 90 6c 3c 9a 39 af 3d 04 11 27 3d 21 58 f1 bd
       0.014438825 0.085559085 0.04078771 -0.117843874
000310 10 76 19 be 59 c8 de bd 5d c8 4f 3d 38 85 59 3d
       -0.14986444 -0.10878057 0.05072819 0.053105563
000320 e3 71 40 bd 72 20 d6 3d 58 37 e6 bd 8d 01 30 bd
       -0.04698361 0.10455407 -0.11241025 -0.04297023
000330 1d 06 97 3d cc 43 0b 3e c6 d7 ab bc 68 3e 06 3e
       0.07374213 0.13600081 -0.020976912 0.13109744
000340 de a3 0f 3e b4 6b 04 3e f9 6e e9 bd 81 57 c6 bc
       0.14027354 0.1293171 -0.113981195 -0.024211647
000350 dd 54 4e bd 8d 2e 09 be 35 79 80 3d 1b 3c b8 3d
       -0.0503739 -0.13396664 0.062731184 0.08995839
000360 34 64 1f 3e 02 0c de 3d d5 df 03 be e2 e2 05 3e
       0.15565568 0.10842134 -0.12878354 0.1307483
000370 61 09 05 3e 2c c0 8a bc e4 97 1d 3e 60 a0 45 ba
       0.12991859 -0.016937338 0.15389973 -0.00075388514
000380 77 e9 24 be 8c 53 2d 3d 55 f0 c8 3d 8b 09 7c 3d
       -0.16104685 0.042316005 0.09811465 0.06153254
000390 52 e1 ab bd 34 47 b8 bd 3c 6e bc bd c5 89 c4 bb
       -0.08392586 -0.08997956 -0.09200713 -0.0059978687
0003a0 51 a5 2b bd a8 90 07 3e 87 73 06 3e 24 92 91 3d
       -0.041905705 0.13238776 0.13130008 0.07107952
0003b0 92 f0 a6 3d a1 10 f9 bd f7 af 08 3e 15 e6 69 3c
       0.08151354 -0.12161375 0.13348375 0.014276047
0003c0 f2 c2 e7 bb 5d 7a 06 3e d5 cf 2a 3e 8b 57 b5 bc
       -0.0070728 0.13132615 0.16680844 -0.02213647
0003d0 d0 aa 25 3e 39 63 b7 3d ed c4 03 3e ca 10 3d bd
       0.16178441 0.08954472 0.1286809 -0.04615859
0003e0 77 a8 fa 3b cf f8 7f bd 4f 61 e1 3c 40 15 36 3d
       0.007649477 -0.06249314 0.02751222 0.04445386
0003f0 2c 56 8f 3d b4 b4 00 bd 9c d3 66 3d 9c a1 16 3e
       0.06998858 -0.031422332 0.05635415 0.14710087

local2.norm.weight f4 [128]
000000 c1 60 56 3f 11 5a 61 3f 5c 4a 7d 3f 9e 2d 7e 3f
       0.83741385 0.88028055 0.9894159 0.99288356
000010 58 41 77 3f c0 63 78 3f 97 18 73 3f 0b 5d 6b 3f
       0.9658408 0.97027206 0.94959396 0.9193885
000020 ec d0 7d 3f 1b 75 7b 3f e2 38 74 3f e7 64 71 3f
       0.99146914 0.98225564 0.95399296 0.9429459
000030 96 98 71 3f fe b4 77 3f d1 33 61 3f f5 31 7a 3f
       0.9437345 0.9676055 0.8796969 0.9773248
000040 c5 68 68 3f 74 cb 78 3f 3a 36 71 3f 79 6c 52 3f
       0.90784866 0.97185445 0.9422337 0.82196766
000050 87 27 70 3f dc a4 80 3f f3 21 71 3f d0 a3 78 3f
       0.93810314 1.0050311 0.9419243 0.9712496
000060 1e db 7c 3f 77 2c 6c 3f 6d 81 7b 3f cf 58 6e 3f
       0.98771846 0.9225535 0.98244363 0.9310426
000070 0f 9a 7f 3f b5 e6 76 3f 39 b1 73 3f 14 a3 6c 3f
       0.9984445 0.9644578 0.95192295 0.9243634
000080 84 85 7c 3f 45 a1 79 3f e6 c9 73 3f d0 5f 7a 3f
       0.9864123 0.975117 0.9522995 0.9780245
000090 32 a6 7e 3f 0f cb 72 3f 5e 90 77 3f 80 c8 7d 3f
       0.99472344 0.9484109 0.9670466 0.99134064
0000a0 44 07 81 3f 69 0b 77 3f ec 35 6a 3f c7 c7 6a 3f
       1.0080342 0.96501786 0.9148853 0.91711086
0000b0 a9 83 74 3f 52 c7 75 3f 5b 59 84 3f 3b 7f 80 3f
       0.955134 0.96007264 1.0339769 1.0038828
0000c0 ef bf 75 3f a8 2b 66 3f 35 a2 71 3f 6f 00 7c 3f
       0.9599599 0.89910364 0.94388133 0.9843816
0000d0 80 cd 6e 3f ac d9 77 3f f9 66 7e 3f 9a b9 71 3f
       0.9328232 0.96816516 0.99375874 0.9442383
0000e0 61 4d 72 3f f6 de 7e 3f 97 69 74 3f ad 09 79 3f
       0.9464932 0.9955896 0.9547362 0.9728039
0000f0 38 0c 86 3f 29 69 77 3f 61 23 71 3f 95 5c 71 3f
       1.0472479 0.96644837 0.9419461 0.94281894
000100 ac a7 82 3f c8 d6 7e 3f d5 bd 85 3f 53 e6 83 3f
       1.0207419 0.9954648 1.0448557 1.0304664
000110 b8 a5 7f 3f 87 3b 68 3f 09 5c 82 3f 21 93 66 3f
       0.9986224 0.9071583 1.0184337 0.9006825
000120 12 62 82 3f cb 16 7a 3f 5a 1b 83 3f 35 7e 78 3f
       1.0186179 0.9769103 1.0242722 0.97067577
000130 ea f3 81 3f 79 26 7f 3f 68 6d 71 3f 81 bd 81 3f
       1.0152562 0.9966808 0.94307566 1.0135957
000140 81 4f 6d 3f 1b be 89 3f cd 45 7a 3f 96 4b 87 3f
       0.9269944 1.076114 0.9776276 1.0569942
000150 03 97 6e 3f 39 f9 6e 3f 7a 04 85 3f d5 40 7b 3f
       0.93199176 0.93349034 1.0391991 0.981458
000160 0b aa 6b 3f 07 77 69 3f e2 c1 84 3f a0 c6 7d 3f
       0.9205634 0.91197246 1.0371668 0.991312
000170 75 1f 68 3f d1 18 78 3f 1e b5 70 3f ba 9e 65 3f
       0.90673 0.96912867 0.9402636 0.8969532
000180 2f 6f 7b 3f 53 50 7c 3f 31 bb 71 3f b1 d6 79 3f
       0.9821653 0.98560065 0.94426256 0.9759322
000190 a3 ce 68 3f 1f 92 7b 3f 88 9e 78 3f 02 6a 76 3f
       0.909403 0.9826984 0.971169 0.96255505
0001a0 27 66 76 3f ac b4 53 3f 32 0b 7d 3f 3a fc 84 3f
       0.9624962 0.8269756 0.9884521 1.0389473
0001b0 75 7c 67 3f 48 e9 6a 3f 70 05 6d 3f f7 06 85 3f
       0.9042428 0.9176221 0.9258642 1.039275
0001c0 e3 e1 78 3f 2a ec 61 3f df 1f 6f 3f 36 71 6a 3f
       0.97219676 0.8825098 0.93408006 0.91578996
0001d0 3c 23 5f 3f b1 36 6a 3f 2f 73 52 3f 67 83 70 3f
       0.8716314 0.914897 0.82207006 0.93950504
0001e0 25 38 5e 3f 66 23 8c 3f 54 ac 73 3f ca 18 77 3f
       0.8680442 1.0948303 0.95184827 0.965222
0001f0 bb 4c 67 3f c8 f1 74 3f 6c 35 7c 3f a8 ef 67 3f
       0.90351456 0.9568143 0.98519015 0.9060006

local2.norm.bias f4 [128]
000000 b1 a4 2a be 8c d6 05 be d1 fe b2 bd dd f0 22 bd
       -0.16664387 -0.13070124 -0.087400086 -0.039780486
000010 d8 48 e0 bd c0 15 f8 bd ad cf b1 bd d3 e5 c4 bd
       -0.10951394 -0.121135235 -0.08682189 -0.09614148
000020 5c 9f 9d bd bd 8a 99 bd 1b 4a 6c bd a0 b6 d8 bd
       -0.07696411 -0.07497165 -0.05768786 -0.10581708
000030 98 ce 91 bd e3 4d de bd d0 bf 05 be e9 0c 37 bd
       -0.07119483 -0.108546995 -0.13061452 -0.044690046
000040 8c 0d 41 be 22 3b 09 be bd 89 10 be 22 3a 42 be
       -0.18852824 -0.13401464 -0.14115043 -0.18967488
000050 d5 5c a4 bd 2f c8 f0 bd 77 bf 95 bd 35 8d cb bd
       -0.08025519 -0.11756932 -0.0731191 -0.099390425
000060 29 c3 1b bd aa b1 c3 bd 79 62 6f bd 08 c5 ca bd
       -0.038027916 -0.09555371 -0.05844352 -0.09900862
000070 00 aa 8d bd ea aa a7 bd fa 3c e6 bd 1f 43 cb bd
       -0.069171906 -0.08186896 -0.11242099 -0.09924912
000080 21 d2 27 bd 22 07 b1 bd ac 0b 85 bd 05 4f 61 bd
       -0.04097188 -0.086439386 -0.06496367 -0.055007
000090 e3 76 15 bd a4 60 d0 bd f0 4b aa bd 07 a4 7e bd
       -0.036490332 -0.10174683 -0.08315265 -0.062168147
0000a0 45 6c b1 bd 7b 73 c4 bd 07 f1 13 be b6 7e a6 bd
       -0.08663229 -0.09592339 -0.14447413 -0.08129637
0000b0 fb c3 a8 bd 66 0b 00 bc 6b 6e 2c bd 12 3a 32 bd
       -0.08240505 -0.007815218 -0.04209749 -0.04351241
0000c0 4a a7 85 bd 38 d8 04 be e2 64 d0 bd c7 ba b0 bd
       -0.065260485 -0.12973106 -0.10175492 -0.08629375
0000d0 98 7b b6 bd d4 1e ea bd bc cd 67 bd 5f 2a c0 bd
       -0.089102924 -0.11431661 -0.056592688 -0.09383082
0000e0 d1 8b 8f bd 43 be a2 bd f9 65 b4 bd 5f 04 c8 bd
       -0.0700909 -0.07946446 -0.08808512 -0.09766459
0000f0 45 34 4e bd 23 6b b6 bd 6d 6b b9 bd 87 3e ca bd
       -0.050342817 -0.089071535 -0.09053693 -0.098752074
000100 0d 2e 78 bd 73 f6 28 bd 79 19 45 bd 82 24 55 bd
       -0.060590792 -0.041250657 -0.048119996 -0.05203677
000110 38 2f 4b bd 77 5a cf bd 38 62 a0 bd fa 99 c9 bd
       -0.04960558 -0.10124677 -0.07831234 -0.09843822
000120 e1 bd 55 bd 6b 53 8c bd 00 9c 99 bd 0c 5b 83 bd
       -0.052183036 -0.06851848 -0.07500458 -0.0641385
000130 d4 b2 38 bd 89 05 7d bd e2 6c b6 bd 23 f3 56 bd
       -0.04509242 -0.061772857 -0.089074865 -0.052477967
000140 73 b1 b3 bd f4 02 6d bd 14 84 45 bd 7a 5d 60 bd
       -0.0877408 -0.057864144 -0.048221663 -0.054776646
000150 1a 24 d6 bd e0 ff d1 bd 9a e2 1e bd c8 97 4e bd
       -0.104561046 -0.102538824 -0.038790323 -0.05043772
000160 f9 95 cd bd 83 87 fc bd 9a be 47 bd b3 a6 7f bd
       -0.10038371 -0.12330534 -0.048765756 -0.062414836
000170 65 d6 aa bd 76 c3 14 bd b4 32 cb bd 9f d6 16 be
       -0.08341674 -0.03631922 -0.0992178 -0.14730309
000180 83 4d fc bd 25 4c 99 bd ad 42 a7 bd c7 f0 83 bd
       -0.12319472 -0.074852265 -0.08167014 -0.06442409
000190 b8 65 09 be d9 62 86 bd 82 24 74 bd cb 61 98 bd
       -0.13417709 -0.065618224 -0.05960513 -0.074405275
0001a0 b8 6b 94 bd 77 a0 2e be 86 cf 53 bd 0e dd 3b bd
       -0.07247108 -0.170534 -0.05171158 -0.04586511
0001b0 9b a8 f2 bd 68 af fe bd ec 26 a7 bd 00 5e 57 bd
       -0.11848565 -0.124358 -0.08161721 -0.05257988
0001c0 18 d0 9e bd 2f c9 e3 bd 76 06 8b bd 63 0a 00 be
       -0.077545345 -0.11122357 -0.06788342 -0.12503962
0001d0 a1 b9 ee bd da 5d 21 be a6 2b 41 be 3f 67 ec bd
       -0.116565 -0.15758458 -0.18864307 -0.1154313
0001e0 1b 73 08 be 79 d2 54 bd 57 fe 8d bd c6 98 b3 bd
       -0.13325159 -0.051958535 -0.06933277 -0.087693736
0001f0 3e 40 c5 bd 5e f6 5b bd 69 28 89 bd 8c 69 01 be
       -0.09631394 -0.05370175 -0.06697161 -0.12637919
