models/eeg_only/s_20.pt (torch, 561186 bytes, 37 tensors)

band_attn.fc1.weight f4 [8, 5]
0	0x3e70a913	0.23501997
1	0x3e8f4a08	0.2798617
2	0x3ec7554d	0.38932267
3	0x3e7611b2	0.24030188
4	0xbebb8af0	-0.36629438
5	0x3e09a2c4	0.13440996
6	0x3ec13fc4	0.37743962
7	0x3e9a20be	0.30103105
8	0x3e3fe0de	0.18738124
9	0x3e8a6c13	0.2703558
10	0xbe8ae34b	-0.27126536
11	0x3f101d77	0.5629496
12	0x3db9ba65	0.09068755
13	0xbe7e2091	-0.2481711
14	0xbe416464	-0.18885952
15	0x3e0ddee3	0.13854556
16	0x3e8b590b	0.27216372
17	0xbd0317d8	-0.03200516
18	0x3ec9cd99	0.3941467
19	0x3e647513	0.22310285
20	0xbe39e158	-0.18152368
21	0xbef2d865	-0.4743072
22	0xbedf7c9c	-0.43649757
23	0x3c9e1fa4	0.019302197
24	0x3e653384	0.22382933
25	0x3ead4cdc	0.33847702
26	0x3c4bd418	0.012440704
27	0xbdbe432c	-0.09290156
28	0x3e776e4e	0.24163172
29	0xbe3a40ef	-0.18188833
30	0xbebe4b19	-0.3716667
31	0xbe866a0f	-0.2625279
32	0x3ed6bc1b	0.41940388
33	0x3e9effba	0.3105448
34	0x3e672dba	0.22576037
35	0x3ec29460	0.38003826
36	0x3e5b3c4a	0.21409717
37	0x3cbbfd34	0.022947885
38	0xbda20ad6	-0.07912223
39	0xbe6a3b26	-0.22874126

band_attn.fc1.bias f4 [8]
0	0x3e4abd49	0.19798769
1	0x3eec7b3a	0.46187764
2	0x3e7b5d5b	0.24547331
3	0x3d8b45f6	0.06800453
4	0xbea3f24b	-0.32020792
5	0x3c284131	0.010269449
6	0x3e9ef700	0.3104782
7	0x3ecef01a	0.40417558

band_attn.fc2.weight f4 [5, 8]
0	0xbe80ad80	-0.2513237
1	0x3d5931b4	0.053025916
2	0xbe16b9e9	-0.14719357
3	0xbebb3867	-0.3656647
4	0x3d897372	0.067114726
5	0xbe11e004	-0.14245611
6	0x3c5d71b9	0.013515883
7	0xbe28b5d0	-0.16475606
8	0x3e0f50b0	0.13995624
9	0xbe30e0f0	-0.17273307
10	0xbcbb5cc3	-0.02287138
11	0xbe8b3851	-0.27191404
12	0x3ea3587c	0.31903446
13	0x3dd77604	0.105205566
14	0xbe5f4457	-0.21803413
15	0xbda48570	-0.08033264
16	0x3ea5ce90	0.32384157
17	0x3ec8ff0f	0.39257094
18	0x3f21258d	0.6294792
19	0x3e88e403	0.2673646
20	0xbe370f2b	-0.1787688
21	0xbd06d0f1	-0.032914106
22	0x3ec2035a	0.37893182
23	0x3d38aebd	0.04508852
24	0x3e4bc540	0.19899464
25	0xbe1e31f9	-0.1544875
26	0xbee28001	-0.44238284
27	0xbe14a0a4	-0.14514405
28	0x3ea1e00a	0.3161624
29	0x3ccf1f7e	0.025283571
30	0xbde99467	-0.114052586
31	0xbec913b6	-0.3927285
32	0xbe8b48e5	-0.27204052
33	0xbe0e2936	-0.13882908
34	0xbf0baf32	-0.545642
35	0xbdd773a2	-0.10520102
36	0x3a606e15	0.00085613254
37	0xbe96713f	-0.29383275
38	0x3d0e4917	0.034737673
39	0x3d903e17	0.07043093

band_attn.fc2.bias f4 [5]
0	0xbda40885	-0.080094375
1	0x3e2e0950	0.1699574
2	0xbdf9bae6	-0.12193851
3	0x3de6bb99	0.1126625
4	0xbeb6a2cf	-0.35671088

feat_proj.weight f4 [128, 21]
0	0x3c32522b	0.010883848
1	0x3de85e9f	0.113461725
2	0xbea962d7	-0.3308322
3	0x3e6e6a30	0.23282695
4	0xbd5512a9	-0.05201975
5	0x3da61873	0.08110132
6	0x3e67789f	0.22604607
7	0x3da023a7	0.078193
8	0x3d231416	0.039814077
9	0xbd96a7d8	-0.073562324
10	0xbe39bf46	-0.18139371
11	0x3e623364	0.22089916
12	0x3cc5f76d	0.024165833
13	0xbe4dee86	-0.2011052
14	0x3e150445	0.1455241
15	0xbda916f6	-0.082563326
16	0xbdc951da	-0.09830065
17	0xbabcd836	-0.0014407698
18	0xbd83db62	-0.06438328
19	0xbd29975b	-0.04140411
20	0xbe351f96	-0.1768783
21	0xbd6db90c	-0.058037803
22	0x3cd8f0c4	0.026481993
23	0xbe55d971	-0.20883729
24	0x3dd62683	0.10456564
25	0x3dab68ba	0.083695844
26	0x3e201cd7	0.15636002
27	0x3df2b55d	0.118509986
28	0x3e5f2f7b	0.21795456
29	0xbdca57b1	-0.09880007
30	0xbe3a03a2	-0.18165448
31	0x3e088172	0.1333063
32	0xbd72fcc6	-0.059323095
33	0x3e118044	0.14209086
34	0x3d697e36	0.05700513
35	0xbe9ba6db	-0.30400738
36	0x3d56df81	0.052459244
37	0x3e37b6d8	0.17940843
38	0xbe344f5b	-0.17608397
39	0x3df88173	0.121340655
40	0x3dab7604	0.08372119
41	0xbe268be1	-0.16264297
42	0x3d43fe27	0.0478498
43	0x3e03ac29	0.12858643
44	0xbdc4acb1	-0.09603251
45	0x3da4ec6b	0.08052906
46	0x3ded24aa	0.11579259
47	0x3e1f4686	0.15554246
48	0x3d19d246	0.037554048
49	0xbe133cc5	-0.1437865
50	0xbe1953c8	-0.14973366
51	0x3e04fa36	0.12986073
52	0x3e0512bd	0.1299543
53	0x3e2b863c	0.16750425
54	0xbe8f5e40	-0.28001595
55	0xbdba3d47	-0.09093719
56	0xbe3d1ba0	-0.1846757
57	0x3dd04fbf	0.1017146
58	0x3e786271	0.24256302
59	0xbe0e7f2e	-0.13915703
60	0x3e5ceec4	0.21575457
61	0x3e2c2e20	0.1681447
62	0xbda40709	-0.08009154
63	0x3e6b933e	0.23005387
64	0xbe3c1fc1	-0.18371488
65	0x3e74ff47	0.23925506
66	0x3e5d79af	0.2162845
67	0xbe1c39d7	-0.15256439
68	0x3c555f75	0.013023247
69	0x3e3ec34e	0.1862919
70	0x3e540aca	0.2070724
71	0xbcf66c15	-0.030080834
72	0x3e1556d4	0.14583904
73	0x3dc9d5dd	0.09855244
74	0xbc7ed45b	-0.015553559
75	0xbd863ec9	-0.06554944
76	0xbe21c59c	-0.15798038
77	0xbd90f77f	-0.07078456
78	0x3e508b31	0.20365597
79	0x3b8c89be	0.004288881
80	0xbde23f59	-0.11047239
81	0xbdd860f3	-0.105653666
82	0x3e1c4a71	0.15262772
83	0xbd30f53f	-0.043202635
84	0x3e8c69ea	0.27424556
85	0x3d59ee77	0.053205933
86	0x3e52bf82	0.20580867
87	0xbdac7915	-0.08421532
88	0xbddd3869	-0.10801775
89	0xbd082d45	-0.033246297
90	0x3e3416b4	0.17586786
91	0x3e5ae11c	0.21374935
92	0xbcbfac49	-0.023397582
93	0x3c92678a	0.017871637
94	0x3e17ab5f	0.14811467
95	0xbe50b206	-0.2038041
96	0x3de93442	0.113869205
97	0xbe37ab85	-0.17936523
98	0xbd60d2af	-0.054888424
99	0x3e74a6c4	0.23891741
100	0xbda86174	-0.08221713
101	0x3e2ee9f2	0.1708143
102	0xbe7b64d9	-0.24550189
103	0x3e3caaeb	0.18424575
104	0xbd570e63	-0.052503955
105	0xbe778e9f	-0.241755
106	0x3e995f47	0.29955503
107	0xbea62309	-0.32448605
108	0x3d6765f6	0.056493722
109	0xbdbb31ce	-0.09140359
110	0xbd9e3286	-0.0772448
111	0x3e1a0cbd	0.15043922
112	0xbd842f5f	-0.06454348
113	0x3dfe8363	0.12427404
114	0x3e759cf2	0.23985651
115	0x3e00bbbc	0.12571615
116	0x3e3b22bd	0.1827497
117	0x3e1545da	0.14577428
118	0x3e3c7e77	0.18407618
119	0xbd1cb6be	-0.038260214
120	0xbde105f1	-0.10987461
121	0x3cd017f1	0.025402041
122	0xbd96256b	-0.07331356
123	0x3e0aaccd	0.13542481
124	0x3d9316be	0.07182072
125	0x3e9366ad	0.28789273
126	0xbe1608db	-0.14651816
127	0xbd89b048	-0.06723076
128	0xbe04487b	-0.12918274
129	0xbe948ac7	-0.2901213
130	0xbe0bb181	-0.13641931
131	0x3de96ca2	0.11397673
132	0xbe35478d	-0.17703076
133	0xbdf1d46e	-0.11808096
134	0x3dc77cdb	0.09740611
135	0xbde428a1	-0.11140562
136	0xbe584e7f	-0.21123694
137	0x3e484d67	0.19560777
138	0xbd218ab2	-0.03943891
139	0x3d7574ba	0.059925772
140	0x3dd0ec77	0.10201352
141	0x3e0fcbd2	0.14042595
142	0xbdec8649	-0.1154905
143	0xbc9e4594	-0.019320287
144	0x3dd96ed2	0.106168404
145	0xbe7c3828	-0.24630797
146	0xbda9bf5e	-0.082884535
147	0xbd21152e	-0.03932684
148	0x3d1fc0dc	0.039002284
149	0xbeb535db	-0.3539265
150	0x3eb5cf10	0.3550954
151	0xbe439617	-0.19100223
152	0xbdec449e	-0.11536525
153	0x3e40eeb8	0.18841064
154	0xbccb2712	-0.024798904
155	0xbe2a7989	-0.16647924
156	0x3dd482b6	0.10376494
157	0x3dbbe918	0.091753185
158	0xbe00ca64	-0.12577206
159	0x3e58fa7f	0.21189307
160	0x3c279fe1	0.010230989
161	0x3d05b867	0.032646563
162	0xbdd1bfd1	-0.10241664
163	0x3e2527e5	0.161285
164	0xbd83e31f	-0.06439804
165	0xbd7db6c5	-0.06194188
166	0xbde4b337	-0.11166995
167	0xbf02e672	-0.5113288
168	0x3e253767	0.16134416
169	0xbe1000de	-0.14062831
170	0xbe451cd8	-0.19249284
171	0x3d04a6d0	0.032385647
172	0x3e241534	0.16023713
173	0x3dadd51e	0.084879145
174	0x3e3616eb	0.1778218
175	0x3ddb2d73	0.10702028
176	0xbe13f211	-0.1444781
177	0xbc94ea6f	-0.018178193
178	0x3daf8ae3	0.085714124
179	0xbe84dceb	-0.25949797
180	0xbe012005	-0.1260987
181	0x3d2ea2aa	0.042635597
182	0x3da98934	0.082781225
183	0x3e0e709c	0.13910145
184	0x3e350803	0.17678837
185	0xbe042fa3	-0.12908797
186	0x3db1d4c0	0.08683157
187	0xbd363f96	-0.044494234
188	0x3def2f41	0.11678935
189	0xbdd3358b	-0.10312947
190	0x3de761bf	0.112979405
191	0xbdc2b5bb	-0.095073186
192	0xbe0bf002	-0.13665774
193	0xbdb6bf26	-0.089231774
194	0xbd6487db	-0.055793624
195	0xbe198a0a	-0.14994064
196	0xbe53506e	-0.2063615
197	0xbdfdb93f	-0.123888485
198	0x3cb5f5c3	0.022211915
199	0xbcb4a688	-0.022052065
200	0x3e10b532	0.1413162
201	0x3e14371e	0.1447415
202	0xbe60f144	-0.21967036
203	0x3d25f490	0.040516436
204	0xbd932965	-0.0718563
205	0xbe24d5af	-0.16097139
206	0xbe015fea	-0.12634245
207	0xbc02bad0	-0.00797911
208	0xbe2d580e	-0.16928121
209	0x3e65c412	0.22438076
210	0x3ce77fad	0.028259123
211	0x3dee9ed1	0.116513856
212	0xbe4d2aaa	-0.20035806
213	0x3d4e9b2f	0.050440963
214	0xbe63f1db	-0.2226023
215	0x3c8cbbe8	0.017179444
216	0xbe08434e	-0.13306925
217	0xbd5d932a	-0.054095425
218	0x3d894e11	0.06704343
219	0xbd4aa19b	-0.049470525
220	0x3d9b5c00	0.07585907
221	0x3e746283	0.23865704
222	0x3d6e77c0	0.05821967
223	0xbe34ca72	-0.17655352
224	0x3e4d3027	0.200379
225	0x3d149615	0.036275942
226	0xbce69a87	-0.028149856
227	0xbe33e43a	-0.1756753
228	0x3c544cd9	0.012957775
229	0x3e159cd3	0.14610605
230	0x3e82cb59	0.25545767
231	0x3dce0182	0.10058881
232	0xbdd67166	-0.10470848
233	0xbe73bcbd	-0.23802467
234	0x3de85d62	0.11345936
235	0xbe08cc12	-0.13359097
236	0x3c89af17	0.016807122
237	0x3e447109	0.19183744
238	0x3dcbaebe	0.09945439
239	0xbe5597ea	-0.20858732
240	0xbe12861c	-0.14308971
241	0xbe310854	-0.17288333
242	0xbea61e08	-0.32444787
243	0x3d13c6a9	0.03607813
244	0x3db71d73	0.08941164
245	0x3e294607	0.1653062
246	0x3df02059	0.1172492
247	0x3b4c5794	0.003118013
248	0x3de03c44	0.10948995
249	0x3e0e7803	0.13912968
250	0x3d44407f	0.04791307
251	0xbe8bc05a	-0.2729519
252	0xbe4b6be8	-0.19865382
253	0x3e541fd8	0.20715272
254	0x3d30828d	0.043093253
255	0x3dc6c0bc	0.0970473

feat_proj.bias f4 [128]
0	0x3e10bdaa	0.14134851
1	0xbdf6709f	-0.120331995
2	0xbd8d5e3e	-0.06902741
3	0x3d80db91	0.06291879
4	0xbcae4de9	-0.021277385
5	0x3da775cc	0.08176765
6	0xbd0a6220	-0.033784986
7	0x3e27cf28	0.16387618
8	0x3b47c735	0.0030483727
9	0xbdd40e3f	-0.1035428
10	0x3dfce361	0.123480566
11	0xbde29e50	-0.11065352
12	0x3b2b615d	0.0026150562
13	0x3e0213f2	0.12702921
14	0xbe129a7f	-0.14316748
15	0xbe292676	-0.16518578
16	0xbd0b5cbf	-0.034023996
17	0xbe0ca592	-0.13735035
18	0xbe03dd2a	-0.12877336
19	0x3dad1d04	0.084528
20	0x3db0b491	0.0862819
21	0x3d6103f6	0.054935418
22	0x3df7563c	0.12076995
23	0x3e09a607	0.1344224
24	0xbd00ad7c	-0.031415448
25	0x3e0e7cf2	0.1391485
26	0x3e1b5a8a	0.15171257
27	0xbe416477	-0.1888598
28	0x3b90dfe7	0.0044212225
29	0xbd8177a4	-0.06321648
30	0xbdeff37b	-0.11716362
31	0xbdbf1cdd	-0.09331677
32	0xbceab579	-0.028650986
33	0x3d745e60	0.059660316
34	0xbc8e5d06	-0.017378341
35	0xbc90991e	-0.017651137
36	0xbe0d48e4	-0.13797337
37	0xbe150ae2	-0.14554933
38	0xbccd6520	-0.025072634
39	0x3daddae4	0.08489016
40	0xbe1322c6	-0.14368734
41	0xbcbd1f7d	-0.023086304
42	0xbd9d3ca4	-0.07677582
43	0x3e17dbac	0.14829892
44	0xbda27127	-0.07931738
45	0x3d43140f	0.04762655
46	0xbe0b3fd4	-0.13598567
47	0x3e2b5ac2	0.1673384
48	0xbdecbc8e	-0.115594015
49	0x3d18ab9c	0.037273034
50	0xbdc52b76	-0.0962743
51	0x3cfdf169	0.030998902
52	0x3e00d064	0.12579495
53	0x3e0746df	0.13210629
54	0x3d966448	0.07343346
55	0xbd3c807d	-0.046020973
56	0x3c8a50a1	0.01688415
57	0xbd370e3a	-0.044691302
58	0x3e391efd	0.18078227
59	0x3dcb56b5	0.099286474
60	0xbda3f934	-0.08006516
61	0xbd2f077e	-0.042731754
62	0x3e3d909b	0.18512194
63	0xbe18cbf2	-0.14921549
64	0x3d91ddf0	0.07122409
65	0x3b8e2fc6	0.004339191
66	0xbe3fb24b	-0.18720357
67	0x3e25ec40	0.16203403
68	0x3e339d96	0.17540583
69	0xbd446a48	-0.04795292
70	0x3d99d8ee	0.07512079
71	0x3e0b5072	0.13604906
72	0xbcaf9140	-0.021431565
73	0xbd97eb8e	-0.07417975
74	0x3bd72951	0.0065662046
75	0xbdc80630	-0.09766805
76	0x3c27b0de	0.0102350395
77	0xbe26bbb4	-0.1628254
78	0x3e2ba9e3	0.16764025
79	0x3e017649	0.12642778
80	0xbe2bee90	-0.16790223
81	0xbcbe77a2	-0.023250405
82	0x3cdca4a0	0.026933968
83	0xbc886e47	-0.016654147
84	0xbced6443	-0.028978473
85	0x3d66f2f6	0.05638405
86	0x3e65fdc5	0.22460087
87	0x3d93cd9e	0.07216953
88	0x3d90c4c6	0.070687816
89	0xbd036f5b	-0.03208862
90	0xbd85d415	-0.06534592
91	0x3dfe66bb	0.12421938
92	0xbc66b933	-0.014082241
93	0x3d9b00bf	0.07568502
94	0x3df17660	0.11790156
95	0xbe2526b7	-0.1612805
96	0x3d289e6a	0.0411667
97	0x3d99d388	0.075110495
98	0x3c164088	0.009170659
99	0x3dc7e351	0.09760154
100	0x3d537f25	0.051634926
101	0xbe42c157	-0.19019066
102	0xbda1a04e	-0.07891904
103	0xbded67a4	-0.115920335
104	0x3dc0db81	0.09416867
105	0x3da5f600	0.081035614
106	0x3e29eadb	0.16593497
107	0xbdc41a41	-0.0957532
108	0xbe2c7e35	-0.16845019
109	0x3dfbcc01	0.1229477
110	0x3bb511e9	0.0055258167
111	0x3e3445ae	0.17604706
112	0xbe18e705	-0.14931877
113	0x3e00cd62	0.12578347
114	0xbdbe3b17	-0.09288614
115	0x3e4371c6	0.1908637
116	0xbcc0efd9	-0.023551868
117	0xbe067547	-0.13130675
118	0x3dccce42	0.10000278
119	0xbe0bd758	-0.13656366
120	0xbd6481ca	-0.05578784
121	0x3d0d8c1e	0.034557454
122	0x3dbd7884	0.09251502
123	0xbcc4e910	-0.024036914
124	0x3e0a751f	0.1352124
125	0xbd9e86ac	-0.0774053
126	0xbd4f9541	-0.05067945
127	0xbe126d14	-0.14299423

local1.conv.bias f4 [128]
0	0x3bd57284	0.0065138955
1	0xbc4593a6	-0.012059128
2	0x3cd494d6	0.025949877
3	0xbb21a3f9	-0.0024664386
4	0x3c68336b	0.014172415
5	0x3c48525c	0.012226667
6	0xbc7022c4	-0.014656726
7	0x3b41ca3f	0.002957001
8	0xbc9ae86f	-0.018909661
9	0x3b4903b7	0.003067238
10	0x3c37ea8d	0.011225355
11	0xbcbc6f38	-0.023002252
12	0xbc302279	-0.010750406
13	0x3c96cf31	0.018409343
14	0x3b5d875f	0.0033802611
15	0x3d0007d5	0.03125747
16	0x3ca5ead0	0.020253569
17	0x3b409c51	0.0029390047
18	0xbbccff72	-0.0062560374
19	0xbb6a1bad	-0.0035722062
20	0x3cb552c9	0.022134202
21	0xbc268b4e	-0.010165049
22	0x3c93b46c	0.018030368
23	0xbb820990	-0.003968425
24	0x3bca3e7f	0.006172001
25	0xbcd2fc4d	-0.025755072
26	0x3d86f61e	0.06589912
27	0xbcb0f18f	-0.02159956
28	0xbb124698	-0.002231991
29	0xbbe6366d	-0.007025531
30	0x3c220c5d	0.009890643
31	0xbc8dd7d3	-0.017314827
32	0x3c703628	0.014661349
33	0xbc817fe4	-0.015808053
34	0x3ba6e890	0.0050936416
35	0x3beca070	0.007221274
36	0x3ccf3fd0	0.025298983
37	0x3c99c210	0.018769294
38	0x3cf5de6e	0.03001329
39	0x3cbf2d9a	0.023337174
40	0xbb858f24	-0.0040759016
41	0x3c1a2e77	0.009410492
42	0x3c332fd7	0.010936699
43	0x3ca628f1	0.020283194
44	0xbc0459e3	-0.008078071
45	0x3bc91bc7	0.0061373445
46	0x3c8e40e8	0.017364934
47	0x3ca78709	0.020450132
48	0x3c9cc782	0.019138101
49	0xba284b8f	-0.00064199505
50	0xbae7579a	-0.0017650009
51	0xbc699c97	-0.014258525
52	0x3bce84ad	0.0063024373
53	0xbcab5b60	-0.020917594
54	0xbb5562a0	-0.0032560006
55	0xbb32a2a3	-0.0027257584
56	0x3c901966	0.017590236
57	0x3cd0cec8	0.025489226
58	0x3b87e018	0.004146587
59	0x3c2190e7	0.009861208
60	0xbb99f702	-0.004698635
61	0x3b8f0c45	0.0043654763
62	0xbb317e63	-0.002708339
63	0xbbe3b1a6	-0.0069486676
64	0x3ce2d19e	0.027687844
65	0x3caf7f10	0.021422893
66	0x3c8a3e17	0.01687531
67	0x3c965443	0.018350726
68	0x3c098d0f	0.008395447
69	0x3c090091	0.008361951
70	0xbc182bde	-0.0092878025
71	0xbc841206	-0.016121875
72	0xbc595561	-0.013264985
73	0x3ba32ea2	0.0049799243
74	0x3bdc6d76	0.006726916
75	0xbab41f1f	-0.0013742185
76	0xbd0f311d	-0.034958947
77	0xbbc6bea8	-0.0060652085
78	0x3be04333	0.0068439483
79	0xb9373aee	-0.00017474193
80	0xbcdf1f42	-0.027236585
81	0x39370604	0.00017454481
82	0x3bcbbbbf	0.0062174494
83	0xbb491623	-0.003068336
84	0xbc74a983	-0.014932993
85	0xbcb62c42	-0.0222379
86	0x3c0b09c2	0.008486213
87	0x3cb78b9f	0.022405444
88	0x3b19b18e	0.0023451778
89	0x3d0555f7	0.032552686
90	0x3c3930d0	0.011303142
91	0xbbc7ecf4	-0.006101245
92	0xbb87763e	-0.0041339686
93	0xbc72c919	-0.014818453
94	0xbc1faa26	-0.009745156
95	0x3c288b8a	0.010287175
96	0x3bd3f682	0.006468595
97	0xbca81256	-0.020516556
98	0x3c99599a	0.018719483
99	0x3bbf9ad0	0.0058473125
100	0xb9a2f712	-0.0003108313
101	0xbce4d170	-0.027931899
102	0x3a8d2695	0.0010768945
103	0x3cb793e9	0.022409396
104	0x3ce84624	0.028353758
105	0x3b589348	0.003304677
106	0xbc051862	-0.008123489
107	0xbc0d5f53	-0.008628684
108	0x3c739c87	0.014868862
109	0x3c39659c	0.0113157295
110	0x3c465680	0.012105584
111	0x3c765290	0.015034333
112	0x3cec3286	0.028832685
113	0x3c9577f1	0.01824567
114	0x3c8ac835	0.01694117
115	0xbc9cd752	-0.019145641
116	0x3b61fbac	0.0034482284
117	0x3c762f6d	0.015025956
118	0x3c94b665	0.018153379
119	0x3c015a63	0.007895085
120	0xbc0010e9	-0.007816532
121	0x3ce8429f	0.02835208
122	0xbc985e11	-0.018599542
123	0x3bfcd389	0.0077156466
124	0x3c50b133	0.01273756
125	0x3d0da7ec	0.03458397
126	0x3c0dbe5f	0.008651345
127	0xbc5817c8	-0.013189264

local1.conv.lin.weight f4 [128, 128]
0	0xbd54b41e	-0.051929586
1	0x3df104c6	0.117684886
2	0xbe318f5a	-0.1733984
3	0xbde4861c	-0.11158392
4	0xbe0b6340	-0.1361208
5	0x3e1e8c4c	0.15483207
6	0xbc931746	-0.017955434
7	0xbd1baad3	-0.038004708
8	0x3b9c181d	0.0047636167
9	0xbda29d98	-0.07940215
10	0x3c284f0a	0.010272751
11	0xbdf4c3af	-0.11951386
12	0xbcb1c7ec	-0.021701775
13	0x3d6433b9	0.05571339
14	0xbd54a1b6	-0.051912032
15	0x3ddb7c2e	0.10717045
16	0x3c61c00d	0.013778699
17	0xbd021bd7	-0.03176483
18	0x3d04ab51	0.032389943
19	0xbe068250	-0.13135648
20	0x3e23948b	0.15974633
21	0x3db31933	0.08745041
22	0xbdee6948	-0.116411746
23	0xbdc2f762	-0.09519841
24	0xbd9b16fb	-0.075727426
25	0xbd290339	-0.04126284
26	0xbd509ee4	-0.05093278
27	0xbcd2dcdc	-0.02574008
28	0x3e3d8b50	0.18510175
29	0x3dfeb81b	0.12437459
30	0x3e1266c3	0.14297013
31	0xbcf50574	-0.029909827
32	0xbe4697f7	-0.19393907
33	0x3de7bdfe	0.11315535
34	0x3df3d7b0	0.119063735
35	0xbdf07881	-0.11741734
36	0x3d9af2e5	0.0756586
37	0xbdc24e53	-0.094875954
38	0xbd6e3716	-0.058158003
39	0x3cd0ef16	0.02550463
40	0x3cfca3d4	0.030839838
41	0x3c8e8c73	0.017400956
42	0x3e04afbc	0.12957662
43	0xbe037a94	-0.12839729
44	0xbdf0777c	-0.1174154
45	0xbddd6cd6	-0.108117744
46	0x3d951fe2	0.07281472
47	0x3ce90c87	0.028448356
48	0xbd6ac314	-0.057314947
49	0xbd8d8909	-0.06910903
50	0xbdf9464a	-0.1217161
51	0x3e33b449	0.17549242
52	0xbde5de8f	-0.1122409
53	0x3e14f1df	0.14545391
54	0x3d6f2bb1	0.058391277
55	0xbdf11b74	-0.117728144
56	0xbdd21711	-0.10258306
57	0xbcdfb5ef	-0.027308432
58	0x3e0259f5	0.12729628
59	0x3d168731	0.036750022
60	0xbc3dcdd5	-0.011584719
61	0xbe1e1249	-0.15436663
62	0x3cbd8975	0.023136834
63	0x3df1561c	0.11784002
64	0xbdfc11f8	-0.12308115
65	0x3de461ca	0.11151464
66	0xbdea7698	-0.11448401
67	0x3df8930c	0.12137422
68	0x3e481838	0.19540489
69	0x3c0066cd	0.00783701
70	0x3d012cd1	0.03153688
71	0xbad3ee66	-0.0016169071
72	0x3b922462	0.0044599036
73	0xbda46ae0	-0.08028197
74	0xbd225645	-0.039633054
75	0xbe0797d7	-0.13241516
76	0xbceeef7f	-0.029166935
77	0x3c2b6914	0.010462064
78	0x3e392e7d	0.1808414
79	0xbddb4a9c	-0.1070759
80	0xbe145ff3	-0.14489727
81	0x3c942dd0	0.018088251
82	0x3e120527	0.14259778
83	0xbca3f3c0	-0.02001369
84	0x3d195515	0.037434656
85	0x3d119aa3	0.035547864
86	0x3d2d9fc4	0.042388692
87	0x3e151e6c	0.14562386
88	0xbda6eaf4	-0.081502825
89	0xbdaa915c	-0.08328506
90	0x3e3e435a	0.1858038
91	0x3d86e39f	0.06586384
92	0xbd769c1c	-0.06020747
93	0x3d511b37	0.051051345
94	0x3e2074d7	0.15669571
95	0x3d87ad03	0.06624796
96	0x3db8ef92	0.090300694
97	0xbe242a46	-0.16031751
98	0xbe3cf07e	-0.18451115
99	0xbe23c276	-0.1599215
100	0xbdb014cf	-0.08597719
101	0xbd9e66d0	-0.07734454
102	0x3d17a1ab	0.037019413
103	0xbd94330a	-0.072362974
104	0xbd9ff551	-0.07810462
105	0xbde226ff	-0.11042594
106	0x3d03f31e	0.032214276
107	0x3d926771	0.07148636
108	0x3da01d2e	0.078180656
109	0xbd726619	-0.0591794
110	0xbd02fef7	-0.031981435
111	0xbd745dbe	-0.059659712
112	0x3e004496	0.12526163
113	0xbd937626	-0.072002694
114	0xbd892e58	-0.066982925
115	0x3ca514a3	0.020151442
116	0xbdcfebdf	-0.10152411
117	0x3df3e674	0.1190919
118	0xbcbb3cb9	-0.022856103
119	0x3ce31f54	0.0277249
120	0x3dfc47b6	0.12318365
121	0xbe27284a	-0.16323963
122	0xbc7b16eb	-0.015325288
123	0x3d65c358	0.056094497
124	0xbd8dc8c7	-0.06923061
125	0x3d2572f2	0.040392824
126	0xbdc0fa2c	-0.094227165
127	0x3dac469d	0.08411906
128	0xbdd4c728	-0.103895485
129	0xbd965eac	-0.07342276
130	0xbd852e22	-0.0650294
131	0xbe1befdb	-0.15228216
132	0x3d4d65ed	0.050146032
133	0x3d3f0324	0.046633855
134	0xbd755777	-0.059897866
135	0x3d1839a4	0.037164345
136	0x3e0018d3	0.1250947
137	0x3d3937cf	0.04521924
138	0xbc207574	-0.009793628
139	0x3e3b880d	0.18313618
140	0x3d73656b	0.05942289
141	0x3dd060de	0.10174726
142	0x3df74186	0.120730445
143	0xbda9e8a5	-0.082963265
144	0x3ad5f497	0.0016323504
145	0xbda55f21	-0.08074785
146	0x3dd94707	0.106092505
147	0x3dfeefb1	0.12448061
148	0x3d020b19	0.031748865
149	0xbde98e01	-0.11404038
150	0xbe39d74a	-0.18148533
151	0xbd3a6e3f	-0.045515295
152	0x3d76d3a7	0.06026044
153	0xbe070d52	-0.13188675
154	0xbd5381f6	-0.051637612
155	0xbda70f62	-0.08157231
156	0x3de10530	0.109873176
157	0x3e22f495	0.15913613
158	0xbdef834f	-0.11694967
159	0x3e40cd01	0.18828203
160	0x3cacc9c5	0.021092305
161	0x3d9a6579	0.075388856
162	0xbe0bd9a8	-0.13657248
163	0x3db34695	0.08753697
164	0x3c0f0857	0.008730016
165	0xbd449c8a	-0.04800085
166	0xbcddf4da	-0.027094293
167	0x3c7e556e	0.015523298
168	0x3e0f244e	0.13978693
169	0x3e05e598	0.13075864
170	0xbced9930	-0.02900371
171	0xbd2d0f20	-0.042250752
172	0xbe06eb04	-0.13175589
173	0xbde988a2	-0.11403014
174	0x3e262681	0.16225626
175	0xbc1bccc7	-0.009509272
176	0x3bdf327e	0.006811439
177	0xbe3466a6	-0.17617282
178	0xbd8a3974	-0.067492396
179	0xbc1c289d	-0.009531167
180	0x3bf51639	0.007479456
181	0xbdb3225f	-0.0874679
182	0xbdbe35ae	-0.09287582
183	0xbc632f5d	-0.013866273
184	0x3dcac467	0.09900742
185	0xbda15196	-0.078768894
186	0xbe337e0e	-0.17528555
187	0x3e1250e8	0.14288676
188	0x3d1f0fb2	0.038833328
189	0x3e2d3de3	0.16918139
190	0xbe1b8d27	-0.15190564
191	0xba7d6d78	-0.0009667496
192	0x3d2f62ea	0.04281894
193	0x3d874457	0.06604832
194	0x3d8a178a	0.06742771
195	0xbdb0838e	-0.08618842
196	0x3d5310fa	0.051529862
197	0xbe17b294	-0.14814216
198	0xbe0462b3	-0.12928276
199	0x3dca3761	0.09873844
200	0x3dca8541	0.098886974
201	0xbd3af03d	-0.045639265
202	0xbddaa195	-0.106753506
203	0xbe02404f	-0.12719844
204	0xbd0afeaf	-0.03393429
205	0xbbffd568	-0.0078074224
206	0xbd3004a1	-0.042973164
207	0x3d45c2b6	0.048281394
208	0xbd008def	-0.03138536
209	0x3c7017f1	0.014654146
210	0x3e184a22	0.1487203
211	0x3d22c591	0.039739195
212	0xbd935d2e	-0.07195507
213	0xbd8bf71c	-0.06834242
214	0x3e14c18e	0.1452696
215	0xbd92e3d8	-0.07172364
216	0x3dc80529	0.09766609
217	0x3d854083	0.06506445
218	0xbe2483a2	-0.16065839
219	0x3d99ac62	0.075035825
220	0xbd36c18e	-0.044618182
221	0x3dcdc710	0.10047734
222	0x3c80e691	0.015734943
223	0x3ce1d397	0.027566714
224	0xbe2734a8	-0.1632868
225	0xbdb3ee50	-0.08785689
226	0xbe35bbac	-0.17747372
227	0xbd851e71	-0.06499947
228	0x3e0f33c6	0.13984594
229	0xbe288031	-0.16455151
230	0xbe085039	-0.13311853
231	0xbe20f82f	-0.15719675
232	0xbde01c91	-0.109429486
233	0x3da1a28c	0.078923315
234	0x3d42e2ff	0.04757976
235	0xbddef06a	-0.10885699
236	0x3dd69278	0.104771554
237	0x3e0afabd	0.13572212
238	0x3dbfedee	0.09371553
239	0x3d79176a	0.060813345
240	0xbe03526a	-0.12824407
241	0xbd7bf31e	-0.06151115
242	0x3e2c9a3f	0.16855715
243	0xbdd368c7	-0.10322719
244	0xbc23c0b7	-0.009994677
245	0xbd919b62	-0.07109715
246	0xbd963392	-0.07334055
247	0xbe0edeec	-0.13952225
248	0x3e30bdcc	0.17259902
249	0xbdacfad9	-0.08446283
250	0xbce3bf5f	-0.027801214
251	0x3c856c21	0.016286911
252	0x3e23f4dc	0.16011375
253	0x3d3ce643	0.046118032
254	0xbc1b6c6b	-0.009486298
255	0x3d8e8e9d	0.06960795

local1.norm.weight f4 [128]
0	0x3f836621	1.0265542
1	0x3f869bdb	1.0516313
2	0x3f813178	1.0093222
3	0x3f81c856	1.0139263
4	0x3f87a7e0	1.0598106
5	0x3f7dde33	0.99167174
6	0x3f84cd65	1.0375181
7	0x3f8aea07	1.085267
8	0x3f8aa621	1.0831949
9	0x3f765de9	0.96237046
10	0x3f86153b	1.0475229
11	0x3f8116d3	1.008509
12	0x3f8934c3	1.0719227
13	0x3f839505	1.0279852
14	0x3f74e504	0.9566195
15	0x3f7edc50	0.9955492
16	0x3f6a3ef9	0.9150234
17	0x3f7c5551	0.9856768
18	0x3f872e0f	1.0560931
19	0x3f79d45b	0.97589654
20	0x3f7301f8	0.9492488
21	0x3f7a6960	0.9781704
22	0x3f76bf53	0.9638569
23	0x3f8c5b36	1.0965335
24	0x3f7df149	0.99196297
25	0x3f8c6dc0	1.0970993
26	0x3f856903	1.0422672
27	0x3f825874	1.0183244
28	0x3f865441	1.0494462
29	0x3f7ff24b	0.99979085
30	0x3f6e389b	0.93055123
31	0x3f8df9db	1.1091875
32	0x3f7da13b	0.99074143
33	0x3f8a8262	1.082104
34	0x3f6e55b2	0.9309951
35	0x3f7ff143	0.9997751
36	0x3f8aaabf	1.0833358
37	0x3f718ae3	0.9435255
38	0x3f78c50b	0.97175664
39	0x3f7362b4	0.95072484
40	0x3f7bf8b0	0.9842634
41	0x3f772ed7	0.96555847
42	0x3f74d401	0.9563599
43	0x3f7e21e2	0.9927045
44	0x3f74cf69	0.9562898
45	0x3f8494d9	1.0357925
46	0x3f724e51	0.9465075
47	0x3f7d9c6d	0.9906681
48	0x3f6bfc40	0.9218178
49	0x3f85c57a	1.045089
50	0x3f8266aa	1.018758
51	0x3f7d98ec	0.99061465
52	0x3f8569d6	1.0422924
53	0x3f836f21	1.0268289
54	0x3f83b184	1.0288548
55	0x3f838bc2	1.0277026
56	0x3f7cc11b	0.98732156
57	0x3f6631cf	0.8991975
58	0x3f7048a7	0.9386086
59	0x3f7fd850	0.9993944
60	0x3f7c0303	0.98442096
61	0x3f7176cc	0.94321895
62	0x3f839fed	1.028318
63	0x3f853f1f	1.0409888
64	0x3f81abb4	1.0130525
65	0x3f6bd16f	0.92116445
66	0x3f769fe7	0.9633774
67	0x3f5efb86	0.87102544
68	0x3f79d96b	0.9759738
69	0x3f74d2cc	0.9563415
70	0x3f823cd9	1.0174819
71	0x3f84ab2f	1.0364741
72	0x3f8db57f	1.1071013
73	0x3f7c6047	0.9858441
74	0x3f7e07ef	0.99230856
75	0x3f835eb5	1.0263277
76	0x3f8af29d	1.085529
77	0x3f899ce3	1.0751003
78	0x3f6e5417	0.9309706
79	0x3f7c73ff	0.98614496
80	0x3f84ad19	1.0365325
81	0x3f7cc100	0.98731995
82	0x3f71b7ee	0.9442128
83	0x3f843ee3	1.0331692
84	0x3f745d94	0.9545529
85	0x3f8e36ff	1.1110533
86	0x3f7cea8a	0.9879538
87	0x3f737735	0.9510377
88	0x3f7cf5f9	0.98812824
89	0x3f85e028	1.0459032
90	0x3f7a4a11	0.97769266
91	0x3f875b3e	1.057472
92	0x3f80ed03	1.007233
93	0x3f8ebc99	1.1151305
94	0x3f7fbde1	0.9989911
95	0x3f79a0b1	0.9751082
96	0x3f8bbfcb	1.0917906
97	0x3f81de6c	1.0146003
98	0x3f6f2bcb	0.934262
99	0x3f825f11	1.0185262
100	0x3f787a46	0.97061574
101	0x3fa3a7e1	1.2785608
102	0x3f7832bf	0.9695243
103	0x3f79d831	0.97595507
104	0x3f72ed74	0.94893575
105	0x3f83fb2c	1.0311027
106	0x3f70a46a	0.94000876
107	0x3f8067fa	1.0031731
108	0x3f7e907a	0.99439204
109	0x3f7b3e5f	0.98142046
110	0x3f7e3ff4	0.99316335
111	0x3f74b42e	0.9558743
112	0x3f81851b	1.0118746
113	0x3f76cc6d	0.9640568
114	0x3f815233	1.010321
115	0x3f829173	1.0200638
116	0x3f77863f	0.9668922
117	0x3f7e811b	0.9941575
118	0x3f757523	0.9588186
119	0x3f75d99e	0.9603518
120	0x3f8d303f	1.1030349
121	0x3f6f7f3a	0.9355351
122	0x3f886ca4	1.0658154
123	0x3f7a7cec	0.97846866
124	0x3f6381a0	0.8886967
125	0x3f6fb1a7	0.9363045
126	0x3f7d8d48	0.99043703
127	0x3f815ef8	1.0107107

local1.norm.bias f4 [128]
0	0xbd46e812	-0.048561163
1	0xbcc90bf6	-0.024541836
2	0xbdc34b85	-0.095358886
3	0xbdc4b55b	-0.09604903
4	0xbdfb814b	-0.1228052
5	0xbd9b7e3a	-0.07592435
6	0xbdc0dce3	-0.09417131
7	0xbdd07a85	-0.10179619
8	0xbde68438	-0.112556875
9	0xbd45db4c	-0.04830484
10	0xbda8c411	-0.08240522
11	0xbd98e364	-0.07465246
12	0xbd709122	-0.05873216
13	0xbd3b9854	-0.04579957
14	0xbdd3a9c7	-0.10335117
15	0xbda91334	-0.08255616
16	0xbddc5886	-0.10759072
17	0xbd8c5eb6	-0.06854002
18	0xbd3acc68	-0.045605093
19	0xbd96918e	-0.07351981
20	0xbd56d012	-0.052444525
21	0xbd603838	-0.054741114
22	0xbdae9799	-0.08525009
23	0xbc95f4d6	-0.018305223
24	0xbdd7bdf1	-0.10534275
25	0xbda2c93f	-0.07948541
26	0xbe08f6b7	-0.13375364
27	0xbd9fc0e4	-0.07800463
28	0xbd18f1f5	-0.037340123
29	0xbe151d58	-0.14561975
30	0xbe152359	-0.14564265
31	0xbd2ff4ca	-0.04295806
32	0xbdc1aa87	-0.09456354
33	0xbd3f6a47	-0.046732213
34	0xbdf01b8b	-0.117240034
35	0xbdc385cf	-0.09547006
36	0xbca3bab6	-0.019986492
37	0xbe512e25	-0.20427759
38	0xbdeab897	-0.11460989
39	0xbe099431	-0.13435437
40	0xbdb46a88	-0.08809382
41	0xbdb84e87	-0.08999353
42	0xbde519df	-0.11186575
43	0xbd4d2d58	-0.05009207
44	0xbdbdcbb3	-0.09267368
45	0xbd3d96aa	-0.046286263
46	0xbda60079	-0.08105559
47	0xbda50030	-0.080566764
48	0xbdfc5e91	-0.123227246
49	0xbdbfe540	-0.09369898
50	0xbdb4838f	-0.08814155
51	0xbdb2fc59	-0.08739538
52	0xbd7f1075	-0.062271554
53	0xbdbd2115	-0.092348255
54	0xbdbe7ec5	-0.09301523
55	0xbd6fa844	-0.05851008
56	0xbdcb99d0	-0.09941447
57	0xbe0077a4	-0.1254564
58	0xbd866781	-0.065627106
59	0xbdd04623	-0.101696275
60	0xbd9b82a4	-0.07593277
61	0xbdb6167a	-0.08891006
62	0xbcd25182	-0.025673632
63	0xbdb09f70	-0.0862416
64	0xbd8e98cc	-0.069627374
65	0xbddf5bab	-0.10906156
66	0xbdcc7e65	-0.09985045
67	0xbe1ea029	-0.15490784
68	0xbda12452	-0.07868256
69	0xbe0e5fa1	-0.13903667
70	0xbdc5b11b	-0.09652921
71	0xbd4fa608	-0.05069545
72	0xbd73dfc9	-0.05953959
73	0xbd7a0dbd	-0.061048258
74	0xbd3dd2cb	-0.046343606
75	0xbd8f7187	-0.070040755
76	0xbd397723	-0.045279633
77	0xbd8fdf43	-0.07025006
78	0xbde612d3	-0.11234059
79	0xbdb39d51	-0.0877024
80	0xbd84dd38	-0.06487507
81	0xbd6b8b19	-0.0575057
82	0xbe022cdc	-0.12712425
83	0xbdad7ac3	-0.084706806
84	0xbddc8953	-0.1076838
85	0xbd03de98	-0.032194704
86	0xbd9911d3	-0.07474103
87	0xbda62197	-0.081118755
88	0xbdd6e953	-0.10493722
89	0xbd038b2b	-0.032115143
90	0xbd636be3	-0.05552281
91	0xbd73557b	-0.059407692
92	0xbd54e132	-0.051972575
93	0x3a4df4ac	0.00078565883
94	0xbd8d9fc2	-0.06915237
95	0xbdd990e4	-0.10623339
96	0xbd9ba890	-0.0760051
97	0xbd9cf270	-0.07663429
98	0xbde5caa0	-0.11220288
99	0xbde7f283	-0.11325552
100	0xbde72a3a	-0.11287351
101	0xbdc1a7fb	-0.09455868
102	0xbdbbf109	-0.09176833
103	0xbda6ce20	-0.08144784
104	0xbdb36ae3	-0.087606214
105	0xbd81acd7	-0.06331795
106	0xbdf7a802	-0.12092592
107	0xbdca6d71	-0.098841555
108	0xbc6537fd	-0.013990399
109	0xbd85942b	-0.065224014
110	0xbddf91c1	-0.10916472
111	0xbdd08bd7	-0.10182922
112	0xbc2ed2d4	-0.0106703825
113	0xbdc618cb	-0.09672698
114	0xbd13a98f	-0.036050376
115	0xbdb5af51	-0.088713296
116	0xbde580f6	-0.11206238
117	0xbce8ceca	-0.028418917
118	0xbde05f6e	-0.10955702
119	0xbd8d955b	-0.06913253
120	0xbda64a6f	-0.08119666
121	0xbdb18592	-0.08668055
122	0xbdce9f2a	-0.10088952
123	0xbe030206	-0.1279374
124	0xbe0bd648	-0.1365596
125	0xbe19a9f9	-0.15006246
126	0xbd9e39c1	-0.077258594
127	0xbd8114a3	-0.06302764

local2.conv.bias f4 [128]
0	0x3bdd11fc	0.0067465287
1	0xbab4a5d5	-0.0013782332
2	0xbdea6f5f	-0.114470236
3	0x3b332fd9	0.0027341752
4	0xbc7df9fc	-0.015501495
5	0x3b85412a	0.004066606
6	0x3b74556b	0.0037282358
7	0x3b8b1d7e	0.004245459
8	0x3b197a7f	0.002341896
9	0xb9a52140	-0.00031496026
10	0xbba41239	-0.005007055
11	0x3b7dd636	0.0038732416
12	0x3c637088	0.01388181
13	0x3b18d21c	0.0023318594
14	0x3abdd032	0.0014481603
15	0x3aa21f93	0.0012369029
16	0x3afac2d9	0.0019131555
17	0x3adf5e94	0.0017041736
18	0x3b0fff6f	0.0021972319
19	0xba7a67f7	-0.0009552235
20	0x3b45b5b0	0.0030168109
21	0x3b26e22d	0.00254644
22	0x3b78b0a7	0.003794709
23	0x3c510c47	0.012759275
24	0x3c99dfb7	0.018783433
25	0x3b2acdac	0.0026062531
26	0x3aedbc4d	0.0018137783
27	0x39fe8f9a	0.00048553647
28	0x3ae588a4	0.0017512036
29	0x3b3b6b5c	0.0028597927
30	0x3b05da05	0.002042414
31	0x3baff99e	0.005370333
32	0x3b1371a8	0.0022498164
33	0x3b01b259	0.0019790141
34	0x3b879665	0.0041378015
35	0x3b2dff4a	0.002654987
36	0x3bb09ee8	0.005390037
37	0x3aeb3171	0.0017943812
38	0xba995f8c	-0.0011701449
39	0x3bbfeb0e	0.005856878
40	0x39c7c328	0.0003810164
41	0x3aff4ddb	0.0019478159
42	0x3c526561	0.012841553
43	0x3a325244	0.00068024197
44	0xbdfe29dc	-0.12410328
45	0x3b114f38	0.0022172462
46	0x3b2d4dd5	0.0026444097
47	0xb99279a8	-0.0002793793
48	0x3c8a1944	0.01685775
49	0x3b69a791	0.0035652856
50	0x3b07150f	0.0020611917
51	0x3a7bf168	0.00096108625
52	0x3a9c213a	0.0011911758
53	0xb9887bd0	-0.0002603219
54	0x3a57697c	0.00082173175
55	0x3b1b2641	0.0023673924
56	0x3b0cc36e	0.002147879
57	0x3b5d68af	0.003378432
58	0x3b92c142	0.0044786045
59	0x3b2c0c53	0.0026252463
60	0x3aae75ec	0.001331029
61	0x3b04976d	0.0020231858
62	0x396dc9e2	0.00022677289
63	0x3acb13ea	0.0015493606
64	0x3a50cf15	0.0007965428
65	0x3c15055b	0.009095515
66	0x3b04201a	0.0020160736
67	0xbba0359a	-0.0048892023
68	0x3b6bb1fc	0.0035964241
69	0xbd8f53f4	-0.06998435
70	0x3aaac6d1	0.0013029223
71	0x3b0fc4bf	0.0021937338
72	0x3c3e3495	0.011609216
73	0x385e2776	5.2965675e-05
74	0x3b2a0c09	0.0025947115
75	0x3b950d77	0.0045487243
76	0x3bbbfec5	0.005737158
77	0x3c5839ff	0.013197421
78	0x3a3753fc	0.00069934106
79	0x3b3e9855	0.0029082496
80	0x3a9b539a	0.0011850477
81	0xbac384ab	-0.0014916857
82	0x3b086874	0.0020814212
83	0x3afe20d7	0.0019388449
84	0x3b2e016e	0.0026551145
85	0x3ad4a9d3	0.0016224928
86	0x3b97f09a	0.0046368362
87	0x3b511f61	0.0031909572
88	0x3b13c92c	0.0022550328
89	0xba0cafb3	-0.00053667574
90	0x3b2eb80f	0.002666
91	0x3b9ecb3a	0.004846004
92	0x3c21d2b5	0.009876897
93	0x3ab056bf	0.0013453587
94	0x3a54ebda	0.0008122303
95	0x3a69b237	0.0008914801
96	0x3bca02db	0.006164891
97	0x3bec9b8e	0.007220692
98	0x3a0f2ed6	0.0005461996
99	0x3aa99ac3	0.0012939799
100	0x3b58bbe5	0.0033070978
101	0x3abf319e	0.0014586931
102	0x3beac796	0.007164906
103	0x3b24fa5f	0.0025173647
104	0xbae1472c	-0.0017187349
105	0x3d99ca3a	0.07509275
106	0xb9be31ad	-0.00036276635
107	0x3b4a46a9	0.003086487
108	0x3b3b3cfe	0.002857029
109	0x3b6cea58	0.0036150422
110	0x3b1043ce	0.002201307
111	0xbb9cb4e8	-0.004782308
112	0x3b9490a6	0.004533845
113	0xbb09561b	-0.0020955864
114	0x3a5dba83	0.00084582734
115	0x3d6278a8	0.055290848
116	0x3a864de5	0.0010246603
117	0xbcac02ff	-0.020997522
118	0x393704b5	0.00017453993
119	0x3b0f8f5b	0.0021905515
120	0x3bb44bb0	0.0055021867
121	0x3c1ae160	0.009453148
122	0x3a723b3b	0.00092403934
123	0x39721947	0.00023088335
124	0x3b08ac9d	0.0020854839
125	0xbc283d6c	-0.01026855
126	0x3b77dfb5	0.0037822549
127	0x3bbb5ca9	0.005717833

local2.conv.lin.weight f4 [128, 128]
0	0xbdf93208	-0.12167746
1	0xbd9aa510	-0.075510144
2	0x3df0ff92	0.11767496
3	0x3d00b5a9	0.031423245
4	0xbd1e62ca	-0.03866843
5	0xbde2ea07	-0.110797934
6	0x3e02ea0f	0.12784599
7	0xbe1391de	-0.14411113
8	0xbc6f20af	-0.014595195
9	0x3de721d6	0.112857506
10	0xbe28e0ab	-0.16491954
11	0x3cdd109d	0.02698546
12	0x3da19336	0.078894064
13	0x3ce53f6e	0.027984347
14	0x3dd46e29	0.10372574
15	0xbe25fd4a	-0.16209903
16	0x3db3c189	0.08777148
17	0xbd61bf2d	-0.05511396
18	0x3e10b40f	0.14131187
19	0x3d4b55ea	0.04964248
20	0x3dc161b5	0.09442464
21	0x3ae1ee14	0.001723709
22	0x3d93a318	0.07208842
23	0x3d92d559	0.07169599
24	0xbc61179a	-0.013738537
25	0xbd4098ea	-0.04702083
26	0x3d1165ab	0.03549735
27	0x3e24537d	0.16047473
28	0x3e1cf33d	0.15327163
29	0xbdf442bd	-0.11926792
30	0x3dda1ca9	0.10649998
31	0xbdd12ea1	-0.10213972
32	0xbc0aff55	-0.008483727
33	0x3de92ceb	0.113855205
34	0xbd901f18	-0.07037181
35	0xbdf5db16	-0.12004678
36	0x3d0b53cf	0.034015473
37	0xbd527734	-0.051383212
38	0xbc41d61a	-0.011830831
39	0xbdb2cf95	-0.087309994
40	0x3d4bee0b	0.049787562
41	0xbe0c0ca9	-0.13676704
42	0x3dcdf771	0.10056961
43	0xbd369724	-0.044577733
44	0xbdf1ae7b	-0.11800858
45	0xbd9fe84d	-0.0780798
46	0x3cb90b62	0.022588436
47	0x3da2104a	0.07913263
48	0x3e0cc16d	0.13745661
49	0xbc5db275	-0.013531317
50	0xbdd142bb	-0.10217806
51	0xbdc4003a	-0.09570356
52	0x3b73097a	0.0037084506
53	0xbe133378	-0.14375103
54	0x3df777dc	0.12083408
55	0xbdcb4c0f	-0.099266164
56	0xbc6930be	-0.014232812
57	0x3cebddc4	0.02879227
58	0xbcb5e5c3	-0.022204285
59	0xbcf60537	-0.030031784
60	0x3d2be7ab	0.041968983
61	0x3d3cb68c	0.046072528
62	0xbe4b0e36	-0.1982964
63	0x3d75f3de	0.060047023
64	0xbb2010d0	-0.0024424084
65	0xbcba6abe	-0.022755977
66	0x3c608697	0.013703964
67	0x3cc45100	0.023964405
68	0x3d930f69	0.07180674
69	0x3db8e531	0.0902809
70	0xbdff010d	-0.12451372
71	0xbd41ef7e	-0.04734754
72	0xbd5c8b54	-0.05384381
73	0x3dfa7171	0.122286685
74	0x3e01f705	0.12691887
75	0x3e13e78c	0.14443797
76	0x3dbe4ffd	0.092926
77	0x3d2f974b	0.042868894
78	0xbe092a03	-0.13394932
79	0x3d86dc60	0.06585002
80	0xbd1eeded	-0.038801122
81	0x3d59e0f8	0.053193063
82	0xbd660fd6	-0.056167446
83	0x3c407fc5	0.011749213
84	0x3d9ea097	0.07745474
85	0x3e20d2fd	0.15705486
86	0x3d2dc649	0.042425428
87	0xbda9a624	-0.08283642
88	0x3e0ab0bb	0.1354398
89	0x3d538982	0.05164481
90	0x3cfb96cb	0.030711552
91	0xbe169fee	-0.14709446
92	0x3e2d6e14	0.16936523
93	0x3e0f6b84	0.14005858
94	0x3e08e8fd	0.13370128
95	0x3dcec65f	0.1009643
96	0xbe0f7735	-0.14010318
97	0x3da33b07	0.07970243
98	0xbd864c9d	-0.065575816
99	0x3e146ca5	0.1449457
100	0xbe0fb56b	-0.14034049
101	0x3cec2ced	0.028830016
102	0xbdb49e4f	-0.088192575
103	0xbca81e7a	-0.020522345
104	0x3e043ba9	0.12913384
105	0xbd73823a	-0.059450366
106	0x3c8ed54f	0.017435698
107	0xbdc87e2b	-0.0978969
108	0xbdba9bed	-0.09111772
109	0xbdbc8860	-0.09205699
110	0x3dac2fa2	0.08407523
111	0xbd56daf8	-0.05245492
112	0xbd830dfa	-0.0639915
113	0xbd30aeaa	-0.043135323
114	0xbda63b3f	-0.08116769
115	0x3de2b9e8	0.11070615
116	0x3dfd80f6	0.12378113
117	0xbcd7a870	-0.026325434
118	0x3cd251cf	0.025673775
119	0xbd3983d3	-0.045291733
120	0x3e00304a	0.12518421
121	0xbe20a984	-0.15689665
122	0x3dbaebfb	0.09127041
123	0x3d6a2f76	0.05717417
124	0x3d073620	0.033010602
125	0x3d0e42df	0.034731742
126	0x3dcda97c	0.10042092
127	0x3dcc6438	0.09980053
128	0x3d7dfba7	0.062007573
129	0xbd9c2103	-0.07623484
130	0xbdc3e8cb	-0.09565886
131	0x3d8a91ff	0.06766128
132	0x3dca5176	0.09878819
133	0x3dfb5ec7	0.12273937
134	0x3d1c09b5	0.038095195
135	0xbe2fb5b6	-0.17159161
136	0xbda11ea9	-0.07867176
137	0xbdf700fa	-0.12060733
138	0xbc80ae91	-0.01570824
139	0xbddd014e	-0.107912645
140	0xbdee14d7	-0.11625069
141	0xbd80cba3	-0.062888406
142	0xbd99244c	-0.07477626
143	0x3d8f4f9f	0.069976084
144	0x3d0eb8ad	0.03484409
145	0x3d7f12c4	0.062273756
146	0xbdc072cc	-0.09396896
147	0x3d8137b3	0.06309452
148	0xbcb40579	-0.021975266
149	0xbdb9a340	-0.090643406
150	0x3de73828	0.11290008
151	0x3d19f347	0.037585523
152	0xbd4dd483	-0.050251495
153	0x3e9b8173	0.303722
154	0x3d66d49c	0.056355104
155	0xbe0ded02	-0.13859943
156	0x3c9048a1	0.017612757
157	0x3c104cad	0.008807343
158	0x3e347f7d	0.17626758
159	0xbde3508a	-0.11099346
160	0xbd41ec72	-0.047344632
161	0xbe7fe581	-0.24989893
162	0x3e05e0d7	0.13074051
163	0x3e34e7bc	0.17666525
164	0xbd594dc4	-0.05305268
165	0xbc846d0a	-0.016165275
166	0x3e1f75d0	0.15572286
167	0xbe373645	-0.17891796
168	0xbd2c8b83	-0.042125236
169	0x3df4af24	0.11947468
170	0xbce39c6d	-0.02778455
171	0x3cd3989f	0.025829611
172	0x3e1f4dc4	0.15557009
173	0x3e6f0df9	0.23345174
174	0x3db139a4	0.08653572
175	0x3e218102	0.15771869
176	0x3b7ddca4	0.0038736248
177	0xbda7bf7b	-0.08190819
178	0x3c1481c7	0.009064144
179	0xbe130504	-0.14357382
180	0x3d9f5183	0.07779219
181	0x3e5385ca	0.20656505
182	0x3cfc5250	0.030800968
183	0x3cdb03b6	0.026735168
184	0xbdba9b45	-0.091116466
185	0xbd26f940	-0.040765047
186	0xbd9033d6	-0.07041137
187	0xbdd1fa0c	-0.10252771
188	0xbe3fa2be	-0.18714425
189	0x3c04e205	0.008110528
190	0x3e22c683	0.15896039
191	0xbe205314	-0.15656692
192	0xbe3022c2	-0.17200759
193	0x3d8f7c93	0.070061825
194	0xbc309c0f	-0.010779395
195	0xbc0e7999	-0.008695983
196	0x3d9c9f11	0.07647527
197	0xbe16b29b	-0.1471657
198	0xbde31e30	-0.11089742
199	0x3dc8a8e7	0.097978406
200	0x3e2135c6	0.15743169
201	0xbe215a5d	-0.15757127
202	0xbd964b40	-0.073385715
203	0x3e2b5849	0.16732897
204	0xbe08a5f3	-0.13344555
205	0x3e2d4cf4	0.16923887
206	0xbd7e4ca9	-0.062084828
207	0x3dc79e72	0.09747018
208	0x3e34830b	0.17628114
209	0xbd00d4f4	-0.031453088
210	0xbde0acde	-0.10970472
211	0x3e3a5df4	0.18199903
212	0xbe00fda9	-0.12596764
213	0x3e1e2bcf	0.15446399
214	0xbdd1b7cd	-0.10240135
215	0xbd1f7cd7	-0.038937416
216	0x3d936aab	0.0719808
217	0xbd99678f	-0.07490455
218	0x3dbcbbf9	0.092155404
219	0x3df4da02	0.11955644
220	0xbd5346f1	-0.051581327
221	0x3df8cc0e	0.12148295
222	0xbda0ba36	-0.07848017
223	0x3dfe390f	0.12413227
224	0x3cc6be32	0.024260614
225	0xbb43cb62	-0.0029875864
226	0x3d1dc78a	0.038520373
227	0x3dafa900	0.08577156
228	0xbdb5f6d8	-0.08884972
229	0x3d24f9b1	0.040277187
230	0xbdc8922d	-0.09793506
231	0x3e18004e	0.14843866
232	0xbba6ab6a	-0.005086352
233	0xbde90887	-0.113785796
234	0x3cc698df	0.024242816
235	0xbcd3f442	-0.025873307
236	0x3cdbcfe7	0.026832534
237	0xbdcf4c46	-0.1012197
238	0x3e3c0c74	0.18364125
239	0xbe2c09fc	-0.16800684
240	0x3e0f9408	0.14021313
241	0x3e22391e	0.15842101
242	0x3cf068df	0.029346881
243	0xbe0656a0	-0.13118982
244	0xbdc9237b	-0.098212205
245	0xbdb4ded7	-0.08831566
246	0x3d0d937e	0.034564488
247	0xbd930acd	-0.071797945
248	0x3da1a7ca	0.07893331
249	0xbdaa9ce1	-0.083307035
250	0x3e7353af	0.23762392
251	0x3d078cb0	0.033093154
252	0xbdd52d1b	-0.10408994
253	0xbb86beba	-0.004112092
254	0x3d997fcd	0.07495079
255	0x3d953e87	0.07287317

local2.norm.weight f4 [128]
0	0x3f78a540	0.9712715
1	0x3f810ff0	1.0082989
2	0x3f66b25d	0.9011591
3	0x3f6f3950	0.93446827
4	0x3f750882	0.95716107
5	0x3f5f7f95	0.8730405
6	0x3f69ca78	0.9132457
7	0x3f5f11c9	0.87136513
8	0x3f7e41cc	0.9931915
9	0x3f8207e3	1.0158657
10	0x3f696f8e	0.91185844
11	0x3f5ccf16	0.8625349
12	0x3f852e67	1.0404786
13	0x3f76faad	0.9647625
14	0x3f7474db	0.9549081
15	0x3f81c542	1.0138323
16	0x3f7182f4	0.94340444
17	0x3f7a2d9c	0.97725844
18	0x3f78ef2e	0.9723996
19	0x3f74eb5c	0.9567163
20	0x3f6f8c62	0.9357358
21	0x3f744978	0.95424604
22	0x3f58e7d7	0.8472876
23	0x3f65704a	0.89624465
24	0x3f83244a	1.024545
25	0x3f7249ab	0.9464366
26	0x3f6463a3	0.89214534
27	0x3f740a0a	0.9532782
28	0x3f776c97	0.9665007
29	0x3f696745	0.911732
30	0x3f6dd8ad	0.92908746
31	0x3f819dc1	1.0126268
32	0x3f7005e7	0.93759006
33	0x3f57884b	0.8419234
34	0x3f58cfe4	0.84692216
35	0x3f6a117c	0.9143293
36	0x3f4e432d	0.8057125
37	0x3f7b97dd	0.982786
38	0x3f82f674	1.0231462
39	0x3f65f9c1	0.8983422
40	0x3f86dd92	1.0536368
41	0x3f805363	1.0025448
42	0x3f65d4b4	0.89777684
43	0x3f7dce0b	0.9914252
44	0x3f8301ba	1.0234902
45	0x3f74ba57	0.9559683
46	0x3f715017	0.9426283
47	0x3f755192	0.9582759
48	0x3f718c5a	0.94354784
49	0x3f680ad4	0.9064152
50	0x3f630247	0.8867535
51	0x3f796387	0.9741749
52	0x3f79dd86	0.9760364
53	0x3f6d8186	0.9277576
54	0x3f6f48a5	0.9347022
55	0x3f6b6943	0.9195749
56	0x3f6b1f7f	0.91844934
57	0x3f6bbf76	0.9208902
58	0x3f4ed87c	0.8079908
59	0x3f71e313	0.9448711
60	0x3f774b5d	0.9659937
61	0x3f6fd33e	0.93681705
62	0x3f831833	1.024176
63	0x3f7894e7	0.97102207
64	0x3f7e1332	0.9924804
65	0x3f828e59	1.0199691
66	0x3f836139	1.0264045
67	0x3f89a2b5	1.0752779
68	0x3f64fb3e	0.89445865
69	0x3f67bfd5	0.9052709
70	0x3f5ebbce	0.8700532
71	0x3f6b6983	0.91957873
72	0x3f6af835	0.91784984
73	0x3f7c33df	0.9851665
74	0x3f71ace0	0.9440441
75	0x3f8363f6	1.0264881
76	0x3f6c2623	0.9224569
77	0x3f78d95a	0.9720665
78	0x3f7a2835	0.977176
79	0x3f5f1dd1	0.8715487
80	0x3f79bc86	0.9755329
81	0x3f7b5773	0.9818031
82	0x3f751422	0.95733845
83	0x3f781bac	0.96917224
84	0x3f65a54a	0.89705336
85	0x3f72e9e4	0.9488814
86	0x3f6ac650	0.9170885
87	0x3f6ac2dc	0.9170358
88	0x3f83a82d	1.0285698
89	0x3f7e17bb	0.9925496
90	0x3f702829	0.9381128
91	0x3f62da3e	0.8861426
92	0x3f68f058	0.90991735
93	0x3f71d688	0.94467974
94	0x3f847c29	1.0350391
95	0x3f847362	1.0347712
96	0x3f5ce279	0.8628307
97	0x3f65d8b4	0.8978379
98	0x3f5f1a54	0.8714955
99	0x3f7c1853	0.98474616
100	0x3f630311	0.88676554
101	0x3f80a346	1.0049827
102	0x3f86c486	1.0528724
103	0x3f7facda	0.99873126
104	0x3f85bba3	1.0447887
105	0x3f749d75	0.9555276
106	0x3f6d7584	0.9275744
107	0x3f6ed4bc	0.93293357
108	0x3f5ed3ec	0.8704212
109	0x3f5dafad	0.86596185
110	0x3f6e8b91	0.9318171
111	0x3f928413	1.1446556
112	0x3f62a6ec	0.8853595
113	0x3f8f61ed	1.120176
114	0x3f83be89	1.0292522
115	0x3f63dab9	0.8900562
116	0x3f838396	1.0274532
117	0x3f6fd092	0.9367763
118	0x3f8dd6f3	1.1081222
119	0x3f712ab6	0.94205797
120	0x3f553442	0.83282864
121	0x3f67733c	0.9041021
122	0x3f779aeb	0.9672076
123	0x3f7f6567	0.997641
124	0x3f70b08f	0.9401941
125	0x3f71bd91	0.9442988
126	0x3f5e4289	0.86820275
127	0x3f818241	1.0117875

local2.norm.bias f4 [128]
0	0xbd8b3037	-0.067963056
1	0xbdcfa672	-0.10139169
2	0xbe3baf1c	-0.18328518
3	0xbdbbe6bd	-0.09174869
4	0xbd828492	-0.06372942
5	0xbe453aa3	-0.1926065
6	0xbe0f066f	-0.13967298
7	0xbe274340	-0.16334248
8	0xbdf1f16f	-0.11813628
9	0xbdd55bf7	-0.104179315
10	0xbe0236f6	-0.12716278
11	0xbe2d0393	-0.16895895
12	0xbd3ef56f	-0.046620782
13	0xbdd8ccb6	-0.105859205
14	0xbd8c3b25	-0.068472184
15	0xbda552da	-0.08072443
16	0xbdb04ce5	-0.086084165
17	0xbd9f9988	-0.07792956
18	0xbdcaa0b8	-0.09893936
19	0xbdbf1b18	-0.093313396
20	0xbe04f262	-0.12983087
21	0xbe1f4615	-0.15554078
22	0xbe233337	-0.15937506
23	0xbddedc8b	-0.10881909
24	0xbd933d60	-0.07189441
25	0xbdc5c76c	-0.09657177
26	0xbdf25021	-0.118316896
27	0xbd96bbd7	-0.07360046
28	0xbd942a6b	-0.07234653
29	0xbe10ae6a	-0.14129034
30	0xbdfeec13	-0.12447371
31	0xbd94587b	-0.07243439
32	0xbdd64b43	-0.10463574
33	0xbe1840a5	-0.1486841
34	0xbe2e3e2d	-0.17015906
35	0xbdac6009	-0.08416755
36	0xbe501feb	-0.20324676
37	0xbd991f09	-0.074766226
38	0xbd8da6aa	-0.06916554
39	0xbdd306bd	-0.103040196
40	0xbdae4905	-0.08510021
41	0xbdc493c6	-0.09598498
42	0xbde6c747	-0.11268478
43	0xbddf7e75	-0.10912792
44	0xbddeeae8	-0.108846486
45	0xbdb8a443	-0.090157054
46	0xbde72857	-0.11286991
47	0xbdc219b9	-0.094775625
48	0xbda1cab6	-0.07899992
49	0xbe1216e4	-0.14266545
50	0xbdc63a69	-0.096791096
51	0xbddcd1d7	-0.10782211
52	0xbdb5e123	-0.08880832
53	0xbdcc9628	-0.099895775
54	0xbd68236c	-0.056674406
55	0xbde6f897	-0.112778835
56	0xbdc0e384	-0.09418395
57	0xbe05a919	-0.13052787
58	0xbe39b2eb	-0.18134658
59	0xbddd2728	-0.10798484
60	0xbdafc896	-0.085831806
61	0xbde51c81	-0.11187077
62	0xbd956fa7	-0.072966866
63	0xbdb3f427	-0.08786803
64	0xbdb42d69	-0.08797724
65	0xbdb067bf	-0.08613538
66	0xbdba6942	-0.091021076
67	0xbd74ba6c	-0.0597481
68	0xbdf6a974	-0.12044039
69	0xbdc2a3b4	-0.0950388
70	0xbe080169	-0.13281788
71	0xbdf8f093	-0.12155261
72	0xbe012b4d	-0.12614174
73	0xbdd0390d	-0.101671316
74	0xbdf74a58	-0.12074727
75	0xbd58e326	-0.052951
76	0xbdeaf5ad	-0.1147264
77	0xbdc5ad64	-0.09652212
78	0xbdb5fb20	-0.08885789
79	0xbe0810e0	-0.13287687
80	0xbd8818fa	-0.06645389
81	0xbd85ad5f	-0.065272085
82	0xbd9cb3df	-0.07651495
83	0xbda3dd4d	-0.08001194
84	0xbdf1db50	-0.11809409
85	0xbd9cb4af	-0.0765165
86	0xbdb22587	-0.08698564
87	0xbdee57ac	-0.11637816
88	0xbdf67d56	-0.12035625
89	0xbdf8e283	-0.12152579
90	0xbe026da3	-0.12737136
91	0xbde0b008	-0.10971075
92	0xbe0207a6	-0.1269823
93	0xbdaceb14	-0.08443275
94	0xbda6b620	-0.08140206
95	0xbd9b9f77	-0.07598775
96	0xbe0f70b2	-0.14007834
97	0xbe04be2f	-0.12963174
98	0xbdabaef2	-0.083829775
99	0xbd6b694f	-0.057473477
100	0xbe2ccc1f	-0.16874741
101	0xbdc7e5a4	-0.09760597
102	0xbdab900a	-0.08377083
103	0xbde7d5a2	-0.11320044
104	0xbdcc15d8	-0.09965104
105	0xbce17b1b	-0.027524522
106	0xbde0f398	-0.10983962
107	0xbde38091	-0.111085065
108	0xbddb4d64	-0.107081205
109	0xbe0fae4a	-0.1403133
110	0xbd99c64b	-0.075085245
111	0xbcad94ac	-0.021189056
112	0xbe34e2b7	-0.1766461
113	0xbd9952dc	-0.07486507
114	0xbd537be8	-0.051631838
115	0xbde97faa	-0.11401303
116	0xbd44ebf9	-0.048076604
117	0xbdaed629	-0.085369416
118	0xbd2fb448	-0.04289654
119	0xbda14c27	-0.07875853
120	0xbe5dbed7	-0.21654831
121	0xbdba5bd6	-0.090995476
122	0xbdbb3298	-0.09140509
123	0xbd5893a5	-0.05287518
124	0xbe184c47	-0.14872847
125	0xbdca4971	-0.09877289
126	0xbe2436a3	-0.16036467
127	0xbd9a8712	-0.07545294
