models/eeg_only/s_23.pt (torch, 561186 bytes, 37 tensors)

band_attn.fc1.weight f4 [8, 5]
000000 e8 af 86 be 02 ec 02 3e 30 82 12 3e 14 b6 2e be
       -0.2630608 0.12785342 0.14307475 -0.17061645
000010 06 66 bd be ed a1 09 3e 32 67 a1 be 6c 76 b9 be
       -0.369919 0.13440676 -0.31524044 -0.3622316
000020 16 a3 5b 3e 52 8a e7 be cd 0a cc 3e 7f 2e 0d 3e
       0.21448931 -0.45222718 0.3985199 0.13787268
000030 56 6f 66 bc 4a eb 7c 3e 5b ae 0f 3b 97 09 e7 3e
       -0.0140646305 0.2469913 0.0021923992 0.45124504
000040 c0 85 fa 3c ae 0d bf bd e3 79 10 3e 51 5c 9d 3e
       0.030581355 -0.09328781 0.14108996 0.30734494
000050 c3 82 32 be 83 29 fb be 35 8a ba be 1d 52 24 3e
       -0.17432694 -0.49055108 -0.3643357 0.16046949
000060 96 ad aa 3e 03 79 04 bd 42 f6 bc 3d 02 80 29 3e
       0.3333556 -0.03234197 0.092266575 0.16552737
000070 cf db bd bc 5a 04 1d 3e 13 e6 b4 3e bb aa cb 3e
       -0.023176102 0.15333691 0.35331783 0.39778695
000080 9d 32 d5 be 40 03 d0 bd 74 e6 ed 3e da d2 cb be
       -0.41640177 -0.1015687 0.46464884 -0.39809304
000090 aa 69 fe be 40 ac 22 3e bb 34 95 be 1e 6e c2 be
       -0.4968999 0.1588602 -0.29141793 -0.37974638

band_attn.fc1.bias f4 [8]
000000 b9 5b 92 3e 0f 43 57 3d f2 a4 97 3e ad 60 c0 be
       0.28585604 0.052554186 0.2961803 -0.37573758
000010 01 29 fe 3d 59 f5 14 3f c0 e5 17 bd 3e c7 d2 3e
       0.124101646 0.5818687 -0.03708434 0.41167635

band_attn.fc2.weight f4 [5, 8]
000000 bc 14 aa 3e bd c8 df be c1 85 d4 3c 4d cc 7a be
       0.33218944 -0.4370784 0.025942685 -0.24491997
000010 b2 7c aa bd 0c 35 b5 3e 35 00 0a be 1c 66 00 bd
       -0.08324565 0.35392034 -0.13476641 -0.03134738
000020 ee 39 66 be e2 30 59 3d f6 8e d2 3d 71 b8 53 3e
       -0.22483036 0.053025134 0.10281174 0.20675828
000030 e9 92 a8 3e 5f fd 82 3e f2 f4 2b 3e ce e3 ee 3d
       0.32924584 0.25583932 0.16792658 0.11664544
000040 15 e8 a5 bc ef f3 11 3e 96 61 b9 be a8 84 b3 be
       -0.020252267 0.1425321 -0.36207265 -0.35062146
000050 e3 70 b4 be f1 d9 52 3e c7 b8 4d be c5 c7 aa be
       -0.35242376 0.2059095 -0.20090018 -0.33355537
000060 16 de bb be 5f c9 30 bd 0a ac 2f 3d b7 f5 78 3e
       -0.36692876 -0.043160792 0.04288868 0.24312483
000070 8e 0d 2f be d1 8e 9c be 87 2b 08 3e 11 50 d8 be
       -0.17095014 -0.3057771 0.13297854 -0.42248586
000080 33 ee f5 3d 40 41 2d 3d 5a 12 99 3e 5e c9 0b be
       0.120083235 0.042298555 0.29896814 -0.13651034
000090 69 2f a9 be ff aa cd be f4 11 75 be 5f d9 31 be
       -0.33043984 -0.40169522 -0.2393263 -0.17368077

band_attn.fc2.bias f4 [5]
000000 53 f1 7b be 8e 88 20 3e 48 aa 18 be ee 05 40 be
       -0.24603777 0.15677091 -0.14908707 -0.18752262
000010 30 85 9c bd
       -0.07642591

feat_proj.weight f4 [128, 21]
000000 72 d8 30 be fe 44 5d be 9f d8 9e bd da ea 66 3d
       -0.17270067 -0.2160835 -0.07756161 0.056376316
000010 d9 d4 56 bd 37 ef fc 3d 40 7b e1 bd 3a aa 5f 3e
       -0.05244908 0.12350314 -0.11009836 0.2184228
000020 2f 40 61 bd 65 ef 55 be e6 78 37 3d ce 94 e6 bd
       -0.05499285 -0.20892103 0.044793032 -0.11258851
000030 18 66 78 3e 79 72 1a bd 2c 59 d4 bd b1 6f f7 bd
       0.24257696 -0.037706826 -0.10368571 -0.1208185
000040 9e 4e 0b be 44 5a 28 bd 2d 11 19 3a 59 a1 45 3d
       -0.13604209 -0.04110171 0.0005839046 0.048249576
000050 05 40 56 3e c1 4a 79 3d 3b c6 d1 bd b3 b0 6f 3e
       0.20922859 0.060862307 -0.102428876 0.23407249
000060 83 38 20 3e e5 39 31 ba e9 06 1c 3e 39 e4 1e 3e
       0.15646558 -0.0006760641 0.15237011 0.15516748
000070 d2 6d 91 3d 49 27 a1 38 f3 11 98 3d 10 ed f5 3c
       0.07101025 7.684396e-05 0.074252985 0.030020267
000080 42 07 50 bd 6e f1 a7 3d f5 b8 49 3d 45 9f 0b be
       -0.05078817 0.08200346 0.049248654 -0.13634975
000090 66 f2 05 3e 9c 54 eb bd e4 54 d6 3d 2e 11 6a bd
       0.13080749 -0.11490747 0.1046541 -0.05714529
0000a0 63 ba d2 bc 7e 93 b5 3d 5a ec 67 be 6e 3a 07 be
       -0.025723642 0.088660225 -0.22648755 -0.13205883
0000b0 f3 a8 38 3e 21 ac 07 be d0 c1 49 3e 6a 2a 91 3d
       0.18033199 -0.13249256 0.1970284 0.07088168
0000c0 0d 63 12 3e 79 14 12 be 87 db 8f bd 82 49 52 3e
       0.14295597 -0.14265622 -0.070242934 0.20535854
0000d0 79 a6 85 bd 1e 0f be 3d 61 9c e6 bd 6b 6b e1 bd
       -0.06525893 0.09280227 -0.11260296 -0.110068165
0000e0 09 d7 1a be 61 87 44 3e bb 4c 20 3e 06 81 87 3d
       -0.15121092 0.19192268 0.1565427 0.06616406
0000f0 2d 78 29 bd c7 bc 38 be 74 5e 8d be ef 12 9d 3d
       -0.041374374 -0.18040763 -0.27611125 0.07669627
000100 b3 b5 86 3e ed 45 a6 be f4 6b 4a 3e 26 1f 7c be
       0.263105 -0.32475224 0.19767743 -0.24621257
000110 04 11 c8 3d 8b 3c ce 3d 58 04 10 3e fd c7 13 3e
       0.097688705 0.100701414 0.14064157 0.14431758
000120 f5 ed 87 be 79 89 00 3e c2 5b d2 bc 05 08 14 3e
       -0.26548734 0.12552442 -0.02567852 0.14456184
000130 88 60 0d bc c3 be 99 bd bb 8a fa 3c 2f 1b 99 3d
       -0.008628972 -0.07507088 0.03058373 0.07475888
000140 af 3d b0 3d db 9b 5c be 1d 48 c5 bc 34 ed 38 be
       0.08605515 -0.21543829 -0.024082238 -0.18059236
000150 6b 67 82 3d da 19 26 3e 49 bf ff bd 52 f8 53 3e
       0.06367382 0.16220799 -0.124876566 0.20700195
000160 66 56 01 be d7 a3 a4 bd 9e 20 39 be 36 d2 bd 3d
       -0.12630615 -0.080390625 -0.18078849 0.0926861
000170 76 e4 43 be 23 dc 0c be 98 e2 0a 3e f0 5c b0 3d
       -0.1913012 -0.1375585 0.13563001 0.086114764
000180 35 50 ab 3c ec e3 7b 3d 1e 7e 99 bd 84 ec 32 be
       0.02091227 0.06149666 -0.07494758 -0.17473036
000190 4f 56 2d bd 20 28 2b be 4c 09 2f 3e 24 e4 00 3e
       -0.04231864 -0.16714525 0.1709339 0.12587029
0001a0 14 48 c5 3d af 52 3d be 3a 26 20 3d a8 41 a1 bd
       0.096328884 -0.18488573 0.039098956 -0.07873851
0001b0 ab 03 2e 3d 6d c8 3f 3d 5c 44 93 be 18 af 14 be
       0.042483967 0.046822 -0.28763092 -0.14519918
0001c0 60 dd b6 bc 21 51 cc 3d fc 73 7b 3e 5a 46 ec 3d
       -0.022322357 0.099764116 0.24555963 0.11536856
0001d0 18 67 1e be e4 47 4c 3d cf bc dd 3c e2 71 9a 3d
       -0.15469015 0.049873248 0.02706757 0.07541253
0001e0 8b 60 bf 3d 74 10 6b be 29 a0 4a 3d ad f3 49 bc
       0.09344586 -0.22955495 0.049469147 -0.012326163
0001f0 7e f7 c2 3d ac 61 17 3d c4 cf 71 3e b5 92 23 3e
       0.09519862 0.03695838 0.23614413 0.15973933
000200 f8 f5 fe bb df 50 df 3d 77 f1 5e bd 58 ad 10 3c
       -0.0077807866 0.10904097 -0.054429498 0.008830391
000210 09 a1 bb 3d 54 f1 8a 3d f8 ec c5 3d ac a4 3c 3e
       0.091615744 0.06784311 0.09664339 0.18422192
000220 96 79 f8 3d 36 41 b8 bd 6c 41 3e 3e d1 a3 98 bd
       0.12132566 -0.08996813 0.18579644 -0.074531205
000230 ea 56 8f 3b 93 1e cf 3a 6e 45 0f be 76 d4 9a 3e
       0.0043743746 0.0015801959 -0.13991329 0.3024022
000240 f4 98 05 bd 5d 62 10 be ab 16 54 3e 06 fa cb bd
       -0.03261657 -0.14100023 0.20711772 -0.099597976
000250 a8 9e 1b bb 79 f3 a7 3d 42 27 c9 bd 27 1b 84 3e
       -0.002374569 0.082007356 -0.09821941 0.25801966
000260 36 fb 55 be f0 f3 58 3d 6c b3 3d 3d 48 4c e8 bd
       -0.2089661 0.052967012 0.04631369 -0.113426745
000270 5d 29 04 3e 4e 41 3e be 11 aa 34 be bc 94 8d bc
       0.12906404 -0.185796 -0.17643 -0.017282836
000280 c1 f9 40 be da 19 ef 3d a3 2b 8d 3d c2 43 32 be
       -0.18845274 0.11674853 0.06893089 -0.1740866
000290 f5 fa 4e 3d 66 21 de 3d d6 fc 9d 3d 2d 24 28 be
       0.0505323 0.10846214 0.0771424 -0.1642005
0002a0 40 f8 0b be 5c 49 65 3e 3f 22 84 be b2 c8 a5 bd
       -0.13668919 0.22391266 -0.25807378 -0.0809492
0002b0 15 da e3 bc 14 74 4f 3e c8 48 82 3e 49 09 78 3d
       -0.02781395 0.20259124 0.25446153 0.06055573
0002c0 60 84 65 be 30 bf 83 be 17 c8 32 3e c2 9f 9e 3c
       -0.22413778 -0.25731802 0.1745914 0.019363288
0002d0 77 ff 07 be ff 3b 0d 3e 2b 6e a7 3b d4 8f 38 be
       -0.13281046 0.13792418 0.0051095686 -0.18023616
0002e0 7f 8d 13 3e 42 d3 b5 3d 17 46 b9 3c d2 43 3b 3d
       0.14409445 0.08878185 0.02261643 0.045718975
0002f0 f5 cf 1a 3e 8c c6 cb 3d 16 a6 34 be 99 1b 6b bb
       0.15118392 0.09949979 -0.17641482 -0.0035874604
000300 f9 96 13 3e 46 3d 76 3e dd d1 2e 3e ac 7e 1c 3e
       0.1441306 0.24046811 0.17072244 0.15282696
000310 af 16 45 3e 5b be df 3c e6 4d fc bd da 6a 3f be
       0.19246934 0.027312448 -0.123195454 -0.18693104
000320 d7 87 2e ba b1 9b 6c 3e 9d fd 45 be 22 31 7d be
       -0.0006657815 0.23106267 -0.19335027 -0.24725774
000330 49 f7 d6 3d 58 25 14 bd 7c c2 db 3d 78 62 12 bd
       0.10496385 -0.036168426 0.10730454 -0.03573844
000340 a0 25 80 be 61 fc 3c 3e f0 31 68 3e 30 ee 7e 3e
       -0.25028706 0.1845565 0.226753 0.24895549
000350 a5 af 16 be ab d8 4c 3d 37 ec 44 bc 68 ef c2 bc
       -0.1471544 0.05001132 -0.012019209 -0.023795798
000360 81 9f 28 be ab 98 52 3e e2 49 79 bd 72 a9 f2 3d
       -0.16467096 0.2056605 -0.060861476 0.118487254
000370 53 45 07 be 8c fa 61 bb 23 58 44 be 95 78 2e be
       -0.13210039 -0.0034481613 -0.19174246 -0.17038186
000380 d6 ec 06 be c6 9d 5e 3d 51 15 d8 bd 93 a6 73 3e
       -0.13176283 0.054349683 -0.10550941 0.23794012
000390 05 da 57 3d 0e a5 33 be 39 7a 95 3d 94 5f ea bd
       0.052698154 -0.17543432 0.07298703 -0.11444011
0003a0 52 5c 9c 3e a1 98 f2 bc ca 85 df 3d ee 3e 8f 3d
       0.30539185 -0.029613795 0.1091419 0.06994425
0003b0 97 50 8c bd 1a 42 e0 bd 07 c3 41 be c5 02 9c 3d
       -0.06851309 -0.10950108 -0.18922053 0.07617716
0003c0 c3 5d 69 bd 16 88 2d 3d da f0 c4 bc a6 d8 2a 3e
       -0.056974184 0.04236611 -0.024040628 0.16684207
0003d0 ad bc d6 bc a5 95 cb 3c 62 7a fc bd 09 6e 21 bd
       -0.026213014 0.02485163 -0.1232803 -0.03941158
0003e0 14 ab 4a be f8 ef 4f 3d 05 16 45 3d ab 33 35 be
       -0.19791824 0.05076596 0.048116703 -0.17695491
0003f0 89 0a 2d 3e 03 cd 0d 3d e4 4b 52 3e 06 af 10 bd
       0.1689855 0.034619343 0.20536762 -0.035323165

feat_proj.bias f4 [128]
000000 21 8f 3a 3e e2 81 8e bd 46 31 04 be 0a 15 28 bd
       0.18218662 -0.06958367 -0.12909421 -0.04103569
000010 1b d8 46 3e bf a3 bc 3d 5d e6 f4 bd cc 1c 36 bd
       0.19418375 0.092109196 -0.11958001 -0.044461057
000020 de c8 08 be 20 20 f7 3c 63 9e 50 be 14 a7 9b bd
       -0.13357875 0.030166686 -0.2037292 -0.07600227
000030 3b f4 b7 3d 28 7d 4d bd 81 29 1c be 4f 4c 15 bd
       0.0898213 -0.050168186 -0.15250207 -0.036449727
000040 22 33 c4 3d 89 b0 f9 bc 67 88 03 be a4 cf 6c 3d
       0.09580065 -0.030479686 -0.12845002 0.05781521
000050 39 83 4e 3d 2c 88 37 be 2b 34 21 3e a5 e9 de bd
       0.050418112 -0.17923039 0.15742557 -0.10884408
000060 2f bf 28 3e f4 fe 8d b9 de 11 02 3d 25 d1 b8 bc
       0.16479181 -0.0002708357 0.03175532 -0.022560665
000070 af 15 c0 3d e5 81 8a 3d ac 31 82 3d b4 3d 43 3e
       0.09379136 0.06763057 0.063571304 0.19066507
000080 c2 96 0f be a4 e2 5c bd f9 71 01 3e c5 7e a5 bd
       -0.14022353 -0.05392708 0.12641133 -0.0808082
000090 fd e7 6f 3c 13 2f 5c bd 61 58 de bd 04 e7 b7 bd
       0.014642713 -0.05375583 -0.10856701 -0.089796096
0000a0 d7 7d 0f bd 0c 06 03 be d3 53 e5 bd 8e 0a d4 bd
       -0.03503212 -0.12795275 -0.11197629 -0.10353576
0000b0 ef f1 8a 3d 56 d1 b0 3c 75 02 a4 3d bf 4a 17 3e
       0.067844264 0.021584194 0.08008281 0.14774607
0000c0 5f 80 5a 3c d4 c1 52 3d d0 2b c5 bd 32 b9 0d 3e
       0.01333627 0.05145438 -0.09627497 0.13840178
0000d0 7e 7f 4a bd 00 17 21 be e0 df 70 bd 77 b7 6e bd
       -0.049437992 -0.1573143 -0.058807254 -0.058280434
0000e0 88 6e 23 be cd 51 46 3e 4b cf 6b 3d d8 4c 86 bc
       -0.15960133 0.19367142 0.057570737 -0.016394064
0000f0 7d e0 49 be b3 33 0a bd d9 37 c9 bd 59 06 37 bc
       -0.19714542 -0.03374071 -0.09825105 -0.011170947
000100 45 56 05 3c fa ef 15 be 0e 24 cc 3c 88 74 56 be
       0.008138244 -0.14642325 0.024919536 -0.2094289
000110 8e 3c 69 bd c1 41 14 be a5 af a0 3d e1 d6 7c 3d
       -0.056942515 -0.14478208 0.078460015 0.061728362
000120 b3 c7 1b 3e 58 3b 2e be f0 45 9f 3c ec 41 b6 bd
       0.15212898 -0.17014825 0.019442528 -0.08899292
000130 d7 f3 79 bd 30 c2 01 be 45 b1 27 3c eb 40 0a 3e
       -0.06102356 -0.12671733 0.010235135 0.13501327
000140 e5 83 81 bd a6 f7 00 3e cc 71 3d bd 0d b7 1b 3e
       -0.06323985 0.1259447 -0.046251103 0.15206547
000150 2d 08 53 bd 82 a4 34 38 0b 3f 06 3e 2a 65 da bd
       -0.05152147 4.3068554e-05 0.13109986 -0.10663827
000160 1c 09 12 3e bc 92 0f 3e 28 19 b2 bd f7 2d 22 bd
       0.14261287 0.14020818 -0.086962044 -0.039594617
000170 ba 7b 7c bc 5b 13 0e bd ee bd 1c 3e 82 c5 f7 3d
       -0.015410358 -0.034686428 0.15306827 0.120982185
000180 0a d2 22 be c0 f3 3d be cc 77 80 3c 66 f1 00 be
       -0.15900436 -0.18550014 0.015682124 -0.12592086
000190 8b 69 02 be 3c d1 3f bd 19 bf da bd 7a 42 e2 bd
       -0.12735574 -0.0468304 -0.1068098 -0.11047836
0001a0 a1 33 a3 3d 96 ef b7 3d bf b8 4f 3e e4 3c 48 3d
       0.07968832 0.08981244 0.20285319 0.048886195
0001b0 47 67 3b 3e b5 88 0b 3e 2c e6 b1 bd dd cd e6 3d
       0.18301116 0.13626368 -0.0868648 0.11269734
0001c0 92 56 aa 3b 0c fa 17 3e b0 fe 2b 3e f7 59 34 3e
       0.0051983083 0.14841479 0.16796374 0.17612444
0001d0 07 da 6e 3c c5 99 18 bd 4e 63 20 be 53 9b b0 3d
       0.014578349 -0.03725602 -0.15662882 0.08623376
0001e0 7b 78 33 be 10 1c f6 bb 4d 14 06 3e 48 c6 43 3d
       -0.17526428 -0.0075106695 0.13093682 0.047796518
0001f0 ec 65 f8 bd 8f 04 ef bd 70 cd ab 3d 2f bc 1e be
       -0.12128815 -0.11670791 0.083887935 -0.15501474

local1.conv.bias f4 [128]
000000 0a 87 6a 39 66 2d c2 39 5d 82 09 3c d2 ab 4e 3c
       0.00022366285 0.00037036388 0.008392897 0.012614207
000010 2b 34 1b 3d 3f 04 7c 39 23 40 01 3d c1 50 4a bb
       0.037891548 0.00024034175 0.031555306 -0.0030870887
000020 1d b7 53 3c fd 9f c6 3b 0d 16 a2 3c 50 f3 30 bd
       0.012922076 0.0060615526 0.019785905 -0.04320079
000030 3f bb 6a bc de 38 68 3d fe 0b 82 bc 0f 08 6d bb
       -0.0143268695 0.056694858 -0.015874859 -0.0036168133
000040 1e 75 e0 3c 9d f3 ae 3c b2 94 e6 3b c9 bf 09 bc
       0.027399596 0.021356398 0.007036769 -0.008407542
000050 73 38 3a bc a5 30 e1 3b 0f 0d 75 bc 30 5b 71 bc
       -0.011365998 0.006872254 -0.014956727 -0.014731213
000060 0f b2 af bc b7 98 cb 3c b6 62 a9 3c a0 c0 53 bc
       -0.02144721 0.024853094 0.020676952 -0.012924343
000070 ff 77 b3 bc a0 10 af 3c 62 9b dd 3b 1c e1 b6 ba
       -0.021907805 0.021370232 0.006762908 -0.0013952586
000080 96 11 f2 bc 9c 7d b4 bc 5c 8b 08 bd a1 6b cd bc
       -0.029549401 -0.022032551 -0.03333603 -0.025075736
000090 f7 67 81 3c 63 7c 9a 3c d7 84 8b bb 81 c0 85 bc
       0.015796645 0.01885814 -0.004257779 -0.016327145
0000a0 81 fa 39 3c b2 9f 23 3c f9 a3 55 3b 61 db 11 3c
       0.011351229 0.009986805 0.0032598956 0.008902402
0000b0 a0 ae 55 3c 70 8e de bb 15 80 2b 3c a9 2c 3d bd
       0.013042122 -0.006791882 0.010467549 -0.04618517
0000c0 d5 d1 6b 3c 4f 45 ce 3c 75 20 10 3d a4 64 e1 3c
       0.01439329 0.025179533 0.035187203 0.02751381
0000d0 3a 6d 96 3c 36 d4 27 bc 17 d6 87 bb 18 7d 83 3c
       0.01836263 -0.010243466 -0.0041453945 0.01605086
0000e0 ef 28 e7 3c da d2 ac bb 28 d5 61 bc 05 40 9f bc
       0.02821776 -0.005274159 -0.013783731 -0.019439707
0000f0 3d 06 05 3d e2 22 9f bc 1d 04 28 bc d9 d4 4f 3c
       0.032476652 -0.019425813 -0.010254887 0.012685024
000100 17 73 77 3c 20 c8 1b bb fa 05 a0 3c 8a d0 04 bc
       0.015103123 -0.0023770407 0.0195341 -0.00810636
000110 5a c2 39 3a b9 67 dd 3c aa e6 49 3c 47 0d d7 3a
       0.00070861506 0.027026998 0.012323061 0.0016407155
000120 f3 f7 71 bc bf 8a be 3c f0 44 ad bc bd d6 47 3c
       -0.014768588 0.023259519 -0.021151036 0.012197194
000130 1d 87 bc ba 7f 06 de 3c 13 7a 38 3c 0c bb d2 bb
       -0.0014383529 0.027102707 0.0112595735 -0.006430989
000140 c6 20 92 bd 96 e3 5d 3c d4 71 34 bc a2 9a f5 3b
       -0.07135157 0.01354303 -0.011013467 0.0074952403
000150 8f f9 01 3c 4c 12 f1 bb a2 c5 bd 3c 54 15 5c 3b
       0.007933035 -0.0073569175 0.023165528 0.0033582048
000160 8b 56 17 bd 5f 60 07 bd 39 6a 1a bc 3f 3c c5 3b
       -0.03694777 -0.03305089 -0.0094247395 0.006019145
000170 16 db 37 3c 50 a8 7f 3c cc 5e 53 3c 2b bc e4 3c
       0.011221668 0.015604094 0.012901019 0.027921757
000180 da c8 ee 3c 3f ef 51 ba f1 26 97 ba a4 79 48 bd
       0.029148508 -0.0008008368 -0.0011531991 -0.04894413
000190 a4 ac a7 3c be b7 bc 3c 86 eb 59 3c 70 76 0b bc
       0.020468064 0.023036834 0.013300782 -0.008512124
0001a0 50 cd d8 3c f0 36 24 3c b7 1b 8e 3c fc 53 ce 3c
       0.026465088 0.010022864 0.0173472 0.025186531
0001b0 4b 58 e9 3c 09 c6 75 bc 20 df 34 3d 6c 3b 01 bc
       0.028484484 -0.015000829 0.0441581 -0.007887702
0001c0 0d 28 ac 3c af 00 b3 bb 0e c2 70 3c 89 ed 06 3c
       0.021015191 -0.005462728 0.014694704 0.008235344
0001d0 2f 32 22 bb 1a 28 a3 3c 0a 75 de 3c 50 e4 05 bd
       -0.002474915 0.019916583 0.027155418 -0.03268844
0001e0 01 89 32 3d 82 93 95 bd 91 89 93 bc 6d 94 bf 3c
       0.04358769 -0.073035255 -0.018009933 0.023386205
0001f0 28 18 93 3c 78 4e 80 3b 34 b8 2f 38 d8 a4 4f 3c
       0.017955855 0.003915604 4.1894804e-05 0.012673579

local1.conv.lin.weight f4 [128, 128]
000000 63 ba f4 bb 6f 4a 7f bd 9a 69 9c 3d c3 26 9b 3c
       -0.007468508 -0.062326845 0.076373294 0.018939381
000010 2f 13 e8 bd 1f 8e 3f bd d5 24 0e 3d c4 f7 72 3d
       -0.11331784 -0.046766397 0.034703095 0.05931832
000020 11 b0 f6 3c 11 70 c6 3b d0 4e ce bd 0b 5e 4d 3c
       0.030113252 0.00605584 -0.10073626 0.012534629
000030 dc 25 17 3d d6 1f 0f 3e c7 3d 57 bd 6f 10 27 3d
       0.03690134 0.13976988 -0.05254915 0.040787157
000040 76 26 99 bd 8b f9 7c bd 72 0b c6 3d b1 7c cd bd
       -0.07478039 -0.06176142 0.09670152 -0.100335486
000050 0c 91 27 be 65 38 22 3c af b2 9b bd 08 fb 1e 3e
       -0.16363925 0.009901141 -0.076024406 0.15525448
000060 18 94 1b be 63 ff ab 3d eb 9b d4 3d 01 4f dc bb
       -0.15193212 0.083983205 0.103813015 -0.006723285
000070 8a 58 e0 3d fa 67 06 3d 51 ea ab 3d 27 35 3e 3e
       0.109543875 0.032814004 0.08394302 0.18574964
000080 ce 26 68 bd 1c 09 d2 bd 1c 03 0e 3e 5b 3e 26 3e
       -0.056677632 -0.10255644 0.13868374 0.16234724
000090 82 19 fc bc fa 29 80 bd 9f e7 06 3d db 4f 06 3e
       -0.030773882 -0.062580064 0.032935735 0.131164
0000a0 74 94 04 3e 3d 04 16 be 1b 32 25 3d 1d 1c 43 be
       0.12947255 -0.14650054 0.040330987 -0.19053693
0000b0 51 af 90 bd 4c 0a fe bc 1e f2 76 bc 58 83 56 3c
       -0.07064689 -0.03101077 -0.015072374 0.013092838
0000c0 c8 57 1a 3d 18 87 8f 3c 25 01 0d be be 42 94 bc
       0.03768137 0.017520472 -0.13769968 -0.018098231
0000d0 df 0d 5d 3d 73 96 26 3d 91 85 8e 3b 2e 07 cd 3d
       0.053968307 0.040670823 0.0043494185 0.10011135
0000e0 47 45 01 bd e2 58 f7 3d 17 d1 50 bd 79 1b b8 bd
       -0.03156021 0.120775 -0.050980654 -0.08989615
0000f0 8b bf c4 3d 3f fa 60 3d fc 24 9f 3e 24 12 fa 3c
       0.096068464 0.054926153 0.31082904 0.030526228
000100 80 f1 43 3e c5 95 9e bd f9 f8 0e 3e 23 08 2f 3d
       0.19135094 -0.0774341 0.13962163 0.04273237
000110 bf 3b 37 be 7e 53 53 3d 43 2b d5 3d a7 94 a6 bd
       -0.17893885 0.051593296 0.10408642 -0.08133822
000120 3d ac c4 b9 72 20 51 3d 9f 20 b8 bd a2 81 01 be
       -0.0003751236 0.051056333 -0.08990597 -0.12647107
000130 b7 31 00 3e 1c fb 9c bd c8 2f 74 3e f6 f5 49 bd
       0.12518965 -0.07665083 0.23846352 -0.049306832
000140 e6 ab 69 bd 12 e6 40 3e 50 41 b6 3d 32 d6 ce 3d
       -0.0570487 0.18837765 0.08899176 0.10099448
000150 40 d0 05 3d 9b 58 5f 3c 0e 76 90 bd fb a4 fc bc
       0.032669306 0.013631965 -0.07053767 -0.030840388
000160 c7 c0 92 bd 09 ec 2c be 23 fc 92 bd 8a d3 2f bd
       -0.071656756 -0.16886915 -0.071769975 -0.04292635
000170 08 6d 2a bd ac de 93 3d bc 34 c2 bc a0 2f 08 bd
       -0.041607887 0.07220206 -0.023706786 -0.033248544
000180 60 a9 3e bd 34 a2 bc 3d 7d 1e f4 bd d1 55 62 bd
       -0.046548247 0.09210625 -0.11919878 -0.055257622
000190 98 39 04 bc 1e 26 5d bc 84 f4 4f 3b 87 24 61 3d
       -0.008070372 -0.013497857 0.0031731436 0.054966476
0001a0 5d 26 2e be 7e 15 c8 3d da 4b f8 bd 9b be 11 bd
       -0.17006822 0.09769724 -0.121238425 -0.035582166
0001b0 f1 f7 4e be 4e 23 16 be a4 1c 6a bc 3a c2 1b be
       -0.2021177 -0.14661905 -0.014289055 -0.1521081
0001c0 f8 96 55 3d 0f bb a8 bc 79 9d 0e 3e 56 c5 ae 3d
       0.05214593 -0.020597009 0.13927259 0.085337326
0001d0 45 c7 1a 3d ec 1b d8 3c b8 6d 9b 3b e4 9e dc 3c
       0.037787694 0.026380502 0.004743304 0.026931234
0001e0 47 56 db 3d 63 d3 c1 bd 35 9f c2 3d 12 c0 00 be
       0.107098155 -0.09464147 0.095030226 -0.12573269
0001f0 b0 cc 7d bd 4c fb 47 be 97 58 54 bd f9 98 39 3b
       -0.061962783 -0.19529456 -0.0518423 0.0028319939
000200 b1 e4 d8 bc 4b c9 49 bc 8d 99 9d bc e2 1a a7 3b
       -0.026476236 -0.012316058 -0.019238258 0.00509964
000210 a9 91 de 3a 59 00 93 bd 0f 0d 03 3e c2 ae 9d 3d
       0.0016980666 -0.07177801 0.1279795 0.07699348
000220 16 db 22 bd a8 5e 33 3e 53 80 10 be 1c cf 93 bc
       -0.039759718 0.17516577 -0.14111452 -0.018043093
000230 fd 26 02 3e fb e9 35 bd 97 a9 8b 3c b0 24 0d bd
       0.12710185 -0.044412594 0.01704864 -0.034458816
000240 5c dd 23 bc b4 de 9e 3d 3f 5c 09 3e f9 a6 0f be
       -0.010001507 0.07757321 0.13414095 -0.14028539
000250 fd c3 d4 bd 86 b1 08 3e 1e 4d 4f 3e f6 6c d1 3d
       -0.10388944 0.1334897 0.20244262 0.10225861
000260 10 db 8a 3d ef 02 d8 3d 97 ba 53 3e 93 5d 5d bc
       0.06780064 0.105474345 0.20676647 -0.013511079
000270 c0 e9 f4 3d 27 8d af 3d 10 b5 8f 3d c6 b7 5a bd
       0.11958647 0.085718445 0.07016957 -0.053397916
000280 5e f7 f8 bc b7 28 18 3e e2 b8 f9 bd e1 24 15 3d
       -0.030391391 0.14859281 -0.12193467 0.036412124
000290 01 d7 0b 3e fd c1 fe bd 29 a6 c0 3c 33 69 16 3d
       0.13656236 -0.12439344 0.023516731 0.03672142
0002a0 00 9d 9f bc af ea a3 bd 23 df 50 3d a5 f1 c6 3d
       -0.019484043 -0.08003747 0.05099405 0.09714059
0002b0 48 73 d1 3d 89 a7 0b 3d 9b 5b 88 bd f4 9f 68 3d
       0.10227066 0.03409532 -0.06658097 0.05679317
0002c0 c2 5e a5 bd 9b 90 3f bd 06 39 88 3c da 0a 27 3e
       -0.08074714 -0.046768766 0.016628753 0.16312733
0002d0 dd 5b b0 3d 5b 05 20 3e d9 83 1a 3d 32 20 80 bd
       0.086112715 0.15627043 0.037723396 -0.06256141
0002e0 6c 37 fb bd 81 d2 9c bd 8b e8 eb 3d 40 11 e5 bd
       -0.1226643 -0.07657338 0.115189634 -0.11184931
0002f0 d6 3a 6e 3c 22 e1 25 be ad 54 d4 3a dd 8f 5e 3d
       0.014540395 -0.16199163 0.0016199552 0.054336417
000300 7b a0 68 3d a2 b6 10 3e c0 f0 38 be 57 b9 0c be
       0.05679367 0.14132169 -0.18060589 -0.13742577
000310 0a f5 15 be 44 02 85 3d 6a 43 14 be 9a f4 3c 3b
       -0.14644256 0.06494573 -0.14478841 0.0028832317
000320 b9 74 a8 bd 85 01 d3 bd f7 75 ee bd d6 45 5c be
       -0.08225388 -0.10303024 -0.11643594 -0.21511015
000330 be 04 b4 3c 24 cf 93 bd 9c 84 d8 3d 85 6b 74 bc
       0.021974918 -0.07217243 0.10572168 -0.014918213
000340 1c 0e d5 3c 04 13 46 3d 19 15 1b 3e e2 db 23 be
       0.026007704 0.04835798 0.15144767 -0.16001847
000350 43 c2 d0 bd 3c fc 80 3c 08 72 50 bd 83 cd b5 bc
       -0.101933025 0.015745275 -0.05089 -0.022192722
000360 89 d2 0c be 6a 6b 2e 3e aa 74 f3 3d 01 e2 00 3e
       -0.13752188 0.17033163 0.11887486 0.12586214
000370 f4 cf d9 3d 79 fc 30 bd 8a 34 27 3e 08 13 83 3c
       0.10635367 -0.043209527 0.16328636 0.016000286
000380 e7 42 e5 bd de 29 5f 3d a7 90 c6 bd d5 4a 35 bc
       -0.11194401 0.054483287 -0.09695559 -0.011065205
000390 78 bb 19 bd 43 6b 1d 3e 95 1a 00 3e 9d 91 80 3d
       -0.0375323 0.15372948 0.1251014 0.062777735
0003a0 bd 21 e1 3d eb c7 22 3d 25 3b 19 be e0 14 1a 3d
       0.10992763 0.039741438 -0.14963968 0.037617564
0003b0 87 7e 03 3e 6e 13 c0 bd 3c 47 19 be 58 3f 66 3d
       0.12841235 -0.09378706 -0.1496858 0.056212753
0003c0 65 cf 52 bc 3d 03 29 3e fe 4d 59 bd d5 eb 85 bd
       -0.0128668295 0.16505142 -0.053052895 -0.06539122
0003d0 53 5f 16 be 14 e7 10 be 69 24 c8 3d d5 23 10 be
       -0.14684801 -0.1415065 0.0977257 -0.14076169
0003e0 da ed 0e bd 58 97 85 3d 05 fa 08 3d 92 fa 3a 3e
       -0.0348948 0.06523007 0.033441562 0.18259647
0003f0 c0 41 61 bd 6b 28 1c 3d f6 67 e2 bd ff ba 89 bd
       -0.054994345 0.038124483 -0.11054985 -0.0672512

local1.norm.weight f4 [128]
000000 31 f1 8c 3f 0f 4f 82 3f 91 93 7a 3f 46 0b 8a 3f
       1.1011106 1.0180377 0.9788142 1.078469
000010 c0 31 6b 3f f1 30 6f 3f a5 41 73 3f 5b 8e 83 3f
       0.9187279 0.93434054 0.9502204 1.0277818
000020 06 4d 79 3f 9e 60 87 3f 39 36 85 3f 68 01 8c 3f
       0.97383153 1.057636 1.0407172 1.0937929
000030 dc 84 8b 3f b0 54 7f 3f f7 03 84 3f 3d b0 78 3f
       1.089992 0.997386 1.031371 0.9714392
000040 05 37 7d 3f d7 1a 6a 3f 82 fd 76 3f db b9 7c 3f
       0.9891208 0.91447204 0.9648057 0.9872109
000050 99 07 82 3f 64 d0 81 3f d0 7b 81 3f b5 46 81 3f
       1.0158569 1.0141721 1.011591 1.0099703
000060 05 aa 80 3f 7c 67 80 3f 28 f0 72 3f 68 dc 83 3f
       1.0051886 1.0031581 0.948977 1.0301638
000070 bf 09 86 3f ae f2 70 3f 77 18 82 3f 66 0f 91 3f
       1.0471724 0.941203 1.0163716 1.1332824
000080 88 f3 8c 3f 5c 46 74 3f ff 73 99 3f 2f ae 85 3f
       1.101182 0.9541986 1.1988524 1.0443782
000090 0e bf 7f 3f ff 1b 7e 3f a8 de 7e 3f f6 ad 8a 3f
       0.999009 0.9926147 0.99558496 1.0834339
0000a0 e9 2d 6c 3f fe 3c 7d 3f 8d b1 83 3f 60 fd 82 3f
       0.92257553 0.9892119 1.0288559 1.0233574
0000b0 00 3c 7a 3f 2c 6c 77 3f a9 08 7f 3f 10 54 8d 3f
       0.977478 0.9664943 0.9962259 1.1041279
0000c0 a2 02 86 3f 00 e6 74 3f 82 0b 7a 3f 05 1f 83 3f
       1.0469553 0.9566345 0.9767381 1.0243841
0000d0 a8 e7 6e 3f fb 80 80 3f cd cb 82 3f 51 d3 7e 3f
       0.9332223 1.0039362 1.0218445 0.99541193
0000e0 fc 46 81 3f e8 23 83 3f 51 fb 7e 3f 7b cc 7f 3f
       1.0099788 1.0245333 0.9960223 0.9992139
0000f0 77 ce 71 3f c0 6c 81 3f 3b 97 83 3f 43 3d 73 3f
       0.94455665 1.0111313 1.0280527 0.9501535
000100 a0 8a 79 3f a5 8e 81 3f d8 3a 70 3f d0 6d 77 3f
       0.9747715 1.0121657 0.9383979 0.96651936
000110 2b 79 80 3f d6 5e 77 3f c7 df 76 3f 79 6d 82 3f
       1.0036978 0.96629083 0.9643521 1.0189658
000120 db 31 8a 3f f1 93 71 3f c0 2e 84 3f ef 68 78 3f
       1.0796465 0.94366366 1.0326767 0.97035116
000130 5f 32 7b 3f c5 92 6b 3f 37 3f 6a 3f 3c 8f 80 3f
       0.98123735 0.9202083 0.9150271 1.0043712
000140 cf e4 9d 3f 34 28 7b 3f c6 ba 7f 3f 09 c4 7c 3f
       1.2335452 0.9810822 0.9989437 0.98736626
000150 d4 8d 74 3f df 6b 86 3f d0 b2 79 3f 44 d5 75 3f
       0.9552891 1.050167 0.9753847 0.9602854
000160 14 9c 9c 3f ed 50 83 3f e4 82 79 3f 8b fb 81 3f
       1.2235131 1.0259072 0.9746535 1.015489
000170 83 d7 75 3f 3c 64 6f 3f c5 e3 71 3f cb b7 70 3f
       0.9603197 0.9351232 0.94488174 0.94030446
000180 8d 23 73 3f 7a 02 8b 3f 12 3f 87 3f 9c f8 92 3f
       0.9497612 1.0860131 1.0566123 1.148212
000190 eb a9 71 3f 15 b1 74 3f d5 2d 70 3f 63 cc 7c 3f
       0.943999 0.95582706 0.93819934 0.9874937
0001a0 26 50 77 3f b0 00 87 3f d6 cf 74 3f ca aa 70 3f
       0.9660667 1.0547085 0.9562963 0.94010603
0001b0 70 e0 6e 3f 0a 66 81 3f ae 5c 7e 3f 26 d5 7b 3f
       0.93311214 1.0109265 0.9936017 0.98372114
0001c0 a3 f3 6f 3f b6 ed 76 3f 98 b1 74 3f 70 59 7b 3f
       0.93731135 0.9645647 0.95583487 0.98183346
0001d0 d6 90 73 3f 3d e9 6b 3f 87 4d 73 3f a3 6c 83 3f
       0.9514288 0.9215277 0.9504017 1.0267528
0001e0 d0 57 75 3f 16 34 95 3f da 25 86 3f ce 13 71 3f
       0.95837116 1.165652 1.0480301 0.94170845
0001f0 e1 0f 7e 3f ab 01 83 3f 0b 79 77 3f 72 16 79 3f
       0.9924298 1.0234884 0.9666907 0.97299874

local1.norm.bias f4 [128]
000000 9b 8b 93 bd 94 3e 91 bd d3 57 9b bd c4 e8 62 bd
       -0.07204362 -0.07092014 -0.075851105 -0.055397764
000010 f8 de 2f be 22 0b 0c be 03 63 e8 bd 91 a4 b3 bd
       -0.171749 -0.13676122 -0.1134701 -0.08771623
000020 0f 86 6e bd 74 d1 2c bd b8 c3 d8 bd 9e 35 49 bd
       -0.058233317 -0.042191938 -0.105842054 -0.0491234
000030 ea fd 81 bd 65 94 cb bd cb 0d b0 bd 55 56 af bd
       -0.063472584 -0.099404134 -0.08596381 -0.085613884
000040 9a 3d 0a be b5 dd a9 bd 2e dd 8f bd 91 69 5d bd
       -0.13500062 -0.082942404 -0.070246086 -0.054055754
000050 19 c1 01 bd b8 5f fa bd 2a da 95 bd 35 42 b1 bd
       -0.031678293 -0.12225288 -0.07317002 -0.08655206
000060 fa d3 9e bd 8f 4f d9 bd b7 20 cd bd 96 43 80 bd
       -0.07755275 -0.10610878 -0.100160055 -0.06262891
000070 d8 d4 5d bd 37 69 c1 bd a2 22 d5 bd ec 12 87 bd
       -0.05415806 -0.09443896 -0.10406996 -0.06595406
000080 d4 b8 ae bd 24 87 91 bd e7 eb b0 bd 8a 36 32 bd
       -0.08531347 -0.07105854 -0.08638745 -0.043509044
000090 cc 83 ba bd 46 32 a3 bd 54 c5 b2 bd 02 3b 47 bd
       -0.091071695 -0.07968573 -0.087290436 -0.04864026
0000a0 f8 72 f7 bd f2 8a dc bd f3 0a a5 bd b5 64 b1 bc
       -0.120824754 -0.10768689 -0.08058729 -0.021654466
0000b0 19 a3 04 be e5 22 73 bd e1 62 c0 bd c2 43 6a bd
       -0.12952842 -0.05935945 -0.0939386 -0.057193525
0000c0 67 6a 46 bd 1a a5 db bd 0c fa 22 be bd 14 90 bd
       -0.048441317 -0.1072485 -0.15915698 -0.070352055
0000d0 a7 3f b7 bd ca cd 69 bd c5 db c3 bd 72 00 5c bd
       -0.089476876 -0.05708102 -0.09563402 -0.053711362
0000e0 98 9a 95 bd 2f 4a 83 bd a6 03 85 bd dd 1a 4c bd
       -0.07304877 -0.06410634 -0.064948365 -0.049830306
0000f0 92 f5 06 be 11 57 5a bd c0 c1 6a bd fb 51 df bd
       -0.13179615 -0.05330569 -0.05731368 -0.109043084
000100 40 c3 c0 bd 5d 7e a1 bc 7d 7b e7 bd 63 a6 3f bd
       -0.09412241 -0.019713575 -0.113028504 -0.046789538
000110 e5 e8 17 bd 32 d8 8a bd e0 8e ad bd 30 3c 02 be
       -0.03708734 -0.06779517 -0.08474517 -0.12718272
000120 31 0f 99 bd c8 64 e4 bd 27 90 91 bd 1d 43 b2 bd
       -0.07473601 -0.11152035 -0.07107573 -0.08704207
000130 db 3e 3c bd f8 86 01 be 10 33 b1 bd 70 f1 82 bd
       -0.04595838 -0.12649143 -0.086523175 -0.06393707
000140 3a 08 92 bd 82 f9 bd bd 1c 4a c6 bd 81 35 ea bd
       -0.07130475 -0.092761055 -0.09682104 -0.11435986
000150 32 fc cf bd 29 18 a2 bd c2 45 bc bd 84 17 8f bd
       -0.10155524 -0.079147644 -0.09192993 -0.06986907
000160 10 9d 73 bd d4 21 a7 bd c7 26 04 bd 60 08 f3 bd
       -0.05947596 -0.08160749 -0.032263543 -0.11866832
000170 90 64 ea bd 1c 96 e2 bd 19 6b a0 bd a9 68 ab bd
       -0.11444962 -0.11063787 -0.07832927 -0.08369572
000180 de c5 a3 bd d2 41 bf bd 54 8f 60 bd d8 42 b7 bc
       -0.079967245 -0.09338726 -0.05482419 -0.02237074
000190 f0 77 f6 bd b8 b7 d5 bd 05 c3 97 bd 4b 1f 0b bd
       -0.12034595 -0.10435432 -0.07410244 -0.03396539
0001a0 64 87 fe bd 07 c2 0b be fe 0f d4 bd 44 b9 09 be
       -0.124281675 -0.13648234 -0.10354613 -0.1344958
0001b0 6c 84 dc bd 5c 8c cd bc b1 40 a6 bd 35 5b d6 bd
       -0.10767445 -0.025091343 -0.08117808 -0.10466615
0001c0 be e3 d5 bd 04 37 62 bd 61 a7 a8 bd ca 58 8c bd
       -0.10443829 -0.05522825 -0.0823505 -0.06852873
0001d0 f3 03 e2 bd b4 60 05 be 3c cc 8c bd bd 4a 05 bd
       -0.110359095 -0.1302517 -0.06874892 -0.03254198
0001e0 1b 24 c1 bd 75 09 07 bd 89 3a 4c bc ff 7f b3 bd
       -0.09430715 -0.032968003 -0.012465128 -0.08764648
0001f0 24 c9 d6 bd 73 ca 7f bd c9 55 bf bd 25 63 b5 bd
       -0.10487583 -0.06244893 -0.09342534 -0.08856801

local2.conv.bias f4 [128]
000000 fc 14 2e 3a 06 12 11 38 9c b9 c7 3b 0e 90 d6 bb
       0.00066407 3.458748e-05 0.0060951244 -0.0065479344
000010 2e 2f 92 3a 4d 80 c0 3a 58 49 c3 b9 58 4c 29 bc
       0.0011152977 0.0014686674 -0.00037247944 -0.010333143
000020 bc 63 51 3a 01 d4 e4 39 c2 d1 7d 3a 25 aa 0a 3a
       0.0007987579 0.00043645504 0.00096824404 0.0005289636
000030 36 04 b0 bb 5e 41 fa 3a d7 96 a7 ba 92 ad 11 b9
       -0.0053715957 0.0019092967 -0.0012786043 -0.00013892938
000040 5a 49 c7 3a 80 84 c6 3c 09 49 b5 3a 7f 62 df 3a
       0.0015204356 0.024233103 0.001383097 0.0017042904
000050 c0 bf 00 3b 82 41 71 39 1c d1 45 3d 32 73 b5 3a
       0.0019645542 0.00023007955 0.048295125 0.0013843535
000060 59 44 ed 3a f6 9f bc 3c 02 ec 7c bb c2 d2 8a 3a
       0.0018102034 0.023025494 -0.003859282 0.0010591375
000070 60 91 7e 3c f7 c2 60 bb 7d 29 f0 38 dc 1b b8 bb
       0.01553759 -0.0034295896 0.000114518196 -0.0056185555
000080 ad d4 cc ba 95 80 63 b9 da c8 dd ba 20 f7 0b 3a
       -0.0015627347 -0.00021696308 -0.001692082 0.00053392537
000090 e5 88 15 3a 0d aa f0 3a 58 3e 11 3c fa 6b 23 ba
       0.0005704298 0.0018361226 0.008864962 -0.00062340463
0000a0 5f 44 dc 3a 35 85 bb bb 45 bd a1 3a eb d3 14 bc
       0.0016805044 -0.0057226666 0.0012339732 -0.009083728
0000b0 16 03 c4 3a 78 8a 51 ba 0b b8 13 3a 29 de 89 b9
       0.0014954533 -0.0007993351 0.00056350295 -0.00026296198
0000c0 03 f7 da 3a fa 97 26 3a 33 21 a6 3a 89 0c c9 3a
       0.0016705695 0.0006355044 0.0012674689 0.0015338819
0000d0 5b 79 a2 3a 0f 02 04 bb da a1 ab ba 11 47 b3 3b
       0.0012395786 -0.0020142829 -0.00130945 0.0054711183
0000e0 d0 43 26 38 12 e9 ad b8 c0 51 8e 3a 53 4f 96 bb
       3.964064e-05 -8.2926956e-05 0.0010858104 -0.004587093
0000f0 fa 54 78 3a 8d 19 09 bc 53 bc dd 3a 72 12 fb b9
       0.0009473112 -0.008367908 0.0016917087 -0.00047888194
000100 ac fa 76 ba 92 1f b0 3a ca f5 e9 3a 23 1b af 3c
       -0.00094215083 0.0013437143 0.001784974 0.021375244
000110 8c 4e dc 3b 34 f2 61 3a 01 6a 87 39 10 b6 96 ba
       0.0067232307 0.000861916 0.00025828186 -0.0011498351
000120 93 cc 6b 3a df d0 4b bd e5 22 81 3a a6 d3 ff 3a
       0.00089950225 -0.049759742 0.0009852318 0.0019518032
000130 7c 45 c8 3a a1 82 d8 3a 91 f9 cd 3a 0d ca 31 ba
       0.0015279497 0.0016518423 0.0015714635 -0.0006782122
000140 c1 4a ef ba 22 86 94 3a 26 26 8b 38 8f 71 84 3a
       -0.0018256531 0.0011331479 6.635142e-05 0.0010104644
000150 39 c6 23 3a 64 32 24 3d c0 46 4a bb 73 ea 60 3a
       0.0006247494 0.04008712 -0.0030864924 0.00085798575
000160 ef 36 d8 3a 84 f9 71 3a a9 30 58 3a c6 ea 48 3c
       0.0016495864 0.0009230601 0.0008246997 0.012263006
000170 e8 f1 88 3a 27 f2 cb b9 ff 66 2d b9 12 12 d5 3a
       0.001044807 -0.00038899595 -0.00016536935 0.0016255996
000180 90 00 dc 3a 4a 49 8e 3a bb 2e 52 3a 7f 8f 39 3a
       0.0016784836 0.0010855582 0.00080178276 0.00070785725
000190 df 24 0c 3b 12 23 a1 3b 80 c6 88 bb c2 71 f0 3a
       0.0021384282 0.004917511 -0.0041740537 0.0018344449
0001a0 d2 b4 f5 3b b1 40 fd 3a fb 59 f9 39 35 7a 38 bd
       0.007498362 0.0019321648 0.00047560022 -0.04503842
0001b0 db 63 f1 39 fa 52 dc 3a a7 f7 a3 39 35 ed b2 b9
       0.000460415 0.0016809397 0.00031274298 -0.0003412754
0001c0 56 ab 79 3a 3e cb 07 ba a4 4b 78 3a ab 35 e1 39
       0.0009524127 -0.0005180127 0.00094717206 0.0004295533
0001d0 d4 07 ce bb 6a d7 bb ba 11 e0 5f ba 53 c3 05 bd
       -0.0062875543 -0.0014331166 -0.00085401634 -0.03265698
0001e0 1d 43 49 3b 2d d2 7b ba d9 db b2 b9 8b 77 38 3a
       0.0030710169 -0.0009606209 -0.00034114605 0.0007036856
0001f0 83 88 72 3a f4 50 46 39 83 47 d1 b9 67 9a 16 ba
       0.0009251909 0.00018912909 -0.00039916867 -0.00057450536

local2.conv.lin.weight f4 [128, 128]
000000 27 64 08 3c 1f 00 12 be 9f f0 1b be d2 f9 30 be
       0.008324659 -0.14257859 -0.15228508 -0.17282799
000010 82 6d 81 bd e4 63 21 bd 3c e2 07 be 2c 6e 8f 3c
       -0.06319715 -0.039401904 -0.13269895 0.017508589
000020 33 aa ca 3d 37 c1 78 be 55 02 bd bd 3f 3b 0e bd
       0.09895744 -0.24292456 -0.092289604 -0.03472447
000030 0a 6b 9c bd f1 c7 f6 3d 4d 7e b1 3d 32 d1 5e 3d
       -0.076376036 0.120498545 0.08666668 0.054398723
000040 49 49 bf 3d d8 0e 99 3d d3 c7 2f 3e d9 5d d5 3d
       0.0934015 0.07473534 0.1716607 0.10418291
000050 01 87 bc 3d 1d ea d3 3d bf 7e 84 3d b3 7b e5 bd
       0.092054375 0.10347388 0.064694874 -0.112052344
000060 df 5e 40 bd e1 97 1e 3d 33 9f 56 bd e5 f4 15 3e
       -0.046965476 0.03871906 -0.052397918 0.14644201
000070 5e ac da bc 3a c6 6e 3d 3e 30 3e be 74 76 55 be
       -0.02669352 0.058294512 -0.1857309 -0.20845968
000080 62 42 d4 bd d8 10 3b 3d 50 ca 03 3e ba ab 53 3d
       -0.10364224 0.04567036 0.12870145 0.051677443
000090 9f f8 5c bd 8c 40 ec 3d 0d 5f a3 3d 7e 84 77 bd
       -0.05394804 0.11535749 0.07977114 -0.06042909
0000a0 ad c6 50 3c a2 ad 35 3e 72 27 ad 3d 16 1e 0f 3e
       0.0127426805 0.17742017 0.08454789 0.1397632
0000b0 73 b7 8b 3d 06 da bd bd f7 ab ae 3c 10 e1 2c be
       0.068220995 -0.092701 0.021322234 -0.1688273
0000c0 ed e0 e5 bc 07 d3 f7 bd f7 a8 12 be 02 16 3a 3d
       -0.028061355 -0.12100797 -0.14322267 0.045431145
0000d0 82 5b a8 3d 45 b7 13 bd b3 b5 2d 3e d2 2d 3f 3d
       0.08220579 -0.03606345 0.16963844 0.046674557
0000e0 ce 19 89 bd 5d 5a c8 bd b4 1e 87 3d df 4a f5 bd
       -0.06694375 -0.097828604 0.06597653 -0.11977171
0000f0 3f 06 09 3e fe a0 ef 3d 16 94 19 be 9f e1 6b bd
       0.13381289 0.11700629 -0.14997897 -0.057588216
000100 d4 8d 5e bd d3 12 87 3c ad 18 1d 3d 8d d3 e2 3d
       -0.054334477 0.016488468 0.03835361 0.11075506
000110 02 6a 3e 3e 62 e5 c6 3d 36 a6 56 3d 47 ec 0c 3e
       0.18595126 0.0971172 0.052404605 0.13762008
000120 0a cf 70 bd b5 ac 1a bd 46 b4 2f bd de 27 fb 3c
       -0.058791198 -0.037762363 -0.04289653 0.030658659
000130 11 2c 02 be fe 83 b8 3d 99 ac aa 3d 8c f0 aa bd
       -0.12712122 0.090095505 0.08333702 -0.08346662
000140 1f fb 25 3e 0e 50 76 bd 94 c1 1c 3d 50 f9 2d 3d
       0.16209076 -0.06013494 0.038270548 0.04247409
000150 94 31 85 bd 93 95 96 3d 18 26 e3 3d 82 c6 ff bc
       -0.06503597 0.07352748 0.1109125 -0.031222586
000160 22 84 90 3d b3 fd e3 3d e2 86 71 bd be 97 fe bc
       0.07056452 0.11132374 -0.058966525 -0.031078216
000170 ce f7 c2 3d e4 f1 02 3d c3 9f d9 3d db dc cb 3d
       0.09519921 0.031968966 0.10626175 0.09954234
000180 ef 2e a1 3d f3 7a 9d 3d 11 81 56 be ce ec 05 3e
       0.0787028 0.07689466 -0.20947672 0.13078615
000190 eb c6 ab 3d e7 e9 59 3d 82 56 06 bd d0 35 65 3d
       0.0838755 0.053201582 -0.032797344 0.055959523
0001a0 26 bf 86 bd 65 3c c5 3d 25 82 0b be a7 bc 9c 3d
       -0.065794274 0.0963066 -0.13623865 0.0765317
0001b0 79 72 da bd 05 eb 4f bc da 68 14 3e fd a7 fe bc
       -0.10666365 -0.01269031 0.14493123 -0.031085962
0001c0 60 19 ac 3d c3 67 e6 bd b0 29 f6 bd 4f 4d 1b 3e
       0.084032774 -0.1125026 -0.1201967 0.1516621
0001d0 e7 69 11 3d 24 c7 fd bb f1 b0 09 3d bd 61 60 3c
       0.035501387 -0.0077446867 0.03361601 0.013695178
0001e0 5b ab c3 3c b3 e8 86 3d c1 55 55 bc 1f a1 48 be
       0.02388542 0.065873526 -0.013020934 -0.19592713
0001f0 21 22 56 be 82 10 30 3e c4 00 18 be ce 52 aa 3d
       -0.20911457 0.17193797 -0.14844042 0.08316575
000200 8f c5 10 3e a2 62 6d 3d e7 fc fb 3d 08 7a bd bd
       0.14137863 0.05795539 0.12304097 -0.09251791
000210 c5 ea 6b 3d ee 1a c1 bd 07 2f 8d 3b 79 24 1b 3e
       0.05759694 -0.094289646 0.0043085846 0.15150632
000220 da d6 07 bd d4 e0 c4 3d 7b 8c 47 bd 3c 2c 69 bc
       -0.033163883 0.09613195 -0.048717957 -0.014231738
000230 c4 f3 ce bc 44 e0 22 be 06 8e 01 be 97 f0 6d 3d
       -0.02526272 -0.15905863 -0.12651834 0.058090772
000240 81 e3 07 3e 96 d2 1b bd 2a 4a c5 3d 0d 50 05 be
       0.1327038 -0.038042627 0.09633286 -0.13018818
000250 15 00 06 bc 61 92 28 3d b8 2e 8a bc ae 69 a1 3c
       -0.0081787305 0.041155223 -0.01686798 0.019703712
000260 ed 4a e1 bd 37 d9 83 3d 5d 85 86 bc 1a f4 94 3d
       -0.11000619 0.06437915 -0.016421014 0.07273121
000270 01 8f 77 bc 0c b0 f5 3d 3c 8a 1a 3d b8 9e 8c 3e
       -0.015109778 0.11996469 0.037729487 0.27464843
000280 fa 21 ee 3d 69 b1 d3 bd 79 f4 9f 3d 5b 1c 20 be
       0.11627574 -0.10336573 0.07810301 -0.15635817
000290 c6 9d a6 bd c7 09 1b bd 41 9f 6c bd 2b 50 37 be
       -0.08135562 -0.03785112 -0.057769064 -0.17901675
0002a0 cd 94 a0 bd 20 66 d9 3d 4b dd a5 3d 2f cb 74 bd
       -0.078408815 0.10615182 0.08098849 -0.059764083
0002b0 a8 a6 b6 3d f2 11 20 be 3f fd 43 3d 1a 5e 98 bd
       0.08918506 -0.15631846 0.047848936 -0.074398234
0002c0 0d f0 3a be 4c 71 d8 3d 44 06 4d bc 6a 4c 08 3e
       -0.18255635 0.10568485 -0.012513701 0.133104
0002d0 34 1a 86 bd 78 9d da bc 59 94 31 be 19 97 bf ba
       -0.065479666 -0.026686415 -0.17341746 -0.0014617174
0002e0 9b 6d 21 bd 2f f4 f6 bc 28 fe 3f bd f9 13 47 bd
       -0.03941117 -0.030145733 -0.04687324 -0.04860303
0002f0 64 c6 98 3d 2a e9 22 be cd e6 e4 bd d5 81 76 bd
       0.07459715 -0.15909258 -0.11176834 -0.06018241
000300 70 4c 40 bd 69 11 a4 3c b9 c0 95 3d 5a 45 97 bd
       -0.046947896 0.020027833 0.073121496 -0.07386275
000310 36 3a 9c 3c a3 08 3f bd a8 ab e5 3a 23 24 ea 3d
       0.019070726 -0.046639096 0.0017522471 0.11432674
000320 10 9c fa bd a6 a2 dc 3c 37 f2 10 be 1a 84 95 3d
       -0.12236798 0.026933026 -0.14154898 0.07300587
000330 e0 2c 71 bc 79 23 bf 3d 64 7f e1 3d de a6 a3 3c
       -0.014720172 0.09332938 0.11010626 0.01997703
000340 fa b9 2e be 3a 1c dc 3c 88 49 34 3c 60 a4 ac 3c
       -0.17063132 0.026868928 0.011003859 0.021074474
000350 52 c7 bc bd d2 9a 18 3e d5 84 11 3c da 34 bd 3d
       -0.09217705 0.1490281 0.008881767 0.09238596
000360 29 ec 08 be f2 4c 19 be 42 16 d5 bd 27 96 4c 3c
       -0.13371338 -0.14970759 -0.10404636 0.012486971
000370 e3 1f 9c 3d 97 24 59 3b f2 5f b6 bc a4 80 e8 3d
       0.076232694 0.0033133382 -0.022262547 0.11352661
000380 8b 66 d3 3d a6 62 54 3d 91 41 fe 3c 1d 7c 1b be
       0.10322293 0.05185189 0.031037124 -0.15184064
000390 ca 65 e6 bc f4 ca c3 3d 08 e1 ef 3d c0 bf 55 3c
       -0.028124709 0.095601946 0.11712843 0.013046205
0003a0 0d f6 8e 3d af 74 5a 3e 0b e5 50 bc 84 80 ec bb
       0.06980524 0.21333574 -0.012749921 -0.0072174687
0003b0 b0 30 59 bd 85 da c7 bd b8 85 30 3d 65 c9 57 bd
       -0.053024948 -0.09758476 0.043096274 -0.0526823
0003c0 57 c7 ce 3b c7 a5 51 3b 5c 96 44 bd 9f 98 d6 bc
       0.0063103843 0.003198968 -0.047994956 -0.026195822
0003d0 79 52 51 bd 97 2e 1d 3d 29 60 20 3d 7e 9c 3d be
       -0.051104043 0.03837451 0.039154205 -0.18516728
0003e0 de 32 ff 3d f7 53 e7 bd cc ca d8 3c 62 8c 23 3e
       0.12460874 -0.11295312 0.026463889 0.1597152
0003f0 71 27 30 3d 5e eb 58 3d 9a 3d 88 bd 30 cd 64 3d
       0.043006364 0.05295884 -0.066523746 0.055859745

local2.norm.weight f4 [128]
000000 c6 31 71 3f 7a 0d 7f 3f d9 98 7e 3f 12 d7 79 3f
       0.94216573 0.9962994 0.99451977 0.97593796
000010 77 0d 7c 3f 41 96 73 3f 26 bf 74 3f fb 97 78 3f
       0.98458046 0.95151144 0.9560417 0.97106904
000020 6d 1a 60 3f 5c a4 67 3f 87 0a 7d 3f 80 2f 6f 3f
       0.8754032 0.9048517 0.9884419 0.93431854
000030 a7 54 7e 3f 3e 20 82 3f d8 6e 7e 3f 09 e2 7f 3f
       0.9934792 1.016609 0.99387884 0.9995428
000040 16 1e 79 3f 87 b6 6d 3f cc ef 64 3f b3 e1 64 3f
       0.9731153 0.9285664 0.894284 0.8940689
000050 b8 9d 5f 3f d4 3f 7d 3f b5 4d 73 3f 73 e9 72 3f
       0.87350035 0.9892552 0.95040447 0.94887465
000060 39 10 6d 3f e5 e0 67 3f d8 1e 82 3f 53 21 73 3f
       0.9260288 0.90577537 1.0165663 0.94972724
000070 2f 8f 65 3f bb 0e 76 3f d8 38 5e 3f ae 3d 78 3f
       0.89671606 0.96116227 0.86805487 0.96969116
000080 e0 e9 74 3f 4e 6a 84 3f 31 c8 69 3f f0 8c 6a 3f
       0.95669365 1.0344942 0.9132109 0.91621304
000090 52 62 72 3f ea 10 82 3f a4 f9 5e 3f 79 1f 81 3f
       0.94681275 1.0161412 0.8709967 1.008773
0000a0 85 d7 69 3f 3a a9 7b 3f 5b 99 6c 3f 3e b7 89 3f
       0.9134448 0.98305094 0.924215 1.0759046
0000b0 e0 2c 77 3f 39 f0 75 3f 9f a1 64 3f d9 86 7c 3f
       0.9655285 0.96069676 0.89309114 0.9864326
0000c0 de 63 7a 3f fa c5 5c 3f b1 8c 6c 3f 89 5f 6d 3f
       0.97808635 0.8623959 0.9240218 0.927239
0000d0 a3 98 75 3f 67 b7 88 3f e2 cb 8f 3f 2c 80 80 3f
       0.9593603 1.068097 1.1234095 1.0039115
0000e0 45 24 81 3f d9 49 6e 3f 71 16 6d 3f 23 4f 83 3f
       1.0089194 0.9308143 0.9261237 1.0258526
0000f0 7b 05 86 3f d5 e0 73 3f 81 af 62 3f 61 b0 7b 3f
       1.0470423 0.9526494 0.8854905 0.9831601
000100 c2 63 73 3f a8 29 7b 3f 94 43 74 3f 80 8b 69 3f
       0.95074093 0.9811044 0.95415616 0.91228485
000110 9c d0 61 3f 32 38 73 3f b6 d7 83 3f b6 b5 80 3f
       0.8820894 0.9500762 1.0300205 1.0055454
000120 b1 ae 78 3f 5d a5 77 3f 98 41 6e 3f 0c 05 5a 3f
       0.9714156 0.967367 0.9306884 0.8516395
000130 4d 80 71 3f bc 08 65 3f 87 e1 5f 3f c5 31 82 3f
       0.94336396 0.8946645 0.874535 1.0171438
000140 ca 5f 82 3f b4 61 7f 3f b5 53 83 3f ee 66 74 3f
       1.0185483 0.9975846 1.025992 0.9546956
000150 09 9f 70 3f ba 12 72 3f e0 d9 75 3f fa 9e 6c 3f
       0.9399267 0.94559824 0.96035576 0.9243008
000160 e4 5b 68 3f 5c 9f 81 3f a9 8f 74 3f 3e ab 76 3f
       0.90765214 1.0126758 0.9553171 0.96355045
000170 a9 da 6e 3f 06 50 75 3f 71 0b 81 3f 47 af 6f 3f
       0.933024 0.9582523 1.0081617 0.93626827
000180 94 99 62 3f 46 61 72 3f e2 31 6d 3f b2 51 6f 3f
       0.8851559 0.9467968 0.9265424 0.9348403
000190 1a 1c 59 3f f1 01 79 3f cd 85 6b 3f a0 68 68 3f
       0.84808505 0.9726859 0.9200104 0.90784645
0001a0 fd e5 72 3f 19 cb 5d 3f 56 68 8d 3f 51 95 81 3f
       0.94882184 0.8663803 1.1047466 1.0123693
0001b0 b9 52 72 3f 93 da 60 3f 96 0c 70 3f 4f f0 6e 3f
       0.94657475 0.8783352 0.93769205 0.9333543
0001c0 03 58 80 3f d0 f4 6f 3f dc 3b 68 3f c2 48 7b 3f
       1.0026859 0.9373293 0.9071634 0.98157895
0001d0 44 b4 7b 3f 51 65 6b 3f 79 1e 71 3f 89 dc 73 3f
       0.9832194 0.9195147 0.9418712 0.95258385
0001e0 ab f9 47 3f eb a4 77 3f 10 3b 76 3f e1 46 79 3f
       0.7811534 0.9673602 0.9618387 0.9737378
0001f0 13 a2 7e 3f ce c1 81 3f 19 65 81 3f 00 2b 82 3f
       0.99466056 1.013727 1.0108978 1.0169373

local2.norm.bias f4 [128]
000000 bf e2 b1 bd b3 d3 27 bd ba fb 3e bd 7a fc 2a bd
       -0.086858265 -0.040973376 -0.046626784 -0.041744687
000010 79 4e 7b bd 3c 62 f9 bd 0a 01 c4 bd 3e 30 5f bd
       -0.061354134 -0.1217694 -0.09570511 -0.054489367
000020 16 f8 0a be a4 71 c2 bd 55 14 97 bd 9c 2c d0 bd
       -0.135712 -0.094943315 -0.07376925 -0.101647586
000030 46 60 98 bd 89 bc 1c be bd 17 9e bd 6e f2 01 be
       -0.07440238 -0.15306295 -0.077193715 -0.12690136
000040 63 6e f9 bd 18 8d 01 be d3 74 18 be 57 44 0c be
       -0.12179258 -0.12651479 -0.14888315 -0.13697945
000050 38 75 2d be ac 40 a8 bd e3 b6 f2 bc 36 09 0a be
       -0.16939247 -0.0821546 -0.029628223 -0.13480076
000060 d9 da ea bd 70 1e 11 be f2 1c b5 bd 4c 26 b9 bd
       -0.11467523 -0.14171767 -0.088434115 -0.09040508
000070 7f de f7 bd 43 1e a1 bd 31 24 0a be 78 5e a9 bd
       -0.12102985 -0.078671 -0.13490368 -0.082699716
000080 ef 15 97 bd 68 5b 98 bd a7 cf 22 be 66 c3 d7 bd
       -0.073772304 -0.07439309 -0.15899526 -0.10535316
000090 27 70 b8 bd f1 92 fe bd 19 3f 02 be 19 2e ac bd
       -0.09005766 -0.124303706 -0.12719382 -0.0840723
0000a0 8a 29 1a be 0c 09 94 bd 63 63 f8 bd 62 86 7a bd
       -0.15054908 -0.07228288 -0.121283315 -0.061163314
0000b0 29 d1 e1 bd a3 05 de bd ac 31 08 be 6a 69 b7 bd
       -0.11026222 -0.10840919 -0.13300198 -0.08955653
0000c0 f5 2e 1e be be a1 1e be 41 e5 c4 bd ed c6 ee bd
       -0.154476 -0.15491387 -0.09614039 -0.11659036
0000d0 1f 15 c9 bd 64 6c c3 bd 8f 3d 6f bd d4 dc 84 bd
       -0.09818482 -0.09542158 -0.058408316 -0.06487432
0000e0 04 b4 43 bd 63 4b db bd 03 8c d2 bd c8 49 42 bd
       -0.0477791 -0.10707738 -0.10280611 -0.047433645
0000f0 ef c5 98 bd 55 30 ee bd 48 96 2a be c3 28 af bd
       -0.07459628 -0.11630312 -0.1665889 -0.085526966
000100 e2 96 e7 bd 06 cd 06 be 12 0f 06 be 88 15 e5 bd
       -0.113080755 -0.13164148 -0.13091686 -0.111857474
000110 8e 01 32 be cc 94 b3 bd 7d 04 1b be b1 1f bb bd
       -0.17383406 -0.08768615 -0.15138431 -0.09136904
000120 05 e8 94 bd 12 51 b1 bd 0d c9 f6 bd 91 28 12 be
       -0.07270817 -0.08658041 -0.12050066 -0.14273287
000130 70 d7 06 be f4 fb ca bd 95 3b 15 be db 7b 49 bd
       -0.1316812 -0.099113375 -0.1457351 -0.049190383
000140 a8 1e 2d bd 73 1e de bd 39 ce af bd f6 1d ba bd
       -0.042265564 -0.108456515 -0.08584256 -0.09087746
000150 37 83 d3 bd b5 65 35 bd 4a 37 d3 bd 1f 25 12 be
       -0.103277616 -0.04428645 -0.1031328 -0.14271973
000160 1c cd ff bd 92 2f 86 bd 5e 7c b9 bd a0 f0 a5 bd
       -0.124902934 -0.06552042 -0.09056924 -0.08102536
000170 a0 ef d7 bd bc c1 a0 bd 46 ec 6c bd 07 4c ec bd
       -0.10543752 -0.07849452 -0.057842515 -0.115379386
000180 8f 95 e5 bd 54 7c e4 bd 83 93 06 be de e5 72 bd
       -0.11210167 -0.11156526 -0.13142209 -0.05930125
000190 2f c4 05 be b8 3e 87 bd 29 ec eb bd 11 ec 3e be
       -0.1306312 -0.066037595 -0.11519653 -0.1864474
0001a0 93 b7 01 be ca 97 06 be 54 30 81 bd 13 f2 ae bd
       -0.12667684 -0.1314384 -0.06308046 -0.08542266
0001b0 6c c2 8a bd 2a cf d6 bd be 46 d2 bd 57 3d ac bd
       -0.06775364 -0.10488732 -0.10267399 -0.08410137
0001c0 f1 1c 48 bd 68 9e ec bd d0 99 07 be ad b7 ca bd
       -0.048855726 -0.11553651 -0.13242269 -0.098983146
0001d0 c9 a8 f5 bd e6 47 03 be 01 29 ec bd 26 40 02 be
       -0.11995084 -0.12820396 -0.115312584 -0.12719783
0001e0 92 ae 87 be 60 fd 1d be 1f 6b 94 bd 4b 08 cf bd
       -0.26500374 -0.15428686 -0.07246994 -0.10109004
0001f0 65 ff 0d bd bd f7 f2 bd db 21 67 bd a7 fb 3f bd
       -0.03466739 -0.118636586 -0.05642877 -0.046870854
