models/eeg_only/s_24.pt (torch, 561186 bytes, 37 tensors)

band_attn.fc1.weight f4 [8, 5]
00000000: cb5a abbc d896 ae3e 1d24 bc3d 1ffd ac3e
00000010: 5ad1 d93e b8f6 a4be 0022 df3e cec7 a4bd
00000020: e8ec 12bf ad15 0abf cea8 a7be a5a9 133e
00000030: ffac 943e 9906 acbe a6f3 6bbd 7550 bbbe
00000040: aad5 bc3e 0779 f63d 00ee cabe ce66 0c3f
00000050: a0fa d6be 3aa9 1fbd 99b5 143e 55f4 cf3e
00000060: 5607 d1be a687 42be 1375 2dbe 7f97 cc3d
00000070: 2278 aebe 4e88 9e3e b596 9dbd 1d4b cf3e
00000080: 24ed 80bc 2a9f 543e d76a ed3e 2f49 1c3d
00000090: 6b9f 12bd 4a27 d23e a955 d0be fb3b c43e
-0.020917317 0.3409946 0.091865756 0.33786866 0.42542535 -0.3221948 0.43580627 -0.08045922
-0.5739274 -0.53939325 -0.32745975 0.14420183 0.29038236 -0.33598784 -0.057605408 -0.3658482
0.36881763 0.12034803 -0.39634705 0.5484437 -0.41988087 -0.038979746 0.14522399 0.40616098
-0.4082591 -0.18997058 -0.16939192 0.09989833 -0.3407603 0.30963367 -0.07694761 0.40486994
-0.015738077 0.20763841 0.46370575 0.03815573 -0.035796564 0.410456 -0.40690354 0.3832701

band_attn.fc1.bias f4 [8]
00000000: ec5b 773e 0b97 c53e a306 053f f588 933e
00000010: ecc1 143f d3be 433e 0a5d 9fbe c9d5 3dbd
0.24156159 0.385918 0.5196325 0.28815427 0.581084 0.19115762 -0.3112567 -0.04634646

band_attn.fc2.weight f4 [5, 8]
00000000: 22d3 83bd 1f6b 6bbe 6a29 d13d 54b8 b43e
00000010: 42de 313e 5c3c 2b3e 0638 5e3e 8807 b83e
00000020: e1d3 96be 1bd5 d2be e220 89be d36b 333c
00000030: 9686 7fbe 138f 093e b354 b6ba fc66 b53a
00000040: 786f 8a3e c93f 0f3f a3b4 79bd 2762 163d
00000050: 4e90 fb3d 4772 74be fdec a63e 0e39 9f3d
00000060: 89b8 e83d 5515 80be 23f6 593e b065 70be
00000070: 8b6d 8c3e 0c88 35bd 5c4c 40be 0972 05bf
00000080: a661 0abe ded2 51bd 9e83 69bb 738c ab3e
00000090: 99fa c6bd 1f99 0e3e 7bc3 243e aba3 81bd
-0.06436755 -0.22990082 0.10212977 0.3529688 0.17369941 0.16722244 0.21701059 0.35943246
-0.29458526 -0.41178212 -0.267829 0.010951 -0.24953684 0.13433485 -0.001391074 0.0013839896
0.2703817 0.55956703 -0.060963284 0.0367147 0.12283383 -0.23871718 0.32602683 0.07774554
0.11363322 -0.25016275 0.212853 -0.2347629 0.27427325 -0.044319198 -0.18779129 -0.5212713
-0.13513812 -0.05122649 -0.0035631428 0.33505592 -0.097157665 0.13925599 0.16090195 -0.06330045

band_attn.fc2.bias f4 [5]
00000000: 2027 0cbe 3ed9 61be f386 cfbd 1c34 9fbc
00000010: aae9 d4bd
-0.136868 -0.22055528 -0.101331614 -0.019434027 -0.103961304

feat_proj.weight f4 [128, 21]
00000000: 03b0 7f3e e968 15bd 57cd 603e 0270 8a3c
00000010: d799 64be c56b 09be e98d 27be ff38 233e
00000020: f478 5f3e cdd1 8abd e899 ac3d d63b e43c
00000030: 8944 913d 5ec7 cebd 6dac bebd de3d 523e
00000040: c87d 643e 4fa4 0bbe 72e7 18bd 567b ea3c
00000050: ff1d 1e3e 8431 92be 0e16 02be c09c 723c
00000060: ecb9 a3be da71 9fbb adb2 fd3d 6dba c6bd
00000070: 41c5 353d 225f af3d d715 db3d b1b0 52bd
00000080: 6f8b 1bbe d885 7f3d 365e 75bd 39d3 473e
00000090: 3efd 01be cc56 55be c248 20bd f629 eabd
000000a0: 17ef 87bc d7d7 2a3d 7752 8e3d 93d9 8b3d
000000b0: a13f 45bd 2e17 44be 3754 30be b544 55bc
000000c0: 6020 9c3d 18f7 0cbe 1776 96bd 4897 53be
000000d0: 3b3b 22be 02e6 5a3d 414a 283e 876f c33d
000000e0: 2203 5abd 9827 86be 73c4 843e ba37 e2bd
000000f0: 31de 6a3d 6d78 49bd 67f3 e83c b4d7 963c
00000100: 94b9 67bd 88a4 85be 9bcb 7d3e 7a5f c33d
00000110: 8c39 cfbd 36b7 48be 32a1 15be ff94 3d3e
00000120: 3748 113e 1f63 c3bc ab35 333d 9588 933d
00000130: a441 91bd 7c50 05bd 3cec 6dbe ada2 9ebd
00000140: 1cc7 2bbe 96cc 34be ef55 473e 635c 2dbe
00000150: 0fbd 27be f9c5 08be 0353 6dbd e8a9 8cbe
00000160: 2092 bebd 7e2f 673a d89f 4ebe 6c55 cfbc
00000170: 84b4 343e f738 d1bd 8a92 a5bd 880a a13d
00000180: 1d44 2bbe 9030 aa3c 2374 b13d 3edf 04be
00000190: 7637 60be df3c a8bc 9057 6bbe c34a 11be
000001a0: 0a63 e13c c6e8 11be 70e3 233e 2314 03be
000001b0: 978b b3bb 56dc 9d3b ba81 153e 2cf4 ebbd
000001c0: af80 a43d 0e8e b6bc 4a12 84be e014 1abe
000001d0: 5eb7 b0bd d067 4e3e 3a34 113e 32c6 4bbe
000001e0: 5257 76be 736d 11be 87f2 333e ac6a abbd
000001f0: e42d 103e 0338 af3c 3869 a3bd 5f39 59bc
00000200: 091e d0bc ca87 65bc beff 253e 0ada 503e
00000210: a8b7 a13d 314e 183c 1104 943c e579 5d3e
00000220: b6ad 2e3c f21c 52bd 8daf 7d3e b1a7 b1bd
00000230: f77a 7dbe 41b0 1fbe c850 ef3d 0665 213e
00000240: d414 d63d f381 a1be edc5 a33d b019 033e
00000250: dbec 883d ed22 bcbe 2c6e 42be e6b5 8a3e
00000260: d02a acbd 9c17 5c3d 1638 31be 3689 d5bc
00000270: 86ab 5dbd 5fe1 c8bc 6252 bebd 3fa5 ce3d
00000280: a942 04be ac36 4c3c a70b 0b3e 5f48 193e
00000290: f2a2 8cbd 589a 15be 3900 343d 4877 b1be
000002a0: 92d3 c23d 3703 8d3e 0855 a4bd 2c9b 66be
000002b0: f505 bfbd 7f1c 8c3d a2d7 153e 79ee efbd
000002c0: 7d4f 2a3e c982 f7bc a6f1 5fbe cfc8 2f3e
000002d0: 0549 3fbe ebda 40be 9d32 e9bd 3029 e3bc
000002e0: 3368 aabd 3d8e f8bd 5c58 013e ff83 1dbe
000002f0: 022b f9bd 1edf 643d 55ed 10bd 10ad 8abe
00000300: 4cc1 51be bc24 80be 8601 0abe ae24 0ebe
00000310: 1016 df3d d7bd febb 12e5 49be 844f fc3d
00000320: d184 9abc ab9e 123d 8054 3a3e 1f7e ec3c
00000330: 867f 0bba bb41 0dbd c75a 24be bcdf d9bd
00000340: e81d 853c 98d0 80bb c1ea d2bd b3e3 6cbe
00000350: 586d 7cbe a164 7cbd 183c 193e c961 b23c
00000360: 1a8d 193e e2e9 543e 10dd 8fbb 7fc3 c6bd
00000370: 4f8d 9cbc 8911 25be 1862 ac3d 2590 223e
00000380: 46b5 18be ce66 bb3d 6216 1d3e afa7 c5bd
00000390: fe42 8d3d 6953 60be be5b afbd 666e e1bd
000003a0: a81f 753e 4395 793d c887 a3bd c547 6fbc
000003b0: b7ee 493e 9e69 d13d 7a12 f7bd ca5f b93d
000003c0: a0fc 083e eede 53be a8c6 d7bd 529d d83d
000003d0: 1f90 57bd f2e1 60be ba88 b6bd c946 ec3c
000003e0: c815 583e c774 653e 474e 8abe e150 593d
000003f0: f3df d0bd 6e03 ff3d 964c 67be 9fda 1fbe
0.24969487 -0.036477003 0.21953331 0.016899113 -0.2232431 -0.13420017 -0.16362728 0.15939711
0.21823484 -0.067782976 0.08427793 0.027860563 0.0709315 -0.1009662 -0.09310231 0.20531413
0.22313607 -0.13636898 -0.0373301 0.028623264 0.1544113 -0.28553402 -0.12703726 0.01480788
-0.31977785 -0.004865867 0.12387595 -0.09703527 0.04437757 0.08563067 0.10697525 -0.051438037
-0.15189908 0.062383503 -0.0599043 0.19514169 -0.1269426 -0.20833892 -0.039131887 -0.11433785
-0.0165935 0.041709747 0.06949323 0.06828608 -0.048156384 -0.19149467 -0.17219625 -0.013016869
0.076233625 -0.13766134 -0.073467426 -0.20663178 -0.15842907 0.05344201 0.16434576 0.095427565
-0.053225644 -0.26202083 0.2593113 -0.11045785 0.057340804 -0.049187113 0.028436376 0.018413402
-0.056573465 -0.2610209 0.247847 0.09539695 -0.10118398 -0.1960114 -0.14612272 0.18513869
0.14187704 -0.023850976 0.043752354 0.07203785 -0.07092598 -0.03254746 -0.23234648 -0.07745872
-0.16775173 -0.17656168 0.19466375 -0.16929774 -0.16380714 -0.1335677 -0.057940494 -0.27473378
-0.09305215 0.00088190276 -0.20178163 -0.025309287 0.17646986 -0.10215943 -0.08084591 0.07863337
-0.16725202 0.02077511 0.086647294 -0.12975785 -0.21896157 -0.020536838 -0.22982621 -0.14188676
0.027513046 -0.14248952 0.1600473 -0.1280065 -0.005479287 0.004817526 0.14600268 -0.115211815
0.08032357 -0.022284534 -0.25795203 -0.15047026 -0.086287245 0.20156789 0.14180079 -0.19899824
-0.24056748 -0.14201908 0.17572986 -0.083699554 0.14080006 0.021389013 -0.07979053 -0.013258307
-0.025404947 -0.014009425 0.16210839 0.20395675 0.07896358 0.009295986 0.018068345 0.2162853
0.010661533 -0.051297136 0.24773999 -0.08674563 -0.24753939 -0.1559458 0.1168533 0.15761194
0.104531914 -0.31544456 0.07996736 0.12802768 0.066858016 -0.36745396 -0.1898734 0.27091902
-0.08406603 0.053733453 -0.17306551 -0.026066404 -0.054118656 -0.024521528 -0.09293057 0.10090112
-0.12916054 0.012464207 0.13578664 0.14969014 -0.06867017 -0.14609659 0.043945525 -0.34661317
0.0951301 0.27541515 -0.08024031 -0.22520131 -0.09327308 0.06841373 0.14633039 -0.11715407
0.16631885 -0.03021373 -0.21869525 0.17166446 -0.18680198 -0.1883351 -0.11386607 -0.0277296
-0.08320656 -0.12136505 0.12631363 -0.15382384 -0.12166406 0.055876844 -0.035382587 -0.2708516
-0.20483893 -0.25028026 -0.13477144 -0.1388118 0.1089288 -0.0077740955 -0.1971629 0.12319854
-0.01886216 0.03579585 0.18196297 0.028868733 -0.00053214317 -0.034486514 -0.16050254 -0.10638377
0.016249612 -0.0039311163 -0.10298682 -0.23133735 -0.24651086 -0.061619405 0.1496433 0.021775143
0.14995232 0.20792344 -0.0043903664 -0.09705257 -0.01911035 -0.1611997 0.084171474 0.158753
-0.149129 0.09150468 0.1534057 -0.09651124 0.06897543 -0.21906818 -0.0856242 -0.11007385
0.23937857 0.060933363 -0.079848826 -0.0146045135 0.19719969 0.10225223 -0.12064071 0.090514734
0.13377619 -0.2069051 -0.105359375 0.105768815 -0.05262768 -0.21961191 -0.08912797 0.028842347
0.21102059 0.22407828 -0.27012846 0.053055648 -0.10198965 0.12451826 -0.22587809 -0.15610741

feat_proj.bias f4 [128]
00000000: 77a8 56bd 173b ce3d 9f56 f2bb e737 b8bd
00000010: d707 ae3d d335 2cbe b106 4bbe 8f82 0c3e
00000020: 0e09 46bc f1e3 863d e3df 24be a252 41be
00000030: 9b40 b03d 8c7a febd fb1f fe3d cf3c fdbd
00000040: 0da8 eebd 249f b6bc b0e9 a53b 696f a2bd
00000050: 9ca2 c1bd d32c 633d 48f3 d83d 09b2 97bc
00000060: 838b 11bd 7786 22bd 0e6b c7bd bd67 233d
00000070: 0400 64be 10bf 403d fbf0 093e dbcc 11bd
00000080: f859 3abd e590 833d 5fec 343e df9f 30be
00000090: fb44 be3c 6748 03be c1b9 f7bd ab1b 123e
000000a0: cea5 21be 4eec 09bc 36d7 323d 6479 29bd
000000b0: 7102 363e 13f2 18be f51d 803c 6058 a83d
000000c0: 17d9 62be bd49 1bbe 40f5 a53d 5e6f 07be
000000d0: 3707 cd3d 2058 b23d 6229 8fbd 5b62 103e
000000e0: 79af 433e 9a00 08bd 1c47 8c3d 7437 593e
000000f0: 802c 263e df9c 3bbe 938d 243e e8b2 963d
00000100: 54e7 883d e97f 24bd d07f 833e 5a79 03be
00000110: c3c4 05be 2000 d93d a453 47be 49df d63d
00000120: 71d0 913d 6c67 5fbe 9297 47bd b7a0 573d
00000130: 00cf 033c 598d c1bd b2da 433d aadb 6a3d
00000140: 6a7a 1ebe 5e2b 0abe ef4f b9bd e03a f83c
00000150: fabe 993d de05 073e d171 f33d 3637 233d
00000160: 90b4 d4bd 124b 5d3d ae0e bf3d 3fcc 57be
00000170: c693 1bbe ed44 99bd ea1a 653e 52b3 a1bd
00000180: a746 033e 9f9c 0a3d 160b d0bc d50b abbd
00000190: 6b62 b5bd 1533 a13d f48d 7ebd 06dd a7bd
000001a0: ec8b 2e3e ea4b e73c 1bbe 1ebe 95ba 243e
000001b0: cc11 ddbc 1130 f8bd 4f45 09be 509b 14be
000001c0: 1ddf bc3d e08c 273e 6635 2bbe 6bc3 c6bc
000001d0: 8965 023e 2cad dabc af19 d9bd 99de 52be
000001e0: f89e 28be 1511 35bd d297 db3d c939 073e
000001f0: d94d 1cbe c7f2 193d e2a8 8e3d 460e 31be
-0.052406754 0.10069864 -0.00739558 -0.089950375 0.08497589 -0.16817407 -0.19826771 0.13721679
-0.01208712 0.06586445 -0.16101031 -0.18879178 0.086060725 -0.12425718 0.124084435 -0.12365114
-0.11653147 -0.022292681 0.005063258 -0.07931406 -0.094548434 0.05546267 0.10593277 -0.018517511
-0.03553344 -0.039679017 -0.09737216 0.039893854 -0.22265631 0.04705721 0.13470833 -0.035595756
-0.045495957 0.06424121 0.17668293 -0.17248486 0.023226252 -0.12820588 -0.120959766 0.14268367
-0.15785906 -0.008418156 0.043662272 -0.041375533 0.17774369 -0.14936094 0.015639285 0.08219981
-0.22153126 -0.15164848 0.08103418 -0.13226077 0.10011142 0.08708215 -0.06990315 0.1410002
0.19109906 -0.0332037 0.068495005 0.2121256 0.16227913 -0.1832156 0.16069631 0.073583424
0.06684747 -0.040161047 0.2568345 -0.1283926 -0.1306334 0.10595727 -0.194655 0.10491807
0.07119835 -0.21816796 -0.048728533 0.052643504 0.008044958 -0.09450788 0.047815986 0.057338394
-0.15476385 -0.13493106 -0.09048449 0.030301511 0.07507129 0.13185832 0.11886943 0.039847575
-0.10386002 0.05402667 0.09328972 -0.21074007 -0.1519309 -0.0748385 0.22373548 -0.07895531
0.1281992 0.03384077 -0.025395911 -0.08351866 -0.08856662 0.07871071 -0.062147096 -0.08196454
0.17045563 0.02823444 -0.15502207 0.160868 -0.026986025 -0.12118543 -0.13405345 -0.14512372
0.09222243 0.16362333 -0.16719589 -0.024263104 0.12734045 -0.026693903 -0.10600602 -0.20592727
-0.16466892 -0.044205744 0.10722317 0.13205637 -0.15264072 0.037585046 0.069658056 -0.17290601

local1.conv.bias f4 [128]
00000000: 2ee1 123c 9e25 b43c ab96 cd3c 7e94 cd3b
00000010: 8ccb 3339 fdf8 ae3c e627 58bb 5648 1e3c
00000020: 1e6a 1c3d b3d4 afba 77a1 733c f6f2 50b9
00000030: 4ab3 953c d4f7 053d 6492 5f3b 8ee7 523c
00000040: 1d0f bdbb 291f 1a3d 21bd 9b3c 7266 fe3a
00000050: e646 a23b 754e 18bc 0586 183a f7d9 b83c
00000060: 1f05 79bc 9961 273c e7fd 463b 5a14 5a3c
00000070: 518a 6c3c 3d47 803c 868c b8bb 527c f03c
00000080: 9f14 e93a 156c e93c 256d f03c 53f5 1f3d
00000090: 464c 8ebb 9eab 76bc 7efb 663a 4322 ec3a
000000a0: a170 813c b8cf 1dbc c2fd c7bc 37e4 cc3c
000000b0: 076b 45bb 6bd2 d03c 2b02 973c b188 84ba
000000c0: 6c16 1a3d 22b2 a23c 353c 483c c342 b43c
000000d0: 0ad5 2a3b 8c74 9e3b 456c 08bc 30f6 ac3b
000000e0: 32cf 263c f906 99bb b566 89bc 93cd 873c
000000f0: f6f3 123b 8e4c 5f3b bfa2 8d3c c0eb 8cbc
00000100: 01d0 a33c a9c3 37bb fcb7 f9bb a2ba aa3c
00000110: c7e5 dbbc d0ec 8e3d 9734 4e3c 6685 d73c
00000120: f1d3 aa3c 8acd bb3c f0e7 9d3c 55be 09bb
00000130: fe1d 093b 1d05 613c e1fa b138 a597 473c
00000140: a8b9 83bb a7e9 77bb 22fa b6bb 5340 f63b
00000150: ead2 77bc 6688 373c 65dc cf3c 34f4 6f3c
00000160: 8fa6 19bc cef5 f33a 127a 8f3b 4b3d e93c
00000170: e7af b3bc 34d9 40bc 3423 043c d545 923c
00000180: 0f42 d3bc 8719 323c faad 0d3d 96b9 223c
00000190: 6476 db3c 8c60 37bc 02b0 6d3c 4f2e 6b3c
000001a0: 6b06 88bb fd7f 49bb e6b2 dcbc d877 7bbb
000001b0: e985 de3b c2ca 833b 3e1b d03b 41a0 66ba
000001c0: b929 bebb 4455 993a 69a3 66bc 4928 393c
000001d0: 9632 02bd 3e84 32bc bd15 d53c 00da 0c3d
000001e0: 5de0 88ba abfe 973c 04c4 ee3c 2c17 5abc
000001f0: 4008 e7bb fa8a c7bb b0b7 eeba 2ca0 243b
0.00896482 0.021990594 0.025096258 0.006273805 0.00017146597 0.021358961 -0.0032982766 0.009660801
0.03818714 -0.001341483 0.014870039 -0.00019926936 0.018273968 0.03270705 0.0034114355 0.01287259
-0.005769624 0.037627373 0.019011082 0.0019409193 0.0049522994 -0.009296049 0.00058183103 0.022564871
-0.015198975 0.01021614 0.003036374 0.013310516 0.014437274 0.015658969 -0.005631986 0.029356156
0.0017782635 0.02849392 0.02934892 0.03905232 -0.0043425886 -0.015055565 0.0008811279 0.0018015582
0.015800776 -0.009632044 -0.024412993 0.025011165 -0.0030123608 0.02549096 0.018433651 -0.0010111538
0.03761904 0.019860331 0.012221386 0.02200449 0.0026066923 0.004835671 -0.008326595 0.0052783713
0.010181235 -0.0046700207 -0.016772607 0.016577518 0.0022423244 0.003407273 0.017289517 -0.017202258
0.019996645 -0.0028040207 -0.0076208096 0.020840947 -0.026842965 0.06978762 0.012585781 0.026308727
0.020853015 0.022925157 0.019275635 -0.0021017988 0.0020922418 0.013734129 8.4867475e-05 0.012182151
-0.0040199347 -0.0037828477 -0.0055840174 0.0075149923 -0.015125969 0.0112019535 0.025373647 0.014645625
-0.00937809 0.0018612684 0.0043785656 0.02847161 -0.021934463 -0.011770535 0.008065034 0.017855564
-0.025788335 0.010870344 0.034589745 0.009931942 0.026789851 -0.011192452 0.014507296 0.014354303
-0.0041511557 -0.0030746453 -0.026940774 -0.0038370993 0.0067908657 0.0040219733 0.006350904 -0.00087976834
-0.0058033136 0.0011698385 -0.014077046 0.011301109 -0.031786524 -0.010895787 0.026011342 0.03438759
-0.0010442842 0.018554052 0.029146202 -0.013311189 -0.007050544 -0.0060895653 -0.0018212702 0.0025119884

local1.conv.lin.weight f4 [128, 128]
00000000: 012d cbbc edc3 aabc 3f92 df3c 14fd 6dbc
00000010: 3825 c8bc dae9 c9bd de93 26bd 973d c4bd
00000020: b0c5 e33d 2bc5 583d 2d28 a0bd ef58 013d
00000030: 86bb 7a3d 2e28 0bbd 29d7 51bd dc08 a2bd
00000040: 7f3e dc3d ade3 c1bd 7418 1a3e 4755 18be
00000050: 1ef7 d0bd 513c 7cbd f5e8 8cbc 4b77 11be
00000060: b33a 993d a83e cd3c bf64 da3d 41a4 eabd
00000070: e203 0bbd 8991 00be 09a4 bbbd 37ae 0dbe
00000080: 2607 ecbd 1111 fcbc ecbb 61bd b123 773d
00000090: 543f a2bd fbf5 d3bd c961 06be cb04 3d3c
000000a0: 8fba 7d3d e148 eb3c 75cd 0bbe 17b0 ffbd
000000b0: 5767 a4bd ff2e dfbd 8c3c 073d e292 8fbb
000000c0: 792a 0abe 5305 b6bd 5964 2a3e 4c79 08be
000000d0: 8f97 20bd 5738 313e 381b c93d 4148 023e
000000e0: 1dee e6bc 543a cb3d a77e 84bd 3d59 063e
000000f0: 2330 9f3d baa0 303d 41e3 173c cd4f 22bb
00000100: 9bf5 163d cbe9 913d 2631 b43d 85d9 473d
00000110: 7c23 e33d a1eb c3bc f9a7 1a3d c44d f93b
00000120: c967 ad3c c8b0 753d 90b0 be3d a279 313d
00000130: e1d8 c3bd c9c0 163e 35ae 113e 905f 09be
00000140: 1caa cebd c3ad 16be 1255 d13d c552 88bd
00000150: 0739 3b3d 180d 16bd 9c16 853d edb1 2dbe
00000160: 381b e03d cc6f 103d 26c8 64bd 19d7 12bd
00000170: c9e9 85bc 1132 a7bd 1122 bbbd ec8d 073e
00000180: fb2a 0d3e a0d3 a73b 0953 333e 71d0 11bd
00000190: b12a 873d cfb3 c3bc 9226 13bd a383 bc3d
000001a0: d34e fbbd c999 00be 4408 33be c9ac ddbd
000001b0: 45b9 05be 61d9 25be 4e75 29be 1aa7 0dbe
000001c0: d6c0 a3bd 2ea6 47bc 207f 89bd 0eef 00be
000001d0: 171f 9cbd 2a5d 5bbc 485b d3bd 2df5 b83d
000001e0: 9fb4 e33b 0ed6 bdbc 9284 28bd 0463 f7bd
000001f0: b2fe c3bd 04cc 19bc c8c7 853d 4873 7abd
00000200: d912 ad3a 63fd 88bd a73c 14be a7cf e03d
00000210: 96e1 943d 6177 7fbd 2fc2 06be e0bc 313e
00000220: 0a31 143e 74c7 0c3e 3d56 10be b59e 9c3d
00000230: 389e 08bc 50e1 1f3c bba8 5d3e faa8 fc3d
00000240: 734b ca3d 0d5a ff3d 50dc cbbd 2328 733d
00000250: 4a02 323c 2d92 4d3d e1c3 87bd fe94 ccbd
00000260: 9bf4 6bbd 9487 1d3d f101 d0bc bdde b13d
00000270: d23e f03a 3a65 1b3e de4b 103b ac92 82bc
00000280: ead1 25bd 611c a63c 9b59 9d3d cb49 673d
00000290: c992 753d 4b5f 82bd 4ea8 5f3d 0015 a5bd
000002a0: 17d2 173d 39b0 883d 085b fa3d 7407 bbbd
000002b0: a457 00be 43ae a8ba cc28 7fbb eedb f5bc
000002c0: 4a42 823c ca9c 1d3d d7b6 cc3d 7ba5 86bd
000002d0: c2ea efbd a30d f83c a0ef 803d ac52 adbd
000002e0: dfd4 0d3e 543f 293c 64de 85bc 26fb a3bd
000002f0: a716 84bd ea2a 6a3d 091e a5bd 80df adbd
00000300: 5e6e 6f3d 5066 203c 33d0 0c3e 6711 d43c
00000310: d164 8dbc 222c da3d 7aa1 b43c 3578 883d
00000320: 9aa7 3e3d 8304 fabc 9131 bdbd 1ca8 84bc
00000330: deaf 1a3e d0a5 91bd 9f7e b5bd 5eda b23d
00000340: 7c94 20bc c6af a6bc 787c d43d 0a2b 403c
00000350: 97f6 dabd 2374 50bd d6bc 6bbd ab63 19bc
00000360: f98b 863d 3e78 df3d 6fd4 1cbc 140c a43d
00000370: 5216 6fbd eeea 95bc d715 45bd d5be a0bd
00000380: 5bd2 933d a9ec a63d c681 9d3d 7777 dd3d
00000390: d281 b4bc 8646 ef3c 685e ffbc 079e 9a3d
000003a0: ec40 9f3d 5ae5 66bd 1ccb 823d 6d11 8fbc
000003b0: dd0b 78bc 16f0 a33d a947 d23d 6fff 9a3c
000003c0: a9c2 f53d 413d d33c 2cff d0bd 3300 fd3c
000003d0: 9ec5 cf3d 1549 c43d 83a3 a5bd 822e 31bc
000003e0: 14ce be3d 6500 433d 79cc f93d 210d e23d
000003f0: 2326 d93c 1f7d d2bd 34dd c4bd 4abd 26bd
-0.024801733 -0.020845378 0.027291415 -0.014525671 -0.02443181 -0.09859057 -0.04066836 -0.0958206
0.1112169 0.05292241 -0.07820163 0.031578954 0.061213993 -0.033973865 -0.051230583 -0.07911846
0.10754108 -0.09467254 0.1504839 -0.1487628 -0.10203384 -0.06158096 -0.017200926 -0.14205663
0.07481899 0.02505429 0.10663747 -0.1145711 -0.03393925 -0.12555517 -0.091621466 -0.13835989
-0.11524801 -0.030769857 -0.055110857 0.060336772 -0.07922235 -0.103496514 -0.1312324 0.011536787
0.061945494 0.028721275 -0.13652594 -0.12484758 -0.08027523 -0.10897636 0.033016726 -0.0043815235
-0.13492765 -0.08887734 0.16639842 -0.13327521 -0.039207038 0.17306648 0.09819645 0.12722875
-0.028189713 0.099232346 -0.064694695 0.13119979 0.07772853 0.04312203 0.00927049 -0.0024766803
0.03685532 0.071246706 0.08798437 0.048791427 0.110907525 -0.023916068 0.037757847 0.0076081473
0.021167653 0.059983045 0.093110204 0.04332889 -0.09562851 0.14721979 0.14226611 -0.1341536
-0.100910395 -0.14714722 0.10221304 -0.06656412 0.045708682 -0.03663358 0.06498453 -0.16962405
0.109426916 0.035262868 -0.05585494 -0.035849664 -0.016346829 -0.08163846 -0.09137357 0.13237733
0.13785927 0.005121663 0.17512144 -0.035599176 0.065999396 -0.02388945 -0.035925455 0.09204795
-0.12270894 -0.12558664 -0.17483622 -0.10823972 -0.13058956 -0.16196205 -0.16548654 -0.13833275
-0.07995765 -0.012185616 -0.067137 -0.12591192 -0.076231174 -0.013388911 -0.10320145 0.090311386
0.006949022 -0.023173358 -0.041142054 -0.120794326 -0.09570064 -0.00938702 0.06532246 -0.061145097
0.001320447 -0.06688955 -0.14476262 0.109771065 0.072695896 -0.062369708 -0.13160013 0.17357206
0.14471832 0.1374796 -0.14095397 0.076474585 -0.008338504 0.0097583085 0.21646397 0.12336917
0.09877672 0.12468348 -0.09954131 0.05936445 0.010864804 0.050188232 -0.06629158 -0.099893555
-0.05760632 0.038459376 -0.02539155 0.08685062 0.0018329269 0.15175334 0.0022017877 -0.01593908
-0.040483393 0.020277204 0.076831065 0.05646686 0.05995444 -0.06365832 0.054603867 -0.08060646
0.03706559 0.06674237 0.12224394 -0.09132281 -0.12533432 -0.0012869317 -0.003893423 -0.030012097
0.01590075 0.038479604 0.099958114 -0.06574532 -0.117146984 0.03027994 0.06295705 -0.08463034
0.13850735 0.01033004 -0.016341396 -0.08006887 -0.06449633 0.057169832 -0.080623694 -0.08489895
0.058454864 0.009790018 0.13751297 0.025887204 -0.017259987 0.10652949 0.022049654 0.06663553
0.046546556 -0.03051973 -0.0923797 -0.016193442 0.1510615 -0.07111704 -0.08862042 0.087330565
-0.009801026 -0.020347487 0.10375303 0.011729011 -0.106915645 -0.050892007 -0.057553135 -0.009362142
0.065696664 0.10911606 -0.0095721325 0.08010116 -0.058370896 -0.0183005 -0.04811653 -0.07848898
0.072178565 0.08150608 0.07690768 0.10813802 -0.02203456 0.029208433 -0.031172946 0.075496726
0.07776055 -0.05637107 0.06386396 -0.017464364 -0.015139547 0.08004777 0.10267574 0.018920628
0.12000019 0.025786044 -0.1020492 0.030883884 0.10145114 0.09584252 -0.08087828 -0.010814311
0.0931665 0.047607798 0.12197203 0.110376604 0.026507443 -0.10277771 -0.09612504 -0.040707864

local1.norm.weight f4 [128]
00000000: da49 833f a3c6 7d3f b343 7d3f 8351 7a3f
00000010: 290c 7d3f 5048 843f 0129 843f a315 6f3f
00000020: b040 813f 145a 7a3f 28e3 753f ab39 893f
00000030: 917c 663f e189 873f 80ac 7c3f 9019 753f
00000040: 99bd 843f 8178 733f dadd 753f 1fc1 813f
00000050: e30d 813f 3c83 7f3f 2e76 7e3f 79f4 7d3f
00000060: f15c 7e3f d7e4 7a3f 55ac 7b3f 924f 8d3f
00000070: 1e87 7a3f 0053 7d3f 2236 7c3f 697a 7e3f
00000080: d315 7d3f 4a65 7c3f 4ffc 803f 401e 773f
00000090: 2b85 833f b5f6 7c3f 0f3e 803f ff6f 803f
000000a0: 4699 853f 3a71 843f e896 883f a078 7f3f
000000b0: e065 773f 2ced 8a3f a5fd 763f e98d 763f
000000c0: d8b2 813f afe0 7c3f 5708 803f 8c1d 7e3f
000000d0: 9ec4 803f 501f 883f f2ec 823f 296b 803f
000000e0: 8ba3 803f b879 713f 558b 6e3f bbe6 733f
000000f0: 3ab6 803f a9b7 763f 179f 763f 2541 8c3f
00000100: e352 723f 4564 813f fca3 823f 6c05 6f3f
00000110: 7f50 7e3f 0e29 783f b97e 803f 63ba 813f
00000120: a29c 7b3f 3504 773f 8ecd 823f 95f1 823f
00000130: 1ea2 803f 79af 6e3f b5f7 803f e47a 753f
00000140: 8ce1 843f 764f 7b3f 6147 7c3f 1ea4 873f
00000150: a097 763f dc4a 733f 6944 743f 9d1c 713f
00000160: 5eff 803f d4d2 7e3f cfda 813f a8eb 833f
00000170: 48ef 7e3f 0825 813f 3f14 733f 124d 7c3f
00000180: 496d 8c3f bc49 7d3f 23b9 8a3f 8c34 783f
00000190: b4ab 763f 9e8b 823f 7b79 6e3f a791 613f
000001a0: 1982 763f 09b5 7a3f d4bd 8a3f 7ab6 7f3f
000001b0: e07b 7d3f 5a8c 863f ff23 893f 8008 903f
000001c0: 1245 753f fd06 893f 4686 863f 8227 833f
000001d0: f2fd 853f 3c58 7e3f bead 6b3f 5731 773f
000001e0: 935b 823f 6e3b 833f 88a3 823f 80b2 853f
000001f0: ce79 893f fef7 753f 3809 823f 9b37 813f
1.0256913 0.9913122 0.98931426 0.97780627 0.9884668 1.0334568 1.0325013 0.9339239
1.0097866 0.977937 0.9604974 1.0720724 0.90033823 1.0588952 0.98700714 0.9574213
1.0370361 0.9510575 0.96041644 1.0137061 1.0082363 0.9980962 0.9939908 0.9920116
0.9936057 0.9800543 0.9830983 1.1039908 0.9786242 0.9895477 0.985201 0.99405533
0.98861426 0.98592055 1.0076998 0.9653053 1.0275015 0.98813945 1.0018939 1.0034178
1.04374 1.0347054 1.0671053 0.99793434 0.96639824 1.0853629 0.9648078 0.9631029
1.0132704 0.9878034 1.0002545 0.99263835 1.0060003 1.0634556 1.022856 1.0032703
1.0049909 0.94326353 0.93181354 0.9527394 1.0055611 0.96373993 0.963365 1.095738
0.94657725 1.0108725 1.0206294 0.9336765 0.9934158 0.96937644 1.0038673 1.0135006
0.9828588 0.96490794 1.021898 1.0229975 1.0049474 0.932365 1.0075594 0.9589064
1.0381331 0.9816812 0.98546416 1.059696 0.9632511 0.950361 0.95416886 0.94184285
1.0077932 0.9954045 1.01449 1.0306292 0.99583864 1.0089426 0.9495277 0.985551
1.0970851 0.98940635 1.0837749 0.9695518 0.9635575 1.0198858 0.93154114 0.8811287
0.96292263 0.9793249 1.0839181 0.9988781 0.99017143 1.0511582 1.071411 1.1252594
0.9580852 1.0705258 1.0509727 1.0246432 1.0468123 0.99353385 0.92061985 0.9655966
1.0184196 1.0252512 1.0206156 1.0445099 1.0740297 0.9608153 1.0159063 1.0095094

local1.norm.bias f4 [128]
00000000: c40f 463c f609 19bd 437a 2fbd 528c b2bd
00000010: e33c 04bd 3671 51bd 40d2 82bc ad31 bcbd
00000020: 60ae d7bc 4ea3 17bd 6ff1 12bd 3bdd 8dbd
00000030: 2445 cabd e82c 4ebd 0aed 6abd 62d1 63bd
00000040: 07c2 a1bb 38ef 6abd f1d6 35bd f486 acbc
00000050: 618f ccbc 2a0c f1bc 9522 0cbd 7a19 73bd
00000060: 1408 76bd 8034 9abd c403 d5bc d59f 28bd
00000070: 048d f1bc ba64 c3bd 4292 68bd 6b7a 16bb
00000080: 9ca6 eebc 4001 c7bc cc7d 64bd a37a 89bd
00000090: b285 27bd c41c 5bbd 9b38 80bd 6bc8 12bd
000000a0: d252 3ebd 2397 10bd 83a8 fcbc d226 94bd
000000b0: bb76 84bd 8ae8 6ebc 4d80 6abd b382 17bd
000000c0: b9a5 c6bc 2715 d5bd e560 9abd af95 61bd
000000d0: c470 b9bc 488b a7bc 91e0 09bd c8e3 e7bc
000000e0: 7857 4bbd d3e0 96bd 6a39 a9bd 3d33 6dbd
000000f0: 7ac7 acbc 4946 43bd de31 38bd ebc4 cbbc
00000100: 80f8 22bd 81f2 29bd 34d9 66bd efd3 32bd
00000110: df73 70bd bd0c 43bc cdd7 c9bd 4bb2 27bd
00000120: 9dfe 60bd 7a1b 6ebd b29f 56bd 9cf4 23bd
00000130: 887e dbbc 0f66 79bd 5980 e0bc 4005 dbbc
00000140: a97d fabb 3aa6 79bd cde9 89bd d857 04bc
00000150: d98c 72bd 6347 50bd aca8 4bbd 91ff b7bd
00000160: a4b2 e7bc 7413 8fbd f524 6dbd 1f27 17ba
00000170: 1ab8 93bd 12bb 02bd 2268 3fbd 9184 f5bc
00000180: da4d 64bd b5d2 04bd e3cc 22bc c44e 26bd
00000190: 2b06 01bd 80a0 cdbc c4db 71bd ffa0 10be
000001a0: e2b2 c1bd baff 6cbd d411 78bc 7b97 92bd
000001b0: 8a92 0fbd 656d acbc b782 0dbd d19d 55bc
000001c0: c8ab 33bd de60 3dbd 2ab7 15bd ea41 a2bd
000001d0: cb31 37bd 1d17 26bd 8de1 d9bd 2d77 f5bd
000001e0: 8295 1dbd 9aa9 82bd 450a 24bd 1a43 7dbd
000001f0: a0c8 1ebd fc9f 66bd 7a26 febc 275f 08bd
0.01208872 -0.037363015 -0.042841207 -0.0871817 -0.03228463 -0.051133357 -0.015969396 -0.091891624
-0.026328266 -0.037020974 -0.03587478 -0.06926962 -0.09876469 -0.050335795 -0.057354964 -0.055619605
-0.00493646 -0.057357043 -0.044394437 -0.021060444 -0.024970712 -0.029424746 -0.034212667 -0.05935047
-0.060066298 -0.07529545 -0.026002772 -0.041168053 -0.029486187 -0.095406964 -0.056780107 -0.002296115
-0.02913218 -0.024292588 -0.05578403 -0.06712844 -0.040898986 -0.05349423 -0.06260797 -0.035835665
-0.046465702 -0.035300385 -0.030842071 -0.07233967 -0.064679585 -0.014581809 -0.057251263 -0.03698988
-0.024248945 -0.10404425 -0.075380124 -0.05507439 -0.022636779 -0.020452157 -0.03366143 -0.028306857
-0.049643964 -0.073671006 -0.08262904 -0.057910193 -0.021091212 -0.04767445 -0.044969432 -0.024874171
-0.03978777 -0.041491035 -0.056359485 -0.043659147 -0.058704253 -0.0119048925 -0.09855614 -0.040941518
-0.05493032 -0.058131672 -0.05239839 -0.0400282 -0.026793733 -0.060888346 -0.027404951 -0.026735902
-0.0076443744 -0.06094954 -0.06734047 -0.008077584 -0.059216354 -0.05084933 -0.049721405 -0.08984292
-0.028283425 -0.06986132 -0.057896573 -0.00057660224 -0.07212849 -0.031916685 -0.04673017 -0.02997044
-0.055738308 -0.03242751 -0.009936544 -0.04060246 -0.031500023 -0.025100946 -0.059047475 -0.14123915
-0.09457947 -0.057861067 -0.015140969 -0.07157799 -0.03505186 -0.021048257 -0.034548488 -0.013038115
-0.043864995 -0.046234958 -0.036551632 -0.07922728 -0.04472522 -0.040549386 -0.106387235 -0.119856216
-0.03847266 -0.06380005 -0.040048856 -0.06183157 -0.03876555 -0.056304917 -0.031024206 -0.03329387

local2.conv.bias f4 [128]
00000000: b2bc ae36 f6bd eabc d627 79ba 153f a139
00000010: 37c2 373a d7b0 483a 2cf7 283a b037 393c
00000020: fbd0 a03c 6d5c 5cba aaee 5439 4b48 223b
00000030: c2f8 8ebb b520 dc39 85b5 8e3a 5f1d c639
00000040: d40a 6e39 1d7d 6eba baa9 093d f52d 7f38
00000050: 1076 933a f536 85b9 b4bb b3ba 5ba5 f8ba
00000060: 914e 883a 7e1e 96b9 add0 6cba 5326 483c
00000070: 8387 0cbb 88ab 1a39 c47c cc39 0206 1239
00000080: 14c2 48b9 0a9d b639 caac 9ebc f403 8c3a
00000090: 38ec 8aba 953b 33ba f989 1a3a 45c7 deba
000000a0: 0662 b3b9 3c7e a13a b91a ddbd 29ba b539
000000b0: eabc ce3a 6149 5038 c3e8 06b9 445b 5c38
000000c0: 2c1a 88bb 3d2f 3ab9 4676 48bb 6983 643a
000000d0: b7e1 27bb c904 ae3c d8c0 3e39 52f2 583a
000000e0: 45f9 f839 4589 013c bad0 8039 951d 83ba
000000f0: 16fd ad39 0967 73b9 330a 963a 1e3f 89b9
00000100: b339 7c3a 53cb 68bb a2b4 e9ba cc35 273b
00000110: 2804 d838 6563 eb39 d81e 8e3a 202c 1f3a
00000120: 0f0f 733b c032 6ebd 8b16 1c3a b9d1 4c3b
00000130: 042c 31bd f116 aab7 f3ad ed3b 7bd7 5ab9
00000140: a315 cf3b 2141 2c3c eef9 a539 9ed7 6cba
00000150: 12c3 2e3a df26 493a 679b 04bb b9b8 25ba
00000160: d944 263a be45 113c 8d31 163a f83a 513a
00000170: 2844 d13a 4e25 1bba 843e 463a 380a 89bb
00000180: 4f1d 053d 080c 953c 0ed1 99b9 a3ac 8fba
00000190: b34b 0cba 66c6 aeb9 d1d4 45ba 87a2 0abb
000001a0: 65ee 65bc 1592 8b3c 28cd 813a 2a37 d638
000001b0: 116d 5c3a 4658 bb3b 27a5 3b3b 7f14 82ba
000001c0: 3148 6a3c bd58 96b8 ca74 ed3a a478 4839
000001d0: a628 3b3a 7545 74ba 8bfb 123c d5e0 1a3d
000001e0: b57e 7f3b 750f 613a b8c9 023d 16c5 ffb9
000001f0: f11f ad39 3a3e 5bbb bb5e da3b c964 be39
5.207571e-06 -0.028655034 -0.0009504532 0.00030755313 0.0007009836 0.0007655746 0.0006445523 0.011304781
0.0196309 -0.00084061065 0.00020306805 0.0024762328 -0.0043631503 0.0004198604 0.0010887837 0.00037787386
0.00022701483 -0.0009097623 0.03360913 6.083954e-05 0.0011250395 -0.00025408683 -0.0013712556 -0.0018970178
0.0010399391 -0.00028632948 -0.00090337807 0.012216168 -0.0021443076 0.00014750485 0.0003900287 0.00013925883
-0.00019145786 0.00034830748 -0.019369502 0.001068233 -0.0010598963 -0.00068371865 0.00058951933 -0.0016996643
-0.00034214574 0.0012320946 -0.107961126 0.0003466171 0.0015772854 4.9659404e-05 -0.00012865946 5.2537085e-05
-0.0041535106 -0.0001775594 -0.0030588075 0.00087170914 -0.0025616714 0.021242516 0.00018191652 0.00082758546
0.00047487966 0.007906263 0.00024569576 -0.0010003323 0.00033185695 -0.0002321267 0.0011447131 -0.00026177702
0.0009621635 -0.0035521581 -0.0017830322 0.0025514243 0.00010300457 0.00044896748 0.0010842932 0.0006071944
0.0037087833 -0.058153868 0.0005954287 0.0031252934 -0.043254867 -2.0276262e-05 0.0072534024 -0.00020870373
0.006319718 0.010513575 0.00031657465 -0.0009034815 0.0006666641 0.0007673334 -0.0020234229 -0.00063217763
0.00063426566 0.0088667255 0.00057294295 0.00079815043 0.0015965747 -0.00059183396 0.0007562416 -0.0041821264
0.032498654 0.018194214 -0.00029338192 -0.0010961484 -0.0005351856 -0.00033335685 -0.0007546666 -0.0021154003
-0.0140338885 0.01703743 0.000990306 0.0001021459 0.0008408586 0.00571731 0.0028632374 -0.0009924321
0.014299438 -7.169086e-05 0.0018116471 0.00019118428 0.0007139541 -0.0009318211 0.008971105 0.037812073
0.0038985435 0.0008585372 0.031930655 -0.0004878423 0.0003302093 -0.0033453838 0.006664125 0.00036314715

local2.conv.lin.weight f4 [128, 128]
00000000: 964a ffbd 160d 013e 9cdf 31bd b725 033e
00000010: 4406 f13c cb75 dfbd 582e 11bc bafd 74bd
00000020: d605 7d3d be56 323e db25 2cbd ab9f b43d
00000030: 1856 1cbd 3449 c43d 8f26 1abd 349f 953d
00000040: 86a4 e9bd 3fc8 153d dadd dbbd 5d37 3f3e
00000050: 112f 55bd 00fd b03d 1a39 343d a4d6 0abe
00000060: 4a29 043e 1f1e 673d 6922 193d 80de e3bd
00000070: 1dc3 8fbc e2e0 98bd df81 1bbe 6c57 b5bd
00000080: 41d4 09be 88f0 6a3d d00b de3b a7cf 503d
00000090: 5856 a3bd 3a71 1c3e 1170 d93d abfe ddbd
000000a0: 97e6 663c 6b53 773d db1c 4fbe 4b4d 81bd
000000b0: e6c3 c23d 422f 0b3e 3ab0 7fbd e07c cd3d
000000c0: f4ec 003e 322c 593c d69b 42bd 33d4 95bd
000000d0: 700e 6cbd bbe2 c53c 9e7c e83c d292 113e
000000e0: bbe7 eabb d161 d4bc f43b fd3d c3f9 b9bd
000000f0: 94af 39be b6e9 f8bd 7f02 8cbd 1278 43bd
00000100: f04f a0bd 5fb7 bdbd 2d3f 9cbd 71e2 223e
00000110: dcf1 f7bd 71c9 f4bd ef07 c7bc b266 5a3d
00000120: 1d67 20be 1048 9dbc a3b6 2d3d 7156 3cbd
00000130: d959 a0bc 72b6 b23c b3ac e63c 3832 f43d
00000140: ad03 fcbd c5e9 653d 1568 013e 13e1 9cbc
00000150: 344b dcbd 8ce6 c53d 60ab d63c 393f 16be
00000160: b0b7 13be b9aa 073e 1b31 70bc 55eb 71bd
00000170: b37c 503d 0010 083e 2655 41bd 8a08 503d
00000180: 569f 86be d7aa 54bc 165b cdbd f305 133e
00000190: c17e c43d 0b67 24ba 6d1f fbbc dbae 123e
000001a0: acae 513c a484 70bd 8b81 9dbd 15b4 873d
000001b0: cf08 e6ba ab1d 5f3c 6705 383e fd06 d13d
000001c0: 2d5a ed3d 3995 30be 0204 a33d 4cb5 9cbd
000001d0: cbf3 bbbc 84ed c9bd eed9 133e 9532 01bd
000001e0: 821e b83d 3831 123d 0e32 993d 7a09 38be
000001f0: e1e1 93bd 39ad c9bd 5edc 033e 1a1e 0abd
00000200: 9346 123e 88bc 9d3d 8107 c5bd 4b05 273e
00000210: 4b19 68bd f524 86bd 7444 893d d95f 43bc
00000220: eddc 10bc e619 8c3d 265e 65bd 439a 30bc
00000230: bbda ad3d 8359 18be 9c8f aabb 79de e03c
00000240: 8a9d d53d 1d1c 0b3e f8a2 fe3d ec15 64bd
00000250: 80da 893d 01fb 3d3d c70b b53d e3d7 573e
00000260: 53e3 10be 9fbc 34bd d13f df3d 0deb 213e
00000270: 9541 3bbe d8c1 05be 31bd dbbd 0895 ce3d
00000280: 73cc 06be 1a84 1c3d 3658 bfba d765 cfbd
00000290: a345 6c3d 82ce e5bd c6ad e7bc e589 1bbd
000002a0: 519c 9639 0d1e 1b3e 1a52 f4bd 89f2 263c
000002b0: 5a1a 773d e898 c7b9 6dcc 41bd 083f 4c3d
000002c0: bcbf 06be 8056 38bc 1005 0cbe a097 6dbb
000002d0: 82d1 f4bc 638c 963d d804 4dbd b6be 263e
000002e0: a3d0 aa3d 1366 d23d 7dca f23d 162f 1e3e
000002f0: 73ef c73d 7947 e13d b815 0f3e 0c90 edbc
00000300: 32d1 0bbe 093e 343d a587 03be d4f7 e4bd
00000310: 0f07 ca3d 5735 923d 6a85 f93c 4a9d 063b
00000320: 47f8 0fbd ea53 613d 0d91 78bd 4cbd a03d
00000330: 0281 683d 85af 23bd 369e 1abc b57b c83d
00000340: 6241 083e 4ddd 1bbd 6d20 b0bd 6b85 463e
00000350: 8f13 1dbe 5880 1ebe c747 8cbd dc13 d4bd
00000360: 4e3b 83bd 9933 60bd 005d c7bd b3aa 303e
00000370: 0883 edbc 48af 8ebd cd27 0ebd 1a5c 4aba
00000380: 453e 873e 920a 843d d08c f93c fb65 0ebd
00000390: e69a 97bd e67c 103d a0df d93a 062e d83d
000003a0: cdb6 38be a9fb fbbd 3017 513d 40e6 a83d
000003b0: 47e8 153e c2d8 06bd 241a b83c e185 113e
000003c0: 6878 6e3c c813 d83d 6ed5 bdbd ec66 c03d
000003d0: 08f3 2e3e da06 20be 6190 1b3c 0393 74bc
000003e0: a8a8 9a3d 60dc 97bd 5429 c4bd 28e6 cf3d
000003f0: 2c9f 10be b3ec bebd d707 99bc 85d3 00bd
-0.12465398 0.12602648 -0.04342614 0.12807356 0.029421933 -0.10911139 -0.008861147 -0.059812285
0.061773144 0.17415902 -0.04202829 0.08819517 -0.038168043 0.09584275 -0.03763443 0.07305756
-0.114083335 0.036567923 -0.10735674 0.18673463 -0.05204684 0.08642006 0.04399977 -0.13558441
0.12906376 0.05642521 0.03738633 -0.11126423 -0.017549092 -0.07464768 -0.1518626 -0.08854565
-0.13459875 0.057358295 0.0067763105 0.050979283 -0.07975453 0.15277568 0.10617078 -0.1083959
0.014093063 0.060382288 -0.20225851 -0.063135706 0.09510021 0.13592246 -0.062423922 0.10033584
0.1259039 0.013255166 -0.047511898 -0.073158644 -0.057630956 0.024155965 0.028379735 0.14216164
-0.0071687377 -0.025925549 0.12364951 -0.090808414 -0.18133384 -0.12153952 -0.068364136 -0.04772193
-0.07827747 -0.09263491 -0.07629237 0.15906693 -0.12106678 -0.119524844 -0.024295775 0.053320594
-0.15664335 -0.019199401 0.042410504 -0.045980874 -0.019574093 0.021815512 0.028158521 0.11923641
-0.123053886 0.056131143 0.1263736 -0.019150293 -0.10756531 0.09663114 0.026204765 -0.14672555
-0.1442554 0.1324872 -0.014660145 -0.05906232 0.050900172 0.13287354 -0.047200345 0.050789393
-0.2629344 -0.0129801845 -0.10027139 0.14357738 0.09594489 -0.0006271458 -0.030654633 0.14324515
0.012797993 -0.058720246 -0.07690724 0.06626145 -0.0017550233 0.013617913 0.17970811 0.10206411
0.11589465 -0.17244424 0.07959749 -0.07651767 -0.022943398 -0.09859756 0.14438602 -0.03154238
0.08990194 0.03569147 0.0748025 -0.17972365 -0.07220817 -0.09847493 0.12877032 -0.033720113
0.14284734 0.07701975 -0.09620572 0.16310613 -0.056664746 -0.06550018 0.067025095 -0.011924707
-0.008841735 0.06840877 -0.05599799 -0.010778966 0.08488985 -0.14877896 -0.005205108 0.027449833
0.10430439 0.13584943 0.124334276 -0.05568497 0.06731129 0.046381954 0.08840137 0.21078448
-0.14149217 -0.044125196 0.10900844 0.15812321 -0.18286736 -0.13062227 -0.10729445 0.10087019
-0.13163929 0.03821192 -0.0014598432 -0.10126846 0.0576836 -0.11221029 -0.028281104 -0.037973303
0.00028726694 0.15148182 -0.11929722 0.010189661 0.060327865 -0.00038070162 -0.047314096 0.0498648
-0.13159078 -0.011251092 -0.13673806 -0.0036253706 -0.029885057 0.073509954 -0.050053447 0.16283688
0.083405755 0.10273375 0.11855028 0.1544765 0.09762468 0.109999605 0.13973129 -0.028999351
-0.1365402 0.044004474 -0.12844713 -0.11180082 0.098646276 0.0713908 0.030459125 0.002054053
-0.035148885 0.055011667 -0.060685206 0.078486055 0.056763656 -0.03996231 -0.0094371345 0.0978922
0.13306192 -0.038052846 -0.08599935 0.19386832 -0.15339492 -0.15478647 -0.06849628 -0.103553504
-0.06407796 -0.054736707 -0.09734535 0.17252617 -0.028993145 -0.06967026 -0.034705926 -0.00077194127
0.26414695 0.064473286 0.030462652 -0.034765225 -0.074025914 0.035275362 0.0016622432 0.10555653
-0.18038483 -0.1230386 0.051047504 0.08247042 0.14639388 -0.03292156 0.022473402 0.14211227
0.014555074 0.10550648 -0.09269224 0.09394631 0.17084897 -0.15627614 0.009494872 -0.014927628
0.075517 -0.0741508 -0.09578195 0.10151321 -0.14123219 -0.093224905 -0.018680496 -0.03145172

local2.norm.weight f4 [128]
00000000: 7a6e 813f 6ed5 813f 8dfd 783f 3bee 6e3f
00000010: d3ce 773f fa4c 6f3f 11a2 753f 0200 6e3f
00000020: 8deb 7c3f be51 823f d38b 7b3f af1f 773f
00000030: 8c14 8d3f 867e 6e3f 05bb 6e3f cd7d 7e3f
00000040: 85b1 793f 0150 783f 3b7f 733f c59a 7a3f
00000050: 9cce 7b3f a657 7c3f d140 8d3f 104e 7b3f
00000060: 2a8f 7b3f e554 823f cc83 773f f53e 753f
00000070: 387d 693f e988 733f 0b0b 693f a803 703f
00000080: 1e79 693f 5ee6 6c3f 358d 6f3f 049d 773f
00000090: d4ee 7f3f f1ce 823f 9060 803f 7842 843f
000000a0: 2d0f 6b3f 37d5 763f 1191 863f 0f05 7b3f
000000b0: 1fbf 703f 79a6 703f efe2 733f 01c7 803f
000000c0: bf83 853f d5f2 723f 6e14 823f df92 7b3f
000000d0: 29d2 6c3f 741b 753f d297 803f 8854 763f
000000e0: 46ac 763f edf4 6e3f 448b 7b3f 2c6e 823f
000000f0: 388f 743f ddd9 733f 68a5 7b3f 5542 713f
00000100: d6b2 763f a87a 853f c52b 7d3f 4bbc 543f
00000110: 1d92 6f3f f3d2 7a3f 8014 743f 43fa 693f
00000120: f75e 8d3f 8298 783f c8f0 743f 0a09 713f
00000130: 0503 6a3f 0987 623f de53 743f c5ac 793f
00000140: 4b86 703f e39a 843f 3a0e 783f 3ea1 733f
00000150: bb39 763f 43f4 723f 987b 7a3f 87ac 6f3f
00000160: 810a 793f 32e0 793f d75b 803f db63 6f3f
00000170: 8d36 6f3f 4c09 783f 50ba 753f 1a1d 783f
00000180: dd0b 723f 66a0 6e3f ebee 823f 322b 773f
00000190: 0ba6 7e3f f734 7a3f c5c8 7a3f 11ba 733f
000001a0: 5e59 773f e4e9 6a3f 4bed 723f 1240 7f3f
000001b0: f6f7 793f ce2e 7d3f b94f 753f b38e 7f3f
000001c0: 003b 713f 8ec9 7a3f d1c9 6b3f bf25 7e3f
000001d0: bfb0 723f feaa 723f d468 723f d3a8 663f
000001e0: 2945 6a3f f71a 753f 3e0b 723f 9dbf 753f
000001f0: fcf8 843f 28ee 7f3f 108d 843f ae4e 7a3f
1.011184 1.0143259 0.9726189 0.9333226 0.96799964 0.9347683 0.9595042 0.9296876
0.9879692 1.0181196 0.9826023 0.9653272 1.1021895 0.9316181 0.9325412 0.99410707
0.975365 0.96997076 0.95116013 0.9789241 0.98362136 0.9857124 1.1035405 0.9816599
0.98265326 1.0182158 0.9668548 0.9579919 0.91206694 0.95130783 0.91032475 0.9375558
0.91200435 0.9253901 0.9357484 0.9672396 0.999738 1.0219404 1.0029469 1.0332785
0.9182003 0.9641909 1.0513021 0.98054594 0.9404163 0.9400402 0.9526815 1.0060731
1.0430831 0.9490178 1.0162485 0.9827098 0.9250818 0.95745015 1.0046332 0.96222734
0.9635662 0.9334248 0.9825938 1.0189872 0.95531034 0.9525431 0.98299265 0.9424184
0.9636663 1.0428057 0.9889491 0.8309981 0.93582326 0.9797813 0.9534378 0.91397494
1.1044606 0.9710771 0.95679903 0.9415442 0.9141086 0.884873 0.9544047 0.9752925
0.93954915 1.0359768 0.9689671 0.9516791 0.9618184 0.94903964 0.9784484 0.9362263
0.9728165 0.9760772 1.0028027 0.9351174 0.9344261 0.96889186 0.95987415 0.96919405
0.9454935 0.932135 1.0229162 0.96550286 0.9947211 0.9773707 0.979626 0.9520579
0.9662074 0.9176314 0.9489333 0.9970714 0.97643983 0.98899543 0.9582477 0.99827117
0.9423065 0.979638 0.9210482 0.99276346 0.94800943 0.94792163 0.94691205 0.90101355
0.9151178 0.9574427 0.94548404 0.95995504 1.0388484 0.9997277 1.0355549 0.97776306

local2.norm.bias f4 [128]
00000000: ec51 ccbc abe6 03bd 06fe 76bd 7870 86bd
00000010: 8919 b2bd 4b6b 53bd bfc6 97bd 2201 8abd
00000020: 06c9 33bd 6be9 59bd 8eaf 38bd bd6b 82bd
00000030: 8e05 44bd 90b3 7cbd c9b7 ffbd 393b 46bd
00000040: c81c 8bbd 4c4f 36bd 58bc a0bd f9e9 42bd
00000050: 30a2 87bd c358 55bd da38 61bd 5cbb 41bd
00000060: c6a0 a9bd de20 5fbd 8a16 33bd 7073 b6bd
00000070: ca7b b7bd ee77 a0bd 8abe fabd f39a 37bd
00000080: f3c4 b5bd 588a bdbd 41c8 9ebd dd39 7dbd
00000090: c596 8ebd fbc8 51bd 476c 6cbd 8004 ffbc
000000a0: 255d 78bd b30a 96bd e44c 89bd c8b0 a3bd
000000b0: 907e b9bd 48ef 1ebd 3309 4fbd ab10 96bd
000000c0: 8144 69bd edf0 afbd bc9b 3ebd 30e4 ddbd
000000d0: 4b68 a5bd 389c 95bd b831 72bd 3317 89bd
000000e0: 67b7 afbd 103f 8fbd 40b0 2dbd 957b 3fbd
000000f0: d9b8 85bd b5ed c2bd abd6 8ebd 5771 8dbd
00000100: 1730 4fbd 007e acbd fb76 51bd 6715 1fbe
00000110: cc6b 88bd 7ee5 8dbd ec66 a0bd 2c54 c5bd
00000120: 8f6a 04bd a934 7dbd 09d3 53bd 8fa5 b3bd
00000130: 22a3 a7bd a49d f2bd ef9e 75bd 9edf 1ebd
00000140: b8cd dabd 75e6 25bd b01d 6ebd 2585 62bd
00000150: 8e07 9fbd d444 94bd b8ff 3fbd b39f 61bd
00000160: d808 48bd 2a7e 93bd 311f 75bd 4de8 bfbd
00000170: f3a4 d1bd 4da0 a8bd 291f 55bd 6786 b0bc
00000180: 19ff a7bd 9ab2 92bd 84e8 60bd 29a3 81bd
00000190: c4ba 87bd e583 23bd 3c31 25bd f0e2 76bd
000001a0: 4d7d aebd 83d9 b3bd ea3a d3bd bc23 6dbd
000001b0: 6d52 bebd c4a5 ccbd 8b82 27bd 593e 41bd
000001c0: 5007 a8bd 4211 83bd ab39 fcbd a15e 7bbd
000001d0: 23da 8ebd ec2b ccbd bccc 7cbd dfd7 e2bd
000001e0: b64f d0bd 2676 85bd e1a5 7fbd 4469 70bd
000001f0: 6852 5fbd 6e2e 86bd 9293 9abd 7edc 70bd
-0.024941407 -0.032202404 -0.06030085 -0.065644205 -0.08696277 -0.051615994 -0.07410955 -0.06738497
-0.043892883 -0.05320112 -0.045089297 -0.06368206 -0.04785686 -0.06169468 -0.12486226 -0.048396323
-0.06792599 -0.044509217 -0.07848424 -0.047586415 -0.06622732 -0.052086603 -0.05498586 -0.04729782
-0.08282618 -0.054474704 -0.043722667 -0.08908737 -0.08959158 -0.07835375 -0.12243374 -0.044825505
-0.08875456 -0.092549026 -0.07753039 -0.06182276 -0.06962351 -0.05121706 -0.05772045 -0.031130075
-0.060635705 -0.073262595 -0.06704119 -0.07992703 -0.09057343 -0.038802415 -0.050545882 -0.07327398
-0.056950096 -0.08590875 -0.04653524 -0.10834539 -0.08076533 -0.07305187 -0.059129447 -0.06693878
-0.08579903 -0.0699445 -0.042404413 -0.046748716 -0.065293975 -0.09517995 -0.069745384 -0.069063835
-0.05058297 -0.0842247 -0.05113886 -0.15535508 -0.066611856 -0.06928538 -0.07832131 -0.09635195
-0.032328185 -0.0618178 -0.05171493 -0.08771812 -0.08185412 -0.11846474 -0.059966024 -0.038787477
-0.10683769 -0.040502984 -0.05813378 -0.055302758 -0.07765113 -0.072396904 -0.04687473 -0.05508394
-0.04883656 -0.07201798 -0.0598442 -0.0937048 -0.1023654 -0.082337 -0.05203167 -0.021548463
-0.08202953 -0.07162972 -0.054909244 -0.063299485 -0.066274196 -0.039920706 -0.040330157 -0.06027502
-0.08519993 -0.087817214 -0.10313971 -0.057895407 -0.09293065 -0.09992555 -0.04089598 -0.0471786
-0.0820452 -0.06399776 -0.12315687 -0.061369542 -0.069752 -0.09969315 -0.061718687 -0.110763304
-0.10171454 -0.06516676 -0.062414054 -0.05869414 -0.054521948 -0.065518245 -0.07547678 -0.058804028

meso.Wq.weight f4 [128, 128]
00000000: 6d0a 153e f163 113d 4f0f f6bb 68b2 6bbd
00000010: 2359 47bd 5562 2abd a9e6 84bb 540e b7bc
00000020: 2246 1ebd dfb3 b03d 724f 8a3c 3c46 fdba
00000030: e0ce 39bd f3aa 46bd df54 4fbd 0b54 243d
00000040: 423f 7e3d 1342 0e3e 18df ab3c 0085 ecbc
00000050: 5c36 a83d 0644 a23b 1a23 56bd c4e1 cfbd
00000060: 82f2 2cbd 368b 6cbc f7af 2e3d c533 c9bc
00000070: f350 653c 1bdb 89bc d9d8 223d c561 22bd
00000080: d1b3 72bd 52d5 d1bc 4e60 773d b1c8 893d
00000090: e751 92bd 8981 42bd 8578 393b 333e 32bd
000000a0: 2f01 b63d 02c2 693d a8ad 0dbe 8587 e5bc
000000b0: b67b aabb 2430 e83c 7617 9dbd b467 c4bc
000000c0: 39d6 163d f2dd 003d c881 b83c 3f22 5ebc
000000d0: a5d5 be3d f361 01bd a498 18bb 042b f83b
000000e0: 7099 8fbc 2dff 02bb 8125 a4bd f168 82bc
000000f0: 3737 76bc 342c bc3d 5a89 a4bd 314c 083d
00000100: 950d f83c 166d 8ebd b5cf f13c b916 073e
00000110: 60dc 283c eb60 b03d 9988 6bba e3b0 99bd
00000120: fba3 9ebd c01f c83b 35fc dbbc 34c7 be3c
00000130: 5ae4 253d 18fc 76bd f0f8 e63c d95f b23c
00000140: a7e9 2d3c 66b4 acbc 4bc0 43bd 2342 12bd
00000150: b7f2 30bb e129 6f3d cde3 ccbc 9e97 1dbd
00000160: a8b7 41bd 90cb 7fbd ea87 86bd d712 403b
00000170: 7d8b 08bb 226c 88bb 4c6a 6b3d 0aa7 78bd
00000180: 7722 bfbc 64a8 7cbd efe9 583d 3fd5 453d
00000190: f3ad efbc d21f acbb 55e0 23bd 920b 4e3d
000001a0: 6291 52bd ce9d 843d 24b2 a3bd be46 3c3d
000001b0: 9b21 1f3b 7c8e d4bd 82a8 eebc 7d35 163d
000001c0: 712c be3b 1143 1abd 9bed babd 2a71 073e
000001d0: 5885 e3bd 6928 27bd 87f7 eabc 936e 793b
000001e0: 3fe1 8e3d 2bee 80bd 2a7c bdbb 0135 07bd
000001f0: 1a81 dcbb 2ee2 b5bc f7f0 fcbd 45ab bd3b
00000200: 67a7 ef3c ffa0 6d3c dfad b9bd df41 bdbb
00000210: 803b 903c f3de df3c e105 b1bc fce7 09be
00000220: 4812 dfbd a5f2 9dbc 206e 7fbd 1138 8dbd
00000230: afd3 1e3d b348 b93d da8a 773d ace2 863c
00000240: efc4 313d c931 1a3a 1b79 593c f280 213d
00000250: ab13 313d 2727 b13d 51d3 b13c 6b02 063d
00000260: c0c5 803b c4c3 4bbd 679c 683d b29d a63d
00000270: c3cc 63bd 2b48 95bb cd2a 8fbd 7e60 c43d
00000280: 5ec2 2a3d ecfd c0bd 5283 d23d d5d3 a9bc
00000290: f500 abbd 7c02 ad3c c4ec 1bbd 2677 82bc
000002a0: 46e8 a8bd 3938 8c3c 73d0 0c3e 4b3e 303d
000002b0: e1f7 6f3c 24f9 6d3d 8a47 35bd 3f32 82bc
000002c0: 4581 c5bd 5c36 64bd f8dd 723d 54fa 96bd
000002d0: a797 51bc b661 0abd 1d00 053c df6c ac3b
000002e0: 2996 fcba 7b10 fc3c 3160 5c3d b91f be3c
000002f0: f4e0 643d 23cd 723d 23df e3bc a8e9 9c3c
00000300: 75eb a13c 4cc5 a6bd f144 e9bd 18a1 043d
00000310: b467 073d 12df 12bd 247c f1bc 8bfb 3cbd
00000320: 04e1 8f3d f728 3fbd 8a10 d1bb cbb3 ccbd
00000330: bd6b ed3c f73b 953b 9e52 2bbc 1ac5 52bd
00000340: 85d0 afbb ae0e 47bb 3e4c 19bd 10c0 3ebc
00000350: 1145 8cbd f48d c4bd 4416 5ebd 2903 433d
00000360: ea3f 3ebd c8c5 4e3d d9ee 34bd 4bbd 32bd
00000370: a8a8 893d b58d 4e3b edcd a6bd 3ccd 41bc
00000380: fddd 52bc 86d0 a33c 36db dd3d 0fa2 ca3c
00000390: fa4a 793d a6c4 783c a9e1 2dbb 5cc9 fb3c
000003a0: ca30 393d 9c1e 6c3d 4c0f fa3d 83e0 ba3d
000003b0: 0273 24bc 208e 5f3d 5d23 85bd 344e 5b3d
000003c0: 75af e0bc 1d5e 9c3c da31 4a3d a287 42bd
000003d0: f662 eebc ce26 bdbd 5f20 84bc 8677 7dbc
000003e0: 35bb 9c3d efdf 8c3d 2d41 91bd 1f4a 99bd
000003f0: 355e a43c 0425 a3bd daa7 973d d01a 26bd
0.14554758 0.035495702 -0.007509149 -0.05754319 -0.04866899 -0.041597683 -0.004055817 -0.0223457
-0.038641103 0.08628058 0.016883586 -0.00193233 -0.045363307 -0.048502874 -0.05061805 0.040119212
0.062072046 0.13892393 0.020980403 -0.028872013 0.08213493 0.0049519567 -0.05227957 -0.10150483
-0.04222346 -0.014437487 0.042648282 -0.024560818 0.013996351 -0.01682811 0.039757583 -0.03964402
-0.059253518 -0.025614414 0.060394578 0.06727732 -0.07144528 -0.047486816 0.0028300595 -0.04351635
0.088869445 0.057069786 -0.13835776 -0.028018722 -0.005202736 0.028343268 -0.076704904 -0.02397523
0.036825392 0.031461664 0.022522822 -0.01355797 0.09318093 -0.031587552 -0.002328434 0.0075734872
-0.01752922 -0.0019988522 -0.08014966 -0.01591918 -0.015027813 0.091881186 -0.0803401 0.033275787
0.030279914 -0.069544 0.029517988 0.13192262 0.010306448 0.08612236 -0.0008984893 -0.075044416
-0.077461205 0.0061073005 -0.02685366 0.023288347 0.040500976 -0.06029901 0.028194875 0.02177422
0.010614789 -0.021082114 -0.047790807 -0.035707604 -0.0027000138 0.05838955 -0.025010968 -0.03847467
-0.04729429 -0.06244999 -0.06568892 0.0029308104 -0.0020835095 -0.004163281 0.05747442 -0.060706176
-0.023331864 -0.061684027 0.05295747 0.04829907 -0.02925775 -0.0052528167 -0.04000886 0.050304003
-0.05140818 0.06475411 -0.07992962 0.045965903 0.0024281505 -0.10378739 -0.029133085 0.036672104
0.0058036377 -0.037661616 -0.09127351 0.13226762 -0.11109418 -0.040810023 -0.028682483 0.0038060292
0.06976556 -0.06295427 -0.005782624 -0.033009533 -0.0067292573 -0.022202577 -0.12350648 0.005788239
0.029254628 0.0145037165 -0.090663664 -0.0057756747 0.017606497 0.02732799 -0.021609249 -0.13467401
-0.10892159 -0.019280741 -0.062360883 -0.068954594 0.038776096 0.090470694 0.060435154 0.016465507
0.0434007 0.00058820524 0.013273503 0.039429612 0.043231647 0.08650046 0.021707209 0.03271715
0.0039298236 -0.049747244 0.056789782 0.08135547 -0.055615198 -0.0045557222 -0.069905855 0.09588717
0.04168927 -0.09423432 0.102789536 -0.020730892 -0.08349792 0.021119349 -0.038067594 -0.015925955
-0.08247428 0.017116653 0.13751392 0.043028157 0.014646501 0.058098927 -0.044257678 -0.0158931
-0.09643797 -0.055715904 0.059293717 -0.07371965 -0.012792504 -0.03378459 0.008117703 0.005262002
-0.0019270825 0.030769577 0.053802673 0.023208486 0.055878595 0.059277665 -0.02781636 0.019154385
0.019765595 -0.081431 -0.11390103 0.032380193 0.033057883 -0.035857268 -0.02947814 -0.046138328
0.0702534 -0.046669926 -0.0063801454 -0.0999523 0.028982038 0.0045542675 -0.010456709 -0.051457502
-0.0053654336 -0.003037374 -0.037426226 -0.011642471 -0.06849111 -0.09597388 -0.054220453 0.047610436
-0.046447672 0.050481588 -0.044173095 -0.043637555 0.06721622 0.003151757 -0.08144746 -0.011828717
-0.012870309 0.019996893 0.10832827 0.024735479 0.06086252 0.015183603 -0.002653221 0.030735664
0.045212545 0.05764638 0.12209949 0.091248535 -0.010037186 0.0545789 -0.06500886 0.053541377
-0.027427414 0.019087845 0.04936395 -0.04749263 -0.029099923 -0.09235917 -0.016128717 -0.015470391
0.076528944 0.068786494 -0.070925094 -0.074848406 0.020064453 -0.079660445 0.07405062 -0.040552914
