models/eeg_only/s_25.pt (torch, 561186 bytes, 37 tensors)

band_attn.fc1.weight f4 [8, 5]
-0.15790331 0.20437992 -0.2211069 -0.06937957 -0.37930825 -0.437241 0.095148236 0.45801502
-0.095550284 0.38111892 -0.3763874 -0.075192265 0.1736072 0.35672063 0.3137729 0.02218545
0.29795298 0.029274644 0.03265954 0.42114118 0.42910993 0.33785427 -0.36959568 -0.1286142
-0.35055208 -0.19629043 -0.30740193 0.32963192 0.100120515 0.05381188 0.2706038 0.4073391
0.47938478 0.3413173 0.37821418 -0.34980515 0.36514214 -0.102287985 -0.12483561 0.32278916
00000000: 68b1 21be f848 513e d969 62be e016 8ebd
00000010: b134 c2be 0dde dfbe 14dd c23d f280 ea3e
00000020: deaf c3bd 0522 c33e d9b5 c0be 67fe 99bd
00000030: 16c6 313e 16a4 b63e d7a6 a03e 43be b53c
00000040: 4b8d 983e 61d1 ef3c 03c6 053d d19f d73e
00000050: 4cb4 db3e 3cfb ac3e a53b bdbe 71b3 03be
00000060: 907b b3be 5c00 49be c963 9dbe 84c5 a83e
00000070: fc0b cd3d d969 5c3d 958c 8a3e c08e d03e
00000080: ec71 f53e 24c1 ae3e 4aa5 c13e a919 b3be
00000090: e9f3 ba3e 5d7c d1bd d0a9 ffbd 9f44 a53e

band_attn.fc1.bias f4 [8]
0.41959518 0.66744065 0.03575583 0.13900633 0.012114684 0.4630209 0.5543112 -0.45880005
00000000: 2ed5 d63e 64dd 2a3f b574 123d ad57 0e3e
00000010: ab7c 463c 1311 ed3e 57e7 0d3f d7e7 eabe

band_attn.fc2.weight f4 [5, 8]
-0.4356825 -0.123670906 0.32384208 -0.28483844 0.0997131 -0.4785396 -0.39919955 0.031528592
-0.028226886 0.20760767 0.07323528 0.30157074 0.42159346 -0.114110656 0.21835306 0.047429234
-0.27067485 0.36294028 0.20904747 0.08875027 -0.5330288 0.3008857 0.26305333 0.2928235
0.08205266 0.18599735 0.096342385 -0.27450007 -0.41027683 -0.2894519 0.05170415 0.13419022
-0.039008167 -0.63233256 -0.31329414 -0.05470398 0.18969914 -0.39454567 -0.27679256 -0.3396757
00000000: c711 dfbe 2c47 fdbd a1ce a53e 58d6 91be
00000010: 6236 cc3d 2403 f5be e263 ccbe 2024 013d
00000020: 123c e7bc 1b97 543e 61fc 953d 7b67 9a3e
00000030: 19db d73e d9b2 e9bd f297 5f3e 2845 423d
00000040: e595 8abe 4fd3 b93e 8a10 563e b4c2 b53d
00000050: 9374 08bf b10d 9a3e edae 863e f6ec 953e
00000060: 3a0b a83d 1776 3e3e 284f c53d 468b 8cbe
00000070: ce0f d2be 0a33 94be bbc7 533d 2969 093e
00000080: 07c7 1fbd 8ce0 21bf 1768 a0be 4811 60bd
00000090: 7e40 423e e401 cabe c1b7 8dbe f9e9 adbe

band_attn.fc2.bias f4 [5]
-0.07454804 -0.08681991 -0.27847174 -0.2684536 -0.37622252
00000000: a5ac 98bd a3ce b1bd d993 8ebe c072 89be
00000010: 3da0 c0be

feat_proj.weight f4 [128, 21]
0.1606317 0.022639532 0.29888138 -0.0391244 0.28850108 -0.17439516 0.17956868 -0.029948149
-0.03626052 0.2859675 0.079107344 0.16313776 0.055558767 -0.03284558 -0.10807671 -0.113567635
-0.18554887 -0.106016025 0.15238555 -0.1787271 0.054384485 -0.2005043 0.12381577 0.02753639
-0.21580993 -0.096272714 -0.12186604 -0.10493436 0.17453732 -0.12656884 -0.26497686 -0.12291892
-0.17599514 0.027478976 0.18815564 -0.17905392 0.20668055 -0.1779786 0.15129796 0.22427319
-0.0055130264 0.08213252 0.009395453 0.20771244 -0.04427042 -0.14896643 0.2600423 -0.2669593
-0.2369792 -0.22795074 0.18690637 0.021768963 -0.2004469 -0.048543267 0.2159573 0.22566566
0.17987892 0.027315717 0.016326517 -0.07974941 0.071386546 -0.07852791 0.112451576 -0.09797676
-0.28738263 0.023874732 -0.12440762 -0.27837512 -0.0057430803 -0.00681035 0.09751214 -0.0022568349
-0.07810125 0.022480022 0.068399295 0.15195432 -0.008041743 0.020513378 -0.28858006 0.04868487
-0.03438579 0.2033797 0.1333361 -0.0142316315 -0.07678547 -0.20369646 0.23120292 -0.18389988
-0.052185096 -0.075847104 0.20452707 0.037231337 -0.092994325 0.12601775 -0.24087411 -0.1575148
-0.00458837 0.0655645 -0.10920028 0.071616665 0.13762301 0.20060062 0.070003316 -0.19909942
-0.09588862 0.039363835 -0.27975488 -0.1282636 -0.2689676 -0.13536097 0.015157278 -0.051971413
0.023120862 0.05602732 -0.32858142 -0.24834517 0.08348905 0.030253412 -0.050631866 0.015546249
0.06270485 -0.06465314 0.1886288 0.1340017 0.20848978 -0.12688935 0.03241668 0.2140724
-0.34777084 0.12973474 -0.17957667 -0.13580367 -0.06475564 0.03260865 0.08001669 -0.02963446
0.07644484 -0.21464662 0.12684454 -0.045201108 0.21386142 0.1542862 0.10451646 0.14764434
0.039800696 -0.123936646 -0.053291295 0.12170736 0.1448436 0.2046145 -0.10042416 -0.17900917
-0.27156276 0.023630116 -0.064136215 0.032685343 0.11196349 -0.16827205 0.21043868 0.23963054
0.08200772 0.033517152 -0.28273603 -0.12620409 -0.083317645 -0.14088544 0.10873096 -0.18441698
-0.06796257 -0.08521923 -0.1298581 0.052924 -0.1611743 0.14696129 0.09343145 0.12186073
-0.11792282 0.009977658 0.094285764 0.11180152 0.055951845 -0.17793518 -0.20711547 0.14956614
0.076625764 -0.099415965 -0.013052284 0.17209259 -0.029622603 0.07886467 -0.30914167 0.16607544
-0.04609787 0.02913395 0.07429067 0.14815415 -0.09753569 0.1037199 0.27388662 -0.16006376
-0.13207443 0.19258188 0.139685 -0.30919307 0.077689394 -0.10694709 -0.16546643 0.07887238
-0.16601174 -0.21694791 -0.13636537 -0.2145307 0.16889575 -0.0539252 0.24688949 0.023298362
0.21261007 -0.055744868 -0.21073359 0.2845624 0.050203033 -0.19425656 -0.11102418 0.055418264
-0.1887915 -0.12932329 -0.11956566 0.15787998 -0.1462323 0.1988175 -0.0014698561 -0.14632268
0.18561313 -0.17394853 0.07237319 -0.112516806 0.04558756 0.033607777 -0.0072494587 -0.17127226
0.25297078 0.06394646 -0.21123666 0.07496311 0.15826431 0.08398656 -0.0789556 -0.12545455
-0.117594175 -0.1823554 -0.15179321 -0.064259954 0.1409928 0.12087574 -0.11466188 0.18476182
00000000: a37c 243e 8a76 b93c fb06 993e e840 20bd
00000010: 6ab6 933e a594 32be dae0 373e d255 f5bc
00000020: e985 14bd 556a 923e 0803 a23d 960d 273e
00000030: 9791 633d 1689 06bd 5257 ddbd 2696 e8bd
00000040: 8600 3ebe ee1e d9bd f50a 1c3e 3d04 37be
00000050: 44c2 5e3d 0051 4dbe 1f93 fd3d ff93 e13c
00000060: 47fd 5cbe a12a c5bd e794 f9bd d3e7 d6bd
00000070: e9b9 323e 439b 01be 0cab 87be eabc fbbd
00000080: 1238 34be 971b e13c dfab 403e e959 37be
00000090: 11a4 533e 0640 36be daed 1a3e dfa7 653e
000000a0: 9ea6 b4bb 1835 a83d 63ef 193c 92b2 543e
000000b0: e654 35bd a88a 18be 4424 853e e4ae 88be
000000c0: adaa 72be eb6b 69be 6264 3f3e d354 b23c
000000d0: f441 4dbe 4ed5 46bd e923 5d3e e614 673e
000000e0: 2e32 383e 36c5 df3c 30bf 853c a953 a3bd
000000f0: 1c33 923d 3ed3 a0bd 034d e63d 0aa8 c8bd
00000100: d123 93be f194 c33c 6cc9 febd 2f87 8ebe
00000110: 7330 bcbb 5b29 dfbb 72b4 c73d 68e7 13bb
00000120: 8cf3 9fbd 0628 b83c ee14 8c3d ea99 1b3e
00000130: 84c1 03bc ac0b a83c c4c0 93be c969 473d
00000140: 1dd8 0cbd c542 503e 4289 083e ca2b 69bc
00000150: b341 9dbd ce95 50be 75c0 6c3e 4050 3cbe
00000160: 0ac0 55bd ba55 9bbd 8b6f 513e e37f 183d
00000170: cf73 bebd cc0a 013e b4a7 76be 8f4b 21be
00000180: 0a5a 96bb ae46 863d 65a4 dfbd c2ab 923d
00000190: 0ced 0c3e 406a 4d3e e65d 8f3d b8e0 4bbe
000001a0: 4161 c4bd f93b 213d 083c 8fbe 8857 03be
000001b0: 1fb6 89be 119c 0abe 3b56 783c fadf 54bd
000001c0: f667 bd3c e77c 653d d33b a8be 324e 7ebe
000001d0: 4ffc aa3d 01d6 f73c 5c63 4fbd b2b5 7e3c
000001e0: 676b 803d de68 84bd e827 413e be37 093e
000001f0: 587e 553e 48ef 01be 5ac7 043d cc35 5b3e
00000200: 050f b2be 2fd9 043e f2e2 37be 1e10 0bbe
00000210: 9b9e 84bd a690 053d cadf a33d f8c3 f2bc
00000220: 1d8f 9c3d 53cc 5bbe 89e3 013e cc24 39bd
00000230: 7dfe 5a3e 34fd 1d3e ba0c d63d 1430 173e
00000240: 0e06 233d 7fd2 fdbd f947 5abd b541 f93d
00000250: e151 143e 7786 513e 2fab cdbd 2e4e 37be
00000260: 460a 8bbe f293 c13c d959 83bd 11e1 053d
00000270: 1d4d e53d 824f 2cbe 3d7d 573e b561 753e
00000280: aaf3 a73d 4849 093d c7c2 90be a53b 01be
00000290: 71a2 aabd 4644 10be 56ae de3d ced7 3cbe
000002a0: f62f 8bbd 6b87 aebd 86f9 04be d6c6 583d
000002b0: e00a 25be 057d 163e fd58 bf3d 1e92 f93d
000002c0: 8581 f1bd 5579 233c e518 c13d 32f8 e43d
000002d0: c32d 653d a434 36be 1416 54be de27 193e
000002e0: f8ed 9c3d 999a cbbd 3fd9 55bc 0a39 303e
000002f0: 1aab f2bc cd83 a13d d147 9ebe ae0f 2a3e
00000300: 1fd1 3cbd 52aa ee3c b525 983d b9b5 173e
00000310: cbc0 c7bd 196b d43d de3a 8c3e c1e7 23be
00000320: 853e 07be 2f34 453e 9609 0f3e 8e4e 9ebe
00000330: 9e1b 9f3d 1307 dbbd 0870 29be d887 a13d
00000340: fbfe 29be 9827 5ebe 5da3 0bbe f0ad 5bbe
00000350: 02f3 2c3e ace0 5cbd 99d0 7c3e 35dc be3c
00000360: 74b6 593e bb54 64bd 8cca 57be 2ab2 913e
00000370: b2a1 4d3d 31eb 46be a560 e3bd 43fe 623d
00000380: 8f52 41be 536d 04be d7de f4bd 4aab 213e
00000390: ecbd 15be d196 4b3e 30a8 c0ba 9dd5 15be
000003a0: 5e11 3e3e 901f 32be 6538 943d 366f e6bd
000003b0: 05ba 3a3d 4fa8 093d de8c edbb ff61 2fbe
000003c0: 6385 813e 5df6 823d 6c4e 58be 4286 993d
000003d0: 0a10 223e 2501 ac3d 79b3 a1bd 2877 00be
000003e0: 37d5 f0bd 60bb 3abe ae6f 1bbe b99a 83bd
000003f0: 6b60 103e b38d f73d d9d3 eabd 3432 3d3e

feat_proj.bias f4 [128]
0.10470592 -0.17759709 0.18621549 -0.13929375 -0.0050420114 -0.19744258 -0.16410024 0.04251213
0.06932462 0.03482631 -0.010473494 0.07498394 0.045211833 0.014666135 0.1131051 0.08821286
0.02114836 -0.024835696 0.110483505 -0.1725771 -0.013113548 -0.13872734 0.08103476 -0.15817685
-0.062539876 -0.042851258 0.01862332 -0.10499618 0.10474699 -0.15999188 -0.1017148 -0.018949028
0.011069697 -0.10728214 -0.12869033 -0.013437681 0.15890491 0.13779531 -0.16693465 -0.023800153
-0.054882836 0.06817987 -0.12983815 -0.0127565265 0.11834115 -0.093413144 -0.13127236 -0.009804533
-0.06595948 0.07094461 0.09193055 -0.08125237 0.06730079 -0.037094552 0.00291087 -0.04150559
-0.14757285 0.051635273 0.08664194 0.014529251 -0.07130437 -0.055027857 0.16475178 0.09751219
0.13366774 0.052474987 -0.14277035 0.08903795 0.18258935 0.03027649 0.1349247 0.06692503
0.059440393 0.067526825 0.11436932 0.11725043 0.15095718 -0.05599756 0.094484635 0.013696496
-0.04054779 -0.03030922 0.05824332 -0.09336519 0.032940462 -0.13668586 0.120243765 0.15134469
0.1262785 -0.15409501 -0.054552983 -0.09651839 -0.105088726 0.090635374 0.06874748 -0.13621993
0.102127634 0.049186572 0.08644153 -0.120638706 0.08934994 -0.17366478 0.022997005 0.16371784
0.09728036 -0.06792554 0.12877168 -0.137663 -0.18372026 -0.078046665 0.1598275 0.054193914
0.15354103 -0.016924405 0.19078313 0.111116864 -0.1288807 -0.1429755 0.0013681516 -0.18723148
-0.0046323407 0.0102871815 -0.028218182 -0.017293585 -0.067774646 -0.11509755 0.05984314 0.02446835
00000000: 0f70 d63d 03dc 35be 46af 3e3e 05a3 0ebe
00000010: 7537 a5bb 632e 4abe e509 28be 3321 2e3d
00000020: 11fa 8d3d 08a6 0e3d 0599 2bbc 2e91 993d
00000030: 0b30 393d 3b4a 703c a6a3 e73d f2a8 b43d
00000040: 533f ad3c 3b74 cbbc 2d45 e23d 0db8 30be
00000050: 35da 56bc 8a0e 0ebe 8df5 a53d 1df9 21be
00000060: e814 80bd cd84 2fbd ef8f 983c 3d08 d7bd
00000070: 9785 d63d e9d4 23be d94f d0bd fe3a 9bbc
00000080: ad5d 353c bdb6 dbbd 66c7 03be b829 5cbc
00000090: f8b7 223e 371a 0d3e ebf0 2abe 8af8 c2bc
000000a0: d3cc 60bd e3a1 8b3d 4bf4 04be c000 51bc
000000b0: d85c f23d 644f bfbd 436c 06be 31a3 20bc
000000c0: c415 87bd 684b 913d 1646 bc3d a467 a6bd
000000d0: ffd4 893d 75f0 17bd 4bc4 3e3b c401 2abd
000000e0: 561d 17be 827f 533d 5471 b13d 180c 6e3c
000000f0: 0708 92bd e464 61bd b1b4 283e 79b4 c73d
00000100: 32e0 083e 03f0 563d 6432 12be 8759 b63d
00000110: b4f8 3a3e 6706 f83c b329 0a3e fd0f 893d
00000120: c577 733d 814b 8a3d 763a ea3d fe20 f03d
00000130: 8594 1a3e b35d 65bd 2981 c13d 4567 603c
00000140: 7015 26bd 0b4b f8bc 8c90 6e3d 4036 bfbd
00000150: 94ec 063d 61f7 0bbe 5d42 f63d 1afa 1a3e
00000160: 274f 013e 15cb 1dbe f372 5fbd 6fab c5bd
00000170: c238 d7bd 0a9f b93d 7bcb 8c3d 3d7d 0bbe
00000180: 4b28 d13d dc77 493d 4208 b13d 6d11 f7bd
00000190: 1afd b63d 2ed5 31be 3764 bc3c a6a5 273e
000001a0: ed3a c73d 8c1c 8bbd b9dc 033e 88f7 0cbe
000001b0: 2a21 3cbe eed6 9fbd d2a9 233e 70fa 5d3d
000001c0: dc39 1d3e 0da5 8abc a75c 433e 3d91 e33d
000001d0: 4df9 03be 2b68 12be 8d53 b33a 9cb9 3fbe
000001e0: e4ca 97bb 918b 283c d129 e7bc 47ab 8dbc
000001f0: 6fcd 8abd 44b8 ebbd 151e 753d d971 c83c

local1.conv.bias f4 [128]
-0.030209916 0.017749017 -0.014531573 -0.008032911 0.008170366 0.0013533642 -0.009009638 -0.0141184665
0.028075136 0.0022006184 -0.01900555 0.0025072165 0.0063517937 -0.006407003 -0.033807363 0.036759842
0.023540169 0.008770584 0.006744731 -0.012496909 -0.0044588246 0.019868439 0.0039310823 -0.0032726186
-0.011846443 0.011274458 0.0025209752 0.026723888 -0.03946234 0.00980125 0.035103317 -0.03237301
-0.0051031047 0.0068018115 -0.0035982383 0.020336926 -0.00380253 0.025707297 0.004708095 -0.015566338
0.0038421457 -0.00011728469 0.013795259 0.030311558 0.020307532 -0.016019752 0.03093082 0.010835476
-0.023491764 -0.0009213899 -0.004286367 0.018232085 0.03664569 0.052757222 0.0148488255 0.0037315902
-0.0144246295 0.0128957955 0.03453703 -0.006589652 0.0064677354 -0.0010705626 0.014125492 0.019784825
0.0045043 -0.0063542305 0.009687564 -0.029412525 0.020695377 -0.024998816 0.0018314746 0.026081538
0.008288601 -0.0019505527 0.0014106714 0.012646894 0.008134195 0.019633887 0.011887633 0.031555265
-0.012698174 0.015128899 0.024015527 0.0151978955 0.007821742 0.008649238 -0.03144357 -0.00097325444
0.0030032692 0.01985646 0.019420736 -0.004601776 0.007638375 0.0125469435 0.016891876 -0.0044672783
0.01375254 0.015286198 -0.01738039 0.023590365 0.008402435 -0.012900146 0.017696789 0.001207291
0.012611499 -0.004344327 0.011827473 0.015167619 -0.00088538055 -0.034753308 0.027062045 -0.008801774
-0.009076587 -0.017850753 0.011885548 0.01993922 0.018847145 -0.0056605567 -0.021691175 0.016117198
0.027274502 0.015195464 0.016419733 0.011396244 0.03788764 -0.013580243 0.005435559 -0.020059906
00000000: c97a f7bc 6366 913c d615 6ebc 799c 03bc
00000010: 00dd 053c 5e63 b13a 299d 13bc 2451 67bc
00000020: d4fd e53c 4038 103b 87b1 9bbc 1d50 243b
00000030: b522 d03b d6f1 d1bb 9779 0abd 7d91 163d
00000040: 50d7 c03c 7fb2 0f3c e802 dd3b d6bf 4cbc
00000050: 551b 92bb 23c3 a23c 4fd0 803b 6e79 56bb
00000060: 9517 42bc 81b8 383c f236 253b 0eec da3c
00000070: 43a3 21bd 6c95 203c 7fc8 0f3d 9099 04bd
00000080: f237 a7bb bbe1 de3b 6cd0 6bbb a099 a63c
00000090: de33 79bb 1c98 d23c 5d46 9a3b f409 7fbc
000000a0: 82cc 7b3b bdf6 f5b8 8305 623c f24f f83c
000000b0: fb5b a63c db3b 83bc a262 fd3c 4887 313c
000000c0: cd71 c0bc 6e89 71ba a774 8cbb 745b 953c
000000d0: cb19 163d f517 583d 7d48 733c b28d 743b
000000e0: 4855 6cbc e348 533c b376 0d3d 02ee d7bb
000000f0: 4cef d33b 1f52 8cba 9c6e 673c c913 a23c
00000100: cf98 933b 2637 d0bb 97b8 1e3c 89f2 f0bc
00000110: 5a89 a93c 51ca ccbc 170e f03a f3a8 d53c
00000120: eacc 073c b0a9 ffba 47e6 b83a eb34 4f3c
00000130: 4945 053c 3fd7 a03c 59c4 423c 1840 013d
00000140: 010c 50bc 34df 773c 36bc c43c 9800 793c
00000150: c426 003c 89b5 0d3c f9ca 00bd 0022 7fba
00000160: 7fd2 443b 04aa a23c 3c18 9f3c 7fca 96bb
00000170: 554b fa3b b291 4d3c d560 8a3c 3f62 92bb
00000180: 5552 613c f672 7a3c 5261 8ebc 9540 c13c
00000190: 5eaa 093c 225b 53bc dbf8 903c f73d 9e3a
000001a0: 76a0 4e3c db5a 8ebb 04c8 413c 9b81 783c
000001b0: e218 68ba 7c59 0ebd 39b1 dd3c 5135 10bc
000001c0: f7b5 14bc be3b 92bc 9abb 423c 9357 a33c
000001d0: 5465 9a3c 317c b9bb b1b1 b1bc 3708 843c
000001e0: c76e df3c 65f6 783c ad82 863c 50b7 3a3c
000001f0: 1230 1b3d ab7f 5ebc c61c b23b ac54 a4bc

local1.conv.lin.weight f4 [128, 128]
-0.2190874 0.19242664 -0.15166274 0.07157173 0.013404773 0.011571467 -0.009678544 -0.009830812
0.058851667 0.013663557 -0.031533763 0.15240721 0.027155973 -0.09163891 0.09864046 -0.02083278
-0.048228443 0.003494919 0.0037846188 0.07337601 0.05603812 0.2094586 3.0240559e-05 -0.054729436
0.04499358 -0.008774756 -0.0067352788 0.008410266 0.009307503 0.019350646 0.06155724 -0.09243034
0.026512433 0.06329443 0.087634735 -0.07876879 -0.253181 -0.034359828 0.16933201 0.10156968
0.06948648 0.03915186 -0.09346778 -0.0027117904 -0.27965805 0.005571433 -0.037969705 -0.016502101
0.0443283 -0.020375146 -0.12586097 -0.12648982 -0.021290645 0.14861651 -0.06606204 -0.067406535
0.0052263467 0.011858774 0.016025126 0.031003572 0.13785487 -0.06565687 0.07905338 -0.07085735
0.16375723 -0.1731276 -0.10704759 0.12105177 0.06543918 0.04628388 0.043943614 -0.022106823
0.09078325 0.1422172 -0.07580611 0.018262204 -0.07484159 0.058579445 -0.14248513 0.024561659
0.12780064 -0.023842053 -0.07034039 -0.010199476 0.059264626 0.053750213 0.07410511 0.11821944
0.0633752 0.14114812 0.10545404 0.19994988 0.045040183 0.14187743 0.16272658 0.14701904
0.032375418 -0.11787266 -0.043798473 0.066180415 -0.0039859414 -0.054118168 -0.066517 -0.07189564
-0.0849178 -0.007671047 0.14227214 -0.076867096 0.01841565 -0.2298256 -0.14174773 -0.11889618
0.01951467 0.09014691 -0.0134832915 -0.08008397 0.07323478 0.200435 0.13679563 0.008160369
-0.051137872 -0.07989732 0.1774321 -0.16794896 0.06890788 0.27480403 0.083195865 0.14054322
-0.20218417 0.081634834 0.042872418 -0.03397024 -0.096265696 0.15144235 0.09099646 -0.1818833
0.22394478 -0.10954713 -0.17113398 -0.13901371 -0.17467019 -0.17168702 0.11969321 -0.06163324
0.111234374 0.12685767 -0.10926124 -0.13613455 0.06071409 0.12028936 -0.092873394 0.08086081
-0.060061295 0.08604807 -0.06246639 0.16620786 -0.19202127 0.06371626 0.16757599 -0.1211355
-0.072299 -0.09962079 0.021233879 -0.075032786 0.12454353 -0.0030963907 -0.08115249 -0.113564305
0.09423537 0.064294614 0.15141442 0.20962973 0.024225796 0.084855564 -0.0874872 0.08429938
0.11888873 0.10607271 -0.06748378 0.028290078 0.06518095 0.061321754 0.029551001 -0.09499835
-0.12840693 -0.011277915 -0.15104324 -0.08118637 -0.08059138 -0.07952615 -0.03995413 -0.040242773
-0.18945625 0.059864677 0.0023293204 -0.045196485 0.12505044 -0.060530353 0.01825932 -0.035757322
0.14404939 -0.16108373 -0.00866028 0.039500933 -0.12337609 0.14328152 0.14259359 0.05221678
0.1554315 -0.13624401 -0.083571576 -0.061303347 -0.09463015 0.113887824 -0.010600585 0.033974394
-0.10977735 0.116458856 0.12185622 -0.1044862 0.06413488 0.062265348 -0.05239831 0.14438893
-0.083851986 0.054580983 0.09670464 0.07648628 0.14265387 0.047324896 0.05788563 0.09882435
0.17339872 0.07923964 -0.053063184 -0.118960775 0.03340339 0.0054832036 0.01836651 0.05695281
0.09263052 -0.21184391 0.031271514 -0.04624475 0.052775465 0.07880595 -0.05920784 0.036018275
0.23965512 -0.04379388 -0.0876897 -0.18618505 -0.13121343 -0.06667504 -0.0029751454 0.13262828
00000000: 7358 60be 7d0b 453e 7a4d 1bbe 3394 923d
00000010: b19f 5b3c 4096 3d3c c192 1ebc 6a11 21bc
00000020: 720e 713d 1ddd 5f3c 8c29 01bd a310 1c3e
00000030: 3476 de3c 2ead bbbd 0204 ca3d 82a9 aabc
00000040: 308b 45bd 030b 653b 5e07 783b 2946 963d
00000050: 3a88 653d 517c 563e 1bad fd37 f92b 60bd
00000060: 304b 383d ffc3 0fbc 9db3 dcbb 36cb 093c
00000070: 7f7e 183c 3f85 9e3c 7223 7c3d 1e4c bdbd
00000080: 9a30 d93c 83a0 813d d779 b33d 8851 a1bd
00000090: f1a0 81be e4bc 0cbd 5f65 2d3e c403 d03d
000000a0: ed4e 8e3d b35d 203d 096c bfbd 4bb8 31bb
000000b0: 572f 8fbe 9190 b63b 1f86 1bbd 6a2f 87bc
000000c0: 9791 353d c7e9 a6bc b3e1 00be 8c86 01be
000000d0: b869 aebc ed2e 183e 894b 87bd 700c 8abd
000000e0: c641 ab3b 4e4b 423c 2047 833c 34fb fd3c
000000f0: d429 0d3e 1c77 86bd bde6 a13d a91d 91bd
00000100: faaf 273e 5d48 31be c43b dbbd fee9 f73d
00000110: fa04 863d 2a94 3d3d 38fe 333d 5e19 b5bc
00000120: 92ec b93d 63a1 113e 3c40 9bbd 9e9a 953c
00000130: 8c46 99bd 00f1 6f3d 9fe7 11be 8835 c93c
00000140: 2cde 023e 6950 c3bc 9f0e 90bd b41b 27bc
00000150: 77bf 723d 2f29 5c3d 6bc4 973d 091d f23d
00000160: dbca 813d 2289 103e 4af8 d73d a9bf 4c3e
00000170: 0e7c 383d 5148 113e cca1 263e 298c 163e
00000180: 169c 043d 3967 f1bd 0766 33bd 9989 873d
00000190: 809c 82bb 03ab 5dbd 113a 88bd 053e 93bd
000001a0: 62e9 adbd 685d fbbb caaf 113e 7f6c 9dbd
000001b0: 6bdc 963c 6757 6bbe 5126 11be d77f f3bd
000001c0: 3bdd 9f3c f19e b83d 06e9 5cbc 1103 a4bd
000001d0: 1efc 953d d53e 4d3e 2714 0c3e 11b3 053c
000001e0: f275 51bd 35a1 a3bd c3b0 353e d0fa 2bbe
000001f0: 931f 8d3d 1db3 8c3e 9862 aa3d 90ea 0f3e
00000200: 5e09 4fbe 2a30 a73d fd9a 2f3d 6124 0bbd
00000210: f326 c5bd b413 1b3e 5a5c ba3d 9e3f 3abe
00000220: c851 653e 3f5a e0bd bf3d 2fbe 9c59 0ebe
00000230: bedc 32be b9ce 2fbe b721 f53d 2373 7cbd
00000240: d9ce e33d fae6 013e 5bc4 dfbd db66 0bbe
00000250: 56af 783d 455a f63d 6834 bebd 5a9a a53d
00000260: d502 76bd f839 b03d c2dc 7fbd 6532 2a3e
00000270: 39a1 44be ac7d 823d 0a99 2b3e e415 f8bd
00000280: 8011 94bd fc05 ccbd acf2 ad3c caaa 99bd
00000290: ae10 ff3d d1ec 4abb 4733 a6bd 6794 e8bd
000002a0: 79fe c03d e5ac 833d 620c 1b3e 2da9 563e
000002b0: 2d75 c63c c1c8 ad3d 7d2c b3bd 27a5 ac3d
000002c0: ef7b f33d a63c d93d f034 8abd 98c0 e73c
000002d0: 977d 853d 852c 7b3d f114 f23c 7f8e c2bd
000002e0: 1b7d 03be 01c7 38bc 14ab 1abe 0a45 a6bd
000002f0: 180d a5bd 9bde a2bd f1a6 23bd 9bd5 24bd
00000300: d200 42be aa34 753d 83a7 183b f31f 39bd
00000310: 390d 003e adee 77bd 9294 953c 4576 12bd
00000320: af81 133e 22f3 24be d9e3 0dbc bbcb 213d
00000330: 9aac fcbd 64b8 123e 0e04 123e 43e1 553d
00000340: 6f29 1f3e 8d83 0bbe 9327 abbd 3819 7bbd
00000350: 74cd c1bd 053e e93d 13ae 2dbc bc28 0b3d
00000360: f3d2 e0bd fb81 ee3d c18f f93d dcfc d5bd
00000370: 2659 833d f309 7f3d 9c9f 56bd b1da 133e
00000380: 97ba abbd 4f90 5f3d 150d c63d d7a4 9c3d
00000390: db13 123e c0d7 413d 7b19 6d3d 6c64 ca3d
000003a0: 6f8f 313e 6448 a23d c858 59bd b5a1 f3bd
000003b0: fed1 083d 72ac b33b 5d75 963c 5a47 693d
000003c0: 12b5 bd3d 9ced 58be 8f16 003d 236b 3dbd
000003d0: 162b 583d 0465 a13d ec83 72bd e687 133d
000003e0: 2768 753e 3661 33bd a896 b3bd 4ba7 3ebe
000003f0: d05c 06be ec8c 88bd a8fa 42bb b5cf 073e

local1.norm.weight f4 [128]
1.1218265 1.0194145 1.0477152 0.98690057 0.988534 1.033811 0.9818062 1.0896102
0.96545595 1.1745372 0.94420433 0.9656705 1.0375654 0.9775224 1.1435429 1.0860764
0.92874277 0.9351209 0.9013553 1.0510325 1.0495095 0.98065734 1.0035125 0.9756576
1.0138586 0.96880084 0.91564447 1.0327048 1.0507423 0.9831814 0.8927863 1.0773699
1.0020319 0.9880131 1.0737691 1.0089386 1.0224446 0.9381826 0.95229226 1.125811
0.97500646 1.0009867 0.97993237 0.9791219 1.0077915 1.0235195 0.8801079 1.1034027
0.9608997 0.98530984 1.0731319 1.0082618 0.9119184 0.9301403 1.0067112 0.9567782
1.1051497 0.991071 0.93543756 1.0912676 1.0774258 1.0142218 1.0054035 0.9651083
0.9506773 1.0533471 0.9611 1.0101908 0.93371844 1.1057484 1.0063548 0.9180886
1.0248485 1.0214258 0.944234 0.9324926 0.9329184 0.92040074 0.9150905 1.0626365
1.0717599 1.0457244 0.94482726 1.0452936 0.9668017 0.96742755 1.1621842 0.96058905
0.9807063 1.0506757 0.9299055 1.002761 0.95563287 1.0025243 0.8813215 1.0510517
0.9591659 0.9201045 1.0173777 0.9626272 1.0495074 0.9709218 1.0015037 1.0631106
0.9746498 0.99262434 0.99725807 0.9654083 1.0130187 1.0534439 0.9613937 1.0102763
0.9788754 1.038224 0.9478038 0.94072944 1.0574423 1.0874004 1.1016812 0.9307805
1.0163324 0.97335845 1.1080272 1.0183326 0.9684474 0.9882149 1.0020249 1.0610343
00000000: 0398 8f3f 2d7c 823f 881b 863f 84a5 7c3f
00000010: 9010 7d3f eb53 843f a757 7b3f 5978 8b3f
00000020: 1f28 773f 3c57 963f 60b7 713f 2f36 773f
00000030: f1ce 843f e83e 7a3f 9d5f 923f 8d04 8b3f
00000040: 16c2 6d3f 1564 6f3f 39bf 663f 3c88 863f
00000050: 5456 863f 5c0c 7b3f 1973 803f b2c4 793f
00000060: 1ec6 813f 5503 783f ad67 6a3f ac2f 843f
00000070: b97e 863f c7b1 7b3f a58d 643f 42e7 893f
00000080: 9542 803f 6dee 7c3f 4471 893f e624 813f
00000090: 77df 823f bc2c 703f 6dc9 733f 931a 903f
000000a0: 069a 793f 5520 803f d9dc 7a3f bca7 7a3f
000000b0: 50ff 803f b002 833f c04e 613f 4d3c 8d3f
000000c0: 86fd 753f 443d 7c3f 635c 893f b90e 813f
000000d0: 7c73 693f ad1d 6e3f eadb 803f 6bef 743f
000000e0: 8c75 8d3f d4b6 7d3f d678 6f3f a8ae 8b3f
000000f0: 17e9 893f 05d2 813f 10b1 803f 5611 773f
00000100: 965f 733f 14d4 863f a60a 763f ef4d 813f
00000110: 2c08 6f3f 2a89 8d3f 3cd0 803f db07 6b3f
00000120: 3c2e 833f 15be 823f 52b9 713f d6b7 6e3f
00000130: bed3 6e3f 629f 6b3f 5f43 6a3f 7904 883f
00000140: 6e2f 893f 4cda 853f 33e0 713f 2ecc 853f
00000150: 5180 773f 55a9 773f 74c2 943f 2ae9 753f
00000160: 910f 7b3f 8b7c 863f 490e 6e3f 795a 803f
00000170: 5ba4 743f b752 803f 499e 613f dd88 863f
00000180: e58b 753f f88b 6b3f 6f39 823f bc6e 763f
00000190: 4256 863f 558e 783f 4631 803f 0214 883f
000001a0: a682 793f a11c 7e3f 4e4c 7f3f 0025 773f
000001b0: 99aa 813f 40d7 863f e61d 763f bc50 813f
000001c0: 9497 7a3f 86e4 843f 45a3 723f a5d3 703f
000001d0: 455a 873f f02f 8b3f e403 8d3f a147 6e3f
000001e0: 2e17 823f 052e 793f d6d3 8d3f b958 823f
000001f0: 2bec 773f a7fb 7c3f 5a42 803f f9cf 873f

local1.norm.bias f4 [128]
-0.070525184 -0.043298475 -0.0816238 -0.09806776 -0.0921024 -0.07537753 -0.046832506 -0.07487617
-0.08183325 -0.07251842 -0.1074645 -0.072298005 -0.05549504 -0.047490243 -0.096522264 -0.063660026
-0.12019024 -0.086159974 -0.105069056 -0.07730871 -0.044664726 -0.12561671 -0.08958348 -0.048541717
-0.05456962 -0.12430229 -0.122929424 -0.11469195 -0.08367287 -0.06736422 -0.13680108 -0.047637697
-0.080425404 -0.06355329 -0.07818872 -0.047155753 -0.069891684 -0.078499556 -0.08155412 -0.034052823
-0.05680362 -0.090988144 -0.07859662 -0.07704233 -0.0960548 -0.05108482 -0.13903184 -0.05114631
-0.09579346 -0.09578058 -0.068419725 -0.036894042 -0.12342698 -0.102102 -0.065232515 -0.07745184
-0.07421235 -0.09803712 -0.036750007 -0.03677817 -0.064161 -0.03500042 -0.07338211 -0.08643326
-0.09517792 -0.059615247 -0.10688953 -0.07168152 -0.07833439 -0.031590518 -0.05058702 -0.08735413
-0.059832778 -0.085636176 -0.08388741 -0.07795299 -0.122126356 -0.06728611 -0.095473915 -0.066886306
-0.020322118 -0.0464644 -0.085374884 -0.07775842 -0.092739955 -0.08516579 -0.052831434 -0.10521735
-0.07670903 -0.06829275 -0.096067905 -0.09424281 -0.08881357 -0.10703527 -0.12964742 -0.0653511
-0.07025047 -0.11218302 -0.06547587 -0.06008614 -0.06546226 -0.08560954 -0.08939656 -0.1275493
-0.047569633 -0.10508344 -0.062285606 -0.081729874 -0.07891412 -0.0722127 -0.09573778 -0.052218832
-0.112403505 -0.03496169 -0.053528838 -0.113282666 -0.066915825 -0.06291056 -0.094437286 -0.086127765
-0.064271465 -0.08374974 -0.07754264 -0.13126938 -0.08234593 -0.07803406 -0.09596312 -0.06024978
00000000: 826f 90bd be59 31bd 612a a7bd c0d7 c8bd
00000010: 2fa0 bcbd 895f 9abd 71d3 3fbd ad58 99bd
00000020: 3198 a7bd 8a84 94bd 5916 dcbd fa10 94bd
00000030: c44e 63bd 2185 42bd 77ad c5bd 3060 82bd
00000040: 4d26 f6bd a474 b0bd 722e d7bd 0754 9ebd
00000050: 5cf2 36bd aba1 00be 8b77 b7bd aed3 46bd
00000060: 6584 5fbd 3392 febd 6cc2 fbbd 9de3 eabd
00000070: af5c abbd 41f6 89bd 9515 0cbe bf1f 43bd
00000080: 13b6 a4bd 3a28 82bd 6821 a0bd 6426 41bd
00000090: 5f23 8fbd 60c4 a0bd d905 a7bd f97a 0bbd
000000a0: eaaa 68bd fe57 babd 44f7 a0bd 5ec8 9dbd
000000b0: 61b8 c4bd 513e 51bd 5d5e 0ebe cb7e 51bd
000000c0: 5d2f c4bd 9c28 c4bd a41f 8cbd 351e 17bd
000000d0: 49c7 fcbd da1a d1bd a098 85bd 129f 9ebd
000000e0: a5fc 97bd b0c7 c8bd 2d87 16bd b5a4 16bd
000000f0: d866 83bd 9a5c 0fbd 5c49 96bd ec03 b1bd
00000100: a4ec c2bd 1e2f 74bd e6e8 dabd c3cd 92bd
00000110: c86d a0bd 0f65 01bd 5634 4fbd b9e6 b2bd
00000120: 3713 75bd 0562 afbd 2acd abbd d1a5 9fbd
00000130: 621d fabd 4dcd 89bd d487 c3bd b0fb 88bd
00000140: 927a a6bc 7451 3ebd 07d9 aebd ce3f 9fbd
00000150: 72ee bdbd 676b aebd c665 58bd 327c d7bd
00000160: a019 9dbd 12dd 8bbd 40bf c4bd 6002 c1bd
00000170: e4e3 b5bd 4f35 dbbd 4bc2 04be ccd6 85bd
00000180: 7adf 8fbd 36c0 e5bd 3718 86bd e21c 76bd
00000190: 1411 86bd 0e54 afbd 8b15 b7bd 499c 02be
000001a0: 60d8 42bd fd35 d7bd 311f 7fbd fe61 a7bd
000001b0: ba9d a1bd 41e4 93bd 2b12 c4bd 6ae3 55bd
000001c0: cf33 e6bd fd33 0fbd 0e41 5bbd be00 e8bd
000001d0: 2a0b 89bd 40d7 80bd 5668 c1bd c163 b0bd
000001e0: c2a0 83bd fc84 abbd adce 9ebd 7b6b 06be
000001f0: fca4 a8bd 52d0 9fbd 5088 c4bd 79c8 76bd

local2.conv.bias f4 [128]
0.0014308635 -0.0002049603 0.0016288821 0.04701988 0.0012074872 0.001969332 -0.004619347 0.044656727
0.00083347684 0.0021658358 -0.0031767124 0.00078591565 0.0019221291 -0.00026182292 0.0009144754 0.00040971537
-0.00032290185 0.0013775544 0.014816037 -0.048636913 -0.0006044547 -0.0047589983 0.0030138406 -0.0035747923
-0.0013398415 0.028603211 0.0021016924 -0.0056595616 0.0014150678 0.00044330713 0.0028244609 0.0011095604
0.00120595 0.002345646 -0.0013709298 0.0012890176 0.0027319447 0.00041180037 0.0029775791 0.0056378
0.0009292047 0.044500086 0.000705921 0.0024907957 0.0029439954 0.0015740634 0.0018412756 0.00012125017
-0.0013063762 -0.013539036 -0.0006777877 0.002727971 0.001346235 0.011246863 0.019114139 0.00062545616
-0.005108789 0.00042843292 0.0009881781 0.00021440929 0.0030299884 -0.0018103155 0.0013157674 0.0003155006
-0.0003877333 0.00083300716 0.0010302484 -0.0006342582 -0.0015806592 0.0021839696 0.0017637444 -0.00025761008
0.00023793653 0.001843657 0.0010799486 0.00046965346 0.0023167753 0.0013058023 -0.0006744067 0.006474647
2.2618513e-05 -0.002005614 -0.0028816466 0.0016232836 -0.0005995144 0.0034327996 0.0016284199 0.0056422884
-0.00015138322 0.009259848 -0.0017560044 0.0009495879 0.003314033 0.0017743021 0.002216506 -0.0390695
0.0004187352 0.0023048713 0.0036920218 -0.0007172251 -0.0023007276 0.0016417151 0.0011072622 0.00089758594
0.010932207 -0.009255316 -0.00028408086 0.0027387387 0.0029016735 -0.0020864813 0.017193994 -0.0006279113
0.0008085572 -0.0006781198 -0.001062548 -0.005111041 0.0012049072 0.0013489495 -0.000934339 0.0016097673
-0.0015786944 0.0050357226 0.04020437 0.0006200152 0.0014463885 -0.14678544 -0.034441244 -0.0018404829
00000000: d08b bb3a 9dea 56b9 3780 d53a eb97 403d
00000010: 8c44 9e3a e90f 013b e45d 97bb f9e9 363d
00000020: af7d 5a3a b2f0 0d3b 6430 50bb e805 4e3a
00000030: f3ef fb3a 4745 89b9 68b9 6f3a 11cf d639
00000040: 274b a9b9 0e8f b43a f7be 723c 8037 47bd
00000050: 4574 1eba 5ff1 9bbb db83 453b 1047 6abb
00000060: 9f9d afba 4851 ea3c 8cbc 093b d873 b9bb
00000070: cc79 b93a ad6b e839 971a 393b ab6e 913a
00000080: f810 9e3a 69b9 193b c5b0 b3ba 41f4 a83a
00000090: 6d0a 333b e9e6 d739 7d23 433b 4bbd b83b
000000a0: df95 733a b945 363d 8e0d 393a 9e3c 233b
000000b0: 0cf0 403b ce50 ce3a f556 f13a b047 fe38
000000c0: b63a abba d5d2 5dbc 90ad 31ba c2c7 323b
000000d0: 2774 b03a c344 383c 4195 9c3c a7f5 233a
000000e0: a167 a7bb 4b9f e039 c185 813a 0ed3 6039
000000f0: c592 463b 1c48 edba d475 ac3a c669 a539
00000100: af48 cbb9 2a5e 5a3a 6609 873a 5944 26ba
00000110: 1f2e cfba ee20 0f3b 712d e73a d70f 87b9
00000120: 9a7e 7939 dda6 f13a 108d 8d3a d23b f639
00000130: 0ad5 173b 7427 ab3a abca 30ba 4729 d43b
00000140: e3bc bd37 9f70 03bb 02da 3cbb 5cc4 d43a
00000150: bb28 1dba d2f8 603b b470 d53a f2e2 b83b
00000160: a0bc 1eb9 9eb6 173c bb29 e6ba c4ed 783a
00000170: 3f30 593b b38f e83a cd42 113b 5707 20bd
00000180: b089 db39 530d 173b d9f5 713b 2904 3cba
00000190: cec7 16bb d12e d73a 8e21 913a f94b 6b3a
000001a0: 001d 333c 9ca3 17bc b0f0 94b9 697c 333b
000001b0: 012a 3e3b 59bd 08bb 6bda 8c3c 6a9a 24ba
000001c0: 5bf5 533a d9c3 31ba 3245 8bba 857a a7bb
000001d0: faed 9d3a 3ccf b03a 6eee 74ba d4fe d23a
000001e0: 32ec ceba b402 a53b 56ad 243d 8488 223a
000001f0: bf94 bd3a ec4e 16be 4312 0dbd 5c3c f1ba

local2.conv.lin.weight f4 [128, 128]
0.006693815 -0.22057521 0.02609397 -0.15459608 -0.13112998 -0.11812488 -0.0040031057 -0.11864607
0.13704306 0.14312336 -0.14512393 0.106976956 -0.066214085 -0.14448534 -0.025654893 -0.015111657
-0.036843136 -0.08896033 0.08654279 -0.07055515 -0.15721966 -0.09199256 0.13481171 -0.013475703
0.06356694 0.06282668 0.078484245 0.08957012 0.06364798 0.07282623 0.09438586 -0.059973605
-0.05620379 0.139466 -0.08708686 0.05201262 0.011926626 0.022676408 -0.09074558 -0.11964358
-0.07342494 0.091681935 0.09581062 0.15420665 -0.03732998 -0.04640223 -0.12415889 -0.15753955
-0.055385012 -0.00039077693 -0.026378118 0.011908062 -0.03923902 0.10298363 0.012696786 -0.022131177
0.022544244 -0.07070713 -0.12219636 0.013988886 -0.15113406 0.0008631129 0.09185782 0.16643265
0.056975488 -0.07858271 0.15489097 -0.07913167 0.16726774 0.16272971 -0.13475147 -0.02302189
0.00740139 0.16088657 0.03598513 0.01742762 -0.043182533 -0.045469813 -0.014842995 0.083840884
0.12415153 -0.0010120573 -0.042533953 -0.15855286 0.16943653 -0.021317478 -0.093096815 -0.03691632
-0.06836081 -0.12036739 0.015160353 -0.1201724 -0.0081706345 0.04318324 0.113846116 -0.17116894
-0.09349278 0.08859765 -0.056453634 -0.06289532 -0.020155642 -0.0588383 -0.10124878 0.051789265
-0.001496059 -0.0006960192 0.0825819 0.120233215 0.050530482 -0.0006216766 -0.0038619293 0.06523168
-0.025169067 0.050428983 -0.043914635 0.17765586 0.0331077 -0.10207242 0.06152325 -0.12943718
0.14168474 0.011337934 0.09731605 0.042177916 0.08194962 -0.08362879 -0.1497708 -0.053047124
0.016325038 -0.021171302 0.05402406 0.12582578 -0.09557793 0.056908723 0.14557244 0.21092321
-0.13069211 0.10856351 0.010901307 -0.069626264 0.023897601 0.13428894 0.1195797 -0.096303836
-0.035477422 0.18704468 0.1392055 -0.1163427 -0.087673165 0.04113396 0.19521551 0.15108776
0.013207913 0.1341527 0.15108964 -0.15029395 0.14643371 -0.08746485 0.015653212 -0.009982346
0.08223915 -0.059169292 -0.014496571 -0.0059782118 -0.017314916 0.054498103 0.07624688 -0.11979812
0.09836687 0.068396464 0.04092249 -0.13802136 0.12669706 0.03499088 -0.017050693 -0.022174843
-0.04260133 -0.086627536 0.055126686 0.05612077 -0.022094136 -0.118593775 -0.033758763 0.11307765
-0.13109392 -0.010215172 0.14003846 -0.06195324 -0.111959286 0.11034868 0.015700608 -0.051699482
0.019140983 -0.012618423 0.07511501 -0.11896171 0.07006358 0.1099972 0.1455518 0.114592806
0.13458525 0.066776596 0.14925085 0.057226826 -0.10966169 -0.03867724 -0.08041494 -0.19894901
0.023692826 0.039985098 -0.042883236 0.10681386 -0.00079356163 0.07528542 0.048509043 -0.087889835
-0.06723998 0.122214064 0.09138825 -0.08511915 -0.050763372 -0.04726227 -0.029409917 0.16079222
-0.01725319 -0.0012230689 -0.13371654 0.013515624 -0.15066586 0.020570664 -0.12863442 -0.02084853
0.011770554 0.038435332 0.074025825 0.121281885 -0.11861193 0.02433551 0.033765525 0.055103768
-0.07555849 -0.030747566 0.067905575 0.0012549502 0.10276159 0.025534138 0.03721795 -0.112914525
-0.03162587 0.03996582 0.017513096 0.019404411 0.12571843 0.09425526 0.07986133 0.056639984
00000000: ca57 db3b 78de 61be 05c3 d53c 6f4e 1ebe
00000010: f046 06be 75eb f1bd 7c2c 83bb b6fc f2bd
00000020: 0455 0c3e ee8e 123e 5e9b 14be bc16 db3d
00000030: 409b 87bd f7f3 13be 362a d2bc e296 77bc
00000040: d4e8 16bd d530 b6bd 593d b13d 387f 90bd
00000050: 31fe 20be 9866 bcbd 150c 0a3e 32c9 5cbc
00000060: 622f 823d 46ab 803d 59bc a03d 8a70 b73d
00000070: df59 823d eb25 953d 604d c13d e2a6 75bd
00000080: f235 66bd 2dd0 0e3e 985a b2bd 2f0b 553d
00000090: e567 433c e0c3 b93c d2d8 b9bd b107 f5bd
000000a0: d15f 96bd bdc3 bb3d 5c38 c43d 59e8 1d3e
000000b0: 52e7 18bd 4410 3ebd 0447 febd 0c52 21be
000000c0: 65db 62bd 31e1 ccb9 ec16 d8bc 081a 433c
000000d0: 18b9 20bd 15e9 d23d 2e06 503c 714c b5bc
000000e0: b5ae b83c e6ce 90bd 1642 fabd a431 653c
000000f0: e3c2 1abe 8742 623a f41f bc3d 526d 2a3e
00000100: 215f 693d f9ef a0bd bd9b 1e3e c90f a2bd
00000110: 3c48 2b3e 9ea2 263e 4afc 09be 6798 bcbc
00000120: 5c87 f23b 73bf 243e 2565 133d 5ec4 8e3c
00000130: 2be0 30bd 8e3e 3abd 0930 73bc c5b4 ab3d
00000140: 2843 fe3d 02a7 84ba 1538 2ebd ae5b 22be
00000150: c580 2d3e fea1 aebc 8ba9 bebd 9135 17bd
00000160: c100 8cbd 2e83 f6bd 2163 783c f21c f6bd
00000170: 20de 05bc e9e0 303d 2728 e93d e946 2fbe
00000180: 2579 bfbd af72 b53d ed3b 67bd 43cf 80bd
00000190: 721d a5bc 6e00 71bd 855b cfbd fb20 543d
000001a0: 6917 c4ba 0f75 36ba b320 a93d d53c f63d
000001b0: 0df9 4e3d 03f8 22ba 6c18 7dbb 3098 853d
000001c0: 5c2f cebc 9f8e 4e3d d5df 33bd 6beb 353e
000001d0: f19b 073d 580b d1bd ceff 7b3d 2e8b 04be
000001e0: ce15 113e bec2 393c a34d c73d c0c2 2c3d
000001f0: 34d5 a73d 9245 abbd 845d 19be f147 59bd
00000200: 16bc 853c 706f adbc 5548 5d3d 79d8 003e
00000210: 5dbe c3bd 1f19 693d f110 153e 41fc 573e
00000220: 27d4 05be 8c56 de3d 659b 323c 3798 8ebd
00000230: e7c4 c33c 0a83 093e 34e6 f43d f23a c5bd
00000240: c650 11bd a488 3f3e e38b 0e3e 1545 eebd
00000250: fd8d b3bd 157c 283d 93e6 473e c0b6 1a3e
00000260: 0166 583c 535f 093e 3eb7 1a3e a8e6 19be
00000270: b8f2 153e c520 b3bd 2a3b 803c fe8c 23bc
00000280: 006d a83d 805b 72bd 0783 6dbc e0e4 c3bb
00000290: 03d8 8dbc 6739 5f3d 5327 9c3d b758 f5bd
000002a0: 9274 c93d 7213 8c3d 579e 273d 7955 0dbe
000002b0: e0bc 013e 9952 0f3d e5ad 8bbc 04a8 b5bc
000002c0: bb7e 2ebd c769 b1bd 85cc 613d e4de 653d
000002d0: c3fe b4bc 4be1 f2bd a146 0abd 4195 e73d
000002e0: 7c3d 06be 895d 27bc 3e66 0f3e aec2 7dbd
000002f0: e94a e5bd 7dfe e13d 909e 803c d6c2 53bd
00000300: 8dcd 9c3c 81bd 4ebc e6d5 993d 32a2 f3bd
00000310: 7f7d 8f3d 3646 e13d 880b 153e a2af ea3d
00000320: b7d0 093e 2bc2 883d 37d5 183e ad66 6a3d
00000330: 4f96 e0bd 076c 1ebd 97b0 a4bd 4ab9 4bbe
00000340: 7517 c23c 6ac7 233d 55a6 2fbd 3ac1 da3d
00000350: 0507 50ba 3e2f 9a3d 6bb1 463d 96ff b3bd
00000360: 1db5 89bd 5e4b fa3d c329 bb3d f352 aebd
00000370: 41ed 4fbd 1596 41bd 11ed f0bc b7a6 243e
00000380: 9056 8dbc 624f a0ba fdec 08be a370 5d3c
00000390: 2748 1abe cf83 a83c beb8 03be 89ca aabc
000003a0: 48d9 403c 5e6e 1d3d da9a 973d a362 f83d
000003b0: d0ea f2bd 435b c73c b84d 0a3d 7db4 613d
000003c0: 69be 9abd 52e2 fbbc 1412 8b3d 247d a43a
000003d0: ab74 d23d f82c d13c d971 183d bb3f e7bd
000003e0: 218a 01bd 33b3 233d a077 8f3c 00f6 9e3c
000003f0: 55bc 003e e708 c13d 568e a33d 54ff 673d

local2.norm.weight f4 [128]
0.98607475 0.9120313 0.99287724 0.8509371 0.92729294 0.9621414 1.0534613 0.92708313
0.99981296 0.9452902 1.011818 0.91669685 0.87473494 0.9411418 0.9566266 0.950192
0.98882025 0.8914948 1.0034224 0.9678643 0.963419 1.0637724 0.85420495 1.055092
1.0054008 0.880767 0.9043026 1.0678817 0.83699363 0.99869424 0.9003803 0.9742472
0.92736226 0.8761739 0.9803948 0.98696417 0.8458173 0.98421085 0.8917303 0.8702698
1.0025171 0.93090403 0.92922026 0.9216973 0.8751129 0.8502544 0.941013 0.9006841
1.0176545 1.0154563 0.98976845 0.87724733 0.95570266 0.9924278 0.8806268 0.93782735
1.1246812 0.9808323 0.8565014 0.9165142 0.83982134 0.91813856 0.96332043 1.014396
1.0031295 0.93895024 0.9545765 0.9829861 0.98605067 0.9684821 1.0271307 0.9873827
1.0710871 0.9458383 0.9433109 1.0202278 0.8927042 0.969595 0.98299253 0.9498217
0.9427387 0.9592338 1.0193564 0.9683246 1.0037304 0.94242215 0.97275025 0.9545719
0.93704873 1.0265628 0.9716421 0.9187644 0.84618574 0.90565723 0.93348724 0.8854216
0.9921981 0.9050663 0.8125555 1.0027962 1.0551926 0.8993753 1.0575776 0.95135945
0.90935963 0.97985744 0.95398706 0.9096943 0.8912376 1.0780897 0.8716953 0.9507723
1.0427084 1.029126 1.124326 1.0326747 0.9374611 0.94652134 0.9952209 0.89849657
1.1050255 1.014842 0.95655864 0.98691726 1.0252306 0.93016803 0.9345615 0.9529216
00000000: 656f 7c3f e27a 693f 342d 7e3f 04d7 593f
00000010: 1263 6d3f e64e 763f d2d7 863f 5255 6d3f
00000020: bef3 7f3f 8afe 713f 4183 813f a5ac 6a3f
00000030: a1ee 5f3f abee 703f 7be5 743f c83f 733f
00000040: 5323 7d3f 0139 643f 2570 803f f4c5 773f
00000050: a1a2 763f b229 883f 2dad 5a3f 410d 873f
00000060: f9b0 803f f279 613f 6080 673f 59b0 883f
00000070: 3745 563f 6daa 7f3f 537f 663f 4468 793f
00000080: 9d67 6d3f ef4c 603f 27fb 7a3f afa9 7c3f
00000090: 7c87 583f 3ef5 7b3f 7048 643f 00ca 5e3f
000000a0: 7b52 803f ba4f 6e3f 61e1 6d3f 5bf4 6b3f
000000b0: 6607 603f 46aa 593f 3ae6 703f 3c93 663f
000000c0: 8142 823f 79fa 813f 7761 7d3f 4893 603f
000000d0: eea8 743f c00f 7e3f c270 613f 7415 703f
000000e0: 8ef5 8f3f d317 7b3f ad43 5b3f ada0 6a3f
000000f0: 88fe 563f 210b 6b3f 2b9c 763f bad7 813f
00000100: 8c66 803f 0b5f 703f 205f 743f faa4 7b3f
00000110: d16d 7c3f 71ee 773f 0579 833f 1dc5 7c3f
00000120: 6219 893f 7522 723f d37c 713f d396 823f
00000130: 4388 643f 6137 783f 66a5 7b3f 8427 733f
00000140: 5357 713f 5990 753f 457a 823f 1fe4 773f
00000150: 3d7a 803f 9442 713f 2906 793f d35e 743f
00000160: 6de2 6f3f 6966 833f 89bd 783f 2534 6b3f
00000170: a19f 583f 27d9 673f 05f9 6e3f fdaa 623f
00000180: b200 7e3f 6db2 673f a303 503f a05b 803f
00000190: 8d10 873f 763d 663f b45e 873f 4b8c 733f
000001a0: cbcb 683f f0d7 7a3f 7f38 743f bae1 683f
000001b0: 2628 643f d8fe 893f 6c27 5f3f d065 733f
000001c0: 7877 853f 67ba 833f eae9 8f3f af2e 843f
000001d0: 73fd 6f3f 394f 723f ccc6 7e3f df03 663f
000001e0: 7a71 8d3f 58e6 813f 07e1 743f 9ca6 7c3f
000001f0: c23a 833f 7e1f 6e3f 6c3f 6f3f acf2 733f

local2.norm.bias f4 [128]
-0.07931844 -0.10689807 -0.086159706 -0.18447657 -0.062362913 -0.09590804 -0.053109452 -0.15109439
-0.098007135 -0.13452837 -0.07502889 -0.114378996 -0.0908139 -0.09177594 -0.06820684 -0.084533654
-0.05264409 -0.14005351 -0.06831318 -0.07446536 -0.06771699 -0.0788058 -0.1387238 -0.07437096
-0.046765964 -0.1592316 -0.106333576 -0.06426954 -0.15269054 -0.06683523 -0.08011172 -0.0927077
-0.11686505 -0.13509034 -0.09128345 -0.07625322 -0.19534478 -0.053463597 -0.19195122 -0.15684523
-0.061905347 -0.08640268 -0.08698278 -0.12893502 -0.15502094 -0.18984999 -0.07887994 -0.112205185
-0.05414162 -0.06658173 -0.04871677 -0.14470428 -0.12582941 -0.100052126 -0.15666732 -0.1061656
-0.057230104 -0.08011893 -0.14367923 -0.089458816 -0.16797867 -0.076808766 -0.07150312 -0.07987067
-0.058290448 -0.11851566 -0.1177962 -0.08936424 -0.070392214 -0.12161926 -0.077242464 -0.08262944
-0.04980619 -0.124108896 -0.11590275 -0.07554135 -0.12802075 -0.09344122 -0.061366238 -0.145384
-0.08071645 -0.08433302 -0.10357339 -0.104414634 -0.10077845 -0.09416316 -0.06916303 -0.09648018
-0.08199459 -0.058899056 -0.06764506 -0.12399805 -0.17461392 -0.09655944 -0.12537776 -0.11505044
-0.052444305 -0.118162036 -0.19005133 -0.07666681 -0.071506694 -0.12191234 -0.08495019 -0.07992354
-0.1123768 -0.072125934 -0.11151741 -0.14702909 -0.13860637 -0.048852336 -0.16788168 -0.088894494
-0.043875195 -0.06873467 -0.055477858 -0.046311226 -0.107111946 -0.12874182 -0.07396725 -0.12228204
-0.044731244 -0.061140507 -0.10218701 -0.05868113 -0.07050324 -0.07903937 -0.117457055 -0.08312809
00000000: b571 a2bd 60ed dabd 8074 b0bd 6de7 3cbe
00000010: 4170 7fbd 6f6b c4bd 4c89 59bd 7db8 1abe
00000020: f7b7 c8bd cec1 09be bfa8 99bd 893f eabd
00000030: a3fc b9bd 06f5 bbbd 07b0 8bbd fb1f adbd
00000040: 54a1 57bd 306a 0fbe c8e7 8bbd 4b81 98bd
00000050: 35af 8abd ef64 a1bd 9d0d 0ebe cd4f 98bd
00000060: ab8d 3fbd 9c0d 23be 6bc5 d9bd c09f 83bd
00000070: e95a 1cbe e9e0 88bd 9d11 a4bd 89dd bdbd
00000080: f156 efbd 1f55 0abe d1f2 babd a62a 9cbd
00000090: 7608 48be a5fc 5abd dc8e 44be 099c 20be
000000a0: 7690 7dbd e3f3 b0bd 0724 b2bd 8b07 04be
000000b0: cfbd 1ebe 0968 42be ce8b a1bd d5cb e5bd
000000c0: 9ac3 5dbd 015c 88bd 3c8b 47bd 5c2d 14be
000000d0: 6dd9 00be 21e8 ccbd 666d 20be 5a6d d9bd
000000e0: 1d6a 6abd 6515 a4bd a620 13be 2f36 b7bd
000000f0: 9a02 2cbe ea4d 9dbd 3a70 92bd 3c93 a3bd
00000100: f7c1 6ebd 57b8 f2bd 223f f1bd 9904 b7bd
00000110: cb29 90bd 8513 f9bd 4c31 9ebd a039 a9bd
00000120: 9301 4cbd ce2c febd 6c5e edbd 6cb5 9abd
00000130: df17 03be 1c5e bfbd 2a5b 7bbd 8bdf 14be
00000140: ab4e a5bd cab6 acbd 491e d4bd 57d7 d5bd
00000150: ef64 cebd 9dd8 c0bd 59a5 8dbd 6797 c5bd
00000160: c8ec a7bd 2340 71bd 7e89 8abd b1f2 fdbd
00000170: fecd 32be f5c0 c5bd 0763 00be 919f ebbd
00000180: d7cf 56bd f0fe f1bd d19c 42be 7d03 9dbd
00000190: 1a72 92bd 2dad f9bd 5dfa adbd f4ae a3bd
000001a0: cf25 e6bd c3b6 93bd 3d63 e4bd cb8e 16be
000001b0: d4ee 0dbe 6319 48bd 2de9 2bbe 510e b6bd
000001c0: 7ab6 33bd c3c4 8cbd c03c 63bd d7b0 3dbd
000001d0: 825d dbbd e5d4 03be 247c 97bd 026f fabd
000001e0: 1c38 37bd 786e 7abd 6c47 d1bd a05b 70bd
000001f0: 0164 90bd 65df a1bd 538d f0bd 0f3f aabd

meso.Wq.weight f4 [128, 128]
0.028362926 -0.054365344 -0.07065993 0.06615646 -0.07280936 0.0048436364 0.018662984 -0.11481733
-0.10089438 0.0567257 -0.01141248 -0.008199147 0.044581927 0.025565691 0.030210976 0.039414573
-0.0050495653 -0.08936197 -0.078584276 -0.09217835 0.02304206 -0.0071622627 0.07896949 -0.084653705
-0.01311332 -0.040275667 -0.11551167 -0.057924904 -0.11114131 0.00069855835 0.0036637406 -0.0059185373
0.09132388 -0.03241852 0.014936869 -0.060602695 -0.1048747 -0.10787968 -0.012314033 -0.080160074
-0.01707915 -0.037960418 0.035384405 0.044687018 -0.08712684 -0.07777144 -0.055113733 -0.023374373
0.11618816 0.057453547 0.09269515 0.08161142 -0.024888292 -0.046364114 0.06281657 0.057099506
-0.1592912 -0.06075961 0.08280321 0.012513631 0.038249545 0.031117503 -0.02401134 0.015707003
-0.074219696 -0.08987737 0.15536362 -0.0807123 0.11838032 0.0440342 -0.11918296 0.08957285
-0.10534548 -0.12108602 0.066995285 0.010077645 0.08456746 -0.12607753 0.01674327 0.024248207
-0.012834458 0.010908876 0.034762852 -0.023882968 -0.11028854 0.026387107 0.06010151 0.013914891
-0.010906302 0.013221875 -0.11646503 0.10693247 0.091766864 -0.00057551486 -0.088443235 -0.026161987
0.014704503 -0.047209114 0.074781284 -0.08967094 0.010930834 -0.05343759 -0.09918075 -0.022156263
0.052723937 0.099374495 0.05326465 -0.069698095 -0.0185169 -0.11212686 0.07595093 -0.017787766
0.013426369 -0.0026614699 -0.09166097 -0.11337179 -0.06491979 0.05536152 -0.19254816 -0.00252078
-0.07347464 0.040216934 0.09490645 -0.03430803 -0.012828274 0.047441117 -0.073674574 0.09042239
0.07977442 0.06352761 -0.023501363 -0.013541189 0.0111559415 0.012886965 0.03834991 -0.05481544
-0.038561203 -0.08442694 0.0003245337 0.012783694 0.049827114 -0.07586715 -0.056790754 -0.046482377
-0.061301704 -0.0003339139 0.1282102 0.043632574 -0.118961826 0.006935208 0.12212723 -0.13924722
-0.057380885 0.11401432 0.06374524 -0.05182108 -0.046322204 0.010713048 0.049630057 -0.02054951
0.0029957166 -0.10312827 -0.046125073 0.00015069614 -0.06828381 -0.07460355 0.029415194 -0.045549728
0.008528301 -0.106066436 -0.02526757 0.015493083 -0.02619296 -0.11059799 -0.03887396 -0.06257754
0.024584359 0.08911715 0.065980166 0.0035218291 -0.1726025 0.016612008 -0.051539447 -0.018584915
0.049383756 -0.042589776 -0.011294017 0.014069673 0.0461845 -0.07263495 -0.050020766 -0.011958768
0.016105963 -0.12472924 -0.0013748334 0.08147235 0.030173399 -0.04149258 0.1286801 0.015212193
0.05819705 -0.011691968 -0.10059823 0.08624687 -0.110958375 -0.054034527 0.05265784 0.03719759
0.07813113 -0.09515061 0.049205035 -0.052457627 0.05185918 -0.015491234 -0.0057596285 -0.11320713
-0.087229 0.071845524 0.07777048 0.077952825 -0.013018453 -0.0652417 0.09542672 -0.025129408
-0.04706333 -0.0032213898 -0.004840032 0.009713783 -0.030117625 0.038498893 0.02068047 -0.01642932
-0.09951585 0.027089966 0.06437403 0.16073504 0.04650048 -0.051588725 0.035346877 0.07196716
-0.05202128 0.049366243 0.19470789 -0.16503234 0.08403457 -0.0039498075 -0.030472023 0.05386931
0.073199205 0.07540074 0.03900066 0.07095754 -0.0051859887 0.009713398 0.014888118 0.014602156
00000000: 5e59 e83c 32ae 5ebd 27b6 90bd 0a7d 873d
00000010: 131d 95bd 5eb7 9e3b 1de3 983c 5925 ebbd
00000020: b6a1 cebd 3559 683d 69fb 3abc b755 06bc
00000030: 8a9b 363d 246f d13c 027d f73c 2d71 213d
00000040: d376 a5bb 6903 b7bd cbf0 a0bd 01c8 bcbd
00000050: b4c2 bc3c 6ab1 eabb c2ba a13d ec5e adbd
00000060: 40d9 56bc 19f8 24bd 6291 ecbd aa42 6dbd
00000070: 0e9e e3bd 751f 373a 5e1b 703b 4af0 c1bb
00000080: 0408 bb3d 48c9 04bd c5b9 743c 883a 78bd
00000090: 8cc8 d6bd 06f0 dcbd ccc0 49bc f72a a4bd
000000a0: 93e9 8bbc 627c 1bbd 3def 103d bc09 373d
000000b0: 8f6f b2bd a246 9fbd f0be 61bd 9d7b bfbc
000000c0: 0ff4 ed3d 6954 6b3d f4d6 bd3d e323 a73d
000000d0: 88e2 cbbc 4ce8 3dbd f9a5 803d 2ce1 693d
000000e0: 3b1d 23be 12df 78bd bb94 a93d f905 4d3c
000000f0: 8eab 1c3d 22ea fe3c 6eb3 c4bc f9ab 803c
00000100: 7f00 98bd a011 b8bd a417 1f3e 7e4c a5bd
00000110: 6271 f23d 355d 343d 3216 f4bd f871 b73d
00000120: 5fbf d7bd f2fb f7bd d334 893d b51c 253c
00000130: b431 ad3d 781a 01be 2f29 893c 2da4 c63c
00000140: 9e47 52bc 24bb 323c 7e63 0e3d 37a6 c3bc
00000150: f5de e1bd c629 d83c 002d 763d 48fb 633c
00000160: 59b0 32bc 90a0 583c 3885 eebd 69ff da3d
00000170: 44f0 bb3d 26de 16ba ba21 b5bd aa51 d6bc
00000180: 28eb 703c 585e 41bd ee26 993d 66a5 b7bd
00000190: 3e17 333c 60e1 5abd 471f cbbd 0d81 b5bc
000001a0: 0ef5 573d db84 cb3d 092c 5a3d e0bd 8ebd
000001b0: c1b0 97bc c4a2 e5bd 298c 9b3d a6b7 91bc
000001c0: 46fa 5b3c 0e6c 2ebb bfb8 bbbd 782f e8bd
000001d0: abf4 84bd c3c2 623d 582b 45be ac33 25bb
000001e0: df79 96bd 83ba 243d 505e c23d 9486 0cbd
000001f0: ae2d 52bc 9e51 423d b2e2 96bd 602f b93d
00000200: c560 a33d c31a 823d ee85 c0bc dddb 5dbc
00000210: 69c7 363c d923 533c cc14 1d3d 2886 60bd
00000220: 5af2 1dbd 08e8 acbd 2d26 aa39 b372 513c
00000230: 8417 4c3d 3d60 9bbd 6c9d 68bd 4e64 3ebd
00000240: 7f17 7bbd 2a11 afb9 8949 033e 12b8 323d
00000250: 42a2 f3bd be40 e33b d71d fa3d d396 0ebe
00000260: 3808 6bbd 5780 e93d dd8c 823d 5742 54bd
00000270: 5abc 3dbd c885 2f3c e348 4b3d 7257 a8bc
00000280: c953 443b ea34 d3bd a5ed 3cbd 3004 1e39
00000290: 62d8 8bbd bfc9 98bd 22f8 f03c 5a92 3abd
000002a0: 49ba 0b3c 5c39 d9bd effd cebc b3d6 7d3c
000002b0: 9e92 d6bc 3381 e2bd 4d3a 1fbd a728 80bd
000002c0: 2365 c93c 0d83 b63d 9c20 873d 7dce 663b
000002d0: b6be 30be e815 883c 071b 53bd 643f 98bc
000002e0: 9f46 4a3d 9e72 2ebd 8a0a 39bc 7c84 663c
000002f0: f52b 3d3d a2c1 94bd 93e2 4cbd b5ee 43bc
00000300: a7f0 833c 0b72 ffbd c133 b4ba fada a63d
00000310: 342e f73c 20f4 29bd b7c4 033e 903c 793c
00000320: 0860 6e3d ab8f 3fbc 7206 cebd 33a2 b03d
00000330: 253e e3bd 4f53 5dbd bfaf 573d 805c 183d
00000340: 3703 a03d 53de c2bd 388b 493d cfdd 56bd
00000350: 4b6a 543d f2ce 7dbc 44bb bcbb 24d9 e7bd
00000360: 1ea5 b2bd bf23 933d 2146 9f3d bba5 9f3d
00000370: 594b 55bc 719d 85bd 166f c33d 30dc cdbc
00000380: 7ac5 40bd f41d 53bb 2299 9ebb 8f26 1f3c
00000390: 3db9 f6bc 04b1 1d3d 176a a93c c896 86bc
000003a0: f7ce cbbd c7eb dd3c 88d6 833d ba97 243e
000003b0: 4a77 3e3d b34e 53bd e3c7 103d 8563 933d
000003c0: 4414 55bd 4234 4a3d 8161 473e 3dfe 28be
000003d0: 511a ac3d 636d 81bb 77a0 f9bc 11a6 5c3d
000003e0: 77e9 953d b46b 9a3d 28bf 1f3d 3052 913d
000003f0: 3aef a9bb f224 1f3c 4bed 733c e23d 6f3c
