models/eeg_only/s_26.pt (torch, 561186 bytes, 37 tensors)

band_attn.fc1.weight f4 [8, 5]
00000000: c809 ae3e aa8c ed3e 4303 123d 399b 6cbe
00000010: 9765 003e 0342 0b3e 0446 f0be 2d80 9dbe
00000020: f650 a03d 73d6 d7be 80bf 8fbe 6ed5 cbbd
00000030: ceda 85be f0ed 223e bb4a b03c 3316 a43e
00000040: 66f1 023d 083f 5a3e 7b15 023f 09a3 d43e
00000050: c2a5 b5be 694d a0be a61b 8ebe b72c 71be
00000060: af32 02be bc34 3dbd 7007 803d 5030 f33e
00000070: 059f 9dbd 27a2 b5bd 5f2b b1be 5d5a ce3e
00000080: 1741 2a3d 82c6 543d 4dbb d93e 95f1 8c3e
00000090: 58f0 b83e 2ee3 2cbe 9b8d b23e b893 d2bd
0.33991838 0.4639638 0.035647642 -0.23106088 0.12538753 0.135994 -0.46928418 -0.30761853
0.07827942 -0.421558 -0.2807579 -0.09952818 -0.26143497 0.15911078 0.02152001 0.32048187
0.031968497 0.21313107 0.50814027 0.41530636 -0.35478026 -0.3130906 -0.2775547 -0.23552214
-0.12714647 -0.04619287 0.062514186 0.47497797 -0.07696346 -0.08868819 -0.34603402 0.40303317
0.04156598 0.051947124 0.42525712 0.27528062 0.36120868 -0.16883537 0.3487366 -0.10282081

band_attn.fc1.bias f4 [8]
00000000: f49d 0cbd 18e4 c8bd 933b ce3e e6e2 b6be
00000010: 1675 b43e e15b 8b3d 6213 20bf f524 3bbd
-0.034330323 -0.098091304 0.40279827 -0.35719985 0.3524558 0.06804634 -0.62529576 -0.04568954

band_attn.fc2.weight f4 [5, 8]
00000000: 15ec 993e 5967 48be b4c7 0dbe 66be 87be
00000010: c065 abbe 6f53 3e3e 5406 3c3e b4a9 b5bd
00000020: 4393 ec3e 3c0c 013f 484c 81be d1c7 bb3c
00000030: c8a6 693e 2d61 a8be f327 c3be def5 0b3e
00000040: 6a7d 69be c360 13be 4c84 a03e cd13 2fbe
00000050: d9ae ddbd 54ca 243e ba67 81be a5da 0cbe
00000060: bce4 c23d 7f80 5e3e bd97 423e 7d9b 0dbe
00000070: e860 5fbe 9786 f43c 42c9 b33e 72f4 f73d
00000080: 46bf c83e 1bcc d6bd 8bfe a4bc e906 973e
00000090: 5a8d 9a3e 5f7b f7bb d6e1 9b3d 10c1 f93d
0.3006293 -0.19570674 -0.13845712 -0.2651245 -0.33476067 0.18586515 0.18361789 -0.08870259
0.46206102 0.50409293 -0.2525351 0.022922428 0.22817528 -0.3288664 -0.38116416 0.1366801
-0.22801748 -0.1439238 0.31350935 -0.17097397 -0.10824365 0.16092807 -0.2527445 -0.13755281
0.09516284 0.21728705 0.19003196 -0.13828845 -0.2181431 0.029849334 0.35114485 0.12107171
0.3920843 -0.10488149 -0.020140907 0.2949746 0.30185968 -0.007552549 0.07611434 0.12195027

band_attn.fc2.bias f4 [5]
00000000: c4d2 9fbc 4bc3 96bc 593c 0a3d a77e cfbd
00000010: 69e2 acbc
-0.01950968 -0.01840367 0.03374896 -0.10131579 -0.021104055

feat_proj.weight f4 [128, 21]
00000000: 4a46 ef3d 70f8 38be 2d06 173d 6388 6dbe
00000010: cb0d 8a3d fd9b 253e d5b5 833b b660 343e
00000020: 41e0 e1bc 2d25 c9bd 9dfc 343d 0caa e83d
00000030: 9a1f 61be 12c3 803e db6d 68bc 70e3 bf3d
00000040: 3827 70bd c388 703e 80d1 883d aa31 c3bd
00000050: d457 8f3d 8321 1b3e e45f 84bc 591d 333e
00000060: 35df b03d 6cd8 e33c eaa6 e9bc 0ef3 cdbc
00000070: 2b29 003e 96a8 87bd aa9a c5bd b295 c33d
00000080: 8af7 cc3d 2a59 34be bc30 cabd 8442 f03c
00000090: ea42 21be e8a6 a33d ad16 ebbd 2f56 f53d
000000a0: 3dfc e8bd 06fe 10bd 9df4 2e3e 9a01 26be
000000b0: 17f0 cf3d 4635 cf3d c111 35be 0f84 e03d
000000c0: 7df1 c83d 1469 73bd 5fce 183e d4fc 4ebe
000000d0: 2271 0cbe c50f 8a3d 4edb 2ebe 4ded e7bd
000000e0: 2aa2 ad3d 3ecb d2bd 15b2 77bd 4bfb dabd
000000f0: 2d1c a43d 6636 62be 79e5 253c c61e 05bd
00000100: 4b8a 1cbe d180 74bd c77b 2fbe 268f cabd
00000110: 336e 14be 266c 533e f46a 35be 4b89 3abe
00000120: 96f8 9d3a 1db7 11be 45b0 d53b 7f2c 1e3e
00000130: 9205 223e aeba 02be 0ca2 febd b929 49be
00000140: 7de5 7bbd 959d 0a3e 6d2c 4c3e 50fe 0abe
00000150: 51aa 84bc d30e 36bd c038 49bd a3fb 4f3c
00000160: 4662 313e 6e8a e93d 5db3 123e df95 f6bd
00000170: f3d2 33be 5dfe 893e 7db3 2f3e d2d0 64bd
00000180: 0269 55bd c40a acbd 3ee2 e43d 720a 49bd
00000190: b0e7 783d 26bc aebc 1ae8 ed3c 1ca3 333e
000001a0: f902 063e 800d 0e3e dab1 8dbe 709d 733e
000001b0: 1941 fdbc c8a8 0b3d 21eb a33c 11d1 0fbe
000001c0: a072 1ebe cf8f 533d aa06 a83d c82d 933d
000001d0: e587 0f3d d703 463d e2b7 bb3d e15c 473e
000001e0: 7d8b 153e 52ff cbbb f2d8 d93d c5a9 bb3d
000001f0: 0958 eb3d 7701 473d 4a40 c93d 9791 383e
00000200: 6c6a 02be c660 4f3e 538d 3c3e 6bb8 253e
00000210: d3ee a0bd 2f81 963c bbb7 963d 7255 0f3e
00000220: 1fa1 203e bdf2 cc3d c8af a2bc 59d1 91be
00000230: 5f79 dc3d 320e 5d3e 5c90 c3bd f790 62bd
00000240: a954 0b3e 61b4 6dbe 2146 d53d 8774 683e
00000250: 2a33 a63d 6485 503e c491 cb3d ae8a 30bd
00000260: 9ec4 6bbd 41db 02bd 8685 1e3e 6b94 2f3e
00000270: e03b 5f3e 2b7b d73c 1a4b 29be 35be 803e
00000280: c4d1 0abe e229 81be f150 c43d 446d 2cbe
00000290: 4373 30be 8c09 febd 0e78 093e ada1 9a3d
000002a0: b655 05be 7f7a 8abe 8803 50be 3b35 1e3d
000002b0: 5f5c 49be 1558 afbd 439e 7d3d 98a0 25bd
000002c0: 010f ad3c d97b 16bd b8fe a3bd 2bcb b2bd
000002d0: 2529 543e 1338 0c3e 2093 d93c 3ab7 06be
000002e0: 648b 00be 9272 483e b983 c43d 2150 883c
000002f0: 569d 79be bf59 d13c b264 cc3e b2bc b23b
00000300: 877b d5bd 53d1 2abd 67de 06bd 2a0b 47be
00000310: 1fd8 abbd f788 03bd 6198 24be fe65 e73d
00000320: 280b ffbd f464 1b3d 39e3 0cbe 193e 04be
00000330: 729d 1b3e 0045 833e 6275 e1bd e37f 01be
00000340: 54de 94bd a2de 593e 0582 053e 05e5 7a3d
00000350: 914f b83d 4a97 98bd 2d26 50be 3784 71be
00000360: 9fb5 c23b 234c 08be a05f c33d b39b 323e
00000370: ded1 bb3d 425b f23d 8c3f b13d 06f5 2ebd
00000380: 5a38 0c3e 2974 6bbe 8de5 37be 204f 153e
00000390: 8c14 ec3d 872b 383d 4088 09be 9b6a 23be
000003a0: f402 003d 7eab 883e 75e0 b33d a7e8 cabd
000003b0: 347e 39bd 4edd f93d 77bd 393d 00a0 5dbb
000003c0: cb21 08be 0d3e c73d 7425 593e 89b4 ffbd
000003d0: f46b 1bbe ec76 f5bd 9236 823d 0d10 5d3e
000003e0: b7a2 aebb 3733 41be b28e 82bd 826a 633d
000003f0: 006f 67be 72c7 4f3e 8b4d d43d ce85 24be
0.116833284 -0.18063521 0.036871124 -0.23196559 0.06740912 0.16172786 0.004019479 0.17615017
-0.027572753 -0.09821544 0.044186223 0.11360559 -0.21984711 0.25148827 -0.014186348 0.09369552
-0.058631152 0.2348967 0.06680584 -0.09530957 0.06999174 0.15149502 -0.016159005 0.17491664
0.08636323 0.027813159 -0.028521974 -0.025140312 0.12515704 -0.06623952 -0.096486405 0.095500365
0.10008152 -0.17612138 -0.098725766 0.029328592 -0.15748182 0.07990819 -0.114789344 0.11979329
-0.11376236 -0.035398506 0.170855 -0.16211548 0.101532154 0.10117583 -0.17682554 0.10962688
0.09811685 -0.059426382 0.14922474 -0.20213634 -0.13715032 0.06741289 -0.17075846 -0.113245584
0.08478196 -0.102926716 -0.060472567 -0.106924616 0.080131866 -0.22091064 0.010125511 -0.03250005
-0.1528713 -0.05969316 -0.17137061 -0.09890585 -0.14495163 0.20646724 -0.1771658 -0.18216436
0.0012052234 -0.14230008 0.006521257 0.15446661 0.15822437 -0.12766525 -0.12433252 -0.19644822
-0.061498154 0.13536675 0.19938822 -0.13573575 -0.016194494 -0.04444773 -0.049126387 0.012694272
0.17322645 0.114033565 0.14326234 -0.120403044 -0.1756094 0.26951876 0.17158313 -0.05586321
-0.052102096 -0.08400491 0.11175965 -0.049082227 0.06076783 -0.02132995 0.029041339 0.1754269
0.13087071 0.13872337 -0.27674752 0.23790526 -0.03091483 0.03409651 0.02000958 -0.14044596
-0.15473413 0.05165082 0.08204396 0.071864665 0.03504171 0.048343506 0.09165932 0.19469024
0.14603992 -0.006225505 0.10637082 0.0916324 0.11491401 0.04858538 0.09826715 0.18024288
-0.12735909 0.2025176 0.18413286 0.16183631 -0.07858052 0.018372146 0.073592626 0.13997439
0.15686463 0.10007236 -0.01985921 -0.28480032 0.10765337 0.21587446 -0.09549019 -0.05531403
0.13606514 -0.2321334 0.10413767 0.22700702 0.081152275 0.20363384 0.09939912 -0.043101005
-0.057560556 -0.031947378 0.15480623 0.1714646 0.21800184 0.026303848 -0.16532555 0.25145116
-0.13556582 -0.25227267 0.09585751 -0.16838557 -0.17231469 -0.12404165 0.13424703 0.075503685
-0.13020977 -0.27046582 -0.20313847 0.038624983 -0.19664143 -0.08561722 0.06191851 -0.040436357
0.021125318 -0.036739204 -0.08007568 -0.087301575 0.2071882 0.13693266 0.026559412 -0.13155833
-0.12553173 0.19574955 0.095954366 0.016639771 -0.24376425 0.02555549 0.39920574 0.005454623
-0.104239516 -0.041703533 -0.032926943 -0.19437853 -0.08390831 -0.03211304 -0.16073753 0.1129875
-0.124533 0.037938073 -0.13758554 -0.12914313 0.1519678 0.2563858 -0.11008717 -0.12646441
-0.07268968 0.21276334 0.1303788 0.061253566 0.08999551 -0.07450731 -0.20327063 -0.23585592
0.005942061 -0.13310294 0.095397234 0.17442207 0.09170888 0.11833812 0.08654699 -0.04271414
0.13693371 -0.2299353 -0.1795866 0.14580965 0.115273565 0.044963386 -0.13430882 -0.15958636
0.031252816 0.26693338 0.08783046 -0.09907656 -0.045286372 0.12200414 0.045346703 -0.0033817291
-0.13294141 0.09728632 0.21205693 -0.12485606 -0.151779 -0.11985573 0.06358065 0.21588154
-0.0053294557 -0.18867193 -0.06374873 0.055521496 -0.22600937 0.20290926 0.10366353 -0.16066667

feat_proj.bias f4 [128]
00000000: d892 07be 4e4a cfbd c1be 623d 47be b7bd
00000010: d257 a9bd 012a 893d 1f81 d43d f8a5 e63d
00000020: 8cad 0b3e 75c0 26be a347 5dbd 5e1b 99bd
00000030: 3558 f5bd f441 823d a119 41be 8824 72bc
00000040: e214 203d ab89 9abd 4566 f7bd 6abf 3bbd
00000050: 4222 29be fa30 0fbe cf3f 353e 55a8 e8bc
00000060: aaf9 6bbd c4c7 d93d cdc3 f9bc 0500 413e
00000070: 7bcd 163e 0988 e83c 308a 85bd 205d f03d
00000080: 37be 0fbd 938a 67bd 242a 1c3b c225 1c3e
00000090: 8f02 e4bd c131 8ebd 9066 c8bc c92c 98bd
000000a0: 3879 033e f7bb ba3d 2089 053e 2a5c 82bd
000000b0: 026d 853d 8061 423d 0a74 2f3e d041 273e
000000c0: a0d5 01be 3272 1cbe 6ce5 13be 2e72 e9bd
000000d0: b069 843d 4a76 2e3e 0a48 a73d 69a9 4a3e
000000e0: 25c0 0ebe 9d86 573d 15b9 0abe 875d 39be
000000f0: d75a 0d3d 36c7 ebbc 6fd0 2b3d 60a6 26be
00000100: 1888 4d3e d056 2cbe ea3d bbbd be1d 023c
00000110: fb6e 10be 6f79 343c c3b4 6ebc d4dc 2fbe
00000120: 22c7 15bd 964c a6bc f6d7 32bd 86fe e9bd
00000130: 587c 0d3e fa06 04be 31be 2ebe fd23 8e3d
00000140: c997 00bd cffa 57bd 09c2 56be a9d6 113e
00000150: 6a89 97bd 35b0 f8bd fcc1 a4bd bfe2 b83c
00000160: d238 cbbd 977a 27be 384a 1e3e 4e65 903d
00000170: 0de3 20be 882c 15be 3016 0c3e ca87 12be
00000180: a9a0 05be e414 493d 1776 1e3c 83e2 3dbd
00000190: 336d c5bd ad75 23be 5358 6ebc b800 903d
000001a0: 2054 d1bc f4f5 523d f090 f6bd d754 c1bd
000001b0: e84b 15bd c996 213e b428 7abd cb91 40bd
000001c0: 16e7 033e 9aea bfbb 74f3 183d cae8 243e
000001d0: a203 fa3d 0cc7 06be 6f24 4f3d 648c c03d
000001e0: b0fd 373e aa5e 323e 8250 31be c77f 27be
000001f0: 893a a83c 96f1 c8bd 1a42 07be a790 40be
-0.1323961 -0.10121594 0.0553577 -0.089718394 -0.082687035 0.06697465 0.103761904 0.11262125
0.13640422 -0.16284354 -0.054023396 -0.07475923 -0.11979715 0.06360236 -0.18857433 -0.014779218
0.039082415 -0.07545789 -0.12080053 -0.045836844 -0.16516975 -0.13983527 0.17700122 -0.02840058
-0.057611145 0.106338054 -0.030488873 0.18847664 0.14726822 0.02838518 -0.06520498 0.11736512
-0.035093512 -0.05652864 0.0023828829 0.15248778 -0.111333005 -0.069430836 -0.024462968 -0.07430417
0.1283921 0.09117883 0.1304059 -0.06365235 0.06514932 0.047456264 0.17134109 0.16333699
-0.12679148 -0.15277937 -0.14442986 -0.11398731 0.06465471 0.17037311 0.08168037 0.19791187
-0.13940485 0.05261861 -0.13547166 -0.18102084 0.03451046 -0.028781515 0.041946825 -0.16274405
0.20071447 -0.16829991 -0.091426685 0.007941661 -0.14104836 0.01101528 -0.014569464 -0.17174083
-0.03656686 -0.02030019 -0.043662988 -0.114254996 0.13816965 -0.12893286 -0.1706474 0.06940458
-0.031394754 -0.052729424 -0.20972456 0.14242043 -0.073992565 -0.12142984 -0.08044812 0.022569058
-0.09922947 -0.16355358 0.15458 0.07050572 -0.15711613 -0.14567769 0.13680339 -0.14309612
-0.13049568 0.04909219 0.0096717095 -0.046358597 -0.09639969 -0.15962858 -0.014547425 0.07031387
-0.02555281 0.05150409 -0.120393634 -0.0944001 -0.036449343 0.15780176 -0.061073974 -0.04701404
0.12881121 -0.005856824 0.03734155 0.16104427 0.12207724 -0.13161868 0.050571855 0.094017774
0.17967868 0.17418924 -0.17315868 -0.16357337 0.020535724 -0.09811704 -0.1320881 -0.1880518

local1.conv.bias f4 [128]
00000000: bbcf 153c 2544 a23c c9f1 e63a b122 4bbc
00000010: 35bc 8c3c bde4 8a3c 4a9a 9aba cf42 d13c
00000020: 5dba 2d3c 3eb4 813c d625 73bb 5000 683c
00000030: d51e 153c 38de 07bb 1773 2bbc 7445 e7bb
00000040: d601 0e3c d3ef ccbb 7c52 8bbc b477 913b
00000050: 0683 e5bb e72d 93bc 699d 23b8 8e0f b3bb
00000060: a528 ad3c 220d 1739 13df 8bbb 8d7f cabb
00000070: e1d6 13bc 0ab0 fe3a 3970 bf3a e643 913c
00000080: 18a1 a73c 4942 e63b 860d 2d3c cddb b53c
00000090: eb9e 4b3c c354 a73b 92df 153c 401e 59bc
000000a0: c255 923a 116c a83c 890a a53c 8e8b 203b
000000b0: 3d10 2ebc 4e05 34bc d673 853c 89dc 0ebc
000000c0: 2a2f a73b c736 19bc 9475 943c b823 75bc
000000d0: 6591 1d3c 8caa d2bc 7ff2 73bc 723d e73b
000000e0: 6097 b43c 00db a03b f4e2 0e3c ca07 633c
000000f0: 932e a73c 9e1a 2f3c e45a e53b 662f c537
00000100: 6fd3 25bc 3f88 63b9 10d4 1abc 53b9 da3c
00000110: 604c 15ba 2e68 3c3c dbb7 643b f279 01bb
00000120: 17de 3ebc ccb0 9dbb ad72 563c 8e5c 40bc
00000130: cc49 99bc afaf 413b c321 a03c 0019 e13c
00000140: 55b6 49ba a998 c8bb 7951 16bc bcd8 4bbb
00000150: d6d2 91bb 6b94 04bc 03b4 ad3c af41 553c
00000160: 4716 103d 7431 b6ba 5097 53bc 4202 f2bc
00000170: a27a 393c 5e36 423c b383 9b3c ddee a7bb
00000180: 35b4 15bc 183b 85bb 4372 703c e681 cbbb
00000190: 1d9b 7c3b 305c 483c fc60 f43b 5645 2a3c
000001a0: 54df 383c 4bc7 293c f150 0cbb a523 0bbc
000001b0: 8df5 ca3b 38a8 963b 0411 973b ff98 9abb
000001c0: 27c3 ef3b 58d7 163c 27d8 6cbb 4831 7f3a
000001d0: a970 e03b 9d74 d7bb 1b3b 763c eb57 98bc
000001e0: 6a86 813b b8d8 2a3c 7da6 323c d4b6 733b
000001f0: c733 983b a5c1 5b3a 0ccf f33b 93a8 e73b
0.009143765 0.019807884 0.0017619665 -0.012398408 0.017179588 0.016954774 -0.0011795249 0.025544552
0.0106035145 0.015833016 -0.003710141 0.014160231 0.009101589 -0.0020731818 -0.010464451 -0.00705784
0.00866743 -0.006254175 -0.017007105 0.0044393186 -0.0070041446 -0.017966224 -3.9008828e-05 -0.0054645007
0.021137545 0.00014405375 -0.004268536 -0.006179756 -0.009023399 0.0019431126 0.0014605589 0.017732572
0.020462558 0.007026945 0.010562306 0.022199536 0.012428026 0.00510654 0.009147542 -0.013251841
0.0011164474 0.020559343 0.020146625 0.0024497244 -0.010623989 -0.010987593 0.016290586 -0.008719572
0.005102058 -0.009351439 0.018122472 -0.014962129 0.009617184 -0.025716089 -0.014889359 0.0070568854
0.022044837 0.0049089193 0.008721102 0.0138568375 0.02040795 0.010687498 0.0069993604 2.3506302e-05
-0.0101212105 -0.00021699163 -0.009449974 0.026699698 -0.00056952797 0.011499448 0.0034899625 -0.0019756523
-0.01164963 -0.0048123356 0.013088864 -0.011740817 -0.018711947 0.0029554178 0.019547349 0.027477741
-0.0007694711 -0.006121714 -0.009174698 -0.0031104526 -0.0044501824 -0.008092026 0.021204 0.0130161485
0.035177495 -0.0013900236 -0.012914494 -0.029542092 0.011320742 0.011853782 0.018983698 -0.0051249103
-0.009137203 -0.0040658824 0.01467568 -0.0062105535 0.0038544603 0.01222901 0.0074578505 0.010392508
0.011283714 0.010362457 -0.002141055 -0.008492385 0.0061938227 0.00459769 0.0046101827 -0.0047179456
0.007316965 0.009206615 -0.003613958 0.00097348215 0.0068493676 -0.0065751807 0.01502874 -0.01859661
0.003952791 0.010427646 0.010903952 0.0037187831 0.004644844 0.00083830423 0.0074404534 0.007069656

local1.conv.lin.weight f4 [128, 128]
00000000: 71a5 06be d36b c43c 504f 68bd 7321 9d3d
00000010: fb12 f13d 0e06 00bd 4632 32bd 703b 913d
00000020: 35b0 e03d 7af5 adbc fa0c 4bbd 3654 99bd
00000030: a102 69bd 211c ac3d 1e31 2abe 7966 513d
00000040: 7c25 a9bd ff1a b7bd d5f6 a53d ef14 ab3d
00000050: d5c7 80bd 4fde 543c d6da a0bd eb8d f83d
00000060: 51bc e53d 11aa 0d3d 39c9 22bd c0cf 6abd
00000070: 7ebd 06bd a190 e93d c703 f63b 0ece 75bd
00000080: 67a7 e1bd 3075 f1bd 194d b83d 4797 65bc
00000090: 1d05 c8bd e9ac 25be 12f4 0e3e dc45 a9bd
000000a0: a936 d0bc 5fb8 0c3e 1c1f 9cbd 6145 38bc
000000b0: 98d2 8a3d bd35 2a3e 5a1b d5bd 8919 d8bd
000000c0: b484 b83d cc9b 253d 29b1 82bd 3895 a03c
000000d0: f578 dd3d 28f8 9a3d 409e 043b af2d c1bd
000000e0: 55c0 a43c 5679 c63d bca0 d13d 0b15 48bd
000000f0: 87f7 233e f461 fb3d cd39 973b f7d5 963d
00000100: 675d a83d b690 84bd c63e 1c3e d12e f13d
00000110: 44c4 e73c 4276 8a3d f773 aabd c277 353d
00000120: 0d30 923d 7cd5 dd3b ec3f e33b 8a98 8b3d
00000130: 506a afbd 488a 2dbe 072b 75bd 9890 1f3d
00000140: 1baf 993c 6389 b33d a64d ee3d 09a2 8e3c
00000150: 1cf1 a23d 5970 9ebc d3ae 0abd fc68 66ba
00000160: eb9e 6d3d 939f 823d 6389 1f3c 13b7 413d
00000170: 4d64 00bd 3c90 983d 8998 f8bd 7508 863d
00000180: b4d9 a0bd 6cbc 5cbc 80e6 2f3e 5384 1ebe
00000190: 6b98 e23b 475b ccbd 500d a5bd 6895 19bc
000001a0: e67e 28be cfad 29bc a943 7ebc 0949 d6bc
000001b0: 37ac 8f3c 4772 6bbd 2f5b 673c 25bc 9cbb
000001c0: 65ef 27be a53d 03be ea7f 13be 81da 283d
000001d0: 286c bf3c 4ce6 a9bd 91ea 7638 61df db3d
000001e0: e871 2cbe 5fea d73c 726c ed3d c007 edbd
000001f0: af0e 10be 9cc4 9d3d 0900 d1bd d027 d93d
00000200: 1d28 81bd bd86 7cbd 5318 f3bd bc09 7dbd
00000210: 2f25 24bd 8b98 853d 021e d0bb 7024 f33d
00000220: fdcd 633d 7866 e03b c71c e53d 7bc5 9b3c
00000230: a329 27be d0a8 0e3e 76f5 14be cc6e 83bd
00000240: ea54 89bd 6b71 2a3e 81b5 ffbb 2c14 043e
00000250: f907 d1bd 6388 8dbd 4461 ab3c f415 0bbe
00000260: bee0 13be fc99 5a3d 3634 4dbb 7f3d 5cbd
00000270: 1fbb 943d 823e 883d b4b6 77bc dd5c 9a3d
00000280: 7858 02be 28b8 f6bd a403 d73c 4545 b33c
00000290: 7450 febd e325 20be e052 85bc 917f 45bd
000002a0: 37c1 21be 8f91 1bbc 5bae 6e3d 382b e63d
000002b0: a1d8 a7bd 60a1 073e a3d2 e1bc 1ba0 eb3d
000002c0: 613e 703d d5c4 83bd 05ba 093e 14e3 19be
000002d0: 8fc1 89bb 839d d23a f7c8 833d bdb3 0f3e
000002e0: 79c9 013d e5a4 06bc d83c 8ebd 552d 513c
000002f0: 6673 bdbd 6dda 623d f307 a73d 4fd5 47be
00000300: 2552 46bb db54 94bd 923e ed3d 96f1 9bbd
00000310: 389c 8bbd ca41 24bd 9ac9 a2bd 1ae4 ec3d
00000320: 0e28 113e 66db fabd a7e1 0b3d 60ec 26be
00000330: 1d08 db3d 78e9 19be 83ff 9cbd 454b debd
00000340: 286d 93bd cf91 cc3d 9d7c bb3c 0f79 47bd
00000350: d4e6 e63d 72d0 40bb 434e 223e ccf4 a23c
00000360: b114 db3d 86c8 023e 6d7b 2bbe cbf9 dbbc
00000370: 1881 b13b c865 15be 89b2 2d3c 3e55 9a3d
00000380: 01f1 0fbe cfd4 10be 00d9 3c3e 4fcc 993d
00000390: a0db dfbd 50ff b73c 0e44 1c3d 1ce9 33bc
000003a0: 68b9 71bc 5276 7ebd 2fcc ed3d f630 303c
000003b0: 243c 88bd 13da 233e 85ba 10be d29a 913d
000003c0: 4c64 b03d f7d0 263d 526d 55bb 5ce1 dd3d
000003d0: 05d5 21bd e2b7 bcbd 1cfd 13be 9195 f2bd
000003e0: b37b 89bd a07f 9d3d 155a 96bd 653a 07bd
000003f0: 28b2 f03c f1dc eebd 05eb d8bc 54d9 f73c
-0.13149048 0.023977196 -0.056716263 0.076723956 0.11771198 -0.031255774 -0.043504976 0.07091415
0.10971109 -0.021235216 -0.049572922 -0.07486765 -0.056887273 0.08403803 -0.16620299 0.051123116
-0.08259103 -0.08940696 0.0810372 0.08353602 -0.06288115 0.012992456 -0.0785424 0.12136444
0.11217559 0.034586016 -0.039742682 -0.057327032 -0.032895558 0.11404539 0.0075077745 -0.060010962
-0.110182576 -0.1178993 0.0899908 -0.014013118 -0.097666 -0.16179241 0.13960293 -0.08265278
-0.025416689 0.13742207 -0.07623121 -0.01124701 0.06778449 0.16622062 -0.104056075 -0.105517454
0.09009686 0.040431783 -0.06381447 0.019602403 0.10814086 0.07566863 0.0020235926 -0.094325416
0.020111242 0.09691112 0.10235736 -0.048848193 0.16012393 0.122745425 0.0046150447 0.07365029
0.0822094 -0.06472914 0.15258321 0.11776508 0.028291829 0.06760837 -0.083229 0.044303663
0.07138071 0.006769834 0.0069351103 0.06816204 -0.085651994 -0.16947281 -0.059855487 0.038956255
0.018760255 0.08766439 0.11635904 0.017411249 0.07956144 -0.01934068 -0.03385813 -0.00087894476
0.058012884 0.063780926 0.009737345 0.047293734 -0.031345654 0.074493855 -0.12138469 0.06544582
-0.078540236 -0.013472658 0.17177773 -0.15480165 0.0069151423 -0.09978347 -0.0805918 -0.009374
-0.16454658 -0.010356381 -0.015519061 -0.026157873 0.017538173 -0.05748203 0.014120861 -0.0047831708
-0.16399916 -0.12816484 -0.14404264 0.041224007 0.023367003 -0.08295879 5.8869427e-05 0.107359655
-0.16840327 0.026356874 0.1159295 -0.11573744 -0.14068101 0.07703516 -0.10205085 0.10603297
-0.06306479 -0.061651934 -0.11869874 -0.06177686 -0.040074524 0.06523236 -0.0063512335 0.11872184
0.055616368 0.0068481527 0.111871295 0.019015064 -0.16324477 0.13931584 -0.14546761 -0.06417617
-0.06705649 0.16644828 -0.0078036194 0.1289832 -0.10206599 -0.06910779 0.020920403 -0.13582593
-0.14441201 0.053369507 -0.0031311638 -0.053769585 0.07262253 0.066525474 -0.015119243 0.075372435
-0.1272906 -0.12046844 0.026246853 0.021883616 -0.12417689 -0.15639453 -0.01627487 -0.04821736
-0.15796362 -0.009495153 0.058271747 0.11238712 -0.081956156 0.13245153 -0.02756626 0.11505147
0.05865324 -0.06434027 0.13449867 -0.1502803 -0.004203982 0.0016068671 0.064348154 0.14033408
0.03168628 -0.008218025 -0.06945199 0.012767156 -0.09250526 0.05538409 0.08155813 -0.19514965
-0.0030261364 -0.072427474 0.115842 -0.07614438 -0.06816906 -0.040101804 -0.07948609 0.115669444
0.14175436 -0.12248878 0.034150746 -0.16301107 0.10694907 -0.15030468 -0.076659225 -0.108542
-0.07198554 0.09988748 0.022886569 -0.048699435 0.11274496 -0.0029421118 0.15850167 0.019892119
0.10697306 0.12771806 -0.16746302 -0.026852509 0.0054170005 -0.14589608 0.010601648 0.0753579
-0.1405678 -0.1414368 0.18442154 0.07509672 -0.10930562 0.02246061 0.03815084 -0.010980871
-0.014753677 -0.062124558 0.116112106 0.010753861 -0.06652096 0.16001157 -0.14133652 0.07109608
0.0861288 0.04072663 -0.003256638 0.108339995 -0.039509792 -0.0921476 -0.14452022 -0.11844934
-0.06713047 0.07690358 -0.073414005 -0.033014674 0.029381827 -0.11663235 -0.026479254 0.030254997

local1.norm.weight f4 [128]
00000000: 590b 773f 176a 7f3f 5cd4 803f e0ac 853f
00000010: 7b20 7a3f 53a6 803f 3267 803f 4d71 823f
00000020: 0667 813f 5eb7 813f 3e1e 7b3f 04f1 713f
00000030: eb74 7c3f 5e2e 893f 8634 793f a9bd 823f
00000040: 5c0b 843f 71a1 823f 2cfd 8a3f 7ddf 853f
00000050: cdfc 883f 1b43 843f cb36 863f ed13 813f
00000060: 47cb 753f edf5 733f 78af 883f 772f 783f
00000070: b10b 913f 064b 6e3f bc98 783f 280b 783f
00000080: 5f24 973f 6186 8d3f cd9f 743f b3ae 753f
00000090: a21a 853f ef78 713f 818c 753f ee32 883f
000000a0: 408a 843f c61b 773f 3b52 783f 9f59 823f
000000b0: d659 803f 0f69 853f 8b95 853f 5161 863f
000000c0: 5ca0 833f d500 823f ea38 653f ad49 7f3f
000000d0: 7a83 803f 5ed5 873f cc15 873f 1cd9 833f
000000e0: eb11 783f 39c4 723f 76fa 7f3f 77ff 7a3f
000000f0: 128b 763f 8771 803f 15e2 813f bfc1 773f
00000100: 423b 843f 82f9 7f3f e257 803f 50e1 7c3f
00000110: 2f57 7e3f 7a34 6f3f 4f72 7a3f 7c72 6e3f
00000120: 35ff 773f fbc7 7e3f f858 803f 2ae6 7c3f
00000130: 216f 883f 8e6c 813f 1425 7d3f f520 773f
00000140: 1096 783f 7532 833f b085 7f3f 16da 753f
00000150: 95b0 7a3f c823 843f 355f 7b3f 9e0b 813f
00000160: f038 773f 65aa 763f 2e1b 743f 49c1 873f
00000170: ea33 7f3f 3b47 743f 744e 7a3f ee83 853f
00000180: 9d1c 883f 2088 813f c09c 823f 5d9d 913f
00000190: 5583 803f 8aa9 763f 52fa 733f 24c4 7a3f
000001a0: b861 843f fc38 773f fe5a 763f c4e9 803f
000001b0: 2d59 753f 5133 853f 8462 833f 735e 7f3f
000001c0: 0f54 7d3f 8f34 813f 372e 843f 8197 793f
000001d0: 83ae 6a3f 7e70 823f 687c 6f3f 4993 843f
000001e0: fde5 823f d3cb 883f 34d1 7b3f 5fd9 813f
000001f0: 9414 773f d5ed 843f d8eb 763f 7a2f 793f
0.9650169 0.99771255 1.0064807 1.0443382 0.9770581 1.0050758 1.0031493 1.0190827
1.0109565 1.0134084 0.9809302 0.94508386 0.986159 1.0717275 0.9734577 1.021413
1.0315967 1.0205518 1.0858512 1.0458828 1.0702149 1.0332979 1.0485471 1.0084206
0.960133 0.9529713 1.0678549 0.96947426 1.1331693 0.93083227 0.97108054 0.96892023
1.1807975 1.1056634 0.95556337 0.95969695 1.0398753 0.94325155 0.95917517 1.0640543
1.035469 0.96526754 0.97000474 1.01836 1.0027416 1.0422686 1.0436262 1.0498449
1.0283313 1.0156504 0.8953997 0.99721795 1.0040123 1.061199 1.0553527 1.0300632
0.9690234 0.9483066 0.9999155 0.9804606 0.96305954 1.0034646 1.014712 0.9678001
1.0330584 0.99990094 1.002682 0.987813 0.9935178 0.9343945 0.9783067 0.9314344
0.9687379 0.99523896 1.0027151 0.987887 1.0658914 1.0111253 0.988847 0.96534663
0.9710398 1.0249773 0.99813366 0.960359 0.9792569 1.032342 0.9819215 1.008167
0.96571255 0.9635375 0.9535397 1.0605861 0.9968859 0.9542119 0.9777596 1.0430887
1.0633732 1.0119667 1.0204086 1.1376148 1.0040079 0.96352446 0.95303833 0.97955537
1.0342321 0.96571326 0.96232593 1.007134 0.95839196 1.0406286 1.026444 0.99753493
0.9895639 1.0094165 1.0326604 0.974968 0.91672534 1.019058 0.93549204 1.0357448
1.0226437 1.0687202 0.98366094 1.0144461 0.96515775 1.038508 0.9645362 0.9733807

local1.norm.bias f4 [128]
00000000: 1a17 76bd 1325 66bd 6c07 3ebd ef97 09bd
00000010: 28a7 9fbd c9eb 53bd deda 8dbd 269d 4cbd
00000020: 9147 0dbd cbf5 56bd c40e 78bd 5316 43bd
00000030: f216 a1bd 4d82 3abd bc1f 90bd b46c 00bd
00000040: b63e 33bd e4da 0abd 0056 6fbd 112d 93bc
00000050: b4e8 71bd b13a 81bd 87b0 24bd 8bdd e3bc
00000060: e189 65bd 67ae 6fbd 4838 76bd 724c 35bd
00000070: fff3 e5bc 7f4e 2abd fa01 7abd 3c8b 27bd
00000080: 287d 0ebd f015 e5bc 53ca b0bd e25a 83bd
00000090: c583 96bd d18c 97bd 6229 7dbd 7c84 02bd
000000a0: 046c 13bd 1360 7cbd 699e 39bd 2d49 44bd
000000b0: afa4 a4bd 6597 2bbd 343f a5bd 5368 acbd
000000c0: b9ff 03bd 708c 9ebc 8257 0bbe 2bfc 8cbd
000000d0: 2afc 3dbd 6a5c 50bd e8b9 d5bc 123e 08bd
000000e0: c3e7 41bd 9f72 50bd 5d95 44bd b73b 92bc
000000f0: 8993 dabc c6b5 52bd 5f5a 49bd f786 c1bd
00000100: f19b 2dbd 1780 8cbd 4611 33bd b182 43bd
00000110: 0760 67bd 791d 5dbd b20b 0cbd 0a90 57bd
00000120: 783d 47bd eeb1 53bd df87 07bd 1035 b6bd
00000130: 660a 3ebd de65 5dbd 1bf2 55bd 8022 6cbd
00000140: 95e7 d3bc 1ebf 8abd c26d 89bd d821 89bd
00000150: 5484 9ebd d44d 17bd 986d 06bd 52b5 60bd
00000160: df8c 8cbd f7be 30bd 10cb 29bd 459a 59bd
00000170: fc44 f4bc f883 e9bd 0244 f7bc 93db 17bd
00000180: 2471 8cbd c69d 22bd 5e84 d3bc 02bd 09bd
00000190: 1abe 1abd ad01 6abd 19a9 7bbd fd4a 44bd
000001a0: d6c0 45bd 5ea8 85bd 2eae 44bd 3032 24bd
000001b0: df3d 67bd b033 40bd d344 5ebd e825 0bbd
000001c0: 779a 09bd ba7a 9cbd 8926 10bd 884e 14bd
000001d0: 999d abbd d0f0 82bc b314 7cbd 386c 0abd
000001e0: 3778 1fbd 067b 97bc 0625 52bd c619 25bd
000001f0: 4ac3 8bbd 87f5 52bd d163 8dbd 06cf 7abd
-0.060080625 -0.0561877 -0.046393797 -0.03359216 -0.077955544 -0.051738534 -0.06926511 -0.049954556
-0.03449208 -0.0524805 -0.060560957 -0.047628712 -0.078657046 -0.04553442 -0.07037303 -0.031353667
-0.043760978 -0.033900157 -0.058431625 -0.017965825 -0.059059814 -0.063100226 -0.040207412 -0.0278156
-0.056039695 -0.058515932 -0.060112268 -0.044262357 -0.028070448 -0.041578766 -0.06103704 -0.04090427
-0.034787327 -0.027964562 -0.0863234 -0.06413819 -0.07349352 -0.073999055 -0.061807044 -0.03186463
-0.035991684 -0.06161506 -0.045317087 -0.04792135 -0.080392234 -0.041892428 -0.08068696 -0.08418336
-0.032226298 -0.019354075 -0.136076 -0.06884035 -0.04638306 -0.050869383 -0.026089624 -0.03326232
-0.047340166 -0.05089056 -0.047994006 -0.01785074 -0.026681678 -0.051442884 -0.04915845 -0.094495706
-0.042385045 -0.06860369 -0.043717645 -0.04773206 -0.056488063 -0.053983185 -0.03419084 -0.0526276
-0.048642606 -0.05168336 -0.03308856 -0.088968396 -0.046396635 -0.054052226 -0.052232843 -0.05765009
-0.025867263 -0.06774734 -0.06710388 -0.06695908 -0.07740083 -0.036939457 -0.03281936 -0.05486042
-0.068628065 -0.04315087 -0.04145342 -0.05312564 -0.02981805 -0.11402124 -0.030183796 -0.037074637
-0.06857517 -0.039701246 -0.025819954 -0.033627518 -0.03777895 -0.057130504 -0.06144056 -0.047923077
-0.048279606 -0.06526254 -0.048017673 -0.040086925 -0.05645549 -0.046924293 -0.054264855 -0.033971697
-0.033594575 -0.07640596 -0.035193 -0.036207706 -0.08379669 -0.015983969 -0.061543178 -0.03379461
-0.038933005 -0.01849128 -0.05130484 -0.040307783 -0.06824358 -0.051503684 -0.06903804 -0.06123259

local2.conv.bias f4 [128]
00000000: dca4 2cbd d439 6cbd 3b45 2539 0715 803a
00000010: 53ff 773a d27e 143b e00f 533a e2c0 933a
00000020: 4b38 643a 5cf2 9a39 f505 0c3b 9dba c839
00000030: bb04 193a 8397 a9bb 17cf 893a e508 603a
00000040: ed2b 1abc 360c 343a 4d5d d3b7 eeda 4db7
00000050: e4eb 7c3a ea88 1238 57e6 4e3a ae12 2439
00000060: 75b3 aa3a 17b9 d639 8bb5 6dba a9ca bc39
00000070: 6596 e73a 30f0 be3b 0339 6eba 9966 37ba
00000080: 50ba 213a 3f41 e4b9 50d8 3fbc a24b 2a3a
00000090: 4ebb 053a 7a34 61ba d09b 463a 0a23 8e39
000000a0: 5fb2 d73c 4130 ae3a ced5 9e3a 3c86 02bb
000000b0: a1d5 f83c 0e15 953a 1da3 2839 3d01 a23a
000000c0: 24e1 ef3b fb32 23bc 51b7 73ba 1d26 bc3b
000000d0: 7917 f439 3bed 2fbd f2ce 5d3b e05c 483a
000000e0: c689 873c c586 283a 68b1 833b 0062 353a
000000f0: 8c55 21bb e72d 8cbb 6e07 17b9 9320 3cbb
00000100: 8e1d 9a39 dcaa fd39 3c32 843b c276 20bb
00000110: c1da c2ba 7df5 7fb9 a6a3 0ebb dc89 6c3a
00000120: 5370 d6ba 1c7b 443a 7a54 91ba 77d5 a8ba
00000130: cca0 743a 1f0e e2bc 0247 353d e974 7d3a
00000140: c316 1539 dc4b 1b3d 8140 5cbb 4e15 c0b9
00000150: b100 d53c 648d a5ba 6d1d 8a3a b921 6eba
00000160: b4d9 af3a 13b4 4f38 7b3c 1cba 4e6a 753c
00000170: ce77 383c ca36 a83b c2f0 90ba 024c 953a
00000180: bdec 3839 6062 0539 cbcb f4bb a878 f838
00000190: a399 4f3a 78f1 da3a 9768 9738 0335 83bb
000001a0: eece b53a 96f7 053a 400c e1bb 6a25 7c3a
000001b0: eec4 bc39 2062 5cba f4bb b63a bed7 9e3a
000001c0: 752d 0bbb 67c4 e03c 2e6d 883a c14f 433a
000001d0: df6c cdb8 14ec 95ba f579 f13a b398 bb39
000001e0: 59c3 e73a 6ecf b2b8 2ff6 61b9 854e 3f3a
000001f0: bb45 ce3a a287 19ba 3cd5 5abc f333 723b
-0.04214941 -0.057672337 0.00015761417 0.0009771892 0.00094603485 0.0022658599 0.0008051377 0.0011272694
0.0008705898 0.0002955374 0.0021365855 0.0003828601 0.0005837192 -0.0051755323 0.0010513988 0.0008546247
-0.009409887 0.00068682746 -2.5196607e-05 -1.2269926e-05 0.00096481876 3.4936624e-05 0.00078925997 0.00015647218
0.0013023453 0.00040955163 -0.00090678845 0.00036009148 0.0017668722 0.0058269724 -0.0009087475 -0.0006996184
0.00061694253 -0.0004353616 -0.011709288 0.00064962555 0.0005101458 -0.00085908885 0.00075763185 0.00027110457
0.026330171 0.0013289527 0.0012118162 -0.0019916436 0.030375304 0.0011374073 0.00016082493 0.0012359988
0.00732054 -0.009960885 -0.00092970306 0.005741848 0.00046556795 -0.04295085 0.0033845273 0.0007643234
0.016545188 0.00064287736 0.004018951 0.0006919205 -0.002461764 -0.004277933 -0.0001440325 -0.002870594
0.0002939519 0.0004838322 0.0040343087 -0.0024484848 -0.0014866219 -0.00024410147 -0.0021765023 0.0009023228
-0.001636038 0.00074951514 -0.0011087798 -0.0012881 0.0009331822 -0.027594624 0.04425717 0.0009668605
0.00014218227 0.037914142 -0.0033607783 -0.00036636967 0.026001306 -0.0012630639 0.0010537334 -0.00090840046
0.0013416321 4.9520353e-05 -0.000595994 0.014978958 0.011259032 0.0051334845 -0.001105808 0.001139045
0.000176358 0.00012720516 -0.007470583 0.000118480355 0.0007919317 0.0016704043 7.2197225e-05 -0.004004122
0.0013870874 0.00051104405 -0.0068679154 0.0009618612 0.00036004878 -0.0008406956 0.0013941512 0.001211874
-0.0021236811 0.027437402 0.0010408515 0.0007450544 -9.7954406e-05 -0.0011438155 0.0018423187 0.0003578119
0.001768212 -8.526338e-05 -0.00021549383 0.0007297772 0.0015737334 -0.00058566977 -0.013356503 0.0036957234

local2.conv.lin.weight f4 [128, 128]
00000000: 465a e4bd 7f11 bfbd 4bf4 193e ccfa 4f3d
00000010: 7056 5ebd 3b8a b53c 455f 01be d93b 1b3e
00000020: 8c48 29bd 23e0 adbd 58ce 593d f106 efbd
00000030: 1a16 933d bdd7 bcba 644f e5bd 56fe 92bc
00000040: 3edc ffbc 7223 003d 0534 fd3c 1b42 15bc
00000050: 6dff 3a3d 154e bc3d e37e f93b b121 0b3e
00000060: 3d73 81bb cbb0 db3d 824c 0d3d f15f 6cbb
00000070: 7a9b 163c d210 433c 6cca b1ba 7441 49bc
00000080: 1209 913d 95b2 ec3d 4269 053e 385a 0c3e
00000090: 2156 0fbd 0e19 e43d 21bc d23d ee05 5e3c
000000a0: 5b85 e5bd e303 4dbd e3b2 c13c c109 8d3d
000000b0: 30e3 273e 1372 a53d fecf 7d3d edd3 ac3d
000000c0: 2365 72bd ba5d 1b3b f554 8cbd 5e00 a5bd
000000d0: 839f 44bc a9bf 97bd 894d 973d 9f24 11bc
000000e0: 5f94 92bd 9d1c 9f3c 81ff 793d b7bd de3d
000000f0: ddc8 273d 1dba cf3d c1db 4abe 8e31 0c3e
00000100: 3078 163e 2404 7a3c 1cc9 043e 06ba 753d
00000110: 0445 313d 9d14 7e3d 3b35 fa3d c7fb 86bd
00000120: e2bd f8bd 5038 babd 4d76 b9bd 6fe3 a2bd
00000130: de88 e2bd c02c 803d 3c06 e0bd 7562 49be
00000140: 78f3 db3d c1c1 fa3d aba6 913d 8453 e0bd
00000150: f38c afbc 1227 c8bd 1cc4 023d 8090 d83d
00000160: aba3 1fbd 9b47 fbbc b08f b6bd 12fc 1cbd
00000170: c039 3f3e fc93 4dbd 65ea 85bd 3f1e c83c
00000180: 61c7 273d 7414 7a3c d911 9bbc d6c6 653d
00000190: 4a50 073e f46c 27bd 4b96 0f3d 9015 84bd
000001a0: b93e b03d 7f89 97bd 44e5 d1bd d703 50bd
000001b0: 818e a33d 5aa1 b3bd 0f08 a83d 6d85 9dbc
000001c0: 36c5 0c3e 40a9 a33d fe03 a3bd 5226 06be
000001d0: ddea f8bd 747f 78bd b70f bebd 2c92 b13d
000001e0: 87c8 09be b8bc a03c 73a4 213c 6923 c13d
000001f0: 5c5e 16bd 1ace dabd e21d 60bd b54f 923d
00000200: c7c2 0ebe 7176 f23d 40d2 033e 1ab7 fcbc
00000210: 28bb 103c 6fe8 29be 542c 5b3d ebd6 033e
00000220: a2ff a13d 6e26 0a3e 18ec 04be 3a2c af3d
00000230: 0ba0 7ebd 5cdd b6bd f61e 03be 9eae e6bd
00000240: 150f d23d 6337 09bd 5537 c13d 82e0 25be
00000250: 4a8f b1bd 203f 2abe 375e a53d 0ef0 32be
00000260: 90cd fd3d a8c6 aabd 3103 34be 7e0f c03d
00000270: 6fac 5d3e 0280 bf3c 6823 3fbd 10ea 8fbd
00000280: 6e40 4a3c 7cdc 4d3e aa9d 3abc b5b4 b63d
00000290: 4417 1bbe 8fd8 9cbd 339a d53c e884 1bbe
000002a0: df30 5cbd 0ab4 61bc b658 dc3d dc75 443e
000002b0: a89c e13d c505 873d a339 ea3d 2a91 c4bd
000002c0: 83a4 2ebc 46a6 903c 5dc8 e73c e530 873d
000002d0: b730 31be cee3 3e3d feef 0bbe 5d3c 683d
000002e0: 8496 37be da75 c0bd c0ce a0bd 6b25 5bbe
000002f0: c6df b93d 68f8 e93d 345b 883d 3965 f9bd
00000300: 34f7 25bd edb8 0d3d c1b4 c6bd 3e65 2dbd
00000310: b1f7 b83c 946c da3d 59e4 11be ade5 2fbe
00000320: 5cdb e0bd 587a 25be c82b debd 9dcf d6bd
00000330: 0903 a73d 4076 0fbe ac1f 13bd 007d ed3d
00000340: a75d 0bbe fac3 f8bd 91ff 543d 9097 40be
00000350: 45bc c83d d964 7c3d 1953 01bc 8475 55be
00000360: 4c88 28be 8136 04bd ded7 563d 0a03 3abd
00000370: ff84 c13d 5891 3e3c c40d 013e 7107 103d
00000380: fe18 b1bc 34ea 483d c180 4e3e a62f 5b3e
00000390: bb6f 17be 93e0 b53d 715f 0ebe 55c0 38be
000003a0: a4ed 593e 0007 a2bd 204b 5cbc 4ec1 303e
000003b0: 8d24 113e 79e7 08be 9bd9 703e 9dce 1cbe
000003c0: 9ad7 32bd 61eb 003e 58c4 5b3d 5e9c a23d
000003d0: deb9 9ebd 7a76 10be ae2c e13d ec97 39be
000003e0: 20ff 5ebd 3ebb b63c 7ad8 31bd 99c9 97bd
000003f0: 256e 993c 6a52 ca3d ab1e 813d ff4e b33d
-0.11150031 -0.09329509 0.15034597 0.050776288 -0.054281652 0.02216064 -0.12633999 0.15159549
-0.04132895 -0.08490016 0.0531753 -0.11671246 0.0718195 -0.0014407557 -0.11196783 -0.017943542
-0.03123295 0.031283803 0.030908594 -0.009109999 0.04565375 0.091945805 0.007614003 0.13587071
-0.003950505 0.1072708 0.03449679 -0.0036067928 0.009192342 0.011905866 -0.0013564355 -0.012283672
0.07081808 0.11557499 0.13028434 0.1370629 -0.03499425 0.11137591 0.10289789 0.013551218
-0.11207076 -0.050052535 0.02364487 0.06886626 0.16395259 0.080783986 0.061965935 0.08438859
-0.059178483 0.0023706988 -0.06852142 -0.08056711 -0.012000921 -0.07409603 0.073878355 -0.008858829
-0.07157206 0.019422824 0.061034683 0.10876029 0.040963043 0.1014292 -0.19810392 0.13690779
0.14694285 0.015259776 0.12967342 0.05999186 0.04327871 0.062031377 0.12217184 -0.065909915
-0.12145592 -0.09092772 -0.09055767 -0.07953536 -0.110612616 0.062585354 -0.10938689 -0.19666465
0.10739797 0.12243987 0.071118675 -0.10953429 -0.021429515 -0.09773077 0.031925306 0.10574436
-0.038974445 -0.030673793 -0.08914125 -0.03832633 0.18674374 -0.050189957 -0.06538848 0.024428485
0.040961627 0.0152636655 -0.018929409 0.056097828 0.13214222 -0.04087539 0.03505544 -0.06449425
0.086057134 -0.07399272 -0.10248807 -0.050784912 0.07986165 -0.0877101 0.08204662 -0.019228661
0.13747105 0.07991266 -0.07959746 -0.13100556 -0.121541716 -0.060668424 -0.09280341 0.08670458
-0.13455401 0.019621238 0.009865868 0.09430582 -0.03671108 -0.10683842 -0.054716 0.07144109
-0.13941489 0.11838997 0.12873173 -0.030849028 0.008833684 -0.16592573 0.05350907 0.12874953
0.07910086 0.13491222 -0.12980688 0.085533574 -0.062164348 -0.0892894 -0.1280478 -0.11263774
0.10256783 -0.033500087 0.09434382 -0.16198924 -0.08669908 -0.16625643 0.08074611 -0.17474386
0.123927236 -0.08338672 -0.17579342 0.09377955 0.2164781 0.023376469 -0.046664625 -0.07027066
0.012344463 0.2010364 -0.011390129 0.08921186 -0.15145594 -0.07658493 0.026074504 -0.15187418
-0.053757545 -0.013775835 0.10759108 0.19185585 0.11016208 0.06592897 0.114367746 -0.09598
-0.01065934 0.01765741 0.028293783 0.06601123 -0.1730374 0.04660397 -0.13665769 0.056698192
-0.17928511 -0.093974784 -0.078519344 -0.21400993 0.090758845 0.11424333 0.066580206 -0.1217751
-0.040518954 0.034600187 -0.09702445 -0.04233288 0.022579046 0.10665241 -0.14247264 -0.17177458
-0.109793395 -0.16159952 -0.10848194 -0.10488818 0.08154876 -0.14009953 -0.035918877 0.115961075
-0.13609944 -0.121467546 0.05200154 -0.18807817 0.098015346 0.061619613 -0.007893347 -0.2084561
-0.16458243 -0.03227854 0.05245196 -0.045413055 0.09449195 0.011631332 0.12602907 0.035163347
-0.021618363 0.04905148 0.20166303 0.21404895 -0.14788716 0.08880725 -0.13903596 -0.18042119
0.21282059 -0.079114914 -0.013445646 0.1726124 0.141741 -0.1336955 0.2352051 -0.15313192
-0.043662645 0.1258979 0.053654045 0.07939981 -0.07750295 -0.14107695 0.1099485 -0.1812436
-0.054442525 0.02230608 -0.04341934 -0.074114986 0.018729279 0.098790005 0.063046776 0.08755302

local2.norm.weight f4 [128]
00000000: 4043 6a3f e466 8b3f 919b 733f 8b98 6b3f
00000010: bcf2 763f 499f 6b3f c013 773f 7a98 6a3f
00000020: a884 743f 02ee 823f 4e05 4d3f 9086 6b3f
00000030: 9412 7c3f bfdf 853f 618d 663f 34e8 753f
00000040: 3a4c 813f 0d38 793f 84b9 673f 442a 753f
00000050: 5440 643f 6c80 853f 0afb 683f f039 703f
00000060: 654e 6a3f cf67 7d3f b6a8 743f 7747 7d3f
00000070: 9c3c 673f c088 743f a735 703f b396 883f
00000080: 734c 7c3f 0dd2 813f 02ad 833f b91e 743f
00000090: 89ed 7d3f 2f38 7d3f 7b40 7e3f 25e6 753f
000000a0: f818 7a3f 8ff3 6d3f b4ab 7b3f 3ae7 793f
000000b0: 414f 6a3f b343 723f fe59 813f 52cb 6e3f
000000c0: 004c 733f 7ffe 813f 3ade 743f 89e7 763f
000000d0: 33b1 6e3f abe0 743f 06a7 7b3f 8515 713f
000000e0: 4462 6d3f 6913 6c3f ed21 803f b96a 753f
000000f0: cfab 813f 65cf 7a3f c9ea 743f 6009 863f
00000100: 6f68 783f 7d86 693f 6675 7d3f 164f 6e3f
00000110: 1659 843f 3398 813f 38fd 7f3f ff87 693f
00000120: 4551 863f 4915 843f 53cc 6f3f e56c 843f
00000130: ca08 723f 0163 813f ff37 813f 1438 783f
00000140: 1503 7d3f 5b6b 673f 0ae6 6e3f ceb1 713f
00000150: 4aff 633f b469 743f 5ef8 773f 5f0e 6a3f
00000160: 3d02 713f 7411 643f 9ed0 6f3f 0500 773f
00000170: 578a 7c3f b219 753f 2cb6 793f 85ab 683f
00000180: 6805 743f a7c7 7d3f 8e21 6c3f f9e0 763f
00000190: e746 693f 7ed4 5f3f ce82 783f e1a9 813f
000001a0: 3828 793f 1019 803f 5200 883f 9c3f 663f
000001b0: 1e7b 7d3f 929d 793f eb14 693f 0c5f 683f
000001c0: 5be1 863f acb9 6b3f e364 7b3f ae5f 7a3f
000001d0: a723 723f e1ac 763f 2464 713f 8dea 793f
000001e0: 0122 693f 0855 723f ce95 803f 10d3 6e3f
000001f0: 8941 693f 4d2e 7a3f c0ab 7e3f 7693 753f
0.91508865 1.0890775 0.9515925 0.9202964 0.96464133 0.92039925 0.9651451 0.9163891
0.9551492 1.0228884 0.8008622 0.920022 0.9846585 1.0458907 0.9005948 0.9605744
1.0101388 0.9735115 0.9051745 0.9576762 0.89160657 1.0429816 0.91008055 0.93838406
0.9152587 0.98986524 0.9556993 0.9893717 0.9032686 0.95521164 0.93831867 1.067099
0.9855415 1.0142227 1.0287173 0.9535938 0.99190575 0.98913854 0.9931714 0.960543
0.9769435 0.92949766 0.98308873 0.9761845 0.9152718 0.9463455 1.0105588 0.9327899
0.9503784 1.0155791 0.9565159 0.96447045 0.93239135 0.95655316 0.9830173 0.9417346
0.92728066 0.9221712 1.0010353 0.9586597 1.0130557 0.9797271 0.95670754 1.0471611
0.97034353 0.9122084 0.9900726 0.93089426 1.0339687 1.0124573 0.99995756 0.9122314
1.0493551 1.0318996 0.9367115 1.0345732 0.9454466 1.0108339 1.0095214 0.9696057
0.9883283 0.90398186 0.9331976 0.94411933 0.89061415 0.9547379 0.96863353 0.9142818
0.9414404 0.8908913 0.936777 0.96484405 0.9864859 0.9574233 0.975436 0.9088672
0.9532075 0.9913277 0.922387 0.9643703 0.91123813 0.8743361 0.9707459 1.0129968
0.97326994 1.0007648 1.0625098 0.8994081 0.99015987 0.9750606 0.91047543 0.9077003
1.0537523 0.9208019 0.98200816 0.97802246 0.9458565 0.9635754 0.9429343 0.9762352
0.9106751 0.94661 1.0045717 0.93290806 0.91115624 0.977269 0.9948082 0.9592813

local2.norm.bias f4 [128]
00000000: aeff f0bd 7699 22bd 7d06 8bbd 76a4 05be
00000010: 29e3 91bd 3da0 bcbd a61d a3bd 2ea0 01be
00000020: 511b b1bd eb2a 22bd 60c9 3dbe 2435 d3bd
00000030: bf13 68bd 6e3d 05bd 0578 11be 2f7e 80bd
00000040: fb8f f4bc ca71 56bd 0277 b2bd 2b91 89bd
00000050: 8884 dabd d350 9dbd ccbb fabd 4f76 babc
00000060: 849e 9ebd 87d9 b1bd fe0f c7bd 8190 1bbd
00000070: f3a0 f8bd e4a2 8dbd 4638 a6bd 6ce7 4fbd
00000080: c70c b3bd 9b5c 77bd 4a4e 50bd a6bd 46bd
00000090: 2a1f 86bd f096 95bd eb01 8abd ae02 5bbd
000000a0: ae56 abbd e7ec e3bd 0c7f ddbd 819d c2bd
000000b0: a2a5 00be adce f2bd a5ef 05bd f303 91bd
000000c0: 88d8 cabd 88fa 38bd 343a bbbd 1b92 e1bd
000000d0: 30a6 d2bd 5065 b3bd 494d 7bbd 7183 b4bd
000000e0: 92ad c0bd d833 d3bd b0b6 99bd 85de 8dbd
000000f0: e445 18bd 2997 36bd cede 89bd 933e 49bd
00000100: 216c 91bd e2f9 e7bd 711b 33bd 54ae a8bd
00000110: cdb6 26bd a888 b7bd a0df 8cbd f615 bebd
00000120: 479f e1bc 5225 bebd 1b70 b8bd 55b2 71bc
00000130: b6e7 87bd 0b47 29bd a369 c8bd 2377 91bd
00000140: 09e2 97bd 854a ecbd 072e d7bd 0ae1 a1bd
00000150: fd9d e6bd 10dc 83bd d011 87bd 83db a7bd
00000160: 85b5 e0bd c3aa 09be 4d51 c4bd 647c 52bd
00000170: b3c3 20bd 9a62 bcbd 1a91 97bd 2f14 debd
00000180: 3d0e 5abd 05e6 60bd a05c 67bd 7718 65bd
00000190: 11bd 05be 93e1 0dbe 376d 0fbd 9ee7 74bd
000001a0: 7735 aebd b68a 48bd 7aa6 78bd 1e95 8dbd
000001b0: fdf5 70bd d6bc 81bd edbe cebd e434 edbd
000001c0: a683 eebc 0c72 d3bd bf62 7dbd f6a6 a5bd
000001d0: cdc8 a0bd 28bb d5bc fbeb 97bd e640 8abd
000001e0: 40d3 06be 0912 45bd 394a 5fbd 95ae 98bd
000001f0: 18b4 00be 2c27 12bd 32c4 52bd faff 96bd
-0.11767517 -0.039697133 -0.06788347 -0.13051018 -0.071234055 -0.092102505 -0.07964639 -0.1265876
-0.08647788 -0.03959171 -0.1853385 -0.1031287 -0.056659456 -0.032529287 -0.1420594 -0.062740676
-0.029853811 -0.05235461 -0.08714105 -0.06717142 -0.106698096 -0.076814316 -0.12242851 -0.022761492
-0.07745078 -0.08684068 -0.09719847 -0.037979607 -0.121400736 -0.069158345 -0.08116202 -0.05075781
-0.087426715 -0.06039105 -0.050855912 -0.048520707 -0.06548913 -0.0730418 -0.06738647 -0.053469352
-0.08366142 -0.1112917 -0.10815248 -0.09502698 -0.12563184 -0.118558265 -0.032699246 -0.070808314
-0.09904581 -0.0451608 -0.09141961 -0.110141955 -0.10285604 -0.08759558 -0.061353 -0.08814133
-0.09408106 -0.10312623 -0.07505548 -0.06927208 -0.037176028 -0.04457775 -0.0673195 -0.04913194
-0.07100702 -0.11326958 -0.043727342 -0.082363755 -0.040701676 -0.08961612 -0.068785906 -0.092815325
-0.02754177 -0.09284462 -0.090057574 -0.01475199 -0.06635992 -0.041327517 -0.097857736 -0.07102802
-0.0741616 -0.11537651 -0.10506826 -0.07904251 -0.112606026 -0.06438458 -0.06595194 -0.081961654
-0.10972122 -0.13444047 -0.095858194 -0.05138816 -0.039249133 -0.09198494 -0.07400723 -0.108436935
-0.053236235 -0.054906864 -0.05648482 -0.055931535 -0.13060404 -0.13855581 -0.035016265 -0.0597912
-0.08506291 -0.04896041 -0.06070564 -0.069132075 -0.058828343 -0.06334846 -0.1009501 -0.11582354
-0.02911551 -0.10324487 -0.06186175 -0.08088486 -0.078508 -0.02609022 -0.074180566 -0.0675066
-0.13166523 -0.048112903 -0.054514144 -0.07455174 -0.125687 -0.03568189 -0.051456638 -0.073730424

meso.Wq.weight f4 [128, 128]
00000000: a59f 7b3c cd77 c6bd 0ecb 9f3d 16ae d63c
00000010: dd8e 123d 22c5 13bd 9da4 aabc 5e52 113d
00000020: e5cc d3bc 702a 763d 671a 5e3d 28a2 83bc
00000030: 17a6 a73c 0132 6fbd 3965 f3bd 9efc b3bd
00000040: 3c25 893d 6494 4b3d b31d 01bd 6eca 89bd
00000050: 1594 a5bd 583c 9fbb a95b 20bd 7b3a 1ebc
00000060: c2df 4dba 3cf7 203d 4ec1 28b9 2f35 833d
00000070: 6a97 6f3d 69f8 79bc 6781 98bd 5005 38bd
00000080: bdaa d7bd 607f e83c 041b 4bbd 9e37 e0bc
00000090: 0611 98bd 9afa 15be 74fc c63d 243e 3fbc
000000a0: 13bd d8bc f9e6 3e3d 077e 9dbc 0ae5 b03d
000000b0: 2fb6 af3d f89a c4bc 21d4 6f3d b678 01bd
000000c0: f287 9abc 8793 6b3c 4295 ce3d bc2c a9bd
000000d0: e851 ee3b 3b41 00bd df56 3e3d e4c7 573d
000000e0: 92d7 febd 0dae e43c b49f c0bc e3e8 103d
000000f0: 1383 82bd 7a62 53bd ebf9 bd3d 18f9 04bd
00000100: 8f3b 8fbd 2dd8 e63c b4bc 243b 4b86 abbd
00000110: 678c c43d 1e56 b4bd d9a8 8c3d 5280 c6bc
00000120: 9583 dabd a7b7 c9bd ceca 8d3d 13f9 733d
00000130: eca0 95bc 9ee2 78bb 3028 c33c 16f5 863d
00000140: fb05 d4bd 9956 a5bc 8e05 e33d 0112 b23d
00000150: 5cf8 29bd 7248 243d 1fca d1bd e39e 0b3c
00000160: e3d3 71bc 88d9 2c3d ca5e 1d3e aff5 8cbd
00000170: 9d74 69bb a6d1 41bc 3d92 c73c 182b f83d
00000180: ece2 88bd 98c9 c13c 0c56 9a3c bba8 5f3d
00000190: b21a a63c d0d4 d43c c605 bc3d d40b b9bb
000001a0: 1442 5fbd 1e74 52bd d87c 203e 4df8 a5bc
000001b0: e7e6 1ebd 0af8 c3bd f2a0 5d3d 3133 00bd
000001c0: d415 74bc c308 e13d a7a5 9cbd f457 dfbc
000001d0: 5549 3b3c a82f a03d 1928 4939 75cf afbd
000001e0: a8a5 e23c c30a fc3c e152 28bd 73ee 993d
000001f0: 6646 97bd 18de 093d 1c66 e03d 5cc2 523d
00000200: c346 a23d 7ed4 6abd efe0 023c b75d e23d
00000210: 2499 bc3d ca99 2bbd fa58 1d3d 7a04 b93c
00000220: 4cce 7ebd 2c9c 48bd 20ac 853d b30c 933d
00000230: 9a33 733c e7ed db3b 82d9 cf3d 372c 263b
00000240: 59f7 17bc 3a19 34bd c99e 3ebd 2190 363c
00000250: 0350 b53c cabb 083e 039c 893d b2ff a03d
00000260: 9d1f 953d a6ba dcbc fd7a aabd 3732 b4bb
00000270: 7211 bebc 2ca0 1fbc cae3 e63c dd24 aa3a
00000280: a0ff bb3d cf13 fb3d 7ada 9f3d 470b 01bc
00000290: d642 383c 6006 6dbb 2f0c 93bd b8bb f43d
000002a0: 48e3 47bc b2d0 273d 2849 90bd 2990 b9bc
000002b0: db1f 7f3a b124 a83c f646 d43c e0d1 643c
000002c0: 2c3e ec3d baa5 1d3d 496b d3bc 9e0f 34bc
000002d0: 5173 c8bd bb46 b4bd 55be 323d c2c1 733d
000002e0: f0ad e63d 13c9 863c 4062 0bbd fcc7 7abd
000002f0: 1894 cfbd ed74 983d 237e 47bd 8ffe f33d
00000300: 182a 26bd 2123 27bd 0692 1f3d 5914 eb3c
00000310: 144f 1e3d 8584 ab3d 4820 1cbd 8fe8 93bd
00000320: 4bcd 35bd 90fe 6abc 7ee7 a6bd afed 1d3d
00000330: 6367 093d 42a7 a6bd b9d6 f63c f4e4 bcbc
00000340: 0ac1 46bb e849 cc3d d15f 18bc 9eab 68bd
00000350: 39ca 993d d34b 213c b548 963d bdd1 2abc
00000360: c035 343b 155a 22be 6246 8fbd 8018 933d
00000370: 00ae 793d 2db1 02bd 7915 79bd b788 fabc
00000380: 0a49 82bd 16d4 8a3d 3f35 273d 3d38 a03c
00000390: 9690 66bb ab13 7a3c 8cdd 603b b367 103e
000003a0: 2c90 c03c cd35 873d bfbd 543e c68a 32bd
000003b0: 9614 ce3d 37cb a2bc 68f4 45bb c531 00bd
000003c0: e9c1 993c 9abd ca3b 5597 0a3e 2034 1dbc
000003d0: 2ad0 863d 4cf0 cebc 2d55 b53d 4203 0c3c
000003e0: 3e44 e43d c46f 793d 3d55 5b3d 6362 b8bd
000003f0: 8e48 883c e5ec dcbd 68d3 59bd f779 11bd
0.015357886 -0.09690819 0.078024015 0.026206058 0.035780776 -0.036076672 -0.020830447 0.035478942
-0.025854537 0.060099065 0.054224398 -0.016068533 0.02046494 -0.058397297 -0.11884541 -0.08788417
0.06696555 0.049702063 -0.031522464 -0.067280635 -0.08084885 -0.0048594885 -0.039149914 -0.0096574975
-0.0007853472 0.03929828 -0.0001609374 0.06406628 0.05849401 -0.0152569795 -0.074465565 -0.04492694
-0.105306126 0.02838105 -0.04958631 -0.02737027 -0.07425122 -0.14646378 0.0971612 -0.01167253
-0.026457345 0.04660699 -0.019225134 0.08637436 0.08579671 -0.023999676 0.05855191 -0.03160926
-0.018863652 0.014378435 0.100870624 -0.082604855 0.0072729476 -0.03131221 0.046469565 0.052680865
-0.124434605 0.027915025 -0.023513652 0.035378348 -0.06372657 -0.051607586 0.09276184 -0.032464117
-0.06993782 0.028179253 0.002513689 -0.08375224 0.09597092 -0.08805488 0.06868143 -0.02423111
-0.106696285 -0.09849482 0.069234475 0.059563708 -0.01826521 -0.0037976871 0.023822874 0.06589715
-0.10352703 -0.020182895 0.11085044 0.0869484 -0.04149662 0.04010815 -0.1024363 0.008521768
-0.01475999 0.04219964 0.1536819 -0.06882798 -0.0035622485 -0.011829769 0.024361724 0.121175945
-0.06683907 0.023655698 0.018839858 0.054604273 0.020276401 0.025980383 0.09180789 -0.005647162
-0.054506376 -0.05138027 0.15672624 -0.02026 -0.038794424 -0.09568794 0.054108568 -0.03129882
-0.014897782 0.10987999 -0.07648783 -0.027263619 0.011431058 0.0782159 0.00019183791 -0.08584491
0.027666882 0.03076685 -0.041094664 0.07516184 -0.07386474 0.03365907 0.10956976 0.051454887
0.07923653 -0.057331555 0.007988199 0.11053031 0.09208897 -0.04189471 0.038414933 0.022585142
-0.06220846 -0.048977062 0.06526971 0.071801566 0.014843846 0.00671171 0.10148908 0.0025355944
-0.009275281 -0.04396937 -0.046538148 0.011142761 0.02213288 0.13352886 0.0671921 0.0786127
0.072814204 -0.02694447 -0.083242394 -0.00549915 -0.023201678 -0.009742778 0.02818479 0.0012980957
0.09179616 0.122596376 0.07805343 -0.007876224 0.011246404 -0.003616713 -0.07180058 0.11949867
-0.012200184 0.04097051 -0.070452034 -0.022651749 0.0009732225 0.020525308 0.025912743 0.013966054
0.11535296 0.038488127 -0.025807993 -0.010990052 -0.0978762 -0.08802553 0.043638546 0.059510954
0.11263645 0.016453302 -0.034029245 -0.061225876 -0.101356685 0.07444177 -0.048704278 0.119137876
-0.040567487 -0.040804986 0.03895762 0.028696226 0.038649634 0.083748855 -0.038116723 -0.072220914
-0.044385236 -0.014342919 -0.081496224 0.03855675 0.033545863 -0.08137371 0.030131685 -0.023058392
-0.0030327463 0.09975034 -0.009300188 -0.056804292 0.07509274 0.009844738 0.073380865 -0.010425982
0.0027497858 -0.15854676 -0.06995846 0.071824074 0.060956955 -0.03190725 -0.060811494 -0.030582769
-0.06361587 0.067787334 0.040822264 0.019558067 -0.0035181395 0.015263478 0.003431174 0.14102058
0.023506247 0.066020586 0.20775507 -0.043589376 0.1006252 -0.019872291 -0.0030205492 -0.031297464
0.018769221 0.006187153 0.13534291 -0.009594947 0.06582673 -0.025261067 0.088541366 0.008545699
0.11145829 0.060897604 0.053548086 -0.09003141 0.01663616 -0.107873715 -0.05318013 -0.035516705
