models/eeg_only/s_28.pt (torch, 561186 bytes, 37 tensors)

band_attn.fc1.weight f4 [8, 5]
00000000: b506 383e 6dfa 2ebf 2ffd 7dbd 586e 9d3c
00000010: 8de0 8abe f544 83bd 0c8f cc3c ce27 583e
00000020: f77d 603c fbb7 89be db4b b1be 757a b4bd
00000030: cae7 96ba c891 d1bc 1fd4 ed3e eb41 b9be
00000040: eca6 073f 72fc e0be 944f fdbc 6e7d c93e
00000050: 6299 583e 41c3 e6be 93e6 db3c 40a9 aa3e
00000060: efc6 9f3e 9ed3 9a3e 2172 d6be 0490 b4be
00000070: 1531 11be 1f37 223a d9b9 91be 9a3d e13e
00000080: 1631 183e 0d77 123e 8940 c33d 2c2c d23e
00000090: a7aa ee3e 4a10 a43e ef3d d33e a88d dc3e
0.17971309 -0.6835087 -0.062009033 0.019217655 -0.27124444 -0.06409637 0.024970554 0.21108934
0.013701907 -0.26898178 -0.34628186 -0.08812419 -0.001151317 -0.02558221 0.46450898 -0.36183104
0.5298908 -0.439426 -0.030921735 0.39353508 0.21152261 -0.45070842 0.026843345 0.33332253
0.31206462 0.30239576 -0.41883948 -0.35266125 -0.1417888 0.0006188023 -0.28462103 0.4399231
0.14862475 0.14303227 0.095337935 0.41049325 0.46614572 0.32043678 0.4125819 0.43076825

band_attn.fc1.bias f4 [8]
00000000: 0f75 473e c4e7 2dbe fd5d 063f cc19 7a3e
00000010: 1fc4 e63d b136 e93e 0585 a73e c703 36bd
0.19478248 -0.16982943 0.52487165 0.24423903 0.11267876 0.4554954 0.32718673 -0.044437196

band_attn.fc2.weight f4 [5, 8]
00000000: cde1 1dbd 09e8 673e 5193 20be 8631 5cbe
00000010: d883 ddbe 78a4 013d 5d5a 923e 774c 7a3e
00000020: c451 f13e 502e 9bbd 4e8a a53e 48e1 e3be
00000030: f9ca 253e f494 d43e c529 23be 2967 063e
00000040: e1fd 203e 323e 313e 0817 a2be 0070 f83e
00000050: 1aac cdbe d0ba 6cbe 0db7 9ebc c290 93bd
00000060: 508e 873d 4070 7bbe f15a b13c d5b0 0e3f
00000070: 91d6 9ebe 24ed c23d 3e6a bfbe 96dd dfbe
00000080: 61f4 00bf 9867 74be 7270 d93e 13cd f73e
00000090: b4ec 03be 11df 173e cf82 69bb 8d48 ce3d
-0.03854542 0.22647108 -0.15681197 -0.21503267 -0.4326465 0.03165099 0.28584567 0.24443232
0.47132695 -0.07577193 0.3233208 -0.44507813 0.16190709 0.41519892 -0.15933903 0.1312529
0.15721847 0.17308882 -0.31658196 0.4852295 -0.40170366 -0.23118138 -0.019374395 -0.07205345
0.06618941 -0.24554539 0.02164981 0.55738574 -0.31023076 0.09517887 -0.37385744 -0.43723744
-0.5037289 -0.23867643 0.424686 0.48398647 -0.12883264 0.14831187 -0.0035630947 0.10072432

band_attn.fc2.bias f4 [5]
00000000: b8d7 f1be c605 dcbd de97 99bd 078a 2fbe
00000010: b4fb 373d
-0.47234893 -0.10743289 -0.074996695 -0.17142497 0.044917777

feat_proj.weight f4 [128, 21]
00000000: 3d84 55be 656d 363e 216c 00be 255c 0fbe
00000010: 642b 0abe 29c4 1bbe 3f31 f1bb 3a3d 0b3d
00000020: f369 4e3e f7d6 6a3d 1b08 1bbe 95dd 46bd
00000030: ad1c 88bd 5e1b 0d3e deb4 03be 9411 6bbd
00000040: 52c9 153e f611 8f3d 3b3d 1cbd f982 903d
00000050: 9fa0 d33d 85fd 2e3d c32f 9cbd bc03 45be
00000060: 4879 9f3b e7ae d83c f59c 87be 0b38 09be
00000070: 20b9 183e ebb1 443e 0742 9ebd 5368 bbbd
00000080: 41b1 2e3e 0523 723e 75fd eebc bc19 233e
00000090: ad0c 73bd a065 dc3d 862c c7bd 66d3 6d3d
000000a0: eee4 3ebe a834 86bd 0032 d73c 4b32 e63e
000000b0: 2aaf 893c 85a6 0d3e e516 463d 8159 1f3d
000000c0: d741 63bc a1d9 1b3c fc12 6f3c ef74 efbd
000000d0: 0c43 653c 4898 edba 06d7 023d 6778 493e
000000e0: 72eb 24be cf96 2bbe 7a39 803e 63f7 3e3d
000000f0: ddc3 2e3e 8aa5 3ebd 0c11 50bd 285c 84be
00000100: 8e0d 333d 8c2f 633e 2f83 95bd a671 ab3e
00000110: 7d19 ce3d 415a 153e e0be cb3c 63da 08bc
00000120: 9584 f9bc 98cc 51be b2df b5bd 884d a73d
00000130: 3d28 803d bc87 48be decc 49be 1432 2c3e
00000140: 39ef 023e 2b22 da3c aebc 09bc 6d37 afbe
00000150: 744e 29be 01c9 66bd 56bf 363e f5e5 433e
00000160: 688c c23d b3fd edbd 0c70 8ebb 3e6a 303e
00000170: de2e d43d e31b dc3d 5c00 f3bd deaf b7bd
00000180: fec7 b9bc 8025 413e 8d48 9e3d b2fd 723d
00000190: 10a4 d6bd 231e 26bd 4808 97bd 83d7 1a3e
000001a0: 5527 263d 2244 233c ca97 3dbd 71b6 d23c
000001b0: 85af 7a3e 6f91 babd 73d9 bf3d 3d46 dcba
000001c0: 7028 0c3e ca15 87bd 7865 383e f2ae 69bd
000001d0: f251 4bbe 21af 80bd 7ab5 06be ae6f 6b3e
000001e0: e243 fc3d e935 d13d ca8f 45be 2ef8 35be
000001f0: 4009 4bbe abb7 d63d 7e3d 9cbc b5f5 493d
00000200: 8ee3 973d 271f aabe 8a70 ab3b dff5 373c
00000210: 4caa 19bd 9dda 11bd 29b4 09be fc3a 2abe
00000220: aead b83c 3c3f 00be 27a1 ec3d b561 84bd
00000230: 5e8c f6bd eb41 c43c 71a3 77bd d821 463e
00000240: 4bfd c2bd 317a 193c 6c6f 023e dbff c33a
00000250: cdde 96bd e37a b83d 44d5 4cbe 5e56 843e
00000260: 38b3 f3bc 11c7 633e 3e7b 023e e120 90bd
00000270: 15c6 063e 4734 78bd 787f 023d a98c 853b
00000280: 0e94 f73c f337 32be 934a 35be b31e 20be
00000290: b7a6 893d 4a21 c5bd 428e c5b9 04c9 84bd
000002a0: 4a60 29be c03d cd3e 0678 143d d7cb 293d
000002b0: 7b5d ff3d 229c 513e d0fe 7dbc 4ff3 97bd
000002c0: ca5c 033e af64 123e e2d2 063e 6337 34be
000002d0: 7678 013e 85a9 183d 59a8 43be a5e7 53be
000002e0: ec48 473e 2df3 2a3d 83c9 0e3d be0d 3bbe
000002f0: 893d 21bb 1934 163c 6c0a 353e 1f96 073e
00000300: d1a9 ad3d 1def e63d c772 0d3e 4faa 8fbb
00000310: 2c47 82bd 4a1e 5dbe 97af 1d3e aee7 5c3d
00000320: a44d 753e 24ab 973d f70a adbd 29c1 a9bd
00000330: 03e4 ddbd 97fc 643d a0e8 30ba bb3e 25bd
00000340: e50e d43d 0cb9 103e f7b6 493e 3525 3a3e
00000350: 1312 7bbd c4e9 76be e954 cabb 473e 2e3e
00000360: 33d6 33bd 7343 02bd 3022 e2bd ad30 0cbe
00000370: bb0a 2b3e 4d5c 3c3e 7801 51be d7ad 22bc
00000380: 0437 7fbe 21bb 28bd 883c 50be 05d1 36be
00000390: 4c66 1b3d c4d4 7a3e de7c 863d ff31 aa3d
000003a0: 19c0 973d 440a 553e 7100 843d cad0 513e
000003b0: e07d 97bc cf0d dfbd ef3f 243c b631 393e
000003c0: d77c 43bd c87b a03c 1010 903d 5c51 42be
000003d0: fc8a 4abc b6ef d73d 8792 11be 7d7e dcbc
000003e0: 7844 28bc 625e ac3c 5602 1e3e 3aff 193e
000003f0: a1e8 c53d 0f5a 50be ad0c 963d 2ee5 683e
-0.20851226 0.17815168 -0.12541248 -0.13999994 -0.13493115 -0.15211548 -0.007360607 0.033993937
0.20157604 0.057333913 -0.1513981 -0.04855116 -0.066460945 0.13779971 -0.12861964 -0.05738981
0.14627579 0.06985848 -0.03814433 0.07056231 0.103333704 0.042722244 -0.07626297 -0.19239706
0.004866753 0.026450587 -0.26486936 -0.13400285 0.1491437 0.19208495 -0.077274375 -0.09150758
0.17059804 0.23646171 -0.029173592 0.15927786 -0.05933826 0.10761571 -0.09725289 0.058062933
-0.18642017 -0.06553012 0.026268959 0.44960245 0.016807158 0.13833053 0.048361678 0.038903717
-0.013870678 0.009512336 0.014591929 -0.11692225 0.013993036 -0.0018127048 0.031943344 0.19674836
-0.1610544 -0.16756748 0.2504385 0.046622645 0.17066903 -0.04654459 -0.050797507 -0.2585156
0.0437141 0.22186106 -0.07300412 0.33485144 0.10063455 0.1458521 0.02487129 -0.008352849
-0.030458728 -0.20488203 -0.08880557 0.08169085 0.06257675 -0.19583029 -0.19707057 0.16815978
0.12786569 0.02662762 -0.008406801 -0.34221974 -0.16533834 -0.056344036 0.17846426 0.1913069
0.094994366 -0.11620655 -0.004346853 0.17228028 0.10360502 0.107475065 -0.11865303 -0.08969091
-0.022678372 0.18861961 0.07728682 0.059323974 -0.10480511 -0.040556084 -0.073746264 0.15121274
0.040564854 0.009964975 -0.046287335 0.02572176 0.24481018 -0.091097705 0.09367647 -0.0016805601
0.136873 -0.06595953 0.18007457 -0.057051606 -0.19855478 -0.06283403 -0.13155165 0.22991821
0.12317635 0.10215361 -0.19293132 -0.17770454 -0.19827747 0.10484251 -0.01907229 0.04930659
0.074164495 -0.33226892 0.0052319216 0.011228054 -0.037515923 -0.035608876 -0.13447632 -0.16624063
0.022543754 -0.12524122 0.11554175 -0.06463949 -0.12038492 0.023957213 -0.060458604 0.19348848
-0.09520968 0.009367512 0.12737817 0.001495357 -0.073667146 0.09007814 -0.2000323 0.25847143
-0.029748544 0.22243907 0.12742326 -0.07037521 0.131615 -0.06059673 0.031859845 0.004075606
0.030221965 -0.17404155 -0.17704229 -0.15636711 0.067212515 -0.0962549 -0.00037680758 -0.06483653
-0.16540638 0.40086174 0.036247276 0.041454162 0.12469002 0.20469716 -0.015502647 -0.07419454
0.12828365 0.1429622 0.13166383 -0.17599253 0.12643608 0.03727104 -0.19107188 -0.20693834
0.19461411 0.041735817 0.034860145 -0.18266961 -0.0024603328 0.0091676945 0.17679757 0.1324086
0.084796555 0.11276076 0.13813315 -0.004384316 -0.06361231 -0.21593586 0.15399013 0.053931884
0.23955399 0.07405689 -0.08449357 -0.082887955 -0.108345054 0.05590495 -0.0006748531 -0.040343028
0.103544034 0.1413309 0.19698702 0.18178256 -0.061296534 -0.24112612 -0.006174673 0.17015944
-0.04390545 -0.031802606 -0.11041677 -0.13690443 0.16703312 0.18394585 -0.20410717 -0.009929142
-0.2492333 -0.041194085 -0.20335591 -0.17853172 0.037939355 0.24495226 0.06566785 0.08310317
0.074096866 0.20804697 0.06445397 0.20489803 -0.018492639 -0.10891306 0.010025009 0.1808537
-0.04772648 0.019590273 0.07034314 -0.18976349 -0.012362238 0.10543768 -0.14216052 -0.026915783
-0.0102702305 0.021041099 0.15430579 0.15038767 0.09663511 -0.20346855 0.073266365 0.22743675

feat_proj.bias f4 [128]
00000000: 5d9a 2d3a 6282 d23d af74 14bd 39c5 52bd
00000010: e152 d23d 1720 ba3d a2be 34be 8c14 fd3a
00000020: ca43 53bd 2a98 163e fb09 b6bb c90b 713d
00000030: e0c0 123e 467c 1a3e 6af7 4abd bfad 23be
00000040: 2c41 85bd 81df 263e 5105 ce3d 194c 413e
00000050: 85cc e2bd 566f 223e 32e2 403e 1c93 98bd
00000060: 7d02 f13c 8d2b ecbc c3b6 033e bd94 41be
00000070: e848 58bd b833 263e 6b8e 303e d500 2cbe
00000080: 9c2c cebd 318e 2b3e 7d1b da3d 0da8 223e
00000090: 2cb0 b1bd 4d16 ec3c d9e0 e1bd 0ce3 453b
000000a0: 5dbb 2f3e 6acc 363d 743a cdbd 0872 1bbe
000000b0: f5c9 383d fa3d 43be 650b 33be 2d7a aebd
000000c0: 61ec f03d 8ca6 41bd 7953 3a3d f534 81ba
000000d0: 2d3a f7bd fb21 1fbe 1842 04bd 34fd 42bc
000000e0: de7a 7ebd 8fa6 2fbb 5144 6fbd 9129 a7bd
000000f0: d5e0 80bc c83b adbd 78b8 4cbd 40ad 36be
00000100: 723d dd3d c380 cb3b 6601 a53d 8c94 3d3e
00000110: 8875 e73d c836 b73d 7619 2b3e d9ed 873d
00000120: 51eb 143e 75a2 f63d 42a3 eebd 15ea d2bd
00000130: 2aa1 853d fc64 093e 3a00 7a3c 5789 3abe
00000140: f00d 173e f797 e53d d57b 88bd 1d4a d73c
00000150: 713b dcbd b64c ec3d 3cd8 a83d aab7 6bbd
00000160: c642 253d f22a c13d dcea cabd 7ec4 d43d
00000170: 3403 0d3d a0ab bdbd 02f4 47bd 2ea9 b1bd
00000180: 67b3 163e 4128 bbbc 4508 253e 770e 123e
00000190: afb2 9f3d fd3c e03d 601e d1bd 1740 93bd
000001a0: 0876 fcbc 96da 053e f891 8ebc 3433 1d3e
000001b0: 835a c8bd 129b 193e 27e2 c4bd 51b9 2e3e
000001c0: 1d3e 8a3d b1b0 f13d 0ff7 2abe 022e 993d
000001d0: b522 8bbd a48a 743d e027 343e 0ae0 8d3d
000001e0: 8566 3bbe d608 d5bd d658 e03d dbbe 1abd
000001f0: a901 413e b19d d9bd 6e2a 1dbe 113c 11be
0.0006622428 0.10278775 -0.03624409 -0.051457617 0.10269714 0.09088152 -0.17650846 0.0019308492
-0.05157832 0.14706483 -0.005555389 0.05884913 0.14331388 0.15086469 -0.04955236 -0.15984248
-0.06506571 0.16296197 0.10059608 0.18876685 -0.11074165 0.15862784 0.18836287 -0.07449934
0.029420132 -0.02882936 0.12862687 -0.18904395 -0.052803904 0.16230667 0.17241828 -0.16797192
-0.10067102 0.1675346 0.10649774 0.15884419 -0.0867618 0.028819228 -0.110292144 0.0030195145
0.17161317 0.04462854 -0.10020915 -0.15180218 0.045114476 -0.19066611 -0.17484815 -0.08519397
0.11763836 -0.047277972 0.045489762 -0.0009857701 -0.12071643 -0.15540306 -0.032289594 -0.011901189
-0.062128894 -0.0026802158 -0.05841476 -0.08162225 -0.015732208 -0.08458668 -0.04998061 -0.17839527
0.108027354 0.006210418 0.08056907 0.18513697 0.11301714 0.089459956 0.16708931 0.06637163
0.14542891 0.12042705 -0.11652233 -0.10298554 0.0652488 0.13417429 0.015258843 -0.18216453
0.1475141 0.112106256 -0.06664244 0.026280457 -0.10753525 0.11538069 0.082443684 -0.057548203
0.040346883 0.09432019 -0.09908077 0.103890404 0.034426883 -0.092612505 -0.04881669 -0.086748466
0.14716874 -0.022846343 0.16116436 0.1426333 0.07797753 0.109491326 -0.10210872 -0.071899585
-0.030818 0.13071665 -0.017403588 0.15351564 -0.09782889 0.15000561 -0.09613448 0.1706288
0.067501284 0.11801279 -0.16695808 0.074794784 -0.06793729 0.05970253 0.17593336 0.06927498
-0.18300827 -0.10402076 0.10954444 -0.03777967 0.1884829 -0.106257804 -0.15348217 -0.1418307

local1.conv.bias f4 [128]
00000000: f9ec 93bc 4f02 5ebc 913b c83b 0e8a 2f3c
00000010: 4e3a d73c 9714 40bc 786f d93c 20ec 13bc
00000020: bde8 f6ba f10f 33bb 51ec 1bbc 1bbb cc3b
00000030: fbe5 b5bc 4f69 94bc 3605 9b3c 3478 ffbc
00000040: 8761 b8bc 9c4a 453c 0484 1e3c d243 e93b
00000050: 1104 c63b b031 8e3c 8613 afbb a005 803c
00000060: ce38 b93b 2936 9dbc a4b3 903c 6155 e53b
00000070: 91ba 18bb 9491 4fbc faac 803c 9202 6f3c
00000080: 37f3 09b8 2895 c63b 0fa0 073c b8dd 173c
00000090: e0f2 403b 3895 1d3b 166a 73bc 1df6 853c
000000a0: 6366 05ba 5843 8fbc c8af 03ba 4034 b43c
000000b0: ff4c 7cba 0fa6 a53c df5f 7b3c 6755 683b
000000c0: a54c 973c b240 0b3b a144 49bc d41b 4d3c
000000d0: d62d 9e3b af23 4f3c 3815 d63c 1472 99bb
000000e0: 7136 353c 5c6d f43b 947d 29bb 9802 c53c
000000f0: 3282 72bc a40c 493c 8266 18bc ac49 4b3b
00000100: 59d9 9d3b 322d 79bc e487 213b d8a3 17bc
00000110: d7b5 493c 0f99 6e3c 1c32 47bb 910f b7ba
00000120: fdda 4fba 726d c93b 3857 5e3c 7680 babb
00000130: 8ba9 133c 1d69 b2bb 8ea3 7dbc 24d5 dfbb
00000140: efe9 56bc f737 2dbc 6a0b 4f3c ef91 e6bb
00000150: f3cc 14bd 40c2 6a3c c43a fc3b 9ee7 16bc
00000160: f807 55bb 8472 6f3c e2bd 63bc e212 8ebc
00000170: 8093 e93c 6931 8dbb 2b6f dd3a bd1d 853c
00000180: 0c9f 943c 65a5 633c 7f14 413c d085 7a3c
00000190: a3b4 e5bb 884f 3d3b 1a40 873c eb03 15bb
000001a0: f513 b53c e373 a8bc 8a0b 063b 8050 1cbc
000001b0: b518 ad3b 4fed bf3c b7fb b13b f258 973c
000001c0: fead 9a3c a1fd 213b b57d 9cbc 9729 3fbc
000001d0: 9355 b13b d04e b63c 909d 593b 9065 023a
000001e0: 038a f6bc 8935 033c fc96 f33b b535 ffb9
000001f0: 929f 5c3c abf4 b6bc 95d9 863c 2df9 6f3c
-0.018057333 -0.013550355 0.0061106165 0.010714067 0.026272919 -0.011723659 0.02654241 -0.009028465
-0.0018837672 -0.0027322734 -0.009516791 0.0062478906 -0.02220439 -0.018116621 0.018923383 -0.031185247
-0.022507442 0.012041714 0.00967503 0.0071186805 0.006042965 0.017357677 -0.0053429035 0.015627682
0.0056525236 -0.019190865 0.017663784 0.0069987033 -0.0023304562 -0.012668986 0.015707482 0.014588015
-3.2889857e-05 0.0060602613 0.008277907 0.00926917 0.002944164 0.002404524 -0.014856836 0.016352708
-0.0005088804 -0.017488167 -0.0005023447 0.021997571 -0.00096245104 0.020220784 0.015342682 0.0035451294
0.018469164 0.0021248278 -0.012284429 0.012518842 0.0048272414 0.012642785 0.026133165 -0.0046827886
0.011060343 0.0074593257 -0.0025862204 0.024049088 -0.014801549 0.01227108 -0.0093017835 0.0031019254
0.0048171696 -0.015208529 0.0024647648 -0.009255372 0.01231142 0.014562859 -0.0030394858 -0.0013966431
-0.0007929055 0.00614708 0.013570599 -0.0056915833 0.00901259 -0.0054446594 -0.015480889 -0.0068308283
-0.013117298 -0.010572425 0.012636999 -0.0070364396 -0.036328267 0.014328539 0.007697435 -0.009210495
-0.003250597 0.014614705 -0.013900252 -0.017342988 0.028512716 -0.0043088687 0.0016894093 0.016249532
0.018142246 0.013894414 0.011784672 0.015290692 -0.007010059 0.0028886516 0.016510058 -0.002273793
0.022104243 -0.020563072 0.0020453655 -0.009540677 0.0052824863 0.023428587 0.005431618 0.01847503
0.018881794 0.0024717825 -0.01910291 -0.011667631 0.0054118126 0.022254378 0.0033205487 0.00049742404
-0.030095106 0.008008369 0.00743377 -0.00048677405 0.013465779 -0.022333464 0.016461173 0.0146468105

local1.conv.lin.weight f4 [128, 128]
00000000: b9db e33d 22e1 0b3d c725 773e 8ce9 9b3d
00000010: fe62 13be 23df 503c ca16 43bd c242 563c
00000020: cfc4 c03d ebf7 c0bd e311 1d3e 5021 c8bd
00000030: 1d05 10bd ef64 65bd 880c 75bd d068 0cbd
00000040: 144a 35bd 3f0a 0ebc 284e bb3d 1f72 0cbd
00000050: 187a 0dbd 7e88 08be 1f9c 763d 2efd b03d
00000060: 6f53 7bbd ccbe aebd 3188 1c3d 8682 aabd
00000070: c009 6a3d c023 0cbe c29b ef3d 7983 3ebe
00000080: 9a27 f13d 6ba9 5dbe b87a 40bc 6267 7dbd
00000090: 1ba9 f93d 71a0 dbbd 5bd1 a0bd fcf2 10be
000000a0: b7d3 0a3e d7d5 7fbd c0c4 c63d 6dc5 0f3e
000000b0: 5b2e 793d 3628 0cbe 69e0 9bbc 9da9 3a3d
000000c0: 5374 acbd 7d00 e6bc 5519 39be 8450 283d
000000d0: 80e7 05bd 604e 6b3b 465d 073e adf0 f7b9
000000e0: 209e 3fbc 3e0d 63bd 18da 0abe 6fe1 293e
000000f0: b2e5 2e3e 823f 193e e3a3 81bd 4012 d43c
00000100: bc77 1e3d e4ef 1fbd 06ba f73c 46a3 d03d
00000110: c2bb 0e3e 1bb7 ed3d 3acd f8bc e8c8 b1bc
00000120: 5f9a c7bd bf55 dd3d 3dc5 033d f123 31be
00000130: 92dd a53d 6860 f2bd 1382 47bd d414 b83d
00000140: a2f9 08be 0d6c 2dbe 9a66 2f3e b244 00be
00000150: 3ae2 f6bd 190a 15be 816b 4abe b1ce 3a3e
00000160: 427e 513e 58f4 f9bd 65f6 dc3c 56ed b03c
00000170: 15f6 79be 3b29 de3b b767 353e 6e5c 46be
00000180: a78c 1fbd e0d8 69bd 0006 b53b 04be 07be
00000190: 64d7 9fbd 4aba 9ebc 083a b4bd 1c63 5b3d
000001a0: aef9 aa3d dbcd 0bbe 506a c0bd 70cf 0d3d
000001b0: da90 09be 61ea 5abe 0633 fdbc 7610 7e3d
000001c0: b2d2 123d f2cd 57be e429 013e cc02 fa3d
000001d0: caf1 19bc 4b91 833c e1ca 10be 7848 013e
000001e0: 6fbf 633d 6db0 eabd a206 15be 58de ec3d
000001f0: 60e0 adbd 5d22 14be 6811 043d 4968 00bd
00000200: acdd e13d 6df0 15be 0690 6a3d a673 763d
00000210: cb99 3dbd f112 093e 28e9 f1bd e551 35bd
00000220: e4ac 1ebe cef6 32be f980 093e bf94 be3d
00000230: 1823 8dbd 3907 59be a5cd 663d ec05 ffbd
00000240: 0036 383d 44f3 f5bd ed29 21bc d710 823d
00000250: 2119 cdbc 338b e9bc bafa 2dbe 08c5 e3bd
00000260: b17d cdbd 516e 48be 1364 afbd 1a50 1ebe
00000270: 55a9 083e 44b4 d63d f4b9 1abe bc6a a43d
00000280: e246 ffbd 5ddd d13d a478 283d 230a ae3d
00000290: d0a6 f2bc 21b8 2fbd e366 3e3d b37b 88bd
000002a0: 1ec6 2ebc dbea 383e 7620 e3bd a14e dd3d
000002b0: 4ce1 33be 76f8 e7bd a908 8abd 48b8 283e
000002c0: 25d8 d63d 1c88 6ebd 3483 863d 192f 1f3e
000002d0: c35a 0bbe 59ca 683e 64a7 333d 2b20 563d
000002e0: c489 c83c 91b3 2a3e 4c31 303e 9956 41be
000002f0: 706e b63d feda 863d 546a fb3c ace2 02be
00000300: c7cb 2f3d dbd6 8bbd 8679 25bd 9db5 1bbe
00000310: 0df1 183d 156e 4d3d 6a9e 9cbd 533b 253d
00000320: ed84 09be 1beb b3bd e8f9 1abe 53c2 f4bd
00000330: 6586 7cbd 5c57 c03d b095 ba3c 71f5 b33d
00000340: 3747 203e cc5d 0a3e 3f10 6ebd 4ceb 403e
00000350: b695 f8bc 36ce ef3d 8f94 873d 0e6d e33d
00000360: 854d e23d cf39 3c3d eb2c 0abd 3308 043e
00000370: 78c8 0dbe 0782 a8bd a168 f7bd e5c6 be3d
00000380: 7633 e23d a3aa 563d 3de3 07be decd 1d3e
00000390: a2fe 71bd 2203 eb3d 20ee ea3c 581e b8bd
000003a0: 045c 043e 7800 f9bd 9b80 963c 99da 23bd
000003b0: 9021 16bd 2a3c bbbc b942 823d 9e6a 9b3d
000003c0: 5c2a a5bd d706 2e3d bcc2 4e3d 70e0 1fbe
000003d0: ed50 303e 195f e8bc 29ce 973c 7365 b4bd
000003e0: 8b77 1e3e 019d 16be edfd a2bd bc85 97bd
000003f0: dd3e e8bd 9bc9 62bd df13 38bd 83ac 233d
0.11125893 0.03415025 0.24135505 0.07612905 -0.14393231 0.012748512 -0.047629155 0.01307744
0.09412538 -0.094222866 0.15338854 -0.09771979 -0.035161126 -0.05600446 -0.059826404 -0.034279644
-0.0442601 -0.008669435 0.091457665 -0.03428852 -0.034540266 -0.13333318 0.060207482 0.0864204
-0.061358865 -0.08532485 0.03821582 -0.083256766 0.057138205 -0.13685513 0.1169963 -0.1860484
0.117751315 -0.21646659 -0.011748008 -0.06186617 0.121904574 -0.10723961 -0.078524314 -0.14155191
0.13557325 -0.062459793 0.09705496 0.14040156 0.060835224 -0.13687214 -0.019027906 0.045571912
-0.084206246 -0.028076405 -0.1807607 0.04109241 -0.03269148 0.003590487 0.13219175 -0.0004729083
-0.011695415 -0.05543255 -0.13559759 0.16589902 0.1707981 0.14965633 -0.06330087 0.025887609
0.038688406 -0.039047137 0.03024007 0.10187392 0.13938811 0.1160719 -0.030371297 -0.021702245
-0.09746241 0.108073704 0.032170523 -0.17298867 0.08098902 -0.11834794 -0.048708033 0.08988348
-0.13376477 -0.1693575 0.17128983 -0.12526205 -0.12054868 -0.14554633 -0.19767572 0.18242909
0.2045832 -0.12204808 0.026972959 0.021597546 -0.24410279 0.0067798174 0.17715345 -0.19371197
-0.038952496 -0.057091594 0.005524397 -0.13256079 -0.078047544 -0.019375939 -0.08800131 0.053561315
0.08348404 -0.13652746 -0.093952775 0.034621656 -0.13434163 -0.21378471 -0.030908119 0.062027417
0.035845466 -0.21074656 0.12613636 0.12207565 -0.009396026 0.016060492 -0.14139892 0.12625301
0.055602487 -0.11459432 -0.14553311 0.11565846 -0.08490062 -0.14466234 0.032243162 -0.031349454
0.11028609 -0.14642496 0.057266258 0.060168885 -0.046289247 0.13386132 -0.11812049 -0.044267554
-0.1549564 -0.17476961 0.13428105 0.09305715 -0.06891459 -0.21194161 0.05634846 -0.124523014
0.044973373 -0.1200929 -0.009836656 0.06350868 -0.025036396 -0.028508758 -0.16990176 -0.11121565
-0.10033739 -0.19573332 -0.085640095 -0.15460244 0.13345845 0.10483602 -0.15109998 0.080281705
-0.12464692 0.102473 0.041130677 0.08498027 -0.029620558 -0.04290021 0.04648484 -0.06664219
-0.010667352 0.1805834 -0.11090176 0.10806013 -0.17566413 -0.11326687 -0.06739933 0.16476548
0.10490445 -0.058235273 0.06567994 0.1554531 -0.13608842 0.2273344 0.043860808 0.05227677
0.024479754 0.16670062 0.17206305 -0.1888069 0.08907783 0.06584738 0.03069035 -0.12781781
0.042918947 -0.0682809 -0.040399097 -0.15205999 0.03733926 0.05015381 -0.076474026 0.04033978
-0.13429613 -0.08785077 -0.15134394 -0.11951127 -0.061651606 0.093916625 0.022776455 0.087870486
0.15652166 0.13512343 -0.058120962 0.18839759 -0.030344825 0.117092535 0.06620132 0.11104785
0.11049942 0.045953568 -0.033734243 0.12893753 -0.13846004 -0.08227926 -0.12080503 0.0931528
0.11044972 0.052408826 -0.13270278 0.15410563 -0.059080727 0.11475207 0.028678 -0.089901626
0.12925726 -0.121582925 0.01837187 -0.040003393 -0.0366531 -0.022855837 0.063603826 0.07588695
-0.0806472 0.04248699 0.050478682 -0.1561296 0.1721837 -0.028365659 0.018530922 -0.088084124
0.1547529 -0.1470833 -0.07958589 -0.07398555 -0.11340115 -0.055368047 -0.044940826 0.039959442

local1.norm.weight f4 [128]
00000000: 78f2 873f 7243 813f 380e 723f 4263 7b3f
00000010: 0d72 7f3f ae66 813f 77ec 793f ab76 7f3f
00000020: 351f 7d3f 5d95 8a3f a646 7f3f 11dd 863f
00000030: cc69 7d3f 9fe6 863f 99d4 703f 0563 8e3f
00000040: 7ebb 8e3f 4fb9 773f e7e5 753f 7d02 7e3f
00000050: 8dd2 743f 0dfd 7c3f 92ac 863f 3da6 723f
00000060: 943d 7d3f 3854 733f 2afb 7a3f c2f2 713f
00000070: c665 813f e9c5 793f c347 823f 101f 7c3f
00000080: 8fc8 813f 438f 793f 189f 823f ad8f 703f
00000090: dd68 7c3f 6341 7f3f 3145 8d3f d6e6 723f
000000a0: 129c 813f 921c 7b3f f49e 873f 419b 803f
000000b0: ac72 833f 0a96 783f b179 673f 151b 7f3f
000000c0: 601b 783f 9d24 823f 3075 803f 2563 783f
000000d0: 8b94 753f a8c5 7e3f d9e4 8e3f 6733 7f3f
000000e0: 1099 723f d226 853f bf04 843f 90b6 753f
000000f0: 40d3 843f 540d 763f bdfe 7c3f 238c 813f
00000100: 1133 803f 5410 833f b2b8 713f 0b6f 8f3f
00000110: ab95 823f 98de 803f 249e 7d3f e60f 753f
00000120: 88f0 823f 4b61 773f d827 703f b06a 7e3f
00000130: 42fe 813f 49ae 773f ffb4 8a3f 07e0 713f
00000140: e6f7 943f 582f 883f a6d6 7d3f 6c7e 873f
00000150: f318 833f 76f9 843f c7e6 843f 9c05 853f
00000160: f9a8 823f c888 763f 90dd 8e3f 3b43 8a3f
00000170: dd24 7c3f f0f8 7f3f 7f9d 803f a3c7 893f
00000180: eadd 803f cf74 763f 5d6f 7b3f 72c0 713f
00000190: 0446 803f ec59 7f3f 1fa2 7d3f 7330 843f
000001a0: b631 803f da12 853f 87cc 7e3f 3fc3 7f3f
000001b0: ebb6 813f 5d1c 743f 89ac 743f f784 7f3f
000001c0: 5188 803f 1851 843f 4b35 873f 67bb 883f
000001d0: 4373 793f f763 7a3f dd31 7a3f b59d 713f
000001e0: 9b30 943f 1bb0 803f 686e 923f abde 733f
000001f0: 5d7d 753f 8c21 823f 0559 803f c7be 7a3f
1.062087 1.0098708 0.94552946 0.9819833 0.997834 1.010946 0.9762644 0.9979045
0.98875743 1.0826832 0.99717176 1.0536214 0.9898956 1.053913 0.940744 1.1123968
1.1150968 0.96767133 0.9605393 0.99222547 0.95633775 0.98823625 1.0521414 0.9478491
0.98922086 0.9505038 0.98039496 0.94511044 1.0109184 0.9756761 1.017815 0.984849
1.0139331 0.97484225 1.0204802 0.9396923 0.9859751 0.9970915 1.103674 0.9488348
1.0125754 0.9809047 1.0595384 1.004738 1.026937 0.9710394 0.9042006 0.996507
0.9691677 1.0167423 1.0035763 0.9702628 0.95929784 0.9952035 1.1163589 0.9968781
0.94764805 1.0402472 1.0313948 0.95981693 1.0376968 0.9611409 0.988262 1.0120891
1.0015584 1.0239358 0.9442245 1.1205763 1.0201925 1.006793 0.9906943 0.95727384
1.0229654 0.9663283 0.93810797 0.9938154 1.0155718 0.96750313 1.0836486 0.94482464
1.1638153 1.0639448 0.9915565 1.0585456 1.0241989 1.038863 1.0382928 1.0392337
1.0207816 0.9630246 1.1161366 1.0801767 0.9849375 0.99989223 1.0048064 1.0764049
1.0067723 0.96271986 0.982168 0.94434273 1.0021367 0.99746585 0.990755 1.0327286
1.001517 1.0396378 0.99530834 0.99907297 1.0133947 0.9535578 0.9557577 0.99812263
1.00416 1.0337248 1.0563139 1.0682191 0.974415 0.97808784 0.97732335 0.94381267
1.1577333 1.0053743 1.1439943 0.9526164 0.95894414 1.0166488 1.0027167 0.97947353

local1.norm.bias f4 [128]
00000000: 0f57 3fbd b2d6 78bd 4549 8ebd b269 6fbd
00000010: e707 64bd a575 b3bd d192 2dbd d32c 15bd
00000020: ff12 5dbd a3b0 6ebd 119b 5fbd d5f3 7fbd
00000030: ae36 12bd 5e9d a9bd 32a6 60bd a0b8 91bd
00000040: 75fd 10bc 0975 3ebd 90cb 7bbd 72c9 0abd
00000050: fb67 4bbd 8e9a fcbc 605e 93bc 11a1 a8bd
00000060: 1a52 67bd fc79 89bd 4eb9 5bbd 78d1 97bd
00000070: fc33 cebc 0493 61bd dfbf 83bd 68f0 38bd
00000080: 8b8c 27bd 4cdf 64bd 6ffb 65bd c1e2 28bd
00000090: 0b4f 75bd 0765 32bd 720d d0bc 9760 4dbd
000000a0: 52d8 99bd dbe0 9cbd 824b 41bd e0b4 a9bd
000000b0: 0cca 83bc 3492 38bd 8c4a 04be dfa7 4abd
000000c0: e312 3ebd eb91 23bd 1944 28bd b5e2 29bd
000000d0: 6fef 79bd d84a 84bd d2fc ffbb ba2a 80bd
000000e0: f44d 20bd ccdc 89bc 31b5 87bd d6f0 6cbd
000000f0: f15e 1fbd 8d5c 41bd 02de 9dbd 3a87 1cbd
00000100: 8ec7 8ebd a37a 11bd d082 62bd c1d0 a0bd
00000110: 2fab 5fbd 9207 05bd 259d 91bd 32b3 8dbd
00000120: 6c76 16bd 5b8d 14bd 1338 d7bd 4f45 bbbc
00000130: 56c6 85bd 14c9 6fbd 66a5 413b e2cd 96bd
00000140: 1d9b 3abd b9ed 28bd a3f9 3bbd 2558 88bd
00000150: 502c 65bd a477 67bd f508 27bd 1d7e 2fbd
00000160: 0e50 36bd 7232 3bbd 35b0 28bd 514c d0bd
00000170: 552b 6cbd 0296 1abd 4be0 17bc be88 a9bd
00000180: 78c6 21bd 85b6 46bd 8a6c 7ebd d534 61bd
00000190: 26a7 81bc f1be 33bd 5e58 30bd 6100 b4bd
000001a0: c0b6 8bbd 2fe3 e0bd 19bd 39bd 47b0 afbd
000001b0: c7db 5bbd 7435 93bd 5544 a3bd 2d76 23bd
000001c0: effb 52bd d3a8 1ebc 2ab3 babc d23c b4bc
000001d0: b540 0cbe 273b cbbc 74cb 0fbd 6811 05be
000001e0: 106f 63bd c5b6 97bd 9c7a 1abd 918e 92bd
000001f0: 11c3 10bd 51f9 77bd d2af 50bd 0e12 58bd
-0.046713885 -0.060751624 -0.06947569 -0.05845041 -0.0556716 -0.08762673 -0.042376343 -0.0364197
-0.053973194 -0.058273923 -0.054591242 -0.062488396 -0.035696678 -0.082819685 -0.054845996 -0.071152925
-0.008849491 -0.046498332 -0.06147343 -0.03388352 -0.04965971 -0.030835416 -0.017989337 -0.08233846
-0.056474783 -0.0671272 -0.053643517 -0.07413 -0.025171272 -0.055071846 -0.06433081 -0.045151144
-0.040905517 -0.055877015 -0.05614799 -0.041231874 -0.059889834 -0.04355338 -0.025397036 -0.050140943
-0.07511963 -0.07660075 -0.04719115 -0.08286452 -0.016087554 -0.045061305 -0.12919062 -0.0494765
-0.04640473 -0.03993408 -0.041080568 -0.04147597 -0.061019357 -0.06459588 -0.007812121 -0.062581494
-0.039136842 -0.016828917 -0.066263564 -0.057846867 -0.038908903 -0.047207404 -0.0770836 -0.0382149
-0.06971656 -0.035517346 -0.055300534 -0.07852317 -0.054606613 -0.032477923 -0.07110051 -0.069189444
-0.03673403 -0.03626762 -0.10508742 -0.022860197 -0.0653197 -0.058541372 0.0029548048 -0.07363488
-0.045558084 -0.041242335 -0.04589237 -0.06657437 -0.055950463 -0.056510583 -0.040780026 -0.04284488
-0.04450994 -0.045702405 -0.04118367 -0.10170806 -0.057658512 -0.037740715 -0.009269784 -0.082780346
-0.039495915 -0.048513908 -0.06211523 -0.054982025 -0.015826773 -0.043883268 -0.043053024 -0.08789135
-0.06821966 -0.10980832 -0.045346353 -0.08578544 -0.053676393 -0.0718793 -0.07972018 -0.039907623
-0.051509794 -0.0096838055 -0.02279051 -0.022001658 -0.13696559 -0.02480848 -0.035106137 -0.12994921
-0.05552584 -0.074079074 -0.037714586 -0.07156099 -0.03534228 -0.0605405 -0.050948925 -0.052751593

local2.conv.bias f4 [128]
00000000: 5654 ca3a bbf9 1e3c 0c39 9e3d c776 ab3b
00000010: b922 3a3b 4230 453b 945c 163b cf26 873c
00000020: a4f3 99bb 872d f53a efe8 ed3a 5185 a2ba
00000030: 6165 29bc 14dd 1bba 3739 413a d58c 153c
00000040: 7182 bcba c54a b83a e515 d5b7 f0d8 093a
00000050: 247d c1ba d5e6 393b d8c0 c83a 9071 9f3a
00000060: a95e a73a 5b63 163d 6e34 b9b8 9b7c 003d
00000070: 3573 c83a 5abe da3a 8c08 81ba c331 d437
00000080: 8f8a 7637 59a2 f73a eed4 7e3c a87b c639
00000090: c5e9 883a 8c44 69bb 6a1c df3a e9e9 ad3b
000000a0: 2094 9d3c b226 1fbb 6ea2 5a39 d502 09bb
000000b0: fe21 e63b f447 9f3a 5061 223b fc06 4cb8
000000c0: 67a5 31bb 0345 9c3a 6b89 7cba dd7b b438
000000d0: a3c6 9eba d8f5 f1ba a607 d53a 1def bebb
000000e0: e565 ffba 22d9 e4ba e84f 28bb 73ad 4c3c
000000f0: 9a3e 12bb 6502 993a 83f9 083a 7560 b13a
00000100: 2215 09ba d69a 1f39 2572 b83a cb18 b4ba
00000110: e942 10bb b525 803a 1f56 2ebd aed4 853a
00000120: 2fdc f338 8505 ceba 22a8 d63b 8fa6 f33b
00000130: 6b97 18b9 960f 3dbb d427 2b3d b3e0 c7b9
00000140: 643b 403a c586 433a 82bd 053a 0663 d8bc
00000150: fd96 6bba 458b afba c55b 64ba e525 fd39
00000160: 2207 35bd 996f c23a cdc8 dbb8 2568 09ba
00000170: 317a e7bd 8928 b73c 9509 32bb 5a7f 33b8
00000180: 85fe e53b a195 0e3a 05fd 813a 7784 13bb
00000190: bcbc 0e3a 5b62 abbb 8495 a3b9 7742 14ba
000001a0: dddd aa3a b3f9 b73b b016 563a dc41 3fb8
000001b0: 90da 0b3c 49fb dbbc d401 963a 8482 1839
000001c0: 747e 153b cc31 9239 ca6c 1ebb adad 053b
000001d0: dbbf fd3a 9f63 a5bd cda7 cfb9 0a8e 9a39
000001e0: e1a5 afbb a76b 1d39 bf0f 98b9 4dbe bb39
000001f0: 9783 1e3c 2ec3 ce3a a6d0 ae3c 50e9 6b3c
0.0015436511 0.009703095 0.077257246 0.005232665 0.0028402044 0.0030088578 0.0022943364 0.016497998
-0.0046982337 0.0018705585 0.0018151085 -0.001239935 -0.010339112 -0.0005945724 0.00073708914 0.009127815
-0.0014382136 0.0014060369 -2.5401774e-05 0.00052584615 -0.0014762026 0.0028366346 0.0015316261 0.0012164582
0.00127693 0.036715847 -8.831253e-05 0.031368833 0.0015293123 0.0016688809 -0.0009844466 2.5295541e-05
1.4695003e-05 0.0018892988 0.015553696 0.00037857634 0.0010445645 -0.0035593836 0.0017022018 0.0053074253
0.01923567 -0.0024284539 0.0002085061 -0.002090623 0.007023095 0.0012152181 0.002477724 -4.8643895e-05
-0.0027106644 0.0011922423 -0.0009633514 8.60614e-05 -0.0012113642 -0.0018460108 0.001625289 -0.0058268444
-0.0019485323 -0.001745973 -0.0025682393 0.012492525 -0.0022315145 0.0011673687 0.00052251684 0.0013532775
-0.0005229284 0.00015221103 0.0014072104 -0.0013740299 -0.0022012538 0.0009776863 -0.0425626 0.0010210478
0.00011628155 -0.0015718198 0.0065508047 0.007435627 -0.00014552257 -0.0028848401 0.04178603 -0.00038123652
0.00073330686 0.0007458742 0.0005101786 -0.026414406 -0.00089870376 -0.0013392946 -0.00087111845 0.00048284154
-0.044196256 0.0014834284 -0.00010480136 -0.0005241654 -0.11302603 0.022358196 -0.0027166356 -4.279553e-05
0.0070188665 0.00054391666 0.0009917325 -0.0022509375 0.0005444994 -0.0052302307 -0.0003120118 -0.0005655656
0.0013036091 0.0056144833 0.0008166833 -4.5599285e-05 0.008535996 -0.02685322 0.0011444637 0.0001454447
0.0022810968 0.00027884392 -0.002417373 0.0020397708 0.0019359546 -0.08075642 -0.00039607138 0.00029478996
-0.0053603505 0.0001501279 -0.0002900343 0.00035809205 0.009674928 0.0015774721 0.021339726 0.014398888

local2.conv.lin.weight f4 [128, 128]
00000000: cf6d d83d 80b6 0fbb 8344 c1bb aa99 0abd
00000010: b2ac 513d a493 3d3d c8da c6bd ef2e abbc
00000020: 1a6f 423d 5f5c 16bd 9e64 ff3d e040 96bd
00000030: 9044 66bd e17e ebbd 3ba4 0f3c 3e44 f13d
00000040: a0bd 05be e5cc 133e e78f ee3d 5188 14be
00000050: 9913 83bd 4c4e a73d 1f38 193e c8c9 cabc
00000060: efea d53d 3de3 1fbe 6ee7 163e 7876 0cbd
00000070: ba8a 3f3c b4c4 85bd c9b7 063e c119 fb3d
00000080: a070 c93c 921c 0e3e 58a7 383e 50b1 913d
00000090: 02d1 443d c2c6 8dbd a907 ccbd 33a5 c1bd
000000a0: 2d8c e53d b203 eb3d e5f6 d1bd b7db e3bc
000000b0: 9d2a 0e3e 569c fbbd a733 78bd a4ea debd
000000c0: ebe5 3cbd 4fc9 723b f952 01be 58de 063d
000000d0: bcd1 a8bd ba47 183d b6e2 5dbd 6ef9 db3b
000000e0: 3a56 bf3d 3abf 1a3e cfb5 0a3e 4735 05be
000000f0: 56f2 17be 1ac0 103e 76a6 31be f783 9f3d
00000100: c641 713d 26c4 293c faf4 893c dd57 373d
00000110: b278 5d3d 04bc 87bd 818a 05bd 60b7 e9bd
00000120: 2443 12be 6fa2 be3d 8f4b c93d b034 53bd
00000130: b9b1 cc3d d0c3 b6bd c572 353d 683c cf3d
00000140: 6736 853d fea1 bdbc ce4a 12be b9bc b73d
00000150: 3836 cf3d 70a3 24be 3abb 223e e6b9 013c
00000160: 3b65 7abe 1976 cabd 36fa bb3c 2328 5bbd
00000170: 9bea 253e 0220 2c3d 882d af3d 011c 6f3d
00000180: dafd 8bbd e691 ce3d f759 61bd ea82 583b
00000190: 1386 283d bd81 213d 2ff7 91bd 53c0 24bd
000001a0: 0851 dd3d ba8c a3bd 62ca 3b3d d162 9abd
000001b0: 0d44 bc3d 72a7 803d dd7d 873d aa55 1b3e
000001c0: 71cd 15bc 1ae0 cd3c b0af 15bd 5275 ebbd
000001d0: 702a a4bd 7608 dd3d aa14 99bd 0d33 52bc
000001e0: 1598 c3bd f70c 72bd 9853 c8bb a2fd 8d3d
000001f0: 4035 963c 8ed8 203e 70fd a3bd 9df9 06be
00000200: a6d4 013e f4e1 333d f762 943d 8ee1 39be
00000210: f89c 013e 7cfd 7d3d dd59 2e3b e13d 6b3d
00000220: b289 abbd b42e 303e d955 bb3d 3943 02be
00000230: 4d49 9cbd a751 f3bd 85aa 1d3c 4fc7 ca3d
00000240: 2232 113e f12b 07be 9fc3 db3d d6a6 9b3d
00000250: 92bc 6abd 6540 28be 4bbf c0bc efb3 e83d
00000260: ca2e 38be 828e 4e3d 97dc dfbd 9a5b 1bbe
00000270: 04d9 7ebc 6f7a 99bc fb79 e23d 569c 073e
00000280: af3e 23bd 6a46 abbd 4731 5dbe 4160 b8bd
00000290: 8cd3 e9bd 8509 40be c35e 0a3e 406f 9abd
000002a0: 6f06 02be a4e7 2f3e 5ed0 32be c27e 68bd
000002b0: c511 5b3e 4783 bc3d c952 a73d 397d d63c
000002c0: b1a8 0d3c f857 cf3d 8d95 0cbd 57c6 5e3d
000002d0: fd86 0bbc 397a 683d efbe edbd 78ed b53c
000002e0: 7cba 58bd 2230 b83d 64f7 b03b 3c16 863d
000002f0: c2a1 42ba fc5e 19be bc13 c03d adc1 32be
00000300: d51e 28bd 5a36 84bd e019 14bc 23be a3bb
00000310: c70b 8bbd 997a c43d 9e40 17bd 920b 50bd
00000320: 95a8 fc3d f34a bd3c 4985 0d3e efdf 0b3e
00000330: e895 29bd fe64 e63b 9fb5 1e3e 8ea6 8a3d
00000340: 214f 6abe dfac 01be fae5 80bd 4f95 af3d
00000350: d23e 173e 3edd cc3d d605 49bc a1a1 7bbd
00000360: 3d5a d93d 78e1 333d 77a5 423d 00fa 38be
00000370: 816e 80bd 9b89 eb3d dd9a f5bb 0418 81bd
00000380: 7ca2 c03c 4339 cbbd 50ac 6e3c 181d ec3d
00000390: 79e3 53bd 8450 593b 4d1f c53d 037e 21be
000003a0: 6388 c93d 7f2f 74bd 2858 023d 3ab8 963c
000003b0: 5364 e13d 1c4f 3d3d ef4b 18be b65a 8f3c
000003c0: a554 963c a5c4 2cbd fbf2 8abe b8c7 d63d
000003d0: 8f95 c9bd 9551 ce3d 4d41 02be d161 a43d
000003e0: 2cfb ddbc 854c 0c3e a62f a6bd 6f4e e73d
000003f0: 62a9 043e 153f 953d 3635 58be e0bc d33c
0.10567819 -0.0021928847 -0.00589806 -0.03383795 0.051190086 0.04628338 -0.09709698 -0.020896403
0.047469236 -0.036709186 0.12470363 -0.07336593 -0.05621773 -0.114988096 0.008767183 0.11780594
-0.13060617 0.1443363 0.11648541 -0.14505126 -0.06400222 0.08169231 0.14962815 -0.02475442
0.10445201 -0.15614028 0.14736721 -0.034292668 0.01169079 -0.06531659 0.13156046 0.122607715
0.024589837 0.13878086 0.18032587 0.07113898 0.048050888 -0.06922676 -0.099623986 -0.094553374
0.11208377 0.11475314 -0.102521695 -0.02781473 0.13883443 -0.12285678 -0.060596135 -0.10884598
-0.046117704 0.0037046259 -0.12629308 0.032926887 -0.08243129 0.03717778 -0.054171287 0.006713084
0.09342618 0.1511201 0.13545917 -0.13008605 -0.14838538 0.14135781 -0.17348656 0.07788842
0.058900617 0.010361707 0.016840447 0.044761527 0.054070182 -0.06627658 -0.03260279 -0.11411929
-0.14283425 0.093083255 0.09828865 -0.05156392 0.099948354 -0.08924067 0.044298906 0.101189435
0.06504517 -0.023148533 -0.14286348 0.08971543 0.10117763 -0.16077971 0.15891734 0.007917857
-0.24452679 -0.098858066 0.022946458 -0.053505074 0.16202776 0.042022713 0.08553606 0.058376316
-0.06835528 0.10086422 -0.055017438 0.0033037015 0.04114349 0.03943037 -0.07127225 -0.040222477
0.10806471 -0.07985826 0.045847304 -0.07538379 0.09192667 0.06281938 0.066158034 0.15169397
-0.009143219 0.025131274 -0.0365445 -0.114969864 -0.08015907 0.107926294 -0.074746445 -0.012829554
-0.09550492 -0.059094395 -0.006113481 0.06933142 0.018335938 0.15707609 -0.08007324 -0.13181157
0.12678775 0.043916658 0.072454385 -0.18152449 0.12657535 0.06200932 0.0026603856 0.05743206
-0.08375873 0.17205316 0.091472335 -0.12720956 -0.076311685 -0.11880808 0.009623175 0.09901296
0.1417928 -0.13200356 0.10730671 0.07600181 -0.05730874 -0.16430815 -0.023528716 0.113624446
-0.17986599 0.050428875 -0.10930746 -0.15171662 -0.01555467 -0.018735139 0.11058422 0.13243231
-0.0398547 -0.0836304 -0.21600829 -0.09002734 -0.114173025 -0.18753631 0.13512711 -0.075407505
-0.12697767 0.17178208 -0.17462298 -0.05676151 0.21393497 0.09204727 0.08170087 0.026182758
0.008646176 0.101242006 -0.03432231 0.05438837 -0.00851607 0.056757186 -0.11608683 0.02220796
-0.05291222 0.089935556 0.005400585 0.065472096 -0.00074246165 -0.1497764 0.09378764 -0.17456694
-0.04104503 -0.06455679 -0.009039372 -0.0049970313 -0.06789356 0.09593696 -0.036926858 -0.050792284
0.12336842 0.023107028 0.13820376 0.13659643 -0.041402727 0.007031082 0.1549897 0.06770049
-0.22881748 -0.12663601 -0.062938645 0.085734 0.14770058 0.10003136 -0.012269458 -0.06143344
0.10612915 0.043916196 0.04752108 -0.18064117 -0.06271077 0.115008555 -0.007495268 -0.06303409
0.023514979 -0.09923031 0.01456745 0.11528987 -0.051730607 0.0033159563 0.09625111 -0.15770726
0.09840467 -0.05961561 0.031822354 0.018398393 0.110054635 0.046218023 -0.14872716 0.017499309
0.018350909 -0.042179722 -0.27138504 0.10487312 -0.09842979 0.10074154 -0.12720223 0.080264695
-0.027097307 0.13701065 -0.08114557 0.11294257 0.1295524 0.072874226 -0.21114048 0.025846899

local2.norm.weight f4 [128]
00000000: fb23 723f 9a99 7c3f cfbc 703f efa9 7a3f
00000010: 84a1 5c3f 5ee2 663f 23f2 643f 7cba 6a3f
00000020: 6b4d 7f3f e553 673f 6da8 703f fbdc 733f
00000030: 16c2 7e3f 8fcc 7d3f 0ff8 723f 34bb 7c3f
00000040: 23f7 6f3f 6aa8 6e3f 69e5 7f3f 1654 723f
00000050: 9610 833f 0238 623f 42c9 673f c111 793f
00000060: 0d2c 7c3f c4bc 6a3f 82f3 813f f2a1 753f
00000070: 2fa1 7f3f 564f 753f 0730 753f 640f 803f
00000080: 320d 803f 1f63 6c3f 8a3a 883f e0e8 623f
00000090: e842 763f 317e 6d3f e5f4 693f 8bb4 663f
000000a0: c4ee 703f a4d6 743f 07b7 6d3f 20f0 843f
000000b0: 2a9a 773f 9ebd 6c3f 8198 613f 3041 723f
000000c0: 4571 763f 6c85 6b3f 7126 813f 8b86 8e3f
000000d0: deb4 7a3f 0ae5 743f b535 6e3f ff77 863f
000000e0: 19e3 823f e9cb 773f 91ba 853f 1703 693f
000000f0: 58ed 793f 357b 7b3f b434 713f cba5 6b3f
00000100: 34a7 813f cdb3 733f 04dc 7b3f 82ba 7a3f
00000110: 0d13 703f 290b 6c3f 8b56 853f cc2f 693f
00000120: 90b6 773f 9f2b 8e3f 36cf 803f 9c8f 763f
00000130: 7557 723f fcb3 7d3f 9daa 723f 4628 823f
00000140: bb21 733f b612 733f bd47 833f c643 7e3f
00000150: a7ee 7c3f bc28 6d3f 6768 753f d8b0 7a3f
00000160: 942e 893f f233 603f a877 823f 2204 7d3f
00000170: 9968 803f 9b99 6a3f 9ddd 863f 7ea4 763f
00000180: c63a 793f ca19 713f 609a 783f 5f55 783f
00000190: dc90 7f3f 2bbc 863f a2d3 853f 7e39 6c3f
000001a0: b546 753f 7903 743f a49d 6e3f dc10 743f
000001b0: 4480 743f ee0f 7d3f 71cf 683f 7c19 723f
000001c0: d404 7a3f efd3 803f 1220 753f 0ca7 683f
000001d0: d45d 683f 517a 7c3f c037 883f 25d5 763f
000001e0: c323 7f3f 1ee9 7c3f db71 7c3f c3e0 763f
000001f0: 1ca6 793f c413 613f 4830 703f 34ed 6c3f
0.9458615 0.9867188 0.940381 0.9791555 0.86183953 0.9018916 0.8943197 0.916908
0.99727505 0.9036239 0.94007 0.95259064 0.995149 0.99140257 0.9490976 0.9872315
0.93736476 0.9322573 0.9995943 0.94659555 1.0239437 0.8836671 0.9054147 0.97292715
0.98504716 0.91694283 1.0152438 0.95950234 0.9985532 0.9582418 0.9577641 1.0004697
1.0004027 0.92338747 1.0642865 0.8863659 0.9619584 0.9277068 0.91389304 0.90119237
0.9411433 0.95640016 0.928574 1.038578 0.9671961 0.9247683 0.8812333 0.9463072
0.96266586 0.9200046 1.0089856 1.1134809 0.9793223 0.95661986 0.930507 1.050537
1.0225555 0.9679552 1.044756 0.9102034 0.9762778 0.98234874 0.94221044 0.92049855
1.0129151 0.9519623 0.9838259 0.9794084 0.9377907 0.9220453 1.0417036 0.9108856
0.96762943 1.1107062 1.0063236 0.9631288 0.946647 0.9910276 0.94791585 1.016854
0.94973344 0.94950426 1.0256268 0.99322164 0.98801655 0.9264028 0.9586243 0.9792609
1.071734 0.8757926 1.0192766 0.9883443 1.0031921 0.91640633 1.0536381 0.96344745
0.97355306 0.94179976 0.9711056 0.97005266 0.9983041 1.0526174 1.045521 0.92275226
0.95811015 0.953178 0.9320929 0.95338225 0.9550822 0.9885243 0.9094153 0.94570136
0.9766362 1.0064677 0.9575206 0.90879893 0.9076817 0.9862414 1.0642014 0.9641898
0.99663943 0.9879321 0.9861123 0.9643671 0.9751909 0.87920785 0.9382367 0.92549443

local2.norm.bias f4 [128]
00000000: b251 acbd 1c5c 4ebd ec2f c8bd 5db3 8fbd
00000010: 6d9c 23be 5d66 1ebe 3335 febd 7012 a8bd
00000020: 0fbe 5dbd 3b98 ecbd 42a1 b2bd d317 b5bd
00000030: a553 3cbd 02ce b0bd d1da a4bd 7f44 f9bc
00000040: a453 9abd 0090 c5bd ef75 10bd 2064 49bd
00000050: 20f9 83bd 0026 19be 15c9 04be 04a6 82bd
00000060: e4d6 29bd 8f0a 06be 3f4e 6cbd 5705 a9bd
00000070: 8369 9abd f417 e1bd 8384 9dbd 187d 9fbd
00000080: e927 cebc 0739 d0bd 2bdf d53c 63bf d8bd
00000090: e26a 8fbd 1361 e6bd fbbb ebbd 9db9 0ebe
000000a0: 9983 bebd 513b b2bd 4a4d 8ebd c6d5 0fbd
000000b0: 7f92 44bd 5370 dabd e240 13be 5f4a 9cbd
000000c0: b022 84bd 215a c8bd 175f c4bc a647 16bd
000000d0: 636d 2dbd 3678 70bd e2e5 cdbd ab21 ffbc
000000e0: 4685 f4bc ca91 41bd a147 a5bc bed4 e2bd
000000f0: 8cf6 7bbd 8262 10bd 394b b8bd 6fcb a7bd
00000100: 78e5 10bd 5557 7abd 6e0a b9bd d618 5ebd
00000110: 9be8 6fbd 928d 90bd f8b8 14bd ad93 eebd
00000120: bc97 b1bd 60a2 3dbd 3401 98bd 711e 8abd
00000130: 68c9 8dbd 129c 8abd 284b 88bd ddfd dbbc
00000140: 89e6 95bd 56df 91bd a184 65bd d10a 9bbd
00000150: 8354 85bd 5dee 95bd 0bec 85bd bdc9 68bd
00000160: 3e9b e7bc 4875 04be d2df a3bd ee3a a2bd
00000170: aef3 34bd c300 d3bd 4c85 44bd 4f42 cbbd
00000180: 0b4e 67bd 6a27 a5bd 93a7 70bd 223b 9bbd
00000190: c61d 70bd 455b f6bc f75d 2cbd e60e b3bd
000001a0: 3d90 b3bd 60c9 9fbd c253 bfbd 760a 4fbd
000001b0: f879 24bd 24c0 06bd 0517 97bd 256e 4fbd
000001c0: 8e16 d8bd cb15 9fbd 77d8 42bd f30a c5bd
000001d0: 2126 e2bd 5ad3 a0bd ff5c 2dbd 934d 54bd
000001e0: a0c5 9fbc 027a 79bd 8a3c 14bd 1b24 5fbd
000001f0: a301 87bd 0d4f fabd 6ca8 ebbd 12c9 d7bd
-0.0841402 -0.05038081 -0.09774765 -0.07016633 -0.1597764 -0.15468736 -0.12412491 -0.08206642
-0.054136332 -0.11552473 -0.08722164 -0.08842435 -0.045978207 -0.08633043 -0.080495484 -0.03042817
-0.075354844 -0.096466064 -0.03526872 -0.049167752 -0.06444001 -0.14955902 -0.12967332 -0.06379321
-0.0414647 -0.13089965 -0.05769181 -0.082529716 -0.07539656 -0.10990897 -0.0769129 -0.077875316
-0.025165515 -0.10167127 0.026107391 -0.10583379 -0.07002808 -0.11248984 -0.11510464 -0.13937993
-0.09302444 -0.0870272 -0.069483355 -0.03511598 -0.047991272 -0.106659554 -0.1438022 -0.07631373
-0.064519286 -0.09782816 -0.023971124 -0.036689423 -0.042340647 -0.058708392 -0.10053612 -0.031143984
-0.029848706 -0.047258176 -0.020175757 -0.110757336 -0.061514422 -0.035250194 -0.089987226 -0.08193099
-0.03537509 -0.061118443 -0.090351924 -0.054222904 -0.05857144 -0.070582524 -0.036309212 -0.11649261
-0.08671519 -0.04629743 -0.074221045 -0.067440875 -0.06923181 -0.06768049 -0.0665496 -0.02685445
-0.07319362 -0.07122676 -0.056034688 -0.075704224 -0.0651026 -0.07320855 -0.06539162 -0.056833018
-0.028272267 -0.12935364 -0.08001675 -0.07921396 -0.044177704 -0.1030288 -0.047978684 -0.09924757
-0.056470912 -0.08064158 -0.05875356 -0.07579638 -0.058622144 -0.030072818 -0.0420818 -0.08743076
-0.08767746 -0.07802081 -0.093421474 -0.050547086 -0.04015538 -0.032898083 -0.073774375 -0.05064215
-0.10551177 -0.077678286 -0.04756972 -0.09621229 -0.11042429 -0.07852812 -0.042325016 -0.051831793
-0.019503415 -0.06090737 -0.036190547 -0.054477792 -0.06592109 -0.12222109 -0.11506733 -0.10536398

meso.Wq.weight f4 [128, 128]
00000000: 1585 8d3d 4fb6 b13c c413 2b3d ca23 04bd
00000010: e35e eebd bac6 2d3c 95aa 61bd 2259 db3d
00000020: be1f 8abd f79f a13d b705 59bd 3c0c 623d
00000030: 9b6e 3bbc 46a7 963c 379a 763b b115 043e
00000040: 5407 02bd bdc1 b7bc 5e09 6b3d 4abc f0bc
00000050: 06fc 0cbc 2847 723d a947 863d e8c3 033c
00000060: bbb6 09bd 19de f8bd 1135 dbbb 8515 cb3d
00000070: c009 e0bd ec63 91bd cda2 74bd 5183 dbbd
00000080: ae43 133d eabf bd3d e486 94bd 0062 cbbc
00000090: 4fd2 c63d 1b3b c3bd 0c12 b7bc 7ad6 0ebd
000000a0: 15c3 ec3c 8880 3c3c f246 403d 2d9d 31bd
000000b0: 7776 403d ac90 c53a 61b1 12be 771d b53d
000000c0: 2c21 093e 916e df3d f82b a0bc fcf1 60bd
000000d0: 6134 a63d 6766 3e3c 06a1 2fbd 3c18 4dbc
000000e0: e747 1e3e 06a0 55bb f61c 09be 8172 f0bc
000000f0: 4e62 beba 6735 0abd f578 803d 1f9b ae3d
00000100: 808e 07bb ca9c a7bd be87 14be d6ae 94bd
00000110: c38c 3ebd 2796 4e3c df1a 913d 743a 4bbd
00000120: e8ce e5bc 69bc acbd 0442 073c 209f bebd
00000130: d04c 963d 5540 eabd dfcf 21bd df22 313d
00000140: bfb3 563d 01e8 eabc 9f97 82bb 5559 683c
00000150: ef29 80bc 83b2 cdbb aca8 47bd 1d05 b83d
00000160: 047f 6e3d 1624 82bd bedc bbbc 3a98 b53c
00000170: 2fc4 76bb 5d85 59bd 9918 7c3d d3d8 cbbd
00000180: c69a 483d c563 c9bc 2c59 07bd 2995 20be
00000190: 729c 53bd 111f b5bd b031 66bd a80d 5b3b
000001a0: 112d b43d 0bee d33c 7729 f53d f217 803d
000001b0: 9bf5 493c a24c cf3b 728e 26bc 33c2 d63d
000001c0: 0a19 fa3d aa1b 5bbd 329f 263c fce6 a83d
000001d0: d6d6 4bbd 293c 5ebd 52e5 e93c 6cc9 3a3d
000001e0: 8a74 b5bb 2004 59bd bed6 c03d 3aca 133a
000001f0: 0362 0cbd 2bc9 443d 972b a9bd 6723 0dbd
00000200: bf94 283d 6d68 babc 05e6 46bd e8b9 e63d
00000210: 6d93 0fbd 0478 1dbd 3f1a 25bd 0573 463d
00000220: 22c3 553d 154f cabc 8d74 653d e2c2 d53d
00000230: 0e72 8fbd 0025 7fbd a5cf 59bd bf1a 96bd
00000240: 62dd 59bd 98a5 dc3d 0a4b 03be a159 e33d
00000250: 60b5 a63c 5da0 2dbd 9529 29be b1a5 623d
00000260: d883 8e3d 6189 093e 888b 853c 16f6 39bd
00000270: 9bf1 1c3d 2b2b c73d b0b1 863d 5806 70bd
00000280: 58c6 a53d c1b6 0abd f244 123c 6d1c b339
00000290: 48ad a63d e676 b63d 18bd f3bd 4c55 e43c
000002a0: ea41 ce3d 0e80 503c 583a 36bd ea28 a4bd
000002b0: 7340 303d a4f7 87bb decb dabb 065a 893d
000002c0: 5e3b 4b3d 7332 4cbc ba1e f83d 4678 7d3b
000002d0: 38e0 7c3c 166d dbbc 9f99 9b3d d1f7 f53c
000002e0: a65e 783d e7ca a13d 9674 c9bd 9f8b 683b
000002f0: 9f06 8fbd cfad 143e 0465 42bd 03b5 a93d
00000300: c45c c4bd 48fa 213d a338 843b fe01 943d
00000310: 41fe 8e3d fe44 29bd 2ee1 1bbe 9630 0bbb
00000320: be6d ebbd 6c03 89bd 47e0 a53d 3f40 4fbd
00000330: 86bc 6fbd 0f4e e53d 8cc0 073e 91cd b33d
00000340: 8c7f 72bd 6837 0c3a 0c6d 51bd 5998 45bc
00000350: da8a b1bb cda7 bebd 7622 a33d 2f46 223e
00000360: a944 d7bc 35a4 d13c 827b c3bd 40aa a83d
00000370: d724 a73d 029e b23c ceeb 28bc a21b 133d
00000380: 4a5f 913b 68ba 7fba e59c b93c d62d 1fbc
00000390: e313 b0bc f6ed 08bd 4313 8d3a 9a59 983d
000003a0: bedb 42bd de8a 83bd 6688 acbd 3377 08bd
000003b0: 0e47 cc3d fc43 89bd f4a3 b93c f4f4 3b3d
000003c0: e5c9 05be 504d 04bd 808b 7abc ff82 02be
000003d0: 39c3 c93d 6319 1ebd 67cf 453d 4733 e7bd
000003e0: 952f 28bd 1134 453c 6453 b5bc fd3f 9fbd
000003f0: c0ec cd3c 1ba3 923d 2cd0 183d 86bb d0bc
0.06910149 0.021693377 0.041766897 -0.032260694 -0.11639192 0.010606462 -0.05509432 0.1071036
-0.067443356 0.07891839 -0.052983966 0.05518745 -0.011439945 0.018390309 0.003762854 0.128989
-0.03174527 -0.022431249 0.05738198 -0.029386658 -0.008605009 0.05914989 0.06556637 0.008042313
-0.03362153 -0.12151737 -0.0066896756 0.09916214 -0.1093936 -0.07099137 -0.05972557 -0.10718406
0.035953216 0.0926512 -0.07252291 -0.024827003 0.09708082 -0.09532758 -0.022347473 -0.03487251
0.028901616 0.011505254 0.04694266 -0.043362785 0.046987977 0.0015073023 -0.14325477 0.088435106
0.1339156 0.10909761 -0.019552216 -0.054918274 0.08115459 0.011621094 -0.042878173 -0.012517985
0.15457116 -0.0032596602 -0.13389954 -0.029351475 -0.0014525147 -0.033742335 0.06273071 0.08525681
-0.0020684302 -0.08184202 -0.14504907 -0.0725991 -0.04652096 0.012609041 0.070852034 -0.049616292
-0.028052762 -0.08434374 0.008255485 -0.093076944 0.073388696 -0.114380516 -0.039504882 0.043246146
0.052417513 -0.028675081 -0.00398536 0.014181455 -0.015644995 -0.006277384 -0.048744842 0.0898535
0.0582266 -0.06354539 -0.022932407 0.022167314 -0.0037653556 -0.0531057 0.061546896 -0.09953465
0.04897573 -0.024583707 -0.033044025 -0.156819 -0.05166287 -0.08843816 -0.05619973 0.0033424888
0.08797658 0.025870344 0.119707994 0.06254567 0.012326623 0.006326274 -0.010165798 0.10486259
0.12211807 -0.05349318 0.010169791 0.08247182 -0.04976543 -0.054256592 0.028551731 0.045602247
-0.005537574 -0.05298245 0.09415959 0.0005637739 -0.03427316 0.04804341 -0.08260267 -0.03445759
0.04115748 -0.022754872 -0.048559207 0.112659276 -0.035052706 -0.038444534 -0.040308233 0.048449535
0.052188046 -0.024695912 0.056019355 0.104375616 -0.07004176 -0.062291145 -0.05317654 -0.0732932
-0.053189643 0.10773772 -0.12821594 0.1110108 0.020350158 -0.042389262 -0.16519769 0.055333797
0.06958741 0.13431312 0.016301885 -0.0454007 0.03831635 0.097250305 0.0657686 -0.0585998
0.08094472 -0.033865694 0.008927571 0.0003416272 0.081385195 0.08909397 -0.11901301 0.027872704
0.10071166 0.012725843 -0.044489235 -0.08015616 0.043030214 -0.004149394 -0.006677135 0.06706624
0.049617164 -0.0124632 0.121152356 0.0038676425 0.015434317 -0.026785415 0.0759766 0.030025395
0.06063714 0.07900029 -0.0983669 0.0035483611 -0.06983685 0.14519428 -0.047459617 0.08286478
-0.09588006 0.039545327 0.004035072 0.072269425 0.06982089 -0.04132556 -0.15222618 -0.0021238676
-0.11495541 -0.06690106 0.08099418 -0.05059838 -0.0585294 0.11196529 0.13257045 0.08779443
-0.05920367 0.00053488323 -0.051129386 -0.012060248 -0.0054181637 -0.09309349 0.07965557 0.15847085
-0.026277857 0.025590995 -0.095450416 0.082355976 0.081613235 0.02180386 -0.0103101265 0.035915025
0.004436408 -0.0009755255 0.022657821 -0.009715518 -0.021493858 -0.033430062 0.0010763187 0.07438965
-0.047572844 -0.06422971 -0.084244534 -0.033316802 0.0997449 -0.0670242 0.022661187 0.045887902
-0.13065298 -0.032300293 -0.015292048 -0.12745284 0.09851689 -0.03859843 0.048293497 -0.11289077
-0.041061003 0.012036339 -0.02213449 -0.07775877 0.025137305 0.07160016 0.037307903 -0.025480043
