models/eeg_only/s_29.pt (torch, 561186 bytes, 37 tensors)

band_attn.fc1.weight f4 [8, 5]
-0.14764956 0.36611074 0.45112506 -0.23062947 -0.01611412 0.34605336 0.48493373 -0.42381933
-0.2541931 -0.1261966 -0.04319606 0.25593632 0.2921577 -0.17739041 -0.08784317 0.15069696
-0.3293562 0.16919631 -0.3960224 -0.42376527 -0.3632678 -0.13419536 -0.2792427 0.1420109
-0.30291873 0.29484734 -0.42204764 -0.2535463 0.11398191 -0.33794883 -0.22092041 0.074044384
-0.2643586 0.31398225 0.13441643 -0.14333011 -0.6183912 0.03240752 0.11410348 -0.084824674
00000000: 7231 17be de72 bb3e ddf9 e63e 222a 6cbe
00000010: c201 84bc e82d b13e 3c49 f83e d9fe d8be
00000020: 9925 82be ae39 01be 5aee 30bd 160a 833e
00000030: b295 953e d5a5 35be 1fe7 b3bd 4e50 1a3e
00000040: 60a1 a8be cc41 2d3e 73c3 cabe c3f7 d8be
00000050: 3dfe b9be 826a 09be e6f8 8ebe 4e6b 113e
00000060: 2a18 9bbe 3bf6 963e a116 d8be d2d0 81be
00000070: 596f e93d a107 adbe f638 62be 95a4 973d
00000080: 035a 87be 48c2 a03e 76a4 093e 21c5 12be
00000090: e34e 1ebf bfbd 043d 16af e93d 8fb8 adbd

band_attn.fc1.bias f4 [8]
-0.35093248 -0.22880755 0.26568323 0.2696697 -0.2429367 -0.059597377 0.39944705 -0.034001455
00000000: 6cad b3be 874c 6abe a207 883e 2612 8a3e
00000010: 66c4 78be 611c 74bd 5384 cc3e 1c45 0bbd

band_attn.fc2.weight f4 [5, 8]
0.10819594 -0.4301797 -0.25314006 -0.2982283 -0.19399059 -0.3779963 -0.20566626 -0.05799157
-0.08429584 -0.12267222 -0.26119128 -0.1387742 0.18074718 -0.020998051 0.12854777 0.38267758
0.31948113 0.5777073 0.005999472 0.25114676 0.11088806 0.25994864 -0.17110214 -0.18243
0.25157356 -0.53359586 0.22050802 -0.15150802 0.11640179 -0.19742164 -0.34721467 -0.42434028
-0.018813565 -0.29036355 -0.09208925 -0.022212252 -0.2914008 0.3244696 -0.3019927 0.100119956
00000000: d595 dd3d 8340 dcbe 939b 81be 61b1 98be
00000010: 78a5 46be bb88 c1be 2d9a 52be 9288 6dbd
00000020: 4ca3 acbd 933b fbbd ddba 85be d31a 0ebe
00000030: ca15 393e 1b04 acbc 07a2 033e 51ee c33e
00000040: 0893 a33e a0e4 133f 3897 c43b 4f96 803e
00000050: 4719 e33d fd17 853e 6635 2fbe eece 3abe
00000060: 40ce 803e bd99 08bf dbcc 613e eb24 1bbe
00000070: 1064 ee3d e628 4abe 1fc6 b1be 2143 d9be
00000080: e81e 9abc 88aa 94be 4a99 bcbd 78f6 b5bc
00000090: 7c32 95be e120 a63e ca9e 9abe b10b cd3d

band_attn.fc2.bias f4 [5]
-0.23425421 -0.053396795 0.3256661 0.045757864 -0.15564008
00000000: 56e0 6fbe 99b6 5abd b5bd a63e 996c 3b3d
00000010: 1d60 1fbe

feat_proj.weight f4 [128, 21]
0.12370746 -0.1539194 -0.28434134 -0.23260021 0.32447946 -0.013782223 0.19198702 -0.059927385
-0.084106095 0.16230927 -0.10320669 0.24634795 0.091125764 -0.18909256 -0.22552955 -0.057233192
0.18145666 -0.09448779 -0.12925415 -0.061429713 -0.066140324 -0.26612478 0.07398788 -0.065016575
-0.1635817 0.21716063 -0.20675924 -0.10844654 0.18098699 -0.12665778 0.11215957 0.13492483
0.22169949 0.0982798 0.10997357 -0.032805905 0.1309569 0.04970435 0.08976517 0.041930586
-0.19417472 -0.12157893 0.027209435 0.19380938 -0.1853737 0.24422017 0.14165026 -0.031555858
-0.028014012 0.11937574 -0.064742036 -0.012758615 0.18780744 -0.10230766 -0.007333604 0.14330386
-0.035694927 0.115724005 -0.1327211 -0.054921437 0.16899955 0.016143486 -0.28270903 0.19694343
-0.40313685 0.18435058 -0.02740544 -0.17609882 0.032205798 0.06390386 0.15710792 0.12863767
-0.13088974 -0.16580087 0.10264136 0.1573523 -0.0075236578 0.17302853 0.030136982 0.03451244
-0.019994747 -0.18215658 0.22356562 -0.05746284 -0.16981149 -0.078188464 0.07719436 0.07202434
0.081627704 -0.09225176 -0.1840998 0.08381393 0.100114636 -0.10743781 0.088473886 0.07312594
0.016354041 -0.016159393 -0.15012476 0.096186355 0.21222761 -0.16815297 -0.1506862 -0.09904705
-0.17724724 0.242297 -0.22483632 0.34321558 -0.2563602 -0.38224855 -0.0025384664 -0.21404815
-0.1142539 0.002786058 0.14026883 0.19895236 -0.09075563 0.012273656 0.026216099 0.15497859
-0.20862427 -0.10457906 0.099273324 -0.22791824 0.213062 -0.13527687 -0.12552102 0.059324924
-0.21779643 -0.18895677 -0.12312656 0.022624873 0.1368495 0.05688973 -0.00041985474 0.15435527
0.05695742 -0.06896309 0.18092333 -0.16260763 0.036074508 0.17381124 -0.15371977 -0.12044316
0.12133348 -0.11200232 -0.13954893 0.11838624 -0.22009997 0.03143684 -0.002110419 0.32711
0.11005763 -0.07497426 0.12973917 0.07300061 -0.057209518 0.09820233 0.14364187 -0.023904847
0.047383707 -0.14085084 0.007820331 0.22852261 -0.16574572 -0.188326 -0.15037952 0.17483741
0.16242243 0.120730065 -0.008151563 0.15528302 -0.13561429 0.18075804 0.17603378 -0.10485644
0.021993479 -0.10010374 -0.2157066 -0.14361235 -0.14266318 0.12451641 0.18954901 -0.18259066
0.09443585 0.13405347 0.18880132 -0.27441302 -0.06597853 0.1766283 -0.122750334 -0.09420253
0.21467532 0.020266877 -0.14955834 0.16326137 0.069640175 0.14214025 0.063586004 -0.1357711
0.060262077 -0.14027405 0.17174223 -0.011203632 0.08906052 0.032174118 -0.046701964 0.024670811
-0.11281733 0.099649474 -0.33979422 0.24385734 -0.09027459 -0.20722362 0.08812312 0.011886254
0.08952651 -0.05910189 -0.040101092 -0.089302726 -0.106057286 0.22521587 -0.19983882 -0.06697077
-0.071846485 0.17900807 -0.006114334 -0.06485986 0.10240032 0.21917525 0.07196939 -0.051241618
-0.18418014 -0.13905166 0.15481927 0.13695592 -0.01632176 -0.004855404 0.05581718 0.04672093
-0.010122548 0.11504839 0.110459544 0.017848292 -0.09113964 0.028555136 0.18777752 -0.022357987
0.12796822 -0.022513622 -0.21441352 0.046124347 0.087407574 -0.013941315 0.16483372 0.09542411
00000000: 565a fd3d 0c9d 1dbe 3095 91be c02e 6ebe
00000010: 2c22 a63e d5ce 61bc 3f98 443e 6b76 75bd
00000020: d13f acbd 6734 263e 075e d3bd a342 7c3e
00000030: 25a0 ba3d 7ba1 41be 38f1 66be 5a6d 6abd
00000040: c6cf 393e d082 c1bd 335b 04be b99d 7bbd
00000050: 9474 87bd 8241 88be f586 973d 6927 85bd
00000060: f681 27be 5b5f 5e3e b2b8 53be 3819 debd
00000070: a754 393e 94b2 01be ebb3 e53d bc29 0a3e
00000080: 3105 633e eb46 c93d d339 e13d 7c5f 06bd
00000090: 9119 063e ca96 4b3d cdd6 b73d 68bf 2b3d
000000a0: bdd5 46be 60fe f8bd 52e6 de3c f775 463e
000000b0: 9ad2 3dbe da14 7a3e c40c 113e b740 01bd
000000c0: a47d e5bc 457b f43d 7997 84bd 8309 51bc
000000d0: 9850 403e ae86 d1bd bb4e f0bb 3fbe 123e
000000e0: d834 12bd b500 ed3d 0ae8 07be 4df5 60bd
000000f0: 380e 2d3e 583f 843c 3dbf 90be 8aab 493e
00000100: f467 cebe 66c6 3c3e 6081 e0bc 4053 34be
00000110: 3aea 033d 07e0 823d e6e0 203e 98b9 033e
00000120: f607 06be b4c7 29be a235 d23d f620 213e
00000130: 0489 f6bb 642e 313e d5e1 f63c eb5c 0d3d
00000140: 06cc a3bc 4187 3abe 63ee 643e 285e 6bbd
00000150: 10e3 2dbe 4621 a0bd 1418 9e3d 7f81 933d
00000160: 6d2c a73d 7eee bcbd a884 3cbe a3a6 ab3d
00000170: e708 cd3d 5b08 dcbd cc31 b53d 0ec3 953d
00000180: e9f8 853c b460 84bc 4eba 19be 5afd c43d
00000190: 3252 593e 4b30 2cbe 7c4d 1abe 2ed9 cabd
000001a0: 4d80 35be b41c 783e 7e3b 66be f4b9 af3e
000001b0: a541 83be 15b6 c3be 665c 26bb 702f 5bbe
000001c0: f3fd e9bd 4c96 363b a2a2 0f3e 2bba 4b3e
000001d0: 16de b9bd 7217 493c 25c3 d63c b5b2 1e3e
000001e0: 9aa1 55be 8c2d d6bd d04f cb3d 6663 69be
000001f0: ed2c 5a3e 0586 0abe 9588 00be b1fe 723d
00000200: 0706 5fbe e27d 41be c729 fcbd cc57 b93c
00000210: 4622 0c3e 3505 693d f31f dcb9 4f0f 1e3e
00000220: 2f4c 693d 853c 8dbd f743 393e 9d82 26be
00000230: ddc2 133d 93fb 313e b768 1dbe e7aa f6bd
00000240: b07d f83d 7961 e5bd eae5 0ebe 7c74 f23d
00000250: e361 61be eac3 003d f54e 0abb f67a a73e
00000260: e565 e13d 1b8c 99bd 58da 043e 5881 953d
00000270: 8754 6abd 4e1e c93d db16 133e 19d4 c3bc
00000280: 6b15 423d 343b 10be d820 003c d501 6a3e
00000290: 3fb9 29be 88d8 40be 17fd 19be 9408 333e
000002a0: 1152 263e 5341 f73d 228e 05bc 8302 1f3e
000002b0: 79de 0abe a318 393e 3342 343e f9be d6bd
000002c0: ab2b b43c 3103 cdbd 31e2 5cbe 1e0f 13be
000002d0: 4c16 12be 7602 ff3d 2319 423e 0cf9 3abe
000002e0: 9567 c13d 5045 093e 2255 413e dd7f 8cbe
000002f0: c01f 87bd 0dde 343e 8764 fbbd 42ed c0bd
00000300: d9d3 5b3e b906 a63c d225 19be fd2d 273e
00000310: 829f 8e3d 378d 113e 6139 823d 9407 0bbe
00000320: 5ed5 763d 00a4 0fbe 32dd 2f3e 708f 37bc
00000330: 5d65 b63d 02c9 033d 8f4a 3fbd 711a ca3c
00000340: c60c e7bd 0615 cc3d 82f9 adbe bdb5 793e
00000350: e2e1 b8bd 6e32 54be e579 b43d 90be 423c
00000360: ad59 b73d d314 72bd 0b41 24bd 59e4 b6bd
00000370: 9034 d9bd fd9e 663e 8ca2 4cbe f927 89bd
00000380: 4024 93bd e44d 373e c05a c8bb 3fd5 84bd
00000390: 42b7 d13d 7a6f 603e b064 933d bbe2 51bd
000003a0: b899 3cbe 8f63 0ebe f188 1e3e 2c3e 0c3e
000003b0: 36b5 85bc 151a 9fbb 8ea0 643d 725e 3f3d
000003c0: 0bd9 25bc 7e9e eb3d 9d38 e23d 9536 923c
000003d0: 6ba7 babd 76ec e93c c048 403e 1928 b7bc
000003e0: 1a0a 033e 7d6e b8bc 388f 5bbe e2ec 3c3d
000003f0: be02 b33d 1d6a 64bc 2cca 283e b76d c33d

feat_proj.bias f4 [128]
-0.12252184 0.1347858 0.033548523 -0.035332683 -0.10822835 0.007974013 0.068813436 0.042613886
0.0026561108 0.15314852 -0.050827023 0.028159143 -0.05130974 -0.054078 0.056933567 -0.09097499
-0.05915491 0.11025204 -0.1429433 0.03904693 0.01743318 0.08666539 -0.0038389908 0.09206609
-0.12529077 0.08586404 -0.03630916 -0.012469842 -0.04857019 -0.028408334 -0.082208365 -0.11988301
-0.08880007 0.10655248 -0.12482659 -0.023240753 0.12913577 -0.1386478 0.17265144 0.039869234
0.14545962 0.002105591 -0.024793051 0.060292292 -0.18095714 0.097715735 0.054419197 0.04264293
0.15265122 0.12855098 0.085943796 0.093161635 -0.051889304 0.12657575 -0.07913482 -0.018185358
-0.11928523 -0.10158735 -0.021593116 -0.089914605 -0.0319344 0.020941399 0.032169867 -0.16502772
-0.050539233 0.06414929 -0.14989746 0.03274144 -0.18375751 0.0415697 0.1871442 -0.040969867
0.15610537 -0.17528903 0.120233215 0.055395693 -0.049071398 0.09758769 -0.044149056 0.014470479
-0.06325748 0.12308788 0.0055270703 -0.020972991 0.14655203 0.036926974 -0.16496623 -0.061762504
0.05658609 -0.16008438 -0.17691343 -0.14971423 0.10405991 0.00015300927 -0.027299957 -0.14936833
-0.06999386 0.13014942 0.023870276 -0.14277117 -0.07577963 0.031499468 0.014957286 0.13068727
0.10642533 0.17176545 -0.07248592 0.13225695 -0.003327099 -0.09522951 -0.015268917 0.03967647
0.1363467 0.12001292 -0.18436307 -0.14283444 -0.034097206 0.035815343 -0.17613623 0.013699757
0.09073555 -0.08872308 -0.056607082 0.11010264 -0.13035041 0.13020247 0.12092708 0.07465928
00000000: bbec fabd 4a05 0a3e 2d6a 093d 01b9 10bd
00000010: d3a6 ddbd 6fa5 023c 0fee 8c3d e68b 2e3d
00000020: 2512 2e3b f7d2 1c3e ff2f 50bd 01ae e63c
00000030: 292a 52bd e580 5dbd 2c33 693d 1851 babd
00000040: 6b4c 72bd d2cb e13d ba5f 12be acef 1f3d
00000050: 07d0 8e3c a07d b13d 9497 7bbb 258d bc3d
00000060: 394c 00be 7cd9 af3d eab8 14bd 4f4e 4cbc
00000070: 89f1 46bd 98b8 e8bc dc5c a8bd 3985 f5bd
00000080: d0dc b5bd 3038 da3d 15a5 ffbd 6463 bebc
00000090: 2b3c 043e b0f9 0dbe 8acb 303e ec4d 233d
000000a0: 5ef3 143e f4fd 093b cc1a cbbc 0df5 763d
000000b0: d44c 39be 301f c83d aae6 5e3d 5aaa 2e3d
000000c0: 9a50 1c3e dea2 033e 4d03 b03d 87cb be3d
000000d0: e189 54bd 139d 013e 7011 a2bd 76f9 94bc
000000e0: d14b f4bd 070d d0bd 0ce4 b0bc 2625 b8bd
000000f0: a5cd 02bd 4c8d ab3c 8dc4 033d 07fd 28be
00000100: 3a02 4fbd b460 833d b87e 19be e31b 063d
00000110: ee2a 3cbe fd44 2a3d bba2 3f3e 05d0 27bd
00000120: 16da 1f3e f87e 33be d53c f63d 98e6 623d
00000130: 17ff 48bd 0edc c73d a4d5 34bd 9715 6d3c
00000140: 238d 81bd 8015 fc3d 6d1c b53b 8dcf abbc
00000150: bc11 163e bd40 173d e8ec 28be aefa 7cbd
00000160: d1c6 673d 29ed 23be cb28 35be b04e 19be
00000170: 5d1d d53d 1d71 2039 29a4 dfbc 03f4 18be
00000180: f158 8fbd e445 053e 998b c33c 9b32 12be
00000190: 5a32 9bbd 9605 013d 680f 753c e2d2 053e
000001a0: 86f5 d93d 48e3 2f3e 7f73 94bd 5e6e 073e
000001b0: 750b 5abb b007 c3bd 7b2a 7abc cb83 223d
000001c0: 789e 0b3e 55c9 f53d acc9 3cbe 3143 12be
000001d0: 83a9 0bbd 1cb3 123d 0e5d 34be f274 603c
000001e0: 8fd3 b93d 72b4 b5bd d4dc 67bd 7e7d e13d
000001f0: 947a 05be cc53 053e 9ea8 f73d f7e6 983d

local1.conv.bias f4 [128]
0.0072479984 0.009138092 -0.011865355 0.0018580654 -0.0009025366 -0.021196373 0.0154332835 0.0005556042
0.025218869 -0.00869198 -0.019099988 -0.0045367973 0.010246988 0.00010443733 -0.0011422229 0.0013365881
-0.0094726235 0.0068193213 0.0003794397 -0.022486068 -0.027098618 0.011185033 0.015702141 0.001296418
-0.020466326 0.04089237 -0.0009579203 0.01741105 0.007750294 0.011407257 0.014271755 0.020680813
0.009290572 -0.0039225677 0.0004991344 -0.005869339 0.034228444 0.015650239 -0.00088037783 -0.0049995044
0.02062776 0.0056195986 0.0029869217 0.018469574 0.008152642 0.019054543 -0.02394827 -0.0015901445
0.012316326 -0.019771935 0.008727677 -0.039788637 -0.027615037 0.00430961 -0.0120829325 0.008499722
0.010540605 0.014029602 0.01971736 0.010771371 -0.008927474 0.009997091 -0.004283051 0.01657317
0.005573354 -0.010048113 0.0013633822 -0.0058730575 0.016266817 0.016782813 -0.004635401 -0.015350276
-0.01236542 0.01336449 -0.0054257163 0.019139055 0.0072299554 0.0016131564 0.0037723929 -0.013553756
-0.010824088 -0.02562096 -0.03581205 0.01037373 0.007706331 -0.0030121051 0.0015023387 0.0061089178
0.0046507875 -0.008531883 0.005292299 0.009636602 -0.0011851792 0.002088123 0.024277277 0.028086888
-0.02261927 -0.04023944 0.010467845 0.0030083018 -0.00015367726 -0.025892245 -0.009564388 0.017769901
0.011841009 -0.010683044 0.02116921 0.015937073 -0.002770541 0.013386816 0.01608571 0.004160883
0.013118946 -0.00054348895 -0.0008936818 -0.012299343 0.015706344 0.020325597 -0.0007727809 -0.010475923
0.01581478 0.0070237108 0.007065621 0.007102886 0.012633303 0.030962555 0.0112153515 0.0054610074
00000000: 9e80 ed3b f0b7 153c e866 42bc 548a f33a
00000010: 3598 6cba 04a4 adbc e2db 7c3c f7a5 113a
00000020: cd97 ce3c ce68 0ebc 9477 9cbc 6aa9 94bb
00000030: fce2 273c 5d05 db38 a4b6 95ba 7430 af3a
00000040: 1033 1bbc 9d74 df3b 89ef c639 b434 b8bc
00000050: ecfd ddbc 6e41 373c c7a1 803c 92ec a93a
00000060: ffa8 a7bc c27e 273d f11c 7bba 9ea1 8e3c
00000070: 2ef6 fd3b 81e5 3a3c 14d4 693c cf6a a93c
00000080: 7c37 183c e288 80bb 58d8 023a 9653 c0bb
00000090: 2033 0c3d ee34 803c 28c9 66ba e2d2 a3bb
000000a0: 8cfb a83c 9c24 b83b 3bc0 433b 814d 973c
000000b0: a992 053c 4618 9c3c 2a2f c4bc 656c d0ba
000000c0: 6aca 493c c1f8 a1bc 88fe 0e3c 69f9 22bd
000000d0: ee38 e2bc a137 8d3b 7ef7 45bc 6b42 0b3c
000000e0: 80b2 2c3c 6adc 653c 4d86 a13c 687a 303c
000000f0: 8a44 12bc d7ca 233c d658 8cbb 75c4 873c
00000100: afa0 b63b d7a0 24bc 84b3 b23a c772 c0bb
00000110: fd41 853c 1c7c 893c 90e4 97bb b97f 7bbc
00000120: 5598 4abc bcf6 5a3c 35ca b1bb 82c9 9c3c
00000130: 43e9 ec3b 8c70 d33a 403a 773b 9310 5ebc
00000140: 8457 31bc 0ce3 d1bc a8af 12bd 94f6 293c
00000150: 6485 fc3b bd66 45bb 1fea c43a 512d c83b
00000160: a265 983b 50c9 0bbc 066b ad3b d7e2 1d3c
00000170: 0458 9bba e4d8 083b 24e1 c63c 7916 e63c
00000180: 0c4c b9bc 1cd2 24bd 5381 2b3c ee26 453b
00000190: 6d24 21b9 f91b d4bc f3b3 1cbc 2f92 913c
000001a0: cb00 423c ef07 2fbc 0d6b ad3c 778e 823c
000001b0: f791 35bb 6054 5b3c 2ec6 833c 0458 883b
000001c0: d9f0 563c ed78 0eba f845 6aba 2f83 49bc
000001d0: 97aa 803c de81 a63c 7394 4aba 35a3 2bbc
000001e0: ff8d 813c 2827 e63b ba86 e73b 54bf e83b
000001f0: eafb 4e3c 2fa5 fd3c 98c0 373c 40f2 b23b

local1.conv.lin.weight f4 [128, 128]
-0.09706011 0.022826584 -0.025293222 -0.019547023 -0.050313357 0.024954991 -0.029630814 0.030188285
0.16299751 0.10041027 -0.013495765 -0.11025972 -0.099729255 0.037071638 0.13611042 0.07348609
-0.032692626 -0.06753403 -0.012425646 -0.018904217 0.05302079 0.1450403 -0.12609604 -0.1327754
-0.007585364 0.0050282762 0.055508565 -0.0965008 -0.035695452 0.009425607 -0.06503174 -0.021856207
0.18602574 0.13976847 -0.11203255 -0.11994065 -0.013561877 -0.13609026 0.07580195 0.098349355
-0.081774086 0.06499839 0.081014924 -0.11850641 -0.12515488 0.05269235 0.20159583 -0.086587146
0.118658416 -0.11326335 -0.11877138 0.07003692 0.11159915 0.06657637 -0.06904996 -0.09403137
0.12065679 0.13767454 0.06010947 0.0023909332 0.08340117 -0.033205103 -0.053369876 0.123257995
0.0022866144 -0.06965973 0.0043128286 0.08569647 -0.08105075 0.11164541 0.11034017 0.09196309
0.14948697 0.11344338 -0.08716611 0.04574008 0.11100344 0.07656289 0.016656226 -0.19843158
-0.050852604 0.002981674 0.06624552 0.03074458 -0.049097132 0.081030644 0.009407436 -0.12687448
0.13143565 -0.15246697 -0.14202593 -0.061431024 -0.10841434 0.12693498 0.040427953 0.01080455
-0.02122966 -0.085063614 -0.09312828 0.066723004 -0.15073223 -0.10233105 -0.021048592 0.020483073
-0.11206347 0.119781986 0.12408537 0.07887179 0.009770252 0.08331358 -0.027205972 0.12989402
0.013164617 0.11616805 -0.016902506 0.098071136 0.04838531 0.06981817 -0.08309323 -0.121682785
0.09037146 0.07409264 -0.10203935 0.007200621 0.028369086 0.07022947 0.1211269 0.029043766
-0.08644311 0.15904604 -0.14500627 0.016101735 -0.04058775 0.16615297 0.07733753 0.13518114
-0.20356843 -0.02534926 -0.16094007 0.0856561 -0.15786001 0.17090347 0.060507447 0.10649141
-0.11891629 -0.110900916 -0.081193365 0.08449626 -0.05435881 -0.025342928 0.049079183 0.16772258
-0.0148144085 -0.0967794 -0.037791375 0.14857453 0.16648671 -0.018072605 0.04344769 0.12261987
-0.007730369 0.057367623 -0.014022391 0.16519603 -0.020132363 0.16512634 0.07779667 -0.042303927
-0.11988422 0.12586243 -0.053967122 0.035514075 0.11585701 0.06656688 0.016308809 -0.25032645
0.117288105 0.050397463 -0.00918445 -0.15929826 0.012641549 -0.18846141 -0.0596522 0.06476412
0.05296546 -0.18300702 -0.076079346 0.14064588 0.053449277 0.18269534 0.01654785 0.15001436
-0.038001385 -0.08494662 -0.05113321 0.025047226 0.20569651 0.00038534857 -0.13184546 0.10400658
0.016960688 -0.08505159 -0.100523025 0.07409351 0.058251854 -0.045021173 0.022301175 -0.029357474
0.06417028 -0.07610273 0.06307403 0.12430773 -0.20754223 -0.017877933 -0.06065059 0.117493525
0.05451069 -0.053317666 0.047406103 -0.10063961 -0.25100818 -0.13490687 -0.08546305 -0.004025547
-0.07296675 0.028620716 0.17857508 -0.006527523 -0.08006085 0.070245646 -0.06837976 -0.09726264
-0.11060282 -0.13459271 -0.04075032 0.08682065 -0.11465403 0.13706915 0.13709965 0.168153
-0.11966824 -0.06082026 -0.019859955 0.084532276 0.14909682 -0.016850559 0.10699038 -0.08155379
-0.081168674 0.09850494 -0.023965549 0.08311211 0.15908656 -0.031413816 0.070660815 -0.073748924
00000000: 73c7 c6bd d1fe ba3c bb33 cfbc 1421 a0bc
00000010: 6115 4ebd 696e cc3c 52bc f2bc 6c4d f73c
00000020: d2e8 263e e6a3 cd3d 571d 5dbc d9cf e1bd
00000030: da3e ccbd 6ed8 173d 8860 0b3e e07f 963d
00000040: b4e8 05bd 484f 8abd f094 4bbc 04dd 9abc
00000050: 542c 593d 7285 143e 521f 01be 46f6 07be
00000060: a58e f8bb 3dc4 a43b f35c 633d 36a2 c5bd
00000070: 6535 12bd dc6d 1a3c 5c2f 85bd ca0b b3bc
00000080: 887d 3e3e 771f 0f3e 5271 e5bd 72a3 f5bd
00000090: a332 5ebc 3f5b 0bbe 0e3e 9b3d 636b c93d
000000a0: 2c79 a7bd e01d 853d 27eb a53d 7db3 f2bd
000000b0: 9a28 00be efd3 573d 236f 4e3e 9a54 b1bd
000000c0: 2f03 f33d 9ef6 e7bd 693e f3bd 846f 8f3d
000000d0: 188e e43d 3159 883d 116a 8dbd 8593 c0bd
000000e0: e81a f73d 8efa 0c3e 5935 763d 34b1 1c3b
000000f0: 3cce aa3d 1302 08bd 5f9a 5abd b06e fc3d
00000100: 06db 153b c3a9 8ebd a152 8d3b a281 af3d
00000110: f0fd a5bd 59a6 e43d 07fa e13d 2557 bc3d
00000120: 1d13 193e 0155 e83d 2584 b2bd f359 3b3d
00000130: c655 e33d 01cd 9c3d a372 883c a631 4bbe
00000140: d24a 50bd 3068 433b bbab 873d 0fdc fb3c
00000150: 131a 49bd 65f3 a53d a521 1a3c 62eb 01be
00000160: 1197 063e 4d20 1cbe 3f6f 11be 199f 7bbd
00000170: 5608 debd 3efb 013e c897 253d 9105 313c
00000180: d3e9 adbc d535 aebd 0aba bebd 12a6 883d
00000190: 8d59 1abe f192 d1bd 196e acbc 1ecc a73c
000001a0: 8881 e5bd 4250 f53d 7820 fe3d 8887 a13d
000001b0: 6813 203c 4fa0 aa3d 0fdf debc f002 053e
000001c0: 68b0 573c 84e9 ed3d 2077 8abc 85d9 c83d
000001d0: ad2f 463d d4fc 8e3d c92c aabd d334 f9bd
000001e0: ac14 b93d e2bd 973d 02fa d0bd 30f3 eb3b
000001f0: 4966 e83c 78d4 8f3d 6111 f83d 31ed ed3c
00000200: 1609 b1bd f7dc 223e 867c 14be c9e7 833c
00000210: 573f 26bd 0124 2a3e 2463 9e3d ed6c 0a3e
00000220: 3e74 50be 40a9 cfbc 79cd 24be 776c af3d
00000230: 0ea6 21be 5201 2f3e a8d6 773d 2b18 da3d
00000240: 628a f3bd 0520 e3bd b548 a6bd 600c ad3d
00000250: 58a7 5ebd f99b cfbc 4107 493d 78bf 2b3e
00000260: 22b8 72bc 4734 c6bd 21cb 1abd ec23 183e
00000270: 7e7b 2a3e 000d 94bc 34f6 313d 2020 fb3d
00000280: 094f fdbb 50fa 6a3d 2cbe 65bc 2629 293e
00000290: a0ec a4bc e116 293e dc53 9f3d e246 2dbd
000002a0: dc85 f5bd 15e2 003e a10c 5dbd 3577 113d
000002b0: 7146 ed3d 3754 883d 0d9a 853c ca2a 80be
000002c0: bf34 f03d 926d 4e3d 607a 16bc 151f 23be
000002d0: 801e 4f3c 07fc 40be de55 74bd 0da3 843d
000002e0: 4ff2 583d 3166 3bbe 7dcf 9bbd 7905 103e
000002f0: a1ed 5a3d 7d14 3b3e 5b8f 873c 5d9d 193e
00000300: 57a7 1bbd 7ef8 adbd 0f71 51bd d72f cd3c
00000310: 1ba2 523e 9c08 ca39 7f02 07be 6701 d53d
00000320: 24f1 8a3c 872f aebd 04df cdbd 57be 973d
00000330: 7f99 6e3d 1f68 38bd f4b0 b63c 167f f0bc
00000340: b56b 833d c0db 9bbd f52c 813d 0d95 fe3d
00000350: f385 54be be74 92bc c16c 78bd 72a0 f03d
00000360: 9a46 5f3d a063 5abd e72c 423d 241c cebd
00000370: 2584 80be 0725 0abe 4007 afbd bce8 83bb
00000380: 976f 95bd fe75 ea3c 63dc 363e d5e4 d5bb
00000390: f1f6 a3bd f3dc 8f3d b00a 8cbd a331 c7bd
000003a0: bb83 e2bd acd2 09be cfe9 26bd 06cf b13d
000003b0: bbcf eabd db5b 0c3e da63 0c3e 4d30 2c3e
000003c0: 9f14 f5bd aa1e 79bd 58b1 a2bc 421f ad3d
000003d0: d6ac 183e 2f0a 8abc c61d db3d ac05 a7bd
000003e0: c33b a6bd f5bc c93d 6653 c4bc af36 aa3d
000003f0: 96e7 223e c6ab 00bd 9eb6 903d ad09 97bd

local1.norm.weight f4 [128]
0.9686189 1.0575205 1.0258378 1.0221509 0.9559372 0.99282336 0.95591396 1.0039133
0.9686122 1.1615478 0.9931438 1.0256455 0.9402347 0.95688856 0.99387515 1.0542958
1.0794463 0.99069655 1.0470439 1.0357711 1.1595062 0.9902503 0.9506738 0.96272135
1.0280399 0.9001422 0.97297025 1.0084299 0.9862832 0.942947 0.9910941 1.0008944
1.056077 1.0677503 1.02459 0.9251868 0.94107455 0.98438895 1.0416219 0.97300553
0.9397774 1.0102822 0.9299933 1.0928413 1.087 1.0718803 1.0225743 1.0273383
0.9992405 1.003606 0.8880312 1.1369725 1.1133546 0.9354168 0.9684749 1.0342182
0.99216366 0.97160673 1.0208904 0.94957715 1.0121082 0.9807284 1.0620689 0.9461865
0.9446511 1.0621766 1.0661733 0.9519588 0.9995644 0.99179167 1.0417093 1.0903935
1.0762644 0.9416951 1.0231578 0.9426571 0.9800362 0.94004065 0.92829007 1.0846417
1.0079299 1.0358429 1.1416056 0.96799415 0.97284704 0.94252765 0.9700702 1.0035498
0.9814847 0.9773715 1.015841 1.0445696 1.090652 0.9964926 0.97102463 0.9344082
1.0250475 1.0708735 0.92465746 0.9386048 0.9952622 1.0388086 1.0291908 0.8894502
0.9996496 1.076453 1.0636915 0.89230776 0.9726085 0.9907332 1.0025207 0.9357043
0.94416535 0.95918113 1.0405641 1.0417705 0.9809257 0.9834309 1.0091091 1.0498482
1.0117481 1.0268172 0.9504094 0.98746276 0.97055525 0.9230471 1.002735 0.91007674
00000000: 69f7 773f d55c 873f a74e 833f d7d5 823f
00000010: 4db8 743f ac29 7e3f c7b6 743f 3b80 803f
00000020: f8f6 773f 99ad 943f ac3e 7e3f 5a48 833f
00000030: 39b3 703f a6f6 743f 9a6e 7e3f 2af3 863f
00000040: 4c2b 8a3f 4a9e 7d3f 8905 863f 2694 843f
00000050: b36a 943f 0b81 7d3f 5c5f 733f e874 763f
00000060: d096 833f b86f 663f 9414 793f 3b14 813f
00000070: 0e7d 7c3f f964 713f 58b8 7d3f 4f1d 803f
00000080: 882d 873f 0bac 883f c425 833f 0bd9 6c3f
00000090: 43ea 703f ea00 7c3f de53 853f e416 793f
000000a0: 4095 703f ed50 813f 0a14 6e3f 39e2 8b3f
000000b0: d122 8b3f 6033 893f b7e3 823f d27f 833f
000000c0: 3ace 7f3f 2976 803f 0356 633f 5188 913f
000000d0: 6782 8e3f 7a77 6f3f f9ed 773f 4361 843f
000000e0: 70fe 7d3f 38bb 783f 89ac 823f 7d17 733f
000000f0: c38c 813f 0411 7b3f e0f1 873f 4739 723f
00000100: a8d4 713f 67f5 873f 5e78 883f 92b3 733f
00000110: 74e3 7f3f 0fe6 7d3f bb56 853f 0492 8b3f
00000120: 08c3 893f ee12 713f d6f6 823f fa51 713f
00000130: a7e3 7a3f 81a6 703f 6ba4 6d3f 8ad5 8a3f
00000140: d903 813f 8096 843f 2220 923f 77ce 773f
00000150: 810c 793f 7e49 713f 8556 783f 5274 803f
00000160: 9542 7b3f 0535 7a3f 1407 823f 75b4 853f
00000170: 7c9a 8b3f 241a 7f3f 1295 783f 6035 6f3f
00000180: c234 833f 6212 893f 5ab6 6c3f 6748 703f
00000190: 81c9 7e3f aef7 843f 86bc 833f 02b3 633f
000001a0: 09e9 7f3f 36c9 893f 0b27 883f 486e 643f
000001b0: dffc 783f b1a0 7d3f 9952 803f 518a 6f3f
000001c0: d2b4 713f e58c 753f 3431 853f bc58 853f
000001d0: f21d 7b3f 21c2 7b3f 7d2a 813f 6d61 863f
000001e0: f680 813f bf6e 833f 084e 733f 5cca 7c3f
000001f0: 4f76 783f d14c 6c3f 9f59 803f cafa 683f

local1.norm.bias f4 [128]
-0.083608046 -0.10338067 -0.018551948 -0.09156586 -0.11958389 -0.0850589 -0.083930925 -0.094592854
-0.15398343 -0.061471004 -0.09844782 -0.036969878 -0.09166581 -0.08882642 -0.021379648 -0.077270485
-0.015684804 -0.054627307 -0.07634645 -0.07763472 -0.08323762 -0.093165234 -0.104929626 -0.07682209
-0.055240385 -0.12703656 -0.082365215 -0.06571687 -0.061803706 -0.15873061 -0.04828398 -0.081260085
-0.09129888 -0.13283922 -0.044411436 -0.09709009 -0.09241576 -0.09689712 -0.039871335 -0.0856985
-0.08701996 -0.0955797 -0.09721371 -0.06099634 -0.08837307 -0.04841287 -0.037310436 -0.067342356
-0.090499856 -0.083553 -0.10484515 -0.02485083 -0.063270085 -0.13840073 -0.10649173 -0.036141068
-0.122462615 -0.11930598 -0.07938487 -0.088534735 -0.079019174 -0.069428444 -0.026560672 -0.061487228
-0.07209864 -0.08612084 -0.06441239 -0.07846452 -0.09335936 -0.06557328 -0.116753 -0.04691207
-0.0632021 -0.08309743 -0.022169095 -0.1021501 -0.07684279 -0.07396899 -0.12702526 -0.040349327
-0.051557355 -0.11917553 -0.057952523 -0.078353986 -0.06466325 -0.115365155 -0.06953328 -0.045765422
-0.084160805 -0.083644845 -0.10082387 -0.07824025 -0.06531514 -0.107655816 -0.10987678 -0.09875315
-0.08184597 -0.05793142 -0.12570839 -0.12393477 -0.05820991 -0.052978046 -0.09943479 -0.13921972
-0.09383295 -0.036622606 -0.08544093 -0.10408134 -0.068522684 -0.10990996 -0.10174965 -0.046376817
-0.13208693 -0.10254845 -0.09771035 -0.07390162 -0.06919242 -0.12264797 -0.102673456 -0.016440634
-0.09854385 -0.07105532 -0.09793759 -0.08258998 -0.07770535 -0.09235343 -0.05367457 -0.13885836
00000000: b23a abbd 3fb9 d3bd 41fa 97bc e286 bbbd
00000010: 66e8 f4bd 5c33 aebd fae3 abbd e6b9 c1bd
00000020: d5ad 1dbe 05c9 7bbd 039f c9bd ba6d 17bd
00000030: 49bb bbbd a0ea b5bd 5f24 afbc fd3f 9ebd
00000040: 6b7d 80bc e2c0 5fbd 875b 9cbd f4fe 9ebd
00000050: 7c78 aabd 6acd bebd 58e5 d6bd e654 9dbd
00000060: be43 62bd df15 02be 18af a8bd 9196 86bd
00000070: e225 7dbd 478a 22be 6cc5 45bd b06b a6bd
00000080: e8fa babd 0107 08be c4e8 35bd 2bd7 c6bd
00000090: 7944 bdbd ff71 c6bd 2050 23bd b282 afbd
000000a0: 8537 b2bd 4abf c3bd fb17 c7bd 4cd7 79bd
000000b0: f1fc b4bd 934c 46bd d4d2 18bd caea 89bd
000000c0: fd57 b9bd d61d abbd 0eb9 d6bd f893 cbbc
000000d0: bf93 81bd ecb8 0dbe 5618 dabd a808 14bd
000000e0: aecd fabd b256 f4bd 8994 a2bd b351 b5bd
000000f0: ced4 a1bd 8030 8ebd c495 d9bc 08da 7bbd
00000100: 74a8 93bd 1f60 b0bd a5ea 83bd 02b2 a0bd
00000110: 3133 bfbd 494b 86bd 321c efbd df26 40bd
00000120: 1a70 81bd fc2e aabd f69b b5bc 1234 d1bd
00000130: c15f 9dbd 0e7d 97bd e912 02be 5645 25bd
00000140: ce2d 53bd 4d12 f4bd a05f 6dbd 0e78 a0bd
00000150: 2b6e 84bd 9144 ecbd 7767 8ebd 8674 3bbd
00000160: 805c acbd fd4d abbd bf7c cebd 6d3c a0bd
00000170: f2c3 85bd a77a dcbd 1407 e1bd 173f cabd
00000180: dc9e a7bd 7f49 6dbd b3b9 00be 83d1 fdbd
00000190: 846d 6ebd 82ff 58bd 78a4 cbbd 9d8f 0ebe
000001a0: 7d2b c0bd 9601 16bd a8fb aebd 9928 d5bd
000001b0: 9f55 8cbd 7918 e1bd 1f62 d0bd 9ef5 3dbd
000001c0: cc41 07be ec04 d2bd 5d1c c8bd bc59 97bd
000001d0: c1b4 8dbd dc2e fbbd 7646 d2bd 82ae 86bc
000001e0: 5cd1 c9bd 7485 91bd 8193 c8bd ef24 a9bd
000001f0: fc23 9fbd cc23 bdbd ded9 5bbd e330 0ebe

local2.conv.bias f4 [128]
0.0015288183 0.0016985205 -0.0021053762 0.0007945127 -0.009761605 0.0019083173 -0.0019396185 -0.005111977
0.00041525235 0.0017327513 -0.0009811046 -0.003655609 -0.0008160768 0.0019996283 -0.0011013438 -0.0010152825
0.0016520508 -0.0026557364 9.581721e-05 0.0023405503 0.00066825544 0.0030869185 -0.0042014704 0.0024113045
0.0009248517 -0.00013323691 -0.016266381 0.001435879 0.00072626374 -0.00399286 -0.0016574776 -0.0030308866
-0.00040798995 -0.0043703113 -0.0045943046 0.00036467277 -0.0004247803 0.0016198494 0.0013545 8.29801e-05
-0.015950503 0.0033287767 -0.003360991 0.009309094 0.0019478638 0.0018859097 1.8714989e-05 0.0041568386
0.029651562 -0.00012165033 0.0016175712 -0.0026113235 0.001689744 -0.006292627 0.0020281912 -0.00078474573
-6.946362e-05 -0.0027477012 -0.002577023 -0.0071806074 0.0018761868 -0.0012169097 0.069422066 -0.0032971236
0.00033437536 -0.0012121856 -0.0025809768 0.008879639 0.003681007 0.0028526748 0.0010775116 0.00088535796
0.0013149398 0.039120764 -0.0021556653 0.047262117 0.0003337998 0.00023401919 0.0010224981 0.002436922
-0.0025457905 0.007485143 -0.000565358 6.726709e-05 -0.00034320218 0.0027885549 -0.034241527 0.0019985533
-0.0012724608 0.03425445 0.001324086 0.0014609516 0.0021000502 0.0003831874 2.4091833e-05 -0.00026296722
0.0015333545 -0.0022594382 0.001452979 0.00088909385 0.0021482063 0.011398476 0.00067457155 0.0007459365
-0.0003978605 0.00076111744 0.0058456287 0.00039450475 0.0019915954 0.0027379543 0.001612758 0.002645558
7.0100235e-05 0.0012609761 0.00023449013 -0.0013786732 0.00163979 0.00079164933 0.0011622104 0.0017758269
-0.0008111144 0.0007198684 -0.003285216 -0.0013514332 0.0016527156 -0.0020642716 -0.002682684 0.00059844216
00000000: a162 c83a e4a0 de3a 5afa 09bb d846 503a
00000010: 24ef 1fbc 8120 fa3a cc3a feba 5f82 a7bb
00000020: 3ab6 d939 7c1d e33a 6898 80ba f192 6fbb
00000030: fded 55ba 320c 033b f75a 90ba 3a13 85ba
00000040: a089 d83a dd0b 2ebb 79f1 c838 eb63 193b
00000050: dd2d 2f3a e64d 4a3b 7dac 89bb fa06 1e3b
00000060: bf71 723a 83b5 0bb9 1341 85bc 1b34 bc3a
00000070: bc62 3e3a 8ad6 82bb b83f d9ba d7a1 46bb
00000080: 7ce7 d5b9 d434 8fbb d28b 96bb 8d31 bf39
00000090: 0cb5 deb9 2051 d43a 7a89 b13a 9a05 ae38
000000a0: a1aa 82bc 9b27 5a3b 1244 5cbb 2c85 183c
000000b0: 774f ff3a a130 f73a 22fe 9c37 1736 883b
000000c0: d5e7 f23c 861e ffb8 af04 d43a bd22 2bbb
000000d0: 667a dd3a 6232 cebb 67eb 043b 65b7 4dba
000000e0: ffac 91b8 c712 34bb 46e3 28bb 4d4b ebbb
000000f0: 62ea f53a b780 9fba 282d 8e3d 8e14 58bb
00000100: 1a4f af39 33e2 9eba 9b25 29bb e87b 113c
00000110: 0d3d 713b f1f3 3a3b 4a3b 8d3a 5e17 683a
00000120: 0f5a ac3a 183d 203d 1046 0dbb ec95 413d
00000130: da01 af39 0c63 7539 5805 863a c4b4 1f3b
00000140: 47d7 26bb ee45 f53b 8834 14ba be11 8d38
00000150: d1ef b3b9 30c0 363b d840 0cbd 29fa 023b
00000160: b3c8 a6ba 654e 0c3d f48c ad3a 677d bf3a
00000170: ffa0 093b 8be6 c839 d118 ca37 ddde 89b9
00000180: d7fa c83a 1513 14bb e371 be3a 1412 693a
00000190: ecc8 0c3b acc0 3a3c bbd5 303a f38a 433a
000001a0: ef97 d0b9 ba85 473a b08c bf3b 88d5 ce39
000001b0: 6d85 023b 406f 333b 2e63 d33a 1961 2d3b
000001c0: c702 9338 5647 a53a 77e1 7539 99b4 b4ba
000001d0: 39ee d63a b086 4f3a 4f55 983a ddc2 e83a
000001e0: f7a0 54ba 8db5 3c3a c74c 57bb 9322 b1ba
000001f0: ef9f d83a bb48 07bb f8cf 2fbb c6e0 1c3a

local2.conv.lin.weight f4 [128, 128]
0.0388819 -0.18478824 -0.04351684 -0.11270965 -0.011459169 -0.08902878 0.032500517 -0.0094942795
0.061195523 -0.12068509 0.12811507 0.03947388 -0.10941517 -0.13001773 0.12577863 0.06201487
0.03998922 -0.11542222 0.07727905 0.09551011 0.07704126 -0.180168 -0.004720494 -0.054340165
-0.15962256 -0.016942281 -0.021318192 0.057605144 -0.18970926 -0.0069503305 -0.039165165 -0.16189276
-0.055201743 0.06243823 0.18928574 -0.029147679 -0.0038065037 0.12643 -0.17736672 -0.022627017
-0.020978322 0.020432856 0.09122978 -0.10469348 0.13233301 0.10973105 0.15302052 0.14801207
-0.16351323 0.047485 -0.11336321 0.07119004 0.051825877 -0.0965991 0.028175887 -0.024386214
0.010051105 -0.03929348 -0.22771007 -0.0020928637 -0.09308566 0.122380316 0.12505767 0.03933913
-0.03580276 -0.026328845 0.07833774 0.14249177 0.116574064 0.00011717722 0.14264096 0.040259093
0.052705787 -0.11600148 0.12991096 -0.08692013 0.08629067 -0.04548607 0.12505974 -0.11590018
-0.031566102 0.04080285 0.037585605 -0.02896269 0.08062981 -0.037217315 -0.07305888 -0.10178969
-0.023919694 0.017410439 -0.17362413 0.061766785 -0.09217464 0.10492664 0.03331414 0.06749064
0.12586913 0.016738806 0.06876781 0.01564849 0.031039849 -0.05199659 0.16433504 0.012584537
-0.14153503 0.18954028 0.009982638 0.11397819 0.00037414953 -0.012610751 -0.100795135 -0.122889966
0.017352497 0.110876635 0.09324897 -0.04337683 0.040202726 -0.019141633 0.052891668 0.026623141
-0.08504201 0.014905798 -0.086634405 -0.079466134 0.016903682 0.006356727 -0.036728688 -0.07332464
0.09149003 0.04838115 0.054234758 -0.094397984 -0.13791534 -0.09673343 -0.14162938 0.08212887
0.008150011 -0.034350503 -0.040577978 0.03289478 0.010242145 -0.07445553 0.14789963 -0.011689036
-0.04453546 -0.014977923 -0.06026801 0.013210005 0.05896918 0.044433456 -0.022618715 0.1419465
0.04275951 0.14108008 -0.15866588 -0.012539474 0.05496008 -0.0028356747 0.15772781 0.16353886
0.090975255 0.08741458 -0.11441932 -0.103674434 0.09663588 0.04451331 -0.17502351 -0.05064224
-0.15321362 0.088444486 0.013532594 -0.2042894 0.016126566 0.036460083 0.067608654 -0.10439467
-0.1826768 0.11758639 -0.10440698 -0.04879479 0.06633375 -0.036240555 0.012110069 -0.13179204
-0.18248224 -0.040376984 0.07949306 0.06981209 -0.01097285 -0.12205358 0.069299236 -0.12964827
-0.09414197 -0.08191405 0.13213192 0.044042416 0.03427559 0.032874357 -0.10072554 0.051910657
0.041726146 0.05048831 0.0950611 0.13934568 -0.07233962 0.09045921 0.030943368 -0.07751172
0.13466848 0.10706189 -0.07398128 0.051026605 0.15238228 -0.08999289 -0.024316806 0.042445976
0.03980958 -0.06493359 -0.062171422 0.099793404 0.021149183 -0.04690241 0.06313515 0.21328045
-0.033381127 -0.1389452 0.049455512 0.034308475 0.097988605 -0.10520146 -0.09133269 -0.03391689
-0.15760161 -0.032321077 -0.16843979 0.008644237 -0.08243207 -0.0558943 0.07667242 -0.082930535
0.09470328 -0.14505854 7.7389566e-05 0.105367705 0.16607344 0.054115873 -0.14352968 0.02101654
0.1005946 0.16699313 0.14100373 -0.05655393 -0.024952138 0.10426479 -0.026507974 0.10023703
00000000: a142 1f3d 2139 3dbe b73e 32bd 51d4 e6bd
00000010: 3dbf 3bbc b954 b6bd 431f 053d e58d 1bbc
00000020: 28a8 7a3d bf29 f7bd 9930 033e 5daf 213d
00000030: 1015 e0bd 5e23 05be 1dcc 003e 4e03 7e3d
00000040: bdcb 233d 7c62 ecbd 7b44 9e3d ce9a c33d
00000050: cfc7 9d3d f67d 38be 60ae 9abb cb93 5ebd
00000060: 1974 23be 8aca 8abc 7da3 aebc 5ff3 6b3d
00000070: 2543 42be 99bf e3bb a76b 20bd 37c7 25be
00000080: 391b 62bd 3bbf 7f3d 1fd4 413e 1dc7 eebc
00000090: 8976 79bb de76 013e 9f9f 35be 4b5c b9bc
000000a0: bbda abbc ce62 a73c aed6 ba3d 8969 d6bd
000000b0: 4e82 073e acba e03d 69b1 1c3e 7a90 173e
000000c0: 0370 27be a27f 423d f82a e8bd 15cc 913d
000000d0: 5f47 543d c0d5 c5bd 1ed1 e63c 99c5 c7bc
000000e0: 64ad 243c 33f2 20bd d42c 69be 6d28 09bb
000000f0: b2a3 bebd 88a2 fa3d 1e0f 003e 1122 213d
00000100: eaa5 12bd 97af d7bc 896f a03d 5de9 113e
00000110: 62be ee3d 0abd f538 7910 123e b8e6 243d
00000120: 06e2 573d 2f92 edbd 6107 053e 2e03 b2bd
00000130: 2ab9 b03d 9a4f 3abd a90f 003e 135d edbd
00000140: 754b 01bd e420 273d 5df3 193d 2a43 edbc
00000150: 3e21 a53d 2f71 18bd e59f 95bd 1d77 d0bd
00000160: 3cf3 c3bc 56a0 8e3c 86ca 31be 2bff 7c3d
00000170: 0fc6 bcbd c7e3 d63d 6874 083d 8838 8a3d
00000180: d6e3 003e d21f 893c 23d6 8c3d 4331 803c
00000190: 4847 fe3c 60fa 54bd 7247 283e 602f 4e3c
000001a0: 8fee 10be d916 423e 388e 233c 666d e93d
000001b0: 8029 c439 539d 4ebc ae6d cebd bcad fbbd
000001c0: d326 8e3c 4a13 e33d 51f9 be3d e7ab 31bd
000001d0: 9dab 243d eace 9cbc efa4 583d c618 da3c
000001e0: 812a aebd 7337 743c 616d b1bd 24bf a2bd
000001f0: 9779 8a3c 174c d03b d270 16bd 3b2b 96bd
00000200: 205f bb3d 502b 463d 4425 5e3d bb53 c1bd
00000210: ae39 0dbe 2d1c c6bd 4b07 11be 2e33 a83d
00000220: a087 053c 1db3 0cbd 1835 26bd adbc 063d
00000230: abce 273c 247c 98bd 0073 173e 5f83 3fbc
00000240: d16a 36bd f665 75bc 97db 76bd c76e 583c
00000250: ab89 713d dbff 353d e24a b9bc 6c5a 113e
00000260: 9924 2f3d 4c77 103e 4f79 22be 5e72 4dbc
00000270: d21d 613d bad6 39bb 6683 213e bb76 273e
00000280: 3c51 ba3d 6a06 b33d ad54 eabd 4353 d4bd
00000290: 08e9 c53d 9753 363d 5d39 33be 3d6e 4fbd
000002a0: 08e4 1cbe 6222 b53d d0b7 5d3c 3e31 51be
000002b0: dc1b 843c 2b57 153d 6876 8a3d dfcc d5bd
000002c0: a10f 3bbe 22d1 f03d 54d3 d5bd 0cdd 47bd
000002d0: fdd9 873d fa70 14bd 5069 463c 7ef4 06be
000002e0: a0dc 3abe 5662 25bd 42cd a23d a4f9 8e3d
000002f0: 78c7 33bc 3af7 f9bd c2ec 8d3d 84c2 04be
00000300: 81cd c0bd 8ec2 a7bd 974d 073e d265 343d
00000310: 9064 0c3d 43a7 063d 3149 cebd 45a0 543d
00000320: 09e9 2a3d d5cc 4e3d 65af c23d a2b0 0e3e
00000330: cb26 94bd ae42 b93d f27c fd3c 77be 9ebd
00000340: 89e6 093e 4443 db3d 7f83 97bd 4601 513d
00000350: 1a0a 1c3e 314e b8bd 0a34 c7bc d5db 2d3d
00000360: 5f0f 233d e7fb 84bd 76a7 7ebd 7c60 cc3d
00000370: 0d41 ad3c be1c 40bd 004d 813d 3166 5a3e
00000380: a6ba 08bd a747 0ebe dd91 4a3d 0b87 0c3d
00000390: 40ae c83d dd73 d7bd a20c bbbd 70ec 0abd
000003a0: 5162 21be 1b63 04bd 7b7b 2cbe 8fa0 0d3c
000003b0: 25d2 a8bd 6cf1 64bd 6e06 9d3d 7cd7 a9bd
000003c0: cbf3 c13d 3a8a 14be 354c a238 06cb d73d
000003d0: 280f 2a3e 9ba8 5d3d 72f9 12be e12a ac3c
000003e0: 8b04 ce3d 3f00 2b3e 4863 103e 18a5 67bd
000003f0: 6d68 ccbc c788 d53d 4027 d9bc 1249 cd3d

local2.norm.weight f4 [128]
0.99111116 0.9240926 0.9089337 0.9645587 1.0212543 0.95332366 0.9901157 1.024236
0.9580305 0.99915147 0.9900229 1.0433404 0.9205661 0.878256 0.9752108 1.0501629
1.0008082 1.0173368 0.91474086 1.0564314 0.9937965 0.87328786 0.8731458 0.90518343
0.94267744 0.945196 1.0409536 0.95342374 1.0409681 0.90306854 0.990636 0.96376634
0.9997061 0.9543546 0.9779807 1.0614907 0.9708089 0.95086783 1.0526564 1.0597904
0.9332373 0.8061948 0.8843433 0.95458555 0.9561935 0.9720012 1.016762 0.7851162
0.8749553 0.9554364 0.98306406 0.9807812 0.92071784 0.97827786 0.90535396 0.9955753
0.96411127 1.0023592 0.9614362 0.9455689 0.9167386 0.9567587 0.907686 0.89743614
1.0557188 1.0574844 0.97859335 0.916874 0.8402524 0.8737877 1.0029184 1.0246336
0.9461396 0.9102524 0.9769141 0.8948836 0.95471114 1.0029407 0.96247286 0.90022147
0.9310516 1.0099368 0.9377706 0.9663817 0.93638927 0.9063421 1.1036698 0.9300792
0.9452942 0.89844614 0.90075773 1.0005385 0.880553 0.9459446 1.0460188 0.9465784
0.98898333 0.9469274 0.91003597 1.1092876 0.8846975 0.88259095 1.04179 0.8500686
0.9529525 1.0168679 0.89137286 0.9840985 0.9012968 0.8577357 0.98195356 0.8665569
0.9671922 0.9129426 0.9238587 0.9751818 0.94289124 0.9434331 0.92362535 0.94349664
0.977589 0.94631904 0.9133969 1.0090438 0.89122546 0.9359712 0.98384595 0.9776295
00000000: 76b9 7d3f 5591 6c3f e1af 683f 52ed 763f
00000010: 76b8 823f 050d 743f 3978 7d3f 2a1a 833f
00000020: 7d41 753f 64c8 7f3f 2472 7d3f 2e8c 853f
00000030: 38aa 6b3f 63d5 603f 6aa7 793f bd6b 863f
00000040: 7c1a 803f 1838 823f 752c 6a3f 2539 873f
00000050: 7369 7e3f cb8f 5f3f 7c86 5f3f 1aba 673f
00000060: 4f53 713f 5df8 713f f83d 853f 9413 743f
00000070: 713e 853f 802f 673f 529a 7d3f 64b9 763f
00000080: bdec 7f3f 9550 743f f15c 7a3f edde 873f
00000090: ef86 783f 136c 733f 72bd 863f 36a7 873f
000000a0: a4e8 6e3f c862 4e3f 5364 623f b85f 743f
000000b0: 19c9 743f 12d5 783f 4225 823f 60fd 483f
000000c0: 12fd 5f3f 7b97 743f 16aa 7b3f 7a14 7b3f
000000d0: 2ab4 6b3f 6b70 7a3f 47c5 673f 06de 7e3f
000000e0: ffcf 763f 4e4d 803f af20 763f ce10 723f
000000f0: 62af 6a3f 23ee 743f 1c5e 683f 60be 653f
00000100: cb21 873f a65b 873f 1885 7a3f 41b8 6a3f
00000110: c81a 573f 8db0 5f3f a15f 803f 3227 833f
00000120: 3436 723f 4d06 693f 0b17 7a3f 1717 653f
00000130: f367 743f 5c60 803f 9f64 763f ea74 663f
00000140: 6659 6e3f 9c45 813f bc11 703f cb64 773f
00000150: 35b7 6f3f 0906 683f 0d45 8d3f ac19 6e3f
00000160: cdfe 713f 9100 663f 0f98 663f a511 803f
00000170: ec6b 613f 6d29 723f f2e3 853f f652 723f
00000180: 032e 7d3f d669 723f 1ef8 683f 23fd 8d3f
00000190: 897b 623f 7bf1 613f 6059 853f 199e 593f
000001a0: b2f4 733f ba28 823f 0331 643f e1ed 7b3f
000001b0: 63bb 663f 9194 5b3f 4f61 7b3f acd6 5d3f
000001c0: e899 773f 9bb6 693f 0182 6c3f 84a5 793f
000001d0: 5261 713f d584 713f b672 6c3f ff88 713f
000001e0: 4643 7a3f f741 723f 61d4 693f 5928 813f
000001f0: 5a27 643f cf9b 6f3f 54dd 7b3f ed45 7a3f

local2.norm.bias f4 [128]
-0.07495217 -0.14332123 -0.15648788 -0.07376366 -0.059180766 -0.087094724 -0.08996864 -0.08935795
-0.111951 -0.04268135 -0.1402511 -0.07428817 -0.11472681 -0.11431261 -0.13088302 -0.06854902
-0.07480362 -0.07458685 -0.110509634 -0.07119185 -0.080182396 -0.15604669 -0.17663889 -0.13879065
-0.11562944 -0.14435162 -0.07580254 -0.07763259 -0.054356977 -0.12104246 -0.10941768 -0.0657261
-0.076937124 -0.09033791 -0.024225064 -0.033116028 -0.10093891 -0.070940614 -0.055905607 -0.07821873
-0.15012783 -0.18857431 -0.12425383 -0.11331166 -0.076157 -0.0952012 -0.080014385 -0.20150967
-0.21416353 -0.083560884 -0.06740617 -0.0807747 -0.07560696 -0.14082931 -0.17852297 -0.060604397
-0.09634679 -0.06280108 -0.10977911 -0.097495995 -0.07764298 -0.10990995 -0.13737817 -0.1572425
-0.04690569 -0.09705195 -0.0896314 -0.12750804 -0.20250385 -0.17340857 -0.08588021 -0.08608204
-0.06749629 -0.11290631 -0.14627096 -0.13223988 -0.03763081 -0.086615674 -0.09197948 -0.17309192
-0.1422347 -0.07882306 -0.07696866 -0.11316964 -0.11272085 -0.14973134 -0.037952732 -0.09849081
-0.12043808 -0.13635755 -0.12966606 -0.08299571 -0.14166725 -0.11284854 -0.03816944 -0.100402966
-0.07247245 -0.07296168 -0.12788968 -0.07640367 -0.16047508 -0.15164647 -0.11712266 -0.1668927
-0.095390886 -0.11104884 -0.12579963 -0.076531276 -0.12225407 -0.16598155 -0.0567033 -0.14023966
-0.0608303 -0.13249904 -0.12704398 -0.07569311 -0.10809599 -0.09357425 -0.10913352 -0.17449361
-0.07665931 -0.14364657 -0.11337174 -0.06831577 -0.13283023 -0.09477602 -0.11388724 -0.11143331
00000000: 8680 99bd cdc2 12be 5c3e 20be 6711 97bd
00000010: 8867 72bd b85e b2bd 7a41 b8bd 4d01 b7bd
00000020: 9146 e5bd a4d2 2ebd fc9d 0fbe 6524 98bd
00000030: e4f5 eabd bb1c eabd 3306 06be 6e63 8cbd
00000040: a432 99bd fec0 98bd e052 e2bd 08cd 91bd
00000050: ab36 a4bd b4ca 1fbe d3e0 34be 231f 0ebe
00000060: 21cf ecbd e9d0 13be 5d3e 9bbd d6fd 9ebd
00000070: 6ca5 5ebd 1ce5 f7bd 6016 e0bd 689b 86bd
00000080: 3691 9dbd 1503 b9bd a473 c6bc aca4 07bd
00000090: 0fb9 cebd 5049 91bd 47fd 64bd 2431 a0bd
000000a0: 1cbb 19be a019 41be cb78 febd f20f e8bd
000000b0: 34f8 9bbd d9f8 c2bd 95de a3bd 8d58 4ebe
000000c0: af4d 5bbe f821 abbd 3f0c 8abd 356d a5bd
000000d0: d2d7 9abd 8f35 10be bace 36be 513c 78bd
000000e0: 7751 c5bd da9d 80bd dfd3 e0bd fbab c7bd
000000f0: 4803 9fbd 7818 e1bd ddac 0cbe 2e04 21be
00000100: 2e20 40bd 2cc3 c6bd ab90 b7bd 7891 02be
00000110: 2b5d 4fbe 0492 31be f7e1 afbd c84b b0bd
00000120: 7f3b 8abd 6c3b e7bd 0ec8 15be e469 07be
00000130: c422 1abd 8f63 b1bd bd5f bcbd 023f 31be
00000140: f9a5 11be fc6d a1bd bfa1 9dbd 7cc5 e7bd
00000150: 30da e6bd 2c53 19be 5374 1bbd 8db5 c9bd
00000160: 3da8 f6bd 50a1 0bbe 2ec7 04be a8f9 a9bd
00000170: 3811 11be 231d e7bd 8f57 1cbd 12a0 cdbd
00000180: 706c 94bd ef6c 95bd 83f5 02be 8779 9cbd
00000190: 9453 24be 3649 1bbe 01de efbd ece5 2abe
000001a0: 4c5c c3bd 936d e3bd 9ed1 00be 6ebc 9cbd
000001b0: 5860 fabd 11f7 29be b841 68bd fc9a 0fbe
000001c0: 3129 79bd d4ad 07be d117 02be fd04 9bbd
000001d0: 6e61 ddbd dba3 bfbd 6581 dfbd 74ae 32be
000001e0: 8eff 9cbd 1618 13be 712f e8bd 23e9 8bbd
000001f0: a604 08be ee19 c2bd b73d e9bd 2637 e4bd

meso.Wq.weight f4 [128, 128]
-0.05202261 -0.04279978 -0.105464354 -0.04045863 -0.08533264 -0.009264057 -0.05261897 0.14822417
0.019049639 0.03623271 -0.03281935 -0.08600673 -0.027635293 0.014647561 -0.008003451 -0.038961098
0.11336475 -0.03667607 0.06664767 -0.06395536 -0.058382872 -0.054428946 -0.032074787 0.036997754
0.018939778 0.078918844 -0.0053668027 -0.03220583 0.05126121 0.060476206 -0.022924716 0.014356639
-0.04128544 -0.0154699525 -0.02886194 0.07582764 0.016172249 0.024932804 0.04397278 -0.08138382
0.004991915 0.08075595 0.118844174 0.032025296 0.075588025 -0.0084877135 -0.022291576 -0.019367084
-0.10731559 0.010494353 0.021651005 -0.07598023 0.11387701 0.09060648 0.008603832 -0.010810173
0.06820356 0.05192516 0.0012484253 -0.003755518 -0.07589535 0.027008383 0.050929684 0.0938725
0.097452864 -0.09634092 0.16870674 -0.073600225 0.022943461 0.043588508 -0.040964015 -0.061747033
-0.066637516 0.018192792 -0.018360343 0.018808525 0.020183712 -0.0053132954 0.06377119 0.08976524
0.07247387 0.024296835 -0.04345792 0.046059612 0.088541485 0.009783764 0.11617932 -0.046634994
0.015619848 0.065313816 -0.03776377 0.07296546 -0.034917414 0.010646274 0.08611801 0.11373591
0.040195193 -0.054801207 -0.06204915 -0.07783236 0.02667648 0.05895673 0.08728445 0.07072326
0.06790243 0.066418625 -0.05303147 -0.073333785 0.089134865 -0.023985434 0.045574363 -0.09457355
0.016776234 0.020530855 0.0031169911 0.08091567 0.062724546 -0.017768437 0.017955732 -0.10559838
-0.081316516 -0.052144732 0.06522198 0.019540943 0.039265815 -0.1321723 -0.020543132 0.03358006
0.050453562 -0.02939532 -0.03203301 -0.11229355 0.10753889 -0.040562093 -0.013439272 0.090935975
0.021347465 -0.10588195 -0.028568247 -0.0143224895 -0.14296655 0.101322636 0.07584167 -0.1837864
-0.03236133 0.039448943 -0.027944585 0.011262143 0.0039114803 -0.017135326 0.033149872 -0.065902434
-0.003745377 -0.019484982 -0.02182756 0.13632527 0.019959264 -0.05550103 -0.12239142 -0.0394259
0.047866106 0.01712999 0.027512085 0.07077786 0.085651994 0.08904915 0.12594686 -0.054458395
-0.09051208 -0.13385835 0.104574986 -0.10296055 0.09295426 -0.09863465 0.10286174 0.15929864
0.054640763 -0.004849968 -0.07236044 -0.011524463 -0.000806819 0.16527435 0.02755007 -0.08609025
-0.040240906 0.1329064 -0.074826896 0.022042016 0.13078439 0.11332934 -0.05549628 -0.051333122
0.038114596 0.039132312 0.010275301 0.018032538 0.09042425 0.0369552 0.077100925 0.0018542099
-0.042553723 0.065659195 -0.113458954 -0.009890502 -0.05986599 -0.03820443 -0.021126643 0.057297867
0.03313539 -0.05650713 -0.023151413 -0.1364521 0.0038911197 -0.11326769 0.03947222 0.07829263
0.068363175 -0.060678985 0.01198159 -0.048983578 -0.09417978 0.008288005 -0.07801666 0.004587311
-0.031471282 -0.07989556 -0.024078684 -0.02482181 0.009905404 0.048107695 0.10384176 -0.026351845
0.04050258 -0.02544293 0.001611294 0.010213473 0.019255735 -0.032075405 0.057123654 0.052165728
-0.021748437 0.027073178 -0.0023799608 -0.034362286 0.11554709 0.040120877 -0.0765226 0.05654195
-0.09517075 0.10452914 0.033171467 0.07419674 0.007875918 -0.08146869 0.0125414245 -0.096224375
00000000: a915 55bd d24e 2fbd b2fd d7bd f3b7 25bd
00000010: e1c2 aebd 45c8 17bc fd86 57bd 14c8 173e
00000020: fd0d 9c3c c068 143d 956d 06bd 4c24 b0bd
00000030: 6963 e2bc 53fc 6f3c e820 03bc ac95 1fbd
00000040: c72b e83d a639 16bd 937e 883d 07fb 82bd
00000050: e122 6fbd e3f0 5ebd da60 03bd f58a 173d
00000060: 9827 9b3c 34a0 a13d 01dc afbb 43ea 03bd
00000070: 46f7 513d e6b5 773d 9dcc bbbc 1c38 6b3c
00000080: ec1a 29bd af75 7dbc e06f ecbc 864b 9b3d
00000090: aa7b 843c e13f cc3c cd1c 343d 8fac a6bd
000000a0: 3893 a33b 6063 a53d 9364 f33d f52c 033d
000000b0: e5cd 9a3d 0d10 0bbc d39c b6bc b8a7 9ebc
000000c0: 47c8 dbbd 82f0 2b3c 735d b13c 869b 9bbd
000000d0: 5a38 e93d e48f b93d 16f7 0c3c 271d 31bc
000000e0: 4fae 8b3d 7aaf 543d 34a2 a33a 231f 76bb
000000f0: 056f 9bbd af40 dd3c a59b 503d 3a40 c03d
00000100: 5e95 c73d 634e c5bd 76c1 2c3e b7bb 96bd
00000110: edf3 bb3c dd89 323d e2c9 27bd 75ea 7cbd
00000120: 4079 88bd 0d09 953c 6e68 96bc 5614 9a3c
00000130: 5058 a53c 271b aebb 789a 823d d7d6 b73d
00000140: 2e6d 943d 280a c73c ef00 32bd 01a9 3c3d
00000150: 3d55 b53d 154c 203c 6cef ed3d 5604 3fbd
00000160: 64ea 7f3c 40c3 853d 2fae 1abd ea6e 953d
00000170: 9005 0fbd b66d 2e3c a45e b03d 5fee e83d
00000180: b7a3 243d 3b77 60bd 4027 7ebd 9366 9fbd
00000190: a288 da3c 9d7c 713d 31c2 b23d 5bd7 903d
000001a0: 6e10 8b3d 7d06 883d 8737 59bd 0630 96bd
000001b0: 578c b63d 1a7d c4bc 2fac 3a3d c7af c1bd
000001c0: 506e 893c 5330 a83c 6f46 4c3b 1db7 a53d
000001d0: ba75 803d 1d8f 91bc e617 933c f743 d8bd
000001e0: 4689 a6bd b795 55bd 1a93 853d 5414 a03c
000001f0: 31d5 203d 2d58 07be 124a a8bc 3f8b 093d
00000200: 65a8 4e3d 74ce f0bc 0c35 03bd 29fa e5bd
00000210: 593d dc3d 7024 26bd 6430 5cbc a43c ba3d
00000220: e1e0 ae3c a3d8 d8bd f507 eabc e0a8 6abc
00000230: d365 12be 3e82 cf3d e152 9b3d 8132 3cbe
00000240: 508d 04bd 3795 213d 0bec e4bc da84 383c
00000250: e02b 803b 625f 8cbc 29c8 073d dbf7 86bd
00000260: 0075 75bb f89e 9fbc b6cf b2bc da98 0b3e
00000270: 9c81 a33c 0c55 63bd 5aa8 fabd 0d7d 21bd
00000280: 400f 443d 3154 8c3c 0661 e13c fcf3 903d
00000290: 506a af3d 675f b63d 37f8 003e c40f 5fbd
000002a0: 665e b9bd 2a12 09be 692b d63d fbdc d2bd
000002b0: ce5e be3d f700 cabd 2da9 d23d 2f1f 233e
000002c0: fece 5f3d 7bec 9ebb b631 94bd 1ad1 3cbc
000002d0: b580 53ba ae3d 293e afb0 e13c 1650 b0bd
000002e0: a6d3 24bd 9e18 083e d83e 99bd 7591 b43c
000002f0: 58ec 053e 3719 e83d 1150 63bd ae42 52bd
00000300: 0d1e 1c3d 3449 203d bc59 283c f9b8 933c
00000310: 5930 b93d 565e 173d 17e7 9d3d f608 f33a
00000320: d04c 2ebd 5478 863d 2b5d e8bd c60b 22bc
00000330: 0a36 75bd 407c 1cbd c811 adbc 2bb1 6a3d
00000340: fab8 073d 0574 67bd 08a8 bdbc 19ba 0bbe
00000350: 2802 7f3b e4f8 e7bd 9fad 213d e357 a03d
00000360: fe01 8c3d 878a 78bd 6e4e 443c 01a3 48bd
00000370: 54e1 c0bd 6aca 073c 33c7 9fbd 2751 963b
00000380: 08e8 00bd 49a0 a3bd a940 c5bc 1c57 cbbc
00000390: 474a 223c 930c 453d fdaa d43d d3df d7bc
000003a0: 09e6 253d b16d d0bc 0e32 d33a 6956 273c
000003b0: 34be 9d3c 8061 03bd 7efa 693d bbab 553d
000003c0: c729 b2bc 92c8 dd3c 1ef9 1bbb 78bf 0cbd
000003d0: f4a3 ec3d ca55 243d e2b7 9cbd 8898 673d
000003e0: e2e8 c2bd 6013 d63d cede 073d 76f4 973d
000003f0: ff09 013c 0ed9 a6bd 8c7a 4d3c 4911 c5bd
