models/eeg_only/s_31.pt (torch, 561186 bytes, 37 tensors)

band_attn.fc1.weight f4 [8, 5]
0.25804484 -0.24443977 -0.20745794 0.060485486 0.30642232 -0.42354706 -0.13201709 -0.0496168
0.1042524 -0.31380868 -0.49170363 0.13436349 -0.32930377 -0.54802823 -0.060065497 0.013524489
-0.12869404 -0.22067046 -0.17625892 0.0015624422 -0.043620154 -0.10950914 -0.50179905 0.017942809
-0.44758102 -0.4103504 0.43947813 0.47499117 0.21186666 0.40023637 0.15816027 -0.34365046
-0.29048604 -0.009004563 -0.17644854 -0.36881807 -0.15741691 -0.29448515 0.2301187 -0.28755286
00000000: 741e 843e 6b4e 7abe db6f 54be a1bf 773d
00000010: 63e3 9c3e 29db d8be 7d2f 07be fc3a 4bbd
00000020: 4882 d53d 88ab a0be 94c0 fbbe 9596 093e
00000030: 819a a8be 944b 0cbf 3d07 76bd d195 5d3c
00000040: 5fc8 03be 70f7 61be 387d 34be dcca cc3a
00000050: 0cab 32bd 5446 e0bd e775 00bf ccfc 923c
00000060: 5729 e5be 7319 d2be 4703 e13e 0b32 f33e
00000070: 93f3 583e c8eb cc3e c4f4 213e f4f2 afbe
00000080: 96ba 94be e087 13bc edae 34be b9d5 bcbe
00000090: e631 21be c2c6 96be 3da4 6b3e 213a 93be

band_attn.fc1.bias f4 [8]
-0.0716817 0.46151027 0.34027943 -0.39621302 0.48322305 0.052326843 -0.37545893 -0.22369893
00000000: dbcd 92bd 134b ec3e 1b39 ae3e 6fdc cabe
00000010: 0369 f73e ac54 563d 273c c0be 5511 65be

band_attn.fc2.weight f4 [5, 8]
0.04434257 0.024844961 0.036530267 -0.09516468 0.052045412 -0.06095969 -0.14610541 -0.27104416
0.4984091 0.15857981 -0.09170502 -0.20256999 -0.18077105 -0.06975323 0.32358205 -0.24344563
-0.38633907 0.10781573 0.4079165 -0.13438138 0.44333717 0.03481066 0.13574956 0.39601243
-0.35682145 -0.34753075 0.0061052754 0.008298993 0.17144309 0.15500106 -0.19586243 -0.13116585
0.5564636 0.07005231 0.023418717 -0.15711524 0.21630165 -0.2819583 -0.39197445 0.0023819208
00000000: 8ea0 353d a987 cb3c c3a0 153d b3e5 c2bd
00000010: 922d 553d deb0 79bd a89c 15be 4dc6 8abe
00000020: 7a2f ff3e bf62 223e d7cf bbbd 826e 4fbe
00000030: 0c1c 39be c8da 8ebd 8cac a53e d049 79be
00000040: 3cce c5be 7ece dc3d 6eda d03e 469b 09be
00000050: 17fd e23e 9f95 0e3d ef01 0b3e 24c2 ca3e
00000060: 4db1 b6be 8def b1be c30e c83b 80f8 073c
00000070: c78e 2f3e 99b8 1e3e 2990 48be 5750 06be
00000080: 6674 0e3f 9677 8f3d 9cd8 bf3c d1e2 20be
00000090: 2e7e 5d3e d75c 90be e0b0 c8be 001a 1c3b

band_attn.fc2.bias f4 [5]
-0.12841666 0.25849375 0.19150165 -0.17620488 -0.056294084
00000000: a87f 03be 4b59 843e 0219 443e 0d6f 34be
00000010: a094 66bd

feat_proj.weight f4 [128, 21]
-0.19796464 -0.28084227 -0.20822556 0.06283469 -0.25038636 0.23728672 -0.24266168 -0.1853709
0.18047586 -0.16400623 0.016974932 -0.09509916 0.104865804 -0.24347176 0.21171209 -0.021021131
0.083914235 0.09147681 -0.023066362 0.21014202 -0.09614136 0.14737566 -0.13331684 0.02311255
-0.07869171 0.27936974 0.1450483 -0.05950605 0.1384533 0.20441453 -0.014998473 -0.060478307
-0.07805136 0.13179559 -0.14310919 0.038942393 -0.08772045 0.06307174 0.18310627 0.043504678
0.033867408 0.06660131 -0.0709336 0.1682666 0.2524011 -0.058467537 -0.24149764 0.14809515
0.15208228 -0.046771526 -0.10048157 -0.06809067 0.13946497 0.17824994 0.01480137 -0.10790852
0.1106408 -0.00038993038 -0.07684513 0.17947827 -0.007372825 -0.05080413 -0.25344303 0.22159524
-0.050506685 0.19371666 -0.08753007 0.26471987 0.020386897 0.11340616 0.16732515 -0.17576915
0.03601951 0.20659342 0.20054892 -0.23145524 0.15089358 -0.05399269 0.009442784 -0.2373242
0.04867498 0.03129695 0.064467475 0.34878054 -0.23116927 0.17691559 0.10775801 -0.33813408
0.19842617 -0.23777315 -0.099850215 -0.21490897 -0.06285584 -0.025813384 -0.20131426 -0.18376487
0.08768437 -0.08960106 -0.024707437 0.044012707 0.0036082217 0.1641229 -0.039788574 0.032590434
0.010898676 -0.0706221 -0.16898753 -0.21868192 -0.051198352 -0.19768782 0.1501388 0.051969416
-0.05754127 -0.1467361 0.10115851 -0.038486067 -0.15972006 0.092258275 -0.088259 -0.12560464
-0.090204716 -0.03172379 0.22301285 0.0065276837 0.15154105 -0.08144225 -0.045406904 0.23067397
0.025140893 0.11351902 -0.027615624 0.0807823 -0.052360702 -0.10268116 0.057853345 0.088810235
-0.151195 0.18389146 -0.08706796 -0.079632975 0.065175794 0.061769273 0.07161587 -0.019146405
0.1190613 -0.26730958 0.31822753 -0.0861382 -0.12097198 -0.08101052 0.09762208 -0.049999498
-0.06598138 -0.015707184 -0.08575531 0.07871127 0.09062526 0.102250025 -0.17532717 -0.09645482
0.14848128 -0.17552623 0.02778989 -0.17411081 0.07584479 0.11628139 -0.23863173 0.3749639
0.04207903 -0.1266434 0.19627936 -0.018047098 0.2789244 0.012094533 -0.08105333 0.15582293
0.18480882 0.07995652 0.03233474 -0.13486871 0.03255535 -0.09161541 -0.17997535 0.17900436
0.21891521 0.015982855 0.19230115 -0.15440136 -0.120722376 -0.14745967 0.0023208475 -0.13534705
-0.017255113 -0.13979606 -0.13204817 0.19546095 -0.01054571 0.019371731 -0.10825082 0.003273025
0.021053478 -0.21113345 -0.1276966 -0.2103765 0.18834189 0.21385933 -0.17487113 0.112730466
0.03187953 -0.088534646 0.069727115 -0.22727735 -0.027776232 -0.11354237 -0.3165725 -0.23406059
-0.24319111 0.06509276 -0.0113704335 -0.074543536 0.22463888 0.01617816 0.19847204 0.30753693
0.13551429 -0.20898901 -0.09398922 -0.14440191 0.18224417 -0.19496 -0.24544305 0.026950397
-0.17342402 -0.054691978 -0.11354321 -0.21850766 -0.15160768 -0.0788572 -0.0220849 -0.16481122
0.07373606 0.046698403 -0.11608172 0.118380845 -0.15633096 -0.019094279 -0.105128825 0.17909324
0.14618212 -0.15442492 0.079082295 -0.24249671 0.055728346 -0.16302529 0.3156925 0.06862556
00000000: 3eb7 4abe 8fca 8fbe 1539 55be 79af 803d
00000010: a432 80be 4afb 723e 4e7c 78be dfd1 3dbe
00000020: aace 383e 40f1 27be 030f 8b3c 59c3 c2bd
00000030: e2c3 d63d a950 79be 0ecb 583e 8234 acbc
00000040: 3adb ab3d 3258 bb3d abf5 bcbc 782f 573e
00000050: c3e5 c4bd a5e9 163e 3684 08be 8856 bd3c
00000060: 1f29 a1bd 8d09 8f3e 8b87 143e 9ebc 73bd
00000070: b4c6 0d3e 0b52 513e 28bc 75bc 1ab8 77bd
00000080: 64d9 9fbd 6cf5 063e 378b 12be 0f82 1f3d
00000090: c7a6 b3bd c22b 813d 3680 3b3e f631 323d
000000a0: 8db8 0a3d 4566 883d a345 91bd 144e 2c3e
000000b0: b83a 813e a87b 6fbd 284b 77be 41a6 173e
000000c0: 75bb 1b3e 8093 3fbd 48c9 cdbd 1f73 8bbd
000000d0: e8cf 0e3e 2787 363e 7281 723c 24ff dcbd
000000e0: a597 e23d 926f ccb9 fb60 9dbd 27c9 373e
000000f0: bd97 f1bb fe17 50bd 49c3 81be dde9 623e
00000100: 19e0 4ebd a95d 463e f742 b3bd 5d89 873e
00000110: 6c02 a73c 7d41 e83d 4957 2b3e d4fc 33be
00000120: 3289 133d 3a8d 533e b25c 4d3e 9a02 6dbe
00000130: d983 1a3e 7027 5dbd e8b5 1a3c 1d05 73be
00000140: 6a5f 473d 3b31 003d 8607 843d 5d93 b23e
00000150: a3b7 6cbe 5c29 353e 3bb0 dc3d e91f adbe
00000160: 3b30 4b3e ce7a 73be 457e ccbd 1911 5cbe
00000170: 90ba 80bd 9776 d3bc 5325 4ebe dc2c 3cbe
00000180: dd93 b33d c380 b7bd 4067 cabc ab46 343d
00000190: ea77 6c3b d50f 283e 58f9 22bd 8c7d 053d
000001a0: 5c90 323c 52a2 90bd 110b 2dbe 27ee 5fbe
000001b0: 5db5 51bd ad6e 4abe fcbd 193e e2dd 543d
000001c0: 65b0 6bbd fd41 16be 312c cf3d 91a3 1dbd
000001d0: a88d 23be e8f1 bc3d 22c1 b4bd 819e 00be
000001e0: 40bd b8bd cef0 01bd 7b5d 643e 2ee6 d53b
000001f0: 942d 1b3e 32cb a6bd 97fc 39bd cc35 6c3e
00000200: 46f4 cd3c a97c e83d 293a e2bc 3171 a53d
00000210: 2d78 56bd 804a d2bd a1f7 6c3d 24e2 b53d
00000220: ddd2 1abe 0b4e 3c3e b050 b2bd 9d16 a3bd
00000230: e37a 853d c701 7d3d 57ab 923d ecd8 9cbc
00000240: 69d6 f33d cddc 88be b8ee a23e 3969 b0bd
00000250: 28c0 f7bd d8e8 a5bd 16ee c73d 46cc 4cbd
00000260: 3f21 87bd 5aac 80bc 7ba0 afbd 6033 a13d
00000270: bc99 b93d 7668 d13d f788 33be 1b8a c5bd
00000280: 7a0b 183e 26bd 33be a0a7 e33c 1b4a 32be
00000290: 8354 9b3d f024 ee3d e05b 74be 45fb bf3e
000002a0: 105b 2c3d cfae 01be 75fd 483e 82d7 93bc
000002b0: 2ecf 8e3e 2628 463c 4aff a5bd 0c90 1f3e
000002c0: 863e 3d3e 3ec0 a33d 6f71 043d 061b 0abe
000002d0: c258 053d dca0 bbbd 754b 38be eb4c 373e
000002e0: 4f2b 603e 7aee 823c 98ea 443e 641b 1ebe
000002f0: 4b3d f7bd abff 16be 5c19 183b 6b98 0abe
00000300: 985a 8dbc b326 0fbe a337 07be ea26 483e
00000310: eac7 2cbc 77b1 9e3c 9bb2 ddbd 3f80 563b
00000320: 5878 ac3c 5e33 58be e6c2 02be f06c 57be
00000330: b2dc 403e f1fd 5a3e 6b11 33be 3bdf e63d
00000340: 1c94 023d a751 b5bd 17cd 8e3d 65bb 68be
00000350: fb8a e3bc e788 e8bd ca15 a2be 94ad 6fbe
00000360: 1707 79be 5a4f 853d 0e4b 3abc 48aa 98bd
00000370: bc07 663e 1088 843c 413c 4b3e 7b75 9d3e
00000380: 42c4 0a3e 3701 56be 6c7d c0bd 18de 13be
00000390: 379e 3a3e 98a3 47be 6c55 7bbe 14c7 dc3c
000003a0: 1196 31be b204 60bd 5889 e8bd 79c0 5fbe
000003b0: 0b3f 1bbe e27f a1bd 64eb b4bc 46c4 28be
000003c0: ee02 973d d346 3f3d 41bc edbd a871 f23d
000003d0: 3915 20be 9b6b 9cbc c84d d7bd 3864 373e
000003e0: c4b0 153e 9121 1ebe e6f5 a13d 0f51 78be
000003f0: 6843 643d 1af0 26be 73a2 a13e 8f8b 8c3d

feat_proj.bias f4 [128]
-0.11622905 0.18619442 -0.03504504 0.15084624 -0.03668774 -0.18912865 0.14711814 0.097247496
-0.08452535 -0.19858739 -0.045315754 -0.13025913 -0.03687485 -0.06337826 -0.1788398 -0.092610665
0.02953241 -0.045451913 -0.15784597 -0.015174232 -0.02170099 -0.012183435 0.1229721 -0.0684277
-0.18769717 0.19795354 0.13413002 0.08266309 -0.043335058 -0.059397798 -0.073172785 0.05162662
0.027970409 -0.12697236 -0.15975189 0.12653947 0.13497074 0.120043255 -0.006126103 -0.12073613
-0.03515261 0.08452968 -0.038853984 -0.04059438 0.044484694 0.11956127 0.10264516 -0.0037703905
0.046895687 0.04066822 0.15694128 0.040255524 0.10114252 0.16205654 -0.020640237 0.08002631
0.0757878 -0.13594712 0.011006325 0.1433405 -0.11670694 0.038889237 -0.07674911 -0.18289118
0.07023089 -0.14772598 -0.01162065 0.1319755 -0.041865252 0.0041071577 0.119116 0.024987433
-0.013371403 0.08570363 -0.16903257 -0.007998835 0.035629276 -0.023143373 -0.042109698 0.124813356
-0.040734652 0.16868189 -0.026154315 0.15954864 -0.11924422 -0.0007932854 -0.017756509 -0.11131702
0.20625094 0.10359795 -0.08998675 -0.18735814 -0.028633056 -0.11269162 -0.061301142 0.0793488
0.065550044 -0.016725749 -0.09229492 -0.15367101 0.054538157 0.121687315 0.14630003 0.16305998
-0.14594615 0.20238619 0.08157811 0.17270054 -0.103006795 -0.2161458 -0.015489333 0.014248656
0.02621968 -0.102478996 -0.117039554 0.10054446 0.05299858 0.10284442 -0.088796146 0.17368205
0.09419602 -0.12886341 0.025655618 0.11872824 0.09371011 0.013966543 -0.0068630357 0.034283485
00000000: 7f09 eebd c0a9 3e3e 638b 0fbd 7077 1a3e
00000010: e245 16bd f1aa 41be 23a6 163e b229 c73d
00000020: a01b adbd 7e5a 4bbe 039d 39bd a662 05be
00000030: 150a 17bd 76cc 81bd c821 37be a9aa bdbd
00000040: f4ed f13c c92b 3abd 60a2 21be 589d 78bc
00000050: 46c6 b1bc 089d 47bc ccd8 fb3d d223 8cbd
00000060: b033 40be 55b4 4a3e 6159 093e 444b a93d
00000070: 1a80 31bd 1b4b 73bd 9ddb 95bd 6f76 533d
00000080: 3322 e53c 0b05 02be 0096 23be 9093 013e
00000090: c535 0a3e 3dd9 f53d 7abd c8bb 8144 f7bd
000000a0: 2ffc 0fbd e61d ad3d 5b25 1fbd 4b46 26bd
000000b0: 9535 363d 8adc f43d a037 d23d a818 77bb
000000c0: b115 403d b893 263d 37b5 203e fae2 243d
000000d0: cf23 cf3d 26f2 253e b715 a9bc d6e4 a33d
000000e0: a236 9b3d b935 0bbe df53 343c dac7 123e
000000f0: 0c04 efbd 524a 1f3d a32e 9dbd d347 3bbe
00000100: 36d5 8f3d 7b45 17be 8a64 3ebc 9624 073e
00000110: e67a 2bbd 5695 863b 17f3 f33d 72b2 cc3c
00000120: bb13 5bbc 6285 af3d e016 2dbe 8c0d 03bc
00000130: 01f0 113d 2c97 bdbc 387b 2cbd 259e ff3d
00000140: 61d9 26bd f2ba 2c3e 9341 d6bc b860 233e
00000150: 5036 f4bd 7bf4 4fba 1976 91bc 2efa e3bd
00000160: 7233 533e 292b d43d f94a b8bd d0da 3fbe
00000170: df8f eabc ddca e6bd e816 7bbd a081 a23d
00000180: 1a3f 863d 7004 89bc 1e05 bdbd ef5b 1dbe
00000190: 6763 5f3d 3337 f93d adcf 153e 32f9 263e
000001a0: e872 15be 533e 4f3e 6d12 a73d 69d8 303e
000001b0: 3af5 d2bd 5355 5dbe f9c6 7dbc 3273 693c
000001c0: a8ca d63c 82e0 d1bd 6fb2 efbd 41ea cd3d
000001d0: 0a15 593d 18a0 d23d c1da b5bd b5d9 313e
000001e0: d8e9 c03d c5f4 03be bb2b d23c cb27 f33d
000001f0: 16eb bf3d edd3 643c 51e3 e0bb d76c 0c3d

local1.conv.bias f4 [128]
-0.019865142 0.03707104 0.015560279 -0.00331722 0.027545448 -0.020893067 0.017651435 -0.02344756
0.0005214855 0.014959287 -0.025846975 0.0063884705 0.021759806 -0.018546969 0.018021315 0.019053813
0.008229053 -0.01822943 -0.015121267 -0.0430643 0.010909388 0.008612116 -0.0053885365 0.012316112
0.020144334 0.0014142974 -0.007740733 -0.018666307 -0.0031477048 0.009235305 0.015042505 0.034754455
-0.0066729113 -0.010537974 0.008457131 -0.027620167 0.015998643 0.006770861 0.02885747 -0.0135711385
-0.00083865953 0.011087728 -0.0039212285 -0.021853158 -0.0020802831 0.021550735 0.0041417466 0.010359477
0.0065285745 0.029690018 0.01160273 0.023759974 -0.0025573643 0.024848187 0.0036890507 0.0037255762
0.013237286 -0.030954307 -0.017417485 -0.0054763304 -0.0055634067 -0.005998757 -0.0059069614 0.0060891565
0.0097876815 0.0031542906 -0.016984196 0.018616688 0.0024594474 0.0024815053 -0.008175728 0.011834804
-0.0008685538 0.006899498 -0.009058059 0.017786058 -0.031934444 0.007628314 0.015293212 0.006014474
-0.01611028 -0.008127148 -0.007738114 -0.003763848 0.023385897 0.021619035 0.01757825 0.005560498
0.011687302 0.029936988 0.006811036 0.024678031 0.0006813698 0.0019389496 -0.01813033 0.0069090854
0.009696552 0.032288276 -0.010410996 0.0015179851 0.021748701 0.011852129 -0.021205481 -0.012487958
0.020064646 -0.005388809 -0.014020223 0.02633344 0.02729237 -0.0011454119 -0.0071482705 0.037088368
0.019598175 -0.026251685 -0.043208446 0.026245931 0.027860086 0.016620835 -0.012384425 0.017982127
0.027628185 0.037262276 0.009924068 0.0018625639 -0.013062223 -0.024703817 -0.020270232 0.034486536
00000000: 39bc a2bc ced7 173d 8af0 7e3c b765 59bb
00000010: fea6 e13c f027 abbc be99 903c 1915 c0bc
00000020: 4db4 083a cc17 753c 09bd d3bc 6056 d13b
00000030: 9f41 b23c d0ef 97bc 70a1 933c be16 9c3c
00000040: 26d3 063c e355 95bc 31bf 77bc 3164 30bd
00000050: 4abd 323c d519 0d3c 5292 b0bb 85c9 493c
00000060: bb05 a53c f25f b93a faa5 fdbb 15ea 98bc
00000070: b949 4ebb ad4f 173c d774 763c b05a 0e3d
00000080: 70a8 dabb 77a7 2cbc c78f 0a3c b043 e2bc
00000090: 960f 833c 19de dd3b 8066 ec3c 7b59 5ebc
000000a0: 7dd9 5bba 4da9 353c a67d 80bb 6505 b3bc
000000b0: 5c55 08bb 2b8b b03c 7db7 873b ccba 293c
000000c0: a7ed d53b 7b38 f33c 6019 3e3c 47a4 c23c
000000d0: 7499 27bb 6d8e cb3c 00c4 713b cc28 743b
000000e0: 34e1 583c e393 fdbc 1daf 8ebc ca72 b3bb
000000f0: 3d4d b6bb 3991 c4bb 2f8f c1bb 8c87 c73b
00000100: 835c 203c 37b8 4e3b 7122 8bbc 0682 983c
00000110: ae2e 213b c0a0 223b 7df3 05bc c4e6 413c
00000120: a9af 63ba 2f15 e23b 4168 14bc 11b4 913c
00000130: b1cd 02bd f0f6 f93b 6190 7a3c 1115 c53b
00000140: b5f9 83bc bb27 05bc 0190 fdbb e4aa 76bb
00000150: c893 bf3c 671a b13c 4300 903c d734 b63b
00000160: 197c 3f3c 6a3e f53c 1c2f df3b 9529 ca3c
00000170: f49d 323a 5a24 fe3a 0f86 94bc 9c65 e23b
00000180: 49de 1e3c b640 043d e292 2abc 21f7 c63a
00000190: 552a b23c 6f2f 423c 1eb7 adbc 4b9a 4cbc
000001a0: 9d5e a43c 9b94 b0bb 14b5 65bc 3ab9 d73c
000001b0: 4094 df3c a521 96ba 0a3c eabb f9e9 173d
000001c0: 5a8c a03c c60d d7bc 57fb 30bd b501 d73c
000001d0: d63a e43c 6b28 883c 0be8 4abc 414f 933c
000001e0: 8154 e23c 54a0 183d 8f98 223c 4621 f43a
000001f0: ef02 56bc a95f cabc c20d a6bc c141 0d3d

local1.conv.lin.weight f4 [128, 128]
0.024954768 -0.08333018 -0.025577718 -0.23401643 -0.08410731 0.03403185 0.1159101 0.06651894
-0.0265307 0.062109914 -0.07314306 -0.17768279 0.07504292 0.10553673 0.0551247 -0.061746806
-0.07249589 -0.0002878265 0.15985146 -0.008530857 0.15368955 -0.18227854 -0.15056843 -0.05865327
0.31262273 -0.020870086 -0.02443955 -0.02145335 -0.087689765 -0.066725634 0.14400831 -0.16171023
0.030293977 0.061229847 0.2859824 0.06759944 -0.34519553 -0.15094435 -0.0778339 0.07516689
0.09634691 -0.19653286 -0.13639176 0.023661705 -0.15548451 0.0026790153 0.026786568 -0.10343579
-0.04840029 -0.033643816 -0.09195558 -0.16868047 0.073788956 0.017773742 -0.03331395 -0.11203397
0.09265898 9.86522e-05 0.031772327 -0.16258402 -0.12074311 -0.0800039 -0.031860117 0.09240532
0.008483234 0.061247133 0.06257432 0.116799794 -0.05745475 -0.009572493 -0.16199103 0.03456632
0.02158697 -0.046839263 0.12301131 0.13182741 -0.0908761 0.055792168 -0.14303908 0.035844263
-0.06543802 -0.004614611 -0.08189712 0.075469784 0.013811741 0.016096914 -0.069693744 -0.18260442
-0.2829514 0.15474328 0.0010017932 0.070403576 -0.014463357 -0.09625133 -0.1302034 -0.006600755
0.0944179 0.13291806 0.2747879 -0.10978054 -0.03194171 -0.11710068 -0.08113939 -0.08022113
-0.052512817 -0.072551854 -0.019411106 -0.01617436 -0.018925093 0.005242668 -0.11053179 -0.15025394
0.1354826 0.11784287 0.074022196 -0.05249159 -0.03592211 -0.2649453 -0.03674456 -0.020546993
0.17556693 0.053346734 -0.15217161 -0.057865873 0.0016583042 -0.18744923 -0.004790043 -0.013208192
0.041970998 0.05037478 0.05590592 0.1486376 -0.019734532 -0.08389565 -0.10062106 0.11449966
0.036039636 0.08497029 -0.09726475 0.0028967038 -0.05447485 0.08357276 0.13122934 -0.11239784
0.15019932 0.105449714 0.13453995 -0.010978826 0.073101915 -0.053607967 0.012549319 -0.13710643
-0.042669598 0.03350643 -0.119162165 0.049166616 0.12518351 0.11035223 0.093079135 -0.013543714
0.13839632 0.021177048 0.10849588 0.037156187 0.003535562 -0.011498561 -0.050950475 -0.085579835
-0.04994793 0.07795945 0.0946173 0.120862566 -0.08538665 0.14189433 0.004088247 -0.12943427
0.037659105 0.15138139 -0.0757864 -0.080038555 -0.08136319 -0.057214115 -0.0935592 -0.02329937
0.07071508 0.019213296 0.022965584 0.10648781 0.012096688 -0.14066832 -0.13067496 -0.039467417
-0.11814859 -0.081435256 0.08216036 -0.06139185 0.0041667633 0.007393051 -0.06684577 0.09071513
0.076158725 0.032759663 -0.05094902 -0.06967112 0.14948454 -0.080807626 0.020508718 -0.08505102
-0.04676379 -0.12281233 -0.13946547 0.12757868 -0.14848943 0.11537014 -0.025778608 0.044144653
0.147861 0.090667985 0.027129216 -0.12413086 0.03517847 -0.03986686 0.053415306 0.18981081
0.069099456 -0.049361125 -0.08191382 0.11022368 0.0027034243 0.051573567 0.11622698 0.061938465
-0.049585752 0.12416397 -0.073227815 0.08445012 0.06669582 -0.08290341 -0.0666901 -0.05897915
-0.022887716 0.011230932 -0.152726 0.11973908 -0.093062356 -0.068510085 -0.045916643 -0.09160307
0.05146684 -0.10788429 0.103046685 0.036905788 -0.14606068 0.16045593 -0.13140333 -0.067064255
00000000: f16d cc3c 03a9 aabd 5d88 d1bc 01a2 6fbe
00000010: 7440 acbd fb64 0b3d 4662 ed3d 153b 883d
00000020: e956 d9bc f766 7e3d 07cc 95bd 7af2 35be
00000030: 1ab0 993d a423 d83d 70ca 613d 38ea 7cbd
00000040: ba78 94bd 6be7 96b9 1ab0 233e 02c5 0bbc
00000050: cb60 1d3e 3aa7 3abe 9c2e 1abe 693e 70bd
00000060: 1610 a03e bef7 aabc 7335 c8bc f0be afbc
00000070: b196 b3bd 73a7 88bd ea76 133e 5e97 25be
00000080: 132b f83c 26cc 7a3d 496c 923e 9371 8a3d
00000090: 78bd b0be 2891 1abe 6167 9fbd 19f1 993d
000000a0: 8751 c53d e93f 49be 48aa 0bbe 31d6 c13c
000000b0: 5537 1fbe 6b92 2f3b 816f db3c 25d6 d3bd
000000c0: 623f 46bd 19ce 09bd 3553 bcbd 93ba 2cbe
000000d0: aa1e 973d 3d9a 913c 3574 08bd 1172 e5bd
000000e0: fec3 bd3d 7fe3 ce38 b323 023d 6d7c 26be
000000f0: 2a48 f7bd 16d9 a3bd c17f 02bd 003f bd3d
00000100: 43fd 0a3c 46de 7a3d f726 803d bb34 ef3d
00000110: ac55 6bbd f2d5 1cbc fae0 25be 6a95 0d3d
00000120: 28d7 b03c 87da 3fbd 5bed fb3d c4fd 063e
00000130: 401d babd 5486 643d d678 12be 6fd1 123d
00000140: 5e04 86bd 2a36 97bb adb9 a7bd e78f 9a3d
00000150: a44a 623c addd 833c 98bb 8ebd a7fc 3abe
00000160: 02df 90be 0675 1e3e 9a4e 833a c02f 903d
00000170: b7f7 6cbc 6b1f c5bd 0a54 05be 254b d8bb
00000180: 2c5e c13d ac1b 083e 00b1 8c3e 9fd4 e0bd
00000190: 4fd5 02bd 7bd2 efbd 692c a6bd fa4a a4bd
000001a0: ae17 57bd 1196 94bd 0a04 9fbc 1780 84bc
000001b0: cc08 9bbc b0ca ab3b 7e5e e2bd 2bdc 19be
000001c0: f3bb 0a3e 9a57 f13d f398 973d 6c01 57bd
000001d0: 1023 13bd e9a6 87be 7781 16bd 2b52 a8bc
000001e0: d1c7 333e 1b82 5a3d e0d2 1bbe c404 6dbd
000001f0: 755b d93a b1f2 3fbe cbf5 9cbb 2c67 58bc
00000200: c8e9 2b3d c955 4e3d 9bfd 643d 7434 183e
00000210: 50aa a1bc 7cd1 abbd 6a12 cebd cc7e ea3d
00000220: 4c9e 133d e704 ae3d be32 c7bd a0d6 3d3b
00000230: 0521 5fbd 3228 ab3d fc60 063e d730 e6bd
00000240: dacd 193e 05f6 d73d d7c4 093e 89e0 33bc
00000250: 75b6 953d 0794 5bbd a99b 4d3c a165 0cbe
00000260: 51c6 2ebd 0a3e 093d 4b0b f4bd ef62 493d
00000270: 1b30 003e 5a00 e23d 46a0 be3d 74e6 5dbc
00000280: c4b7 0d3e 7d7b ad3c 1733 de3d 1631 183d
00000290: e3b4 673b 7664 3cbc 72b1 50bd 7b44 afbd
000002a0: 3396 4cbd 34a9 9f3d b7c6 c13d cb86 f73d
000002b0: 32df aebd bf4c 113e b4f6 853b 6b8a 04be
000002c0: 6f40 1a3d b903 1b3e e635 9bbd 41eb a3bd
000002d0: bfa1 a6bd 5959 6abd f79b bfbd 52de bebc
000002e0: 11d3 903d 3465 9d3c 5222 bc3c 4816 da3d
000002f0: 3031 463c 5b0b 10be a8cf 05be 96a8 21bd
00000300: e3f7 f1bd 87c7 a6bd b143 a83d 0576 7bbd
00000310: 5889 883b 6841 f23b 6fe6 88bd dbc8 b93d
00000320: 1bf9 9b3d ff2e 063d ebaf 50bd bbaf 8ebd
00000330: 7a12 193e 787e a5bd e601 a83c 3b2f aebd
00000340: 638b 3fbd 0885 fbbd 09d0 0ebe fca3 023e
00000350: 9d0d 18be 2e47 ec3d a92d d3bc 06d1 343d
00000360: e068 173e 23b0 b93d 173e de3c 5238 febd
00000370: 4d17 103d 6f4b 23bd 02ca 5a3d c45d 423e
00000380: 0484 8d3d e42e 4abd 6fc2 a7bd f4bc e13d
00000390: ef2b 313b ce3e 533d 6908 ee3d 30b3 7d3d
000003a0: 6e1a 4bbd ae49 fe3d 77f8 95bd 2ff4 ac3d
000003b0: d197 883d 43c9 a9bd d294 88bd 1f94 71bd
000003c0: 057f bbbc f101 383c 3464 1cbe c339 f53d
000003d0: 7a97 bebd 044f 8cbd 1713 3cbd 649a bbbd
000003e0: e5ce 523d 70f2 dcbd 240a d33d 862a 173d
000003f0: ee90 15be 8f4e 243e 988e 06be fc58 89bd

local1.norm.weight f4 [128]
1.1961282 0.9482164 0.989563 1.0138599 0.954588 1.0434024 0.93299675 1.0268623
0.994045 1.0205417 1.023405 1.0609484 0.944294 1.1034572 1.0677133 0.9594022
0.9847676 1.0645454 1.0484776 1.1612908 0.8992182 0.9809943 0.94482887 0.9075346
0.97727156 1.0097959 1.0970266 1.0214602 1.0483971 1.0587882 0.9284123 0.97285116
1.0001959 1.1653358 1.0056537 1.0118914 0.94759274 1.0327903 0.9423723 1.0888361
1.0026147 0.9330213 1.0089192 1.0723989 1.0100905 0.93188065 1.0382102 1.0476357
0.9330824 0.9692508 0.9541183 0.91930884 1.0119962 0.9740528 1.0353625 1.0415312
0.96537787 1.0481882 1.0423849 1.007735 1.0361015 1.0976595 1.0377563 0.92683566
0.96171814 1.0227251 1.0741332 0.9103476 0.89065075 0.987432 1.0639219 1.0562271
1.0087084 0.98998785 1.0060058 1.0867236 1.0491053 1.01522 0.92743164 0.93985516
1.0191782 1.0425522 1.0641764 0.9557433 0.9726678 0.91542286 0.90932566 0.93036836
0.9628547 0.98050964 0.9981471 0.96379596 0.9740348 0.96985686 1.031334 1.038232
0.9266361 0.9194927 1.0447905 1.0250529 0.9782528 1.0677447 1.0480685 1.0226738
0.9884055 0.972354 1.063089 0.94944847 0.9524307 0.95094216 0.9675878 0.9832083
0.9956541 1.0216149 1.0227895 1.0305269 0.96476793 1.0506572 1.043696 0.9821332
0.93543375 0.9340558 0.9505988 0.9308122 1.0593053 1.1132782 0.9713674 0.8588273
00000000: bb1a 993f 4fbe 723f 0054 7d3f 29c6 813f
00000010: e15f 743f 368e 853f e0d8 6e3f 3970 833f
00000020: bc79 7e3f 1ca1 823f effe 823f 28cd 873f
00000030: 40bd 713f 163e 8d3f d4aa 883f 629b 753f
00000040: bb19 7c3f 0643 883f 8434 863f 2da5 943f
00000050: 2a33 663f 7122 7b3f 4ee0 713f 3054 683f
00000060: 782e 7a3f fe40 813f 5e6b 8c3f 35bf 823f
00000070: e031 863f 5f86 873f 6eac 6d3f c60c 793f
00000080: 6b06 803f b929 953f 43b9 803f a885 813f
00000090: 7095 723f 7932 843f 503f 713f fb5e 8b3f
000000a0: ae55 803f 7cda 6e3f 4424 813f 5e44 893f
000000b0: a54a 813f bb8f 6e3f 12e4 843f ed18 863f
000000c0: 7dde 6e3f d220 783f 1941 743f d357 6b3f
000000d0: 1789 813f 865b 793f c286 843f e550 853f
000000e0: 0123 773f 082b 863f de6c 853f 76fd 803f
000000f0: f99e 843f 1b80 8c3f 33d5 843f 1a45 6d3f
00000100: 2933 763f a8e8 823f 327d 893f 8a0c 693f
00000110: b001 643f 58c8 7c3f 982e 883f 7332 873f
00000120: 5b1d 813f d86f 7d3f ccc4 803f c219 8b3f
00000130: 1549 863f bbf2 813f 296c 6d3f 599a 703f
00000140: 6e74 823f 5a72 853f ef36 883f 98ab 743f
00000150: c200 793f 2759 6a3f 91c9 683f 9f2c 6e3f
00000160: a57d 763f ae02 7b3f 9186 7f3f 55bb 763f
00000170: 585a 793f 8a48 783f c102 843f c9e4 843f
00000180: 0638 6d3f e063 6b3f b2bb 853f ef34 833f
00000190: c76e 7a3f dcab 883f 1c27 863f fae6 823f
000001a0: 2508 7d3f 31ec 783f 4d13 883f 0e0f 733f
000001b0: 80d2 733f f270 733f d6b3 773f 8ab3 7b3f
000001c0: 30e3 7e3f 47c4 823f c4ea 823f 4ee8 833f
000001d0: 08fb 763f ef7b 863f d597 853f 156d 7b3f
000001e0: 9678 6f3f 481e 6f3f 715a 733f b549 6e3f
000001f0: 5197 873f e67f 8e3f 89ab 783f 1bdc 5b3f

local1.norm.bias f4 [128]
-0.052195683 -0.05400337 -0.10690999 -0.07799164 -0.051756732 -0.037959263 -0.10891698 -0.08941333
-0.09409974 -0.10800553 -0.045717534 -0.074162364 -0.071173266 -0.045767225 -0.06402712 -0.08069277
-0.075674534 -0.059764445 -0.038744148 -0.06849206 -0.12155662 -0.11647093 -0.10949512 -0.067494854
-0.08092006 -0.07998174 -0.046364713 -0.07447851 -0.06754238 -0.075603075 -0.12591177 -0.09861064
-0.074278064 -0.068180144 -0.069007166 -0.08892872 -0.123643376 -0.078052156 -0.10908185 -0.076371245
-0.07335413 -0.14007007 -0.116315395 -0.055270523 -0.08109694 -0.07475624 -0.061286643 -0.044147838
-0.117528655 -0.08889183 -0.16526122 -0.10095576 -0.054199193 -0.08479018 -0.03313394 -0.059159793
-0.13467136 -0.01685237 -0.04376682 -0.043975268 -0.0530155 -0.064011656 -0.0825389 -0.09913139
-0.07880697 -0.07015687 -0.01775426 -0.118918575 -0.13284062 -0.09694154 -0.0315707 -0.10261181
-0.079009004 -0.09346106 -0.08027505 -0.04927658 -0.055705406 -0.07681072 -0.10289289 -0.09144436
-0.058075618 -0.059550017 -0.07077317 -0.086524636 -0.11874376 -0.106238894 -0.07866583 -0.07296242
-0.09154306 -0.10776308 -0.074489154 -0.10378111 -0.072906174 -0.094726 -0.04275671 -0.08118057
-0.07265618 -0.0890903 -0.079432644 -0.04695068 -0.052807488 -0.042310603 -0.040926892 -0.06294949
-0.07358517 -0.08576577 -0.049695976 -0.11616798 -0.056559395 -0.11591737 -0.053711608 -0.0604276
-0.045329086 -0.036799565 -0.061139166 -0.03751994 -0.074282624 -0.07939285 -0.083438784 -0.05490878
-0.069805145 -0.10477023 -0.09772202 -0.10281302 -0.04054253 -0.08932249 -0.04892749 -0.15793566
00000000: 24cb 55bd a332 5dbd a0f3 dabd 15ba 9fbd
00000010: defe 53bd 2c7b 1bbd de0f dfbd 561e b7bd
00000020: 5db7 c0bd 0132 ddbd 4f42 3bbd 70e2 97bd
00000030: 4ac3 91bd 6a76 3bbd a720 83bd 4042 a5bd
00000040: 40fb 9abd 90cb 74bd 2fb2 1ebd 9145 8cbd
00000050: adf2 f8bd 5088 eebd fa3e e0bd be3a 8abd
00000060: 6bb9 a5bd 77cd a3bd ede8 3dbd 3088 98bd
00000070: a953 8abd c9d5 9abd 04ef 00be 60f4 c9bd
00000080: 191f 98bd 08a2 8bbd a153 8dbd 4320 b6bd
00000090: bd38 fdbd cfd9 9fbd 4e66 dfbd 8768 9cbd
000000a0: b13a 96bd 876e 0fbe c436 eebd 5863 62bd
000000b0: 2716 a6bd cd19 99bd b407 7bbd 5dd4 34bd
000000c0: ddb2 f0bd eb0c b6bd 3d3a 29be e5c1 cebd
000000d0: f9ff 5dbd 79a6 adbd 74b7 07bd 8a51 72bd
000000e0: 4ae7 09be fb0d 8abc d644 33bd 691f 34bd
000000f0: c826 59bd 8b18 83bd 280a a9bd 6605 cbbd
00000100: 8c65 a1bd 68ae 8fbd 6271 91bc 958b f3bd
00000110: 5f07 08be 4989 c6bd 4750 01bd 2426 d2bd
00000120: 79cf a1bd 8368 bfbd 3f67 a4bd 3dd6 49bd
00000130: 5a2b 64bd f04e 9dbd 82b9 d2bd 2e47 bbbd
00000140: b3e0 6dbd b8ea 73bd 86f1 90bd d433 b1bd
00000150: ee2f f3bd c793 d9bd 8d1b a1bd 526d 95bd
00000160: ee7a bbbd e4b2 dcbd c58d 98bd 318b d4bd
00000170: d54f 95bd b5ff c1bd a921 2fbd 0042 a6bd
00000180: c3cc 94bd fa74 b6bd 95ad a2bd 5b4f 40bd
00000190: aa4c 58bd e24d 2dbd f5a2 27bd aaeb 80bd
000001a0: d2b3 96bd f7a5 afbd 028e 4bbd 7ae9 edbd
000001b0: d3aa 67bd 1666 edbd b400 5cbd ee82 77bd
000001c0: feaa 39bd 24bb 16bd 106d 7abd 82ae 19bd
000001d0: 7d21 98bd b898 a2bd f4e1 aabd 07e8 60bd
000001e0: 00f6 8ebd c691 d6bd 7b22 c8bd a28f d2bd
000001f0: ed0f 26bd b6ee b6bd 3168 48bd e3b9 21be

local2.conv.bias f4 [128]
0.0067898342 -0.001217798 0.0028197994 -0.0002239534 0.003099605 0.0012154346 0.0035755357 0.00092982146
0.00022982172 0.00023396632 0.0015804359 0.002362441 0.0014052404 0.011473238 0.0008333405 0.010528788
0.0086158505 -0.0007323048 0.0018995439 0.0063626226 -0.0030216277 0.01762388 -0.0012487796 -0.0018721259
0.0006365844 0.043798946 0.011649535 0.0010460984 -0.013068257 0.0005938182 -0.071460634 -0.0022514083
-0.0007824629 -0.05673163 -0.00047673576 0.0003325467 0.001225253 0.0031299111 0.012058501 0.031048585
-0.006683472 0.0014015235 0.0073377835 -0.0035376505 0.001107186 0.0011358394 0.0019582163 -0.00073695276
0.0010493613 0.0062250127 0.002458807 9.527574e-05 0.032251336 0.0015734641 -0.0021875638 0.0010692393
0.0012879673 0.001642625 0.0014201113 0.0010687226 -0.0006624761 0.015216487 0.0039453334 -6.7164976e-05
0.0002819177 6.0719112e-06 0.0011894334 0.0015464685 -0.00035808957 0.0006423459 0.0010628356 0.002370598
0.00056932494 0.035979506 0.0021958223 -0.00015475939 0.027193455 -0.0011491318 0.0009360517 0.0008029692
0.0023147904 8.510512e-05 0.0021860446 -0.00032573869 0.00031827978 0.0008696037 0.0019326186 -0.00082641526
0.002362295 0.00055059424 -0.00030373762 -0.12560858 0.00071255665 0.010784512 -0.0022974466 0.0007210384
-0.000774851 0.0018489904 0.0016743013 0.0019141618 -0.0027818496 -0.0007541079 7.8686135e-05 0.0021289939
0.0026762774 0.001455564 -0.009234713 0.0037143966 -0.00340739 -0.0013400504 0.0018503708 -0.00067836646
0.00019177135 0.0017787023 -0.00044837547 0.001331435 0.00033206923 -0.07733908 0.00097474124 -0.00095174403
-0.002435839 0.0014952518 0.028184513 -0.0019215796 0.004384065 0.0005247265 0.0010752777 0.0013449446
00000000: 427d de3b 859e 9fba 62cc 383b 08d5 6ab9
00000010: be22 4b3b 384f 9f3a 8953 6a3b 43bf 733a
00000020: 4cfc 7039 db54 7539 a126 cf3a 2fd3 1a3b
00000030: 0b30 b83a 3ffa 3b3c 8974 5a3a f080 2c3c
00000040: 7f29 0d3c 25f8 3fba 1efa f83a 8c7d d03b
00000050: 8006 46bb f55f 903c 17ae a3ba 1f62 f5ba
00000060: 75e0 263a 8666 333d b1dd 3e3c 3d1d 893a
00000070: 3e1c 56bc 77aa 1b3a f459 92bd 5d8c 13bb
00000080: 321e 4dba 6d5f 68bd 64f2 f9b9 aa59 ae39
00000090: ab98 a03a 321f 4d3b 0591 453c 9a59 fe3c
000000a0: 0701 dbbb 53b3 b73a ca71 f03b edd7 67bb
000000b0: ff1e 913a 72e0 943a 6b55 003b 1030 41ba
000000c0: b98a 893a 31fb cb3b f023 213b c6ce c738
000000d0: fa19 043d b23c ce3a 3b5d 0fbb b825 8c3a
000000e0: 03d1 a83a 594d d73a 0723 ba3a 6114 8c3a
000000f0: 05aa 2dba 934e 793c db47 813b ecda 8cb8
00000100: 5ace 9339 52bd cb36 c3e6 9b3a dfb2 ca3a
00000110: f8bd bbb9 1b63 283a d84e 8b3a 095c 1b3b
00000120: c03e 153a 3f5f 133d c9e7 0f3b e846 22b9
00000130: cfc4 de3c 779e 96ba 5e61 753a 5a7e 523a
00000140: bdb3 173b 777a b238 be43 0f3b e8c7 aab9
00000150: cade a639 1ef6 633a eb4f fd3a caa3 58ba
00000160: bcd0 1a3b c155 103a f93e 9fb9 899f 00be
00000170: deca 3a3a 86b1 303c c290 16bb 1104 3d3a
00000180: 5f1f 4bba d359 f23a 3b74 db3a 9de4 fa3a
00000190: b14f 36bb 53af 45ba 4c04 a538 9786 0b3b
000001a0: 7c64 2f3b a0c8 be3a 324d 17bc 3c6d 733b
000001b0: 854e 5fbb a1a4 afba 2488 f23a 67d4 31ba
000001c0: 3b16 4939 5823 e93a f013 ebb9 8c83 ae3a
000001d0: 9419 ae39 f463 9ebd c785 7f3a 767e 79ba
000001e0: 99a2 1fbb 53fc c33a 35e3 e63c 83dd fbba
000001f0: 34a8 8f3b cd8d 093a 55f0 8c3a da48 b03a

local2.conv.lin.weight f4 [128, 128]
-0.15195666 -0.12565306 -0.11715875 0.044868447 0.053504508 0.11445971 0.030635918 -0.12212769
0.16916513 -0.087408416 -0.09633044 -0.029150676 -0.07744221 0.17309082 -0.0761958 0.12936124
-0.060868595 -0.062495418 0.006163519 -0.19200727 -0.09169232 0.03445562 -0.107862696 -0.044506293
-0.026570557 0.10935546 -0.0307808 -0.05297589 -0.15167026 0.063958526 -0.073263094 -0.119400576
0.14854069 -0.043945193 0.14105983 -0.11772596 -0.077511035 0.0930894 0.08015678 -0.014507902
0.07943908 0.11392694 0.07067751 0.14321727 -0.05690719 0.15166457 -0.12379517 0.11411278
-0.019860273 0.18469946 0.0037133028 0.030506728 0.124135196 0.0258355 0.024005607 0.027258568
-0.11796548 -0.07707445 0.06958795 0.0015066611 0.06941252 0.125891 -0.046018437 -0.1640569
-0.15807015 -0.089313604 0.043472454 0.07096409 0.0015982152 0.13356449 0.111391455 -0.0079632215
-0.14172512 -0.047992952 -0.107739925 0.17663696 0.014770087 0.06027383 0.12664016 -0.0954652
-0.17517878 0.043560967 -0.046485867 0.031033086 0.0993215 0.06489073 0.13110174 0.057873234
-0.060928505 -0.06769975 0.12504236 -0.057536397 0.041187942 0.00635197 0.009581341 -0.16289482
-0.13702427 0.10547307 -0.060331482 0.0073109856 -0.10610474 0.0968141 0.15249723 -0.089263275
0.11799781 0.07139549 0.039696977 -0.09634891 0.15374868 -0.031822346 0.02262681 -0.10177852
0.06696814 0.12259845 -0.081232876 0.008169752 -0.12508844 -0.05977488 0.047365524 -0.14746326
-0.0591643 -0.031207277 0.09518482 0.00035166822 -0.1331143 -0.11168127 0.119966246 0.063921385
0.04371996 0.11477366 0.1082976 -0.018186023 -0.02020415 0.02365618 0.10204137 -0.11049945
-0.08243514 -0.15164962 0.06339213 -0.011482454 -0.0828188 -0.17014982 0.012613129 -0.09241095
-0.15401538 -0.18628769 0.17464425 -0.004038249 0.016034238 -0.09679488 0.0039531654 -0.08173506
0.07075221 -0.07377381 0.13387318 0.034192476 0.0140617825 -0.19279388 -0.06909052 -0.073435694
0.013882595 -0.09430111 0.0009837828 0.008771869 0.08894754 0.12719409 -0.04173154 -0.013242754
-0.21190275 -0.22962177 0.0896893 0.19971749 -0.009492899 -0.043230057 0.106231414 0.12633976
-0.041287523 0.07638546 -0.0365838 0.054049257 -0.03115902 -0.07918012 -0.12295008 0.007654736
0.07373357 -0.07357978 -0.020503309 0.12021978 0.023178857 0.0015742818 -0.039880816 -0.13777597
-0.06812636 0.020989174 -0.1445206 -0.040442467 0.041757464 0.120425485 -0.06895526 0.15749425
-0.04989157 0.09923263 -0.13196355 0.07661174 -0.11047192 -0.07257679 0.068477705 0.09726783
-0.14765948 -0.028307183 0.02219556 0.10477712 -0.054943897 0.17074272 -0.008081187 -0.0030050091
0.051631205 0.0746527 0.04816683 0.033765636 0.09163029 0.093094826 -0.0101875 -0.18657309
0.00025291054 0.098631196 0.058532383 -0.043754805 -0.07548014 -0.06743272 0.12615898 -0.1619967
0.07699027 -0.08453163 -0.2002548 -0.004389274 0.02182976 0.15869723 0.12552449 0.051441744
0.073890515 0.13150504 -0.09915284 -0.19953081 -0.214948 0.10488689 -0.049345292 -0.13680877
0.08275653 -0.102442496 0.14728147 0.06957124 0.110795856 0.02802188 0.035688773 -0.069389224
00000000: 879a 1bbe 32ab 00be edf0 efbd fac7 373d
00000010: 8b27 5b3d da69 ea3d 2df8 fa3c 151e fabd
00000020: a039 2d3e 2f03 b3bd e548 c5bd 66cd eebc
00000030: 059a 9ebd b83e 313e 8b0c 9cbd 4677 043e
00000040: 5951 79bd 32fb 7fbd 58f7 c93b 8e9d 44be
00000050: 2fc9 bbbd 5621 0d3d 1ee7 dcbd 3b4c 36bd
00000060: 7faa d9bc c1f5 df3d 0428 fcbc 3ffd 58bd
00000070: 734f 1bbe b0fc 823d f60a 96bd 4a88 f4bd
00000080: 0d1b 183e e0ff 33bd fd71 103e 4f1a f1bd
00000090: 1bbe 9ebd a8a5 be3d 3d29 a43d 8db2 6dbc
000000a0: f5b0 a23d 8752 e93d 5fbf 903d 8ca7 123e
000000b0: 8317 69bd f54d 1b3e 5288 fdbd f6b3 e93d
000000c0: 03b2 a2bc db21 3d3e e25a 733b 3fe9 f93c
000000d0: 983a fe3d f8a4 d33c 68a7 c43c 5c4d df3c
000000e0: e397 f1bd 36d9 9dbd 2184 8e3d 287b c53a
000000f0: 2728 8e3d 92e9 003e d47d 3cbd 88fe 27be
00000100: 24dd 21be 0dea b6bd 2c10 323d 9f55 913d
00000110: 347b d13a 21c5 083e 3421 e43d 2c78 02bc
00000120: 6420 11be 4294 44bd c0a6 dcbd 52e0 343e
00000130: 3cfe 713c b1e1 763d f5ad 013e 4283 c3bd
00000140: 1162 33be fc6c 323d f767 3ebd 1939 fe3c
00000150: 1269 cb3d 6ee5 843d 893f 063e 7c0c 6d3d
00000160: 2b90 79bd 2ba6 8abd 1b0b 003e 49ab 6bbd
00000170: b0b4 283d 3024 d03b 0ffb 1c3c e6cd 26be
00000180: 1750 0cbe 4402 d83d 251e 77bd fe90 ef3b
00000190: 714d d9bd 7946 c63d 3c28 1c3e aacf b6bd
000001a0: d6a8 f13d cc37 923d 4c99 223d 9452 c5bd
000001b0: 4b70 1d3e 2658 02bd dc5b b93c 4271 d0bd
000001c0: 9826 893d e514 fb3d 6c5d a6bd 6cda 053c
000001d0: 2f17 00be 81d6 74bd 5a02 423d 9c00 17be
000001e0: 4456 72bd 67a6 ffbc 42f0 c23d 1c60 b839
000001f0: 1d4f 08be 26b9 e4bd ddb0 f53d 37e9 823d
00000200: b313 333d 740e eb3d 22cb dd3d dbfa 94bc
00000210: 2c83 a5bc 9bca c13c 11fb d03d 894d e2bd
00000220: c1d3 a8bd 0a4a 1bbe bcd3 813d e720 3cbc
00000230: e79c a9bd c13b 2ebe 4ca7 4e3c f441 bdbd
00000240: 35b6 1dbe 33c2 3ebe f1d5 323e 4a53 84bb
00000250: 3c5a 833c 653c c6bd 8e89 813b b664 a7bd
00000260: 89e6 903d b916 97bd 0d16 093e 690d 0c3d
00000270: 6463 663c c26b 45be 557f 8dbd 7465 96bd
00000280: d373 633c f120 c1bd 46f2 803a e3b7 0f3c
00000290: 212a b63d 2b3f 023e b1ee 2abd 23f8 58bc
000002a0: 09fd 58be f821 6bbe 06af b73d be82 4c3e
000002b0: 1b88 1bbc 0012 31bd db8f d93d 365f 013e
000002c0: 1b1d 29bd fb6f 9c3d e5d8 15bd c162 5d3d
000002d0: 3341 ffbc 3029 a2bd 40cd fbbd 94d4 fa3b
000002e0: a001 973d ffb0 96bd 8ef6 a7bc ca35 f63d
000002f0: 96e1 bd3c 2258 ce3a 115a 23bd 2515 0dbe
00000300: d585 8bbd 7df1 ab3c 35fd 13be 00a7 25bd
00000310: e009 2b3d a3a1 f63d 6a38 8dbd 2c46 213e
00000320: 1a5b 4cbd 7a3a cb3d 7421 07be 9ee6 9c3d
00000330: 1a3f e2bd 24a3 94bd 0a3e 8c3d 5b34 c73d
00000340: 0c34 17be 77e4 e7bc 77d3 b53c 6395 d63d
00000350: da0c 61bd 2ed7 2e3e f466 04bc b0ef 44bb
00000360: 3e7b 533d 84e3 983d 954a 453d d64d 0a3d
00000370: a9a8 bb3d 80a8 be3d 79e9 26bc 040d 3fbe
00000380: 1499 8439 27ff c93d a7bf 6f3d 3d38 33bd
00000390: 5595 9abd 2a1a 8abd d22f 013e 77e2 25be
000003a0: 13ad 9d3d eb1e adbd 980f 4dbe e6d3 8fbb
000003b0: 53d4 b23c 8781 223e 7e89 003e 94b4 523d
000003c0: e953 973d 42a9 063e a510 cbbd ce51 4cbe
000003d0: 541b 5cbe f0ce d63d 4a1e 4abd 9917 0cbe
000003e0: 417c a93d 5fcd d1bd f4d0 163e 5e7b 8e3d
000003f0: f0e8 e23d 248e e53c 642e 123d f01b 8ebd

local2.norm.weight f4 [128]
0.9698067 1.0408044 0.8628317 0.98465085 0.8300043 0.9694511 0.96345586 1.0276706
0.9567691 1.0171646 0.91193545 0.92765 0.9850357 1.0234793 0.97612935 0.9830907
0.88953507 1.0005779 0.9295632 0.9395798 1.0023303 0.9678142 0.9421553 1.0109076
1.0058401 0.8238808 0.97473806 0.93229926 1.0387951 0.9957113 0.8965932 0.96082115
1.0127991 0.90794706 0.9656328 0.9505015 0.96422595 0.8562735 0.9941794 0.91934764
0.967156 0.9244268 1.0348957 1.1039789 1.0724335 0.947898 0.8949391 1.0995928
0.9252429 0.9604614 0.8163743 1.0032834 0.9593886 0.90905046 0.9711534 0.9402617
0.98055416 0.9299668 0.9294351 0.91640097 0.95888877 0.93809867 0.84164363 0.95627373
0.97894883 1.0246528 0.95822024 0.9332573 0.9787269 0.9290919 0.98256254 0.90446675
0.981479 0.9706153 0.8797457 0.85775477 0.85751396 1.0303622 0.9490169 0.9826386
0.83785015 0.9232998 0.9267959 0.9715794 1.0258822 1.0010035 0.9738738 0.9043899
0.9091786 0.93663234 1.0218474 0.9680015 0.9744512 0.8580506 0.95632875 0.97670865
1.0509043 0.94822484 0.91496027 0.9169891 0.9012929 0.9654205 0.9956205 0.9284761
0.90324116 0.9688578 1.1149045 1.0198047 0.92839444 1.0334605 0.92397517 0.9772659
1.0144061 0.95461464 1.0538144 0.8851186 0.9777425 0.9712571 0.9582039 0.94511294
0.9947975 1.0165359 0.94279313 1.0046531 0.9744138 0.9439682 0.954474 0.9372026
00000000: 4045 783f 1439 853f 8ae2 5c3f 1412 7c3f
00000010: 297b 543f f32d 783f 0ba5 763f b68a 833f
00000020: d2ee 743f 7332 823f 9a74 693f 787a 6d3f
00000030: 4d2b 7c3f 5f01 833f 9de3 793f d5ab 7b3f
00000040: 92b8 633f f012 803f dbf7 6d3f 4d88 703f
00000050: 5c4c 803f acc2 773f 1731 713f 6c65 813f
00000060: 5ebf 803f dae9 523f 6f88 793f 2aab 6e3f
00000070: 3df7 843f f0e6 7e3f 2287 653f 60f8 753f
00000080: 67a3 813f 386f 683f b633 773f 1154 733f
00000090: 83d7 763f bd34 5b3f 8b82 7e3f 5e5a 6b3f
000000a0: 8997 773f 3ca7 6c3f 7677 843f 2e4f 8d3f
000000b0: 8045 893f 71a9 723f bb1a 653f 75bf 8c3f
000000c0: b8dc 6c3f cce0 753f e8fd 503f 976b 803f
000000d0: 7e9a 753f 88b7 683f 829d 783f feb4 703f
000000e0: 9905 7b3f 4e12 6e3f 75ef 6d3f 4199 6a3f
000000f0: bc79 753f 3c27 703f f575 573f 5bce 743f
00000100: 649c 7a3f d327 833f ec4d 753f f3e9 6e3f
00000110: d98d 7a3f f7d8 6d3f 3889 7b3f 228b 673f
00000120: 3542 7b3f 3f7a 783f 0437 613f d195 5b3f
00000130: 0986 5b3f e9e2 833f c6f2 723f 348e 7b3f
00000140: 597d 563f 605d 6c3f 7f42 6d3f 6db9 783f
00000150: 1c50 833f e220 803f cb4f 793f 1986 673f
00000160: eebf 683f 23c7 6f3f e5cb 823f f2ce 773f
00000170: a275 793f 34a9 5b3f f6d1 743f 9409 7a3f
00000180: 0884 863f ddbe 723f d63a 6a3f ccbf 6a3f
00000190: 22bb 663f cc25 773f fce0 7e3f 9cb0 6d3f
000001a0: d03a 673f 1107 783f 31b5 8e3f f688 823f
000001b0: 42ab 6d3f 6f48 843f a389 6c3f 192e 7a3f
000001c0: 0fd8 813f a061 743f 64e3 863f 2297 623f
000001d0: 554d 7a3f 4ea4 783f da4c 753f ecf2 713f
000001e0: 0dab 7e3f d91d 823f e45a 713f 7998 803f
000001f0: 2f73 793f e6a7 713f 6858 743f 82ec 6f3f

local2.norm.bias f4 [128]
-0.088158324 -0.038959518 -0.19197258 -0.06815893 -0.16941743 -0.08216654 -0.13736352 -0.083178446
-0.08187119 -0.11618831 -0.12001065 -0.13880342 -0.075136386 -0.058031794 -0.08166742 -0.035108794
-0.14783645 -0.072855994 -0.11100733 -0.08314725 -0.09217676 -0.07084415 -0.07714824 -0.04816778
-0.060787927 -0.17587939 -0.04305607 -0.1227157 -0.053318456 -0.04869116 -0.117004625 -0.12136133
-0.057250753 -0.11400074 -0.05239907 -0.110488415 -0.11374228 -0.16489795 -0.035189155 -0.12529391
-0.08299431 -0.10983234 -0.033465333 -0.029482817 -0.07094232 -0.102979146 -0.094055094 -0.05597371
-0.078519225 -0.07340257 -0.12716529 -0.050243374 -0.103071064 -0.1256301 -0.054572135 -0.07553566
-0.07741924 -0.11142279 -0.08700798 -0.12529221 -0.0674977 -0.0727031 -0.1529315 -0.06391356
-0.05913607 -0.046309244 -0.0663474 -0.107959345 -0.051066216 -0.11154901 -0.061056208 -0.11116374
-0.053251907 -0.099319845 -0.15364303 -0.16167659 -0.17559823 -0.03769778 -0.080889985 -0.080100544
-0.13814373 -0.07887005 -0.10439143 -0.06825389 -0.09353616 -0.07607276 -0.11425644 -0.12456979
-0.1331975 -0.08468505 -0.06871584 -0.06774773 -0.06339879 -0.17953451 -0.09413465 -0.08462434
-0.032452445 -0.09984282 -0.13242559 -0.120070584 -0.11341709 -0.08764658 -0.07798574 -0.10865697
-0.15376404 -0.093698345 -0.09808666 -0.027863972 -0.15783706 -0.044682477 -0.0933428 -0.06094997
-0.04404469 -0.11477252 -0.022078546 -0.12227249 -0.054084633 -0.069331065 -0.07204019 -0.09870435
-0.10116201 -0.08009639 -0.08486296 -0.04319834 -0.046396967 -0.09295662 -0.067719206 -0.105074026
00000000: 5a8c b4bd 0494 1fbd 7694 44be e996 8bbd
00000010: c37b 2dbe ee46 a8bd 06a9 0cbe 7659 aabd
00000020: 15ac a7bd 23f4 edbd 25c8 f5bd 7c22 0ebe
00000030: 1be1 99bd bfb2 6dbd 4041 a7bd 3dce 0fbd
00000040: 7062 17be 8635 95bd d057 e3bd 1b49 aabd
00000050: 2bc7 bcbd bd16 91bd e5ff 9dbd 944b 45bd
00000060: c3fc 78bd ba19 34be 905b 30bd 5e52 fbbd
00000070: 7464 5abd 6270 47bd 1fa0 efbd 4a8c f8bd
00000080: c47f 6abd 3879 e9bd 68a0 56bd c047 e2bd
00000090: b6f1 e8bd 02db 28be 8122 10bd 0c4d 00be
000000a0: ecf8 a9bd c7ef e0bd f212 09bd f385 f1bc
000000b0: 354a 91bd bbe6 d2bd f59f c0bd b044 65bd
000000c0: b0ce a0bd 1654 96bd 9e37 02be ffcb 4dbd
000000d0: ec16 d3bd 2da5 00be 0887 5fbd 71b2 9abd
000000e0: fa8d 9ebd a231 e4bd 3d31 b2bd 9a4c 00be
000000f0: 3c3c 8abd 5de5 94bd 139a 1cbe 1de5 82bd
00000100: aa38 72bd c3ae 3dbd 25e1 87bd ca19 ddbd
00000110: cf2a 51bd cf73 e4bd 1316 7abd d1a9 e3bd
00000120: ac1e 5abd 3468 cbbd 9954 1dbe 8c8e 25be
00000130: 06d0 33be fd68 1abd a6a9 a5bd c10b a4bd
00000140: 8d75 0dbe 9f86 a1bd 2dcb d5bd b2c8 8bbd
00000150: e38f bfbd 09cc 9bbd 48ff e9bd 721e ffbd
00000160: ed64 08be 5b6f adbd e4ba 8cbd 52bf 8abd
00000170: 3ad7 81bd e5d7 37be abc9 c0bd 874f adbd
00000180: dbec 04bd 647a ccbd 939a 07be 91e7 f5bd
00000190: 3847 e8bd 0d80 b3bd fdb6 9fbd 8c87 debd
000001a0: 5274 1dbe ebe4 bfbd a9e1 c8bd fc42 e4bc
000001b0: 0aa0 21be f904 37bd 832a bfbd ada6 79bd
000001c0: 3468 34bd db0d ebbd 11de b4bc 006a fabd
000001d0: d987 5dbd 72fd 8dbd cf89 93bd 8225 cabd
000001e0: 072e cfbd 9309 a4bd a2cc adbd bef0 30bd
000001f0: bf0a 3ebd 0a60 bebd 5eb0 8abd 0d31 d7bd

meso.Wq.weight f4 [128, 128]
0.032249313 0.11784055 -0.018232686 0.042466108 -0.11835521 -0.0064270957 -0.08541751 0.046626173
-0.009665918 -0.00587341 0.004973528 -0.062557265 0.069125876 -0.00798297 0.14095277 0.06136395
-0.011275557 0.032249104 0.07138959 0.028623274 -0.047029123 0.048131764 -0.026196435 0.04070333
-0.022333553 0.083969064 -0.004239946 0.055357747 -0.02411999 -0.0627087 0.011019745 -0.05192742
0.020042013 -0.11387462 -0.042657997 -0.046243973 0.009121616 0.05337681 -0.012651747 0.01743854
-0.02844116 0.03615911 0.06493783 -0.043873806 -0.033636387 0.011075305 -0.038945984 -0.073939785
0.072686896 -0.039113756 0.05517648 0.03919329 0.09733305 0.022514775 -0.06276326 0.003164062
0.08745597 -0.049705446 0.026272543 0.041532975 0.034615666 -0.101074494 0.018164458 -0.017851613
0.057513155 0.16961677 0.05461836 -0.09282497 0.08223568 0.034212537 -0.029424936 0.09128049
-0.09110903 0.18394864 -0.028080883 -0.045764983 0.07621037 0.108744174 0.024467854 0.11211627
-0.018285334 0.055487312 0.09496839 -0.02628551 0.05143424 -0.015211182 -0.043301467 0.04767669
0.04481592 0.018580712 -0.0046645924 0.06354453 0.06905929 0.09733917 0.10986066 0.12183982
-0.13028082 -0.0021840397 -0.027964925 -0.07223777 0.011066966 0.060694207 -0.0008568364 -0.0296386
0.03694603 0.042352237 -0.120601594 0.023517322 0.095118366 0.1423358 -0.048614044 -0.12076666
0.09421328 -0.04153427 0.1111001 -0.014723635 -0.05497461 -0.039493173 -0.020430233 0.04482877
-0.0053934213 -0.020475054 0.04770986 -0.019466175 0.0014277709 -0.11508978 0.025682975 0.105516136
0.025200153 0.06435208 0.0338246 -0.032182656 0.012935204 0.00659191 -0.082160324 0.05223138
-0.094699726 0.067073576 0.09271327 -0.05632689 -0.010220524 -0.032195643 -0.0108487485 -0.07050622
0.0143543035 0.10396688 -0.09388102 0.005195407 -0.040504485 0.0021001748 0.037013836 -0.055831928
-0.0064162845 -0.086419135 -0.0018966299 -0.054844923 0.07707808 -0.040913936 0.030157007 0.07007262
0.057972733 0.036527008 -0.062087514 0.14832291 -0.10862816 0.07334885 -0.03610821 0.13755572
0.016717447 0.12869343 0.25183702 0.04705328 0.059026476 -0.027601885 0.117050424 -0.053750552
0.023434443 -0.10686778 -0.0092562195 0.0017817721 -0.0023596098 0.05332137 -0.03331362 -0.012743529
0.026991658 0.00059950916 0.012390474 -0.045555063 0.06647755 -0.04578661 0.047434527 -0.07116712
-0.049927935 0.03627966 0.003659933 0.08612417 0.022117063 -0.022056406 -0.07184107 -0.0029677488
-0.0047930535 0.07240851 0.014036429 -0.07156258 -0.057741746 0.008156248 -0.0016236773 -0.09458932
0.0036416997 -0.02316767 0.052623563 0.049059343 -0.032844577 0.027074466 0.053305693 -0.016646732
0.05692545 -0.030793164 -0.02922849 -0.059816375 0.06950334 0.13659881 -0.09928343 0.091376
-0.0322317 -0.059283078 -0.18565033 0.06952959 -0.038176745 0.014357409 0.0547311 -0.030751364
0.034340184 0.0072713145 -0.11682771 0.037399013 -0.023699723 0.08185299 0.114507146 -0.13928601
0.030995248 -0.06057117 0.059803117 -0.036760837 -0.0454698 0.08616134 0.021022405 0.04933234
-0.038999237 -0.0037722238 -0.06667319 0.10429886 0.07380462 -0.05611807 -0.04100003 0.03268948
00000000: db17 043d 6356 f13d b75c 95bc f1f0 2d3d
00000010: 3764 f2bd 639a d2bb 60ef aebd 16fb 3e3d
00000020: cc5d 1ebc bc75 c0bb faf8 a23b 061e 80bd
00000030: de91 8d3d 01cb 02bc ec55 103e c458 7b3d
00000040: 1dbd 38bc a317 043d b534 923d 5b7b ea3c
00000050: 9ca1 40bd d025 453d e899 d6bc 89b8 263d
00000060: dbf4 b6bc f9f7 ab3d 3fef 8abb cebe 623d
00000070: 4997 c5bc 6b6d 80bd 298c 343c d9b1 54bd
00000080: 262f a43c 1937 e9bd 27ba 2ebd 526a 3dbd
00000090: d572 153c a4a1 5a3d 4649 4fbc 45db 8e3c
000000a0: 70fd e8bc 931b 143d 20fe 843d 05b5 33bd
000000b0: 4fc6 09bd 3275 353c d385 1fbd be6d 97bd
000000c0: dedc 943d bf35 20bd bc00 623d 2589 203d
000000d0: 8d56 c73d e870 b83c 068a 80bd 275c 4f3b
000000e0: 1e1c b33d f097 4bbd 8439 d73c 7b1e 2a3d
000000f0: 28c9 0d3d 2500 cfbd a1cd 943c 8c3d 92bc
00000100: ea92 6b3d 05b0 2d3e 80b7 5f3d 051b bebd
00000110: 2e6b a83d 7222 0c3d 900c f1bc 44f1 ba3d
00000120: 5f97 babd 085d 3c3e e109 e6bc 1074 3bbd
00000130: 2f14 9c3d 44b5 de3d cf70 c83c 379d e53d
00000140: 20cb 95bc aa46 633d ca7e c23d b654 d7bc
00000150: b6ac 523d 5238 79bc e15c 31bd a248 433d
00000160: e690 373d 9436 983c 70d9 98bb a223 823d
00000170: f56e 8d3d c259 c73d a0fe e03d 2887 f93d
00000180: 5668 05be 1b22 0fbb b316 e5bc 65f1 93bd
00000190: 3852 353c 7d9a 783d 519d 60ba a6cc f2bc
000001a0: b854 173d 8a79 2d3d f8fd f6bd 66a7 c03c
000001b0: 6bcd c23d 7ac0 113e 851f 47bd 8354 f7bd
000001c0: e4f2 c03d d71f 2abd 7388 e33d 673b 71bc
000001d0: 0f2d 61bd 98c3 21bd 4e5d a7bc 5f9e 373d
000001e0: 4cbb b0bb 4dbb a7bc 6a6b 433d 8777 9fbc
000001f0: 0b24 bb3a 31b4 ebbd 1a65 d23c d818 d83d
00000200: 8d70 ce3c 06cb 833d aa8b 0a3d f6d1 03bd
00000210: 2eee 533c f300 d83b ac43 a8bd 92f0 553d
00000220: eef1 c1bd df5d 893d 74e0 bd3d 06b7 66bd
00000230: fc73 27bc 94df 03bd f3be 31bc 9165 90bd
00000240: 502e 6b3c 96ec d43d b144 c0bd 3c3e aa3b
00000250: 08e8 25bd 16a3 093b d29b 173d 05b0 64bd
00000260: b23f d2bb 84fc b0bd 5798 f8ba 12a5 60bd
00000270: 1ddb 9d3d 5f95 27bd d40b f73c 3c82 8f3d
00000280: d174 6d3d 589d 153d 7a4f 7ebd f6e1 173e
00000290: 7178 debd ec37 963d 34e6 13bd 68db 0c3e
000002a0: 07f3 883c 36c8 033e c8f0 803e f1ba 403d
000002b0: bfc5 713d 591d e2bc 22b8 ef3d 8a29 5cbd
000002c0: 97f9 bf3c 7fdd dabd 66a7 17bc 5a8a e93a
000002d0: afa3 1abb 8267 5a3d dd73 08bd 3cca 50bc
000002e0: 9c1d dd3c 6128 1d3a 6a01 4b3c f297 3abd
000002f0: 6225 883d be8a 3bbd b54a 423d 11c0 91bd
00000300: 3c81 4cbd fb99 143d 7ddb 6f3b de61 b03d
00000310: d82e b53c a3af b4bc 6921 93bd 907e 42bb
00000320: 0c0f 9dbb ea4a 943d 0df9 653c 678f 92bd
00000330: 9c82 6cbd c9a1 053c 92d1 d4ba 0cb8 c1bd
00000340: 95a9 6e3b 20ca bdbc ce8b 573d 73f2 483d
00000350: 0988 06bd 45cb dd3c 1257 5a3d ba5e 88bc
00000360: a92a 693d f241 fcbc 9670 efbc 0402 75bd
00000370: c457 8e3d 8fe0 0b3e 1c55 cbbd 5723 bb3d
00000380: 6305 04bd d0d2 72bd 1f1b 3ebe 8865 8e3d
00000390: 385f 1cbd 573b 6b3c b82d 603d 49ea fbbc
000003a0: 4ba8 0c3d 3544 ee3b 5e43 efbd b52f 193d
000003b0: ec25 c2bc 8aa2 a73d b982 ea3d fea0 0ebe
000003c0: bfe9 fd3c 7a19 78bd 1df4 743d 8892 16bd
000003d0: 8a3e 3abd 5b75 b03d 2e37 ac3c b510 4a3d
000003e0: aabd 1fbd 6a37 77bb f48b 88bd a49a d53d
000003f0: e026 973d 10dc 65bd a6ef 27bd 67e5 053d
