models/eeg_loso/s_01.pt (torch, 561186 bytes, 37 tensors)

band_attn.fc1.weight f4 [8, 5]
000000 71 d2 01 bd 63 64 4f 3f 07 5c f0 bd 52 66 49 be
       -0.031694833 0.8101255 -0.11736303 -0.19667938
000010 e5 84 9b bf a0 6e be be 7f 85 78 3e a8 6c b2 3f
       -1.2149931 -0.37193775 0.24269675 1.3939409
000020 66 1b 74 3e fb 53 60 bf c8 91 b6 be ff 72 46 be
       0.23838577 -0.87628144 -0.35658097 -0.19379805
000030 7d ef 84 3f f8 c5 6e be 0c ab 30 3f 7b 57 c0 bd
       1.0385586 -0.23317707 0.69010997 -0.093916856
000040 90 80 cd 3e 70 d5 9b be 16 56 d8 bf 7f 70 82 3d
       0.40137148 -0.30436277 -1.6901271 0.06369113
000050 04 39 9e be 78 c7 be 3d aa 9f 03 bf 4e 28 c2 3e
       -0.30902874 0.093153894 -0.51415503 0.37921375
000060 be e8 99 3e f0 be 9e 3e 9e 57 43 bf 85 dc 62 bd
       0.3006038 0.3100505 -0.7630557 -0.055386085
000070 c7 21 48 3f 26 f2 5e be 97 c5 d0 bd ed 57 08 bf
       0.7817654 -0.2177206 -0.10193937 -0.53259164
000080 86 04 a9 3e 3b 95 ee 3f 45 98 79 3e be 3b 0c bd
       0.33011264 1.8639292 0.24374492 -0.034236662
000090 86 d5 d5 3c 28 86 42 3f f5 b4 89 bd 38 5d a7 bf
       0.026102792 0.75985956 -0.06723968 -1.3075323

band_attn.fc1.bias f4 [8]
000000 e4 8d 89 3f 68 6e b0 3d b7 9b 0e bf 69 28 96 3c
       1.0746427 0.08614808 -0.5570635 0.018329816
000010 11 41 bf 3f ab 13 b3 be 70 40 55 3e c8 09 63 bf
       1.4941732 -0.34975943 0.20825362 -0.886868

band_attn.fc2.weight f4 [5, 8]
000000 e7 36 a5 bf e5 a9 48 c0 7c 88 dc bf 83 d6 6d 3e
       -1.290738 -3.1353695 -1.7229152 0.23226361
000010 09 24 1d be 7c 98 3a 3f 6b 97 ae 3e 0c e9 05 3f
       -0.15345778 0.7288892 0.34099898 0.52308726
000020 cc 52 1e 3f e8 58 55 3e ad d1 8d bd 95 bd 6e be
       0.6184509 0.20834696 -0.06924758 -0.23314507
000030 37 41 1e 3e d8 6c 47 be c2 43 33 bf ac 11 46 be
       0.15454565 -0.19475114 -0.70025265 -0.19342679
000040 32 f2 39 bf 3e 53 3d 3f 25 c4 4f 3f 71 27 f0 3e
       -0.72635186 0.7395514 0.8115867 0.4690509
000050 dd dc f8 bf a2 9c 64 bf 7b 47 9a 3f 57 73 d7 3f
       -1.9442402 -0.893015 1.2053064 1.6832074
000060 c3 0e 45 3f 8b 36 fb 3c ce d0 1a bf df 68 9f bf
       0.7697565 0.030665657 -0.6047486 -1.2453879
000070 66 38 25 3f 90 ee dd 3e 85 df fb 3e 8a ed 83 3d
       0.6453918 0.4334607 0.4919397 0.06441791
000080 cd ec 1d bf 43 6d 05 bf 1a a5 21 3f dd b9 02 3f
       -0.61689454 -0.52119845 0.6314255 0.51064855
000090 54 2d 86 bd c0 ff 69 3e 07 0b b6 bc 18 74 b4 bf
       -0.065516144 0.22851467 -0.022222055 -1.4097929

band_attn.fc2.bias f4 [5]
000000 6d 2a 36 be 5e 69 c7 be 2a 1b cf be 2b 47 73 3f
       -0.17789622 -0.38947576 -0.40450412 0.9503047
000010 43 32 43 3e
       0.19062142

feat_proj.weight f4 [128, 21]
000000 3f 72 4d bd 36 49 7b bf e6 eb 0b 3d 09 cf 0a 3f
       -0.05015778 -0.98158586 0.034160517 0.5422216
000010 c5 ba 2e 3e f3 61 c7 be 84 49 1c be e4 9f e5 be
       0.17063434 -0.38941917 -0.15262419 -0.4484855
000020 70 04 46 bd a9 14 ca 3b da 3b 35 be b6 d6 9b 3f
       -0.048344076 0.0061670137 -0.17698613 1.21749
000030 ee 7a 8c 3e 29 cc b9 bf 4f ea 30 c0 42 f9 09 c0
       0.27437538 -1.451543 -2.764301 -2.1558385
000040 fd 64 2f 3c 27 01 1f 3d 26 6c 62 3d 93 e5 9f 3d
       0.01070523 0.03881946 0.05527892 0.0780746
000050 86 e4 37 bf 69 ad e5 3e 98 f1 9c 3f 28 51 dc bf
       -0.71833074 0.44858864 1.2261229 -1.7212267
000060 19 46 d7 bf 3b 19 ec bf 95 3c f2 be ca f8 02 3e
       -1.6818267 -1.84452 -0.47311845 0.12790218
000070 d9 72 d6 bd 91 bd 2c 3a 62 e9 38 3d e2 0a 0f be
       -0.10471124 0.0006589527 0.045144446 -0.13968995
000080 b3 db 2c bf 41 47 bb be 7a c9 29 bf 53 ac a5 3f
       -0.67522734 -0.365778 -0.66323054 1.2943214
000090 39 b7 5c be 64 9e 92 3d ce 32 fd 3d 56 fb 0c 3c
       -0.21554269 0.07159117 0.12363206 0.008604845
0000a0 5e 62 c9 3d a9 b4 b8 3e 9f db 12 bf 12 57 da bf
       0.09833215 0.36075333 -0.57366365 -1.7057822
0000b0 ac b9 cb bd 9a f9 0c be f9 ed bf be cf 98 bc 3e
       -0.099475235 -0.1376709 -0.37486246 0.36835334
0000c0 58 d9 68 be a7 bb 1f 3f 7a 6a 82 bc 26 10 08 3d
       -0.2273916 0.6239571 -0.015919913 0.033218525
0000d0 1b 78 83 3e a4 50 9d 3f 60 f5 af 3f c5 ef 36 3f
       0.2567757 1.2290235 1.3746758 0.7145961
0000e0 ba 4f b9 be a8 65 37 3e 1a bb 14 3b 67 f4 24 3d
       -0.3619364 0.17909873 0.002269453 0.040272143
0000f0 4a ee 3b bb be 41 da 3d d7 8f 28 bf 97 51 ed 3e
       -0.0028675967 0.106570706 -0.6584448 0.4635131
000100 c4 a9 b3 3e 4c e3 a9 3f 43 48 4f 3f 77 7b a1 3f
       0.35090458 1.327249 0.8096964 1.2615803
000110 c8 76 f0 3e b6 09 76 3e db 5f ce be ff 36 ba 3b
       0.46965623 0.24027142 -0.40307507 0.0056828256
000120 4a 18 0e bb 67 ac 06 be 88 26 bb 3f 36 d6 a0 3e
       -0.0021681958 -0.13151704 1.4621134 0.3141343
000130 bd 09 dc be f2 f2 f0 bf 24 b3 12 bf 49 ea a9 3c
       -0.4297618 -1.8824141 -0.57304597 0.020741599
000140 a8 bc 22 bc e8 a2 08 3b 44 c9 c7 bb f2 e5 0f bf
       -0.0099326745 0.0020849053 -0.006096991 -0.56210244
000150 3b 36 19 3f 08 9a 2d 40 1c f1 b5 3f 05 75 ce 3f
       0.59848374 2.7125263 1.4214206 1.6129462
000160 4a 98 e1 3f a4 a1 7f 3f 7e 6e 48 3e 4d dd ad 3e
       1.76246 0.9985602 0.195734 0.33957902
000170 fb db 02 3c 88 cc f6 3c d6 9b 0e 3c ca a3 ab bf
       0.007987018 0.030126825 0.008704146 -1.340936
000180 46 a5 58 3e 46 23 0c 3f c7 9f 73 be 29 a1 cf 3e
       0.21156797 0.54741323 -0.23791419 0.40552643
000190 83 78 33 3d 65 8b 5a 3b 81 2a 94 3c a5 46 85 bd
       0.0438161 0.0033347246 0.018086674 -0.06507615
0001a0 00 b8 3d be 7a 38 df bc d1 d3 6a bf 98 fa 27 bf
       -0.18527222 -0.02724861 -0.91729456 -0.6561675
0001b0 55 9d be bf 76 d0 80 bf df a1 51 3f 97 d5 d8 bc
       -1.4891764 -1.0063617 0.8188762 -0.026469035
0001c0 e7 38 b4 be 63 d8 22 39 9f da a8 3b 21 a7 81 bb
       -0.35199663 0.00015530134 0.005153015 -0.003956691
0001d0 03 29 89 3f 38 1a 2f 3f 9f 63 68 be 76 f3 ed bf
       1.0715641 0.6839938 -0.22694252 -1.8589923
0001e0 0f b2 16 bf 58 2e 7d bd 0d 77 47 3d 4f 11 9f bb
       -0.58865446 -0.061811775 0.04869752 -0.0048543583
0001f0 29 3e 73 bd e9 dd 14 be 55 c0 d9 be c4 47 c6 bf
       -0.059385452 -0.14537777 -0.4252955 -1.5490651
000200 34 da 87 bf e2 91 81 bf 55 03 1f bf fe 5d a0 bf
       -1.0613465 -1.0122645 -0.6211446 -1.2528684
000210 c2 9c 2d 3e b0 6d b3 bc 44 06 0d bd 8d 46 95 bc
       0.1695433 -0.021902889 -0.034429803 -0.018222118
000220 cb ef 64 be eb f1 0f c0 81 08 9d 3f 58 c7 ba 3f
       -0.22357099 -2.2491405 1.226822 1.4592085
000230 22 b4 4b 3f 91 47 69 3f 92 77 47 bd 45 48 6c bd
       0.79571736 0.91124827 -0.048698016 -0.05768611
000240 02 e0 75 bc 2b e1 a2 bd 94 51 6c bd b7 8e c2 3e
       -0.015007021 -0.07953104 -0.057694986 0.37999508
000250 c7 05 f2 be d6 e8 75 bf 10 d7 72 bf 6f ad 42 bf
       -0.47270033 -0.96058404 -0.9485941 -0.7604589
000260 10 2d b7 be dd 25 8e be a4 37 da 3c 74 4c 9d 3b
       -0.35776567 -0.27763262 0.02663786 0.0048003737
000270 42 f0 a2 bc d4 cd cc bd bd 3f 1a bf 83 e6 60 bf
       -0.019889954 -0.10000196 -0.60253507 -0.8785173
000280 49 ae aa bf 72 69 94 bf 4b e0 98 bf 8d bb 41 3c
       -1.3334438 -1.1594679 -1.1943449 0.011824501
000290 ae 04 75 bc b1 a4 9f 3c 60 2c c8 3d fd ad d4 bd
       -0.014954729 0.01948771 0.09774089 -0.10384748
0002a0 a6 c7 94 3f cb 6f 14 40 12 d5 82 3f fb a9 20 3f
       1.1623428 2.3193233 1.0221274 0.6275937
0002b0 fe b9 6f 3f 02 03 f2 3e 7c 8b 1c 3e 5b b2 42 3d
       0.93643177 0.4726792 0.15287584 0.047533374
0002c0 14 f9 23 bc 0b 00 09 3d 85 47 9b be 48 4d fc 3f
       -0.010008115 0.033447307 -0.30328003 1.9711084
0002d0 af fb ce 3f 7b ae 1e 3f 08 fd 89 bf 71 ec e0 be
       1.6170558 0.61984986 -1.0780344 -0.4393039
0002e0 5a ee b1 3c db 71 26 3c 70 6d 5b bd 6b 84 5b bd
       0.0217201 0.010158981 -0.053571165 -0.05359308
0002f0 36 b7 45 bf 90 3b 89 bf c2 08 e8 bf c7 b2 3a bf
       -0.7723268 -1.0721302 -1.8127673 -0.7292904
000300 f5 ec 88 bf c2 d5 90 bf 74 35 1f 3f bf a8 96 3e
       -1.0697314 -1.1315234 0.6219094 0.29425618
000310 dd 4f 5e be e2 ab 90 3d 96 e4 04 bd 5e 51 a2 be
       -0.21710153 0.07064034 -0.03244456 -0.31702703
000320 66 74 cb bf 64 d0 a5 bf 68 15 11 c0 08 82 0e c0
       -1.5894897 -1.2954221 -2.2669315 -2.2266865
000330 71 38 ac bf 97 45 9b bd 88 be 71 bc fc bb 29 bd
       -1.3454725 -0.075816326 -0.014754899 -0.04143904
000340 fb 09 a5 bd b0 6f 20 3e 56 21 2f bf d2 f4 2b c0
       -0.08058544 0.15667605 -0.6841024 -2.6868176
000350 c0 54 1c bf 51 88 3e be c3 05 92 be 1e c1 35 bf
       -0.6106682 -0.18606688 -0.2852002 -0.709978
000360 52 a2 08 be 21 ce 60 3f d2 86 39 bd da 4c 8c bc
       -0.1334317 0.8781453 -0.04529459 -0.01712649
000370 bc 17 c4 3e db 08 4e 3f 23 9b b5 3f 95 ef 1f 3f
       0.38299358 0.8048226 1.4187969 0.6247495
000380 d0 5d cd 3e 4b 2c 8f be 63 d5 a4 bc 96 a6 f0 bd
       0.40110636 -0.2796348 -0.020121282 -0.11750524
000390 9b 2e 73 bd ba 5a e2 bc 35 37 0e bf d4 54 82 bf
       -0.05937062 -0.027631152 -0.5555299 -1.0182137
0003a0 46 65 fb bf b3 91 dc bf eb af 24 c0 19 51 04 c0
       -1.9640281 -1.7231964 -2.5732372 -2.0674498
0003b0 fd b4 95 3d 01 1c fc 3e 02 52 18 be e1 97 b0 3c
       0.073099114 0.49240115 -0.14875033 0.021556797
0003c0 2d 19 7d 3c 5f e0 cb 3e 86 05 5a bf 95 7f 59 bf
       0.015447897 0.3981962 -0.8516468 -0.849603
0003d0 96 fe 05 bf f5 92 4a bf 95 2d 3f be 33 27 38 bd
       -0.5234159 -0.7913049 -0.18669732 -0.04495926
0003e0 a2 08 47 bd 38 d9 69 bd 42 cc c9 bd fb 80 97 3e
       -0.048592217 -0.05709192 -0.09853412 0.29590592
0003f0 ef f3 99 be 17 75 54 bf c6 35 3b bf cf 6a 31 bf
       -0.3006892 -0.82991165 -0.73128927 -0.693036

feat_proj.bias f4 [128]
000000 73 f3 bf 3e 54 24 0c 3f cf 67 84 bf 90 8c 96 3d
       0.37490425 0.5474293 -1.034418 0.07351029
000010 3a c2 f8 3e 70 e8 01 bf 43 8f 1f bf f7 bf 95 3e
       0.48585683 -0.50745296 -0.62327975 0.2924802
000020 5a 3c 04 3e 48 ec 5a bf c6 58 12 bf 8a d0 20 bf
       0.12913647 -0.85516787 -0.5716671 -0.62818205
000030 a5 84 89 bf 69 94 e5 bd 92 fe 73 be a9 1b 75 3f
       -1.0743605 -0.112099476 -0.2382758 0.9574533
000040 1f 71 92 3f 67 92 4c 3f 5c 4a f4 3e 09 43 75 3e
       1.1440772 0.7991089 0.47712982 0.23951353
000050 a1 64 2b 3f 27 1c 1b 3f eb 49 3f bf 90 f9 98 be
       0.6695042 0.6058983 -0.74722165 -0.298779
000060 57 af 20 bf 76 ab a6 be eb 6c 23 be 5d fe d1 3e
       -0.6276755 -0.3255269 -0.15959518 0.41014376
000070 f2 76 f5 3d 5f 6d 62 bb b2 fa 72 be b1 02 3a bf
       0.11985578 -0.0034550054 -0.23728445 -0.72660357
000080 50 72 19 3e 88 66 1f bf 3d 5a 63 bf 1f 9a 93 3f
       0.14985013 -0.62265825 -0.8880957 1.1531409
000090 df 35 f1 bd 7d 17 2f bf 07 a3 91 3f b7 2f 26 3e
       -0.11777853 -0.68395215 1.1377877 0.1622914
0000a0 d8 2a 82 bf f3 80 ef 3d 04 dd 36 3f 4d 56 37 bf
       -1.0169325 0.11694517 0.71430993 -0.7161606
0000b0 5c 2b 86 3f d7 df 5d 3f ad 51 1a 3e ac b8 f4 3d
       1.0481982 0.8666968 0.1507022 0.11949286
0000c0 64 5a 68 bf 1b a9 b1 3d 65 6b 5f bf 32 3d 1b bf
       -0.90762925 0.086748324 -0.87273246 -0.6064025
0000d0 a7 bb c6 3e b8 17 02 bf 3d b9 0e 3e 79 69 b8 3e
       0.38815042 -0.5081744 0.1393785 0.3601797
0000e0 b5 9d 5a bf f9 c7 88 bf 8c 99 0d 3f 74 24 3f 3f
       -0.8539689 -1.0686027 0.5531242 0.74665
0000f0 4d 26 6a be 07 b9 07 3f 0d c8 0d 3f bf ef 27 3d
       -0.22866173 0.53016704 0.5538338 0.041000124
000100 1e 77 4b bf e4 cd 83 3f 5b bd d8 3e bc 64 7c 3e
       -0.79478633 1.0297208 0.42331967 0.24647802
000110 da 3e 88 3f ec 37 b1 3c e9 c7 5e 3d 0e f9 14 bf
       1.0644181 0.021633111 0.054389868 -0.5819253
000120 42 cc b4 3e 8f 89 cd be 42 31 23 3f 54 82 ca bd
       0.35312086 -0.4014401 0.63747036 -0.09888139
000130 94 11 54 bf 86 b4 ed be 65 9c de be 97 22 12 be
       -0.8283932 -0.4642679 -0.43478695 -0.14271007
000140 08 5d 18 bf 9b f7 44 3f 19 64 87 3d 37 18 57 bf
       -0.59516954 0.76940316 0.06610889 -0.84021324
000150 c7 29 0d bc 86 35 41 3e 5b 51 04 bf c7 fd 72 3f
       -0.0086159175 0.18868074 -0.5168664 0.94918483
000160 a2 be 14 bf 77 6f 1b 3e 5f 0e 8f 3f b4 0d 90 3f
       -0.5810338 0.15179239 1.1176261 1.1254182
000170 00 da fe 3d e4 72 38 be e1 5e ca 3e c6 15 5f 3f
       0.12443924 -0.18012577 0.39525512 0.871426
000180 a8 d0 8d bd 9d 83 f7 be 00 3a b4 be b7 b9 04 be
       -0.06924564 -0.483426 -0.352005 -0.1296147
000190 a8 f8 8e bf 52 f9 ea be 54 6e 16 bf 89 9d 98 bf
       -1.1169634 -0.4589334 -0.587621 -1.1923076
0001a0 f4 84 bb 3f 06 69 d1 3e 2a 13 60 bf 6f 47 7a bf
       1.4649949 0.4090044 -0.8752924 -0.9776525
0001b0 43 ce ab 3e b5 42 d3 bd c1 22 3f be 8d 8b 09 bf
       0.33555803 -0.10315458 -0.18665601 -0.5372856
0001c0 9c f1 24 bf fb 36 f0 3e 08 60 0b 3f 89 f9 6d 3f
       -0.64431167 0.46916947 0.5444341 0.92958885
0001d0 3e 56 2e 3f b5 a8 9a 3f b0 73 a4 3d fa 48 98 bf
       0.68100345 1.2082735 0.08029878 -1.1897271
0001e0 80 20 64 be 2a 2d 8d bf 97 5d 0f 3f c9 6d 18 bf
       -0.22278023 -1.1029408 0.5600218 -0.5954252
0001f0 49 b8 db bd 4d 78 8b bf cc db 9e 3e 4f 3a 15 3f
       -0.10728509 -1.0896088 0.31027067 0.58292097

local1.conv.bias f4 [128]
000000 30 86 b7 bf 74 31 01 bf 06 b9 c8 be 42 fb c6 be
       -1.4337826 -0.50466084 -0.39203662 -0.3886357
000010 4d 55 84 3e a9 1f 02 3f 3d be 6e 3f aa d7 42 3f
       0.2584633 0.5082956 0.9325903 0.7611033
000020 6b ec 99 bf b0 f6 17 3f 33 ca eb bd 4c 6e a0 bf
       -1.2025274 0.5936079 -0.11513176 -1.253366
000030 a9 77 91 bf 0c 27 8e bf d2 74 7d 3f e2 c1 fc bf
       -1.1364642 -1.1105666 0.9900638 -1.9746668
000040 98 40 b0 3d 6d dd 29 3e 24 2e 11 3d 1b 35 96 bf
       0.0860607 0.16588373 0.035444394 -1.1734957
000050 23 f0 1b 3e 84 07 e6 3e 79 c4 03 bf 4d dd a2 be
       0.15228324 0.4492761 -0.5147167 -0.31809464
000060 bd 1e b6 bf d2 ff 90 bf 86 31 d4 bd c0 25 29 bf
       -1.422813 -1.132807 -0.10361008 -0.66073227
000070 b0 58 99 3c 77 e9 c6 3e 3c 45 04 bf 91 7e 71 be
       0.018719047 0.38849995 -0.51668143 -0.23583438
000080 eb 15 e7 3e 7d 56 92 3f a2 fe d6 3e 6d bd 4c 3e
       0.4513391 1.1432644 0.41991144 0.19994135
000090 0f a2 84 3f ee 46 15 bf 15 fc b0 3f d4 8f 88 3f
       1.0361956 -0.58311355 1.3826929 1.0668893
0000a0 84 1b db 3c 02 60 35 3f 54 e3 c4 3d 61 72 9d be
       0.026746519 0.7084962 0.09613672 -0.30751327
0000b0 71 5f 7a 3f 50 24 04 3f 6b 66 a4 3f 24 84 5d be
       0.9780188 0.5161791 1.2843755 -0.21632439
0000c0 40 e2 a6 3f e0 2d ac bf 2c b0 98 3e 70 1f 81 bf
       1.3037796 -1.34515 0.29821908 -1.0087719
0000d0 71 e6 1b 3f be 9f 55 3e f7 2f 86 be 1e fc 19 bf
       0.608985 0.20861718 -0.2620847 -0.60150325
0000e0 20 95 74 be d5 fb 91 3f 3a 98 35 3f a7 26 6d be
       -0.23885012 1.1404978 0.70935404 -0.23159276
0000f0 32 98 10 3f b3 40 e1 3e e3 b3 84 bf 32 04 53 3e
       0.5648223 0.43994674 -1.0367397 0.20607069
000100 86 23 db 3e 20 90 92 3f a6 54 bb 3e c8 b7 0a bf
       0.4280054 1.1450233 0.3658802 -0.5418668
000110 a6 37 36 3e 07 cc ce be bc a8 0d be a8 a5 b9 3f
       0.17794666 -0.40390036 -0.13833898 1.4503679
000120 a9 95 f9 be d4 b5 01 bf ac d4 bf bc f8 3d 36 bf
       -0.48746994 -0.5066807 -0.02341684 -0.71188307
000130 2c 1b db 3f cc 2b e7 3e 3d fa 11 bf 8e b2 87 bf
       1.7117667 0.45150602 -0.5702246 -1.0601366
000140 18 b6 8d be 6a fe 0d 3d 41 80 9a 3f 17 a9 36 be
       -0.2767799 0.034666456 1.207039 -0.1783794
000150 cf 7e b5 be ff 42 3e 3f 20 f1 b9 3f 5b 42 91 3f
       -0.3544831 0.7432098 1.452671 1.1348375
000160 ac 56 d4 3e ff 14 68 be 3f 8a 74 be 8d 7b 4e bf
       0.41472375 -0.2266426 -0.23880862 -0.80657274
000170 c9 5e 45 bf ef d1 94 3f ea 83 d0 3f 49 cf 37 3f
       -0.77097756 1.1626567 1.6290257 0.7180067
000180 5a 8b 6e 3e 59 75 89 3f dd b4 8d bf bb f5 9f 3f
       0.23295346 1.0738937 -1.107082 1.2496866
000190 a5 15 a4 be 8e 25 12 bf 44 89 1c be 72 01 76 bf
       -0.32047763 -0.57088554 -0.15286738 -0.96095955
0001a0 76 ef d6 3e 78 bb 02 3f 5d 6f 7a be 91 7f 61 3d
       0.4197957 0.51067305 -0.24456544 0.055053297
0001b0 a5 f4 43 be 42 36 8b 3f 37 35 08 3f 19 91 43 3f
       -0.19136293 1.0875933 0.532062 0.76393276
0001c0 87 b1 bd 3e 83 3a 29 bf 8c 6e 21 3f 6b d8 0d 3f
       0.37049505 -0.66104907 0.63059306 0.5540835
0001d0 87 35 99 3f d9 4d 8e 3f 4d f1 05 bf de 6d 78 bd
       1.196946 1.1117507 -0.5232132 -0.060651653
0001e0 1e 62 ce 3e 09 c8 8d 3e 06 70 d9 3e 67 a1 09 bd
       0.40309232 0.27691677 0.4246828 -0.03360119
0001f0 e4 d1 5f 3f ae 00 14 3f a0 35 a8 3e ad 5e 01 be
       0.8742964 0.5781354 0.32853413 -0.12633772

local1.conv.lin.weight f4 [128, 128]
000000 75 6c 72 3f c1 8a d1 be f1 53 26 bd 2b 6f 37 3f
       0.9469674 -0.40926173 -0.040607397 0.71654004
000010 a7 75 a5 be 8b a8 3f 3f ed 59 de be d4 53 33 3f
       -0.32316324 0.7486655 -0.43427983 0.70049787
000020 a7 59 ba be d6 5c d7 3f 24 d1 7c be 34 32 40 3f
       -0.36396524 1.6825206 -0.24689156 0.75076604
000030 bb 39 ce be d9 02 24 3e c3 ed a9 3e b5 ab a5 3e
       -0.4027842 0.16016711 0.3318921 0.32357565
000040 0c f5 64 bf bd 62 06 be 7d 54 90 be 56 76 f9 3e
       -0.8943641 -0.13123603 -0.2818946 0.48723096
000050 f0 e9 06 bf 12 5c a6 bf 5d 05 70 3f e8 d5 8a be
       -0.5270071 -1.2996848 0.93758184 -0.27116323
000060 f5 c0 03 3d 43 90 60 bf 0b 91 97 be e1 69 e4 bd
       0.03216644 -0.87720126 -0.29602847 -0.11153007
000070 1d 7b 72 bf 31 6a fd be 30 93 a0 3e a2 2a 01 3e
       -0.94719106 -0.4949508 0.31362295 0.1261392
000080 c8 cd e4 3e 45 f5 2b 3d a1 e6 dd be 62 2d d2 3e
       0.4468825 0.041981954 -0.43340018 0.4105025
000090 fa 78 12 be 1d 71 3f bf 51 ca 57 bb 33 c9 3a bf
       -0.14303961 -0.7478197 -0.0032926986 -0.72963256
0000a0 a5 6f ef 3f 19 1c 60 be 5a 99 fa 3e f0 cb 51 3f
       1.8705946 -0.21885718 0.48945123 0.8195181
0000b0 2d 49 27 3d c6 ae 1a 3e a8 72 3e 3e 8a 80 7f bf
       0.04084127 0.15105733 0.18598425 -0.9980551
0000c0 7f c6 f0 3e d7 2a f0 bc 1a 6b 1a be aa 3a c6 be
       0.4702644 -0.029317303 -0.15079919 -0.38716632
0000d0 3b af 72 3e f8 b5 b5 3e de 3c fe 3d 6b 22 11 be
       0.23699658 0.35490394 0.12413953 -0.14173286
0000e0 69 9d dc 3f fe f1 b9 3e 18 21 cf 3e c3 e7 f3 3b
       1.7235538 0.36317438 0.40454936 0.0074433996
0000f0 5d fb da 3e a1 22 16 3e 7e fe ac 3e e9 56 1f bf
       0.427699 0.14661647 0.33787912 -0.6224199
000100 99 b9 1e 3f 07 37 a7 be 97 1c 3d 3f 6b 5a 74 bf
       0.6200195 -0.3265917 0.7387175 -0.95450467
000110 7f 9f 74 3e 9a d2 8f 3e 58 88 05 bf 30 76 6d 3f
       0.23888968 0.28090364 -0.5216117 0.92758465
000120 dd 47 d3 3d b2 c5 c3 3e 0c f7 66 bf 74 64 8d be
       0.10316441 0.38236767 -0.90220714 -0.27615702
000130 c6 8e 2e be 6d 59 93 3e 79 5a 4e bf 79 93 b6 be
       -0.17046651 0.28779164 -0.806068 -0.35659388
000140 c0 b1 2c 3e 7a 89 4a be 08 c0 0f 3d c6 82 f1 3e
       0.16864681 -0.19779006 0.035095245 0.47170085
000150 0c 6f a0 be fb d0 21 bc f6 c5 2b 3f ff 38 60 3f
       -0.31334722 -0.009876485 0.6709894 0.8758697
000160 d8 b5 77 be f6 ca 06 3f c2 3d 37 3e 1b 37 21 3e
       -0.24190462 0.52653444 0.17894652 0.15743677
000170 5a ae be 3e 67 eb 32 3f 97 06 7a be 50 f4 0b 3f
       0.37242395 0.69890445 -0.24416576 0.54669666
000180 fe d4 40 bf 8c 01 80 bf e5 ac 34 be 7e e7 3a 3f
       -0.75325 -1.0000472 -0.17644079 0.7300948
000190 cf b9 9d be 33 4f a8 bc f6 ce 01 3d e5 d0 d2 be
       -0.30805823 -0.020545578 0.031691514 -0.41175
0001a0 09 67 b7 3c a4 08 af be cc 2d 9f be 73 31 81 be
       0.022387998 -0.3418628 -0.31089628 -0.2523304
0001b0 82 f7 20 3f ae 42 ae 3d 3e 88 b3 be e2 91 ec be
       0.62877667 0.08508812 -0.35064882 -0.4620505
0001c0 df de d8 be 47 7a 34 3f eb d2 2c 3d 98 7f 2d be
       -0.42357537 0.7049908 0.042193335 -0.16943204
0001d0 8b 03 6c bf 7e 1e c2 bf c1 6f 30 be b3 1a 1f be
       -0.92192906 -1.5165555 -0.1723013 -0.15537529
0001e0 f6 a1 54 be fa bf 77 3e cc 3a a9 3e aa 02 22 bf
       -0.20764908 0.24194327 0.3305267 -0.63285315
0001f0 c9 2c 8c 3c 11 75 41 be ab 91 b9 bf ce 2e a3 be
       0.017111199 -0.18892314 -1.4497579 -0.31871647
000200 9d 04 9c 3e b3 eb 3e bf 4c ac e3 3e 4e d7 d4 3d
       0.3047227 -0.745784 0.4446739 0.103926286
000210 9c 80 17 3f c7 58 c0 bd 81 b7 ef 3d dd 5e d9 3d
       0.5918062 -0.09391933 0.117049225 0.10613797
000220 85 f1 fd 3e 4c d6 13 3e d0 42 dc 3e ee 3e fc be
       0.49598327 0.14437217 0.43019724 -0.49266762
000230 91 c0 68 be 15 f9 f3 bc ab e4 f2 bd 23 fd 0a 3e
       -0.22729708 -0.029781858 -0.11860021 0.13573126
000240 e0 c0 7e bf 18 b6 74 3d ab 3f 7c be d3 c5 80 bd
       -0.99513054 0.05974397 -0.24633662 -0.06287732
000250 f0 c8 6a be d7 10 53 be 09 0b 69 3e 03 68 c9 bc
       -0.22928214 -0.20611893 0.22758116 -0.02458573
000260 11 66 9d b9 86 af 08 bf 59 9b 11 3f ef 57 e3 3d
       -0.0003002142 -0.5339283 0.56877667 0.111007564
000270 ab 0b 19 bf 10 98 9d 3c fa 7a 13 3e a5 38 e6 bd
       -0.5978343 0.019237548 0.1440238 -0.11241273
000280 3d 07 42 bf 8a d2 8b be 35 1d 30 be 76 ff 94 3e
       -0.75792295 -0.27309066 -0.17198642 0.2910115
000290 77 8b 98 3e b2 29 05 bf 0a d7 ef 38 7f a6 5c 3d
       0.29793903 -0.52016747 0.00011436462 0.05386972
0002a0 31 b9 22 3e 7b 7a 6e 3d 4c 49 1f 3f e0 18 e2 3d
       0.15890957 0.058222275 0.6222122 0.11039901
0002b0 39 d9 b0 3e b1 ee 1d 3e 2c 24 03 be 99 c0 06 bf
       0.34540728 0.15423085 -0.12806767 -0.5263763
0002c0 83 91 b2 bc a2 2a 86 3f 24 d1 42 bf e5 40 6f be
       -0.021797901 1.048176 -0.76100373 -0.23364599
0002d0 51 94 0b 3f 48 3b 33 3f 65 38 03 3f 6f 4c 70 3f
       0.5452319 0.7001233 0.51257926 0.9386663
0002e0 9b 09 48 3f 08 a1 4e 3e 4e 0c 29 be 28 d6 81 be
       0.78139657 0.20178616 -0.165086 -0.253587
0002f0 10 f8 7d be f0 61 11 be da 9c 1d bf ca 1b 45 bf
       -0.2480166 -0.14197516 -0.6156746 -0.7699553
000300 53 85 03 bf a8 a2 a2 be a4 f1 bd 3e 74 e3 d6 3d
       -0.5137531 -0.31764722 0.3709842 0.10492602
000310 87 d6 be 3e 40 84 78 3c e0 ce 81 bf 75 58 af 3e
       0.37273046 0.01516825 -1.0141258 0.34247175
000320 f3 c2 e7 3e 59 9d 31 3f 3b e3 5d 3d 13 d4 a7 be
       0.45265922 0.6938072 0.054171782 -0.32778987
000330 47 30 89 3e 7d 32 a5 be e6 e1 2e bf 32 3e 4c 3e
       0.26794645 -0.32265082 -0.68313444 0.199456
000340 c3 a2 8d 3d e7 8a 59 bf 60 4e b6 bd a9 bd 58 be
       0.0691581 -0.84977573 -0.089016676 -0.211661
000350 10 0c 25 bf 72 d6 10 3f 0f 13 31 be 8c ef 0e 3f
       -0.6447153 0.5657722 -0.17292427 0.5583427
000360 e1 c0 c8 bd 39 05 d0 3e 8d 7a 02 be 27 4e 98 be
       -0.09802414 0.40628985 -0.12742062 -0.29747126
000370 86 ae 33 bd d5 73 fc be cf 2d 93 3e 32 2a c1 3e
       -0.04386761 -0.49307123 0.28745887 0.37727505
000380 b1 33 7e 3e 84 83 60 bf 47 f8 e7 bd bd a7 12 3f
       0.24824406 -0.87700677 -0.11326652 0.572872
000390 de 20 b1 be 18 10 af 3e 80 1f e3 3d 93 27 c5 be
       -0.34595388 0.34191966 0.110899925 -0.38506755
0003a0 b3 1b 5c 3e 51 2e 79 be 95 78 c5 be 3b 1a 44 be
       0.21494941 -0.24334075 -0.3856856 -0.19150631
0003b0 82 d0 37 3e 92 8c f9 bd f1 78 91 bf bf 90 3d bf
       0.17950633 -0.12185015 -1.1365033 -0.7404899
0003c0 0e 42 02 be 6e 5c 9e 3e b1 df b6 3e fa aa 95 be
       -0.1272051 0.30929893 0.35717538 -0.29232007
0003d0 48 93 e7 be 28 46 e1 3d ba ae 61 bf 61 de 57 be
       -0.45229554 0.10999709 -0.88157237 -0.21080925
0003e0 41 bc c6 3e c8 c5 10 3e f2 bd 63 be b7 9a 13 3e
       0.388155 0.14137948 -0.22240427 0.14414488
0003f0 a2 4a b0 be 8f 95 ea bc 56 54 38 bf e3 2e db 3c
       -0.3443194 -0.028635768 -0.72003686 0.026755756

local1.norm.weight f4 [128]
000000 bf c1 6d 3f f4 8d c1 3f f2 97 cf 3f 7f 43 14 3f
       0.9287376 1.5121446 1.6218245 0.5791549
000010 bc d4 06 3f 18 bf 74 3f e0 98 60 3f 95 3c 39 3f
       0.52668357 0.95604086 0.8773327 0.72358066
000020 fd 53 e4 3f cb 69 0e 3f d3 d0 e3 3f 3c 3e e1 3f
       1.7838131 0.5563018 1.7798103 1.7597117
000030 25 ec a1 3f e0 dd 82 3f 77 f0 8b 3f e4 93 e5 3f
       1.265019 1.0223961 1.0932759 1.7935758
000040 f6 02 96 3f e6 1b fd 3e c2 0c ad 3f 5d 04 7e 3f
       1.1719654 0.49435347 1.3519518 0.9922541
000050 da 42 d4 3e 2c 96 8d 3f e0 f7 4d 3f e9 d2 92 3f
       0.41457254 1.1061454 0.8045635 1.1470615
000060 33 a7 8d 3f 96 eb 5c 3f 2e 90 46 3f f5 c6 93 3f
       1.106665 0.86296976 0.7756375 1.1545092
000070 e2 df 88 3f d4 44 ea 3e 85 65 d1 3f 29 00 40 3f
       1.0693324 0.45755637 1.6359106 0.75000244
000080 79 0c b3 3f 86 11 49 3f 8d 36 94 3f b8 e5 29 3f
       1.3988181 0.78542364 1.1579148 0.6636615
000090 2b 22 78 3f e6 9a 75 3f f3 5b 3e 3f 28 9e 36 3f
       0.96927136 0.9593948 0.74359053 0.7133508
0000a0 ae aa 54 3f ff e3 92 3f 6a 70 52 3f 71 14 6c 3f
       0.83072937 1.1475829 0.8220278 0.9221869
0000b0 b5 1f 78 3f 60 a0 80 3f c5 a8 86 3f 8d 53 b1 3f
       0.9692338 1.0048943 1.0520254 1.3853623
0000c0 58 44 86 3f 15 6d b9 3f 08 3f 60 3f 2f 0e 74 3f
       1.0489607 1.4486414 0.8759618 0.9533414
0000d0 51 e3 5a 3f 91 f6 fa 3e 3c d3 01 40 1c 72 5f 3f
       0.8550311 0.4901624 2.0285177 0.8728349
0000e0 e7 b7 cb 3f 1a b2 6a 3f 7a d2 8d 3f 9e 1f 85 3f
       1.5915498 0.9167801 1.1079857 1.0400274
0000f0 76 68 a0 3f 7a 30 4d 3f 1a 63 91 3f 91 92 76 3f
       1.2531879 0.80152094 1.1358368 0.9631739
000100 5f 44 80 3f 38 7d 66 3f 9e 54 60 3f e5 37 0a 40
       1.0020865 0.9003482 0.87629116 2.1596615
000110 79 44 29 3f cc d3 66 3f 6a 8e 9a 3f ca b4 8b 3f
       0.66120106 0.90166926 1.2074711 1.0914547
000120 12 21 92 3f f7 a4 87 3f 9f 50 70 3f 78 c8 3d 3f
       1.1416342 1.0597218 0.9387302 0.74134016
000130 ed c6 85 3f 22 77 ab 3f 63 e9 cb 3f 52 b5 11 40
       1.0451332 1.3395731 1.5930599 2.276692
000140 a4 c7 c8 3f aa 51 ab 3f 15 c5 47 3f 89 3d 10 3f
       1.5685925 1.3384297 0.780351 0.56343895
000150 13 0b 33 3f df 23 88 3f 36 90 0e 3f 23 e9 35 3f
       0.6993877 1.0635947 0.556888 0.71058863
000160 13 80 30 3f d6 10 fe 3e b9 84 89 3f a9 3a c6 3f
       0.68945426 0.4962222 1.0743629 1.5486652
000170 a6 15 b9 3f aa 14 89 3f 43 75 7b 3f 92 47 95 3f
       1.4459732 1.0709431 0.982258 1.1662467
000180 d6 f0 1e 3f e2 a2 4f 3f b0 e3 a4 3f f9 49 8b 3f
       0.62086236 0.81107914 1.2881985 1.088195
000190 d2 45 c1 3f fb 82 08 40 80 83 28 3f ad 7a 0c 40
       1.5099432 2.1329944 0.65825653 2.1949875
0001a0 ee 24 ad 3f 33 96 9e 3f 23 3d 7a 3f 61 4b a6 3f
       1.3526895 1.2389587 0.9774954 1.2991754
0001b0 f9 c2 29 3f 92 07 3a 3f b7 65 26 3f 3c a1 7b 3f
       0.6631313 0.726678 0.64998955 0.982929
0001c0 c4 22 8c 3f a4 fd f2 3f b7 86 5a 3f c9 3f 5d 3f
       1.094811 1.8983655 0.8536181 0.86425453
0001d0 d1 28 3d 3f a8 7b 6f 3f e2 25 1b 3f 49 a2 bb 3f
       0.73890406 0.9354806 0.6060468 1.46589
0001e0 42 61 87 3f 42 bf 77 3f ee 35 97 3f f2 bf d0 3f
       1.0576556 0.9677621 1.1813333 1.6308577
0001f0 5d 76 da 3e 39 c8 83 3f a2 ee 27 3f 72 a0 b0 3f
       0.4266843 1.0295478 0.655985 1.3798964

local1.norm.bias f4 [128]
000000 d5 38 0b bf f0 aa 12 bf c0 49 8e be 7b a2 1d bf
       -0.54383594 -0.5729208 -0.27790642 -0.6157605
000010 f8 86 21 bf d3 bc 3d bf 04 43 b6 be 99 ae 54 bf
       -0.6309657 -0.7411625 -0.35598004 -0.83078915
000020 ff b0 05 bf 56 d9 09 bf a0 29 ad be 64 c4 78 bf
       -0.522232 -0.53847253 -0.3382082 -0.9717467
000030 14 e1 2a bf 02 a9 d6 be d3 c8 39 bf 14 d3 c3 be
       -0.6674969 -0.41925818 -0.7257206 -0.38246977
000040 10 94 1e bf f7 31 0f bf 1d 0a 17 bf 53 32 2d bf
       -0.61944675 -0.55935615 -0.58999807 -0.67654914
000050 bd 35 0a bf c1 6b 42 bf 8b 20 d6 be 36 97 1a bf
       -0.5398825 -0.7594567 -0.41821703 -0.6038698
000060 ac 58 21 bf 35 03 3b bf 6e cc 14 bf c7 68 d8 be
       -0.6302593 -0.7305177 -0.58124435 -0.4226744
000070 b9 b5 c3 be a5 26 03 bf c4 71 38 bf 5d 08 fa be
       -0.3822458 -0.5123084 -0.7204859 -0.48834506
000080 32 01 ea be 15 2e ea be 74 e2 8e bf 86 46 97 be
       -0.45704037 -0.45738283 -1.1162858 -0.29545993
000090 76 17 3b bf 59 18 f3 be 76 b0 27 bf 08 99 c2 be
       -0.73082674 -0.47479513 -0.65503633 -0.3800738
0000a0 6c 98 fd be 87 9e 3b bf ee ad c0 be 53 26 e5 be
       -0.4953035 -0.7328877 -0.37632698 -0.44755802
0000b0 a1 e3 6f bf be dc 39 bf d5 92 1b bf a0 c5 d4 be
       -0.9370671 -0.7260245 -0.6077092 -0.41557026
0000c0 cf 48 e6 be 15 6c 56 bf eb 07 12 bf 74 34 31 bf
       -0.44977424 -0.8375867 -0.5704333 -0.6922066
0000d0 21 5b 7e bf c3 c8 d8 be 16 a9 c6 be 3d 32 bc be
       -0.993578 -0.4234067 -0.38800877 -0.3675708
0000e0 d4 44 b0 be de 43 2c bf 1a 18 50 bf 45 3a 65 bf
       -0.34427512 -0.6729106 -0.81286776 -0.8954204
0000f0 07 20 42 bf db ea 58 bf f9 42 45 bf e3 66 28 bf
       -0.7583012 -0.8473336 -0.7705532 -0.6578199
000100 f6 96 02 bf fa 48 3a bf 91 bd 1e bf 7e 65 7c be
       -0.510116 -0.72767603 -0.62008005 -0.24648091
000110 b5 f5 84 be fb f4 17 bf a4 06 2e bf a0 c0 55 bf
       -0.2596871 -0.59358186 -0.6797888 -0.8349705
000120 f2 a8 1d bf 4e 02 48 be e8 f4 30 bf 81 0d e9 be
       -0.61585915 -0.19532129 -0.691237 -0.45518115
000130 fc 34 62 bf f1 66 ca be 79 54 c9 be c2 18 dd bd
       -0.883621 -0.39531663 -0.3932226 -0.10795738
000140 c1 a7 0d 3d 48 ff 3b bf 78 b8 77 be 49 ed 1e bf
       0.03458381 -0.73436403 -0.24191463 -0.6208082
000150 1f ad 20 bf d0 91 04 bf 55 c1 0e bf c4 02 14 bf
       -0.6276416 -0.5178499 -0.5576375 -0.5781672
000160 14 7a 14 bf 03 0f 0a bf c9 f1 1b bf 0a 90 05 bf
       -0.57998776 -0.53929156 -0.6091581 -0.5217291
000170 37 84 97 be 1c 79 ff be c3 c3 58 bf 9e d5 30 bf
       -0.2959306 -0.49897087 -0.8467371 -0.69075954
000180 6a d0 c2 be 19 17 23 bf 70 4c 47 bf 08 14 62 bf
       -0.38049632 -0.6370712 -0.7785101 -0.88311815
000190 c9 fe a4 be 06 c2 f1 be e6 45 05 bf 22 7b 21 be
       -0.32225636 -0.4721834 -0.5205978 -0.15769628
0001a0 9d 07 c6 be 4c 73 00 bf e0 6e 47 bf 08 e1 a3 be
       -0.38677683 -0.5017593 -0.77903557 -0.32007623
0001b0 49 70 d9 be b0 96 13 bf 55 c0 1d bf ac 75 f8 be
       -0.4246848 -0.57651806 -0.616216 -0.48527277
0001c0 03 b7 09 bf 8a 30 f0 be 29 31 07 bf e0 a9 fa be
       -0.5379488 -0.46912032 -0.5280939 -0.4895773
0001d0 40 85 31 bf 27 d7 50 bf 44 f2 a1 be d4 54 12 be
       -0.6934395 -0.81578296 -0.31630147 -0.14290172
0001e0 f0 d2 ba be 16 71 12 bf 28 15 46 bf d8 82 bf be
       -0.36489058 -0.57203805 -0.7737603 -0.37404513
0001f0 f0 15 2c bf 1a 93 20 bf 79 4f 1a bf 33 f4 10 bf
       -0.67220974 -0.6272446 -0.60277516 -0.5662262

local2.conv.bias f4 [128]
000000 b4 ac 57 bf 2e d8 e5 3e 2c 7f 0b 3f 30 7a ba 3f
       -0.842479 0.44891495 0.54490924 1.4568539
000010 78 20 fa 3e 64 af 30 3f b8 af 83 3e f3 f5 14 3f
       0.48852897 0.69017625 0.2572 0.5818779
000020 be 9c e7 3e 79 f2 0e 3e 38 a3 ed 3e 61 cf bb 3e
       0.45236772 0.13959683 0.4641359 0.36681655
000030 92 78 f2 3d 48 75 5b 3e ee 87 01 3f c8 e3 af 3e
       0.11839403 0.21431458 0.5059804 0.3435347
000040 bb f3 52 3e 7d 0e 6e 3e 75 a9 0f 3f 53 04 2b 3f
       0.20600788 0.23247714 0.56117946 0.66803473
000050 6c 1e 03 3f 02 0c d4 3e a5 78 0d 3f 76 b4 d0 3e
       0.51218295 0.4141541 0.55262214 0.4076268
000060 4c 39 dd 3f 56 df c4 3d 55 48 25 3f 76 72 06 3f
       1.7283111 0.096129104 0.64563495 0.52518404
000070 ec 30 38 3f 1e e9 d9 3e f2 09 ac 3e f7 e9 16 3e
       0.7194965 0.42560667 0.33601338 0.14737688
000080 cf 33 7f 3f c6 f2 e3 3e c4 58 05 3e f4 59 bb 3e
       0.9968843 0.4452116 0.13022143 0.36592066
000090 f3 a6 97 3e f6 67 70 3e 3d ae df 3e 3a 5a b7 3e
       0.2961956 0.23477158 0.4368762 0.35811025
0000a0 8b aa 06 3f 6e 9d 81 3e 0b 6a 8a 3b 38 66 a6 3e
       0.5260398 0.25315422 0.004224067 0.32499862
0000b0 72 c2 1a 3e 02 0e cc 3e 29 00 92 bf 07 fc 0a 3f
       0.15113238 0.39854437 -1.1406299 0.54290813
0000c0 f6 8e 52 3e 32 d7 bc 3f 39 c7 21 3f 8c a4 3e 3f
       0.20562348 1.4753172 0.63194615 0.7446983
0000d0 14 5f a5 3e e6 b7 98 bf 85 e0 f3 3e 53 5f 0d 3f
       0.322991 -1.1931121 0.47632232 0.5522358
0000e0 f3 8b 0b 3f 6c 1a e2 3e 30 36 2c 3e fd a7 80 3e
       0.5451042 0.44160783 0.16817546 0.25128165
0000f0 8e 85 00 3f c4 d4 ac 3e 29 68 05 3e e6 77 81 3e
       0.5020379 0.33756077 0.13028015 0.25286788
000100 1a 5d d9 3e ad d2 45 3f 95 c5 ff 3e 6a 15 33 3f
       0.42453843 0.7727459 0.4995543 0.6995455
000110 cd 7e 3e 3f 5c d7 5b 3e e5 39 07 3f 75 92 25 3f
       0.7441223 0.21468872 0.52822715 0.646766
000120 1c 75 06 3f 1d 6f c0 3e 7a ed 9e 3e 98 76 06 3f
       0.52522445 0.37584773 0.31040555 0.5252471
000130 c2 a7 de 3f 67 07 07 3f ba 99 c9 3e 09 e8 64 3f
       1.7394946 0.5274567 0.39375097 0.8941656
000140 23 cf ff 3e c9 51 fa 3e 90 35 d4 3e 97 d3 07 3f
       0.4996272 0.48890522 0.41447115 0.53057235
000150 0c a0 50 3f e6 8c 3b 3f 31 ab 34 3f 85 96 a0 3e
       0.8149421 0.7326187 0.7057372 0.31364837
000160 f1 98 3a 3f bd 46 66 3d 28 d5 cd 3e 98 49 2f 3f
       0.7288962 0.056219805 0.40201688 0.6847167
000170 8f 26 46 3e e9 a8 d3 3e ca fc ce 3e 95 73 99 3e
       0.19350646 0.41339806 0.40427238 0.29970995
000180 15 eb f5 3d 76 10 cc 3d f3 85 de 3e 20 e3 dd 3e
       0.12007729 0.09964077 0.4346157 0.43337345
000190 c8 b0 68 3e 58 ac 63 3e 5e 36 35 3d 6e fe ff 3e
       0.22723687 0.22233713 0.0442413 0.49998802
0001a0 a7 28 77 3e 97 a8 85 3f 17 41 52 3e 2d 7d 15 3e
       0.24136601 1.0442075 0.20532642 0.14598532
0001b0 19 c5 c4 3e 96 27 89 3e 17 8a d4 3e b6 0c 06 3f
       0.38431624 0.26788014 0.41511604 0.52363145
0001c0 eb 68 23 3f 35 da 25 3e b2 60 13 3f 65 26 d4 3e
       0.6383197 0.1619652 0.5756942 0.41435543
0001d0 c1 c3 11 3f ba a7 fc 3e 83 2b fd 3e 65 bd 18 bd
       0.5693932 0.49346715 0.4944726 -0.037289996
0001e0 41 44 de 3e b4 db 5f 3e b3 08 8b 3e fa 73 79 3d
       0.4341145 0.21861154 0.27155074 0.06090162
0001f0 2d a3 c0 3e e2 d4 b4 3e ee 0e e5 3e 56 fb a6 3e
       0.37624493 0.35318667 0.44737953 0.3261363

local2.conv.lin.weight f4 [128, 128]
000000 1f bc ad 3e 7c 30 c8 3e 12 9e 2f 3f 63 be 4a 3f
       0.33932588 0.3909949 0.6860057 0.7919676
000010 62 4e 09 3f ef c6 6d bf de 01 55 3e 42 bd 1c 3f
       0.5363523 -0.92881674 0.20801494 0.61226285
000020 1f 7c 11 3f b2 7d f8 3e 44 e3 a9 bf dd d4 ac bd
       0.5683002 0.48533398 -1.3272481 -0.08439038
000030 0b 0e a0 be fb 25 ea 3e 85 15 31 be 9f cb 1b bf
       -0.31260714 0.45732102 -0.17293365 -0.60857576
000040 db d4 9f be f2 f7 59 3e 71 c8 03 bf 4b f8 e2 3e
       -0.31217083 0.2128599 -0.51477724 0.44330058
000050 87 7e 40 3f a6 c8 22 3f ff 1d b9 3e 81 08 51 3f
       0.75193065 0.63587415 0.36155698 0.816536
000060 36 da 2a 3d 27 d6 b1 3e 70 9f 40 3f 58 d2 ed 3e
       0.04171201 0.34733698 0.7524328 0.46449542
000070 c1 1e 8d bd 7e 6e 84 3f 04 a4 1d 3f c4 e0 3b 3f
       -0.068906315 1.034622 0.61578393 0.7338984
000080 01 72 d2 3e a0 d4 5e 3e 7c c4 bb be c9 bf 97 bd
       0.41102603 0.21760798 -0.36673343 -0.07409627
000090 a4 9f 21 bf 2e ad fa 3e c0 a2 bf 3e d1 f4 e9 be
       -0.6313422 0.4896025 0.37428856 -0.45694593
0000a0 42 b7 f0 3d 1e e6 ca be 8f 12 c0 3e 5b 9a 06 3f
       0.11753704 -0.3962869 0.3751416 0.5257928
0000b0 ef 33 c5 3d a5 8b 91 3e af 24 56 3e 37 0b 17 3f
       0.09629046 0.28426853 0.20912431 0.5900149
0000c0 68 68 24 3f 2c 3a 13 3f 87 88 58 bf 51 83 00 3f
       0.6422181 0.5751064 -0.84583324 0.5020037
0000d0 3d 5f 89 3e a5 12 3e 3e c5 1f 5f 3f 00 38 6f 3f
       0.26830474 0.185618 0.8715785 0.93444824
0000e0 b2 5f 45 bf 29 2c 92 3e 3d e0 11 be e8 39 bf 3e
       -0.77099144 0.28549317 -0.14245696 0.37348866
0000f0 ea 18 3f be 47 2f 20 3f 07 28 fd 3d d0 e8 da 3e
       -0.18661848 0.6257214 0.1236115 0.42755747
000100 3e a4 00 3f 78 68 8c be 24 97 07 3f 18 e3 c3 bf
       0.50250614 -0.27423453 0.52965 -1.5303679
000110 20 ec 0e 3d f1 9a fe bd 03 ae b1 bf bd 73 26 bf
       0.034893155 -0.124318965 -1.3881229 -0.6502035
000120 26 04 fc bd 49 e3 98 3e b4 d9 c2 3e 1f 4c 24 3f
       -0.12305479 0.29860905 0.3805672 0.6417865
000130 90 fb 50 3e 7d 6a 2b 3e 9b c8 7c 3f 24 bc 89 bf
       0.20408463 0.16739841 0.987436 -1.0760541
000140 38 90 2e 3f c2 8c b3 be 5c a8 4a 3e b2 ad 3b 3f
       0.6818881 -0.35068327 0.19790787 0.73311913
000150 19 98 c5 3e 53 d4 85 3f a1 10 1f 3f fd 60 81 be
       0.38592604 1.0455421 0.6213475 -0.2526931
000160 f9 e7 a5 3e 7b 34 29 3f 0b b8 11 3f 0f 1d 12 3f
       0.32403544 0.66095704 0.5692145 0.5707559
000170 62 51 99 3f 4e 53 27 3f a3 5b bb 3e 4f c3 38 3f
       1.1977961 0.6536149 0.3659335 0.7217302
000180 11 61 99 3e 7a 09 f7 3d 9b e5 07 3f 45 de 71 bc
       0.29956868 0.120623544 0.53084725 -0.014762466
000190 80 c2 01 3f 6a 33 d3 bf 51 f9 3b 3f 83 03 89 bf
       0.5068741 -1.6500065 0.734273 -1.0704197
0001a0 11 4f 20 3f bb 27 b3 3e 7d 3d 5b 3f a1 66 86 3e
       0.62620646 0.3499125 0.856407 0.26250175
0001b0 3e 64 45 3f 56 f9 2f be c5 cf d5 be a7 1e 09 3f
       0.7710608 -0.17184958 -0.41760078 0.53562397
0001c0 21 80 d5 3e a7 59 09 3f 9e 2c 43 bf a4 ae 86 bf
       0.41699317 0.53652424 -0.76239955 -1.0522046
0001d0 a2 58 8e 3e fa ea 2f 3d 1f 2f 51 3f 67 05 12 3f
       0.27801996 0.0429487 0.81712526 0.57039493
0001e0 e4 9e a0 3e ae 9a 8a 3e 91 ae 00 bf 2d bc ab 3e
       0.31371224 0.27071136 -0.5026637 0.33542004
0001f0 a5 6d 51 3f 49 08 74 3e 07 83 80 3e 57 57 00 3f
       0.8180793 0.23831286 0.25099966 0.5013327
000200 62 a5 03 bd 32 a6 12 bf fe 80 07 bf b5 a7 fc 3e
       -0.032140143 -0.57284844 -0.529312 0.493467
000210 80 61 0e 3f 8f c2 de 3e 74 38 35 3f 3e c0 0f 3d
       0.55617523 0.4350781 0.70789266 0.035095446
000220 37 e5 c0 be a7 35 2b 3e 79 7d ad 3e bc 60 e3 be
       -0.37674877 0.16719685 0.3388479 -0.4440974
000230 93 35 0e bf cc 9d 0b 3d 57 7a e9 3e 59 3c ca 3d
       -0.555505 0.034086034 0.4560115 0.09874792
000240 a6 e5 91 3d 01 e3 a3 bd 01 fa b1 3e ad fb 2b 3f
       0.0712388 -0.08002282 0.3476105 0.671809
000250 08 e7 db 3e d8 5e b5 be cb 82 c9 bb 47 14 9b be
       0.429497 -0.35423923 -0.006149625 -0.30288908
000260 88 71 bf bd d9 e8 d7 3e 0f 99 22 bd 6a ff 8e 3e
       -0.09347826 0.42169836 -0.03969675 0.2792924
000270 0f e5 97 3e 9a 95 aa 3e c3 f3 6d bf f8 72 ac 3e
       0.29666945 0.33317262 -0.92950076 0.33681464
000280 91 06 31 be fd b8 bc bc 14 42 8d bd cf d7 ec be
       -0.17287661 -0.023037428 -0.06897369 -0.462584
000290 9c a1 2c 3f b7 f3 b4 3e 42 85 d2 3e c1 27 58 3e
       0.67434096 0.3534219 0.41117293 0.21108915
0002a0 bf 1a ab bd 2d a0 ed 3e f7 b1 89 be c9 70 af be
       -0.08354711 0.46411267 -0.2689359 -0.34265736
0002b0 65 25 17 be c2 a2 00 3f 8c ef b7 3e a4 19 1a bf
       -0.14760359 0.5024835 0.35924947 -0.60195374
0002c0 61 3e 3a 3e f6 59 e6 3e 4b 05 4e bf cd d9 0b 3f
       0.18187858 0.4499051 -0.80476826 0.5462921
0002d0 b1 3d 7b be 85 be 78 bc 02 71 07 bf e8 8c 9f 3e
       -0.24535252 -0.015182142 -0.5290681 0.3116219
0002e0 06 d4 aa 3c 40 92 3f 3f f9 58 83 3e 73 0a fc 3e
       0.020853054 0.74832535 0.25653818 0.49226722
0002f0 1d d4 ef 3e c5 a8 8b 3e 51 f2 2c 3f bd ff 81 bf
       0.46841517 0.27277198 0.67557245 -1.015617
000300 99 72 46 3e 42 d4 c4 3e 4b 20 46 3e 94 8f df 3d
       0.19379653 0.3844319 0.19348256 0.10916057
000310 e0 0c bd bd 16 b1 64 be 37 a9 d4 be ec f8 31 3f
       -0.09230971 -0.22333178 -0.4153535 0.6952045
000320 a6 c9 6b 3f 1b b8 8b bf f2 5b 04 3e 15 32 b4 3e
       0.92104566 -1.091556 0.129257 0.3519446
000330 c4 fc 5a 3e fe c9 15 be dd c9 6b bf 7c 4d 8b be
       0.21385485 -0.14627835 -0.92104894 -0.27207553
000340 5b 2e 8f 3e 71 c9 4c 3f 44 1f bf 3e 77 78 08 3f
       0.27965054 0.79994875 0.3732854 0.53308815
000350 3d db df 3d 2a be 36 3f df 43 c8 3e 84 78 fb bd
       0.10930488 0.7138392 0.39114282 -0.12278846
000360 bb 99 79 3e 71 ad 0a 3f be 20 f7 be fb 35 51 bf
       0.2437505 0.541709 -0.48267168 -0.8172299
000370 00 68 27 bf d7 b9 9b 3c f3 5c d9 bd b7 6e d4 3e
       -0.65393066 0.019009514 -0.10613432 0.4149072
000380 5d 94 91 be 46 58 cf bd 3d 11 34 bf 63 fe 84 3e
       -0.28433505 -0.10124259 -0.70338804 0.25975332
000390 c8 f9 4f bf 91 0a 91 3f 65 ed ec 3e 63 40 f5 3c
       -0.8124051 1.133135 0.46274868 0.029937929
0003a0 25 3c 2f bf c8 e9 00 bc eb 07 dd 3e f7 fe 55 3f
       -0.6845115 -0.007868238 0.43170103 0.8359217
0003b0 d7 06 13 3f dc 66 43 be df 5a b1 3e f2 c8 69 3e
       0.5743231 -0.19082206 0.34639642 0.22830561
0003c0 dd e0 09 bf f5 c2 d2 be 69 2a 04 bd b6 eb 23 3e
       -0.5385874 -0.41164365 -0.032267008 0.16007885
0003d0 86 4c 3f 3d 7d 45 91 be 4e ae 07 3f cc fe 61 bf
       0.046703838 -0.28373328 0.5300034 -0.88279414
0003e0 7a df 1f 3f 61 99 4c bd b1 56 b3 3e dc bb de 3d
       0.62450373 -0.04995096 0.35027078 0.10875675
0003f0 c9 1c 22 be c0 c3 cd bd e8 92 17 3e a0 bf 23 3f
       -0.15831293 -0.10047102 0.14802134 0.6396427

local2.norm.weight f4 [128]
000000 55 88 64 3f a7 12 77 3f 2e a0 55 3f bb f3 46 3e
       0.89270526 0.96512836 0.8344754 0.19428913
000010 1a ca 48 3f 74 21 23 3f 7b 05 5e 3f 79 7d 4e 3f
       0.7843338 0.6372292 0.8672711 0.80660206
000020 ff 93 8f 3f 04 d4 74 3f 15 38 2b 3f 3a 9e 5e 3f
       1.121704 0.9563601 0.6688245 0.86960185
000030 47 32 ab 3f 25 09 cd 3f cd 56 89 3f 02 8b 28 3f
       1.3374718 1.6018416 1.0729614 0.6583711
000040 57 d9 6f 3f 5d d8 98 3f 06 f5 8e 3f 65 df 11 3f
       0.9369101 1.1941029 1.1168525 0.569815
000050 6d 34 6d 3f 9d bc c0 3f cc a3 5f 3f ad a1 0c 3f
       0.9265812 1.505756 0.8735931 0.549342
000060 23 12 18 3e c5 b3 9a 3f cf 0d 46 3f 8d 17 8c 3f
       0.14850669 1.2086111 0.7736482 1.0944687
000070 1a 21 39 3f ad 76 8d 3f 3a 58 2f 3f 61 6b a3 3f
       0.72316134 1.1051842 0.68494 1.2767144
000080 39 c9 cf 3f 86 77 9b 3f e1 8d 88 3f b7 a2 7e 3f
       1.6233283 1.2145851 1.0668298 0.99467033
000090 eb f6 b5 3f 77 7d ad 3f ca d7 a7 3f 9a 59 96 3f
       1.4215978 1.3553914 1.3112729 1.1746094
0000a0 f7 20 95 3f 3b 3b 16 3f f3 da 18 3f ab fe 24 3f
       1.1650685 0.5868413 0.5970909 0.6445109
0000b0 f3 b1 a3 3f 56 12 a0 3f 4d 75 32 3f 3e a8 6b 3f
       1.2788681 1.2505596 0.69710237 0.9205359
0000c0 7c c0 04 3f 35 5c 76 3e a5 93 51 3f ca 0c e5 3e
       0.5185621 0.24058612 0.8186591 0.4473632
0000d0 02 27 f9 3e 4b de 9d 3f bb 0a 88 3f c8 d0 9b 3f
       0.48662573 1.2333463 1.0628275 1.217309
0000e0 f3 5f 15 3f 9d 3f 31 3f 99 4b cd 3f bf 75 04 3f
       0.5834953 0.6923769 1.6038696 0.51742166
0000f0 4b 94 70 3f 81 fc 44 3f 7a 79 bb 3f 86 44 82 3f
       0.9397628 0.7694779 1.4646447 1.0177162
000100 9c 49 4e 3f 55 b9 f2 3e 5d d8 6e 3f 2b 36 17 3f
       0.8058107 0.47407022 0.93298894 0.5906703
000110 c9 c9 15 3f 56 72 85 3f 97 68 20 3f 42 b7 19 3f
       0.58511025 1.0425518 0.6265959 0.60045254
000120 72 4f 6a 3f 50 f5 1f 3f 05 7c 92 3f 87 21 8f 3f
       0.91527474 0.6248369 1.1444098 1.1182107
000130 7b dd 21 3e cf 14 4b 3f 5d 80 bf 3f ef fb 08 3f
       0.15807144 0.79328626 1.4961048 0.5350942
000140 9b 23 52 3f af 5d 33 3f 4e 2a 7e 3f 6e ed 10 3f
       0.8208558 0.70064825 0.992833 0.5661229
000150 cf e2 07 3f fa a6 fb 3e 50 10 2b 3f af 1b 82 3f
       0.5308046 0.4915083 0.66821766 1.0164698
000160 b5 57 19 3f 92 0c 99 3f b3 72 b8 3f c4 54 2b 3f
       0.59899455 1.1956961 1.4410003 0.6692622
000170 cf ed 9c 3f 49 c9 43 3f c2 66 79 3f f6 9e 00 40
       1.2260073 0.7647901 0.9742242 2.0097022
000180 fb 13 77 3f e7 97 18 3f d2 46 3f 3f 44 fa 86 3f
       0.9651486 0.59606785 0.7471744 1.0545125
000190 0b b8 ca 3f c4 81 7e 3f cc 03 0a 40 43 04 9d 3f
       1.5837415 0.99416757 2.1564817 1.2266926
0001a0 39 2c 3d 3f 85 85 f8 3e c3 65 4e 3f 1f 86 5c 3f
       0.73895603 0.48539367 0.80624026 0.8614215
0001b0 f7 05 08 3f 94 2c c4 3f 3d 34 91 3f 05 89 2c 3f
       0.531341 1.5326104 1.1344067 0.67396575
0001c0 7f 80 58 3f 3a cd a9 3f 17 82 29 3f 81 47 69 3f
       0.8457107 1.3265755 0.66214126 0.9112473
0001d0 47 45 2b 3f fe e1 1c 3f 09 15 48 3f 4e d0 a6 3f
       0.66902584 0.61282337 0.781571 1.303232
0001e0 52 c4 47 3f 6a 15 c7 3f f8 6e dc 3f 8d c9 88 3f
       0.78033936 1.555341 1.7221365 1.0686508
0001f0 3e 88 64 3f d5 cd 4c 3f 9a 7b d9 3f 2a 2c 6a 3f
       0.8927039 0.80001575 1.6990845 0.9147364

local2.norm.bias f4 [128]
000000 66 cd 0e bf 93 7f 10 bf ae df cf be da ab 50 bf
       -0.55782163 -0.5644466 -0.40600342 -0.81512225
000010 46 80 2e bf 23 2b 1c bf 58 73 ab be b1 1b c0 be
       -0.6816448 -0.6100332 -0.33486438 -0.37521127
000020 a9 79 cf be 9b 1e f7 be 62 05 a6 be db 53 e5 be
       -0.40522507 -0.48265538 -0.32425982 -0.4479054
000030 ac 04 18 be ce f5 58 be 0a 69 ca be 40 59 d5 be
       -0.14845532 -0.21187517 -0.39533263 -0.41669655
000040 f7 35 0e bf 85 f1 b2 be c1 65 07 bf 3c 24 46 bf
       -0.55551094 -0.3494989 -0.5288964 -0.7739904
000050 19 c8 c9 be cb 3a f6 be cb 47 ad be 7b 81 e0 be
       -0.39410475 -0.4809173 -0.33843836 -0.43848786
000060 0d fe 54 bf 4b 7a 03 bf 92 03 1d bf 5c 63 da be
       -0.8320015 -0.5135848 -0.6133357 -0.4265393
000070 07 86 2a bf ef 17 aa be f0 27 0f bf 9a 7a cb be
       -0.6661076 -0.33221385 -0.55920315 -0.39741975
000080 94 36 b4 bd 15 da b0 be 4c 12 b9 be bf 04 ad be
       -0.087994725 -0.34541383 -0.36146772 -0.33792683
000090 62 24 11 bf 73 04 19 bf d6 4f aa be 7f 7a a6 be
       -0.5669614 -0.59772414 -0.33264035 -0.32515332
0000a0 42 3a c0 be 48 0f ce be 61 a5 8e be e9 2f 0e bf
       -0.37544447 -0.40246034 -0.2786055 -0.55541855
0000b0 57 8b 94 be ba 26 b0 be c5 55 23 bf 35 ef d0 be
       -0.29012558 -0.34404546 -0.6380275 -0.408075
0000c0 77 b9 cb be ca 13 54 bf c9 7c 06 bf 43 2c 41 bf
       -0.39789936 -0.82842696 -0.5253416 -0.75458163
0000d0 84 1b d9 be c3 39 d5 be 23 70 94 be ae c0 1a bf
       -0.42403805 -0.4164563 -0.28991804 -0.60450256
0000e0 42 11 d8 be 0f d3 0e bf 72 af 06 bf 05 b3 8d be
       -0.42200667 -0.557908 -0.5261146 -0.27675644
0000f0 3f c3 02 bf a4 ea e8 be 7f 4e d4 be 37 5f 1c bf
       -0.5107917 -0.45491517 -0.41466138 -0.61082786
000100 5d 0b fa be a3 30 3e bf 8b 76 ad be 65 ad 49 bf
       -0.48836794 -0.74292964 -0.33879504 -0.78780204
000110 9d c4 44 bf 69 42 cb be 19 2a 0e bf 25 9c 3f bf
       -0.7686251 -0.39699104 -0.55532986 -0.7484763
000120 5b 97 cb be f2 1f 24 bf 89 7f 32 bf 65 4f df be
       -0.39763913 -0.64111245 -0.69725853 -0.4361526
000130 d4 cf 3d bf 26 19 9a be f2 c8 ac be 83 37 46 bf
       -0.74145246 -0.30097312 -0.3374706 -0.77428454
000140 0a eb db be 75 2c cb be 0f 5b 14 bf f3 24 db be
       -0.42952758 -0.39682356 -0.57951444 -0.42801628
000150 22 1b 24 bf 4f 6e 3b bf e8 29 5e bf 69 b0 11 bf
       -0.641039 -0.7321519 -0.86782694 -0.56909806
000160 4e ef 19 bf 26 91 10 bf 0a 57 63 be 7e e4 2b bf
       -0.60130775 -0.5647148 -0.22201172 -0.67145526
000170 4d 9e ae be 40 03 a6 be 24 e4 fd be a8 f5 8e be
       -0.3410515 -0.32424355 -0.4958812 -0.27921796
000180 8d 19 f4 be ac c5 e9 be 9f c2 2c bf fa 5d 02 bf
       -0.47675744 -0.45658624 -0.6748447 -0.50924647
000190 ec 34 ab be 40 0e d0 be 7c eb 63 be e7 87 0a bf
       -0.33438814 -0.40635872 -0.22257799 -0.5411362
0001a0 c0 3b c9 be 19 26 5e bf 46 48 bd be 35 70 e7 be
       -0.39303398 -0.8677688 -0.36969203 -0.45202795
0001b0 36 0e e5 be f9 9b a4 be c9 2f 1e bf ff 3c 27 bf
       -0.44737405 -0.32150248 -0.61791664 -0.6532745
0001c0 94 fb 2d bf 37 01 c6 be 86 e0 d7 be d6 eb 0a bf
       -0.67962 -0.38672802 -0.42163485 -0.5426611
0001d0 71 24 00 bf dd 10 b6 be de 69 b2 be fc 56 f1 be
       -0.50055605 -0.3555974 -0.34846395 -0.47136676
0001e0 8c e1 d6 be 38 19 a2 be 2b 32 7d be d6 1c d8 be
       -0.41968954 -0.31659865 -0.24726169 -0.422095
0001f0 cb 02 f2 be e7 40 e1 be ee 1c a6 be 76 7a f1 be
       -0.47267756 -0.4399483 -0.32443947 -0.47163743
