models/eeg_loso/s_02.pt (torch, 561186 bytes, 37 tensors)

band_attn.fc1.weight f4 [8, 5]
0	0xbb971f0d	-0.004611856
1	0xbf9dfa24	-1.2341962
2	0xbdde4c66	-0.108544156
3	0xbf4486a9	-0.76767975
4	0x3ed26888	0.41095376
5	0x3cacff92	0.02111796
6	0x3e364cb9	0.17802705
7	0xbf42f53a	-0.76155436
8	0x3e68334d	0.2267582
9	0xbf198126	-0.5996269
10	0x3c89e068	0.016830638
11	0xbeae6587	-0.34061834
12	0xbe36159c	-0.17781681
13	0x3ec511dd	0.3849019
14	0x3fc44b3e	1.5335462
15	0x3c6f9d54	0.014624912
16	0xbe4d5264	-0.20050961
17	0x3fc05ca9	1.5028278
18	0xbe96b700	-0.29436493
19	0xbea81e9f	-0.32835862
20	0x3d83ca86	0.06435113
21	0xbf4cd641	-0.80014426
22	0x3f1c6170	0.6108618
23	0xbf54a765	-0.83067924
24	0xbe9bf945	-0.30463615
25	0x3da6f4d5	0.08152167
26	0xbddb0bbe	-0.10695599
27	0xbf355297	-0.7082915
28	0x3ebb5811	0.36590627
29	0x3ef3121e	0.4747476
30	0x3c7c9b7c	0.01541793
31	0x3f848edb	1.0356096
32	0x3f56b989	0.83876854
33	0xbdfa3817	-0.122177295
34	0xbf92bb4e	-1.1463411
35	0xbcce8721	-0.025210919
36	0x3cf67a4e	0.030087616
37	0xbeb6f2ef	-0.3573222
38	0x3fd27490	1.6441822
39	0xbf2ba006	-0.6704105

band_attn.fc1.bias f4 [8]
0	0x3ea96fbe	0.33093065
1	0xbe8d78ed	-0.27631322
2	0xbdf03931	-0.117296584
3	0xbe840b3b	-0.25789818
4	0x3d7f6ea7	0.062361386
5	0xbf303013	-0.68823355
6	0xbdc673e1	-0.09690071
7	0x3f533ef1	0.82517916

band_attn.fc2.weight f4 [5, 8]
0	0xbfa0e857	-1.2570904
1	0x3e61b5e7	0.22042046
2	0xc02bfa76	-2.687162
3	0xc004e072	-2.076199
4	0xbfcdfaa2	-1.6092112
5	0x3ccbaa76	0.024861556
6	0xbfe963a1	-1.8233529
7	0x3eb23667	0.3480713
8	0xbf9adb21	-1.2098123
9	0x3f2f53e7	0.684874
10	0xbefa4c62	-0.488864
11	0x3e07d684	0.13265425
12	0xbf3ab587	-0.7293324
13	0x3d9f54c2	0.07779838
14	0x3f4c37da	0.7977272
15	0x3e85ca5a	0.26130944
16	0x3eed6bfd	0.4637145
17	0xbf262a3c	-0.64908195
18	0xbe882921	-0.2659388
19	0x3f8f5c34	1.1200013
20	0x3f054966	0.5206512
21	0xbf7fb43e	-0.998844
22	0x3e3b3650	0.18282437
23	0x3f817f27	1.0116929
24	0xbf630acb	-0.88688344
25	0x3ed62bcd	0.41830292
26	0xbdc57524	-0.096414834
27	0xbf884f41	-1.0649186
28	0xbeafa9ee	-0.34309334
29	0xbf084884	-0.5323565
30	0x3f513e61	0.8173581
31	0x3f83428b	1.0254682
32	0x3f2a0d74	0.6642678
33	0x3f12a256	0.57278955
34	0x3f45308a	0.7702719
35	0xbb1ff777	-0.0024408975
36	0x3ea4f3d0	0.32217264
37	0x3f07b9ec	0.5301807
38	0xbfdcabef	-1.723997
39	0xbfdca6b2	-1.7238371

band_attn.fc2.bias f4 [5]
0	0xbf8a1850	-1.078867
1	0x3dbbbe76	0.09167187
2	0xbea9c410	-0.33157396
3	0x3f07c695	0.5303739
4	0x3e4701a1	0.19434215

feat_proj.weight f4 [128, 21]
0	0x3fa27d1a	1.2694428
1	0xc07e8255	-3.9767048
2	0xbf308408	-0.68951464
3	0x3facaeb7	1.3490819
4	0xbebaf814	-0.36517394
5	0x3cb1eeba	0.021720279
6	0x3e521b26	0.20518169
7	0x3d440266	0.04785385
8	0xbbc0f85f	-0.005888983
9	0xbca09020	-0.019599974
10	0x3eb85456	0.36001843
11	0xbf8be170	-1.0928173
12	0xbf1ae66a	-0.60507834
13	0xbef8df44	-0.48607838
14	0x3da5b020	0.08090234
15	0x3dffb6fa	0.12486072
16	0x3d9b1523	0.07572391
17	0x3c1723bc	0.009224828
18	0xbcd3d0a4	-0.025856324
19	0x3d837a34	0.06419793
20	0x3e361745	0.17782314
21	0x3e479b9c	0.19492954
22	0x40220a88	2.5318928
23	0x3f37cd2c	0.7179744
24	0xbe10b70f	-0.14132331
25	0x3f7d176d	0.9886387
26	0xbf1ec64c	-0.62021327
27	0xbecd7720	-0.40129948
28	0xbbf3452c	-0.0074240174
29	0x3c6b5a8e	0.014364852
30	0xbd1ebbad	-0.0387532
31	0x3e36bd7a	0.17845717
32	0xbf8aae9d	-1.0834538
33	0x3f0438e4	0.5164931
34	0x3f16b90b	0.58876103
35	0x3da2cc79	0.07949156
36	0x3fe82a71	1.8137952
37	0x3c8dd40b	0.017313024
38	0x3d8275be	0.06370114
39	0xbda3004a	-0.079590395
40	0x3d49c94c	0.049264237
41	0xbf47548f	-0.778634
42	0x3fc1ebda	1.5150101
43	0x3ff38acf	1.9026736
44	0xbf1c0aef	-0.60954183
45	0xbfe76564	-1.8077817
46	0x3ea0aebc	0.31383312
47	0x3ffa9071	1.957533
48	0x3f760f29	0.9611688
49	0x3d450818	0.048103422
50	0xbd52266c	-0.051306173
51	0xbc76c9a6	-0.015062725
52	0x3df056f9	0.11735339
53	0x3ed3f272	0.4139591
54	0xbf0f86ac	-0.5606487
55	0xbf34a366	-0.70561826
56	0x3f6b6a9f	0.91959566
57	0xbf2f041c	-0.68365645
58	0xbdacbbf5	-0.084342875
59	0xbcfb0daf	-0.030646173
60	0xbd0e9a55	-0.03481515
61	0x3cdc832c	0.026918016
62	0xbf933906	-1.1501777
63	0x3f82ba43	1.0213093
64	0x3f127559	0.5721031
65	0x3f2937e6	0.6610092
66	0x3ec51660	0.38493633
67	0xbe11434c	-0.14185828
68	0x3e3fc3fa	0.18727103
69	0x3e0f8089	0.14013876
70	0xbee3b52b	-0.44474158
71	0xbd001fe4	-0.031280413
72	0x3c5b714d	0.013393712
73	0x3db8e758	0.090285
74	0x3fcc127d	1.5943142
75	0x3fbfc02a	1.4980519
76	0x3f656a33	0.8961517
77	0x3f09cb11	0.5382548
78	0x3f631956	0.88710535
79	0xbda773bf	-0.08176374
80	0x3dc8314e	0.09775029
81	0x3cb3a136	0.021927457
82	0xbd70432d	-0.058657814
83	0xbfdb7c1c	-1.714725
84	0xbe40a079	-0.18811215
85	0xbfdbb629	-1.7164966
86	0xbff5355b	-1.9156908
87	0xbf82d319	-1.0220672
88	0xbf885d89	-1.0653545
89	0xbe15c2de	-0.14625117
90	0xbe2eefaf	-0.1708362
91	0x3c123eff	0.008926152
92	0x3c4081cb	0.011749695
93	0x3c0de4f9	0.008660548
94	0x3e9f3e9f	0.31102464
95	0xbedab5e1	-0.42716888
96	0xbf4490cb	-0.76783437
97	0x3f4d4fe3	0.8020002
98	0x3ffc3e7d	1.970657
99	0x3fb64c47	1.4242028
100	0x3d151ef4	0.036406472
101	0xbc924b7a	-0.017858256
102	0xbc2ef411	-0.010678307
103	0xbc9d8782	-0.019229654
104	0x3fd1221a	1.6338532
105	0xbf5253b0	-0.82158947
106	0x40238685	2.5550854
107	0xbe9fa450	-0.31180048
108	0xbfa5a5d5	-1.2941233
109	0xbe2ee666	-0.17080078
110	0xbd2bc3cf	-0.041934785
111	0xbdae1d37	-0.08501666
112	0xbd6bb430	-0.057544887
113	0xbc96aad8	-0.018392012
114	0xbc457cde	-0.012053696
115	0x3db3f646	0.08787207
116	0x3f9428be	1.1574934
117	0x3f83c1a6	1.0293472
118	0xbc8a0aba	-0.016850818
119	0xbfe6710a	-1.8003247
120	0x3e757ffc	0.23974603
121	0x3d079a4a	0.033106126
122	0xbc1a352b	-0.00941209
123	0xbd56529e	-0.052324884
124	0xbce438f7	-0.027859194
125	0x3ebf8927	0.37409326
126	0x3ea4ae8f	0.32164428
127	0xbf911e09	-1.1337291
128	0xbff39777	-1.9030598
129	0xbf94e80c	-1.1633315
130	0xc01ddec5	-2.4667218
131	0x3d554bfe	0.052074425
132	0x3d71998d	0.058984328
133	0xbe9adac1	-0.3024502
134	0xb9bd96c7	-0.00036161227
135	0xbc04aaf7	-0.008097402
136	0xbd5123d8	-0.051059574
137	0x3f4b9e56	0.79538476
138	0x3f4c38db	0.79774255
139	0xbec3a2d0	-0.38210154
140	0xbfc8886f	-1.5666636
141	0xbf7c39f9	-0.9852596
142	0xbca5a6aa	-0.020221073
143	0xbd8f24bd	-0.06989429
144	0xbd60c941	-0.05487943
145	0x3d0c61b4	0.034272864
146	0x3fc72fd1	1.5561467
147	0x3f232c19	0.6373916
148	0xc026860b	-2.6019313
149	0xbeeaad93	-0.45835552
150	0x4028392c	2.6284895
151	0xbeae42b6	-0.3403527
152	0x3d739816	0.059471212
153	0xbf190f2e	-0.5978879
154	0xbe23df2c	-0.16003102
155	0xbd5f6bf8	-0.054546326
156	0x3cd3805f	0.025818048
157	0x3ec3d3ea	0.38247615
158	0x3eff7886	0.4989664
159	0x3e4ddd54	0.20103961
160	0x3eab1327	0.3341305
161	0xbf820c0a	-1.0159924
162	0x3eb53657	0.3539302
163	0xba2d4628	-0.00066098804
164	0xbd11e1cf	-0.03561574
165	0xbc95fd96	-0.018309396
166	0x3ce39303	0.027780062
167	0x3da929a9	0.08259899
168	0xbdcf80ca	-0.101319864
169	0x401e26e7	2.4711244
170	0x3eefde08	0.46849084
171	0xbf4c06af	-0.796977
172	0xbe46776a	-0.1938149
173	0x3f091479	0.53546864
174	0xbce97b5e	-0.028501209
175	0xbf03b249	-0.51443917
176	0x3d6590c8	0.056046277
177	0xbba265ef	-0.004955999
178	0xbed2b7e3	-0.4115592
179	0x3f402d18	0.7506881
180	0x3fa382c3	1.277428
181	0xbefd84a7	-0.49515268
182	0xbfe56ddb	-1.792415
183	0xbf8687e8	-1.0510225
184	0xbcb7a2fb	-0.022416582
185	0xbc1f728b	-0.009731899
186	0xbd805f57	-0.06268185
187	0x3c9756f1	0.018474074
188	0xbe942bfa	-0.289398
189	0x3cf4c90f	0.029881028
190	0xbfb1db54	-1.3895059
191	0x3f7c0976	0.98451936
192	0x401612d1	2.3448985
193	0x4019aa00	2.401001
194	0xbe5168dc	-0.20450157
195	0xbe04845b	-0.12941115
196	0xbdfcee78	-0.12350172
197	0xbc7e77be	-0.015531478
198	0xbb995357	-0.0046791243
199	0x3d9c16d5	0.07621542
200	0xbdb8db71	-0.0902623
201	0xbebcefe3	-0.3690177
202	0x3eb59937	0.35468456
203	0x3f3c41dc	0.73537993
204	0x3dbe9974	0.093066126
205	0xbd1905fd	-0.037359226
206	0xbd4b9b49	-0.04970864
207	0x3ccb24ff	0.024797915
208	0xba8674b7	-0.0010258172
209	0xbf5ac74a	-0.8546034
210	0x3f85d429	1.0455371
211	0xbfade04c	-1.3584075
212	0xbf5ffa1c	-0.8749101
213	0x3f0e737f	0.55644983
214	0xbfa8a8e1	-1.3176538
215	0x3eec1494	0.4610945
216	0x3ec3c3af	0.38235232
217	0x3eb9474d	0.3618721
218	0x3c293b7d	0.0103291245
219	0x3bdc089f	0.006714895
220	0x3e47d561	0.19514991
221	0x3e163f5c	0.14672607
222	0x3f0d6658	0.5523429
223	0x3f57aae8	0.8424516
224	0x3f7910cb	0.9729125
225	0x3eac3406	0.3363344
226	0xbb9e78d6	-0.004836182
227	0x3d7714f1	0.060322706
228	0x3d1659ae	0.03670662
229	0x3c7fe7b8	0.015619211
230	0x3edea4b1	0.43485025
231	0xbe34ba77	-0.17649256
232	0x40140f6f	2.313442
233	0x3f2e8b8b	0.68181676
234	0xbf8a551d	-1.0807225
235	0x3eb1d7c3	0.34734926
236	0x3eae6286	0.34059542
237	0x3ee16f26	0.44030112
238	0xbf4fe031	-0.81201464
239	0x3d58e945	0.05295684
240	0xbc8a595a	-0.01688831
241	0xbe79060b	-0.24318711
242	0x3fba8bae	1.4573877
243	0x3f867503	1.0504459
244	0x3e94c906	0.2905962
245	0xbf8be8f3	-1.0930465
246	0xbec8fae3	-0.3925391
247	0xbc05142c	-0.008122485
248	0x3dbe4b80	0.09291744
249	0xbc8e5952	-0.017376576
250	0xbd657631	-0.05602092
251	0xbf65b700	-0.8973236
252	0xbe6b7d34	-0.2299698
253	0xbf98e75e	-1.1945608
254	0x3f724e54	0.9465077
255	0x3fb70c6d	1.4300667

feat_proj.bias f4 [128]
0	0xbf630e92	-0.8869411
1	0xbf345d20	-0.704546
2	0xbe36aec9	-0.17840113
3	0xbfa0334f	-1.2515658
4	0x3e88d89f	0.2672777
5	0x3f5433d5	0.8289159
6	0xbdad76d6	-0.08469932
7	0xbf68ec14	-0.90985227
8	0x3ebedca9	0.37277725
9	0x3ee225da	0.44169503
10	0xbf8250db	-1.0180925
11	0x3f14d020	0.58130074
12	0x3f4cebec	0.8004749
13	0xbfce90a2	-1.6137888
14	0x3e7fc0e1	0.24975921
15	0x3f67daa7	0.9056801
16	0xbecd4dd5	-0.40098444
17	0xbe9c4510	-0.3052144
18	0xbec62497	-0.3869979
19	0x3fa251c9	1.2681209
20	0x3f6b80bb	0.919933
21	0x3f2692c2	0.65067685
22	0xbf3750d6	-0.7160772
23	0x3da0b089	0.078461714
24	0xbe26ef0c	-0.16302127
25	0xbe24ca25	-0.16092737
26	0xbf275c3a	-0.653751
27	0xbe219a27	-0.1578146
28	0x3d6e788f	0.058220442
29	0xbf26ecd3	-0.65205115
30	0xbfa2a543	-1.2706684
31	0xbec00090	-0.3750043
32	0xbe1ee781	-0.15517999
33	0xbf08a372	-0.533744
34	0x3d6577e8	0.056022555
35	0xbfa135a0	-1.259449
36	0x3f13459c	0.5752809
37	0xbf882b53	-1.0638222
38	0xbca288d1	-0.01984063
39	0x3db2ffa0	0.08740163
40	0x3f2e05b0	0.6797743
41	0x3f58fbcb	0.84759206
42	0xbf8db43f	-1.1070632
43	0x3da50e1a	0.0805933
44	0xbd577e5c	-0.05261074
45	0xbd95e9ec	-0.07320008
46	0x3f774f5b	0.9660546
47	0xbeb041fc	-0.34425342
48	0x3f10648c	0.5640342
49	0xbf5fded4	-0.87449384
50	0x3fa4ec06	1.2884529
51	0x3ee9355a	0.45548517
52	0x3fc95759	1.5729781
53	0x3df796a0	0.12089276
54	0x3ecbbb27	0.39791223
55	0xbf012e74	-0.50461507
56	0x3eb584a0	0.35452747
57	0xbe8d6c31	-0.27621606
58	0x3f7b5fd6	0.9819311
59	0x3f1e5478	0.6184764
60	0xbf59719e	-0.8493899
61	0x3e94c0d0	0.29053354
62	0x3ebd9e18	0.37034678
63	0x3f100ba1	0.56267744
64	0x3fe7f699	1.8122131
65	0xbf106d13	-0.56416434
66	0x3fa6951b	1.3014253
67	0xbf1a857d	-0.60359937
68	0xbf03402e	-0.51269805
69	0x3d647854	0.055778816
70	0x3ea2b085	0.317753
71	0x3f64c6ef	0.8936605
72	0xbe758ce3	-0.23979525
73	0xbf14afdd	-0.58080846
74	0xbeb7238a	-0.35769302
75	0xbda0f88b	-0.07859906
76	0x3f761f3d	0.96141416
77	0x3f4f087f	0.8087234
78	0x3d727e9a	0.059202768
79	0xbf89f13d	-1.0776745
80	0xbeb2ea7e	-0.34944528
81	0xbee649a1	-0.4497805
82	0x3f6c0cae	0.9220685
83	0xbe21ce5f	-0.1580138
84	0x3ed52525	0.41629902
85	0xbe4e24dd	-0.2013125
86	0x3e8e68f6	0.27814454
87	0xbe936bec	-0.28793275
88	0x3ef2e05b	0.47436795
89	0x3f5ffb6c	0.87493014
90	0x3e674963	0.22586589
91	0xbf816e9b	-1.0111879
92	0x3e88f8b4	0.26752245
93	0xbf594504	-0.84870934
94	0x3ea1193c	0.31464565
95	0x3e8b8b6d	0.2725481
96	0xbe3544b7	-0.17701994
97	0x3e88a26d	0.2668642
98	0xbddbc1c1	-0.10730315
99	0x3ddd4bab	0.10805448
100	0xbf33a2bd	-0.70170194
101	0xbf3b88cd	-0.73255616
102	0x3f364d17	0.7121138
103	0xbf906338	-1.1280279
104	0xbf5ce03d	-0.8627966
105	0x3e2923cf	0.16517566
106	0xbefa9ca0	-0.4894762
107	0x3ea901a2	0.33009058
108	0x3f86adba	1.0521767
109	0xbeca5550	-0.39518213
110	0x3f0467f6	0.5172113
111	0x3eec1abf	0.46114156
112	0xbf19f1a5	-0.60134345
113	0x3f1d139d	0.6135805
114	0xbec1022f	-0.37696978
115	0x3d587df2	0.052854486
116	0xbedc9b1d	-0.43087092
117	0x3d77a3c9	0.060458932
118	0xbf369224	-0.7131674
119	0xbf5f3008	-0.87182665
120	0xbf63eb21	-0.89030653
121	0x3ed45e10	0.41478014
122	0x3fdb7645	1.7145468
123	0x3f005d9a	0.50142825
124	0xbf8196c7	-1.0124139
125	0x3f10c163	0.56545085
126	0xbf1b655b	-0.6070153
127	0x3ebffa82	0.3749581

local1.conv.bias f4 [128]
0	0xbf17dcf5	-0.5932153
1	0x3f5a0f0f	0.8517923
2	0x3f6261cd	0.8843048
3	0x3e4ecfa0	0.2019639
4	0x3f8d8bdf	1.105831
5	0x3f7850d7	0.9699835
6	0xbfa9650a	-1.323396
7	0xbf134c6d	-0.5753849
8	0x3fc8731e	1.5660131
9	0xbf723803	-0.9461672
10	0x3fba842b	1.4571584
11	0xbe25d448	-0.1619426
12	0x3f407b89	0.751885
13	0x3d953309	0.07285125
14	0xbead7c53	-0.33883914
15	0xbe1d1950	-0.15341687
16	0x3f75013d	0.95705014
17	0xbf702464	-0.9380553
18	0x3f502eb8	0.8132129
19	0x3ed85316	0.4225089
20	0x3f002b12	0.5006572
21	0x3fb8bdc7	1.4432915
22	0x3e1e92da	0.15485707
23	0xbece9e09	-0.40354946
24	0xbf0a713a	-0.5407902
25	0xbf3a0141	-0.72658163
26	0xbe01de38	-0.12682426
27	0x3d548b30	0.051890552
28	0x3ce80a19	0.028325127
29	0xbf48f3a0	-0.7849674
30	0x3dc7d3e4	0.09757212
31	0x3ed5d2a3	0.41762266
32	0x3fa00a05	1.2503058
33	0xbebf2b4b	-0.37337717
34	0x3f67fba9	0.9061838
35	0x3ed37dd6	0.41306943
36	0xbf40e3fb	-0.7534787
37	0x3f440dd7	0.7658362
38	0xbe76b0d9	-0.240909
39	0x3f8b6089	1.0888835
40	0x3ff8dc74	1.9442277
41	0xbf6bce6a	-0.9211184
42	0xbe78a979	-0.24283399
43	0x3edbdd4c	0.42942274
44	0x3e90ff27	0.28319666
45	0x3f2584a7	0.64655536
46	0x3f0cb7c3	0.549679
47	0x3da29923	0.07939365
48	0xbf4bfd59	-0.7968345
49	0xbfb7eb60	-1.4368706
50	0x3f888a5f	1.0667228
51	0xbf6a3361	-0.9148465
52	0x3eb138fd	0.3461379
53	0xbf848ef8	-1.0356131
54	0x3e945531	0.28971246
55	0x3e6cb9a6	0.23117694
56	0x3e88752f	0.26651904
57	0xbf09b9a6	-0.537989
58	0xbf3d0180	-0.73830414
59	0x3f518c26	0.81854475
60	0xbf5ce7b3	-0.86291045
61	0x3cb66bfd	0.02226829
62	0xbf79c136	-0.9756044
63	0x3fa948ea	1.3225377
64	0xbf400b8f	-0.75017637
65	0xbe34960d	-0.17635365
66	0xbf004b7b	-0.50115174
67	0x3f14c847	0.581181
68	0xbeedd53c	-0.46451747
69	0x3e916dce	0.28404087
70	0xbf4f8aaf	-0.8107099
71	0xbf455c8b	-0.77094334
72	0xbf394153	-0.723653
73	0xbf85e212	-1.0459616
74	0xbf395369	-0.723929
75	0x3f66fa14	0.9022534
76	0x3eef54f1	0.46744493
77	0xbf401e05	-0.75045806
78	0x3d082ddb	0.033246856
79	0xbe9430ed	-0.28943577
80	0x3eedc10f	0.46436355
81	0xbac2197d	-0.0014808621
82	0xbe7a698c	-0.24454325
83	0x3fbf0436	1.492316
84	0xbe0cf6b2	-0.13765982
85	0x3f4b66f8	0.7945399
86	0x3f2c0153	0.6718952
87	0x3e3f12c4	0.18659502
88	0x3eb48b37	0.35262462
89	0xbed7f19c	-0.4217652
90	0x3eb9ffc8	0.36327958
91	0xbeddfd85	-0.43357483
92	0x3e6f74e9	0.23384441
93	0x3ffc057a	1.9689171
94	0x3f567e98	0.83786917
95	0xbf937058	-1.151866
96	0xbe8d85bf	-0.27641103
97	0xbf28e6db	-0.6597726
98	0xbef76a43	-0.4832326
99	0x3f13d940	0.5775337
100	0x3fcc89a7	1.5979508
101	0xbea141cd	-0.31495515
102	0x3fa4fd38	1.2889776
103	0x3ed405da	0.41410714
104	0xbf13be29	-0.57712036
105	0x3e744d42	0.23857597
106	0xbd8ddef3	-0.0692729
107	0x3f3f33b5	0.74688274
108	0xbf2352dc	-0.6379831
109	0xbb5cd1fa	-0.0033694492
110	0x3ea27ec2	0.31737334
111	0x3e3256fe	0.17415997
112	0x3eb39913	0.35077724
113	0x3fb89739	1.442115
114	0xbe7c5b74	-0.24644262
115	0xbf38d99f	-0.72207063
116	0x3f985736	1.1901615
117	0xbe03755b	-0.12837736
118	0x3c8b3e40	0.016997457
119	0x3e0fbda3	0.14037184
120	0xbf4084a1	-0.75202376
121	0x3fc96a91	1.5735646
122	0x3f7561f2	0.9585258
123	0x3e468600	0.19387054
124	0xbf080f06	-0.53147924
125	0x3f272fbd	0.6530722
126	0xbf08db8b	-0.53459996
127	0xbfb4aea6	-1.4115798

local1.conv.lin.weight f4 [128, 128]
0	0x3f3b529f	0.73172945
1	0x3f833347	1.0250024
2	0xbe9b94c6	-0.30386943
3	0x3eb67e14	0.35643065
4	0xbcf5f233	-0.030022716
5	0xbf6c9070	-0.92407894
6	0xbf561f91	-0.83641917
7	0x3f427537	0.75960106
8	0xbf251891	-0.6449061
9	0x3f2aa60b	0.6665961
10	0xbe41429a	-0.18873063
11	0xbf199d8b	-0.60006016
12	0x3ea686d5	0.32524744
13	0x3e844357	0.25832626
14	0xbeebf8f3	-0.4608837
15	0xbeef3637	-0.4672105
16	0x3f25c7fa	0.64758265
17	0x3e0f71c0	0.14008236
18	0xbc388184	-0.011261348
19	0xbdd0cee0	-0.10195708
20	0xbf269683	-0.6507341
21	0x3efbc90d	0.49176827
22	0x3eb09f0a	0.34496337
23	0xbcdc2cd3	-0.026876843
24	0xbe65f54c	-0.22456855
25	0x3e4759ba	0.19467822
26	0x3f2dbdfe	0.6786803
27	0x3e835d3a	0.25657064
28	0x3e9c93c9	0.305815
29	0xbd595df7	-0.053068127
30	0xbd32f4d2	-0.04369051
31	0xbf2817b0	-0.65661144
32	0x3d77c655	0.06049188
33	0x3e8b21eb	0.27174315
34	0x3f50ba6b	0.8153445
35	0x3e07f12f	0.13275598
36	0x3b3d8f6c	0.0028924597
37	0xbd392d34	-0.045209125
38	0xbf1f88cf	-0.6231813
39	0x3ea71346	0.32631892
40	0x3ecaa854	0.3958155
41	0xbddab222	-0.106785074
42	0xbeaaec73	-0.3338352
43	0x3f29fe42	0.6640359
44	0x3ec7e779	0.39043787
45	0xbdbaffd8	-0.091308296
46	0x3e8a9d3d	0.27073088
47	0x3f7b53c3	0.98174685
48	0xbeb13b43	-0.34615526
49	0xbd8049d3	-0.06264081
50	0xbd95966a	-0.0730408
51	0x3e6be520	0.23036623
52	0xbf2c97c6	-0.6741909
53	0x3e19293b	0.14957134
54	0xbf5e612c	-0.8686702
55	0xbe9abf62	-0.30224138
56	0x3e48597a	0.19565383
57	0x3f6b6cd5	0.9196294
58	0x3dbaec83	0.09127142
59	0x3de975c2	0.11399414
60	0x3eceacb5	0.4036614
61	0x3f00121f	0.5002765
62	0x3db336f2	0.08750714
63	0x3ece0746	0.40239924
64	0xbf68f21b	-0.90994424
65	0x3f6cdc6e	0.9252385
66	0x3e859562	0.26090533
67	0xbf106294	-0.5640042
68	0xbf120f5a	-0.57054675
69	0xbf16a54a	-0.5884596
70	0xbedfe7f8	-0.43731666
71	0xbf8afc03	-1.0858158
72	0x3e3f7e7e	0.18700597
73	0xbf068ed4	-0.5256169
74	0x3d05aa41	0.03263307
75	0x3f07a093	0.5297939
76	0xbe622193	-0.2208312
77	0xbd5d7dc6	-0.054075025
78	0xbe86fc45	-0.2636434
79	0x3f30c1f7	0.69045967
80	0x3edcaba8	0.43099713
81	0x3f61ffcc	0.8828094
82	0x3eb65667	0.35612795
83	0xbf46a602	-0.7759706
84	0xbe8d9aa4	-0.27657044
85	0x3e454ad5	0.19266827
86	0x3ec0a557	0.37626144
87	0x3f83f1bb	1.0308145
88	0x3da4590b	0.08024796
89	0x3ddfe204	0.10931781
90	0x3c77e34a	0.0151298735
91	0x3f2d7d00	0.6776886
92	0x3e84939f	0.25893876
93	0x3ed9789f	0.4247484
94	0xbe59ca91	-0.21268679
95	0x3e0081e7	0.12549554
96	0xbed9cf45	-0.42540947
97	0x3f56ebb7	0.8395342
98	0xbdfda68a	-0.123852804
99	0x3f6cb549	0.9246412
100	0xbe9cd090	-0.3062787
101	0x3f7aff6d	0.98046
102	0x3ebacebf	0.3648586
103	0x3ed8d1b5	0.42347494
104	0x3e95b77a	0.29241544
105	0xbec04407	-0.375519
106	0xbe88d34d	-0.2672371
107	0xbf1269b9	-0.5719257
108	0xbcbd8d14	-0.02313856
109	0x3f0700b9	0.5273548
110	0xbf05c5b8	-0.5225482
111	0x3e9380db	0.28809246
112	0x3f31a054	0.69385266
113	0x3ee26e87	0.4422495
114	0x3ed3b504	0.4134904
115	0x3e869906	0.26288623
116	0x3f1a6908	0.60316515
117	0xbf58be37	-0.84665245
118	0x3f2569ce	0.6461457
119	0xbed248da	-0.41071206
120	0x3e3d7486	0.18501481
121	0xbf24c075	-0.64356166
122	0xbf5cbc14	-0.86224484
123	0xbd2f6a2a	-0.042825855
124	0x3e4c13a3	0.19929366
125	0x3e9cd2e1	0.30629638
126	0x3e0511cb	0.12995069
127	0xbd0c40cc	-0.034241483
128	0x3ef1af2a	0.47203952
129	0xbf5d8698	-0.865335
130	0xbf67989f	-0.90467256
131	0xbf8cfc7a	-1.101455
132	0xbf34364e	-0.7039536
133	0x3f722540	0.9458809
134	0x3fafd71f	1.3737525
135	0xbe13bb43	-0.14426903
136	0x3f8693f3	1.05139
137	0xbf165bfc	-0.58734107
138	0xbf9b7d90	-1.2147694
139	0x3ea97397	0.33096
140	0xbee6acb2	-0.4505363
141	0xbe785802	-0.24252322
142	0xbf4d13fe	-0.8010863
143	0x3f99739f	1.198841
144	0xbd958feb	-0.07302841
145	0x3f2f9e40	0.68600845
146	0x3fb3c630	1.4044857
147	0x3fac18ff	1.3445128
148	0xbf501cff	-0.81294245
149	0xbf36343f	-0.7117347
150	0x3fdd3103	1.7280582
151	0x3fe5c129	1.7949573
152	0x3e22c34a	0.1589481
153	0x3f8753a6	1.0572402
154	0x3f279c75	0.6547311
155	0xbfedd871	-1.8581678
156	0xbfaf706c	-1.3706183
157	0x3f234325	0.6377433
158	0xbf2298f6	-0.6351465
159	0xbebb492f	-0.36579272
160	0x3fa152f9	1.2603446
161	0x3f06a9f2	0.52603066
162	0x3e8c4e67	0.27403566
163	0xbfd1920f	-1.6372699
164	0x3eaf4e20	0.34239292
165	0xbf6d5b54	-0.9271748
166	0x3f26654e	0.6499833
167	0xbf85acdf	-1.0443381
168	0xbefd71b2	-0.49500805
169	0x3f654125	0.8955253
170	0x3e9f59a6	0.31123084
171	0xbf8f841e	-1.1212194
172	0x3e946d56	0.28989667
173	0x3f2cf24c	0.67557216
174	0x3f95f61a	1.1715729
175	0x3e92e53c	0.28690517
176	0xbe4a2bea	-0.19743314
177	0xbf109f2f	-0.56492895
178	0x3f16f75e	0.589712
179	0xbf854713	-1.0412315
180	0x3fa5ef98	1.2963743
181	0x3f058f4c	0.5217178
182	0x3d90177d	0.0703573
183	0xbfb152fc	-1.385345
184	0x3f5939d6	0.84853876
185	0xbd2eef08	-0.042708427
186	0xbeb3a270	-0.35084867
187	0xbe89a627	-0.26884577
188	0x3eede2e2	0.4646216
189	0x3f619fce	0.8813447
190	0xbf5885a9	-0.8457895
191	0x3fb3dae8	1.405118
192	0x3e760056	0.24023566
193	0x3f04568d	0.51694566
194	0x3e77eafc	0.24210733
195	0xbf3b4042	-0.73144925
196	0x3f3c4b44	0.73552346
197	0x3f2267f1	0.6343985
198	0xbe10e2a0	-0.1414895
199	0x3f41ec50	0.7575121
200	0x3ef1aca1	0.47202018
201	0xbf38fe44	-0.7226298
202	0xbf90696d	-1.1282173
203	0xbfa35d7b	-1.2762903
204	0x3fa24372	1.2676833
205	0xbe58a528	-0.21156752
206	0xbfbc6462	-1.4718134
207	0x3feaea34	1.8352723
208	0xbef48207	-0.47755453
209	0xbed54f2c	-0.41661966
210	0x3f223934	0.63368535
211	0x3f966b9e	1.1751592
212	0x3e3f1d40	0.18663502
213	0x3ef53bcc	0.47897184
214	0xbfc1908f	-1.5122241
215	0xbe89d94e	-0.26923603
216	0xbfa07eaa	-1.2538655
217	0x3f7920db	0.9731576
218	0xbfbd1ac1	-1.477379
219	0xbf915a1c	-1.1355624
220	0x3f1246f2	0.57139504
221	0x3ec6b049	0.3880637
222	0x3e52639c	0.2054581
223	0xbef959b0	-0.4870124
224	0xbeca5784	-0.39519894
225	0x3f88549b	1.065082
226	0x3f635d38	0.88814116
227	0xbf378947	-0.71693844
228	0xbf532ed2	-0.8249332
229	0x3e2ff920	0.17184877
230	0xbe914805	-0.2837526
231	0x3f98e5f7	1.194518
232	0x3ec9ff45	0.39452568
233	0xbf3105d6	-0.6914953
234	0xbe36401a	-0.1779789
235	0x3f59e992	0.85122025
236	0x3fb685e4	1.425961
237	0xbfb1ac00	-1.3880615
238	0xbf8f622b	-1.1201833
239	0xbeb236d4	-0.34807456
240	0xbfb50482	-1.4142001
241	0x3f3a1a8d	0.72696763
242	0x3b54ca7e	0.0032469328
243	0x3efc0fc0	0.49230766
244	0x3f8721e7	1.0557221
245	0xbf97b374	-1.185164
246	0xbfb62af6	-1.4231861
247	0xbfbb12b3	-1.4615082
248	0x3f7da842	0.99084866
249	0xbfa08c47	-1.2542809
250	0xbe81bbf1	-0.253387
251	0x3f735cfc	0.9506376
252	0xbfc1268c	-1.5089889
253	0x3f74677b	0.954704
254	0xbfd8a303	-1.6924747
255	0xbfa22442	-1.2667315

local1.norm.weight f4 [128]
0	0x3faf59b9	1.3699256
1	0x3eb6b56d	0.35685292
2	0x3f737fec	0.9511707
3	0x3f9cd49c	1.2252383
4	0x3f71aa01	0.9440003
5	0x3f1a411c	0.602556
6	0x3fe6b3c3	1.8023609
7	0x3f246763	0.64220256
8	0x3f836a7a	1.0266869
9	0x3f45484e	0.77063453
10	0x3f7e80a6	0.9941505
11	0x3f8b4782	1.0881197
12	0x3f810335	1.0079104
13	0x3f9e7ea3	1.2382396
14	0x40131c2b	2.2985942
15	0x3f7beed3	0.9841129
16	0x3f561beb	0.8363635
17	0x3fc6e605	1.5538946
18	0x3f8141f9	1.0098258
19	0x3f7cee1d	0.9880083
20	0x3f3d2ccc	0.7389648
21	0x3f60ccda	0.8781258
22	0x3fcfcdb3	1.623465
23	0x3ff2845c	1.8946643
24	0x3f901cd6	1.12588
25	0x3f20ef1b	0.62864846
26	0x3fbc238d	1.4698349
27	0x3f8c4527	1.0958604
28	0x3f95e088	1.1709146
29	0x3fb03c63	1.3768429
30	0x3f2d4c98	0.67695
31	0x3f9b3e52	1.2128394
32	0x3f7bafa1	0.98314863
33	0x3f9eef2d	1.2416741
34	0x3f747a19	0.95498806
35	0x3fa0a681	1.2550813
36	0x3efbdb19	0.49190596
37	0x3fa2abf2	1.2708724
38	0x3fe303fc	1.7735591
39	0x3f76787c	0.96277595
40	0x3f825f7f	1.0185393
41	0x3fa0a3fa	1.2550042
42	0x3f86cf80	1.0532074
43	0x3f19f2c8	0.6013608
44	0x3f5d18b6	0.8636583
45	0x3f79dc57	0.97601837
46	0x3fa624d6	1.2979991
47	0x3f0516d6	0.5198797
48	0x3f1b1d60	0.605917
49	0x3fbf2b40	1.4935074
50	0x3fa15fe3	1.2607387
51	0x3f4e6364	0.8062041
52	0x3f9e0e44	1.2348104
53	0x3f402794	0.7506039
54	0x3ee63f50	0.4497018
55	0x3f9b88ac	1.2151084
56	0x3f839a93	1.0281547
57	0x3f8bc377	1.0919026
58	0x3f29b1dd	0.6628702
59	0x3fa16ca3	1.2611278
60	0x3fe0c142	1.7558978
61	0x3f4c7ff8	0.79882765
62	0x3fd65c26	1.6746871
63	0x3f2ea3a9	0.68218476
64	0x3f515ecc	0.81785274
65	0x3f883efa	1.0644219
66	0x3f9af58c	1.2106185
67	0x3f6c14b5	0.92219096
68	0x3fc096ea	1.5046055
69	0x3f61228e	0.8794335
70	0x4000b79a	2.0112062
71	0x3fcf171a	1.6178925
72	0x3f9f0845	1.2424399
73	0x3f64a69d	0.8931673
74	0x3fdcaaf8	1.7239676
75	0x3f323916	0.69618356
76	0x3f04d737	0.5189089
77	0x3ffc0dd9	1.9691726
78	0x3f01a818	0.50647116
79	0x3f74d79c	0.95641494
80	0x3f90058a	1.125169
81	0x3f5750c5	0.8410762
82	0x3f5d7b4c	0.8651626
83	0x3f7a3ce4	0.9774916
84	0x3fcf3569	1.6188174
85	0x3ed438f7	0.4144971
86	0x3f3a0052	0.7265674
87	0x3f290221	0.66018873
88	0x3f6ae628	0.9175744
89	0x3f81f78f	1.0153674
90	0x3f5834f9	0.8445583
91	0x3f32350b	0.6961219
92	0x3f4780ee	0.77931106
93	0x3f7fc4cb	0.9990966
94	0x3f889bae	1.067251
95	0x3fc2c6cc	1.5216918
96	0x3f013212	0.50467026
97	0x3faedab7	1.3660496
98	0x3f1b50ad	0.60669976
99	0x3f8fdd1e	1.1239355
100	0x3f7fbe21	0.9989949
101	0x3f994a04	1.1975713
102	0x3f6a6b3d	0.9156988
103	0x3fa68e2e	1.301214
104	0x3fb741c2	1.4316943
105	0x3ff6df8b	1.928697
106	0x3f968fa8	1.176259
107	0x3f6a6680	0.9156265
108	0x3f9b866f	1.2150401
109	0x3fa2f8a9	1.2732135
110	0x3f5fbdb9	0.8739887
111	0x3f116c8d	0.5680626
112	0x3ec830cb	0.39099726
113	0x3f22ec2b	0.63641614
114	0x3fb8dd9b	1.4442629
115	0x3fcd39bb	1.6033243
116	0x3f84c5e8	1.0372896
117	0x3f83e799	1.0305053
118	0x3f8b2eb1	1.0873624
119	0x3f83f9ba	1.0310585
120	0x3f863d88	1.0487528
121	0x3f89ecd0	1.0775394
122	0x3f9011ed	1.125547
123	0x3ee9710f	0.4559407
124	0x3f3b88f1	0.7325583
125	0x3f9b010f	1.2109698
126	0x3f5bb457	0.8582205
127	0x3feb5c2f	1.8387507

local1.norm.bias f4 [128]
0	0xbf136bfd	-0.5758665
1	0xbef402bc	-0.47658336
2	0xbf704030	-0.9384794
3	0xbf595da6	-0.8490852
4	0xbf36d78a	-0.71422637
5	0xbf221816	-0.63318
6	0xbf0ced53	-0.5504963
7	0xbeaef6ad	-0.34172574
8	0xbf53bd86	-0.82711065
9	0xbea1c53a	-0.31595784
10	0xbf354069	-0.7080141
11	0xbf25227b	-0.6450574
12	0xbf5ef827	-0.870974
13	0xbf562eaa	-0.83664954
14	0xbdd7d5e6	-0.10538845
15	0xbf09f0e7	-0.5388321
16	0xbf3746fb	-0.7159268
17	0xbf0c3498	-0.5476775
18	0xbf43dfab	-0.76513165
19	0xbf241775	-0.6409829
20	0xbf119128	-0.56862116
21	0xbf50494e	-0.81361854
22	0xbf15ca8a	-0.58512175
23	0x3ca36b1d	0.019948537
24	0xbf05f076	-0.5232004
25	0xbf2e76b9	-0.68149906
26	0xbf744b77	-0.9542765
27	0xbf0e1240	-0.554966
28	0xbf2328a8	-0.6373391
29	0xbf049d9b	-0.51802987
30	0xbeb20033	-0.34765777
31	0xbf2ba1b3	-0.6704361
32	0xbf27a591	-0.6548701
33	0xbf584998	-0.84487295
34	0xbf7a3818	-0.9774184
35	0xbef288fa	-0.4737013
36	0xbf4c4fdb	-0.7980935
37	0xbf274da1	-0.6535283
38	0xbdb66799	-0.089064784
39	0xbf555924	-0.8333914
40	0xbf534886	-0.82532537
41	0xbf02790d	-0.5096596
42	0xbf346317	-0.704637
43	0xbeea5882	-0.4577065
44	0xbf2a4864	-0.6651671
45	0xbf21def9	-0.63230854
46	0xbf13c981	-0.57729346
47	0xbf24acfa	-0.6432644
48	0xbef648a0	-0.48102283
49	0xbeadb28e	-0.3392529
50	0xbf69e6f2	-0.9136802
51	0xbf085a40	-0.5326271
52	0xbf152601	-0.58261114
53	0xbf49b06c	-0.78784823
54	0xbf159a73	-0.58438796
55	0xbf0164b5	-0.5054429
56	0xbf046b15	-0.51725894
57	0xbef0d5c9	-0.47038105
58	0xbedb7b50	-0.42867517
59	0xbee0718a	-0.43836623
60	0xbeff914b	-0.49915537
61	0xbf528619	-0.82235867
62	0xbeb1817c	-0.346691
63	0xbf305c6a	-0.6889101
64	0xbf152d34	-0.582721
65	0xbf425cce	-0.7592286
66	0xbd718f2e	-0.058974437
67	0xbf457cd7	-0.77143615
68	0xbefa239c	-0.48855293
69	0xbf1cb24b	-0.61209553
70	0xbeb99de1	-0.36253265
71	0xbf0400ff	-0.5156402
72	0xbed7b066	-0.4212677
73	0xbef1015e	-0.47071356
74	0xbe8c9ff2	-0.2746578
75	0xbf108575	-0.5645364
76	0xbf1601e0	-0.5859661
77	0xbe5f1a19	-0.21787299
78	0xbf149400	-0.5803833
79	0xbf456c2b	-0.77118176
80	0xbf19fd5d	-0.60152227
81	0xbf40ee04	-0.75363183
82	0xbf366b54	-0.7125752
83	0xbf456038	-0.77099943
84	0xbd9e91b6	-0.07742636
85	0xbefa12e3	-0.48842534
86	0xbf48674a	-0.78282607
87	0xbf05d6cc	-0.5228088
88	0xbf4547ed	-0.77062875
89	0xbef8e086	-0.48608798
90	0xbf2f7ee8	-0.6855302
91	0xbf0c227b	-0.54740113
92	0xbef731ae	-0.4828009
93	0xbf3ea8fe	-0.7447661
94	0xbf56ed44	-0.8395579
95	0xbe7b8f2b	-0.24566333
96	0xbf220919	-0.6329513
97	0xbf0d2449	-0.5513349
98	0xbef3cdb1	-0.47617868
99	0xbf61c353	-0.88188666
100	0xbf638957	-0.8888144
101	0xbf33d54d	-0.70247346
102	0xbf2316e2	-0.6370679
103	0xbeb0e96d	-0.3455309
104	0xbf340071	-0.70313174
105	0xbee1915c	-0.44056213
106	0xbef306b8	-0.47466063
107	0xbf2d12b9	-0.67606694
108	0x3c8f7eeb	0.017516574
109	0xbee30648	-0.4434073
110	0xbf1ec00a	-0.6201178
111	0xbf02c330	-0.5107908
112	0xbf1078e1	-0.56434447
113	0xbf14f890	-0.58191776
114	0xbf11596e	-0.56777084
115	0xbe62c8d0	-0.22146916
116	0xbf325280	-0.69657135
117	0xbf3f7f13	-0.74803275
118	0xbf0339bb	-0.51259965
119	0xbf2e1fb0	-0.680171
120	0xbec60337	-0.38674328
121	0xbf38b74b	-0.7215468
122	0xbf5b1de3	-0.8559248
123	0xbf18b364	-0.5964873
124	0xbf076650	-0.5289049
125	0xbed38134	-0.41309512
126	0xbed95cbb	-0.4245356
127	0xbf01e17a	-0.50734675

local2.conv.bias f4 [128]
0	0x3dddc507	0.108285956
1	0x3f0d2e2b	0.5514857
2	0x3ecb70ab	0.39734396
3	0x3da5602f	0.08074986
4	0x3e830774	0.25591624
5	0x3ee561b7	0.44801113
6	0x3e86b9d2	0.26313645
7	0x3f1cdb8b	0.61272496
8	0x3f0ca7de	0.54943645
9	0x3f84be30	1.0370541
10	0x3eb76662	0.358203
11	0x3e8f7ec8	0.28026414
12	0xbcc06542	-0.023485783
13	0x3ed6a2b3	0.41921005
14	0x3eb6a7db	0.3567494
15	0xbf5bfd80	-0.85933685
16	0x3ed80dd1	0.4219804
17	0x3e752d7b	0.2394313
18	0x3dabd99d	0.08391116
19	0x3e8fe769	0.2810624
20	0x3e93d927	0.28876612
21	0x3e8700b6	0.2636773
22	0x3d164d15	0.036694605
23	0x3d3a6eba	0.045515753
24	0x3e946a6c	0.28987443
25	0x3e4966e6	0.19668159
26	0x3eb46694	0.3523451
27	0x3ec9c33a	0.3940676
28	0x3e53fcb6	0.2070187
29	0x3ee16faa	0.44030505
30	0x3e8c73d6	0.27432126
31	0xbe085a92	-0.133158
32	0x3eda03f2	0.42581135
33	0x3e939c94	0.28830397
34	0x3f0a85b2	0.5411025
35	0x3ebcae73	0.36851844
36	0x3f2d3fd7	0.67675537
37	0x3e09087f	0.13382147
38	0x3e8f7151	0.2801614
39	0x3ea42c31	0.32064965
40	0x3edc96c8	0.43083787
41	0x3eccea6e	0.40022606
42	0x3f172643	0.5904276
43	0x3d9874a3	0.07444122
44	0x3e88f6a0	0.2675066
45	0x3f1f7fb7	0.6230425
46	0x3e25bc81	0.1618519
47	0x3c291ca3	0.010321769
48	0x3d2b7f8f	0.041869696
49	0x3ecdb5f2	0.40177876
50	0x3f0878ea	0.533095
51	0x3dcdf123	0.10055759
52	0x3e882fc1	0.26598933
53	0x3cbbe9ed	0.022938693
54	0x3f0b248f	0.5435266
55	0x3ea7226b	0.32643446
56	0x3ea7eaaa	0.32796222
57	0xbe576d62	-0.2103782
58	0x3d1a0a01	0.037607197
59	0x3ea77c8a	0.32712203
60	0x3ea2cddf	0.31797692
61	0xbde69e5d	-0.11260674
62	0x3f1452a1	0.5793858
63	0x3e3bef0d	0.1835291
64	0x3f2328d4	0.63734174
65	0xbe1c9f7c	-0.15295213
66	0x3fbd88fd	1.480743
67	0x3eb51cb3	0.35373458
68	0xbd2aeed2	-0.041731663
69	0x3e5e2c24	0.21696526
70	0x3e07e6cc	0.13271636
71	0x3f2aa333	0.6665527
72	0x3edc07a0	0.42974567
73	0x3ec5cbfd	0.38632193
74	0x3e990808	0.2988894
75	0x3e9ee63a	0.31035024
76	0xbd86381c	-0.06553671
77	0x3ee61f11	0.44945577
78	0xbf97a04f	-1.1845797
79	0x3f3459d7	0.70449585
80	0x3f1e2ad0	0.61784077
81	0x3f31104b	0.69165486
82	0x3ea3a9ff	0.31965634
83	0x3ea4ab83	0.32162103
84	0x3eb596f0	0.3546672
85	0x3ebd8a28	0.37019467
86	0x3f01643b	0.50543565
87	0x3ec2e11e	0.38062376
88	0x3edd1c3a	0.43185598
89	0x3e8bb0e1	0.27283385
90	0xbe43a388	-0.19105351
91	0x3ed68a3a	0.41902333
92	0x3ee254f7	0.44205448
93	0x3e8fc4f3	0.28079948
94	0x3e8b234d	0.2717537
95	0x3ebd2944	0.36945546
96	0x3f0bb3fa	0.545715
97	0xbf9a1cfc	-1.2040095
98	0xbecbf893	-0.39838085
99	0x3eca1bf3	0.3947445
100	0x3e60e12e	0.21960899
101	0x3ead882b	0.3389295
102	0x3e92a0cd	0.28638306
103	0x3ef72321	0.4826899
104	0x3f273c4b	0.65326375
105	0x3ee1eada	0.4412449
106	0x3d2ef75c	0.04271637
107	0x3ee732db	0.45155987
108	0xbe102170	-0.14075255
109	0xbd987df6	-0.074459
110	0x3e8de43c	0.27713192
111	0x3ec3127d	0.38100043
112	0x3c0f2c52	0.008738594
113	0x394bcc1d	0.00019435627
114	0x3e952987	0.29133245
115	0x3f075db8	0.5287738
116	0x3cf07661	0.029353322
117	0x3ebe388e	0.37152523
118	0x3e13b0c0	0.14422894
119	0x3f0aac7e	0.5416945
120	0x3f1b3ed7	0.6064276
121	0x3da1d40f	0.07901775
122	0x3e945293	0.2896925
123	0x3e560247	0.20899306
124	0x3e82d876	0.25555772
125	0xbd0efa0a	-0.034906425
126	0x3e9a0b18	0.3008659
127	0x3f0a1e3f	0.539524

local2.conv.lin.weight f4 [128, 128]
0	0x3de47eab	0.111569725
1	0x3ea5a526	0.3235256
2	0x3f2a5c97	0.6654753
3	0x3e6e130b	0.23249452
4	0xbdac596d	-0.08415494
5	0x3f22777d	0.63463575
6	0x3f153815	0.582887
7	0xbe1c4e26	-0.15264186
8	0x3f20cbc1	0.62810904
9	0xbea30bba	-0.31844884
10	0xbcf0f397	-0.029413028
11	0xbf3990be	-0.72486484
12	0x3eb59eb1	0.35472634
13	0x3e61bd6b	0.22044913
14	0x3e33c8a3	0.17557006
15	0x3e23b04b	0.15985219
16	0x3e8ed3ed	0.27896062
17	0xbfc7d64e	-1.5612276
18	0x3ebbef2c	0.3670591
19	0x3ea6dee2	0.3259192
20	0x3e8c3f4f	0.2739205
21	0x3ef42ee9	0.4769204
22	0x3e9f9505	0.3116838
23	0xbf045b33	-0.5170166
24	0x3d84a84d	0.06477413
25	0xbfd60233	-1.6719421
26	0x3f309b3c	0.6898687
27	0x3e592954	0.21207172
28	0x3dd17e88	0.10229212
29	0xbf05cc75	-0.522651
30	0x3f05417b	0.5205304
31	0x3c1c2b3c	0.009531792
32	0x3f475c7c	0.77875495
33	0x3eae7a3f	0.3407764
34	0x3ee3035f	0.4433851
35	0x3eaa1a67	0.33223268
36	0xbfda86d4	-1.7072396
37	0x3ef7f19f	0.4842653
38	0xbf7f9e64	-0.9985106
39	0x3ef307a8	0.4746678
40	0x3eb12018	0.34594798
41	0x3f240108	0.64064074
42	0xbe67f3b8	-0.22651565
43	0x3ec598ba	0.38593084
44	0x3f6265e3	0.88436717
45	0x3f1815b9	0.59408146
46	0x3f0c9060	0.549078
47	0xbf89ae38	-1.0756292
48	0xbe323e76	-0.1740664
49	0xc00b298f	-2.1744115
50	0x3f24b214	0.64334226
51	0xbe3cc6c5	-0.184352
52	0x3f0ba6d8	0.5455146
53	0xbfc9ca70	-1.5764904
54	0xbf380bab	-0.71892804
55	0x3e7cd678	0.24691188
56	0x3ecd3444	0.40078938
57	0xbea2179f	-0.31658646
58	0x3dc7a0c5	0.09747461
59	0xbed9aa7b	-0.4251288
60	0xbe84f7f8	-0.25970435
61	0x3ede8b6e	0.4346575
62	0xbeeffd37	-0.46872875
63	0x3f2d0bcd	0.6759613
64	0xbe474a6d	-0.19461985
65	0x3d94f224	0.07272747
66	0x3ea3841a	0.31936723
67	0x3e8d8395	0.27639452
68	0xbf3b573f	-0.7318
69	0x3e7eff68	0.24902117
70	0xbf8654be	-1.0494611
71	0xbeb0619d	-0.34449473
72	0xbf922bfc	-1.1419673
73	0xbf093020	-0.5358906
74	0xbf1d2294	-0.6138089
75	0x3e41b70b	0.18917482
76	0x3ee44c7d	0.44589606
77	0x3f9ae5d3	1.2101387
78	0xbf9530b8	-1.1655493
79	0x3d0c1bb1	0.034206096
80	0x3e248aec	0.1606862
81	0xbe4a7397	-0.19770657
82	0x3ef79ba6	0.48360938
83	0x3e8c4ca0	0.2740221
84	0xbf70aed8	-0.9401679
85	0xbed48150	-0.41504908
86	0x3f144384	0.5791552
87	0xbd2bbc4f	-0.041927632
88	0x3e69cc6f	0.22831891
89	0xbeb5478b	-0.35406145
90	0x3ec10e90	0.37706423
91	0xbf58e3a1	-0.84722334
92	0x3f4100fe	0.7539214
93	0x3eec966b	0.4620851
94	0x3ef6fb30	0.48238516
95	0xbfe74d81	-1.8070527
96	0xbf1fab18	-0.62370443
97	0x3d9f4f2c	0.07778773
98	0xbf0223c0	-0.508358
99	0x3e7166db	0.23574392
100	0x3f1e4c48	0.61835146
101	0xbf9648bd	-1.1740948
102	0x3efd853a	0.49515706
103	0x3e02585e	0.12729022
104	0xbf4af7ee	-0.7928456
105	0xbef8194b	-0.48456797
106	0x3d569375	0.05238672
107	0x3e87b1ed	0.26502934
108	0x3e80b028	0.25134397
109	0x3e3d4587	0.18483554
110	0x3e9a3c1d	0.30123988
111	0xbd95c551	-0.07313026
112	0xbf86232b	-1.0479482
113	0x3e7fb32c	0.24970692
114	0x3ce3cb42	0.027806882
115	0x3e524114	0.20532638
116	0x3e23cd13	0.15996198
117	0xbf67e208	-0.9057927
118	0x3f1abd4b	0.6044509
119	0x3ec88db3	0.39170608
120	0x3e5c42cd	0.21509857
121	0x3e7ae8f7	0.24502932
122	0x3f166931	0.5875426
123	0xbc739b51	-0.014868573
124	0xbcc41188	-0.02393414
125	0x3e84e260	0.2595396
126	0xbf37e504	-0.71833825
127	0xc0064daf	-2.0984914
128	0xbe8b1164	-0.27161705
129	0x3f5a3018	0.85229635
130	0xbf5e8eee	-0.86936843
131	0x3eed202b	0.46313605
132	0x3f2e2beb	0.68035764
133	0x3f5aa298	0.8540435
134	0xbeca81a4	-0.39552033
135	0xbe1ea6cc	-0.15493315
136	0xbbdd7c6b	-0.0067592165
137	0xbea36db6	-0.3191964
138	0x3dee4170	0.11633575
139	0x3e26fa72	0.16306475
140	0xbefdde49	-0.49583653
141	0x3e0ee431	0.13954236
142	0x3f4ffffe	0.8124999
143	0x3ec63136	0.3870942
144	0x3f40153b	0.75032395
145	0x3b915d60	0.00443618
146	0x3f014b52	0.50505555
147	0x3f39add3	0.7253086
148	0xbd83901d	-0.06423972
149	0x3e97359f	0.29533097
150	0x3c72e32f	0.014824673
151	0x3ebe1b3b	0.3713015
152	0x3ea7c33e	0.32766145
153	0x3f618617	0.8809523
154	0xbe61ba0c	-0.22043628
155	0x3ec3452a	0.38138705
156	0x3ea5f0fb	0.32410416
157	0x3f5208e8	0.8204484
158	0xbe9916b4	-0.29900134
159	0x3ef9f7c1	0.48821834
160	0x3e1126d9	0.14174975
161	0xbc14cffb	-0.0090827895
162	0xbda3644b	-0.07978114
163	0x3f1793b8	0.59209776
164	0x3f82387c	1.0173488
165	0x3dc37b28	0.095449746
166	0x3efda310	0.4953847
167	0x3ea17cdd	0.31540576
168	0x3f537ade	0.82609355
169	0xbd6cf212	-0.057848044
170	0x3f2a23a3	0.6646063
171	0x3f42ce44	0.76095986
172	0xbf540424	-0.8281882
173	0x3f07a893	0.529916
174	0x3d88c8a8	0.06678897
175	0x3f5e2d01	0.8678742
176	0xbf03d43f	-0.51495737
177	0x3f13adf6	0.5768732
178	0x3ef89393	0.4855009
179	0xbebd1b4b	-0.36934885
180	0xbd55f39a	-0.05223427
181	0x3f7070a2	0.93921864
182	0x3f341029	0.7033716
183	0x3ef569dc	0.47932327
184	0x3efe4229	0.4965985
185	0x3f658784	0.89659905
186	0xbf201a0f	-0.6253976
187	0x3f022090	0.50830936
188	0x3f55b199	0.8347412
189	0x3f217568	0.6306977
190	0x3f30b124	0.69020295
191	0x3f359e85	0.70945007
192	0xbe45a514	-0.19301254
193	0x3f804615	1.0021387
194	0x3f30def7	0.6909022
195	0x3f0db05f	0.55347246
196	0xbe2fd299	-0.1717018
197	0xbe750cd2	-0.23930672
198	0x3f0cbfa7	0.5497994
199	0x3f5e33e6	0.8679794
200	0x3f71bc83	0.9442827
201	0xbdaa1ae8	-0.08305913
202	0x3f1a04d9	0.60163647
203	0x3d104cbe	0.035229437
204	0x3df5b414	0.11997238
205	0x3eab9031	0.33508447
206	0x3effc2f6	0.4995343
207	0x3f7a2030	0.97705364
208	0x3f100589	0.56258446
209	0x3fa47898	1.2849302
210	0x3f1501a7	0.58205646
211	0x3ef1d82b	0.47235236
212	0x3f383beb	0.7196643
213	0x3ec89d12	0.39182335
214	0x3ef21aed	0.47286168
215	0x3d06a3a7	0.032870915
216	0x3f0be6ca	0.5464903
217	0x3f77667a	0.9664074
218	0x3ef261e9	0.47340325
219	0x3f540e59	0.8283439
220	0xbd4980ed	-0.04919522
221	0x3f62b0d3	0.8855106
222	0x3f33b8fc	0.7020414
223	0x3f0a14c2	0.53937924
224	0x3f3c6a9f	0.7360019
225	0x3f450505	0.76960784
226	0xbe727bfe	-0.23680112
227	0x3f1f4171	0.6220923
228	0xbc7fbe1e	-0.015609292
229	0x3f056537	0.52107567
230	0xbeae34a1	-0.34024528
231	0x3e7c9ab3	0.24668388
232	0xbee2a70a	-0.44268066
233	0x3e7baba1	0.2457719
234	0x3f844b47	1.0335473
235	0x3e679c49	0.22618212
236	0x3f56623f	0.8374366
237	0x3f2c2d03	0.6725618
238	0x3d921bbb	0.071341954
239	0x3eb19f8b	0.34692034
240	0x3eb99249	0.3624442
241	0x3f0de7b3	0.5543167
242	0x3f31ad94	0.69405484
243	0x3f20f043	0.6286661
244	0x3f4d9dda	0.8031899
245	0x3f79d5e4	0.97591996
246	0x3ef38ad4	0.47566855
247	0x3eea5544	0.45768178
248	0xbec48ce3	-0.38388738
249	0x3f47cfb4	0.78051305
250	0x3f136362	0.5757352
251	0x3e2e91db	0.17047827
252	0xbe3ae98d	-0.18253155
253	0x3f0f9b7e	0.5609664
254	0x3ded0283	0.11572745
255	0xbd291a5a	-0.041284896

local2.norm.weight f4 [128]
0	0x3f94381b	1.1579622
1	0x3f1489cd	0.5802277
2	0x3f19dd13	0.6010296
3	0x3f38cdb8	0.721889
4	0x3f9295f0	1.1452007
5	0x3f370122	0.71486104
6	0x3fb79e06	1.43451
7	0x3f9e90dc	1.2387958
8	0x3f851033	1.0395569
9	0x3f4260e1	0.75929075
10	0x3f7d546e	0.98956954
11	0x3f468ec9	0.7756162
12	0x3fae0d4b	1.3597807
13	0x3f1963bf	0.59917825
14	0x3f57287c	0.8404615
15	0x3f425520	0.7591114
16	0x3f7497b6	0.9554399
17	0x3f2074b1	0.62678057
18	0x3f4d6551	0.8023272
19	0x3f747826	0.9549583
20	0x3ee47a4c	0.44624555
21	0x3f64e592	0.89412796
22	0x3f944493	1.1583427
23	0x3fabcaf8	1.3421316
24	0x3f2fe4d6	0.6870855
25	0x3f190df7	0.59786934
26	0x3f1793d1	0.59209925
27	0x3f06ce32	0.5265838
28	0x3f180141	0.59376913
29	0x3f4c3f9e	0.7978457
30	0x3f618de6	0.88107145
31	0x3f4bdfec	0.7963855
32	0x3f69b84c	0.9129684
33	0x3f3bd3da	0.73370135
34	0x3f50b27b	0.8152234
35	0x3f8d2b4b	1.1028837
36	0x3f8b02af	1.0860194
37	0x3f81faf0	1.0154705
38	0x3face67c	1.3507838
39	0x3f3d7d82	0.74019635
40	0x3f4cd07a	0.8000561
41	0x3f19576f	0.5989904
42	0x3eed927f	0.4640083
43	0x3f8f59ac	1.1199241
44	0x3f2e784a	0.68152297
45	0x3f051ce7	0.51997226
46	0x3f387869	0.7205873
47	0x3f8c6e8e	1.0971239
48	0x3f43ebc7	0.7653164
49	0x3f4b2586	0.7935413
50	0x3f1f5bba	0.6224934
51	0x3f4c2dd7	0.79757446
52	0x3fc4527e	1.5337675
53	0x3f3d67a2	0.73986256
54	0x3f16869b	0.5879914
55	0x3f1cb7b1	0.6121779
56	0x3f966076	1.1748188
57	0x3fb16698	1.3859434
58	0x3f8bea71	1.0930921
59	0x3f0c4f30	0.5480833
60	0x3f8c70fe	1.0971982
61	0x3f4ab3b3	0.7918045
62	0x3f47c4a9	0.78034455
63	0x3fb4ced9	1.4125625
64	0x3f3eab60	0.7448025
65	0x3f836bfb	1.0267328
66	0x3e1224bf	0.1427183
67	0x3f6b01b5	0.9179948
68	0x3fac61b5	1.3467318
69	0x3f257372	0.6462928
70	0x3f946f82	1.159653
71	0x3f1796c5	0.5921443
72	0x3f105632	0.56381524
73	0x3f7afd8c	0.9804313
74	0x3f2bf88d	0.67176133
75	0x3fffef5f	1.9994925
76	0x3fa4cb34	1.2874513
77	0x3f2c93cc	0.6741302
78	0x3fb54ba1	1.4163705
79	0x3f061202	0.5237123
80	0x3f115ba6	0.5678047
81	0x3f1da7a7	0.6158394
82	0x3f0edd4d	0.5580643
83	0x3f7231b6	0.946071
84	0x3f48460b	0.7823188
85	0x3f35a610	0.70956516
86	0x3f2106a2	0.62900746
87	0x3f944eb9	1.1586524
88	0x3f3b0175	0.730491
89	0x3f58a372	0.846244
90	0x3f4139a6	0.7547859
91	0x3f36b36d	0.7136753
92	0x3f386ceb	0.72041196
93	0x3f2dac71	0.6784125
94	0x3f7bc68b	0.9834983
95	0x3f2d09a5	0.6759284
96	0x3faeec41	1.3665849
97	0x3feae367	1.8350648
98	0x3fca3aa4	1.5799146
99	0x3f61d06d	0.8820866
100	0x3f5e4637	0.8682589
101	0x3fa3c616	1.2794826
102	0x3fa639a1	1.2986337
103	0x3f505b93	0.8138973
104	0x3ef61a3e	0.48066896
105	0x3f66285b	0.8990533
106	0x3f4f2813	0.80920523
107	0x3f0a40f6	0.5400537
108	0x3fb2ef5d	1.3979298
109	0x3fad2ee4	1.3529935
110	0x3fca41ef	1.5801371
111	0x3f1459d3	0.5794956
112	0x3f50ec3e	0.81610477
113	0x3f6c714d	0.92360383
114	0x3f414bff	0.75506586
115	0x3f06bde3	0.52633494
116	0x3f6af8e9	0.91786057
117	0x3f739bad	0.9515942
118	0x3f3cb40d	0.73712236
119	0x3f00f2ff	0.5037078
120	0x3f790a88	0.97281694
121	0x3fb4ca5e	1.4124258
122	0x3f2b3b0e	0.66886985
123	0x3f91901b	1.1372102
124	0x3fc0b91b	1.505649
125	0x3fade263	1.3584713
126	0x400418d5	2.0640156
127	0x3f02320f	0.50857633

local2.norm.bias f4 [128]
0	0xbf036dab	-0.51339215
1	0xbf397139	-0.7243839
2	0xbef4a94c	-0.47785413
3	0xbf18f5d0	-0.5975008
4	0xbedbf09c	-0.42957008
5	0xbf361603	-0.7112734
6	0xbe443539	-0.19160928
7	0xbea7b11a	-0.32752305
8	0xbedf2bfd	-0.43588248
9	0xbf1cb070	-0.6120672
10	0xbeaf5865	-0.34247127
11	0xbf3de2ca	-0.7417418
12	0xbee44388	-0.44582772
13	0xbed8ad8f	-0.42319915
14	0xbf1bdd6a	-0.60884726
15	0xbeddd19d	-0.43323985
16	0xbee6a220	-0.45045567
17	0xbf28ae65	-0.65891105
18	0xbf14ff9b	-0.58202523
19	0xbe6d9035	-0.23199542
20	0xbeb17999	-0.34663084
21	0xbee09daa	-0.43870288
22	0xbf063069	-0.5241762
23	0xbeb77b1c	-0.35836112
24	0xbf2406e3	-0.6407301
25	0xbf0d4670	-0.55185604
26	0xbf247cc1	-0.6425286
27	0xbed41e72	-0.41429478
28	0xbf03cc3c	-0.5148351
29	0xbedf573d	-0.43621245
30	0xbf1da2f1	-0.61576754
31	0xbedca9e3	-0.43098363
32	0xbee91b9b	-0.45528874
33	0xbe6cee3c	-0.23137754
34	0xbf35e658	-0.710546
35	0xbf0ce823	-0.5504171
36	0xbeec1560	-0.46110058
37	0xbef380cc	-0.47559202
38	0xbefee69d	-0.4978532
39	0xbed22b63	-0.41048726
40	0xbf259686	-0.64682806
41	0xbed70375	-0.41994825
42	0xbf11d183	-0.56960315
43	0xbf2ab396	-0.66680276
44	0xbf23bfc9	-0.63964516
45	0xbf3b54b2	-0.7317611
46	0xbf021da4	-0.5082648
47	0xbe9c94c3	-0.30582246
48	0xbf0e9e36	-0.5571016
49	0xbf03110a	-0.51197875
50	0xbf35a35d	-0.709524
51	0xbf11412d	-0.56740075
52	0xbeb4e4cb	-0.35330805
53	0xbf093a9c	-0.53605056
54	0xbf3338f1	-0.7000876
55	0xbf136f05	-0.5759128
56	0xbec101b4	-0.37696612
57	0xbf0ddae0	-0.554121
58	0xbf712e1b	-0.94210976
59	0xbf0088eb	-0.5020892
60	0xbe8d32c6	-0.275778
61	0xbed019b2	-0.40644604
62	0xbe9db0de	-0.30799
63	0xbefdb094	-0.4954878
64	0xbf0d13cc	-0.5510833
65	0xbf0c2bae	-0.5475415
66	0xbf3ec596	-0.7452024
67	0xbf180cb6	-0.59394395
68	0xbf4c06ff	-0.79698175
69	0xbf4b88f9	-0.7950588
70	0xbecc9195	-0.3995482
71	0xbf53ec83	-0.82782763
72	0xbf2fe19b	-0.6870362
73	0xbeded904	-0.43524945
74	0xbefb68ee	-0.49103492
75	0xbe8a2ff8	-0.26989722
76	0xbf1411bc	-0.5783956
77	0xbf002a23	-0.50064296
78	0xbe23fffd	-0.1601562
79	0xbf628bee	-0.88494766
80	0xbf372dcc	-0.71554255
81	0xbf722df0	-0.94601345
82	0xbf42f99b	-0.7616212
83	0xbe89d2d8	-0.26918674
84	0xbef5fc1f	-0.48043916
85	0xbf15e1c2	-0.58547604
86	0xbf46679f	-0.77501863
87	0xbf136cb5	-0.5758775
88	0xbf2c90b1	-0.6740828
89	0xbf0a0571	-0.5391455
90	0xbf1df1e3	-0.61697215
91	0xbed640a2	-0.41846186
92	0xbf13a564	-0.5767424
93	0xbf1a78e2	-0.603407
94	0xbe8dc427	-0.27688715
95	0xbea180f5	-0.315437
96	0xbefbcefe	-0.4918136
97	0xbe63edf8	-0.22258747
98	0xbe16a062	-0.14709619
99	0xbf07fdf0	-0.5312185
100	0xbeac8b16	-0.33699864
101	0xbec96022	-0.39331156
102	0xbe9c6090	-0.3054242
103	0xbf17b0a9	-0.59253937
104	0xbf744d8d	-0.95430833
105	0xbe7e5f1c	-0.24840969
106	0xbeffdc41	-0.49972728
107	0xbf1f1b7e	-0.62151325
108	0xbed99106	-0.42493457
109	0xbede05ed	-0.43363896
110	0xbeae3275	-0.3402287
111	0xbf1e7813	-0.6190197
112	0xbf3bbf8f	-0.7333917
113	0xbf25cd81	-0.647667
114	0xbeaffb6a	-0.343715
115	0xbf30e0f9	-0.6909328
116	0xbf236680	-0.6382828
117	0xbee77afb	-0.45211014
118	0xbeea7346	-0.45791072
119	0xbf35ac8b	-0.70966405
120	0xbf015660	-0.5052242
121	0xbea8c53d	-0.3296298
122	0xbf0bd2db	-0.54618615
123	0xbe9946bb	-0.29936776
124	0xbeb2d915	-0.34931245
125	0xbe4cc9f2	-0.19998911
126	0xbeb25491	-0.34830144
127	0xbf34b318	-0.70585775
