models/eeg_loso/s_03.pt (torch, 561186 bytes, 37 tensors)

band_attn.fc1.weight f4 [8, 5]
000000 a5 20 19 3f a4 d7 3d 3e 45 39 9e bd cc 89 90 bf
       0.59815437 0.18539292 -0.07725767 -1.1292052
000010 78 f8 cb be 95 74 ad bd 48 05 de 3e ea 08 e3 be
       -0.39838004 -0.08469502 0.43363404 -0.44342738
000020 49 df 1c bf 4d af 75 3f e7 a7 99 3e 9b 0f ac 3d
       -0.61278206 0.9597061 0.30010912 0.08401414
000030 4c 3b 17 bf 1f 19 bc 3f 3c 19 d4 bd dc 85 47 3d
       -0.59074855 1.4695166 -0.103563756 0.048711643
000040 33 9a 0f be 68 1b 20 bf e9 14 61 3e 08 7c 0d 3e
       -0.14023666 -0.6254182 0.21980633 0.13816845
000050 d4 d7 07 be 3a 59 27 bf e8 4e c6 3e 6d 61 81 3f
       -0.13265926 -0.65370524 0.38732076 1.0107857
000060 50 da f1 bd cb 60 a5 bd ff bd 4f bf e5 e6 b5 3d
       -0.11809218 -0.080751024 -0.81149286 0.0888193
000070 88 67 bb bf c1 90 57 3f 8f 87 08 bf 36 e1 b5 be
       -1.464097 0.8420525 -0.53331846 -0.35523385
000080 40 69 a7 3e 07 c7 a5 be 94 23 71 bf 4c 72 90 3e
       0.32697487 -0.32378408 -0.9419491 0.28212202
000090 8c fe 05 bf 8b 78 24 bf a6 73 29 be 67 35 be 3e
       -0.5234153 -0.64246434 -0.16548023 0.37150118

band_attn.fc1.bias f4 [8]
000000 cf 1c 94 be b8 f7 d3 be e9 26 80 be aa c2 57 bf
       -0.2892823 -0.41399932 -0.25029686 -0.8428141
000010 3c 39 9f 3f db ac 36 3e 52 f3 10 3f 42 d2 6c bf
       1.2439342 0.17839377 0.5662128 -0.9250833

band_attn.fc2.weight f4 [5, 8]
000000 5e 41 82 3f df 75 e7 3e 94 ad f6 be c5 98 d5 be
       1.0176198 0.45207116 -0.48179305 -0.41718116
000010 42 3d a9 bf 45 c4 8d bf 5f 9a 97 bf 89 76 9f bf
       -1.3221819 -1.1075522 -1.1843985 -1.2458049
000020 6e 3b d0 bd a3 59 6e 3e 28 a4 13 3e db c1 08 3f
       -0.10167585 0.23276381 0.1441809 0.534208
000030 ec d9 00 3e c5 5e 1e bf 4e 1b a9 3e ff d4 35 bd
       0.1258313 -0.61863357 0.33028644 -0.044392582
000040 d7 78 15 3f eb 87 0b bf c5 59 49 be 9b 51 2e bf
       0.5838751 -0.5450427 -0.1966315 -0.6809327
000050 bc 49 83 3d be db 11 3e ec c5 23 3f be 60 b7 be
       0.06410548 0.14243981 0.6397388 -0.35815996
000060 98 64 14 bf cb ef 2d bd e4 da 43 3f f0 81 82 3e
       -0.57965994 -0.042465013 0.76505876 0.2548976
000070 99 b5 8f 3f 8f f8 38 bf 20 a6 94 3e 31 7e 6a 3e
       1.1227294 -0.7225427 0.29032993 0.228997
000080 c8 ac 98 3d cd cf 27 3f eb d5 a3 bf 13 d1 61 3d
       0.074548304 0.65551454 -1.2799658 0.05513103
000090 5e be d6 be be 05 47 3f 6e d8 ec be 29 5a fc 3e
       -0.41942114 0.77743137 -0.46258873 0.49287537

band_attn.fc2.bias f4 [5]
000000 9f 34 ba 3d f2 a4 11 3d 5c 87 19 be 31 df 50 3f
       0.09092068 0.035557695 -0.14993042 0.81590563
000010 46 9e e8 be
       -0.45433253

feat_proj.weight f4 [128, 21]
000000 c8 48 08 3f ef 3b b1 3f 3f 86 13 3f 9b bc 54 3e
       0.53236055 1.3846415 0.5762672 0.20775072
000010 72 f0 3a 3f ea 50 52 3f 11 e1 1e be 8a 18 9f be
       0.7302314 0.82154715 -0.15515544 -0.3107341
000020 7f d3 35 3d 76 25 9d 3b 80 b9 34 be fe 4c 54 3e
       0.04439115 0.0047957255 -0.17648888 0.20732495
000030 cf 96 b1 3e f2 9e 32 bf 1d 5c 09 c0 69 60 cb bf
       0.3468537 -0.6977378 -2.1462471 -1.5888797
000040 91 3f 1a be b2 e8 f6 bb 2e b6 2f 3b 14 5c 5f 3c
       -0.15063311 -0.0075350637 0.0026811468 0.013632793
000050 a5 4d 40 be 80 33 bf 3e 1c b3 84 bf dd b2 f6 bf
       -0.18779619 0.3734398 -1.036716 -1.9273335
000060 70 fc d0 bf d4 ad e5 bf d0 12 ef be e7 a9 36 bd
       -1.6327038 -1.7943673 -0.4669404 -0.044595625
000070 3a 27 3e bd d8 38 14 bd 74 32 2b 3d 1e 79 77 bd
       -0.046424128 -0.036187023 0.041796163 -0.06041824
000080 f3 35 1b bf ca 3f 21 3d 65 5b 29 3e f7 09 59 3d
       -0.60629195 0.039367475 0.1653877 0.05298802
000090 eb 30 b3 3d fb 8e 3e bd 9d ed ad 3c 9a bd 0b bd
       0.08749565 -0.046523076 0.021231467 -0.034116365
0000a0 ac 85 90 3c f0 69 85 3e 87 b6 53 3f 4c a1 01 40
       0.017641865 0.26057386 0.8270039 2.0254698
0000b0 5e 18 47 3e 75 0e b9 bf a5 a5 65 bf 1b f7 f8 be
       0.19442889 -1.4457537 -0.8970588 -0.48626027
0000c0 1a 4c 24 be d3 dc ca 3d af 7d fb bc 37 c8 99 b9
       -0.16044655 0.099054 -0.030699579 -0.00029331606
0000d0 96 0a a3 bc 04 93 d0 3d b4 63 86 3f e8 a7 8a 3f
       -0.019902509 0.10184291 1.0499177 1.0832491
0000e0 c1 e1 ad 3e 7e f4 d6 3e f6 c6 7b 3d d6 03 da bb
       0.339613 0.41983408 0.06146904 -0.0066532893
0000f0 c2 b2 e0 3d 8d 93 29 3d 09 07 4f 3e b6 95 1f 3e
       0.10971595 0.04140048 0.20217527 0.15584454
000100 45 40 bb be cd 56 a6 bf ca 72 a3 bf 8a 3c a5 bf
       -0.3657247 -1.299524 -1.2769406 -1.29091
000110 98 de 79 be b4 8d 18 be 76 be 97 3d ef af 87 3b
       -0.24401319 -0.14897805 0.074093744 0.004140846
000120 7d 5b 72 3a 34 64 33 bd 69 3a cd 3f 87 9c ce 3f
       0.00092452 -0.043796733 1.603345 1.6141518
000130 5e 04 d4 bd ab 04 62 bf d0 b0 df be 9a 0d 27 3d
       -0.103523955 -0.8828837 -0.43689585 0.040784456
000140 29 9f 16 3e b8 03 97 bb bf 2f 88 3d 93 99 3a be
       0.14709152 -0.0046085976 0.06649732 -0.18222646
000150 5c d4 73 be 43 96 b3 3f 6d 2e 36 3f 43 9a 3b 3f
       -0.23811477 1.4030231 0.7116459 0.7328226
000160 d0 dd 6c 3f 98 fc 11 bd 3f 34 d2 be 36 16 79 be
       0.9252596 -0.035641283 -0.41055486 -0.24324879
000170 b8 ae 16 3c f7 fa a2 ba f4 4b 6c 3d e0 d4 c6 3f
       0.00919693 -0.0012434412 0.057689622 1.5533714
000180 f0 9d ba 3f ac 04 da 3d 80 5a 99 bf 7f da 38 bf
       1.4579449 0.10645422 -1.1980743 -0.722084
000190 21 37 96 3d 50 c3 3a 3d c0 39 4c 3c 72 6b 85 bd
       0.07334734 0.04559642 0.012464941 -0.06514634
0001a0 06 79 3c be 9e 36 96 3f 5c 91 0d 40 76 26 d6 3c
       -0.18405542 1.1735418 2.211997 0.026141386
0001b0 3c 52 1d bf 0b 58 8d be e7 f1 53 3f 1c 52 b3 bd
       -0.61453605 -0.27606234 0.8279099 -0.087558955
0001c0 6b bb d0 bd c8 03 59 3d 1c 03 31 bc d9 7f a3 be
       -0.10191997 0.05298212 -0.010803964 -0.31933478
0001d0 31 39 a0 3f 12 9c 69 3f 9f b1 86 be 63 82 c4 bf
       1.2517453 0.9125377 -0.2630739 -1.5352291
0001e0 c0 ff 91 bf a0 04 34 3d 72 45 75 3c 8c cd 33 bd
       -1.1406174 0.043949723 0.01497017 -0.043897197
0001f0 63 de 32 3d 39 24 4c bf 39 42 45 bf 74 3b 73 be
       0.043669116 -0.7974277 -0.7705417 -0.23753148
000200 dc a3 53 3f c2 b6 93 3f 90 b1 82 3f 9c 86 15 3f
       0.82671905 1.1540148 1.0210438 0.5840852
000210 89 b4 1b be 21 62 16 be 7f 77 01 3d 40 8b 5f bc
       -0.15205587 -0.1468587 0.0316081 -0.01364404
000220 3a 63 20 3e b6 5c 3e bf 94 19 45 bf 4b 52 30 be
       0.15662852 -0.74360216 -0.76992154 -0.17218892
000230 19 80 c7 3e 8b 48 bc 3e 56 1a 8b 3d 12 4e 84 bd
       0.38964918 0.36774096 0.067921326 -0.06460203
000240 76 dc 91 3d 2f 08 09 3e 6d 9f d1 3e 5f e9 c8 be
       0.07122128 0.13382028 0.40941945 -0.39240548
000250 fc 7f 85 bf a1 f8 ac 3e 6d 75 81 3e a9 38 1c 3d
       -1.0429683 0.3378344 0.252849 0.038139973
000260 e7 96 8a bd be 9c 36 3d 97 95 2c bd 0d ff 20 3c
       -0.067670636 0.044583075 -0.042134847 0.009826434
000270 b3 fb 90 3c de 9a 7e bd 0f 45 aa bf b5 83 cf bf
       0.017698145 -0.06215941 -1.3302325 -1.6212069
000280 6a d1 99 bf 54 f5 9b be 64 3d fb bd 61 67 97 3c
       -1.2017033 -0.30460608 -0.12267569 0.018481912
000290 fc 5f 15 3d 26 34 25 3d be a2 73 bc c2 3c 85 be
       0.03646849 0.040332936 -0.014870344 -0.26022917
0002a0 c1 34 8c bf d7 94 13 3f 94 34 87 3f d7 a0 f8 3e
       -1.0953599 0.57648987 1.056292 0.4856021
0002b0 c9 7c f4 3e 15 d0 84 bf 05 82 89 3d 40 01 a9 3d
       0.47751454 -1.0376002 0.067142524 0.082521915
0002c0 98 9d 8c bd 8d 34 98 bc 26 12 6d bb 8f b3 ae 3f
       -0.06865996 -0.018579746 -0.0036174147 1.3648547
0002d0 9d 5e 9e 3e cf b3 29 bf e5 34 19 bf f7 0f b5 bd
       0.3093156 -0.6628999 -0.59846336 -0.08840936
0002e0 8d 30 06 be 2d 58 b4 3d 24 5d 9d bd 9c b4 c1 bd
       -0.13104458 0.08805881 -0.07683781 -0.09458277
0002f0 67 88 d6 be 03 d1 60 bf 21 7e 41 bf fe c1 84 3f
       -0.41900942 -0.87818927 -0.7558308 1.0371702
000300 4c 7c a0 3f 3f d2 a5 3f a6 cd 90 be e6 4c 8d 3e
       1.2537932 1.2954787 -0.28281897 0.2759773
000310 3b 02 85 bd 09 27 62 3c ea 5f 56 bd 32 50 22 3c
       -0.06494566 0.013803252 -0.052337565 0.009906815
000320 c1 b7 a3 3f cd 22 8b 3f 6d 9d fd 3e 8f 03 48 be
       1.2790452 1.0869995 0.4953417 -0.19532607
000330 d4 bc 16 be 88 1f 39 bd 0c 0d b0 3c 0b fc d0 3a
       -0.1472047 -0.045196086 0.021490596 0.0015944255
000340 d0 8d b9 3d 40 05 00 3e e9 a3 f8 3e c5 f6 2e 3f
       0.09060252 0.12502003 0.48562554 0.6834529
000350 ca 6c 8e 3f d2 67 7d 3f ce 8a 8e 3f b0 df 46 be
       1.112695 0.9898654 1.113611 -0.19421268
000360 be d1 a6 3c 6d 5b 07 be 80 63 06 3c c5 b8 c4 bc
       0.020363685 -0.1321847 0.008202434 -0.024013886
000370 ab 29 e8 bd 4a ce 23 bf 15 69 42 3e c8 72 2b 3f
       -0.113360725 -0.6398665 0.18985398 0.6697202
000380 f8 a6 bf 3f 90 30 9f 3f 9f a5 2d 3d 4c 9c d0 3c
       1.497283 1.2436695 0.042394277 0.025465153
000390 f8 8f 84 3d 8b 40 5a bc 75 ee 05 3f 7e ef 4a bf
       0.06472772 -0.013321052 0.5231698 -0.79271686
0003a0 cc 50 55 c0 79 36 b8 bf 02 a8 1c bd 8a 87 1b bf
       -3.3330564 -1.4391624 -0.038246162 -0.6075369
0003b0 0f 78 0e bd 80 df a2 3e 6d a5 5b be 43 ca fe 3b
       -0.034782466 0.31811142 -0.21449824 0.0077755763
0003c0 0b ec 5d bc c6 c4 c2 3c b2 15 a2 bf 1d 9a 99 bf
       -0.013545047 0.02377547 -1.2662871 -1.2000157
0003d0 b4 22 2d bf df 55 45 3f 0d ec 21 3f 15 09 46 3c
       -0.6763108 0.77084154 0.6325081 0.012087126
0003e0 5b 87 c5 3c b7 74 22 bd 5a a2 d7 3c 2f 87 fe 3e
       0.024112394 -0.03966209 0.026322532 0.49712512
0003f0 6c 7f 87 be 53 a0 13 bf 3e 52 2d bf 53 03 96 3e
       -0.26464403 -0.5766651 -0.67703617 0.2929941

feat_proj.bias f4 [128]
000000 c4 e9 74 be d5 d7 1f be bc 5f 7c 3f 6b 06 e2 be
       -0.239173 -0.15609677 0.9858358 -0.44145522
000010 23 0e ef 3d 81 22 d8 bd 62 b3 b3 3e fc ec ae be
       0.11672618 -0.10553456 0.35097796 -0.3416518
000020 29 fe 92 bd ea 7f 31 bd 07 eb b3 be d2 b5 26 bf
       -0.071773835 -0.04333488 -0.3514025 -0.65121186
000030 2c 58 3a 3e ef 3e 7f bd c0 46 8c 3f 03 5f 28 3e
       0.18197697 -0.062315878 1.0959091 0.16442494
000040 b2 13 9e bd 4e e9 e5 be 05 eb 67 3e d3 33 1e 3f
       -0.077186 -0.4490456 0.22648247 0.6179783
000050 b2 22 45 be 7d dd 18 be 20 2c 8a 3e 4a 4c 41 3e
       -0.19251516 -0.14928241 0.2698679 0.18876758
000060 74 bc cd bc 73 f6 2a bf 8f 06 19 3f 31 88 16 bf
       -0.025114276 -0.667823 0.5977563 -0.5880156
000070 3c d8 4a bf 91 d3 f5 be ff 7a 4b bf 18 a1 81 be
       -0.792362 -0.48012975 -0.7948455 -0.25318217
000080 b6 5d 27 3f a3 ff 9d 3e 83 d1 10 3f fa 58 30 bf
       0.65377367 0.30859098 0.5656969 -0.6888577
000090 f6 93 79 bf 86 47 69 3c ee e6 4a 3f 1d ec 66 bf
       -0.97491395 0.014238244 0.7925862 -0.9020403
0000a0 b7 9d e8 3e 3d 05 58 bf 65 22 87 be 6d 3e 0b bf
       0.45432827 -0.84382993 -0.26393428 -0.5439213
0000b0 a6 82 f0 be 1d 23 18 bf f9 b6 3c 3d 89 a0 d2 be
       -0.46974677 -0.5942858 0.046072934 -0.41138104
0000c0 1f 9c 1e bf 20 44 6d be 42 a8 80 3e 5c d4 50 bf
       -0.6195697 -0.23170519 0.2512837 -0.81574035
0000d0 0b 9d bb bd a4 e1 fd bd 30 fd c2 3d bc 19 33 bf
       -0.09160813 -0.12396553 0.09520948 -0.6996114
0000e0 55 4c 2a 3f 4b 53 6f 3e b8 0a dc be fc 57 03 bf
       0.66522723 0.23371617 -0.42976928 -0.5130613
0000f0 41 6e 48 3e 72 60 b4 be 75 3c 5c 3f 39 d5 63 3e
       0.19573309 -0.35229832 0.8602975 0.22249307
000100 10 dd a7 3e 8b 52 72 3e e3 17 50 3e ad b9 2d bf
       0.32785845 0.236643 0.20321612 -0.67861444
000110 bf 57 7c be b7 c1 0c 3f cf 96 d4 3c ab e4 56 bf
       -0.24642847 0.54983085 0.025950817 -0.8394267
000120 19 08 88 3e c3 2a b6 be 45 e9 c8 be 43 21 f0 bd
       0.26568678 -0.355795 -0.3924047 -0.11725094
000130 68 09 7d be 4a ba 12 3f f9 68 fc 3e 3a 1e f1 be
       -0.2471062 0.57315505 0.49298838 -0.47093374
000140 72 18 f1 bd 3d 0f 3e bf 8a 30 bd 3e 25 3f 9f 3e
       -0.11772241 -0.74242 0.36951095 0.31102863
000150 de 0a cc 3e d3 0d 3a 3e 5c 67 0f 3e 6b be 0b bf
       0.3985204 0.18169336 0.14004272 -0.5458743
000160 2c 0d f7 3e 69 68 a9 bd 09 62 a0 3e e0 1d cd 3e
       0.48252237 -0.08271868 0.31324795 0.40061855
000170 64 1e f8 3e e9 63 1f 3c 63 56 b1 be 28 6e 0e 3f
       0.48460686 0.00972841 -0.3463622 0.55636835
000180 72 98 83 be 1c cf 15 be d1 e0 95 3e 54 64 a3 3c
       -0.25702244 -0.14629787 0.29273084 0.019945301
000190 f4 dd 50 3f 8a 4d df bc d8 5d d9 be ac 73 37 bd
       0.81588674 -0.027258653 -0.4245441 -0.044788048
0001a0 06 56 06 bf 59 b2 05 bf 3c cf be 3e 0e 91 2c 3f
       -0.5247501 -0.5222526 0.37267482 0.67408836
0001b0 f3 1c f9 be 09 fd c0 3e 44 ab 15 bf f1 11 1e bf
       -0.486549 0.3769305 -0.58464456 -0.61746126
0001c0 3a dd 1d bf 24 34 18 bf 0a 78 ee 3d 7a ea 34 3f
       -0.6166569 -0.5945456 0.116439894 0.7067028
0001d0 89 3c 52 bf d5 c0 94 be 60 93 74 bf 14 9a d2 be
       -0.8212362 -0.2905337 -0.95537376 -0.41133177
0001e0 5d 5f 3e 3e ec 37 3e 3f 90 2b 74 3e 91 22 21 3f
       0.18591066 0.7430408 0.23844743 0.6294337
0001f0 b2 73 20 bf 72 6a 45 3e 05 d6 f9 3e 16 cf 5e 3f
       -0.6267654 0.19278887 0.48796096 0.8703474

local1.conv.bias f4 [128]
000000 5b d4 32 bf 17 70 b3 be 91 d3 23 3f 21 25 13 bf
       -0.6985528 -0.35046455 0.639947 -0.5747853
000010 42 f5 16 be 47 ee 96 3d dd dd 96 be 54 e2 48 3e
       -0.14741996 0.073696665 -0.29466143 0.19617587
000020 db 94 1b bf c7 be dc bd 9f 07 d2 be 1d c3 87 bd
       -0.6077401 -0.107785754 -0.4102144 -0.06629012
000030 64 e8 f9 bc 70 a2 a3 3e f0 98 85 3f 7b f5 72 3e
       -0.03050632 0.31959867 1.0437298 0.23726456
000040 9b 27 32 bf 15 42 47 be 4c 9b af 3e f2 eb 28 bf
       -0.69591683 -0.19458802 0.3429817 -0.65985024
000050 e7 19 25 3e 45 81 9a bd cb e1 4c be 7c 76 fb be
       0.16123162 -0.075441875 -0.20008008 -0.49113834
000060 c7 e6 f6 be 1c 2b 06 3f 3c 80 20 3f 71 e4 b6 3e
       -0.48222944 0.5240953 0.6269567 0.35721162
000070 b3 f1 bf 3d c5 b4 64 bf 76 96 b5 be 81 63 f8 3e
       0.09372272 -0.8933833 -0.35466355 0.48513415
000080 e4 25 0c bf 34 a6 69 3e 5c c9 ac 3d 81 f0 9b 3e
       -0.54745317 0.22817308 0.08436844 0.30456927
000090 95 89 0f 3f 1a 80 47 3f 9c 95 0d 3f 9d 2f 7a 3f
       0.5606931 0.7792984 0.5530641 0.977289
0000a0 b7 fb 09 bf 6f 32 2e be 02 53 d4 be f3 80 6d 3d
       -0.5389971 -0.17011426 -0.4146958 0.057984304
0000b0 9e 4e 49 3e f2 2c 5e 3f 68 93 0f 3f f4 46 83 be
       0.19658896 0.8678733 0.560843 -0.2564007
0000c0 1f de 0e 3f 4f bc 01 3e 8a 33 17 bf e8 90 99 3e
       0.5580768 0.1266949 -0.5906302 0.29993367
0000d0 d0 cc 42 bf 53 6c 16 3f 76 40 1a bf 98 ce 8b 3f
       -0.7609377 0.5875904 -0.6025461 1.0922422
0000e0 ed f3 5d 3e f6 cd ab bd 4e bd 29 3e 05 7b be 3e
       0.21675082 -0.08388893 0.1657612 0.3720323
0000f0 76 47 26 3e 7c 48 ab be db cc fb be bf f4 19 bf
       0.16238198 -0.3345374 -0.4917973 -0.6013908
000100 6a f6 45 be 46 99 89 bf 12 f3 da be b3 88 96 3f
       -0.19332281 -1.07499 -0.42763573 1.1760467
000110 75 48 25 3f 07 c8 40 bf 39 c9 62 be 4d e6 ff 3b
       0.64563686 -0.7530522 -0.22147073 0.0078094364
000120 bb 23 ee 3d 24 f8 71 bf 1d cd cf be 78 8a 5f 3e
       0.11627909 -0.9451926 -0.40586177 0.21830165
000130 17 4a e3 bc 9c 01 52 bf c1 a6 15 3f d9 49 29 bf
       -0.02774529 -0.82033706 0.5845757 -0.6612831
000140 5a 2c 73 be 53 52 52 bf 54 a2 3b 3e f4 a3 a7 3e
       -0.23747388 -0.82156867 0.18323642 0.32742274
000150 67 3f 17 bf 52 36 bf 3e 2b 99 8d be 7f 1d 81 3d
       -0.5908112 0.3734613 -0.2765592 0.06304454
000160 34 3d 3d 3f b2 a0 23 3c 16 f9 b5 be bb a0 f2 3d
       0.73921514 0.009987043 -0.355416 0.11847063
000170 c1 65 f8 be eb 4c 87 3d ca fb ca be a6 ea 06 be
       -0.48515132 0.06606468 -0.39645225 -0.13175449
000180 a2 70 82 bd 87 7d 46 3f 8f 93 27 bf 0d a0 1d 3f
       -0.06369139 0.7753529 -0.6545953 0.61572343
000190 3e a9 f0 be 53 e3 02 3f 3b b5 0d bf 15 db 21 3f
       -0.47004122 0.5112812 -0.5535466 0.6322492
0001a0 47 57 29 3d 8d 14 90 3f f8 18 aa be ab b7 e0 3e
       0.041343 1.1256272 -0.33222175 0.43890128
0001b0 d4 11 91 3e 2b e6 67 3f c6 64 ea 3e d8 d2 67 bf
       0.28333914 0.90585583 0.4578001 -0.905561
0001c0 c8 9d 95 3f cc 94 cc 3e fb 9a d0 bb 96 36 e2 3e
       1.1688776 0.39957273 -0.0063661314 0.4418227
0001d0 42 9c e6 be ef 33 96 3f 8d 1e d1 be e5 a1 4a 3b
       -0.4504109 1.1734599 -0.4084362 0.003091925
0001e0 3f 27 bb 3f ef 44 d3 3f 3f e0 eb be 3d 0b 5a 3f
       1.4621352 1.6505412 -0.46069524 0.851734
0001f0 c5 fb 87 bf 68 72 94 bf 37 df 1d be 8b f9 0d 3f
       -1.0623709 -1.1597414 -0.15417181 0.554589

local1.conv.lin.weight f4 [128, 128]
000000 f6 2a 39 be de b9 d3 be 18 97 9b 3d 1e 78 28 3e
       -0.18082795 -0.41352743 0.07597178 0.16452071
000010 e1 51 70 3e a1 e7 9b bd fa fc f3 3d aa eb db be
       0.23468734 -0.07612539 0.11913486 -0.42953235
000020 83 ef 6e 3e 27 6d 0c 3f 90 1d 24 3f 49 66 b2 be
       0.23333554 0.54854053 0.6410761 -0.34843662
000030 54 9e 38 bf e0 bb d8 be b6 80 5c be f9 53 fe bd
       -0.7211659 -0.42330837 -0.21533474 -0.1241836
000040 db 7c ed be 94 89 17 bd e9 92 50 be bd 1e 9f 3e
       -0.4638432 -0.03699644 -0.20368542 0.3107814
000050 3e b3 18 be be 0e 1e be 31 ac 98 be 46 7b 90 3d
       -0.14912125 -0.15435311 -0.29818872 0.070547625
000060 93 66 0e bf 8b 27 63 3f 0e 7a 3b be e0 bf 9d bd
       -0.55625266 0.8873221 -0.18308279 -0.07702613
000070 10 91 e2 3e c9 9b 99 3e f3 d2 60 3f 78 57 ac be
       0.442513 0.30001667 0.8782188 -0.33660483
000080 85 b8 b8 bd 91 21 a7 be 55 2b 8f be b8 56 1a 3f
       -0.09019569 -0.32642797 -0.27962747 0.6028857
000090 a5 de c2 3e 7e d0 ff 3c 49 bf e3 be d6 75 bc be
       0.3806049 0.031227347 -0.44481876 -0.36808652
0000a0 fe ed 2a 3e 39 1c 3d 3f 9e 1d d8 3d 11 b1 71 3e
       0.1669235 0.7387119 0.10552524 0.23602702
0000b0 7b a1 77 be ab a8 97 be b4 fc b4 be 82 98 9f 3e
       -0.24182694 -0.2962087 -0.35349047 0.31171042
0000c0 1a 62 90 3e 64 56 9f be 19 65 1f 3f e3 ee 2c 3f
       0.28199846 -0.31120598 0.6226364 0.6755201
0000d0 2d 9e 14 bd c3 62 8f bc af b7 93 3e 53 d1 d3 be
       -0.03628366 -0.017503148 0.28851077 -0.4137064
0000e0 0d d2 01 be 9b 3b 9b 3e 52 4d 89 3e 31 08 9a 3d
       -0.12677784 0.30318913 0.26816803 0.07521094
0000f0 d2 c8 20 3e 1e 4d c4 be ee 6a 1e bf 81 5a d7 bd
       0.15701607 -0.38340086 -0.6188191 -0.10515309
000100 31 3b 0a bf 8d 35 1e 3e f6 1e 24 3e 7e 40 c9 be
       -0.5399657 0.15450116 0.16027436 -0.39307016
000110 99 01 07 3f c1 a7 08 bf e8 cf cf be 11 67 8e 3a
       0.5273681 -0.5338097 -0.40588307 0.0010864456
000120 72 40 cd be 37 cd 56 3d 8a 0d 0a 3f 92 7f c2 3e
       -0.4008823 0.052441802 0.5392691 0.37987953
000130 bf 48 d9 be fd 75 73 be 28 be 6a be 4f f2 a8 be
       -0.42438313 -0.23775478 -0.22924101 -0.32997367
000140 16 f9 4c 3e e4 dd 1e 3f 93 2d f5 be 1d be 6c 3c
       0.20016894 0.6205733 -0.47886333 0.014449623
000150 1f 0a 82 3e 1c 8c d4 3e 2b e4 2e 3f 1f d6 99 be
       0.25398347 0.41513145 0.68316907 -0.30046174
000160 ed 7c 24 bd e3 2b 5b be 45 62 05 3f 51 f1 09 3f
       -0.0401582 -0.2140346 0.5210307 0.53883845
000170 32 95 9f be e6 f5 ef be 2a e3 17 3f 54 2c d6 be
       -0.31168514 -0.46867293 0.59331 -0.41830695
000180 c4 3e 10 3e f9 b0 20 3f 3b af e1 bd d6 cb 24 3f
       0.14086443 0.6277004 -0.11019751 0.6437353
000190 4b 3c ab be 01 87 3a 3e 39 fb ac 3e ea 60 d4 be
       -0.33444437 0.18215562 0.33785418 -0.4148019
0001a0 36 62 23 3f 54 cc 05 3d 72 ac c0 be d9 b3 11 be
       0.63821733 0.032665566 -0.37631565 -0.14228763
0001b0 4d 9c af be 81 b5 86 3e 14 fd cc be ee 34 1d 3e
       -0.34298936 0.26310351 -0.40036833 0.15352222
0001c0 cb d4 8d be 30 0d c0 be cd 56 96 3e a0 6f 44 bf
       -0.2770141 -0.3751006 0.293631 -0.76732826
0001d0 48 aa 73 3f b1 4e 11 bf f9 66 8c 3f 54 40 00 3f
       0.95181704 -0.567607 1.0968925 0.50098157
0001e0 2b 71 29 3e 67 2d 32 bf 99 16 76 be 49 47 60 bf
       0.16547076 -0.6960053 -0.24032058 -0.8760877
0001f0 ca 4a d3 be ea 1b 15 3e 94 57 8f be 25 df 51 bf
       -0.41267997 0.1456143 -0.27996504 -0.81981117
000200 74 42 43 3f 1a 4c ae 3e 90 6f 55 bf 0e d1 1b 3e
       0.76273274 0.34042436 -0.83373356 0.15216467
000210 6a 78 bc 3d 6d b3 5e 3e eb 3f 29 3e 66 67 5c 3f
       0.09202655 0.21748133 0.16528289 0.86095273
000220 6e ec a7 3d 95 9f 90 3c 4f 92 1e bf 42 d2 16 3f
       0.08199392 0.01765422 -0.61942 0.5891458
000230 3a 0f 16 3f 0f 9d 41 3e ab b8 f1 3d 83 9e 71 be
       0.58616984 0.1890757 0.11802801 -0.23595624
000240 3c ae bd 3e 5e f3 61 be a1 f0 63 3f f8 ad 67 bf
       0.37046993 -0.22065493 0.89039046 -0.9049983
000250 54 85 ab 3d e7 c9 04 3f 9d 36 87 3e e7 7d 66 bf
       0.0837504 0.5187058 0.26408854 -0.9003586
000260 73 dc 8d 3e 4f be 57 bf 46 35 61 3d d4 51 4d be
       0.27707252 -0.8427476 0.054982446 -0.20050746
000270 b4 fe 01 bf 60 b5 f7 be 5a 7c 18 bf 59 c9 11 3e
       -0.5077927 -0.48380566 -0.59564745 0.14236964
000280 7f 4f 35 bf 87 31 b8 3d 53 f5 fb 3e e3 ed d4 be
       -0.70824426 0.089938216 0.49210605 -0.41587743
000290 ac 30 e6 3c 5b 19 35 be 67 45 3a 3e 0f a6 54 3f
       0.02809938 -0.17685454 0.18190537 0.83065885
0002a0 a7 59 b8 bc 19 3f 8a be a3 9a f8 bd 21 97 08 3e
       -0.022503687 -0.27001265 -0.121388696 0.13338901
0002b0 6c be 83 3f 8c b3 77 3f ba f2 1e 3f be 03 b6 3d
       1.0292487 0.9675834 0.6208912 0.088874325
0002c0 d6 37 ce bd 97 de b4 3e 50 58 3f bf 52 49 64 bf
       -0.100692436 0.35326073 -0.7474413 -0.8917438
0002d0 57 2a 73 3d 16 9f 08 bf 7c c2 33 bf 92 73 00 3d
       0.05936655 -0.53367746 -0.70218635 0.031360216
0002e0 65 4d 9b be e4 94 29 bf b8 4c 06 be 7b fc 06 bf
       -0.30332485 -0.66242814 -0.13115203 -0.52729005
0002f0 c7 41 07 be c4 0b ff bc 1a 52 b7 3e 56 65 93 bc
       -0.13208686 -0.03113354 0.35804826 -0.017992657
000300 c6 75 3b 3f 03 5f d0 be 68 47 a3 be 57 dd 0f 3f
       0.73226583 -0.40697488 -0.31890416 0.5619711
000310 83 70 e9 be 93 f0 03 3f 33 7f 75 3e 89 1b 48 3f
       -0.45593652 0.5153896 0.23974304 0.78167015
000320 09 68 14 3f 2a c0 a2 be 0d cf 32 bf ed 9a 01 3e
       0.57971245 -0.31787235 -0.69847184 0.12656756
000330 20 82 a6 3f 4c b7 0b 3f d9 07 84 3e 50 da 82 bd
       1.3008461 0.54576564 0.25787237 -0.06389296
000340 1e 08 14 bd d0 76 f6 be a3 a1 c0 bc 67 d1 57 be
       -0.036140554 -0.48137522 -0.023514574 -0.21075974
000350 aa 2f 03 3d 23 70 04 bf 53 97 78 bf ba 15 1a 3f
       0.032027878 -0.5173361 -0.971059 0.601894
000360 a1 24 1c be be 4f 44 3f dc c2 8c bf 4c 8f 28 bf
       -0.15248348 0.76684177 -1.0996966 -0.65843654
000370 c8 5e 87 be fd be 82 3f 73 b0 a8 be 4f d4 c8 3e
       -0.264395 1.0214535 -0.3294712 0.3922448
000380 c9 63 1c be 2c 74 8c bf 17 f0 5b 3e c5 56 5c bf
       -0.1527244 -1.0972953 0.21478306 -0.860699
000390 62 6d d8 3e 01 20 f6 be 38 33 33 bf f1 10 8d be
       0.42270952 -0.48071292 -0.7000003 -0.27551988
0003a0 c9 b5 27 bf 5d f8 28 3f 92 36 6a 3e 88 26 83 3e
       -0.6551176 0.6600397 0.2287238 0.25615335
0003b0 9a 87 75 bc 0f a6 74 bf e6 51 f8 3e 52 b3 c4 3d
       -0.014985943 -0.95565885 0.48499984 0.09604515
0003c0 86 68 b1 3f fa 77 a9 3f 24 4e 50 bf af e4 47 3f
       1.3860023 1.3239739 -0.81369233 0.7808332
0003d0 d6 21 30 bf 74 69 e6 3e 84 18 09 bf 0b 6a 29 be
       -0.6880163 0.4500233 -0.5355303 -0.16544358
0003e0 fe fa 11 bf a2 de 0c 3f da 60 4f 3e 7e 0b a0 3e
       -0.5702361 0.5502721 0.2025179 0.31258768
0003f0 c8 59 37 bd 31 94 de be 1f 30 85 3e 73 ae 3c 3f
       -0.044763356 -0.43472436 0.26013276 0.7370369

local1.norm.weight f4 [128]
000000 6d cd 67 3f 07 8a 1a 3f ca 04 74 3f a6 2a 8b 3f
       0.9054783 0.60366863 0.9531981 1.087239
000010 29 cb 96 3f 5a 9e cd 3f 6d 45 82 3f cf da 39 3f
       1.178075 1.606395 1.0177437 0.725995
000020 1c b5 0e 3f 82 05 a7 3f 7d 79 57 3f 5a 33 8d 3f
       0.557451 1.3048556 0.8416975 1.1031296
000030 f7 66 5c 3f a3 ad 3a 3f 0f a9 6c 3f 15 fe cf 3f
       0.8609461 0.729212 0.9244546 1.6249415
000040 18 83 60 3f 10 d8 8a 3f 5e 94 7c 3f 9c c6 90 3f
       0.87700033 1.0847187 0.9866389 1.1310611
000050 61 1c 94 3f 2d 5c 3d 3f 5b 48 9a 3f 8c 86 39 3f
       1.157116 0.73968774 1.2053331 0.7247093
000060 2d 66 11 3f 4d e9 5c 3f 16 69 53 3f ab f4 bb 3f
       0.5679653 0.8629349 0.82582223 1.4684042
000070 78 6b 69 3f 00 b6 18 3f 90 46 57 3f 87 43 93 3f
       0.9117961 0.5965271 0.84092045 1.1504983
000080 36 67 81 3f 90 b8 82 3f fc c0 7d 3f 26 96 89 3f
       1.0109622 1.0212574 0.99122596 1.0748947
000090 26 3a 96 3f 8a b0 44 3f bb c6 66 3f c3 aa 8a 3f
       1.1736495 0.7683188 0.9014699 1.0833362
0000a0 98 bb 96 3f 40 24 6d 3f d0 85 43 3f c4 4c 18 3f
       1.1775999 0.9263344 0.76376057 0.59492135
0000b0 fb 23 89 3f 92 a9 69 3f 62 b1 7a 3f 00 3c 21 3f
       1.0714105 0.9127437 0.97926915 0.6298218
0000c0 32 2d 55 3f b8 e5 a4 3f f0 2d 9c 3f a1 5e 8d 3f
       0.8327209 1.2882605 1.2201519 1.1044503
0000d0 b4 fa 78 3f 53 d4 8b 3f 10 8f 76 3f f4 81 8b 3f
       0.9725754 1.0924171 0.96312046 1.0899034
0000e0 1c 86 8c 3f 42 af 30 3f 15 4b 48 3f 10 39 3a 3f
       1.0978427 0.6901742 0.78239566 0.7274332
0000f0 bc be 3e 3f 72 23 3f 3f b1 2d 48 3f 7d 2a 42 3f
       0.7450979 0.7466346 0.7819472 0.7584608
000100 62 59 2a 3f b3 75 b8 3f ab 4a 16 3f 53 b2 6f 3f
       0.6654264 1.4410919 0.58707684 0.93631476
000110 b9 52 7e 3f 07 a7 35 3f 35 0a 86 3f a6 34 98 3f
       0.99344975 0.7095799 1.0471865 1.1891067
000120 44 66 89 3f 43 8b 2e 3f 92 00 31 3f 4d f1 39 3f
       1.0734334 0.68181247 0.69141495 0.7263382
000130 1e ae 21 3f 96 72 d7 3f 62 40 53 3f 9f 3c 09 3f
       0.63156307 1.6831844 0.82520115 0.53608125
000140 37 cb 6d 3f 40 de 6c 3f 7c 3b 82 3f 9c 0b 86 3f
       0.92888206 0.92526627 1.0174403 1.0472293
000150 fa b5 c7 3f 93 e4 32 3f 96 31 c7 3f 8a d1 8b 3f
       1.560241 0.69880027 1.5562007 1.0923321
000160 a1 ce 85 3f 7f d4 92 3f 15 31 d3 3f df 78 8f 3f
       1.0453683 1.1471099 1.6499354 1.1208762
000170 f8 4d cd 3f f7 c6 27 3f 7b 9b 82 3f 92 85 94 3f
       1.6039419 0.6553797 1.0203699 1.1603262
000180 31 21 b2 3f f0 e5 8b 3f 64 9e c8 3f f5 b1 7a 3f
       1.3916379 1.0929546 1.5673337 0.9792779
000190 4b 2d 46 3f 12 d6 57 3f c4 6b a5 3f 5b fc 7c 3f
       0.7741286 0.8431102 1.2923512 0.98822564
0001a0 56 14 81 3f 2d 67 0e 3f 7e ee 83 3f 1f b7 90 3f
       1.0084331 0.55626184 1.0307157 1.1305884
0001b0 55 20 ac 3f 55 08 6f 3f 1a 62 67 3f 84 79 78 3f
       1.3447367 0.9337209 0.90384066 0.9706042
0001c0 d0 90 8c 3f 58 17 9c 3f cc 2c 7a 3f a3 1a a1 3f
       1.0981693 1.2194624 0.97724605 1.2586254
0001d0 20 f1 e7 3f 88 41 85 3f 3a 6e 53 3f 6d c8 81 3f
       1.812046 1.0410624 0.8259007 1.013929
0001e0 ce 43 72 3f a7 11 8e 3f df 4d a4 3f 4d e1 0f 3f
       0.9463471 1.1099137 1.2836264 0.56203157
0001f0 bb 5f 46 3f 17 ff 73 3f 32 5b 1e 3f d9 fe 53 3f
       0.77489823 0.9531111 0.61857903 0.8281074

local1.norm.bias f4 [128]
000000 35 0d cd be bd eb 15 bf cc f8 44 bf 85 77 e5 be
       -0.4004914 -0.58562833 -0.76942134 -0.4481775
000010 4f 02 2d bf 57 fe 1b bf 37 7d 12 bf 8b 32 07 bf
       -0.6758165 -0.60934967 -0.5722231 -0.528115
000020 86 2a 0f bf be d9 40 bf 7b b1 e0 be 92 a0 13 bf
       -0.5592426 -0.7533225 -0.43885407 -0.57666886
000030 23 8e 2d bf e6 2f 0d bf 7d 61 f1 be 85 b4 02 bf
       -0.6779501 -0.5515121 -0.4714469 -0.510567
000040 aa 3b 17 bf 63 f7 22 bf 9f 3e 13 bf 90 c0 db be
       -0.59075415 -0.6365873 -0.5751743 -0.4292035
000050 70 cc 9f be 0b 42 c9 be 76 39 20 bf d1 fe 12 bf
       -0.3121066 -0.393082 -0.6258768 -0.5742007
000060 fb ac ec be 20 a2 1e bf b2 23 01 bf 0a 64 07 bf
       -0.46225724 -0.61966133 -0.5044509 -0.5288702
000070 ba 59 01 bf e8 0f 03 bf 4e fc 10 bf aa 32 fa be
       -0.50527537 -0.51196146 -0.56634986 -0.4886678
000080 2c a6 14 bf 7e d3 3c bf 62 c9 0f bf d5 8c eb be
       -0.5806606 -0.7376021 -0.5616666 -0.46005884
000090 3b dc 4c bf d7 57 fd be af a0 26 bf 6a 8a 62 bf
       -0.80023545 -0.4948108 -0.65088934 -0.88492453
0000a0 06 2f 0e bf 98 6e ee be 5a 11 f5 be 14 43 09 bf
       -0.555405 -0.4656875 -0.478648 -0.5361798
0000b0 d2 46 16 bf 10 64 f6 be c8 2f 40 bf 59 1d 05 bf
       -0.58701813 -0.48123217 -0.7507291 -0.51997906
0000c0 95 6d 3d bf 76 c1 e9 be 7b f3 10 bf 7b 24 b7 be
       -0.73995334 -0.4565541 -0.5662152 -0.3577002
0000d0 af 5d d2 be 51 d2 bb be 5f 08 cf be bf ca 46 bf
       -0.410871 -0.36683896 -0.40436074 -0.77653116
0000e0 ba da c5 be c2 de 08 bf 45 ac f7 be 9e e7 fd be
       -0.38643438 -0.534649 -0.4837362 -0.49590772
0000f0 63 bd e5 be 3f ae 0a bf 46 d5 0d bf 3c b4 e8 be
       -0.44871053 -0.5417213 -0.55403554 -0.45450008
000100 52 ce d6 be 5f 91 84 be 89 d4 25 bf 04 bd 25 bf
       -0.41954285 -0.2589216 -0.6477743 -0.6474154
000110 2e 47 08 bf 18 3f 2d bf d5 70 17 bf 33 ae 2a bf
       -0.5323361 -0.676744 -0.59156543 -0.66672057
000120 b7 4d 2d bf cc 2d f1 be af 6d 18 bf f2 2a 08 bf
       -0.6769671 -0.47105253 -0.59542364 -0.5319053
000130 26 00 1c bf 29 8a 2e be 6a fb 0d bf 0f 53 17 bf
       -0.60937726 -0.17044891 -0.5546175 -0.5911111
000140 d2 65 ca be 28 1e 0c bf d7 cb f8 be 90 0e 35 bf
       -0.39530808 -0.54733515 -0.48593017 -0.70725346
000150 fe 3c b9 be c8 b5 cd be 20 71 ad be 78 0f e8 be
       -0.36179346 -0.4017775 -0.3387537 -0.45324302
000160 11 a4 32 bf cb 93 fa be 51 5e 0d bf dd 0e c2 be
       -0.69781595 -0.48940882 -0.5522204 -0.37901965
000170 50 6b 03 bf ce 1f ef be 14 db 00 bf b4 d7 1e bf
       -0.5133562 -0.46703953 -0.50334287 -0.62047887
000180 1e 31 01 bf cb 58 35 bf 2f 6f a4 be 09 41 16 bf
       -0.5046557 -0.7083861 -0.32116076 -0.58692986
000190 ee 43 f1 be f5 3c 51 bf 35 a8 b1 be d1 ed 31 bf
       -0.4712214 -0.8173364 -0.34698644 -0.69503504
0001a0 a9 da f0 be 50 2c 37 bf c7 60 99 be 56 4b 53 bf
       -0.47041824 -0.7155199 -0.29956648 -0.8253683
0001b0 eb 0c 0c bf 1e 55 0d bf f4 5a 0a bf e6 56 dc be
       -0.5470721 -0.55208004 -0.54045033 -0.43035048
0001c0 64 c4 42 bf 39 37 0f bf 5f 84 0c bf e9 d2 e3 be
       -0.7608092 -0.5594364 -0.5488948 -0.4449685
0001d0 f4 b0 48 bd 96 05 15 bf 81 fa 22 bf 16 47 c2 be
       -0.04899688 -0.5821165 -0.6366349 -0.3794486
0001e0 00 8a f0 be 21 fa 0c bf 98 9b c8 be dd 3b 5f bf
       -0.46980286 -0.55069166 -0.3918121 -0.8720072
0001f0 da 40 3f bf 85 77 fa be c6 07 ff be fa 1e fa be
       -0.7470833 -0.4891931 -0.49810618 -0.48851758

local2.conv.bias f4 [128]
000000 64 95 ee 3e 3d 09 41 3e f4 20 0f 3f f6 10 40 3e
       0.4659835 0.1885118 0.5590966 0.1875647
000010 d4 bf 1b 3e 9e e2 ad 3e 4e 85 85 3e 8e 38 8a 3e
       0.15209895 0.33961958 0.26078266 0.26996273
000020 18 7b a0 3e 4e 9e 9c 3e 13 43 52 3e bf de 90 3e
       0.31343913 0.30589527 0.205334 0.28294942
000030 c4 94 ff 3e de 07 c3 3e 56 46 ac 3e cd f9 50 3f
       0.49918187 0.3809194 0.33647412 0.81631166
000040 5b 99 f9 3e d5 1c fb 3e 08 49 c7 3e f1 b8 5b 3e
       0.48749813 0.49045435 0.38922906 0.21457268
000050 f3 c0 92 3d e9 56 a6 3f ba ae 8d 3e 3f 4f 5b 3e
       0.071657084 1.2995273 0.27672368 0.21416949
000060 fd c2 65 bf ec 79 f4 3e 34 06 b6 3e 66 35 8c 3e
       -0.89750654 0.4774927 0.35551608 0.2738449
000070 b7 fb 90 3e 03 1d b7 3e da 63 6f be 36 8e 8d 3e
       0.28317043 0.35764322 -0.23377934 0.2764756
000080 6f 30 20 3e 23 cb de be 88 89 ed 3e 6e 79 53 3b
       0.15643476 -0.43514356 0.4639399 0.0032268423
000090 8d 4e cc 3e 68 e9 a2 3e 14 e6 ae 3e f3 ab b1 3e
       0.3990368 0.318187 0.3415991 0.347015
0000a0 6c f7 30 3e 14 08 89 3d f2 74 bc 3e a3 59 68 3e
       0.17281884 0.06690994 0.36807972 0.22690444
0000b0 d5 03 86 3e cd 6a 9c 3e 1d a0 fa 3d 6b 5e c9 3e
       0.261748 0.30550233 0.122375704 0.39329848
0000c0 a0 9a e1 3e 3e a5 ae 3e 94 f1 ff 3e 84 ee 66 3e
       0.44063282 0.34110445 0.49988997 0.22551924
0000d0 46 89 af 3e ff bc f8 3e 45 f5 3b 3f 9b 40 ac 3d
       0.3428442 0.48581693 0.73421127 0.0841076
0000e0 11 1d 3e 3e d7 e9 e9 3e 5c 79 16 3f 45 ba 03 3f
       0.18565775 0.45686218 0.5877893 0.514561
0000f0 ff 23 8c 3e 2f ac 4a bf 01 f7 42 3e 62 7b 24 3f
       0.27371213 -0.7916898 0.19039537 0.6425077
000100 17 c3 c9 3e c8 db fe 3e d4 0e 8f 3e 77 fa c2 3e
       0.39406654 0.49777055 0.27941 0.38081715
000110 a3 11 87 3e 61 5c 01 3f 52 65 c5 3d 96 83 dd 3e
       0.26380643 0.50531584 0.09638466 0.43264455
000120 2c 7b 78 3e 7b 89 80 3e eb bc 21 3e ff 40 07 3f
       0.24265736 0.2510489 0.15794723 0.5283355
000130 fd b1 c3 3e d7 8c 3d bf 03 c8 b6 3e af 85 5f 3e
       0.38221732 -0.7404303 0.35699472 0.2182834
000140 af 46 be 3e 2d 5a 02 3f 10 80 b2 3f e4 e5 af 3d
       0.37163302 0.5091885 1.3945332 0.0858877
000150 c9 84 8e 3e e8 98 1a 3e 29 ef 9b 3e 1f 5e d0 3c
       0.27835682 0.15097392 0.30455902 0.025435505
000160 da 12 8d 3e df 6b bd 3e e5 6b 11 bf 25 9c 8e 3e
       0.27553445 0.36996362 -0.5680526 0.27853504
000170 98 22 c9 3e a7 92 9d 3e 73 dd 5f bf 3d 5d 9b 3e
       0.39284205 0.3077595 -0.8744728 0.30344573
000180 23 6c 05 3e 27 36 12 bf aa 07 06 3f 41 1a ca 3e
       0.13029532 -0.5711388 0.52355444 0.39473155
000190 40 75 2e 3f a5 ce 9d 3e df f6 e8 3e cb 91 f2 3e
       0.6814766 0.3082172 0.45500848 0.47376856
0001a0 0d f6 3a 3e 8a 3e 96 3e 68 64 d5 bd 48 01 3a 3f
       0.18257923 0.2934459 -0.104195416 0.72658205
0001b0 56 a1 9d 3e a6 25 08 3f 46 5b 80 3e 1a 92 aa 3e
       0.30787152 0.53182447 0.25069636 0.33314592
0001c0 65 c2 87 3e 73 15 a4 3d 2f 77 ad 3e 30 65 d5 3e
       0.265155 0.080119036 0.33879992 0.41678762
0001d0 e4 71 a6 3e 55 3d 70 3e 3f 0b 87 3e 27 85 e5 3d
       0.32508767 0.23460896 0.26375768 0.112070374
0001e0 70 02 e5 3e dc bc 8f 3e aa e3 73 3f a7 a2 41 3e
       0.44728422 0.28073776 0.9526926 0.18909703
0001f0 cf ee d5 3e 28 b5 1a 3e ae 4b d1 3e 2a 6f b7 3e
       0.4178376 0.15108168 0.40878052 0.35827

local2.conv.lin.weight f4 [128, 128]
000000 c0 49 b3 3e df b1 49 3e 14 1e 4f 3e 82 10 3d 3e
       0.35017204 0.19696759 0.20226318 0.18463328
000010 90 54 88 3d a0 c2 47 be 79 4f 1b 3e af c8 78 bd
       0.06656754 -0.19507837 0.15167035 -0.06073826
000020 18 45 74 be b3 c9 c9 be 24 d1 98 3e 27 ba 3c 3e
       -0.23854482 -0.39411697 0.29847062 0.18430386
000030 f9 f9 d5 3c 7c 37 ab 3e c1 1c 2f 3f d7 bb 10 3f
       0.026120173 0.3344077 0.6840325 0.5653662
000040 1f e1 a3 3e 28 bf 87 3e 69 ed 16 3e 1a 46 b7 3e
       0.3200769 0.26513028 0.14739002 0.3579567
000050 21 51 29 bf 8a 14 f4 3d a5 35 1f 3f bb 5a d7 bd
       -0.6613942 0.1191798 0.6219123 -0.10515352
000060 4a 47 87 3c 70 20 d8 3e 68 10 7c 3e 3c cd 3f 3e
       0.016513485 0.42212248 0.24615633 0.18730634
000070 6a 5f 00 be 4e 7f 47 3e e1 ab 78 3e 47 6c db 3e
       -0.12536398 0.19482157 0.24284317 0.42856047
000080 34 d8 80 3e f5 2e 13 3e f4 33 4e be f1 96 93 3e
       0.2516495 0.14373381 -0.20137006 0.28826097
000090 83 56 da be 88 82 7a be 16 bf 29 be 6c 0a 23 3f
       -0.42644128 -0.24463856 -0.165768 0.6368778
0000a0 2b c1 c5 3e a0 6a fd 3e b0 2f 0b 3f 5b e0 28 be
       0.38623938 0.4949541 0.5436964 -0.16491835
0000b0 39 86 ae 3c cf 5c 3f 3e e3 62 f0 3e e4 81 31 be
       0.021304237 0.18687747 0.46950445 -0.17334706
0000c0 97 05 30 3f 60 53 ff be 31 2a a4 3e 3b 7d 20 bf
       0.6875853 -0.49868298 0.3206344 -0.62691087
0000d0 53 84 de 3e 0f 77 ce be 0d 09 0f 3e 06 85 5d 3f
       0.4346033 -0.4032521 0.13968296 0.865311
0000e0 60 a4 9d 3e 7a 61 aa 3e 8f 55 67 3e 3a 31 c8 be
       0.3078947 0.33277494 0.22591232 -0.39100057
0000f0 1c 42 f5 3e e6 97 ca 3e d1 8d 70 3e cd 26 d3 3e
       0.47902 0.39569014 0.23491599 0.4124054
000100 7d 46 6f 3e 7f 24 66 3c c5 70 16 be 83 d1 54 3f
       0.23366733 0.014046787 -0.14691456 0.8313219
000110 b5 5f a5 3d 63 a0 03 be 87 df d0 3c e8 cb 18 bf
       0.08074895 -0.12854151 0.025497211 -0.59686136
000120 7c 5f c6 3d e5 1b 8c 3e b4 51 c9 3d 48 35 0f 3f
       0.09686181 0.27365032 0.09830037 0.55940676
000130 77 9d 2d 3e 06 68 bb 3e b4 4e 79 be c1 3d 4a 3c
       0.169546 0.366028 -0.24346429 0.012343825
000140 92 75 52 3e b6 78 22 bf 21 73 e3 bb 34 7c c0 3e
       0.20552662 -0.6346544 -0.0069412147 0.3759476
000150 f2 b6 3c 3f 05 ff 1f be 23 c5 46 be b4 95 9e be
       0.7371665 -0.15624626 -0.19411139 -0.3097359
000160 23 9e 36 3f 60 c8 95 be 3f 48 e5 bd 3c b0 8d 3e
       0.7133505 -0.29254436 -0.111954205 0.2767352
000170 c7 fc 33 bd 3b 25 d9 bd 7b 7d af 3e 26 bb 79 be
       -0.04394224 -0.10602804 0.34275422 -0.24387798
000180 51 3e 20 be d3 ea 4b 3f f2 dd 1b 3f 7a d9 03 3f
       -0.15648772 0.7965519 0.60885537 0.5150372
000190 b9 78 79 bd 7c 75 22 bc 87 74 90 3e 7b df fa 3e
       -0.060906146 -0.009915706 0.28213903 0.48998627
0001a0 47 ab 97 be 77 21 05 3f 9c 27 d8 be 50 04 5f 3e
       -0.29622862 0.5200419 -0.4221772 0.21778989
0001b0 92 e2 bf 3d 1f df 40 3f b6 29 38 3f 68 60 d7 3d
       0.09369387 0.75340456 0.71938646 0.10516435
0001c0 0e 3d 0d 3f 86 89 21 3f c1 e5 67 bc 54 19 e2 3e
       0.5517129 0.6310047 -0.014153899 0.4415995
0001d0 5e 8f 01 3f ed df 0b 3e 0a fc 57 be 55 ec 3a bf
       0.50609386 0.1365964 -0.21092239 -0.73016864
0001e0 fc 23 bc 3e d1 1a ab 3e c5 3d 89 3e 29 8e 55 3f
       0.36746204 0.33418897 0.2680494 0.83420044
0001f0 dc 70 ad 3e 4c ee 3c 3f 07 d0 14 bf ab 64 b7 3e
       0.33875167 0.7380111 -0.58129925 0.3581899
000200 cf 73 2f 3e 01 8a 3a bf 7f 4a c9 bd 42 82 92 bf
       0.17134021 -0.7286683 -0.09828662 -1.1446002
000210 2b 18 31 3f 4f 61 ee 3e e2 79 09 be c2 3a f2 be
       0.691775 0.46558616 -0.13425401 -0.47310454
000220 ba be 28 bf 6a 11 36 3d 66 ac a8 3e 56 68 17 bf
       -0.65916026 0.0444502 0.3294403 -0.5914358
000230 5a de 19 3d d6 74 29 be 9d 17 f2 bd 5a bb bf 3e
       0.037565567 -0.16548476 -0.1182091 0.37447625
000240 d9 95 6b be 1b 4f 44 be 3f 9b c3 3e d6 35 bb bf
       -0.23006381 -0.19170801 0.3820438 -1.4625804
000250 f4 d8 8d 3e e7 dc 3d 3e 6e 18 00 bf 40 0e 82 bf
       0.27704585 0.18541299 -0.50037277 -1.0160599
000260 7b de 1d bf d9 ba f8 3d 27 a2 29 3f ad bd 6d 3f
       -0.61667603 0.12145013 0.6626305 0.9286755
000270 bd 55 cd be ce 28 47 bf 3c 04 d0 bd af 70 ec 3c
       -0.40104476 -0.7779664 -0.10157058 0.028862325
000280 d7 c3 c0 3e b7 5d 9c 3e 4b 26 70 be 37 0e cd bb
       0.37649414 0.3054025 -0.23452108 -0.006257798
000290 ac 5b 1b 3f a2 1f db bb 71 ed 50 3f eb 40 0a bf
       0.60686755 -0.0066871205 0.81612307 -0.54005307
0002a0 2a 7c 1a 3e ee 12 29 be 7e 1b 1e 3e de f7 3e bf
       0.15086427 -0.16511127 0.15440175 -0.74596965
0002b0 71 1d 71 3f 63 cb bd 3e b4 9a 90 3e 71 c7 0c bf
       0.9418555 0.37069234 0.2824303 -0.54991823
0002c0 12 9b ac be b4 26 80 3e 5e 05 56 3f 49 99 5a 3e
       -0.3371206 0.25029528 0.8360194 0.21347536
0002d0 d2 1e 8f 3c d7 89 92 3e cb fe aa 3e 8a 2f a9 bd
       0.017470751 0.28620788 0.33397517 -0.082610205
0002e0 13 35 5f bd 9a da 27 3e b4 85 86 bd 8a 2b 7e bf
       -0.054493975 0.16391984 -0.065684706 -0.99285185
0002f0 a5 a0 03 bf b5 30 fc 3d 1f a7 09 3e 39 82 3a 3e
       -0.51417 0.12313978 0.13442658 0.18213739
000300 04 f9 d7 3d 7f 49 c2 3e 60 42 1e bf db 7d 79 bd
       0.10545543 0.37946698 -0.6182003 -0.06091104
000310 7b 55 8d 3e 60 51 31 bf b9 4f 3b bf 95 c3 ad 3e
       0.2760428 -0.69264793 -0.7316852 0.3393828
000320 ae 3f 9a 3e 68 15 12 bf d3 77 2a bf 8e 4a 0a 3e
       0.3012671 -0.57063913 -0.6658909 0.13505003
000330 bd 3b 9c 3e d6 b6 b0 3e 28 56 c8 3e 91 de 41 bf
       0.30514327 0.34514493 0.39128232 -0.75730234
000340 b0 b5 00 3e f4 92 7d be 71 3a 0c 3f 13 c6 58 3e
       0.12569308 -0.2476309 0.54776675 0.2116931
000350 33 97 2c 3e 38 9e 04 bf 51 c2 ea 3e 0e 7a 80 3e
       0.16854553 -0.5180392 0.45851377 0.2509312
000360 7d 22 eb be a1 c3 bc 3e cb 63 3d 3e 11 b2 0c 3f
       -0.4592475 0.36868003 0.18495099 0.5495921
000370 90 13 01 3f ef ed 33 bf e2 68 22 bf 90 e3 47 bf
       0.50420475 -0.7028493 -0.6344129 -0.7808161
000380 80 ed 56 bf c3 4e 9e be 6b 85 5a 3d 04 f4 0d 3e
       -0.83956146 -0.30919465 0.053349894 0.13862616
000390 50 bd 18 bc b7 af 86 3e 71 42 b0 3e 0d e4 8b 3e
       -0.009322479 0.26305935 0.3442569 0.27322426
0003a0 44 67 0f be b3 27 17 be 1b 54 3b bf 14 17 f0 bd
       -0.14004236 -0.14761238 -0.7317521 -0.11723152
0003b0 5d 08 9e bf 51 cd de be 45 3b 24 be 00 66 14 bf
       -1.2346302 -0.4351602 -0.16038235 -0.5796814
0003c0 3c 89 8b 3d 67 d2 80 bf 69 ae 6e 3f cc e4 00 3e
       0.06813285 -1.006421 0.9323488 0.12587279
0003d0 08 8e cd 3e 4b 1c 13 3e 6f 92 d1 3e 94 1d ef 3e
       0.40147424 0.14366262 0.40932032 0.46702254
0003e0 32 6e e5 bc db 25 68 be 1c 4d 83 bf d2 77 e0 3e
       -0.028006647 -0.2267069 -1.0257907 0.43841416
0003f0 53 64 76 bf 0c 2c 18 bf 46 08 21 bf 9a 4d 2a 3e
       -0.9624683 -0.5944221 -0.6290325 0.16631165

local2.norm.weight f4 [128]
000000 77 cc fb 3e 39 9a 8f 3f 1b 53 12 3f 4d 42 58 3f
       0.49179432 1.121894 0.5715806 0.84476167
000010 a2 28 57 3f 8c bb 29 3f 43 6b 94 3f 48 06 12 3f
       0.84046376 0.663018 1.1595234 0.57040834
000020 26 90 6a 3f 17 6f 2a 3f 20 fb 54 3f 4c c0 6b 3f
       0.91626203 0.6657576 0.83195686 0.92090297
000030 b4 19 14 3f d8 72 53 3f 3f 41 38 3f 55 4c bb 3e
       0.5785172 0.8259711 0.7197456 0.36581674
000040 8f 58 06 3f b7 75 28 3f 2d c3 3c 3f b5 df 46 3f
       0.5247888 0.6580462 0.73735315 0.776851
000050 b2 a9 34 3f d4 80 65 3e a1 ef 56 3f 42 73 95 3f
       0.70571434 0.22412425 0.83959395 1.1675799
000060 0a 75 27 3f d5 96 1a 3f 06 24 81 3f 13 36 3e 3f
       0.6541296 0.603864 1.0089118 0.7430126
000070 7b 6b 47 3f 87 fa 1a 3f b7 0a 74 3f 3c c9 5c 3f
       0.7789838 0.60538524 0.9532885 0.8624456
000080 83 34 cd 3f f1 71 c8 3f dc e6 ed 3e 4d 69 78 3f
       1.603165 1.5659772 0.46465194 0.97035676
000090 57 3c 44 3f 58 cc 45 3f 75 c8 37 3f 7e 53 64 3f
       0.7665457 0.7726493 0.7179025 0.891899
0000a0 75 73 70 3f ca 2a a6 3f 2e d0 3f 3f 1a 9d a3 3f
       0.93926173 1.2981808 0.7492703 1.2782319
0000b0 af af a6 3f d4 5e 5d 3f 96 de ba 3f 44 32 1f 3f
       1.3022364 0.8647282 1.4599178 0.62186074
0000c0 71 e1 28 3f 3e e5 69 3f 29 12 14 3f 58 1c 32 3f
       0.65968996 0.9136542 0.5784021 0.695745
0000d0 e1 d8 54 3f ab cb 1e 3f 2a 4b 19 3f 72 b4 ad 3f
       0.8314343 0.6202952 0.59880316 1.3570693
0000e0 80 5b ca 3f 55 c9 31 3f ac 8a df 3e 18 63 01 3f
       1.5809174 0.69447833 0.43660486 0.5054183
0000f0 50 d3 75 3f 35 90 1b 3f 80 92 48 3f 34 11 dc 3e
       0.9602556 0.6076692 0.7834854 0.42981875
000100 ec df e8 3e 5e a4 2b 3f b9 08 7e 3f 41 63 41 3f
       0.4548334 0.6704768 0.9923206 0.75542074
000110 27 94 54 3f 05 20 20 3f 55 16 7d 3f b6 f6 1e 3f
       0.8303856 0.6254886 0.988622 0.620952
000120 db a4 4d 3f cf b3 3d 3f e3 58 86 3f 18 eb 1d 3f
       0.80329674 0.7410249 1.0495876 0.6168685
000130 17 c2 37 3f e6 ec 9a 3f 06 d5 1b 3f d3 51 5f 3f
       0.7178053 1.2103546 0.6087192 0.8723423
000140 f8 60 9a 3f b8 dc 19 3f f5 2f 43 3e cd 6c 97 3f
       1.2060843 0.60102415 0.19061263 1.1830078
000150 c8 d5 8e 3f 04 39 b0 3f 41 2a 35 3f fc 36 8e 3f
       1.1158991 1.37674 0.707676 1.111053
000160 be 9a a5 3f 84 01 37 3f 64 10 0b 3f 63 56 bc 3f
       1.2937849 0.7148669 0.54321885 1.4713863
000170 ab 76 ff 3e cf a6 bd 3f 07 7c 93 3f 8a 9e 41 3f
       0.49895224 1.4816531 1.1522225 0.75632536
000180 1e 78 6f 3f 1a 36 11 3f 4d 83 03 3f 39 57 48 3f
       0.9354266 0.5672318 0.51372224 0.7825809
000190 71 db 1c 3f 6c b0 8b 3f bb 4c 15 3f cb eb 15 3f
       0.6127234 1.0913215 0.58320206 0.58562917
0001a0 20 0d 50 3f 83 50 77 3f 08 4e 6a 3f a1 fb cd 3e
       0.8127003 0.96607226 0.91525316 0.4023104
0001b0 f6 7e 8d 3f 76 14 5d 3f a9 dd 2b 3f fd 64 34 3f
       1.105437 0.86359346 0.671351 0.70466596
0001c0 f6 83 72 3f 37 c1 72 3f eb f8 1c 3f e9 7d 63 3f
       0.94732606 0.9482607 0.6131732 0.88864
0001d0 63 0e 8e 3f 05 e1 8b 3f 01 4e 86 3f 8d 66 24 3f
       1.109814 1.0928046 1.0492555 0.6421898
0001e0 bf 8c 1c 3f 30 d9 8d 3f 4e a4 ba 3e 69 18 2a 3f
       0.6115226 1.1081905 0.3645348 0.66443497
0001f0 d9 95 4c 3f 2d 8d b8 3f a8 93 03 3f 05 0a 1c 3f
       0.7991615 1.4418083 0.5139718 0.6095279

local2.norm.bias f4 [128]
000000 d4 fc c1 be fd 2e c4 be 18 db 1a bf dd 96 b7 be
       -0.37888205 -0.383171 -0.6049056 -0.35857287
000010 23 9c 90 be 61 e8 a9 be 21 3b 0a bf 2b 13 cc be
       -0.28244123 -0.33185104 -0.53996474 -0.39858374
000020 b5 b1 96 be 01 33 d9 be b5 df 9e be 45 57 c7 be
       -0.29432455 -0.42421725 -0.3103005 -0.3893377
000030 19 5f 23 bf 82 fa c7 be a7 6c 07 bf 16 42 2a bf
       -0.6381698 -0.3905831 -0.52900165 -0.6650709
000040 c0 9a de be 4f 4d 1e bf 88 ed 8a be 61 1a a3 be
       -0.4347744 -0.61836714 -0.27134347 -0.31856063
000050 9c 0a 85 be 1f c0 3f bf 00 57 a8 be a1 d2 0b be
       -0.25984657 -0.7490253 -0.32878876 -0.13654567
000060 fc 6f 98 be 2b 2f 0b bf e7 5c c9 be 19 f4 ac be
       -0.29772937 -0.5436885 -0.3932869 -0.33779982
000070 7a d4 17 bf 06 8f fa be 30 80 22 be 52 6f da be
       -0.5930859 -0.48937243 -0.15869212 -0.42663056
000080 f5 cc 8b be 33 a8 25 be 0d df 00 bf e6 d6 92 be
       -0.27304807 -0.16177444 -0.5034035 -0.2867958
000090 b6 29 11 bf bd 14 92 be bc 2b 07 bf a6 0a 06 bf
       -0.5670427 -0.28531447 -0.5280111 -0.5236
0000a0 1d 62 d5 be ff 01 f6 be 02 6c f6 be b0 5c 94 3d
       -0.41676417 -0.48048398 -0.48129278 0.07244241
0000b0 7b cc 9b be 22 a1 a5 be c3 4b ac be ed 11 c9 be
       -0.30429444 -0.32349497 -0.33651552 -0.3927149
0000c0 1c ec f1 be 54 68 ad be 3a d1 f4 be 09 04 d0 be
       -0.4725045 -0.3386866 -0.47815877 -0.4062808
0000d0 72 d0 ec be d7 a3 38 bf d9 a3 15 bf 8e a8 63 be
       -0.4625278 -0.72125 -0.58453137 -0.22232267
0000e0 bc 66 65 bd e4 90 f5 be d2 68 1e bf db 4c 12 bf
       -0.05600618 -0.47962105 -0.61878693 -0.5714852
0000f0 4b 64 c3 be 13 e6 e7 be 6d 01 b8 be c1 fb 0c bf
       -0.38162455 -0.4529272 -0.35938588 -0.55071646
000100 7e 52 b7 be dc 65 23 bf bd 33 ce be 69 4a aa be
       -0.35805124 -0.638273 -0.40273848 -0.33259895
000110 40 b8 d1 be 0e 3f 36 bf f5 5f a5 be 0a 67 12 bf
       -0.40960884 -0.71189964 -0.32299772 -0.57188475
000120 83 9c 91 be cb 68 c9 be ad 0d c0 be 2d 31 0b bf
       -0.2843972 -0.39337763 -0.37510434 -0.5437191
000130 0e 1f ff be cf 37 91 be 5b b9 c1 be 27 3b b3 be
       -0.4982838 -0.2836289 -0.37836727 -0.35006067
000140 5e f0 cc be a6 ec 17 bf 64 4d 3f bf 28 62 90 be
       -0.40027136 -0.5934547 -0.74727464 -0.28199887
000150 d4 08 97 be 84 ae 53 be 9b 32 cd be 3c 48 8c be
       -0.29498923 -0.20672041 -0.4007767 -0.2739886
000160 61 12 a6 be c7 58 1c bf 94 0e 0e bf 98 4a 7c be
       -0.32435897 -0.61072963 -0.55490994 -0.2463783
000170 e7 a6 c7 be 67 3d 71 be f4 57 95 be 89 36 2c be
       -0.38994524 -0.2355858 -0.29168665 -0.16817679
000180 db e8 88 be 81 28 02 bf f5 e9 0d bf b0 a8 dc be
       -0.26740155 -0.50843054 -0.55435115 -0.43097448
000190 60 1d 2b bf 21 91 88 be 65 68 0b bf a9 82 e4 be
       -0.668417 -0.26673225 -0.5445617 -0.44630936
0001a0 13 47 b1 be 2c a0 44 be b8 1f 45 be f4 75 26 bf
       -0.34624538 -0.19201726 -0.19250381 -0.6502373
0001b0 36 0d b6 be 2f 22 a5 be bb 58 f7 be 53 63 d7 be
       -0.35556954 -0.32252643 -0.48309883 -0.42067966
0001c0 de 19 0c bf e9 e0 de be 34 ea d6 be ff c7 0f bf
       -0.5472697 -0.43530968 -0.41975558 -0.56164545
0001d0 a2 79 b3 be 50 87 04 be a4 71 13 be 81 0b 77 be
       -0.35053736 -0.12942243 -0.14398819 -0.24125482
0001e0 28 6d 0e bf 2e 96 81 be d5 6f 51 bf ee 45 b0 be
       -0.5563531 -0.2530989 -0.8181127 -0.34428352
0001f0 48 e3 e1 be ef 61 5a be 48 96 cd be ca c4 03 bf
       -0.44118714 -0.21326421 -0.40153718 -0.5147215
