models/eeg_loso/s_04.pt (torch, 561186 bytes, 37 tensors)

band_attn.fc1.weight f4 [8, 5]
00000000: 7a54 f33e f576 67bf 2e61 9cba 8ec0 443f
00000010: 3772 a33e 70a9 98bd 7f13 13be 7858 1ebf
00000020: 1cb0 863e 7037 373f a466 ddbe 979f 3fbd
00000030: 0873 87be 3259 a9bd 9691 833f 1fb0 3dbd
00000040: f8f6 c0bc 405e 24be 1724 c03f bc43 2ebf
00000050: 1dc5 b2bd 4947 5ebf 641b 8b3f 4ed4 d43e
00000060: 4a92 58bc aca0 3b3c c2c4 6c3e 4a61 c33f
00000070: 6cb9 813d 3bb3 7dbf 7aff 963d 47fd 613f
00000080: e54a 11bf 2fdb 0b3e c562 10bf d9df 41bd
00000090: 422b 883e 3ba1 c33e de7d d03f 2b38 003f
0.47525388 -0.9041589 -0.0011930817 0.76856315 0.31923077 -0.07454193 -0.14362906 -0.6185374
0.26306236 0.71568966 -0.4324237 -0.046783056 -0.2645495 -0.08268966 1.0278804 -0.04631054
-0.023555264 -0.16051579 1.5011014 -0.68072104 -0.087290026 -0.8682752 1.0867734 0.41568226
-0.013218472 0.011451881 0.23121932 1.5264065 0.063341945 -0.9910161 0.07372947 0.88277096
-0.56754905 0.1365783 -0.5640071 -0.04733262 0.26595503 0.38208947 1.6288412 0.50085706

band_attn.fc1.bias f4 [8]
00000000: d526 d4be 9644 42bf bc9e 5b3f a6b5 463f
00000010: 0762 2ebe ee49 d6be a7ed ba3e d2c1 26bf
-0.41435876 -0.75885904 0.85789084 0.77620924 -0.17029582 -0.4185328 0.3650944 -0.65139496

band_attn.fc2.weight f4 [5, 8]
00000000: deda 113f 65f2 1b3f 6b69 c7bf c897 58bf
00000010: 7242 803f 4a32 1c3e ca43 52c0 393c 5fbf
00000020: cf39 a0bf 98a3 1bbe 10de 803e f892 35be
00000030: acc4 babf 6670 ab3e cbc9 b73e eaea 41bd
00000040: a1e2 10be 8dd3 63bf ad1b 793e 9488 cbbe
00000050: 1320 603f 1708 853f 1f62 2ebf 9ba8 a7bf
00000060: b681 4b3f 3ea8 da3e ebdd 84be e237 cc3f
00000070: 7f3a 4e3e 688f a8bd 4829 3f3e ed6b 5b3f
00000080: 4356 033e 4899 403e ccee dc3e efdf 93bf
00000090: 0e8b f33e 9338 08c0 b0da 8f3e 8dc6 0fbe
0.5697459 0.6091674 -1.5579046 -0.846066 1.0020278 0.15253559 -3.2853875 -0.8720127
-1.2517642 -0.15199125 0.2516942 -0.17731845 -1.459127 0.3348419 0.35896143 -0.047343172
-0.14148952 -0.88994676 0.24326964 -0.39752638 0.8754894 1.0393094 -0.6811847 -1.3098329
0.794948 0.42706484 -0.2595056 1.5954554 0.20139502 -0.082304776 0.18668091 0.85711557
0.12825875 0.18808472 0.43150938 -1.1552714 0.47567028 -2.128453 0.28096533 -0.14040585

band_attn.fc2.bias f4 [5]
00000000: c2b8 5dbf b6bd cd3e 8b11 593f d90f f3bf
00000010: 000d 513f
-0.86610043 0.401838 0.84792393 -1.8989211 0.8166046

feat_proj.weight f4 [128, 21]
00000000: dadf 223f a434 c63e 33ab 2ebf 90e2 763e
00000010: b64f d7bf 4524 16bf afb0 9fbe 9052 2ebe
00000020: 7690 59bd ba71 5d3d c3dd e6bc 222a ae3f
00000030: 6a00 9d3e 79fd ad3e 113b b5be 2857 19bd
00000040: 83fe c2bd 57d9 62bd 3bbc d7bb b646 26be
00000050: 0489 c3be eb7f 88bf 06d4 a4bf d7e9 a1bf
00000060: 961a a1be d80a f3bf 3133 483e 5f82 84be
00000070: 1e42 9cbd 44a4 22ba 39b2 203d 99cc 10bd
00000080: 8f91 aabe 8efc 11bf 4901 7abf 164f 97bf
00000090: 9320 2bbf 2eac 093d 4a17 97ba f839 3fbd
000000a0: b906 d13c e83b 58be 8f81 38bf 902b f6bf
000000b0: f2d7 29bf 0af1 793f 869c da3e 7842 e83e
000000c0: 9a9b 95be 4688 323e 666d b3bc 3385 5ebb
000000d0: 5dd4 c5bc 30f6 99bf 05b6 913e 1d17 893f
000000e0: ff4a 133f 0b68 8d3d 6f9a 8a3d 0a7e 96bd
000000f0: 6214 dd3d 1fd1 2a3a 7ec5 453f 2d25 5f3f
00000100: 45dd bfbe a276 693d 43c5 2bbf 9c90 023f
00000110: 915a 4cbf 5dc1 fdbd d730 453e 46b3 8d3c
00000120: 86ff 04bc c6d5 93bd 3dec 0d3e ca90 833f
00000130: a3a7 a43f 8e4c 8c3f 2de7 403f 9194 4abd
00000140: e512 adbc ff89 abbc 1f1e 843d 1b51 ec3e
00000150: 33e9 24be 53ad 353e 5f1d 453f 0ef8 253f
00000160: e9a5 2b40 0085 b23d 7b77 763e a748 20bd
00000170: 391e 30bc a130 0ebd 0a55 b5bc bd29 c9bd
00000180: 5253 edbe 5a28 2e3f eaa5 d33f e2fe 813f
00000190: f85d a0bc 7fd6 273c 493e 0b3d 500f 423d
000001a0: 86f1 0e3f 111d aa3f 86f5 2440 45f1 803f
000001b0: 484c 7d3f 422b afbf 8bb7 a6be 2575 273d
000001c0: 9287 f6bc 0c78 0abd 30e1 273c 1796 003c
000001d0: 9c7c ed3e e060 f43e cb29 ff3e b9ab 43bf
000001e0: 3493 72be 50e6 e2bc 4761 b03c 7852 883d
000001f0: 1a09 b2bd 1f2e 0a3f 6ee6 593e 69c9 83bd
00000200: deb9 4a3c c0af 3b3f df1c c43e bf37 893d
00000210: 1c9d 3ebe 3963 803c 12e6 403c 70fb c73c
00000220: db73 a9b9 74c1 c8bf fb8c 8fbf 4d0d 013d
00000230: cda2 883e 6cfb 563d c907 013e 7e5a 143c
00000240: 029a f8bc b813 8e3c c31a 493f 35f4 a4be
00000250: c8fe 8f3f edc3 393f 3769 bf3f fdb0 4dbf
00000260: 8ee0 27bf a53a 84be 9b63 35be 75ee d7bb
00000270: 49ed c739 3535 7fbc 9274 793f c902 173f
00000280: e1b3 a43e 3953 71bf 1114 babe 691b 393c
00000290: 7506 4b3d 005e 113e 538d 23bb 607a 043f
000002a0: 08b8 0abf a410 15be 186f 15be 4f3e 873e
000002b0: 1863 e0be 1498 e7be 1f10 86bd f992 86bd
000002c0: 4ff3 a83c 5f48 cdbc b453 7e3c af2f de3f
000002d0: 2baf b63f 8024 9c3f e32c 363f 5b6d 743f
000002e0: 4b66 84bc e86b 083d 09ae 513d c8ab 943d
000002f0: bf72 b5be a3ac 7cbf b83c 8fbf 07f7 043e
00000300: 9b53 8f3f 47b0 0a3f 31f1 3dbe c992 bdbd
00000310: 156a 14bd 1ada d7bc f4e3 6abd 9280 1cbd
00000320: bca3 b43e fd42 9d3d 8da8 e13e 3f95 b53e
00000330: b8b8 82bd c0d2 80bd 5525 603d 3fbe 543d
00000340: 44dd 183d 29bc 1d3e a581 12bf 3fdd aebf
00000350: c6bb afbf 316f c3be a826 10c0 42a0 7c3f
00000360: f86c 283e 8016 2c3d e17f 40bc 82b5 aebc
00000370: f873 2f3c 85c6 59bf ed83 e1be 0783 92be
00000380: 20bf e4be 3336 17bf 8b11 3f3c b91d e63d
00000390: ced0 e1bc 670f 243e 1cac 51bf 8ead 503f
000003a0: 39ef 873f bfbb aabf d2dc c9bf 8c83 eebf
000003b0: ccd0 623f aa6a 9d3e 807d a33e bb77 10bd
000003c0: 76a4 b83c c48b 7a3c ef71 f6be cc03 e0be
000003d0: 3742 763e e0aa 8a3f c665 143f d6b7 bb3c
000003e0: af17 dfbd 4352 e0bb 9501 1d3d 2f44 b4be
000003f0: 7c95 a53f 7e4e df3f 6517 683f 1f25 1ebf
0.6362282 0.38712037 -0.6822998 0.24109864 -1.6821201 -0.5864909 -0.31189486 -0.17023683
-0.053116284 0.054063536 -0.028181916 1.3606608 0.30664378 0.33982447 -0.35396627 -0.037436634
-0.095212005 -0.055383053 -0.006583718 -0.16237912 -0.38190472 -1.0664037 -1.2877204 -1.2649487
-0.31465596 -1.8987684 0.19550778 -0.25880715 -0.07629798 -0.0006204287 0.039232466 -0.03535137
-0.33314177 -0.5702599 -0.9765821 -1.182101 -0.6684658 0.03361147 -0.0011527326 -0.046686143
0.0255159 -0.21116602 -0.7207269 -1.9232044 -0.6634513 0.9763342 0.42697543 0.45363212
-0.29220277 0.17434797 -0.021902751 -0.0033953905 -0.024149114 -1.2028255 0.28459182 1.0710179
0.5753631 0.0690461 0.06767737 -0.07348259 0.10794903 0.0006516147 0.77254474 0.871661
-0.37473503 0.056997903 -0.6709787 0.51001906 -0.79825693 -0.12390397 0.19256912 0.017297398
-0.008117562 -0.072185084 0.13859649 1.0278561 1.2863659 1.0960863 0.75352746 -0.04945809
-0.021127174 -0.020939825 0.06451058 0.4615563 -0.16104583 0.17741899 0.7699794 0.64831626
2.6820014 0.08716774 0.24069016 -0.039131787 -0.010749393 -0.034714345 -0.022135276 -0.09822414
-0.4635263 0.6803032 1.6535008 1.0155909 -0.019576058 0.010244011 0.033994947 0.047377884
0.55837286 1.329012 2.5774856 1.007363 0.9894452 -1.3685076 -0.32561907 0.040883202
-0.030093942 -0.033805892 0.01024656 0.007848284 0.46384132 0.4773016 0.49836573 -0.764339
-0.23688966 -0.027697712 0.02153076 0.06656355 -0.08693142 0.53976625 0.21279308 -0.064349
0.012373416 0.7331505 0.38303277 0.06700086 -0.1861462 0.015672313 0.011773603 0.024411887
-0.0003232051 -1.5684037 -1.1214899 0.031506825 0.26686707 0.05248587 0.12600626 0.009054778
-0.030346874 0.017343387 0.7855646 -0.32217565 1.1249628 0.72564584 1.4953984 -0.8034819
-0.6557702 -0.25825992 -0.17713778 -0.0065897056 0.0003813303 -0.01557665 0.974435 0.58988625
0.32168487 -0.9426761 -0.36343434 0.011298039 0.049566705 0.14196014 -0.0024956062 0.5174923
-0.5418706 -0.14557129 -0.1459316 0.26414725 -0.43825603 -0.45233214 -0.065460436 -0.065710016
0.020623831 -0.025058923 0.015522886 1.7358302 1.4272207 1.2198639 0.7116224 0.95479363
-0.016162058 0.033306032 0.051191363 0.07259327 -0.35439107 -0.9870092 -1.1190405 0.12984858
1.1197389 0.5417523 -0.18549038 -0.09256513 -0.03623398 -0.026349116 -0.0573463 -0.03820855
0.3528117 0.076787926 0.44073907 0.35465428 -0.063828886 -0.06290197 0.054723103 0.051939245
0.03732039 0.15403809 -0.5722907 -1.3661269 -1.3729179 -0.3817077 -2.2523594 0.98682034
0.16447818 0.042013645 -0.011749239 -0.021326784 0.010708801 -0.8506854 -0.44045964 -0.2861559
-0.44677067 -0.59067076 0.011661897 0.11236138 -0.027565386 0.160215 -0.81903243 0.81514823
1.061988 -1.3338546 -1.5770514 -1.8633895 0.8859985 0.3074544 0.31931686 -0.035270434
0.022539359 0.015292112 -0.481338 -0.43752897 0.24048696 1.0833397 0.57967794 0.022914808
-0.10893189 -0.006845744 0.038331587 -0.3520827 1.2936244 1.7445829 0.906607 -0.6177539

feat_proj.bias f4 [128]
00000000: 3d5a 4abe 92aa 58bf 7cb9 30bf 6c7d 7c3f
00000010: 1e66 a43b 5a5e 59be e426 bb3b 5f68 0ebe
00000020: bf8d aabe cce4 93be b39a 60bf 4ff2 bdbe
00000030: d9b2 393f 34bb 323f a8e6 fc3c 3a9e be3e
00000040: 7e26 14bf 1615 d93e 58e8 48bf 7887 443f
00000050: bb1b 0abf 41a6 c53e a5b1 8f3f 614b 26bf
00000060: bbac 0dbf 4c1e 40bf 08ce e23d 1ad9 2c3f
00000070: bde1 803e 0aa3 08bf 6966 20bd 902f 373d
00000080: 52c5 c93e 767e fb3e 4cae 7abd 72c0 143f
00000090: ade0 93be 83b5 10be 555f 823e 9199 85be
000000a0: 83d2 92bd 465b 0f3f 2bc5 7b3b 5c7d 22bf
000000b0: 66e8 f83d b448 32bf cff6 673f a733 f03e
000000c0: 682e e1be 4006 72bd c510 b83e 45f6 cfba
000000d0: f931 b43e 4ff4 4d3f 1c38 31be c5b0 c93e
000000e0: b724 71be 8a22 b63e 40a4 8fbe 502c bcbe
000000f0: d579 8a3d cd85 313f 1e93 893d 4902 783e
00000100: e95b 413d a77d c9be eb29 c9be 83e4 4dbf
00000110: b2c9 2a3e 1f60 213d ad05 3abe 7135 7bbf
00000120: 2344 9cbd f365 c03e 453c d73e 0ef6 823e
00000130: b082 d63c 55a4 49bf 21ea 5abf 02c3 393f
00000140: 489c 3d3e 011b 083e ed18 913e c7e5 10be
00000150: faf8 d7be d0c7 dc3e d06b 3cbf b706 8b3f
00000160: f447 85be 45d5 93be f226 8cbf f2f4 bfbe
00000170: 991c 823d 637e debe b24c 4bbf ac82 463f
00000180: 5203 da3e 2ad2 d13e 49a9 e7be 448a 003f
00000190: f841 003f cf85 88bf 1373 aabe ff6b 25be
000001a0: 82c1 c8be f155 1cbf d031 afbe 1c2d 083e
000001b0: 7214 853e 17f2 4ebf 24bf 1c3f 235f 183f
000001c0: 1c39 e5be 9e79 34be a861 8c3e 7506 003f
000001d0: b1e0 ad3f c333 7a3e 2a34 4bbf 7045 ee3e
000001e0: bc33 f8bd 4da0 5e3e 3750 503d 03ad 433f
000001f0: ba02 2bbe e392 213f 60b8 a73e 9bb3 c13e
-0.19760986 -0.8463527 -0.69033027 0.9862888 0.005017056 -0.21227399 0.0057114232 -0.13907002
-0.3331127 -0.28885496 -0.8773605 -0.3709893 0.72538525 0.698169 0.030871704 0.37230092
-0.57871234 0.423989 -0.7847953 0.7676921 -0.53948563 0.38603404 1.1226088 -0.6495877
-0.5534169 -0.7504623 0.110744536 0.6751877 0.25172225 -0.5337378 -0.039160166 0.044723094
0.39408356 0.4911992 -0.06120138 0.5810615 -0.28882352 -0.14131741 0.25463358 -0.26093724
-0.07169058 0.5599865 0.0038417082 -0.63472533 0.121537015 -0.69642186 0.90610975 0.46914408
-0.43980718 -0.05908799 0.35950294 -0.0015866241 0.35194376 0.8045091 -0.1730656 0.39392677
-0.23549162 0.35573226 -0.28055 -0.36752558 0.06761519 0.6934479 0.067175135 0.24219622
0.047206793 -0.39353678 -0.39289793 -0.80426806 0.16678503 0.03939831 -0.18166228 -0.9812842
-0.076301835 0.3757778 0.4203817 0.2557835 0.026185364 -0.78766376 -0.855135 0.72563183
0.18516648 0.13291551 0.2833933 -0.14150153 -0.42182142 0.43121195 -0.7360201 1.0861424
-0.26031458 -0.2887365 -1.0949385 -0.37491566 0.06353111 -0.434558 -0.794139 0.7754314
0.42580658 0.40980655 -0.45246342 0.50210977 0.5010066 -1.0665835 -0.3329092 -0.16154478
-0.39210135 -0.61068636 -0.3421769 0.13298458 0.2599216 -0.8083815 0.6122916 0.5952017
-0.44770133 -0.17624518 0.27418256 0.5000985 1.3584195 0.24433808 -0.7937647 0.46537352
-0.121192425 0.21740837 0.05085775 0.7643587 -0.16700259 0.63114756 0.32757854 0.3783234

local1.conv.bias f4 [128]
00000000: da2d ccbe 2565 ae3e d651 8c3f 6d57 843f
00000010: 801e 333e af9d f13e 5772 313f dbc5 613e
00000020: 34e9 9cbf 2e84 26bf 9c35 c2bd e9c2 bbbe
00000030: d324 5cbf b5bf 40bc 9c3c b73e 6f94 3d3e
00000040: 3500 353e 750d b73e 0bf1 2dbf 9c99 173f
00000050: 89cf dcbd 3924 3ebf 3b8b a73f 7250 96bf
00000060: 2145 e43e 0c1c 303f be4b 963e 378e df3e
00000070: 1d31 0cbe 72ce 293e 853c 553f 0d78 0e3c
00000080: 4420 41bf 3ad7 dfbe ab39 753e f5ae c43e
00000090: f413 1fbe 7433 e83e 34fb 963e ddf0 05bf
000000a0: 23e6 4f3e e3a3 8b3e e96e 923f e986 1cbf
000000b0: 34e2 88bf ac47 53be 4ed5 5b3f 1901 3ebf
000000c0: 0573 d73e a6b0 043e 721f 2c3d cd1a 523f
000000d0: 01f0 60be 6c5f e0be 9ce1 cabe 467c 21bf
000000e0: 48af e3be e41f 08be dea5 b3be 7b71 43bf
000000f0: 7eee fa3d f198 4f3f 2fb5 afbe 8d22 313e
00000100: e75c 103f 0a77 aabf 633f 633e 41ce abbe
00000110: 5c68 793e 6503 91be 5dc4 b8bd c752 0a3e
00000120: e3b5 893e af84 32bf 01b8 a23e b338 133f
00000130: fe39 1a3f 11fc c9be bc31 3ebf 2349 e1bd
00000140: bb89 b03f 7705 0b3d e702 29bf d088 8a3f
00000150: f276 ac3d 20cd 6f3d c1ef 6f3f 0468 c33e
00000160: d073 aabe b3a9 153e 8449 353e 6a40 f0bd
00000170: 5aa3 4fbf 17d9 cc3d e47a bb3e 1782 293f
00000180: 7808 9a3d 7879 103f 8e99 39bf edd0 37be
00000190: 4d8e 1b3e fb91 17bf 2d6f b5be 175f 573f
000001a0: 34cf 3cbf d9a4 403f ad00 953f 4129 75be
000001b0: aee0 37bc 7185 48bf b012 f0be a962 353f
000001c0: 6c9a 9ebe 7c1d 493e 972b 22bf 733a 8abe
000001d0: 7cb8 b63e 0c00 14be f220 553f 388b 7b3e
000001e0: bdd3 3f3e 1dac 4d3c 70b1 423f cd83 0a3f
000001f0: 0ae7 b53e eb71 833e 39f8 c73e b4a9 34bf
-0.39878732 0.34061542 1.0962474 1.033918 0.17492104 0.47190616 0.69315094 0.22048132
-1.2258668 -0.6504544 -0.094828814 -0.36672142 -0.8599369 -0.0117644565 0.3578843 0.18513654
0.1767586 0.35752454 -0.6794593 0.59218764 -0.10781772 -0.7427402 1.3089365 -1.17433
0.4458399 0.68792796 0.29354662 0.4366319 -0.1369061 0.16582659 0.8329547 0.0086956145
-0.7543986 -0.43718892 0.2394778 0.38414732 -0.15534955 0.45351756 0.29488528 -0.52320653
0.20302634 0.27273473 1.1440097 -0.61143357 -1.0694032 -0.2063281 0.8587235 -0.74220425
0.4207994 0.12958011 0.042022176 0.82072145 -0.21966554 -0.438228 -0.3962525 -0.6308025
-0.44469666 -0.13293415 -0.35087484 -0.7634503 0.1225252 0.81092745 -0.3431792 0.17298336
0.5639176 -1.3317578 0.22192149 -0.33555797 0.24356216 -0.28322902 -0.09021828 0.1350814
0.2689658 -0.6973371 0.3178101 0.5750839 0.6024474 -0.39450124 -0.7429464 -0.11000278
1.3792032 0.03394076 -0.66020054 1.0823002 0.084211245 0.05854523 0.9372521 0.38165295
-0.33291483 0.14615516 0.17703825 -0.11731036 -0.8110863 0.10002344 0.36617196 0.66214126
0.075211465 0.56435347 -0.7249993 -0.17950793 0.15191002 -0.59207124 -0.35436383 0.8412947
-0.73753667 0.7525154 1.1640831 -0.23941518 -0.011223001 -0.78328615 -0.46889257 0.7085367
-0.3097719 0.19640154 -0.6334776 -0.26997718 0.35687625 -0.14453143 0.83253396 0.24564826
0.18733115 0.012553242 0.76052 0.5410736 0.3552783 0.2567285 0.39056566 -0.70571446

local1.conv.lin.weight f4 [128, 128]
00000000: fe2c 6f3e 3169 b63c 30fa d3be df9b 82be
00000010: 5917 5cbd 9b83 43be b8bf 82be 8d8f 343e
00000020: a656 80bd 6433 9c3d db8e e9be 8a56 54bf
00000030: 3059 d03e 8000 833e 9898 c03d b0a1 1dbe
00000040: dfe6 a2be 7a96 9bbd 3e69 3c3f 0672 40be
00000050: cdad 5abe d00b 0d3f 098b 573d c936 b6be
00000060: 987d 2c3f b2e9 dcbe 4730 b8be f238 2a3f
00000070: 8bb2 9dbd b2a8 923e f81a 2a3e 1f2c 5e3d
00000080: 094a f93e 6a0e 563f 03fc fabe e8fa 083d
00000090: bdb0 13be 9469 013e 3570 8cbd c501 543e
000000a0: fdfd 6a3f 7881 9dbe d64c 86bd 2280 cebe
000000b0: 5500 a8be 7a21 fbbd 26b2 75be ef72 78be
000000c0: c517 ffbe 828d 86bd 351e dbbe b571 17be
000000d0: b50b 053f 2d4c a5bd ecd4 0a3d 9d60 0dbf
000000e0: 9aaf 6fbe 2d5b f03d d472 2e3f 2a0a f1bd
000000f0: ad35 b3bb 8f93 dabe 03c1 053e f56b 87be
00000100: d7ba c1bd dbd3 e23d 3ba8 f7be 99cf c0be
00000110: aef5 12bf 3e35 b8be af34 b0be 26fa 9f3d
00000120: 210f 8cbd a6fc f1bc fc63 53bf e20d 59bf
00000130: 9bda 75bd 9b3d 84be 2861 76bd 52bd d43e
00000140: ef1a 023f 1ba8 153d c5d4 9bbe cdf6 773f
00000150: 8aa0 523e 2820 0f3f 2941 ddbe fbf1 d43e
00000160: f880 293f 1df6 62be a701 cebe 3eca 083d
00000170: 1ef5 91be c83b f4bc 2613 7f3d b914 c23e
00000180: 5df2 07bf edd4 64be 68f8 d53d 8b93 b13e
00000190: 4123 98be 3c95 7bbe 1847 4ebf d708 103f
000001a0: 5d10 c7bd c5d1 123e 6cab ac3e 3bd6 e9be
000001b0: 24e0 40be ebf7 d8bd f70b 973e 7881 453e
000001c0: 421e 30be e68b a6be d2c5 633e 3ecd 5ebe
000001d0: 2854 ba3e 599f 833e 6f61 0bbf 5e33 903e
000001e0: d54a 8b3e 4b00 ef3e 20be 60be 5f19 d93e
000001f0: 885c 873e edbf aa3e c583 60be ced2 fe3d
00000200: 4bfb 81be d1bc 2bbf 6208 363e 944e c73e
00000210: f4ca 0b3f f6f2 ffbb b22b 9d3e 7bcb 843e
00000220: b94e 883e 0b83 273e 74cb fabe 0cea 4fbf
00000230: 3e3f a9be 64c4 ee3e ede4 3dbe 6539 7ebe
00000240: 7388 17bf 7de1 debe 4062 b6be f542 123f
00000250: be32 bd3d 6fd7 3fbc b647 963e 5618 5cbf
00000260: 9971 223f e96e 49bf 9246 783e 9764 80bd
00000270: c69a 093f 1610 66be b30a efbe 482c 1b3f
00000280: 2a37 df3e e51e 013f 592c 26bf d18c 71bf
00000290: e83f d2bd 0655 763f bdd3 b0be 4cc3 233f
000002a0: 512a d93e f150 953e b632 ff3e 4496 463d
000002b0: 71cc 013f dead c4be 9f15 7e3e fac9 7abe
000002c0: b1d7 74be 371c 02bd 1a68 87bf 929a 0f3e
000002d0: 294d e2be d206 c33d 3f13 10bc f264 54be
000002e0: 39d7 f8be efc1 3f3f 1b9d 133f 4cc0 e6bc
000002f0: dd0c 19be 9d45 d53d 521a 83be 2c9b 073f
00000300: adb1 25be 227d 98be 93b1 9bbe 6ac4 06bf
00000310: 77e7 a83d 26cd d8bd e5b5 c73e 33ef 14bf
00000320: 7363 533e 2947 2cbf e260 16bd 26f2 6bbe
00000330: faf0 083e 1cc6 afbe d8fa 14bf 201f 513f
00000340: cc94 9a3e 9d35 f4be ce3f 1bbe e091 353f
00000350: 089f 8ebd e37b 033f 4df5 c93e a3d8 363e
00000360: d8f1 503d 1db5 0cbf 1fdd efbe a373 433f
00000370: ba82 2cbf 005d 4b3e d85c 51bd ac59 40be
00000380: e98b 4abd 6d28 de3e 2175 13be a2ef 403f
00000390: e7d1 a03e f67a ecbe 86d2 41bf 2812 37be
000003a0: 4330 933d e4cd 58be 8b52 8cbe a95f d43e
000003b0: 6985 1f3f 8f5d 11bf 083d a3be 93c1 a53d
000003c0: 6fe1 c83e 950b 3dbf cf18 ec3e 4e11 fa3e
000003d0: 4384 c73d 285e 9fbe f160 52bf 9dd8 873e
000003e0: c4c9 10be fee2 ed3e 8106 12bf 6be0 e53d
000003f0: 9a9a 623e 4d83 f13e 1743 0b3e ff85 8e3e
0.23357007 0.022266956 -0.41401815 -0.25509545 -0.053733204 -0.19093172 -0.25536895 0.17632885
-0.06266527 0.076269895 -0.45616803 -0.8294455 0.40693045 0.2558632 0.09404105 -0.1539371
-0.31816766 -0.075970605 0.73598087 -0.18793496 -0.21355362 0.5509615 0.05262283 -0.35588673
0.6737914 -0.43147045 -0.35974333 0.6649314 -0.0770007 0.2864433 0.1661185 0.054241296
0.48689297 0.83615744 -0.49020395 0.033442408 -0.14422889 0.12637931 -0.06857339 0.207038
0.91793805 -0.3076284 -0.06557624 -0.40332133 -0.32812753 -0.122622445 -0.2399374 -0.24262594
-0.49822822 -0.06569959 -0.42796484 -0.1478947 0.5197099 -0.0807117 0.033894464 -0.55225545
-0.2340683 0.117361404 0.68143964 -0.11769517 -0.005469045 -0.42690703 0.1306191 -0.26449552
-0.09459465 0.110755645 -0.48370537 -0.37658384 -0.5740613 -0.3597812 -0.34415194 0.07811384
-0.06838823 -0.029539417 -0.8257444 -0.8478681 -0.06002293 -0.2582825 -0.06015125 0.4155069
0.5082235 0.03653727 -0.30435768 0.96860963 0.20569053 0.5590844 -0.43213776 0.41590866
0.66212416 -0.22164197 -0.40235636 0.033396 -0.28507322 -0.029813662 0.06227412 0.37906435
-0.5310419 -0.2234685 0.1044777 0.3468288 -0.29714397 -0.24568647 -0.8057723 0.5626349
-0.09719918 0.14337833 0.33724535 -0.45671257 -0.18835503 -0.105941616 0.29501316 0.1928767
-0.17199042 -0.3252861 0.22243431 -0.21757981 0.3639233 0.2570751 -0.54445547 0.2816419
0.2720553 0.4667991 -0.21947527 0.4240217 0.26437783 0.33349553 -0.21925266 0.124425516
-0.25387034 -0.67084986 0.17776635 0.38927138 0.54606557 -0.0078109456 0.306974 0.25936493
0.2662256 0.16358583 -0.48983347 -0.812165 -0.33056062 0.4663421 -0.1854436 -0.24826582
-0.5919258 -0.4353141 -0.35621834 0.5713342 0.09238194 -0.011709078 0.29351586 -0.85974634
0.63454586 -0.7868486 0.2424567 -0.06269186 0.5375179 -0.22467074 -0.4668785 0.6061444
0.43596774 0.50437766 -0.6491142 -0.94355494 -0.102660954 0.96223485 -0.34536543 0.63969874
0.42415097 0.29163316 0.49843377 0.04848315 0.5070258 -0.384139 0.24812935 -0.2449111
-0.23910405 -0.03176519 -1.0578644 0.14023808 -0.44199494 0.09522785 -0.008793651 -0.20741633
-0.48601702 0.74905294 0.576616 -0.028167866 -0.14946313 0.10413668 -0.25606018 0.5297115
-0.16181059 -0.2978297 -0.30408916 -0.52643454 0.082472734 -0.10586004 0.39005962 -0.5817749
0.20643406 -0.6729608 -0.03671349 -0.23041591 0.13373175 -0.34330833 -0.5819526 0.8168812
0.30191648 -0.47697154 -0.15161058 0.7092571 -0.069639266 0.5136091 0.39444962 0.17856078
0.05101189 -0.54963857 -0.4684839 0.7634832 -0.6738697 0.19859695 -0.051113933 -0.18784207
-0.049449835 0.43390217 -0.1440015 0.7536565 0.31410143 -0.46187562 -0.7571186 -0.1787802
0.071869396 -0.21172291 -0.27406725 0.41479233 0.6231294 -0.56783384 -0.318825 0.08093562
0.39234492 -0.738458 0.46112677 0.48841327 0.09742024 -0.31126523 -0.8217917 0.2653245
-0.14139467 0.46462244 -0.57041174 0.11224445 0.22129288 0.47170487 0.13599811 0.27836606

local1.norm.weight f4 [128]
00000000: 6eb6 3f3f 6b87 493f aa71 4a3f e16e 7c3f
00000010: 85f6 a43f 267f 913f 6279 903f 2fdd 2c3f
00000020: 3fff f13f a5fa 363f e887 183f a432 453f
00000030: f396 e33f d940 783f cecb 213f e247 843f
00000040: bc82 6b3f fce1 7c3f b2c4 313f 32d8 9a3f
00000050: 4ad5 983f 00a3 903f 20cb 753f d907 da3f
00000060: a8e2 873f 0bbf 853f 69a1 513e f122 773f
00000070: f051 da3f 1039 1b3f 0311 8e3f 9348 513f
00000080: 09df 5d3f 9a1a c03f ab69 623f 6af8 df3e
00000090: 9a5e 5d3f b317 933f b6f7 753f f390 f33f
000000a0: f9c2 453f b8d1 5f3f 9e80 793f ea3c fe3e
000000b0: 2bbd cd3f 34b9 293f 0796 7d3f 320f 4f3f
000000c0: 0bb8 533f b8bf 873f 11af a03f 637a 6f3f
000000d0: 7902 a03f c153 373f 2741 383f 7cb3 8d3f
000000e0: 1b5a 543f 9a9b 783f b76d 403f a1e1 453f
000000f0: 12ef 883f 4f1c 533f e04a 073f 5a72 5e3f
00000100: cd0e 8f3f 7119 b43f 452d 7a3f f55e 673f
00000110: f3fd 803f 10cd 9c3f fe24 373f 08a5 8e3f
00000120: 215f 8a3f 24c2 383f ca03 2b3f a0c7 553f
00000130: b67c 973f b72a d03f 807b 553f d013 883f
00000140: c95d 773f 7c55 b53f 9772 953f 0fd6 143f
00000150: 73d0 da3f 4a99 4b3f 06ff 703f 04dc 773f
00000160: d71b 6a3f 3db9 a03f 6de8 923f cd56 313f
00000170: 4d2d 593f 69c1 643f 18f2 653f c9b9 6a3f
00000180: 338a 893f 9559 673f cbd7 793f 7d34 923f
00000190: 32de 233f 09bd 7f3f 5a76 533f db46 5d3f
000001a0: 7f6c d13f 3d09 4b3f d22d 6e3f 9ef2 e23f
000001b0: 3109 813f 620f 5e3f 4c0e 623f 9dc3 913f
000001c0: 90bf c53f e3c8 773f c19d a13f b768 9b3f
000001d0: 8e56 4b3f 0ff4 683f 4c9e 713f a58e 4e3f
000001e0: 8a2d 703f 521f a03f a1a6 733f ab77 503f
000001f0: 65f6 4d3f 59c2 6f3f 7a11 563f 72a8 b03f
0.7488774 0.78722256 0.7907969 0.9860669 1.2887732 1.1366928 1.1287043 0.67525
1.890602 0.71476203 0.59582376 0.77030396 1.7780441 0.9697395 0.63201606 1.0334437
0.9199636 0.98782325 0.6944076 1.2097228 1.1940091 1.1299744 0.9601307 1.7033645
1.0616045 1.0448927 0.2047173 0.9653769 1.7056255 0.60633945 1.1098942 0.81751364
0.8666845 1.5008118 0.88442487 0.43744212 0.86472476 1.1491607 0.960811 1.902861
0.7725063 0.8742938 0.9746188 0.4965585 1.6073354 0.6629822 0.9905705 0.8088256
0.827027 1.0605383 1.2553426 0.9354612 1.2500755 0.71612173 0.71974415 1.1070399
0.8294999 0.9711243 0.7516741 0.7729741 1.0697958 0.8246507 0.52848625 0.86893237
1.1176392 1.4070264 0.97725326 0.9037927 1.0077499 1.225008 0.7154082 1.1144114
1.0810281 0.72171235 0.66802657 0.8350773 1.1834934 1.6263036 0.8339157 1.0631046
0.9662748 1.4166713 1.1675595 0.5813913 1.7094864 0.79530776 0.94139135 0.9682009
0.9144873 1.255653 1.1477181 0.6927307 0.8483475 0.8935762 0.8982253 0.91689736
1.07453 0.90371066 0.975949 1.1422268 0.6401092 0.9989782 0.82602465 0.8643624
1.6361235 0.7931097 0.93038666 1.7730291 1.008093 0.8674222 0.88303065 1.1387821
1.5449085 0.96790904 1.2626268 1.2141331 0.79428947 0.90997404 0.94382167 0.8068641
0.9381949 1.2509558 0.9517613 0.814326 0.80454093 0.93655926 0.8362042 1.3801405

local1.norm.bias f4 [128]
00000000: 442f f1be 0cfa 40bf d955 17bf fc96 38bf
00000010: 20bf 1dbf a7d2 19bf 6418 4bbf d760 cdbe
00000020: efab bcbe f824 16bf 2a9b debe 4d3a 41bf
00000030: 6b13 bdbe b551 02bf dc09 0dbf 6e10 33bf
00000040: d198 bdbe 4088 68bf e921 29bf 4026 18bf
00000050: 7052 0fbf eb51 fabe f8bd 5bbf d020 aabe
00000060: 4cda 34bf 103a 13bf bb2f 62bf 5a5f 11bf
00000070: 862f 88be f153 f3be dc9a 42bf d2da 12bf
00000080: 6db5 eabe 759a c3be 99bd 08bf 6096 3cbf
00000090: 232e 19bf e5da 03bf bd36 21bf 4791 a5be
000000a0: beca a1be aa64 18bf 8f15 7abf dfdb 35bf
000000b0: d679 c4be 9ab0 3fbf 5c84 23bf 8181 02bf
000000c0: ded4 1ebf 99e3 e0be 450f 11bf 0ba3 38bf
000000d0: d1d6 16bf bfc9 02bf 372d 31bf 0f4e dbbe
000000e0: c0bd 2abf db05 ddbe f371 e0be d9b6 eabe
000000f0: dcbe 20bf 540d febe 7844 1dbf 4393 f0be
00000100: 07cc 47bf 5371 06bf 9b66 f9be b542 f6be
00000110: d856 e4be dadc c8be 59d3 30bf 2408 febe
00000120: 20a7 06bf 562d 06bf ca5b f5be ced6 12bf
00000130: ccf8 0bbf ce7b 35be a1b8 f5be dc6a 3dbf
00000140: 3b4f 16bf 37d3 edbd 6e67 b0be 306f 0fbf
00000150: b3b5 a2be b624 04bf c487 11bf 17e3 27bf
00000160: 7256 cebe 781e d6be 374d 22bf 98c3 0dbf
00000170: 4734 3dbf 598a 28bf 6193 0bbf e5d4 f7be
00000180: 1c06 ddbe b3f9 39bf 9aaa f8be 7ed1 19bf
00000190: c626 f0be bb1d 0ebf 0baa 19bf d2ca d3be
000001a0: b261 4abe a362 13bf 7135 0fbf e4b7 07bf
000001b0: 163c 0dbf 5685 d3be 9f28 f2be 54e3 1fbf
000001c0: f1d5 0bbe 650c 0ebf b966 ba3e 6d3a fcbe
000001d0: 3036 c4be 5f87 6fbe a461 46bf 9747 10bf
000001e0: 7728 2fbf 50aa a6be d851 dfbe 3417 27bf
000001f0: c583 fcbe f7c6 2bbf 6107 d9be 3b96 cebe
-0.47106373 -0.7538154 -0.5911537 -0.72105384 -0.6161976 -0.60087055 -0.7933409 -0.40112945
-0.36849925 -0.5865016 -0.43477756 -0.75479585 -0.36928877 -0.50905925 -0.5509317 -0.69946945
-0.37030652 -0.908329 -0.6606737 -0.59433365 -0.55985165 -0.48890623 -0.85836744 -0.3322816
-0.70645595 -0.5751047 -0.8835408 -0.5678612 -0.26598758 -0.4752498 -0.76017547 -0.57365143
-0.45841542 -0.3820378 -0.53414303 -0.73666954 -0.59836024 -0.5150588 -0.6297415 -0.323374
-0.31599993 -0.595286 -0.97689146 -0.7103862 -0.38374203 -0.7487885 -0.6387384 -0.5097886
-0.6204356 -0.43923643 -0.56663924 -0.72123784 -0.58921534 -0.5108909 -0.6920962 -0.4283299
-0.66695786 -0.4316853 -0.43836936 -0.45842627 -0.6279123 -0.49619544 -0.614326 -0.46987352
-0.78045696 -0.5251667 -0.48711094 -0.48097768 -0.44597507 -0.39230996 -0.6907249 -0.49615586
-0.5259876 -0.5241293 -0.47921592 -0.57359016 -0.5467651 -0.17723009 -0.47992423 -0.7399118
-0.58714646 -0.11612552 -0.3445391 -0.56029034 -0.3177925 -0.51618516 -0.56847787 -0.65580887
-0.40300328 -0.4182012 -0.6339907 -0.5537658 -0.73907894 -0.658361 -0.5452176 -0.48404613
-0.43168724 -0.72646636 -0.4856766 -0.60085285 -0.46904582 -0.55514115 -0.6002509 -0.41365677
-0.1976383 -0.5757238 -0.5594092 -0.5301497 -0.5516981 -0.41312665 -0.47296616 -0.6245625
-0.13655831 -0.5548766 0.36406496 -0.49263325 -0.38322592 -0.23391484 -0.7749274 -0.5635924
-0.6842112 -0.32551813 -0.4361713 -0.6526978 -0.49319282 -0.6710047 -0.42388442 -0.40348992

local2.conv.bias f4 [128]
00000000: 509e 893e d68e 4e3e 52f4 063e 22a4 a3bb
00000010: aa10 f63d 0f9b 323e b302 aa3e ccb8 e6bd
00000020: 4d93 663e 7f13 56bd 8685 bb3e 968e 613e
00000030: 6198 283d 4001 633e f265 9a3e 31f6 843e
00000040: 1f09 f53d 90cd 413e c130 323e 17ee a03e
00000050: b954 ac3e 706a ebbc 583d ce3d d7eb 833e
00000060: 81fe a53e 920a 0d3d 31b3 8e3d 08f8 703e
00000070: 616c 1f3e 5050 333e a220 2f3e 988e 413e
00000080: 5e9c 933e b08c 173e 5226 823d e947 0e3b
00000090: 036d 133e b0b6 f9bb bf74 7a3e d6e5 433e
000000a0: 2ada a53e 5247 0e3e 2d5b dc3d b8bc 9fbc
000000b0: 2af1 533e 5641 853e fc75 283e 1a96 433d
000000c0: ea3a 183d b95c 743e a563 da3d 716e 5d3e
000000d0: 5197 df3e adae 043e 832b 243e dce9 41bd
000000e0: 3374 973d 7138 123e 1446 763d 0dec 173e
000000f0: 99d6 443e 2454 1a3e b6c9 cc3c 61e0 7f3d
00000100: 9e83 bc3d 4364 d03e 5c1c 003e a733 ac3d
00000110: ebff 013f 3501 853e 81d6 c33e 6f4c 4a3e
00000120: aaf9 d53e 02c9 713e ab68 4b3e 0973 3e3e
00000130: 7d38 5bbd 36a1 dd3d c796 8f3e aba8 58bf
00000140: 5f57 563e 5ec2 413e 4cc1 233e e576 373f
00000150: d1da fc3d bda4 b73e fbfd a03e c908 c83e
00000160: 0797 0a3f d3ff 72bd 9144 3a3e ea45 f73e
00000170: 6efc 163f adb4 8e3e 969e 1d3f c863 8a3e
00000180: 6aed 54bf 8bcd c73e bb1c 6c3e 70c1 5e3e
00000190: c8e4 9c3e c3e2 06bd 0f27 643e 3af3 bd3c
000001a0: 4638 893d 6fe0 80bf ab0b 623e 591b e53e
000001b0: 227b d23e b681 913e 79e2 08bd 77fa 8f3e
000001c0: 41b7 9dbc 0c11 1b3e 11a0 083f cd61 cb3e
000001d0: 4f53 aa3d ca61 bf3e 2a7d b43e b1c0 503d
000001e0: 67ad 6f3e 43f4 353e e644 123e db10 523f
000001f0: 7b88 3d3d b228 703e e2aa 163f 43e5 5e3e
0.26878595 0.20171675 0.13179138 -0.0049939314 0.12014897 0.17441963 0.33205184 -0.11265716
0.22517128 -0.052264687 0.36625308 0.22027048 0.041160945 0.22168446 0.30155903 0.2596908
0.1196463 0.18926072 0.1740141 0.31431648 0.33658388 -0.028737277 0.10070294 0.2576587
0.32420734 0.03443391 0.06967772 0.23532116 0.15568687 0.17511106 0.17102292 0.18902051
0.28830236 0.14799762 0.06354965 0.0021710342 0.14397053 -0.007620655 0.24458598 0.19130644
0.32393008 0.13894394 0.10759578 -0.019499168 0.20697466 0.2602641 0.16451257 0.04775057
0.03716556 0.23863496 0.10663537 0.21624161 0.43670133 0.12957259 0.16032223 -0.047342166
0.0739521 0.14279343 0.060125425 0.1483614 0.19222488 0.1507116 0.024998527 0.062469844
0.092047915 0.40701494 0.12510818 0.084082894 0.50781125 0.25977483 0.3824959 0.1975572
0.4179204 0.23611835 0.19864146 0.1859857 -0.05352067 0.10821764 0.2804472 -0.84632367
0.20931767 0.18921801 0.15991706 0.71665794 0.123464234 0.35867873 0.31443772 0.39069203
0.541367 -0.059326004 0.18190219 0.48295528 0.5897893 0.2787222 0.6157011 0.27029252
-0.83174765 0.39024004 0.23057835 0.21753478 0.30643296 -0.0329311 0.22280525 0.023187269
0.067001864 -1.0068492 0.22074763 0.44747427 0.41109568 0.28419274 -0.033419106 0.28120777
-0.019252421 0.15143222 0.5336924 0.39723054 0.08316671 0.37379295 0.35251743 0.050965015
0.23405991 0.1776896 0.14284095 0.8205697 0.046272736 0.23453024 0.58854496 0.21767144

local2.conv.lin.weight f4 [128, 128]
00000000: 9207 873f 2cc7 6dbe 75f9 e33d db96 143f
00000010: 9257 7cbf 9473 d5be 1a22 3d3e deed 943d
00000020: 1aaa f6bd dc1a 003f 7f99 ea3e fbe9 bf3e
00000030: 6044 533e 71b1 d13e cd8e 1ebd bb13 b03e
00000040: 90ad ad3e 638b 88be 17b1 ed3e 7e4e 193e
00000050: d44a 65bc 38b3 813e 1f4e 1bbd 0417 8bbe
00000060: ff34 08bf 7746 c63e fe7d d9be 1898 b6be
00000070: a2cc 71bf fe4b 203f 9844 3e3e 49c0 583f
00000080: 3842 a93e 2621 e4be dd35 6abe a82e b63e
00000090: 54c0 b4bd 81c8 37bf 4fee 7b3f bd7f 26bf
000000a0: f4e0 623e a95a 0c3f cc49 1fbe fd73 863e
000000b0: eaef e0bd 5ff9 0f3f 5865 0a3f f81d 0c3f
000000c0: 54a7 68be 104c b63c 54ff 233e f206 363e
000000d0: c3aa e53e e943 993e be3b 6e3e 1f2b c4be
000000e0: a2bb 013f 7fef aabe 7b62 d33e 4663 b53e
000000f0: 033d da3e bfe2 83be 1410 4c3e 56f5 a53d
00000100: 4176 c4be 8955 cdbe 6c72 7ebe 1e42 053f
00000110: cbae e43e b567 333f 62c0 c53e 0b57 f1be
00000120: 970f 823d d9fd d03e 54b2 01be 4eb6 f5be
00000130: 3e13 48bf 2381 90bf 27f9 c2be a6a8 773f
00000140: 079b fd3e b4f1 88bf 5357 28bf 5d49 f43e
00000150: 2345 7dbf 46da debd 1ffd f13e 3cd1 84bf
00000160: 89fe 0c3f e25d c7bf 3199 253f 46e5 033f
00000170: f658 103f a1f3 023f eaf3 f8be f575 8c3e
00000180: 9a9b c53e 2b58 d5be 0300 f73e da3d 893d
00000190: 7ae1 20be 6ea6 ecbe 7bea a1bd 5e3f 803e
000001a0: ce09 363e e516 bfbe 79de a13d 7a0f d63e
000001b0: c694 103f ad5c 61bd 85f3 f93e abc8 30be
000001c0: 290f 31be 5bb9 89be 44f1 94be b16b 81bc
000001d0: 95b3 c93e 27ed 663e c55e 05be 94a3 1b3f
000001e0: d216 0dbf e5e4 76bf 13ba f13e 3ecb 303e
000001f0: 6ecb ea3d 5f12 653f 3aad 77be 708a ab3e
00000200: 2dd2 47be b44c e6be a2d0 c6bd 835a 023f
00000210: 438b b83e c50b 9d3d 6b4a 0c3f a43a 8a3e
00000220: a296 d83e 4ec5 18bf ce74 7f3e b717 003f
00000230: 20d8 583f d93f 16be bfc1 343e 19fe 67be
00000240: ef8c f73d ec28 133f e2f1 19bf f769 09bf
00000250: 6811 1b3f 6199 6e3b cbef 233e 7d2c 6ebd
00000260: c464 b43e 16f9 8c3f c872 9ebe 46de 223e
00000270: 150d 913e 2e52 8f3e 9a9e 3c3f ef8c 743e
00000280: d335 81be 91c6 123f 0ae3 d23e d5da 8bbe
00000290: 9ef9 ccbe e6e2 d23e d543 0d3e d641 803e
000002a0: 1d22 a33e 194b 413e e229 f33e b6be 5b3e
000002b0: b5e2 893e 9e10 f23d ca28 eb3d f684 bdbe
000002c0: 2a7b 4f3d 5726 273e b133 743e 2821 f43e
000002d0: 7b9d 4c3e f260 5cbd 8d9d a73d 061c 10be
000002e0: 2a3b 013f b67c 853d 338b 6b3e 58e6 06be
000002f0: af7a 353e 9979 313f 5bed ea3e 820c c33d
00000300: 3638 403f 700a 7e3f c080 173e 87fa 14bd
00000310: e74a 113f da85 193f 3d7d 8a3e 38a0 113e
00000320: 52fe 973e e021 c7bd c625 b8bc fea3 2b3f
00000330: 7fb6 c73d 7c55 393f 31b0 e73e 0f9d 0b3e
00000340: fe37 36bd d97c ef3e 5011 053f 6c64 a3bd
00000350: e28c 553f acad 99bd a785 b1be c290 593e
00000360: 5e51 573e c546 833e 76ce 8c3e 0db6 523e
00000370: b41b 91be 3b43 5d3c 8d9c 233d 026e 31bf
00000380: 5aa2 3f3e 15c0 f2bd 1e13 44be 463c 043f
00000390: c939 793d 2272 f9bd 2fce eb3c 2c19 7abe
000003a0: 590c 113f 7736 0b3e 7d9a 663e 051c 193f
000003b0: 4320 09be 4732 45bd 7d3d 8bbe ff79 353f
000003c0: 6a4e 953e 8cf6 60be 4659 353f 989e 253f
000003d0: ef61 ddbd c830 4d3e 9b97 ec3e 4391 a93e
000003e0: 8b1a febc c632 b93e 52f1 fc3e 4aee 303e
000003f0: f0e9 553e ba30 f4bd 2b89 043f 3caa a03e
1.0549185 -0.2322051 0.111315645 0.5804269 -0.9857112 -0.41689742 0.1847004 0.07271932
-0.12044163 0.50040984 0.45820233 0.374832 0.20631552 0.4095569 -0.038710404 0.34390053
0.3392148 -0.26668844 0.4642417 0.14971349 -0.013994891 0.25332046 -0.0379163 -0.27165997
-0.53205866 0.38725635 -0.42478937 -0.35662913 -0.9445287 0.62615955 0.18580854 0.84668404
0.33058333 -0.4455654 -0.2287211 0.3558247 -0.08825746 -0.7179032 0.98410505 -0.65038663
0.22156125 0.54825836 -0.15555495 0.26260367 -0.1098326 0.56239885 0.5406089 0.5473323
-0.2272008 0.022253066 0.16015369 0.17776087 0.44856843 0.29934624 0.23264977 -0.3831415
0.5067693 -0.33385846 0.41286072 0.35427302 0.42624673 -0.2575893 0.19928008 0.08103435
-0.3837147 -0.4010432 -0.24848336 0.5205401 0.44664606 0.7008012 0.3862334 -0.4713672
0.0635063 0.4081867 -0.12665683 -0.4799065 -0.7815436 -1.1289409 -0.38080713 0.9674171
0.4953234 -1.0698762 -0.65758246 0.47712222 -0.9893362 -0.10881476 0.4726343 -1.0376353
0.5507589 -1.5575526 0.64686877 0.5152172 0.56385744 0.51153 -0.48623592 0.27433744
0.38595277 -0.4166883 0.48242196 0.067012504 -0.15711012 -0.46220726 -0.07906052 0.25048345
0.17777178 -0.37322155 0.079037614 0.41808683 0.5647701 -0.055020023 0.48818603 -0.17264049
-0.1729094 -0.26899227 -0.2909032 -0.015798422 0.39394823 0.22551404 -0.13024433 0.60796475
-0.55112946 -0.96443015 0.47212276 0.1726503 0.114645824 0.8948116 -0.24187174 0.33504057
-0.1951377 -0.44980395 -0.09707762 0.5091936 0.36043748 0.076682605 0.5480105 0.26997864
0.42302424 -0.59676063 0.24946901 0.50036186 0.8470478 -0.14672793 0.17652033 -0.22655524
0.12087428 0.57484317 -0.6013471 -0.53677315 0.60573435 0.003640734 0.16009443 -0.058147896
0.35233128 1.1013515 -0.30946946 0.15905103 0.28330293 0.27992386 0.73679507 0.23881887
-0.25236377 0.5733424 0.41188842 -0.27315393 -0.40034193 0.41188735 0.13795407 0.2505023
0.31861964 0.18876304 0.47492892 0.21459469 0.26930776 0.11819576 0.11482389 -0.37015504
0.050654568 0.16323219 0.23847844 0.47681546 0.19981949 -0.05380339 0.08184347 -0.1407319
0.504809 0.06517927 0.23002319 -0.13173807 0.17722581 0.6932617 0.45884213 0.0952387
0.7508577 0.99234676 0.14795208 -0.036371734 0.56754917 0.59969866 0.27048674 0.14221275
0.29686219 -0.09723258 -0.02247895 0.6704711 0.09751605 0.72396064 0.4525161 0.13634132
-0.044486992 0.4677494 0.5197954 -0.07978138 0.83418095 -0.075038284 -0.3467228 0.21246627
0.21027133 0.2563993 0.27501267 0.2057726 -0.28341448 0.0135047985 0.03994422 -0.69308484
0.18714276 -0.11853043 -0.19147918 0.5165447 0.060846124 -0.12179972 0.02878484 -0.24423665
0.56659466 0.13594995 0.2251987 0.5980838 -0.13391213 -0.04814365 -0.2719535 0.70889276
0.29161388 -0.2196905 0.70839345 0.6469512 -0.10809695 0.2003814 0.46209416 0.33118638
-0.031018516 0.3617155 0.49402863 0.172784 0.20890021 -0.11923356 0.517718 0.3137988

local2.norm.weight f4 [128]
00000000: b896 193f 1c53 1d3f 5de4 993f 2afa 4c3f
00000010: 7859 6e3f b49f 653f 0a60 233f 69c2 983f
00000020: 647e 1d3f 53e7 953f c4ba 3e3f 6413 893f
00000030: 86df 3a3f f2d2 0e3f 6fdb 183f ddb6 593f
00000040: 2b8b 623f b4c0 6d3f dd24 903f 0d0a e63e
00000050: 47db ef3e 3b8f 933f ad8e 863f 3d6b cd3e
00000060: 1903 fd3e 7ee6 cf3f f351 7e3f 5a3a 983e
00000070: df95 583f dfa3 3d3f 290c 893f 117b c93f
00000080: 6acb 5d3f c7a7 953f 995a 8e3f a776 f73e
00000090: f060 9c3f 6a30 4f3f d332 3c3f d584 d43f
000000a0: 22fc 803f 0707 ef3f d2b0 583f eb93 953f
000000b0: cfc9 613f d3a0 2b3f 9457 653f e0e1 843f
000000c0: 3111 a13f 283e 553f d8e3 473f 231c 7b3f
000000d0: 4d53 8e3e b0ca 3b3f 7169 723f c580 c23f
000000e0: d5b9 963f 75cb 523f 6208 fe3f f4b6 8e3f
000000f0: 4899 b13f cd3e 3e3f aa5a 753f ea84 7e3f
00000100: ee9b 583f f455 c63e c336 3e3f 996a 1d3f
00000110: 9c3e 2d3f fe7c 053f dc79 f93e 586e 1d3f
00000120: 5b49 a33e 18c7 5b3f 616f 3f3f 0b47 653f
00000130: 47ee fc3f 0282 803f 5f3f 1a3f 9a08 793f
00000140: 4da3 103f 82e8 173f 8bc9 1c3f 7b38 1f3e
00000150: 55bc 523f 80a7 1f3f 3aa4 0b3f 846d 963e
00000160: 5eb7 333f dbb1 a73f 7c7f 303f d230 ea3e
00000170: 9697 1b3f ae68 3e3f d2d7 423e 83ce 013f
00000180: fbc2 523f 6686 1e3f 0223 4b3f 70b4 413f
00000190: 3908 4d3f 4874 7b3f 28dc 023f 256f 963f
000001a0: 807a 973f 3e27 1a3f dd7e 803f f069 6d3f
000001b0: 5a7a bc3e 2179 3a3f 9f9f 6e3f 7991 1c3f
000001c0: 2557 993f b492 6e3f a2ac 3e3f a147 6a3f
000001d0: a392 603f 3712 0d3f db69 063f 2ce5 3c3f
000001e0: cd75 543f ccfa 943f 095e 413f 5470 0f3f
000001f0: 0063 7f3f ca68 313f 7472 513f 7493 153f
0.59995604 0.6145494 1.2022816 0.8006922 0.9310527 0.8969681 0.6381842 1.1934329
0.6152098 1.171122 0.7450373 1.0709043 0.7299732 0.55790627 0.5970983 0.8504465
0.88493603 0.92872167 1.126125 0.44929543 0.46846983 1.1528085 1.0512291 0.4012088
0.49416426 1.6242216 0.99343795 0.2973202 0.84603685 0.7407817 1.0706836 1.5740682
0.8663851 1.1691827 1.1121398 0.48332712 1.2217083 0.8093325 0.7351505 1.6603037
1.0076945 1.867402 0.84644806 1.1685766 0.8819856 0.67042273 0.8958676 1.0381432
1.2583371 0.8329797 0.78082037 0.9808981 0.27797928 0.7335615 0.9469214 1.5195547
1.1775461 0.823417 1.9846308 1.1149583 1.3874903 0.74314576 0.9584147 0.9942156
0.8461293 0.38737452 0.7430231 0.6149078 0.6767366 0.5214385 0.48725784 0.61496496
0.31891903 0.8585067 0.74779326 0.8956153 1.9760216 1.0039675 0.60252947 0.9727875
0.5649918 0.59339154 0.6124503 0.1554889 0.8231862 0.6236496 0.54547465 0.2938043
0.7020167 1.3101152 0.68944526 0.45740372 0.60778177 0.7437848 0.19027641 0.50705737
0.82328767 0.61923826 0.7935029 0.7566595 0.8009067 0.98224306 0.5111718 1.1752669
1.1834259 0.6021613 1.0038716 0.9273977 0.36812097 0.7284108 0.9321231 0.61159474
1.1979719 0.931926 0.74482167 0.9151555 0.8772375 0.5510592 0.5250527 0.7378719
0.8299225 1.1639037 0.7553411 0.56030774 0.99760437 0.6930052 0.81815267 0.5842812

local2.norm.bias f4 [128]
00000000: 4b9a 04bf 0a9d 28bf 40ea 83be 414b 9fbe
00000010: 51b8 b4be dbf1 23bf 73eb f6be 7fd0 92be
00000020: 6c49 d1be c359 c7be 4062 17bf f1d7 bcbe
00000030: 32b9 c1be fa5e f8be aecd ecbe 6681 efbe
00000040: c4cb c9be 77ee b7be 06e2 ccbe 1d2b 1fbf
00000050: d79a febe 55ae 04bf 8233 fabe 616f 04bf
00000060: 6fff 3cbf 1572 94be a1a3 e7be ae5e 30bf
00000070: 1139 91be 43ec 24bf 3f86 bfbe 6a6e 45be
00000080: 2148 00bf 82d6 b0be 51e1 37bf 2cf9 a8be
00000090: 0a8c 1dbe e5ab 56be 759c ffbe 694e 44be
000000a0: 4cc0 3dbe 91e3 97be 07e9 e9be e914 c6be
000000b0: 5a2b d0be 7156 a4be 28fe 34be 2beb b5be
000000c0: eb1e 04bf 528a 13bf f650 81be 5fd9 d4be
000000d0: 2182 46bf b825 0ebf 132f babe cbbf 8abe
000000e0: 1a21 c5be 8b08 65be e829 86be e1e6 13bf
000000f0: 1925 a2be 587f a6be e196 e9be 49e7 b7be
00000100: 2d07 0ebf 391b 14bf d851 d5be 705e bfbe
00000110: 13ad 01bf cdf1 1dbf 2105 febe 21e2 0ebf
00000120: 316e 30bf 510c 8bbe 990d b4be ed5c 92be
00000130: fe18 57be 552f 04bf ce80 c9be 8b17 89be
00000140: 7c9f e2be 0184 f3be 549b 07bf f289 57bf
00000150: 5db3 11bf c75d 37bf 3b56 32bf 0b43 41bf
00000160: 1ff5 babe 77b0 37be ac65 04bf faae 4bbf
00000170: 0a71 04bf ea2d 0abf 8a4e 54bf 10b0 1cbf
00000180: 0ec2 d7be 53a8 1fbf 1315 f1be 7c74 e0be
00000190: c651 1bbf 8b75 78be 9cf6 05bf c386 b8be
000001a0: f18d 5fbe f9f5 a3be 2bf2 9dbe 7949 aebe
000001b0: ce52 33bf 1c87 c2be 2536 4ebe 308a f4be
000001c0: 56cd cbbd 0c9b 64be 7764 dfbe 2a8a b03d
000001d0: 4d1d 8bbe 18c6 19bf f07b 37bf e2f8 afbe
000001e0: c484 bcbe 854d 8abe 1e40 94be 4366 1dbf
000001f0: 8302 0ebf 84b3 e8be fd14 9bbe b001 03bf
-0.5179793 -0.6586462 -0.25764656 -0.31112102 -0.35296872 -0.6404092 -0.48226508 -0.28674695
-0.4087633 -0.3893567 -0.5913429 -0.368835 -0.37836605 -0.4850996 -0.4625067 -0.4677841
-0.39413273 -0.35924122 -0.40016192 -0.6217516 -0.49727508 -0.5182851 -0.48867422 -0.5173245
-0.7382726 -0.28993288 -0.45242026 -0.6889447 -0.2836385 -0.64423007 -0.3740711 -0.19280401
-0.5011006 -0.34538656 -0.7182818 -0.33002603 -0.15385452 -0.2096401 -0.49924055 -0.19170536
-0.18530387 -0.29665807 -0.45685598 -0.38687828 -0.40658075 -0.320972 -0.17675078 -0.3553098
-0.5160968 -0.57632935 -0.2525708 -0.4157209 -0.7754231 -0.55526304 -0.3636404 -0.2709945
-0.38501817 -0.2236654 -0.26203847 -0.5777417 -0.31668928 -0.3251903 -0.45622924 -0.35918644
-0.554797 -0.5785404 -0.41664004 -0.37376738 -0.50654715 -0.61697084 -0.49613288 -0.55813795
-0.6891814 -0.27157834 -0.35166624 -0.28586522 -0.21005628 -0.5163472 -0.39356083 -0.26775774
-0.44262302 -0.47561648 -0.52971387 -0.8419486 -0.5691431 -0.7162747 -0.6966283 -0.75492924
-0.36515138 -0.1793841 -0.5171764 -0.7956387 -0.51734984 -0.5397631 -0.8293234 -0.6120615
-0.4214024 -0.6236622 -0.4708639 -0.4383887 -0.6067165 -0.24263589 -0.5232942 -0.36040315
-0.2183149 -0.320236 -0.30848822 -0.3404043 -0.70048225 -0.37993705 -0.20137842 -0.4776168
-0.09951274 -0.2232477 -0.43631336 0.08620103 -0.27170792 -0.6006789 -0.7167349 -0.3436957
-0.36820042 -0.27012268 -0.28955168 -0.61484164 -0.5547258 -0.4544946 -0.3028945 -0.5117445

meso.Wq.weight f4 [128, 128]
00000000: 7071 09be 2fd2 a9be c192 923d a827 233f
00000010: 0366 b8be b18b 09bf bf95 d43d 215d 2fbe
00000020: 6a0f a2be 0625 0c3e d5c5 87bd dfd8 16be
00000030: 853d c03d 39f2 8ebe 2642 d0be 0868 42bf
00000040: b480 c7be 0ba2 7ebd 4b09 86be d5f8 1a3e
00000050: efa9 02bd e595 19bf ed34 06bd 7999 583f
00000060: 6266 81be 8431 27be 92b4 ac3d a1b6 263e
00000070: 3109 643e 5f41 37be 4d78 43bd a127 5ebe
00000080: a5bc 013e 0f42 af3d 04df 80be 1bda 5fbd
00000090: 6858 00bf 7ee8 8ebe 0e4c fc3b 4e37 133d
000000a0: 511d 803e 434e 76be 3803 cdbe 525c 4d3e
000000b0: 015a f33d f10f 283e 5207 89be 6b48 813d
000000c0: c110 99be f39c ecbe 4436 4bbe 9339 f3be
000000d0: 3a2a dfbd 9d6c 803b e92f a13e fee7 b1bb
000000e0: 626f 383d 935a d0be d8a2 b4bd 0cff 81be
000000f0: a6ce 28bf b383 a33d 76e4 b1be 8214 b63e
00000100: 451e 1e3f a3a9 a43d 8cd9 963e 9d4f 3d3e
00000110: 930e f8bc 4e84 54bd c3c0 24be d4c0 133f
00000120: d448 453d 8426 eebe b657 343e 10fa 553e
00000130: 228c 01bf 3ed7 f8bd 826b 36be 93ea 09be
00000140: ed50 22bb b8e9 44bd 0b21 d0bc e3aa 7a3d
00000150: a0be 9abe fb4a e4be 1d85 4f3c 1556 a5bd
00000160: cbd8 733e c9da e0bd 0c30 d6bd 25e2 89be
00000170: c34e 2bbd 9279 223e 0092 f7be dcf7 0fbd
00000180: c76e fe39 48c5 40bf b9bf 053e 6ac6 b23d
00000190: 4716 a6be 3b5b 9c3e 1ba1 ca3d edcb 203e
000001a0: 1597 c33c df49 923e f71f 75be d67f bc3d
000001b0: 79eb 513e 3111 cbbd e4b9 643e 4efb 673e
000001c0: 0ec5 06be a618 0bbe 747e 03be 97f4 e03d
000001d0: 1c8e 1abd 967b 7bbd a342 a73e 7a40 09be
000001e0: e308 3fbd cc13 eabe 52b5 8b3e 5dc1 14be
000001f0: 9e98 ccbd 1c8f 153e 356e 013d a757 04bd
00000200: a49c e6be 3572 de3e 5821 53be 56d7 97be
00000210: a6bc ee3d 3119 a4bd 6512 1cbf 9420 06be
00000220: 1774 cb3d 815c aabe 8ddd 3c3f a53b e93b
00000230: 798e ce3d 903b 9c3d a188 18be 8130 ac3e
00000240: e2f4 aebe e86d 893f b63c e13e a264 27bf
00000250: 9f15 63bd af47 b03e e65e 27be 56ed c8be
00000260: 84ca 313e 5502 afbe 4146 35bb 7cc5 893e
00000270: 5b26 86be fe4d e4be 1a2c 8b3e 4851 303e
00000280: d5b3 af3e 6835 2d3e b68e 36be dfcc 413e
00000290: 373a 8d3c 2252 f3be 4c9e a53e f248 89be
000002a0: 9d9d fa3d afa2 363e f28c ef3d 8ffc 97be
000002b0: 7ec6 09bf e850 eb3d 01ab 583e 99d0 74be
000002c0: 069d 943e ae00 383e be22 9abe d022 403e
000002d0: 23a7 d73d d873 02bf 73e0 febe 2e07 283e
000002e0: b401 a8ba 710d c53e d1db 04bf fe2b 943e
000002f0: 9731 97bb a894 67be e0af 5c3d e17a 89be
00000300: c68e bbbe 3346 1a3e c3b3 5cbf c742 8fbe
00000310: d9b7 ef3e 9461 e73e 9248 5dbd 05d1 64bf
00000320: 1ec9 b5bd f98e c43d 7c79 a8be 566d 3fbc
00000330: f10a 4bbe d003 e43e 2a2e b63e ae93 223d
00000340: 6eaa 95bd 649e 10bd 9daa 2ebe 1c2c 90be
00000350: bca1 5fbe 2aa7 893e b608 6cbe 1b7d 173e
00000360: a17a a5be 08af 9cbe 02e8 f83e 3520 693e
00000370: 14cd 533d 6b52 dcbd d59a edbd 4e12 57bd
00000380: 7ddc 05be 1192 6ebd c694 313e 0fe3 a3be
00000390: c7a1 87bc bce4 03bf 2948 74be 89fb 253f
000003a0: 7cad 6bbe 3927 a03d 36d2 a5be 2e6c a0bd
000003b0: e64e b7be c438 dbbc 5fe2 17bf c4f0 2b3e
000003c0: 4443 bebe 04ec a2be 43d8 cf3e 9a4d 30be
000003d0: ed42 39bf 3061 f13d d2b2 cd3e 65c6 14bf
000003e0: e7a0 50be eb33 94be 1c6d c3be 114b 8dbd
000003f0: 955e 56be fef7 90be 9ba2 653e e813 be3d
-0.13422179 -0.3316817 0.07156897 0.63732386 -0.3601533 -0.5372878 0.10380124 -0.1712537
-0.31652385 0.13685998 -0.0662953 -0.14731167 0.09386734 -0.27919176 -0.40675467 -0.7593999
-0.3896538 -0.062166255 -0.26178965 0.15133984 -0.031900343 -0.59994346 -0.032765318 0.8460918
-0.25273424 -0.16327482 0.084328786 0.16280605 0.22269131 -0.17896031 -0.04772215 -0.21694805
0.12669618 0.085575216 -0.25170147 -0.05465136 -0.501349 -0.27911752 0.007699496 0.035941415
0.25022367 -0.24053292 -0.40041518 0.20054749 0.11882401 0.16412331 -0.26763397 0.06312641
-0.29895595 -0.46213493 -0.1984492 -0.47504863 -0.10896726 0.0039191977 0.31481865 -0.005429267
0.045028098 -0.40694103 -0.088201225 -0.25389898 -0.6594032 0.07984104 -0.34744614 0.3556252
0.6176494 0.08040168 0.2946285 0.18487401 -0.030280387 -0.051883988 -0.16089158 0.5771611
0.048165157 -0.4651376 0.17611584 0.20896173 -0.5060445 -0.12150429 -0.17814448 -0.13468389
-0.0024767474 -0.048074454 -0.025406381 0.061198127 -0.3022356 -0.44588456 0.012666014 -0.080730595
0.23813169 -0.1097923 -0.10458383 -0.26930347 -0.04182316 0.15866688 -0.48353577 -0.035148486
0.0004852919 -0.7530103 0.13061418 0.08729251 -0.3243887 0.30538353 0.0989401 0.15702792
0.023875752 0.28571984 -0.23937975 0.0920407 0.20499982 -0.099153884 0.22336537 0.22654459
-0.13161108 -0.13583621 -0.12841207 0.10984152 -0.037733182 -0.061397158 0.32668027 -0.13403502
-0.046639334 -0.4571823 0.27286774 -0.14526887 -0.09990047 0.14605373 0.031599242 -0.032310154
-0.45041382 0.43446508 -0.20618188 -0.29656476 0.116570756 -0.080126174 -0.6096557 -0.13098365
0.09934252 -0.332737 0.7377556 0.007117706 0.10085768 0.07628548 -0.1489587 0.33630756
-0.34171206 1.0736666 0.4399163 -0.6538793 -0.05544054 0.3442969 -0.16344795 -0.39243573
0.1736241 -0.34181467 -0.0027660283 0.2690848 -0.26201138 -0.44590753 0.27182084 0.17218506
0.34316888 0.16914904 -0.17827877 0.18925808 0.017239673 -0.475236 0.32347333 -0.26813465
0.122370936 0.17835496 0.11696805 -0.29684874 -0.538185 0.11490041 0.21158983 -0.23907699
0.2902605 0.1796901 -0.3010463 0.1876328 0.10529926 -0.50958014 -0.49780616 0.16408989
-0.001281789 0.38486817 -0.51897913 0.28939813 -0.004614066 -0.22615302 0.053878665 -0.26851562
-0.36632365 0.15065841 -0.86211795 -0.27980635 0.46819952 0.45191634 -0.054024287 -0.8938144
-0.08876251 0.09597582 -0.32905185 -0.011683783 -0.19828393 0.4453416 0.35582095 0.03969162
-0.073078975 -0.035307303 -0.17057271 -0.28158653 -0.2183904 0.2688535 -0.23050198 0.14793818
-0.3232012 -0.30602288 0.48614508 0.22766192 0.05170925 -0.107579075 -0.116017975 -0.05250769
-0.13072391 -0.05824477 0.17341909 -0.3200917 -0.016556634 -0.51520896 -0.23855652 0.6483694
-0.23015398 0.07819981 -0.3238694 -0.07833134 -0.35802382 -0.026760466 -0.5932979 0.16791064
-0.37160695 -0.3182069 0.40594682 -0.17217103 -0.72367746 0.11786115 0.40175492 -0.58115226
-0.2037388 -0.2894586 -0.3816918 -0.068990834 -0.20934518 -0.28314203 0.2242531 0.092811406
