models/eeg_loso/s_05.pt (torch, 561186 bytes, 37 tensors)

band_attn.fc1.weight f4 [8, 5]
-0.18084618 0.83637685 -0.10626105 -0.9500511 0.031392146 0.020991702 -0.28437212 0.14872512
-1.1435629 0.12012313 -0.32509625 -0.6985906 -0.16691417 0.6341264 -0.47200236 -0.27351603
0.6394383 -0.2860115 -0.3513473 0.9865346 0.046606407 0.17732148 0.9392334 -0.8924755
-0.16661638 -0.05139301 -0.6506851 0.87586987 -0.2473498 0.42151248 0.11021407 0.20555627
0.24258518 0.0031394353 -1.5458046 0.36322272 0.50598824 -0.8908408 0.0019326385 0.014666877
00000000: be2f 39be cb1c 563f 659f d9bd 8d36 73bf
00000010: 0d95 003d caf6 ab3c 3999 91be 664b 183e
00000020: 4560 92bf 1e03 f63d 0473 a6be d5d6 32bf
00000030: 8ceb 2abe 1c56 223f 4baa f1be 4b0a 8cbe
00000040: 3ab2 233f 1970 92be cbe3 b3be 888d 7c3f
00000050: 5ce6 3e3d c393 353e 9a71 703f 4679 64bf
00000060: 7c9d 2abe 7a81 52bd 4c93 26bf 0239 603f
00000070: 4449 7dbe 7cd0 d73e eab7 e13d 587d 523e
00000080: 4068 783e fcbe 4d3b eddc c5bf 54f8 b93e
00000090: 7288 013f 250e 64bf 9650 fd3a 574d 703c

band_attn.fc1.bias f4 [8]
-0.07199713 -0.56432766 0.62907666 0.32053146 -0.5202285 -0.27519882 -0.28793946 0.061686233
00000000: 3b73 93bd c777 10bf 2b0b 213f b31c a43e
00000010: b22d 05bf dce6 8cbe cd6c 93be b4aa 7c3d

band_attn.fc2.weight f4 [5, 8]
-1.2023574 -1.9665761 -0.8786095 -3.0695841 1.182604 -1.8951432 0.5755378 -0.5382334
0.6745686 -0.92061394 -0.024519918 0.03022824 0.68536407 -1.0050532 0.24984467 0.20859224
-0.3609843 0.4988249 0.12265903 -0.29624507 0.7559926 0.39067528 0.5719844 -1.4829003
-0.77967954 -0.3547464 0.58676094 -0.16540958 -0.6160831 -0.1900842 0.4394829 0.44802022
-0.18896179 0.45147946 -0.31205332 0.6173897 -0.2281969 1.1154137 -1.3477293 0.2489118
00000000: d9e6 99bf c4b8 fbbf 8dec 60bf 1174 44c0
00000010: 915f 973f 0d94 f2bf 7256 133f aac9 09bf
00000020: 87b0 2c3f 5bad 6bbf ffdd c8bc 37a1 f73c
00000030: 0574 2f3f 95a5 80bf 48d7 7f3e 3499 553e
00000040: efd2 b8be fa65 ff3e a834 fb3d 6fad 97be
00000050: bb88 413f 9706 c83e 926d 123f adcf bdbf
00000060: 1499 47bf 52a1 b5be f735 163f 2161 29be
00000070: 9fb7 1dbf 6fa5 42be e703 e13e e862 e53e
00000080: 337f 41be 5128 e73e 74c5 9fbe 400d 1e3f
00000090: 73ac 69be e0c5 8e3f 6582 acbf bce2 7e3e

band_attn.fc2.bias f4 [5]
-1.2742431 -0.74717367 0.0021178902 0.83037 0.13645728
00000000: 661a a3bf c646 3fbf 4dcc 0a3b 2193 543f
00000010: 75bb 0b3e

feat_proj.weight f4 [128, 21]
-0.29090154 -1.1829392 -0.78752685 -0.27549872 -0.7593361 -0.7625886 0.14167754 0.101017244
-0.006802051 0.006835961 -0.027020251 1.1348964 1.2095594 0.8747867 0.5580455 0.7630547
-0.031666342 -0.0052624065 -0.02439212 0.049617194 1.0521297 -0.9376172 0.64341015 -0.9339936
-1.6049093 -1.7160966 -0.13298121 -0.01813302 -0.59295225 0.038240816 -0.06652145 0.0064893467
0.9379085 -0.049258515 0.06490543 1.1296898 0.89304566 -0.031610172 0.02732843 0.0015014309
-0.117166094 -0.257572 -0.1578852 0.8837189 1.0988909 1.1940063 0.8624171 0.24872887
0.086750835 -0.19311851 0.0042730197 0.05281361 -0.003447366 0.66393876 0.7061195 1.2528744
1.9799815 1.4418787 0.023966858 -0.12025951 0.05217755 0.070807666 -0.13579927 -1.5422583
1.7759179 0.8270023 0.84866816 -0.5855155 -0.67851317 0.025121791 -0.043905955 0.019473799
0.0040438264 0.0023768323 -0.16471696 0.8170503 1.0420806 0.9279488 0.66566217 0.09092041
0.15040132 0.048079524 0.00042303867 -0.45870972 -1.1151984 1.1466177 1.566675 1.6359296
0.021686736 -0.9482954 -0.19276544 -0.112358 -0.035170864 -0.01220403 -0.0016027278 -0.007643688
0.129179 -0.48240992 -0.8818332 -0.76397735 -0.058230296 -0.020906439 0.019629393 -0.044328135
-1.0806391 0.6271534 -0.59436107 0.8241572 1.2468946 1.7280674 -0.006402676 0.2176372
0.03354345 -0.0053495164 -0.026063219 0.014275374 0.116199 0.21282043 -0.50182676 -1.5464798
-0.91174513 0.037725773 0.03775248 0.036453635 0.08420714 -0.9540216 0.10560499 -2.2787774
-1.3312595 -0.6079638 -1.0240517 -0.74983484 0.262231 -0.11521234 -0.0055587045 -0.023445055
-0.045459475 -1.0071441 -1.3377185 -0.20481889 0.48210353 0.57280827 -0.026927436 0.0005979937
-0.054619815 -0.024015166 0.3506325 1.1421919 -0.06406455 -0.690096 -0.76979536 -0.21378925
1.0756269 0.7053417 -0.16532113 0.07272698 0.031803045 -0.029034533 1.460193 1.1668807
0.27664685 -0.5841199 -0.48875806 -0.05380724 -0.0020806545 0.029498426 -0.10108632 0.66656363
-1.3590584 2.2402725 0.62656105 -0.8403999 -2.19718 0.7594919 0.027553668 -0.015316517
0.05417021 0.016775286 0.0057108207 0.7886901 -0.46561527 -0.879617 1.1057104 0.60831016
0.016029755 0.012754601 -0.028542401 0.012045501 -0.29211408 -0.8688131 0.46824664 1.1110088
0.8009434 0.29033405 -0.51086116 0.21540001 0.15743235 0.026435733 -0.013870614 0.03493517
0.5927122 0.15093029 -0.8453916 -1.5165986 -1.002686 -0.10551823 -0.13672243 -0.015644357
-0.048817936 -1.0283319 -0.5332352 -0.5702923 -0.19959389 -0.83192027 -0.053184994 -0.32601744
0.2541513 0.2274857 0.024802187 -0.017161934 0.04037658 1.5535841 2.049375 1.1071315
0.39272335 0.38860956 -0.06640157 -0.036734324 0.05526165 -0.013988931 0.5913411 -0.36354375
-0.42234915 0.3765036 1.0884895 0.3632906 -0.8069227 0.11879933 0.2051869 -0.03858992
0.019785292 -0.025425492 1.3972241 1.0394443 1.2555948 -0.2059119 0.10172766 0.044581927
0.0106747905 -0.010599436 -0.092215195 -0.13202931 -1.086335 0.21546215 1.1745552 0.6872221
00000000: 0cf1 94be 8d6a 97bf 5c9b 49bf 2b0e 8dbe
00000010: da63 42bf 0239 43bf eb13 113e 21e2 ce3d
00000020: bde3 debb 3200 e03b 9359 ddbc 4944 913f
00000030: d8d2 9a3f 05f2 5f3f 12dc 0e3f 8e57 433f
00000040: 91b4 01bd 4470 acbb fcd1 c7bc 663b 4b3d
00000050: 30ac 863f ae07 70bf 87b6 243f 341a 6fbf
00000060: ab6d cdbf 0ea9 dbbf 3a2c 08be b38b 94bc
00000070: b8cb 17bf 67a2 1c3d 663c 88bd 96a4 d43b
00000080: c51a 703f 4cc3 49bd 23ed 843d ad99 903f
00000090: a49e 643f ab79 01bd dfdf df3c a9cb c43a
000000a0: c7f4 efbd 7ae0 83be a8ac 21be 673b 623f
000000b0: 75a8 8c3f 33d5 983f 5ec7 5c3f c8b2 7e3e
000000c0: 6caa b13d dcc0 45be b004 8c3b 1553 583d
000000d0: 34ed 61bb e4f7 293f 3fc4 343f 305e a03f
000000e0: 0970 fd3f 7b8f b83f 2556 c43c 9e4a f6bd
000000f0: 20b8 553d 9c03 913d f70e 0bbe b868 c5bf
00000100: 4751 e33f 6cb6 533f 5142 593f 58e4 15bf
00000110: 0ab3 2dbf 37cc cd3c bbd6 33bd 8487 9f3c
00000120: 1382 843b a1c4 1b3b 90ab 28be 352a 513f
00000130: e662 853f 0d8e 6d3f d668 2a3f 7b34 ba3d
00000140: ce02 1a3e 09ef 443d 4acb dd39 00dc eabe
00000150: d2be 8ebf 5ec4 923f ce88 c83f 2466 d13f
00000160: 62a8 b13c 7dc3 72bf 4e64 45be f31b e6bd
00000170: 530f 10bd 69f3 47bc 9f12 d2ba e777 fabb
00000180: 8047 043e 6ffe f6be d2bf 61bf 0594 43bf
00000190: e482 6ebd fb43 abbc d2cd a03c 6b91 35bd
000001a0: 6252 8abf 208d 203f 0c28 18bf f7fb 523f
000001b0: 3e9a 9f3f 5031 dd3f 8acd d1bb 49dc 5e3e
000001c0: db64 093d ff4a afbb 8882 d5bc 42e3 693c
000001d0: bef9 ed3d 99ed 593e b877 00bf 0df3 c5bf
000001e0: 2168 69bf 5786 1a3d 58a2 1a3d 6850 153d
000001f0: cb74 ac3d c23a 74bf 6e47 d83d 7dd7 11c0
00000200: b666 aabf 84a3 1bbf 2014 83bf 2df5 3fbf
00000210: 2443 863e 73f4 ebbd cb25 b6bb d80f c0bc
00000220: b733 3abd 19ea 80bf 5c3a abbf 0bbc 51be
00000230: 46d6 f63e 90a3 123f ed96 dcbc aec2 1c3a
00000240: 07b9 5fbd 74bb c4bc 1a86 b33e 5833 923f
00000250: 4634 83bd 22aa 30bf 4f11 45bf 92eb 5abe
00000260: 24ae 893f 4691 343f f149 29be e2f1 943d
00000270: e943 023d d4d9 edbc 9be7 ba3f 595c 953f
00000280: a8a4 8d3e e288 15bf 7f3e fabe fb64 5cbd
00000290: 975b 08bb afa6 f13c 5806 cfbd eaa3 2a3f
000002a0: a0f5 adbf a060 0f40 4e66 203f 7324 57bf
000002b0: 999e 0cc0 106e 423f 3bb8 e13c 21f2 7abc
000002c0: 95e1 5d3d 536c 893c d621 bb3b 98e7 493f
000002d0: 2065 eebe 942e 61bf eb87 8d3f 37ba 1b3f
000002e0: d550 833c adf8 503c c1d1 e9bc 7e5a 453c
000002f0: fa8f 95be 896a 5ebf 06be ef3e 8935 8e3f
00000300: a00a 4d3f aaa6 943e ccc7 02bf d291 5c3e
00000310: f235 213e c08f d83c 9241 63bc 2e18 0f3d
00000320: fdbb 173f 788d 1a3e 956b 58bf e71f c2bf
00000330: 0458 80bf f119 d8bd f700 0cbe 9828 80bc
00000340: 51f5 47bd 61a0 83bf 1a82 08bf adfe 11bf
00000350: 5762 4cbe baf8 54bf 82d8 59bd c2eb a6be
00000360: 1f20 823e 03f2 683e f52d cb3c 2f97 8cbc
00000370: ea61 253d d8db c63f f628 0340 7cb6 8d3f
00000380: 0913 c93e d5f7 c63e 8cfd 87bd bb76 16bd
00000390: 0a5a 623d d431 65bc 2162 173f 6822 babe
000003a0: 263e d8be 14c5 c03e a053 8b3f 3a01 ba3e
000003b0: 7c92 4ebf 104d f33d 841c 523e 7710 1ebd
000003c0: c414 a23c 1f49 d0bc 3dd8 b23f 830c 853f
000003d0: 55b7 a03f 92da 52be 9756 d03d 8a9b 363d
000003e0: 51e5 2e3c 42a9 2dbc 52db bcbd b132 07be
000003f0: 060d 8bbf 1ca2 5c3e d357 963f caed 2f3f

feat_proj.bias f4 [128]
-0.49229014 0.56728935 0.6190763 0.91860896 1.2382292 0.21910226 -0.7902167 -0.95209724
0.626263 1.2513403 0.6110669 0.41606468 0.45724085 -0.73136663 0.008892093 -0.8974946
0.32940656 0.8561081 -0.8881782 -0.5666507 0.42800206 0.046834067 -0.11363905 -1.0194113
0.06606087 0.24239817 0.8688339 -0.9493578 0.4312333 -0.17873849 -0.3468373 -0.13419034
-0.6407996 0.66778564 0.45490032 0.47182983 -0.07169183 0.13064362 -0.29390413 -0.7829115
-0.6570158 -0.11175934 0.88975006 0.90884566 -0.3000408 -0.06759526 -0.25212547 -0.50317854
0.4871283 -0.12540954 -0.19604754 0.7900218 0.019640146 0.16339308 -0.4814581 0.49496818
-0.8457915 -0.26088095 -0.26469967 0.42098182 0.6993212 0.016648324 0.1227335 -0.9553492
-1.1880888 0.16626336 -0.3935762 0.86071104 0.26771364 -0.4740148 0.0034575898 -0.39603224
0.11865583 0.44563225 -0.64279073 0.5717767 -0.02813557 -0.014668201 0.82146573 0.50536567
-0.21401091 0.5610902 -0.23983605 0.2676661 -0.21294402 -0.48467278 -0.43573844 -0.54208493
-0.59574515 0.55210775 -1.2745016 -1.2421173 -1.1162403 -0.27816382 0.57693917 0.72735864
-0.3224871 -0.36849123 -0.34120777 -0.23505865 -0.65804553 0.98772836 0.14027767 -0.87874687
0.81272393 0.39178017 -0.9994676 0.5722443 -0.2231563 0.7262482 -0.9719985 -0.7058907
0.6086317 0.5120954 -0.91676986 -0.7583308 -0.9057394 0.16790685 0.6280378 -0.21621387
-0.27110144 -0.46292132 -0.3582742 0.7527599 0.6215643 -0.19832484 -0.14026631 -0.43044683
00000000: 740d fcbe e039 113f c97b 1e3f f529 6b3f
00000010: 4b7e 9e3f 585c 603e a44b 4abf a5bc 73bf
00000020: c652 203f eb2b a03f e16e 1c3f 6e06 d53e
00000030: 791b ea3e d83a 3bbf 24b0 113c 35c2 65bf
00000040: faa7 a83e e729 5b3f a65f 63bf 0510 11bf
00000050: 1623 db3e 14d5 3f3d 97bb e8bd 127c 82bf
00000060: ec4a 873d 3a37 783e e66b 5e3f 1d09 73bf
00000070: 9cca dc3e 3907 37be a994 b1be 3169 09be
00000080: 710b 24bf 00f4 2a3f b2e8 e83e ae93 f13e
00000090: 2bd3 92bd 71c7 053e 9a7a 96be e36c 48bf
000000a0: 3032 28bf 15e2 e4bd a9c6 633f 1caa 683f
000000b0: f39e 99be 626f 8abd 9716 81be 4fd0 00bf
000000c0: e168 f93e 5c6b 00be b0c0 48be de3e 4a3f
000000d0: 5fe4 a03c 8450 273e ad81 f6be 786c fd3e
000000e0: cb85 58bf 3092 85be b786 87be ee8a d73e
000000f0: b706 333f 1162 883c b45b fb3d c491 74bf
00000100: 4b13 98bf f140 2a3e d282 c9be 8f57 5c3f
00000110: c311 893e 11b2 f2be bb98 623b bdc4 cabe
00000120: d401 f33d e929 e43e ef8d 24bf f55f 123f
00000130: 917c e6bc e552 70bc 944b 523f a55f 013f
00000140: ad25 5bbe 9ba3 0f3f 9597 75be 880b 893e
00000150: ff0d 5abe 0827 f8be 1c19 dfbe 14c6 0abf
00000160: c182 18bf ef56 0d3f de22 a3bf b3fd 9ebf
00000170: f6e0 8ebf 7d6b 8ebe 49b2 133f 2d34 3a3f
00000180: 071d a5be e2aa bcbe c9b2 aebe 37b3 70be
00000190: ac75 28bf c4db 7c3f f3a4 0f3e 8ef5 60bf
000001a0: ad0e 503f 6997 c83e 1cdd 7fbf 9a7e 123f
000001b0: 1683 64be 67eb 393f e5d4 78bf 41b5 34bf
000001c0: 49cf 1b3f af18 033f 6eb1 6abf f821 42bf
000001d0: 8ade 67bf c6ef 2b3e 16c7 203f 2b67 5dbe
000001e0: cfcd 8abe 0604 edbe b76f b7be dfb4 403f
000001f0: d71e 1f3f ab15 4bbe f9a1 0fbe 8763 dcbe

local1.conv.bias f4 [128]
0.42935756 -0.30039188 1.5240046 0.80218613 0.012169222 0.28503668 0.54282093 0.2699138
1.1076156 0.82804745 0.37612137 -0.15060036 1.0467212 -0.581477 -0.7558341 -1.1072464
0.4021873 0.27048564 1.4174352 -0.35366172 0.91735446 0.98422915 0.18508309 -0.15774721
0.93147147 -0.58630365 -0.48220405 0.2674044 -0.803277 -0.15209684 0.51792485 -0.92319417
0.04957412 -0.78505033 -0.13921174 -0.81488806 -0.4756564 -0.7616911 0.56846577 0.33182734
0.7509541 -0.17194526 1.2694479 0.133903 0.8192162 0.49260348 -0.40067157 0.8458662
1.2897377 0.0496538 -0.54439 0.26523027 -0.9625921 -0.6645272 0.7988672 -0.6604296
-0.36330217 -0.022667104 -0.40221533 -0.098674975 -0.94186467 0.18037233 -0.28454223 0.15614143
-0.74055785 1.3382857 -0.71004504 0.9374985 -0.39880115 0.03868958 -0.83113647 -0.4415077
-0.647983 0.6618607 -0.31794336 -0.21966663 -0.10188888 -0.026392654 0.37562576 -0.40070394
0.047381323 -0.11578873 -0.082511164 0.2073037 0.32258785 1.3613431 -0.24992087 -0.70479053
-0.42858842 0.005322525 0.17874868 0.21050934 -0.5683551 -1.2332656 0.6057919 -0.020346113
-0.04863689 -1.3258195 -0.23337407 -0.6320393 -0.47789901 0.5125763 0.15850824 0.30224034
-0.76085025 0.3612675 1.5373861 0.04647784 -0.9525058 -0.53941566 0.7449586 0.4714707
0.44572067 -0.20808394 1.4780046 -0.03654538 -0.5985675 -0.263686 0.1256449 -0.4557505
0.7924433 -0.49878067 -0.61984247 0.15394105 -1.287933 1.3345968 -0.1797149 0.49943203
00000000: c1d4 db3e f7cc 99be 9512 c33f 125c 4d3f
00000010: 6b61 473c 54f0 913e 50f6 0a3f 2432 8a3e
00000020: 59c6 8d3f ebfa 533f fb92 c03e fb36 1abe
00000030: f6fa 853f addb 14bf 587e 41bf 40ba 8dbf
00000040: 7eeb cd3e 187d 8a3e 846e b53f 2613 b5be
00000050: bed7 6a3f 71f6 7b3f 6c86 3d3e 7c88 21be
00000060: ea74 6e3f ff17 16bf 73e3 f6be 3be9 883e
00000070: 90a3 4dbf 46bf 1bbe b996 043f 7456 6cbf
00000080: 3c0e 4b3d 0ff9 48bf 868d 0ebe 819c 50bf
00000090: 3c89 f3be 30fe 42bf f986 113f 46e5 a93e
000000a0: 873e 403f 6b12 30be 457d a23f de1d 093e
000000b0: 27b8 513f 8636 fc3e d324 cdbe b08a 583f
000000c0: 2016 a53f c861 4b3d 255d 0bbf 43cc 873e
000000d0: 706c 76bf 741e 2abf 9082 4c3f ea11 29bf
000000e0: be02 babe 5db0 b9bc 2bef cdbe 1b16 cabd
000000f0: 0b1e 71bf 86b3 383e 85af 91be 8ae3 1f3e
00000100: 3395 3dbf f24c ab3f 83c5 35bf e7ff 6f3f
00000110: aa2f ccbe f778 1e3d 5cc5 54bf 4c0d e2be
00000120: 37e2 25bf b46f 293f 79c9 a2be 4af0 60be
00000130: 1eab d0bd 6835 d8bc 0552 c03e 1129 cdbe
00000140: eb12 423d a422 edbd 9dfb a8bd 6c47 543e
00000150: 3c2a a53e 7e40 ae3f 42eb 7fbe 276d 34bf
00000160: f16f dbbe 9368 ae3b e509 373e c38f 573e
00000170: b87f 11bf a6db 9dbf 2e15 1b3f e4ac a6bc
00000180: 7a37 47bd 74b4 a9bf 9df9 6ebe 54cd 21bf
00000190: 2eaf f4be 3338 033f fc4f 223e 3fbf 9a3e
000001a0: 15c7 42bf 0ef8 b83e 11c9 c43f 8c5f 3e3d
000001b0: 6cd7 73bf 2517 0abf 9bb5 3e3f 9c64 f13e
000001c0: 8035 e43e f513 55be 412f bd3f 9cb0 15bd
000001d0: b83b 19bf da01 87be 0fa9 003e 2158 e9be
000001e0: 90dd 4a3f 2e60 ffbe ffad 1ebf b9a2 1d3e
000001f0: fdda a4bf 11d4 aa3f 2f07 38be 8eb5 ff3e

local1.conv.lin.weight f4 [128, 128]
0.117095836 0.43144262 0.3505746 0.2677702 -0.12767467 -0.22132161 0.7293237 -0.42764828
-0.20803173 -0.32673976 0.11139891 -0.13433522 0.1757891 -0.6717154 -0.47651762 0.40763873
-0.33890328 0.077644534 0.80879855 -0.4487037 0.66771114 0.05350162 0.056712136 -0.17747879
-0.281724 -0.5496903 -0.22273141 -0.3524959 -0.49097443 0.21972527 -0.60421884 -0.0880848
-0.121368185 -0.61665744 -0.709168 -0.6768873 -0.1789913 -0.3046034 0.13832259 -0.04389814
-0.28261587 0.3880303 0.15856698 -0.017244974 -0.33822224 -0.020951249 0.20402902 0.100967795
0.47134972 0.35679457 0.16083199 0.57204986 -0.34541497 -0.32152838 -0.40721613 -0.1769906
0.4388159 -0.21773367 -0.63230103 -0.086940095 0.038734432 -0.18772753 -0.70504916 0.34268585
-0.3603065 0.4170832 0.4772407 -0.36392152 -0.07708594 0.7429403 0.20864062 -0.15573297
0.10575409 0.033173718 0.037752166 0.59278005 0.0588644 -0.3148154 0.5361203 0.29486072
-0.12762082 -0.09922904 -0.41401047 -0.22608124 -0.0128588285 -0.5810589 -0.5800798 0.018276677
0.16920859 0.048508197 -0.5032471 -0.64841664 0.13302162 -0.5489187 -0.21053953 0.08871612
-0.17788804 0.1935964 -0.37385574 -0.7664611 0.085683875 -0.054184627 0.4211591 -0.12823102
0.37479568 0.60868734 -0.17874798 0.35783184 0.36796695 -0.084076025 0.16976997 0.104479365
0.28956977 -0.27254236 0.02954464 -0.33564422 0.5567418 -0.395105 0.03168602 0.45998985
0.16962813 -0.16673927 0.53409445 0.36505005 -0.17206821 -0.01099322 0.3863509 -0.32004738
0.09035253 0.21759075 -0.017379211 -0.7986033 -1.7454551 -0.25992998 -0.2113701 1.0185946
0.42107454 -0.7384301 0.12530762 -0.39857227 -0.69214755 0.78274184 -0.09144304 0.2114483
-0.7082737 -0.5535829 0.24689496 -0.36813676 -0.10484291 -0.71100795 -0.021798896 0.221979
0.6928993 -0.03928274 -0.08936941 0.072321944 0.54672635 0.21646361 0.8564365 0.08785299
0.5708154 -0.87490904 0.36273038 0.34185252 0.75403416 -0.23263635 0.8343742 0.12261446
0.16175921 -0.18149051 -0.75836784 -0.6409969 0.61848193 0.47217232 0.12921259 0.6957515
-0.60966897 0.6370553 0.054690756 -1.1170509 -0.46001542 0.19741893 0.7768778 0.41784695
0.24550565 0.46521562 -0.18781279 -0.018601269 -0.575465 -0.59865975 0.7126031 0.38712695
0.11756316 -0.12622759 -0.3832356 -0.8547371 -0.10279615 -0.24854521 -0.21017446 0.04675954
-0.4931255 -0.86914015 -0.1483772 -0.0448044 0.45345116 -0.11247974 -0.763053 -0.47649178
-0.39164242 -0.029370531 0.21563904 -0.74464506 0.1023195 -0.4904386 0.05594017 -0.047521673
0.23487736 -0.5597794 0.31799367 0.50408953 1.1918017 -0.27503628 -0.26092005 -0.8623849
-0.48882315 0.19514474 0.03885922 0.50634825 -0.20324995 -0.06486417 -0.3245627 0.6651786
-0.54566437 -0.6362517 0.15625253 -0.062444903 0.08032345 -0.306272 0.3008688 0.23787056
-0.4238505 -0.60257304 1.2949547 0.6196826 0.5769495 -0.43010476 -1.0115113 -0.039002206
-0.35623664 0.27009743 0.27751288 -1.0234344 -0.70817935 -0.5632105 0.13445781 0.17106053
00000000: f1cf ef3d 0ce6 dc3e 847e b33e 2d19 893e
00000010: 26bd 02be 22a2 62be f5b4 3a3f b7f4 dabe
00000020: 4506 55be 6f4a a7be 1d25 e43d 2c8f 09be
00000030: 0f02 343e 8af5 2bbf 1efa f3be 06b6 d03e
00000040: bb84 adbe 1904 9f3d 6c0d 4f3f 7ebc e5be
00000050: 1eef 2a3f 8424 5b3d fc4a 683d 00bd 35be
00000060: 213e 90be 81b8 0cbf b413 64be 587a b4be
00000070: 0061 fbbe a9ff 603e 16ae 1abf ce65 b4bd
00000080: e28f f8bd 43dd 1dbf 098c 35bf 7c48 2dbf
00000090: 7f49 37be faf4 9bbe 70a4 0d3e 89ce 33bd
000000a0: 07b3 90be e8ab c63e 625f 223e 5545 8dbc
000000b0: 772b adbe f4a1 abbc fcec 503e 34c8 ce3d
000000c0: c054 f13e c7ad b63e 24b1 243e dc71 123f
000000d0: 3bda b0be 5e9f a4be a27e d0be 063d 35be
000000e0: 7aac e03e 93f5 5ebe 7bde 21bf a60d b2bd
000000f0: ffa7 1e3d a53b 40be 1a7e 34bf 8574 af3e
00000100: 187a b8be ee8b d53e e558 f43e ec53 babe
00000110: 3cdf 9dbd 5631 3e3f e3a5 553e 7778 1fbe
00000120: 9a95 d83d 2ae1 073d 04a2 1a3d 6fc0 173f
00000130: cc1b 713d 7c2f a1be 2e3f 093f fcf7 963e
00000140: 08af 02be 9838 cbbd 2ef9 d3be d781 67be
00000150: d6ad 52bc 47c0 14bf 1c80 14bf f8b8 953c
00000160: 0445 2d3e 88b0 463d cdd4 00bf a2fe 25bf
00000170: d236 083e f085 0cbf ad97 57be ccb0 b53d
00000180: 4828 36be 223e 463e 056a bfbe cb36 44bf
00000190: 077b af3d b3f0 5dbd 2aa2 d73e fe4e 03be
000001a0: 38e5 bf3e efd2 1b3f b609 37be bc35 b73e
000001b0: 2a66 bc3e 0d30 acbd 2ed8 2d3e 47f9 d53d
000001c0: 7d42 943e ac8a 8bbe 9a07 f23c 8fd9 abbe
000001d0: a186 0e3f 344b cabe 33c9 013d ca83 eb3e
000001e0: ffb2 2d3e b3bd 2abe 6aba 083f d7e7 ba3e
000001f0: a632 30be e81c 34bc c9cf c53e 40dd a3be
00000200: bf0a b93d 1cd0 5e3e d95e 8ebc 4471 4cbf
00000210: 136b dfbf 8b15 85be 6771 58be 4f61 823f
00000220: 1597 d73e c109 3dbf a450 003e aa11 ccbe
00000230: 9530 31bf c561 483f 7d46 bbbd e785 583e
00000240: 6d51 35bf 9cb7 0dbf 08d2 7c3e 6c7c bcbe
00000250: e1b7 d6bd 9e04 36bf 9993 b2bc 774e 633e
00000260: d961 313f f0e6 20bd 4f07 b7bd 871d 943d
00000270: 42f6 0b3f a3a8 5d3e 6c3f 5b3f 45ec b33d
00000280: f520 123f 0afa 5fbf ccb7 b93e 4b07 af3e
00000290: 6208 413f 3938 6ebe 8c99 553f 4a1d fb3d
000002a0: 35a4 253e a6d8 39be 6524 42bf 5f18 24bf
000002b0: d554 1e3f 92c0 f13e 4e50 043e c51c 323f
000002c0: 4413 1cbf 0e16 233f 6a03 603d 86fb 8ebf
000002d0: 2487 ebbe 3028 4a3e 77e1 463f 09f0 d53e
000002e0: d565 7b3e be30 ee3e ff51 40be b061 98bc
000002f0: ad51 13bf c441 19bf 286d 363f 8135 c63e
00000300: f4c4 f03d ce41 01be 7537 c4be 0dd0 5abf
00000310: ca86 d2bd a382 7ebe f937 57be ee86 3f3d
00000320: f27a fcbe f87f 5ebf 31f0 17be d284 37bd
00000330: c02a e83e c75b e6bd 7157 43bf bbf6 f3be
00000340: 5b85 c8be 789a f0bc 7bd0 5c3e 0fa1 3ebf
00000350: e38c d13d c51a fbbe 8521 653d 16a6 42bd
00000360: b183 703e b44d 0fbf 11d0 a23e 030c 013f
00000370: f58c 983f 8ed1 8cbe 5097 85be 42c5 5cbf
00000380: 0747 fabe 06d4 473e d82a 1f3d 0aa0 013f
00000390: c120 50be 82d7 84bd 152d a6be 2549 2a3f
000003a0: a9b0 0bbf 64e1 22bf aa00 203e 3ac6 7fbd
000003b0: 9f80 a43d afcf 9cbe 7a0b 9a3e 5794 733e
000003c0: ef02 d9be 3a42 1abf 13c1 a53f 85a3 1e3f
000003d0: f6b2 133f b136 dcbe 3479 81bf c7c0 1fbd
000003e0: a664 b6be 364a 8a3e 2b16 8e3e e6ff 82bf
000003f0: 3e4b 35bf 902e 10bf 4faf 093e 7e2a 2f3e

local1.norm.weight f4 [128]
1.1556146 1.5862905 0.9920506 0.96902144 1.1095176 1.2438345 0.9740481 0.65643495
1.1212698 0.8899105 0.75643003 1.5435503 1.0429603 0.7453882 0.61385584 1.0071231
0.96421283 1.2126182 0.8619952 0.7694467 0.9902927 0.9527415 1.2551569 1.9611595
0.98640734 1.5192956 1.2901531 0.99039435 1.7787092 1.4266456 0.9774749 1.2041513
1.3623223 0.9051551 1.2901305 1.4178222 0.47769365 0.9730565 1.0822074 0.944981
0.9591434 0.6757842 0.9287436 1.0503697 0.87685597 0.61880594 1.0587646 1.0682216
0.92112756 0.6893897 0.97406566 0.84906435 1.7209094 0.942688 0.99027836 0.7917041
0.67555743 0.61001116 1.1538638 1.1345614 0.97588444 1.0446627 1.2947645 0.61144507
1.521249 1.0559872 0.5400793 0.90961885 0.67485505 1.2018181 1.7157673 0.62827116
0.4504112 1.3761082 1.2430222 0.65250206 0.6469678 0.78929645 0.8626043 1.7579205
1.5251691 0.9503798 1.1151236 0.8149064 1.1096169 0.83448124 0.65079206 0.6621116
1.0126408 1.2905633 0.78162193 1.0070767 1.7882112 0.9644846 1.0358123 0.9632759
1.4719619 1.5281578 1.2008386 0.81861037 1.4056014 0.83423305 0.85015905 0.79494745
1.3694134 0.9240577 1.0064014 1.3318346 0.91981554 1.0338197 0.9702675 0.42917228
0.9702905 1.1614372 1.0056617 1.0637712 0.7785523 1.3870585 1.1703635 1.0859858
0.72792447 1.2454559 0.7539384 1.2320378 1.2943099 0.8948322 1.397477 1.2856315
00000000: 2eeb 933f 910b cb3f 07f7 7d3f ca11 783f
00000010: ac04 8e3f f835 9f3f 375b 793f 1f0c 283f
00000020: c585 8f3f 2dd1 633f 66a5 413f 0e93 c53f
00000030: b97f 853f c3d1 3e3f a825 1d3f 69e9 803f
00000040: a7d6 763f 1337 9b3f b8ab 5c3f 75fa 443f
00000050: d383 7d3f dee6 733f fba8 a03f 4607 fb3f
00000060: 3185 7c3f 4778 c23f bd23 a53f 7c8a 7d3f
00000070: beac e33f 539c b63f cc3b 7a3f a121 9a3f
00000080: 9460 ae3f 3fb8 673f ff22 a53f 337b b53f
00000090: 4394 f43e 3b1a 793f c685 8a3f 46ea 713f
000000a0: 6c8a 753f 3100 2d3f 24c2 6d3f 8472 863f
000000b0: a279 603f 116a 1e3f 9985 873f 7cbb 883f
000000c0: 04cf 6b3f d87b 303f 5e5c 793f 485c 593f
000000d0: c246 dc3f 0054 713f e282 7d3f 1fad 4a3f
000000e0: 55f1 2c3f b129 1c3f cfb1 933f 4f39 913f
000000f0: 90d3 793f 82b7 853f d8ba a53f aa87 1c3f
00000100: 4ab8 c23f 972a 873f a342 0a3f c8dc 683f
00000110: 4dc3 2c3f 2dd5 993f 439e db3f 61d6 203f
00000120: 4c9c e63e 5024 b03f 5a1b 9f3f 600a 273f
00000130: af9f 253f 550f 4a3f a3d3 5c3f 8a03 e13f
00000140: be38 c33f 174c 733f 5fbc 8e3f b59d 503f
00000150: ed07 8e3f 90a0 553f 4f9a 263f 2580 293f
00000160: 379e 813f 2e31 a53f 6018 483f e4e7 803f
00000170: 1be4 e43f 76e8 763f 7f95 843f 4099 763f
00000180: 3f69 bc3f ad9a c33f 14b5 993f 7390 513f
00000190: bfea b33f 4c90 553f 06a4 593f ad81 4b3f
000001a0: f048 af3f 0c8f 6c3f c3d1 803f 8e79 aa3f
000001b0: 0879 6b3f 3454 843f 7363 783f 78bc db3e
000001c0: f564 783f f9a9 943f 86b9 803f a829 883f
000001d0: 344f 473f 228b b13f 79ce 953f 9501 8b3f
000001e0: 4259 3a3f 196b 9f3f 1b02 413f 6ab3 9d3f
000001f0: f2ab a53f b913 653f 87e0 b23f 938f a43f

local1.norm.bias f4 [128]
-0.54350334 -0.2569677 -0.78257746 -0.8464296 -0.3251621 -0.40940666 -0.6266783 -0.52848274
-0.93941146 -0.7069514 -0.507814 -0.28079084 -0.49798396 -0.6563886 -0.60110706 -0.3904086
-0.52373576 -0.70028347 -0.4942604 -0.3640065 -0.6424626 -0.7433061 -0.80478203 -0.2849666
-0.76521057 -0.384301 0.2749024 -0.7293027 -0.29999775 -0.877338 -0.54003876 -0.41383907
-0.22098921 -0.55313355 -0.6878458 -0.43692318 -0.57369626 -0.586493 -0.47075012 -0.73052734
-0.78694636 -0.47367272 -0.70551616 -0.4721525 -0.6530525 -0.5587766 -0.44597927 -0.73616695
-0.74933594 -0.51366496 -0.45097715 -0.4076563 -0.26765367 -0.34167352 -0.2971178 -0.44819793
-0.64657915 -0.533107 -0.672404 -0.76017517 -0.5429897 -0.49649468 -0.21283905 -0.5012953
-0.37657124 -0.77414966 -0.46394235 -0.6240446 -0.5206749 -0.7218286 -0.25116378 -0.41181195
-0.8140845 -0.68016243 -0.40109718 -0.76746416 -0.57396775 -0.44943258 -0.5550365 -0.2866455
-0.37320927 -0.53183776 -0.43494573 -0.5934332 -0.5042997 -0.6105815 -0.32613587 -0.36054754
-0.7316366 -0.44042802 -0.64437264 -0.5079147 -0.2756928 -0.40525034 -0.7240227 -0.6839778
-0.18749927 -0.48236972 -0.39855248 -0.4780997 -0.60925174 -0.3299532 -0.31398293 -0.51285493
-0.29038203 -0.7370465 -0.7399768 -0.58028936 -0.66979426 -0.37424523 -0.44569656 -0.4931994
-0.5729489 -0.429108 -0.7889344 -0.653547 -0.7909463 -0.37422004 -0.8155256 -0.47293785
-0.5762914 -0.34532303 -0.7565804 -0.3323749 -0.61378264 -0.51757014 -0.489328 -0.6523515
00000000: 0923 0bbf 4591 83be ff56 48bf 9caf 58bf
00000010: a67b a6be c09d d1be fd6d 20bf a54a 07bf
00000020: 457d 70bf c4fa 34bf 1900 02bf d1c3 8fbe
00000030: c1f7 febe 1509 28bf 27e2 19bf a3e3 c7be
00000040: 8c13 06bf c745 33bf b30f fdbe 0f5f babe
00000050: 6e78 24bf 4f49 3ebf 3206 4ebf 24e7 91be
00000060: d7e4 43bf 1ac3 c4be 02c0 8c3e 95b3 3abf
00000070: 4e99 99be 3999 60bf fb3f 0abf b7e2 d3be
00000080: ff4a 62be 299a 0dbf aa16 30bf 65b4 dfbe
00000090: c2dd 12bf 6824 16bf 2906 f1be d703 3bbf
000000a0: 5175 49bf 3b85 f2be b59c 34bf f9bd f1be
000000b0: 732e 27bf fc0b 0fbf 6557 e4be 7075 3cbf
000000c0: 7bd4 3fbf 8c7f 03bf 7ae6 e6be 54b8 d0be
000000d0: e709 89be d5ef aebe d31f 98be 337a e5be
000000e0: 3686 25bf b379 08bf ab22 2cbf d79a 42bf
000000f0: 5f01 0bbf 8d34 febe 7bf2 59be e454 00bf
00000100: f2cd c0be ac2e 46bf da89 edbe 63c1 1fbf
00000110: f34a 05bf c2c9 38bf 8a98 80be 04d9 d2be
00000120: d767 50bf 201f 2ebf 9c5c cdbe 8878 44bf
00000130: 8def 12bf 071c e6be df16 0ebf 33c3 92be
00000140: 4915 bfbe 8526 08bf 35b1 debe 3deb 17bf
00000150: c919 01bf 124f 1cbf 48fb a6be b099 b8be
00000160: 894c 3bbf c87f e1be 9bf5 24bf b306 02bf
00000170: 9b27 8dbe f97c cfbe 8d59 39bf 2b19 2fbf
00000180: cfff 3fbe 2af9 f6be 120f ccbe 7cc9 f4be
00000190: ecf7 1bbf a0ef a8be 5fc2 a0be 764a 03bf
000001a0: f4ac 94be 14af 3cbf 1f6f 3dbf d88d 14bf
000001b0: a377 2bbf 129d bfbe 5732 e4be a284 fcbe
000001c0: c7ac 12bf 0bb4 dbbe 9bf7 49bf db4e 27bf
000001d0: 757b 4abf c599 bfbe 49c6 50bf e924 f2be
000001e0: d587 13bf 2ece b0be 41af 41bf 0b2d aabe
000001f0: dc20 1dbf 7a7f 04bf 3389 fabe 8200 27bf

local2.conv.bias f4 [128]
-0.7145281 0.1974268 0.41628367 0.45458862 0.29134372 0.20724906 -0.029981878 0.14649877
0.1539364 0.008802387 0.2646401 0.398939 0.37267902 1.2746272 1.2215707 0.81514126
0.07763771 0.10983095 -0.113460645 0.28684455 0.49876437 0.13877831 0.43768188 0.012714715
0.30947173 0.32557172 0.5187267 0.09307045 0.6685498 0.16938786 0.112823375 -0.10554667
0.09968924 0.3294531 0.114801615 0.11464712 -0.029765572 -0.27985245 0.70602614 0.38081804
0.18941809 0.2031254 0.57000995 0.21739994 0.014874052 0.096010834 0.30715498 0.056169353
0.5406591 0.24627593 0.08568934 0.1446191 0.12062878 0.031817134 0.08765951 0.2635726
0.31755295 0.31276962 0.3613848 0.36091334 0.25019962 1.2448846 -1.0327609 0.32470596
0.2837052 0.11456657 0.25793302 0.22792259 0.4328554 0.14077342 0.2452607 0.2920096
0.2406612 0.11765523 0.27332115 0.20046994 0.132978 0.24295475 0.30062088 0.27255023
-0.021685945 0.28103024 0.28659424 -0.026905328 0.42638433 -0.030409483 0.3167039 0.30191362
0.3162946 0.34401864 0.2839707 1.128139 0.029965976 0.3254714 0.13819337 0.17328826
0.6419892 0.07411117 0.35725787 0.1971012 0.51609033 0.0048355544 1.249873 0.91960067
0.32738173 0.10177186 0.6447804 0.2891626 -0.62339765 -0.21964397 0.85098934 0.26098567
0.25477356 0.28626847 -0.14116263 0.7290807 0.2392011 0.3499329 0.26319224 0.3780176
0.09530533 0.26326126 0.33729458 0.08239005 0.3080105 0.16906908 0.4806611 0.13591464
00000000: 50eb 36bf 402a 4a3e 2223 d53e d7bf e83e
00000010: 012b 953e 1939 543e 8e9c f5bc c603 163e
00000020: 81a1 1d3e e337 103c e87e 873e bc41 cc3e
00000030: c9cf be3e fc26 a33f 6e5c 9c3f 19ad 503f
00000040: 8500 9f3d 0def e03d 0e5e e8bd 4add 923e
00000050: 0b5e ff3e e71b 0e3e d717 e03e 6151 503c
00000060: 1473 9e3e 56b1 a63e 46cb 043f b89b be3d
00000070: 1426 2b3f 0374 2d3e f10f e73d da28 d8bd
00000080: df29 cc3d 14ae a83e 1c1d eb3d 1ccc ea3d
00000090: eed6 f3bc d248 8fbe 21be 343f 95fa c23e
000000a0: d1f6 413e 1b00 503e 2cec 113f 179e 5e3e
000000b0: 4cb2 733c 54a1 c43d 6b43 9d3e d611 663d
000000c0: a368 0a3f c22f 7c3e e57d af3d 0817 143e
000000d0: 390c f73d af52 023d d486 b33d fdf2 863e
000000e0: 4d96 a23e 5723 a03e 6e07 b93e a2c9 b83e
000000f0: 2a1a 803e 6158 9f3f 8231 84bf dc3f a63e
00000100: cf41 913e e1a1 ea3d cc0f 843e 8a64 693e
00000110: 399f dd3e e826 103e 9f25 7b3e 4882 953e
00000120: e46f 763e 3af5 f03d c0f0 8b3e fe47 4d3e
00000130: 632b 083e 21c9 783e fbea 993e b48b 8b3e
00000140: b9a6 b1bc 32e3 8f3e 7bbc 923e 9068 dcbc
00000150: 0c4f da3e 4f1d f9bc 0327 a23e 6c94 9a3e
00000160: 5ef1 a13e 3623 b03e 9c64 913e dc66 903f
00000170: 357b f53c 30a4 a63e 9082 0d3e 7a72 313e
00000180: 6759 243f 99c7 973d 81ea b63e e6d4 493e
00000190: 7f1e 043f 9273 9e3b d7fb 9f3f f36a 6b3f
000001a0: 949e a73e c46d d03d 5410 253f 1f0d 943e
000001b0: fd96 1fbf 59ea 60be 70da 593f ea9f 853e
000001c0: ae71 823e c891 923e f08c 10be 08a5 3a3f
000001d0: 22f1 743e 682a b33e 22c1 863e 868b c13e
000001e0: 712f c33d 2eca 863e e0b1 ac3e 1dbc a83d
000001f0: 8db3 9d3e 7220 2d3e 3619 f63e 352d 0b3e

local2.conv.lin.weight f4 [128, 128]
0.8514405 -0.30767447 -0.28931397 0.0045975735 0.42667127 0.5682314 0.3392949 0.20999546
-0.36273122 -0.8779479 0.75586337 0.44627202 -0.14539303 0.15896249 0.11534351 -0.7153686
0.36002454 -0.30770236 -0.503678 0.18244797 0.18264703 0.32214433 0.22421522 -1.32642
-0.12485044 -1.6423051 0.32316512 0.26016107 0.16778268 0.6722099 0.50105196 0.24255154
0.22450519 -0.19645402 0.5916952 0.12842293 0.11148591 -1.6007999 -1.3584347 -0.28334227
0.5915407 0.0001069854 -0.106912844 0.81088775 0.3892661 0.3888172 0.24563949 -0.12665218
0.19494355 0.22614367 0.37882704 -0.402235 0.075594634 0.47536942 -1.3373612 0.29207504
0.47478417 0.218584 0.40706196 0.94899017 -0.3142844 0.57211107 0.1530757 0.12643994
-0.4728287 -0.58345056 -0.12887585 -1.2138397 -0.24299657 0.03475828 0.43562356 -0.52499425
0.47332534 -1.3571701 0.54245573 0.21721154 0.0785091 0.27839726 0.35944974 -0.5695968
0.40321344 0.3806797 -0.6170742 0.3607979 -0.09524122 0.005510545 -0.4340607 -0.40298298
-1.1816174 1.0027974 0.49769482 -0.55077136 0.053613674 -0.021773933 0.34569958 0.05990948
0.14779367 -0.09667961 0.44246984 0.42798182 0.07656308 0.10799596 -0.36149558 0.27893296
-0.18450952 -0.41142163 -0.11058795 0.6816573 -1.0536646 0.47947904 0.2612013 0.11946675
-0.07458949 0.038342167 -0.63172674 0.35961553 0.3050715 0.42588982 0.82053983 -0.058847528
0.21515559 -0.86687696 0.33014393 0.6709356 0.24541311 -0.0925298 0.63433605 -1.0034189
-0.30296126 0.0180633 0.45789385 0.43369067 0.25581816 0.3195945 0.73955524 -1.0474738
0.43093443 0.14175211 0.587201 0.4437277 -0.3977799 0.4926723 -0.6901014 0.30655748
-0.006248295 -0.20728478 0.18841326 0.3844527 0.43351153 -0.42568144 0.5629085 -0.4372314
-0.16331923 0.49151868 -0.5822536 -0.11751149 -0.16169606 -0.52046967 0.5806044 -0.5009864
0.06066774 0.09133911 -0.78362143 0.3894039 -0.75138485 0.2896801 0.0776654 -0.9977168
0.27935123 0.25607756 0.5231247 0.54907423 -0.24174824 -0.67168397 -0.04796063 0.41376618
0.41762033 0.21570708 -0.057871554 0.038654964 -0.15019208 0.30003247 0.011081127 0.48218653
-0.6016053 0.4116538 0.053932656 -0.26046085 0.4821183 0.60476947 -0.2692251 0.24391595
0.3937251 0.27708694 -0.61811817 0.12727895 0.45631576 -0.6542023 -0.21027336 -0.70564497
-0.9286966 0.28182968 -1.5060812 -0.80192477 0.28876996 0.47626916 0.26528344 0.109667145
0.19503173 0.1682433 -0.8788301 0.16646008 0.20916295 -0.0365846 -0.6330824 -0.6339023
-0.016161507 0.25287944 -0.8774925 -0.40640968 0.43086836 -0.57126456 0.37120238 0.111930914
0.28533697 0.02469446 -0.7819482 0.0007555943 -0.35444528 -1.0064913 -1.098906 0.2864284
-0.058135085 -0.024261985 0.5144537 -0.7072038 0.32575008 -0.03300801 -0.70819277 0.5870843
-0.5312103 -0.5324189 0.450499 0.15467271 -1.1007879 -1.1637398 0.32745638 -0.30691013
-0.19192962 -0.26785427 0.048238322 -0.82409066 -0.32141724 0.021338593 0.31526247 0.42336255
00000000: 01f8 593f 8287 9dbe f620 94be 3ea7 963b
00000010: a874 da3e 9d77 113f 10b8 ad3e 0d09 573e
00000020: e8b7 b9be 32c1 60bf 4380 413f c47d e43e
00000030: e9e1 14be 10c7 223e 3839 ec3d 6622 37bf
00000040: 2355 b83e 2a8b 9dbe 0bf1 00bf a4d3 3a3e
00000050: d307 3b3e 1af0 a43e ad98 653e 21c8 a9bf
00000060: 96b1 ffbd 0e37 d2bf e675 a53e d533 853e
00000070: 39cf 2b3e f315 2c3f f144 003f 6e5f 783e
00000080: b0e4 653e 3e2b 49be 5679 173f 4d81 033e
00000090: ba52 e43d 03e7 ccbf 30e1 adbf 3d12 91be
000000a0: 366f 173f 595d e038 1ff5 dabd 5796 4f3f
000000b0: e34d c73e 0c13 c73e eb88 7b3e 1cb1 01be
000000c0: 489f 473e 3592 673e 9ef5 c13e bff1 cdbe
000000d0: 5cd1 9a3d 9f63 f33e a72e abbf dc8a 953e
000000e0: e916 f33e 7cd4 5f3e 6d6a d03e 05f1 723f
000000f0: e3e9 a0be df75 123f e0bf 1c3e 7979 013e
00000100: 9a16 f2be 045d 15bf 08f8 03be 195f 9bbf
00000110: 18d4 78be b35e 0e3d 0d0a df3e 0666 06bf
00000120: b357 f23e c0b7 adbf 61de 0a3f b46c 5e3e
00000130: 61c9 a03d 168a 8e3e cc09 b83e 19d1 11bf
00000140: fe71 ce3e 73e8 c23e 93f8 1dbf 81ba b83e
00000150: d40d c3bd cd91 b43b 343d debe c953 cebe
00000160: 3d3f 97bf aa5b 803f dbd1 fe3e 5aff 0cbf
00000170: 039a 5b3d 3f5f b2bc 89ff b03e a563 753d
00000180: 3957 173e f6ff c5bd 688b e23e 6f20 db3e
00000190: 1bcd 9c3d fc2c dd3d f315 b9be 4dd0 8e3e
000001a0: 10f0 3cbe dba5 d2be ef7b e2bd 1881 2e3f
000001b0: 7bde 86bf 477e f53e 2dbc 853e fcaa f43d
000001c0: 60c2 98bd ad0c 1d3d d8b8 21bf 871f b83e
000001d0: 5532 9c3e 3b0e da3e e60e 523f 1b0a 71bd
000001e0: bf51 5c3e a6eb 5dbf a008 a93e 6fc2 2b3f
000001f0: 934d 7b3e 4480 bdbd d963 223f 0870 80bf
00000200: bd1d 9bbe 7cf9 933c 1071 ea3e b40c de3e
00000210: 99fa 823e e4a1 a33e 7e53 3d3f 9f13 86bf
00000220: 70a3 dc3e 7727 113e ce52 163f 4730 e33e
00000230: cfa9 cbbe 8b3f fc3e 7caa 30bf 1af5 9c3e
00000240: 7fbe ccbb 7642 54be 68ef 403e fcd6 c43e
00000250: 39f5 dd3e ebf2 d9be c51a 103f cbdc dfbe
00000260: 283d 27be 56a8 fb3e 920e 15bf dda9 f0bd
00000270: a793 25be 803d 05bf 7da2 143f a540 00bf
00000280: bc7e 783d 0010 bb3d 6a9b 48bf f35f c73e
00000290: c25a 40bf f350 943e 0a0f 9f3d 5e6a 7fbf
000002a0: 2007 8f3e 991c 833e 80eb 053f 2190 0c3f
000002b0: da8c 77be 7bf3 2bbf 5e72 44bd 29d9 d33e
000002c0: 55d2 d53e 51e2 5c3e b90a 6dbd ab54 1e3d
000002d0: f4cb 19be db9d 993e 9e8d 353c 27e1 f63e
000002e0: ce02 1abf 49c4 d23e 7de8 5c3d 205b 85be
000002f0: 36d8 f63e 2cd2 1a3f dfd7 89be 1ac5 793e
00000300: 5696 c93e 57de 8d3e fe3c 1ebf 6a55 023e
00000310: 38a2 e93e cd79 27bf e651 57be 26a5 34bf
00000320: 0fbf 6dbf fb4b 903e 45c7 c0bf f14a 4dbf
00000330: a8d9 933e 8dd9 f33e 3bd3 873e 2b99 e03d
00000340: 66b6 473e f947 2c3e 02fb 60bf 8374 2a3e
00000350: d02e 563e bcd9 15bd b011 22bf 6c47 22bf
00000360: 2365 84bc 6a79 813e 59a3 60bf ee14 d0be
00000370: c79a dc3e 653e 12bf 3d0e be3e 093c e53d
00000380: b017 923e 094c ca3c c22d 48bf 1313 463a
00000390: da79 b5be b5d4 80bf f4a8 8cbf bea6 923e
000003a0: 0e1f 6ebd 12c1 c6bc 3db3 033f 4f0b 35bf
000003b0: b7c8 a63e 6833 07bd 1f4c 35bf 284b 163f
000003c0: 66fd 07bf 9b4c 08bf cea7 e63e 8662 1e3e
000003d0: 9ee6 8cbf 6df5 94bf 5da8 a73e 5323 9dbe
000003e0: 3389 44be 3224 89be 8c95 453d 9bf7 52bf
000003f0: cd90 a4be 46ce ae3c 156a a13e fac2 d83e

local2.norm.weight f4 [128]
1.2002304 1.0181085 0.75842756 0.5808199 1.0457237 1.4006904 0.9073947 1.441674
0.91358507 1.404987 0.82766044 0.7421372 0.70957357 0.2079953 0.22090338 0.7379718
0.9644874 0.71625364 1.1138601 0.7494552 0.5742138 0.80915105 0.61645615 1.1078688
0.9604153 0.65704405 0.55071384 1.9736642 0.5751843 1.0077405 1.0363823 1.2467327
0.67874914 0.9998753 1.1213491 1.6763593 0.7014881 0.989725 0.5878322 0.5934516
1.1987605 1.0747194 0.8929231 0.9813324 1.0807624 1.5885358 0.5973013 0.6835012
0.47934788 1.4908712 1.3111316 1.259806 0.7455958 0.8685492 0.5500383 0.91377705
0.60937506 0.57075727 0.5149642 0.6259566 0.5951582 0.19505969 1.0801194 1.5674202
0.64632046 0.9210889 0.8627445 1.1304004 0.62627494 1.53095 1.5711204 1.363101
1.691952 0.9372969 0.8805676 0.9660704 0.827457 1.1151326 0.70864344 0.9737157
1.049449 0.8832251 1.5584114 0.9633482 0.6180517 1.0934345 1.2606709 0.70999867
0.5178488 0.53192353 0.69817954 0.23442571 0.9960956 1.1950823 1.45737 0.5772598
0.50860566 1.0544856 0.56958276 1.2802922 0.48179212 0.9192623 0.2051289 0.2863773
0.6020405 1.0574775 0.44991633 0.6303553 1.3965652 1.4410704 0.30540895 0.9295944
0.8981736 0.97813505 1.1669766 0.43103194 1.1456972 0.78923625 0.9510871 0.5537334
0.77819765 0.9463436 0.7423829 0.926087 0.8030852 1.0484493 0.88723063 0.62439775
00000000: 26a1 993f 6151 823f 4f28 423f 9db0 143f
00000010: 46da 853f d349 b33f 054b 683f c688 b83f
00000020: b6e0 693f 9dd6 b33f 8ee1 533f b4fc 3d3f
00000030: 9da6 353f b8fc 543e 7f34 623e b8eb 3c3f
00000040: a5e8 763f 665c 373f f892 8e3f 4cdc 3f3f
00000050: adff 123f 8624 4f3f 12d0 1d3f a5ce 8d3f
00000060: c7dd 753f 0a34 283f 95fb 0c3f 07a1 fc3f
00000070: 473f 133f a4fd 803f 2da8 843f f094 9f3f
00000080: 81c2 2d3f d4f7 7f3f 5e88 8f3f f192 d63f
00000090: b994 333f 9e5e 7d3f 2c7c 163f 72ec 173f
000000a0: fc70 993f 6890 893f 9c96 643f 9a38 7b3f
000000b0: 6c56 8a3f 2455 cb3f bde8 183f eff9 2e3f
000000c0: 166d f53e ded4 be3f 29d3 a73f 5341 a13f
000000d0: 5edf 3e3f 3e59 5e3f 4fcf 0c3f 4bed 693f
000000e0: 0100 1c3f 261d 123f b2d4 033f b13e 203f
000000f0: 4a5c 183f babd 473e 5a41 8a3f 3aa1 c83f
00000100: 4275 253f 7bcc 6b3f d3dc 5c3f f6b0 903f
00000110: 8e53 203f 2bf6 c33f 791a c93f 187a ae3f
00000120: e291 d83f b1f2 6f3f e16c 613f 6450 773f
00000130: 39d4 533f aabc 8e3f a869 353f 6f45 793f
00000140: 5854 863f 0a1b 623f 067a c73f fd9d 763f
00000150: a338 1e3f a9f5 8b3f aa5d a13f 79c2 353f
00000160: bd91 043f 242c 083f e5bb 323f 4b0d 703e
00000170: 1f00 7f3f 75f8 983f 1a8b ba3f 4cc7 133f
00000180: fb33 023f 62f9 863f 2dd0 113f 9de0 a33f
00000190: 75ad f63e c654 6b3f 4f0d 523e 0ca0 923e
000001a0: 541f 1a3f 6c5b 873f 6f5b e63e f75e 213f
000001b0: a6c2 b23f ff74 b83f 905e 9c3e e6f9 6d3f
000001c0: b4ee 653f 0f67 7a3f 7d5f 953f 38b0 dc3e
000001d0: 35a6 923f 630b 4a3f 727a 733f 79c1 0d3f
000001e0: f637 473f 9343 723f ce0c 3e3f 0a14 6d3f
000001f0: fe96 4d3f 9633 863f 8c21 633f 88d8 1f3f

local2.norm.bias f4 [128]
-0.40365624 -0.18011369 -0.51934785 -0.4974919 -0.40519547 -0.13204925 -0.4378656 -0.35351497
-0.4414642 -0.37896985 -0.37363115 -0.3839872 -0.5492297 -0.76086456 -0.7235042 -0.60874206
-0.474092 -0.28165606 -0.5335972 -0.21267839 -0.5857944 -0.3909212 -0.41950697 -0.3889548
-0.42548317 -0.40112108 -0.6196511 -0.36066344 -0.81180006 -0.17215252 -0.39266777 -0.37275875
-0.39058754 -0.4921414 -0.2820496 -0.2311598 -0.2877589 -0.45672557 -0.5523256 -0.4612098
-0.37187833 -0.4578426 -0.40612003 -0.3939043 -0.44428056 -0.3298924 -0.32591113 -0.443604
-0.677599 -0.22028746 -0.15940255 -0.44076598 -0.53653526 -0.30863443 -0.31739917 -0.18100935
-0.6526283 -0.2236544 -0.43174678 -0.5335151 -0.45635414 -0.7181593 -0.34198335 -0.4008644
-0.65929925 -0.38722527 -0.4299603 -0.57536656 -0.6318188 -0.19957796 -0.25731844 -0.24394323
-0.22235359 -0.4202947 -0.44477397 -0.43487224 -0.35835567 -0.1474662 -0.25011322 -0.171823
-0.5995482 -0.6364495 -0.20977823 -0.33470255 -0.43944696 -0.3407197 -0.34898835 -0.32361534
-0.32449 -0.38631365 -0.3004341 -0.73111075 -0.35523164 -0.51444787 -0.40843958 -0.5050189
-0.79853034 -0.50447315 -0.496233 -0.17847411 -0.54852545 -0.3572257 -0.7389869 -0.73984313
-0.38138032 -0.43339565 -0.7625675 -0.36559284 -0.17556912 -0.32600564 -0.73672706 -0.2910705
-0.55918944 -0.31831047 -0.46518552 -0.7289965 -0.36505538 -0.61878204 -0.30894378 -0.5146961
-0.3516193 -0.31127995 -0.62907743 -0.25395915 -0.5876136 -0.2681721 -0.3393491 -0.31897414
00000000: 08ac cebe b96f 38be fbf3 04bf 42b7 febe
00000010: c875 cfbe eb37 07be ec2f e0be eaff b4be
00000020: 9807 e2be 5608 c2be 954c bfbe f899 c4be
00000030: 519a 0cbf 05c8 42bf 9237 39bf 85d6 1bbf
00000040: 30bc f2be 3935 90be d399 08bf 5dc8 59be
00000050: 9ff6 15bf d326 c8be 9ec9 d6be 1525 c7be
00000060: eed8 d9be be5f cdbe 74a1 1ebf e1a8 b8be
00000070: 21d2 4fbf c048 30be c00b c9be 3cda bebe
00000080: 17fb c7be f5f9 fbbe ce68 90be 28b5 6cbe
00000090: 2255 93be efd7 e9be 3665 0dbf b123 ecbe
000000a0: d666 bebe 586a eabe f7ee cfbe d3ad c9be
000000b0: be78 e3be a8e7 a8be d3dd a6be 1020 e3be
000000c0: 2177 2dbf 0993 61be 6c3a 23be 14ac e1be
000000d0: 605a 09bf 5505 9ebe 2582 a2be 845a 39be
000000e0: a612 27bf a905 65be ea0d ddbe 7294 08bf
000000f0: 40a7 e9be 4ad9 37bf 7118 afbe 193e cdbe
00000100: d6c7 28bf 6442 c6be c223 dcbe 394b 13bf
00000110: e0be 21bf 2a5e 4cbe 3ebf 83be 41cc 79be
00000120: a9b0 63be de30 d7be 6ab9 e3be 93a7 debe
00000130: 657a b7be 6101 17be d70e 80be 5ef2 2fbe
00000140: fe7b 19bf 5bee 22bf 1bd0 56be 225e abbe
00000150: 31ff e0be d072 aebe 9aae b2be e9b0 a5be
00000160: 8e23 a6be e7ca c5be 80d2 99be 132a 3bbf
00000170: ece0 b5be dbb2 03bf fe1e d1be eb48 01bf
00000180: 7c6c 4cbf 2725 01bf 4012 febe ebc1 36be
00000190: 2a6c 0cbf 49e6 b6be 3f2e 3dbf 5c66 3dbf
000001a0: 4844 c3be 09e6 ddbe a037 43bf fc2e bbbe
000001b0: 64c8 33be 36ea a6be 259a 3cbf 3107 95be
000001c0: 0a27 0fbf 97f9 a2be cc2c eebe 849f 3abf
000001d0: 8ae8 babe 8068 1ebf e12d 9ebe 20c3 03bf
000001e0: 7207 b4be 1660 9fbe 380b 21bf ef06 82be
000001f0: d86d 16bf da4d 89be 2abf adbe 9450 a3be

meso.Wq.weight f4 [128, 128]
-0.14513089 -0.060430456 -0.21844947 -0.2840983 -0.39020023 -0.55557686 0.13646136 0.057904232
-0.32551497 -0.17849337 -0.26212704 0.24322174 -0.26064095 -0.06150529 -0.023802752 0.4224827
0.0410094 0.6331544 0.4235255 0.10557775 0.071149044 -0.12382962 -0.011920378 0.17698187
-0.24860083 0.047339622 0.24076338 -0.34834635 0.26958343 -0.1876039 -0.15364465 -0.096828826
0.03218208 -0.03944112 0.0017545912 -0.4894893 0.34515995 -0.17410591 -0.4462016 -0.07998768
-0.05990559 -0.50016 0.20594874 0.13808171 0.02998512 -0.4739499 -0.05007189 -0.17852457
-0.027959753 -0.06698338 0.21460553 0.46884248 0.24477477 0.018867278 -0.11266785 0.06866466
-0.13216403 -0.05731015 0.15088688 -0.11355447 0.37185314 0.04594453 -0.021826293 0.24541625
-0.12145508 -0.19899635 0.41692743 -0.910086 0.10280072 -0.07870881 0.17506962 0.3008143
0.3929704 -0.18933311 -0.27781305 -0.4006974 -0.16609111 -0.12388568 0.24326761 -0.18899064
0.07602614 -0.32455754 0.07389423 -0.40134928 -0.20764337 -0.28382295 -0.2786645 -0.112188935
0.036827546 -0.11887591 -0.5463215 -0.06913229 -0.015968023 0.058512036 0.0384161 -0.2179878
0.4266757 0.019934775 0.47831932 0.14020012 -0.01548951 -0.10599196 0.11373782 -0.12213941
0.0014771832 0.26144174 -0.24612693 0.44314867 -0.081526645 0.14080174 -0.16309957 0.15963176
-0.41485557 -0.15388454 0.21688214 0.047764827 0.14079332 -0.41391575 0.23633313 0.23644914
-0.03882945 -0.055464707 0.07513713 -0.3179641 -0.38768464 0.015109041 -0.13897878 -0.097690314
0.42724413 -0.06443719 0.14204045 0.5616399 0.279949 -0.1517768 -0.18985291 -0.19528091
-0.11603025 0.04755182 0.6342944 -0.43270445 -0.09947905 -0.07819165 0.039484747 0.067452535
0.22537449 -0.43062952 0.014071191 -0.36238676 -0.5960876 0.42542472 0.050132122 -0.3998773
-0.11740435 -0.084843665 -0.39435917 0.4856279 -0.4961253 0.08622577 -0.17387958 -0.008250206
0.029882828 0.3747924 -0.30402538 0.40070188 -0.04680115 0.010293036 -0.2486661 -0.3643052
-0.090530045 0.09530425 -0.121883765 0.35011765 0.37885562 -0.04165187 0.1629113 0.23497456
-0.32738668 0.060266934 -0.06688193 -0.59532595 -0.03432091 0.41065347 -0.039401524 0.38636503
-0.28681082 0.010360322 -0.07647225 -0.44482872 -0.5967491 -0.08527819 -0.045478072 0.58765477
-0.036497235 1.0727172 0.35566133 0.3540449 0.2496444 0.38658684 -0.021824416 0.19388719
-0.25258523 0.31691632 -0.1610569 0.36120212 -0.77090126 0.26737073 0.34627444 0.3642821
-0.095411964 0.036148988 -0.16657732 0.4345148 -0.17084345 0.32451615 0.43186936 0.6539833
0.48045045 0.64700145 0.6559481 -0.094672464 -0.22608869 0.72741175 0.20803057 0.7235516
-0.32669294 0.26670855 -0.1353666 0.0071261595 0.08271061 0.19409123 0.14940318 -0.034360997
0.4869903 -0.10923444 -0.33859098 0.19922617 -0.0939986 0.20463766 -0.42426232 -0.1731323
0.34595776 -0.10471882 -0.7268863 -0.2752158 0.276393 -0.46378076 -0.18380879 0.01836803
0.2576186 -0.32230583 -0.042063113 0.05885654 -0.13018249 0.052793473 -0.33514768 0.7756458
00000000: 319d 14be ed85 77bd 38b1 5fbe 5575 91be
00000010: 53c8 c7be 493a 0ebf 87bc 0b3e fd2c 6d3d
00000020: e6a9 a6be f7c6 36be 8435 86be 1f0f 793e
00000030: bb72 85be f9ec 7bbd fdfd c2bc a74f d83e
00000040: 79f9 273d 6816 223f 56d8 d83e 2639 d83d
00000050: 97b6 913d 629a fdbd b04d 43bc bc3a 353e
00000060: 3791 7ebe 31e7 413d ad8a 763e 745a b2be
00000070: d706 8a3e 3d1b 40be 0655 1dbe 314e c6bd
00000080: 5bd1 033d 038d 21bd 50fa e53a 579e fabe
00000090: ceb8 b03e d248 32be 8974 e4be 95d0 a3bd
000000a0: 905f 75bd 7c0a 00bf 3ae4 523e 4b65 0d3e
000000b0: 5ba3 f53c 90a9 f2be 2f18 4dbd 25cf 36be
000000c0: da0b e5bc 952e 89bd 8dc1 5b3e 1f0c f03e
000000d0: 3da6 7a3e 8d8f 9a3c 67be e6bd 0fa0 8c3d
000000e0: 0256 07be 0cbe 6abd 1782 1a3e 3f8f e8bd
000000f0: 8963 be3e 5530 3c3d 0ecd b2bc 664e 7b3e
00000100: 71bd f8bd b3c5 4bbe 8377 d53e 65fb 68bf
00000110: 2f89 d23d 1632 a1bd 7345 333e 5504 9a3e
00000120: 6b33 c93e 8ae0 41be 833d 8ebe 3628 cdbe
00000130: ca13 2abe c7b7 fdbd 251b 793e c386 41be
00000140: 98b3 9b3d 682c a6be dc55 973d a77d cdbe
00000150: 77a0 54be 3e51 91be 1dad 8ebe 50c3 e5bd
00000160: 7bd8 163d 3775 f3bd badb 0bbf 3b95 8dbd
00000170: 5fcf 82bc 51aa 6f3d 335a 1d3d 3238 5fbe
00000180: 3d75 da3e 414e a33c 45e6 f43e 9f90 0f3e
00000190: b7c7 7dbc 5012 d9bd 60ef e83d 3a24 fabd
000001a0: 0b9e c13a b1db 853e b308 7cbe 62e4 e23e
000001b0: 71f7 a6bd 552e 103e 9303 27be 8276 233e
000001c0: f367 d4be e993 1dbe 5a16 5e3e 0da5 433d
000001d0: 202c 103e c4ec d3be 5001 723e b91f 723e
000001e0: a10b 1fbd f62e 63bd 7fe1 993d 31cc a2be
000001f0: 9a7e c6be e98b 773c 7450 0ebe dc11 c8bd
00000200: bebf da3e a5f7 83bd 0d73 113e a2c7 0f3f
00000210: 7a55 8f3e 616b 1bbe cd68 42be b8f7 47be
00000220: 45a1 edbd b2c5 423d 1e61 223f 708b ddbe
00000230: acbb cbbd f222 a0bd c2ba 213d 8e24 8a3d
00000240: 92c8 663e 797b dcbe da8a 663c c28a b9be
00000250: 3299 18bf 45d1 d93e 5757 4d3d b8bc ccbe
00000260: b171 f0bd 84c2 adbd 72e9 c9be 38a4 f83e
00000270: 2304 febe 2397 b03d 7d0d 32be df2b 07bc
00000280: d5cc f43c cae4 bf3e 37a9 9bbe cc28 cd3e
00000290: 90b2 3fbd 1fa4 283c 53a2 7ebe 3686 babe
000002a0: d167 b9bd e02e c33d 329e f9bd 9f42 b33e
000002b0: 5df9 c13e 279b 2abd 38d2 263e 2c9d 703e
000002c0: 3a9f a7be 76da 763d 65f9 88bd 4867 18bf
000002d0: 1594 0cbd 2c41 d23e 7e63 21bd a3d1 c53e
000002e0: ded8 92be 57be 293c 7c9d 9cbd 97c0 e3be
000002f0: 8dc4 18bf 55a6 aebd 3747 3abd 8b70 163f
00000300: 207e 15bd cc4e 893f 3e19 b63e 6045 b53e
00000310: c8a2 7f3e b6ee c53e 1ec9 b2bc 5d8a 463e
00000320: da52 81be db42 a23e 1aec 24be 7cef b83e
00000330: c959 45bf d1e4 883e e24a b13e 2f83 ba3e
00000340: 5967 c3bd f610 143d 3f93 2abe b978 de3e
00000350: 96f1 2ebe fb26 a63e fb1d dd3e 736b 273f
00000360: 9afd f53e e3a1 253f 37ec 273f a3e3 c1bd
00000370: cb83 67be a837 3a3f f705 553e ad3a 393f
00000380: 4c44 a7be 068e 883e 8b9d 0abe 8f82 e93b
00000390: 2e64 a93d dabf 463e 26fd 183e 1ebe 0cbd
000003a0: cb56 f93e 4eb6 dfbd cc5b adbe f201 4c3e
000003b0: 5782 c0bd 898c 513e e938 d9be 9849 31be
000003c0: 6021 b13e d276 d6bd 3815 3abf 16e9 8cbe
000003d0: 6283 8d3e ac74 edbe 5f38 3cbe 8d78 963c
000003e0: 96e6 833e 4505 a5be 5f4a 2cbd 8e13 713d
000003f0: 8f4e 05be f83d 583d 7a98 abbe b990 463f
