models/eeg_loso/s_07.pt (torch, 561186 bytes, 37 tensors)

band_attn.fc1.weight f4 [8, 5]
-0.1767406 -0.9995561 -0.42124328 0.72238386 -0.86250764 -0.10130362 0.0047024274 -0.691514
1.477497 0.30033198 -0.13176699 -0.2794059 0.057320345 1.4500178 -0.1928502 0.11432451
-0.30087698 -1.0639627 0.034292456 0.27092314 -0.1371199 1.0437145 0.29653105 -0.5802787
-0.8548484 -0.17859247 0.04195626 -0.41476566 -0.53923136 -0.76077384 0.2238523 -0.22733615
-0.35251763 1.3641036 -0.48053277 0.10029308 -0.3497864 -0.37404013 -1.0766033 1.2332715
00000000: 7dfb 34be e9e2 7fbf 33ad d7be 26ee 383f
00000010: 4dcd 5cbf 4678 cfbd d216 9a3b 1007 31bf
00000020: 9f1e bd3f 1dc5 993e eded 06be 4a0e 8fbe
00000030: bdc8 6a3d 2f9a b93f 867a 45be f822 ea3d
00000040: 8c0c 9abe ee2f 88bf 3f76 0c3d 70b6 8a3e
00000050: 2969 0cbe 7098 853f ebd2 973e 258d 14bf
00000060: 58d7 5abf f2e0 36be 54da 2b3d 2a5c d4be
00000070: 110b 0abf 13c2 42bf 8a39 653e cfca 68be
00000080: 317d b4be f29a ae3f 6408 f6be 7566 cd3d
00000090: 3417 b3be 3082 bfbe 23ce 89bf d7db 9d3f

band_attn.fc1.bias f4 [8]
0.2850277 0.18023588 1.3479056 -0.9362601 0.63570195 -0.78689426 0.46783888 0.19293444
00000000: 27ef 913e c18f 383e 2c88 ac3f beae 6fbf
00000010: 5dbd 223f e771 49bf 9488 ef3e 9b90 453e

band_attn.fc2.weight f4 [5, 8]
-1.0908246 -0.23674844 -0.7297045 -1.336261 -0.42920697 0.064626664 0.65453565 -1.116974
-1.0469073 0.46920386 -0.13685511 0.79398286 1.0162706 0.5945035 -0.07922738 -0.5846272
0.3108465 -0.38284275 0.55967045 -1.1204898 -0.38906804 -0.04858676 0.8638657 0.7094308
0.42641702 0.5772272 0.9659561 0.052599248 0.066201575 -0.9975915 0.97665817 -0.7957664
1.0235265 -0.6638224 -1.5552257 -0.1506306 -0.08597957 0.039580982 -1.5548857 0.7746364
00000000: 24a0 8bbf 2f6e 72be eacd 3abf 9a0a abbf
00000010: 04c1 dbbe fc5a 843d a68f 273f 01f9 8ebf
00000020: 0f01 86bf 7d3b f03e bf23 0cbe 7642 4b3f
00000030: 2815 823f 6231 183f f741 a2bd 21aa 15bf
00000040: 4627 9f3e f703 c4be 9046 0f3f 366c 8fbf
00000050: ed33 c7be e902 47bd 4d26 5d3f 429d 353f
00000060: 5553 da3e 29c5 133f e648 773f 4f72 573d
00000070: b194 873d 2862 7fbf 4506 7a3f 59b7 4bbf
00000080: eb02 833f 44f0 29bf a311 c7bf e83e 1abe
00000090: 0f16 b0bd ab1f 223d 7f06 c7bf 924e 463f

band_attn.fc2.bias f4 [5]
-0.6990173 0.06665852 0.1887352 0.3735317 -0.33512142
00000000: ccf2 32bf 4384 883d cd43 413e 8c3f bf3e
00000010: 0995 abbe

feat_proj.weight f4 [128, 21]
-0.20588574 2.0422807 1.2534077 -1.673783 0.87384063 -0.99909216 0.049623244 0.08253235
-0.055992253 0.06566782 -0.031434774 1.0423158 -0.24766532 0.23454763 0.07212975 -0.32927474
-0.15309829 -0.05494185 -0.1048412 -0.13821808 -0.29423663 -0.657225 -0.4689473 0.36250934
-0.18852067 0.80049974 -0.9871213 -0.16473238 -0.05581769 -0.04491002 0.0041313586 0.007184113
-1.5928813 -1.6149496 -0.9008316 -0.3480485 -0.26768106 -0.0037142064 0.05701197 -0.089402854
-0.11830747 0.49233356 -2.4752135 -0.65211695 -0.3236921 0.67346543 0.8570013 0.28738084
-0.2831422 -0.053663608 0.070482805 -0.006106793 0.023531858 0.06567319 0.06404418 0.89193237
1.6522346 0.99228406 -0.01303534 -0.06976693 -0.046606775 -0.08637678 0.14753523 0.3178175
-0.9577243 -1.3345912 -0.87566626 -0.22240685 0.24814633 0.34283584 -0.09545559 -0.020503517
-0.05502657 0.031733375 0.104005694 -0.52947724 0.07016477 1.4668719 1.1385967 -0.031158192
-0.019754272 -0.09112986 0.03153672 0.16290823 -1.189851 0.20360325 1.4315652 1.8540788
2.4403164 0.1482939 -0.096540235 0.16016263 0.007575226 0.03462713 0.037524194 -0.6830258
-0.39867964 -0.27844658 0.19817598 0.04194252 0.084011786 0.021180423 -0.08127617 -0.06536191
0.8186594 0.45918986 1.3150347 0.59894675 -0.18204662 -0.33590114 0.78002995 0.28004172
-0.2887814 -0.026117114 0.0039219004 -0.05057718 1.2662146 -0.37841278 0.43057922 0.96733487
0.78398824 -0.0099506 -0.0022058417 0.008876537 0.04041453 -0.29611483 0.4444988 0.6027637
-0.16559714 -0.33650368 0.26823017 -0.5013875 -0.054712225 0.36626422 0.01391861 0.054842405
0.005486374 0.9158595 1.1327589 0.12716176 -1.4590753 -0.74443805 -0.046778932 0.04604319
0.008089579 -0.028998168 -0.742384 0.046748143 1.0637376 1.7546328 -0.06858833 0.31526572
0.009013679 -0.28720635 -0.16332023 -0.023867527 0.020785574 -0.032430567 0.53463715 0.86301315
-0.43195057 -1.7644721 -1.3110627 -0.029979544 0.021674428 0.058241893 -0.03584568 -0.38247144
-1.7472843 1.4531614 0.79953927 0.25632596 0.87810355 0.09557227 -0.5830792 -0.030549558
-0.028657112 0.046601973 0.017737202 -0.08673215 -0.0043429695 1.423759 1.7882029 1.3481718
-0.07147508 0.021751653 0.074017055 -0.0864598 0.54715055 -1.2409594 -0.5893026 -0.63360476
-0.3632789 1.2177947 0.2653632 0.20011973 -0.004478679 -0.03295049 -0.0028991299 -0.034890857
-1.0629761 -1.601616 -0.21601522 1.1077387 0.54441524 -0.050203636 0.031011583 -0.13138688
-0.07540665 0.6711532 -0.21185116 1.0206362 1.4035574 -1.2887434 -0.50587356 0.40637943
-0.25672758 -0.13753003 -0.04099216 -0.0051062945 -0.030770032 1.3981351 -1.5297633 -0.7301783
0.4422755 -0.008120992 0.00073658046 -0.10830273 -0.023827152 -0.020452436 -0.29650345 -0.5050119
-0.49771035 0.53493315 1.0614599 1.2346972 -0.6121034 -0.31267887 0.03605456 0.038304158
0.0016795527 0.05833848 2.265834 1.4589171 0.37723312 0.29435655 -0.20330043 -0.004580003
0.022350127 -0.05037865 0.026920892 0.23594582 -0.29192886 0.35683483 0.4877633 0.11418238
00000000: b6d3 52be bab4 0240 aa6f a03f 853e d6bf
00000010: 05b4 5f3f 81c4 7fbf be41 4b3d b906 a93d
00000020: 2258 65bd da7c 863d c0c1 00bd 9b6a 853f
00000030: fa9b 7dbe 412d 703e c3b8 933d b396 a8be
00000040: ccc5 1cbe b50a 61bd fcb6 d6bd 0a89 0dbe
00000050: 2fa6 96be e63f 28bf dc19 f0be d39a b93e
00000060: 900b 41be 8ded 4c3f fbb3 7cbf 9baf 28be
00000070: 17a1 64bd 92f3 37bd 5960 873b b568 eb3b
00000080: 89e3 cbbf abb6 cebf e69c 66bf 6a33 b2be
00000090: 7e0d 89be 0b6a 73bb 6285 693d d818 b7bd
000000a0: 304b f2bd 2513 fc3e e669 1ec0 23f1 26bf
000000b0: f9ba a5be 3b68 2c3f 7064 5b3f 9523 933e
000000c0: 04f8 90be 5fce 5bbd 4a59 903d 7e1b c8bb
000000d0: e2c5 c03c aa7f 863d 9829 833d ae55 643f
000000e0: 6c7c d33f 5406 7e3f 2e92 55bc f7e1 8ebd
000000f0: bfe6 3ebd 4fe6 b0bd 7a13 173e fab8 a23e
00000100: 6b2d 75bf e2d3 aabf aa2b 60bf 9fbe 63be
00000110: 121a 7e3e 2e88 af3e 387e c3bd fef6 a7bc
00000120: 8a63 61bd dbfa 013d f000 d53d d28b 07bf
00000130: 8cb2 8f3d 75c2 bb3f 89bd 913f 773f ffbc
00000140: b6d3 a1bc 4ba2 babd a62c 013d 6ad1 263e
00000150: 0a4d 98bf 5f7d 503e 873d b73f 7452 ed3f
00000160: 252e 1c40 5bda 173e e3b6 c5bd ac01 243e
00000170: 9a39 f83b 2dd5 0d3d f8b2 193d c7da 2ebf
00000180: bd1f ccbe 8d90 8ebe a5ee 4a3e ebcb 2b3d
00000190: 5f0e ac3d 9182 ad3c 1f74 a6bd 77dc 85bd
000001a0: aa93 513f ef1a eb3e 0f53 a83f 9354 193f
000001b0: 6e6a 3abe 3cfb abbe 0bb0 473f a161 8f3e
000001c0: 28db 93be 8ff3 d5bc 4983 803b 042a 4fbd
000001d0: 5213 a23f 52bf c1be e174 dc3e 42a3 773f
000001e0: 74b3 483f d707 23bc e28f 10bb e56e 113c
000001f0: b589 253d 5d9c 97be 5995 e33e b94e 1a3f
00000200: 4c92 29be 364a acbe 7755 893e ee5a 00bf
00000210: ed19 60bd fc86 bb3e e20a 643c 6ea2 603d
00000220: 0ac7 b33b c575 6a3f 3efe 903f b136 023e
00000230: fbc2 babf 7e93 3ebf 449b 3fbd c997 3c3d
00000240: 278a 043c 918d edbc e10c 3ebf fb7a 3f3d
00000250: 8e28 883f cf97 e03f 0a78 8cbd 826a a13e
00000260: 1cae 133c b60c 93be 6b3d 27be d585 c3bc
00000270: 8246 aa3c ead5 04bd fbdd 083f 6eee 5c3f
00000280: a028 ddbe 39da e1bf e7d0 a7bf a997 f5bc
00000290: 928e b13c 0d8f 6e3d ebd2 12bd 4cd3 c3be
000002a0: 03a7 dfbf 3101 ba3f 9bae 4c3f 283d 833e
000002b0: 65cb 603f 65bb c33d ae44 15bf 1143 fabc
000002c0: 52c2 eabc b6e1 3e3d 9c4d 913c a0a0 b1bd
000002d0: 784f 8ebb bc3d b63f d5e3 e43f e590 ac3f
000002e0: 8761 92bd 8630 b23c 4196 973d d611 b1bd
000002f0: 0f12 0c3f c2d7 9ebf 89dc 16bf ec33 22bf
00000300: b1ff b9be b2e0 9b3f afdd 873e 30ec 4c3e
00000310: e2c1 92bb 18f7 06bd 54ff 3dbb b7e9 0ebd
00000320: 9a0f 88bf c101 cdbf 1833 5dbe 62ca 8d3f
00000330: cc5e 0b3f 54a2 4dbd 010c fe3c 488a 06be
00000340: cd6e 9abd b2d0 2b3f 83ef 58be 35a4 823f
00000350: c5a7 b33f 8bf5 a4bf ee80 01bf f710 d03e
00000360: cc71 83be acd4 0cbe 65e7 27bd b452 a7bb
00000370: 6f11 fcbc 17f6 b23f 49cf c3bf f7ec 3abf
00000380: ef71 e23e e90d 05bc 1417 413a d2cd ddbd
00000390: 2931 c3bc de8b a7bc 4dcf 97be 7648 01bf
000003a0: e4d3 febe 61f1 083f ebdd 873f 8f0a 9e3f
000003b0: cfb2 1cbf 7217 a0be f2ad 133d d2e4 1c3d
000003c0: 7024 dc3a 54f4 6e3d 6d03 1140 ccbd ba3f
000003d0: b324 c13e e7b5 963e fd2d 50be da13 96bb
000003e0: 9d17 b73c d859 4ebd 3489 dc3c c89b 713e
000003f0: b377 95be 0eb3 b63e 1cbc f93e 74d8 e93d

feat_proj.bias f4 [128]
0.42417297 1.0334285 -0.10189687 0.033895828 0.75417554 -0.7714219 0.53698057 0.7972324
-0.20787476 0.1544031 -0.31530094 -0.6991491 -0.46938762 -1.0059198 0.12899499 0.7082906
-0.22348508 -0.261386 0.52099985 0.005402222 1.1322929 0.39386234 -0.63433987 -0.62342227
0.43659666 -0.08171271 -0.87155783 -0.33447435 -0.0547649 0.52112037 0.15118712 -0.49769592
0.632923 0.04440112 0.5551298 0.13271458 -0.61974126 -0.113066114 -0.68527 -0.5585521
0.3215125 0.17602664 0.012115799 0.14149149 0.10063927 0.25017378 0.50825924 0.24863045
-0.20679659 0.45681578 0.7007799 -0.04811376 -1.0624135 -0.6976248 -0.35442275 -0.3224701
0.6080274 0.7863494 -0.26518318 0.2466757 0.46042112 0.84868807 -0.52717656 -0.30956417
-0.2827854 0.20742893 0.56916153 -0.5152131 0.36875674 0.7600347 0.5530217 0.7467427
0.13700005 -0.6897979 0.26972738 0.3324772 0.26518208 -0.5542452 0.6198836 0.4457541
0.22293474 0.5229133 0.7717605 0.9071006 -0.45215654 -0.7176661 0.1792176 -0.59184134
-0.5885938 0.65574527 0.5700352 -0.6060367 -0.105649576 -0.27567956 0.29007587 0.27813673
0.22810233 -0.87280357 -0.08453756 0.9508445 0.4524512 0.43693867 -1.1394396 0.7963535
-0.20223531 -0.21082023 0.8916348 0.45866928 0.56075835 -1.184528 -0.38144085 0.13941303
1.0740081 0.31612587 0.4164053 -0.21439128 0.21439251 0.022691151 0.78660876 0.4778166
0.5138287 -0.33655176 -0.061465133 -0.389509 -0.26899222 -0.88325965 -0.12753524 0.42413718
00000000: 332d d93e 6347 843f 4eaf d0bd 5ad6 0a3d
00000010: a611 413f e87b 45bf 8f77 093f 6c17 4c3f
00000020: 1fdd 54be d91b 1e3e 206f a1be 6ffb 32bf
00000030: 9353 f0be fbc1 80bf 4317 043e 8852 353f
00000040: 46d9 64be 63d4 85be 3f60 053f 1f05 b13b
00000050: f9ee 903f 53a8 c93e 1964 22bf 9a98 1fbf
00000060: 9989 df3e fe58 a7bd 6a1e 5fbf 3940 abbe
00000070: 2951 60bd 2568 053f ccd0 1a3e 00d2 febe
00000080: 3e07 223f f3dd 353d fd1c 0e3f 55e6 073e
00000090: 5da7 1ebf 358f e7bd db6d 2fbf 45fd 0ebf
000000a0: 499d a43e 5440 343e 5881 463c 25e3 103e
000000b0: f61b ce3d c716 803e 471d 023f fb98 7e3e
000000c0: 7cc2 53be c2e3 e93e 5066 333f ef12 45bd
000000d0: 2afd 87bf 8a97 32bf e676 b5be cd1a a5be
000000e0: afa7 1b3f 324e 493f 17c6 87be 8e98 7c3e
000000f0: 51bc eb3e 9f43 593f 0bf5 06bf 327f 9ebe
00000100: 3fc9 90be 4068 543e 92b4 113f 01e5 03bf
00000110: afcd bc3e a291 423f d592 0d3f 882a 3f3f
00000120: be49 0c3e 9896 30bf b519 8a3e 743a aa3e
00000130: f2c5 873e 03e3 0dbf b1b0 1e3f e239 e43e
00000140: 0149 643e a5dd 053f 1992 453f bf37 683f
00000150: 1081 e7be f7b8 37bf d284 373e ea82 17bf
00000160: 15ae 16bf ecde 273f d4ed 113f 3925 1bbf
00000170: ce5e d8bd df25 8dbe d384 943e f067 8e3e
00000180: a893 693e 0e70 5fbf 0722 adbd 8c6a 733f
00000190: afa7 e73e 6db6 df3e 28d9 91bf d3dd 4b3f
000001a0: c616 4fbe 42e1 57be 2e42 643f b3d6 ea3e
000001b0: dc8d 0f3f 9d9e 97bf 374c c3be 4ac2 0e3e
000001c0: 1979 893f 40db a13e 1333 d53e 6389 5bbe
000001d0: b689 5b3e cbe2 b93c 315f 493f 61a4 f43e
000001e0: 478a 033f 8350 acbe ddc2 7bbd b96d c7be
000001f0: 59b9 89be 4e1d 62bf 9998 02be 8228 d93e

local1.conv.bias f4 [128]
-0.03921973 -0.93983954 0.41891775 0.22568464 1.1678429 -0.88402563 -0.23352623 0.799294
0.5287641 0.5408665 0.62128854 1.3115498 0.91800416 -0.8601068 -0.64344555 0.024849743
-0.29679865 1.0558228 0.036897596 -0.53436923 -0.53632975 -0.38605955 -0.060503244 0.2734013
-0.03208737 -0.3234711 0.18204841 0.016383937 0.1254999 -0.39676118 -0.193589 0.0106934365
0.7395063 -0.5686999 -0.112160906 1.0541894 -0.3737373 1.4615072 0.08580992 -0.46795163
-0.4095735 -0.36702016 0.054313786 1.090358 -0.21092741 0.40772188 -0.57081825 -0.77373135
0.40960866 -0.23113553 -0.42371023 -0.84533215 0.08407671 0.0033127354 0.8410813 -1.2757423
-0.5907122 -0.54518783 0.7899805 -0.17569168 -0.37640604 -0.20534334 -0.2989889 -0.40184748
0.08540183 0.8754656 -0.10682035 0.9539433 0.31928566 -0.47601503 0.09057757 -0.2846204
-1.1317898 0.4904892 -0.41898313 0.047430657 0.00011283265 0.21481633 -0.084391035 0.34835765
0.6489727 0.45432287 0.93503356 0.19360106 -0.44692695 -0.0695063 -0.3414313 0.35783702
0.6370985 -0.8021365 0.4966375 0.72264725 -0.882856 -0.26202995 0.35016307 -0.3240744
-0.231061 -0.35835502 -0.023463167 -0.46958432 0.8035975 -0.36120874 0.25396693 -0.79455084
1.0081941 -0.51753944 -0.087588355 1.5716758 1.1376495 0.06374823 -2.0688913 -0.49170634
0.2323388 0.718781 -0.18064345 -0.15677151 0.23023862 -0.7866011 0.16716373 0.0047975346
-0.59109384 -0.43469942 -0.071962684 0.27183077 0.5421487 -0.2935484 1.1166121 0.31830522
00000000: dea4 20bd 5399 70bf 637c d63e e019 673e
00000010: e07b 953f 814f 62bf 8021 6fbe 889e 4c3f
00000020: 165d 073f 3a76 0a3f c40c 1f3f dde0 a73f
00000030: 5202 6b3f f62f 5cbf d9b8 24bf b091 cb3c
00000040: fef5 97be 3425 873f ef21 173d 6ccc 08bf
00000050: e84c 09bf 99a9 c5be 40d2 77bd 41fb 8b3e
00000060: 0c6e 03bd 019e a5be e66a 3a3e 9b37 863c
00000070: 0c83 003e 4824 cbbe 323c 46be 8633 2f3c
00000080: 4950 3d3f 5196 11bf 9eb4 e5bd aeef 863f
00000090: 7f5a bfbe ab12 bb3f 1dbd af3d 5b97 efbe
000000a0: 9eb3 d1be 11ea bbbe 2278 5e3d da90 8b3f
000000b0: 5bfd 57be ecc0 d03e 2521 12bf 4213 46bf
000000c0: 3ab8 d13e cbae 6cbe 8cf0 d8be b067 58bf
000000d0: 6930 ac3d 7a1a 593b 1b51 573f 864b a3bf
000000e0: ea38 17bf 6e91 0bbf 293c 4a3f 85e8 33be
000000f0: 4bb8 c0be 8645 52be 1315 99be f4be cdbe
00000100: 28e7 ae3d 831e 603f a1c4 dabd a135 743f
00000110: 6979 a33e 3eb8 f3be bc80 b93d c4b9 91be
00000120: 7dde 90bf 6721 fb3e f584 d6be a646 423d
00000130: 91a0 ec38 d0f8 5b3e 35d5 acbd ef5b b23e
00000140: 1323 263f 029d e83e 5c5e 6f3f 5b3f 463e
00000150: 9cd3 e4be 5259 8ebd 15d0 aebe 6a36 b73e
00000160: e318 233f d158 4dbf 4547 fe3e 69ff 383f
00000170: da02 62bf ca28 86be 9348 b33e 14ed a5be
00000180: 419b 6cbe 4f7a b7be d435 c0bc 5b6d f0be
00000190: 91b8 4d3f 5af0 b8be f407 823e af67 4bbf
000001a0: 810c 813f 777d 04bf 8661 b3bd ac2c c93f
000001b0: 809e 913f 6f8e 823d b768 04c0 efc0 fbbe
000001c0: 39ea 6d3e 0802 383f 99fa 38be b688 20be
000001d0: acc3 6b3e b15e 49bf f82c 2b3e a334 9d3b
000001e0: ed51 17bf ec90 debe 2c61 93bd 672d 8b3e
000001f0: 42ca 0a3f fa4b 96be 25ed 8e3f e7f8 a23e

local1.conv.lin.weight f4 [128, 128]
0.18018275 -0.20051837 0.25483122 0.3218027 -0.2968485 -0.028950207 0.26686674 0.031809226
0.4036661 -0.04816572 -0.41981256 0.46955407 -0.5958174 0.21169221 0.23607413 0.055219665
0.41056743 -0.3592988 0.11459873 -0.32664278 0.3283179 0.4301859 -0.19120929 0.26504344
0.47726753 0.49528226 -0.08230956 -0.2508532 -0.5119722 0.20758292 0.05368204 -0.0015338075
0.3549106 -0.053543635 -0.32449582 0.31184027 -0.062696785 -0.12938133 -0.601901 -0.16125001
-0.6157139 -0.111474894 -0.04560574 -0.40766522 0.15389983 0.36967227 -0.26628926 -0.0011671787
-0.17680898 -0.2868095 0.2463626 -0.094367824 0.07590092 -0.29420128 -0.17987736 -0.36689502
-0.25976053 0.3204478 -0.22492032 -0.040549457 -0.22127822 -0.0010933058 0.17403334 -0.6161359
0.048971586 -0.10865067 -0.2938645 0.4318531 -0.16554481 0.5090918 0.77911824 -0.5459662
0.5045936 0.42103162 -0.3283118 -0.38181278 -0.513303 0.38765752 0.3122389 0.4956719
-0.5548994 0.51606 0.086735025 -0.53568953 0.42012215 -0.4456126 -0.0039510964 -0.64490116
0.122989446 0.3380483 0.57331544 0.44800383 0.13832025 -0.1872467 0.046991024 -0.43262666
-0.7275911 -0.37718627 -0.49414462 -0.0022006412 0.590443 0.13861082 -0.3208277 -0.3278262
0.45068297 0.30898324 0.34764 -0.5883527 -0.051102463 -0.20429541 -0.026777636 -0.04250343
0.48484895 -0.10918889 0.35139358 0.2076572 -0.10997116 0.48687515 -0.29902217 0.28104243
-0.31680343 0.379737 0.05845201 -0.38604113 -0.53791726 0.29485083 0.076604664 0.32870066
-0.17738894 -0.39013225 -0.10445396 -0.09486433 -0.54163605 0.4141409 -0.29147464 -0.26853225
-0.1988792 -0.18070859 1.1025895 0.067562796 0.33680573 0.54395634 -0.29434434 -0.12417929
-0.0803368 0.3220894 -0.16606225 -0.015355306 -0.9491822 -0.15119556 0.1291212 0.5873375
0.09152898 0.034495387 1.3147004 0.27104235 0.19003268 -0.45679995 -0.09136906 0.06309638
-0.7351147 0.27377835 -0.07388671 -0.010246892 -0.051462274 0.08097518 0.80701244 0.35859266
-0.31063125 -0.5641772 -0.23822783 0.14906679 -0.3401283 -0.23108703 0.16648404 0.29261124
-0.18828885 -0.0030233678 -0.1023231 -0.16501765 0.93925864 0.8056456 -0.03797538 0.6395613
0.06150899 -0.24974148 0.008824135 -0.40621287 -0.23673637 -0.37732747 0.07526277 0.28629068
-0.12603447 -0.54862165 -0.17709087 -0.15395607 -0.5018183 -0.10767755 -0.9132914 -0.321884
-0.3228433 -0.027662711 0.01754865 0.12510045 0.10949085 -0.104855806 -0.16835715 -0.14330561
-0.029081853 -0.25128105 -0.97755754 -0.13185021 -0.017789492 0.39208075 -0.07802064 0.52994126
0.112541966 0.09439543 -0.3554142 0.31787783 -0.01254066 -0.11591594 -0.022695638 -0.18327002
0.33628336 0.18202119 0.57334226 -0.23788223 -0.6483378 -0.017315475 1.0666965 0.011692975
0.052229937 -0.36828396 -1.209044 -0.330439 0.021741383 1.5839435 0.044177577 -0.55292976
-0.5284222 0.08847403 -0.3168796 -0.35175306 -0.6962209 -0.032059256 -0.146275 -0.004989086
0.2988428 -0.366974 0.2705736 0.7596314 0.08314279 0.8198387 0.40007496 -0.4982871
00000000: d481 383e b054 4dbe 3d79 823e 53c3 a43e
00000010: 87fc 97be fc28 edbc c2a2 883e 644a 023d
00000020: 53ad ce3e 6b49 45bd acf1 d6be 6469 f03e
00000030: 7d87 18bf d8c5 583e 6bbd 713e 042e 623d
00000040: e535 d23e 03f6 b7be bdb2 ea3d b93d a7be
00000050: 4919 a83e 5441 dc3e 5ecc 43be c6b3 873e
00000060: 695c f43e a395 fd3e ea91 a8bd d56f 80be
00000070: 9c10 03bf 9e90 543e b3e1 5b3d 0a0a c9ba
00000080: d8b6 b53e 9250 5bbd 5124 a6be 87a9 9f3e
00000090: 2c67 80bd 8a7c 04be 2f16 1abf b91e 25be
000000a0: 6d9f 1dbf f34c e4bd 16cd 3abd 7fb9 d0be
000000b0: eb97 1d3e af45 bd3e 1157 88be 05fc 98ba
000000c0: 6a0d 35be b2d8 92be 7a46 7c3e eb43 c1bd
000000d0: f171 9b3d 8da1 96be c531 38be aad9 bbbe
000000e0: 55ff 84be bc11 a43e 8351 66be 3017 26bd
000000f0: c296 62be 414d 8fba cc35 323e 15bb 1dbf
00000100: 6e96 483d 3e84 debd 6875 96be d91b dd3e
00000110: 9484 29be d753 023f 4b74 473f 71c4 0bbf
00000120: 0c2d 013f 7591 d73e 7c18 a8be f77c c3be
00000130: d367 03bf 0c7b c63e c7dd 9f3e b5c8 fd3e
00000140: e30d 0ebf 821c 043f 22a2 b13d f322 09bf
00000150: 401a d73e 5627 e4be 3378 81bb 3e18 25bf
00000160: e4e1 fb3d ab14 ad3e cdc4 123f c260 e53e
00000170: d3a3 0d3e 99bd 3fbe a979 403d 3e81 ddbe
00000180: 6943 3abf 8f1e c1be 8600 fdbe a238 10bb
00000190: 4627 173f ffef 0d3e 8743 a4be d6d8 a7be
000001a0: ebbf e63e 0d33 9e3e dffd b13e 489e 16bf
000001b0: d150 51bd d132 51be c65c dbbc 1418 2ebd
000001c0: 1f3e f83e 6d9e dfbd dce9 b33e 17a4 543e
000001d0: 8f38 e1bd b347 f93e 6f19 99be cbe4 8f3e
000001e0: 0f34 a2be e36c c23e 606b 6f3d 2fa7 c5be
000001f0: f2b4 09bf b0f6 963e e8e2 9c3d 744b a83e
00000200: 72a5 35be 6abf c7be f5eb d5bd 3b48 c2bd
00000210: a9a8 0abf 470a d43e 2a3c 95be 0f7d 89be
00000220: fda6 4bbe ac0b 39be a721 8d3f 5d5e 8a3d
00000230: cd71 ac3e b940 0b3f 4db4 96be b651 febd
00000240: 9f87 a4bd e7e8 a43e 390c 2abe d294 7bbc
00000250: 9bfd 72bf 02d3 1abe 5938 043e c05b 163f
00000260: 8c73 bb3d 094b 0d3d 1a48 a83f 10c6 8a3e
00000270: ed97 423e afe1 e9be b41f bbbd ad38 813d
00000280: 7a30 3cbf ad2c 8c3e ea51 97bd 95e2 27bc
00000290: 1bca 52bd 51d6 a53d 5e98 4e3f 7599 b73e
000002a0: 0f0b 9fbe eb6d 10bf fff1 73be f7a4 183e
000002b0: 4c25 aebe 14a2 6cbe cb7a 2a3e 24d1 953e
000002c0: cbce 40be b223 46bb c68e d1bd 63fa 28be
000002d0: 4173 703f ca3e 4e3f 128c 1bbd 4aba 233f
000002e0: daf0 7b3d 3bbc 7fbe 1b93 103c 22fb cfbe
000002f0: 056b 72be 1131 c1be 5e23 9a3d b194 923e
00000300: 2e0f 01be 7872 0cbf 4f57 35be a9a6 1dbe
00000310: 2a77 00bf 0c86 dcbd 77cd 69bf fbcd a4be
00000320: b84b a5be e99c e2bc 30c2 8f3c 551a 003e
00000330: bd3c e03d a4be d6bd d165 2cbe b5be 12be
00000340: 113d eebc e9a7 80be 3641 7abf be03 07be
00000350: 45bb 91bc cfbe c83e 49c9 9fbd 3baa 073f
00000360: 677c e63d 6452 c13d daf8 b5be e2c0 a23e
00000370: 5777 4dbc 5665 edbd 34ec b9bc 23ab 3bbe
00000380: 552d ac3e c363 3a3e 8fc6 123f 6697 73be
00000390: 77f9 25bf 2fd9 8dbc 8389 883f e493 3f3c
000003a0: 0fef 553d b78f bcbe f4c1 9abf 4d2f a9be
000003b0: fc1a b23c a9be ca3f 8cf3 343d ce8c 0dbf
000003c0: ad46 07bf df31 b53d 0b3e a2be fa18 b4be
000003d0: 883b 32bf 9150 03bd 1dc9 15be 7d7b a3bb
000003e0: ec01 993e 04e4 bbbe 9f88 8a3e 3477 423f
000003f0: c446 aa3d f3e0 513f a0d6 cc3e 7d1f ffbe

local1.norm.weight f4 [128]
0.71616876 1.5524615 1.1587247 0.5728909 1.1403356 0.95789987 0.73437375 1.0446391
1.0905414 0.953458 1.0542965 1.018475 1.0372671 0.92446053 1.3303783 1.2405388
0.75655615 0.68815196 0.7454905 0.96912014 1.4300337 1.0383176 0.6876627 0.91646194
1.6201589 0.86208487 1.6167344 1.1512797 1.4976205 1.4743032 1.394355 1.5056762
0.96985507 0.80814934 0.605369 0.96697676 1.4187392 1.0345886 0.9290147 0.95219433
1.3117716 1.2012167 0.908557 1.1931854 0.9437257 0.6677018 0.7032045 0.6022017
1.2301832 1.5699214 0.7174333 1.3269879 0.9798473 0.7578981 0.86260045 1.6930633
1.3221779 0.68688273 0.8133376 1.6027867 0.7199702 0.71246046 1.1353498 0.8063218
0.90121436 1.1870987 0.6278395 1.0089332 0.9074728 1.1098793 1.1408374 0.9975661
0.83388096 1.1068687 1.0049055 1.0173193 1.728729 0.862248 0.66924185 0.46268222
0.8880343 1.089093 0.85649306 1.3555784 1.2063228 1.0284288 0.68059087 0.8535625
1.0911559 1.3111784 1.3666965 0.85161406 0.5380407 1.2162844 0.91407794 1.3068738
1.1553886 0.98900855 0.6812305 1.2894816 0.98044103 0.9957128 0.64754874 0.75999296
1.0741085 0.9359006 0.88076675 1.0277395 0.90946424 0.7864952 1.4601245 1.0681915
0.8958894 1.0756898 1.5429009 1.3389843 1.0837921 1.4549834 1.0410316 0.6371288
0.6801783 0.76932585 1.228602 1.1111144 1.0562568 1.7874283 1.0027161 0.7801747
00000000: d656 373f 0fb7 c63f 1751 943f faa8 123f
00000010: 84f6 913f ed38 753f ebff 3b3f bcb6 853f
00000020: dc96 8b3f d315 743f 30f3 863f 645d 823f
00000030: 2bc5 843f 72a9 6c3f d649 aa3f fac9 9e3f
00000040: aaad 413f ba2a 303f 77d8 3e3f 4218 783f
00000050: 580b b73f 97e7 843f aa0a 303f 409d 6a3f
00000060: 5e61 cf3f 98b1 5c3f 27f1 ce3f 225d 933f
00000070: 07b2 bf3f f8b5 bc3f 3a7a b23f ffb9 c03f
00000080: 6c48 783f e0e2 4e3f 76f9 1a3f ca8b 773f
00000090: 3f99 b53f 666d 843f e8d3 6d3f 02c3 733f
000000a0: 22e8 a73f 78c1 993f 3197 683f 4dba 983f
000000b0: 0298 713f 81ee 2a3f 3605 343f e429 1a3f
000000c0: a576 9d3f 2ff3 c83f b5a9 373f bdda a93f
000000d0: 46d7 7a3f 9c05 423f 62d3 5c3f 4cb6 d83f
000000e0: 203d a93f 8cd7 2f3f e536 503f 1d28 cd3f
000000f0: f84f 383f cf63 363f 2453 913f 1b6b 4e3f
00000100: fcb5 663f daf2 973f 17ba 203f b924 813f
00000110: 2350 683f 8610 8e3f f606 923f 7e60 7f3f
00000120: 3979 553f e0ad 8d3f bea0 803f 8537 823f
00000130: fe46 dd3f 49bc 5c3f 6f53 2b3f afe4 ec3e
00000140: 3756 633f 6667 8b3f 2143 5b3f 9883 ad3f
00000150: c968 9a3f 8ea3 833f 343b 2e3f 1283 5a3f
00000160: ffaa 8b3f b2d4 a73f e9ef ae3f 6103 5a3f
00000170: 09bd 093f 35af 9b3f 0301 6a3f a447 a73f
00000180: c6e3 933f aa2f 7d3f 1f65 2e3f bc0d a53f
00000190: 2ffe 7a3f 09e7 7e3f c1c5 253f e68e 423f
000001a0: 637c 893f 2f97 6f3f ee79 613f f88c 833f
000001b0: a6d2 683f c057 493f 5ce5 ba3f 80ba 883f
000001c0: 0259 653f 34b0 893f c77d c53f d663 ab3f
000001d0: b3b9 8a3f e53c ba3f 8640 853f df1a 233f
000001e0: 2a20 2e3f 8af2 443f d542 9d3f ff38 8e3f
000001f0: 6c33 873f 73ca e43f 0059 803f 87b9 473f

local1.norm.bias f4 [128]
-0.48649785 0.38819098 -0.4345802 -0.53832763 -0.5432136 -0.43222553 -0.52644795 -0.56498057
-0.42559162 -0.64122456 -0.7027278 -0.80138147 -0.29320133 -0.48010573 0.2162364 -0.6722425
-0.49636436 -0.7068055 -0.33351135 -0.6009658 -0.23612383 -0.47503635 -0.544608 -0.6601611
-0.17794532 -0.43580753 -0.50587577 -0.5204363 -0.61934614 0.01880708 -0.5955644 -0.5455655
-0.4339397 -0.49067062 -0.55307716 -0.7373877 -0.3234993 -0.60969335 -0.49688816 -0.44013312
-0.12953073 -0.17049932 -0.407197 -0.72160184 -0.51489156 -0.68200445 -0.5768005 -0.7447576
-0.5193166 -0.41562793 -0.5063387 -0.50768447 -0.6888918 -0.39157775 -0.4994 -0.16051771
-0.67647976 -0.31553987 -0.42736888 -0.3288844 -0.66828024 -0.52790296 -0.58239275 -0.23761433
-0.50080895 -0.9088916 -0.5863558 -0.5009584 -0.6709568 -0.69648975 -0.44918197 -0.7647244
-0.688911 -0.7567723 -0.48718753 -0.3739239 -0.27304763 -0.50149834 -0.5935649 -0.38868076
-0.5585465 -0.46408117 -0.5605525 -0.62420374 -0.4921364 -0.38039485 -0.6104978 -0.49733463
-0.5905001 -0.69204265 -0.71747285 -0.6110227 -0.59552085 -0.54081565 -0.5912705 -0.4964523
-0.30953777 -0.5361767 -0.33201286 -0.46954235 -0.5787092 -0.51323515 -0.38489917 -0.72631735
-0.83446926 -0.4602487 -0.6038388 -0.6688755 -0.6329954 -0.4197721 -0.5775894 -0.49519905
-0.466546 -0.55461985 -0.3991961 -0.6271822 -0.44201294 -0.31247416 -0.48557588 -0.40389803
-0.3603304 -0.34454566 -0.5209445 -0.6944957 -0.6235823 -0.3657844 -0.76139903 -0.12206335
00000000: 3f16 f9be f8c0 c63e 4c81 debe d7cf 09bf
00000010: 0c10 0bbf aa4c ddbe 4bc5 06bf 91a2 10bf
00000020: 25e7 d9be 4b27 24bf f8e5 33bf 5627 4dbf
00000030: 7c1e 96be 6bd0 f5be 136d 5d3e 1618 2cbf
00000040: 7823 febe 35f1 34bf 00c2 aabe e5d8 19bf
00000050: 72ca 71be f737 f3be 6e6b 0bbf 5100 29bf
00000060: 4c37 36be 2a22 dfbe 1381 01bf 503b 05bf
00000070: 788d 1ebf 4e11 9a3c e976 18bf 2eaa 0bbf
00000080: 582d debe 2e39 fbbe 7796 0dbf 71c5 3cbf
00000090: b3a1 a5be dd14 1cbf 2068 febe 2159 e1be
000000a0: b4a3 04be 6097 2ebe 207c d0be e6ba 38bf
000000b0: efcf 03bf d897 2ebf 33a9 13bf 6fa8 3ebf
000000c0: eff1 04bf 2fcd d4be 6a9f 01bf 9cf7 01bf
000000d0: 375b 30bf e17c c8be 5bb1 ffbe c15e 24be
000000e0: c72d 2dbf 718e a1be 18d0 dabe 8963 a8be
000000f0: 6a14 2bbf a624 07bf b117 15bf 2c51 73be
00000100: 0435 00bf 1fad 68bf 6a1b 16bf cf3e 00bf
00000110: d3c3 2bbf 274d 32bf 2efb e5be fac4 43bf
00000120: 795c 30bf d4bb 41bf a570 f9be f472 bfbe
00000130: e6cc 8bbe 3262 00bf dff3 17bf 2a01 c7be
00000140: e7fc 0ebf 0c9c edbe 5e80 0fbf d1cb 1fbf
00000150: 4df9 fbbe 1dc3 c2be 9549 1cbf a5a2 febe
00000160: 042b 17bf b529 31bf 4dac 37bf fc6b 1cbf
00000170: 0e74 18bf e572 0abf 815d 17bf ff2e febe
00000180: bc7b 9ebe e042 09bf 97fd a9be db67 f0be
00000190: 4926 14bf 6163 03bf 8111 c5be efef 39bf
000001a0: c79f 55bf b8a5 ebbe 2e95 1abf 6d3b 2bbf
000001b0: fd0b 22bf 5eec d6be e6dc 13bf bb8a fdbe
000001c0: 1edf eebe 91fb 0dbf 6e63 ccbe 038f 20bf
000001d0: 854f e2be 9dfc 9fbe 679d f8be b9cb cebe
000001e0: 3a7d b8be 4a68 b0be 9e5c 05bf 78ca 31bf
000001f0: 17a3 1fbf 1848 bbbe 0ceb 42bf 5afc f9bd

local2.conv.bias f4 [128]
-0.6277151 -0.023377392 0.33453605 0.25918555 0.026417686 -0.08539139 0.21025321 0.34121215
0.06670981 0.15728416 0.14602166 0.26795924 0.21768385 0.06996023 0.048667993 0.14397436
0.10494544 -0.0689854 0.05565068 0.5215781 0.11996361 -0.09624076 0.19555932 0.28736654
0.15003842 0.10549326 0.4229857 -0.054039802 0.21744809 0.12651956 -0.18326631 0.6259144
0.06858187 0.6643201 0.005099606 -0.23631155 0.1200681 0.03707631 0.25703165 0.44431666
0.10681148 0.49194485 0.23404023 0.10250885 0.30801597 0.048812605 0.20082802 0.2742461
0.31508583 0.13865747 -0.67407715 0.06757175 0.18487397 0.6656652 0.2691521 0.51037264
0.07866435 0.22540024 -0.3156545 0.14935285 0.0049332716 0.12872198 -0.001703239 -0.6199322
0.84703815 0.17208365 0.6473846 0.57833636 0.16301171 0.11570792 0.15745485 0.08768279
0.20489241 0.2755679 -0.5096907 0.08716926 0.14400508 0.08570622 0.17306678 0.1512598
0.065995306 0.71099204 0.23385638 0.44919968 0.05952711 0.10660579 0.59721994 0.053878166
-0.6599114 0.6304744 0.16262807 -0.12715623 0.2115994 0.093700565 0.01817532 0.21578729
-0.10697887 0.2276244 0.73077327 0.17256306 0.2304583 0.22671044 0.1381117 0.2991374
0.1839824 0.06966515 0.45392874 0.14038193 0.1908 0.2400227 -0.11801391 0.16569011
0.12609382 0.15854086 0.117601186 0.054972783 0.120181434 0.17937584 0.22919998 0.025297394
0.155315 0.10025984 0.13886522 0.075518675 0.13942109 0.44571295 -0.89529103 0.02470346
00000000: f0b1 20bf f281 bfbc 4f48 ab3e f8b3 843e
00000010: e769 d83c aee1 aebd 9e4c 573e 5cb3 ae3e
00000020: 279f 883d 190f 213e b486 153e f431 893e
00000030: 84e8 5e3e 4f47 8f3d 1758 473d 046e 133e
00000040: a3ed d63d 3848 8dbd f8f1 633d 2486 053f
00000050: 7baf f53d e019 c5bd b440 483e b521 933e
00000060: aca3 193e da0c d83d 9591 d83e d758 5dbd
00000070: b6aa 5e3e 588e 013e 2aaa 3bbe ed3b 203f
00000080: a774 8c3d e210 2a3f 981a a73b a8fb 71be
00000090: 44e6 f53d 54dd 173d a799 833e 797d e33e
000000a0: fabf da3d 32e0 fb3e 3ea8 6f3e 29f0 d13d
000000b0: 45b4 9d3e baef 473d dca5 4d3e fc69 8c3e
000000c0: ee52 a13e 39fc 0d3e 5290 2cbf 0f63 8a3d
000000d0: 9a4f 3d3e 0969 2a3f 4ece 893e c8a7 023f
000000e0: c61a a13d 52cf 663e 779d a1be f4ef 183e
000000f0: 48a7 a13b b2cf 033e 383f dfba e0b3 1ebf
00000100: 7ed7 583f b236 303e ffba 253f da0d 143f
00000110: 8bec 263e 46f8 ec3d d83b 213e 0993 b33d
00000120: 51cf 513e 3c17 8d3e 177b 02bf cc85 b23d
00000130: 1176 133e be86 af3d 6b38 313e d9e3 1a3e
00000140: 8c28 873d 9303 363f 0c78 6f3e 80fd e53e
00000150: b3d2 733d 2354 da3d 68e3 183f 5aaf 5c3d
00000160: f4ef 28bf c566 213f f987 263e 3e35 02be
00000170: 83ad 583e 15e6 bf3d 69e4 943c 58f7 5c3e
00000180: bd17 dbbd 5f16 693e f513 3b3f 5fb4 303e
00000190: 43fd 6b3e c826 683e 276d 0d3e 8a28 993e
000001a0: e265 3c3e 9aac 8e3d 5969 e83e 48c0 0f3e
000001b0: 1361 433e 83c8 753e 47b1 f1bd abaa 293e
000001c0: bd1e 013e 8958 223e e4d8 f03d 242b 613d
000001d0: af21 f63d 4dae 373e 66b3 6a3e 7b3c cf3c
000001e0: e50a 1f3e 0855 cd3d af32 0e3e 89a9 9a3d
000001f0: 67c4 0e3e 7d34 e43e cb31 65bf e95e ca3c

local2.conv.lin.weight f4 [128, 128]
0.5410003 -0.5401633 0.30432612 -0.55684906 0.71344435 0.71723294 0.9373558 -0.21837588
0.9492822 0.09034826 0.3401528 0.007904139 0.69457394 0.7105462 0.107897334 -0.8517472
-0.65773726 -0.23589213 -0.14607698 0.5102437 -0.88657135 0.17326094 0.51623005 0.45199072
0.19902797 0.69785315 0.8045489 -0.22580011 0.54106236 -0.1585894 0.4306554 0.20568486
-0.22715272 0.7658108 -0.5168498 -0.109520614 0.10361894 0.09364985 1.0275472 0.15965486
-0.13627061 -1.0181137 0.14827825 -0.2241452 0.85551757 -0.1311603 0.8847217 -0.60425097
-1.2208601 0.38012666 0.9010242 0.18241793 0.68338144 0.607193 0.13984226 -1.0258685
-0.7994527 0.8426125 -0.90074086 -0.322643 0.40652618 -0.41976565 0.9055771 0.8164749
0.13501567 0.9879056 0.60004437 0.31456697 0.07952502 0.2071144 -0.17470205 0.08381208
-0.72779596 0.07611023 0.5898177 -0.073225744 1.1681898 -0.006210448 -0.97998345 -0.7033286
-0.80263615 0.29749677 -0.06684045 0.38127077 0.8911704 -0.31729108 0.4965021 0.45868114
0.15676281 0.6168961 1.1823269 -1.1854887 -0.50917023 0.18372631 -0.83243096 0.0020044344
0.9338036 -0.5825301 0.830375 0.62650245 0.6514115 -0.8541015 0.40670288 -0.6603368
0.9696819 -0.24652907 -0.7489845 0.39031014 -0.4496452 -0.4188493 -0.4709446 -1.4332228
-0.1281452 -0.33009145 -0.41503015 -0.8744276 -1.1370494 0.1720538 -0.7447234 0.5206518
0.5878318 0.41943583 0.65525836 0.12486738 -0.45715255 -0.4538116 0.21174257 0.16611773
0.06565681 0.16414084 0.41382912 0.113806546 0.42081383 -0.77718145 -0.29248747 0.48495862
0.478972 0.33188468 0.40292788 0.20033829 0.43123138 -0.5874855 0.49550888 0.29472014
-0.15277006 0.47382873 0.26885167 0.26728448 -0.102621235 -0.12719777 -0.71936935 -0.3981768
0.11332074 0.464937 0.59392303 0.5207698 0.054524813 0.4271836 0.81753844 0.3098903
0.53759766 -0.7596973 0.023833903 0.57364464 0.2794612 0.59260994 0.43026835 0.4299147
0.5435157 -0.8707933 0.5039329 0.2704912 0.09112363 -0.019538322 -0.44839314 -0.3449092
0.622063 -0.98042923 -0.30036047 0.18914029 0.42721733 0.48800352 -0.6047308 -0.08210571
0.9487057 -0.6031968 0.22182582 -0.016153138 -0.77194244 -0.11445455 0.5879969 -0.24512798
-0.18816265 0.17131297 -0.44927198 0.46571016 -0.4002863 -0.12499714 0.26911545 -0.22504455
-0.6117096 -0.20581219 0.77097815 0.62496907 0.45250264 0.42095405 -0.14488706 -0.14741226
0.13805133 0.44161648 0.12788308 0.44509324 0.86282057 0.27328077 -0.4410799 0.004820974
0.47706068 -0.07123847 -0.17389612 0.0017371166 -0.5568133 0.17019862 -0.31667817 0.76424605
0.49025682 0.6345922 -0.17353535 -0.1904285 0.19062757 -0.3997787 -0.420166 -0.08023105
-0.34114853 0.006283745 -0.006859954 0.41876605 0.25268716 0.49127567 -0.6443821 0.28896502
0.58538926 0.41118366 0.70204264 -0.36323687 0.3622748 0.6282725 0.47542962 -0.47238407
-0.26586765 -0.43976283 0.50840855 -1.3202212 0.909622 0.042692848 -0.026269477 0.50752336
00000000: ff7e 0a3f 2448 0abf a2d0 9b3e a98d 0ebf
00000010: 4aa4 363f 949c 373f 8df6 6f3f ed9d 5fbe
00000020: 2904 733f 8208 b93d 8228 ae3e 5d80 013c
00000030: 99cf 313f 5be6 353f 47f9 dc3d 1b0c 5abf
00000040: 7861 28bf b58d 71be 3495 15be 559f 023f
00000050: 57f6 62bf 516b 313e a727 043f 546b e73e
00000060: fdcd 4b3e 81a6 323f ebf6 4d3f 2538 67be
00000070: 1083 0a3f 4265 22be dd7e dc3e 0d9f 523e
00000080: b99a 68be 2d0c 443f 4550 04bf 584c e0bd
00000090: 2b36 d43d 7ecb bf3d ab86 833f 907c 233e
000000a0: 868a 0bbe 8d51 82bf 41d6 173e 5286 65be
000000b0: 3303 5b3f e34e 06be 1f7d 623f 31b0 1abf
000000c0: 2545 9cbf f69f c23e 86a9 663f c4cb 3a3e
000000d0: 16f2 2e3f 0071 1b3f cf32 0f3e a94f 83bf
000000e0: efa8 4cbf 74b5 573f f496 66bf 7731 a5be
000000f0: 3324 d03e 86eb d6be e7d3 673f 8004 513f
00000100: 8c41 0a3e 62e7 7c3f 829c 193f ec0e a13e
00000110: 04de a23d cc15 543e 18e5 32be aba5 ab3d
00000120: d650 3abf aedf 9b3d 4bfe 163f 61f7 95bd
00000130: 3e87 953f 0481 cbbb 32e0 7abf 580d 34bf
00000140: 9079 4dbf 7f51 983e a5e3 88bd ec35 c33e
00000150: be23 643f fa73 a2be 8635 fe3e 41d8 ea3e
00000160: 6e86 203e e7ec 1d3f 7d56 973f 18be 97bf
00000170: fb58 02bf c022 3c3e 321a 55bf d45c 033b
00000180: c10d 6f3f b120 15bf 7593 543f 7762 203f
00000190: e7c2 263f 65a6 5abf 5c3b d03e d50b 29bf
000001a0: 133d 783f 1e72 7cbe 73bd 3fbf bbd6 c73e
000001b0: e537 e6be 6a73 d6be a71f f1be d873 b7bf
000001c0: 7f38 03be bf01 a9be d57e d4be 7dda 5fbf
000001d0: d68a 91bf df2e 303e 31a6 3ebf 7049 053f
000001e0: 257c 163f 4bc0 d63e 03bf 273f 78ba ff3d
000001f0: e60f eabe fe59 e8be 0bd3 583e c41a 2a3e
00000200: 1477 863d 8914 283e 69e1 d33e 6813 e93d
00000210: e974 d73e 5df5 46bf ebc0 95be 7f4c f83e
00000220: d13b f53e caec a93e 904c ce3e 7b25 4d3e
00000230: 5cca dc3e 7365 16bf 57b3 fd3e 8fe5 963e
00000240: c16f 1cbe ae99 f23e eda6 893e 83d9 883e
00000250: 152b d2bd 2240 02be 9728 38bf d4dd cbbe
00000260: b414 e83d 390c ee3e 570b 183f 2b51 053f
00000270: 6955 5f3d cfb7 da3e 334a 513f f1a9 9e3e
00000280: 00a0 093f 867b 42bf 513f c33c 60da 123f
00000290: 8a15 8f3e 49b5 173f 224c dc3e c81d dc3e
000002a0: d823 0b3f 4fec 5ebf bf01 013f d37d 8a3e
000002b0: 079f ba3d d50e a0bc c993 e5be f097 b0be
000002c0: 853f 1f3f 69fd 7abf d9c8 99be fead 413e
000002d0: 3bbc da3e 99db f93e a3cf 1abf 0a27 a8bd
000002e0: 60de 723f 1b6b 1abf 4f26 633e 9653 84bc
000002f0: 059e 45bf 2667 eabd f786 163f d402 7bbe
00000300: b6ad 40be ab6c 2f3e fa06 e6be 9071 ee3e
00000310: 53f2 ccbe 80fe ffbd 80c9 893e 1472 66be
00000320: 0099 1cbf 6ec0 52be d35e 453f f9fd 1f3f
00000330: 6dae e73e 4a87 d73e 465d 14be 3df3 16be
00000340: 545d 0d3e 8e1b e23e c8f3 023e 43e3 e33e
00000350: cfe1 5c3f 75eb 8b3e 3ad5 e1be 43f9 9d3b
00000360: 4c41 f43e 7ae5 91bd d311 32be f6af e33a
00000370: 518b 0ebf 8c48 2e3e a423 a2be a1a5 433f
00000380: f102 fb3e a274 223f 40b3 31be b0ff 42be
00000390: e033 433e cbaf ccbe ff1f d7be 2d50 a4bd
000003a0: 05ab aebe e0e7 cd3b 77c9 e0bb 8168 d63e
000003b0: 3660 813e 7c88 fb3e 3af6 24bf 39f3 933e
000003c0: 12dc 153f aa86 d23e 11b9 333f 2ffa b9be
000003d0: 157c b93e 77d6 203f 836b f33e 53dc f1be
000003e0: ce1f 88be 9828 e1be 1027 023f 02fd a8bf
000003f0: fddc 683f b2de 2e3d 1633 d7bc 0ded 013f

local2.norm.weight f4 [128]
0.32707325 0.8673981 0.25720167 0.6451536 0.78179306 1.0964481 0.9984696 0.55675435
1.6466398 0.7161756 1.1590745 0.6356653 0.8013733 1.5210764 0.783452 1.3195018
1.1987796 1.2197828 1.4663808 0.5604538 0.97476065 1.02071 0.5480773 0.6514084
0.9055663 0.696814 0.5625713 0.9013079 0.7915829 1.4472352 1.5784062 0.6484583
1.4892195 0.21915014 1.0014293 1.9820957 0.6308154 0.80048645 0.88215595 0.7585687
1.1006502 0.45974874 0.51096874 1.2620308 0.61927015 0.97286856 0.6113471 0.64333147
1.6092882 1.0573437 0.72505045 1.1234788 0.7006428 0.64789706 0.9182755 0.3919778
1.0853107 0.7418545 1.6017464 0.9679485 1.5727183 0.5280627 0.9358245 1.0078795
0.65079874 0.7530586 0.21301702 0.48463008 1.0503227 1.0346284 1.1280557 0.74367285
0.59886456 0.6216172 1.3448913 1.040117 1.4618553 0.89814836 1.317988 0.9340449
1.2327597 0.19616725 0.62688315 1.0489488 0.8250061 0.90494376 0.2926017 1.1725373
1.3292155 0.26560378 0.73464817 1.1641002 0.38938385 0.78994334 0.8076183 0.70549333
1.0845126 0.500734 0.21459256 0.7356969 0.5152374 0.7537666 1.1395737 0.6854271
0.6212308 1.5873019 0.29633322 1.320772 0.8192339 0.7072829 1.0424087 0.6608013
0.90848845 1.1472497 1.2325202 1.080375 0.845918 0.8971648 0.7698261 0.8770083
0.53508395 1.7106776 0.40635064 0.99376994 1.0120932 0.6235046 0.5875746 1.6451612
00000000: 2576 a73e cd0d 5e3f f0af 833e c928 253f
00000010: 9723 483f 6958 8c3f b49b 7f3f 7487 0e3f
00000020: 18c5 d23f 4957 373f 8e5c 943f f6ba 223f
00000030: cd26 4d3f a2b2 c23f 4f90 483f 6fe5 a83f
00000040: 9c71 993f d821 9c3f 5eb2 bb3f e679 0f3f
00000050: ea89 793f a0a6 823f cb4e 0c3f b3c2 263f
00000060: 31d3 673f 6762 323f ac04 103f 1dbc 663f
00000070: 2da5 4a3f 013f b93f 3709 ca3f 5d01 263f
00000080: bf9e be3f e568 603e d62e 803f 50b5 fd3f
00000090: 1e7d 213f aeec 4c3f f9d4 613f 8f31 423f
000000a0: 1be2 8c3f 3064 eb3e d9ce 023f 3a8a a13f
000000b0: 7d88 1e3f ea0d 793f 3e81 1c3f 5fb1 243f
000000c0: 28fd cd3f 0a57 873f e89c 393f 27ce 8f3f
000000d0: 545d 333f 95dc 253f 1a14 6b3f 50b1 c83e
000000e0: 76eb 8a3f 2dea 3d3f 0706 cd3f 79cb 773f
000000f0: d54e c93f 1e2f 073f 3292 6f3f 3202 813f
00000100: bf9a 263f 73c8 403f 2221 5a3e 6f21 f83e
00000110: f970 863f b46e 843f 2164 903f 5861 3e3f
00000120: 304f 193f 4e22 1f3f 6625 ac3f 8e22 853f
00000130: 131e bb3f 0ded 653f d5b3 a83f 911d 6f3f
00000140: 12cb 9d3f 11e0 483e 6a7b 203f f443 863f
00000150: 9a33 533f 65aa 673f e4cf 953e b415 963f
00000160: bc23 aa3f 38fd 873e e711 3c3f 3c01 953f
00000170: 525d c73e ba39 4a3f 13c0 4e3f 369b 343f
00000180: 4fd1 8a3f 1a30 003f 27be 5b3e a256 3c3f
00000190: 99e6 033f d9f6 403f 8ddd 913f 2778 2f3f
000001a0: fb08 1f3f b52c cb3f fdb8 973e 0f0f a93f
000001b0: 50b9 513f 7e10 353f a66d 853f 462a 293f
000001c0: b392 683f 14d9 923f 39c3 9d3f ba49 8a3f
000001d0: 158e 583f 98ac 653f 5313 453f 9e83 603f
000001e0: 43fb 083f 7cf7 da3f 310d d03e b567 7e3f
000001f0: 458c 813f ff9d 1f3f 4a6b 163f a494 d23f

local2.norm.bias f4 [128]
-0.82559717 -0.6517939 -0.73752844 -0.5333206 -0.3581634 -0.603764 -0.34990868 -0.58250326
-0.27432275 -0.35496286 -0.2958415 -0.54160774 -0.5161758 -0.20983839 -0.52644217 -0.27865264
-0.1889177 -0.3361024 -0.22595628 -0.873431 -0.22403766 -0.29365215 -0.48385456 -0.60771084
-0.74374694 -0.22606835 -0.26274884 -0.40177387 -0.33716035 -0.15109895 -0.16602723 -0.62224513
-0.38286138 -0.7021879 -0.23773248 0.036395043 -0.38297746 -0.44158965 -0.49811766 -0.36059925
-0.2575406 -0.7410053 -0.39791682 -0.43860558 -0.6453987 -0.38919196 -0.4279061 -0.40252933
-0.19264168 -0.4902394 -0.41245162 -0.37531078 -0.48178685 -0.41512647 -0.46883017 -0.73862374
-0.3489368 -0.4528651 -0.13344848 -0.4807335 -0.16334319 -0.43613264 -0.33329943 -0.3057454
-0.70642126 -0.36635175 -0.711223 -0.49955687 -0.31514028 -0.37757665 -0.27791324 -0.3439756
-0.5896693 -0.6095703 -0.34089264 -0.32078433 -0.16223569 -0.37586302 -0.17157409 -0.5424802
-0.13036865 -0.70093364 -0.4560409 -0.29148334 -0.28969523 -0.46933237 -0.7490742 -0.50608057
-0.14080846 -0.7079088 -0.40437984 -0.25993297 -0.21735184 -0.5074654 -0.36786416 -0.40806642
-0.31523874 -0.3426626 -0.7119211 -0.3377156 -0.2702711 -0.39967716 -0.2519047 -0.61035156
-0.5155512 -0.26025316 -0.6444793 -0.20484433 -0.38944453 -0.59596574 -0.50016713 -0.3916034
-0.260557 -0.40154397 -0.35213962 -0.53308016 -0.35322076 -0.54793334 -0.36249614 -0.5386924
-0.62550247 -0.16562709 -0.273244 -0.3649485 -0.24453573 -0.5162613 -0.63073945 -0.18455847
00000000: 565a 53bf f7db 26bf aace 3cbf b387 08bf
00000010: 3161 b7be 4790 1abf 3b27 b3be ef1e 15bf
00000020: 0874 8cbe b1bd b5be 8978 97be cea6 0abf
00000030: 1924 04bf e0df 56be eac4 06bf 8fab 8ebe
00000040: a473 41be 9d15 acbe 1561 67be 2d99 5fbf
00000050: 216a 65be 9359 96be c9bb f7be f092 1bbf
00000060: 3366 3ebf 767e 67be 0487 86be 4eb5 cdbe
00000070: 48a0 acbe afb9 1abe 0b03 2abe 754b 1fbf
00000080: 6806 c4be 96c2 33bf 2570 73be f812 153d
00000090: 9f15 c4be 0a18 e2be 4709 ffbe 77a0 b8be
000000a0: 5ddc 83be 86b2 3dbf c1bb cbbe e990 e0be
000000b0: d938 25bf 2b44 c7be 8216 dbbe 5318 cebe
000000c0: dc43 45be a900 fbbe dc2c d3be bc28 c0be
000000d0: c4ac f6be 758b d4be 820a f0be 7216 3dbf
000000e0: d8a7 b2be efdd e7be b8a6 08be b422 f6be
000000f0: 7043 27be c74c dfbe 39a6 aabe a98a 9cbe
00000100: 06d8 34bf 7592 bbbe b612 36bf ebc5 ffbe
00000110: 115a a1be ba51 c1be a54a 8ebe 921d b0be
00000120: 91f4 16bf cd0c 1cbf 7b89 aebe d83d a4be
00000130: 1d21 26be 1e71 c0be 1eb1 2fbe fbdf 0abf
00000140: 5c7f 05be 6370 33bf 317e e9be 4e3d 95be
00000150: ef52 94be 554c f0be 54c3 3fbf 7f8e 01bf
00000160: 1830 10be 8339 35bf e00a cfbe ef15 85be
00000170: 7b91 5ebe 41e9 01bf b158 bcbe 15ee d0be
00000180: f966 a1be 7971 afbe 7640 36bf 0fe9 acbe
00000190: f960 8abe 7ca2 ccbe a7f9 80be 0040 1cbf
000001a0: 2afb 03bf e73f 85be 98fc 24bf b6c2 51be
000001b0: 4665 c7be 3691 18bf f40a 00bf 3e80 c8be
000001c0: ba67 85be 2c97 cdbe a54b b4be f177 08bf
000001d0: 5ad9 b4be 5c45 0cbf 1899 b9be bfe7 09bf
000001e0: ee20 20bf 269a 29be a3e6 8bbe 88da babe
000001f0: 9367 7abe b329 04bf 2478 21bf e5fc 3cbe

meso.Wq.weight f4 [128, 128]
0.15933928 0.004038136 -0.25493845 -0.69886553 -0.38104168 -0.05208811 -0.13578938 -0.6509643
-0.42210573 0.5678467 -0.41027153 0.81660354 -0.073379025 -0.6317595 0.17520207 -0.08047342
0.61567175 0.25365463 0.19363119 1.0215063 0.36355835 -0.21840419 0.11399836 0.14091171
-0.1945526 0.29787475 -0.08601934 -0.08418248 -0.48649824 0.23144613 -0.48605028 0.06323957
0.07418966 0.41484013 0.22597966 -0.72827244 -0.012569688 -0.49049854 0.45388445 0.15370007
0.19872329 0.63144976 0.01889429 0.4571249 0.29280016 -0.42044657 -0.1362205 -0.15223143
-0.047337096 -0.8192886 -0.41610807 0.56240743 -0.6823821 -0.26043546 -0.02048923 0.19482227
0.12880616 0.21082458 -0.022497475 -0.6937288 0.5733866 -0.51178056 -0.2371308 0.08682103
-0.4458729 -0.1230445 0.021934863 0.41667935 -0.12299296 -0.0033830535 0.44396892 0.21277496
-0.21576174 -0.36880237 0.3846611 0.046762075 -0.03927685 0.13099259 0.5122227 0.52858466
-0.4661197 0.28174457 0.25129944 -0.15732256 0.0009171889 0.5337589 -0.097885184 -0.1725731
0.7849324 -0.090053044 0.0026006636 0.054460768 0.09801913 -0.042272832 0.41991737 -0.26431072
0.4529223 0.1899663 0.06631762 -0.12173021 0.12994693 0.34717625 -0.3325978 0.5732611
0.17303883 -0.5975002 -0.21219376 0.012973547 -0.3592927 0.17284647 0.7110659 0.253602
0.14253072 0.069774136 -0.5074453 -0.09326664 0.20736274 -0.4197992 -0.20585923 -0.22693983
-0.11663999 -0.44485807 0.06410668 -0.34901017 -0.33164042 0.25516513 0.92243123 -0.24398121
-0.26769754 0.46263936 0.1499829 0.017154763 0.2418372 0.44708174 -0.3416122 0.6485991
-0.058910973 -0.9739409 -0.28107932 -0.8474833 -0.10773053 0.33350524 0.27152085 0.13703072
-0.2926559 -0.014768902 -0.343599 -0.5605412 -0.2405281 -0.41216242 0.09646223 -0.1945977
-0.45476386 -0.49604887 -0.6294268 -0.23910165 -0.061232533 0.2097984 0.3311944 -0.12977037
0.0973534 -0.09780154 -0.16497964 0.060917795 -0.27915075 0.48852715 -0.3879094 -0.91922796
-0.016084237 0.021846773 0.38126877 -0.27506697 0.0457803 0.108710065 0.043892864 -0.01839975
-0.30778268 0.6943647 0.007890929 -0.08466148 -0.04768702 -0.37177128 -0.3112412 0.43639576
-0.25673762 0.21626696 0.11858366 0.33287802 0.16056259 -0.037708115 0.063897684 0.13802776
0.1633854 0.32737756 -0.10927548 -0.043720044 -1.034163 0.31013423 -0.30418736 -0.02252384
0.26264063 0.4683418 0.28922564 -0.11015076 -0.3797053 0.12830937 -0.061564397 -0.51860285
-0.2477152 -0.15808982 -0.30540892 -0.048134513 -0.38442734 -0.7608185 0.064668015 -0.137482
-0.18048619 0.02070009 0.25218394 -0.20081535 -0.054353323 -0.20953201 -0.01752232 0.104105316
-0.10720854 0.33568487 -0.1376614 0.17751496 0.14846401 -0.13914213 -0.41293374 -1.4011555
0.10966914 0.25723106 0.229279 -0.055395044 0.41997784 -0.29252258 -0.3786146 -0.5674234
-0.31070295 0.250778 0.23499532 -0.16253369 -0.5955307 0.61246604 0.046677664 0.30616388
-0.42617318 0.21577796 0.28758475 -0.3119151 0.33768338 -0.19129507 0.1320623 0.21260215
00000000: d629 233e 5752 843b 4b87 82be dae8 32bf
00000010: e517 c3be 585a 55bd 5f0c 0bbe 99a5 26bf
00000020: 3e1e d8be 675e 113f 1c0f d2be ee0c 513f
00000030: be47 96bd feba 21bf 2c68 333e 40cf a4bd
00000040: aa9c 1d3f 05df 813e 4147 463e b8c0 823f
00000050: 5224 ba3e 59a5 5fbe f977 e93d 294b 103e
00000060: cc38 47be 0a83 983e e82a b0bd dd67 acbd
00000070: 4c16 f9be 3700 6d3e 95db f8be bf83 813d
00000080: c0f0 973d ed65 d43e 3667 673e 1070 3abf
00000090: 18f1 4dbc a022 fbbe 8b63 e83e 8d63 1d3e
000000a0: 1e7e 4b3e b1a6 213f 33c8 9a3c 460c ea3e
000000b0: e7e9 953e c644 d7be 637d 0bbe 8ee2 1bbe
000000c0: 8be4 41bd e6bc 51bf 1e0c d5be eff9 0f3f
000000d0: 98b0 2ebf cc57 85be 08d9 a7bc 7d7f 473e
000000e0: c3e5 033e 66e2 573e a04c b8bc 3698 31bf
000000f0: 77c9 123f 0d04 03bf 6bd2 72be 39cf b13d
00000100: 7449 e4be c1fe fbbd beb0 b33c ff56 d53e
00000110: bce3 fbbd 38b6 5dbb e54f e33e aee1 593e
00000120: a5f0 5cbe aad3 bcbe 4df2 c43e 9789 3f3d
00000130: c3e0 20bd ec22 063e 0721 033f 5351 073f
00000140: 3ea7 eebe d340 903e 52aa 803e 2a19 21be
00000150: 816f 703a 6ca4 083f 0778 c8bd 01b7 30be
00000160: 54f1 483f bb6d b8bd e56f 2a3b 4112 5f3d
00000170: 41be c83d 4726 2dbd 69ff d63e bc53 87be
00000180: 6fe5 e73e 8786 423e 88d1 873d b04d f9bd
00000190: cf10 053e 16c1 b13e 424a aabe 3dc1 123f
000001a0: 1731 313e c6f5 18bf 5249 59be 008f 543c
000001b0: 36f5 b7be aafe 303e 6a08 363f 1fd8 813e
000001c0: 93f3 113e bee5 8e3d efe7 01bf 9502 bfbd
000001d0: e656 543e ecef d6be c3cc 52be ea62 68be
000001e0: f2e0 eebd 70c4 e3be 5d4a 833d 76b1 b2be
000001f0: c6cc a9be 01a5 823e 7424 6c3f 36d6 79be
00000200: a70f 89be 11df ec3e 1e95 193e 2588 8c3c
00000210: 2ca4 773e e6e7 e43e cbe7 aebe 970a 263f
00000220: a24c 71bd 3154 79bf a1e9 8fbe aaf4 58bf
00000230: d3a1 dcbd 33c1 aa3e c804 8b3e c851 0c3e
00000240: fed6 95be 44f9 71bc 35ec afbe a17f 0fbf
00000250: 004d 76be f406 d3be fd8d c53d 9f44 47be
00000260: cfd6 e8be 1efa fdbe 1d22 21bf 10d7 74be
00000270: f7ce 7abd 64d5 563e 5092 a93e 86e2 04be
00000280: 3861 c73d 2c4c c8bd 6cf0 28be f084 793d
00000290: d9ec 8ebe 3b20 fa3e 109c c6be 8652 6bbf
000002a0: 17c3 83bc 01f8 b23c a935 c33e 94d5 8cbe
000002b0: 2084 3b3d 62a3 de3d 01c9 333d 13bb 96bc
000002c0: b195 9dbe e3c1 313f f448 013c ff62 adbd
000002d0: 7753 43bd ce58 bebe 025b 9fbe 446f df3e
000002e0: 1d73 83be 1675 5d3e fddb f23d fd6e aa3e
000002f0: 856a 243e d373 1abd cadc 823d 2657 0d3e
00000300: 814e 273e 089e a73e d3cb dfbd ca13 33bd
00000310: 745f 84bf eac9 9e3e 72be 9bbe eb83 b8bc
00000320: d578 863e 7fca ef3e 6215 943e b996 e1bd
00000330: bc68 c2be 8863 033e f32a 7cbd 28c3 04bf
00000340: 0ea9 7dbe 4ce2 21be 8f5e 9cbe b228 45bd
00000350: a9d3 c4be 00c5 42bf aa70 843d 15c8 0cbe
00000360: 5fd1 38be 3c93 a93c 411e 813e 8aa2 4dbe
00000370: 97a1 5ebd 8f8f 56be f88a 8fbc 2b35 d53d
00000380: 2790 dbbd e3de ab3e 1cf7 0cbe 7bc6 353e
00000390: f306 183e 467b 0ebe 0d6c d3be 1059 b3bf
000003a0: 379a e03d cab3 833e 1dc8 6a3e eae5 62bd
000003b0: 5607 d73e 85c5 95be c6d9 c1be a942 11bf
000003c0: 7514 9fbe f965 803e 9da2 703e 3b6f 26be
000003d0: b374 18bf 93ca 1c3f 1431 3f3d 83c1 9c3e
000003e0: 5f33 dabe e6f4 5c3e 4f3e 933e 56b3 9fbe
000003f0: d6e4 ac3e dbe2 43be 573b 073e 61b4 593e
