models/eeg_loso/s_09.pt (torch, 561186 bytes, 37 tensors)

band_attn.fc1.weight f4 [8, 5]
0	0x3de318b5	0.11088697
1	0xbdef9bd1	-0.116996415
2	0x3ec438eb	0.38324675
3	0xbf86b7b1	-1.0524808
4	0x3f9eb904	1.2400212
5	0x3f45b053	0.77222174
6	0xbebee0d3	-0.37280902
7	0xbedebbc5	-0.43502632
8	0x3fcdf39d	1.608997
9	0x3d8d480f	0.0689851
10	0xbcd61339	-0.026132213
11	0xbef69300	-0.48159027
12	0xbd8f4d5a	-0.069971755
13	0x3fadd334	1.3580079
14	0xbb52f745	-0.003219084
15	0x3ec74433	0.3891922
16	0x3c11644f	0.008874013
17	0x3e96a6d5	0.29424158
18	0x3f892e64	1.0717282
19	0xbf127534	-0.5721009
20	0xbd8ffb9e	-0.07030414
21	0xbe851538	-0.2599275
22	0x3f1d3d45	0.61421615
23	0xbf19da79	-0.6009899
24	0xbf911f89	-1.1337749
25	0xbcccf690	-0.025019914
26	0xbe2e4e2b	-0.17022006
27	0xbf0556c5	-0.52085525
28	0xbf842607	-1.0324105
29	0x3f485df4	0.7826836
30	0xbdf9e546	-0.122019336
31	0x3f475f91	0.778802
32	0xbe6373d4	-0.22212154
33	0x3f737bf7	0.9511103
34	0xbeb33b90	-0.3500638
35	0xbe4835ff	-0.19551848
36	0xbf060c6e	-0.52362716
37	0x3e8fc3e2	0.28079134
38	0xbf3aef2e	-0.7302121
39	0x3f6a7afc	0.9159391

band_attn.fc1.bias f4 [8]
0	0xbeb7f6a4	-0.3593036
1	0xbe2b50cd	-0.16730042
2	0x3f7f999b	0.9984376
3	0xbe1b2e4e	-0.15154383
4	0x3ef250a0	0.47327137
5	0xbf2ecaac	-0.68278
6	0x3f83eea6	1.0307205
7	0x3eb70217	0.35743782

band_attn.fc2.weight f4 [5, 8]
0	0xbe090f31	-0.13384701
1	0x3e25d7ac	0.16195554
2	0xbed1810f	-0.40918776
3	0x3ebf79e2	0.37397677
4	0xbfc31102	-1.5239565
5	0xbf9c5442	-1.2213213
6	0x3e97f879	0.29681757
7	0xc02cbc86	-2.6990066
8	0xbe0089c0	-0.12552547
9	0x3ea424c8	0.32059312
10	0xbee14384	-0.43996823
11	0x3ed5ac48	0.41733003
12	0xbd8cf9b1	-0.06883562
13	0x3f1048b1	0.5636092
14	0x3ea774d9	0.32706335
15	0xbe9ea356	-0.3098399
16	0x3d7375aa	0.059438385
17	0x3bf6f737	0.0075367945
18	0xbe906dac	-0.28208673
19	0x3d8b2390	0.067938924
20	0x3f442d74	0.76631856
21	0xbe5fa6cb	-0.2184097
22	0xbed614d2	-0.4181276
23	0x3e5f8b81	0.2183056
24	0xbf4f0521	-0.808672
25	0x3f91c313	1.1387657
26	0x3fa6e7bf	1.3039473
27	0x3f0446ba	0.5167042
28	0x3dd70171	0.10498322
29	0xbf129a1c	-0.572664
30	0x3f77a88f	0.96741575
31	0xbee80a50	-0.45320368
32	0x3f698181	0.9121323
33	0xbf1e5679	-0.61850697
34	0x3ea17600	0.3153534
35	0xc00cec52	-2.2019238
36	0xbf294bb0	-0.66131115
37	0x3f1b97c1	0.60778433
38	0xbf04ff9d	-0.51952535
39	0x3f0f1636	0.55893266

band_attn.fc2.bias f4 [5]
0	0xbda85515	-0.08219353
1	0x3cca6afd	0.02470922
2	0x3f020b6a	0.50798666
3	0x3d8d0c6d	0.06887136
4	0xbebc39cc	-0.36762846

feat_proj.weight f4 [128, 21]
0	0xbfe8d3e1	-1.818966
1	0x3e303b1a	0.17210045
2	0xbd92c4fa	-0.071664765
3	0x3f2004e8	0.62507486
4	0x3f6a883b	0.9161412
5	0xbf238da5	-0.6388801
6	0x3e7fea7d	0.24991794
7	0xbf238a04	-0.6388247
8	0x3d2b0646	0.04175403
9	0xbb677fa6	-0.0035323887
10	0x3c7a9be0	0.015295953
11	0x40103528	2.2532444
12	0x3fc19f81	1.5126802
13	0x3f3e23b9	0.7427326
14	0x3dc9505b	0.0982978
15	0x3dad9339	0.08475346
16	0xbd25d1f3	-0.040483426
17	0x3d305c20	0.043056607
18	0x3c8aded1	0.01695195
19	0xbd019258	-0.031633705
20	0x3e840609	0.25785854
21	0x3f82933f	1.0201186
22	0x3f8bcea1	1.0922433
23	0xbf87b597	-1.0602292
24	0xbff1bcc3	-1.888573
25	0xbfe522cc	-1.7901244
26	0x3f4b65a3	0.7945196
27	0xbe4081a7	-0.18799458
28	0xbe929315	-0.2862784
29	0xbd156351	-0.03647167
30	0x3c6853ce	0.014180137
31	0xbbcbdff7	-0.006221767
32	0xbfc9ebe0	-1.5775108
33	0xbf80d0fe	-1.0063779
34	0xbd898f6c	-0.06716809
35	0x3f5c1f63	0.8598539
36	0x3f35ee31	0.71066576
37	0xbdaf0c4f	-0.085472696
38	0xbd0d66ad	-0.034521747
39	0x3d1e0187	0.038575675
40	0xbd47ee0a	-0.048810996
41	0xbe4a249e	-0.19740531
42	0xbf09a32b	-0.537646
43	0xbf7dee3c	-0.9919164
44	0x3f78bf78	0.9716716
45	0x4008994c	2.1343565
46	0x3fe269fd	1.7688595
47	0x3dba7d46	0.09105925
48	0x3d9c8bdb	0.07643863
49	0x3e8284d5	0.25491968
50	0x3c0e1b7f	0.008673548
51	0xba8eca21	-0.0010893979
52	0x3c905606	0.017619144
53	0xbf8ab05c	-1.0835071
54	0xbf0c0150	-0.546895
55	0xbe956e0a	-0.29185516
56	0xbf718683	-0.94345874
57	0xbf35aaf3	-0.7096397
58	0x3ce30119	0.027710484
59	0xbbc83ad5	-0.006110529
60	0xbc49b5a4	-0.012311373
61	0x3ceef55c	0.02916973
62	0x3f0aa331	0.5415526
63	0xbe3dd83b	-0.18539517
64	0x3f9cba9e	1.2244451
65	0x3efdc88a	0.49567062
66	0xbf43eb91	-0.7653132
67	0xbf18c956	-0.59682214
68	0x3c37de02	0.011222364
69	0x3e44d377	0.19221292
70	0x3ea160af	0.31519076
71	0x3ba58364	0.0050510634
72	0x3b733677	0.003711132
73	0xbd23367a	-0.039846875
74	0x3fcb8967	1.5901307
75	0x3fc8e2fb	1.5694269
76	0x3fbfe9df	1.4993247
77	0x3f09bab3	0.53800505
78	0x3f616816	0.8804945
79	0x3c68c184	0.014206294
80	0x3c642618	0.013925098
81	0xbcb4da6a	-0.022076804
82	0x3d9c1324	0.07620838
83	0x3d696e13	0.05698974
84	0xbecfed92	-0.4061094
85	0xc0208e23	-2.5086753
86	0xbfe7a6d4	-1.8097787
87	0x403d9334	2.9621096
88	0x401510dc	2.329154
89	0xbe9d006b	-0.3066438
90	0xbdfb72a4	-0.12277725
91	0x3ba634e0	0.005072221
92	0xbd00f52c	-0.031483814
93	0x3b6b2cff	0.0035884974
94	0x3c6a0556	0.014283499
95	0xbf3125ac	-0.6919811
96	0x3f3b255a	0.7310387
97	0x3f0b2f34	0.543689
98	0xbe604d2f	-0.21904443
99	0x3f09b20a	0.5378729
100	0x3d0b11ba	0.033952452
101	0xbce85558	-0.028361008
102	0xbd4690ba	-0.048477866
103	0xbdc9e39b	-0.098578654
104	0x3fa9efbf	1.327629
105	0x3f1d8fec	0.6154773
106	0xc04f0415	-3.2346241
107	0xbf49935c	-0.7874048
108	0xbeb01483	-0.3439065
109	0xbd7eeefa	-0.062239625
110	0xbf931024	-1.1489301
111	0xbdd47179	-0.10373206
112	0xbd25cd58	-0.040479034
113	0x3d0132f8	0.03154275
114	0x3d119d03	0.03555013
115	0x3cc7e12d	0.024399364
116	0xbea1d423	-0.3160716
117	0xbf8b5c9f	-1.0887641
118	0xbb0e5313	-0.0021716997
119	0x3e8ac451	0.27102903
120	0x3e4289eb	0.18997924
121	0x3c82653d	0.015917415
122	0x3ba729c4	0.0051014144
123	0x3c89fe93	0.016845023
124	0x3d254b67	0.040355112
125	0xbf6367bb	-0.88830155
126	0xbf15e206	-0.5854801
127	0x400d8c76	2.211698
128	0x401f594f	2.489826
129	0x3eee959c	0.46598518
130	0x3f53c040	0.82715225
131	0x3e35fc05	0.17771919
132	0x3e977fbc	0.2958964
133	0x3c113efe	0.008865116
134	0x3c6bd773	0.014394629
135	0x3bec6e4c	0.007215297
136	0x3cd84634	0.026400663
137	0x3eec3fbf	0.46142384
138	0x3f630363	0.8867704
139	0x3f97a8e8	1.1848421
140	0x3f2d607f	0.67725366
141	0x3f76347b	0.9617383
142	0xbb9fbbb1	-0.0048746695
143	0x3d930c3c	0.07180068
144	0xbd34f4cc	-0.04417877
145	0xbdcea3b6	-0.10089819
146	0x3f364091	0.7119227
147	0x3f339fb7	0.7016558
148	0xbf5676fe	-0.8377532
149	0xbfdd9839	-1.731208
150	0x3f933f60	1.1503716
151	0x3f868228	1.050847
152	0xbe47b8b4	-0.19504052
153	0xbe857aa2	-0.26070124
154	0xbd88535a	-0.06656523
155	0xbd2273f3	-0.03966136
156	0xbc8212e8	-0.015878156
157	0x3c2adff6	0.010429373
158	0x3e62c1cc	0.2214424
159	0x3e85cd03	0.26132974
160	0x3d96dcad	0.07366309
161	0x3f2da10b	0.6782386
162	0x3f4684cf	0.775464
163	0x3c48cead	0.012256307
164	0xbcdbfe9e	-0.02685481
165	0xbd873276	-0.066014215
166	0xbdcc5c8e	-0.09978591
167	0x3f28e1c1	0.65969473
168	0xc008debd	-2.1385949
169	0x3f6b7839	0.9198032
170	0x400bd6b9	2.1849806
171	0x3ed2d889	0.41180828
172	0x3eb3efcf	0.35143897
173	0xbee8bb67	-0.45455477
174	0xbe814cd4	-0.25253928
175	0xbd888938	-0.066667974
176	0x3c84dbef	0.016218154
177	0xbbd26202	-0.006420375
178	0xbbb9ee7f	-0.005674183
179	0xbea2bd43	-0.3178502
180	0x3defcf37	0.11709445
181	0x3f91f338	1.140235
182	0x403018cb	2.7515132
183	0x400638d2	2.097218
184	0x3dc06683	0.093945526
185	0x3c929948	0.017895356
186	0xbc9db88e	-0.019253042
187	0x3df3e8c8	0.11909634
188	0x3f201065	0.62525016
189	0x3fe96a44	1.8235555
190	0xbec48b16	-0.38387364
191	0xc0102b84	-2.252656
192	0xbff6f64d	-1.9293915
193	0xbfa93c8b	-1.3221601
194	0x3ec70604	0.38871777
195	0x3e655064	0.22393948
196	0xbe08825b	-0.13330977
197	0xbc2d1435	-0.0105639
198	0x3d08290f	0.03324228
199	0xbcd73226	-0.02626903
200	0x3fa5b5d1	1.2946111
201	0x3e01a984	0.12662321
202	0xbec3944c	-0.3819908
203	0xbf60ac24	-0.87762666
204	0xbf1a7036	-0.6032747
205	0x3d3735cb	0.044729035
206	0x3da73fad	0.08166442
207	0x3d4c2892	0.04984338
208	0x3d804362	0.06262852
209	0xbf6eb8fc	-0.93251014
210	0x3f9e758c	1.2379622
211	0xbf1b4fb0	-0.6066847
212	0xc005ec72	-2.0925565
213	0xbfa25219	-1.2681304
214	0xbf5c35be	-0.86019504
215	0x3df0eba7	0.11763697
216	0xbe2296eb	-0.15877883
217	0x3e962dcb	0.29331812
218	0x3d05d893	0.032677244
219	0xbb59e319	-0.0033246933
220	0x3d17ef5c	0.037093505
221	0xbf99c670	-1.2013683
222	0x3e4ed93c	0.20200056
223	0x3eede384	0.46462643
224	0x3f403377	0.7507853
225	0x3e9ee3d9	0.3103321
226	0xbdbdee36	-0.09273951
227	0x3c13cb0d	0.009020579
228	0x3cb4444e	0.022005226
229	0x3cf2f2f7	0.02965687
230	0x3edce45c	0.43142974
231	0xbf7d3afc	-0.9891813
232	0x40377baf	2.866924
233	0x4016a71a	2.353949
234	0x3e9768fd	0.29572287
235	0x3ee39838	0.4445207
236	0x3f9d9c0a	1.2313244
237	0xbefc11ee	-0.4923243
238	0xbe8b06e7	-0.27153704
239	0xbcc9bc35	-0.024625877
240	0xbbad2b06	-0.00528467
241	0x3cd4c7b7	0.025974138
242	0xbf63cae8	-0.88981485
243	0xbee48364	-0.44631493
244	0x3e5e2c67	0.21696626
245	0x3fae63c3	1.3624195
246	0x3f1ef81a	0.6209732
247	0x3c9040d3	0.017609036
248	0xbd3f330e	-0.04667955
249	0xbd319d2d	-0.043362785
250	0xbd3150ac	-0.043289825
251	0x3f48c12d	0.7841976
252	0x3f1e83d6	0.61919916
253	0x3ed25b90	0.41085482
254	0xbf6f3a38	-0.9344821
255	0xbeb3fa7e	-0.35152048

feat_proj.bias f4 [128]
0	0x3f505e49	0.8139387
1	0xbeb7a720	-0.35869694
2	0x3f2f1e69	0.6840578
3	0xbe5194c5	-0.20466907
4	0xbf22eb80	-0.63640594
5	0xbf0a963e	-0.541355
6	0xbebf4f0e	-0.37365
7	0xbf8ca91b	-1.0989107
8	0xbcc2ffdc	-0.023803644
9	0xbf0d5e05	-0.5522159
10	0xbf480fc0	-0.7814903
11	0x3e3893b5	0.18025096
12	0xbf132d8b	-0.5749137
13	0x3f7af54c	0.98030543
14	0xbf26f2d3	-0.6521427
15	0x3f265e38	0.64987516
16	0xbf9b19f4	-1.2117295
17	0xbe831981	-0.25605395
18	0xbd20e89b	-0.03928433
19	0xbf0bd2b7	-0.546184
20	0xbf08ea71	-0.5348273
21	0x3eead20e	0.45863384
22	0xbe33d1ea	-0.17560545
23	0x3f170723	0.58995265
24	0x3de93c18	0.11388415
25	0xbf8b1e01	-1.0868531
26	0x3d91bb12	0.07115759
27	0x3f440f41	0.76585776
28	0x3f2e9f54	0.68211865
29	0xbf882a87	-1.0637978
30	0x3eb525a9	0.35380295
31	0xbe62209a	-0.22082749
32	0xbf9c12d5	-1.2193247
33	0xbeaad12a	-0.33362705
34	0xbf144317	-0.5791487
35	0x3cdc91c2	0.026924971
36	0xbe4270aa	-0.1898829
37	0x3ef99b66	0.48751372
38	0xbf4c316a	-0.797629
39	0x3eaf538d	0.34243432
40	0x3ebb787f	0.3661537
41	0xbf7bfe35	-0.98434764
42	0x3f45a7ed	0.7720936
43	0xbf178830	-0.5919218
44	0xbf95bf1f	-1.169895
45	0x3edd54a4	0.43228638
46	0x3f5a032a	0.8516108
47	0xbf4b511a	-0.79420626
48	0x3e95e248	0.292742
49	0x3d838495	0.064217724
50	0x3f8756d1	1.0573369
51	0x3f30ee79	0.6911388
52	0xbf554a26	-0.83316267
53	0x3efc7e7b	0.49315247
54	0x3f967b80	1.1756439
55	0xbfa2a813	-1.2707542
56	0xbf4ffeec	-0.81248355
57	0x3f3c0a2a	0.7345301
58	0x3d72292a	0.05912129
59	0x3eb8d51c	0.3610009
60	0xbeb7c229	-0.3589032
61	0xbf19cda4	-0.6007941
62	0xbe5c6380	-0.21522331
63	0x3f2ba10c	0.67042613
64	0x3e898f0e	0.26866955
65	0x3f5042c1	0.8135186
66	0x3f79b2e3	0.97538584
67	0xbf4dbe68	-0.8036866
68	0xbe2ebd5e	-0.17064425
69	0x3f289bc8	0.65862703
70	0x3f4bf8f2	0.79676735
71	0x3f897b0a	1.0740674
72	0x3f990b19	1.1956512
73	0x3e971905	0.29511276
74	0x3ef9a752	0.48760468
75	0x3cbc5efd	0.022994513
76	0xbf7b7059	-0.98218304
77	0x3e0494f4	0.12947446
78	0xbe1a551c	-0.15071529
79	0xbe85eb3a	-0.26156026
80	0x3d20c521	0.039250497
81	0x3e5a954a	0.21346012
82	0x3f716eb2	0.9430953
83	0x3fa05ce0	1.2528343
84	0xbf9873c7	-1.1910332
85	0x3f5b3c53	0.8563892
86	0x3f833d8f	1.0253161
87	0xbee042e3	-0.4380103
88	0x3ed80bea	0.4219659
89	0xbe42ecb5	-0.19035609
90	0xbf38e2db	-0.72221154
91	0xbeebaeac	-0.46031702
92	0xbf71b148	-0.94411135
93	0x3dd44c68	0.10366136
94	0x3e9924c9	0.29910877
95	0x3eec726f	0.46181056
96	0x3e37aec1	0.17937757
97	0xbed111ef	-0.40833995
98	0x3f0bf562	0.546713
99	0xbbdca218	-0.0067331903
100	0x3f438e96	0.76389444
101	0x3deea910	0.1165334
102	0x3e869320	0.26284122
103	0xbf52cddc	-0.82345366
104	0x3f4051c4	0.75124764
105	0x3f747131	0.95485216
106	0xbf28ac11	-0.6588755
107	0x3e877bf4	0.26461756
108	0xbf826a6b	-1.0188726
109	0x3e9993a5	0.29995456
110	0x3ef98206	0.48732013
111	0x3f62fead	0.88669854
112	0x3e011171	0.1260431
113	0x3f8b4a89	1.0882121
114	0x3cdff33c	0.027337663
115	0xbf06ca10	-0.5265207
116	0x3f4bbb2e	0.7958249
117	0x3edafb51	0.42769864
118	0xbf85d0eb	-1.0454382
119	0x3f11bd62	0.569296
120	0xbf508d12	-0.81465256
121	0x3ea832d1	0.3285127
122	0x3e99bcf8	0.30026984
123	0x3e0b7f8f	0.13622878
124	0xbea414f1	-0.32047227
125	0x3e2fb42e	0.17158577
126	0x3e93294a	0.2874244
127	0x3f5806d8	0.8438544

local1.conv.bias f4 [128]
0	0x3f8cc07e	1.0996244
1	0x3f282b89	0.6569143
2	0x3cbbe9f5	0.022938708
3	0x3dc82c12	0.09774031
4	0xbe1846b9	-0.14870729
5	0x3f1ae0af	0.6049909
6	0x3e0f86f4	0.14016324
7	0x3fe99b67	1.825055
8	0xbda790dc	-0.081819266
9	0x3fa0caa3	1.256184
10	0xbea8bbbc	-0.3295573
11	0x3c6cf000	0.014461517
12	0xbe12fbcc	-0.14353865
13	0x3fe25cad	1.7684532
14	0xbf5d96f3	-0.86558455
15	0x3e907c7e	0.2821998
16	0x3d70ca34	0.058786586
17	0xbc7dae21	-0.01548341
18	0xbbc0d7c3	-0.005885096
19	0x3f8ea123	1.1142925
20	0xbee31ac9	-0.44356373
21	0x3f1d5cff	0.61470026
22	0xbf1cd101	-0.61256415
23	0xbf8d507b	-1.1040186
24	0x3d4f15cd	0.0505579
25	0x3dcbe70d	0.09956179
26	0xbe1ddc9b	-0.15416186
27	0xbf26959d	-0.6507204
28	0x3ece7670	0.40324736
29	0xbface44d	-1.3507172
30	0x3da0ac01	0.07845307
31	0x3ec14cb6	0.37753838
32	0x3e401ff2	0.18762186
33	0x3e8a16fc	0.2697066
34	0x3f05f7e8	0.523314
35	0xbf97cb12	-1.1858847
36	0xbf8602d3	-1.0469612
37	0xbfa030d2	-1.2514899
38	0x3f139a6a	0.5765749
39	0x3e3dbcc9	0.18529047
40	0xbc6ffb16	-0.014647266
41	0xbf5da341	-0.8657723
42	0xbdf789dc	-0.120868415
43	0x3f171471	0.59015566
44	0x3f0f68ca	0.5601927
45	0x3fcf0b48	1.6175318
46	0xbf8d052f	-1.1017207
47	0x3f3d598f	0.7396478
48	0x3f059f8a	0.5219656
49	0xbebc123b	-0.3673266
50	0xbfbe1d9c	-1.4852786
51	0x3e9a35aa	0.30119067
52	0xbe887e88	-0.26659036
53	0x3e8793c4	0.26479924
54	0x3fd43e2b	1.6581472
55	0x3fa64942	1.2991107
56	0xbbfd5be6	-0.0077319024
57	0xbee93839	-0.45550707
58	0xbf4caf0b	-0.79954594
59	0x3f887e91	1.0663625
60	0xbe831b2e	-0.25606674
61	0xbf0f2c6d	-0.55927163
62	0xbf266fc3	-0.65014285
63	0xbdcb2c29	-0.09920532
64	0xbebf882c	-0.37408578
65	0x3e6c8b6c	0.2310006
66	0xbebd07a3	-0.3691989
67	0x3e9b9520	0.3038721
68	0x3f05be3d	0.52243406
69	0x3f3c22c6	0.7349056
70	0xbf85dd52	-1.0458167
71	0x3d9cba7d	0.07652757
72	0xbedace37	-0.42735454
73	0xbf34faef	-0.70695394
74	0xbe315e90	-0.17321229
75	0x3e9ca97c	0.30598056
76	0xbefc1f0c	-0.49242437
77	0xbf0bbe73	-0.5458748
78	0xbf04b8bd	-0.5184439
79	0xbfa227a2	-1.2668345
80	0x3ee03919	0.43793562
81	0x3f86d5ef	1.0534037
82	0xbed6a10c	-0.41919744
83	0xbe4931ad	-0.19647856
84	0x3e812253	0.252215
85	0x3f4bceb2	0.79612267
86	0x3f16d266	0.5891479
87	0xbea0dfa3	-0.3142062
88	0xbeae82d5	-0.34084192
89	0xbe9cd310	-0.30629778
90	0xbe0dff4b	-0.13866918
91	0xbf30e9d5	-0.691068
92	0x3f6fdcf4	0.9369652
93	0xbe133446	-0.1437541
94	0x3eb49465	0.35269466
95	0xbe9b2785	-0.30303589
96	0x3facb163	1.3491634
97	0x3fb60d12	1.4222739
98	0xbf0fe705	-0.5621188
99	0xbe626230	-0.22107768
100	0xbfb7de47	-1.4364709
101	0xbf30b73f	-0.6902961
102	0x3fe4d7b4	1.7878327
103	0x3f371d6b	0.71529263
104	0xbf1ab5a8	-0.60433435
105	0xbf042cf9	-0.5163112
106	0x3f3eaaac	0.74479175
107	0xbe46ddd4	-0.19420558
108	0x3f739c9a	0.9516083
109	0x3f5be47f	0.8589553
110	0xbefe89a1	-0.49714378
111	0xbe4604b6	-0.19337735
112	0x3f80e3c6	1.0069511
113	0x3f54cfbd	0.83129483
114	0x3eb29ab7	0.34883663
115	0x3ec78e32	0.38975674
116	0xbede881e	-0.43463224
117	0xbf6fc5fc	-0.93661475
118	0xbf6d010b	-0.92579716
119	0x3e8a4724	0.270074
120	0xbed8d4f7	-0.4234998
121	0x3eec8f84	0.46203244
122	0x3fbd3d3f	1.4784316
123	0x3f9e853b	1.2384409
124	0xbf3d0071	-0.738288
125	0xbd9f8eb5	-0.07790891
126	0x3f30ca95	0.69059116
127	0xbd0bc120	-0.034119725

local1.conv.lin.weight f4 [128, 128]
0	0x3ea8bfa6	0.32958716
1	0x3e1f7913	0.1557353
2	0xbf0c3820	-0.5477314
3	0x3ed610a0	0.4180956
4	0xbf7f39b3	-0.9969742
5	0xbde2ed1e	-0.11080383
6	0x3e07ec66	0.13273773
7	0xbed901c7	-0.42384169
8	0x3eabe8c3	0.3357602
9	0x3df30168	0.118655026
10	0xbe5c08eb	-0.21487777
11	0x3e425466	0.18977508
12	0x3d5da8d8	0.0541161
13	0x3f7301e5	0.94924766
14	0x3e5bc074	0.21460134
15	0x3f2e4213	0.6806957
16	0xbf83fc65	-1.03114
17	0x3c287a8f	0.0102831265
18	0x3e8f2b52	0.27962738
19	0x3e5db2a5	0.21650179
20	0x3e003d23	0.12523322
21	0x3ed73d38	0.42038894
22	0x3f691c64	0.91058946
23	0x3f93aa7f	1.1536406
24	0x3f2d2d74	0.6764748
25	0xbf5f32bb	-0.87186784
26	0x3eabc924	0.33551896
27	0xbd2cdeb6	-0.04220458
28	0xbd61de08	-0.055143386
29	0xbdf023cc	-0.11725578
30	0xbedbaf84	-0.42907345
31	0xbf0737d2	-0.5281955
32	0xbf42ef78	-0.7614665
33	0x3e2d7839	0.16940393
34	0xbec0e6b0	-0.37676
35	0x3ebef4f1	0.3729625
36	0x3dc63c3b	0.09679457
37	0x3ea4c65b	0.32182583
38	0xbed0f456	-0.40811414
39	0x3ee66a9b	0.4500321
40	0x3ef0f26e	0.4705996
41	0xbf099392	-0.537408
42	0x3efee411	0.49783376
43	0x3e1f52df	0.15558957
44	0xbf4d3792	-0.8016292
45	0x3e9c6f34	0.3055359
46	0x3df0c0f1	0.11755551
47	0xbf299661	-0.66245085
48	0x3f0a0585	0.5391467
49	0xbf02dfb6	-0.51122606
50	0x3f3b8553	0.7325031
51	0x3ee8a0f3	0.45435295
52	0xbf08c3dc	-0.5342386
53	0x3e9ce413	0.30642757
54	0x3f6282ac	0.8848064
55	0xbeb7fe94	-0.35936415
56	0xbf25db5e	-0.6478785
57	0xbf13d1f0	-0.57742214
58	0x3f0fac39	0.56122166
59	0x3d9ea86b	0.07746967
60	0x3ed28c47	0.41122648
61	0x3b9a4548	0.004707966
62	0xbe642383	-0.22279172
63	0x3f338610	0.7012644
64	0x3f158040	0.5839882
65	0x3f1034a4	0.56330323
66	0x3f3d7d18	0.74019
67	0xbeec1635	-0.46110693
68	0xbf3aabd0	-0.72918415
69	0x3dcede06	0.10100941
70	0x3f072b58	0.5280051
71	0x3edd95c2	0.4327832
72	0x3f7fbd2b	0.9989802
73	0x3e2ea5b1	0.17055394
74	0x3f086919	0.53285366
75	0x3ebccdb5	0.36875692
76	0xbf143b47	-0.5790295
77	0xbe002cfb	-0.12517159
78	0xbf0c5320	-0.5481434
79	0x3f021b91	0.50823313
80	0xbba720ca	-0.0051003443
81	0x3e646187	0.22302829
82	0x3eda62c8	0.4265349
83	0x3f9102f5	1.1329027
84	0xbf1163eb	-0.5679309
85	0x3f8d1756	1.1022747
86	0x3eab0068	0.33398747
87	0xbeeb86db	-0.46001324
88	0x3f17ba9e	0.5926913
89	0xbf328db2	-0.6974746
90	0xbe0c7762	-0.13717416
91	0x3df841f7	0.12121957
92	0xbee9392a	-0.45551425
93	0xbe3697c5	-0.17831333
94	0xbec3a8d5	-0.38214746
95	0x3e0ed9d1	0.13950278
96	0xbe5ed871	-0.21762253
97	0x3f13178f	0.5745782
98	0x3f2ca54b	0.6743972
99	0x3e15c657	0.14626442
100	0x3e1ed05d	0.15509172
101	0xbec9e810	-0.39434862
102	0x3eca575f	0.39519784
103	0xbda392e2	-0.07987
104	0x3f4f005c	0.80859923
105	0xbc940b1b	-0.018071702
106	0xbe0bd37c	-0.13654894
107	0x3ee6c4cf	0.45072028
108	0xbf8d4695	-1.1037165
109	0x3ecd9708	0.4015429
110	0x3ee68d9b	0.4502991
111	0x3e180dca	0.1484901
112	0x3f4b1798	0.79332876
113	0x3e60fdc4	0.21971804
114	0x3d8588c2	0.06520225
115	0x3c8b726c	0.017022334
116	0x3edaa63c	0.42704952
117	0x3ebe965e	0.37224096
118	0xbf87f97d	-1.0623013
119	0x3f26c452	0.6514331
120	0xbe9643cc	-0.293486
121	0x3ed869be	0.42268175
122	0x3ec38a7f	0.38191602
123	0x3f15e942	0.5855905
124	0xbf1664ec	-0.58747745
125	0xbf195299	-0.5989166
126	0x3d5dff5c	0.054198608
127	0x3f3f9e46	0.7485088
128	0xbf1aede9	-0.6051927
129	0xbeb3bf51	-0.351069
130	0x3f4c522b	0.7981288
131	0xbe77a97b	-0.24185745
132	0xbeb02b8d	-0.34408227
133	0xbe33bad9	-0.17551745
134	0xbe60dc80	-0.21959114
135	0xbf081910	-0.5316324
136	0x3d9c69bb	0.07637354
137	0xbebf72f9	-0.37392405
138	0xbe99ca97	-0.30037376
139	0x3e0afc34	0.1357277
140	0xbd57b225	-0.052660126
141	0x3f31cdb8	0.69454527
142	0xbef49dcf	-0.47776648
143	0x3f23eb94	0.6403134
144	0xbf09a756	-0.5377096
145	0xbde052ab	-0.10953268
146	0x3d30f511	0.043202464
147	0xbd8a9e09	-0.06768424
148	0x3e155cb1	0.1458614
149	0x3ee7a5b3	0.45243606
150	0xbf05b5f9	-0.52230793
151	0xbebad741	-0.3649235
152	0xbe6f7c8d	-0.23387356
153	0xbd85a91d	-0.065263964
154	0x3edb0d9c	0.4278382
155	0x3d5ae6c1	0.05344272
156	0xbe68c95b	-0.22733061
157	0xbf1c7d4d	-0.61128694
158	0x3c9424c2	0.018083934
159	0xbec7e78d	-0.39043847
160	0xbf002a43	-0.50064486
161	0xbdb35532	-0.08756484
162	0x3ecd5f47	0.40111753
163	0x3e0c3887	0.13693438
164	0x3e484904	0.19559103
165	0x3e413291	0.18866946
166	0xbef2a8b7	-0.47394344
167	0xbdd23e4c	-0.102657884
168	0x3db3e316	0.087835476
169	0xbef399d7	-0.47578308
170	0x3ec87a90	0.39156008
171	0xbdaef8ff	-0.08543586
172	0xbf0336ea	-0.5125567
173	0x3eedfd2a	0.4648221
174	0x3ebcd5da	0.36881906
175	0xbc450511	-0.012025134
176	0xbe338dd7	-0.17534576
177	0x3ea1a4e8	0.31571126
178	0x3e908458	0.2822597
179	0xbdf062d4	-0.117376
180	0x3e5384ba	0.206561
181	0x3bcd303c	0.0062618535
182	0xbb3b37e0	-0.002856724
183	0xbeb4e20a	-0.35328704
184	0x3da4d117	0.08047693
185	0x3f31dd53	0.6947834
186	0xbf58e264	-0.84720445
187	0x3ee79035	0.4522721
188	0xbf2f311a	-0.684343
189	0x3e58b340	0.21162128
190	0xbf26924c	-0.6506698
191	0xbd9464b0	-0.07245767
192	0xbe063fca	-0.13110271
193	0x3eb2124f	0.34779593
194	0x3f33b9f8	0.7020564
195	0xbef47046	-0.47741908
196	0x3d865dd3	0.06560864
197	0x3ec9320c	0.39295995
198	0x3e2b47e2	0.1672664
199	0x3e534878	0.20633113
200	0x3ed95cfc	0.42453754
201	0x3f0e81c6	0.5566677
202	0xbe328d28	-0.1743666
203	0x3e8e4dad	0.27793637
204	0xbee443c0	-0.4458294
205	0xbd916e4a	-0.07101114
206	0x3e33002b	0.17480533
207	0xbdec3f34	-0.115354925
208	0xbdebc169	-0.115114994
209	0xbe31290b	-0.17300813
210	0x3ec55f77	0.38549396
211	0x3d855925	0.065111436
212	0xbe7350a0	-0.23761225
213	0x3f3a17e0	0.7269268
214	0x3ef50e42	0.4786244
215	0xbde6035e	-0.11231111
216	0xbe335171	-0.17511536
217	0x3eb0d56c	0.34537828
218	0xbe6dd3bd	-0.23225303
219	0xbe8678b9	-0.2626398
220	0xbf323d64	-0.69624925
221	0x3e1f4e35	0.15557177
222	0x3ec3eb5a	0.38265496
223	0xbe8702ec	-0.26369417
224	0xbdeef296	-0.11667363
225	0xbf21c3c4	-0.6318934
226	0x3e6b5d42	0.22984794
227	0xbe8695d1	-0.26286176
228	0x3efc8fa4	0.4932834
229	0xbe89b53e	-0.2689609
230	0xbc9de4ff	-0.019274233
231	0xbeb39123	-0.35071668
232	0x3dac1978	0.08403295
233	0x3f49c414	0.78814816
234	0xbe42ce21	-0.19023944
235	0x3dad63b0	0.084662795
236	0x3e8974cf	0.2684693
237	0x3c82f382	0.015985254
238	0xbe8b0423	-0.27151594
239	0x3e04705c	0.12933487
240	0xbe296cea	-0.16545454
241	0x3eea8c44	0.4581014
242	0xbeb299ee	-0.34883064
243	0xbe71e642	-0.23622993
244	0x3e7869a1	0.24259044
245	0x3c4e1702	0.012578728
246	0xbe9c7016	-0.30554265
247	0x3e940679	0.28911188
248	0xbf318d06	-0.6935581
249	0x3cabdcbb	0.020979276
250	0xbf406293	-0.7515041
251	0x3e5812fd	0.21100993
252	0x3df7eed7	0.12106102
253	0xbe614d8c	-0.22002238
254	0x3ed1c48d	0.4097027
255	0xbf120418	-0.57037497

local1.norm.weight f4 [128]
0	0x3f8bc9ba	1.0920937
1	0x3faaca8f	1.3343066
2	0x3f7b4e1f	0.9816608
3	0x3f4b0798	0.7930846
4	0x3fb86f18	1.4408903
5	0x3f883267	1.0640382
6	0x3f2e3156	0.6804403
7	0x3f875cb7	1.0575169
8	0x3f9fe2e2	1.2491114
9	0x3f908e7b	1.1293482
10	0x3fc07bce	1.5037782
11	0x3f8f5d4d	1.1200348
12	0x3f988356	1.191508
13	0x3f865c10	1.0496845
14	0x3f7a997c	0.9789045
15	0x3f422d32	0.7585021
16	0x3fc230f5	1.517119
17	0x3f1eb3f0	0.6199331
18	0x3ff41a62	1.9070551
19	0x3f738480	0.95124054
20	0x3f74a331	0.9556151
21	0x3f373bfe	0.71575916
22	0x3fa49e5c	1.2860827
23	0x3ef5e219	0.4802406
24	0x3f1c1230	0.6096525
25	0x3f8c2fa6	1.0952041
26	0x3f9db28b	1.2320112
27	0x3fb5920f	1.4185199
28	0x3f954562	1.1661799
29	0x3f88f590	1.069994
30	0x3f5e0f1b	0.867418
31	0x3f573ca3	0.840769
32	0x3f37d1f0	0.71804714
33	0x3fb0c0c5	1.3808829
34	0x3f8d6880	1.1047516
35	0x3fb74b79	1.4319907
36	0x3fb5c59b	1.4200929
37	0x40011233	2.0167358
38	0x3fa28973	1.2698196
39	0x3f85ee1b	1.0463289
40	0x3fa4b0ab	1.2866415
41	0x3f9bf61f	1.2184485
42	0x3fa12700	1.2590027
43	0x3f881583	1.0631565
44	0x3fa470b8	1.2846899
45	0x3f646274	0.8921273
46	0x3f406198	0.75148916
47	0x3f506362	0.81401646
48	0x3f178a5c	0.59195495
49	0x3f310eb3	0.69163054
50	0x3fb1ae26	1.3881271
51	0x3f3484d4	0.7051518
52	0x3fd07853	1.628672
53	0x3fb22051	1.3916112
54	0x3f81c4c9	1.0138179
55	0x3f731396	0.9495176
56	0x3f9b205b	1.2119249
57	0x3fc171b8	1.5112829
58	0x401c6b40	2.444046
59	0x3f9a03db	1.2032427
60	0x3f860f40	1.0473404
61	0x3f898973	1.0745071
62	0x3fe4a817	1.7863797
63	0x3fc01c5a	1.5008652
64	0x3f32c841	0.69836813
65	0x3f0a7e28	0.5409875
66	0x3f15a29a	0.58451235
67	0x3f234f9d	0.63793355
68	0x3f070ac6	0.52750814
69	0x3f9a3bd2	1.2049506
70	0x3fcb0625	1.586125
71	0x3fac080f	1.3439959
72	0x3f193e1f	0.59860414
73	0x3f99783a	1.1989815
74	0x3f33c22f	0.70218176
75	0x3f5bf9c3	0.8592798
76	0x3f899247	1.0747765
77	0x3f58ddc6	0.847134
78	0x4005326b	2.0812023
79	0x3f216916	0.63050973
80	0x3f2c156b	0.6722018
81	0x3f8698dd	1.05154
82	0x3f993d59	1.1971847
83	0x3f263ae3	0.64933604
84	0x3fb80f4b	1.4379667
85	0x3f851305	1.0396429
86	0x3f53376a	0.8250643
87	0x3f9bad56	1.2162273
88	0x3fa09688	1.2545938
89	0x3f4947c3	0.78625125
90	0x3f878f5f	1.0590628
91	0x3fcb8ad2	1.590174
92	0x3f92cde9	1.1469089
93	0x3f26cc1d	0.651552
94	0x3edaa675	0.42705122
95	0x3f9e9a0c	1.2390761
96	0x3f549d10	0.8305216
97	0x3f7bb4e9	0.9832292
98	0x3faf394e	1.3689363
99	0x3f94b165	1.1616637
100	0x3fc31adc	1.5242572
101	0x3fabbd93	1.3417228
102	0x3f8c307f	1.09523
103	0x3f67535f	0.9036159
104	0x3faa1905	1.3288885
105	0x3f3cef3d	0.7380255
106	0x3f8218f3	1.0163864
107	0x3f046fde	0.51733196
108	0x3f8a547a	1.080703
109	0x3f5f4fb4	0.8723099
110	0x3f8bc485	1.0919348
111	0x3fdc94b3	1.7232879
112	0x3f651fb4	0.895015
113	0x3f80bda8	1.0057878
114	0x3f5963ec	0.84918094
115	0x3f25b95a	0.6473595
116	0x3f054dc8	0.5207181
117	0x3f692a5f	0.9108028
118	0x3f8a6a50	1.0813694
119	0x3f6ed245	0.93289596
120	0x3fb2964c	1.3952117
121	0x3f67830a	0.90434325
122	0x3f756c25	0.9586814
123	0x3f519cdc	0.81879973
124	0x3fc016c7	1.5006951
125	0x3f0428f3	0.51624984
126	0x3fa37c63	1.2772335
127	0x3fed9739	1.8561774

local1.norm.bias f4 [128]
0	0xbf3d1f44	-0.7387583
1	0xbf48d723	-0.7845327
2	0xbf0d1b59	-0.55119854
3	0xbeda8f32	-0.42687374
4	0xbf3296f7	-0.69761604
5	0xbf48a561	-0.7837735
6	0xbf108c93	-0.564645
7	0xbf0faaec	-0.5612018
8	0xbf001763	-0.50035685
9	0xbf859973	-1.0437454
10	0xbe95aeba	-0.29234868
11	0xbf287a32	-0.65811455
12	0xbf1ce7cc	-0.61291194
13	0xbf32b4c2	-0.69807065
14	0xbf2a38fc	-0.664932
15	0xbf0f5ef2	-0.5600425
16	0xbf244806	-0.641724
17	0xbf20ec3f	-0.6286048
18	0xbe925b8a	-0.28585464
19	0xbefde8f5	-0.49591795
20	0xbf15a080	-0.5844803
21	0xbefaaaca	-0.48958427
22	0xbefa6f81	-0.48913196
23	0xbf44a643	-0.76816195
24	0xbf1534af	-0.58283514
25	0xbf09d775	-0.53844386
26	0xbef8e0fc	-0.4860915
27	0x3c985b02	0.018598083
28	0xbf49ad47	-0.78780025
29	0xbec73bf1	-0.3891292
30	0xbee1f4b6	-0.44132012
31	0xbedde293	-0.43336925
32	0xbf27555f	-0.6536464
33	0xbf3f8c15	-0.74823123
34	0xbf0c22bb	-0.54740494
35	0xbeff7a65	-0.49898067
36	0xbed9b613	-0.42521724
37	0x3ef30679	0.47465876
38	0xbeff9c5f	-0.4992399
39	0xbef06549	-0.46952274
40	0xbf848d6d	-1.035566
41	0xbece4f1e	-0.40294737
42	0xbf0d5e05	-0.5522159
43	0xbf1a3a6b	-0.6024539
44	0xbf6b785b	-0.9198052
45	0xbef80b74	-0.48446238
46	0xbf31e24b	-0.6948592
47	0xbf0af074	-0.5427315
48	0xbf02d112	-0.51100266
49	0xbf12e21e	-0.5737628
50	0xbe87b8e7	-0.26508257
51	0xbf27ac14	-0.65496945
52	0xbf0062ee	-0.50150955
53	0xbf48a44d	-0.78375703
54	0xbee4dc26	-0.4469921
55	0xbf5bd01f	-0.8586444
56	0xbf1d3140	-0.61403275
57	0xbe85d1d5	-0.26136652
58	0xbe2a587b	-0.16635315
59	0xbf5b90ca	-0.85767806
60	0xbf23b131	-0.6394225
61	0xbf053f6a	-0.5204989
62	0xbedae92f	-0.4275603
63	0xbf0054d6	-0.5012945
64	0xbf178f00	-0.59202576
65	0xbf286767	-0.6578278
66	0xbf2e79ed	-0.68154794
67	0xbf1de6f1	-0.61680514
68	0xbefcb92b	-0.49360022
69	0xbf407714	-0.751817
70	0xbeff4600	-0.49858093
71	0xbf0bc873	-0.54602736
72	0xbf26bd80	-0.65132904
73	0xbf05e49f	-0.52301973
74	0xbf39f5e2	-0.7264081
75	0xbed4c9d5	-0.41560236
76	0xbf208ff1	-0.6271964
77	0xbf35f77d	-0.7108076
78	0xbee085df	-0.43852136
79	0xbf79aa0f	-0.97525114
80	0xbf0363a2	-0.513239
81	0xbf0067c7	-0.5015835
82	0xbf45b7f9	-0.77233845
83	0xbed3a9f3	-0.41340598
84	0xbf3ab90d	-0.72938615
85	0xbf3a8272	-0.72855294
86	0xbee95ed7	-0.4558017
87	0xbed95139	-0.4244478
88	0xbf4d9f8c	-0.80321574
89	0xbefe1e8c	-0.4963268
90	0xbf14781e	-0.57995784
91	0xbdf8e5c0	-0.12153196
92	0xbf32ff66	-0.6992096
93	0xbef5475d	-0.47906008
94	0xbe999036	-0.29992837
95	0xbf6627bf	-0.899044
96	0xbeeba4a7	-0.46024057
97	0xbf598bdc	-0.84979033
98	0xbe600dd8	-0.21880281
99	0xbf80cdd7	-1.0062817
100	0xbdb0b237	-0.08627742
101	0xbf09709a	-0.5368744
102	0xbf2391d5	-0.638944
103	0xbf36d6d1	-0.71421534
104	0xbf1d806d	-0.6152409
105	0xbeddecf8	-0.43344855
106	0xbf29a19e	-0.66262233
107	0xbf113fc9	-0.56737953
108	0xbf28adc2	-0.65890133
109	0xbf2a8cf3	-0.6662132
110	0xbf2d3bac	-0.6766918
111	0xbf294ed3	-0.661359
112	0xbf3fb539	-0.748859
113	0xbf01b400	-0.50665283
114	0xbf1c72c9	-0.6111265
115	0xbf1d4145	-0.6142772
116	0xbf15168c	-0.5823753
117	0xbf29dce8	-0.663527
118	0xbe8df68d	-0.27727166
119	0xbf07731d	-0.52910024
120	0xbf3a75f4	-0.7283623
121	0xbf0da35b	-0.55327386
122	0xbebe5860	-0.371768
123	0xbf296809	-0.6617437
124	0xbeffb5dc	-0.49943435
125	0xbf07e58b	-0.5308463
126	0xbf2f221b	-0.68411416
127	0xbf0710f8	-0.5276027

local2.conv.bias f4 [128]
0	0x3e3a8fbf	0.18218897
1	0x3ee02a9a	0.43782502
2	0x3e3adba5	0.1824785
3	0xbb9f817e	-0.0048677316
4	0x3e230555	0.15920003
5	0x3f20320e	0.6257638
6	0x3ee2944a	0.4425376
7	0x3e136084	0.14392287
8	0x3edf69f0	0.4363551
9	0xbda9d4e5	-0.082925595
10	0x3e1d2bf2	0.15348795
11	0x3c4920ba	0.012275869
12	0x3e93646b	0.2878755
13	0x3ed245e1	0.41068938
14	0x3eda35eb	0.4261926
15	0x3edfba4d	0.43696824
16	0x3e9b60d9	0.30347326
17	0x3e3d11f5	0.18463881
18	0x3eefbe05	0.4682466
19	0x3f100303	0.56254596
20	0xbd78624c	-0.06064062
21	0x3f16d5a7	0.5891976
22	0x3f2accf5	0.6671899
23	0x3d71126d	0.058855463
24	0x3ede35de	0.43400472
25	0x3f94d152	1.162638
26	0x3f1672f4	0.58769155
27	0x3e78d6ee	0.24300739
28	0x3e842560	0.25809765
29	0x3e8ff0aa	0.281133
30	0x3e9abb2e	0.30220932
31	0x3f4ac24c	0.79202724
32	0xbdd09c49	-0.10186059
33	0x3e43745c	0.19087356
34	0x3eee3895	0.46527544
35	0x3e746855	0.23867925
36	0x3ed91038	0.42395186
37	0x3ea4f8ae	0.32220978
38	0x3e17ba66	0.14817199
39	0x3d881d7a	0.06646247
40	0x3ed15c73	0.40890846
41	0x3fa261e0	1.2686119
42	0x3e4e21fb	0.2013015
43	0x3e36336a	0.1779305
44	0x3e07f507	0.13277064
45	0x3e847a17	0.25874397
46	0x3ebc093a	0.3672579
47	0xbf74c8ca	-0.9561888
48	0x3ebe7717	0.37200233
49	0x3e3c52dd	0.18390985
50	0x3eecf86f	0.4628329
51	0x3faa7e2a	1.3319752
52	0x3eb85fef	0.36010692
53	0x3e683b86	0.22678956
54	0x3eb0d4e5	0.34537426
55	0x3f504180	0.81349945
56	0x3e91f1b6	0.28504723
57	0x3ec8884d	0.3916649
58	0xbf60921b	-0.8772294
59	0x3f53ab87	0.82683605
60	0x3f1227e1	0.570921
61	0x3e888d3c	0.26670253
62	0x3f10d73d	0.5657843
63	0x3f3b697d	0.7320784
64	0x3e10c6d7	0.14138351
65	0x3e6acb22	0.22929052
66	0x3e254046	0.161378
67	0x3f0824e8	0.53181314
68	0x3e8e18fd	0.2775344
69	0x3dccab65	0.099936284
70	0x3ee9b4ef	0.45645854
71	0x3ef26ec1	0.47350124
72	0x3f022f58	0.5085349
73	0x3ec43598	0.3832214
74	0x3ebdb49a	0.3705185
75	0x3f107a25	0.5643638
76	0x3e84f52c	0.259683
77	0xbf8bf260	-1.0933342
78	0x3e922d20	0.28550053
79	0x3e92ece7	0.28696367
80	0x3ec4e46c	0.38455522
81	0x3fa9dbc9	1.3270198
82	0x3f21e865	0.6324523
83	0x3ee88867	0.45416567
84	0x3ee29d30	0.4426055
85	0x3ef70c1e	0.48251432
86	0x3ec74355	0.38918558
87	0x3ee91809	0.4552615
88	0xbcadafc1	-0.02120197
89	0xba0f17d0	-0.00054585654
90	0x3ee2ccea	0.44296962
91	0x3e66c288	0.22535145
92	0x3f3cf699	0.7381378
93	0x3eabb2ec	0.33534944
94	0x3f7cc1f0	0.98733425
95	0x3eb5ee63	0.35533437
96	0x3f334b84	0.700371
97	0x3e7db8ea	0.2477757
98	0x3f1c83ad	0.6113842
99	0x3ec85546	0.39127558
100	0x3f24ba4c	0.64346766
101	0x3e8b644a	0.27224952
102	0x3de17542	0.11008693
103	0x3ea48efc	0.32140338
104	0x3ef174c7	0.47159407
105	0x3e32a32d	0.17445059
106	0xbdc21ec4	-0.09478524
107	0x3d6e2772	0.058143087
108	0x3e2d498a	0.16922584
109	0x3ad0fd78	0.001594468
110	0x3ed30f03	0.4122239
111	0x3e2832f0	0.16425681
112	0x3e36e20f	0.17859672
113	0x3f0b81cd	0.54494935
114	0x3ec1c60a	0.37846404
115	0x3f21fe1a	0.63278353
116	0x3e99facf	0.30074164
117	0x3c4203ba	0.011841709
118	0x3ee67020	0.4500742
119	0x3e3e91ce	0.18610308
120	0x3edcf05c	0.4315213
121	0x3ec374d7	0.3817508
122	0x3e8818f1	0.2658153
123	0x3eb58a0d	0.35456887
124	0x3e00974e	0.12557718
125	0x3e0d0069	0.13769688
126	0x3eb6383b	0.35589775
127	0x3ece8482	0.4033547

local2.conv.lin.weight f4 [128, 128]
0	0x3e9bf85b	0.30462918
1	0x3eb8557b	0.36002716
2	0x3f8b8a27	1.0901536
3	0xbe8a4eb6	-0.27013177
4	0xbf3c6c75	-0.7360299
5	0x3f09c065	0.53809196
6	0xbfdd32f7	-1.7281178
7	0x3f3f828f	0.7480859
8	0xbf5b4e35	-0.8566621
9	0x3f3ed5e1	0.74545103
10	0x3f1d8825	0.61535865
11	0xbf6c3692	-0.9227077
12	0xbf1d5f08	-0.6147313
13	0x3ec9084b	0.3926414
14	0x3ded0807	0.11573797
15	0xbeb341e5	-0.3501121
16	0xbf12b8bc	-0.5731313
17	0xbfffba6d	-1.9978768
18	0x3ee44cde	0.44589895
19	0x3d4e1228	0.050310284
20	0xbfad4477	-1.3536519
21	0xbe086439	-0.13319482
22	0x3e907d47	0.2822058
23	0x3d470cd2	0.04859621
24	0xbe9b9e16	-0.30394047
25	0xbeb1b448	-0.34707856
26	0x3f448578	0.7676616
27	0x3db8615c	0.09002945
28	0x3e00879a	0.12551728
29	0xbea33891	-0.31879094
30	0x3dab024a	0.08350046
31	0x3e206bcf	0.15666126
32	0xbfdb70ca	-1.7143795
33	0x3f1142ed	0.56742746
34	0xbf88e542	-1.0694964
35	0xbe263033	-0.16229324
36	0xbf9cbd44	-1.2245259
37	0x3eaa97b8	0.33318877
38	0x3f19f32d	0.6013668
39	0xbf10378d	-0.56334764
40	0xbe921fca	-0.28539878
41	0xbe9b92c4	-0.3038541
42	0xbea7a635	-0.32743993
43	0x3eb94d82	0.36191946
44	0x3edf7d1f	0.43650147
45	0x3f366bed	0.7125843
46	0x3e3eba1a	0.1862568
47	0x3ef94f3a	0.48693258
48	0xbe8b61e6	-0.27223128
49	0xbfafd0e6	-1.3735626
50	0xbeb528a1	-0.3538256
51	0xbf6a7d35	-0.915973
52	0x3e9520eb	0.29126677
53	0x3eb423ef	0.35183665
54	0x3e811e20	0.25218296
55	0x3ef17588	0.47159982
56	0xbe484511	-0.19557597
57	0xc00813ad	-2.126201
58	0x3e07b0bb	0.13251011
59	0x3eead25e	0.45863622
60	0xbfccaec6	-1.5990837
61	0xbee0509a	-0.43811494
62	0x3f0a7378	0.5408244
63	0xbe16e645	-0.14736278
64	0xbfe3791b	-1.7771333
65	0xbf8ad11b	-1.0845064
66	0x3e7a38e7	0.24435769
67	0xbf0b7b35	-0.54484874
68	0xbec3c33c	-0.3823489
69	0xbe16b87b	-0.14718811
70	0xbf6c65f5	-0.92343074
71	0x3f4e025c	0.8047235
72	0x3e2059f2	0.15659311
73	0xbf84fe0e	-1.0390031
74	0xc03941a7	-2.894632
75	0x3f1544e2	0.5830823
76	0x3e8429d2	0.25813156
77	0xc0049c06	-2.072023
78	0x3fbe2f5d	1.4858204
79	0x3e8d9bcd	0.2765793
80	0x3e1cdaf4	0.15317899
81	0x3eb1306a	0.3460725
82	0xbfc6f9ec	-1.554502
83	0xbfa90099	-1.3203307
84	0x3f3fc3b5	0.74908
85	0x3e78580f	0.24252342
86	0x3ef835e4	0.48478615
87	0xbf17f31f	-0.5935535
88	0x3c689e44	0.01419789
89	0x3e8463fd	0.25857535
90	0x3d5b8395	0.053592283
91	0xbd34143e	-0.043964617
92	0x3ec32918	0.3811729
93	0xbf9786a0	-1.1837959
94	0x3dd50ad9	0.1040246
95	0xbd073085	-0.033005256
96	0x3f75b6e5	0.959822
97	0x3f0550a0	0.5207615
98	0xbfecebb9	-1.8509437
99	0xc03bac93	-2.932408
100	0xbf84105a	-1.031749
101	0xbf3b9bf3	-0.73284835
102	0x3ee19bfd	0.44064322
103	0x3e9db577	0.3080251
104	0xbfb78217	-1.4336575
105	0xbfd87bbf	-1.6912764
106	0x3f16bd97	0.5888304
107	0xbfffe0df	-1.99905
108	0x3ea0896f	0.31354854
109	0x3f1a2507	0.6021275
110	0xbfe5a73e	-1.7941663
111	0x3e3bd329	0.1834227
112	0x3e5f4b99	0.21806182
113	0x3e0cbb64	0.13743359
114	0x3e7070f1	0.23480584
115	0xbd939d59	-0.07207746
116	0x3e9f64df	0.31131646
117	0x3df040ae	0.11731087
118	0xbf195a61	-0.5990353
119	0xbd99aead	-0.0750402
120	0x3c49df65	0.012321328
121	0xbcd3dc96	-0.02586202
122	0x3f128f26	0.5724968
123	0x3e9d7874	0.3075596
124	0x3e9e3451	0.3089929
125	0xbf604c0f	-0.87616056
126	0x3eb7d4ba	0.35904485
127	0x3f121650	0.57065296
128	0x3f216572	0.6304542
129	0x3e521877	0.20517145
130	0x3f6b6a26	0.91958845
131	0x3c1282a4	0.00894228
132	0xbf4b14f2	-0.79328835
133	0xbfcaa85c	-1.5832629
134	0x3f11605b	0.5678765
135	0x3ef99b6e	0.48751396
136	0x3eb28aa2	0.34871393
137	0x3ed4dca1	0.41574576
138	0x3db3f2d0	0.08786547
139	0x3f00ea4a	0.50357497
140	0x3ed89e8e	0.42308468
141	0x3eca979e	0.395688
142	0xbdd4a233	-0.103824995
143	0xbf022838	-0.5084262
144	0xbf74757d	-0.9549177
145	0x3f1fcb16	0.6241926
146	0x3d99efb1	0.07516421
147	0x3e178d8d	0.14800091
148	0x3eaf83b0	0.34280157
149	0x3f1d84e5	0.61530906
150	0x3dedb5d6	0.11606948
151	0xbefa20ae	-0.48853058
152	0x3ef5754d	0.47941056
153	0xbf7238ad	-0.9461773
154	0xbeb2507b	-0.34827027
155	0x3e744df7	0.23857866
156	0x3f4557cf	0.7708711
157	0x3f2f2eaa	0.6843058
158	0xbee97f88	-0.4560511
159	0x3e5ecb1a	0.21757165
160	0x3f70ef4b	0.9411513
161	0x3f1f4da8	0.6222787
162	0xbf6e7ba5	-0.93157417
163	0xbe0ccb76	-0.13749489
164	0xbdd23412	-0.10263838
165	0xbe48657e	-0.19569966
166	0x3f0ad8c2	0.54236996
167	0xbf090e99	-0.535379
168	0xbdd153e6	-0.102210805
169	0x3f276d12	0.65400803
170	0x3df20a34	0.11818352
171	0xbf071bbe	-0.52776706
172	0xbdd774a4	-0.10520294
173	0x3f30e419	0.6909805
174	0xbddc7aa2	-0.10765578
175	0x3f24a4c9	0.6431394
176	0x3f45ad3b	0.77217454
177	0x3f3220dd	0.69581395
178	0x3e9ab93f	0.30219457
179	0x3e66df69	0.22546162
180	0x3e29694b	0.16544072
181	0x3ea3e25b	0.32008633
182	0x3f334c1c	0.7003801
183	0x3daeec9d	0.08541224
184	0xbf8fd934	-1.123816
185	0x3f4887e3	0.78332347
186	0x3f3c978b	0.73668736
187	0xbf703b88	-0.9384084
188	0x3ef8b8f7	0.48578617
189	0xbe34d40a	-0.17659011
190	0xbc8663f5	-0.016405085
191	0x3e8d0973	0.27546272
192	0x3eed7d7c	0.463848
193	0x3ed90825	0.42389026
194	0xbea4938a	-0.32143813
195	0x3d6b15bd	0.057393778
196	0x3ecfafed	0.40563908
197	0xbe173f5e	-0.14770266
198	0x3f0c69f9	0.548492
199	0x3f336767	0.70079654
200	0xbed3d3e7	-0.41372606
201	0x3e96c29c	0.2944535
202	0x3f2e1130	0.67994976
203	0x3ee81bc2	0.45333678
204	0x3e2cb6d3	0.16866617
205	0x3f8190bb	1.0122293
206	0x3f69029f	0.91019624
207	0xbf00f2fe	-0.50370777
208	0xbdcf7c21	-0.101310976
209	0xbe913441	-0.2836018
210	0x3ebb14a1	0.36539176
211	0x3f39c321	0.7256337
212	0x3f957690	1.1676807
213	0x3f421148	0.7580762
214	0x3e439a04	0.19101721
215	0xbef58a04	-0.4795686
216	0xbf5c039d	-0.85943013
217	0xbe862743	-0.2620183
218	0x3f3b30cd	0.7312134
219	0x3e932180	0.28736496
220	0x3ec25d14	0.37961638
221	0x3f4d9d4d	0.80318147
222	0xbe0a1a6c	-0.13486642
223	0xbdd79316	-0.10526101
224	0x3f07d5d4	0.5306065
225	0x3ee86f6b	0.45397505
226	0xbe47439d	-0.19459386
227	0x3bd8ce03	0.0066163554
228	0x3db4ae75	0.088223375
229	0xbf36aaa8	-0.7135415
230	0x3e874b77	0.26424763
231	0x3ef8888a	0.4854167
232	0xbf60e75a	-0.87853014
233	0x3ed382d6	0.41310757
234	0x3da84e00	0.08218002
235	0x3eef4dff	0.46739194
236	0x3f37278f	0.71544737
237	0xbe1f635a	-0.15565243
238	0x3f105d2f	0.56392187
239	0xbf126037	-0.5717806
240	0x3f0b186a	0.5433413
241	0x3ed8176b	0.42205366
242	0x3f29c5c2	0.6631738
243	0x3d5724e1	0.052525405
244	0x3d5836ad	0.052786518
245	0xbeaac76d	-0.33355275
246	0x3e923eeb	0.28563628
247	0xbe65861d	-0.22414441
248	0xbf8d18b5	-1.1023165
249	0x3e6a0146	0.22852048
250	0x3f2209de	0.63296306
251	0x3ee11ddd	0.43968096
252	0xbfdfa07d	-1.7470852
253	0x3f2f3a0d	0.68447953
254	0x3f2ec7fc	0.682739
255	0x3ed45747	0.41472837

local2.norm.weight f4 [128]
0	0x3fd4c90a	1.6623852
1	0x3f27bde0	0.655241
2	0x3f91d0ee	1.1391885
3	0x3f413829	0.7547632
4	0x3f749e2f	0.9555387
5	0x3f0fdd39	0.56196934
6	0x3f5f4fe4	0.8723128
7	0x3fcc356b	1.5953802
8	0x3f34070c	0.7032325
9	0x3f1b3779	0.6063152
10	0x3f814680	1.009964
11	0x3fcc8a98	1.5979795
12	0x3f5d0bec	0.86346316
13	0x3f839e02	1.0282595
14	0x3f9034a5	1.1266066
15	0x3f32d619	0.6985794
16	0x3f9a70de	1.2065694
17	0x3f8bdb27	1.0926255
18	0x3f64ec3b	0.8942296
19	0x3f2cddd3	0.67525977
20	0x3f9bf546	1.2184227
21	0x3f002ed2	0.5007144
22	0x3efebb85	0.4975244
23	0x3f89f60f	1.0778216
24	0x3f3c8787	0.736443
25	0x3f0bb92c	0.54579425
26	0x3f1e9eb1	0.61960894
27	0x3f7cfe05	0.98825103
28	0x3f6bcd7d	0.92110425
29	0x3f76059b	0.96102303
30	0x3f61c0f3	0.8818504
31	0x3f040a13	0.5157787
32	0x3f2b2a21	0.6686116
33	0x3f3bc6d5	0.7335027
34	0x3f4d19e0	0.8011761
35	0x3fb9ca73	1.4514908
36	0x3f6a5372	0.9153358
37	0x3f85f5be	1.046562
38	0x3f1c17c4	0.60973763
39	0x3f3e1daa	0.74264014
40	0x3f2c64a9	0.67341095
41	0x3e2fbf8a	0.1716291
42	0x3f0475c0	0.5174217
43	0x3f6592c2	0.8967706
44	0x3f43cf3a	0.7648808
45	0x3f866276	1.0498798
46	0x3f6c3b48	0.92277956
47	0x3f316dfc	0.6930845
48	0x3f8b27b4	1.0871491
49	0x3fd4cad2	1.6624396
50	0x3f11863e	0.5684546
51	0x3e3e6542	0.18593314
52	0x3faf83fa	1.3712151
53	0x3f872e51	1.056101
54	0x3f621791	0.8831721
55	0x3f2552f0	0.6457968
56	0x3f900794	1.1252313
57	0x3fbb0dcb	1.4613584
58	0x3fbae556	1.4601238
59	0x3ee6b0d1	0.45056775
60	0x3f408250	0.7519884
61	0x3f5f36cc	0.8719299
62	0x3f32d7d4	0.6986058
63	0x3f000839	0.50012547
64	0x3f32dfce	0.6987275
65	0x3f6e09d2	0.92983735
66	0x3fe5cc47	1.7952965
67	0x3f2f8cde	0.6857432
68	0x3f824b27	1.0179185
69	0x3f83901e	1.0278356
70	0x3f9c4798	1.2209349
71	0x3f6b1b64	0.9183867
72	0x3f147546	0.57991445
73	0x3f706ef3	0.93919295
74	0x3f25b9f5	0.6473687
75	0x3f79a7a2	0.9752141
76	0x3fb0b7eb	1.3806127
77	0x3f8ab8f3	1.0837692
78	0x3f93fa53	1.1560768
79	0x3ff3da9b	1.9051088
80	0x3f435afb	0.763107
81	0x3e26d6ff	0.16292952
82	0x3f6ad150	0.91725636
83	0x3f385bb8	0.7201495
84	0x3f838320	1.0274391
85	0x3f73a4a3	0.9517309
86	0x3f2392d2	0.63895905
87	0x3f649894	0.89295316
88	0x3f810413	1.0079368
89	0x3fab7338	1.3394537
90	0x3f527728	0.8221307
91	0x3fd6927b	1.6763452
92	0x3eef6c83	0.46762475
93	0x3f82c341	1.0215837
94	0x3f13bf01	0.57713324
95	0x3f3fd92e	0.74940765
96	0x3f025f22	0.5092641
97	0x3eed4e37	0.46348736
98	0x3f32ae7d	0.697975
99	0x3f9155cc	1.1354308
100	0x3f1a530a	0.6028296
101	0x3fc301b1	1.5234891
102	0x3f7af5da	0.9803139
103	0x3fdfa606	1.7472541
104	0x3fa9f21b	1.327701
105	0x3f67fe17	0.90622085
106	0x3fe59ade	1.7937887
107	0x3fa68b14	1.3011193
108	0x3faca9e2	1.3489344
109	0x3f99b4ad	1.2008263
110	0x3f5b672a	0.8570429
111	0x3f8c17dd	1.0944782
112	0x3f11f5a9	0.5701547
113	0x3f16d78a	0.58922637
114	0x3efb5cd7	0.4909427
115	0x3f73949a	0.95148623
116	0x3f846fbc	1.0346599
117	0x3fbbdaae	1.4676111
118	0x3f0d0235	0.5508149
119	0x3f3e69df	0.74380296
120	0x3f87abd7	1.0599316
121	0x3fa4c0a5	1.287129
122	0x3fad4689	1.3537151
123	0x3f807696	1.003619
124	0x3f841fe9	1.0322238
125	0x3f24692b	0.64222974
126	0x3f5c66b1	0.86094195
127	0x3f98e362	1.1944392

local2.norm.bias f4 [128]
0	0xbe58564c	-0.2112667
1	0xbf0950a3	-0.53638667
2	0xbe83d08a	-0.2574504
3	0xbf090410	-0.53521824
4	0xbe9bd923	-0.304391
5	0xbf2a7703	-0.6658785
6	0xbee87e4a	-0.4540885
7	0xbe04d706	-0.1297265
8	0xbf15d811	-0.58532816
9	0xbeb8a4ab	-0.36063132
10	0xbe76b18b	-0.24091165
11	0xbe8ff0dd	-0.28113452
12	0xbf0742b6	-0.5283617
13	0xbe9fe188	-0.31226754
14	0xbeb7b74a	-0.35882026
15	0xbeb79606	-0.35856646
16	0xbf3400c6	-0.7031368
17	0xbea48c90	-0.3213849
18	0xbea643d9	-0.3247364
19	0xbf2cd9a0	-0.6751957
20	0xbf09e42d	-0.53863794
21	0xbf2c40f5	-0.67286617
22	0xbf2a796f	-0.6659154
23	0xbef7b85b	-0.4838284
24	0xbf2ed720	-0.68297005
25	0xbf3d6c25	-0.7399314
26	0xbf19ce3c	-0.60080314
27	0xbeaa069c	-0.33208168
28	0xbea695f8	-0.32536292
29	0xbeff73d2	-0.4989305
30	0xbeed6426	-0.4636547
31	0xbf45b51c	-0.77229476
32	0xbf07bc25	-0.5302146
33	0xbeeb81a8	-0.45997357
34	0xbed615c5	-0.41813484
35	0xbe279e0e	-0.16368887
36	0xbf008def	-0.50216573
37	0xbec8bfd5	-0.39208856
38	0xbf0270b9	-0.5095325
39	0xbe8174d6	-0.2528445
40	0xbf115713	-0.5677349
41	0xbf3d9983	-0.74062365
42	0xbead523b	-0.338518
43	0xbeca20f3	-0.39478263
44	0xbeb88c10	-0.3604436
45	0xbf20b561	-0.6277676
46	0xbec2515b	-0.37952694
47	0xbf08a37c	-0.5337446
48	0xbe662a0d	-0.22476979
49	0xbe837249	-0.2567313
50	0xbf07dba5	-0.53069526
51	0xbf466ea2	-0.7751256
52	0xbea1088a	-0.31451827
53	0xbeee589e	-0.46551985
54	0xbec7a16e	-0.3899035
55	0xbf0dc502	-0.55378735
56	0xbe9aae66	-0.3021118
57	0xbecb22cb	-0.39674982
58	0xbe4a0418	-0.19728124
59	0xbf44d96a	-0.7689425
60	0xbf209eef	-0.62742513
61	0xbf08e8d3	-0.5348026
62	0xbf27c0eb	-0.65528744
63	0xbf3fdf88	-0.74950457
64	0xbee9e6c8	-0.45683885
65	0xbeb33f8d	-0.35009423
66	0xbed4a6db	-0.4153355
67	0xbee725df	-0.4514608
68	0xbe957d36	-0.2919709
69	0xbebf6299	-0.37379912
70	0xbf07c023	-0.5302755
71	0xbef368f8	-0.47541022
72	0xbf1c6a26	-0.6109947
73	0xbede74f4	-0.43448603
74	0xbf30689b	-0.68909615
75	0xbe908193	-0.28223857
76	0xbed6ca2d	-0.41951123
77	0xbed4555f	-0.41471383
78	0xbf2f7c60	-0.68549156
79	0xbdae1956	-0.08500926
80	0xbf1d25f6	-0.6138605
81	0xbf43f93f	-0.76552194
82	0xbed45b76	-0.4147603
83	0xbf273acc	-0.6532409
84	0xbed34c58	-0.41269183
85	0xbf334775	-0.7003091
86	0xbf2a368d	-0.6648949
87	0xbeb8c7eb	-0.36090025
88	0xbf0abfff	-0.5419921
89	0xbebbcfc0	-0.36681938
90	0xbecfbec0	-0.40575218
91	0xbe3855be	-0.18001458
92	0xbf2e39ec	-0.6805713
93	0xbe826393	-0.25466594
94	0xbf179619	-0.59213406
95	0xbf2a70a1	-0.6657811
96	0xbf59318e	-0.8484124
97	0xbea73282	-0.32655722
98	0xbec59cd5	-0.38596216
99	0xbed68fef	-0.41906688
100	0xbf43bf65	-0.7646392
101	0xbe8cfa9d	-0.27534953
102	0xbf0946ff	-0.53623956
103	0xbe45d527	-0.19319592
104	0xbe852ecd	-0.2601227
105	0xbedd6360	-0.4323988
106	0xbe95cc1e	-0.29257292
107	0xbe42a99d	-0.19010015
108	0xbf23d97c	-0.6400373
109	0xbed70c95	-0.42001787
110	0xbef63475	-0.48086897
111	0xbf04b204	-0.5183413
112	0xbee971b9	-0.45594576
113	0xbee3f789	-0.44524792
114	0xbf0aeeaf	-0.5427045
115	0xbeca1511	-0.39469197
116	0xbf153894	-0.58289456
117	0xbf20b7b6	-0.6278032
118	0xbed4c445	-0.41555992
119	0xbe97f816	-0.29681462
120	0xbed5b8ed	-0.4174265
121	0xbec0a869	-0.37628487
122	0xbeea1499	-0.4571884
123	0xbf238643	-0.6387674
124	0xbec94533	-0.39310607
125	0xbe68ebde	-0.22746226
126	0xbec84a0a	-0.39118987
127	0xbe92c26f	-0.28663966
