models/eeg_loso/s_10.pt (torch, 561186 bytes, 37 tensors)

band_attn.fc1.weight f4 [8, 5]
0.009768076 0.78331614 -0.03299974 -0.35276482 -1.3129379 0.17318892 0.1035285 -0.5471742
0.54785484 0.12934211 0.08613791 -0.5060149 -0.09223097 -1.3305333 0.22307386 0.012616638
-0.6396305 0.17328137 0.8057979 0.6539264 -0.15144914 -0.37310037 -0.3669089 1.2580415
0.19713572 -0.11121206 0.3556565 0.10434618 -1.1456206 1.0455037 -0.32491988 -0.057315495
0.09690194 0.3535705 -0.7845334 -0.0086869495 -0.3999455 0.400909 1.093055 -0.25152585
00000000: 480a 203c 6887 483f bc2a 07bd 979d b4be
00000010: 590e a8bf 7058 313e c006 d43d 9c13 0cbf
00000020: 3740 0c3f 4272 043e 1369 b03d 318a 01bf
00000030: 97e3 bcbd ea4e aabf 796d 643e 04b6 4e3c
00000040: d3be 23bf ac70 313e c548 4e3f b867 273f
00000050: 7c15 1bbe 0307 bfbe 7cdb bbbe 8107 a13f
00000060: f2dd 493e 26c3 e3bd 9c18 b63e 73b3 d53d
00000070: b2a3 92bf 11d3 853f e65b a6be a7c3 6abd
00000080: 8674 c63d 3107 b53e 2ed7 48bf b553 0ebc
00000090: a8c5 ccbe f243 cd3e 3ae9 8b3f ffc7 80be

band_attn.fc1.bias f4 [8]
0.7918689 -0.10104233 -0.04029295 -0.3481837 -0.21301441 -0.32562652 -0.34247693 1.4716786
00000000: ecb7 4a3f 48ef cebd 380a 25bd 2245 b2be
00000010: 7320 5abe 85b8 a6be 2359 afbe f75f bc3f

band_attn.fc2.weight f4 [5, 8]
-0.64969367 0.42325473 0.9218857 0.2473979 -0.26207122 -1.2272171 -0.43541607 -0.06590566
0.82417405 0.05815485 0.1558676 -0.5078432 -0.045392733 -0.23679605 0.18932706 -0.5096263
-0.2667827 -0.5777815 -0.1513674 -0.036923874 -0.04744051 0.7027477 0.6623011 0.86129713
0.35940352 0.6366477 -0.9462917 0.69600564 0.8801237 -0.739979 0.00036038127 1.1026243
-0.7662688 0.42698777 0.5575215 0.5747158 -0.114192665 1.003937 -0.25854495 -1.3554516
00000000: 5352 26bf d8b4 d83e b400 6c3f e055 7d3e
00000010: 332e 86be 7315 9dbf dbee debe 8cf9 86bd
00000020: 12fd 523f c833 6e3d c29b 1f3e 0302 02bf
00000030: bbed 39bd aa7a 72be f4de 413e df76 02bf
00000040: be97 88be 7de9 13bf 0e00 1bbe 7d3d 17bd
00000050: fb50 42bd 46e7 333f 918c 293f f87d 5c3f
00000060: bd03 b83e 58fb 223f 2c40 72bf 6d2d 323f
00000070: c94f 613f 446f 3dbf 8ef1 bc39 cb22 8d3f
00000080: 312a 44bf 249e da3e bbb9 0e3f 9320 133f
00000090: d8dd e9bd 0281 803f 0160 84be 707f adbf

band_attn.fc2.bias f4 [5]
-0.8170986 0.07194656 -0.40842268 0.96677303 0.04136041
00000000: 602d 51bf b858 933d c71c d1be 707e 773f
00000010: 8969 293d

feat_proj.weight f4 [128, 21]
0.153988 0.5031935 -0.18553923 -0.09394074 -0.20945285 0.33550653 0.009673907 0.2551311
0.020960929 -0.02844152 -0.09374161 -1.9927206 -0.14120635 0.5828345 -0.2623913 -0.018272469
-0.063253075 -0.050252162 0.07297281 -0.037943777 -0.41162467 0.2717336 -1.0156734 -1.5076389
1.2673548 0.619967 -0.57429457 -0.16429476 0.36663166 0.0052250884 -0.08293581 0.29058287
-0.02853259 0.5959774 1.450073 1.4570826 1.0043448 0.02612706 0.027330376 0.03178997
0.08426821 0.06430788 0.2443662 1.1239654 1.1273103 0.8206304 0.95787835 -0.11496027
-0.50742024 -0.097201385 0.06346527 -0.018422626 0.17614055 -0.6404761 -0.5800665 -1.0308584
-1.2523866 -1.0839509 0.08926876 0.008650795 0.043082323 0.04786572 0.9141406 -0.70459384
-0.9769304 -1.1821032 1.3673646 1.4643006 -0.3428827 0.46190202 0.42186463 -0.047981896
0.0016877254 0.022684691 1.3779086 0.49923098 1.2755861 0.39730725 0.7956379 0.028456349
-0.012893327 0.060914576 0.024563823 -0.7673006 0.20903526 0.43628868 0.09897952 -0.36203855
-0.25640598 -0.22445075 -0.1976332 0.025099445 0.022598477 0.020702388 -0.34469706 -1.7636812
-1.801373 -0.7886607 -0.19878256 -0.049559865 -0.034408715 -0.03319846 -0.04061826 0.01220562
-0.34003317 -0.8292126 -2.1637547 -0.21319528 -0.3269969 -0.07319289 1.1712903 0.26752567
-0.1303484 -0.04130429 -0.06981259 0.13102227 -0.5897931 -0.09028751 -0.36602142 -0.19595599
0.16986023 -0.089164235 -0.07433361 -0.03760789 -0.05592748 -0.030524496 0.9409038 2.7379458
0.5148995 -0.7383187 -0.1479949 -0.41606557 0.02430275 0.14834855 0.026717303 0.017969182
-0.029665235 -1.2066311 -0.8160832 -0.74619806 -0.078682266 -0.47353202 0.0020141315 0.006846508
0.011354121 0.072613634 -0.2122076 -0.08472412 -0.52658504 -0.8031516 1.6763576 1.2852331
-0.61016154 0.113123775 0.11080729 0.03672957 -0.037673645 0.20431069 -2.0579524 -0.9121381
-0.29968688 -0.46050033 0.035618853 -0.07529186 0.04794593 0.0042141066 -0.08285349 0.061960522
-1.1933254 -0.2503718 0.9684245 1.7269163 1.3894511 0.15610656 -0.08271644 -0.20363486
0.010222048 -0.007197055 -0.031715658 0.24026042 0.8929662 0.45422804 -0.72341716 0.022879507
0.030119179 0.003984476 -0.020541823 0.021403138 -0.27795684 -0.6364169 -0.025096368 0.8344005
1.33302 0.79402506 0.15584847 -0.14305517 0.11383398 0.043096878 -0.034028333 0.13092849
-1.6720251 -0.97974515 -1.1262264 -0.45789453 -0.37496248 -0.0958631 0.03833736 0.016365662
-0.07633788 0.80710983 -0.79264194 -1.2523167 -1.7783763 -1.9233512 -1.6714643 0.13596705
-0.029350322 0.47712073 0.037808876 -0.095231384 0.19875358 -1.1633252 -0.18225756 -0.7092258
-0.8047921 -0.79547906 0.04204554 -0.053420182 -0.07543683 -0.0064757797 0.3368419 1.5303309
1.7848299 -0.35969827 -1.0595198 -1.2134204 -0.008766151 -0.38866884 0.037972838 0.05144434
0.029781252 0.2255953 -0.57668257 -1.0660675 -0.6157275 0.92564577 0.4346585 -0.014552887
0.056478325 -0.03404173 -0.022844356 0.8960732 1.0419903 1.7542833 1.657409 0.22150658
00000000: 08af 1d3e 4ad1 003f fffd 3dbe 0164 c0bd
00000010: cf7a 56be 83c7 ab3e 4f7f 1e3c 8ba0 823e
00000020: 41b6 ab3c 31fe e8bc 9afb bfbd 7811 ffbf
00000030: 6698 10be a434 153f 2758 86be 25b0 95bc
00000040: d48a 81bd 36d5 4dbd c572 953d ef6a 1bbd
00000050: 78c0 d2be ab20 8b3e 9601 82bf 50fa c0bf
00000060: af38 a23f 28b6 1e3f f804 13bf e33c 28be
00000070: 25b7 bb3e 3837 ab3b 40da a9bd 47c7 943e
00000080: 2ebd e9bc fa91 183f fe9b b93f af81 ba3f
00000090: 5f8e 803f 6b08 d63c f4e3 df3c 3336 023d
000000a0: d094 ac3d dab3 833d 223b 7a3e 19de 8f3f
000000b0: b44b 903f d514 523f 8437 753f 4a70 ebbd
000000c0: 4be6 01bf 8511 c7bd 14fa 813d 0ceb 96bc
000000d0: 305e 343e 3ef6 23bf 3d7f 14bf 2bf3 83bf
000000e0: 344e a0bf e7be 8abf 8ad2 b63d 10bc 0d3c
000000f0: 1777 303d d80e 443d 1e05 6a3f 4360 34bf
00000100: 1c18 7abf 284f 97bf ce05 af3f 346e bb3f
00000110: 528e afbe 6c7e ec3e a4fe d73e aa88 44bd
00000120: ab36 dd3a 3fd5 b93c 4f5f b03f 349b ff3e
00000130: 6846 a33f db6b cb3e edae 4b3f 4a1d e93c
00000140: 883e 53bc 9081 793d 123a c93c d06d 44bf
00000150: 570d 563e 3b61 df3e c6b5 ca3d 1e5d b9be
00000160: a547 83be 6bd6 65be 5c60 4abe 5a9d cd3c
00000170: 7120 b93c 0e98 a93c 227c b0be 4ec0 e1bf
00000180: 6493 e6bf abe5 49bf a88d 4bbe 49ff 4abd
00000190: 27f0 0cbd 1cfb 07bd 555f 26bd 15fa 473c
000001a0: d418 aebe 4747 54bf f57a 0ac0 dd4f 5abe
000001b0: 236c a7be 27e6 95bd d7ec 953f 20f9 883e
000001c0: 0d7a 05be b02e 29bd e7f9 8ebd b42a 063e
000001d0: aefc 16bf a8e8 b8bd 2967 bbbe b0a8 48be
000001e0: d7ef 2d3e bd9b b6bd 383c 98bd bb0a 1abd
000001f0: 3714 65bd 820e fabc 12df 703f 813a 2f40
00000200: 74d0 033f 7402 3dbf fa8b 17be 8c06 d5be
00000210: 9016 c73c afe8 173e 3fde da3c 1b34 933c
00000220: 8204 f3bc e372 9abf d4ea 50bf d606 3fbf
00000230: 2b24 a1bd ca72 f2be 85ff 033b ac58 e03b
00000240: a306 3a3c 75b6 943d f34c 59be d783 adbd
00000250: 47ce 06bf 589b 4dbf e392 d63f 8582 a43f
00000260: 8c33 1cbf 70ad e73d efee e23d bf71 163d
00000270: ae4f 1abd d236 513e 7eb5 03c0 e281 69bf
00000280: 8f70 99be b3c6 ebbe 13e5 113d 9e32 9abd
00000290: f462 443d 7d16 8a3b 17af a9bd 51ca 7d3d
000002a0: e3be 98bf bc30 80be abea 773f 980b dd3f
000002b0: 89d9 b13f 66da 1f3e 3d67 a9bd a885 50be
000002c0: 607a 273c 46d5 ebbb 47e8 01bd d406 763e
000002d0: 6f99 643f 9490 e83e de31 39bf ce6d bb3c
000002e0: 7fbc f63c 3590 823b 5347 a8bc a255 af3c
000002f0: 5c50 8ebe 38ec 22bf e696 cdbc 459b 553f
00000300: 66a0 aa3f 3a45 4b3f be96 1f3e 0e7d 12be
00000310: ca21 e93d 5a86 303d 4b61 0bbd 1e12 063e
00000320: eb04 d6bf 94d0 7abf 3028 90bf 2771 eabe
00000330: 15fb bfbe df53 c4bd a307 1d3d 4811 863c
00000340: 0957 9cbd c09e 4e3f 95ea 4abf ea4b a0bf
00000350: d6a1 e3bf 5f30 f6bf 8bf2 d5bf f23a 0b3e
00000360: 1670 f0bc 2b49 f43e 7bdd 1a3d ac08 c3bd
00000370: 0f86 4b3e d7e7 94bf baa1 3abe d28f 35bf
00000380: db06 4ebf 84a4 4bbf f237 2c3d 1fcf 5abd
00000390: a07e 9abd c732 d4bb 8b76 ac3e e2e1 c33f
000003a0: 4e75 e43f 5f2a b8be 589e 87bf 5c51 9bbf
000003b0: e79f 0fbc 9aff c6be 6889 1b3d 4db7 523d
000003c0: d0f7 f33c 7402 673e 78a1 13bf e674 88bf
000003d0: 51a0 1dbf 1ff7 6c3f 8f8b de3e 3b6f 6ebc
000003e0: d155 673d 576f 0bbd 1624 bbbc 0e65 653f
000003f0: f05f 853f 5b8c e03f fa25 d43f 9fd2 623e

feat_proj.bias f4 [128]
-0.15535824 0.092421725 0.33503547 -0.14278084 -0.18789944 -0.57258266 0.9192627 -0.133841
-0.05321686 -0.6445587 -0.2822575 0.68228585 -0.5340825 0.39961487 -1.1218415 0.98211026
0.34796146 -0.39030993 0.6459544 -0.543152 0.12019566 0.77681875 0.086940266 -0.40411898
-0.50621724 1.1771548 -0.90970916 0.74996275 0.805355 -0.58674806 -0.46261925 -0.47420862
0.3235504 -0.095676765 0.5004262 -0.19582988 -0.9928699 0.092911676 1.1717749 -0.40792847
0.19486512 0.15063027 0.5419904 -0.51664984 -0.08241483 0.6078624 -0.5500853 0.0644211
0.6055558 0.1448016 -0.3871042 -0.7810565 0.826143 -0.24952379 -0.6159018 0.4722463
-0.67249846 -0.35427833 -0.5436775 0.7641617 -0.93219167 -0.76226705 -0.90195805 0.44527584
0.76300955 0.3363242 0.06506333 -0.12253952 -0.8307323 0.5128842 0.69122624 0.48792893
-0.13709453 -0.021826686 0.3313045 -1.0328841 0.90064704 -0.54192466 -0.54790485 -0.47221053
0.3117037 0.80798143 0.23905663 0.67323667 0.8975329 1.0789078 -1.126557 0.057749733
0.331254 0.015667131 0.13830483 0.70182955 0.28662533 1.0158604 -0.8776201 -0.27956876
0.6347796 0.07329302 -0.1585531 -0.46577653 0.22831997 -0.7048992 -0.6671152 0.008241669
-0.694133 -0.7223283 0.413286 0.22223076 1.0223933 0.910569 -0.5193434 -0.86215436
-0.014101731 0.99010074 -0.07716961 -0.49266145 0.07435794 -1.1671638 -0.04141178 0.3858971
0.12154962 -0.41014433 0.25183862 -0.45739076 -0.81837785 -0.000441733 1.0163714 -0.41016018
00000000: 3b16 1fbe 9a47 bd3d c589 ab3e 2435 12be
00000010: b668 40be c794 12bf cd54 6b3f 9d0d 09be
00000020: ecf9 59bd cd01 25bf 0e84 90be 49aa 2e3f
00000030: a1b9 08bf 529a cc3e 8198 8fbf 946b 7b3f
00000040: 0128 b23e b4d6 c7be 445d 253f 020c 0bbf
00000050: 2429 f63d 98dd 463f bd0d b23d afe8 cebe
00000060: 7497 01bf 02ad 963f b3e2 68bf 8ffd 3f3f
00000070: bf2b 4e3f 1f35 16bf 6edc ecbe 79cb f2be
00000080: 66a8 a53e 2ef2 c3bd ee1b 003f a187 48be
00000090: b92c 7ebf 7a48 be3d b8fc 953f 00dc d0be
000000a0: b98a 473e d23e 1a3e e2bf 0a3f 2a43 04bf
000000b0: 1bc9 a8bd df9c 1b3f 64d2 0cbf 36ef 833d
000000c0: b405 1b3f df46 143e 8632 c6be 52f3 47bf
000000d0: 1c7e 533f 2a83 7fbe beab 1dbf 44ca f13e
000000e0: dc28 2cbf f863 b5be 732e 0bbf 1aa0 433f
000000f0: 1da4 6ebf ef23 43bf b9e6 66bf 32fb e33e
00000100: 9854 433f af32 ac3e ec3f 853d 00f6 fabd
00000110: dfaa 54bf 614c 033f 34f4 303f d2d1 f93e
00000120: 8262 0cbe e1cd b2bc bea0 a93e 8c35 84bf
00000130: ce90 663f 93bb 0abf 7e43 0cbf 94c5 f1be
00000140: a197 9f3e dfd7 4e3f 43cb 743e 3d59 2c3f
00000150: b7c4 653f a719 8a3f 0533 90bf fc8a 6c3d
00000160: 209a a93e 5b58 803c c89f 0d3e 1aab 333f
00000170: 8ec0 923e b707 823f b6ab 60bf a323 8fbe
00000180: ea80 223f a71a 963d be5b 22be 437a eebe
00000190: b6cc 693e 4674 34bf 10c8 2abf 1108 073c
000001a0: b3b2 31bf 82ea 38bf 399a d33e 7690 633e
000001b0: c9dd 823f 0d1b 693f b0f3 04bf 26b6 5cbf
000001c0: f20a 67bc 3e77 7d3f 1a0b 9ebd 1f3e fcbe
000001d0: fa48 983d a065 95bf 669f 29bd 4e94 c53e
000001e0: 02ef f83d 70fe d1be fef0 803e 1f2f eabe
000001f0: 3681 51bf 6698 e7b9 7518 823f 8400 d2be

local1.conv.bias f4 [128]
0.43813244 1.3120214 -1.3908434 -0.39229217 -1.0137571 -0.50102866 0.5084891 0.016118895
1.0797958 -0.6673577 -0.3985745 0.32005316 0.16142678 0.25688148 0.18582015 -0.5806111
0.86648273 -0.62314504 0.24187851 -0.10302437 -0.018562717 -0.56306237 -0.8275443 -0.5538432
0.22771737 0.48059607 0.4271221 0.7852072 1.1995748 0.8027313 0.9311976 0.72511804
-0.054643326 0.96018875 -0.40428707 0.9437448 -1.313516 1.5949503 0.09929476 0.16949372
-0.6517482 -0.40010735 0.70779854 0.872994 0.53052336 0.08604158 0.7529013 -1.3515384
-0.2487883 -0.19204453 -1.3924536 -1.0056067 -0.011423594 -0.19471212 0.53664416 -0.17326996
-0.1644986 0.07010886 0.0006097317 -1.0272573 0.33291796 0.016981322 -0.30781358 0.915286
-1.2165128 0.07149963 -1.2683173 0.99709785 -0.40952992 1.18289 -1.2447965 0.3552707
-0.7596559 0.98335713 -0.34966215 -0.2637277 0.13402817 -0.41773453 0.7335345 0.2534286
0.09526965 -1.4013155 0.21125363 0.7582287 0.1522174 -0.67251337 0.8258712 1.4867868
-1.0106153 0.8697275 0.27226046 1.2446452 -0.38614446 -0.1895781 0.45975956 -0.57587165
1.281079 -0.906721 -0.7337376 -0.54949486 0.46109453 0.030507727 -0.28672275 0.18096837
-0.5714613 -0.60388905 -0.44663695 -1.1817498 1.1619576 0.00926039 0.5699375 -0.3212999
1.1638985 0.4163112 0.2682526 0.28489283 -1.1517146 -0.4171383 0.40062276 0.9150005
0.48161557 -0.24926919 -1.1548673 0.45896515 -0.006065597 0.016200969 0.36095867 -0.10511871
00000000: e552 e03e 51f0 a73f 2807 b2bf 85da c8be
00000010: cbc2 81bf 6a43 00bf 572c 023f c60b 843c
00000020: c036 8a3f f4d7 2abf f511 ccbe 02de a33e
00000030: 104d 253e f885 833e a347 3e3e eea2 14bf
00000040: d0d1 5d3f 6f86 1fbf 00af 773e 71fe d2bd
00000050: d710 98bc db24 10bf f1d9 53bf abc8 0dbf
00000060: be2e 693e b010 f63e bfaf da3e 5703 493f
00000070: ab8b 993f cc7f 4d3f f762 6e3f 56a1 393f
00000080: aed1 5fbd eece 753f b7fe cebe 4299 713f
00000090: 4b21 a8bf 5527 cc3f 0d5b cb3d c38f 2d3e
000000a0: f8d8 26bf dfda ccbe 4932 353f 897c 5f3f
000000b0: 61d0 073f 9136 b03d 24be 403f 36ff acbf
000000c0: 5cc2 7ebe 52a7 44be eb3b b2bf b8b7 80bf
000000d0: 072a 3bbc 9d62 47be 8361 093f ae6d 31be
000000e0: 5272 28be 3c95 8f3d 67d6 1f3a 2b7d 83bf
000000f0: 3974 aa3e 6a1c 8b3c be99 9dbe 2f50 6a3f
00000100: b1b6 9bbf 666e 923d 3958 a2bf ce41 7f3f
00000110: e8ad d1be f168 973f 7e55 9fbf 0be6 b53e
00000120: cf78 42bf 4bbd 7b3f eb06 b3be 5107 87be
00000130: ae3e 093e 4de1 d5be ebc8 3b3f 65c1 813e
00000140: bc1c c33d 4e5e b3bf df52 583e 471b 423f
00000150: e1de 1b3e d629 2cbf 4c6c 533f 084f be3f
00000160: d85b 81bf 76a6 5e3f b965 8b3e 8950 9f3f
00000170: bab4 c5be c320 42be 9b65 eb3e 536c 13bf
00000180: 66fa a33f de1e 68bf 3ad6 3bbf b2ab 0cbf
00000190: 9514 ec3e 57eb f93c 53cd 92be c64f 393e
000001a0: 4a4b 12bf 7998 1abf 99ad e4be 9443 97bf
000001b0: 07bb 943f e4b8 173c 6de7 113f 6c81 a4be
000001c0: a0fa 943f be26 d53e 6858 893e 79dd 913e
000001d0: 626b 93bf 2793 d5be 6d1e cd3e 793d 6a3f
000001e0: 5196 f63e 6c40 7fbe b1d2 93bf 7bfd ea3e
000001f0: eac1 c6bb e5b7 843c 93cf b83e 7a48 d7bd

local1.conv.lin.weight f4 [128, 128]
0.45902127 0.2056132 -0.07471245 0.1488161 0.5316406 -0.30482486 0.14506638 0.57032084
0.18129063 0.119999506 -0.2828514 0.09145295 0.08157846 -0.57631093 -0.37939215 0.1294734
0.30929434 -0.26280704 0.6637293 -0.7301664 -0.0904475 -0.45507708 0.11460257 0.2940214
0.053837772 -0.040951338 -0.1617117 -0.10254788 0.30278865 0.8294602 -0.19973417 0.480974
0.11296598 -0.18391615 -0.2339277 0.61539125 -0.13975742 0.4249113 0.22436352 -0.4232841
-0.25831252 -0.093013 -0.35000232 -0.11875145 -0.34769344 -0.16439867 -0.046226803 -0.27314216
-0.7751743 0.24380393 -0.2908251 0.48510036 0.0038920064 0.23557909 -0.42837042 0.42799976
-0.6793753 0.30814862 0.2729022 0.31352356 0.12335273 -0.41420335 0.04180715 -0.73462635
0.32012948 -0.15093166 -0.33076602 0.104407266 -0.26539212 0.19510174 0.605709 -0.6122935
0.34394673 0.36717233 -0.0007489926 -0.5669182 0.38581717 -0.1759926 0.6140693 -0.44449374
-0.46686283 0.23491453 -0.5140207 0.47734702 0.2602576 0.0016740761 -0.0034559658 0.031694215
-0.6871641 0.1826094 0.3281021 0.4579524 0.05129925 0.36284798 0.62557894 0.40159535
0.70316374 -0.13947222 0.22754262 0.17965093 0.49512708 0.75911415 0.37504408 -0.26547515
-0.39126343 -0.51617914 -0.24516489 0.09203226 -0.2244964 -0.48742056 0.6085553 0.03013713
-0.43674085 -0.1636803 0.1487368 0.114903785 0.061552156 -0.13048932 0.24436954 -0.6282774
-0.1597651 0.263214 0.036649555 0.5979981 -0.09685673 -0.21516837 0.06474045 -0.16321158
0.20598188 -0.21804038 0.6485769 -0.49953356 0.20492275 -0.50697887 0.75400716 0.038567115
0.24274904 0.018387342 -0.2765512 0.36626315 -0.23976165 0.37100944 -0.76250845 0.558379
0.22509038 -0.6882983 0.41372752 -0.42369142 0.49151978 0.8191762 0.3843592 -0.15694356
-0.5185565 0.8814449 0.112324804 0.4961442 0.35265207 -0.26109517 -0.6977893 0.056509595
0.4472827 -0.29861647 0.21161163 0.00927333 -0.8694047 0.5842634 0.2040359 -0.36125645
0.43952876 0.10686307 0.22221832 -0.4162303 0.029046122 -0.2736663 -0.69789076 0.10949173
0.22011238 0.28833613 -0.2568341 -0.42708582 0.37252828 0.20490327 0.25899175 0.40200368
-0.62241364 -0.337592 -0.41266412 0.29407778 -0.13627574 -0.15956007 -0.29950434 0.4474401
0.24972658 -0.13516483 -0.026075637 -0.04815377 -0.16897139 0.16275802 0.6976735 0.41263217
0.042424776 -0.39810833 -0.15719636 -0.08484675 0.26599628 -0.49284872 -0.19825184 0.073539086
0.53308964 0.22275431 0.2844044 0.6846844 0.1367689 0.5136476 -0.22226316 0.45144984
0.21328673 -0.11930375 -0.26459926 0.20495965 -0.30382633 0.29785404 -0.68601215 -0.19847777
0.582752 0.34939364 0.3575813 -0.51757073 0.2565959 -0.06407516 -0.6003768 -0.3690254
-0.4081408 -0.58673775 -0.13463852 0.36133602 -0.06352884 0.6424066 -0.08011505 -0.8816997
0.46002552 0.48087478 0.005879956 -0.38977683 0.34177595 -0.3064929 0.0050873966 0.03247429
0.034658555 -0.2704412 0.2455291 0.29281062 -0.3519981 0.020446073 0.35819194 -0.13745151
00000000: d604 eb3e 448c 523e d702 99bd 3f63 183e
00000010: 9919 083f 0112 9cbe 488c 143e 8c00 123f
00000020: 40a4 393e 4dc2 f53d e6d1 90be af4b bb3d
00000030: 9c12 a73d 1d89 13bf b03f c2be ad94 043e
00000040: d45b 9e3e a58e 86be 2aea 293f 2fec 3abf
00000050: 8a3c b9bd ddff e8be c1b4 ea3d f989 963e
00000060: ff84 5c3d 97bc 27bd c097 25be 9f04 d2bd
00000070: 1d07 9b3e 8157 543f 1d87 4cbe 3942 f63e
00000080: b55a e73d 8454 3cbe be8a 6fbe 488a 1d3f
00000090: 921c 0fbe f98d d93e 8dbf 653e b2b8 d8be
000000a0: 8a41 84be 9a7d bebd 8133 b3be f633 f3bd
000000b0: e004 b2be 2058 28be 5158 3dbd 4ad9 8bbe
000000c0: d371 46bf bda7 793e 07e7 94be 135f f83e
000000d0: 0811 7f3b a53b 713e 5e53 dbbe c922 db3e
000000e0: 8aeb 2dbf a8c5 9d3e d6b9 8b3e 2986 a03e
000000f0: 5ba0 fc3d 7612 d4be f93d 2b3d 7910 3cbf
00000100: 03e8 a33e d48d 1abe 2a5a a9be 7ad3 d53d
00000110: 7ae1 87be c0c8 473e bf0f 1b3f 44bf 1cbf
00000120: c919 b03e 03fe bb3e 0b58 44ba 8d21 11bf
00000130: d489 c53e 6737 34be a533 1d3f af94 e3be
00000140: a508 efbe 6f8d 703e dc96 03bf d466 f43e
00000150: 7c40 853e ac6c db3a 7c7d 62bb cbd1 013d
00000160: fde9 2fbf f5fd 3a3e 00fd a73e bd78 ea3e
00000170: 2a1f 523d 36c7 b93e f125 203f e89d cd3e
00000180: 8a02 343f ced1 0ebe ef00 693e 6af6 373e
00000190: 4c81 fd3e 4e55 423f c705 c03e 5cec 87be
000001a0: ae53 c8be 5124 04bf 810c 7bbe 697b bc3d
000001b0: 62e2 65be 308f f9be 48ca 1b3f 24e2 f63c
000001c0: 7f9c dfbe cf9b 27be 764e 183e ad52 eb3d
000001d0: 1d1e 7c3d fe9e 05be 023c 7a3e cad6 20bf
000001e0: 7699 23be fcc3 863e d81d 163d 6716 193f
000001f0: d25c c6bd 1955 5cbe a496 843d f020 27be
00000200: eaec 523e fa45 5fbe 2309 263f ddc2 ffbe
00000210: 45d7 513e 5ec9 01bf 9d06 413f 8df8 1d3d
00000220: 3493 783e 0da1 963c 1e98 8dbe d886 bb3e
00000230: 1484 75be f3f4 bd3e c133 43bf edf1 0e3f
00000240: 187e 663e 5134 30bf 18d4 d33e 15ee d8be
00000250: 7ba8 fb3e 88b5 513f bbca c43e d0b5 20be
00000260: 1ec0 04bf 5fa6 613f 8c0a e63d 9d06 fe3e
00000270: d08e b43e 44ae 85be 52a2 32bf 9b76 673d
00000280: 3d02 e53e 42e4 98be b8b0 583e 2aef 173c
00000290: 4e91 5ebf 4992 153f c9ee 503e 9bf6 b8be
000002a0: ea09 e13e 06db da3d 338d 633e 231c d5be
000002b0: 22f2 ed3c fd1d 8cbe f8a8 32bf 333d e03d
000002c0: 2465 613e cba0 933e c27f 83be feaa dabe
000002d0: 07bc be3e 2ad2 513e 919a 843e 6dd3 cd3e
000002e0: 8056 1fbf dcd8 acbe b648 d3be 5d91 963e
000002f0: de8b 0bbe b763 23be a258 99be de16 e53e
00000300: 53b8 7f3e a668 0abe 939c d5bc e33c 45bd
00000310: d606 2dbe 0aaa 263e bb9a 323f 8644 d33e
00000320: 9ac5 2d3d dbd4 cbbe 15f8 20be 22c4 adbd
00000330: aa30 883e ab56 fcbe 8802 4bbe a99b 963d
00000340: 9078 083f b519 643e 749d 913e 7a47 2f3f
00000350: 260d 0c3e 697e 033f f498 63be 6f24 e73e
00000360: d667 5a3e 8655 f4bd 8e79 87be f1e0 513e
00000370: 208f 9bbe 5380 983e 7e9e 2fbf c23d 4bbe
00000380: 3c2f 153f b9e3 b23e e514 b73e 847f 04bf
00000390: 8a60 833e d639 83bd 4bb2 19bf e6f0 bcbe
000003a0: d5f7 d0be 7234 16bf aede 09be 0901 b93e
000003b0: 691b 82bd c274 243f 5c13 a4bd 12b7 61bf
000003c0: 7788 eb3e 3835 f63e a5ac c03b d490 c7be
000003d0: 42fd ae3e a3ec 9cbe 2db4 a63b c303 053d
000003e0: 21f6 0d3d 4577 8abe fb6b 7b3e 46eb 953e
000003f0: 1839 b4be 867e a73c ef64 b73e 17c0 0cbe

local1.norm.weight f4 [128]
1.1015573 0.99272877 0.82990015 0.6583815 0.94210815 0.9467403 0.8485324 1.133757
1.1132569 0.810888 0.7968966 1.0960454 0.72393394 1.6297506 0.9158909 0.785097
0.9603238 1.1247802 1.2238857 0.8081054 0.81138504 1.4315639 0.7628713 1.4107703
1.4177003 0.7319492 0.8520353 0.98795366 0.9727245 0.6940808 0.9516854 1.0831338
1.216135 0.9200905 1.109336 1.0397416 1.4690715 0.96990305 1.1579071 0.83062243
1.3913755 1.1504955 1.0171505 0.6145099 1.1811053 0.69787985 0.86513114 1.1030701
1.0081644 1.1440245 1.1402999 0.7261874 1.2272235 0.6357424 1.0744903 0.5337508
1.7826823 1.4588948 0.6166868 1.468237 0.8881205 0.8662509 1.522749 1.1106743
0.6991237 0.4584957 1.3257295 0.7725537 1.2434351 0.8388192 0.91122794 1.142648
1.0553204 1.111081 1.2340697 1.1940057 1.5052919 2.0383499 1.4104424 1.4151746
1.1727401 1.090294 1.4762254 0.8832413 0.9522169 0.6328461 1.2023318 1.108653
1.2999307 1.1347109 1.1924832 0.9448601 0.5163732 0.7121069 0.7320559 0.86059
1.0503154 1.7000161 1.3425561 1.4385589 0.34895408 0.6593436 0.9124723 0.96751946
1.6221083 1.1369575 1.0820283 0.6629053 0.97353816 1.0686433 0.951926 0.9769321
0.99797034 0.94717 1.1317277 1.1435729 1.2312807 1.5796633 0.7147043 1.0158796
1.0486072 1.5087126 0.8500834 0.6214987 1.1068519 1.0879966 1.0474508 1.1457751
00000000: d4ff 8c3f 7923 7e3f 5674 543f b18b 283f
00000010: 002e 713f 935d 723f 6b39 593f f31e 913f
00000020: 347f 8e3f 5b96 4f3f 6a01 4c3f 374b 8c3f
00000030: bc53 393f ab9b d03f d377 6a3f 1efc 483f
00000040: c8d7 753f ccf8 8f3f 49a8 9c3f ffdf 4e3f
00000050: eeb6 4f3f 7c3d b73f 894b 433f 1f94 b43f
00000060: 3477 b53f 0661 3b3f fc1e 5a3f 88ea 7c3f
00000070: 7904 793f 48af 313f a8a1 733f 21a4 8a3f
00000080: 50aa 9b3f 0d8b 6b3f b9fe 8d3f 4116 853f
00000090: 890a bc3f 914b 783f 4d36 943f aca3 543f
000000a0: 9818 b23f 7043 933f fd31 823f 8550 1d3f
000000b0: 752e 973f 41a8 323f 3c79 5d3f 6731 8d3f
000000c0: 880b 813f 656f 923f 59f5 913f 6be7 393f
000000d0: a915 9d3f 04c0 223f e688 893f e4a3 083f
000000e0: ef2e e43f 11bd ba3f 30df 1d3f 31ef bb3f
000000f0: dd5b 633f 9ec2 5d3f 70e9 c23f 932a 8e3f
00000100: c5f9 323f f3bf ea3e 81b1 a93f 14c6 453f
00000110: e228 9f3f dbbc 563f 3c46 693f 4a42 923f
00000120: bd14 873f e737 8e3f fff5 9d3f 2ed5 983f
00000130: 68ad c03f 5374 0240 6089 b43f 7124 b53f
00000140: 591c 963f c18e 8b3f f4f4 bc3f 1a1c 623f
00000150: 7dc4 733f 3402 223f 02e6 993f 57e8 8d3f
00000160: 2164 a63f 353e 913f 4aa3 983f 5ae2 713f
00000170: 0931 043f a34c 363f 0468 3b3f a04f 5c3f
00000180: bc70 863f 219a d93f e1d8 ab3f b322 b83f
00000190: 1caa b23e beca 283f c997 693f 5baf 773f
000001a0: 3fa1 cf3f d387 913f e77f 8a3f 29b4 293f
000001b0: cc39 793f 4ec9 883f 6cb1 733f 3918 7a3f
000001c0: fc7a 7f3f bc79 723f 74dc 903f 9960 923f
000001d0: 9b9a 9d3f 6832 ca3f dcf6 363f 5808 823f
000001e0: c338 863f 7f1d c13f 119f 593f 8a1a 1f3f
000001f0: 53ad 8d3f 7943 8b3f de12 863f c2a8 923f

local1.norm.bias f4 [128]
-0.61502814 -0.5648168 -0.67337626 -0.34467077 -0.7211873 -0.39572486 -0.69556904 -0.6495905
-0.60725963 -0.3669873 -0.32684493 -0.6456863 -0.481248 -0.23612067 -0.5339907 -0.5810294
-0.5181161 -0.28665736 -0.6217558 -0.6202138 -0.7350846 -0.92107326 -0.67193407 -0.20872727
-0.5958232 -0.5466897 -0.6834629 -0.81126046 -0.7734617 -0.6665387 -0.88079274 -0.8337144
-0.49547508 -0.52338284 -0.4566932 -0.8667045 -0.5452975 -0.8211215 -0.15347733 -0.52083796
-0.6265045 -0.4286118 -0.63445354 -0.44037905 -0.6045714 -0.54994744 -0.5687493 -0.5341965
-0.63405734 -0.53519 -0.63422614 -0.50856185 -0.43348342 -0.43534377 -0.87587965 -0.5700702
-0.33837613 -0.31933248 -0.60224164 -0.34984556 -1.0198057 -0.5168974 -0.44594336 -0.7756097
-0.7341147 -0.62381285 -0.5062692 -0.4772352 -0.73094493 -0.6971656 -0.6055134 -0.58120143
-0.78572994 -0.6721199 -0.37757325 -0.64505255 -0.4312736 -0.33471882 -0.38475314 -0.19515827
-0.6192037 -0.6151584 -0.13878559 -0.58979493 -0.70627725 -0.48697215 -0.60021615 -0.51846755
-0.28096896 -0.6501103 -0.7197455 -0.77200526 -0.7323471 -0.4158041 -0.49937332 -0.61332184
-0.67094636 -0.4868319 -0.6938417 -0.64199984 -0.82936025 -0.60964614 -0.5462612 -0.32092845
-0.4542255 -0.5865575 -0.28943497 -0.588827 -0.85596657 -0.62986505 -0.4816152 -0.5862768
-0.9607324 -0.40486103 -0.73140854 -0.6996498 -0.59578955 -0.30421215 -0.4077924 -0.60050154
-0.6645146 -0.049865916 -0.39030346 -0.5721697 -0.76743716 -0.7154519 -0.74975634 -0.4902779
00000000: 7c72 1dbf d597 10bf 6362 2cbf b078 b0be
00000010: bb9f 38bf 739c cabe d010 32bf 904b 26bf
00000020: 5e75 1bbf c2e5 bbbe 3858 a7be b34b 25bf
00000030: 2366 f6be 9ec9 71be 9db3 08bf 58be 14bf
00000040: 42a3 04bf c1c4 92be 632b 1fbf 55c6 1ebf
00000050: 812e 3cbf 75cb 6bbf df03 2cbf 9abc 55be
00000060: df87 18bf dbf3 0bbf 6df7 2ebf c4ae 4fbf
00000070: 9601 46bf 48a2 2abf a27b 61bf 4f6e 55bf
00000080: e9ae fdbe 6bfc 05bf b1d3 e9be 59e0 5dbf
00000090: 9e98 0bbf 0535 52bf 2929 1dbe a355 05bf
000000a0: 9962 20bf 0173 dbbe 8c6b 22bf 5d79 e1be
000000b0: 31c5 1abf 5bc9 0cbf 8e99 11bf 1ac1 08bf
000000c0: 9551 22bf 3602 09bf a55c 22bf 1c31 02bf
000000d0: 8af1 ddbe 61e5 debe a639 60bf 1ff0 11bf
000000e0: a33f adbe 8c7f a3be 822c 1abf f51e b3be
000000f0: fe88 82bf 6353 04bf b052 e4be 5b8e 46bf
00000100: f1ee 3bbf 33b2 1fbf dc9a 01bf 2c58 f4be
00000110: 351f 3bbf 7279 32bf ed02 1bbf 9ec9 14bf
00000120: 9925 49bf 0d10 2cbf 4851 c1be 2a22 25bf
00000130: e5cf dcbe 4460 abbe 5dfe c4be 92d7 47be
00000140: 2284 1ebf 057b 1dbf cf1d 0ebe cdfc 16bf
00000150: 96ce 34bf 6a54 f9be c4a7 19bf 4aba 04bf
00000160: 2adb 8fbe a16d 26bf 3e41 38bf 23a2 45bf
00000170: 197b 3bbf 46e4 d4be dcad ffbe a902 1dbf
00000180: 24c3 2bbf 0842 f9be 9c9f 31bf 1a5a 24bf
00000190: f450 54bf c511 1cbf c6d7 0bbf bc50 a4be
000001a0: 3f90 e8be a228 16bf d230 94be 5ebd 16bf
000001b0: a020 5bbf d63e 21bf 4496 f6be 3d16 16bf
000001c0: 8ff2 75bf f249 cfbe 973d 3bbf 401c 33bf
000001d0: aa85 18bf b2c1 9bbe 2aca d0be 78ba 19bf
000001e0: a11d 2abf 3440 4cbd dbd5 c7be b779 12bf
000001f0: c376 44bf db27 37bf 08f0 3fbf b405 fbbe

local2.conv.bias f4 [128]
0.1762524 0.3218792 0.19658491 0.7413646 0.3677834 0.29629713 0.3891501 -0.4952669
0.08815178 -0.04034393 0.3268297 0.21782586 0.35541993 -0.009946681 -1.2031622 -0.18739277
0.019174213 0.036780953 -0.6477117 0.13963269 0.2603995 -0.13698667 0.27868724 0.40017992
0.17768505 0.44717118 0.04838475 1.0858049 -0.01899009 0.14118417 0.22711675 0.12368613
0.0675406 0.635258 0.01668029 1.0165945 0.27141535 0.056654 0.33500245 -0.056980547
0.38820136 -0.0027095915 -0.062695704 0.023455106 0.77784306 0.25192696 0.2855543 0.11986737
0.11705092 0.2134155 0.17797899 0.2826706 0.65126604 0.046992034 -1.3147908 -0.17868829
0.12000045 0.508321 0.5432471 -0.09372872 0.0836342 0.04923787 0.14239316 0.11440544
0.09179694 -0.15231541 0.055963367 0.02822768 -1.2634548 0.56271625 0.020855198 0.056923147
0.18682718 0.11668313 0.101059355 0.26252192 0.073987365 0.2978462 0.38429564 0.28907984
0.061713077 0.2525488 0.39540294 0.37936303 0.11024173 0.2121832 0.20403105 0.0647078
0.33268684 -0.03195133 0.2741515 0.4837934 0.11635875 0.59806323 0.30932063 0.27969238
0.07539597 0.21283503 0.12976849 0.46869895 0.33555678 0.29780492 0.054432075 0.59042984
-0.49315402 0.72079873 0.22412893 0.44312698 0.28804156 0.6718162 0.47060215 -0.098175146
0.18016018 0.43580857 0.22681482 -0.0075919274 -0.09658804 -0.056194905 0.113891505 0.22773354
0.6138171 0.08403771 0.17871852 0.026864454 -0.15645242 0.15081397 0.11385788 0.27189094
00000000: 827b 343e 5acd a43e 8e4d 493e 12ca 3d3f
00000010: 1b4e bc3e 42b4 973e af3e c73e a093 fdbe
00000020: ec88 b43d ad3f 25bd 3956 a73e be0d 5f3e
00000030: 9af9 b53e 67f7 22bc 3801 9abf e4e3 3fbe
00000040: 3d13 9d3c a0a7 163d 6fd0 25bf dffb 0e3e
00000050: 1553 853e 3c46 0cbe 18b0 8e3e 62e4 cc3e
00000060: 12f3 353e 9ff3 e43e 162f 463d a8fb 8a3f
00000070: 1b91 9bbc 9592 103e 4b91 683e 274f fd3d
00000080: ba52 8a3d 45a0 223f 1ba5 883c c51f 823f
00000090: f4f6 8a3e 060e 683d 7185 ab3e 6f64 69bd
000000a0: 54c2 c63e 6793 31bb 9b66 80bd ec24 c03c
000000b0: b920 473f 92fc 803e 2c34 923e 067d f53d
000000c0: 65b8 ef3d 9889 5a3e 2040 363e 33ba 903e
000000d0: 5fb9 263f b87a 403d 114b a8bf 10fa 36be
000000e0: ccc2 f53d 5321 023f 3e12 0b3f d8f4 bfbd
000000f0: 6848 ab3d a6ad 493d 83cf 113e 664d ea3d
00000100: 0900 bc3d 92f8 1bbe d839 653d bc3d e73c
00000110: e3b8 a1bf 2c0e 103f 85d8 aa3c 3f28 693d
00000120: a04f 3f3e 91f7 ee3d 35f8 ce3d 4669 863e
00000130: b086 973d 4c7f 983e 66c2 c43e 4602 943e
00000140: dac6 7c3d 144e 813e 4172 ca3e df3b c23e
00000150: 6bc6 e13d 8e46 593e 84ed 503e 8685 843d
00000160: ee55 aa3e 66df 02bd 965d 8c3e c5b3 f73e
00000170: 7f4d ee3d ac1a 193f 465f 9e3e d733 8f3e
00000180: 3469 9a3d 6df1 593e 08e2 043e 4ff9 ef3e
00000190: 19ce ab3e e379 983e 2bf4 5e3d 6926 173f
000001a0: af7e fcbe 4486 383f 0e82 653e 8ae1 e23e
000001b0: 2f7a 933e 25fc 2b3f c4f2 f03e 0d10 c9bd
000001c0: e97b 383e 4d22 df3e 2542 683e b4c5 f8bb
000001d0: f3cf c5bd a12c 66bd f33f e93d fb32 693e
000001e0: 1e23 1d3f f71b ac3d fd01 373e d812 dc3c
000001f0: 1035 20be fa6e 1a3e 522e e93d 4a35 8b3e

local2.conv.lin.weight f4 [128, 128]
0.3196838 0.20795606 -1.0133327 -1.1671726 0.04762887 -0.26429808 0.668297 -1.915977
-0.13935927 -1.3678933 0.13210493 -0.25773194 0.48985675 -0.02563912 -1.915163 -1.8278894
0.32686055 -0.71966636 0.3429654 0.25895393 -0.12847209 0.4574319 0.123583294 0.48724025
-0.8294946 -2.0011516 0.2813987 -1.3225849 0.3227815 0.3609473 -0.7253487 -0.37478387
0.027567742 0.57389724 0.2931347 -0.11877107 -0.83429104 -0.44933766 0.2274142 0.54508114
0.2029701 0.4532729 -0.6019094 -0.85957384 -0.48650762 0.44529283 0.49856162 0.04722467
1.0836911 0.002368724 0.10494306 -1.0667417 -0.68284196 -1.4334232 -0.80999863 0.24747713
0.081025 0.16521192 -1.2848108 -0.12238585 0.31105784 -0.19731332 0.33088484 -0.47484475
0.16450748 0.20703787 0.014592036 0.4324126 -0.12899327 0.7157276 -0.7782684 -0.53628254
-0.33786318 0.14066677 0.19119245 0.39277175 0.12856476 0.41504174 0.031149495 0.41080892
0.43744108 -0.89086485 0.5907222 0.16229843 -1.4969107 -0.94459885 0.14916357 0.012075235
-0.32532185 -0.33681706 -0.40518153 0.37332255 0.1223805 -1.6320257 -0.8394164 -0.48562437
-0.018808182 0.34859076 -0.9380499 -0.27276307 -1.1952153 0.29080656 -0.89920056 0.37039244
0.16369113 0.01131553 -0.8280621 -1.3612063 0.2958598 -0.8787353 0.61159295 -1.1204305
0.66480124 0.87318987 -0.45558986 0.40278876 0.16476804 0.2780192 -1.1166135 0.5505355
-0.30286562 0.56270134 -1.1821204 0.41279724 -1.2092631 -0.42369777 0.31434056 0.511422
-0.40847117 -1.2508469 0.56493807 0.742188 0.6542576 -0.4366705 0.3579207 0.7728144
-0.5801934 0.42471948 0.58001107 0.26231655 0.6642848 -0.38886717 -0.08981302 0.4020914
0.27566704 0.43284085 -0.36431214 0.8873612 -0.25375313 0.24826054 0.8778584 0.3928397
-0.29281983 0.44208312 0.95766675 0.4652192 0.27324578 0.37282026 0.35027665 -0.18792832
-0.41126683 0.33133215 0.4582562 -0.41186696 0.0053473366 0.01580535 -0.24845183 0.2811584
0.042699087 0.2301855 0.010779184 0.58867615 -0.73106265 0.84293354 0.2038678 0.6636754
-0.17182738 -0.21383186 0.73708946 0.30070698 0.32466495 0.54385996 0.4749579 0.38516602
-0.21447368 0.56451994 0.34222326 0.28648368 -0.41163227 -0.18426538 0.09090013 -0.030649474
1.1078081 0.5052117 0.8116521 -0.51108706 -0.570974 0.1711189 0.25426564 -0.06511226
0.12690184 -0.38012692 -0.39553973 -0.15495053 0.48504585 -0.3380132 0.1770853 0.28835362
0.8511199 0.41036844 0.55613226 -0.61222196 0.45938918 0.39011493 -0.49557403 -0.6984121
0.38967553 -0.09255743 0.016423866 -0.49794078 0.8292848 0.5936233 0.52598494 0.2497181
-0.7412416 0.6235045 -0.43544462 -0.6001364 0.56727654 0.31664598 0.6679303 -0.0844598
0.5132922 0.065352224 0.11554992 0.4458108 -0.2723794 0.14735562 0.7437801 0.40770066
0.07671973 0.36571267 -0.07979074 0.5941788 0.27488637 -0.7153973 0.5592237 -1.2328678
-0.1271458 0.8678812 0.47983953 0.74246806 0.46467575 0.288359 0.019323826 -0.09408676
00000000: 98ad a33e 6ff2 543e e3b4 81bf e965 95bf
00000010: 7d16 433d 1452 87be 8315 2b3f bc3e f5bf
00000020: 32b4 0ebe 2117 afbf 8446 073e 71f5 83be
00000030: 81ce fa3e 2209 d2bc 1024 f5bf 48f8 e9bf
00000040: 445a a73e 0e3c 38bf 2999 af3e 9c95 843e
00000050: 308e 03be 8434 ea3e 3d19 fd3d 8e77 f93e
00000060: c259 54bf de12 00c0 7e13 903e 764a a9bf
00000070: 9e43 a53e 16ce b83e 74b0 39bf ace3 bfbe
00000080: bfd5 e13c eeea 123f c015 963e 3f3e f3bd
00000090: 1994 55bf 960f e6be 45df 683e 708a 0b3f
000000a0: 65d7 4f3e 6313 e83e bc16 1abf 080d 5cbf
000000b0: 8717 f9be 6cfd e33e 7843 ff3e a86e 413d
000000c0: 64b6 8a3f 983c 1b3b 63ec d63d fe8a 88bf
000000d0: bbce 2ebf 697a b7bf 125c 4fbf a56a 7d3e
000000e0: 6ff0 a53d 502d 293e ae74 a4bf 6fa5 fabd
000000f0: f942 9f3e 810c 4abe bd69 a93e da1e f3be
00000100: a674 283e bc01 543e 6f13 6f3c 2f65 dd3e
00000110: d016 04be ed39 373f 993c 47bf d049 09bf
00000120: 67fc acbe f30a 103e f4c7 433e 6119 c93e
00000130: 7ba6 033e 5a80 d43e 3a2d ff3c 8c55 d23e
00000140: 47f8 df3e b80f 64bf 9239 173f 8f31 263e
00000150: c59a bfbf 3bd1 71bf 56be 183e 35d7 453c
00000160: 9690 a6be 4973 acbe f473 cfbe 2224 bf3e
00000170: a1a2 fa3d 38e6 d0bf fee3 56bf c2a3 f8be
00000180: 9e13 9abc 7d7a b23e 0a24 70bf 9aa7 8bbe
00000190: d1fc 98bf 99e4 943e 0232 66bf 14a4 bd3e
000001a0: a69e 273e c664 393c e1fb 53bf 023c aebf
000001b0: f07a 973e ccf4 60bf 5b91 1c3f 446a 8fbf
000001c0: 6a30 2a3f 5f89 5f3f 1343 e9be 543a ce3e
000001d0: f4b8 283e 8858 8e3e 31ed 8ebf e5ef 0c3f
000001e0: 3411 9bbe 320d 103f b94f 97bf 295a d33e
000001f0: 22c9 9abf eaee d8be 3ff1 a03e 8dec 023f
00000200: 2223 d1be c01b a0bf c89f 103f 0800 3e3f
00000210: 6d7d 273f 4793 dfbe 6241 b73e 2ad7 453f
00000220: 8e87 14bf d574 d93e 9b7b 143f 5b4e 863e
00000230: 920e 2a3f 9919 c7be e3ef b7bd edde cd3e
00000240: 3b24 8d3e 519d dd3e 1f87 babe 1b2a 633f
00000250: eeeb 81be 0338 7e3e 54bb 603f 4922 c93e
00000260: 7bec 95be b858 e23e a629 753f 3631 ee3e
00000270: dfe6 8b3e 4ce2 be3e 7657 b33e 4870 40be
00000280: 9191 d2be 5ea4 a93e 8fa0 ea3e 3ae0 d2be
00000290: b638 af3b 397a 813c 286a 7ebe fef3 8f3e
000002a0: 3de5 2e3d bfb5 6b3e 2d9b 303c 7bb3 163f
000002b0: ec26 3bbf 7eca 573f b8c2 503e a2e6 293f
000002c0: 84f3 2fbe bdf6 5abe e5b1 3c3f 44f6 993e
000002d0: 7c3a a63e 683a 0b3f af2d f33e 7b34 c53e
000002e0: fd9e 5bbe 6184 103f e337 af3e fdad 923e
000002f0: 77c1 d2be 10b0 3cbe d929 ba3d 9b14 fbbc
00000300: a8cc 8d3f 8e55 013f 6fc8 4f3f 9ad6 02bf
00000310: 5a2b 12bf cb39 2f3e 1b2f 823e 9459 85bd
00000320: 8ef2 013e ff9f c2be 2f84 cabe 5aab 1ebe
00000330: ee57 f83e 1110 adbe d955 353e 16a3 933e
00000340: fee2 593f d01b d23e af5e 0e3f 94ba 1cbf
00000350: 0f35 eb3e 25bd c73e e1bb fdbe 23cb 32bf
00000360: 8d83 c73e c08e bdbd 588b 863c 18f2 febe
00000370: 024c 543f b2f7 173f f3a6 063f 1ab6 7f3e
00000380: 02c2 3dbf fe9d 1f3f 99f2 debe 8aa2 19bf
00000390: 0939 113f 6c1f a23e 7bfd 2a3f 42f9 acbd
000003a0: 1e67 033f 63d7 853d 70a5 ec3d 5041 e43e
000003b0: 5075 8bbe 64e4 163e 5f68 3e3f 24be d03e
000003c0: 3c1f 9d3d b13e bb3e 5469 a3bd 1a1c 183f
000003d0: e8bd 8c3e 4724 37bf 4929 0f3f 9dce 9dbf
000003e0: 8232 02be 762d 5e3f 87ad f53e 6312 3e3f
000003f0: fbe9 ed3e caa3 933e 004d 9e3c 8fb0 c0bd

local2.norm.weight f4 [128]
1.3183305 0.5719657 0.68443304 0.66241246 1.0982105 1.0486938 0.6693687 0.2572141
1.0416383 0.6154699 0.59386176 0.9866277 0.9268606 1.4242568 2.1863718 0.85671675
1.232258 1.197378 0.7427252 0.5189837 0.92482126 1.152622 0.61725533 1.1357449
0.64001006 0.4615097 0.9160718 0.17053503 0.97817636 0.6780149 0.93679655 0.70089966
0.7019625 0.42940181 0.83653766 0.17288242 0.856836 1.2338006 0.9002869 1.1947093
0.6908227 0.8262674 0.66924894 0.84300077 0.34155235 0.5371957 0.6456369 0.788589
0.59618044 0.92783165 1.0497922 0.9628023 0.74386716 1.9387933 0.8815036 0.9408381
1.1113802 0.45774895 0.50389487 1.4558853 0.5804554 0.86958396 1.1806793 1.3471625
0.591392 0.770886 1.3516034 1.1960933 0.74211717 0.84280306 0.81818336 2.258283
0.6018679 0.63510406 0.7947728 1.049568 1.6484097 0.5849653 0.77185285 0.47931984
1.0180275 0.8630166 1.048145 0.42624375 1.3848493 1.1888784 0.719933 1.1532074
0.7297649 1.081066 0.55573106 0.7458707 0.86515164 0.3923776 0.9301964 0.49118587
1.0075908 1.0474967 0.9588139 0.46277767 0.9773994 0.4690866 2.1251075 0.39608365
0.717686 0.8219749 1.2422961 0.63195693 0.5241485 0.8673432 0.5358244 0.8439339
0.76985407 0.99553376 0.5752536 1.0959607 1.8154646 1.2717838 1.2625808 0.95337045
0.47454247 1.0227549 0.8800303 1.2702286 1.1148486 0.70460755 1.0906506 0.6416128
00000000: 0ebf a83f 586c 123f 0137 2f3f dd93 293f
00000010: 2992 8c3f 993b 863f bf5b 2b3f 91b1 833e
00000020: 6754 853f 6f8f 1d3f 5307 183f a293 7c3f
00000030: bc46 6d3f 0c4e b63f 84ed 0b40 ca51 5b3f
00000040: a1ba 9d3f af43 993f 3d23 3e3f 1edc 043f
00000050: 16c1 6c3f 1e89 933f 7204 1e3f 1760 913f
00000060: b3d7 233f 004b ec3e ae83 6a3f bca0 2e3e
00000070: c469 7a3f 6292 2d3f e6d1 6f3f 296e 333f
00000080: d0b3 333f 8eda db3e 5527 563f 1708 313e
00000090: 9b59 5b3f 2eed 9d3f 3479 663f 3cec 983f
000000a0: c2d9 303f 4386 533f e653 2b3f e6ce 573f
000000b0: f3df ae3e a885 093f 7648 253f f8e0 493f
000000c0: 489f 183f 6086 6d3f 975f 863f 367a 763f
000000d0: 146e 3e3f 612a f83f 38aa 613f c4da 703f
000000e0: b541 8e3f 125e ea3e 41ff 003f 735a ba3f
000000f0: ba98 143f 0e9d 5e3f 8020 973f d26f ac3f
00000100: 7765 173f c958 453f 5701 ad3f 9619 993f
00000110: 64fb 3d3f f1c1 573f 7774 513f b587 1040
00000120: 0414 1a3f 2e96 223f 3b76 4b3f 3f58 863f
00000130: 17ff d23f 49c0 153f 2698 453f 6969 f53e
00000140: ba4e 823f a8ee 5c3f 9e29 863f 9f3c da3e
00000150: be42 b13f 2b2d 983f 874d 383f 4d9c 933f
00000160: dfd1 3a3f 5f60 8a3f 6444 0e3f 62f1 3e3f
00000170: 947a 5d3f b7e5 c83e 5a21 6e3f b77c fb3e
00000180: bcf8 803f 5f14 863f d474 753f 32f1 ec3e
00000190: d936 7a3f 1e2c f03e c301 0840 7acb ca3e
000001a0: 45ba 373f f26c 523f 8f03 9f3f eec7 213f
000001b0: 992e 063f 340a 5e3f ca2b 093f 0d0c 583f
000001c0: 2815 453f 4ddb 7e3f d243 133f 7148 8c3f
000001d0: 2561 e83f d0c9 a23f 3f9c a13f 1610 743f
000001e0: 3bf7 f23e a2e9 823f aa49 613f da96 a23f
000001f0: 5cb3 8e3f 2961 343f 709a 8b3f bd40 243f

local2.norm.bias f4 [128]
-0.18652068 -0.5432722 -0.8299508 -0.6623238 -0.31447333 -0.42117658 -0.5306015 -0.76082337
-0.3335841 -0.30972385 -0.66437745 -0.5279529 -0.17840582 -0.38511676 -0.39723915 -0.3449454
-0.3157924 -0.46661106 -0.6606881 -0.286235 -0.20801745 -0.42829636 -0.51333386 -0.3321842
-0.6325487 -0.48857728 -0.48392764 -0.8268663 -0.3393872 -0.3215466 -0.2807525 -0.38247302
-0.52384335 -0.6691221 -0.36476648 -0.822525 -0.2631863 -0.5468267 -0.5394463 -0.22731854
-0.657535 -0.5743401 -0.3886081 -0.4069695 -0.8208083 -0.3678863 -0.54368734 -0.548398
-0.56026554 -0.23802936 -0.433063 -0.3320952 -0.58060324 -0.2191892 -0.5505492 -0.5092484
-0.49903882 -0.7686183 -0.76529795 -0.41113192 -0.3081558 -0.5986761 -0.36552778 -0.2661462
-0.34848124 -0.4836594 -0.44395182 -0.3169558 -0.4790044 -0.2831854 -0.2980507 -0.17543575
-0.4042223 -0.48555177 -0.48042372 -0.37854853 -0.37831205 -0.5353128 -0.56134886 -0.559644
-0.31289747 -0.44156596 -0.48638773 -0.67229605 -0.30256242 -0.3883654 -0.5040804 -0.59842706
-0.46607798 -0.522983 -0.46000707 -0.41789302 -0.19753535 -0.83600485 -0.5102329 -0.6263647
-0.47679263 -0.26674438 -0.47639197 -0.8473373 -0.31827798 -0.51908034 -0.1916333 -0.654022
-0.35702822 -0.4673179 -0.3515563 -0.6777072 -0.6165481 -0.43645766 -0.61850697 -0.6601253
-0.3745872 -0.40418798 -0.5969371 -0.43162018 -0.23927183 -0.50599927 -0.32217857 -0.24970394
-0.7656534 -0.43650883 -0.6018456 -0.45753455 -0.3519085 -0.6299567 -0.34719118 -0.45338735
00000000: 47ff 3ebe e313 0bbf a877 54bf 0d8e 29bf
00000010: a602 a1be 75a4 d7be 80d5 07bf 52c5 42bf
00000020: 89cb aabe 2094 9ebe a414 2abf ec27 07bf
00000030: 04b0 36be 062e c5be ee62 cbbe af9c b0be
00000040: 8baf a1be a5e7 eebe db22 29bf 658d 92be
00000050: 8702 55be a949 dbbe d969 03bf 0c14 aabe
00000060: b6ee 21bf cd26 fabe 5dc5 f7be 83ad 53bf
00000070: 29c4 adbe c2a1 a4be cbbe 8fbe 81d3 c3be
00000080: 991a 06bf 964b 2bbf acc2 babe 0091 52bf
00000090: 5bc0 86be d6fc 0bbf 2719 0abf 31c6 68be
000000a0: 3754 28bf f407 13bf a4f7 c6be 4e5e d0be
000000b0: 7e20 52bf 985b bcbe 182f 0bbf d063 0cbf
000000c0: 906d 0fbf f8bd 73be 6fba ddbe 6208 aabe
000000d0: 6aa2 14bf 2273 60be cbf0 0cbf 1a5e 02bf
000000e0: 0482 ffbe 2bc4 44bf 91ea 43bf e27f d2be
000000f0: 99c6 9dbe d642 19bf 7526 bbbe 5144 88be
00000100: 226c b2be 34a2 f7be a74d e3be 0848 a2be
00000110: 1140 f5be adfd 90be 1a9a 98be 6ea5 33be
00000120: 3af6 cebe 3e9a f8be 19fa f5be 1dd1 c1be
00000130: 1eb2 c1be 420a 09bf 8fb4 0fbf d444 0fbf
00000140: 1934 a0be ef14 e2be d007 f9be 981b 2cbf
00000150: 76e9 9abe d4d7 c6be 6a0b 01bf 8432 19bf
00000160: c6a1 eebe 37e2 05bf 0c86 ebbe 13f6 d5be
00000170: b546 4abe 6a04 56bf a09e 02bf 7059 20bf
00000180: 2a1e f4be b892 88be a6e9 f3be 19eb 58bf
00000190: 55f5 a2be 73e2 04bf 853b 44be fc6d 27bf
000001a0: 67cc b6be 4b44 efbe 30ff b3be 387e 2dbf
000001b0: 19d6 1dbf 6177 dfbe 7956 1ebf f9fd 28bf
000001c0: e5c9 bfbe baf1 cebe dfd0 18bf 52fd dcbe
000001d0: ad03 75be 2b89 01bf 97f4 a4be 64b2 7fbe
000001e0: dc01 44bf 167e dfbe 8e12 1abf f841 eabe
000001f0: 5a2d b4be d844 21bf 0bc3 b1be 6322 e8be

meso.Wq.weight f4 [128, 128]
-0.08153714 -0.516811 0.21533209 0.2827209 -0.34813792 0.13459827 0.045091994 0.04187827
-0.643195 0.44175345 0.5021454 0.12969314 -0.23993078 0.34934193 -0.33182698 0.20710388
-0.3636321 -0.54935914 0.28879184 -0.12539035 -0.12421846 0.23614256 0.1335073 0.1615456
0.20541711 0.5740587 -0.054547917 0.12673463 -0.36059815 -0.10780686 0.28123307 -0.2717388
0.19160618 0.008651909 -0.030963525 -0.09732729 0.24010333 -0.7319946 -0.04963909 -0.58914095
-0.25349522 0.4915596 0.47712743 0.296982 -0.49574474 -0.33803 -0.21623673 -0.19510306
0.12635835 0.3172618 0.46940398 0.4480543 0.32059908 -0.14766708 0.16414441 0.40202978
0.117552005 -0.15435968 -0.30312735 -0.5793451 -0.5088798 -0.24954954 -0.3620474 -0.3653927
0.519455 -0.7325403 -0.30599976 -0.6209059 0.6945406 0.00543101 0.030925497 0.24634984
-0.23678671 -0.34254932 0.48040098 0.18190508 -0.40384203 0.2160339 -0.81561565 -0.1283362
0.026000781 0.4816633 -0.08692764 -0.22884123 -0.31391457 0.21144687 0.07310509 0.34156024
0.15555148 -0.058803115 0.09980371 0.28619778 0.19403303 -0.07471286 0.07988863 -0.14123991
-0.20576642 0.24434195 -0.006398725 0.25932866 0.009787963 -0.22942059 -0.037340455 -0.26564586
-0.11228386 0.51314414 0.4429316 0.44145042 -0.033197965 -0.17961273 0.0481774 0.4083245
0.077915944 0.4391226 -0.15319322 0.18978271 -0.33235782 0.5369529 -0.39556128 0.028295144
-0.26419336 -0.010104777 0.24443637 -0.13514481 0.42547697 0.05565829 0.33486894 0.5026575
0.07182995 0.1455038 -0.28482294 -0.35561204 0.017064277 0.19351014 0.024568332 0.046440996
-0.16147164 -0.30288896 0.082230516 0.19589174 -0.09547824 0.3055968 0.05433839 -0.12772834
0.21725944 -0.3016752 -0.83317494 -0.186136 0.25965428 0.37112483 0.07573983 0.23707648
-0.0023903174 -0.28662974 0.30101556 -0.065251194 -0.17710748 0.68096125 -0.013306734 0.11915947
0.49701637 -0.2625276 -0.25349796 0.0925128 -0.035163175 -0.3080037 0.2828281 -0.18544134
0.36583307 -0.15982778 -0.17490649 0.4102933 0.2315177 -0.23267807 -0.20266816 -0.25659123
0.06172688 -0.32518944 -0.22645256 -0.67725194 0.119688034 0.42130873 -0.09290602 -0.07285957
-0.17367315 -0.09666176 0.076819375 0.3104961 0.24423021 0.012102339 0.36164185 -0.13002057
-0.28626218 0.4637948 0.22870962 0.16233687 -0.49323505 0.6628854 0.060186543 0.22966115
-0.16972853 0.3852332 -0.2994644 -0.12486748 0.2900338 0.22231543 0.8211542 0.20471044
-0.3582922 -0.47738096 0.57567644 0.17966324 0.32626608 0.52255726 0.34484932 0.17277981
0.3678315 -0.17080553 0.112579614 0.020064505 0.30057403 0.7322134 -0.19729015 -0.064086854
-0.3400995 -0.1375966 0.024700189 -0.15941262 -0.0031168514 -0.15912329 0.19245258 -0.07474749
-0.13756473 -0.07167756 -0.094613306 -0.66363627 0.082879506 0.4789545 -0.36019084 -0.06662931
-0.017555887 -0.5249181 0.013004084 0.11822538 -0.21818645 0.0031300166 -0.256063 0.18390329
0.29221308 0.35581133 0.37669092 0.36194354 0.19231685 -0.3330294 -0.434379 0.1564622
00000000: f2fc a6bd ba4d 04bf 0480 5c3e cbc0 903e
00000010: 223f b2be 21d4 093e 62b2 383d 8d88 2b3d
00000020: 6da8 24bf 822d e23e 9a8c 003f 47ce 043e
00000030: 6ab0 75be f2dc b23e 3ae5 a9be 0a13 543e
00000040: fd2d babe cda2 0cbf 86dc 933e 5466 00be
00000050: 3f66 febd 5bcf 713e 23b6 083e 366c 253e
00000060: dd58 523e 83f5 123f a36d 5fbd b9c6 013e
00000070: 52a0 b8be d8c9 dcbd c8fd 8f3e 5921 8bbe
00000080: 6934 443e bdc0 0d3c 38a7 fdbc 8853 c7bd
00000090: a6dd 753e 0064 3bbf 5c52 4bbd f1d1 16bf
000000a0: 20ca 81be b3ad fb3e 0c4a f43e 060e 983e
000000b0: 41d2 fdbe 4512 adbe 296d 5dbe 19c9 47be
000000c0: 1564 013e 2370 a23e b855 f03e 6067 e53e
000000d0: 9025 a43e 0a36 17be 7915 283e d9d6 cd3e
000000e0: 1bbf f03d 7710 1ebe 8233 9bbe f64f 14bf
000000f0: f245 02bf ea89 7fbe 475e b9be c114 bbbe
00000100: 01fb 043f c387 3bbf 00ac 9cbe b0f3 1ebf
00000110: 6acd 313f 9df6 b13b 7857 fd3c 2243 7c3e
00000120: 3778 72be a062 afbe 1ef7 f53e 5345 3a3e
00000130: 62c4 cebe fe37 5d3e 30cc 50bf 916a 03be
00000140: 97ff d43c 929c f63e 1e07 b2bd 5b55 6abe
00000150: 69b9 a0be 8785 583e 1fb8 953d fce0 ae3e
00000160: e348 1f3e 89db 70bd e365 cc3d 8488 923e
00000170: 98b0 463e 0e03 99bd a69c a33d 32a1 10be
00000180: 6fb4 52be c734 7a3e 65ac d1bb bac6 843e
00000190: b15d 203c 3bed 6abe 4ef2 18bd bc02 88be
000001a0: 15f5 e5bd 6a5d 033f eec7 e23e ca05 e23e
000001b0: 97fa 07bd 66ec 37be aa55 453d e90f d13e
000001c0: 6592 9f3d add4 e03e afde 1cbe 6656 423e
000001d0: ce2a aabe bf75 093f 0287 cabe 38cb e73c
000001e0: 5a44 87be 828e 25bc 874d 7a3e 6763 0abe
000001f0: 1ed8 d93e f2f9 633d f173 ab3e 29ae 003f
00000200: 951b 933d f3fe 143e 50d4 91be c812 b6be
00000210: 62ca 8b3c 8627 463e 8743 c93c ea38 3e3d
00000220: d258 25be 4314 9bbe 7968 a83d d897 483e
00000230: 188a c3bd 2f77 9c3e ee91 5e3d 38cb 02be
00000240: 4279 5e3e 2c75 9abe f44a 55bf 709a 3ebe
00000250: 68f1 843e 1304 be3e 7c1d 9b3d 2dc4 723e
00000260: dfa6 1cbb 22c1 92be b61e 9a3e 6ba2 85bd
00000270: aa5b 35be 7a53 2e3f 7d04 5abc e109 f43d
00000280: ee78 fe3e 056a 86be 7cca 81be 5a77 bd3d
00000290: 4307 10bd a9b2 9dbe d8ce 903e 56e4 3dbe
000002a0: 794e bb3e e5a9 23be b01a 33be f711 d23e
000002b0: fa12 6d3e 2943 6ebe 3e88 4fbe ed5f 83be
000002c0: 53d5 7c3d 3b7f a6be 2ee3 67be 6260 2dbf
000002d0: 001f f53d c7b5 d73e 8345 bebd 6637 95bd
000002e0: 60d7 31be 9af6 c5bd 7a53 9d3d 58f9 9e3e
000002f0: 7c17 7a3e e448 463c 1f29 b93e 1d24 05be
00000300: f590 92be 8376 ed3e db32 6a3e a33b 263e
00000310: 4e89 fcbe dcb2 293f 2a86 763d 4b2c 6b3e
00000320: 51cd 2dbe 493d c53e 6653 99be 85ba ffbd
00000330: 4f7f 943e a8a6 633e 2937 523f 9d9f 513e
00000340: 1372 b7be 476b f4be 885f 133f a4f9 373e
00000350: 590c a73e 50c6 053f 1790 b03e 31ed 303e
00000360: 6954 bc3e a5e7 2ebe 2490 e63d 515e a43c
00000370: d7e4 993e 5672 3b3f 6e06 4abe f83f 83bd
00000380: 8621 aebe 20e6 0cbe 0d58 ca3c 103d 23be
00000390: 1744 4cbb 37f1 22be 4a12 453e 3615 99bd
000003a0: c5dd 0cbe afcb 92bd 9fc4 c1bd 11e4 29bf
000003b0: bbbc a93d 8639 f53e ef6a b8be f374 88bd
000003c0: 5dd1 8fbc 0861 06bf 150f 553c 2620 f23d
000003d0: 456c 5fbe f720 4d3b b11a 83be 2551 3c3e
000003e0: f49c 953e e72c b63e a2dd c03e aa50 b93e
000003f0: b5ee 443e d482 aabe ed66 debe a137 203e
